models/ADA_USDT_model.pt (torch, 128181 bytes, 9 tensors)

lstm.weight_ih_l0 f4 [200, 1]
0	0xbcba212a	-0.022720892
1	0xbd9d45c5	-0.07679323
2	0xbdc44567	-0.0958355
3	0xbc69df44	-0.014274422
4	0xbd2d1a45	-0.04226138
5	0x3e14a3dd	0.14515634
6	0x3cc55383	0.024087673
7	0x3e2040b1	0.15649678
8	0xbde77b45	-0.11302809
9	0xbd51302e	-0.05107134
10	0x3df1a212	0.117984906
11	0x3e17990b	0.14804475
12	0xbded0f19	-0.11575145
13	0x3e1e0636	0.15432057
14	0x3d84217f	0.064517014
15	0x3d2394e2	0.039936908
16	0xbd3b329c	-0.04570256
17	0xbda4a92c	-0.080400795
18	0xbd96379c	-0.073348254
19	0xbd74ecff	-0.05979633
20	0x3bd497c7	0.00648782
21	0x3d2edbcd	0.042690087
22	0xbdd84877	-0.105606966
23	0x3db609d0	0.0888859
24	0xbd36b4bd	-0.04460596
25	0xbccb8f9c	-0.024848752
26	0x3d4311ad	0.04762428
27	0x3cbfd9a4	0.023419209
28	0xbd2508dc	-0.040291652
29	0xbe08fcfc	-0.13377756
30	0x3ddb53c6	0.10709338
31	0x3c8758bd	0.016521806
32	0x3dc6d015	0.09707657
33	0xbd48bf25	-0.049010415
34	0xbdd007d2	-0.101577416
35	0x3d5f06f7	0.05445
36	0xbe02f863	-0.12790065
37	0x3e095a9e	0.13413474
38	0xbd2b173b	-0.0417702
39	0x3e17812b	0.14795367
40	0x3e193614	0.14962035
41	0xbdf1fe0c	-0.11816034
42	0x3dc4098f	0.09572136
43	0x3d1748ba	0.03693459
44	0x3b975e9f	0.004619434
45	0x3dbbfa1d	0.09178565
46	0xbd84989e	-0.06474422
47	0x3dc2c2ca	0.09509809
48	0x3d24cdc2	0.04023529
49	0x3d868c10	0.065696836
50	0x3d7b337e	0.061328404
51	0x3dd82e2c	0.105556816
52	0xbc676872	-0.014124023
53	0x3d53e0c1	0.051728014
54	0x3de62325	0.11237172
55	0x3daead47	0.08529144
56	0xbddd8f64	-0.10818365
57	0xbded16b4	-0.11576596
58	0xbcddbff4	-0.02706907
59	0x3d3ef738	0.046622485
60	0x3daec34e	0.08533345
61	0xbd8ae372	-0.06781663
62	0xbddbc30e	-0.10730563
63	0x3d5b0617	0.053472605
64	0xbcfaa577	-0.030596478
65	0x3de0b108	0.10971266
66	0xbd603ed5	-0.05474742
67	0xbcd31286	-0.025765669
68	0x3d544d46	0.051831506
69	0x3c9b3ba9	0.018949347
70	0x3c953f9d	0.01821881
71	0x3dd59e3f	0.10430574
72	0xbc46e915	-0.012140532
73	0x3de20fe4	0.11038187
74	0x3dec1471	0.115273364
75	0xbddf52dc	-0.10904476
76	0xbcdd6415	-0.027025262
77	0x3c39d9cf	0.0113434335
78	0x3de4077f	0.11134242
79	0x3ddac487	0.10682016
80	0xbdb83315	-0.08994118
81	0xbdd467f8	-0.10371393
82	0x3d0eaf64	0.034835234
83	0xbaec6053	-0.0018034078
84	0xbd76c12a	-0.06024281
85	0xbdd9741a	-0.10617848
86	0xbd177fe3	-0.036987197
87	0xbbcf3d5c	-0.0063244533
88	0x3e259e0e	0.16173574
89	0x3e1bda4b	0.15219991
90	0xbc1ac4b0	-0.009446308
91	0xbd35e3eb	-0.044406813
92	0x3d9ec711	0.07752813
93	0xbe078bd2	-0.13236931
94	0xbd1a8ac5	-0.037729997
95	0x3ddb44a3	0.10706451
96	0xbd1a3eef	-0.037657674
97	0x3d925fdb	0.07147189
98	0xbd226d9b	-0.03965531
99	0xbc4e0b54	-0.012575943
100	0x3d0d882c	0.03455369
101	0xbe252cba	-0.16130343
102	0xbdffaf91	-0.124846585
103	0xbce4328a	-0.02785613
104	0x3dcc3d66	0.09972648
105	0x3e18ccb9	0.14921845
106	0xbd4263dd	-0.04745852
107	0x3d6ef72f	0.0583412
108	0x3c7532f5	0.014965762
109	0xbca7941d	-0.020456368
110	0x3d918c9c	0.07106897
111	0x3dde31c4	0.10849336
112	0xbe1f236f	-0.1554086
113	0x3d53861c	0.05164157
114	0x3d83b423	0.06430843
115	0x3ce273b4	0.027643062
116	0x3d79f4be	0.06102442
117	0x3dd07519	0.101785846
118	0xbdee4f77	-0.116362505
119	0xbde5301d	-0.111908175
120	0xbd75edda	-0.060041286
121	0x3d340bc8	0.043956548
122	0x3d4b8a37	0.04969236
123	0x3dd6e83c	0.10493514
124	0xbdb7be9d	-0.089719035
125	0xbb0d28f1	-0.0021539296
126	0x3e0afbd8	0.13572633
127	0x3ccb16c2	0.024791125
128	0x3e0c5f7b	0.13708298
129	0xbce802f2	-0.028321717
130	0x3e167ed4	0.14696819
131	0x3d715c4c	0.05892591
132	0x3d77d879	0.06050918
133	0xbdcca269	-0.09991915
134	0xbcf93d2e	-0.03042468
135	0x39ab68c4	0.00032693718
136	0x3d5cd942	0.05391813
137	0xbe02cb08	-0.12772763
138	0xbb07c8a2	-0.0020718952
139	0x3dcad6cd	0.09904251
140	0xbd5a506f	-0.053299364
141	0x3e0ffbd2	0.14060906
142	0xbdef1d19	-0.11675472
143	0x3bc99879	0.0061522094
144	0x3c17cc9f	0.009265094
145	0x3d8ad69f	0.06779217
146	0xbb4a8735	-0.0030903344
147	0x3dedcd55	0.116114296
148	0x3de6c879	0.11268706
149	0x3dabfb4b	0.0839754
150	0x3e0f0ab4	0.13968927
151	0x3e06322d	0.13105078
152	0x3d85ff55	0.06542841
153	0x3db26d4c	0.08712253
154	0xbda16a40	-0.07881594
155	0x3df9612d	0.12176738
156	0xbdcc72d9	-0.09982843
157	0xbdd2e707	-0.10297971
158	0x3d8c2aac	0.068440765
159	0xbda4487a	-0.08021636
160	0xbe00c41a	-0.12574807
161	0xbb1e3399	-0.0024139641
162	0x3b299857	0.0025878155
163	0xbd7113ea	-0.058856882
164	0x3cc06d5d	0.023489648
165	0x3d81d404	0.06339267
166	0x3d3855e7	0.045003798
167	0xbdad4504	-0.08460429
168	0x3db25930	0.087084174
169	0xbdc0cd68	-0.09414178
170	0xbdcad17a	-0.09903236
171	0xbde61b59	-0.11235685
172	0x3cb8f49d	0.022577578
173	0xbddcf562	-0.107889906
174	0xbd8f9394	-0.0701057
175	0xbdb3a9d4	-0.087726265
176	0x3d98bd34	0.07457963
177	0xbbbfadaf	-0.005849562
178	0xbd6e37ea	-0.058158793
179	0x3d91ea17	0.07124727
180	0xbdbc4bf3	-0.09194174
181	0x3cc8a6d8	0.02449362
182	0x3e07398c	0.13205546
183	0xbd3c33ee	-0.04594796
184	0x3d8f7723	0.070051454
185	0x3e1e2a8e	0.15445921
186	0x3c455c0c	0.0120458715
187	0x3cff04ca	0.031130213
188	0x3da73663	0.0816467
189	0x3e0d658d	0.1380827
190	0xbce81569	-0.028330522
191	0x3d13cbf3	0.036083173
192	0x3df87886	0.12132363
193	0xbdf758ba	-0.1207747
194	0x3d6504e6	0.055912875
195	0xbd761711	-0.06008059
196	0x3d201928	0.03908649
197	0xbd5af662	-0.053457625
198	0x3e0cf692	0.13765934
199	0x3de8a082	0.113587394

lstm.weight_hh_l0 f4 [200, 50]
0	0x3e18c650	0.149194
1	0x3d9316ed	0.07182107
2	0xbdd231cb	-0.102634035
3	0x3d488d13	0.048962664
4	0x3d665d83	0.056241523
5	0xbd2c5f04	-0.0420828
6	0x3d7b8300	0.06140423
7	0x3d4e0247	0.05029514
8	0xbd772d98	-0.060346216
9	0xbb9b10b0	-0.004732214
10	0xbdc14475	-0.09436885
11	0x3e09d13b	0.13458721
12	0xbcec6764	-0.028857894
13	0xbc382e86	-0.011241561
14	0xbe15862c	-0.14601964
15	0xbdc5a97f	-0.096514694
16	0x3b9d5424	0.00480129
17	0x3e02d7b1	0.12777592
18	0x3df9df0f	0.12200748
19	0xbce2f00a	-0.02770235
20	0x3dd43d22	0.10363223
21	0xbdbd4641	-0.092419155
22	0xbc03377d	-0.008008835
23	0x3da8d881	0.0824442
24	0x3dea1fb5	0.11431829
25	0x3e20d187	0.15704928
26	0xbd14cf54	-0.036330536
27	0x3c9253f6	0.017862301
28	0x3ca5c6f3	0.020236468
29	0x3c8ce659	0.017199682
30	0x3de55610	0.11198056
31	0xbc719596	-0.014745137
32	0x3dacf849	0.08445794
33	0xbd987c83	-0.07445624
34	0x3de8be9e	0.11364482
35	0xbdcc501f	-0.099762194
36	0x3d6facb3	0.05851431
37	0xbcc0d503	-0.023539072
38	0xbdbca378	-0.09210867
39	0x3de4a7f5	0.11164848
40	0xbc6c792e	-0.014433188
41	0xbd193f6a	-0.037413992
42	0x3dbd0916	0.09230249
43	0x3dcb37b2	0.099227324
44	0x3e0d4b3f	0.13798235
45	0xbdbffb2e	-0.093740806
46	0xbdc292af	-0.09500634
47	0x3d687698	0.056753725
48	0x3de25649	0.11051614
49	0xbd380dd8	-0.044935077
50	0xbdbf9b21	-0.0935576
51	0x3c9d3547	0.019190444
52	0x3ceb85ba	0.02875029
53	0xbde445ef	-0.11146151
54	0x3d11dbaa	0.03560988
55	0x3ab67339	0.0013919837
56	0xbe1d9f68	-0.1539284
57	0x3bb4360a	0.005499606
58	0x3d943863	0.072373174
59	0xbda06fd4	-0.078338295
60	0x3b79d88b	0.0038123454
61	0x3e18919d	0.14899297
62	0xbd8423d9	-0.0645215
63	0xbd072f9b	-0.033004384
64	0x3de86609	0.11347587
65	0x3d67106e	0.056412153
66	0xbd7d800d	-0.061889697
67	0x3e1d16ef	0.1534078
68	0xbd740f75	-0.059585053
69	0x3d4d3cf2	0.05010695
70	0x3d4af6e5	0.049551863
71	0x3d93cd07	0.0721684
72	0x3d868440	0.065681934
73	0x3e07845c	0.13234085
74	0x3c65fe4a	0.014037678
75	0x3e0487e7	0.12942468
76	0xbddaf615	-0.10691468
77	0x3e0ea9e1	0.13931991
78	0x3df9da5e	0.12199853
79	0xbc48c00b	-0.012252818
80	0xbd82f029	-0.06393463
81	0xbd026b6b	-0.031840723
82	0x3c827a7f	0.015927551
83	0xbe014b98	-0.12626493
84	0xbd430798	-0.047614664
85	0x3d20902d	0.039199997
86	0x3e1404cf	0.1445496
87	0xbd259743	-0.040427458
88	0xbdda545d	-0.10660622
89	0xbdbf13b6	-0.093299314
90	0x3d8e4993	0.06947627
91	0xbda445f7	-0.08021157
92	0x3ccc7484	0.024957903
93	0xbd1d40c7	-0.038391855
94	0x3ca65bcd	0.020307446
95	0x3df073f2	0.11740865
96	0xbd2d0fda	-0.042251445
97	0xbc473308	-0.012158163
98	0x3dfe02c3	0.124028705
99	0xbda0e597	-0.07856291
100	0x3d9583d6	0.07300536
101	0xbd67ff40	-0.05663991
102	0x3d9a45b4	0.07532826
103	0x3dae5da4	0.08513954
104	0x3c73a6fc	0.014871355
105	0xbd7870fe	-0.060654633
106	0xbda67168	-0.08127099
107	0xbdbc956c	-0.092081875
108	0xbc1fbec4	-0.009750072
109	0xbdcf6904	-0.10127452
110	0xbdf74bf4	-0.12075034
111	0x3d43f5c4	0.047841802
112	0xbd129fe6	-0.035797022
113	0x3dccc5ce	0.09998666
114	0x3debee23	0.1152003
115	0x3bf3b622	0.0074374834
116	0x3d61b0e4	0.055100337
117	0x3de3b269	0.111180134
118	0x3e0b88e3	0.13626437
119	0xbdae02ba	-0.08496614
120	0xbdd5258a	-0.10407551
121	0x3dcc57e3	0.099777006
122	0xbde17421	-0.11008478
123	0xbdb73fcb	-0.089477144
124	0xbdd48103	-0.103761695
125	0x3dcf613d	0.101259686
126	0xbdcbc3c0	-0.09949446
127	0xbd9224c8	-0.07135922
128	0xbcbf41a0	-0.023346722
129	0xbd9657be	-0.07340954
130	0xbdb8d22d	-0.09024463
131	0xbd6d3086	-0.057907604
132	0x3db3d0f9	0.08780093
133	0xbdd3cbcf	-0.10341608
134	0x3c519181	0.0127910385
135	0xbdf1d0ab	-0.118073784
136	0x3d731a9b	0.059351545
137	0x3e0c817b	0.13721268
138	0xbd7917be	-0.060813658
139	0xbdf1b149	-0.118013926
140	0x3dbb2b88	0.09139162
141	0xbb214622	-0.0024608453
142	0x3d5e1aa5	0.05422463
143	0x3cb48c7f	0.02203965
144	0xbd513127	-0.051072266
145	0xbdb80e72	-0.0898713
146	0xbe00f41b	-0.12593119
147	0xbdaf1f5f	-0.085509054
148	0xbcea48dd	-0.028599197
149	0x3e0291da	0.1275095
150	0x3d1f0ae7	0.038828757
151	0xbbfd3ed4	-0.007728437
152	0xbdb218f1	-0.086961634
153	0xbce2d793	-0.027690684
154	0x3d4764a7	0.048679974
155	0xbd3d9527	-0.04628482
156	0x3db01488	0.08597666
157	0xbe0233ef	-0.12715124
158	0x3cb9664f	0.022631792
159	0xbd191635	-0.037374694
160	0xbcf3d22c	-0.029763304
161	0xbdac319f	-0.08407902
162	0xbca3d7be	-0.020000335
163	0xbda2f50a	-0.07956894
164	0x3cc166f3	0.02360866
165	0xbe0a7fb1	-0.13525273
166	0x3cee3869	0.029079633
167	0xbd3b0c8e	-0.04566627
168	0x3ce39bea	0.027784307
169	0xbd5fef81	-0.054671768
170	0x3e02b816	0.12765536
171	0xbd48783a	-0.048942782
172	0x3db17884	0.08665565
173	0xbc39e9bb	-0.01134723
174	0xbe04a2ff	-0.12952803
175	0x3cfb3766	0.030666064
176	0xbd826eca	-0.063687876
177	0xbddbf1bc	-0.107394665
178	0xbd359a47	-0.044336583
179	0x3cd4e99b	0.025990298
180	0xbd8fd6f5	-0.07023422
181	0x3e042b5f	0.1290717
182	0x3da9f31a	0.08298321
183	0x3c1d43bc	0.009598669
184	0xbcf488f9	-0.02985047
185	0xbdc4f0e6	-0.0961626
186	0x3dceb165	0.10092429
187	0x3df1a5eb	0.117992245
188	0x3da52052	0.08062805
189	0x3e1d488a	0.15359703
190	0xbda27e0e	-0.07934199
191	0xb9ede31b	-0.0004537337
192	0x3e00878b	0.12551706
193	0xbd12949b	-0.035786252
194	0x3dff3ea7	0.12463122
195	0xbdf13981	-0.11778546
196	0x3d87f14e	0.06637822
197	0xbd8fcd0e	-0.07021533
198	0x3d874d16	0.066065
199	0x3dc7a1ce	0.09747659
200	0xbcec075b	-0.028812101
201	0x3d96d9b1	0.0736574
202	0x3db1508a	0.0865794
203	0x3d001d60	0.031278014
204	0x3cfb16fc	0.030650608
205	0x3dd023d1	0.101630814
206	0xbe03d967	-0.12875901
207	0x3dbbf93e	0.091783985
208	0x3dd3f701	0.10349847
209	0x3cf5387d	0.029934162
210	0x3ddfb7c7	0.109237246
211	0x3d0715ca	0.032979764
212	0xbdb74708	-0.08949095
213	0xbc01a707	-0.007913358
214	0xbe072b54	-0.13200122
215	0xbcfd3086	-0.030906927
216	0xbd7a827a	-0.06115959
217	0x3e0444d4	0.12916881
218	0x3db5c1bf	0.08874845
219	0xbdb494f4	-0.08817473
220	0x3da61242	0.08108951
221	0x3aa2ab93	0.0012410752
222	0x3cef4dd2	0.029211912
223	0xbd8d08e9	-0.06886465
224	0xbe0378f7	-0.12839113
225	0x3d712cc3	0.05888058
226	0x3d06d7e6	0.03292074
227	0xbdf48b4b	-0.119406305
228	0xbc11a927	-0.008890427
229	0xbd9440e6	-0.07238941
230	0x3cb19538	0.021677598
231	0xbd5b137b	-0.053485375
232	0x3df0e050	0.11761534
233	0x3dbc0e05	0.091823615
234	0x3e0fe53c	0.1405229
235	0x3d62cf05	0.05537321
236	0xbd7ad5db	-0.061239105
237	0x3e038560	0.12843847
238	0xbc1b496e	-0.009477956
239	0x3d4e6ebe	0.05039858
240	0x3dcd5b16	0.10027139
241	0x3d467ab6	0.04845687
242	0xbe200a85	-0.15629013
243	0x3dc16c5b	0.09444495
244	0xbdfb9aac	-0.12285361
245	0xbe249e9e	-0.16076133
246	0xbd839e4d	-0.06426678
247	0xbde398a3	-0.111130975
248	0x3da2e863	0.079544805
249	0xbd6f5b30	-0.058436573
250	0x3df8e448	0.12152916
251	0xbda82093	-0.08209338
252	0x3de30467	0.11084824
253	0x3ce602c0	0.028077483
254	0x3aa102f5	0.0012284206
255	0x3dd4369a	0.10361977

lstm.bias_ih_l0 f4 [200]
0	0xbdc9bba1	-0.098502405
1	0xbde8cab3	-0.11366787
2	0xbe0abe42	-0.1354914
3	0xbd4eec90	-0.050518572
4	0x3dd7b18e	0.10531913
5	0x3d686070	0.056732595
6	0x3dbd31ee	0.09238039
7	0xbd9bd154	-0.076082855
8	0x3da7f2ee	0.08200632
9	0xbd8ea6ca	-0.06965406
10	0xbd5ff2f1	-0.054675046
11	0x3c1123f2	0.008858668
12	0x3df5a77b	0.11994835
13	0xbd3cf566	-0.046132468
14	0x3c898d00	0.016790867
15	0xbd9c453a	-0.076303914
16	0x3cbff55c	0.023432426
17	0xbc5e1968	-0.013555862
18	0xbd1bcce4	-0.038037196
19	0x3dbb1c52	0.09136261
20	0xbdc731d5	-0.097263016
21	0x3d4d9b39	0.05019686
22	0x3dae9b2b	0.0852569
23	0xbb808454	-0.0039220247
24	0xbcbaa7a0	-0.022785008
25	0x3e0cccc2	0.13749984
26	0x3d4a2866	0.049354933
27	0x3d36752d	0.04454534
28	0x3e1d48fb	0.15359871
29	0x3d3abd0a	0.045590438
30	0x3e051ed7	0.13000046
31	0xbc9aace6	-0.018881273
32	0xbda53cd5	-0.080682434
33	0xbdf42589	-0.11921222
34	0xbd2d065a	-0.042242385
35	0xbdea9d04	-0.114557296
36	0xbd431ee7	-0.047636893
37	0x3e066c40	0.13127232
38	0x3d9fdf37	0.07806247
39	0x3c4f9323	0.0126693575
40	0x3d6a7616	0.05724152
41	0x3db6bf84	0.089232475
42	0x3db3ce72	0.08779611
43	0x3d561303	0.052264225
44	0x3cd2e7d4	0.02574531
45	0x3e042f9a	0.12908784
46	0xbd19643e	-0.037449114
47	0xbdd055f1	-0.10172642
48	0x3d9fda82	0.07805349
49	0xbdc133ad	-0.094336845
50	0xbdec665a	-0.115429595
51	0xbb702216	-0.003664141
52	0xbab9c93e	-0.0014174355
53	0x3dad1359	0.08450956
54	0x3e121ee5	0.14269598
55	0xbdabb573	-0.08384218
56	0xbd0165c1	-0.03159118
57	0x3dfbbc50	0.12291777
58	0x3d610126	0.054932736
59	0x3da8d64e	0.082440004
60	0x3ddfee39	0.10934109
61	0xbdb88b9d	-0.09011004
62	0xbd6f201b	-0.058380228
63	0xbd88f6c9	-0.066876955
64	0x3dfa2bad	0.12215362
65	0xbd4e84c6	-0.05041959
66	0xbccac289	-0.024750965
67	0x3e0d1053	0.13775758
68	0x3d03ad02	0.032147415
69	0xbd889cc2	-0.06670524
70	0xbdb38c75	-0.087670244
71	0xbc355098	-0.011066578
72	0xbdcf6f3b	-0.101286374
73	0x3c86726f	0.016411988
74	0xbdeb11a1	-0.11477972
75	0xbc1ba7ce	-0.009500457
76	0x3dd5ae4e	0.104336366
77	0xbd8732f1	-0.06601513
78	0xbdadf0fa	-0.08493228
79	0x3d7ccaea	0.06171695
80	0x3de94875	0.11390773
81	0xbd067943	-0.032830488
82	0xbd497675	-0.049185235
83	0x3df31255	0.11868731
84	0xbd6629f8	-0.05619237
85	0xbd1fb349	-0.03898934
86	0x3db44342	0.08801891
87	0x3e04d975	0.12973578
88	0x3e1cec40	0.15324497
89	0xbc590670	-0.013246164
90	0x3ba048a6	0.004891473
91	0xbd373376	-0.04472681
92	0x3d3ced6b	0.046124857
93	0x3d8a2c8b	0.06746777
94	0xbcd68700	-0.02618742
95	0x3e0a2828	0.13491881
96	0xbd640d1a	-0.055676557
97	0x3cc2d751	0.023784311
98	0xbd875050	-0.06607115
99	0xbba0b83d	-0.0049047754
100	0x3df12c6c	0.11776051
101	0x3d856630	0.06513631
102	0x3db54e51	0.08852828
103	0xbc09da42	-0.008413853
104	0x3d85afb5	0.06527654
105	0x3e194a8f	0.14969848
106	0xbdecec61	-0.11568523
107	0x3d785859	0.06063113
108	0xbcbf3e5c	-0.023345165
109	0x3d962088	0.073304236
110	0xbd369e1f	-0.04458439
111	0x3d1e1428	0.03859344
112	0xbd882d29	-0.066492386
113	0x3dc343ac	0.09534392
114	0xbddd707b	-0.108124696
115	0xbd93653c	-0.07197043
116	0x3d2e3d25	0.04253878
117	0x3debcc35	0.11513559
118	0xbcd75bf6	-0.026288968
119	0x3e0100f9	0.12598027
120	0x3d20a1c4	0.03921677
121	0x3dcdd26b	0.100499
122	0x3b133826	0.0022463887
123	0x3d73dcd7	0.05953678
124	0x3d4c3879	0.049858544
125	0x3e1520c0	0.14563274
126	0xbd4ede53	-0.050504994
127	0x3e102695	0.14077218
128	0x3e0396fb	0.12850563
129	0xbe147a9c	-0.14499897
130	0xbca97f73	-0.020690655
131	0xbdcb927b	-0.09940048
132	0x3da6d5a3	0.08146217
133	0xbe23a392	-0.15980366
134	0x3df39cdf	0.11895155
135	0x3e0aab0a	0.13541809
136	0x3da9d15c	0.08291885
137	0xbd0fb8c6	-0.035088323
138	0xbe182038	-0.1485604
139	0xbde2072a	-0.11036523
140	0x3e216b8f	0.15763687
141	0x3dd25976	0.102709696
142	0xbd9962ac	-0.07489523
143	0x3d2c8c61	0.042126063
144	0x3e1b3f57	0.15160881
145	0xbd390a59	-0.045175884
146	0x3cbca42a	0.023027498
147	0x3df106e4	0.117688924
148	0x3d8cd76b	0.06877025
149	0x3dfa6640	0.12226534
150	0xbd0c78ed	-0.03429501
151	0xbd48e788	-0.04904893
152	0x3dc5dc3e	0.096611485
153	0x3b93c913	0.004510054
154	0xbd5e42f6	-0.054263078
155	0x3cefb5cb	0.02926149
156	0x3a733163	0.00092770736
157	0xbdd4e0e8	-0.1039446
158	0x3e1352a1	0.14386989
159	0x3d3018ed	0.04299252
160	0xbcd654d5	-0.026163498
161	0xbcf0ec20	-0.029409468
162	0x3da7cd65	0.08193473
163	0x3d193838	0.03740713
164	0x3db740bb	0.08947893
165	0x3d3ee675	0.0466065
166	0xbd056504	-0.03256704
167	0x3c97c0ec	0.01852461
168	0x3e131db1	0.14366795
169	0x3d88d80c	0.06681833
170	0xbd7c53fe	-0.06160354
171	0x3d18f380	0.037341595
172	0x3e005884	0.12533766
173	0xbd223f47	-0.039611127
174	0x3e12a150	0.14319348
175	0xbc8015a2	-0.015635315
176	0x3dcc49ee	0.099750385
177	0xbdd14163	-0.1021755
178	0xbbc1e274	-0.005916888
179	0x3d31d4d6	0.043415867
180	0x3dbedd7b	0.09319588
181	0xbd1b6313	-0.03793628
182	0xbdcc4009	-0.09973151
183	0x3d8aa74d	0.06770191
184	0x3d956bfa	0.072959855
185	0x3e173dba	0.1476964
186	0x3d89f902	0.067369476
187	0xbe0c22c0	-0.13685131
188	0x3de2028a	0.110356405
189	0x3bf03d4c	0.007331526
190	0xbcfa9a3d	-0.030591125
191	0x3da12716	0.07868783
192	0x3d985f09	0.074400015
193	0x3d8b8489	0.068123884
194	0xbd9d8393	-0.076911114
195	0xbd8f69ab	-0.070025764
196	0xbb15377d	-0.002276867
197	0xbd74b28e	-0.059740596
198	0x3cd6c241	0.026215674
199	0x3e137076	0.14398369

lstm.bias_hh_l0 f4 [200]
0	0xbc6e5038	-0.014545493
1	0x3da7bc50	0.08190215
2	0xbe00224c	-0.12513083
3	0xbdaf9f25	-0.08575276
4	0x3d83892e	0.06422649
5	0x3df9cf83	0.12197783
6	0xbd27cbcf	-0.04096585
7	0x3de0eebb	0.10983034
8	0x3df889e5	0.12135676
9	0xbdc482a6	-0.09595232
10	0xbdd96c6b	-0.10616382
11	0xbdb61a71	-0.08891762
12	0x3d83a937	0.064287595
13	0x3da67d8f	0.08129417
14	0xbd8b7612	-0.068096295
15	0xbde9dacd	-0.11418686
16	0xbce650d0	-0.028114706
17	0x3d9192a9	0.07108051
18	0xbd02518d	-0.031816054
19	0xbdd2f1b1	-0.10300005
20	0x3d0f1113	0.034928393
21	0xbd1d57b1	-0.038413707
22	0xbdde882c	-0.108658165
23	0xba89f3fc	-0.0010524984
24	0xbba97605	-0.0051715397
25	0x3bf9d038	0.0076236986
26	0xbdace00e	-0.084411725
27	0xbc9f647a	-0.01945709
28	0x3d17f07f	0.03709459
29	0xbdb75992	-0.08952631
30	0xbd715b13	-0.058924746
31	0x3d633b13	0.05547626
32	0x3db5677e	0.0885763
33	0x3e0ab371	0.13545014
34	0x3d995169	0.07486231
35	0x3d94a099	0.07257194
36	0xbd93a5b8	-0.07209343
37	0x3dd43912	0.10362448
38	0x3db0fef9	0.08642382
39	0xbd0884a0	-0.033329606
40	0x3e0a1a1e	0.13486525
41	0x3cbe54f7	0.023233874
42	0x3c1f88cf	0.009737208
43	0xbda2cfc6	-0.07949786
44	0x3d9fb1f6	0.07797615
45	0xbdd73de7	-0.10509854
46	0xbddfabd8	-0.109214485
47	0x3d391799	0.04518852
48	0x3c0afa5b	0.008482541
49	0xbdf00735	-0.11720125
50	0x3e0d9708	0.13827145
51	0xbdc32409	-0.095283575
52	0x3c2f6dae	0.010707302
53	0xba73d576	-0.00093015225
54	0xbde488d5	-0.11158911
55	0xbd1126d1	-0.03543741
56	0x3d8b4369	0.06799967
57	0xbd840abc	-0.0644736
58	0xbd81dfc1	-0.06341506
59	0x3d5b40c6	0.05352857
60	0xbc81391a	-0.015774298
61	0xbd7c109d	-0.06153928
62	0x3e22bac2	0.15891555
63	0xbd84d079	-0.064850755
64	0xbd64cc80	-0.05585909
65	0x3d824a04	0.063617736
66	0xbdce1bd4	-0.100639015
67	0xbdecf487	-0.115700774
68	0x3c87cec9	0.016578095
69	0xbceb1c63	-0.02870006
70	0xbe0d97be	-0.13827416
71	0x3e133c36	0.14378437
72	0xbd6fa488	-0.05850652
73	0x3d794b22	0.060862668
74	0x3e112a5c	0.14176315
75	0x3c2a0608	0.0103774145
76	0x3d73e429	0.059543762
77	0xbc76e506	-0.015069252
78	0xbde4c3c2	-0.1117015
79	0xbdfaa8cd	-0.122392274
80	0x3e03a3ff	0.12855528
81	0x3e0c1e4f	0.13683437
82	0xbdc7cc2a	-0.09755738
83	0x3d777c3f	0.060421225
84	0x3e12763a	0.14302912
85	0x3d8627e3	0.065505765
86	0xbc9198bf	-0.01777303
87	0x3e0a3805	0.13497932
88	0x3cc9a29b	0.02461367
89	0x3dee7d9e	0.11645053
90	0xbb64cfb3	-0.0034913837
91	0xbd958fe2	-0.07302834
92	0xbc69bc93	-0.014266151
93	0xbd5bc86c	-0.053657934
94	0xbe035ef7	-0.12829195
95	0xbcd3b610	-0.02584365
96	0x3e0d8109	0.13818754
97	0xbca0ede2	-0.019644681
98	0x3e030980	0.12796593
99	0x3dc67a3e	0.096912846
100	0x3de275f6	0.110576555
101	0x3b25bb7c	0.0025288751
102	0xbe0c0360	-0.13673162
103	0x3e16d40d	0.14729328
104	0xbd5f0fa7	-0.054458287
105	0xbddb6c82	-0.107140556
106	0x3d140771	0.03613991
107	0x3db962b6	0.09052031
108	0xbd304f34	-0.043044284
109	0x3da3f66b	0.08005985
110	0xbde4fb1b	-0.11180707
111	0x3cc1fe09	0.023680704
112	0xbc7c8cab	-0.015414397
113	0x3bdc1bb9	0.006717172
114	0xbc9a044d	-0.018800879
115	0xbd506fd2	-0.05088789
116	0xbd13ba40	-0.036066294
117	0x3ded09e9	0.11574156
118	0x3d9f3d25	0.07775334
119	0x3e1f21e9	0.1554028
120	0x3d76ed17	0.0602847
121	0xbce2bc2d	-0.02767762
122	0xbe09c9a6	-0.13455829
123	0xbe01f6ff	-0.12691878
124	0xbd5bfd78	-0.053708524
125	0x3e030bf7	0.12797533
126	0x3d60bca6	0.05486741
127	0x3d066781	0.032813553
128	0x3df02d79	0.11727423
129	0x3d9506c7	0.07276683
130	0x3df57f91	0.11987222
131	0x3e1e006d	0.1542985
132	0x3c813a03	0.015774732
133	0x3c9758da	0.018474985
134	0x3d2e98ea	0.0426263
135	0x3d9065a9	0.0705064
136	0x3da9beca	0.08288343
137	0x3e0d3d30	0.13792872
138	0xbc1426c5	-0.0090424465
139	0x3df9c4f8	0.12195772
140	0xbb4c2cc9	-0.0031154624
141	0xbdd34c12	-0.10317244
142	0x3dd1dd86	0.1024733
143	0x3de557d3	0.11198392
144	0xbdf52e9a	-0.11971779
145	0xbe035607	-0.12825786
146	0xbe05d939	-0.13071145
147	0xbd75929d	-0.059954274
148	0x3d8dddd1	0.06927074
149	0x3d6cb781	0.05779219
150	0x3e10a5b2	0.14125708
151	0xbd9d5b4e	-0.076834306
152	0x3de0f749	0.10984666
153	0x3e0b81aa	0.13623682
154	0x3e07abe5	0.13249166
155	0x3ddc0c81	0.107445724
156	0xbdc7e5dc	-0.09760639
157	0x3da60dde	0.08108114
158	0xbd233c16	-0.039852224
159	0xbdc78905	-0.09742931
160	0x3d830bb6	0.06398718
161	0xbdd0fdbb	-0.10204645
162	0xbd6c44f0	-0.05768293
163	0x3dd51c81	0.10405827
164	0xbd57e7d6	-0.05271133
165	0x3d84d501	0.0648594
166	0xbdd3756d	-0.103251316
167	0xbb98899b	-0.0046550757
168	0x3daff4e0	0.08591628
169	0x3dd66208	0.10467917
170	0xbdc57523	-0.09641483
171	0x3d6a80f8	0.0572519
172	0xbd82f21a	-0.063938335
173	0xbddaa626	-0.106762215
174	0xbd7ca14a	-0.061677255
175	0xbdd143fa	-0.102180436
176	0xbdeeb39a	-0.1165535
177	0x3dd70432	0.10498847
178	0x3d6e4168	0.058167845
179	0xbd8898b8	-0.06669754
180	0x3da64fba	0.081206754
181	0xbd751142	-0.05983091
182	0x3ca7b67c	0.020472758
183	0x3e02a20c	0.12757128
184	0x3ccd2302	0.025041107
185	0xbce7dc9b	-0.028303435
186	0xbe0a5b80	-0.13511467
187	0xbbebdcce	-0.007197953
188	0x3d2a1095	0.04151972
189	0x3e0eb8e6	0.1393772
190	0xbc69c344	-0.014267746
191	0x3c9ddf4d	0.019271517
192	0x3cb13e7c	0.02163624
193	0x3da43e6b	0.08019718
194	0x3cca42e4	0.024690099
195	0x3d4ba494	0.0497175
196	0x3dffe0e7	0.124940686
197	0xbd2baed0	-0.04191476
198	0x3cd54654	0.026034512
199	0xbd37b6bf	-0.044852015

lstm.weight_ih_l1 f4 [200, 50]
0	0x3dd7548b	0.10514172
1	0x3d3a58da	0.04549489
2	0x3dba420b	0.09094628
3	0x3e09b569	0.13448109
4	0x3e074efa	0.13213721
5	0xbd0c893c	-0.034310564
6	0xbb90c466	-0.004417944
7	0xbb8246ce	-0.0039757257
8	0x3de3738f	0.111060254
9	0xbd93500e	-0.071930036
10	0x3ddaaa76	0.10677044
11	0x3de2e000	0.11077881
12	0xbdc4917a	-0.0959806
13	0x3c729930	0.014807031
14	0xbc98a532	-0.018633459
15	0xbc059c9b	-0.008155013
16	0x3d755af2	0.059901185
17	0xbde077a3	-0.10960319
18	0xbde06b25	-0.10957936
19	0x3dda23c5	0.10651354
20	0x3da16403	0.07880404
21	0xbd5f4a02	-0.05451394
22	0xbe17ae74	-0.14812642
23	0xbd9b9e90	-0.07598603
24	0xbdaffe73	-0.08593454
25	0xbd4e3a11	-0.050348345
26	0x3e101a06	0.14072427
27	0x3d134ebb	0.035963755
28	0x3e1b86a5	0.15188082
29	0x3dd55569	0.10416681
30	0x3e0f49f9	0.13993062
31	0xbd6540a0	-0.055969834
32	0xbd9c293d	-0.07625053
33	0x3d62c698	0.055365175
34	0xbda2d506	-0.07950787
35	0xbc9d1457	-0.019174738
36	0xbd950af7	-0.07277482
37	0xbc84d683	-0.016215568
38	0xbe241809	-0.16024794
39	0xbca3cea0	-0.019995987
40	0xbd1cfd5b	-0.038327556
41	0xbc79511c	-0.015217092
42	0xbcd0501f	-0.02542883
43	0xbbaedfe5	-0.005336749
44	0xbdef9042	-0.11697437
45	0xbc8d3dae	-0.017241325
46	0xbc7fa3ba	-0.015603
47	0xbbc1c3e1	-0.005913243
48	0xbd66585e	-0.056236617
49	0x3e0f7ded	0.1401288
50	0x3d04c494	0.032414034
51	0x3dd83682	0.105572715
52	0x3d8e5498	0.06949729
53	0xbd44e42f	-0.048069175
54	0x3dc900b6	0.09814589
55	0xbcf5d3ce	-0.030008223
56	0x3d756c40	0.05991769
57	0x3e030ee3	0.12798648
58	0x3d802f7e	0.062590584
59	0xbe0db2a7	-0.13837682
60	0xbdb4d617	-0.08829897
61	0xbde8c34c	-0.11365375
62	0xbdcfb1e5	-0.101413526
63	0xbdae470a	-0.085096434
64	0xbd42385d	-0.047417033
65	0xbadc819f	-0.0016823298
66	0x3dd29421	0.102821596
67	0x3d320ea2	0.043470986
68	0xbca01a56	-0.019543808
69	0xbdd47e24	-0.10375622
70	0xbda1fecb	-0.07909926
71	0xbcc4f65b	-0.024043253
72	0xbd711de3	-0.058866393
73	0xbe010bee	-0.12602207
74	0xbd68d826	-0.05684676
75	0xbdd1da61	-0.102467306
76	0x3db7b519	0.089700885
77	0xbb876bf0	-0.00413274
78	0x3d8304f3	0.06397428
79	0x3dc8f561	0.09812427
80	0x3d9c1916	0.07621972
81	0xbd101405	-0.035175342
82	0x3d990984	0.07472518
83	0x3d8d1487	0.06888681
84	0xbdb9a522	-0.090647
85	0x3d1939f6	0.03740879
86	0x3d998065	0.074951924
87	0x39085fc7	0.0001300565
88	0x3dde6d6c	0.10860714
89	0x3d45f7c4	0.04833199
90	0xbe01eb86	-0.12687501
91	0xbca2b64b	-0.019862315
92	0xbdb9620f	-0.09051906
93	0x3de534d1	0.111917146
94	0xbd1bdd46	-0.03805282
95	0xbdeeed3b	-0.11666342
96	0x3d98e422	0.07465388
97	0x3d80c3dd	0.06287358
98	0xbe0e552b	-0.13899677
99	0x3c4eab27	0.012614048
100	0x3d7dc261	0.061952952
101	0x3e01b7d8	0.12667787
102	0x3e0f6923	0.1400495
103	0xbd123f74	-0.035705045
104	0xbcd5832d	-0.026063526
105	0x3ca5bebd	0.020232553
106	0xbdd8f596	-0.10593717
107	0x3bc9fff7	0.0061645466
108	0x3e1136c7	0.14181052
109	0xbd8d7ae6	-0.06908207
110	0x3df07c63	0.11742475
111	0x3d856a95	0.065144695
112	0xbdb197e7	-0.08671551
113	0xbc901a4e	-0.017590668
114	0x3da4a19d	0.08038638
115	0x3dd6f62e	0.10496174
116	0x3da80419	0.082039066
117	0xbdbbe0f6	-0.09173767
118	0x3cda61b0	0.02665791
119	0x3de3e394	0.111273915
120	0x3d9724ee	0.07380091
121	0x3a519a46	0.0007995706
122	0xbd72dc92	-0.059292383
123	0x3e077358	0.13227594
124	0xbdc9ba91	-0.09850038
125	0xbd8fe8d2	-0.07026829
126	0xbbd53f75	-0.006507809
127	0x3dded053	0.108795784
128	0xbd0f9c29	-0.035061035
129	0x3e106fa3	0.14105086
130	0x3d5b0127	0.053467896
131	0x3d8bcae2	0.06825806
132	0xbd886e26	-0.06661634
133	0x3e04fb65	0.12986524
134	0xbb43abec	-0.0029857112
135	0xbe174673	-0.14772968
136	0x3cce3233	0.025170421
137	0xbd5715c1	-0.05251098
138	0xbd959c73	-0.07305231
139	0xbdf0d6e0	-0.11759734
140	0x3dad3cc1	0.084588535
141	0xbdda560d	-0.10660944
142	0xbd8cf782	-0.06883146
143	0x3c6bb65c	0.01438674
144	0xbd8d4dd5	-0.06899611
145	0x3e0098be	0.12558267
146	0xbb819564	-0.0039545763
147	0x3d83ca8f	0.06435119
148	0xbd868948	-0.06569153
149	0xbdc1bdc7	-0.09460025
150	0xbe0324f1	-0.12807061
151	0x3d9e3a06	0.07725911
152	0xbbbe1a9c	-0.005801512
153	0x3b3fb9eb	0.0029255103
154	0x3daf1cb5	0.08550397
155	0xbd1a0479	-0.03760192
156	0xbd47c884	-0.04877521
157	0x3d87f4ef	0.06638514
158	0x3d1b48ed	0.037911344
159	0x3d95c082	0.073121086
160	0xbd95a3de	-0.07306646
161	0x3a116e6e	0.00055477663
162	0xbdc32999	-0.095294185
163	0x3dec47cc	0.11537132
164	0xbdfe2265	-0.12408904
165	0xbd5016d7	-0.05080303
166	0xbc847fee	-0.016174283
167	0xbe0cdec7	-0.13756858
168	0xbd63ee1d	-0.055647004
169	0xbde1ae83	-0.110196136
170	0xbde00b2e	-0.10939632
171	0x3e028ff0	0.1275022
172	0xbd88e64c	-0.06684551
173	0xbdb17b1b	-0.08666059
174	0xbd4fc684	-0.05072643
175	0xbdbb5011	-0.09146131
176	0x3c1eb6ea	0.009687165
177	0xbe044779	-0.1291789
178	0x3e0493ee	0.12947056
179	0xbd4be8a3	-0.049782407
180	0x3da7738f	0.08176338
181	0xbe113e79	-0.14183988
182	0x3d5c1d9f	0.053739186
183	0x3c9182a2	0.017762486
184	0xbe159101	-0.14606096
185	0x3dff3d23	0.12462833
186	0xbdaf8b2d	-0.085714675
187	0xbda95946	-0.08268981
188	0xbb69f745	-0.0035700363
189	0x3de77d73	0.113032244
190	0xbd836bcc	-0.06417045
191	0x3de044fe	0.10950659
192	0x3cc474e8	0.023981526
193	0xbdf6e93a	-0.12056203
194	0xbd8c9ea5	-0.068661965
195	0x3e06bede	0.13158748
196	0xbdeb10bb	-0.114778005
197	0xbe086b4c	-0.1332218
198	0x3c6f3ec9	0.0146023715
199	0x3d495a41	0.04915834
200	0xbdbd9599	-0.09257049
201	0x3e0dc66f	0.13845228
202	0x3e0d1510	0.13777566
203	0x3e09e6bf	0.13466929
204	0x3cc6b190	0.02425459
205	0xbd51de80	-0.051237583
206	0xbdfc3af6	-0.123159334
207	0x3d9352ed	0.07193551
208	0xbc8a9528	-0.016916826
209	0x3dafa023	0.085754655
210	0xbd99ab19	-0.075033374
211	0x3ddb85a7	0.107188515
212	0x3df62973	0.120196246
213	0x3dda992f	0.10673749
214	0xbdaace9a	-0.08340187
215	0xbd892080	-0.06695652
216	0x3d864d7e	0.06557749
217	0xbdb34fd2	-0.08755459
218	0x3c8cc036	0.017181497
219	0x3e07b009	0.13250746
220	0xbd91f8cd	-0.07127533
221	0xbd773997	-0.060357656
222	0x3e028ec3	0.12749772
223	0xbdb1a90c	-0.08674821
224	0xbe015fbb	-0.12634175
225	0x3c550022	0.01300052
226	0x3e02e6be	0.12783334
227	0x3cffd926	0.031231474
228	0xbda4d20e	-0.08047877
229	0x3d9495d5	0.07255141
230	0x3cf01b1c	0.029309802
231	0xbdfa1b8e	-0.12212287
232	0x3d5757fa	0.052574135
233	0x3d8b7f59	0.06811399
234	0xbdf471a5	-0.119357385
235	0xbda2d7da	-0.07951327
236	0x3d58b1f5	0.052904088
237	0xbd42044a	-0.04736737
238	0xbdf32154	-0.11871591
239	0xbe01aab9	-0.12662782
240	0xbded5afe	-0.11589621
241	0x3de45b56	0.111502334
242	0xbdd77b62	-0.1052158
243	0x3e08ce3f	0.13359927
244	0xbdb61a70	-0.08891761
245	0x3ce62475	0.028093556
246	0xbd21cff6	-0.039504968
247	0x3cc16105	0.023605833
248	0xbc94d774	-0.018169142
249	0x3d8196fd	0.06327627
250	0xbe00f4a5	-0.12593324
251	0x3e035bdb	0.12828009
252	0x3db72e60	0.08944392
253	0xbc53c1bb	-0.012924607
254	0xbdbe5983	-0.09294417
255	0x3e18dc3e	0.14927766

lstm.weight_hh_l1 f4 [200, 50]
0	0x3d4c1fa0	0.049834847
1	0xbd805467	-0.062660985
2	0x3dd2a5bc	0.102855176
3	0x3defaa14	0.11702362
4	0xbd1ca265	-0.03824081
5	0xbcba02b9	-0.022706376
6	0x3cd2f35c	0.025750808
7	0xbcd74727	-0.026279045
8	0xbdf6a42c	-0.12043032
9	0xbde4db7e	-0.11174677
10	0x3e14804c	0.14502066
11	0x3d932c83	0.07186224
12	0xbb9bdeca	-0.004756783
13	0x3de0058d	0.10938559
14	0x3dce76ba	0.10081239
15	0xbd16ece2	-0.036847003
16	0x3d49e510	0.049290717
17	0xbdd34b8e	-0.10317145
18	0xbdfd69f2	-0.12373723
19	0xbbaafe98	-0.005218338
20	0x3da0dd98	0.07854766
21	0x3df0ec13	0.117637776
22	0xbc20c395	-0.009812255
23	0x3d816ec4	0.06319955
24	0xbe02bfe1	-0.12768508
25	0xbdefbf15	-0.11706368
26	0x3ddea84a	0.10871942
27	0xbd994a90	-0.07484925
28	0x3e1d0d57	0.1533712
29	0x3d81598d	0.063159086
30	0xbd94cc4a	-0.072655275
31	0x3da82e3c	0.082119435
32	0x3d975dd7	0.073909454
33	0xbdf2a0e1	-0.118470915
34	0x3e01cd3c	0.12675947
35	0xbd7c0534	-0.0615284
36	0xbd98870e	-0.07447635
37	0x3d90481d	0.070450045
38	0xbd7b0db9	-0.061292384
39	0x3dccd7f6	0.10002129
40	0xbdd6de7c	-0.10491654
41	0xbd8b70f7	-0.06808656
42	0x3dc76ef2	0.09737958
43	0xbdfbb4e3	-0.12290361
44	0xbd80f608	-0.06296927
45	0xbd9c840f	-0.07642376
46	0x3d69727d	0.05699395
47	0x3d6828f6	0.05667969
48	0xbc23efa4	-0.010005865
49	0xbd1e7553	-0.038686108
50	0xbce5f862	-0.02807254
51	0xbdb563dc	-0.08856937
52	0x3cfe1660	0.031016529
53	0xbd409bb7	-0.0470235
54	0xbe060dba	-0.13091174
55	0xbde06dea	-0.109584644
56	0x3da540dd	0.08069012
57	0x3df8379b	0.12119981
58	0x3d634fcd	0.055496026
59	0x3becc0ac	0.0072251167
60	0xbdbff7de	-0.09373449
61	0x3de18b4b	0.11012896
62	0x3b8abc58	0.004233878
63	0xbd0a189f	-0.033714887
64	0x3e05b2d7	0.13056503
65	0x3d4cd077	0.050003495
66	0x3c9482c6	0.018128764
67	0x3e0dd798	0.13851774
68	0xbdd3cb4c	-0.1034151
69	0xbdcc57db	-0.099776946
70	0xbde43025	-0.11141995
71	0xbdc9a92e	-0.098467216
72	0xbd5f65a5	-0.054540295
73	0xbe0f5bf4	-0.13999921
74	0xbd11695f	-0.03550088
75	0xbc7e6c23	-0.0155287115
76	0x3cdc3c3d	0.026884193
77	0xbe07f5ef	-0.1327741
78	0xbd7277b9	-0.059196208
79	0x3ded731e	0.115942225
80	0x3dc7f1be	0.097629055
81	0x3cafa197	0.021439357
82	0x3d44ad5c	0.04801689
83	0xbc9b39db	-0.018948486
84	0xbda26c92	-0.079308644
85	0x3da7a8ef	0.081865184
86	0xbd114741	-0.035468344
87	0xbc1e0e80	-0.009647012
88	0xbd9157c7	-0.0709682
89	0xbd7da25e	-0.061922424
90	0xbdb48d6d	-0.08816037
91	0x3de99163	0.114046834
92	0x3d9db411	0.077003606
93	0x3cc322d7	0.023820324
94	0xbe0ae362	-0.13563302
95	0x3d0ae773	0.033912133
96	0x3dda901b	0.10672017
97	0x3d76a8d0	0.060219586
98	0x3e0073dd	0.12544198
99	0xbd646789	-0.0557628
100	0x3d107a20	0.035272717
101	0xbd021af9	-0.031764004
102	0xbcc5ad98	-0.024130628
103	0xbd90ac5f	-0.07064127
104	0xbdd74eff	-0.10513114
105	0xbb95eda6	-0.004575449
106	0x3d8be420	0.06830621
107	0x3de95d6e	0.113947734
108	0x3d3d326a	0.046190657
109	0x3dff8be1	0.12477852
110	0x3d1c20ae	0.038117103
111	0xbd8f978f	-0.070113294
112	0xbd195f85	-0.03744461
113	0x3d64f7d7	0.05590042
114	0x3da8292f	0.0821098
115	0x3b1f7328	0.0024330113
116	0xbddc53d5	-0.10758177
117	0xbd989f33	-0.0745224
118	0x3dfb2f5f	0.12264895
119	0x3c7d6e05	0.015468125
120	0xbd20f788	-0.039298564
121	0x3d1e91b3	0.03871317
122	0x3d4f58ca	0.050621785
123	0x3d1d48d6	0.03839954
124	0x3b21c8cc	0.0024686335
125	0xbd1acf2c	-0.03779523
126	0xbdb4c966	-0.08827476
127	0x3d517955	0.051141102
128	0x3df8001a	0.12109394
129	0x3d0ece9a	0.034865
130	0xbe1d35f8	-0.15352619
131	0x3da3171b	0.079633914
132	0x3b57b613	0.0032914921
133	0xbd7bbd51	-0.061459843
134	0x3df00594	0.11719814
135	0x3d91ee57	0.07125538
136	0x3e0409eb	0.12894408
137	0x3dbeda8c	0.09319028
138	0xbdbe0515	-0.09278313
139	0xbd6d66b4	-0.057959273
140	0xbd3090d2	-0.04310686
141	0x3cceff1e	0.025268134
142	0xbddfdc41	-0.10930682
143	0x3e165a72	0.1468294
144	0x3d834ce7	0.06411152
145	0x3d11e47f	0.0356183
146	0x3c9f7ac4	0.019467719
147	0xbd329e04	-0.043607727
148	0xbda734bc	-0.08164355
149	0x3df70a53	0.12062516
150	0x3df82b5b	0.121176444
151	0xbe032e33	-0.12810592
152	0x3ce4a57e	0.027910944
153	0xbdc62f93	-0.09677043
154	0xbdc66c4a	-0.09688623
155	0x3e04be0d	0.12963124
156	0xbdffed2a	-0.12496407
157	0x3d38415c	0.044984207
158	0x3d6382a2	0.055544503
159	0xbdb31e73	-0.08746042
160	0x3d70511d	0.058671106
161	0x3d99cfbe	0.07510327
162	0x3d93b74d	0.07212696
163	0x3db10571	0.08643616
164	0x3de650bb	0.11245867
165	0x3e157cfe	0.14598462
166	0x3e0d799c	0.13815922
167	0x3dd42184	0.10357955
168	0x3bcf89eb	0.00633358
169	0xbda36ed3	-0.079801224
170	0xbd92d6fc	-0.07169911
171	0x3ddf9af0	0.10918224
172	0xbd35b257	-0.04435953
173	0xbd40c424	-0.047062054
174	0xbdba25bb	-0.09089228
175	0xbc3f10a9	-0.011661687
176	0xbd2d5aec	-0.042323038
177	0x3d5a2324	0.05325617
178	0xbd9fdc2c	-0.07805666
179	0x3bfb6373	0.0076717674
180	0x3c407c52	0.01174839
181	0x3d2de12b	0.042451065
182	0x3dc17e0c	0.0944787
183	0xbd4e4cfe	-0.050366394
184	0x3c2b9d1f	0.010474472
185	0x3dad785a	0.08470221
186	0x3c58c7d2	0.013231235
187	0x3daa92df	0.08328795
188	0xbd47a926	-0.048745297
189	0x3b93563e	0.004496365
190	0x3c3ced60	0.011531204
191	0x3e0d789d	0.13815542
192	0x3d72ec7b	0.059307557
193	0x3d08a0fa	0.033356644
194	0xbb42a45b	-0.0029700014
195	0xbd506ff9	-0.050888035
196	0x3e1360f0	0.14392447
197	0xbbb89173	-0.0056325733
198	0x3dc36d1a	0.09542294
199	0x3e1ad20f	0.15119193
200	0x3dba2dbe	0.09090756
201	0x3cbc6587	0.02299763
202	0xbdcdd020	-0.10049462
203	0x3e017596	0.12642512
204	0x3dcc8ff4	0.099883944
205	0xbced70a3	-0.028984373
206	0x3c9d2467	0.019182397
207	0x3d4bd287	0.04976132
208	0x3e05c63f	0.13063906
209	0xbcfee4ba	-0.031114925
210	0xbddd51d4	-0.10806623
211	0x3d29f754	0.041495636
212	0x3da27811	0.07933057
213	0x3d59ec2c	0.053203747
214	0x3dcd5f66	0.100279614
215	0x3da30b1a	0.07961102
216	0xbb9a1b66	-0.004702973
217	0xbba66807	-0.005078319
218	0xbdfd8f2d	-0.12380824
219	0xbd99212d	-0.07477031
220	0x3de32da3	0.11092689
221	0x3d86f6de	0.06590055
222	0x3e10882e	0.14114448
223	0x3d6d1093	0.057877135
224	0x3d959a9d	0.07304881
225	0x3b90e02e	0.0044212556
226	0xbc3d73d1	-0.011563257
227	0x3dd32b35	0.103109755
228	0xbe04faec	-0.12986344
229	0x3d7182f4	0.058962777
230	0xbc5ea7e3	-0.013589832
231	0xbda1356c	-0.078715175
232	0x3d29994b	0.041405957
233	0x3c78b358	0.015179478
234	0xbbab9099	-0.0052357432
235	0x3dc3ad10	0.095544934
236	0xbdcaf04c	-0.09909114
237	0xbe17931c	-0.14802212
238	0x3dd9dad2	0.1063744
239	0xbcb61586	-0.02222706
240	0xbddd6884	-0.108109504
241	0xbcd83f26	-0.026397299
242	0x3d8619e8	0.0654791
243	0xbdb2b5b3	-0.087260626
244	0x3ddbf58a	0.10740192
245	0x3b8f5ee4	0.0043753255
246	0xbda2b80c	-0.079452604
247	0xbd164a05	-0.036691684
248	0xbdee1449	-0.11624963
249	0x3c9882b1	0.018617006
250	0x3dc815dc	0.09769794
251	0x3deda996	0.116046116
252	0x3dd7f8eb	0.10545524
253	0xbd18a48a	-0.03726629
254	0x3d708816	0.05872353
255	0xbc405d65	-0.011741017

lstm.bias_ih_l1 f4 [200]
0	0x3d5d7224	0.05406393
1	0xbe0599a6	-0.13046893
2	0xbb32f9ce	-0.002730954
3	0xbd9dbc92	-0.077019826
4	0x3ca72149	0.020401614
5	0x3c099bb3	0.008398938
6	0xbc71ee78	-0.014766328
7	0xba8577a8	-0.0010182755
8	0xbd2f56f7	-0.042807546
9	0x3d3ee974	0.046609357
10	0xbdc221d5	-0.09479109
11	0x3de74a27	0.1129344
12	0x3d376818	0.044777006
13	0x3da15099	0.07876701
14	0xbd15e463	-0.03659476
15	0x3dc75787	0.097334914
16	0x3bc797a7	0.0060910764
17	0xbdc64a62	-0.09682156
18	0x3c7bc5ae	0.015366955
19	0xba608420	-0.000856461
20	0xbe0620e5	-0.13098486
21	0x3d0d49a7	0.03449407
22	0xbcbb5d24	-0.022871561
23	0xbd939657	-0.072064094
24	0x3d378b69	0.044810686
25	0x3da968f7	0.082719736
26	0x3dddd767	0.108321
27	0x3da843e6	0.082160756
28	0x3e1de3c3	0.15418915
29	0xbdb7857b	-0.08961006
30	0xbdb50067	-0.08837967
31	0x3daadc68	0.083428204
32	0xbd8ab61c	-0.06773016
33	0xbde2a154	-0.11065927
34	0x3db9277e	0.09040736
35	0xbd466b10	-0.048441947
36	0xbca8fb2a	-0.020627577
37	0x3d59c67d	0.05316781
38	0x3e0fb9a5	0.14035662
39	0xbd916ec6	-0.071012065
40	0xbce5cb95	-0.028051177
41	0x3e011ffe	0.1260986
42	0x3d915b69	0.07097513
43	0x3e0792f4	0.13239652
44	0xbdcec14a	-0.10095461
45	0xbd4dafb0	-0.050216377
46	0xbcdfda35	-0.027325729
47	0xbd3cbdb7	-0.046079364
48	0x3db6ead5	0.089315094
49	0x3db15488	0.08658701
50	0xbdedc62b	-0.11610063
51	0xbdc90454	-0.09815279
52	0x3cbe7d5e	0.02325314
53	0x3cb78b5f	0.022405325
54	0x3d05dd9a	0.03268204
55	0x3d2aeaa3	0.041727673
56	0x3da6b915	0.0814077
57	0x3e15b37d	0.1461925
58	0x3d8eca43	0.06972172
59	0x3d75207b	0.05984543
60	0x3cde9dc6	0.027174842
61	0x3dcb0343	0.099127315
62	0xbd535652	-0.051595993
63	0xbc2abe05	-0.010421281
64	0x3dd55703	0.10416987
65	0x3d07a975	0.03312059
66	0xbdf1888b	-0.11793622
67	0x3dd8f842	0.105942264
68	0x3dbd767a	0.09251113
69	0xbdd3b1cd	-0.10336647
70	0xbe0ab67c	-0.13546175
71	0x3e0fa01c	0.1402592
72	0x3d1611b1	0.036637966
73	0x3cd99b0e	0.026563194
74	0xbdc67474	-0.096901804
75	0x3e1565f6	0.14589676
76	0xbc5b4496	-0.013383051
77	0x3c1ca0c8	0.009559818
78	0x3d01ac8c	0.031658694
79	0xbd1b1d09	-0.037869487
80	0xbe005013	-0.12530546
81	0xbdc3df99	-0.09564132
82	0x3cc8eecc	0.02452793
83	0x3e12f229	0.1435019
84	0x3d744727	0.05963817
85	0xbd7b86c5	-0.061407823
86	0xbdae69c2	-0.085162655
87	0x3d8d1f36	0.06890719
88	0x3c75b760	0.014997333
89	0xbceea66c	-0.02913209
90	0xbdf0af11	-0.11752141
91	0xbdd08742	-0.101820484
92	0x3e0f4dc9	0.13994516
93	0x3ddb0c24	0.10695675
94	0x3d81ceef	0.063382976
95	0x3dfb2e3f	0.1226468
96	0xbd8f1c71	-0.06987847
97	0x3d38853c	0.045048937
98	0x3e0f2649	0.13979448
99	0xbd56b099	-0.05241451
100	0x3e234c7e	0.15947148
101	0x3cbbbe25	0.022917816
102	0xbdd7dd4e	-0.105402574
103	0xbddc315f	-0.10751604
104	0x3aee5ce2	0.001818564
105	0x3cb980c6	0.022644412
106	0xbdf619c1	-0.12016631
107	0x3d058431	0.03259677
108	0xbdcec810	-0.10096753
109	0xbe1ddad2	-0.15415505
110	0x3dca7138	0.09884876
111	0xbba1fd72	-0.004943543
112	0x3e146f00	0.14495468
113	0xbd4dcf30	-0.050246418
114	0x3e008214	0.12549621
115	0xbe023c77	-0.12718378
116	0xbe1d6a24	-0.1537252
117	0x3d3f92f8	0.04677102
118	0xbd7f9ffa	-0.062408425
119	0xbdf8708c	-0.121308416
120	0x3cb3b812	0.021938358
121	0xbd2a6000	-0.04159546
122	0x3d3a4341	0.045474295
123	0x3d71f1ec	0.059068605
124	0xbd42c7ca	-0.047553815
125	0xbbc43069	-0.0059872163
126	0xbabcfae4	-0.0014418033
127	0xbd1f3ffa	-0.038879372
128	0x3e08d54e	0.1336262
129	0x3e0bb426	0.1364294
130	0xbc7dc5a1	-0.015489013
131	0x3df80667	0.12110596
132	0x3ca39973	0.019970631
133	0x3c858c13	0.016302144
134	0x3df98a72	0.121846095
135	0xbd44109d	-0.047867406
136	0xbce0d0f9	-0.027443396
137	0xbd33d730	-0.04390639
138	0xbd53244d	-0.05154829
139	0xbc3be376	-0.011467805
140	0xbd1994aa	-0.037495293
141	0xbd136ca9	-0.0359923
142	0xbdcff3fe	-0.1015396
143	0xbdbbf587	-0.0917769
144	0x399d90d4	0.0003005328
145	0x3dbecd70	0.09316528
146	0xbdd3454e	-0.10315953
147	0xbd9d17e9	-0.07670576
148	0x3c205503	0.009785893
149	0xbd1d5e88	-0.03842023
150	0x3b9f180e	0.0048551625
151	0x3d9a1abe	0.07524632
152	0x3bfa558a	0.0076395916
153	0x3d677f68	0.05651799
154	0x3dbd909b	0.09256097
155	0x3c35124f	0.011051728
156	0x3d3de29f	0.0463587
157	0x3dca4c70	0.098778605
158	0x3daab475	0.08335201
159	0xbdbec16a	-0.093142346
160	0x3e237d0f	0.15965675
161	0xbe0a3785	-0.13497742
162	0x3d9f09cc	0.077655405
163	0x3cac5bd7	0.021039886
164	0xbbe8287c	-0.0070849042
165	0x3c54a477	0.012978665
166	0xbd1b5c6e	-0.037929945
167	0x3e0ac556	0.1355184
168	0xbcbbc540	-0.022921205
169	0xbd5800ca	-0.052735128
170	0xbbea4553	-0.0071493774
171	0x3d8e7154	0.069552094
172	0xbcb38427	-0.021913601
173	0x3da6e5c1	0.08149291
174	0xbd48f510	-0.049061835
175	0xbd031793	-0.032004904
176	0xbdb1f91c	-0.08690092
177	0xbbd760d9	-0.0065728244
178	0xbdef7325	-0.11691884
179	0xba647c3a	-0.0008716021
180	0xbd592ac3	-0.053019296
181	0x3dd52cd3	0.1040894
182	0x3e1215e0	0.14266157
183	0x3e068715	0.13137467
184	0xbd31f947	-0.04345062
185	0xbdcc95a9	-0.09989483
186	0xbd32ce16	-0.04365357
187	0xbd6e93cc	-0.05824642
188	0xbd2c2047	-0.04202297
189	0xbd87bec4	-0.066281825
190	0xbd8fc93a	-0.07020803
191	0xbcc56a9f	-0.024098692
192	0x3da50158	0.08056897
193	0x3d7b04d8	0.061283916
194	0xbd72ba8e	-0.059259944
195	0x3cc61ab7	0.02418266
196	0x3dd08c1e	0.10182975
197	0xbd14d308	-0.036334068
198	0x3c934400	0.01797676
199	0x3d1f0dd0	0.038831532

lstm.bias_hh_l1 f4 [200]
0	0x3d8eab95	0.069663204
1	0xbe04367a	-0.12911406
2	0xbce81b6a	-0.028333385
3	0xbd82b82e	-0.06382786
4	0xbd95ec99	-0.07320518
5	0xbcb9fad8	-0.02270262
6	0x3dfec5d9	0.1244008
7	0xbdb2506e	-0.08706747
8	0x3db7ae2b	0.08968767
9	0x3d32ad26	0.04362216
10	0x3dd5dec3	0.10442879
11	0x3c8e08f1	0.017338248
12	0xbd00ddbe	-0.03146147
13	0xbcef7b01	-0.029233458
14	0x3b1371f2	0.0022498337
15	0xbd2a7a98	-0.04162082
16	0x3e12b59c	0.14327091
17	0x3c83b7a1	0.016078772
18	0xbdafcee9	-0.08584387
19	0x3db59773	0.08866777
20	0x3de47369	0.11154825
21	0x3e1715a8	0.14754355
22	0xbe02df92	-0.12780598
23	0xbd5b2070	-0.05349773
24	0x3d721a4e	0.059107117
25	0xbcb336ec	-0.021876775
26	0x3dabd73d	0.08390663
27	0xbe2186d7	-0.15774094
28	0xbdc9e1ea	-0.09857543
29	0x3d04de5d	0.032438625
30	0x3dbf2e38	0.093349874
31	0x3d6b834b	0.057498258
32	0x3dd7cf33	0.10537567
33	0x3e00d48d	0.12581082
34	0x3d68dbc8	0.056850225
35	0xbd8283a6	-0.06372766
36	0xbcce25b1	-0.025164457
37	0xbc1fa5a3	-0.009744081
38	0x3db2af1c	0.08724806
39	0x3d7cfc2c	0.061763927
40	0x3e1414ac	0.1446101
41	0x3d9d0cfa	0.07668491
42	0xbdf634b0	-0.12021768
43	0x3e23b331	0.15986325
44	0xbdbb1c8b	-0.091363035
45	0x3d07082e	0.032966785
46	0x3deb6bb4	0.11495152
47	0x3d70972f	0.05873793
48	0x3db6c211	0.08923734
49	0x3da4df5e	0.080504164
50	0x3d577bca	0.05260829
51	0xbd2ffa9f	-0.04296362
52	0xbdba4c41	-0.090965755
53	0x3ddeb648	0.10874611
54	0xbe089e39	-0.13341607
55	0x3dd030a9	0.10165531
56	0xbda977de	-0.08274816
57	0x3d659004	0.056045547
58	0xbd3e9be8	-0.046535403
59	0xbc7a79b3	-0.015287804
60	0x3cced2c9	0.025246995
61	0xbdd04c1b	-0.10170766
62	0x3e24f34e	0.16108438
63	0xbd76d14b	-0.06025819
64	0xbd3970f3	-0.045273732
65	0x3e0088a7	0.12552129
66	0xbc31a8ab	-0.010843436
67	0xbcbe3cf5	-0.023222426
68	0x3daec9ff	0.085346214
69	0x3ba343f3	0.0049824654
70	0xbdcb58bf	-0.09929036
71	0xbc6335d6	-0.013867816
72	0x3e0b9234	0.13629991
73	0xbd01dfbf	-0.03170752
74	0xbd84c42e	-0.06482731
75	0x3ddb0648	0.106945574
76	0x3c92b65b	0.01790922
77	0xbc7ee795	-0.015558143
78	0xba4dd860	-0.0007852372
79	0x3dbbfa82	0.0917864
80	0x3dceb731	0.10093535
81	0xbd5fa341	-0.05459905
82	0xbd942c5f	-0.072350256
83	0xbdbad23d	-0.09122131
84	0x3de66b0b	0.112508856
85	0xbd929961	-0.07158161
86	0xbdc7d9ee	-0.09758364
87	0x3b0ee34a	0.0021802955
88	0x3b38a418	0.002817398
89	0xbc983986	-0.018582117
90	0x3de4a182	0.11163618
91	0x3e217eb3	0.15770988
92	0xbc23a294	-0.009987492
93	0x3db50dfc	0.08840558
94	0x3dd1704e	0.102264985
95	0xbcd43bb9	-0.025907384
96	0x3a14af62	0.0005671886
97	0xbd79a645	-0.060949583
98	0xbd0f431c	-0.03497611
99	0x3e08d300	0.1336174
100	0xbdc8146d	-0.09769521
101	0xbcc46c8c	-0.02397754
102	0xbce368bf	-0.027759908
103	0x3df7f230	0.121067405
104	0xbd6d947a	-0.058002926
105	0x3d85a223	0.06525066
106	0x3c2b4c4c	0.010455202
107	0xbd34ace4	-0.044110194
108	0xbe1f18a0	-0.15536737
109	0xbe10a5c9	-0.14125742
110	0x3c5f6c8d	0.01363672
111	0xbd1020c6	-0.035187505
112	0x3c8ac6ae	0.016940441
113	0xbdd1dcf1	-0.10247219
114	0xbd3897f9	-0.045066807
115	0xbc9752dc	-0.018472128
116	0xbc36a172	-0.01114689
117	0x3e0cd02c	0.13751286
118	0xbcf65ebd	-0.030074472
119	0x3d936b2b	0.07198175
120	0xbdde23b3	-0.10846653
121	0xbdcc85eb	-0.0998648
122	0xbd8a0b9b	-0.06740495
123	0x3dd5dcd5	0.10442511
124	0xbcabe37d	-0.020982498
125	0x3e1c8922	0.15286687
126	0x3b3df108	0.0028982777
127	0x3ddf46a1	0.10902143
128	0x3cd86fdd	0.026420528
129	0xbd8900ba	-0.06689592
130	0x3dde71b1	0.10861529
131	0x3d862d30	0.065515876
132	0xbddb6ef5	-0.10714523
133	0x3c16815f	0.009186118
134	0xbd0133c8	-0.031543523
135	0xbd960622	-0.073253885
136	0x3d254b11	0.040354792
137	0x3e0da223	0.13831381
138	0x3e0e409c	0.13891834
139	0x3d7caec5	0.06169011
140	0x3dcfbdbf	0.10143613
141	0x3bfbfe79	0.0076902476
142	0x3d359417	0.044330683
143	0xbe094ab7	-0.13407408
144	0xbe22d58a	-0.15901771
145	0x3ce53395	0.027978698
146	0xbceaff93	-0.02868632
147	0x3b5f5994	0.0034080492
148	0x3e13cb00	0.14432907
149	0xbd9a1480	-0.07523441
150	0xbdd09c23	-0.10186031
151	0xbde637c8	-0.11241108
152	0xbe1b335f	-0.15156315
153	0xbdefa95a	-0.11702223
154	0x3cb8e3ef	0.022569625
155	0xbd00ea05	-0.03147318
156	0xbdf63015	-0.1202089
157	0xbd737778	-0.059440106
158	0xbdf47204	-0.11935809
159	0xbc5f4e35	-0.013629486
160	0x3dcfa801	0.10139466
161	0x3d3617e9	0.044456396
162	0x3e079234	0.13239366
163	0xbddfbc3b	-0.10924574
164	0x3d91394e	0.07091008
165	0xbd6c8e06	-0.05775263
166	0xbdc0a214	-0.09405914
167	0x3e02c982	0.12772182
168	0xbddfe7cf	-0.10932886
169	0x3e09ed41	0.13469411
170	0x3d80947e	0.06278323
171	0x3e00417e	0.12524983
172	0x3d0936e0	0.0334996
173	0xbdba3b11	-0.09093297
174	0x3de243c5	0.11048082
175	0xbde747db	-0.11293002
176	0x3d823d2d	0.063593246
177	0x3cdd12eb	0.02698656
178	0x3d9a279d	0.07527087
179	0x3d10f1a8	0.03538671
180	0xbb486476	-0.0030577458
181	0xbdd5d7be	-0.1044154
182	0x3e2323fe	0.15931699
183	0x3c484f8c	0.012225997
184	0xbe079f18	-0.13244283
185	0x3d5ab735	0.053397376
186	0xbdc20d11	-0.094751485
187	0x3dae4022	0.08508326
188	0xbd5281ac	-0.051393196
189	0x3e084da4	0.13310868
190	0x3ce456a3	0.027873343
191	0xbd815760	-0.063154936
192	0xbd93f640	-0.07224703
193	0xbd5c85ed	-0.05383866
194	0xbde0eb6c	-0.10982403
195	0xbc8c1b66	-0.017102908
196	0x3ddc612d	0.10760722
197	0xbded98eb	-0.116014324
198	0xbdabe08e	-0.0839244
199	0x3e11b196	0.142279

fc.weight f4 [1, 50]
0	0x3df65c03	0.120292686
1	0xbd2b60d1	-0.04184038
2	0x3de12aa8	0.10994464
3	0x3b30bd18	0.0026968177
4	0xbd747bca	-0.059688367
5	0x3d40df74	0.0470881
6	0x3df891aa	0.12137158
7	0xbd38e36c	-0.04513876
8	0xbdead873	-0.11467066
9	0xbdb3a44f	-0.08771574
10	0x3da2bbc1	0.079459675
11	0x3ddc764d	0.107647516
12	0x3e10b044	0.1412974
13	0x3bd45884	0.0064802784
14	0x3dfc1571	0.12308777
15	0xbe20324e	-0.1564419
16	0xbdffc5c9	-0.124888964
17	0x3dd6d82d	0.10490451
18	0xbdbf0011	-0.093261845
19	0xbe1ff743	-0.15621667
20	0x3d8bc60d	0.068248846
21	0xbde64c80	-0.1124506
22	0x3d912058	0.07086247
23	0x3e0dbe57	0.1384214
24	0xbe00e53a	-0.12587443
25	0x3db31719	0.0874464
26	0x3d9e4aa4	0.0772908
27	0xbd740ba9	-0.059581432
28	0x3d84b5f9	0.06480021
29	0x3d367ae6	0.0445508
30	0xbdbfe76b	-0.09370311
31	0xbb30cb52	-0.0026976657
32	0xbe1d26b9	-0.15346803
33	0xbd9f6e04	-0.07784656
34	0xbddca328	-0.10773307
35	0x3e08a197	0.13342892
36	0xbd93409d	-0.071900584
37	0xb9ea6673	-0.0004470829
38	0x3d0f43aa	0.03497664
39	0xbde0dd7c	-0.10979745
40	0xbdecb9f3	-0.115589045
41	0xbdaf01c8	-0.085452616
42	0x3decf0c5	0.11569361
43	0xbda00a66	-0.07814483
44	0xbdaf8722	-0.085706964
45	0x3b993600	0.0046756268
46	0xbe16fbd7	-0.14744507
47	0xbda2a0ba	-0.079408124
48	0x3c946efa	0.018119324
49	0x3de0296e	0.10945402
