models/ADA_USDT_model.pt (torch, 128181 bytes, 9 tensors)

lstm.weight_ih_l0 f4 [200, 1]
0	0xbcb441ea	-0.022004087
1	0xbd9bfe86	-0.07616906
2	0xbdc2f8c6	-0.09520106
3	0xbc63f54a	-0.013913462
4	0xbd29fbe9	-0.041500006
5	0x3e155cce	0.14586183
6	0x3ccb490d	0.024815107
7	0x3e210369	0.15723957
8	0xbde67694	-0.11253086
9	0xbd4fcba3	-0.050731312
10	0x3df26128	0.11834937
11	0x3e184500	0.14870071
12	0xbdeb773e	-0.11497353
13	0x3e1eaa36	0.15494618
14	0x3d836fdc	0.0641782
15	0x3d264a55	0.040598232
16	0xbd385c08	-0.045009643
17	0xbda315c6	-0.07963137
18	0xbd95ddea	-0.073177174
19	0xbd72504c	-0.05915861
20	0x3bcc34c9	0.0062318784
21	0x3d316375	0.04330774
22	0xbdd7f4d9	-0.10544748
23	0x3db6abeb	0.089195095
24	0xbd343338	-0.04399416
25	0xbcc590f1	-0.024116965
26	0x3d457377	0.04820582
27	0x3cc53528	0.024073198
28	0xbd213ea6	-0.039366387
29	0xbe08d955	-0.13364156
30	0x3ddd032b	0.1079162
31	0x3c8d22a6	0.017228436
32	0x3dc78fcc	0.09744224
33	0xbd46181f	-0.048362847
34	0xbdce9823	-0.100876115
35	0x3d6233f0	0.055225313
36	0xbe02b7e7	-0.12765466
37	0x3e0918f5	0.13388427
38	0xbd287ba2	-0.04113353
39	0x3e18459b	0.14870302
40	0x3e19c249	0.1501552
41	0xbdf090ef	-0.11746394
42	0x3dc838ea	0.097764805
43	0x3d18b14e	0.037278466
44	0x3b9fe7de	0.0048799356
45	0x3dbd38ea	0.09239371
46	0xbd839488	-0.064248145
47	0x3dc3ca9d	0.0956013
48	0x3d27cb8c	0.0409656
49	0x3d881c19	0.06645984
50	0x3d7e4c24	0.062084332
51	0x3dd99143	0.106234096
52	0xbc5c549f	-0.01344791
53	0x3d55987e	0.05214738
54	0x3de7c540	0.11316919
55	0x3db03a86	0.086049125
56	0xbddc0830	-0.10743749
57	0xbdeb846e	-0.11499868
58	0xbcd965a4	-0.026537724
59	0x3d408d9e	0.047010057
60	0x3daf9ed2	0.085752144
61	0xbd897b2e	-0.06712948
62	0xbdda1c14	-0.10649887
63	0x3d5dc85a	0.05414615
64	0xbcfcbaa9	-0.030850725
65	0x3de22b8b	0.110434614
66	0xbd5d5d02	-0.054043777
67	0xbccc88d4	-0.024967588
68	0x3d551dde	0.052030437
69	0x3ca0a945	0.019611964
70	0x3c92751c	0.017878108
71	0x3dd6ffca	0.10498007
72	0xbc43d798	-0.011953257
73	0x3de2c427	0.11072569
74	0x3ded6de7	0.11593228
75	0xbdddc79e	-0.108290896
76	0xbcd81dc1	-0.026381375
77	0x3c4561c5	0.012047236
78	0x3de60187	0.1123076
79	0x3ddb4981	0.10707379
80	0xbdb66479	-0.089058824
81	0xbdd2ef57	-0.10299557
82	0x3d106b68	0.03525868
83	0xba914968	-0.0011084499
84	0xbd73c703	-0.059515964
85	0xbdd7c5b5	-0.105357565
86	0xbd1657a1	-0.036704663
87	0xbbd69321	-0.006548301
88	0x3e265532	0.16243437
89	0x3e1caf4a	0.15301242
90	0xbc114407	-0.008866317
91	0xbd32eeaa	-0.04368464
92	0x3da0e914	0.07856956
93	0xbe07266d	-0.13198252
94	0xbd193879	-0.037407372
95	0x3ddca252	0.10773148
96	0xbd181f23	-0.03713907
97	0x3d9384a2	0.07203032
98	0xbd1f6286	-0.03891232
99	0xbc409c9c	-0.011756089
100	0x3d10e21a	0.035371877
101	0xbe25ea84	-0.16202742
102	0xbe00876f	-0.12551664
103	0xbcde85d3	-0.027163422
104	0x3dcdeff0	0.1005553
105	0x3e1994ca	0.14998165
106	0xbd45e3d1	-0.048312966
107	0x3d725307	0.059161212
108	0x3c680284	0.014160756
109	0xbca29d69	-0.01985045
110	0x3d900e60	0.07033992
111	0x3ddfa7bf	0.10920667
112	0xbe1ff453	-0.15620546
113	0x3d5686a6	0.052374505
114	0x3d832382	0.06403257
115	0x3cdb7b38	0.026792154
116	0x3d7d7a1f	0.061884042
117	0x3dd222ed	0.10260568
118	0xbded3053	-0.11581483
119	0xbde37f90	-0.11108315
120	0xbd77458a	-0.060369052
121	0x3d373fcb	0.044738572
122	0x3d4957d2	0.049156018
123	0x3dd5559c	0.10416719
124	0xbdb93e67	-0.090451054
125	0xbaac907e	-0.0013165621
126	0x3e0bbaa4	0.13645416
127	0x3cd142fb	0.025544634
128	0x3e0d5a9f	0.138041
129	0xbceca7c6	-0.028888594
130	0x3e176076	0.1478289
131	0x3d74bc9e	0.059750192
132	0x3d7a570a	0.061118163
133	0xbdce1561	-0.100626715
134	0xbcf214ec	-0.029550992
135	0x3a9fedd8	0.001220162
136	0x3d5e6999	0.054299925
137	0xbe026de7	-0.12737237
138	0xbb3c06b7	-0.0028690526
139	0x3dcca8a7	0.099931054
140	0xbd573bd8	-0.052547306
141	0x3e10bd61	0.14134742
142	0xbdf0fd49	-0.1176706
143	0x3bdde1ca	0.006771301
144	0x3c21a866	0.0098668095
145	0x3d891937	0.066942625
146	0xbb78fa09	-0.003799083
147	0x3def14f7	0.116739206
148	0x3de853dc	0.1134412
149	0x3dadb018	0.08480853
150	0x3e0fbd89	0.14037146
151	0x3e06d1bb	0.13165943
152	0x3d8747a3	0.066054605
153	0x3db32c25	0.08748654
154	0xbd9febd3	-0.07808652
155	0x3dfac895	0.12245289
156	0xbdcafc25	-0.09911374
157	0xbdd16214	-0.10223785
158	0x3d8d23a1	0.06891561
159	0xbda392b7	-0.07986968
160	0xbe00623b	-0.12537472
161	0xbae4095a	-0.0017397807
162	0x3b5a636a	0.0033323416
163	0xbd6e7156	-0.058213554
164	0x3cbdc5b5	0.023165563
165	0x3d832065	0.06402663
166	0x3d3b088d	0.04566245
167	0xbdabb727	-0.08384543
168	0x3db29f56	0.08721797
169	0xbdbf9009	-0.093536444
170	0xbdcb53d0	-0.09928095
171	0xbde4cf58	-0.1117236
172	0x3cba2878	0.022724375
173	0xbddc5467	-0.10758286
174	0xbd8e517a	-0.06949134
175	0xbdb242bf	-0.08704137
176	0x3d99eb2e	0.0751556
177	0xbbab6efc	-0.005231736
178	0xbd6a7796	-0.057242952
179	0x3d92253c	0.07136008
180	0xbdba9ee1	-0.09112335
181	0x3cce3c84	0.02517534
182	0x3e0796f8	0.13241184
183	0xbd399017	-0.04530343
184	0x3d90d154	0.07071176
185	0x3e1ee6c5	0.15517719
186	0x3c493f23	0.012283119
187	0x3cfcdfe0	0.03086847
188	0x3da87922	0.08226229
189	0x3e0e25fd	0.13881679
190	0xbce3bbcd	-0.027799511
191	0x3d169822	0.03676618
192	0x3dfc4e9c	0.12319681
193	0xbdf69962	-0.12040974
194	0x3d661984	0.056176677
195	0xbd73a08e	-0.05947929
196	0x3d221d9d	0.039579023
197	0xbd58cc13	-0.052928995
198	0x3e0db2fd	0.1383781
199	0x3dea23e9	0.114326306

lstm.weight_hh_l0 f4 [200, 50]
0	0x3e193da5	0.14964922
1	0x3d9220ab	0.07135137
2	0xbdd3291d	-0.10310576
3	0x3d49977d	0.049216736
4	0x3d684a97	0.05671176
5	0xbd2a3446	-0.041553758
6	0x3d79d40c	0.06099324
7	0x3d4ff192	0.05076749
8	0xbd782682	-0.0605836
9	0xbb92ac8e	-0.0044761365
10	0xbdc17e8b	-0.09447964
11	0x3e0a54da	0.13508931
12	0xbcf07152	-0.02935091
13	0xbc3082bb	-0.010773356
14	0xbe136ec2	-0.1439772
15	0xbdc67ab6	-0.09691374
16	0x3ba99973	0.0051757633
17	0x3e035b6a	0.1282784
18	0x3dfa16f5	0.1221141
19	0xbcdfea54	-0.027333416
20	0x3dd425f8	0.103588045
21	0xbdbc75c1	-0.09202147
22	0xbc05de6e	-0.008170707
23	0x3da8b105	0.08236889
24	0x3de942cc	0.113896936
25	0x3e2143d9	0.15748538
26	0xbd12dec8	-0.035856992
27	0x3c960743	0.01831401
28	0x3ca9feb8	0.020751342
29	0x3c8afcd7	0.016966267
30	0x3de66777	0.11250203
31	0xbc6ab060	-0.014324278
32	0x3dadb1ff	0.08481216
33	0xbd9978c3	-0.074937366
34	0x3de99176	0.114046976
35	0xbdcb5e26	-0.09930067
36	0x3d715ec2	0.05892826
37	0xbcd2ed58	-0.02574794
38	0xbdbd8056	-0.09252994
39	0x3de59e34	0.112118155
40	0xbc66a10b	-0.014076482
41	0xbd17438e	-0.03692966
42	0x3dba655d	0.09101365
43	0x3dcbc34f	0.099493615
44	0x3e0d79e0	0.13816023
45	0xbdc0ae25	-0.094082154
46	0xbdc33922	-0.095323816
47	0x3d6a5ee7	0.057219412
48	0x3de36aaf	0.11104333
49	0xbd36035e	-0.044436805
50	0xbdbeeb01	-0.09322167
51	0x3c9a7064	0.01885242
52	0x3ce8a9ff	0.028401373
53	0xbde3fd32	-0.111322775
54	0x3d1345aa	0.03595511
55	0x3aeb619f	0.001795817
56	0xbe1deb31	-0.1542175
57	0x3bbfc847	0.0058527323
58	0x3d93f980	0.07225323
59	0xbda02616	-0.07819764
60	0x3b74aad0	0.0037333257
61	0x3e18f54f	0.14937328
62	0xbd84e59c	-0.06489107
63	0xbd05c3c2	-0.032657392
64	0x3de8f72b	0.113752685
65	0x3d65ec8b	0.056133788
66	0xbd7c7bfe	-0.061641686
67	0x3e1d7c29	0.15379395
68	0xbd740723	-0.05957712
69	0x3d4e473b	0.0503609
70	0x3d4b3d27	0.049618866
71	0x3d945cc6	0.07244258
72	0x3d8664c2	0.06562187
73	0x3e0789c9	0.13236155
74	0x3c61303b	0.013744409
75	0x3e04db4d	0.12974282
76	0xbdda410b	-0.10656937
77	0x3e0f0094	0.13965064
78	0x3dfaab44	0.122396976
79	0xbc4a702a	-0.012355844
80	0xbd821e95	-0.06353489
81	0xbd013361	-0.03154314
82	0x3c845c3b	0.01615726
83	0xbe01aa19	-0.12662543
84	0xbd41de91	-0.047331396
85	0x3d21f697	0.039541807
86	0x3e14539c	0.1448502
87	0xbd26ebea	-0.04075233
88	0xbddaf20e	-0.106906995
89	0xbdbe5fdf	-0.0929563
90	0x3d8ec72c	0.06971583
91	0xbda389ab	-0.079852425
92	0x3cba14c0	0.022714972
93	0xbd1ca54c	-0.038243577
94	0x3ca6ce6a	0.020362098
95	0x3defff00	0.11718559
96	0xbd2de021	-0.042450074
97	0xbc418267	-0.0118108755
98	0x3dfedb9e	0.124442324
99	0xbda02039	-0.07818646
100	0x3d965a31	0.073414214
101	0xbd69c213	-0.05706985
102	0x3d99659a	0.07490082
103	0x3daed64a	0.08536966
104	0x3c7a8839	0.015291267
105	0xbd767bbb	-0.060176592
106	0xbda7317a	-0.08163734
107	0xbdbbb83c	-0.09165999
108	0xbc22d447	-0.009938306
109	0xbdcef092	-0.10104479
110	0xbdf792f3	-0.12088575
111	0x3d45ce7b	0.04829262
112	0xbd1474fc	-0.036244377
113	0x3dcda01c	0.10040304
114	0x3dec16ee	0.11527811
115	0x3be88cdb	0.0070968694
116	0x3d630ed4	0.055434063
117	0x3de49d64	0.111628324
118	0x3e0b8297	0.13624035
119	0xbdad5bae	-0.08464752
120	0xbdd4ce41	-0.10390902
121	0x3dcd1072	0.10012902
122	0xbde1bef8	-0.110227525
123	0xbdb729f4	-0.08943549
124	0xbdd54864	-0.10414198
125	0x3dd02d44	0.10164884
126	0xbdcade8f	-0.09905731
127	0xbd9152be	-0.0709586
128	0xbcbb7a40	-0.022885442
129	0xbd96d345	-0.07364515
130	0xbdb7dc00	-0.089775085
131	0xbd6ba4fc	-0.05753039
132	0x3db47fa3	0.08813407
133	0xbdd4af13	-0.10384955
134	0x3c574f48	0.013141461
135	0xbdf0f9d5	-0.11766402
136	0x3d749ef1	0.05972189
137	0x3e0a239a	0.13490143
138	0xbd7a9e8f	-0.06118637
139	0xbdf0d373	-0.11759081
140	0x3dbbcb19	0.09169597
141	0xbb0487fc	-0.0020222655
142	0x3d5b9c23	0.0536157
143	0x3cb6a09c	0.022293381
144	0xbd509918	-0.05092725
145	0xbdb8a97f	-0.09016704
146	0xbe013bf6	-0.1262053
147	0xbdae4236	-0.085087225
148	0xbce6710e	-0.02813008
149	0x3e030740	0.12795734
150	0x3d1f4ff9	0.038894627
151	0xbbff94bb	-0.0077997125
152	0xbdb247fa	-0.08705135
153	0xbcf3cb03	-0.02975989
154	0x3d47b233	0.04875393
155	0xbd3d0673	-0.04614873
156	0x3db00c21	0.085960634
157	0xbe021de7	-0.1270672
158	0x3cbae080	0.022812128
159	0xbd204e48	-0.039137155
160	0xbce213da	-0.027597357
161	0xbdabf518	-0.08396357
162	0xbca4ab9d	-0.020101363
163	0xbda2cb9b	-0.07948991
164	0x3cd517bb	0.026012292
165	0xbe0a805b	-0.13525526
166	0x3cee0ae6	0.029057931
167	0xbd3a92af	-0.045550045
168	0x3cd132ab	0.025536856
169	0xbd611d6b	-0.054959696
170	0x3e031265	0.12799986
171	0xbd48722d	-0.04893701
172	0x3db5e137	0.08880847
173	0xbc14af73	-0.0090750335
174	0xbe04a9ed	-0.12955447
175	0x3cfb90e6	0.030708741
176	0xbd8238da	-0.063585
177	0xbddbd3d0	-0.107337594
178	0xbd3511da	-0.044206478
179	0x3cd6074b	0.026126524
180	0xbd8f92bc	-0.07010409
181	0x3e0434ae	0.1291072
182	0x3da9e746	0.08296065
183	0x3c1bc661	0.009507746
184	0xbcf4811c	-0.02984672
185	0xbdc4cd05	-0.09609417
186	0x3dcec1b0	0.10095537
187	0x3dec620e	0.1154214
188	0x3da510e0	0.08059859
189	0x3e1d5d1e	0.15367553
190	0xbda29541	-0.07938624
191	0xb9b9b865	-0.00035423334
192	0x3dfa57aa	0.12223752
193	0xbd132d4b	-0.035931867
194	0x3dfecb5b	0.12441131
195	0xbdf11a66	-0.11772613
196	0x3d882148	0.06646973
197	0xbd8f9ca3	-0.07012298
198	0x3d879cf5	0.06621734
199	0x3dc7d983	0.09758284
200	0xbce816ea	-0.028331239
201	0x3d95d9ac	0.07316908
202	0x3db048d7	0.08607643
203	0x3d014d06	0.031567596
204	0x3cff17a6	0.031139206
205	0x3dd143eb	0.102180324
206	0xbe044b34	-0.12919313
207	0x3dbcfe5f	0.09228205
208	0x3dd36f8f	0.103240125
209	0x3cf79f2d	0.030227268
210	0x3ddf5007	0.10903936
211	0x3d093ffa	0.03350828
212	0xbdb855a0	-0.09000707
213	0xbbf32e57	-0.0074212956
214	0xbe05247e	-0.13002202
215	0xbd004bfd	-0.031322468
216	0xbd78e364	-0.06076373
217	0x3e04cf86	0.12969789
218	0x3db5fa5f	0.08885645
219	0xbdb3c7a3	-0.08778312
220	0x3da60404	0.08106235
221	0x3ad9c44a	0.0016614285
222	0x3ced9bc8	0.029004946
223	0xbd8d3362	-0.06894566
224	0xbe03ecfa	-0.12883368
225	0x3d730f94	0.05934103
226	0x3d08f27c	0.033434376
227	0xbdf3940d	-0.11893473
228	0xbc08c75a	-0.00834831
229	0xbd94d885	-0.0726786
230	0x3cb60964	0.022221275
231	0xbd593b81	-0.053035263
232	0x3df1af80	0.11801052
233	0x3dbb04e7	0.091317944
234	0x3e1053f8	0.14094532
235	0x3d64c944	0.055856004
236	0xbd78fbb6	-0.060786925
237	0x3e0140ce	0.12622377
238	0xbc228eb3	-0.009921717
239	0x3d5072f0	0.050890863
240	0x3dce2185	0.10064987
241	0x3d489417	0.048969354
242	0xbe21b9e5	-0.1579357
243	0x3dc2118c	0.09476003
244	0xbdfb30d2	-0.12265171
245	0xbe24fe51	-0.16112639
246	0xbd845080	-0.06460667
247	0xbde2901a	-0.110626414
248	0x3da40e30	0.080105186
249	0xbd6d39cc	-0.057916448
250	0x3df9c261	0.12195278
251	0xbda90302	-0.08252527
252	0x3de21f57	0.11041134
253	0x3ce7c6a2	0.028292958
254	0x3ada7313	0.0016666375
255	0x3dd53b3f	0.10411691

lstm.bias_ih_l0 f4 [200]
0	0xbdc89b7e	-0.09795283
1	0xbde7d810	-0.113205075
2	0xbe0a406c	-0.13501137
3	0xbd4e23ec	-0.050327227
4	0x3dd8ea12	0.1059152
5	0x3d6a9383	0.057269584
6	0x3dbe5289	0.09293086
7	0xbd9aa40d	-0.075508215
8	0x3da8a02d	0.08233676
9	0xbd8e4ae4	-0.06947878
10	0xbd6755a5	-0.05647816
11	0x3c193d58	0.009353004
12	0x3df6e814	0.12055984
13	0xbd3b131a	-0.045672514
14	0x3c6a4a54	0.014299948
15	0xbd9b429c	-0.07581064
16	0x3cc442bb	0.0239576
17	0xbc5440c9	-0.012954899
18	0xbd1bcc4b	-0.038036626
19	0x3dbc10fc	0.09182927
20	0xbdc8018b	-0.09765919
21	0x3d4f7a8b	0.050653975
22	0x3dae96c7	0.08524852
23	0xbb7817ae	-0.003785591
24	0xbcb6f3e5	-0.022333095
25	0x3e0d6003	0.13806157
26	0x3d4beb9c	0.04978524
27	0x3d3870da	0.0450295
28	0x3e1e0ed4	0.15435344
29	0x3d3aae51	0.045576397
30	0x3e05ca41	0.13065435
31	0xbc963f31	-0.018340679
32	0xbda4d01e	-0.08047508
33	0xbdf32a47	-0.11873298
34	0xbd2ada01	-0.04171181
35	0xbde95efd	-0.11395071
36	0xbd42c39c	-0.04754983
37	0x3e03f739	0.12887277
38	0x3da0d4d8	0.07853097
39	0x3c592b04	0.013254885
40	0x3d6bf456	0.057606064
41	0x3db7d942	0.089769855
42	0x3db96f63	0.090544485
43	0x3d56d188	0.05244592
44	0x3cd3bab7	0.025845869
45	0x3e04a29f	0.1295266
46	0xbd180a5f	-0.037119266
47	0xbdcfa2fb	-0.10138508
48	0x3da10339	0.07861943
49	0xbdbffbd7	-0.093742065
50	0xbdeb329f	-0.114842646
51	0xbb4e6262	-0.0031491746
52	0xba6b54da	-0.00089771824
53	0x3dad9535	0.084757246
54	0x3e12c424	0.14332634
55	0xbdaa80a0	-0.083253145
56	0xbcfe239b	-0.031022837
57	0x3dfcf5eb	0.12351593
58	0x3d627bb9	0.055293772
59	0x3da9498c	0.08265981
60	0x3ddc5c2d	0.10759769
61	0xbdb77849	-0.089584894
62	0xbd6c8316	-0.0577422
63	0xbd87ecb8	-0.066369474
64	0x3df53ca7	0.11974459
65	0xbd4c4261	-0.04986799
66	0xbcc661bc	-0.024216525
67	0x3e0db4f9	0.13838567
68	0x3d03c32d	0.032168556
69	0xbd879c30	-0.06621587
70	0xbdb48771	-0.08814896
71	0xbc2ced1c	-0.010554578
72	0xbdcf66e5	-0.101270474
73	0x3c87ce95	0.016577998
74	0xbdea0cda	-0.114282325
75	0xbc121f64	-0.008918617
76	0x3dd6afcc	0.10482749
77	0xbd861bdf	-0.06548285
78	0xbdac5105	-0.08413891
79	0x3d7d328e	0.06181579
80	0x3deabdfd	0.11462019
81	0xbd043717	-0.0322791
82	0xbd48615b	-0.04892097
83	0x3df4257c	0.11921212
84	0xbd63e5cc	-0.055639073
85	0xbd1d0984	-0.038339153
86	0x3db482c2	0.088140026
87	0x3e0267b2	0.12734869
88	0x3e1d76c1	0.15377332
89	0xbc4e683e	-0.012598095
90	0x3bada983	0.0052997484
91	0xbd34e69d	-0.044165242
92	0x3d40d90a	0.047081985
93	0x3d8aa172	0.067690745
94	0xbcd538dd	-0.026028091
95	0x3e0aaa18	0.13541448
96	0xbd629dc0	-0.055326223
97	0x3cc61643	0.024180537
98	0xbd862172	-0.06549348
99	0xbb8b6b6f	-0.0042547504
100	0x3df28096	0.11840932
101	0x3d844483	0.0645838
102	0x3db445e7	0.08802395
103	0xbc014343	-0.007889572
104	0x3d870873	0.065934084
105	0x3e19e500	0.15028763
106	0xbdee4dea	-0.11635955
107	0x3d7b00c1	0.061280016
108	0xbcc47473	-0.023981309
109	0x3d97079f	0.073745005
110	0xbd38e71f	-0.04514229
111	0x3d205069	0.039139185
112	0xbd8973bb	-0.06711527
113	0x3dc46ae8	0.09590703
114	0xbdddaac6	-0.10823588
115	0xbd94ca3d	-0.072651364
116	0x3d310bdf	0.04322421
117	0x3ded1fc3	0.11578324
118	0xbcd441f0	-0.025910348
119	0x3e01ad0d	0.1266367
120	0x3d1ff698	0.03905353
121	0x3dcf14f0	0.101114154
122	0x3af5f27d	0.0018764284
123	0x3d716c1b	0.058940988
124	0x3d49ea3c	0.04929565
125	0x3e15cf50	0.14629865
126	0xbd4c969b	-0.049948316
127	0x3e10bf06	0.1413537
128	0x3e046434	0.1292885
129	0xbe14e2ab	-0.14539592
130	0xbca3df58	-0.02000396
131	0xbdca3d50	-0.09874976
132	0x3da7bd69	0.08190424
133	0xbe242f84	-0.16033751
134	0x3df50cde	0.11965345
135	0x3e0b68cc	0.13614196
136	0x3daa437a	0.083136514
137	0xbd0efa94	-0.03490694
138	0xbe18c433	-0.14918594
139	0xbde08e86	-0.10964684
140	0x3e220421	0.15821888
141	0x3dd3832d	0.10327754
142	0xbd9aef3d	-0.07565162
143	0x3d2e672a	0.042578854
144	0x3e1bb1c6	0.15204534
145	0xbd3bd3f5	-0.045856435
146	0x3cb834dc	0.022486143
147	0x3df1f537	0.11814349
148	0x3d8e0a13	0.06935515
149	0x3dfbc129	0.12292702
150	0xbd0a61eb	-0.033784788
151	0xbd4716b8	-0.04860565
152	0x3dc6d251	0.097080834
153	0x3b99f6b0	0.004698597
154	0xbd5bf56d	-0.053700853
155	0x3cf3ee05	0.029776582
156	0x3abf9784	0.0014617299
157	0xbdd3b495	-0.10337178
158	0x3e13a259	0.144174
159	0x3d30d48b	0.043171447
160	0xbcd4cd50	-0.025976807
161	0xbcecbc8c	-0.0288985
162	0x3da8facb	0.0825096
163	0x3d1b2af6	0.037882768
164	0x3db22d45	0.08700041
165	0x3d40cb0f	0.04706865
166	0xbd036631	-0.03207988
167	0x3c9c920a	0.019112606
168	0x3e131218	0.14362371
169	0x3d89ba25	0.067249574
170	0xbd7dede8	-0.061994463
171	0x3d1ae01c	0.037811384
172	0x3e0051f1	0.12531258
173	0xbd21b629	-0.039480362
174	0x3e1317b2	0.14364508
175	0xbc77c7dd	-0.015123335
176	0x3dcd26b5	0.100171484
177	0xbdd0587d	-0.10173128
178	0xbba98a1e	-0.0051739356
179	0x3d31aa9e	0.043375604
180	0x3dc0314a	0.09384401
181	0xbd194a13	-0.03742416
182	0xbdcbd94e	-0.09953557
183	0x3d8b9efb	0.068174325
184	0x3d966a25	0.07344464
185	0x3e17ccb8	0.14824188
186	0x3d8a2070	0.06744468
187	0xbe0e966f	-0.13924573
188	0x3de2ea33	0.11079826
189	0x3c016810	0.007898346
190	0xbcf7ad49	-0.030233996
191	0x3da2381e	0.0792086
192	0x3d9df435	0.077125944
193	0x3d8bee1c	0.06832525
194	0xbd9d4e5f	-0.07680964
195	0xbd8e890f	-0.069597356
196	0xbb001b83	-0.0019547648
197	0xbd7335c9	-0.059377465
198	0x3cdb44ca	0.0267662
199	0x3e14051c	0.14455074

lstm.bias_hh_l0 f4 [200]
0	0xbc654f1a	-0.01399591
1	0x3da8aef3	0.08236494
2	0xbdff48eb	-0.1246508
3	0xbdaf3ad2	-0.08556141
4	0x3d84c1b2	0.06482257
5	0x3dfae90d	0.12251482
6	0xbd258a9a	-0.040415384
7	0x3de21c02	0.11040498
8	0x3df93724	0.1216872
9	0xbdc426c0	-0.095777035
10	0xbddd1dc6	-0.107966945
11	0xbdb51744	-0.08842328
12	0x3d84e9d0	0.06489909
13	0x3da76eb6	0.08175413
14	0xbd909007	-0.07058721
15	0xbde8d82f	-0.11369359
16	0xbce20371	-0.027589532
17	0x3d92cdbd	0.07168148
18	0xbd0250f4	-0.031815484
19	0xbdd1fd07	-0.10253339
20	0x3d0d71a5	0.034532208
21	0xbd1b785f	-0.03795659
22	0xbdde8c90	-0.10866654
23	0xba702412	-0.00091606483
24	0xbb9aa717	-0.0047196257
25	0x3c061c15	0.008185406
26	0xbdabfe74	-0.083981425
27	0xbc9b6d1f	-0.018972931
28	0x3d1b07df	0.037849303
29	0xbdb760ef	-0.089540355
30	0xbd6ead67	-0.058270838
31	0x3d6571ec	0.056016847
32	0x3db5d435	0.08878366
33	0x3e0b3114	0.1359294
34	0x3d9a6797	0.075392894
35	0x3d95dea0	0.07317853
36	0xbd937811	-0.07200635
37	0x3dcf4f02	0.101224914
38	0x3db1f49a	0.08689232
39	0xbd061ea9	-0.032744084
40	0x3e0a79ad	0.13522978
41	0x3cc2bbed	0.02377125
42	0x3c4c905f	0.012485593
43	0xbda27083	-0.07931616
44	0x3d9fe6ae	0.078076705
45	0xbdd657dd	-0.10465977
46	0xbddefeea	-0.10888465
47	0x3d3a7d85	0.04552986
48	0x3c14400a	0.009048471
49	0xbdeecf5f	-0.11660647
50	0x3e0e30e5	0.1388584
51	0xbdc2160c	-0.09476861
52	0x3c37f187	0.011227018
53	0xba32e778	-0.00068246527
54	0xbde33e59	-0.11095876
55	0xbd0ebd2d	-0.03484838
56	0x3d8c6d63	0.06856801
57	0xbd82d121	-0.063875444
58	0xbd812279	-0.06305403
59	0x3d5c2743	0.05374838
60	0xbc8f8146	-0.017517697
61	0xbd79e9f5	-0.061014134
62	0x3e236203	0.15955357
63	0xbd83c668	-0.06434327
64	0xbd6eaa8c	-0.058268115
65	0x3d836b37	0.06416934
66	0xbdcd03a1	-0.10010458
67	0xbdebab3d	-0.115072705
68	0x3c87fb20	0.016599238
69	0xbce71a1f	-0.028210698
70	0xbe0e153c	-0.13875288
71	0x3e13c26c	0.14429635
72	0xbd6f93d9	-0.058490608
73	0x3d79f937	0.061028685
74	0x3e11acc1	0.14226057
75	0x3c338e72	0.010959255
76	0x3d75e71d	0.06003486
77	0xbc6e2c7d	-0.014536974
78	0xbde323cd	-0.11090813
79	0xbdfa74fa	-0.12229343
80	0x3e045ec3	0.12926774
81	0x3e0caeda	0.13738576
82	0xbdc7419b	-0.0972931
83	0x3d79a294	0.060946062
84	0x3e130744	0.1435824
85	0x3d877cc6	0.066155955
86	0xbc909ac3	-0.017651921
87	0x3e07c642	0.13259223
88	0x3ccdf6a5	0.025142023
89	0x3defd163	0.11709859
90	0xbb4a0df5	-0.0030831073
91	0xbd946976	-0.072466776
92	0xbc5a0e19	-0.013309025
93	0xbd5ade99	-0.053434942
94	0xbe033533	-0.12813263
95	0xbccfa693	-0.025347983
96	0x3e0ddce0	0.13853788
97	0xbc9daef2	-0.01924846
98	0x3e03a0ef	0.1285436
99	0x3dc7cf0b	0.09756287
100	0x3de3ca20	0.11122537
101	0x3b018626	0.0019763797
102	0xbe0c8796	-0.13723597
103	0x3e175d7e	0.14781758
104	0xbd5c5e29	-0.053800736
105	0xbdda379f	-0.1065514
106	0x3d114460	0.035465598
107	0x3dbab6eb	0.0911692
108	0xbd32ea3e	-0.043680422
109	0x3da4dd82	0.08050062
110	0xbde61f99	-0.112364955
111	0x3cc6768b	0.024226448
112	0xbc836098	-0.01603727
113	0x3bee8f6e	0.0072802817
114	0xbc9aed76	-0.018912058
115	0xbd5339d2	-0.051568814
116	0xbd10eb85	-0.03538086
117	0x3dee5d77	0.11638921
118	0x3da003a7	0.07813197
119	0x3e1fcdfd	0.15605922
120	0x3d7641e9	0.06012145
121	0xbcddb21b	-0.027062466
122	0xbe0a2aa2	-0.13492826
123	0xbe02932e	-0.12751457
124	0xbd5e4bb5	-0.05427142
125	0x3e03ba87	0.12864123
126	0x3d63045e	0.055424087
127	0x3d08c94d	0.0333951
128	0x3df1c7ed	0.11805711
129	0x3d9436aa	0.07236989
130	0x3df6e798	0.12055892
131	0x3e1eab03	0.15494923
132	0x3c84d91e	0.01621681
133	0x3c92f943	0.017941123
134	0x3d3178e9	0.0433282
135	0x3d91e131	0.0712303
136	0x3daa30e8	0.083101094
137	0x3e0d6cbb	0.13811009
138	0xbc1e6668	-0.00966797
139	0x3dfb3d9c	0.122676104
140	0xbb26082f	-0.0025334468
141	0xbdd2225b	-0.10260459
142	0x3dd050f5	0.10171691
143	0x3de64536	0.1124367
144	0xbdf449bb	-0.119281255
145	0xbe04086e	-0.1289384
146	0xbe066723	-0.13125281
147	0xbd73b5f5	-0.0594997
148	0x3d8f1079	0.06985564
149	0x3d6f6d4f	0.058453854
150	0x3e112b72	0.1417673
151	0xbd9c72e8	-0.07639104
152	0x3de1ed5c	0.11031601
153	0x3e0bb317	0.13642536
154	0x3e083f47	0.13305388
155	0x3ddd1a8f	0.10796081
156	0xbdc6cde1	-0.09707237
157	0x3da73a31	0.08165396
158	0xbd21fd30	-0.0395481
159	0xbdc72b35	-0.09725038
160	0x3d836d97	0.06417387
161	0xbdcff1d7	-0.10153549
162	0xbd69ea27	-0.05710807
163	0x3dd615e2	0.104533926
164	0xbd620ebf	-0.055189844
165	0x3d85c74f	0.06532156
166	0xbdd27605	-0.10276417
167	0xbb85452a	-0.004067083
168	0x3dafddb1	0.08587206
169	0x3dd74421	0.105110414
170	0xbdc64219	-0.09680576
171	0x3d6c6d94	0.05772169
172	0xbd82ff3f	-0.063963406
173	0xbdda6195	-0.106631435
174	0xbd7ac7bd	-0.06122564
175	0xbdd0378e	-0.10166846
176	0xbdedd6d3	-0.1161324
177	0x3dd7ed18	0.10543269
178	0x3d714c73	0.0589108
179	0xbd88add4	-0.0667378
180	0x3da7a389	0.08185489
181	0xbd72f843	-0.059318792
182	0x3ca95169	0.020668702
183	0x3e031de2	0.12804368
184	0x3cd11bad	0.025525892
185	0xbce364ae	-0.027757969
186	0xbe0a47ca	-0.13503948
187	0xbc1d2960	-0.009592384
188	0x3d2bdfea	0.041961588
189	0x3e0f4d7e	0.13994405
190	0xbc63e955	-0.013910611
191	0x3ca22372	0.019792292
192	0x3cc79329	0.024362164
193	0x3da4a7fe	0.080398545
194	0x3ccb17b0	0.024791569
195	0x3d4d65cd	0.050145913
196	0x3e0044e3	0.12526278
197	0xbd2a320b	-0.04155163
198	0x3cd9c8dd	0.026585037
199	0xbd356428	-0.04428497

lstm.weight_ih_l1 f4 [200, 50]
0	0x3dd87b9d	0.10570452
1	0x3d381a1e	0.044946782
2	0x3db91015	0.090362705
3	0x3e0a0f22	0.13482335
4	0x3e07e3f8	0.13270557
5	0xbd09f22c	-0.03367822
6	0xbba169f0	-0.004925959
7	0xbb5dff85	-0.0033874225
8	0x3de2c3af	0.1107248
9	0xbd92963f	-0.071575634
10	0x3dda10da	0.106477454
11	0x3de42417	0.11139696
12	0xbdc5c81a	-0.09657307
13	0x3c7c16c5	0.015386288
14	0xbc8783f7	-0.016542418
15	0xbc0de1a3	-0.008659753
16	0x3d773ab8	0.060358733
17	0xbddf2db8	-0.10897392
18	0xbddfeaea	-0.10933478
19	0x3ddb1e3e	0.106991276
20	0x3da0fe2a	0.07860978
21	0xbd5d446c	-0.05402033
22	0xbe17f3c8	-0.14839089
23	0xbd9c0ed0	-0.07620013
24	0xbdb10713	-0.086439274
25	0xbd4c01c6	-0.04980638
26	0x3e10b3eb	0.14131133
27	0x3d15946a	0.03651849
28	0x3e1c2f10	0.15252328
29	0x3dd4c304	0.10388759
30	0x3e0fef6f	0.1405618
31	0xbd631649	-0.055441175
32	0xbd9b3fe3	-0.07580545
33	0x3d605f04	0.054778114
34	0xbda1ca83	-0.07899954
35	0xbc986979	-0.01860498
36	0xbd93e789	-0.07221896
37	0xbc857a47	-0.016293658
38	0xbe24a165	-0.16077192
39	0xbc9f2662	-0.019427482
40	0xbd1b1680	-0.037863255
41	0xbc6f996f	-0.014623984
42	0xbcdd4976	-0.027012568
43	0xbba30220	-0.0049746186
44	0xbdef0d1f	-0.116724245
45	0xbc90d809	-0.017681139
46	0xbc8331f7	-0.016015036
47	0xbbadfb06	-0.0053094653
48	0xbd638b39	-0.055552695
49	0x3e101c50	0.140733
50	0x3d04f54a	0.03246049
51	0x3dd82b26	0.10555105
52	0x3d8e323f	0.069431774
53	0xbd45add7	-0.04826149
54	0x3dc91a48	0.09819466
55	0xbcf4e7c3	-0.029895669
56	0x3d757877	0.059929337
57	0x3e03226a	0.12806097
58	0x3d808e75	0.062771715
59	0xbe0de022	-0.13855031
60	0xbdb450c1	-0.08804465
61	0xbde88dd0	-0.113551736
62	0xbdcfd826	-0.10148649
63	0xbdae263b	-0.08503386
64	0xbd37ab0c	-0.044840857
65	0xbadae8b1	-0.0016701428
66	0x3dd271cd	0.10275612
67	0x3d328b4b	0.04358987
68	0xbca240c5	-0.019806275
69	0xbdd4919d	-0.10379336
70	0xbda15cb3	-0.07879009
71	0xbcc52dcb	-0.024069687
72	0xbd6fc5a6	-0.0585381
73	0xbe00bed8	-0.12572801
74	0xbd68c40d	-0.056827594
75	0xbdd1cd21	-0.10244203
76	0x3db7da4c	0.08977184
77	0xbb863778	-0.004095968
78	0x3d834aa1	0.06410719
79	0x3dc97d1c	0.09838316
80	0x3d9c54f0	0.07633388
81	0xbd100662	-0.035162337
82	0x3d98e289	0.07465083
83	0x3d8cf04c	0.068817705
84	0xbdb9a8bb	-0.09065386
85	0x3d197294	0.037462786
86	0x3d999b14	0.07500282
87	0xb9ecf895	-0.00045198636
88	0x3dde6a10	0.108600736
89	0x3d462aea	0.04838077
90	0xbe01f8fc	-0.12692636
91	0xbca2193b	-0.019787421
92	0xbdbd983d	-0.09257553
93	0x3de4dd9f	0.11175083
94	0xbd1cf743	-0.038321745
95	0xbdeec4a7	-0.11658602
96	0x3d991ceb	0.07476219
97	0x3d80f774	0.06297198
98	0xbe0e246e	-0.13881084
99	0x3c50158a	0.012700448
100	0x3d7bfe68	0.061521918
101	0x3e023336	0.12714848
102	0x3e0fd30d	0.14045353
103	0xbd14f3c6	-0.036365293
104	0xbcd91b5e	-0.026502308
105	0x3ca2ae05	0.01985837
106	0xbdd7f2d2	-0.10544361
107	0x3bbcde0c	0.0057637747
108	0x3e11e208	0.1424638
109	0xbd8ec5dc	-0.069713324
110	0x3df1ec41	0.1181264
111	0x3d84a630	0.0647701
112	0xbdb0bfc0	-0.086303234
113	0xbc938423	-0.018007344
114	0x3daab24b	0.08334788
115	0x3dd7f97a	0.10545631
116	0x3da6e355	0.08148829
117	0xbdbc9a03	-0.09209063
118	0x3cd45970	0.025921553
119	0x3de2d629	0.11076004
120	0x3d98c0a7	0.074586205
121	0x39997cfa	0.0002927555
122	0xbd6faef2	-0.05851645
123	0x3e083b3f	0.1330385
124	0xbdc8b0db	-0.097993575
125	0xbd90d6ce	-0.07072221
126	0xbbe18337	-0.006882097
127	0x3ddde5f8	0.10834879
128	0xbd10fe48	-0.03539875
129	0x3e112390	0.14173722
130	0x3d597da4	0.053098336
131	0x3d8adad6	0.06780021
132	0xbd897fe6	-0.06713848
133	0x3e056781	0.13027765
134	0xbb6392cf	-0.0034724956
135	0xbe17b6a4	-0.14815766
136	0x3ccb07d9	0.024784015
137	0xbd5b32a1	-0.05351508
138	0xbd94a40a	-0.072578505
139	0xbdf1ba76	-0.11803143
140	0x3dac27b5	0.08406011
141	0xbddb2755	-0.10700861
142	0xbd921284	-0.07132438
143	0x3c61f6a9	0.0137917185
144	0xbd8ed1d3	-0.069736145
145	0x3e012a87	0.12613879
146	0xbb5ce6cf	-0.0033706909
147	0x3d831853	0.06401124
148	0xbd8710c7	-0.06594997
149	0xbdc28e6d	-0.09499822
150	0xbe039581	-0.1285
151	0x3d9f2427	0.077705674
152	0xbbb04868	-0.0053797252
153	0x3b14078d	0.0022587508
154	0x3dae3d58	0.08507794
155	0xbd1b85dd	-0.03796946
156	0xbd45cc66	-0.048290633
157	0x3d871ea0	0.06597638
158	0x3d1df2c5	0.0385616
159	0x3d9463c1	0.07245589
160	0xbd94166c	-0.07230839
161	0x39307fd1	0.00016832283
162	0xbdc25782	-0.09489347
163	0x3deb6c7d	0.11495302
164	0xbdf893bd	-0.12137554
165	0xbd4e1849	-0.05031613
166	0xbc88d93c	-0.016705148
167	0xbe0d3fc7	-0.1379386
168	0xbd66ead1	-0.056376282
169	0xbde2b9a2	-0.11070563
170	0xbdde707c	-0.108612984
171	0x3e020d8c	0.1270048
172	0xbd873c82	-0.06603338
173	0xbdafe995	-0.08589474
174	0xbd4dcab7	-0.050242152
175	0xbdbc3b35	-0.0919098
176	0x3c17c96c	0.009264331
177	0xbe04ba25	-0.12961634
178	0x3e0436ac	0.1291148
179	0xbd490052	-0.04907257
180	0x3da6b2e2	0.08139588
181	0xbe11b90f	-0.1423075
182	0x3d59db6d	0.053187776
183	0x3c94d984	0.018170126
184	0xbe160ee9	-0.14654125
185	0x3dfe5ff4	0.12420645
186	0xbdb07d22	-0.08617617
187	0xbdab8b7c	-0.08376214
188	0xbb4b7781	-0.0031046572
189	0x3de69d82	0.11260511
190	0xbd847f05	-0.064695396
191	0x3ddf6d96	0.10909574
192	0x3cafeaac	0.021474205
193	0xbdf844ab	-0.121224724
194	0xbd8e18a2	-0.06938292
195	0x3e074d36	0.13213047
196	0xbde9df96	-0.11419599
197	0xbe08d75d	-0.13363405
198	0x3c69e3ad	0.014275474
199	0x3d47c09c	0.04876767
200	0xbdbcf1b0	-0.09225786
201	0x3e0d7c19	0.13816871
202	0x3e0cbd6c	0.13744134
203	0x3e09e9ab	0.13468044
204	0x3cc949aa	0.024571259
205	0xbd504ca2	-0.050854333
206	0xbdfcbe77	-0.12341016
207	0x3d940845	0.0722814
208	0xbc8b3473	-0.016992783
209	0x3dafc414	0.08582321
210	0xbd9957a0	-0.07487416
211	0x3ddc4a49	0.10756356
212	0x3df5779f	0.119857065
213	0x3ddb479f	0.1070702
214	0xbda5ad16	-0.08089654
215	0xbd89a68e	-0.06721221
216	0x3d86b27c	0.06577012
217	0xbdb280f2	-0.087160006
218	0x3c8cc5b1	0.01718411
219	0x3e07eb5b	0.13273375
220	0xbd91e651	-0.071240075
221	0xbd7641ca	-0.060121335
222	0x3e045bc3	0.1292563
223	0xbdb198d3	-0.08671727
224	0xbe019eee	-0.12658283
225	0x3c59beff	0.013290166
226	0x3e03404a	0.12817493
227	0x3d012ae9	0.031535063
228	0xbda3fb83	-0.080069564
229	0x3d94bd12	0.07262625
230	0x3cf34321	0.029695095
231	0xbdf9880d	-0.12184153
232	0x3d58112f	0.052750763
233	0x3d8acf3f	0.0677781
234	0xbdf3e982	-0.119097725
235	0xbda22ebf	-0.07919072
236	0x3d5a0c2d	0.053234268
237	0xbd436a3c	-0.047708735
238	0xbdf3af77	-0.11898702
239	0xbe0157ba	-0.12631121
240	0xbdeceb40	-0.11568308
241	0x3de51059	0.11184759
242	0xbddb1a04	-0.106983215
243	0x3e08de5d	0.13366075
244	0xbdb626f3	-0.08894148
245	0x3ce4a680	0.027911425
246	0xbd226c37	-0.039653983
247	0x3cc47f9b	0.023986628
248	0xbc90eb3a	-0.01769029
249	0x3d82515b	0.063631736
250	0xbe009e68	-0.12560427
251	0x3e030939	0.12796487
252	0x3db6774d	0.089094736
253	0xbc51ed85	-0.012812977
254	0xbdbdaad0	-0.092610955
255	0x3e19441a	0.14967385

lstm.weight_hh_l1 f4 [200, 50]
0	0x3d4db0b2	0.050217338
1	0xbd80a46e	-0.062813625
2	0x3dd0e66f	0.10200202
3	0x3def9c09	0.11699683
4	0xbd1d7e12	-0.03845031
5	0xbcb7426d	-0.022370541
6	0x3cd02238	0.025406942
7	0xbcdaa21a	-0.026688624
8	0xbdf79e26	-0.12090711
9	0xbde5f0cf	-0.11227571
10	0x3e14d2b2	0.14533499
11	0x3d9331e9	0.07187254
12	0xbb8f1305	-0.004366281
13	0x3ddfa003	0.10919192
14	0x3dcf2ea3	0.10116317
15	0xbd190d69	-0.037366305
16	0x3d47efd7	0.048812713
17	0xbdd24a57	-0.102680854
18	0xbdfe3e75	-0.124142565
19	0xbbb379ab	-0.0054771504
20	0x3d9c0b8e	0.076193914
21	0x3df00230	0.11719167
22	0xbc1fe1a5	-0.009758388
23	0x3d820a47	0.063496165
24	0xbe034039	-0.12817468
25	0xbdeee839	-0.11665387
26	0x3ddee2c5	0.108830966
27	0xbd9adc80	-0.07561588
28	0x3e1d8353	0.15382127
29	0x3d81d445	0.06339315
30	0xbd94b36b	-0.07260784
31	0x3da529aa	0.080645874
32	0x3d96874a	0.07350023
33	0xbdf35256	-0.11880939
34	0x3e026be3	0.12736468
35	0xbd7a6c24	-0.061138287
36	0xbd98c401	-0.0745926
37	0x3d8bbbac	0.06822905
38	0xbd795e2e	-0.060880832
39	0x3dcc18b0	0.09965646
40	0xbdd775fd	-0.10520551
41	0xbd8c46b6	-0.068494245
42	0x3dc7c6ce	0.09754716
43	0xbdfc85a8	-0.123301804
44	0xbd81d415	-0.063392796
45	0xbd9bd91b	-0.07609769
46	0x3d67947d	0.056538094
47	0x3d66b88f	0.056328353
48	0xbc1cbaba	-0.009566003
49	0xbd1dc768	-0.038520247
50	0xbce72ace	-0.028218653
51	0xbdb4a23a	-0.08820005
52	0x3cf58f75	0.029975632
53	0xbd3e9b68	-0.046534926
54	0xbe05bb62	-0.13059762
55	0xbde0d3fb	-0.10977932
56	0x3da3cc10	0.07997906
57	0x3df8733e	0.12131356
58	0x3d6384b9	0.055546496
59	0x3bec7164	0.0072156657
60	0xbdc0687c	-0.09394929
61	0x3de0902f	0.10965001
62	0x3b863897	0.0040961015
63	0xbd0c7388	-0.034289867
64	0x3e058491	0.13038851
65	0x3d4cd23e	0.05000519
66	0x3c94e3ab	0.018174967
67	0x3e0dcf01	0.13848497
68	0xbdd38afd	-0.10329244
69	0xbdcbcbb3	-0.09950962
70	0xbde6f9c3	-0.11278107
71	0xbdc97ffe	-0.09838866
72	0xbd614fbf	-0.055007692
73	0xbe0f9a89	-0.14023794
74	0xbd114811	-0.03546912
75	0xbc802567	-0.015642835
76	0x3cd8f182	0.026482347
77	0xbe0910f2	-0.1338537
78	0xbd72ca09	-0.059274707
79	0x3decd5b8	0.11564201
80	0x3dc9150e	0.09818469
81	0x3ca318b8	0.019909248
82	0x3d452712	0.048132963
83	0xbc99c0f6	-0.018768769
84	0xbda0ce22	-0.07851817
85	0x3da76753	0.081740044
86	0xbd0fb116	-0.03508099
87	0xbc57a14a	-0.013161013
88	0xbd9192fc	-0.07108113
89	0xbd7d0043	-0.061767828
90	0xbdb412da	-0.08792658
91	0x3de9cb9f	0.11415791
92	0x3d9d04dc	0.076669425
93	0x3cc43781	0.023952248
94	0xbe0ac869	-0.13553013
95	0x3d0a0e4a	0.033705033
96	0x3ddab31a	0.10678692
97	0x3d7760ba	0.06039498
98	0x3e005df2	0.12535837
99	0xbd65bebf	-0.056090113
100	0x3d0dd8b3	0.03463049
101	0xbcfd3f86	-0.03091408
102	0xbcd03466	-0.02541561
103	0xbd8eb834	-0.06968728
104	0xbdd5ae14	-0.104335934
105	0xbbaca168	-0.0052682646
106	0x3d89b758	0.06724423
107	0x3dea99ab	0.11455091
108	0x3d3f71f8	0.04673955
109	0x3e004375	0.12525733
110	0x3d19390c	0.03740792
111	0xbd917c82	-0.07103826
112	0xbd1bf74d	-0.03807764
113	0x3d612044	0.05496241
114	0x3da6cb51	0.08144248
115	0x3b3fa9e4	0.002924555
116	0xbddb3862	-0.107041135
117	0xbd99b185	-0.07504562
118	0x3dfc7451	0.12326873
119	0x3c84e31e	0.01622158
120	0xbd267f4d	-0.040648747
121	0x3d20e5ca	0.039281644
122	0x3d4b714d	0.0496686
123	0x3d1a41af	0.037660297
124	0x3b43cfed	0.0029878572
125	0xbd1d4747	-0.038398053
126	0xbdb690f1	-0.08914364
127	0x3d4c3b37	0.04986116
128	0x3df6d2ba	0.12051912
129	0x3d0b88e2	0.03406609
130	0xbe1c2a74	-0.1525057
131	0x3da5a550	0.080881715
132	0x3b7f8e0a	0.0038994574
133	0xbd79064c	-0.06079702
134	0x3df22f7d	0.11825464
135	0x3d90b184	0.070651084
136	0x3e04e6cb	0.12978666
137	0x3dbb8d4e	0.09157811
138	0xbdbf404a	-0.09338434
139	0xbd6ac87b	-0.0573201
140	0xbd2d9bb4	-0.04238482
141	0x3cd3d934	0.025860406
142	0xbde17a57	-0.110096626
143	0x3e16ffbf	0.14745997
144	0x3d848535	0.0647072
145	0x3d0f08c0	0.034920454
146	0x3ca409e7	0.020024253
147	0xbd2fe4db	-0.042942863
148	0xbda8607a	-0.082215264
149	0x3df57289	0.119847365
150	0x3df6f999	0.12059326
151	0xbe025e30	-0.12731242
152	0x3cd660f1	0.026169272
153	0xbdc45518	-0.09586543
154	0xbdc4e820	-0.09614587
155	0x3e0419f3	0.12900524
156	0xbe0146ab	-0.12624614
157	0x3d3a975f	0.045554515
158	0x3d658e2a	0.05604378
159	0xbdb22d1c	-0.0870001
160	0x3d6db33a	0.058032252
161	0x3d97ea74	0.07417765
162	0x3d928b0a	0.07155426
163	0x3dae982b	0.085251175
164	0x3de50d3f	0.11184167
165	0x3e15f894	0.14645606
166	0x3e0dfcd7	0.13865982
167	0x3dd31dee	0.10308443
168	0x3be214af	0.0068994383
169	0xbda1fe6b	-0.079098545
170	0xbd9bd864	-0.076096326
171	0x3de0b35c	0.1097171
172	0xbd3944ce	-0.045231633
173	0xbd437537	-0.047719207
174	0xbdb91ea1	-0.09039045
175	0xbc485de6	-0.012229418
176	0xbd30d220	-0.04316914
177	0x3d527dbc	0.05138944
178	0xbda0f084	-0.07858375
179	0x3be448f5	0.006966705
180	0x3c51d84b	0.012807916
181	0x3d278679	0.040899727
182	0x3dc2a667	0.09504395
183	0xbd4bba24	-0.049738064
184	0x3c47acd5	0.012187202
185	0x3dac3fdf	0.0841062
186	0x3c669a18	0.014074825
187	0x3da749ef	0.081683986
188	0xbd49fac2	-0.049311407
189	0x3ba73f6e	0.005103997
190	0x3c47dff7	0.0121993935
191	0x3e0e0f8b	0.13873117
192	0x3d6fa4bd	0.058506716
193	0x3d0af209	0.03392223
194	0xbb1e68b7	-0.0024171302
195	0xbd5318e7	-0.05153742
196	0x3e13eadb	0.14445059
197	0xbba43c91	-0.005012103
198	0x3dc25166	0.09488182
199	0x3e19fb4f	0.15037273
200	0x3dba6242	0.091007724
201	0x3cbd7c92	0.023130689
202	0xbdcf2370	-0.10114181
203	0x3e01ba4d	0.12668724
204	0x3dccb888	0.09996134
205	0xbced110d	-0.028938795
206	0x3c9a0a42	0.01880372
207	0x3d4b3bbc	0.049617514
208	0x3e0591c1	0.13043882
209	0xbd009181	-0.031388763
210	0xbddd466c	-0.108044475
211	0x3d291018	0.041275114
212	0x3da2ae6b	0.07943424
213	0x3d58ecfa	0.052960373
214	0x3dcd835c	0.100348204
215	0x3da28124	0.07934788
216	0xbba0f401	-0.0049119
217	0xbb9efb55	-0.0048517385
218	0xbdfdd0f7	-0.123933725
219	0xbd9911ec	-0.074741215
220	0x3de1aa4a	0.11018808
221	0x3d869a0c	0.06572351
222	0x3e1048e1	0.14090301
223	0x3d6d016c	0.057862684
224	0x3d952088	0.072815955
225	0x3b956e89	0.004560296
226	0xbc400f2b	-0.011722366
227	0x3dd1ad9c	0.102381915
228	0xbe04cdcf	-0.12969135
229	0x3d713450	0.05888778
230	0xbc59ce26	-0.0132937785
231	0xbda0a569	-0.078440495
232	0x3d290a72	0.041269727
233	0x3c7772c5	0.015103047
234	0xbb9f1dc4	-0.0048558433
235	0x3dc3f7b8	0.09568733
236	0xbdcaaa6a	-0.09895785
237	0xbe1b6d43	-0.15178399
238	0x3dda2487	0.10651498
239	0xbcb6edbf	-0.022330163
240	0xbddd6f66	-0.10812263
241	0xbcd97b8d	-0.026548171
242	0x3d85f3e3	0.06540658
243	0xbdb2ee3a	-0.08736844
244	0x3ddba7a5	0.10725335
245	0x3b902ce6	0.0043998836
246	0xbda31cb3	-0.07964458
247	0xbd1695e1	-0.03676403
248	0xbdedb9b8	-0.11607689
249	0x3c9816fc	0.018565647
250	0x3dc86819	0.0978548
251	0x3dedcd32	0.116114035
252	0x3dd56a75	0.10420696
253	0xbd17dfdf	-0.037078734
254	0x3d70951f	0.058735963
255	0xbc3e82fc	-0.011627909

lstm.bias_ih_l1 f4 [200]
0	0x3d60814e	0.054810815
1	0xbe05563e	-0.1302118
2	0xbb3eb77c	-0.0029101064
3	0xbd9e4109	-0.07727248
4	0x3caba708	0.02095367
5	0x3c11e559	0.008904778
6	0xbc6fbb2f	-0.01463203
7	0xb9af39af	-0.0003342158
8	0xbd2c201a	-0.042022802
9	0x3d42f433	0.047596168
10	0xbdc0e8ac	-0.09419379
11	0x3de7827c	0.11304185
12	0x3d39e640	0.0453856
13	0x3da0a8a8	0.078446686
14	0xbd1313d9	-0.0359076
15	0x3dc991cf	0.09842264
16	0x3be23842	0.006903679
17	0xbdc480c9	-0.09594876
18	0x3c834496	0.016023915
19	0xb9b9e504	-0.0003545658
20	0xbe05f2b3	-0.13080864
21	0x3d114240	0.03546357
22	0xbcbbe260	-0.022935092
23	0xbd9297c9	-0.07157857
24	0x3d3bb8b0	0.04583043
25	0x3dab1154	0.083529145
26	0x3dde0df0	0.10842502
27	0x3d9df928	0.077135384
28	0x3e1eafe3	0.15496783
29	0xbdb70fdd	-0.089385726
30	0xbdb6282a	-0.088943794
31	0x3da669d3	0.08125653
32	0xbd896488	-0.06708628
33	0xbde144a5	-0.10999421
34	0x3db9e1c8	0.090762675
35	0xbd4400ec	-0.04785244
36	0xbca87993	-0.020565784
37	0x3d3af9c0	0.045648336
38	0x3e10748b	0.14106958
39	0xbd901498	-0.07035178
40	0xbce19f29	-0.027541714
41	0x3e01f8fd	0.12692638
42	0x3d921036	0.07131998
43	0x3e083287	0.13300525
44	0xbdccf96b	-0.1000851
45	0xbd4dc099	-0.050232504
46	0xbcd8b338	-0.026452646
47	0xbd3a303b	-0.045456152
48	0x3db894cb	0.09012755
49	0x3db17fff	0.086669914
50	0xbdec58e6	-0.115403935
51	0xbdc892a9	-0.09793598
52	0x3cbd78bc	0.02312886
53	0x3cb5a5ea	0.02217384
54	0x3d07fc79	0.03319976
55	0x3d2d17a3	0.04225887
56	0x3da6f0ad	0.08151374
57	0x3e16667d	0.14687534
58	0x3d904fba	0.07046457
59	0x3d78f8b5	0.06078406
60	0x3ce3505d	0.027748281
61	0x3dcb469c	0.09925577
62	0xbd51249a	-0.051060297
63	0xbc3159dc	-0.010824647
64	0x3dd6c0ad	0.10485969
65	0x3d0c3492	0.034229822
66	0xbdeffb35	-0.11717836
67	0x3ddabd9f	0.106806986
68	0x3dbec81b	0.09315511
69	0xbdd2c5b4	-0.10291615
70	0xbe0a673b	-0.13515942
71	0x3e10a1a6	0.14124164
72	0x3d16098a	0.03663019
73	0x3cdd96cd	0.027049446
74	0xbdc47bc8	-0.09593922
75	0x3e1633ac	0.14668149
76	0xbc5922e2	-0.013252946
77	0x3af7ad6c	0.0018896288
78	0x3d04c24d	0.032411862
79	0xbd1a1aa6	-0.03762307
80	0xbe004aff	-0.12528609
81	0xbdc3c137	-0.09558337
82	0x3cce50b2	0.025184963
83	0x3e139ab9	0.14414491
84	0x3d764fd5	0.060134728
85	0xbd79267c	-0.060827717
86	0xbdae3ebb	-0.08508059
87	0x3d88a485	0.066720046
88	0x3c80e2d7	0.015733166
89	0xbce95029	-0.028480606
90	0xbdefbbf9	-0.11705775
91	0xbdcf0551	-0.10108436
92	0x3e0fae75	0.14031394
93	0x3ddc4781	0.10755826
94	0x3d839638	0.06425136
95	0x3dfb4335	0.12268678
96	0xbd8d7326	-0.069067284
97	0x3d3ae136	0.045624934
98	0x3e0ff29a	0.14057389
99	0xbd5599d1	-0.052148644
100	0x3e245f9f	0.16052102
101	0x3cb53557	0.022120161
102	0xbdd661a9	-0.10467846
103	0xbddcebc2	-0.10787155
104	0x3a1d2c16	0.0005995644
105	0x3cc0832c	0.023500048
106	0xbdf3bf80	-0.1190176
107	0x3d014c3f	0.031566855
108	0xbdd0bb21	-0.10191942
109	0xbe1f1873	-0.1553667
110	0x3dcc5e03	0.09978869
111	0xbb847fc7	-0.0040435526
112	0x3e15311a	0.14569512
113	0xbd4cbad7	-0.04998287
114	0x3e019ef8	0.12658298
115	0xbe039720	-0.12850618
116	0xbe1e8c5d	-0.15483232
117	0x3d44aefc	0.04801844
118	0xbd819a8b	-0.06328305
119	0xbdfa4175	-0.12219516
120	0x3ca9f195	0.020745078
121	0xbd2f4c80	-0.042797565
122	0x3d3cbe86	0.046080135
123	0x3d757828	0.059929043
124	0xbd47f17c	-0.04881428
125	0xbb9eb3df	-0.0048432196
126	0xba286dca	-0.0006425051
127	0xbd1d1556	-0.038350426
128	0x3e09d43f	0.13459872
129	0x3e0c5d6f	0.13707517
130	0xbc6b1ba7	-0.014349855
131	0x3df90177	0.121584825
132	0x3c9a9d3d	0.018873805
133	0x3c799e1f	0.015235453
134	0x3dfc009d	0.123048045
135	0xbd3f610c	-0.04672341
136	0xbce4fc2c	-0.027952276
137	0xbd34929b	-0.044085126
138	0xbd4f06de	-0.05054366
139	0xbc4fccea	-0.012683133
140	0xbd1d7567	-0.03844204
141	0xbd17e07c	-0.03707932
142	0xbdce101a	-0.10061665
143	0xbdbda9c2	-0.09260894
144	0xba5ce01a	-0.0008425728
145	0x3dbf95b0	0.093547225
146	0xbdd5a474	-0.104317576
147	0xbd9f17f6	-0.07768242
148	0x3c31321b	0.010815169
149	0xbd23ab34	-0.039958194
150	0x3bb2a42e	0.0054517007
151	0x3d9a9f96	0.0754997
152	0x3bf3cfe1	0.0074405526
153	0x3d668231	0.056276504
154	0x3dbe7f05	0.09301571
155	0x3c3c5cf5	0.011496772
156	0x3d3e345b	0.04643665
157	0x3dcb87de	0.09938024
158	0x3dac2195	0.08404843
159	0xbdbd5814	-0.09245315
160	0x3e240008	0.16015637
161	0xbe0a21b8	-0.13489425
162	0x3da07458	0.07834691
163	0x3ca9985e	0.020702537
164	0xbbd4f0f2	-0.0064984495
165	0x3c61d2dc	0.013783183
166	0xbd189f9b	-0.037261587
167	0x3e0b7bb6	0.1362141
168	0xbcb7249e	-0.022356328
169	0xbd567e3a	-0.052366473
170	0xbbe2d380	-0.0069221854
171	0x3d8fed1f	0.07027649
172	0xbcb43070	-0.021995753
173	0x3da7eec6	0.08199839
174	0xbd45edcf	-0.048322495
175	0xbd009e5d	-0.031401027
176	0xbdb1d0f5	-0.086824335
177	0xbc3e4237	-0.011612467
178	0xbdedf334	-0.11618653
179	0xba20ce74	-0.00061342795
180	0xbd5b7a7a	-0.0535836
181	0x3dd0b7cb	0.10191306
182	0x3e12a8bd	0.14322181
183	0x3e070fda	0.1318964
184	0xbd3011d9	-0.04298577
185	0xbdcb5a7a	-0.099293664
186	0xbd32cf16	-0.043654524
187	0xbd869eae	-0.065732345
188	0xbd29c77f	-0.04145002
189	0xbd867e5b	-0.06567069
190	0xbd8f182c	-0.06987032
191	0xbcc0d624	-0.02353961
192	0x3da537fb	0.08067318
193	0x3d7d8b54	0.06190045
194	0xbd6fdfdb	-0.058563095
195	0x3cc5acf6	0.024130326
196	0x3dd1cc20	0.10244012
197	0xbd12b1b0	-0.035813987
198	0x3c97dc6a	0.018537719
199	0x3d1f6e2b	0.038923424

lstm.bias_hh_l1 f4 [200]
0	0x3d90332a	0.07041009
1	0xbe03f312	-0.12885693
2	0xbce9931e	-0.028512534
3	0xbd833ca6	-0.06408052
4	0xbd94cb2b	-0.07265314
5	0xbcb5d604	-0.022196777
6	0x3dff0c42	0.1245351
7	0xbdb0e9c9	-0.08638341
8	0x3db94999	0.09047241
9	0x3d36b7e5	0.04460897
10	0x3dd717ec	0.105026096
11	0x3c8eea46	0.017445695
12	0xbcfcbf2c	-0.030852877
13	0xbcf21ac8	-0.029553786
14	0x3b407a9b	0.0029369954
15	0xbd260607	-0.040533092
16	0x3e138aa2	0.14408353
17	0x3c8ade0c	0.016951583
18	0xbdae7679	-0.085186906
19	0x3db69e97	0.08916967
20	0x3de4cfce	0.11172448
21	0x3e1813ce	0.14851305
22	0xbe02f03a	-0.12786952
23	0xbd592353	-0.053012203
24	0x3d764796	0.060126863
25	0xbcac9578	-0.021067366
26	0x3dac0dc6	0.084010646
27	0xbe26ac35	-0.1627663
28	0xbdc849aa	-0.09779675
29	0x3d05c99a	0.032662965
30	0x3dbe0675	0.09278575
31	0x3d629e23	0.055326592
32	0x3dd920c7	0.10601955
33	0x3e0182e7	0.12647592
34	0x3d6a505d	0.057205547
35	0xbd814e96	-0.06313817
36	0xbccda41a	-0.025102664
37	0xbc8d6c49	-0.017263548
38	0x3db424e6	0.087961
39	0x3d7fb087	0.06242421
40	0x3e149a3a	0.14511958
41	0x3d9ebef5	0.07751266
42	0xbdf57fe3	-0.11987283
43	0x3e2452c4	0.16047198
44	0xbdb954ac	-0.09049353
45	0x3d06f745	0.03295066
46	0x3ded3574	0.11582461
47	0x3d7324ab	0.05936114
48	0x3db86c07	0.090049796
49	0x3da50ad5	0.08058707
50	0x3d5a5653	0.05330498
51	0xbd2f174b	-0.042746823
52	0xbdba8d6a	-0.09109004
53	0x3dde3ceb	0.10851463
54	0xbe081681	-0.13289835
55	0x3dd14728	0.1021865
56	0xbda94046	-0.08264212
57	0x3d685c02	0.05672837
58	0xbd3b90fe	-0.045792572
59	0xbc6b18cb	-0.014349173
60	0x3cd38560	0.025820434
61	0xbdd008c2	-0.101579204
62	0x3e257fbd	0.1616201
63	0xbd787841	-0.060661558
64	0xbd369da0	-0.044583917
65	0x3e01ab6c	0.12663049
66	0xbc253ded	-0.010085565
67	0xbcb72784	-0.02235771
68	0x3db01ba0	0.08599019
69	0x3bb2057e	0.0054327836
70	0xbdcaba3d	-0.098988034
71	0xbc531d41	-0.012885393
72	0x3e0b902c	0.13629216
73	0xbcffc3c0	-0.03122127
74	0xbd82cb82	-0.06386472
75	0x3ddca1b1	0.10773028
76	0x3c93c736	0.018039327
77	0xbcbe4957	-0.02322833
78	0xb8068614	-3.207296e-05
79	0x3dbc7bb4	0.09203282
80	0x3dcec159	0.10095472
81	0xbd5f6680	-0.05454111
82	0xbd92d3e5	-0.07169322
83	0xbdb9811d	-0.090578295
84	0x3de76f62	0.113005415
85	0xbd91693e	-0.071001515
86	0xbdc7aee7	-0.09750157
87	0xb6e56900	-6.8369554e-06
88	0x3b68dd53	0.003553231
89	0xbc92e343	-0.017930632
90	0x3de5949a	0.11209984
91	0x3e223fae	0.15844604
92	0xbc1d97d2	-0.009618716
93	0x3db64959	0.08900709
94	0x3dd33797	0.10313337
95	0xbcd3e7dc	-0.025867395
96	0x3ab4aa5e	0.0013783684
97	0xbd774a4b	-0.060373586
98	0xbd0c11d2	-0.034196682
99	0x3e0918b2	0.13388327
100	0xbdc5ee28	-0.09664565
101	0xbccaf55a	-0.024775196
102	0xbcdd7a2e	-0.027035799
103	0x3df737cd	0.1207119
104	0xbd7292b2	-0.05922193
105	0x3d8762bb	0.06610628
106	0x3c3e1e60	0.011603922
107	0xbd38e4d6	-0.04514011
108	0xbe201228	-0.15631926
109	0xbe11e36a	-0.14246908
110	0x3c6ed2dc	0.01457664
111	0xbd0c7110	-0.034287512
112	0x3c90d772	0.017680857
113	0xbdd152c3	-0.10220864
114	0xbd342468	-0.043980032
115	0xbca22829	-0.01979454
116	0xbc48c513	-0.012254017
117	0x3e0e172e	0.1387603
118	0xbcfd88f3	-0.030949092
119	0x3d919a42	0.071095005
120	0xbde09552	-0.109659806
121	0xbdcefc2a	-0.1010669
122	0xbd88cdf8	-0.066799104
123	0x3dd79ff3	0.10528555
124	0xbcb636e0	-0.022242963
125	0x3e1db506	0.15401086
126	0x3b725302	0.0036975746
127	0x3de05bf5	0.109550394
128	0x3ce06766	0.027393054
129	0xbd87ae2b	-0.06625017
130	0x3de0c6f0	0.10975444
131	0x3d872840	0.06599474
132	0xbdddae03	-0.10824206
133	0x3c050757	0.008119426
134	0xbcf88ee2	-0.03034157
135	0xbd93ae59	-0.072109886
136	0x3d233578	0.039845914
137	0x3e0d7348	0.13813508
138	0x3e0f47f9	0.13992299
139	0x3d77b468	0.060474783
140	0x3dcdcd61	0.100489385
141	0x3bd85fdf	0.0066032256
142	0x3d395be0	0.045253634
143	0xbe0a24d6	-0.13490614
144	0xbe240133	-0.16016082
145	0x3ce85493	0.02836064
146	0xbcf47c2e	-0.02984437
147	0x3b1f57ba	0.0024313764
148	0x3e14d8d1	0.14535834
149	0xbd9d3ad5	-0.07677237
150	0xbdcf6361	-0.10126377
151	0xbde5b2f0	-0.1121577
152	0xbe1b678d	-0.1517622
153	0xbdf027f4	-0.117263705
154	0x3cbc9d8f	0.023024349
155	0xbcfe2eb6	-0.031028133
156	0xbdf60737	-0.12013095
157	0xbd71009c	-0.05883847
158	0xbdf304e4	-0.11866167
159	0xbc54037c	-0.012940284
160	0x3dd0adf6	0.101894304
161	0x3d366f1f	0.044539567
162	0x3e08477b	0.13308518
163	0xbde06d19	-0.10958309
164	0x3d926cc6	0.07149653
165	0xbd69426f	-0.05694812
166	0xbdbf43ab	-0.093390785
167	0x3e037fe2	0.12841752
168	0xbddebfa5	-0.10876397
169	0x3e0a4de6	0.13506278
170	0x3d810b9b	0.06301042
171	0x3e00ff63	0.12597422
172	0x3d08e0bb	0.033417445
173	0xbdb9320c	-0.09042749
174	0x3de3c765	0.11122016
175	0xbde60b3e	-0.11232613
176	0x3d826554	0.06366983
177	0x3cb3ca05	0.021946916
178	0x3d9ba78e	0.07600318
179	0x3d120060	0.03564489
180	0xbb6d5ff5	-0.0036220525
181	0xbdda4cc6	-0.106591746
182	0x3e23b6db	0.15987723
183	0x3c50dbc8	0.012747712
184	0xbe07253b	-0.13197796
185	0x3d5d2d95	0.05399855
186	0xbdc20d91	-0.09475244
187	0x3d9eeb5a	0.077597335
188	0xbd5028e4	-0.050820246
189	0x3e08edd8	0.1337198
190	0x3ce71ad8	0.028211042
191	0xbd803242	-0.06259586
192	0xbd93bf9d	-0.07214282
193	0xbd59ff71	-0.053222124
194	0xbddf7e12	-0.10912718
195	0xbc8c8927	-0.017155243
196	0x3ddda12e	0.10821758
197	0xbdec883d	-0.11549423
198	0xbdaaba74	-0.08336344
199	0x3e11c9ad	0.1423709

fc.weight f4 [1, 50]
0	0x3df77f9f	0.12084889
1	0xbd2ca3a2	-0.04214824
2	0x3de0d0af	0.10977303
3	0x3b23f9d0	0.0025020726
4	0xbd75fa23	-0.060053002
5	0x3d42e257	0.047579136
6	0x3df8c86f	0.12147605
7	0xbd3b68a8	-0.045754105
8	0xbdec337c	-0.11533257
9	0xbdb52ef6	-0.08846848
10	0x3da3b1c1	0.07992888
11	0x3ddcf2bf	0.10788488
12	0x3e1146bb	0.14187138
13	0x3bdcd6bc	0.0067394655
14	0x3dfd2890	0.12361252
15	0xbe20f547	-0.15718566
16	0xbe009468	-0.12556612
17	0x3dd848f2	0.10560788
18	0xbdc0317d	-0.09384439
19	0xbe206718	-0.15664327
20	0x3d8b5094	0.068024784
21	0xbde7a188	-0.113101065
22	0x3d9181c1	0.07104827
23	0x3e0e2fd4	0.13885432
24	0xbe01a0da	-0.12659016
25	0x3db4567d	0.08805559
26	0x3d9eed2b	0.0776008
27	0xbd749e0f	-0.05972105
28	0x3d860348	0.065435946
29	0x3d37ea60	0.04490125
30	0xbdc01edf	-0.09380888
31	0xbb3c99af	-0.0028778126
32	0xbe1dc43d	-0.1540689
33	0xbda08ad3	-0.078389786
34	0xbddcf578	-0.10789007
35	0x3e0945bd	0.1340551
36	0xbd93ecb0	-0.07222879
37	0xbb3a7328	-0.0028449986
38	0x3d11c39a	0.03558693
39	0xbde20b92	-0.11037363
40	0xbdedad45	-0.11605314
41	0xbdb04d2d	-0.0860847
42	0x3dedc17c	0.1160917
43	0xbda130cc	-0.078706354
44	0xbdb0c92d	-0.08632121
45	0x3ba95ca5	0.005168515
46	0xbe17aa62	-0.1481109
47	0xbda3ba13	-0.07994475
48	0x3c99bbef	0.018766372
49	0x3de10a27	0.109882645
