models/BNB_USDT_model.pt (torch, 128181 bytes, 9 tensors)

lstm.weight_ih_l0 f4 [200, 1]
0	0xbd5f9840	-0.054588556
1	0xbceff7ff	-0.029293058
2	0xbe04e81b	-0.12979166
3	0xbd4b7533	-0.049672317
4	0x3dff9a80	0.124806404
5	0xbd1190fa	-0.03553865
6	0x3c352dfa	0.011058325
7	0x3cd36984	0.02580715
8	0xbe0a55cf	-0.13509296
9	0xba7c40bf	-0.0009622685
10	0x3dfafc3e	0.12255143
11	0xbd1cd0f3	-0.038285207
12	0xbcd58e70	-0.026068896
13	0xbda411ab	-0.080111824
14	0x3dcabc59	0.09899206
15	0x3d7efe8d	0.062254477
16	0x3dc4819e	0.09595035
17	0xbd2f3e34	-0.04278393
18	0xbd99191b	-0.074754916
19	0x3df6fbd0	0.12059748
20	0x3e07603c	0.13220304
21	0x3db522e4	0.088445455
22	0xbdf0e283	-0.11761954
23	0x3d4c63e5	0.049899954
24	0xbe01e6e5	-0.12685736
25	0x3e067b13	0.13132887
26	0xbd0cc2a5	-0.034365315
27	0xbd245787	-0.040122535
28	0x3cff76c8	0.031184569
29	0x3df1dffa	0.11810298
30	0xbdb7c53f	-0.089731686
31	0xbcc8dfa1	-0.024520697
32	0x3db34cab	0.08754858
33	0x3d01a7c6	0.03165414
34	0x3deb5536	0.11490862
35	0x3d2d90a8	0.042374283
36	0x3e05d718	0.13070333
37	0xbc07db5a	-0.008292044
38	0xbdb2e9bf	-0.0873599
39	0xbe1ad21b	-0.15119211
40	0xbc82aa39	-0.01595031
41	0xbc91e2aa	-0.017808277
42	0xbcd16517	-0.025560899
43	0x3dffd195	0.124911465
44	0xbda4a93e	-0.08040093
45	0x3e12793e	0.14304063
46	0x3dcaa7bc	0.09895274
47	0x3d0af2bc	0.033922896
48	0xbd10b65b	-0.035330158
49	0x3dd33cbe	0.1031432
50	0xbd17cf52	-0.03706295
51	0xbd018a86	-0.031626247
52	0x3d51e83c	0.051246867
53	0x3dd5bb7e	0.10436152
54	0x3e1d8974	0.15384465
55	0x3cf33928	0.02969034
56	0xbd553f49	-0.052062307
57	0x3dc16899	0.094437785
58	0xbc8c77c7	-0.017146958
59	0x3d5970f5	0.05308624
60	0x3dcd0f29	0.10012657
61	0xbd746acc	-0.059672162
62	0x3de4b0f7	0.11166566
63	0xbd9f3d79	-0.07775397
64	0x3dc88949	0.0979181
65	0x3d12c0ef	0.035828527
66	0xbc961c0d	-0.018323923
67	0x3dd4717e	0.103732094
68	0xbcb0b1a3	-0.021569079
69	0x3b378a4f	0.0028006022
70	0xbe1580e6	-0.14599952
71	0x3d938efe	0.07205008
72	0xbd70aac4	-0.058756605
73	0x3d5f8e07	0.054578807
74	0xbdf1cacc	-0.118062586
75	0x3de79291	0.11307252
76	0x3cc674b8	0.024225578
77	0x3d2bb3eb	0.04191963
78	0xbdf2fdc4	-0.11864808
79	0xbd38676a	-0.0450205
80	0x3d2b8cfb	0.041882496
81	0x3e204b1d	0.15653653
82	0xbd8120e6	-0.06305103
83	0x3d8adf58	0.06780881
84	0xbdc3ebd6	-0.095664665
85	0x3e048e4b	0.12944905
86	0x3a729b85	0.00092547416
87	0x3cc630dd	0.024193222
88	0x3c2ff089	0.0107385
89	0xbe0e9447	-0.13923751
90	0xbcf87ae3	-0.030332034
91	0xbc4c36e6	-0.012464261
92	0x3df05ee1	0.11736847
93	0x3e13d897	0.14438091
94	0xbddb6ca0	-0.10714078
95	0x3df3d3f0	0.11905658
96	0x3e205838	0.15658653
97	0x3de3638d	0.11102972
98	0xbc915f87	-0.017745746
99	0x3dfd5c5e	0.12371133
100	0x3d31eb4c	0.043437287
101	0x3e10ce9b	0.14141314
102	0x3e175741	0.14779378
103	0x3dac38e2	0.08409287
104	0xbccc6bcc	-0.024953745
105	0xbca004ab	-0.019533476
106	0xbd9d6b06	-0.07686429
107	0xbded55b5	-0.11588613
108	0x3e0217c2	0.12704375
109	0xbbdd0b98	-0.006745767
110	0xbdfdfb9f	-0.124015085
111	0xbe05262d	-0.13002844
112	0xbc3c9e45	-0.011512344
113	0xbdc4d47e	-0.09610842
114	0xbd6b82d5	-0.057497818
115	0x3e1d97f7	0.15390001
116	0x3d26c07e	0.04071092
117	0xbd3bd2f2	-0.04585547
118	0xbdf93735	-0.12168733
119	0x3d8d3d1b	0.068964206
120	0x3df83317	0.121191196
121	0x3e1af544	0.15132624
122	0x3dbdb03f	0.09262132
123	0xbe1fc583	-0.15602688
124	0x3e08d680	0.13363075
125	0xbd2ff3bb	-0.04295705
126	0x3d34463d	0.044012297
127	0x3cfae201	0.030625345
128	0x3c703661	0.014661402
129	0xbb4a45fd	-0.003086447
130	0xbe0ea43e	-0.13929841
131	0xbd001ef3	-0.031279515
132	0xbd842eb2	-0.06454219
133	0xbd645cb5	-0.055752475
134	0x3cdbf771	0.026851388
135	0xbd9c7a27	-0.07640486
136	0x3b0e3043	0.0021696247
137	0x3da59ef7	0.08086961
138	0xbe01a2f1	-0.12659813
139	0x3d529861	0.05141485
140	0x3e092263	0.13392024
141	0x3b3ed5ce	0.0029119137
142	0x3e036fc7	0.12835608
143	0x3dea9402	0.114540115
144	0x3de235f6	0.110454485
145	0x3e011e4b	0.12609212
146	0xbdbd6ea8	-0.09249622
147	0x3e183b77	0.14866434
148	0x3d8802d3	0.06641164
149	0x3d8b6b0d	0.06807528
150	0xbd566bd9	-0.052348945
151	0x3d13d9e6	0.036096476
152	0xbd17d18b	-0.03706507
153	0xbdce13d4	-0.10062376
154	0xbdf1aaac	-0.11800131
155	0xbd685716	-0.056723677
156	0x3ddcf230	0.10788381
157	0xbdd66a32	-0.10469474
158	0xbde4a550	-0.11164343
159	0xbdf66a56	-0.12032001
160	0x3d9d9968	0.076952755
161	0x3d9c428b	0.076298796
162	0x3e082b74	0.13297826
163	0xbdc85851	-0.0978247
164	0xbde8ee0c	-0.11373529
165	0x3da60c88	0.08107859
166	0xbd662f6a	-0.05619756
167	0xbd52c90e	-0.051461272
168	0xbdb14112	-0.08654989
169	0x3cd0d1df	0.0254907
170	0xbd1085c7	-0.03528383
171	0xbda26c26	-0.07930784
172	0xbd92d8ca	-0.071702555
173	0x3ddc42cd	0.10754929
174	0xbd78019f	-0.06054842
175	0xbdbd1da0	-0.09234166
176	0x3c03b5fc	0.008038994
177	0xbd900d4c	-0.07033786
178	0xbe1b38e6	-0.15158424
179	0x3dd5c5c7	0.10438114
180	0xbd981f73	-0.074278735
181	0xbdba3f4b	-0.090941034
182	0x3e0d60d3	0.13806467
183	0x3e0dc091	0.1384299
184	0x3d46a3cd	0.048496056
185	0x3e183bd7	0.14866577
186	0x3dbf0d01	0.09328652
187	0x3cd91615	0.026499787
188	0xbde4ab1d	-0.1116545
189	0x3d09d378	0.033648938
190	0x3dd8d562	0.105875745
191	0xbd66a21b	-0.05630694
192	0x3d9b09c1	0.0757022
193	0xbd9a610b	-0.07538041
194	0x3c24eee9	0.010066726
195	0xb83b5026	-4.465892e-05
196	0xbdd4414b	-0.10364016
197	0xbdb8f5d2	-0.090312615
198	0xbdf16ae2	-0.117879644
199	0xbd82ae20	-0.06380868

lstm.weight_hh_l0 f4 [200, 50]
0	0xbd856dc2	-0.06515075
1	0x3d01012f	0.03149527
2	0xbdc6cbad	-0.09706817
3	0x3e09135e	0.13386294
4	0x3bc1c854	0.0059137736
5	0x3c90f09c	0.017692856
6	0xbdcd8793	-0.10035624
7	0xbd7a2a02	-0.061075218
8	0x3dc41a83	0.09575369
9	0x3b1d6cea	0.0024021217
10	0x3d2c410f	0.042054232
11	0x3da42ceb	0.0801638
12	0x3d7116fa	0.058859803
13	0x3d9f3448	0.07773644
14	0x3dae8fa2	0.085234895
15	0xbdaeec8c	-0.085412115
16	0xbd985b55	-0.07439295
17	0xbdd61984	-0.104540855
18	0x3dbbb836	0.09165995
19	0xbe1a823e	-0.15088746
20	0xbdc92dfc	-0.09823224
21	0xba54234f	-0.00080924196
22	0x3d9f6aeb	0.07784065
23	0xbdf610ef	-0.120149486
24	0x3d98908a	0.07449444
25	0xbd9f419d	-0.077761866
26	0xbbced1ca	-0.00631163
27	0x3b83cd8e	0.0040223068
28	0x3e1af20a	0.15131393
29	0x3d2a477f	0.04157209
30	0x3d0f028e	0.034914546
31	0xbcbe3f8d	-0.023223663
32	0x3ccf7989	0.025326507
33	0x3e0b5a68	0.13608706
34	0x3d6188fa	0.05506227
35	0xbe1f8c1f	-0.15580796
36	0xbda01c85	-0.0781794
37	0x3e0498c0	0.12948895
38	0xbdb59b28	-0.08867484
39	0x3cf8ce48	0.0303718
40	0xbc522424	-0.012825999
41	0xbcfdf191	-0.030998977
42	0x3da293a4	0.079383165
43	0x3df43383	0.119238876
44	0xbdeed331	-0.11661375
45	0xbddce7ab	-0.10786375
46	0x3e237203	0.15961461
47	0x3dab8ffd	0.08377073
48	0xb8df99da	-0.00010662126
49	0x3da98510	0.08277333
50	0x3d1940ce	0.03741532
51	0x3d364bad	0.044505764
52	0xbda39e06	-0.07989125
53	0x3decd82d	0.1156467
54	0xbdb62aff	-0.088949196
55	0x3dd767fe	0.10517882
56	0x3dc2fc7b	0.09520813
57	0x3d6f8d73	0.058484506
58	0x3d968409	0.073494025
59	0xbd264cb4	-0.040600494
60	0xbd6894ff	-0.05678272
61	0xbc5b241f	-0.013375311
62	0xbdc8c5ba	-0.09803338
63	0xbe00c973	-0.12576847
64	0xbe0bb1cd	-0.13642044
65	0xbd0e1c7d	-0.034695137
66	0x3ddb5232	0.10709037
67	0xbd6c9b9d	-0.057765592
68	0xbe062404	-0.13099676
69	0x3d8c41a3	0.06848457
70	0x3d36ef61	0.044661883
71	0x3d439f9e	0.047759645
72	0xbd286422	-0.04111112
73	0x3d7b6497	0.061375227
74	0x3e0f7205	0.14008339
75	0xbddd60a2	-0.10809447
76	0x3ce6bdd1	0.028166683
77	0xbd3e6fec	-0.046493456
78	0xbd92bfb2	-0.07165469
79	0xbdc77f47	-0.09741073
80	0x3dea19aa	0.11430676
81	0xbb92d054	-0.004480401
82	0x3d8d3ef0	0.0689677
83	0x3c5bdca2	0.013419302
84	0x3d334a95	0.0437723
85	0x3d12850b	0.03577141
86	0xbbeeb344	-0.0072845537
87	0xbda45bec	-0.08025345
88	0x3c4b4e43	0.012408796
89	0x3d9fb2fc	0.077978104
90	0xbdb40266	-0.0878952
91	0xbcc40a6e	-0.023930755
92	0xbd54bd6e	-0.051938467
93	0x3cabab24	0.02095563
94	0xbd051bde	-0.03249728
95	0xbd9e111d	-0.07718108
96	0x3d96a073	0.07354822
97	0xbc9d67df	-0.019214569
98	0x3d8f2efa	0.06991382
99	0x3d7576a6	0.059927605
100	0xbda85cd0	-0.082208276
101	0xbdae5232	-0.08511771
102	0x3e1454ba	0.14485446
103	0x3dba0d79	0.09084601
104	0xbd9cf94e	-0.076647386
105	0xbdee7b08	-0.1164456
106	0xbde1cd50	-0.110254884
107	0xbd1a21a8	-0.037629753
108	0xbd79f039	-0.06102011
109	0xbdb7439f	-0.089484446
110	0xbd371405	-0.044696826
111	0x3da11e7f	0.07867145
112	0x3dbe496c	0.09291348
113	0x3a4a0a9b	0.0007707269
114	0x3da9b317	0.08286112
115	0x3dbdf9fd	0.09276197
116	0x3caeceef	0.021338908
117	0x3d403f36	0.046935283
118	0x3dabea4a	0.083942965
119	0x3ca7a6a4	0.020465203
120	0xbd351044	-0.044204965
121	0x3c025d68	0.00795684
122	0x3c6ed69b	0.014577533
123	0x3d0eef29	0.03489605
124	0xbdd2dfb0	-0.10296571
125	0x3dc932e0	0.09824157
126	0xbe09f33b	-0.13471691
127	0x3e00295d	0.12515779
128	0xbdc36902	-0.09541513
129	0x3d9866b9	0.07441468
130	0xbdccc589	-0.09998614
131	0x3d858bbf	0.06520795
132	0x3ccf99f5	0.025341967
133	0xbd45b662	-0.048269637
134	0xbd1152cb	-0.03547935
135	0x3d474301	0.048647884
136	0x3d7f6e22	0.06236089
137	0x3d9ebbae	0.07750641
138	0x3d43cea1	0.04780448
139	0x3cb02378	0.021501288
140	0x3e18e84b	0.14932363
141	0x3a85ebfe	0.0010217426
142	0x3c0cc3f0	0.008591637
143	0x3dd9fdcd	0.10644112
144	0xbdc045c8	-0.0938831
145	0x3d84c72f	0.06483304
146	0xbdb56783	-0.08857634
147	0xbe018015	-0.12646516
148	0x3d861493	0.06546893
149	0x3d3e7988	0.04650262
150	0xbd9e0e95	-0.07717625
151	0xbd06e0af	-0.03292912
152	0xbb825f2d	-0.003978631
153	0xbc8032b3	-0.015649175
154	0xbbb53a86	-0.005530658
155	0x3e0f0ad2	0.13968971
156	0xbb92eeb6	-0.004484023
157	0xbbd302fc	-0.0064395647
158	0x3d227db4	0.03967066
159	0x3d053ae4	0.032526866
160	0x3da1dff9	0.079040475
161	0x3d4f0b1f	0.050547715
162	0x3ddce6db	0.1078622
163	0xbe030a7c	-0.12796968
164	0x3d07e4a6	0.03317704
165	0x3d208393	0.03918798
166	0x3dc18263	0.094486974
167	0xbd5a3bf4	-0.053279832
168	0x3b855700	0.004069209
169	0x3df24de9	0.118312664
170	0x3d03f0b8	0.03221199
171	0x3cd831f6	0.02639101
172	0x3d602d4c	0.0547307
173	0x3d1d0f32	0.03834457
174	0x3e097103	0.13422017
175	0x3dd5f61c	0.10447332
176	0x3e1f44f0	0.15553641
177	0xbcf9e758	-0.030505821
178	0xbddf1447	-0.108925395
179	0xbdf2137b	-0.11820122
180	0x3dbf8e05	0.0935326
181	0x3ddfcc63	0.109276555
182	0xbc9e2997	-0.019306941
183	0xbd0f1452	-0.03493149
184	0xbdcb0873	-0.09913721
185	0xbe1eebaf	-0.15519594
186	0x3dc78989	0.097430296
187	0x3aefe8d7	0.0018303645
188	0x3d2b7486	0.041859172
189	0xbdab52b8	-0.08365387
190	0x3dbb1748	0.091353
191	0xbd65fbb4	-0.056148246
192	0xbdf1edfd	-0.11812971
193	0xbdba641f	-0.09101128
194	0xbd86e778	-0.06587118
195	0xbe09b4e5	-0.13447912
196	0x3db50a1e	0.0883982
197	0xbd8ef993	-0.06981196
198	0xbd891640	-0.06693697
199	0x3d5fc60c	0.05463223
200	0xbdc9fba4	-0.0986245
201	0x3e00f4ae	0.12593338
202	0x3d0cdbc1	0.03438926
203	0xbd20fc52	-0.03930313
204	0x3d6aff05	0.05737211
205	0xbd764587	-0.0601249
206	0xbe07507b	-0.13214295
207	0x3d470f77	0.048598733
208	0xbc06ac0e	-0.008219732
209	0x3dd1f8c0	0.102525234
210	0x3db57286	0.08859734
211	0x3da9e918	0.08296412
212	0xbd8abdb6	-0.06774466
213	0xbabd20a8	-0.0014429288
214	0x3da74b75	0.08168689
215	0x3dd10e83	0.10207846
216	0x3d856bfd	0.06514738
217	0xbbba72b3	-0.0056899427
218	0xbd7ee92c	-0.06223409
219	0x3d253f5a	0.04034362
220	0xbda9f5bb	-0.082988225
221	0x3e0e899d	0.13919683
222	0x3d3ce862	0.046120055
223	0xbd086f24	-0.033309117
224	0x3c89aecb	0.01680698
225	0xbd70c0e4	-0.058777705
226	0xbde4f685	-0.11179832
227	0x3caa8a4d	0.0208179
228	0x3e08b524	0.1335035
229	0x3d291ee7	0.041289236
230	0xbe005488	-0.12532246
231	0xbd0b157e	-0.033956043
232	0x3a7880e8	0.0009479658
233	0x3df6664e	0.12031232
234	0x3d998aa6	0.07497148
235	0xbe0e0b91	-0.138716
236	0xbaf52373	-0.0018702581
237	0xbc198116	-0.009369155
238	0xbc1accca	-0.00944824
239	0x3d6920d5	0.056916077
240	0xbd188ac3	-0.03724171
241	0x3d4fff04	0.05078031
242	0x3ccd8908	0.025089756
243	0x3d0b8420	0.03406155
244	0xbda0a9cd	-0.07844887
245	0xbe063d69	-0.13109364
246	0x3d847d0f	0.064691655
247	0x3e0ce3e0	0.13758802
248	0xbd65c4c7	-0.056095865
249	0x3e235dec	0.15953797
250	0xbe0110d8	-0.12604082
251	0x3e1ef95c	0.1552481
252	0xbca556bd	-0.020182962
253	0x3c901ea2	0.017592732
254	0xbc3e268d	-0.011605871
255	0x3d84b38f	0.064795606

lstm.bias_ih_l0 f4 [200]
0	0xbd7413a8	-0.05958906
1	0x3d9dbf0e	0.077024564
2	0xbdc9f776	-0.098616526
3	0x3e053d54	0.13011676
4	0x3e0958ca	0.13412777
5	0xbc4b25ae	-0.01239912
6	0xbd196b72	-0.037455983
7	0xbd6b7d06	-0.05749228
8	0x3e0d0cf6	0.13774475
9	0xbb984159	-0.004646462
10	0x3dbe2203	0.09283831
11	0x3dae1066	0.084992215
12	0x3c88294f	0.01662126
13	0x3ce3a83f	0.027790187
14	0x3cc3fab1	0.02392325
15	0xbd3833e5	-0.044971365
16	0xbd1549b0	-0.036447227
17	0x3cb4bbfe	0.022062298
18	0x3d9f177f	0.077681534
19	0xbb7fb1dd	-0.0039015927
20	0xbe0d88e2	-0.13821748
21	0x3d1eb5b7	0.038747516
22	0xbdc73a53	-0.09727921
23	0xbd52df10	-0.05148226
24	0xbe0f68a8	-0.14004767
25	0x3c8023e5	0.015642116
26	0x3c067987	0.008207685
27	0x3e16d78f	0.14730667
28	0x3cbfa316	0.023393195
29	0xbd8681d7	-0.06567734
30	0xbd38ebfb	-0.045146924
31	0x3d73b934	0.059502795
32	0x3e1c6945	0.15274532
33	0xbdf279e1	-0.11839653
34	0x3d901652	0.07035507
35	0x3cbf45c5	0.023348698
36	0xbda4d7bd	-0.08048961
37	0x3e0b3698	0.13595045
38	0xbc78c40d	-0.015183461
39	0x3d0cc819	0.034370515
40	0xbdb1cca1	-0.08681608
41	0xbd1ca2ab	-0.03824107
42	0x3db7a994	0.08967891
43	0xbd163bbe	-0.03667807
44	0xb9a85ea7	-0.00032113979
45	0xbd880acd	-0.06642685
46	0xbceb7072	-0.028740142
47	0xbd3a02a5	-0.04541268
48	0x3d335419	0.043781374
49	0x3dd3b93e	0.103380665
50	0xbc741b89	-0.014899143
51	0x3db63eef	0.088987224
52	0xbd5ba287	-0.053621795
53	0x3b042ead	0.0020169422
54	0x3d0566a7	0.0325686
55	0xbd5c532d	-0.05379026
56	0xbd23c073	-0.039978456
57	0xbdd322d9	-0.10309381
58	0x3e0efdae	0.13963959
59	0xbb0c700d	-0.0021429092
60	0xbd73d5f6	-0.05953022
61	0xbd03b596	-0.032155596
62	0x3dc7dee4	0.0975931
63	0xbdb405ec	-0.08790192
64	0x3d125460	0.035724998
65	0x3bde1e23	0.006778495
66	0x3dc9abef	0.09847247
67	0x3e107bc1	0.14109708
68	0x3ded203e	0.11578415
69	0x3dba8ffb	0.09109493
70	0xbcb630b5	-0.022240022
71	0x3e123eb3	0.1428173
72	0x3bd4b597	0.0064913738
73	0x3d8b08f8	0.0678882
74	0x3d0fee5f	0.035139438
75	0x3dafe92b	0.08589395
76	0xbd9d1d2f	-0.07671582
77	0xbbed3a90	-0.007239647
78	0xbcf155ea	-0.029459912
79	0x3d42ade7	0.047529127
80	0xbcb70ad4	-0.02234403
81	0x3d648bbc	0.055797324
82	0x3cb2b876	0.021816473
83	0x3d1b6512	0.037938185
84	0x3e03a8e0	0.1285739
85	0xbbd23e90	-0.0064161494
86	0x3e06577d	0.13119312
87	0xbd76eea4	-0.06028618
88	0xbd9f5256	-0.07779376
89	0x3deb8695	0.11500279
90	0xbc4452e3	-0.011982652
91	0xbc632a11	-0.01386501
92	0xbe083708	-0.13302243
93	0xbd996cbf	-0.07491445
94	0xbcc6563c	-0.024211042
95	0x3cab609c	0.02092009
96	0x3d2871b9	0.04112408
97	0x3de63143	0.11239865
98	0xbd2cf350	-0.04222423
99	0xbd10a2cd	-0.03531151
100	0x3e0e6bee	0.1390836
101	0x3e15f54c	0.14644355
102	0x3d12f667	0.03587952
103	0xbd634569	-0.055486117
104	0xbdbe00f6	-0.09277527
105	0x3da67123	0.08127048
106	0xbd20bc81	-0.03924227
107	0x3d9c8898	0.07643241
108	0xbd2e8929	-0.042611275
109	0xbe11d080	-0.14239693
110	0xbd8509d3	-0.064960144
111	0xbc55dae3	-0.013052675
112	0x3c93e659	0.018054174
113	0x3d8e0d5f	0.06936144
114	0x3deab72b	0.11460718
115	0xbc7606f3	-0.015016305
116	0xbdf60397	-0.120124035
117	0x3db9d3a3	0.090735696
118	0x3dd6fb38	0.10497135
119	0xbcbed5dd	-0.023295337
120	0xbdfdef6b	-0.12399181
121	0xbbd69db0	-0.0065495595
122	0x3cd473f4	0.025934197
123	0xbde626fc	-0.112379044
124	0xbd22f367	-0.039782908
125	0x3df3bb6d	0.11900983
126	0xbdb10e89	-0.086453505
127	0x3dfbb16b	0.12289699
128	0x3de53850	0.111923814
129	0x3dd73825	0.105087556
130	0x3de34fc9	0.11099202
131	0xbd73798c	-0.059442088
132	0xbd848e96	-0.064725086
133	0x3daf1be2	0.0855024
134	0xb9b1aaa3	-0.00033887205
135	0x3d933e49	0.07189614
136	0x3d56c2ab	0.052431744
137	0x3ceb04b6	0.02868877
138	0x3d83dead	0.064389564
139	0xbcab1b89	-0.020887153
140	0x3d22a2f6	0.039706193
141	0xbb5b524f	-0.0033465808
142	0xbdc8a311	-0.097967274
143	0xbdf48c76	-0.11940853
144	0xbd140597	-0.036138143
145	0xbde822ba	-0.113347486
146	0x3d811652	0.063030854
147	0x3d7437f3	0.05962367
148	0xbddb1244	-0.10696843
149	0x3ddb12c1	0.106969364
150	0x3d46f11c	0.048569784
151	0x3e051209	0.12995161
152	0x3d72c49f	0.059269544
153	0xbc9535fe	-0.018214222
154	0xbd9466fb	-0.072462045
155	0x3dc4e47a	0.09613891
156	0xbd705aa3	-0.058680188
157	0x3cb0481c	0.02151876
158	0x3d1d8679	0.03845832
159	0x3e03e4c5	0.12880237
160	0xbda6d453	-0.081459664
161	0x3ddafd69	0.106928654
162	0xbc2a20df	-0.010383814
163	0xbcab7c74	-0.020933367
164	0xbdaa0c7e	-0.08303164
165	0xbbf3d31f	-0.007440939
166	0xbdcc738f	-0.099829786
167	0x3c778732	0.015107917
168	0x3cf3951e	0.02973419
169	0xbdd9dd1f	-0.106378786
170	0xbdb73197	-0.089450054
171	0x3c994cee	0.01871344
172	0x3e080aef	0.13285421
173	0x3c9787c6	0.018497359
174	0x3d6328e1	0.055458907
175	0xbd16badc	-0.036799297
176	0x3dd2bd91	0.10290063
177	0xbdeab11a	-0.11459561
178	0x3dff4047	0.12463432
179	0xbdacf8a0	-0.08445859
180	0xbdf39886	-0.11894326
181	0x3e159b2d	0.14609976
182	0x3dc1e177	0.09466832
183	0xbcedc48f	-0.02902439
184	0xbd161980	-0.036645412
185	0xbd255000	-0.040359497
186	0xbdb59785	-0.08866791
187	0x3e0e6792	0.13906696
188	0x3e0a26da	0.13491383
189	0x3dc15cd0	0.09441531
190	0xbce33231	-0.027733894
191	0x3c04afb5	0.008098532
192	0xbd458817	-0.04822549
193	0xbd5398d6	-0.051659428
194	0x3b1bb502	0.0023759012
195	0x3dd1c342	0.102423206
196	0xbd2b1d46	-0.041775964
197	0x3ca61c60	0.020277202
198	0xbc9115c7	-0.01771058
199	0xbda8d380	-0.082434654

lstm.bias_hh_l0 f4 [200]
0	0xbc8699fc	-0.016430847
1	0xbd30414e	-0.04303103
2	0xbda1f83a	-0.079086736
3	0xbda31b1f	-0.07964157
4	0xbc99dfd5	-0.01878349
5	0xbc853c67	-0.016264154
6	0xbdfa4533	-0.1222023
7	0xbd589dde	-0.05288493
8	0x3d67949d	0.056538213
9	0x3df813d9	0.12113161
10	0xbdfd184c	-0.1235815
11	0xbc680105	-0.014160399
12	0xbdc8e5fd	-0.09809492
13	0x3df8cb90	0.121482015
14	0x3dc16346	0.09442763
15	0xbd97884f	-0.07399046
16	0x3ca5893d	0.020207042
17	0x3e0907f5	0.13381942
18	0x3dc254b4	0.09488812
19	0x3d11b395	0.035571653
20	0xbcda4f1e	-0.026649054
21	0xbc975134	-0.018471338
22	0x3dd46117	0.10370081
23	0xbdab62b4	-0.083684355
24	0x3bd9100a	0.0066242265
25	0xbd9f8a54	-0.07790056
26	0xbd6935f9	-0.056936238
27	0xbde5f4f7	-0.11228364
28	0x3ca6ab32	0.020345304
29	0xbd02c92d	-0.031930137
30	0xbd458cb3	-0.048229884
31	0x3da65a9d	0.08122752
32	0x3e23442d	0.15943976
33	0xbdb5a9ee	-0.08870302
34	0x3ce7638b	0.028245708
35	0xbde02d63	-0.10946157
36	0xbd9b9fea	-0.075988606
37	0x3d36de43	0.04464556
38	0xbdbd18a5	-0.09233216
39	0xbe243441	-0.16035558
40	0xbd551a0f	-0.052026805
41	0x3d459a2d	0.048242737
42	0x3e0cee05	0.13762672
43	0xbd8c4253	-0.06848588
44	0xbca3bc04	-0.019987114
45	0xbddc711f	-0.10763764
46	0x3b834811	0.0040063937
47	0xbc334d9f	-0.010943799
48	0x3d9c393f	0.07628106
49	0xbba9d4db	-0.005182845
50	0x3e0e0442	0.13868812
51	0x3d149f96	0.036285006
52	0x3d8ad2c6	0.06778483
53	0xbd71cd88	-0.0590339
54	0xbd6da491	-0.05801827
55	0x3c97a234	0.018509962
56	0xbcd8040f	-0.026369123
57	0xbdb53201	-0.08847428
58	0xbcc98347	-0.02459873
59	0x3e0549e2	0.13016465
60	0xbde1ebb1	-0.11031283
61	0x3e20f07e	0.1571674
62	0xbdca6bc5	-0.09883837
63	0xbdc34260	-0.095341444
64	0x3dfccef8	0.12344164
65	0xbd335c67	-0.043789294
66	0x3b111f46	0.0022143885
67	0x3dfd90fb	0.123811685
68	0xbc813e27	-0.015776707
69	0x3d3f5d8d	0.046720076
70	0xbd52f711	-0.051505152
71	0x3cc675c5	0.024226079
72	0x3ceacddd	0.028662616
73	0xbdf178ff	-0.11790656
74	0x3c5b75b3	0.013394761
75	0xbd935d07	-0.07195478
76	0x3ddd8c09	0.10817725
77	0x3c8a52ad	0.016885126
78	0x3d251ab2	0.04030866
79	0x3e106751	0.14101912
80	0xbcbf2ada	-0.023335863
81	0xbcb42ab2	-0.021993015
82	0x3e024a2f	0.12723611
83	0xbd8e43ff	-0.06946563
84	0xbde461de	-0.11151479
85	0xbd89da97	-0.06731146
86	0xbd33cdf6	-0.04389759
87	0xbce2f072	-0.027702544
88	0x3e14bd08	0.14525235
89	0xbcedfc6d	-0.02905103
90	0xbde55863	-0.11198499
91	0x3dd19571	0.10233582
92	0xba90f0c2	-0.001105808
93	0x3d2d0fb1	0.042251293
94	0x3e11f8d1	0.14255072
95	0xbce91aa2	-0.028455082
96	0xbd905ee9	-0.07049353
97	0xbdee92c7	-0.11649089
98	0x3d0241a6	0.03180089
99	0xbdb940db	-0.09045573
100	0x3c3cdb20	0.011526853
101	0x3db43c80	0.08800602
102	0x3db9ee02	0.090785995
103	0x3d8f13ad	0.06986175
104	0xbda05d9a	-0.07830353
105	0x3de334ad	0.110940315
106	0x3e178a8b	0.14798944
107	0xbdcf4c30	-0.101219535
108	0x3e0362b8	0.12830627
109	0x3dcac193	0.099002026
110	0xbdef530c	-0.11685762
111	0x3d9a3937	0.07530444
112	0x3d97b38f	0.07407295
113	0xbe0e955f	-0.13924168
114	0xbde58124	-0.11206272
115	0x3da66f18	0.08126658
116	0xbe0ccea5	-0.13750704
117	0x3d84c06b	0.06482013
118	0xbdd61cdc	-0.10454723
119	0xbdffdab2	-0.12492885
120	0xbd636b29	-0.055522118
121	0xbdf0dcb1	-0.117608435
122	0x3e0270c2	0.12738326
123	0xbd06a124	-0.03286852
124	0xbdc22f0a	-0.09481628
125	0x3d9883f7	0.07447045
126	0x3ddea1fd	0.108707406
127	0xbdead36c	-0.11466107
128	0xbcef0473	-0.029176926
129	0x3d5153f8	0.05110547
130	0x3c2a3530	0.010388657
131	0xbcca20ee	-0.024673905
132	0xbd5e778d	-0.05431323
133	0x3d8a5db7	0.06756156
134	0xbdba5f30	-0.09100187
135	0xbdbafc1b	-0.091301166
136	0x3d8a4454	0.06751314
137	0x3dfb28e8	0.122636616
138	0xbdb3a426	-0.08771543
139	0xbdd40e50	-0.103542924
140	0x3e255100	0.1614418
141	0x3d11c33a	0.035586573
142	0xbdc26e59	-0.094937034
143	0xbdd791ee	-0.10525881
144	0x3c71963f	0.014745294
145	0xbdbe6c5f	-0.09298014
146	0x3e0c2e80	0.13689613
147	0xbc9527d1	-0.018207463
148	0xbde0bf38	-0.10973972
149	0x3df89601	0.12137986
150	0x3e09abb6	0.13444409
151	0xbd88062a	-0.06641801
152	0xbd9813eb	-0.07425674
153	0x3bdc4128	0.0067216344
154	0x3d956651	0.07294906
155	0xbb00e43d	-0.001966729
156	0x3d56f393	0.052478384
157	0x3d4b273b	0.04959796
158	0x3d58f300	0.052966118
159	0x3e12735f	0.14301823
160	0x3df009ad	0.117205955
161	0xbdaacfcf	-0.083404176
162	0xbd605e4f	-0.05477744
163	0xbd9c2479	-0.07624144
164	0x3e1ccab8	0.15311706
165	0x3e04a52d	0.12953635
166	0x3e0b83ac	0.13624448
167	0x3d7375be	0.05943846
168	0x3db02b9c	0.08602068
169	0x3d86c2bd	0.06580112
170	0x3d195dd8	0.037443012
171	0x3c1ed853	0.00969513
172	0xbdee382f	-0.1163181
173	0x3df851b7	0.12124961
174	0x3e036d33	0.12834625
175	0xbd898e4a	-0.067165926
176	0xbd3d7c2d	-0.046261
177	0xbd8fa581	-0.07013989
178	0xbd9cd239	-0.07657284
179	0x3d04bf01	0.032408718
180	0xbcfe5376	-0.031045657
181	0xbd2319dc	-0.039819583
182	0xbb3ae413	-0.002851729
183	0xbd14c7f2	-0.036323495
184	0xbc76de0b	-0.015067588
185	0xbd6fd5b2	-0.058553405
186	0xbdcd33f9	-0.100196786
187	0x3e02af6a	0.12762228
188	0xbdad2391	-0.084540494
189	0xbcc96927	-0.024586273
190	0x3e1cec32	0.15324476
191	0x3db94f07	0.090482764
192	0xbd67419a	-0.056459047
193	0x3d94e5d1	0.072703965
194	0x3e1b85aa	0.15187708
195	0xbd6299b0	-0.05532235
196	0xbdf5e31a	-0.12006207
197	0xbd960895	-0.07325856
198	0xbdb28064	-0.08715895
199	0xbdf6021e	-0.120121226

lstm.weight_ih_l1 f4 [200, 50]
0	0xbdf1aee5	-0.118009366
1	0x3e0cace5	0.13737829
2	0x3d1d12dd	0.038348068
3	0xbcdead18	-0.027182147
4	0xbc126cb7	-0.008937052
5	0x3d715a73	0.05892415
6	0x3da1d51b	0.07901975
7	0x3dc1a782	0.09455778
8	0x3dc69ddb	0.09698077
9	0xbd1eb47e	-0.03874635
10	0xbc4e9cc9	-0.012610623
11	0x3babbb0e	0.0052408045
12	0x3d38047e	0.04492616
13	0x3ddab2a9	0.10678608
14	0x3e040bb1	0.12895085
15	0x3d79a09b	0.06094418
16	0x3d86b6d7	0.06577843
17	0xbdcbccaa	-0.09951146
18	0x3be943c8	0.007118676
19	0x3d9469f1	0.07246769
20	0xbd212770	-0.03934425
21	0xbd95553b	-0.07291647
22	0x3dc5ecfd	0.096643426
23	0xbd22b023	-0.03971876
24	0x3c88b2da	0.016686846
25	0x3bffaab9	0.007802334
26	0xbd7fce9d	-0.0624529
27	0xbc62b2e4	-0.013836596
28	0x3e09fa13	0.13474302
29	0x3d455812	0.048179694
30	0x3da8618d	0.08221731
31	0xbc745c85	-0.0149146365
32	0xbdcc07c5	-0.099624194
33	0x3d06381c	0.032768354
34	0xbdbf3a03	-0.09337237
35	0x3dca414e	0.09875737
36	0x3dd06d98	0.10177153
37	0x3981c4b0	0.0002475134
38	0xbceaa935	-0.028645137
39	0xbd4d0330	-0.050051868
40	0x3da50abb	0.08058687
41	0x3d37a6e1	0.044836883
42	0xbcf1c696	-0.029513638
43	0x3d8c55ff	0.0685234
44	0xbd92f7ac	-0.07176146
45	0xbc954a22	-0.018223826
46	0x3c58984e	0.013219906
47	0xbe0d4a18	-0.13797796
48	0xbd67b50c	-0.056569144
49	0xbc961428	-0.018320158
50	0xbd4a9a11	-0.049463335
51	0xbdb0b9fe	-0.08629225
52	0xbdbf7bd0	-0.09349787
53	0xbd7bdf2c	-0.06149213
54	0x3d5853c8	0.052814275
55	0xbd015ff7	-0.03158566
56	0x3e05b924	0.13058907
57	0x3d6b7142	0.057481058
58	0xbdb4493e	-0.08803032
59	0xbc1a914d	-0.0094340565
60	0xbe01765f	-0.12642811
61	0x3da155de	0.07877706
62	0x3e023d03	0.12718587
63	0xba86bbd8	-0.001027937
64	0x3c957830	0.018245786
65	0x3e1dc69b	0.15407793
66	0x3d92a551	0.07160438
67	0x3d6eeca4	0.058331147
68	0xbd842927	-0.06453162
69	0xbd9b5120	-0.07583833
70	0xbd8ca18e	-0.068667516
71	0xbcca2a95	-0.024678508
72	0xbd88d4b0	-0.06681192
73	0xbddccc92	-0.10781206
74	0x3e1bd492	0.15217808
75	0xbd967104	-0.07345775
76	0xbdc4f5b4	-0.09617177
77	0xbd8dccd2	-0.06923832
78	0xbdee5883	-0.11637976
79	0x3d909107	0.07058912
80	0xbd088ea5	-0.03333916
81	0xbd32e700	-0.04367733
82	0x3cd0e3d8	0.02549927
83	0xbd6b7798	-0.0574871
84	0xbe1e6a3c	-0.15470213
85	0x3a0f5dfa	0.00054690207
86	0x3cbe2e67	0.023215486
87	0xbdb65c64	-0.08904341
88	0xbdc7e2e0	-0.0976007
89	0xbdb338db	-0.08751079
90	0x3d6125df	0.054967757
91	0x3d9d99c8	0.07695347
92	0x3d945eca	0.07244642
93	0x3dc90511	0.098154195
94	0xbd19f335	-0.037585456
95	0x3d367a33	0.044550132
96	0xbdd1367c	-0.1021547
97	0x3e0b0c10	0.1357882
98	0x3dd8bf05	0.10583309
99	0xbd990fdd	-0.07473729
100	0x3d8ce301	0.06879235
101	0xbc9e7d4e	-0.01934686
102	0xbd9c8172	-0.07641877
103	0x3da561ba	0.080752805
104	0xbd7850ec	-0.060624048
105	0x3deecf58	0.116606414
106	0xbcbd1a2f	-0.023083774
107	0xbccc2d8d	-0.024924064
108	0xba0e0bb0	-0.00054186117
109	0xbd45bfb4	-0.048278525
110	0xbdc01884	-0.09379676
111	0x3dd935df	0.10605978
112	0x3e124321	0.1428342
113	0x3d2419bd	0.04006361
114	0xbe024842	-0.12722877
115	0xbcecaf72	-0.028892253
116	0xbd503791	-0.050834242
117	0xbc9b8778	-0.018985495
118	0x3c02f40e	0.0079927575
119	0xbe01d4cc	-0.12678832
120	0xbe1da287	-0.1539403
121	0x3da5a564	0.080881864
122	0x3d8467ff	0.06465148
123	0xbda611af	-0.08108842
124	0x3cb000ce	0.021484759
125	0x3d847559	0.06467695
126	0xbd2a567b	-0.04158638
127	0x3e18e62e	0.14931557
128	0xbd2e4352	-0.04254467
129	0x3dd2be27	0.10290175
130	0xbdac63be	-0.08417462
131	0x3d4e35e6	0.05034437
132	0xbdd8e2ea	-0.105901554
133	0xbdd25c38	-0.102714956
134	0xbdfd68d1	-0.12373508
135	0xbce837ab	-0.028346857
136	0x3dd6f593	0.10496058
137	0xbd593560	-0.053029418
138	0xbd5fdf60	-0.054656386
139	0xbd3ed656	-0.046591125
140	0x3e0f1df8	0.13976276
141	0x3dc9dc41	0.09856463
142	0x3daf176f	0.085493915
143	0xbcd6309d	-0.026146227
144	0x3dbfb567	0.093607716
145	0xbe086966	-0.13321456
146	0xbd51e33e	-0.051242106
147	0x3e188bc2	0.14897063
148	0xbd533a14	-0.05156906
149	0xb98976da	-0.00026219228
150	0x3e13428d	0.14380856
151	0x3db65e29	0.089046784
152	0x3dc10951	0.09425605
153	0xbd91881f	-0.07106041
154	0xbc25c462	-0.010117622
155	0xbdaaf887	-0.08348184
156	0xbdcf8738	-0.10133213
157	0x3cb6fa5b	0.022336176
158	0x3d9a467d	0.07532976
159	0x3d5336e6	0.051566027
160	0x3d140bc6	0.03614404
161	0x3df93499	0.12168235
162	0x3d09cdc5	0.033643503
163	0xbdcc9d72	-0.09990968
164	0x3d066053	0.032806706
165	0x3d078ca3	0.033093106
166	0x3d7073b3	0.05870409
167	0x3e108e9e	0.14116904
168	0xbc4c9202	-0.012485983
169	0x3dd5f7c5	0.10447649
170	0xbe1a50e4	-0.1506992
171	0x3d80fc83	0.06298163
172	0xbd8580e7	-0.06518727
173	0xbdaa83bb	-0.08325907
174	0x3cfe6d87	0.031058086
175	0x3e1cd8d1	0.15317084
176	0x3d1a12e1	0.03761566
177	0xbd1d7672	-0.038443036
178	0x3dca91e6	0.09891109
179	0x3db1a8ad	0.086747505
180	0x3d580103	0.05273534
181	0x3da83b67	0.08214455
182	0xbd6021dc	-0.05471979
183	0x3b896f31	0.0041941633
184	0xbdcd5ddc	-0.10027668
185	0x3daaea1f	0.08345436
186	0xbd1e3108	-0.03862098
187	0x3d8b31e6	0.06796627
188	0x3d9637e9	0.07334883
189	0x3d137b7a	0.03600643
190	0x3da5ad4d	0.08089695
191	0x3c92ff1d	0.017943913
192	0x3caa1948	0.020764008
193	0xbca7ae66	-0.020468902
194	0xbdd46d01	-0.10372353
195	0xbdd31e79	-0.103085466
196	0x3de60949	0.1123224
197	0xbd4d6cb3	-0.05015249
198	0xbde260ad	-0.11053596
199	0x3de0bd65	0.10973624
200	0x3dda4e5f	0.10659479
201	0x3e08989c	0.13339466
202	0xbd812c0d	-0.0630723
203	0xbd8ffb3d	-0.07030342
204	0xbd92eef6	-0.071744844
205	0xbda77cb7	-0.08178084
206	0xbdd649f4	-0.10463324
207	0x3cd171b8	0.02556692
208	0x3ddff10c	0.10934648
209	0xbcc8d08f	-0.024513511
210	0x3db5e8ae	0.08882271
211	0x3e049259	0.12946452
212	0xb9fc22cb	-0.00048091108
213	0x3c47c1be	0.012192188
214	0xbdadc06e	-0.08483969
215	0xbdf2a204	-0.11847308
216	0xb9fcc74e	-0.0004821368
217	0x3dd21eec	0.10259804
218	0x3e0358da	0.12826863
219	0x3ac550ac	0.0015053949
220	0x3c91d3e2	0.017801229
221	0x3c9e7f2e	0.019347753
222	0xbe02048d	-0.12697048
223	0xbc8c786b	-0.017147264
224	0xbdb5ac34	-0.08870736
225	0x3dd9281f	0.106033556
226	0x3d4f2acf	0.050577935
227	0x3d559155	0.052140553
228	0x3d827ce3	0.063714765
229	0xbcee8051	-0.02911392
230	0x3d88d5ab	0.06681379
231	0x3dfce1ab	0.1234773
232	0x3dd093f6	0.10184471
233	0xbe03199b	-0.12802736
234	0x3dae5a96	0.08513372
235	0xbddddbf0	-0.108329654
236	0x3a72dbaf	0.0009264303
237	0x3d934b82	0.07192136
238	0xbddfb50f	-0.10923206
239	0x3c6d1300	0.014469862
240	0x3cad18e3	0.021130031
241	0x3d997095	0.074921764
242	0x3e004b86	0.1252881
243	0x3d5278c9	0.05138472
244	0x3e07da7e	0.13266942
245	0x3dafff4e	0.085936174
246	0xbdbb22d0	-0.09137499
247	0xbdff9775	-0.1248006
248	0xbdec5b4d	-0.11540852
249	0xbd619e6d	-0.055082727
250	0x3d592a18	0.05301866
251	0x3db2f0d7	0.08737343
252	0xbdba7866	-0.091049954
253	0x3df70dd1	0.12063182
254	0x3df97c05	0.12181858
255	0xbbba9ca9	-0.005694945

lstm.weight_hh_l1 f4 [200, 50]
0	0x3d38b077	0.045090165
1	0x3da2a242	0.079411045
2	0x3de621c3	0.11236908
3	0x3c17d24e	0.009266449
4	0xbd95565d	-0.07291863
5	0x3ccc0b09	0.024907606
6	0x3d925278	0.07144636
7	0xbc655231	-0.013996647
8	0x3e045e2a	0.12926546
9	0xbe07ef36	-0.13274845
10	0x3cf168f6	0.029468995
11	0x3df531e5	0.11972407
12	0xbdd9f8e1	-0.10643173
13	0xbd93ff7c	-0.07226464
14	0xbd284678	-0.04108283
15	0xbd411da0	-0.047147393
16	0x3c101fac	0.008796614
17	0xbe108848	-0.14114487
18	0xbddca0c3	-0.1077285
19	0x3bf2e0c3	0.0074120476
20	0x3e07b1e6	0.13251457
21	0x3e0aa2e3	0.13538699
22	0x3ccdfcdf	0.025144992
23	0x3dad8130	0.08471906
24	0x3c1c2416	0.009530088
25	0x3d8ce6c8	0.068799555
26	0xbd644fa7	-0.055740025
27	0x3dd80327	0.10547476
28	0xbe08c967	-0.13358079
29	0xbd97c2b3	-0.07410183
30	0xbe11aebe	-0.14226815
31	0x3d3987fa	0.045295693
32	0x3e0a9f01	0.13537218
33	0x3d491dd6	0.04910072
34	0xbdd48214	-0.10376373
35	0xbda32d17	-0.079675846
36	0x3cd7d01e	0.026344355
37	0x3cb558f4	0.022137143
38	0x3dcf520a	0.101230696
39	0xbd7ccf87	-0.06172135
40	0x3d2fe73e	0.04294514
41	0xbda8e5ed	-0.0824698
42	0xbe0deba8	-0.13859427
43	0xbde6607f	-0.11248874
44	0x3d15dce2	0.036587603
45	0xbc6a6aa8	-0.014307655
46	0xbe056b10	-0.13029122
47	0x3d71a844	0.05899836
48	0xbd842516	-0.06452386
49	0x3c97ec8a	0.018545408
50	0x3d18ed08	0.037335426
51	0x3c3c2bee	0.011485083
52	0xbda0833b	-0.0783753
53	0xbe0155fa	-0.12630454
54	0x3d196f5e	0.037459724
55	0x3da8d61c	0.08243963
56	0x3e13bf52	0.14428452
57	0x3d9f50fd	0.07779119
58	0x3d57f3ac	0.052722618
59	0xbb34835c	-0.0027544117
60	0xbdbb609d	-0.09149287
61	0x3dd27bab	0.10277494
62	0x3d2996da	0.04140363
63	0x3d50f13e	0.051011316
64	0xbdd7a5fe	-0.10529707
65	0xbd8c8891	-0.068619855
66	0xbdff8cdf	-0.12478041
67	0x3dbd92bb	0.09256502
68	0x3d3a9a92	0.045557566
69	0x3dd85652	0.10563339
70	0x3db9de3f	0.09075593
71	0x3c0ee303	0.008721116
72	0x3dfb8743	0.122816585
73	0x3d950354	0.072760254
74	0x3d911187	0.07083421
75	0x3da71902	0.08159067
76	0xbcc97ce9	-0.024595695
77	0x3d262a01	0.0405674
78	0xbdd62ab9	-0.104573674
79	0x3e064744	0.13113123
80	0x3bb38623	0.005478637
81	0x3d90c05e	0.07067941
82	0xbd0d9969	-0.03457013
83	0x3d07d970	0.03316635
84	0x3df316d4	0.118695885
85	0x3da5bbbb	0.08092447
86	0x3d781432	0.060566135
87	0xbd8a833f	-0.067633145
88	0x3e01f644	0.12691599
89	0xbc9123c6	-0.017717253
90	0x3d9ad8fb	0.07560917
91	0xbdb3feb9	-0.08788819
92	0xbd61348f	-0.054981764
93	0xbc99066e	-0.018679824
94	0x3b9f85e6	0.004868257
95	0x3dcf1ab1	0.10112513
96	0x3e23e4f6	0.1600531
97	0x3ca31941	0.019909503
98	0x3cb0a400	0.021562576
99	0xbde86569	-0.113474675
100	0xbd8c66eb	-0.068555675
101	0xbd85acb9	-0.06527085
102	0xbd4ef3db	-0.050525527
103	0x3db9ecf6	0.090784
104	0xbd667bd3	-0.05627043
105	0xbdee1c3a	-0.116264775
106	0xbd7f775b	-0.062369686
107	0xbc9d9751	-0.019237192
108	0xbc95af10	-0.018271953
109	0x3d90fbb3	0.07079258
110	0x3dc0bdc2	0.094111934
111	0x3dbb95b2	0.091594115
112	0x3dc829c6	0.09773593
113	0xbdf5a708	-0.11994749
114	0x3d234ff7	0.039871182
115	0xbd718274	-0.0589623
116	0xbcd77a91	-0.026303561
117	0x3cbfeabb	0.023427358
118	0xbd98a783	-0.07453825
119	0x3c07f207	0.00829745
120	0x3da925d4	0.08259168
121	0xbd1af67f	-0.037832733
122	0xbe04c20f	-0.12964652
123	0xbdda8bd6	-0.10671203
124	0x3d7a47bf	0.06110358
125	0x3dd3e255	0.10345904
126	0x3d8441aa	0.06457837
127	0x3d1ca5c2	0.038244016
128	0xbe141dc5	-0.14464481
129	0x3bb08169	0.0053865206
130	0x3d980ca5	0.07424287
131	0xbd87c922	-0.0663016
132	0xbde1a37a	-0.11017509
133	0xbd80fa3d	-0.06297729
134	0x3d304e85	0.043043632
135	0xbce4c448	-0.027925625
136	0xbcf26711	-0.029590162
137	0x3d8a50fe	0.06753729
138	0x3d30c03f	0.04315209
139	0xbd4e3819	-0.050346468
140	0x3cee84f6	0.029116135
141	0x3b0c6495	0.0021422256
142	0xbd26904b	-0.040664952
143	0xbdbd07de	-0.09230016
144	0x3d9a6b01	0.075399406
145	0x3dd7a47b	0.10529419
146	0x3c7fa221	0.015602619
147	0x3ddc5a99	0.10759468
148	0x3daeae8d	0.08529387
149	0x3dc2d13c	0.095125645
150	0x3de482fc	0.11157796
151	0xbdade741	-0.08491374
152	0x3d04ec53	0.03245194
153	0x3de17834	0.11009255
154	0x3e0f91cb	0.1402046
155	0xbe0ad320	-0.135571
156	0x3dc10fd7	0.09426849
157	0xbd0736f2	-0.033011384
158	0x3e0ee1e8	0.13953364
159	0xbdfbbe8e	-0.12292205
160	0xbda0ce9a	-0.07851906
161	0xbc015015	-0.007892628
162	0xbd39394e	-0.045220666
163	0xbcd53c6b	-0.026029786
164	0x3dc8af17	0.09799021
165	0xbe107063	-0.14105372
166	0xbd6e258b	-0.058141273
167	0xbd25dac2	-0.040491827
168	0x3db230af	0.08700692
169	0xbd2550ce	-0.040360264
170	0xbd4f0e81	-0.05055094
171	0xbdec865b	-0.11549064
172	0x3db730ab	0.089448296
173	0xbe1a3004	-0.15057379
174	0x3dd58ff8	0.104278505
175	0x3dca42c0	0.09876013
176	0xbd518796	-0.051154695
177	0x3a9cf734	0.0011975528
178	0xbd25ff83	-0.040526878
179	0xbe0ac80e	-0.13552877
180	0x3c59f871	0.013303862
181	0xbc831c7b	-0.016004791
182	0x3da43dbc	0.080195874
183	0x3d21be4a	0.039488114
184	0x3dea6167	0.11444359
185	0xbdc71a91	-0.09721864
186	0xbb981db4	-0.0046422128
187	0xbe0e9219	-0.1392292
188	0xbdcaf815	-0.09910599
189	0xbde92002	-0.11383058
190	0x3dbf944d	0.09354458
191	0xbdae8d6a	-0.08523066
192	0xbdb813ba	-0.089881375
193	0x3dbeeefe	0.09322928
194	0x3df33d9a	0.11876984
195	0x3c97a822	0.01851279
196	0xbd881e93	-0.066464566
197	0x3be0e6b2	0.0068634385
198	0xbca91f47	-0.020644797
199	0xbd191a11	-0.037378374
200	0xbe11dbec	-0.1424405
201	0xbdc4abc7	-0.096030764
202	0xbc172aca	-0.00922651
203	0xbc9d575a	-0.019206692
204	0xbc5a656e	-0.013329847
205	0xbcab1020	-0.020881712
206	0x3d0109ca	0.031503476
207	0x3dba88a6	0.09108095
208	0x3d6b1d2c	0.057400867
209	0x3d33bc8a	0.043880977
210	0xbd218286	-0.039431117
211	0x3e021039	0.12701501
212	0xbe19706a	-0.14984289
213	0x3df2b62f	0.11851155
214	0xbdb02d64	-0.086024076
215	0xbde183b5	-0.11011449
216	0x3d68b331	0.056811515
217	0x3d2d41ef	0.042299207
218	0x3de0e268	0.109806836
219	0xbd515a2c	-0.051111385
220	0xbc56386e	-0.013074977
221	0xbdb98e00	-0.090602875
222	0x3dad191a	0.08452053
223	0xbde828e0	-0.11335921
224	0xbd85fb1f	-0.06542038
225	0xbd14912f	-0.03627127
226	0xbc4af1d3	-0.012386757
227	0xbb9b3281	-0.004736245
228	0x3cfe38dd	0.031032974
229	0x3b3adefb	0.0028514254
230	0xbdfb2fb4	-0.12264958
231	0x3df9f993	0.12205806
232	0xbd038686	-0.032110713
233	0xbd982770	-0.07429397
234	0xbca80386	-0.020509493
235	0xbdafeea5	-0.0859044
236	0xbd8b9305	-0.06815151
237	0x3ceea5f7	0.029131873
238	0x3e0323ad	0.12806578
239	0x3dfa0def	0.12209689
240	0xbdb1eee1	-0.08688141
241	0x3d4c2b55	0.049846012
242	0x3dda917e	0.10672282
243	0x3d83b9c9	0.0643192
244	0xbc2f499f	-0.010698705
245	0x3d095879	0.03353164
246	0xbd497c4a	-0.049190797
247	0xbccb91a8	-0.024849728
248	0xbc8783dc	-0.016542368
249	0xbd1001d4	-0.035157993
250	0xbd3fcbf5	-0.046825368
251	0xbda8a1ca	-0.08233984
252	0x3d090823	0.033455025
253	0x3d324eb5	0.043532092
254	0xbd42ed90	-0.04758984
255	0xbd65f95e	-0.05614602

lstm.bias_ih_l1 f4 [200]
0	0x3e08460f	0.13307975
1	0xbd95303f	-0.07284593
2	0x3dbb217d	0.09137247
3	0xbb9ad1a8	-0.0047247
4	0xbd5b5fb9	-0.053558085
5	0xbe0d18e1	-0.13779022
6	0x3df4a62c	0.11945757
7	0x3d60f36d	0.05491965
8	0x3dba3d7d	0.09093759
9	0xbdc60c90	-0.09670365
10	0x3e1b45c3	0.1516333
11	0x3c07374b	0.008252929
12	0x3d878372	0.06616868
13	0x3e10dab8	0.14145935
14	0x3de20c5a	0.11037512
15	0x3db8f0f4	0.09030333
16	0x3c324e23	0.010882887
17	0x3c9673b0	0.018365711
18	0x3c9ea872	0.01936743
19	0x3d59de12	0.0531903
20	0x3dc6faa8	0.09715778
21	0xbc766063	-0.015037629
22	0xbddc213f	-0.10748529
23	0xbcbc2024	-0.022964545
24	0x3d9295c2	0.0715747
25	0xbbea64ea	-0.007153143
26	0x3df15524	0.117838174
27	0xbd98c9f4	-0.074603945
28	0xbe001b65	-0.1251045
29	0x3d789d49	0.060696874
30	0xbdc2ff2b	-0.09521326
31	0x3d4a9fb5	0.049468715
32	0x3d9bc884	0.07606605
33	0xbd38d6e7	-0.04512682
34	0x3dfeb486	0.12436776
35	0x3d95edcf	0.07320749
36	0x3da418ba	0.08012529
37	0x3d913439	0.07090039
38	0xbd520922	-0.05127824
39	0x3dfd7c01	0.123771675
40	0xbdec40d7	-0.11535805
41	0x3e1d6f01	0.15374376
42	0x3c7f84a1	0.015595586
43	0x3cbf95c9	0.023386853
44	0xbcfd00da	-0.030884195
45	0x3d10eaa4	0.03538002
46	0x3cba3676	0.022731047
47	0x3e17ae48	0.14812577
48	0x3d08c62e	0.033392124
49	0xbdcf7edf	-0.101316206
50	0xbcc3d890	-0.023906976
51	0x3df25bd8	0.11833924
52	0xbd8072ad	-0.06271873
53	0x3d1aaf6d	0.037764955
54	0xbdf6d620	-0.1205256
55	0xbc9a2a08	-0.01881887
56	0x3d610e2c	0.054945156
57	0x3d8817c3	0.06645157
58	0xbd288655	-0.041143734
59	0x3e011a99	0.12607802
60	0x3d8dc2c3	0.069219135
61	0xbcb1be8f	-0.02169731
62	0xbbb5a255	-0.005543033
63	0xbb8722d1	-0.0041240235
64	0x3d7b0def	0.061292585
65	0x3e14cd80	0.14531517
66	0xbdc9a457	-0.098457985
67	0x3c35252d	0.011056227
68	0x3e03e663	0.12880854
69	0xbda3d710	-0.08000004
70	0x3d8c1a52	0.06840958
71	0x3d091887	0.033470657
72	0xbd4bb5f5	-0.049734075
73	0x3cc2d119	0.023781346
74	0x3c2e3ec6	0.010635084
75	0x3d6071fc	0.054796204
76	0x3e07fac7	0.13279258
77	0xbd48a338	-0.048983783
78	0x3d7da60d	0.061925936
79	0x3dac3906	0.08409314
80	0xbe04ea08	-0.12979901
81	0xbd87567d	-0.06608293
82	0xbcef43d0	-0.02920714
83	0x3cdbee55	0.026847044
84	0xbcb1894f	-0.02167192
85	0xbe0f4cd1	-0.13994147
86	0x3cedf296	0.029046338
87	0x3cc4f9fb	0.024044981
88	0x3c596e64	0.013270948
89	0xbc989f1d	-0.018630559
90	0xbdcd8778	-0.10035604
91	0xbdd63ca0	-0.10460782
92	0x3de8237f	0.11334895
93	0xbd6ef20d	-0.058336306
94	0xbd7eb117	-0.062180605
95	0xbd9ec373	-0.07752123
96	0x3b23fd29	0.0025022721
97	0x3d6a6729	0.057227287
98	0x3de57db9	0.1120562
99	0x3dc1192c	0.09428629
100	0xbc77b128	-0.015117921
101	0xbce3665c	-0.02775877
102	0x3e21fbf3	0.15818767
103	0x3d71d25f	0.059038516
104	0xbd0edf98	-0.034881204
105	0xbdefc0bc	-0.11706683
106	0x3dbdf413	0.09275069
107	0x3d8a866c	0.0676392
108	0x3d8e7344	0.06955579
109	0xbda12cfb	-0.078699075
110	0xbde5479e	-0.111953005
111	0x3dc84604	0.097789794
112	0xbdb67dba	-0.08910699
113	0x3e066783	0.13125424
114	0x3d136509	0.035985027
115	0xbdf55cd9	-0.119806
116	0x3dbfbb46	0.093618914
117	0xbe13c0dc	-0.14429039
118	0x3dd142ef	0.10217845
119	0xbcbe6b6c	-0.023244582
120	0xbdd63090	-0.10458481
121	0x3dc2509c	0.09488031
122	0x3d314c8b	0.043285888
123	0xbd90a59b	-0.07062837
124	0xbdecef4a	-0.11569078
125	0x3ccae006	0.024765026
126	0x3d6c62a2	0.05771125
127	0xbdc723f3	-0.09723654
128	0xbba5565a	-0.0050456943
129	0xbd940bb5	-0.072287954
130	0xbc65ede5	-0.014033769
131	0xbda297d0	-0.07939112
132	0x3e191bec	0.14952058
133	0xbe16af48	-0.14715302
134	0xbafb36f4	-0.0019166158
135	0x3df03af7	0.11729997
136	0xbe0c7fde	-0.13720652
137	0xbd892780	-0.06696987
138	0x3def23d4	0.116767555
139	0xbc280526	-0.010255134
140	0x3db33198	0.08749694
141	0xbd96fd87	-0.07372575
142	0xbbc23bf3	-0.0059275567
143	0x3dc6c5b5	0.097056784
144	0xbd787405	-0.06065752
145	0x3d937178	0.07199377
146	0x3e1f60b7	0.15564238
147	0x3bb8ad84	0.005635919
148	0x3d699a78	0.05703208
149	0xbd17e14f	-0.037080105
150	0xbe0356bf	-0.1282606
151	0xbbf5c8eb	-0.007500758
152	0xbc7e987e	-0.015539287
153	0x3dd2937b	0.10282036
154	0x3d15b787	0.03655198
155	0x3dc8043e	0.09766434
156	0xbbea259e	-0.0071455976
157	0xbd93d840	-0.07218981
158	0x3d03aebf	0.032149073
159	0xbdc21a10	-0.09477627
160	0x3d619bfa	0.05508039
161	0xbcb06efd	-0.021537298
162	0xbe0dd950	-0.1385243
163	0xbddbd6db	-0.1073434
164	0xbdd1291b	-0.10212918
165	0x3da4b6bd	0.08042667
166	0x3e02f447	0.12788497
167	0x3dfe2de3	0.12411096
168	0xbdfbce25	-0.12295178
169	0x3e01ad28	0.1266371
170	0x3de3a198	0.11114806
171	0x3d97d8ff	0.074144356
172	0xbd2af2e2	-0.041735537
173	0x3dd4f9eb	0.103992306
174	0x3e0fc80d	0.14041157
175	0xbe0e7ab9	-0.13914002
176	0x3db0bd8d	0.08629904
177	0xbdcad1f9	-0.0990333
178	0x3e081c5c	0.13292068
179	0x3dcea9a2	0.10090949
180	0x3d849cea	0.064752415
181	0xbd5ccb31	-0.053904716
182	0xbd5f56f8	-0.0545263
183	0x3e15f3c3	0.14643769
184	0xb9bfbd16	-0.0003657124
185	0xbddf3d52	-0.10900368
186	0xbd98a694	-0.07453647
187	0x3d89c650	0.06727278
188	0xbe10e9c2	-0.14151672
189	0xbd1f5db2	-0.038907714
190	0x3d74ab3a	0.059733607
191	0xbde1a468	-0.11017686
192	0x3ddf79fe	0.1091194
193	0xbd9f27dd	-0.07771275
194	0x3de3bcc0	0.111199856
195	0x3da3ccc7	0.079980426
196	0x3dbe8717	0.0930311
197	0x3d92f757	0.071760826
198	0x3e1b6bc5	0.1517783
199	0x3d60aff6	0.05485531

lstm.bias_hh_l1 f4 [200]
0	0xbca24a1d	-0.01981073
1	0x3babb0ce	0.0052395826
2	0x3e205485	0.15657242
3	0xbdb02b53	-0.086020134
4	0x3d255fbb	0.0403745
5	0x3df11801	0.117721565
6	0x3c9fd2ed	0.019509757
7	0xbd5e6ca4	-0.054302827
8	0xbdbdffed	-0.092773296
9	0x3dbdcad7	0.09267204
10	0xbdc574aa	-0.096413925
11	0x3d8d4eb4	0.06899777
12	0x3a8b66fb	0.0010635549
13	0x3cdc7a7c	0.026913874
14	0xbd76b845	-0.060234327
15	0xbd8cd462	-0.06876446
16	0x3d181d1d	0.03713714
17	0x3caad114	0.02085165
18	0x3cbcfdd3	0.023070252
19	0xbd4fc5a1	-0.050725583
20	0xbd92ea94	-0.071736485
21	0xbd982cf5	-0.0743045
22	0x3d828c3a	0.06374402
23	0x3dddd604	0.10831836
24	0x3de3423f	0.1109662
25	0xbb9f76cc	-0.0048664566
26	0xbd9b6f80	-0.07589626
27	0x3b208d51	0.0024498294
28	0x3dfb11fc	0.122592896
29	0x3d91ded7	0.071225815
30	0xbd1e8a83	-0.038706314
31	0xbd0b8074	-0.03405805
32	0xbdac9c39	-0.084282346
33	0x3d9e1c79	0.077202745
34	0x3c58e4c1	0.013238133
35	0xbdf06b3a	-0.11739202
36	0xbc8b5642	-0.017008904
37	0x3d8edff5	0.0697631
38	0x3be4356c	0.006964376
39	0xbda35719	-0.07975597
40	0x3e0dac8b	0.13835351
41	0x3d6c8450	0.05774337
42	0x3e0e519e	0.13898322
43	0xbdb15499	-0.08658714
44	0xbde2f1f3	-0.110813044
45	0xbce2b2aa	-0.027673084
46	0x3e06af9d	0.13152929
47	0x3c602542	0.013680758
48	0x3d710767	0.05884495
49	0x3d9179d1	0.07103313
50	0xbcbdddc2	-0.023177031
51	0x3c9d8493	0.019228255
52	0x3deb69cf	0.11494791
53	0xbd24a790	-0.040198863
54	0xbd9531ab	-0.07284864
55	0x3dbe7631	0.09299887
56	0x3c8f4884	0.017490633
57	0x3decb12d	0.11557231
58	0xbd48e67f	-0.049047943
59	0x3d9bff88	0.07617098
60	0xbdcdb5bc	-0.10044429
61	0xbdd447fb	-0.10365292
62	0xbb9b551e	-0.0047403714
63	0xbcd0ed57	-0.025503797
64	0xbd287cd3	-0.041134667
65	0x3dc22f27	0.0948165
66	0x3defdd84	0.117121726
67	0x3e24ccb5	0.16093715
68	0x39081986	0.00012979479
69	0xbd2676a3	-0.040640485
70	0xbca5ef59	-0.020255731
71	0x3d94d38f	0.07266914
72	0x3d29d046	0.04145839
73	0xbdba8cc3	-0.091088794
74	0x3d32c7de	0.04364764
75	0xbd66678b	-0.05625109
76	0x3e0a1e0b	0.13488023
77	0x3dec4d48	0.11538178
78	0x3dc74f04	0.09731868
79	0x3d5ef7b1	0.054435436
80	0x3df536ce	0.11973344
81	0xbd8ac747	-0.067762904
82	0xbd8b00d1	-0.06787265
83	0x3e03cf8e	0.12872145
84	0x3d3d7a6f	0.04625934
85	0xbd019d10	-0.031643927
86	0xbca0d13b	-0.019631019
87	0x3da8b127	0.08236914
88	0x3ca0f825	0.019649575
89	0x3d92dcca	0.071710184
90	0x3ccb35a5	0.024805853
91	0x3e0ba289	0.13636221
92	0xbd80bd24	-0.06286076
93	0xbe016437	-0.12635885
94	0x3da75572	0.08170594
95	0x3b39ebbc	0.0028369268
96	0xbc6b3f97	-0.014358423
97	0x3dafa016	0.08575456
98	0x3e003138	0.12518775
99	0xbca37bab	-0.01995643
100	0x3d68d805	0.056846637
101	0x3df111fb	0.117710076
102	0xbcf89aab	-0.030347189
103	0xbde6fa1c	-0.11278173
104	0xbbbf2bcf	-0.00583408
105	0xbdbfb62b	-0.09360918
106	0x3d6903aa	0.05688826
107	0x3cc95226	0.024575304
108	0xbcf3e40d	-0.029771829
109	0x3d6084f5	0.054814298
110	0x3df02dae	0.11727463
111	0x3b0c2956	0.0021386943
112	0x3d31be21	0.04339421
113	0xbc6b254c	-0.014352154
114	0xbdde3f77	-0.10851949
115	0xbe04ab4a	-0.12955967
116	0xbdc747db	-0.09730502
117	0xbd5e5557	-0.054280605
118	0xbd4a3d93	-0.049375128
119	0xbe0245de	-0.12721965
120	0xbe1af07e	-0.15130803
121	0x3cfdabb4	0.030965663
122	0xba9b09b7	-0.0011828457
123	0xbdefde61	-0.11712337
124	0x3d16008e	0.036621623
125	0xbdfda7cd	-0.12385521
126	0xbde513c9	-0.11185414
127	0x3d5127bf	0.051063295
128	0xbdd613e2	-0.10453011
129	0x3db53877	0.088486604
130	0x3d35288b	0.044228118
131	0xbd0c67fa	-0.034278847
132	0x3d9e39a7	0.0772584
133	0x3de6cd1b	0.112695895
134	0x3d2cf083	0.042221557
135	0x3bfa8119	0.007644784
136	0xbd9d0369	-0.07666666
137	0xbd39b52b	-0.04533879
138	0x3cbc4e04	0.02298642
139	0xbc3caafc	-0.011515375
140	0x3df85b99	0.12126846
141	0xbe106a70	-0.14103103
142	0x3de82b95	0.113364376
143	0xbe19ce3a	-0.15020075
144	0x3b65e83c	0.003508105
145	0x3ccfca3f	0.025364993
146	0xbd366a4a	-0.04453496
147	0x3bbf119c	0.0058309566
148	0xbe0c0625	-0.13674219
149	0xbcd0c8eb	-0.02548643
150	0xbde3c64b	-0.11121806
151	0xbde6afd3	-0.112640046
152	0xbc35d18e	-0.011097325
153	0x3e249e87	0.16076098
154	0xbd03baf6	-0.03216072
155	0xbde10ff8	-0.10989374
156	0x3dd471ac	0.10373244
157	0xbdf5cf9b	-0.12002488
158	0x3cf169af	0.02946934
159	0xbd513139	-0.051072333
160	0xbde097ea	-0.10966475
161	0xbc32ff24	-0.010925088
162	0x3da1753e	0.0788369
163	0x3dfcf503	0.1235142
164	0x3d0961e2	0.033540614
165	0x3cd1c7b4	0.025607921
166	0xbd5f88cd	-0.054573823
167	0x3c893605	0.016749391
168	0x3ddd4461	0.10804058
169	0xbce92093	-0.028457915
170	0x377d97f0	1.5115351e-05
171	0xbd641a31	-0.05568904
172	0x3dd46d79	0.10372443
173	0x3d9543e3	0.07288339
174	0x3cfd5038	0.03092204
175	0xbdd91206	-0.10599141
176	0x3bff449e	0.007790162
177	0x3e0088e8	0.12552226
178	0x3d99c0c0	0.07507467
179	0xbd828af8	-0.063741624
180	0x3df6940d	0.12039957
181	0xbdd3e578	-0.10346502
182	0x3e0af90b	0.13571565
183	0xbc85f754	-0.016353287
184	0xbd478848	-0.048713952
185	0x3dd55111	0.10415853
186	0xbccb7408	-0.024835601
187	0xbd07f5f3	-0.03319354
188	0x3a888f7b	0.0010418737
189	0x3d428f59	0.04749999
190	0x3dec373a	0.11533971
191	0xbd460b8b	-0.048350852
192	0x3db1f212	0.086887494
193	0x3e06f8dc	0.1318087
194	0xbdc2578d	-0.09489355
195	0xbdda2fd2	-0.10653652
196	0xbb936467	-0.004498053
197	0x3dd7dce9	0.10540182
198	0xbdd8def5	-0.10589401
199	0xbdfaff28	-0.122556984

fc.weight f4 [1, 50]
0	0xbdb1a895	-0.086747326
1	0x3e007763	0.12545542
2	0x3d9db98c	0.07701406
3	0xba4de304	-0.00078539574
4	0x3dbb6d78	0.09151739
5	0x3c677c59	0.014128768
6	0xbc79a728	-0.015237607
7	0xbd84cf6b	-0.06484874
8	0x3d003229	0.031297836
9	0xbd89b016	-0.06723039
10	0x3df7eae4	0.12105349
11	0x3d874d83	0.06606581
12	0xbdd52488	-0.104073584
13	0x3d6939de	0.056939952
14	0xbe11ecf1	-0.14250542
15	0xbc8a0f99	-0.01685314
16	0xbdd1b7f8	-0.102401674
17	0xbe1c8e76	-0.1528872
18	0x3d0ce0f7	0.03439423
19	0xbdc7f5df	-0.09763693
20	0xbd1627d4	-0.036659077
21	0xbddf430a	-0.109014586
22	0xbdc2ea1a	-0.095173076
23	0x3c3927e6	0.011301016
24	0x3cab87fb	0.020938864
25	0x3c953d5f	0.01821774
26	0x3aa10cff	0.0012287198
27	0x3d3ad391	0.04561192
28	0xbbaf98e6	-0.005358803
29	0xbdd7cde7	-0.1053732
30	0xbc6461a3	-0.013939294
31	0xbde07f6f	-0.10961806
32	0x3e0cbcea	0.1374394
33	0xbe059245	-0.13044079
34	0x3d474286	0.048647426
35	0xbcf852a4	-0.030312844
36	0xbcbdb9db	-0.023159912
37	0xbd951bf8	-0.07280725
38	0xbd395c0b	-0.045253795
39	0x3d3bbed4	0.045836285
40	0x3e23e9da	0.16007176
41	0xbdb5cea8	-0.08877307
42	0x3e17adb0	0.1481235
43	0xbdc41963	-0.09575155
44	0xbd8db485	-0.06919197
45	0x3e1e126d	0.15436716
46	0x3dedb498	0.11606711
47	0x3df46d3d	0.11934898
48	0xbda75d56	-0.08172099
49	0x3daf4ce4	0.085595876
