models/BNB_USDT_model.pt (torch, 128181 bytes, 9 tensors)

lstm.weight_ih_l0 f4 [200, 1]
000000 d3 76 5d bd 20 1c eb bc 10 45 04 be d0 47 48 bd
       -0.054068398 -0.028699934 -0.1291697 -0.04889661
000010 30 55 00 3e 07 19 0f bd b8 0d 41 3c b1 b8 d8 3c
       0.12532496 -0.034935977 0.011783056 0.026455255
000020 8a 8e 09 be 04 45 c5 b9 07 57 fc 3d dd 3f 1a bd
       -0.1343328 -0.0003762619 0.12321287 -0.03765856
000030 32 15 ce bc 15 14 a3 bd e0 0b cc 3d e2 b1 80 3d
       -0.025156591 -0.07962815 0.099632025 0.062839285
000040 d6 c4 c5 3d e9 f1 2c bd 4f d8 96 bd 97 d2 f8 3d
       0.09656684 -0.04222289 -0.07365476 0.12149542
000050 a2 ad 08 3e 7c 67 b6 3d 07 b8 ef bd f9 cc 4e 3d
       0.13347486 0.08906457 -0.11705022 0.050488446
000060 50 ef 00 be da 4d 07 3e 58 46 01 bd 70 aa 21 bd
       -0.1259129 0.13213292 -0.031561226 -0.039469182
000070 67 b9 04 3d 8b 2e f3 3d 94 11 b6 bd 95 ad c3 bc
       0.032403376 0.11874112 -0.088900715 -0.023886481
000080 5c 79 b4 3d 26 e3 04 3d 2b 89 ec 3d 96 78 30 3d
       0.0881221 0.032443188 0.115496 0.04308375
000090 44 68 06 3e c6 ed fc bb 95 a9 b1 bd 86 0e 19 be
       0.13125712 -0.0077187745 -0.08674923 -0.14946947
0000a0 11 cc 7c bc d0 ec 89 bc 58 64 ca bc 33 e5 00 3e
       -0.015429513 -0.016836554 -0.02470605 0.12587433
0000b0 75 41 a3 bd 97 5b 13 3e 5d d3 cb 3d 8b 75 0d 3d
       -0.07971469 0.14390408 0.09952424 0.034535926
0000c0 7e 39 0e bd cd 45 d4 3d 8a d5 15 bd 4a 6c fe bc
       -0.034722798 0.10364876 -0.0365806 -0.031057496
0000d0 da 58 54 3d 52 48 d7 3d 5f 0a 1e 3e d2 c4 f7 3c
       0.051842548 0.10511841 0.15433644 0.030245218
0000e0 51 86 52 bd 93 a8 c2 3d 33 8c 86 bc df a3 5b 3d
       -0.051397625 0.09504809 -0.016424274 0.053623077
0000f0 0a 5e ce 3d a7 02 72 bd 83 74 e6 3d b8 4d 9e bd
       0.1007653 -0.05908456 0.112526916 -0.077296674
000100 53 bf c9 3d 5b 16 15 3d f1 5e 91 bc 06 88 d5 3d
       0.09850945 0.036398273 -0.017745467 0.10426335
000110 4f 3f a8 bc 83 61 6f 3b 98 44 14 be f9 bd 94 3d
       -0.020538 0.0036526627 -0.14479291 0.07262797
000120 49 6f 6e bd a9 df 61 3d 43 d5 ef bd 10 2c e9 3d
       -0.0582116 0.05514494 -0.11710598 0.113853574
000130 92 42 fe 3c df 3c 2e 3d 2a a5 f0 bd 0a ed 35 bd
       0.031037603 0.04253852 -0.117502525 -0.04441551
000140 d8 e8 2e 3d c7 e9 20 3e 36 00 80 bd 7b 6b 8c 3d
       0.042702526 0.15714179 -0.0625004 0.06856438
000150 95 c0 c2 bd 37 3e 05 3e 4e e5 bc 3a 74 c3 ca 3c
       -0.09509388 0.13012014 0.00144116 0.024751402
000160 4e af 39 3c 39 1b 0d be 6a 49 f4 bc b3 d3 3c bc
       0.0113333 -0.13779916 -0.029820163 -0.011525082
000170 6e 0d f2 3d 2b c6 14 3e e7 1c da bd 33 86 f5 3d
       0.11818968 0.1452872 -0.10650044 0.11988487
000180 e5 e6 20 3e 01 96 e4 3d 6c 96 8c bc e9 54 fe 3d
       0.1571308 0.111614235 -0.01716157 0.12418539
000190 f6 9e 33 3d ed 58 11 3e 7e e0 17 3e ac 77 ad 3d
       0.04385277 0.14194079 0.1483173 0.08470091
0001a0 ba a8 cf bc 62 f9 9b bc f5 71 9c bd b0 66 ee bd
       -0.02534901 -0.019039813 -0.07638923 -0.1164068
0001b0 c6 bf 02 3e 96 39 eb bb c6 2b ff bd 5d a0 05 be
       0.12768468 -0.0071784956 -0.12459521 -0.13049455
0001c0 ff a7 32 bc cc 9b c5 bd 2b 42 6d bd 1d 1e 1e 3e
       -0.010904311 -0.096488565 -0.05792443 0.15441175
0001d0 b6 a9 24 3d 9e 0c 3a bd 6c 20 fb bd 50 ed 8b 3d
       0.04020091 -0.04542219 -0.12262043 0.06832373
0001e0 30 b6 f6 3d ea 6a 1b 3e 7b ac be 3d b7 4f 20 be
       0.12046468 0.15177503 0.09310242 -0.15655409
0001f0 73 7b 09 3e 74 47 2d bd c9 38 2f 3d f9 af fe 3c
       0.13425998 -0.04230447 0.042778764 0.03108977
000200 26 57 7e 3c 52 00 28 bb c9 3f 0f be d2 1a 02 bd
       0.0155237075 -0.0025634957 -0.13989176 -0.03176386
000210 a5 1c 85 bd db f5 61 bd 0b 99 d8 3c 3b 8e 9d bd
       -0.06499604 -0.055166107 0.026440164 -0.07693144
000220 8f 11 29 3b 02 9f a6 3d c7 21 02 be d4 fb 4d 3d
       0.002579782 0.08135797 -0.12708198 0.05028899
000230 27 9f 09 3e e2 cd 6d 3b f3 df 02 3e 55 19 e9 3d
       0.13439618 0.0036286046 0.12780742 0.11381785
000240 85 45 e3 3d 64 86 00 3e c2 8c bc bd 8d be 18 3e
       0.11097244 0.12551266 -0.09206535 0.1491644
000250 11 0a 87 3d ad 4f 8c 3d be 43 54 bd 76 55 16 3d
       0.06593717 0.068511344 -0.051822416 0.036702596
000260 95 39 15 bd 39 78 cc bd 35 8f f0 bd 9f da 65 bd
       -0.036431868 -0.09983868 -0.117460646 -0.056116696
000270 54 74 de 3d 08 1a d5 bd e6 19 e3 bd 28 2a f5 bd
       0.108620316 -0.10405356 -0.11088924 -0.11970931
000280 6d f6 9e 3d 97 95 9d 3d 3a 1a 09 3e 86 4e c7 bd
       0.07761846 0.076945476 0.13388911 -0.09731774
000290 c0 9b e7 bd c1 40 a7 3d 33 a5 63 bd 35 40 50 bd
       -0.11309004 0.08166648 -0.055577468 -0.050842483
0002a0 0b 01 af bd da 19 d8 3c ae 5a 0b bd 90 1d a1 bd
       -0.08545121 0.026379514 -0.034022026 -0.07866967
0002b0 28 a6 91 bd 09 7e dd 3d af 24 74 bd 66 6c bb bd
       -0.0711177 0.10815055 -0.059605297 -0.09151535
0002c0 a1 e4 31 3c d0 b0 8e bd 1a f9 19 be 6c 1c d7 3d
       0.010857732 -0.06967318 -0.15036431 0.10503468
0002d0 e8 65 96 bd 52 f3 b8 bd 4e fe 0d 3e 23 90 0e 3e
       -0.07343656 -0.09030785 0.13866541 0.13922171
0002e0 23 26 49 3d 5d f5 18 3e f7 41 c0 3d 5d b4 dd 3c
       0.049108636 0.14937349 0.09387582 0.027063543
0002f0 ec 62 e3 bd 7a e0 10 3d fb ea d9 3d ad a7 62 bd
       -0.11102852 0.035370328 0.10640522 -0.05533569
000300 d0 c9 9c 3d ee 6b 98 bd ec 20 30 3c 8d e4 55 3a
       0.0765568 -0.07442461 0.010750037 0.0008159362
000310 8b 00 d3 bd a4 ab b7 bd 0a 22 f0 bd 14 93 81 bd
       -0.10302838 -0.08968285 -0.117252424 -0.06326881

lstm.weight_hh_l0 f4 [200, 50]
000000 86 18 84 bd 81 74 03 3d fc 81 c5 bd 49 cc 09 3e
       -0.0644999 0.03209353 -0.09643933 0.13456835
000010 39 a0 ac 3b ea 66 96 3c ae cf cb bd 9e ee 7c bd
       0.0052681235 0.01835962 -0.09951721 -0.061751
000020 43 6e c5 3d 8f 70 dd 3a 52 c4 29 3d 97 af a2 3d
       0.096401714 0.0016894507 0.04144699 0.07943647
000030 0a 70 74 3d c6 e0 9d 3d 85 fd ac 3d 00 a7 ad bd
       0.05967716 0.07708888 0.084467925 -0.08479118
000040 90 a8 99 bd 6d b8 d4 bd 37 4a ba 3d 49 51 1b be
       -0.07502854 -0.10386739 0.090961866 -0.15167727
000050 92 46 cb bd 1c 4f c6 b8 14 b5 a0 3d 0c 4b f7 bd
       -0.099255696 -9.456111e-05 0.07847038 -0.12074861
000060 b4 4d 9a 3d 4a d9 9d bd 06 71 f7 bb 10 f1 9b 3b
       0.07534352 -0.0770746 -0.0075513152 0.0047589615
000070 b8 cf 1b 3e c1 f8 2c 3d 70 d6 0b 3d 54 00 c4 bc
       0.15215957 0.042229418 0.03414005 -0.023925938
000080 a7 f9 c9 3c 76 1d 0c 3e 9f a2 5e 3d 77 4f 20 be
       0.024655176 0.13683113 0.054354306 -0.15655313
000090 07 ba 9e bd 87 3e 05 3e 4a 05 b7 bd d3 fc f1 3c
       -0.07750326 0.13012134 -0.08936556 0.029539501
0000a0 93 4c 48 bc 80 4f f7 bc 83 d6 a0 3d 52 a2 f2 3d
       -0.012225288 -0.030189276 0.07853415 0.118473664
0000b0 b2 54 ed bd d5 8b de bd 24 25 24 3e 33 e6 ac 3d
       -0.1158842 -0.108665146 0.16029793 0.084423445
0000c0 fe c6 50 ba 02 c8 aa 3d 3a 3e 1c 3d 2e 0d 39 3d
       -0.00079642225 0.0833893 0.03814528 0.045178585
0000d0 95 2c a2 bd 57 73 ee 3d 2d a6 b7 bd 26 ef d8 3d
       -0.079186596 0.11643093 -0.089672424 0.10592489
0000e0 27 df c4 3d 4b 7a 6c 3d 31 fe 97 3d b6 90 29 bd
       0.096128754 0.057733815 0.0742153 -0.041397773
0000f0 5a 5c 6b bd 9f 6a 68 bc 9b f1 c6 bd da 87 01 be
       -0.05746112 -0.014185577 -0.09714051 -0.1264948
000100 42 91 0c be 51 43 0b bd e9 dd d9 3d 30 84 69 bd
       -0.13727286 -0.033999745 0.10638029 -0.05701083
000110 07 ef 06 be 95 7c 8a 3d b8 6e 32 3d dc e5 46 3d
       -0.13177119 0.067620434 0.04356262 0.048559055
000120 89 80 25 bd 7d a3 78 3d cb 66 10 3e 68 cf db bd
       -0.040405784 0.06070279 0.14101712 -0.10732919
000130 f0 ef db 3c 8f 15 3b bd 95 df 90 bd 27 fe c5 bd
       0.02684781 -0.045674857 -0.07073895 -0.09667616
000140 1f 58 e8 3d 81 48 ac bb 93 b6 8b 3d 9a 54 69 3c
       0.11344933 -0.0052576666 0.06821933 0.014241362
000150 19 0e 30 3d 8d 23 0f 3d 72 e4 d5 bb a8 e8 a2 bd
       0.042982195 0.034946013 -0.006527477 -0.07954532
000160 b7 ad 3e 3c 23 de 9d 3d 09 a1 b2 bd 62 be bc bc
       0.0116380965 0.07708385 -0.08722121 -0.02304
000170 c8 8a 58 bd 7d c4 a4 3c ff cb 01 bd 75 de 9f bd
       -0.052866727 0.020113224 -0.031688686 -0.07806102
000180 06 31 98 3d 97 6a 97 bc 10 9b 8d 3d c4 4b 78 3d
       0.074312255 -0.018483443 0.069143414 0.06061913
000190 99 c9 a6 bd 64 de ac bd f3 16 15 3e c0 bc bb 3d
       -0.081439205 -0.08440855 0.14559536 0.091668606
0001a0 c0 88 9e bd 95 df ec bd c5 d2 df bd 61 59 1d bd
       -0.07740927 -0.115660824 -0.10928873 -0.038415316
0001b0 be d8 76 bd 23 fe b8 bd 78 fe 39 bd d2 5f 9f 3d
       -0.060265295 -0.09032848 -0.045408696 0.07781948
0001c0 1b 2d c0 3d 60 d2 8a 36 cf dc a7 3d 79 79 bf 3d
       0.09383603 4.1372114e-06 0.08196413 0.09349341
0001d0 84 b1 a8 3c 90 83 43 3d d9 41 aa 3d d2 51 a0 3c
       0.020592459 0.04773289 0.08313341 0.019570265
0001e0 6b a8 39 bd dc 3f 10 3c 56 00 7b 3c 01 08 0c 3d
       -0.04532663 0.008804288 0.015319904 0.03418732
0001f0 c5 db d0 bd 3f d7 ca 3d 52 71 0b be 61 0b 01 3e
       -0.10198168 0.09904336 -0.13617447 0.12601997
000200 5d 7f c1 bd 84 fb 99 3d 35 9e ce bd f5 e1 83 3d
       -0.09448121 0.07518676 -0.10088769 0.06439582
000210 82 2d c9 3c 9b 31 42 bd e4 bc 14 bd a5 bb 43 3d
       0.024557833 -0.04741059 -0.036312953 0.047786374
000220 18 5a 81 3d df 41 a0 3d a3 7e 40 3d 8d bb a8 3c
       0.06316012 0.07825064 0.04699577 0.020597244
000230 49 a2 19 3e c1 36 00 3b 16 e9 f9 3b b3 32 d8 3d
       0.15003313 0.0019563886 0.007626663 0.10556545
000240 63 8a be bd f9 e6 82 3d f6 c0 b3 bd 60 b6 00 be
       -0.09303739 0.06391711 -0.08777039 -0.1256957
000250 17 6c 84 3d bf 75 41 3d aa 1e 9c bd f6 44 03 bd
       0.06465929 0.047231432 -0.07623036 -0.03204819
000260 3c c8 48 bb 17 00 70 bc 14 ec d3 bb ee 06 10 3e
       -0.0030636927 -0.014648459 -0.0064673517 0.14065143
000270 a0 33 5b bb d7 83 f2 bb 66 49 26 3d 6d 0d 01 3d
       -0.003344752 -0.0074009704 0.040597342 0.031506944
000280 1a 12 a0 3d 19 d1 4a 3d aa 29 df 3d 8a 01 04 be
       0.078159526 0.049515817 0.10896619 -0.12891212
000290 5e 7c 03 3d 63 37 24 3d bd a0 bf 3d 60 3e 56 bd
       0.032101028 0.040091883 0.0935683 -0.05230558
0002a0 e3 11 4a 3b 93 1a f0 3d 05 1f fd 3c b2 93 e0 3c
       0.0030833415 0.11723819 0.03089858 0.027414177
0002b0 d9 ed 63 3d e5 74 19 3d 39 a0 0a 3e 0a f7 d7 3d
       0.05564675 0.037464995 0.13537683 0.10545166
0002c0 33 b9 1d 3e 64 62 f1 bc eb c9 dc bd 7c 22 f0 bd
       0.15402679 -0.029465862 -0.107807 -0.117253274
0002d0 7e 57 bd 3d cc c5 dd 3d 21 09 a6 bc 91 d5 0a bd
       0.092452034 0.108287424 -0.020268025 -0.03389508
0002e0 55 1a cd bd 34 fd 1f be f1 88 c9 3d 1d 24 34 3b
       -0.10014788 -0.15623933 0.098405726 0.0027487346
0002f0 33 69 27 3d 72 8c ad bd 99 e4 bc 3d ac 70 61 bd
       0.04087181 -0.084740534 0.09223289 -0.055039093
000300 92 45 f4 bd 72 8d bc bd ac cd 84 bd 04 d4 0a be
       -0.11927332 -0.09206666 -0.06484541 -0.1355744
000310 6c 0d b7 3d bb 09 8d bd 05 1c 8b bd bd 77 63 3d
       0.08938107 -0.068866216 -0.06792454 0.055534113
000320 ca 9a c8 bd 4e 95 01 3e 41 81 0f 3d f2 00 1e bd
       -0.09795149 0.12654611 0.035035376 -0.03857512
000330 b1 45 68 3d 05 73 73 bd 15 6f 06 be 45 38 44 3d
       0.056707088 -0.059435863 -0.13128312 0.047905225
000340 60 ab f7 bb 45 75 d0 3d 2d 2f b4 3d 62 5d a8 3d
       -0.0075582713 0.101786174 0.087980606 0.08220936
000350 2f 05 89 bd 0f 66 0a bb 16 aa a5 3d de 5b d2 3d
       -0.06690442 -0.002111796 0.08089082 0.102714285
000360 15 17 84 3d 36 98 a3 bb c0 ec 80 bd 6c ee 21 3d
       0.06449715 -0.00499251 -0.062951565 0.039534017
000370 cb 1f ac bd f0 4b 0f 3e 58 8e 3f 3d c1 f0 0a bd
       -0.084045015 0.13993812 0.04676661 -0.033921007
000380 17 d3 90 3c 69 da 6d bd c2 5e e7 bd 74 c7 b0 3c
       0.01767878 -0.05806962 -0.112973705 0.021579482
000390 f1 98 09 3e b8 e4 2b 3d 74 26 01 be 4a 09 0e bd
       0.13437249 0.04196617 -0.12612325 -0.034676827
0003a0 1a 54 86 39 93 f7 f7 3d 73 0a 98 3d df d5 0e be
       0.00025621132 0.12107768 0.07423868 -0.13948773
0003b0 09 72 99 ba 6f dc 0e bc 8e 83 26 bc de a7 65 3d
       -0.0011706959 -0.008719548 -0.010163201 0.056068294
0003c0 f3 07 16 bd 80 66 53 3d ed 63 c6 3c 3a 4a 08 3d
       -0.036628675 0.051611423 0.02421757 0.033273913
0003d0 a0 1e 9f bd 91 15 07 be a8 ef 85 3d 8f 94 0d 3e
       -0.07769513 -0.1319182 0.065398514 0.13826202
0003e0 5e b1 68 bd b1 03 24 3e bb 56 00 be eb a7 1f 3e
       -0.056809776 0.16017033 -0.12533085 0.155914
0003f0 01 a8 9f bc c2 61 96 3c 24 c0 49 bc 18 30 86 3d
       -0.01948929 0.018357161 -0.012313876 0.06552142

lstm.bias_ih_l0 f4 [200]
000000 66 d7 71 bd b4 03 9f 3d 09 a4 c8 bd c7 0f 06 3e
       -0.05904331 0.07764378 -0.09796912 0.13091956
000010 d5 e7 09 3e 42 e0 40 bc 02 57 16 bd bc bb 68 bd
       0.13467343 -0.011772217 -0.03670407 -0.056819662
000020 1b db 0d 3e 64 24 84 bb 87 8a bf 3d 17 67 af 3d
       0.13853113 -0.0040326584 0.09352594 0.08564585
000030 32 d8 8f 3c 4b d7 e7 3c e8 70 c9 3c db b2 35 bd
       0.017559145 0.028300902 0.02458997 -0.044360023
000040 ac a8 12 bd f3 8a b9 3c 30 68 a1 3d 70 2d 43 bb
       -0.03580539 0.022649264 0.078812 -0.0029781722
000050 7d 34 0c be 9b 5a 21 3d d4 01 c6 bd 8a 5a 50 bd
       -0.13691898 0.03939305 -0.096683174 -0.050867595
000060 48 6a 0e be 27 ef 86 3c 23 b2 34 3c eb 89 17 3e
       -0.1390773 0.016471459 0.011028799 0.14798705
000070 ff d5 c9 3c 49 25 85 bd b0 67 35 bd 84 6c 76 3d
       0.024638174 -0.06501252 -0.044288337 0.060162082
000080 5f 06 1d 3e dc cd f0 bd 78 58 91 3d d9 4b c5 3c
       0.15334462 -0.117580146 0.07096952 0.024084019
000090 dd a7 a3 bd be d3 0b 3e c5 51 6e bc f2 ee 13 3d
       -0.07991002 0.13654992 -0.014545863 0.036116548
0000a0 d1 ad b0 bd 50 8a 18 bd 56 77 b9 3d 47 2e 12 bd
       -0.08626903 -0.03724128 0.09055965 -0.035688665
0000b0 56 3d cd 39 09 38 86 bd 7f 8a e6 bc 6f 65 37 bd
       0.00039146346 -0.065536566 -0.028142212 -0.04477447
0000c0 8a ec 35 3d 7d cf d4 3d d7 c5 6b bc 35 77 b7 3d
       0.044415034 0.10391138 -0.01439043 0.08958284
0000d0 7c 16 59 bd e0 9f 37 3b 95 87 07 3d 64 f3 59 bd
       -0.05299996 0.0028018877 0.033088285 -0.05321063
0000e0 d6 e9 20 bd bb d5 d1 bd 1c c2 0f 3e f4 bb ce ba
       -0.039285503 -0.10245844 0.1403889 -0.0015772567
0000f0 2c 1c 71 bd 0e 30 01 bd 2a b0 c9 3d 91 07 b3 bd
       -0.058864757 -0.03153997 0.09848054 -0.087416776
000100 98 dd 14 3d c7 ad f1 3b c7 e8 ca 3d 26 0e 11 3e
       0.03634414 0.007375452 0.0990768 0.14165553
000110 d9 4c ef 3d 79 5c bc 3d 52 15 ac bc 64 dd 12 3e
       0.116845794 0.09197325 -0.02100626 0.14342266
000120 b1 77 e7 3b e1 3f 8c 3d b8 f5 13 3d 5c 90 b1 3d
       0.007063829 0.068481214 0.036123008 0.086701125
000130 6d 2e 8f bd 20 08 d8 bb 42 bc e7 bc 3e 45 45 3d
       -0.06991277 -0.0065927655 -0.02828801 0.048161738
000140 ef 16 b0 bc 90 21 67 3d 18 73 b7 3c c3 9a 1e 3d
       -0.02149531 0.056428492 0.022393748 0.03872181
000150 d7 45 04 3e ae 60 bb bb b2 e5 06 3e 3f 89 74 bd
       0.12917267 -0.005718312 0.1317356 -0.0597012
000160 ef 0b 9e bd d9 85 ee 3d fd 7e 3b bc 65 4e 53 bc
       -0.0771712 0.11646623 -0.011443851 -0.012897109
000170 ca 58 07 be 47 83 97 bd 57 de c0 bc af 63 b2 3c
       -0.13217464 -0.07398086 -0.02354352 0.021776048
000180 3d c9 2a 3d 48 71 e7 3d 4a 72 2a bd 78 96 0e bd
       0.041695822 0.113009036 -0.0416129 -0.034811467
000190 63 df 0e 3e 65 86 16 3e 9e 35 15 3d 1a ac 60 bd
       0.13952403 0.14699705 0.036428086 -0.05485163
0001a0 19 de be bd 6c 80 a7 3d b7 af 1e bd da 6a 9b 3d
       -0.093197055 0.081787914 -0.038741793 0.0758874
0001b0 02 ce 2b bd d5 48 12 be b5 47 86 bd 67 eb 5d bc
       -0.04194451 -0.14285596 -0.06556646 -0.013544894
0001c0 52 16 99 3c 70 38 8d 3d 29 ca e9 3d d9 35 6d bc
       0.018687401 0.0689553 0.11415512 -0.01447817
0001d0 0f 1c f7 bd 04 c4 ba 3d 50 02 d5 3d 89 4a c4 bc
       -0.120658986 0.09119418 0.10400832 -0.023961322
0001e0 4b 7a ff bd ce 16 c7 bb 17 9c d8 3c 05 49 e7 bd
       -0.124744974 -0.0060757166 0.026441617 -0.11293224
0001f0 d3 45 20 bd 8f 1e f5 3d 74 a0 b3 bd 8d b2 fc 3d
       -0.03912909 0.11968719 -0.087708384 0.12338743
000200 68 0a e7 3d 23 58 d8 3d c6 0a e2 3d ad 8f 75 bd
       0.11281282 0.10563686 0.11037211 -0.059951473
000210 df 89 85 bd 52 5d b0 3d a1 66 4b ba e3 1c 92 3d
       -0.065204374 0.086115494 -0.00077591283 0.07134416
000220 b1 8a 58 3d 2a 3b ef 3c 32 d3 82 3d 4d 8d b4 bc
       0.05286664 0.029203016 0.063879386 -0.022040034
000230 80 b1 24 3d 51 90 2a bb d6 cf c9 bd ef 14 f6 bd
       0.04020834 -0.002602596 -0.09854095 -0.120157115
000240 6f cb 11 bd 3c 60 e9 bd a9 05 82 3d 0d 5e 76 3d
       -0.0355944 -0.113953084 0.06348736 0.060148288
000250 60 18 dc bd 63 04 dc 3d 1f 36 49 3d 57 b8 05 3e
       -0.10746837 0.10743024 0.04912388 0.13058601
000260 1b 79 75 3d ee 89 8e bc ea 3b 93 bd 24 30 c6 3d
       0.05992995 -0.017399754 -0.07189162 0.09677151
000270 39 38 6d bd 99 be b5 3c 71 ba 20 3d e0 8c 04 3e
       -0.057914946 0.02218561 0.039240304 0.12944365
000280 bd 68 a5 bd fb 5f dc 3d 2f c2 1a bc e8 18 a7 bc
       -0.08076618 0.10760494 -0.009445711 -0.020397618
000290 c8 aa a8 bd fc 9f df bb 5e 20 cb bd a8 11 81 3c
       -0.08235699 -0.0068244915 -0.09918283 0.01575549
0002a0 cc da fc 3c cf fc d7 bd 60 8d b4 bd 6d c3 9e 3c
       0.03086605 -0.10546266 -0.08816028 0.019380296
0002b0 ca ab 08 3e 71 af 9c 3c af 22 67 3d 0b 3c 13 bd
       0.13346782 0.019126626 0.05642956 -0.035945933
0002c0 57 8c d8 3d 51 45 e9 bd 25 e7 00 3e 96 92 ab bd
       0.10573643 -0.11390174 0.12588175 -0.083775684
0002d0 5f cf f1 bd 44 48 16 3e f2 2a c3 3d 34 0a e7 bc
       -0.11807131 0.14676005 0.095296755 -0.028203107
0002e0 c0 78 13 bd b2 4c 22 bd e3 53 b4 bd 9f 02 0f 3e
       -0.036003828 -0.039623924 -0.088050626 0.13965844
0002f0 9d d2 0a 3e ab f0 c4 3d 48 a1 de bc 22 19 15 3c
       0.13556905 0.09616216 -0.027176514 0.00910023
000300 71 eb 41 bd 5f 90 4f bd ad 56 4a 3b 8e 95 d3 3d
       -0.047343675 -0.050674792 0.0030874417 0.1033126
000310 79 7d 28 bd 2f 7d ab 3c 33 b7 8b bc 5b aa a7 bd
       -0.041135285 0.020933716 -0.01705513 -0.081867896

lstm.bias_hh_l0 f4 [200]
000000 77 21 82 bc 03 b8 2d bd cd a4 a0 bd 3b 76 a1 bd
       -0.015885098 -0.042411815 -0.07843933 -0.07883879
000010 71 67 95 bc b0 19 80 bc fb ba f8 bd 94 dc 55 bd
       -0.018237801 -0.015637249 -0.12145039 -0.052212313
000020 33 cd 6a 3d a9 55 f9 3d c8 af fb bd 8a 4b 5d bc
       0.0573246 0.121745415 -0.12289387 -0.013506779
000030 42 fa c6 bd 52 d7 f9 3d d5 c0 c2 3d cb 47 96 bd
       -0.09715702 0.12199272 0.09509436 -0.07337912
000040 46 cb aa 3c d4 a1 09 3e 65 a5 c4 3d da 7b 15 3d
       0.020848881 0.13440639 0.09601859 0.036495067
000050 f2 ab cf bc 6a 07 92 bc 96 99 d5 3d 73 20 aa bd
       -0.025350545 -0.0178258 0.10429685 -0.083069704
000060 43 dc f8 3b 83 d7 9d bd d0 a7 5d bd 40 90 e4 bd
       0.0075946166 -0.07707121 -0.054115117 -0.11160326
000070 1c de b0 3c 11 10 00 bd 68 08 42 bd 44 b4 a7 3d
       0.021590285 -0.031265322 -0.047371298 0.0818868
000080 47 e1 23 3e e9 fd b3 bd 21 6c ec 3c de ab de bd
       0.16003905 -0.08788664 0.028860154 -0.10872625
000090 0a 70 9a bd d6 52 39 3d 5b ca bb bd 89 6a 22 be
       -0.07540901 0.045245014 -0.091694556 -0.15860952
0000a0 6e dc 52 bd 88 b2 49 3d e6 d4 0d 3e 98 3b 8a bd
       -0.05147975 0.049242526 0.13850746 -0.06749648
0000b0 94 e5 9d bc 5b 9e da bd dc df 96 3b c9 d8 28 bc
       -0.01927451 -0.10674735 0.004604323 -0.010305592
0000c0 78 85 9d 3d f3 70 98 bb 9c 89 0e 3e 20 10 17 3d
       0.07691473 -0.0046521365 0.13919681 0.036880612
0000d0 cb 18 8c 3d 74 96 6e bd a3 83 6b bd c7 61 9c 3c
       0.068406664 -0.058248952 -0.057498585 0.019089593
0000e0 d7 56 d2 bc e3 e4 b3 bd da 5f c3 bc 2a de 05 3e
       -0.025676174 -0.08783891 -0.023849417 0.1307303
0000f0 cd 8e e0 bd e1 91 21 3e 7f 9a c8 bd 05 44 c2 bd
       -0.10964737 0.15778305 -0.09795093 -0.0948563
000100 93 13 fe 3d 72 ea 30 bd 5e ba 38 3b c3 b5 fe 3d
       0.12406077 -0.043192334 0.0028187255 0.12437012
000110 72 17 71 bc 85 f6 42 3d 5f e9 4d bd 4c 6b cb 3c
       -0.014715062 0.04759838 -0.05027139 0.024831437
000120 66 7e ef 3c 16 42 f0 bd 12 93 6b 3c d6 b5 91 bd
       0.029235076 -0.11731355 0.014378326 -0.071147606
000130 cb 7a eb 3d 4a 9f 8f 3c 85 e7 29 3d 26 0d 11 3e
       0.1149803 0.01753201 0.04148056 0.14165172
000140 f5 36 b8 bc 09 ff ae bc 84 e1 02 3e 27 a9 8c bd
       -0.022487143 -0.021361845 0.1278134 -0.06868201
000150 f2 27 e3 bd b9 6c 88 bd 21 95 31 bd a9 25 de bc
       -0.11091603 -0.06661362 -0.04335511 -0.027117567
000160 3b 60 15 3e 61 ff e1 bc e7 3d e4 bd e6 90 d3 3d
       0.1458749 -0.027587594 -0.111446194 0.103303716
000170 fd 42 87 b9 9f e2 30 3d cc a7 12 3e 8f 17 e2 bc
       -0.00025799117 0.043184873 0.14321822 -0.027599124
000180 2a 33 8f bd c2 52 ed bd ad c2 04 3d b0 3a b8 bd
       -0.06992181 -0.115880504 0.03241222 -0.08995569
000190 6d 12 44 3c b4 5e b5 3d 9c 0d bb 3d 57 60 90 3d
       0.011967284 0.08855954 0.09133455 0.07049625
0001a0 bd 3a a1 bd f6 43 e4 3d bd 0d 18 3e ee 69 d0 bd
       -0.078725316 0.11145775 0.1484899 -0.101764545
0001b0 83 11 04 3e e6 d0 c9 3d ee 90 f0 bd 26 37 99 3d
       0.12897305 0.09854297 -0.11746393 0.07481222
0001c0 8b ff 98 3d d7 ff 0e be 26 6e e6 bd 3b 89 a7 3d
       0.07470616 -0.13964783 -0.11251478 0.081804715
0001d0 e1 5a 0d be cc b0 85 3d c4 15 d8 bd ef 9b 00 be
       -0.13804199 0.06527862 -0.105510265 -0.12559484
0001e0 e9 80 66 bd 42 e4 ef bd c5 f5 02 3e 35 e5 08 bd
       -0.056275282 -0.117134586 0.12789066 -0.033421714
0001f0 3e d8 c0 bd 19 e7 99 3d 12 10 dc 3d 4b d2 e9 bd
       -0.09416245 0.075147815 0.10745253 -0.11417063
000200 10 bc e7 bc f4 93 53 3d 24 0d 20 3c 30 4d ce bc
       -0.028287917 0.05165477 0.009768758 -0.02518329
000210 1e 6e 60 bd 27 9f 8b 3d 53 44 bb bd 81 1d bc bd
       -0.054792516 0.06817465 -0.09143891 -0.09185315
000220 58 28 8b 3d 86 36 fc 3d a1 af b4 bd c1 6a d6 bd
       0.06794804 0.12315087 -0.08822561 -0.104695804
000230 a1 d4 25 3e 5a cf 14 3d 1e 9b c3 bd 67 1a d9 bd
       0.16194393 0.03633056 -0.09551071 -0.10600739
000240 dd 7e 7a 3c e1 a9 bf bd 2c a6 0c 3e a0 db 90 bc
       0.015289036 -0.09358574 0.13735265 -0.01768285
000250 54 c5 e1 bd a3 87 f9 3d f8 3c 0a 3e 8b b9 86 bd
       -0.110239655 0.12184074 0.1349982 -0.06578358
000260 aa b9 96 bd 6a f1 f6 3b 62 91 96 3d cb dd ae ba
       -0.07359631 0.007536103 0.07351948 -0.0013341246
000270 fd 15 5a 3d 79 e2 4d 3d f8 26 5c 3d 7a 1b 13 3e
       0.053243626 0.05026481 0.0537481 0.1436595
000280 43 75 f1 3d 3d 6d a9 bd a4 86 5c bd 95 0b 9b bd
       0.11789944 -0.08272789 -0.05383934 -0.075705685
000290 93 7b 1d 3e c5 46 05 3e 47 2d 0c 3e c7 1c 76 3d
       0.15379171 0.13015278 0.13689147 0.060086038
0002a0 07 7d b2 3d 0d a3 88 3d 47 a6 1e 3d 4f c5 29 3c
       0.08715253 0.066717245 0.038732793 0.010361983
0002b0 79 f6 ec bd a1 9b f9 3d a7 6b 04 3e e1 ce 87 bd
       -0.115704484 0.12187887 0.12931691 -0.06631256
0002c0 a3 de 31 bd b8 39 8e bd 36 44 9a bd 15 8b 07 3d
       -0.043425214 -0.06944603 -0.075325415 0.033091623
0002d0 e1 2e f7 bc 81 65 20 bd a5 b4 11 bb c4 6a 11 bd
       -0.03017372 -0.0391593 -0.0022232917 -0.03550221
0002e0 0d 5b 6c bc 64 d2 6c bd 57 f0 cb bd 77 4a 03 3e
       -0.014426005 -0.05781783 -0.099579506 0.12821375
0002f0 0b cc ab bd c1 19 bb bc 4f 7e 1d 3e 35 5c bb 3d
       -0.083885275 -0.022839429 0.15380214 0.091484465
000300 f4 a4 63 bd 0b ea 96 3d 31 40 1c 3e 18 f5 5e bd
       -0.055577233 0.07368859 0.15258862 -0.05443296
000310 34 93 f4 bd 60 b0 94 bd bf 28 b1 bd f9 d8 f4 bd
       -0.11942139 -0.07260203 -0.0865035 -0.11955447

lstm.weight_ih_l1 f4 [200, 50]
000000 f4 e2 ef bd e6 7d 0d 3e 4a 82 20 3d d9 01 d7 bc
       -0.1171321 0.13817558 0.039186753 -0.026245998
000010 8b 87 20 bc 86 04 75 3d cf fc a3 3d 3c d4 bf 3d
       -0.009797941 0.059818767 0.08007204 0.09366652
000020 76 57 c8 3d 4a 8f 22 bd 3b 7b 5b bc 91 ed 8b 3b
       0.09782307 -0.039687432 -0.01339608 0.0042702635
000030 d7 58 3c 3d 64 eb d8 3d a3 03 03 3e 87 fd 7c 3d
       0.04598316 0.10591772 0.12794356 0.06176522
000040 cd 00 85 3d 10 f4 c9 bd e0 48 cb 3b aa 50 92 3d
       0.06494293 -0.09861004 0.0062037557 0.07144292
000050 41 86 26 bd de 67 93 bd 24 a4 c7 3d ad ec 25 bd
       -0.04065538 -0.071975455 0.09748104 -0.040508915
000060 20 71 91 3c 87 bf 0e 3c 03 5f 82 bd 4e cd 52 bc
       0.017754138 0.008712656 -0.06365778 -0.012866331
000070 b0 1a 0b 3e f8 f0 48 3d 45 4d a6 3d 79 c0 81 bc
       0.13584399 0.04905793 0.08120207 -0.015838848
000080 3a dd cd bd ca 30 0a 3d ce 25 c1 bd 7a 38 c8 3d
       -0.10051961 0.033737935 -0.09431039 0.09776397
000090 97 45 d2 3d 1c dc 8e 3a e8 3b f2 bc d5 da 51 bd
       0.102671795 0.0010899338 -0.029569581 -0.051234085
0000a0 0b a9 a6 3d ae db 3b 3d 32 a1 fa bc 7b 48 8a 3d
       0.08137711 0.0458638 -0.030594442 0.06752106
0000b0 89 fb 90 bd c9 c7 9d bc 1b 89 67 3c da 64 0c be
       -0.070792265 -0.019260304 0.01413181 -0.13710347
0000c0 32 7c 6b bd 4b 5a 8f bc 99 18 47 bd 6f 22 af bd
       -0.05749149 -0.01749911 -0.048607443 -0.085514896
0000d0 33 cf bd bd cc 21 78 bd 3b e2 54 3d 5c 99 fb bc
       -0.09268036 -0.060579106 0.051973563 -0.030712776
0000e0 0c c9 06 3e 15 e4 67 3d 38 9a b2 bd 89 bc 29 bc
       0.13162631 0.056614 -0.08720821 -0.010359892
0000f0 5b 3f 02 be 4d 64 9f 3d 49 4a 03 3e 00 f1 f5 ba
       -0.1271948 0.07782803 0.12821306 -0.001876384
000100 57 5c 8d 3c 89 98 1e 3e e4 f9 90 3d f3 89 72 3d
       0.017255945 0.15487875 0.07078913 0.05921359
000110 46 fd 85 bd 98 59 9d bd 58 3b 8f bd 10 93 c2 bc
       -0.06542449 -0.07683104 -0.06993741 -0.023751765
000120 75 28 87 bd db 60 de bd c2 e8 1c 3e 37 9f 94 bd
       -0.065995134 -0.108583175 0.15323165 -0.0725693
000130 77 7b c7 bd b5 da 8b bd 11 2e ec bd 96 51 92 3d
       -0.09740346 -0.068288244 -0.11532224 0.071444675
000140 a6 a0 0c bd 46 94 36 bd 9b bf c9 3c cb 96 67 bd
       -0.034332894 -0.044575 0.024627497 -0.05654029
000150 3c 5b 1f be a5 3c dc b9 94 68 c5 3c e3 ad b4 bd
       -0.15562147 -0.00042006854 0.024097718 -0.08822229
000160 eb bb c9 bd 56 5b b5 bd a1 4e 64 3d 70 ab 9f 3d
       -0.09850296 -0.088553116 0.05573905 0.07796371
000170 fc 33 92 3d 06 06 c7 3d c2 15 16 bd 5e 55 32 3d
       0.071388215 0.09717946 -0.036641844 0.043538444
000180 df 62 cf bd e1 eb 0b 3e 9d e6 d6 3d df 6b 97 bd
       -0.1012628 0.136642 0.10493205 -0.07393622
000190 a8 be 8d 3d 07 ad 9b bc 04 b9 9b bd 66 5a a6 3d
       0.069211304 -0.019003404 -0.07603648 0.08122711
0001a0 b7 f8 79 bd ea b3 ef 3d f6 37 b8 bc 22 b3 cf bc
       -0.06102821 0.11704238 -0.022487622 -0.025353972
0001b0 d8 36 21 b9 f5 bd 47 bd a6 c7 c0 bd c6 2a d8 3d
       -0.00015374587 -0.04876514 -0.0941308 0.105550334
0001c0 6c dd 12 3e c1 6a 22 3d 73 d8 02 be 44 b0 e9 bc
       0.14342278 0.03965259 -0.12777881 -0.028526433
0001d0 32 c6 51 bd 58 e4 97 bc 6f fa f6 3b 03 66 02 be
       -0.051214404 -0.0185415 0.007537178 -0.12734227
0001e0 8f 7b 1e be 86 a4 a6 3d d5 2f 85 3d 49 c2 a6 bd
       -0.15476821 0.08136849 0.06503264 -0.08142526
0001f0 0f 03 b5 3c 62 62 85 3d 7b 8f 2d bd c7 6b 19 3e
       0.022096185 0.06512906 -0.04237316 0.1498252
000200 3d b8 2b bd be 99 d3 3d 2c 85 ad bd 61 54 4c 3d
       -0.04192375 0.10332058 -0.08472666 0.049885157
000210 07 c7 d9 bd d4 51 d1 bd 81 64 fe bd 39 8a ec bc
       -0.106336646 -0.102206856 -0.12421513 -0.028874503
000220 72 de d7 3d aa a0 57 bd 7d c6 61 bd 20 54 41 bd
       0.10540475 -0.052643456 -0.055120934 -0.04719937
000230 85 76 0f 3e c6 06 cb 3d 25 d3 ad 3d d0 95 da bc
       0.14010055 0.09913401 0.08487538 -0.026682764
000240 c8 bd c0 3d 67 ff 08 be dc 07 50 bd 14 f9 18 3e
       0.09411198 -0.13378678 -0.050788745 0.14938766
000250 30 20 55 bd b3 98 d9 38 81 df 13 3e d5 77 b7 3d
       -0.05203265 0.00010375809 0.14440729 0.08958403
000260 f5 34 c2 3d 15 31 90 bd 44 6f 2f bc 47 b6 a9 bd
       0.09482757 -0.07040612 -0.01070768 -0.0828672
000270 83 ed cd bd 8e e5 b1 3c 19 7a 9b 3d 8f 80 50 3d
       -0.100550674 0.021715906 0.07591648 0.050903853
000280 83 d4 11 3d eb cf f7 3d a2 f6 0c 3d f8 d4 cd bd
       0.035603058 0.12100204 0.034414895 -0.10050386
000290 b1 6c 03 3d 97 d8 09 3d dd 18 6e 3d ae 31 11 3e
       0.032086078 0.03365382 0.05812918 0.14179108
0002a0 d3 1f 57 bc 4c 74 d4 3d 55 56 1b be d8 58 82 3d
       -0.013130146 0.10373744 -0.15169652 0.06364602
0002b0 1e 55 84 bd f1 9c ab bd 4d 75 02 3d 12 7f 1d 3e
       -0.06461547 -0.083795436 0.031850148 0.15380505
0002c0 a5 cb 15 3d 02 a7 1a bd de 39 cc 3d 9d e4 b2 3d
       0.036571164 -0.037756927 0.09971975 0.08735011
0002d0 9b 08 55 3d b3 e7 a6 3d 45 aa 62 bd b2 17 a0 3b
       0.05201016 0.08149662 -0.055338163 0.004885637
0002e0 69 b6 ce bd 49 7b a9 3d 74 a2 1b bd 74 5f 8c 3d
       -0.10093386 0.08275468 -0.037996724 0.06854144
0002f0 a5 e7 94 3d 0b 3d 10 3d ef c6 a6 3d 0f 2c 99 3c
       0.07270745 0.035214465 0.08143412 0.018697767
000300 78 8e a3 3c ab 8b ad bc f6 07 d3 bd a6 a8 d4 bd
       0.019965395 -0.021184763 -0.10304253 -0.1038373
000310 81 54 e7 3d c1 f7 4a bd 04 b0 e3 bd 98 e1 e1 3d
       0.11295415 -0.049552683 -0.11117557 0.11029357
000320 80 92 dc 3d 7c a6 09 3e 54 f5 7d bd df 96 8d bd
       0.1077013 0.13442415 -0.06200154 -0.06913542
000330 96 2a 95 bd 5c 2f a5 bd 96 ad d3 bd bf 33 c8 3c
       -0.07283513 -0.08065674 -0.10335843 0.024438737
000340 68 25 e2 3d 7f 53 d2 bc 1b d1 b3 3d 5f 58 03 3e
       0.11042291 -0.02567458 0.08780118 0.1282668
000350 5e 26 56 3a 8d ca 35 3c b8 44 b0 bd 74 79 f0 bd
       0.00081691693 0.011095655 -0.08606857 -0.11741915
000360 d4 3b cb ba c1 6d d4 3d 0b 2c 02 3e 6e aa 75 39
       -0.0015505501 0.103724964 0.12712114 0.00023428511
000370 83 0e 85 3c 35 00 a8 3c 25 ec 00 be 30 da 94 bc
       0.016242271 0.020507911 -0.12590082 -0.018170446
000380 05 09 b3 bd 4a 7e db 3d b3 74 49 3d cd 78 5a 3d
       -0.08741955 0.10717447 0.04918356 0.05333786
000390 96 46 85 3d ac 66 e5 bc ac 49 86 3d 67 7f fa 3d
       0.06507604 -0.02800306 0.065570205 0.12231331
0003a0 20 44 ce 3d 9b de 01 be e1 f8 ab 3d 4e 5f e0 bd
       0.100715876 -0.12682573 0.08397079 -0.10955678
0003b0 97 6f 06 3b 00 7f 95 3d ed 11 e2 bd 19 25 51 3c
       0.002051329 0.07299614 -0.11038575 0.012765192
0003c0 95 7a b5 3c a0 00 9c 3d 95 e7 fd 3d dc 64 4d 3d
       0.022153178 0.07617307 0.123976864 0.050145015
0003d0 f5 15 09 3e 7e 65 ad 3d ab cd b8 bd e4 54 fd bd
       0.13387282 0.08466624 -0.09023603 -0.12369707
0003e0 67 b6 ee bd 20 4f 5d bd e6 62 5d 3d 9b e7 b4 3d
       -0.11655884 -0.054030538 0.054049395 0.08833238
0003f0 3e 70 b8 bd 0e 45 f9 3d 13 65 f7 3d e4 59 98 bb
       -0.090057835 0.12171374 0.12079825 -0.0046493877

lstm.weight_hh_l1 f4 [200, 50]
000000 3e 3a 34 3d de dd a4 3d 7b 10 e8 3d 73 d1 06 3c
       0.044000857 0.0805013 0.113312684 0.0082286475
000010 a8 ed 92 bd 45 f7 c2 3c 40 4a 8f 3d be a5 78 bc
       -0.071742356 0.023799548 0.06996584 -0.015176235
000020 8f 61 05 3e e8 0d 09 be 1f c9 f9 3c 71 77 f7 3d
       0.13025497 -0.13384211 0.03049141 0.120833285
000030 68 f1 dc bd 4d db 91 bd 5e 3b 2c bd c7 31 45 bd
       -0.10788232 -0.071219064 -0.042048804 -0.048143174
000040 87 8c fc 3b 68 8a 11 be a3 39 da bd c6 f1 d1 3b
       0.007707182 -0.14212954 -0.106555246 0.0064069955
000050 4c b8 06 3e c4 1d 0a 3e de 8b c3 3c 87 af ae 3d
       0.13156241 0.13487917 0.023870405 0.08529573
000060 b8 9d 08 3c 48 b2 8a 3d 60 9f 68 bd c9 e8 d4 3d
       0.008338384 0.06772286 -0.056792617 0.10395963
000070 c2 26 0a be f6 fa 99 bd e7 d1 12 be 77 bb 34 3d
       -0.13491347 -0.0751857 -0.14337884 0.044124093
000080 59 92 0b 3e d8 4d 45 3d 2c 90 d2 bd fa 04 9b bd
       0.13630046 0.04816994 -0.10281405 -0.075693086
000090 3c ef cf 3c 92 bd ad 3c d5 27 d2 3d da 4d 78 bd
       0.02538263 0.021208558 0.102615036 -0.06062112
0000a0 68 ba 33 3d 3f bf aa bd 0a de 0c be 0e ff e8 bd
       0.043878943 -0.083372585 -0.13756576 -0.11376773
0000b0 01 60 11 3d 33 0d 5a bc a1 51 04 be 72 c9 75 3d
       0.035491947 -0.013308811 -0.12921764 0.060006566
0000c0 21 39 86 bd ff 9c a8 3c 11 81 14 3d 7f 74 4d 3c
       -0.06553865 0.020582674 0.0362559 0.012539982
0000d0 2d 9e 9e bd 49 61 02 be 06 33 1e 3d d7 c0 a6 3d
       -0.077450134 -0.12732424 0.03862288 0.0814225
0000e0 00 1c 12 3e 54 e0 9c 3d b0 f0 5b 3d a1 f3 7a bb
       0.14268494 0.07659975 0.053696334 -0.0038292187
0000f0 2b 50 b9 bd 4d b2 d4 3d 76 da 23 3d 4e 22 55 3d
       -0.09048494 0.10385571 0.040003262 0.05203467
000100 30 98 d9 bd be 82 8e bd db e0 00 be f8 9a bb 3d
       -0.106247306 -0.06958531 -0.12585776 0.09160417
000110 bb 50 3f 3d 39 52 d6 3d 5f f7 b7 3d 87 9e 09 3c
       0.04670785 0.104649015 0.08982729 0.008399612
000120 1e e8 f8 3d bb 28 96 3d aa be 8e 3d dc f7 a4 3d
       0.12153648 0.073319875 0.0696996 0.08055088
000130 7e fa d1 bc d6 7d 20 3d b7 d3 d8 bd 79 2d 05 3e
       -0.02563214 0.039182507 -0.105872564 0.13005628
000140 3d 67 8f 3b 9b 6b 8e 3d e3 dc 09 bd c6 15 04 3d
       0.0043763206 0.06954118 -0.03365792 0.032247327
000150 94 00 f5 3d f6 ef a8 3d 06 3c 74 3d a4 62 8c bd
       0.11963001 0.08248894 0.059627555 -0.06854752
000160 73 42 03 3e c9 3b 88 bc 74 b9 9c 3d 3d cd b5 bd
       0.12818317 -0.01663007 0.0765256 -0.08877037
000170 ee 14 5d bd 07 d3 a2 bc d1 8c 78 3b fa 1b d1 3d
       -0.05397504 -0.019876016 0.003792573 0.10210414
000180 6c f5 24 3e f5 4b ab 3c 56 7a a8 3c f5 8e e4 bd
       0.16109246 0.020910243 0.020566147 -0.111600794
000190 9b b4 8d bd 3f 6a 84 bd fc f6 4c bd 13 bd b8 3d
       -0.069192134 -0.06465577 -0.05004023 0.09020438
0001a0 8c 88 63 bd bb 49 ef bd 85 19 82 bd e1 b8 a3 bc
       -0.055550143 -0.11683985 -0.06352524 -0.019985618
0001b0 b8 52 91 bc e1 ae 8f 3d c1 e6 c1 3d 23 e5 bc 3d
       -0.017739639 0.070157774 0.09467841 0.09223392
0001c0 32 35 c6 3d ef 74 f4 bd 72 39 21 3d 2e aa 73 bd
       0.09678115 -0.11936366 0.039361425 -0.059488468
0001d0 3d b2 dc bc b3 a4 bb 3c 8a 33 97 bd f8 0b fe 3b
       -0.02694046 0.022905683 -0.07382877 0.0077528916
0001e0 fb 24 a8 3d 27 cb 1d bd 77 9d 05 be b9 4e da bd
       0.082101785 -0.03852382 -0.1304835 -0.106595464
0001f0 c8 70 77 3d fb a8 d2 3d 65 09 83 3d 95 cc 18 3d
       0.06041029 0.10286137 0.06398276 0.03730448
000200 e1 fe 14 be be ba 9b 3b 63 b2 96 3d 4d 38 89 bd
       -0.14550354 0.004752486 0.07358243 -0.06700192
000210 f2 ab e0 bd f8 f4 81 bd e9 53 32 3d 24 b9 db bc
       -0.10970296 -0.06345552 0.043537054 -0.02682168
000220 29 7f f6 bc 71 58 89 3d 00 1e 34 3d f6 92 4b bd
       -0.030089932 0.06706322 0.043973923 -0.0497007
000230 c8 6c f2 3c 80 b4 de 3a b2 3d 24 bd f9 90 be bd
       0.029592887 0.0016991049 -0.0400979 -0.09304995
000240 7c 1d 99 3d 00 bf d8 3d 2e ba 84 3c ea 7f dd 3d
       0.07476327 0.10583305 0.016202059 0.10815413
000250 b6 8a ad 3d 96 ee c5 3d 6e d8 e2 3d d6 61 ac bd
       0.08473723 0.09664647 0.11076437 -0.08417098
000260 88 97 07 3d 2c f8 df 3d 79 79 10 3e 90 8f 0b be
       0.033103496 0.10936007 0.14108838 -0.13628983
000270 73 46 bd 3d cf 18 0b bd 85 99 0f 3e 65 57 fd bd
       0.09241953 -0.033959206 0.14023407 -0.12370185
000280 65 4f 9f bd 25 0d e9 bb 85 a0 3d bd 4f 41 cf bc
       -0.07778815 -0.0071121627 -0.04629566 -0.025299696
000290 9f 4c c7 3d d4 20 11 be 01 63 71 bd d4 a0 28 bd
       0.09731411 -0.14172679 -0.058932308 -0.041169003
0002a0 ad ee b3 3d 6c 2e 28 bd 98 b2 51 bd e1 ea ec bd
       0.08785758 -0.041059896 -0.05119571 -0.11568237
0002b0 0f 12 b5 3d 68 46 1a be 40 ea d3 3d da bb c8 3d
       0.08841335 -0.1506592 0.10347414 0.09801455
0002c0 7a a3 54 bd 04 fa 4c 39 05 fd 29 bd f2 98 0b be
       -0.051913716 0.00019548094 -0.041501064 -0.13632563
0002d0 2e 6a 4c 3c da c2 89 bc b0 8e a5 3d 14 0d 1f 3d
       0.012476487 -0.016816545 0.08083856 0.03883083
0002e0 49 bd eb 3d 99 29 c5 bd 4a 9c ad bb 9b 3b 0f be
       0.11510713 -0.09627075 -0.005298172 -0.13987581
0002f0 91 1e c9 bd 9f 79 e7 bd f8 e5 c0 3d a3 ce af bd
       -0.09820283 -0.11302494 0.09418863 -0.08584335
000300 59 9b b6 bd 24 2a bd 3d a9 a5 f1 3d ea 5c 9d 3c
       -0.08916349 0.09236553 0.11799175 0.019209344
000310 6e 9e 86 bd 3f ee f8 3b e1 f0 ae bc 62 41 14 bd
       -0.06573187 0.0075967605 -0.021355094 -0.036195166
000320 4f 31 13 be 49 f4 c1 bd ad 13 04 bc a0 a2 a7 bc
       -0.14374278 -0.09470422 -0.008061332 -0.020463288
000330 c2 97 43 bc de d2 b6 bc 49 df f4 3c db b9 b7 3d
       -0.011938037 -0.022317346 0.029891627 0.08970996
000340 ce 0f 70 3d 7c 5c 2e 3d ba 6f 1c bd 03 6f 03 3e
       0.058608823 0.04256867 -0.03819249 0.12835316
000350 dd 2e 1b be 17 4f f5 3d 2b 9a b2 bd 04 08 e4 bd
       -0.15154596 0.11977976 -0.087208115 -0.11134341
000360 bb 5e 63 3d 30 4c 28 3d 32 be e3 3d 00 61 56 bd
       0.055510264 0.041088283 0.11120261 -0.0523386
000370 1f 85 69 bc e1 76 ba bd 6d 14 aa 3d a3 99 e6 bd
       -0.01425293 -0.091047056 0.08304677 -0.11259773
000380 af f4 88 bd ab f7 19 bd 6c c3 5f bc 84 34 d8 bb
       -0.06687295 -0.03758971 -0.013657432 -0.006598057
000390 23 6d f1 3c 25 35 cc 3a dc e3 fd bd 7c 1a f7 3d
       0.029470986 0.0015579803 -0.12396976 0.12065598
0003a0 4f a7 fd bc 3d 80 9a bd 85 71 9e bc ce 3d ac bd
       -0.030963568 -0.07543991 -0.01934124 -0.08410226
0003b0 87 01 8e bd 6d 43 e5 3c cd e5 04 3e 09 bf fc 3d
       -0.06933885 0.027986253 0.12978287 0.123411246
0003c0 ec 91 af bd 68 8c 47 3d 94 21 dd 3d 9c 7d 80 3d
       -0.08572754 0.048717886 0.1079742 0.06273958
0003d0 12 d5 44 bc 69 58 0e 3d 83 1f 44 bd 45 99 c1 bc
       -0.012013691 0.034752283 -0.047881614 -0.023632655
0003e0 ef 9f 91 bc f3 64 06 bd 5d 2c 45 bd 92 37 a6 bd
       -0.017776458 -0.032811116 -0.04813801 -0.08116068
0003f0 37 97 0d 3d 5f 5f 2d 3d 2d 3d 3d bd 09 4c 6a bd
       0.034568038 0.04232728 -0.04620092 -0.05720142

lstm.bias_ih_l1 f4 [200]
000000 59 f8 08 3e b1 d2 93 bd e7 9f bb 3d b6 e9 8b bb
       0.13375987 -0.072179206 0.09161358 -0.004269804
000010 96 a2 57 bd 93 34 0c be df c1 fa 3d 32 bd 64 3d
       -0.05264529 -0.1369193 0.12244009 0.055844493
000020 1f 43 bb 3d ca ea c4 bd 38 c9 1b 3e 21 c7 11 3c
       0.09143662 -0.09615095 0.15213478 0.008897574
000030 22 18 8a 3d 0a 89 11 3e fe cb e2 3d 7c 22 ba 3d
       0.06742884 0.14212433 0.11074065 0.090886086
000040 24 7a 39 3c e1 a6 9a 3c 4f 87 a6 3c 3c 86 5b 3d
       0.0113206245 0.018878402 0.020328192 0.053594813
000050 0c e3 c7 3d a1 71 0a bc df 61 da bd 78 a4 bb bc
       0.09760103 -0.008449943 -0.10663199 -0.022905573
000060 5b 2f 94 3d 89 89 cd bb 2b b1 f2 3d b6 0b 96 bd
       0.07235595 -0.006272499 0.11850198 -0.073264524
000070 6a f5 fd bd 8f b9 7a 3d 30 94 c1 bd c6 e3 4d 3d
       -0.12400325 0.06121212 -0.09452093 0.05026605
000080 f8 8b 9c 3d fc 04 38 bd ac 53 ff 3d 87 dc 97 3d
       0.076438844 -0.04492663 0.12467131 0.07415109
000090 39 24 a5 3d 02 a9 91 3d c0 6e 4e bd 12 ed fe 3d
       0.080635495 0.07112314 -0.05039859 0.12447561
0000a0 b7 97 eb bd f3 96 1d 3e b0 3e 83 3c 27 fd c5 3c
       -0.11503547 0.15389614 0.016021103 0.024168564
0000b0 17 07 f8 bc 04 9e 12 3d 5b ef be 3c 15 f3 17 3e
       -0.030276818 0.035795227 0.023307493 0.14838822
0000c0 97 ad 0a 3d 4b 94 bf bd 81 f8 bd bc 7e b3 f3 3d
       0.033856954 -0.093544565 -0.023189785 0.1189947
0000d0 76 c7 7f bd 8d 80 1c 3d da f4 f4 bd 6c a3 93 bc
       -0.06244608 0.038208533 -0.11960764 -0.018022262
0000e0 64 34 6a 3d 31 d3 89 3d 8b 67 26 bd 05 ad 01 3e
       0.05717887 0.06729735 -0.04062609 0.12663658
0000f0 bc ef 8e 3d 08 dd ab bc 72 e7 8e bb de 15 62 bb
       0.069793195 -0.02097942 -0.0043610865 -0.0034497897
000100 e3 9c 7c 3d 9b 60 15 3e 66 98 c8 bd 94 c6 3d 3c
       0.061673056 0.14587633 -0.09794693 0.011582989
000110 a7 db 04 3e 47 df a2 bd ff 10 8d 3d 76 ce 19 3d
       0.12974416 -0.07952743 0.068880074 0.037550412
000120 20 1b 48 bd e0 01 c3 3c 7d dd 39 3c 5f f3 63 3d
       -0.048853993 0.023804605 0.011344311 0.05565202
000130 01 ac 08 3e ff f1 43 bd fe 02 81 3d 68 58 ad 3d
       0.13346864 -0.047838207 0.06299399 0.08464128
000140 25 2c 04 be f0 a2 85 bd 78 ea eb bc c8 e7 dd 3c
       -0.12907465 -0.065252185 -0.028798327 0.027088061
000150 a6 f5 ae bc 18 78 0e be 7c 60 f2 3c f0 b3 c6 3c
       -0.021357369 -0.13913 0.029587023 0.024255723
000160 5c 0a 66 3c 56 a8 92 bc 97 c4 cc bd 69 d7 d5 bd
       0.014040556 -0.017902534 -0.09998434 -0.10441477
000170 ab 18 e9 3d d8 f1 6b bd a6 27 7c bd ea e4 9d bd
       0.11381658 -0.057603687 -0.06156125 -0.077096775
000180 9f 21 4c 3b bb 7d 6b 3d 6f 83 e6 3d fb 85 c8 3d
       0.003114797 0.057492953 0.11255538 0.0979118
000190 5d 84 7b bc a7 7c e0 bc d2 eb 21 3e 7b 0d 71 3d
       -0.015351382 -0.027403189 0.15812615 0.058850747
0001a0 6d 01 0d bd 40 04 f1 bd 23 58 b9 3d c4 52 89 3d
       -0.034425188 -0.11768389 0.09050014 0.067052394
0001b0 01 d9 8e 3d 27 9c a1 bd 62 f1 e4 bd f1 02 c9 3d
       0.06974984 -0.07891112 -0.111788526 0.09815014
0001c0 49 68 b7 bd 7a b7 06 3e cf 16 13 3d ca 0b f6 bd
       -0.08955438 0.13155928 0.035910424 -0.12013967
0001d0 2c 6c bf 3d 80 04 14 be 96 62 d2 3d 08 d6 bf bc
       0.09346804 -0.14454842 0.1027271 -0.023417488
0001e0 7c ad d6 bd ed 75 c4 3d b3 54 30 3d d4 b1 8e bd
       -0.10482308 0.09592805 0.043049525 -0.06967512
0001f0 ab e4 ed bd 3a 57 c6 3c 81 eb 6a 3d 5f ba c8 bd
       -0.116158806 0.024211515 0.0573535 -0.098011725
000200 93 ef b8 bb 6a 4b 94 bd 0a a7 6b bc c8 ab a3 bd
       -0.005643794 -0.072409466 -0.014383087 -0.07991749
000210 06 28 19 3e ea 8f 16 be 36 55 f6 ba 30 51 f1 3d
       0.14956674 -0.14703336 -0.0018793705 0.117830634
000220 d8 d5 0c be f0 21 89 bd e9 45 f0 3d 17 9d 22 bc
       -0.1375345 -0.06695926 0.11732084 -0.009925148
000230 e4 27 b3 3d d0 f6 96 bd 3e 5d bc bb ac 23 c6 3d
       0.08747843 -0.073712945 -0.00574842 0.096747726
000240 7e 82 79 bd a7 b3 93 3d c5 b4 1f 3e 7f 7c b7 3b
       -0.060915463 0.07212 0.15596302 0.005599558
000250 a7 d5 68 3d 4a 89 14 bd af 7b 02 be e5 e0 df bb
       0.05684438 -0.03626374 -0.12742494 -0.0068322294
000260 f9 ba 77 bc 94 ab d3 3d ce ca 19 3d 04 d6 c9 3d
       -0.015120261 0.1033546 0.037546925 0.09855273
000270 61 1e 87 bb 7a ca 91 bd ca ed 05 3d d6 a2 c0 bd
       -0.0041234945 -0.071186975 0.032697476 -0.094060585
000280 74 49 64 3d cc 11 aa bc 99 a5 0c be 9a 44 da bd
       0.055734113 -0.02076044 -0.13735045 -0.10657616
000290 4e df cf bd b3 fe a5 3d 3e 97 03 3e cf 70 ff 3d
       -0.10150014 0.08105221 0.12850663 0.124726884
0002a0 f0 a6 f9 bd ee 58 02 3e af bf e4 3d 48 eb a5 3d
       -0.12190044 0.12729236 0.11169373 0.08101517
0002b0 83 5a 27 bd 47 1e d5 3d b2 a1 10 3e ee 94 0d be
       -0.040857803 0.104061656 0.14124182 -0.13826343
0002c0 04 55 b2 3d 77 1b c8 bd c7 3a 09 3e 08 19 d0 3d
       0.08707622 -0.097708635 0.13401328 0.10161024
0002d0 79 37 86 3d c2 a0 59 bd 2a 5d 5d bd 00 7d 16 3e
       0.06553549 -0.053131826 -0.054043926 0.14696121
0002e0 b8 15 11 39 7f 4a dd bd 69 5e 97 bd 4e de 8a 3d
       0.00013836368 -0.108052246 -0.07391054 0.067806825
0002f0 bb 00 10 be 39 3a 1c bd ec a7 76 3d 66 b7 e0 bd
       -0.14062779 -0.038141463 0.060218737 -0.109724805
000300 d6 cc e0 3d c1 a2 9d bd d2 56 e5 3d da 01 a5 3d
       0.10976569 -0.076970585 0.111982 0.08056994
000310 af c8 bf 3d 11 ea 93 3d bb 09 1c 3e 16 ac 7f 3d
       0.09364449 0.07222379 0.15238087 0.062419973

lstm.bias_hh_l1 f4 [200]
000000 c8 b7 9c bc a5 89 c1 3b ba 93 20 3e d5 3c af bd
       -0.019130602 0.005906301 0.15681353 -0.08556525
000010 de 1c 29 3d 9d e0 f2 3d b8 41 b8 3c de a2 5a bd
       0.041287296 0.11859248 0.022492275 -0.05337798
000020 4b fa bc bd 9d ec be 3d c2 6d c4 bd af a0 8e 3d
       -0.09227427 0.09322474 -0.09591247 0.06964242
000030 84 49 18 3b 1a ed e1 3c fb 38 75 bd da a2 8b bd
       0.0023237178 0.02757888 -0.059868794 -0.06818171
000040 1d e8 19 3d 45 04 af 3c b0 dc c4 3c 77 1d 4e bd
       0.037574876 0.02136434 0.024031013 -0.05032107
000050 30 02 92 bd 1b af 8a bd 9a 4b 84 3d ee f4 dd 3d
       -0.071293235 -0.0677168 0.06459732 0.10837732
000060 d8 db e4 3d 6b 9b 82 bb 79 13 9a bd 38 55 78 3b
       0.11174744 -0.0039858124 -0.07523245 0.0037892591
000070 5b 53 fd 3d fa ec 92 3d 8b b4 1b bd 63 3c 08 bd
       0.123694144 0.07174106 -0.038013976 -0.033260714
000080 c5 d8 ab bd 6d 85 9e 3d f8 dd 5d 3c 82 7c ee bd
       -0.08390955 0.07740293 0.013541691 -0.11644842
000090 48 28 87 bc be 54 8f 3d 3b 84 00 3c 08 e6 a1 bd
       -0.0164987 0.06998585 0.007844026 -0.07905203
0000a0 1b 01 0e 3e 1e 24 6d 3d 29 c1 0e 3e c3 ba af bd
       0.13867609 0.057895772 0.13940872 -0.08580544
0000b0 81 b3 e1 bd ec 4b df bc ba 46 07 3e 09 72 64 3c
       -0.11020566 -0.027257882 0.13210574 0.013943204
0000c0 d0 ee 72 3d 65 64 a1 3d b3 fd b7 bc 28 e3 a2 3c
       0.05930978 0.07880477 -0.02245984 0.019883707
0000d0 c0 f8 eb 3d 70 d6 22 bd 65 50 93 bd d9 17 c0 3d
       0.11522055 -0.039755285 -0.071930684 0.093795486
0000e0 f8 94 a1 3c 9b 6c ee 3d b5 c7 46 bd 5f 24 9d 3d
       0.019724354 0.116418086 -0.0485303 0.07672953
0000f0 c3 88 cc bd 99 cf d2 bd 73 34 69 bb 5f 67 cb bc
       -0.09987023 -0.10293502 -0.003558424 -0.024829565
000100 df ed 26 bd 5d 55 c3 3d 75 e9 f0 3d cd 56 25 3e
       -0.040754195 0.09537766 0.117632784 0.16146393
000110 17 a5 8b 3a 11 87 24 bd 9f 14 a2 bc 85 2e 9d 3d
       0.0010654059 -0.040167872 -0.019785224 0.076748885
000120 1b 6b 2d 3d 91 80 ba bd 8b af 35 3d 27 e6 62 bd
       0.04233847 -0.09106553 0.044356864 -0.05539527
000130 45 cf 0a 3e e5 a5 ee 3d fb 7e c9 3d 74 36 61 3d
       0.1355563 0.116527356 0.09838673 0.05498357
000140 97 b2 f6 3d ba 13 89 bd 7d 2a 8a bd bc 0e 04 3e
       0.12045782 -0.06693216 -0.06746385 0.12896246
000150 44 c4 3e 3d 52 94 fc bc 55 63 9c bc a4 1f a9 3d
       0.046573892 -0.030832443 -0.019090334 0.08257988
000160 20 46 a7 3c 7c 5a 94 3d 28 41 ce 3c 25 d5 0b 3e
       0.02041918 0.07243821 0.025177553 0.13655527
000170 ef 8f 7f bd 29 a4 00 be 2c 9a a8 3d d1 bc 55 3b
       -0.062393125 -0.12562622 0.08232531 0.0032613764
000180 7a 36 61 bc 60 2b b0 3d 12 b4 00 3e 7a c8 85 bc
       -0.013745898 0.08602023 0.12568691 -0.016330946
000190 35 e3 67 3d 68 cc f1 3d b5 1b f9 bc 8e 5c e7 bd
       0.056613166 0.118065655 -0.03040872 -0.1129695
0001a0 6c 3a b0 bb af f9 c0 bd c9 cb 5f 3d 85 83 c4 3c
       -0.005378058 -0.09422623 0.054637704 0.023988495
0001b0 16 4d f2 bc 9d a6 5f 3d ea 83 f0 3d bb c6 23 3b
       -0.029577773 0.054602254 0.117439106 0.0024990279
0001c0 04 e9 2f 3d c9 25 66 bc 96 66 de bd c3 02 05 be
       0.04294683 -0.014047095 -0.108594105 -0.12989335
0001d0 f5 96 c7 bd ea 63 5f bd 47 fe 47 bd 31 73 02 be
       -0.0974559 -0.054538645 -0.048826482 -0.12739255
0001e0 f4 2e 1b be 80 20 03 3d ca 04 ba ba 9a ea ed bd
       -0.1515463 0.032013416 -0.0014192101 -0.11617012
0001f0 cd 15 14 3d ff c9 fe bd 59 cf e5 bd e8 fa 4d 3d
       0.036153603 -0.124408714 -0.11221189 0.05028811
000200 75 4d d7 bd c2 f8 b4 3d 42 ba 33 3d e6 8f 0e bd
       -0.10512821 0.08836509 0.0438788 -0.0348052
000210 db 51 9e 3d d6 0b e7 3d 90 17 2d 3d 64 f2 05 3c
       0.077304564 0.112815544 0.0422588 0.008175466
000220 60 af 9d bd 09 aa 39 bd 5c d6 c0 3c ed 42 37 bc
       -0.07699466 -0.045328174 0.023539715 -0.01118539
000230 e5 51 f8 3d 16 67 10 be 82 89 e8 3d 3e 1f 1a be
       0.12124995 -0.14101824 0.113543525 -0.1505098
000240 93 00 55 3b f6 d2 d0 3c 18 1a 35 bd 97 e0 bd 3b
       0.0032501563 0.025491219 -0.044214338 0.0057945955
000250 5a 37 0c be e1 18 ca bc 2c 10 e2 bd 52 51 e5 bd
       -0.1369299 -0.024670066 -0.11038241 -0.11197151
000260 09 f4 2e bc 95 2a 25 3e 5e 4f ff bc 32 3e df bd
       -0.0106783 0.16129525 -0.031165775 -0.10900535
000270 20 a2 da 3d d5 c1 f3 bd ca e7 f5 3c c2 42 4e bd
       0.10675454 -0.11902205 0.030017752 -0.050356634
000280 2d 41 df bd c5 44 26 bc ab dc a3 3d 44 87 fe 3d
       -0.10901103 -0.010148232 0.080010734 0.124281436
000290 7b f5 0b 3d 88 e7 d6 3c f0 fc 5c bd b5 41 8e 3c
       0.034169655 0.02623345 -0.053952157 0.017365316
0002a0 96 6b df 3d 66 c2 e3 bc 13 02 13 3a 9e f5 47 bd
       0.10909192 -0.027802657 0.0005607914 -0.048818223
0002b0 aa 39 d6 3d 3f 68 95 3d ae 0e 02 3d 70 46 d7 bd
       0.10460217 0.07295274 0.03175228 -0.10511482
0002c0 06 5e 0c 3c 28 e4 01 3e 92 fd 9b 3d 92 1b 81 bd
       0.008567339 0.12684691 0.07616724 -0.06304087
0002d0 9c 2e f8 3d 41 50 d2 bd 7e 77 0b 3e 7d ad 81 bc
       0.12118265 -0.102692135 0.13619801 -0.015829796
0002e0 b8 77 45 bd e3 43 d7 3d 5b 53 c6 bc f9 c5 05 bd
       -0.048209876 0.10510995 -0.024209669 -0.032659505
0002f0 64 13 fd 3a d2 b2 45 3d 95 35 ed 3d 82 31 44 bd
       0.0019308147 0.04826624 0.115824856 -0.047898777
000300 ea 44 b3 3d 6a bb 07 3e 7b bd c0 bd bf fa d8 bd
       0.08753379 0.13255087 -0.094111405 -0.10594701
000310 c9 95 7e bb a3 cf d8 3d 0a a3 d7 bd 17 81 eb bd
       -0.0038846603 0.105864786 -0.10529144 -0.11499231

fc.weight f4 [1, 50]
000000 24 0d b3 bd 3e 3a 01 3e 11 d8 9e 3d 9d 47 bc ba
       -0.08742741 0.12619874 0.07756055 -0.0014364604
000010 4a 09 bd 3d e2 19 5b 3c fc e8 84 bc 0b 61 86 bd
       0.092302874 0.01337287 -0.016224377 -0.06561478
000020 5b 99 02 3d b5 27 8b bd de 32 f9 3d dc ce 88 3d
       0.031884532 -0.06794683 0.12167905 0.0668008
000030 ec 6c d7 bd 3a f5 6b 3d 16 81 12 be 2d 26 8f bc
       -0.10518822 0.057606913 -0.14307055 -0.017474258
000040 c8 25 d3 bd 98 2b 1d be 04 27 10 3d ea 38 c9 bd
       -0.103099406 -0.15348661 0.03519346 -0.098253086
000050 54 79 18 bd 44 e7 e1 bd 7e af c4 bd 3a 83 3c 3c
       -0.037225083 -0.110304385 -0.09603785 0.011505896
000060 0a 61 a4 3c 6a 8a 8f 3c 78 9b 15 3a e4 76 35 3d
       0.020065803 0.017522056 0.00057070656 0.044302836
000070 ec a6 cf bb 14 38 d9 bd 64 04 70 bc e3 32 e2 bd
       -0.0063370373 -0.10606399 -0.014649484 -0.11044862
000080 e4 45 0d 3e d4 19 06 be 8c 80 49 3d 5b 10 fa bc
       0.13796192 -0.1309579 0.049194857 -0.030525377
000090 0e 71 c2 bc b6 2c 96 bd bb c8 34 bd 2d a4 3e 3d
       -0.02373555 -0.07332747 -0.044136744 0.04654329
0000a0 0e 75 24 3e 1f d7 b6 bd 4b 57 18 3e c9 25 c6 bd
       0.16060278 -0.0892775 0.1487705 -0.09675176
0000b0 4c 2d 8f bd 84 b2 1e 3e cc 2b ef 3d f6 a6 f5 3d
       -0.069910616 0.15497786 0.116782755 0.11994736
0000c0 41 a7 a8 bd 0f 10 b4 3d
       -0.08235026 0.087921254
