models/BTC_USDT_model.pt (torch, 128181 bytes, 9 tensors)

lstm.weight_ih_l0 f4 [200, 1]
00000000: e1d9 943d 605c 503c d3ac d53c 2544 e03d
00000010: 96d2 7d3c ccce 98bd a918 86bd ae07 163b
00000020: 69dd a63d 5cb3 0f3d 0e5e d53d a05c de3d
00000030: 0e18 b3bb 5413 f03d 3dc4 983d f8cb 96bd
00000040: 366c 003c b344 9ebc 9f77 eabc d272 5dbd
00000050: 1e99 1bbd 9cf8 9fbc 4799 073e a91d 1c3e
00000060: db3a e8bd ac0b fabd e0a3 8c3c 63bf c13c
00000070: 0b67 c73d a9f8 91bc e667 4ebc 5aa2 1abd
00000080: d03f a23d 20d3 d4bd baa1 b1bd e2c0 3ebd
00000090: f2eb 983d 1aa0 0f3e 6952 93bd 7d1b 80bd
000000a0: ab98 ba3c b829 313c 33cc 333d 0264 013d
000000b0: 5c5f d93c fd5b 1f3e 4e32 603c c0ec 05be
000000c0: b1dd 7ebc 2763 26bc 1615 06bd d82d 90bd
000000d0: 91a7 4e3d c81b babc 3687 a93c 057e 143e
000000e0: 6fa8 02be 6bab c93c d848 ba3d 35e1 babd
000000f0: 2aa9 c0bc e9be 21bc 18b1 813d 3d05 cbbd
00000100: fb6d 923d de47 0c3e 3d21 643d 6a1b cdbd
00000110: 2b44 403d 7a30 87bb a16a af3c 436b f5bd
00000120: 2b34 323d d401 183e b129 c93c 0b60 873c
00000130: 31ab 85bd 1ed8 e9bd eed4 0b3d de42 a03d
00000140: 5fe6 5f3d 167d 0cbd 5f88 0d3e 6a33 a3bc
00000150: 74ce a13c cb44 083e 5631 233e 429d 48bc
00000160: e8b9 7e3b 18ac 35ba 936c 1b3e 7092 74bd
00000170: 816f 7cbc 301a 8dbc 75ca 873d 9f91 c93d
00000180: e1fb f23c 8e3a c53d fed7 413d 509e d93d
00000190: b33f eebd 51ee a43d f1e5 8cbd 4c1f 19be
000001a0: 0a95 a53c 0442 1c3e 505d 9f3d 1b3b 2a3d
000001b0: fc23 24bd 2c51 593b 702a 7abc 02c2 e73c
000001c0: 5179 cdbd ab17 57bb 8ae6 0fbe 6f4d fb3d
000001d0: ea18 8ebd 3d74 e0bd 3425 aa3d 8371 c83d
000001e0: 259f 05be bf22 24be b79f d33d c06a 893d
000001f0: 88f1 08be 59c8 9c3b 4691 793c e37d bf3c
00000200: f2a5 5b3c f69e b03d 866d b63d b544 5b3d
00000210: 5ebf 443d 87eb bbbd d131 cd3d 8a0f 07be
00000220: ac26 01be cab7 b63d d0d4 cabd e8d9 d8ba
00000230: db0f 09be eb84 763d a89f eebd 937f 9cbd
00000240: 031e 8e3d c507 8bbd 4f36 11be b39f f6bd
00000250: 93e7 ae3d fbad a33d 45c0 45bd 0f44 83bd
00000260: 9002 8ebd d6e9 af3d a06e b5bc fa03 d73d
00000270: 4fc8 c4bd f81a 233e b4af 00bd 36a3 0d3e
00000280: 9e1e 1f3e 3e0f 0b3e 43d4 6ebd 0b29 0cbc
00000290: f767 6e3d 05a6 9abd 66c9 07be 4e6f c0bd
000002a0: f7ae fd3b 924c 68bc 399b 89bd 321d e7bd
000002b0: 5b98 c9bd 091a 7e3d 4c3e 89bb 3643 093e
000002c0: 6b95 2a3d a509 0e3e 02cc 7f3d 2d5f 57bd
000002d0: c241 bb3d f56c c13d 03ea 8abd 3359 0e3d
000002e0: 19e5 4d3c 8dad db3d 926b 0b3e f73d bc3d
000002f0: 8861 703d 9675 ae3d d59d ce3d f08d 4d3c
00000300: b38d eabd 3310 d7bc a6c1 83bb 617f 783d
00000310: 2d8c 80bd 8039 8d3d 20a7 0c3b 358b 83bd
0.072681196 0.012717336 0.026083386 0.109504975 0.015492102 -0.074613184 -0.06547672 0.002289276
0.081476994 0.03508316 0.1041833 0.108575106 -0.005465514 0.117224365 0.074593045 -0.07363123
0.0078382995 -0.019319868 -0.028621493 -0.05406458 -0.03798782 -0.019527726 0.13242064 0.1524569
-0.11339351 -0.122092575 0.017167985 0.02365083 0.09736451 -0.017818766 -0.0125980135 -0.037752487
0.079223275 -0.103918314 -0.08673425 -0.046570666 0.07466878 0.14025918 -0.07193453 -0.06255243
0.022777876 0.010813169 0.04389591 0.031589516 0.026534729 0.15562434 0.013683869 -0.13078594
-0.015555785 -0.010155476 -0.032734953 -0.07039994 0.050452773 -0.022718325 0.020694356 0.14501198
-0.12759565 0.024617871 0.09095925 -0.09124986 -0.023518164 -0.009872177 0.06332606 -0.099131085
0.07149883 0.1369929 0.05569576 -0.100149944 0.04694001 -0.004125652 0.02141315 -0.11983349
0.043506783 0.14844447 0.024556013 0.016525289 -0.06526793 -0.11418174 0.034138612 0.07825254
0.05466306 -0.03429898 0.13821553 -0.019921977 0.019751765 0.13307492 0.15936789 -0.012244524
0.0038868133 -0.0006930246 0.15178137 -0.059709966 -0.015407444 -0.017224401 0.066304125 0.09842228
0.02966112 0.09630309 0.047325127 0.10625899 -0.116332434 0.08053268 -0.06879795 -0.14953345
0.020212669 0.15259558 0.0778147 0.041560274 -0.04007338 0.0033159954 -0.015268907 0.028290752
-0.10032905 -0.0032820504 -0.14052787 0.12270629 -0.06938346 -0.10959671 0.08307877 0.09787276
-0.1304899 -0.1602888 0.103331976 0.06709814 -0.13373387 0.0047846255 0.01523239 0.023375457
0.013406264 0.086240694 0.08907609 0.05353232 0.048034064 -0.09175783 0.10019267 -0.13189521
-0.12612408 0.08921774 -0.09903872 -0.0016544433 -0.13384955 0.060185354 -0.11651546 -0.0764152
0.06939318 -0.06788591 -0.14180873 -0.12042179 0.08540263 0.079921685 -0.048279066 -0.064094655
-0.069340825 0.085895225 -0.022147477 0.10498805 -0.09608518 0.15928257 -0.031417564 0.13831791
0.15539023 0.13580033 -0.058307897 -0.008554707 0.058204617 -0.07551197 -0.13260421 -0.0939623
0.0077418047 -0.014178412 -0.067190595 -0.112848654 -0.098435126 0.062036548 -0.0041883346 0.13404545
0.041646402 0.13870867 0.062450416 -0.052581 0.09143402 0.0944461 -0.067829154 0.034753036
0.012566828 0.107264616 0.13615254 0.09191506 0.058686763 0.085185215 0.10088698 0.012546048
-0.11452808 -0.026252842 -0.0040208874 0.060668353 -0.062767364 0.06895733 0.002146192 -0.06423036

lstm.weight_hh_l0 f4 [200, 50]
00000000: 811e 9fbc 7089 6ebd 1216 8bbd 2826 be3d
00000010: 7d9d 76bd 36c8 67bd 4248 003e 3404 ca3d
00000020: 18f8 bebd 97bd f5bd a3bb 073e 990d 943d
00000030: 1c8b 5b3d e5f9 bc3d 9940 a03d 77da fe3d
00000040: 6f6a a83d 99c4 963c 66a0 f53d 3e12 2cbd
00000050: 8db3 d9bd b09f 853d 9a76 853d 0511 00bc
00000060: 034b 023e beed 5f3d 04b8 ebbd 201d e7bd
00000070: 1a43 013e 1126 0fbd 6e60 eabd f4a4 c8bd
00000080: ccbf fcbd 7bd1 34bc b746 ef3d ac01 f53c
00000090: e002 b33d bf8c 073e 8b01 6e3d 5d83 d8bd
000000a0: e51f bb3d b5bb aabd 3091 d0bc 7836 6d3d
000000b0: b1c5 f83d c8bc 073e 37cb ef3d 2c62 de3d
000000c0: 1ac5 b3bd b159 64bd f199 8a3d 10d2 45bd
000000d0: d609 20bd 36a8 2fbc fb0d a33d e271 153e
000000e0: 2a81 67bc 69a7 04be e8ab 193e 5c8c d23d
000000f0: c452 373d 6f81 2bbd be5c e7bd 92a8 b63d
00000100: 7ad6 0dbe f099 673d dc3d c8bd 83f0 8d3d
00000110: effc b7bd 6888 bdbd 0a9a 95bd f05a e6bd
00000120: 30a1 e13d bde2 b3bd 79ce e8bd 6cf0 8a3d
00000130: 6926 aebd b0f3 063d 5539 b5bd e206 56bd
00000140: 8268 073c 86a0 ac3b e421 7e3c e442 a83d
00000150: 724c 1b3e 53a9 f5bd 8326 dfbc f866 593d
00000160: 1d32 b9bd addd c73d c239 12bd 8baf ee3d
00000170: ce5c 0ebe 328b 1e3e 4ef1 ddbd 9ebc 85bd
00000180: 81da a73d ce36 783c 8eeb eb3d ae06 9e3c
00000190: c6c2 bf3d eb01 6fbc a849 cd3c 9285 1c3d
000001a0: 2e35 b3bd a076 b2bc a308 e13c 2100 26bb
000001b0: fd09 7d3c f2f6 a9bc 5ff4 303d f3aa 2c3e
000001c0: 26e0 85bd 1042 b53d 3641 62bc 30ba c1ba
000001d0: f1a7 0cbe cadf b03a 8392 12be f063 2a3e
000001e0: 2a20 773d 059d fc3d 643f bbbd 2a17 97bc
000001f0: 40fd b43d 0bd9 113e 8414 983d 62a6 df3c
00000200: 9add a33d 7135 76bd f8db acbd ee65 4abd
00000210: c592 79bd 49b9 0abe b9ea 05bd 2594 edbb
00000220: 88da de3b f316 bcbd 0338 ccbd 147f 1e3c
00000230: 1958 a33d 9935 183d c57d 453d e770 01be
00000240: 7821 d43d c9f1 18bc b33c c83d e9ad ae3d
00000250: b558 f6bb db43 cd3d bfd3 353d 009d 68bd
00000260: f3d2 9f3c 89e8 2a3c b350 ae3d 2f92 b53d
00000270: 9542 51bb 86ab 92bd ba7d a4bc 7f4a 7fbd
00000280: 4488 1d3e b8fd 6bba 3ab5 f1bc 8214 5d3d
00000290: 425d b23d 3921 17be 1f4c 1b3d 9945 1f3d
000002a0: db55 013e 50b3 19be 978c e43d 96d2 4fbd
000002b0: bfc0 63bd a927 cfbd 3477 f8bd 0e6f 00bc
000002c0: fa96 d7bd 0f39 953c da07 adbd 0667 8f3c
000002d0: aa3a cd3d c6fc 24bc 1386 76bd 7d3d 143c
000002e0: 79ce fc3d 75f8 b4bd 8a3b 1c3c 047c 2ab9
000002f0: 1331 c23d 064f 11be edf8 c73d 75b3 cdbd
00000300: 0196 babc 8bc3 fdbc a7de 2d3d 388c dbbd
00000310: b8c9 cf3c 7d86 82bd fa66 7ebd 0d93 cf3d
00000320: 86b0 1d3d ab30 adbd 3679 503d ef1d 18be
00000330: 8d28 a73d 1c9d 4e3d 8500 ccbd decf 0a3c
00000340: eec8 8dbd a8fa babd 8402 d23d 7f9e ab3d
00000350: 73f9 113d e128 2fbd 6276 c93d b9d4 2fbd
00000360: 8c24 0b3e 16e3 3e39 dc9e 9ebd d2a0 11be
00000370: 6ec2 a93c 3104 1cbd e48b b4bd cbd9 fb3d
00000380: 007b 46bd 26b0 bb3d 55bc 8f3d 50f9 8ebd
00000390: b226 ab3c fed7 72bd 74b7 bebd 7702 033d
000003a0: 11f4 313d 2331 75bd df83 4e3a 6156 213b
000003b0: a9d3 223d 4786 8abd 42ac c2bd 5c34 383d
000003c0: bb4a d1bb eca1 09bc e3a3 b0bd 440a 223d
000003d0: 283f 1fbd fed3 a8bc d49e a83d bd2f 093d
000003e0: e9e6 ba3d f54a 143e a5f5 ccbd 8895 a1bd
000003f0: 6293 053c 90c3 22bd 1a1c c33d b7b7 9d3c
-0.019423725 -0.05823654 -0.06791319 0.092846215 -0.060208786 -0.05658742 0.12527564 0.09864083
-0.09324664 -0.11999052 0.13255171 0.07229156 0.053599462 0.09227351 0.07824821 0.124440126
0.082234256 0.018404292 0.11993484 -0.042009585 -0.1062995 0.065245986 0.06516762 -0.007816558
0.12723927 0.054670088 -0.115097076 -0.11284852 0.12623253 -0.034948412 -0.11444174 -0.09797087
-0.1234127 -0.011036272 0.1168341 0.029908024 0.08740783 0.13237284 0.05810694 -0.105719306
0.09136943 -0.083365835 -0.025459856 0.057913274 0.12147082 0.13255608 0.11708682 0.108585685
-0.087778285 -0.0557496 0.06767643 -0.048296034 -0.03907188 -0.010721257 0.07961651 0.14594224
-0.014129916 -0.12954487 0.15006983 0.10280678 0.044756666 -0.041871484 -0.11296986 0.08918871
-0.13851348 0.05654329 -0.09777424 0.069306396 -0.0898379 -0.09254533 -0.07304771 -0.11247814
0.11017072 -0.08783481 -0.113675065 0.06784138 -0.0850342 0.032947242 -0.08848826 -0.052252658
0.008264663 0.0052681593 0.01551101 0.082158834 0.1516588 -0.11995187 -0.027240044 0.053076714
-0.090427615 0.09759078 -0.035699613 0.11654576 -0.1390259 0.15482786 -0.10837041 -0.065301165
0.08195973 0.015149785 0.11519538 0.019290294 0.09363322 -0.01458786 0.025059536 0.03821332
-0.087503776 -0.02178508 0.027469939 -0.0025329667 0.015444276 -0.020747636 0.0432018 0.16862087
-0.065368935 0.08850491 -0.013809493 -0.001478022 -0.1373594 0.0013494429 -0.14313702 0.16639686
0.06033341 0.123346366 -0.0914295 -0.018443663 0.08837366 0.14242952 0.07425788 0.027301017
0.080012515 -0.06010956 -0.08440393 -0.049413614 -0.060930986 -0.13547243 -0.032694552 -0.007250326
0.0068009533 -0.09184065 -0.09971621 0.0096738525 0.07975788 0.03716049 0.048215646 -0.12640725
0.10357946 -0.00933499 0.097772025 0.085292645 -0.007517899 0.10022708 0.04439139 -0.056790352
0.019509768 0.010431417 0.08511486 0.08865773 -0.0031930555 -0.07161622 -0.020079482 -0.062326904
0.15384012 -0.00090023456 -0.02950536 0.053974636 0.08709194 -0.14758767 0.03791439 0.038884733
0.12630408 -0.15009809 0.11159628 -0.05073794 -0.05560374 -0.101149864 -0.12132111 -0.0078389775
-0.10526843 0.018215684 -0.08448763 0.01750518 0.10020955 -0.0100700315 -0.060186457 0.009047863
0.12344069 -0.08836452 0.00953568 -0.00016258663 0.094820164 -0.14190301 0.09764276 -0.10043994
-0.022776606 -0.030977031 0.042448666 -0.10720104 0.025364742 -0.06373308 -0.062109925 0.101354696
0.038498424 -0.08456548 0.050896846 -0.14855169 0.08162031 0.0504428 -0.099610366 0.008472411
-0.0692309 -0.0912984 0.10254386 0.0837984 0.035638284 -0.042763595 0.09837033 -0.042927478
0.1358816 0.00018204408 -0.07745144 -0.14221504 0.020722594 -0.038089935 -0.088157445 0.122974
-0.048457146 0.09164457 0.07018343 -0.06981146 0.020892475 -0.059288017 -0.09312335 0.031984773
0.04344565 -0.059861314 0.00078779267 0.0024618136 0.039752636 -0.067638926 -0.09505512 0.04497181
-0.0063870824 -0.008400422 -0.08625009 0.03956057 -0.03887859 -0.020608898 0.08233419 0.033492792
0.09126074 0.14481719 -0.100077905 -0.07889849 0.008152815 -0.039737284 0.09526844 0.019252641

lstm.bias_ih_l0 f4 [200]
00000000: 3036 78bd d2fd d63d f487 b63d 4235 3d3d
00000010: 8a93 8bbd 3ab7 ecbd 4c3f 123e 8d6f 77bc
00000020: 1444 ddbd 67c6 e73d 56b8 cbbd 7bd9 113e
00000030: c2c7 183e fc7a d9bc ed70 d03d 2a04 cd3d
00000040: 7417 103b 463f 4b3a f3c4 e2bd 2265 0ebc
00000050: 0295 d9bc 0bb9 f33d 56ba 123e 1e56 fc3d
00000060: 94b1 e7bd 203a 103d 2879 7a3d cce1 dfbd
00000070: 0e41 1a3e bc9e d93b 6376 b13d fee8 6ebc
00000080: f815 f2bd dadb 2cbd 7ecd c6bd 41b7 093e
00000090: b35b 803d 4f60 9ebd 9108 023e 5136 bcbd
000000a0: 2ca0 c03d fa47 a83d 1e16 a43d adaa 233e
000000b0: 9d3c 043e 4769 d33d 7435 d23d aa97 933c
000000c0: b0bf 00bd 03c4 9a3d 88c6 87bd c7af b8bd
000000d0: c4e6 25bd 43ee 223e b754 e9bd 99e0 afbd
000000e0: 8377 e23d c704 4c3c fc22 0dbc b390 973d
000000f0: 5773 0fbd 1690 683b 4837 b7bd 8f5c f13d
00000100: 7f09 083e 6ae1 78bb 4acd a3bd d547 d3bd
00000110: 5ce1 893d 92db e13d 625c 35bd 997b 8dbd
00000120: 45b5 c8bd a77e bebc f420 c4bd c12f d13d
00000130: 8d40 a7bb 083e 40bd 4189 7cbd 57ef b13d
00000140: 81c6 2b3d b17b 31bd 5f42 a6bd 1bfa 283d
00000150: c64f 8ebd 59e8 fdbc 7416 2f3d f980 113e
00000160: 2c29 d13d 00a4 4b3d bf62 d7bd 9bda 7bbc
00000170: db0a 413d aef4 b1bc 1f1e bd3b e936 d73c
00000180: afb7 f3bd e7c5 4c3d 3179 35bc 2489 fa3c
00000190: c81b 8a3d 9f5f 65bd a2d6 c5bd 9bc0 fe3b
000001a0: 33eb 07be 3d56 4bbd 5b9f 063e 5dd8 ebbd
000001b0: 5a61 d33d faff a83d a54c 4f3d 1f15 18be
000001c0: e040 953d d4fd fdbd 12cd f5bc dc96 d9bd
000001d0: 619f 01bd 2b69 bfbd 9699 70bb 2c42 10be
000001e0: 5702 613d 7572 bebd ac4f 51bd ec1c 133e
000001f0: 8d94 9ebd 8cda ad3d b751 d1bc ee01 a93c
00000200: 6fbf b1bd f26b e43d 5043 213e 55a9 d2bd
00000210: ebce d93d d02c df3d 8bfc c93a 9f36 d03d
00000220: 387c 5f3c 3c8d fd3d 3722 023e df1e 0f3c
00000230: 8602 f43d 70cc 1f3e 4e89 bc3d f6da e23d
00000240: ecc5 cdbd 3370 213e 1969 97bd 2dc9 193e
00000250: b335 12bd 06d9 f13d dcea 9cbd 1a46 bf3d
00000260: 2531 f0bc 9d59 463d 9774 c03d eb94 b2bd
00000270: d21f 063e 1c13 fd3d f681 eabd 8149 e6bc
00000280: df86 dfbd a383 dcbd d0d9 ac3d a68f 493d
00000290: bd55 973d ebac b7bd e7cc 79bd d33d ee3d
000002a0: b91f 4d3c 0721 5ebd 6874 cc3d b8c4 e8ba
000002b0: 3ea0 45bd dfa6 0f3e 6384 29bb 9a6e 85bc
000002c0: a566 4d3c fa60 0d3e 6fdb 26bc 5f9c b33d
000002d0: a680 44bd f524 123e e652 cdbd 1277 efbd
000002e0: ba4c f3bd 2960 193e fdd4 acbd 844b 4b3c
000002f0: 95ba 5ebd 5adc 263d 720c cebd b989 603d
00000300: 8ae0 7dbd 022d b43c 7569 4d3d abf2 e33d
00000310: 42db e33c 189b b2bd f21a c0bd 8ac6 24bc
-0.060598552 0.10497631 0.0891265 0.04619337 -0.0681525 -0.11558385 0.14281958 -0.015102279
-0.108040005 0.11317139 -0.09947269 0.14243118 0.14919952 -0.026547901 0.10177789 0.1001056
0.0021986635 0.0007753264 -0.11072721 -0.008691104 -0.02656031 0.119005285 0.14328894 0.12321113
-0.11313167 0.035211682 0.0611507 -0.10931739 0.15063879 0.006641237 0.086651586 -0.014581917
-0.118205965 -0.042201854 -0.09707163 0.13448812 0.0626749 -0.07733213 0.1269858 -0.091900475
0.0940555 0.082168534 0.08012031 0.15983076 0.12913747 0.103228144 0.102641016 0.018016655
-0.031432807 0.075569175 -0.06629664 -0.09017902 -0.04050328 0.15911202 -0.11393111 -0.085877605
0.11057951 0.012452311 -0.008614298 0.07400646 -0.035022106 0.0035486273 -0.08946091 0.11785232
0.13284872 -0.0037976154 -0.0799814 -0.10316435 0.06732437 0.11028208 -0.044277556 -0.0690834
-0.098001994 -0.023253752 -0.09576598 0.102141865 -0.0051041306 -0.046934158 -0.061654333 0.086882286
0.041937355 -0.043330852 -0.08118128 0.041254144 -0.06948809 -0.030994581 0.042746022 0.14209355
0.10212931 0.04971695 -0.10516881 -0.015371944 0.047129493 -0.021723118 0.005771413 0.0262713
-0.11900269 0.049993422 -0.011076258 0.030582972 0.0674358 -0.055999395 -0.096600786 0.007774425
-0.13273315 -0.04964279 0.13146727 -0.115158774 0.10321303 0.08251949 0.050610203 -0.14851807
0.072877645 -0.124019295 -0.030005012 -0.10624477 -0.031646136 -0.09346231 -0.0036712638 -0.14087743
0.054933872 -0.09299175 -0.05110137 0.14366502 -0.077431776 0.0848895 -0.02555166 0.020630803
-0.08679091 0.111534014 0.15748334 -0.10286204 0.106351696 0.10897219 0.0015410347 0.10166668
0.013640456 0.12380454 0.12708364 0.008735388 0.11914544 0.1560533 0.09205876 0.1107692
-0.10047516 0.15765457 -0.07393093 0.15018149 -0.035695743 0.11808972 -0.07661983 0.09339543
-0.029320309 0.048425306 0.09397238 -0.0871981 0.13098076 0.123571604 -0.11450569 -0.028111221
-0.109143965 -0.10767295 0.08439982 0.04920926 0.073894 -0.08968528 -0.060986426 0.11632886
0.01251977 -0.054230716 0.0998314 -0.0017758822 -0.048248522 0.140285 -0.0025866262 -0.01628809
0.012536679 0.13806525 -0.010184153 0.0877006 -0.04797425 0.1427191 -0.10025577 -0.11692633
-0.11879869 0.14978088 -0.08439062 0.012408141 -0.054377157 0.040737487 -0.100609675 0.054818843
-0.061981715 0.021994118 0.0501494 0.111302696 0.027814511 -0.08720988 -0.093801394 -0.010057101

lstm.bias_hh_l0 f4 [200]
00000000: 1419 87bd 5309 7dbd 6073 b3bd 8e43 983c
00000010: be22 48bd a319 95bd 6a7d 913d 9c64 f0bd
00000020: e6fc b33d fa97 12bd 9ec8 8c3d a562 043d
00000030: 8ddc 43bd d018 133e 7700 e0bd f253 213c
00000040: ccc2 be3d f1c6 c23d 35b6 043e 74ab 66bd
00000050: 83e9 07be 2eff a63c cc2d b7bc 85f0 563d
00000060: ed6d e73d 81a0 6b3c db4f b53d 0c7b 88bd
00000070: 441e ca3d 64c0 eebd d7c3 cbbb c7f8 e53d
00000080: 67b4 d3bd 73db cf3d 00d9 2dbd 585c ccbc
00000090: 87eb 2abd 2863 143d 6b7b f53c 99bc 19bc
000000a0: 31a7 dfbd 1147 ebba 01d2 173e 3652 993d
000000b0: 6edc 163c 6c27 b03d 92a8 1e3e 84f2 bf3d
000000c0: 1aac 123d 5a85 a53c b209 f1bd 0143 e0bd
000000d0: 3729 843d 3533 ce3b a58a ccbd b1b9 ec3d
000000e0: f9dc aabd 9ee4 153e 5f63 563d b37b 193e
000000f0: b16e 5abd 9d25 e4bd 1a58 a03d 80b1 5fbd
00000100: 6acb acbd 9413 e9bc 1c20 82bd b378 dbbd
00000110: 82a9 fd3d 73a0 183e 1eed 2bbd d461 0c3a
00000120: ca15 e6bc 3741 113d 0fa4 06bd 0dc7 04be
00000130: 7edf d3bd e33c 4cbc 183f 56bb 4929 a5bd
00000140: 625f 363b b7f3 ee3d 6971 16bd fe93 74bd
00000150: 269b 88bd 14b4 163c 8aac bebd 6dbe e33d
00000160: ecab 173e ab6c d23c 6260 f93d a649 9d3d
00000170: 5e15 febd 8435 8dbd fd3d 28bc eb69 dfbd
00000180: e62b e43d d640 db3d 1117 ca3c 1b01 503d
00000190: 9c88 a8bd 8f28 d03d c9e5 e93d 45b1 f23d
000001a0: b3fb 77bc fd04 5f3d 9dc9 f63d 2d30 e0bd
000001b0: 458b b93d ff26 813d c4f1 0f3e 5e5f 893d
000001c0: 8e4c 87bc d3be f13c 873e 843c f48c b5bd
000001d0: 2856 b93d f7df f5bd 4aa0 043e 873c 02bd
000001e0: 9751 0cbe 862e 2d3d 44f4 173e 983c 733d
000001f0: f216 83bc 1b52 f9bd d140 943d c2c4 dc3c
00000200: c388 063e 3c75 1f3e 6f5a 703d 7000 1d3e
00000210: bbd6 cb3c b33a cc3d bc1b be3d 8eff 3bbd
00000220: c3b3 1abe fe5b 0f3d dc9c b03d 1241 7fbd
00000230: ee53 19be 0a3e d93d 9048 84bc d768 8e3d
00000240: d714 d93d ea45 503d ff3b b03c 147b 5c3d
00000250: c7c5 9fbd 3da5 ccbb 28ad 703d 86f7 ad3d
00000260: cdf2 86bb e1ef fa3d 05db fb3d ac49 973d
00000270: 38f6 083e a648 8ebd d893 d1bd 34f4 1a3e
00000280: b8f6 ff3d 953d 9d3d d104 7dbd 7b08 0c3e
00000290: 1eb1 5a3d 36d1 b33c a70a 3b3d 26c9 82bd
000002a0: ce3e 9abd 3421 dd3c 5b8d 593d 58a4 e33b
000002b0: 4450 cbbd a50d 49bc 6bfc 683c 6131 ff3d
000002c0: cb06 aa3d d402 1fbd 8f6a b13d b244 8bbd
000002d0: da33 243e f170 dbbd ca78 aebd bab3 30bd
000002e0: f1c8 883d bdbb 1a3e ce8e 0b3e f079 86bd
000002f0: c63f 173e bd48 09be ea41 f2bc f11c 013e
00000300: 0dc9 483d 339e 7a3d 0f70 7a3d d9ae 40bc
00000310: e0b4 0a3e 3b8e e3bb 7836 c5bd 4fba 0b3c
-0.0659658 -0.06177647 -0.087622404 0.0185869 -0.048861258 -0.072802804 0.07103999 -0.1173794
0.08788471 -0.035789467 0.06874202 0.032320637 -0.047817755 0.14364934 -0.10937589 0.009846674
0.09314498 0.09510601 0.12960131 -0.056315854 -0.13272671 0.020385351 -0.022360705 0.05247547
0.113002636 0.014381529 0.08853122 -0.06664094 0.09869054 -0.11657789 -0.0062184143 0.11229091
-0.103371434 0.101492785 -0.042443275 -0.024946377 -0.041728523 0.036227375 0.029966077 -0.009383344
-0.10920561 -0.0017950257 0.14826204 0.074863836 0.009207828 0.08601269 0.15493992 0.09372428
0.03580866 0.020205189 -0.11769427 -0.1095028 0.064531736 0.0062927254 -0.09987382 0.11558855
-0.083429284 0.14637992 0.05234086 0.14988594 -0.05332822 -0.11139987 0.07829304 -0.054612637
-0.08437236 -0.028451718 -0.063537806 -0.10716381 0.12385847 0.14904957 -0.04197418 0.00053551537
-0.028086562 0.035462584 -0.032871302 -0.12966557 -0.10345362 -0.012465688 -0.0032691415 -0.08064515
0.0027827849 0.11667579 -0.03672925 -0.05971145 -0.06670217 0.009198207 -0.09310253 0.11120305
0.14811677 0.025686583 0.12176587 0.07680063 -0.12406419 -0.06894973 -0.010268685 -0.10908874
0.111411855 0.10705726 0.024669202 0.050782304 -0.08229181 0.10163986 0.11420781 0.11850218
-0.015135693 0.054448117 0.120501734 -0.10946689 0.09059767 0.06306266 0.1405707 0.06707643
-0.016515996 0.029509937 0.016143097 -0.08864775 0.09049636 -0.120056085 0.1295177 -0.031796005
-0.13702999 0.042280696 0.14839274 0.05938396 -0.016002152 -0.121738635 0.07238925 0.02694929
0.13138108 0.15572065 0.058679994 0.15332198 0.024882665 0.099721335 0.09282634 -0.045898013
-0.15107636 0.03499984 0.086236686 -0.062317915 -0.14973423 0.10607536 -0.016147882 0.0695359
0.10599678 0.050847925 0.021512983 0.053828314 -0.07801395 -0.006245284 0.058758885 0.08494477
-0.0041182996 0.122527845 0.12297634 0.07387099 0.13375175 -0.0694745 -0.10233277 0.15132219
0.1249823 0.076777615 -0.06177217 0.1367511 0.05339157 0.021950345 0.045664456 -0.06386022
-0.0753151 0.026993372 0.053113323 0.0069470815 -0.09927419 -0.0122713195 0.014220337 0.1246059
0.08302077 -0.038821056 0.086629026 -0.06800212 0.16035405 -0.10714901 -0.085191324 -0.04314015
0.066789515 0.15110679 0.13628694 -0.065662265 0.14770421 -0.13406654 -0.029572446 0.12608697
0.049019862 0.061186027 0.061142024 -0.011760437 0.13545561 -0.0069444454 -0.0962953 0.008528306

lstm.weight_ih_l1 f4 [200, 50]
00000000: cd0d 74bb 46cc 01be db34 7bbd 10df 513d
00000010: adf3 bcbd a528 0ebe dbb3 8fbd aaa3 003e
00000020: 2bfb c63d 41d7 df3d a17c 353b 2c82 183e
00000030: 1f21 9b3d b026 1bbd f628 74bb 7f8f f83d
00000040: 2965 7bbd 46f4 a33d 73f9 783d b7ab c0bd
00000050: f528 c03d 7762 3e3d 264a bebd e9e9 33bd
00000060: b1e7 073e 51ee d93d 57ff 1cbd a428 cebd
00000070: ec55 ef3d 44e4 983d 0b42 943d 2c02 d2bd
00000080: 9d8f 37bc 17ed 123d 2701 9dbd bbf9 dd3d
00000090: 8eea 983d 9a60 05be f855 173d c85f bebc
000000a0: 6723 913d 6f02 e93d cf25 983d d7de 853d
000000b0: 1867 ecbc 8362 acbd d57b e9bc 8185 21be
000000c0: 48ae f2bc 6bb3 68bd 610a 9cbd 785c 153e
000000d0: 6b97 823d b55e 17be e601 20bd 3318 67bd
000000e0: 8bb9 93bd 984c af3c bfa9 013e a308 dcbd
000000f0: 4aa2 7bbd a7d3 ddbd bf7a 2bbd 3a3a 343d
00000100: c0f8 663d c973 ea3d e53d 0a3e 2ff2 c6bd
00000110: ab09 a43d 91a3 fe3d 701e c33d cb14 42bc
00000120: e439 da3d fa2e 283c dc89 c8bd 66b6 d53d
00000130: 0ead 1e3e 0fb9 f0bd 1c90 e23c 45d3 8b3d
00000140: 89f8 d03d 0687 b8bd 7b69 02be 5bd8 a23c
00000150: 8e2b 45bd 54ef ebbd 4f71 823c 5a38 143e
00000160: 8f61 ad3d 20a1 b93d 6d9c cf3c 63b6 96bd
00000170: db15 c2bd 0c05 f93d 871e 2fbd 5cc9 01be
00000180: f0fa f33c 1ab0 fdbb 14c2 8cbd 6d04 00be
00000190: cff8 6ebd 25c3 fe3b 0389 a13d 7bce 0dbe
000001a0: d7f7 14be ba40 30bd a531 cc3d d965 03be
000001b0: c507 11bd 99bc 033e af82 793d 0da9 f6bd
000001c0: 0379 03be 35f2 37bc 1017 e0bd 20ca ad3d
000001d0: 40b6 6f3d 9b3f e93d ce47 053e 090f 3bbd
000001e0: f874 15bd 940f c3bd f711 edbd c868 55bc
000001f0: 7dfb e43d 8530 823d c265 643d 038c 7e3d
00000200: b345 823d 7f29 f23d a5ec ae3d 06bf 42bd
00000210: 0f10 b03d 288b 993d f9dc bbbd 96ac b33d
00000220: 5a1d 24bd 4944 0f3d 9085 60bd 5901 cc3d
00000230: ec60 153d b4c4 bfbd c587 c63d ac87 78bb
00000240: 1fca d4ba 6739 f3bb a15a 3e3d 0787 dabd
00000250: ee22 8cbd 8f89 093e 6db2 ddbd a40d 273d
00000260: 8a47 02be f845 02bd 9f6e f73d b1ae 033e
00000270: d3ee f13d efad 6abc 2a18 063e e500 e33d
00000280: 2421 f03d a4b0 063e db82 8ebd 83e0 dcbd
00000290: a7cc 113e aaf4 0eb9 cb46 913b c3ce f5bd
000002a0: e40f bfbd bdd1 a8bd 1cdf e23d db3f 893d
000002b0: 22b6 0c3e 0050 e6bd 85c0 d53d 5072 623d
000002c0: 88b9 91bd f4fb 8dbd 425f 9dbc 158f b5bd
000002d0: dd54 3cbd 7883 c63a 4f98 ff3d d2bd 5dbd
000002e0: e4c0 0abe b1aa b8bd 4757 bebd 0717 dbbd
000002f0: b103 043e 55ae c6bd f3ce 7d3d 98e6 633d
00000300: 5a8f f0bd 3518 e03c f93b 403c ff29 ee3d
00000310: 2ad4 e4bc 3b98 d8bd c97f d03d f200 4b3d
00000320: 97c6 e53d f02f e4bc d9c8 603d e62b a2bd
00000330: 314b 4abd adf7 973d 504c 173d e7bc 00bd
00000340: 15b2 a43d 13c0 5f3d f0a8 52bc 8f13 c53d
00000350: 0d5b 98bc 37d9 123b 327f 083c 2d61 2bbc
00000360: 4844 77bd 5865 66bc 7255 97bd 8817 c8bc
00000370: e506 333d d34c f93d 631d 563d 38b4 65bd
00000380: 99b5 a53d 91ce 3bbb 2473 0c3e 5959 533d
00000390: 5f63 0f3d fe22 6dbd b282 e53d 8b16 07be
000003a0: a210 2c3d 7859 cbbd 4642 85bd 467f febd
000003b0: 10c2 c53d 4873 f7bc dee0 533d 86aa b4bd
000003c0: 21a2 d3bd 041c 123e 81e1 f4bd e085 febd
000003d0: 9b05 c0bd e373 b63c 2ba9 ccbd 0e2d 123e
000003e0: 44ec d53d 0b29 7bbd 3d35 d53c 6262 c0bc
000003f0: a26d c5bc 9c5e 873d e222 9dbc c666 8e3a
-0.0037239671 -0.1267558 -0.061329704 0.05123812 -0.09226165 -0.13882692 -0.070167266 0.12562433
0.09715875 0.10929728 0.0027692693 0.14893407 0.07574677 -0.037878692 -0.003725586 0.12136745
-0.06137577 0.08005576 0.06078477 -0.09407752 0.09382812 0.046480622 -0.092914864 -0.043924246
0.13271977 0.10641158 -0.03832945 -0.10066345 0.1168631 0.07465413 0.07239159 -0.102543205
-0.011203674 0.035870638 -0.076662354 0.10838648 0.07466613 -0.13025132 0.03694722 -0.023239031
0.070868306 0.11377417 0.074290864 0.06536644 -0.028857753 -0.08417227 -0.02850143 -0.15773584
-0.02962412 -0.05681173 -0.07619167 0.14586055 0.06376537 -0.14782222 -0.03906431 -0.056419563
-0.07213124 0.021398827 0.12662409 -0.10743835 -0.061434068 -0.10831385 -0.041865107 0.04400084
0.05638957 0.114478655 0.13500173 -0.097141616 0.080096565 0.124335416 0.0952729 -0.011845778
0.10655573 0.010265106 -0.097919196 0.1043518 0.15495703 -0.11754047 0.027656607 0.06827406
0.10203654 -0.09010129 -0.1273555 0.019878557 -0.04813724 -0.115202576 0.01592317 0.14474621
0.084658735 0.09063935 0.025343144 -0.07359006 -0.09476825 0.12159166 -0.042753723 -0.12674469
0.029782742 -0.00774194 -0.06872955 -0.12501688 -0.05834275 0.007774728 0.07887461 -0.13848297
-0.14547668 -0.043030478 0.099704064 -0.1283182 -0.0354078 0.12864913 0.060915645 -0.12043963
-0.12839131 -0.01122718 -0.10941899 0.08485818 0.058523417 0.11389085 0.13015673 -0.045668636
-0.036488503 -0.09524456 -0.11575692 -0.01302547 0.1118078 0.063569106 0.055761106 0.062145244
0.0636095 0.11824321 0.0854123 -0.047545455 0.08596813 0.07497245 -0.091730066 0.087731525
-0.040067054 0.03497723 -0.054814875 0.099611945 0.036469385 -0.0936369 0.09693865 -0.0037922664
-0.0016234553 -0.0074226144 0.04647315 -0.10670286 -0.068426 0.1343138 -0.10825048 0.040784493
-0.12722602 -0.03180501 0.12081646 0.12859608 0.1181313 -0.014323696 0.13095155 0.11084155
0.11725071 0.1315332 -0.069585524 -0.1078501 0.14238225 -0.0001363332 0.004433488 -0.12002327
-0.09329203 -0.082431294 0.11077711 0.067016326 0.13741353 -0.112457275 0.10437111 0.0552848
-0.071154654 -0.06932822 -0.019210462 -0.08865181 -0.04597937 0.0015145382 0.124802224 -0.054136105
-0.13550144 -0.09016932 -0.092939906 -0.106977515 0.12892033 -0.0970122 0.06196494 0.055639833
-0.11746092 0.027355293 0.011733049 0.11629104 -0.027933199 -0.10575911 0.10180623 0.04956145
0.11219519 -0.02785489 0.054879043 -0.07918529 -0.049388114 0.07420287 0.03693801 -0.03143015
0.08041779 0.054626536 -0.012857661 0.09622871 -0.018598104 0.0022407302 0.008331107 -0.01046018
-0.060367852 -0.014062248 -0.07389344 -0.024425283 0.043707747 0.12172856 0.05227412 -0.056080073
0.08091278 -0.0028657059 0.13715798 0.05159888 0.035006877 -0.0578947 0.11206569 -0.13192193
0.04200805 -0.09929174 -0.06506781 -0.12426619 0.09656155 -0.030206338 0.051728122 -0.08821587
-0.10333658 0.142685 -0.11957074 -0.124278784 -0.09376069 0.022272056 -0.09993204 0.14275
0.10445455 -0.06131844 0.026026363 -0.023484413 -0.024100129 0.06609842 -0.019181672 0.0010864369

lstm.weight_hh_l1 f4 [200, 50]
00000000: 70f1 133e 9eec 803d a07f 103e cd34 7d3d
00000010: cce0 e13d 3745 fe3c b8d9 553d e18d b23d
00000020: e6b6 7cbd a99b 6ebc 6c10 24be 2fd1 dd3d
00000030: 6a9f 88bc 89ce 543d cb12 bfbd 1391 ffbd
00000040: 2e52 8f3d 1417 3ebd c36a 22be c598 04bc
00000050: dccf 67bb cb3e 033d feea afbb 8727 033e
00000060: 71d4 ff3d 44ba 013e e72b ca3c a4a6 0ebe
00000070: 2db2 1f3e 292f 32bd f535 a4bd d6f1 96bd
00000080: 1e94 0b3d baff b63d b261 593d b247 e2bd
00000090: 0876 a7bd 5e59 433c 2faf e13c a9d1 8a3d
000000a0: fdfb 953d 708f d13c df2b 7c3d caea 99bc
000000b0: 7ca5 57bd 75b8 e4bd 8af7 e3bd 1769 043e
000000c0: 6a64 2bbc 3852 17be f47f f8bd 356d d83c
000000d0: 87fe d1bc 8421 abbd abbb c73c f2bf efbd
000000e0: c8e5 d1bd 0a8d e2bd 7acf 083e ea0f 943c
000000f0: 0d5f 8bbc a1fc 553b 66ca 09bb 479c b0bd
00000100: bc1f adbd c652 ffbd ff37 0b3e c736 453d
00000110: 63b7 b0bd f746 c4bd a045 b9bd 7473 12be
00000120: ae0a c43d 09f2 b03d 5e4d de3d fcb4 283d
00000130: 3d96 f9bd 6a8c 683d 6462 0e3a 791a 8e3d
00000140: f861 933d 95eb 973d 9b7d ccbc 4ff9 83bc
00000150: c81c 1d3e d95c 873d 9ded c93c 33d4 04be
00000160: fafc 89bd 2782 c63d 7483 963d ffe0 2abd
00000170: 3d67 d8bc 26ba ca3d 4631 06be 539e 1a3d
00000180: 0185 933d 44b5 77bc a232 13be 6984 e83d
00000190: c140 dd3d 022e 05bc afb2 7ebc fe46 9c3d
000001a0: 9ed8 05be a1ea 08bc 7a96 d4bc 0a33 37bd
000001b0: 9502 3bbd 874c e63d 3365 ab3b b38e 96bd
000001c0: 70aa 98bd 1639 5d3d 430b ce3d edb1 4f3d
000001d0: bfc3 f3bd ad5f 5ebd 49af ecbd 93fb a8bd
000001e0: c913 95bc 7065 b7bd e0ed c6bc 43e0 babc
000001f0: a6f4 d03c 50b8 02bd a580 e03d 1bfc 1bbc
00000200: 207b ac3d 78f1 35bb beec 623d 1526 50bd
00000210: c495 13bd 1987 d13d 256f 22bc 8506 f438
00000220: 424a 8c3d 82a3 0fbd c1f1 bcbd 9a81 5fbd
00000230: 7ba5 a93d a42a 65bb 5dbb 7e3d 566f acbd
00000240: d4b8 ff3d a14d 0abd 60d7 653c be39 ae3d
00000250: 6d37 debd 8ea0 37bc 30ed 2a3c ce44 30bd
00000260: b8c6 8f3c 054e 133e 4b4d df3b 83b9 b23d
00000270: 8955 743d 01a8 5a3d edd0 5dbd d5b6 823d
00000280: 39be c03c 271e a93d e56f abbd 28db fb3d
00000290: 16eb f6bd 1b7e 833d 98cf 6abd bc4c 6abd
000002a0: 6842 abbc 62db 433d 1eab 813d b87d ae3d
000002b0: 1350 103a eb01 8ebd a24f c43d 0a0b 643d
000002c0: 12f9 99bd bdc1 f13b 6759 f33d 8150 0bbd
000002d0: 0354 fa3d 399e c3bd 3ee9 a53c 44e9 053e
000002e0: ea4b 1a3e ef3e 913c 03db 253c 9d00 a73d
000002f0: 5287 e2bb 11d3 d03d b6e2 b83d f377 f43d
00000300: abd1 ae3c 7b82 8bbc 796a 043d c4b3 20bc
00000310: 30bb 00be e4d2 b73d f16e 81bc 5de8 e13d
00000320: 5add 043e adc0 363d bbee f1bc 7bad 103e
00000330: 344d 59bd 131c 0c3e bf08 e9bd c38b abbd
00000340: 6f9b cdbd 69bb ef3d bd77 6e3d 311f 94bd
00000350: 6b1d b9bc 39e2 193d f28f cbbd 99af 673d
00000360: b536 7cb9 c789 dbbd 6048 5b3c 6c58 13be
00000370: 0437 c5bd d8b0 ea3d b482 7fbd c25a 063c
00000380: 8496 a5bb 4682 d83d 04ec b8bd 0215 5e3d
00000390: 7f70 2abd 0176 013e 09e2 083e dc06 9ebb
000003a0: ac8f 643c 7aff eebd 47d7 1d3e 818b 593d
000003b0: fcb9 68bc ed2c f63d 6486 ee3c 97bb a8bc
000003c0: 4dd6 dd3d 5a6c cb3d 7d89 bbbc 0fdc 983c
000003d0: 6403 07bc 2813 babd 0064 b13d 1330 c83d
000003e0: 63a8 e3bd e765 fcbc d157 ba3d 06da e73d
000003f0: 5316 e93b 13e8 c0bc 2367 e6bd 87d2 e83d
0.1444757 0.06295131 0.14111185 0.061817933 0.11029205 0.031038864 0.052209586 0.087184675
-0.061697863 -0.014563479 -0.1602189 0.10830914 -0.016677577 0.05195478 -0.09329756 -0.124788426
0.069980964 -0.046408728 -0.15861039 -0.008093064 -0.0035371697 0.032042306 -0.0053685894 0.12808047
0.12491692 0.12668711 0.024679137 -0.13930756 0.15595312 -0.043502007 -0.08018104 -0.07370345
0.034076802 0.08935495 0.053071685 -0.11048831 -0.081768095 0.011923162 0.027549354 0.06778271
0.073234536 0.025581092 0.061565276 -0.018788714 -0.052648053 -0.11167995 -0.11131199 0.12930714
-0.010460952 -0.14777458 -0.1213378 0.026419261 -0.025634063 -0.08356002 0.02438148 -0.117065325
-0.102489054 -0.11062057 0.13360396 0.018073995 -0.017013097 0.00326518 -0.002102518 -0.086235575
-0.084533185 -0.1246696 0.1359558 0.048147943 -0.08628728 -0.09583848 -0.09046483 -0.14301854
0.095723495 0.086399145 0.108546 0.041188225 -0.12186859 0.056774534 0.00054315315 0.06938643
0.071964204 0.074179806 -0.024962237 -0.01611009 0.1534301 0.06609506 0.024649436 -0.12971573
-0.067377046 0.09692793 0.073492914 -0.04171848 -0.026416415 0.09898786 -0.13104734 0.037748646
0.07203103 -0.015118901 -0.14374784 0.1135338 0.108033665 -0.008128645 -0.015545531 0.07630728
-0.13070914 -0.008356721 -0.025950659 -0.04472641 -0.04565676 0.11245065 0.0052305697 -0.073514365
-0.074543834 0.05400952 0.10060742 0.050706793 -0.1190257 -0.054290462 -0.115568705 -0.08251109
-0.01819791 -0.089548945 -0.02428335 -0.022812014 0.025507282 -0.031914055 0.10962037 -0.009520556
0.08421922 -0.0027762335 0.055401556 -0.050817568 -0.0360315 0.10230846 -0.009914194 0.00011636041
0.06850101 -0.035068043 -0.092257984 -0.054566957 0.08283516 -0.0034968043 0.062190402 -0.08419673
0.12486425 -0.03376544 0.0140284 0.08507107 -0.108504154 -0.011207713 0.0104325265 -0.043034367
0.017550811 0.14385231 0.006814634 0.0872679 0.059651885 0.053382877 -0.054154325 0.06382529
0.023528205 0.08257704 -0.083709516 0.1229766 -0.12056558 0.06420537 -0.057326883 -0.057202086
-0.020905688 0.04781664 0.06331466 0.08520073 0.0005505096 -0.069339596 0.09585501 0.05567459
-0.075182095 0.0073778317 0.118822865 -0.03401232 0.12223055 -0.09551663 0.02025282 0.13077265
0.15068021 0.017730204 0.010123017 0.08154414 -0.006913104 0.10196508 0.09027617 0.11936941
0.021340212 -0.017029991 0.032328103 -0.009808484 -0.12571406 0.08975771 -0.015799971 0.11030648
0.12975064 0.044617344 -0.02953278 0.14128678 -0.053052142 0.13682584 -0.11378621 -0.08376267
-0.10039412 0.117056675 0.05821966 -0.07232512 -0.022597035 0.03756926 -0.09939565 0.056563947
-0.00024052973 -0.10719638 0.013383955 -0.14389199 -0.09629634 0.114595115 -0.062380508 0.008200349
-0.0050533433 0.10571723 -0.090293914 0.054219253 -0.04161119 0.12642671 0.13367476 -0.004822595
0.01395027 -0.11669822 0.15414153 0.053111557 -0.014204498 0.12020288 0.029116817 -0.020597262
0.1083189 0.09932776 -0.022892708 0.01865962 -0.0082405545 -0.09085685 0.086616516 0.097747944
-0.111161016 -0.03081031 0.09098781 0.113208815 0.007113257 -0.023548162 -0.112501405 0.1136828

lstm.bias_ih_l1 f4 [200]
00000000: 517d dcbd ccc7 5abd 6e90 efbd 1968 a4bd
00000010: 60ec d43d 2c30 183e 1173 4cbd 8dec b93c
00000020: d7fe 12bd 4e7a aa3d fcbf 6bbd 0c79 053e
00000030: 8827 ffbd a480 533b 1ce7 673c 3b0d e93d
00000040: e468 073e 63d8 f73d 4144 debd f3fa b9bd
00000050: daed 90bd 3b89 b93d 4fa5 5cbd 8d38 843d
00000060: 4d31 193d eb90 90bd b621 81bd 15fa e53d
00000070: 86f7 e33d d96d 543d b323 f3bd 1f35 dfbd
00000080: 381c d0bd 8918 813c 96fd 6c3a 3327 1dbe
00000090: 88e8 e4bd 6583 15bd 363c 62bd 7578 debd
000000a0: 2b18 4e3d 7e34 f6bd 759b ec3d 8be4 88bb
000000b0: c2c9 243d ad0f f6bd 34b7 c03d e434 09bd
000000c0: 0ec4 e43d ce80 983d 43f5 eabc 5e13 a23c
000000d0: 5a17 71bd e014 533d 1490 b6bd db91 b33d
000000e0: ea1f c2bd 5b71 c3bc 645b dabd 33a6 32bd
000000f0: eb0b 8e3d 5a53 38bd 04ba 103e bc4b 093d
00000100: 5705 21bc f26e cebd 2674 d33d fc37 00be
00000110: eb71 b8bd a0f7 e73d 97af e13d 55c2 89bd
00000120: fcc4 833d e1d0 a4bd 6094 12bd 8b0d e1bd
00000130: 192f 243e 2cb0 afbd a93d 033e d607 fd3d
00000140: e34d 523d 426a 47bd 43c5 bebc 88d9 ae3d
00000150: ad5d f6bd 7976 b23d fbb4 fa3c 6bff cf3d
00000160: 756a 143e 88b7 973d fcdc 183e 5a2b 813d
00000170: 2a77 5cbd a5bf 85bd e181 453d 2f59 21bd
00000180: 3510 e8bd 41e9 8abd a41c aa3d 5fdd 85bd
00000190: f4c2 f2bd d85d 0bbe 1916 fabd 0021 12bd
000001a0: 11fe b63d 8b7a 253e 4f33 adbb 98a4 43bc
000001b0: e285 543d 2b81 9cbb 54de 073d f739 b8bd
000001c0: 64aa fd3d 15ae d4bd 53a1 4fbd 8657 cf3d
000001d0: ba2c b8bb 59a5 0cbc 37d8 2cbd d2af 733c
000001e0: f335 2d3d 433b 22be db65 a6bd a64e 25bd
000001f0: 2f7e 123c f981 e6bd 114c 94bd 94d8 2a3d
00000200: 8eb3 a6bd be7a 313c 7b6f 9cbb ea63 2fbd
00000210: 8e99 ccbd 61cb cdbd b4c5 5fbc 9132 883d
00000220: 105a e43d 7fdb 1f3e 76bf 15be 5be9 9fbd
00000230: 2017 afbd 0e5a 0a3e 2211 033d f595 44bc
00000240: 83eb c2bd 04bb cf3d 32d7 7abc c7cf f0bd
00000250: 96bc afbd fbc9 123e c3a3 5e3d 68d1 81bd
00000260: b103 d2bd acaa a3bc ca4c 23bd 5aa0 f4bd
00000270: 581c d73c 209c 1a3d 76ed b23d 81c7 afbd
00000280: 8820 7a3d 4602 c5bc d566 efbc 1b23 c83c
00000290: ef50 acbd a7ba cebd cab7 193e 1297 133e
000002a0: 442d 863d e38f f83d 15cb f3bd 0598 97bd
000002b0: 76e8 6e3d 0a20 e73d f9eb bf3d 7839 64bd
000002c0: 8f19 803d 4789 c4ba d50a cabd 4d3a 573d
000002d0: 9330 363d a298 adbd e655 47bd 3a85 f53c
000002e0: ba87 dd3b 00a4 983d bf70 f3bd 46e1 b2bd
000002f0: 9ab3 b03c 22c7 e9bd 0f24 efbd cf03 d03d
00000300: d14d 653c f3cc d8bd d4e0 07be 4fbe d93c
00000310: e98f cbbd 93dd e63d d9e4 42bd 2881 4a3d
-0.1076609 -0.053413197 -0.1169747 -0.080276676 0.103966475 0.14862126 -0.049914423 0.022695804
-0.035887565 0.08324109 -0.057556137 0.13034457 -0.12458712 0.003227272 0.014154222 0.11379477
0.13223606 0.12101819 -0.10852862 -0.09081068 -0.070766166 0.09059378 -0.053868588 0.06456099
0.037400533 -0.07058891 -0.06305258 0.1122934 0.11131196 0.05186257 -0.118720435 -0.10898804
-0.10161632 0.01575877 0.0009040473 -0.15346985 -0.11177164 -0.03650226 -0.055233203 -0.10862819
0.050316017 -0.12021731 0.115530886 -0.004177635 0.040231474 -0.12014709 0.09409943 -0.033497706
0.11170207 0.074464425 -0.028681403 0.019784626 -0.05886016 0.05153358 -0.089141995 0.08768054
-0.094787434 -0.023857763 -0.10661963 -0.04361553 0.06935867 -0.045001365 0.1413346 0.03351949
-0.009827933 -0.10079755 0.10324888 -0.12521356 -0.09006103 0.113265276 0.11019819 -0.06726519
0.06434056 -0.08047653 -0.035786033 -0.10988911 0.16033591 -0.08578524 0.1281649 0.1235501
0.05134381 -0.04868532 -0.023287421 0.085375845 -0.12029586 0.08714003 0.030603876 0.10156139
0.14493735 0.07408053 0.14928049 0.06307097 -0.05382458 -0.06530694 0.048219565 -0.039391693
-0.11331216 -0.06782771 0.08306244 -0.06536364 -0.118535906 -0.13610017 -0.12211246 -0.035676003
0.08935178 0.16160028 -0.0052856575 -0.011941098 0.051885493 -0.00477614 0.033171013 -0.08995431
0.12386015 -0.10384766 -0.05069096 0.10124116 -0.005620566 -0.008584344 -0.042198386 0.014873462
0.042287778 -0.15842919 -0.08124896 -0.040358208 0.008941217 -0.11255259 -0.07241071 0.04171045
-0.08139716 0.010832487 -0.0047740317 -0.042819895 -0.09990226 -0.10048557 -0.013657976 0.0665027
0.111499906 0.15611075 -0.14623818 -0.07808181 -0.085493326 0.13510916 0.03199876 -0.011998643
-0.095175765 0.10143092 -0.015310096 -0.117583804 -0.08580892 0.14334862 0.054355394 -0.06338769
-0.1025461 -0.019978844 -0.039868154 -0.11944647 0.026258633 0.03774655 0.08736698 -0.08582974
0.06106618 -0.024048936 -0.029223839 0.024430802 -0.08413874 -0.10094195 0.15011516 0.14413098
0.065516025 0.12136819 -0.11903969 -0.07402042 0.05832716 0.11285408 0.0937118 -0.05571887
0.06254875 -0.0014994525 -0.09865347 0.052545834 0.044479918 -0.08476378 -0.048665904 0.029970754
0.0067605646 0.074531555 -0.11886739 -0.08734374 0.021570016 -0.11414935 -0.116767995 0.101569764
0.013995604 -0.10585966 -0.13269359 0.026580004 -0.09939558 0.11272731 -0.047581527 0.04943958

lstm.bias_hh_l1 f4 [200]
00000000: 271f ebbd dffd 853d 0ced ed3d b6e6 42bd
00000010: 6c49 1a3d ed74 c53d 4b0f 66bd d061 dfbd
00000020: fdf6 c83d f564 13bc b717 c1bd 2501 4abd
00000030: 35d9 b6bd f73c eb3d 9a13 953d 20dd 0b3e
00000040: c892 063d 8198 8bbd 7fa0 8ebd 58a7 e93d
00000050: df96 02bc b81c 78bd c4e0 c73d e142 1a3e
00000060: 21e8 023e 14fe 8bbd dea5 183e 399a 1e3d
00000070: 2f48 be3d c439 a2bd 3369 8ebd 786b ecbc
00000080: 0018 fabd e3ab ec3d 4048 25bd c5b4 b03d
00000090: b4b6 6e3d dcea b8bd 0cb6 813d 98d8 dc3d
000000a0: 1bcd 6b3d f597 18bc b63a 07bd ec10 babd
000000b0: 6ed1 063e ecae e8bd 4fa8 95bd f64d c13d
000000c0: b2a1 0a3e 0d31 023e c633 b1bd 9f66 d83d
000000d0: 1e3c 0d3e 9f41 12be 520a 763b 26a5 79bd
000000e0: 29a0 f63b 3c39 153e 6005 e2bd faa3 3a3d
000000f0: 0e32 f73d 4017 013e 9054 b73d fe0b fb3d
00000100: fcdb 20be ff12 5c3d 162a d23b fa72 4dbc
00000110: 8c06 c9bd a67a ed3d c171 5bbb f327 ae3d
00000120: d5ee a8bb 0ac0 b0bd f100 debd 544f a1bd
00000130: 60dd d6bd 03b6 f0bd a4ec a53c 8713 12bd
00000140: 6eca 15bd 85e6 8abd 937b e8bd bd21 b8bd
00000150: d169 03be a102 ee3c 17b5 133e c8f8 1e3e
00000160: e7e4 253e 8480 b7bd 4da0 8d3d 77e0 d7bb
00000170: 9fa6 a4bd cfe2 c23d 8826 bbbc 4d13 803d
00000180: 1492 d83d a702 ae3d 3da0 babd 6579 d63d
00000190: 51ec c6bd 3873 08be d69d e4bd fafe 77bd
000001a0: 5d20 a9bd c31c c7bd 0271 aeba 368f 6fbd
000001b0: 6df5 1c3c 6538 19bd 467a 0e3e 9306 f9bd
000001c0: b0c7 78bd a409 48b9 0dad b5bc 2113 87bc
000001d0: cbb7 2d3c 62cb f8bc 288f a63d 1030 6cbc
000001e0: 019e 0c3d 1f5c 19be 1b96 a03d 80f7 983d
000001f0: ea13 dbbc c745 c6bc 416b e7bd 1249 b43c
00000200: 77e4 733d 39cc 763d 6f6f 3c3d a7cc 87bd
00000210: 82cb a2bd 5466 fb3c 7889 393c 2d0a 2e3d
00000220: 04b5 223e 843b ea3d 28c5 8e3c 6ff7 85bc
00000230: cea7 5d3d 98d8 42bd bb80 073e fd21 953d
00000240: fb04 a23d 73ad 07be 3db0 3a3d 1c4e 9a3c
00000250: a1a5 90bd 0fa0 a43d 06cf 12be 923b d8bd
00000260: 709a 883d a0a5 0abe ae80 0a3e a253 733d
00000270: 58d2 14be 1e06 debd 99d6 783d 4fc3 8ebd
00000280: 78cb 183e 5418 59bd c504 2bbb 4887 a6bd
00000290: ee58 71bd 44e0 b73d 75f0 953d 2199 03be
000002a0: d63b 7fbc 9652 37bd f4de 953d 2cfb 03bc
000002b0: b683 973c 36a1 42bd a9a9 d73d ea83 4b3d
000002c0: 9680 a8bb 4c4e 913d 5ec2 40bb 252d 023e
000002d0: 0096 e7bd e33e 9abd 3064 d63d 79cb f0bd
000002e0: db31 a6bb 5af6 1dbe 138d adbd cac0 3dbd
000002f0: a41f 213e 0c86 0ebe 5960 68bd 29c1 9abd
00000300: 36b6 d5bd f372 893c 7be0 d8bd 127d 00be
00000310: 4b08 8bbd 896b 9abd 97ad 9abd 516f 5b3d
-0.11480551 0.06542563 0.11617479 -0.047583304 0.037667677 0.096414424 -0.05616693 -0.10907328
0.09812734 -0.008996238 -0.09428351 -0.049317498 -0.08928148 0.114862375 0.07279129 0.13658571
0.032854825 -0.06816197 -0.06964206 0.114088714 -0.007970541 -0.060574263 0.097596675 0.15064575
0.12783863 -0.06835571 0.14907023 0.038721297 0.09291112 -0.07921174 -0.06953659 -0.028859839
-0.12211609 0.11556222 -0.040352106 0.08628229 0.058279708 -0.09029171 0.06333551 0.107834995
0.05756865 -0.009313573 -0.033014975 -0.09085259 0.13165829 -0.11361489 -0.07307493 0.09438698
0.13538244 0.12714024 -0.08652453 0.105664484 0.13792464 -0.14282845 0.0037542772 -0.060948513
0.007526417 0.14572614 -0.110361814 0.045566536 0.12070094 0.12606525 0.08951676 0.12258147
-0.15708917 0.053729054 0.0064137084 -0.01253962 -0.09815702 0.11595659 -0.003348455 0.085037135
-0.005155424 -0.086303785 -0.10840023 -0.07876459 -0.10491443 -0.11753466 0.02025444 -0.035663154
-0.036570005 -0.06782249 -0.11351695 -0.0899081 -0.12833335 0.029053988 0.14424549 0.1552459
0.162006 -0.08960059 0.069153406 -0.0065880376 -0.08039593 0.095159166 -0.022845522 0.06253681
0.10574737 0.084966 -0.09112594 0.10472373 -0.097130425 -0.13325202 -0.11162917 -0.0605459
-0.08258126 -0.09722283 -0.0013308825 -0.058486186 0.009579998 -0.037407298 0.13913831 -0.12159457
-0.06073731 -0.00019077078 -0.022177244 -0.016488614 0.010602902 -0.030370418 0.08132774 -0.014415756
0.03433037 -0.14976548 0.0784113 0.07469082 -0.026742894 -0.024203194 -0.11299754 0.022007499
0.059544053 0.060253356 0.04600471 -0.06630831 -0.07948972 0.030688442 0.011324279 0.042490173
0.15889364 0.11437133 0.017427996 -0.016353337 0.05411511 -0.04756984 0.132327 0.072818734
0.07911106 -0.1324976 0.04557823 0.018836074 -0.07062841 0.08038341 -0.14336786 -0.10558237
0.066700816 -0.13539743 0.1352565 0.05940593 -0.14533365 -0.108410105 0.06075153 -0.06970846
0.14921367 -0.053001717 -0.0026095372 -0.081312716 -0.0589227 0.08978322 0.07321254 -0.12851383
-0.015578231 -0.044756494 0.073179156 -0.0080554895 0.018495422 -0.047517024 0.10530407 0.04968635
-0.0051422818 0.07095012 -0.0029412727 0.12712534 -0.11307907 -0.07531526 0.10468328 -0.11757559
-0.005071861 -0.15426007 -0.084741734 -0.046326436 0.15734726 -0.13918322 -0.05673251 -0.075563736
-0.104351446 0.016778445 -0.10589691 -0.1254771 -0.06788691 -0.07540042 -0.07552641 0.053572956

fc.weight f4 [1, 50]
00000000: 8acb ed3d 67d6 6bbb ccd9 dfbd 8b5b f03d
00000010: d3c8 0e3e 5a93 193e 1ec5 99bd 737a 51bd
00000020: fb67 de3d dee8 39bd 565b ca3d a816 12bc
00000030: 43ef 643c 72a8 40bc f0d8 6c3d 2b51 153e
00000040: 8185 123e 4db4 7bbd d247 013e f31b 353a
00000050: 7ce6 c13d 4810 a6bd 9626 a43d 79ef 02be
00000060: 904c d4bc 2293 b73d 9563 dfbd 8293 a03c
00000070: 291b dabd a759 fb3d 4f8c 0abd f04e 98bd
00000080: a1cc 4fbb b132 bb3c 9cf1 033e 4803 a6bd
00000090: c1c4 d13d 873c a73d 530f 1abe f366 bc3d
000000a0: cd5e 90bd 59af cc3d 738e 203c b656 623c
000000b0: 26db ebbd 0b02 13be 0a67 a3bd e2c1 c6bc
000000c0: f6a8 04bd ab29 2e3d
0.116110876 -0.0035985948 -0.10930213 0.117362104 0.13943796 0.14997616 -0.075083 -0.051142167
0.108596765 -0.045388095 0.09880702 -0.0089165345 0.01397306 -0.0117589105 0.057824075 0.14581744
0.1430874 -0.061451245 0.12625054 0.0006908767 0.094677895 -0.08108574 0.08015172 -0.12786664
-0.025915414 0.0896361 -0.10907666 0.019601587 -0.10649712 0.12272959 -0.033825215 -0.07436931
-0.0031707662 0.02285132 0.12885135 -0.081060946 0.10242606 0.081658415 -0.15044908 0.091993235
-0.07049332 0.099943824 0.009799588 0.013814619 -0.115164086 -0.14356248 -0.079786375 -0.024262372
-0.032387696 0.042520206
