models/BTC_USDT_model.pt (torch, 128181 bytes, 9 tensors)

lstm.weight_ih_l0 f4 [200, 1]
0	0x3d962ec6	0.0733314
1	0x3c5d8446	0.013520306
2	0x3cf15e87	0.02946402
3	0x3de166a2	0.11005904
4	0x3c84398c	0.016140722
5	0xbd97b282	-0.074070945
6	0xbd85425d	-0.065067984
7	0x3b3388a9	0.0027394688
8	0x3da8a491	0.082345136
9	0x3d11c587	0.035588767
10	0x3dd6c623	0.1048701
11	0x3ddfa6d5	0.109204926
12	0xbba0df58	-0.004909437
13	0x3df1a5ba	0.11799188
14	0x3d9a6a9d	0.07539866
15	0xbd9522cd	-0.07282028
16	0x3c0df1c3	0.0086635975
17	0xbc9adcb0	-0.01890406
18	0xbce546d7	-0.02798788
19	0xbd5aed6a	-0.053449072
20	0xbd18e5eb	-0.03732864
21	0xbc9a54a8	-0.018839195
22	0x3e081d41	0.1329241
23	0x3e1c972f	0.15292047
24	0xbde6f4b8	-0.11277145
25	0xbdf8bc63	-0.12145307
26	0x3c935c6f	0.017988412
27	0x3cc7dad1	0.024396332
28	0x3dc85d39	0.09783406
29	0xbc8d77ec	-0.017269097
30	0xbc476448	-0.012169905
31	0xbd17ada6	-0.03703084
32	0x3da37cce	0.07982789
33	0xbdd2fce1	-0.10302139
34	0xbdb06c4e	-0.086144075
35	0xbd3c541d	-0.045978654
36	0x3d99c1c4	0.07507661
37	0x3e1032e8	0.14081919
38	0xbd91f5f7	-0.07126992
39	0xbd7bc19d	-0.06146394
40	0x3cbfcb6f	0.023412434
41	0x3c38c03f	0.011276304
42	0x3d36b0bc	0.04460214
43	0x3d03af76	0.032149754
44	0x3cdf5ca5	0.027265856
45	0x3e1ff1de	0.15619609
46	0x3c692679	0.014230364
47	0xbe052a31	-0.13004376
48	0xbc71c116	-0.014755508
49	0xbc1c3a77	-0.0095354235
50	0xbd039ca6	-0.032131813
51	0xbd8e960a	-0.069622114
52	0x3d588c97	0.052868452
53	0xbcb5e620	-0.022204459
54	0x3caeb5e1	0.021326961
55	0x3e15048e	0.14552519
56	0xbe0248ca	-0.1272308
57	0x3ccd1009	0.02503206
58	0x3dbbf1cf	0.09176981
59	0xbdb9e325	-0.090765275
60	0xbcbb2ee8	-0.022849515
61	0xbc179c15	-0.009253521
62	0x3d82ca61	0.06386257
63	0xbdc97a55	-0.09837786
64	0x3d93f679	0.07224745
65	0x3e0d1760	0.13778448
66	0x3d676b65	0.056498904
67	0xbdcc47c0	-0.09974623
68	0x3d42bfd8	0.047546238
69	0xbb6830a5	-0.0035429385
70	0x3cb495bb	0.022044053
71	0xbdf40bb1	-0.119162925
72	0x3d34337b	0.043994408
73	0x3e1872fe	0.14887616
74	0x3cce1ade	0.025159296
75	0x3c8c6e57	0.017142458
76	0xbd840cfc	-0.06447789
77	0xbde86075	-0.11346523
78	0x3d0d95e9	0.034566794
79	0x3da154d0	0.07877505
80	0x3d6176eb	0.05504505
81	0xbd09a019	-0.033599947
82	0x3e0e1f4f	0.13879131
83	0xbc9c5a13	-0.01908592
84	0x3ca66cc1	0.02031553
85	0x3e08d5f4	0.13362867
86	0x3e2390cf	0.15973209
87	0xbc3ffa9d	-0.011717466
88	0x3b93feca	0.004516457
89	0x39b75901	0.00034970793
90	0x3e1c0a61	0.15238334
91	0xbd72c19f	-0.059266683
92	0xbc7119df	-0.014715641
93	0xbc88b47c	-0.016687624
94	0x3d8941e8	0.06702024
95	0x3dcab135	0.09897081
96	0x3cf742d7	0.030183239
97	0x3dc6b146	0.09701781
98	0x3d463051	0.048385922
99	0x3ddadb06	0.10686307
100	0xbdef344b	-0.11679896
101	0x3da62edc	0.081144065
102	0xbd8e60a0	-0.069520235
103	0xbe197faa	-0.14990106
104	0x3ca1e669	0.019763188
105	0x3e1caea1	0.1530099
106	0x3da00e70	0.07815254
107	0x3d28d1a1	0.041215543
108	0xbd216856	-0.039406143
109	0x3b722aaf	0.003695171
110	0xbc718bf7	-0.014742843
111	0x3ce3fa2e	0.027829256
112	0xbdce4381	-0.10071469
113	0xbb7ce6fc	-0.0038589826
114	0xbe107809	-0.1410829
115	0x3dfa1f37	0.12212985
116	0xbd8d0eee	-0.06887613
117	0xbde11e4e	-0.10992108
118	0x3dab2d1b	0.083582126
119	0x3dc79453	0.097450875
120	0xbe0631e6	-0.13104972
121	0xbe24b53c	-0.1608476
122	0x3dd46a46	0.103718325
123	0x3d8a2ac1	0.06746436
124	0xbe097641	-0.13424017
125	0x3b8eea08	0.004361395
126	0x3c811f42	0.015761975
127	0x3cc3e182	0.023911241
128	0x3c60ce44	0.013721053
129	0x3db19779	0.08671469
130	0x3db716b9	0.08939881
131	0x3d5d6c2c	0.05405824
132	0x3d46ae6c	0.048506185
133	0xbdbacad3	-0.09120717
134	0x3dce25a9	0.10065777
135	0xbe0776e0	-0.13228941
136	0xbe017cf8	-0.12645328
137	0x3db7ac2d	0.08968387
138	0xbdc9c821	-0.09852625
139	0xbb17eb0a	-0.0023180866
140	0xbe09927b	-0.13434784
141	0x3d781347	0.06056526
142	0xbdefabd5	-0.11702696
143	0xbd9bb1c8	-0.076022685
144	0x3d8f305e	0.06991647
145	0xbd8a2279	-0.067448564
146	0xbe11aab5	-0.14225276
147	0xbdf59865	-0.119919576
148	0x3dabfdd2	0.08398022
149	0x3da4baa2	0.0804341
150	0xbd431146	-0.047623895
151	0xbd819899	-0.06327934
152	0xbd872fdf	-0.066009276
153	0x3db10f23	0.08645465
154	0xbcb00777	-0.021487935
155	0x3dd82a2d	0.105549194
156	0xbdc3deeb	-0.095640026
157	0x3e239f8f	0.15978836
158	0xbcfa4ae0	-0.030553281
159	0x3e0e2d47	0.1388446
160	0x3e1fd421	0.15608265
161	0x3e0bbe16	0.13646731
162	0xbd6c65ee	-0.057714395
163	0xbbfed670	-0.007777028
164	0x3d71be26	0.05901923
165	0xbd990496	-0.07471578
166	0xbe06eda3	-0.13176589
167	0xbdbf80bb	-0.09350725
168	0x3c09b266	0.00840435
169	0xbc5dfba9	-0.01354877
170	0xbd883aff	-0.066518776
171	0xbde5ac43	-0.11214497
172	0xbdc87eea	-0.09789832
173	0x3d802449	0.06256921
174	0xbb69547b	-0.0035603333
175	0x3e09f29d	0.13471456
176	0x3d2e0b68	0.042491347
177	0x3e0ecc1d	0.1394505
178	0x3d80e0dd	0.06292889
179	0xbd5524c5	-0.05203702
180	0x3dbc29d5	0.09187666
181	0x3dc2eb48	0.095175326
182	0xbd89a67f	-0.0672121
183	0x3d120905	0.035653133
184	0x3c57ad72	0.013163911
185	0x3ddceac4	0.107869655
186	0x3e0be9e2	0.13663438
187	0x3dbd606f	0.09246909
188	0x3d7323a5	0.059360165
189	0x3db0b64b	0.086285196
190	0x3dcff220	0.101536036
191	0x3c55fa37	0.013060144
192	0xbde90e48	-0.11379677
193	0xbcd24616	-0.025668185
194	0xbb56c2c5	-0.00327699
195	0x3d7b10d7	0.061295357
196	0xbd7ec5fc	-0.06220053
197	0x3d8ebc15	0.069694676
198	0x3b41b17a	0.0029555247
199	0xbd824426	-0.063606545

lstm.weight_hh_l0 f4 [200, 50]
0	0xbca5fd7a	-0.020262469
1	0xbd6b18d5	-0.05739673
2	0xbd92a922	-0.07161166
3	0x3dbc67f3	0.09199514
4	0xbd79ec63	-0.06101645
5	0xbd649d69	-0.05581418
6	0x3e010629	0.12600006
7	0x3dc86cd7	0.097863846
8	0xbdbd3e81	-0.09240437
9	0xbdf420c4	-0.11920312
10	0x3e088e56	0.13335547
11	0x3d925c4c	0.071465105
12	0x3d582ba0	0.05277598
13	0x3dbb4951	0.09144843
14	0x3d9e6ef2	0.07736005
15	0x3dfd0eb0	0.12356317
16	0x3daa67f2	0.08320607
17	0x3c90b1cd	0.017662907
18	0x3df72f40	0.12069559
19	0xbd2f9877	-0.04287001
20	0xbddb4226	-0.10705976
21	0x3d840d9b	0.064479075
22	0x3d8708c3	0.06593468
23	0xbbe83ea5	-0.007087546
24	0x3e017f89	0.12646307
25	0x3d5c7b58	0.053828567
26	0xbde9ce33	-0.114162825
27	0xbde553aa	-0.11197598
28	0x3e0219ee	0.12705204
29	0xbd0c2f7d	-0.034224976
30	0xbde8e0a5	-0.113709725
31	0xbdc6e5a1	-0.09711767
32	0xbdfb2b13	-0.12264075
33	0xbc255ab1	-0.010092423
34	0x3df0e22a	0.11761887
35	0x3cedfadd	0.029050285
36	0x3db185b8	0.08668083
37	0x3e085284	0.13312727
38	0x3d713926	0.05889239
39	0xbddaaad4	-0.10677114
40	0x3db97d5d	0.09057114
41	0xbda93f91	-0.082640775
42	0xbcd7910e	-0.026314285
43	0x3d708ab2	0.05872602
44	0x3dfa89c3	0.12233307
45	0x3e088be4	0.13334614
46	0x3dee39eb	0.11632141
47	0x3de035da	0.10947771
48	0xbdb23c84	-0.08702949
49	0xbd612d77	-0.054975
50	0x3d888ac2	0.06667091
51	0xbd41b213	-0.047288965
52	0xbd3b8ffb	-0.045791607
53	0xbc403f45	-0.011733835
54	0x3da11097	0.078644924
55	0x3e166760	0.14687872
56	0xbc590e59	-0.01324805
57	0xbe059dfe	-0.1304855
58	0x3e1ab4fa	0.151081
59	0x3dd47ef4	0.10375777
60	0x3d3b4bef	0.045726713
61	0xbd2f8d79	-0.04285953
62	0xbde9618b	-0.11395558
63	0x3db4a194	0.08819881
64	0xbe0eeff7	-0.13958727
65	0x3d635517	0.05550107
66	0xbdc5f0c5	-0.09665064
67	0x3d8c176f	0.06840407
68	0xbdb6195f	-0.08891558
69	0xbdbfa194	-0.093569905
70	0xbd977bd1	-0.07396663
71	0xbde8424f	-0.11340772
72	0x3de387eb	0.11109909
73	0xbdb21119	-0.08694667
74	0xbdeabb45	-0.114615
75	0x3d88e4fe	0.06684302
76	0xbdabe4e4	-0.08393267
77	0x3d0b3565	0.033986468
78	0xbdb336e7	-0.08750706
79	0xbd526a71	-0.05137104
80	0x3c160264	0.009155843
81	0x3bce0ea4	0.0062883664
82	0x3c86b450	0.016443402
83	0x3daa9177	0.083285265
84	0x3e1c4555	0.15260823
85	0xbdf7c1db	-0.12097522
86	0xbce6682c	-0.028125845
87	0x3d5d260f	0.053991374
88	0xbdb74245	-0.08948187
89	0x3dc55778	0.09635824
90	0xbd162cc3	-0.03666378
91	0x3df07f16	0.1174299
92	0xbe0f666e	-0.14003918
93	0x3e1f8b34	0.15580446
94	0xbddbd5ef	-0.10734164
95	0xbd83c8a7	-0.06434756
96	0x3da5f444	0.081032306
97	0x3c84c969	0.016209321
98	0x3dee6825	0.11640958
99	0x3ca5b34d	0.020227099
100	0x3db55741	0.08854533
101	0xbc1e790a	-0.009672413
102	0x3cc46517	0.023973985
103	0x3d09e8d7	0.03366932
104	0xbdbd186d	-0.092331745
105	0xbc8afe23	-0.016966885
106	0x3d05edde	0.03269755
107	0xbbf6071f	-0.007508173
108	0x3ca87e20	0.020567954
109	0xbc816cb2	-0.0157989
110	0x3d45b26f	0.04826587
111	0x3e27fd4b	0.16405217
112	0xbd8f94b6	-0.07010786
113	0x3dab4d09	0.08364303
114	0xbc9de5ef	-0.01927468
115	0xbbc6e0fe	-0.0060693016
116	0xbe0897cd	-0.13339157
117	0xbb771550	-0.0037701912
118	0xbe0d730b	-0.13813417
119	0x3e258475	0.1616381
120	0x3d62ac27	0.05533996
121	0x3df23529	0.11826546
122	0xbdb104ac	-0.08643469
123	0xbc5c15bc	-0.013432916
124	0x3da9fd41	0.083002575
125	0x3e0d99ff	0.13828276
126	0x3da1d5c9	0.079021044
127	0x3d0345f2	0.032049127
128	0x3dad6cee	0.08468042
129	0xbd6146c6	-0.054999135
130	0xbda25685	-0.079266585
131	0xbd3655f2	-0.044515558
132	0xbd65a5ed	-0.056066442
133	0xbe059764	-0.13046032
134	0xbce24e62	-0.027625266
135	0xbc443d26	-0.01197747
136	0x3ae8057d	0.0017701831
137	0xbdb1d566	-0.08683281
138	0xbdc28b61	-0.09499241
139	0x3baa51ea	0.005197753
140	0x3d995996	0.0748779
141	0x3d2d5324	0.042315617
142	0x3d33a325	0.04385676
143	0xbdf901d3	-0.12158551
144	0x3dde17cc	0.10844383
145	0xbb8da156	-0.0043222113
146	0x3dbe0128	0.09277564
147	0x3db89070	0.09011924
148	0xbc39f94b	-0.01135094
149	0x3dd78843	0.10524037
150	0x3d32ae75	0.043623406
151	0xbd657827	-0.05602279
152	0x3c5c0361	0.01342854
153	0x3c1e0b83	0.009646299
154	0x3daccd59	0.084376045
155	0x3db703af	0.089362495
156	0xbb26ab92	-0.0025431854
157	0xbd941f79	-0.072325654
158	0xbc9e3439	-0.019312011
159	0xbd7c590e	-0.061608367
160	0x3e1e4896	0.15457377
161	0xbad96c58	-0.0016588075
162	0xbcf7ebd2	-0.030263815
163	0x3d59fa8f	0.053217467
164	0x3db0afb6	0.08627264
165	0xbe17f516	-0.14839587
166	0x3d1efe3b	0.03881667
167	0x3d1c8819	0.03821573
168	0x3e020ae3	0.12699465
169	0xbe1a834d	-0.1508915
170	0x3de325c3	0.11091187
171	0xbd52abc4	-0.05143334
172	0xbd60e740	-0.054908037
173	0xbdcdcedd	-0.10049222
174	0xbdf9e767	-0.122023396
175	0xbc0d1250	-0.008610323
176	0xbdd5d12d	-0.10440288
177	0x3c9bd29d	0.019021327
178	0xbdab7d26	-0.083734795
179	0x3c94b91f	0.018154679
180	0x3dce9473	0.10086908
181	0xbc18265d	-0.00928649
182	0xbd73a7d1	-0.059486214
183	0x3c229b68	0.009924747
184	0x3dfe4514	0.12415519
185	0xbdb69681	-0.08915425
186	0x3c117a90	0.008879319
187	0x3a07de65	0.00051829807
188	0x3dc3a88b	0.095536314
189	0xbe1251fa	-0.14289084
190	0x3dc67ac1	0.09691382
191	0xbdcc5d7a	-0.09978767
192	0xbcc104a3	-0.023561781
193	0xbcf7aa31	-0.03023252
194	0x3d312183	0.04324485
195	0xbdda11be	-0.10647915
196	0x3cca1a42	0.024670724
197	0xbd80d656	-0.06290881
198	0xbd7a051e	-0.061040036
199	0x3dd10307	0.102056555
200	0x3d1a0ef1	0.037611905
201	0xbdab62d0	-0.08368456
202	0x3d3397fb	0.04384611
203	0xbe19105a	-0.14947644
204	0x3da561a9	0.08075268
205	0x3d52089a	0.051277734
206	0xbdca7135	-0.09884874
207	0x3bfa07ba	0.0076303156
208	0xbd8c025c	-0.068363875
209	0xbdb93e3c	-0.090450734
210	0x3dd3c459	0.10340185
211	0x3da9cae3	0.08290651
212	0x3d0e4a48	0.03473881
213	0xbd32cdd7	-0.043653335
214	0x3dc78d38	0.09743732
215	0xbd33acc6	-0.04386594
216	0x3e0c34bd	0.13691993
217	0xba1e927e	-0.0006049051
218	0xbd9cf38a	-0.07663639
219	0xbe129461	-0.14314415
220	0x3ca34c4f	0.019933848
221	0xbd1f5b6e	-0.038905554
222	0xbdb2e01a	-0.0873415
223	0x3dfd7205	0.12375263
224	0xbd49d08a	-0.049271144
225	0x3db9d92f	0.090746276
226	0x3d91c522	0.07117678
227	0xbd8d0b82	-0.068869606
228	0x3cb26df7	0.021780951
229	0xbd6fb7fd	-0.058525074
230	0xbdbd1ffe	-0.09234618
231	0x3d06ba20	0.032892346
232	0x3d354eea	0.04426471
233	0xbd711bf0	-0.058864534
234	0x3ad53182	0.0016265365
235	0x3ac9e210	0.0015402455
236	0x3d1fa2b1	0.038973514
237	0xbd88e62c	-0.06684527
238	0xbdc0f23a	-0.09421201
239	0x3d339d51	0.0438512
240	0xbbed5680	-0.0072429776
241	0xbbfa0971	-0.00763052
242	0xbdb28380	-0.08716488
243	0x3d25a14e	0.040437035
244	0xbd1b6b43	-0.03794409
245	0xbca1d5fb	-0.019755354
246	0x3da6f3b4	0.081519514
247	0x3d0d195a	0.034448005
248	0x3dbe195e	0.09282182
249	0x3e152154	0.14563495
250	0xbdce80ee	-0.10083185
251	0xbda00d46	-0.07815032
252	0x3b887b65	0.0041651004
253	0xbd260396	-0.040530764
254	0x3dc19aeb	0.094533764
255	0x3ca378b7	0.019955022

lstm.bias_ih_l0 f4 [200]
0	0xbd757ff3	-0.059936475
1	0x3dd8a94a	0.10579164
2	0x3dbd7af4	0.09251967
3	0x3d3f86e8	0.046759516
4	0xbd8a38f9	-0.06749148
5	0xbdeb94b0	-0.11502969
6	0x3e12ad76	0.14323983
7	0xbc6fddfc	-0.014640328
8	0xbddb76c7	-0.10716014
9	0x3de8d5dd	0.11368916
10	0xbdca4988	-0.09877306
11	0x3e1281c5	0.14307316
12	0x3e195ccb	0.14976804
13	0xbcd3174d	-0.025767947
14	0x3dd21d8e	0.10259543
15	0x3dceb3aa	0.10092862
16	0x3b470366	0.0030367016
17	0x3a9dafd3	0.0012030549
18	0xbde1726c	-0.11008152
19	0xbc041dbc	-0.00806373
20	0xbcd415bc	-0.02588927
21	0x3df528e1	0.11970688
22	0x3e13417d	0.1438045
23	0x3dfd4f64	0.12368658
24	0xbde66527	-0.11249762
25	0x3d12e5b9	0.03586361
26	0x3d7de256	0.06198343
27	0xbdde544b	-0.10855921
28	0x3e1abf53	0.15112047
29	0x3bec0681	0.0072029238
30	0x3db25d08	0.087091506
31	0xbc62e372	-0.0138481725
32	0xbdf0d2ae	-0.11758934
33	0xbd2922aa	-0.041292824
34	0xbdc591cd	-0.0964695
35	0x3e0a55b1	0.13509251
36	0x3d8137c1	0.06309462
37	0xbd9d3489	-0.07676036
38	0x3e02b9e6	0.12766227
39	0xbdb9f55e	-0.09080003
40	0x3dc1f32a	0.09470208
41	0x3da9413f	0.08264398
42	0x3da58eec	0.08083901
43	0x3e2440b1	0.16040303
44	0x3e04ff7d	0.12988086
45	0x3dd49b56	0.103811905
46	0x3dd35a29	0.10319931
47	0x3c99c56d	0.018770898
48	0xbcfb0665	-0.030642698
49	0x3d9c0f5b	0.07620116
50	0xbd8683fd	-0.065681435
51	0xbdb71165	-0.089388646
52	0xbd1bf5e3	-0.038076293
53	0x3e237833	0.15963821
54	0xbde8026f	-0.11328589
55	0xbdaecd23	-0.085352205
56	0x3de33cf6	0.11095612
57	0x3c5300b5	0.012878587
58	0xbbff518d	-0.007791704
59	0x3d989546	0.07450347
60	0xbd0ca8a8	-0.03434053
61	0x3b88f5bc	0.0041796844
62	0xbdb6175b	-0.088911735
63	0x3df2ee1c	0.11861822
64	0x3e08d0ee	0.1336095
65	0xbb44325f	-0.002993725
66	0xbda22169	-0.07916529
67	0xbdd26dc8	-0.10274845
68	0x3d8b25b2	0.06794299
69	0x3de3136e	0.1108769
70	0xbd32ba0d	-0.043634463
71	0xbd8c1528	-0.06839973
72	0xbdc7af1f	-0.097501986
73	0xbcbadbb2	-0.022809837
74	0xbdc2de42	-0.095150486
75	0x3dd279f6	0.102771685
76	0xbb8cf452	-0.004301586
77	0xbd3d4137	-0.04620477
78	0xbd7abb4a	-0.06121377
79	0x3db307b8	0.087417066
80	0x3d2d63ad	0.042331386
81	0xbd2e91c4	-0.04261948
82	0xbda50e11	-0.080593236
83	0x3d2c73b1	0.04210252
84	0xbd8d21ce	-0.06891213
85	0xbcf9449c	-0.030428223
86	0x3d30a125	0.04312243
87	0x3e120e4e	0.1426327
88	0x3dd279a6	0.10277109
89	0x3d4ff627	0.05077186
90	0xbdd620ae	-0.10455452
91	0xbc7462fe	-0.01491618
92	0x3d43ed94	0.047833994
93	0xbcad753b	-0.021174064
94	0x3bd4fe66	0.006500053
95	0x3cdbcf14	0.026832141
96	0xbdf29f9d	-0.1184685
97	0x3d4fc03a	0.05072043
98	0xbc24406f	-0.010025128
99	0x3cff959e	0.031199273
100	0x3d89211f	0.066957705
101	0xbd62d1ad	-0.055375744
102	0xbdc7562c	-0.09733233
103	0x3bf254da	0.007395369
104	0xbe08642b	-0.13319461
105	0xbd4997a6	-0.04921689
106	0x3e06fae5	0.13181646
107	0xbdec931e	-0.11551498
108	0x3dd4c574	0.10389224
109	0x3da9ccfa	0.08291049
110	0x3d51818b	0.051148932
111	0xbe18912e	-0.14899132
112	0x3d947086	0.07248025
113	0xbdff329d	-0.124608256
114	0xbcfa71e4	-0.030571885
115	0xbddacb44	-0.10683301
116	0xbcfefd6b	-0.031126698
117	0xbdc0195d	-0.09379838
118	0xbb4ed836	-0.0031561977
119	0xbe10b3c6	-0.14131078
120	0x3d5eaaf1	0.05436224
121	0xbdbf9e29	-0.093563385
122	0xbd4fae20	-0.050703168
123	0x3e137ff7	0.14404283
124	0xbd9fa436	-0.077949926
125	0x3dacf666	0.08445434
126	0xbccce220	-0.025010169
127	0x3cad7f26	0.021178793
128	0xbdb1144f	-0.08646452
129	0x3de56ab1	0.112019904
130	0x3e219aec	0.15781754
131	0xbdd18f66	-0.10232429
132	0x3ddacc97	0.10683554
133	0x3de053ee	0.10953508
134	0x3b043d21	0.0020178037
135	0x3dcf61b1	0.10126055
136	0x3c59e708	0.013299711
137	0x3dfe87c4	0.12428239
138	0x3e02ab93	0.12760763
139	0x3c040e6f	0.008060082
140	0x3df2f712	0.11863531
141	0x3e203333	0.15644531
142	0x3dbb76dc	0.0915353
143	0x3de3aedc	0.11117336
144	0xbdccad5f	-0.099940054
145	0x3e21e5e9	0.1581036
146	0xbd9857f5	-0.074386515
147	0x3e1a4fe9	0.15069546
148	0xbd1806ee	-0.037115984
149	0x3df2ebe3	0.11861398
150	0xbd9b8cfb	-0.07595249
151	0x3dc0f843	0.09422352
152	0xbcd4ccbc	-0.025976531
153	0x3d48b146	0.048997186
154	0x3dc1d518	0.094644725
155	0xbdb1683b	-0.086624585
156	0x3e0697a3	0.13143782
157	0x3dfe22c0	0.12408972
158	0xbde8b673	-0.113629244
159	0xbce1de85	-0.027571926
160	0xbdde14d4	-0.108438164
161	0xbddb1f60	-0.10699344
162	0x3dae17c0	0.08500624
163	0x3d4ccc90	0.049999774
164	0x3d99074d	0.07472096
165	0xbdb604fa	-0.08887668
166	0xbd765016	-0.06013497
167	0x3def32e2	0.11679627
168	0x3c582f63	0.013194892
169	0xbd5b7ff0	-0.053588808
170	0x3dcddb0c	0.100515455
171	0xba8ac2e3	-0.0010586645
172	0xbd43602f	-0.04769915
173	0x3e1035cc	0.14083022
174	0xbaff1a49	-0.001946279
175	0xbc7fb0f0	-0.01560615
176	0x3c5b73ce	0.013394309
177	0x3e0e26df	0.13882016
178	0xbc1ecfed	-0.009693128
179	0x3db4c01b	0.08825704
180	0xbd42a3ad	-0.047519375
181	0x3e12e763	0.1434608
182	0xbdcc08e2	-0.09962632
183	0xbded9894	-0.116013676
184	0xbdf20d3f	-0.11818933
185	0x3e1a0225	0.1503988
186	0xbdabd1c0	-0.08389616
187	0x3c549282	0.012974383
188	0xbd5beb9c	-0.05369149
189	0x3d2b6aaa	0.04184977
190	0xbdccb194	-0.09994808
191	0x3d62b248	0.055345803
192	0xbd7ad436	-0.061237536
193	0x3cb91136	0.022591215
194	0x3d5082ce	0.050905995
195	0x3de541fd	0.11194227
196	0x3ce89999	0.028393554
197	0xbdb111fa	-0.08646007
198	0xbdbe7802	-0.093002334
199	0xbc1a5a08	-0.009420879

lstm.bias_hh_l0 f4 [200]
0	0xbd85bdf8	-0.06530374
1	0xbd79b264	-0.060961142
2	0xbdac8060	-0.08422923
3	0x3c9ce6dd	0.019153053
4	0xbd456d9d	-0.04820024
5	0xbd93f719	-0.072248645
6	0x3d9259bf	0.07146024
7	0xbdef726a	-0.116917446
8	0x3db5ca33	0.08876457
9	0xbd10790e	-0.035271697
10	0x3d8e376c	0.06944165
11	0x3d0703cd	0.03296261
12	0xbd418871	-0.04724926
13	0x3e13e546	0.1444293
14	0xbdde53d6	-0.10855834
15	0x3c2ecfee	0.0106696915
16	0x3dc07a2d	0.09398303
17	0x3dc3a732	0.09553374
18	0x3e055f79	0.13024701
19	0xbd641999	-0.055688474
20	0xbe07399a	-0.13205567
21	0x3cacbe80	0.021086931
22	0xbcb2f48a	-0.021845121
23	0x3d58e311	0.052950922
24	0x3de8ba5a	0.11363669
25	0x3c764eeb	0.015033464
26	0x3db70471	0.08936394
27	0xbd86ed8b	-0.065882765
28	0x3dcb1ad0	0.099172235
29	0xbded99e7	-0.1160162
30	0xbbbd596b	-0.0057784817
31	0x3de77977	0.113024645
32	0xbdd2711d	-0.10275481
33	0x3dd1b80c	0.10240182
34	0xbd2b61a2	-0.041841157
35	0xbcc768dc	-0.024341993
36	0xbd293368	-0.04130879
37	0x3d16baba	0.03679917
38	0x3cfb0616	0.03064255
39	0xbc07b4ff	-0.008282899
40	0xbdde5433	-0.108559035
41	0xbaacf642	-0.0013195949
42	0x3e188e67	0.14898072
43	0x3d9a7e3e	0.0754361
44	0x3c230a90	0.009951249
45	0x3db1597b	0.08659645
46	0x3e1f3aec	0.1554982
47	0x3dc17df3	0.09447851
48	0x3d15e898	0.03659877
49	0x3caab2b8	0.020837173
50	0xbdefc727	-0.11707907
51	0xbddea49f	-0.10871243
52	0x3d8921a8	0.066958725
53	0x3bdf715e	0.0068189343
54	0xbdcb385d	-0.0992286
55	0x3dedcd27	0.11611395
56	0xbdaa1786	-0.08305268
57	0x3e16545c	0.14680618
58	0x3d59c1eb	0.05316345
59	0x3e19fdfe	0.15038297
60	0xbd57a402	-0.052646644
61	0xbde2dac1	-0.1107688
62	0x3da17808	0.07884222
63	0xbd5c8e68	-0.053846747
64	0xbdab3c8a	-0.08361156
65	0xbce27db3	-0.027647829
66	0xbd80743b	-0.06272169
67	0xbdda9ea6	-0.10674791
68	0x3dfeedd8	0.12447709
69	0x3e193c61	0.14964439
70	0xbd294ac9	-0.041331086
71	0x3a9fcd4a	0.0012191918
72	0xbce1fd35	-0.027586559
73	0x3d1312b1	0.035906497
74	0xbd041eab	-0.03225581
75	0xbe0421f3	-0.12903576
76	0xbdd23abb	-0.10265108
77	0xbc40499e	-0.011736302
78	0xbb395f92	-0.0028285724
79	0xbda410e8	-0.08011037
80	0x3b503220	0.0031768158
81	0x3df068ae	0.11738716
82	0xbd1408ce	-0.03614121
83	0xbd711a68	-0.058863074
84	0xbd876d2e	-0.06612621
85	0x3c1ffb8a	0.009764561
86	0xbdbde732	-0.09272613
87	0x3de4d916	0.11174218
88	0x3e185429	0.14875855
89	0x3cdb10f7	0.026741488
90	0x3dfaa273	0.12238016
91	0x3d9e3899	0.07725639
92	0xbdfca402	-0.123359695
93	0xbd8c15a7	-0.06840067
94	0xbc1c4dda	-0.009540046
95	0xbdde43e0	-0.1085279
96	0x3de543f8	0.11194605
97	0x3ddcbdff	0.107784264
98	0x3cd2b370	0.025720328
99	0x3d528758	0.051398605
100	0xbda98345	-0.08276991
101	0x3dd16f89	0.10226352
102	0x3de8663f	0.11347627
103	0x3df1ea89	0.11812312
104	0xbc7f8b23	-0.015597138
105	0x3d60c394	0.054874018
106	0x3df780af	0.12085091
107	0xbde0eaee	-0.10982309
108	0x3dbaef5f	0.09127688
109	0x3d81f3ff	0.06345367
110	0x3e107efe	0.14110944
111	0x3d886741	0.06660319
112	0xbc8a8df4	-0.016913392
113	0x3cecebb5	0.028920988
114	0x3c7f336a	0.015576223
115	0xbdb6c15c	-0.08923599
116	0x3dba667f	0.09101581
117	0xbdf69029	-0.12039215
118	0x3e05274e	0.13003275
119	0xbd0402f4	-0.03222938
120	0xbe0ce772	-0.13760164
121	0x3d2ad720	0.041709065
122	0x3e185ca8	0.14879096
123	0x3d74c8c6	0.059761785
124	0xbc875595	-0.0165203
125	0xbdfa3641	-0.12217379
126	0x3d955cb7	0.072930746
127	0x3ce141fa	0.02749728
128	0x3e06de53	0.13170747
129	0x3e1ff49c	0.15620655
130	0x3d71b8e2	0.05901421
131	0x3e1d8d68	0.15385973
132	0x3ccfcd67	0.025366498
133	0x3dcd61d1	0.100284226
134	0x3dbf15b3	0.09330311
135	0xbd3da96b	-0.046304148
136	0xbe1b0d16	-0.1514171
137	0x3d11510c	0.035477683
138	0x3db1af96	0.086760685
139	0xbd810297	-0.06299322
140	0xbe19d9a9	-0.15024437
141	0x3dda0b91	0.10646737
142	0xbc889255	-0.016671339
143	0x3d8f3cbd	0.06994007
144	0x3dda2d64	0.10653189
145	0x3d521cc2	0.051296957
146	0x3cac808f	0.021057395
147	0x3d5e9608	0.0543423
148	0xbda2ae63	-0.07943418
149	0xbbbb7777	-0.0057210284
150	0x3d7368ec	0.059426233
151	0x3dafa9af	0.085772865
152	0xba4b0956	-0.00077452266
153	0x3dfc1bb6	0.12309973
154	0x3dfd3b86	0.12364869
155	0x3d98765c	0.0744445
156	0x3e096e09	0.13420881
157	0xbd8d3902	-0.06895639
158	0xbdcfc855	-0.10145632
159	0x3e1b8193	0.15186147
160	0x3e00b462	0.1256881
161	0x3d9ea1d8	0.07745713
162	0xbd7a88ee	-0.061165743
163	0x3e0cd7b6	0.13754162
164	0x3d5e143f	0.054218527
165	0x3cba70f7	0.022758944
166	0x3d3e8778	0.04651591
167	0xbd81d417	-0.06339281
168	0xbd98dcd7	-0.07463997
169	0x3ce26361	0.027635278
170	0x3d5c5aa4	0.05379738
171	0x3bfb24cd	0.007664299
172	0xbdca303b	-0.098724805
173	0xbc401ed9	-0.011726105
174	0x3c737a3b	0.014860685
175	0x3e004b74	0.12528783
176	0x3dabc870	0.0838784
177	0xbd1beb45	-0.038066167
178	0x3db26c00	0.087120056
179	0xbd8a20f6	-0.06744568
180	0x3e24ab1a	0.16080895
181	0xbdd9ec15	-0.10640732
182	0xbdad2ec6	-0.08456187
183	0xbd2cf6bc	-0.04222749
184	0x3d8a086c	0.067398876
185	0x3e1b5db9	0.15172471
186	0x3e0c106d	0.13678141
187	0xbd855111	-0.06509603
188	0x3e17f383	0.14838986
189	0xbe082529	-0.13295425
190	0xbcecd674	-0.028910853
191	0x3e01a715	0.12661393
192	0x3d4bd561	0.04976404
193	0x3d7d104e	0.061783127
194	0x3d7d8968	0.06189862
195	0xbc36344f	-0.01112087
196	0x3e0b4cab	0.13603465
197	0xbbcafc3f	-0.006194621
198	0xbdc39388	-0.09549624
199	0x3c1626d1	0.009164528

lstm.weight_ih_l1 f4 [200, 50]
0	0xbb8df0f3	-0.004331702
1	0xbe011224	-0.12604576
2	0xbd7502f6	-0.059817277
3	0x3d503552	0.0508321
4	0xbdbe0238	-0.09277767
5	0xbe0d9cdb	-0.13829367
6	0xbd8e268b	-0.06940945
7	0x3e001d15	0.12511094
8	0x3dc97b50	0.09837973
9	0x3de0ed73	0.1098279
10	0x3b5a6db6	0.0033329553
11	0x3e18085f	0.14846943
12	0x3d9a4245	0.07532171
13	0xbd1d15a1	-0.038350705
14	0xbb95942d	-0.004564783
15	0x3df7a603	0.12092211
16	0xbd7a12a7	-0.061052945
17	0x3da29240	0.07938051
18	0x3d7b65e8	0.061376482
19	0xbdc18915	-0.094499744
20	0x3dbe55d5	0.09293715
21	0x3d3bca97	0.0458475
22	0xbdbcff35	-0.092283644
23	0xbd314344	-0.04327704
24	0x3e072585	0.13197906
25	0x3dd8e954	0.10591379
26	0xbd1b4719	-0.0379096
27	0xbdcd53cd	-0.10025749
28	0x3df04616	0.11732118
29	0x3d9a682f	0.07539403
30	0x3d95a737	0.07307284
31	0xbdd0edc6	-0.10201602
32	0xbc2d05d2	-0.01056047
33	0x3d155bd4	0.036464527
34	0xbd9bd240	-0.076084614
35	0x3ddd0d15	0.10793511
36	0x3d979f0c	0.07403383
37	0xbe049d6a	-0.12950674
38	0x3d1994ff	0.03749561
39	0xbcc0c9b5	-0.023533681
40	0x3d900667	0.07032471
41	0x3dea69d5	0.11445967
42	0x3d972fcd	0.07382164
43	0x3d86dd61	0.065851934
44	0xbce917dc	-0.02845376
45	0xbdab57e3	-0.083663724
46	0xbcee9e52	-0.029128227
47	0xbe2114f6	-0.15730652
48	0xbcffbf7e	-0.03121924
49	0xbd65ebc3	-0.056133043
50	0xbd9dfd93	-0.07714381
51	0x3e165447	0.14680587
52	0x3d6987d6	0.05701431
53	0xbe1865ed	-0.14882632
54	0xbd23dd6d	-0.04000609
55	0xbd635e13	-0.055509638
56	0xbd9209ab	-0.0713075
57	0x3ca7c8e3	0.020481532
58	0x3e029ade	0.1275439
59	0xbdda2592	-0.10651697
60	0xbd77d45f	-0.060505267
61	0xbddfcf96	-0.10928266
62	0xbd2f7cd8	-0.04284367
63	0x3d3045e9	0.04303542
64	0x3d62e533	0.055394363
65	0x3de8601b	0.11346456
66	0x3e0b6247	0.13611709
67	0xbdc8b1d5	-0.09799544
68	0x3da5d9fa	0.08098216
69	0x3dfc9424	0.12332943
70	0x3dc16279	0.0944261
71	0xbc508ed5	-0.012729366
72	0x3ddc097e	0.10743998
73	0x3c36126c	0.011112791
74	0xbdca5463	-0.09879377
75	0x3dd3b8ae	0.10337959
76	0x3e1fc477	0.15602289
77	0xbdeea284	-0.11652091
78	0x3cea79e0	0.028622568
79	0x3d8d84d1	0.06910098
80	0x3dd2b2bd	0.10287998
81	0xbdb6864e	-0.08912335
82	0xbe018102	-0.12646869
83	0x3cab9178	0.020943388
84	0xbd417264	-0.047228232
85	0xbdedfa4a	-0.116200045
86	0x3c76fb8e	0.015074624
87	0x3e151940	0.14560413
88	0x3daf41fd	0.08557508
89	0x3db72d86	0.0894423
90	0x3cc7ff43	0.02441371
91	0xbd94fffb	-0.07275387
92	0xbdc41cba	-0.09575792
93	0x3dfaf850	0.12254393
94	0xbd2af8fc	-0.041741356
95	0xbe00d61c	-0.12581676
96	0x3cecbdc2	0.028899077
97	0xbbdbf617	-0.006712686
98	0xbd889370	-0.066687465
99	0xbdfe39a4	-0.12413338
100	0xbd70cca1	-0.0587889
101	0x3c06cf10	0.0082280785
102	0x3d95dae1	0.073171385
103	0xbe0e476c	-0.13894433
104	0xbe15666e	-0.14589855
105	0xbd2ea979	-0.04264209
106	0x3dccd571	0.10001648
107	0xbe03cbda	-0.12870732
108	0xbd0f3290	-0.03496033
109	0x3e04255a	0.12904873
110	0x3d7b3a40	0.06133485
111	0xbdf78e59	-0.120876975
112	0xbe03eac6	-0.12882528
113	0xbc3f299e	-0.011667637
114	0xbde1356b	-0.10996517
115	0x3dacc615	0.08436219
116	0x3d71ffd5	0.05908187
117	0x3de88b8d	0.11354742
118	0x3e05a78b	0.13052194
119	0xbd3d005a	-0.046142913
120	0xbd16e23f	-0.03683686
121	0xbdc3d2c4	-0.09561685
122	0xbdec4feb	-0.11538681
123	0xbc500299	-0.012695932
124	0x3de43803	0.11143496
125	0x3d814968	0.06312829
126	0x3d66a6ca	0.056311406
127	0x3d804854	0.062637955
128	0x3d8326be	0.06403874
129	0x3df2cfc5	0.11856035
130	0x3daf98b2	0.08574046
131	0xbd40d645	-0.047079343
132	0x3db0d39f	0.086341135
133	0x3d9ac455	0.075569786
134	0xbdbb0d63	-0.09133413
135	0x3db2b2e4	0.08725527
136	0xbd257203	-0.040391933
137	0x3d10b76d	0.03533118
138	0xbd5eeb59	-0.054423664
139	0x3dca92d5	0.09891287
140	0x3d13a961	0.036050204
141	0xbdbf1be7	-0.09331494
142	0x3dc5973c	0.09647986
143	0xbb5c7862	-0.003364109
144	0xba95fd0a	-0.0011443209
145	0xbbe616b8	-0.0070217513
146	0x3d3cd4eb	0.046101492
147	0xbdd97d35	-0.106195845
148	0xbd863f34	-0.06555024
149	0x3e09ec7b	0.13469116
150	0xbde03e77	-0.10949414
151	0x3d2c2cbc	0.04203485
152	0xbe073176	-0.13202462
153	0xbd077907	-0.033074405
154	0x3df4ebe0	0.11959052
155	0x3e04e727	0.12978803
156	0x3df42dc2	0.1192279
157	0xbc7e37a4	-0.015516195
158	0x3e075a75	0.132181
159	0x3de57745	0.112043895
160	0x3df2a1c2	0.11847259
161	0x3e056adb	0.13029043
162	0xbd910d99	-0.07082672
163	0xbddf6e4e	-0.10909711
164	0x3e10673a	0.14101878
165	0xbabce60e	-0.0014411823
166	0x3bbdfb46	0.0057977764
167	0xbdf82291	-0.12115968
168	0xbdbcae66	-0.09212951
169	0xbdab721d	-0.08371375
170	0x3de08fdf	0.10964941
171	0x3d86db57	0.065848045
172	0x3e0de790	0.13857865
173	0xbde40347	-0.111334376
174	0x3dd35f5e	0.10320924
175	0x3d5d5cf2	0.054043718
176	0xbd8ef12d	-0.069795944
177	0xbd8b5098	-0.068024814
178	0xbc9342c4	-0.017976172
179	0xbdb34c28	-0.0875476
180	0xbd37bff7	-0.044860806
181	0x3b366b21	0.002783485
182	0x3e00fe00	0.12596893
183	0xbd57f1e8	-0.052720934
184	0xbe09873c	-0.13430494
185	0xbdbb4c09	-0.09145362
186	0xbdc0a155	-0.09405772
187	0xbdd8bfb9	-0.10583443
188	0x3e053bd7	0.13011108
189	0xbdc9caf1	-0.09853161
190	0x3d78cafa	0.06074045
191	0x3d687543	0.056752454
192	0xbdf324f8	-0.118722856
193	0x3cea3491	0.028589519
194	0x3c555a4f	0.0130220195
195	0x3df0a170	0.11749542
196	0xbcee663c	-0.029101484
197	0xbdd5e71f	-0.104444735
198	0x3ddb7ad2	0.107167855
199	0x3d4fcc93	0.050732207
200	0x3de44dd8	0.1114766
201	0xbcde3eb6	-0.027129512
202	0x3d4bae98	0.049727052
203	0xbda3afdb	-0.07992526
204	0xbd4d2713	-0.050086092
205	0x3d9953f1	0.07486714
206	0x3d19aad3	0.037516426
207	0xbd037622	-0.032095082
208	0x3da62777	0.08112996
209	0x3d6283d9	0.05530152
210	0xbc47493f	-0.012163459
211	0x3dc39cf9	0.095514245
212	0xbc9e3096	-0.019310277
213	0x3ac79b59	0.0015228792
214	0x3bf5e940	0.007504612
215	0xbc38123c	-0.011234816
216	0xbd73d717	-0.059531298
217	0xbc707367	-0.014675952
218	0xbd960707	-0.07325559
219	0xbcce4243	-0.02517808
220	0x3d308519	0.04309568
221	0x3df7fb2a	0.121084526
222	0x3d58be20	0.052915692
223	0xbd633ecc	-0.05547981
224	0x3da465b0	0.08027208
225	0xbb6ab36c	-0.003581251
226	0x3e0d4c63	0.1379867
227	0x3d568329	0.052371178
228	0x3d1247ea	0.035713114
229	0xbd6abe05	-0.057310123
230	0x3de6bbd3	0.112662934
231	0xbe065438	-0.13118064
232	0x3d2eb3c9	0.042651925
233	0xbdc98c79	-0.09841246
234	0xbd83e305	-0.06439785
235	0xbe000569	-0.12502064
236	0x3dc489df	0.09596609
237	0xbcf259fe	-0.029583927
238	0x3d569a7a	0.052393414
239	0xbdb6ae28	-0.089199364
240	0xbdd50edc	-0.10403225
241	0x3e12b6fc	0.14327615
242	0xbdf662d1	-0.120305665
243	0xbdfd1412	-0.12357344
244	0xbdbe780c	-0.09300241
245	0x3cbbff0b	0.022948762
246	0xbdcdfab4	-0.100575835
247	0x3e12fac9	0.1435348
248	0x3ddc7ce1	0.10766006
249	0xbd7881d6	-0.060670696
250	0x3cd13edb	0.025542667
251	0xbcbc5f22	-0.022994582
252	0xbcf18056	-0.02948014
253	0x3d8657ad	0.065596916
254	0xbca0e8a3	-0.01964218
255	0x3ac66093	0.0015134983

lstm.weight_hh_l1 f4 [200, 50]
0	0x3e11863e	0.14211366
1	0x3d8087e1	0.06275917
2	0x3e0fe9f1	0.14054085
3	0x3d7d66d0	0.061865628
4	0x3de25e98	0.110531986
5	0x3d00d491	0.03145272
6	0x3d564c1f	0.05231869
7	0x3db22ccd	0.08699951
8	0xbd7bdd12	-0.061490126
9	0xbc7237ee	-0.0147838425
10	0xbe23ae39	-0.1598443
11	0x3ddd26f3	0.107984446
12	0xbc8710a5	-0.016487429
13	0x3d5361db	0.051606994
14	0xbdca5d83	-0.09881117
15	0xbdfeb1f2	-0.12436284
16	0x3d900eb2	0.07034053
17	0xbd3f6067	-0.046722796
18	0xbe2212bd	-0.1582746
19	0xbc04b1ee	-0.008099062
20	0xbb5b2821	-0.0033440667
21	0x3d01389d	0.03154813
22	0xbbab5736	-0.005228902
23	0x3e02cd6c	0.12773675
24	0x3dff2529	0.124582596
25	0x3e01dbfb	0.12681572
26	0x3cc70796	0.02429561
27	0xbe0e4da4	-0.13896805
28	0x3e1f4874	0.15554982
29	0xbd311ab1	-0.043238346
30	0xbda5810e	-0.08081256
31	0xbd97555c	-0.07389328
32	0x3d0a35d8	0.033742756
33	0x3db6807b	0.089112245
34	0x3d5a8c82	0.053356655
35	0xbde0dcb7	-0.10979598
36	0xbda69247	-0.08133369
37	0x3c4b8954	0.012422878
38	0x3cde01ec	0.027100526
39	0x3d8b3a6e	0.06798254
40	0x3d956456	0.07294528
41	0x3cd4a9ec	0.025959931
42	0x3d7d5eae	0.06185787
43	0xbc9ac972	-0.018894885
44	0xbd585dd9	-0.052823875
45	0xbde54999	-0.11195678
46	0xbde3f69b	-0.11131021
47	0x3e0412b0	0.12897754
48	0xbc32b61d	-0.010907677
49	0xbe16dbdf	-0.14732312
50	0xbdf91e29	-0.12163956
51	0x3ccf747e	0.025324102
52	0xbcd91ac5	-0.026502023
53	0xbda86896	-0.08223073
54	0x3cd10102	0.025513176
55	0xbdedbb29	-0.116079636
56	0xbdd50b9d	-0.10402606
57	0xbde4db9f	-0.11174702
58	0x3e09f296	0.13471445
59	0x3c8aa734	0.016925432
60	0xbc834ec7	-0.016028775
61	0x3b1337e2	0.0022463729
62	0xba81b39c	-0.0009895447
63	0xbdb2b93e	-0.087267384
64	0xbdab11e4	-0.08353022
65	0xbdfd5462	-0.1236961
66	0x3e0c467a	0.1369876
67	0x3d40b68a	0.047049083
68	0xbdae97c8	-0.08525044
69	0xbdc6f079	-0.09713835
70	0xbdb6eb0d	-0.08931551
71	0xbe13645c	-0.14393753
72	0x3dc68d89	0.096949644
73	0x3daec89f	0.08534359
74	0x3ddc1d41	0.10747767
75	0x3d2e58f1	0.04256529
76	0xbdfb9b27	-0.12285452
77	0x3d6ce476	0.057835065
78	0xb9ed645e	-0.00045278942
79	0x3d9053e9	0.070472546
80	0x3d96827e	0.07349108
81	0x3d95927a	0.07303329
82	0xbcd4dfd0	-0.025985628
83	0xbc8d2b76	-0.017232638
84	0x3e1e3f39	0.15453805
85	0x3d79924f	0.060930546
86	0x3cd1a6f2	0.025592301
87	0xbe03e845	-0.12881573
88	0xbd8bef63	-0.06832769
89	0x3dc907ec	0.09815964
90	0x3d94515e	0.07242082
91	0xbd26d3c3	-0.040729295
92	0xbccfad39	-0.025351154
93	0x3dc81687	0.09769922
94	0xbe0763a7	-0.13221608
95	0x3d15fdce	0.036619
96	0x3d90bdde	0.07067464
97	0xbc846347	-0.01616062
98	0xbe142c5c	-0.14470047
99	0x3dea738b	0.11447819
100	0x3dddc8ed	0.10829339
101	0xbc0efa9c	-0.008726742
102	0xbc8203c1	-0.01587093
103	0x3d9dd77a	0.077071145
104	0xbe0543bd	-0.13014121
105	0xbc01c587	-0.007920629
106	0xbcdcb307	-0.026940836
107	0xbd39a4d1	-0.045323197
108	0xbd38a5bf	-0.045079943
109	0x3de51106	0.111848876
110	0x3bba52ed	0.005686155
111	0xbd97a72b	-0.07404932
112	0xbd9776b6	-0.07395689
113	0x3d5b3e78	0.05352637
114	0x3dd1d645	0.10245947
115	0x3d51669f	0.051123258
116	0xbdf2cd6f	-0.118555896
117	0xbd609e88	-0.054838687
118	0xbdebb082	-0.115082756
119	0xbdaa8d26	-0.08327703
120	0xbc8fe2a7	-0.017564131
121	0xbdb83398	-0.08994216
122	0xbcc189ab	-0.023625216
123	0xbcbed8e9	-0.02329679
124	0x3ccce365	0.025010774
125	0xbcff77e7	-0.031185104
126	0x3ddf9230	0.10916555
127	0xbc138f12	-0.009006279
128	0x3dab998c	0.08378896
129	0xbb123cf9	-0.0022314175
130	0x3d5f113e	0.054459803
131	0xbd52c13a	-0.051453806
132	0xbd15afbd	-0.03654455
133	0x3dd04b77	0.10170644
134	0xbc19905a	-0.009372795
135	0xbb26df82	-0.002546281
136	0x3d8d24c1	0.06891776
137	0xbd0e2bda	-0.03470979
138	0xbdbdc197	-0.0926544
139	0xbd5cefa7	-0.053939488
140	0x3da8910b	0.0823079
141	0xbb47305a	-0.003039381
142	0x3d80791a	0.06273098
143	0xbdade2e1	-0.08490539
144	0x3dfe6bbb	0.12422892
145	0xbd0ca858	-0.034340233
146	0x3c58d24d	0.013233733
147	0x3dad2c56	0.08455722
148	0xbddf0b1f	-0.10890793
149	0xbc30dfcf	-0.010795548
150	0x3c25742f	0.010098501
151	0xbd362db9	-0.0444772
152	0x3c869aca	0.016431231
153	0x3e14ee4d	0.1454403
154	0x3c065af5	0.008200397
155	0x3db54555	0.08851115
156	0x3d6cec05	0.057842273
157	0x3d54cb38	0.051951617
158	0xbd580ba5	-0.05274548
159	0x3d7f98b3	0.062401485
160	0x3ccb2fd3	0.024803078
161	0x3da64dd8	0.08120316
162	0xbda885a9	-0.08228619
163	0x3df93340	0.12167978
164	0xbdf13ef2	-0.11779584
165	0x3d85fe76	0.06542675
166	0xbd6592c2	-0.056048162
167	0xbd6fddf3	-0.058561277
168	0xbca09a25	-0.019604752
169	0x3d3d4672	0.04620976
170	0x3d84ac61	0.06478191
171	0x3dac084a	0.084000185
172	0x3b05188e	0.0020308825
173	0xbd90a76a	-0.07063182
174	0x3dc1a438	0.0945515
175	0x3d6a44ef	0.057194646
176	0xbd9c93cf	-0.0764538
177	0x3c0e9ce2	0.008704396
178	0x3df0d1ea	0.11758788
179	0xbd05b5d4	-0.032644108
180	0x3dfc3c93	0.12316241
181	0xbdc6a1db	-0.0969884
182	0x3c9aef8d	0.018913055
183	0x3e04729a	0.12934342
184	0x3e1baea1	0.15203334
185	0x3c749449	0.014927932
186	0x3c3a06f7	0.0113542
187	0x3da961b3	0.08270588
188	0xbc04ee7d	-0.008113501
189	0x3dd3c235	0.103397764
190	0x3db6204d	0.0889288
191	0x3df71459	0.12064428
192	0x3cba0132	0.022705648
193	0xbc97ffe6	-0.01855464
194	0x3cfcd4b6	0.030863147
195	0xbc376f21	-0.011195929
196	0xbe02650e	-0.12733862
197	0x3db51712	0.08842291
198	0xbc8b56b0	-0.01700911
199	0x3de468da	0.11152811
200	0x3e04efd1	0.12982108
201	0x3d33173b	0.043723326
202	0xbcf6d37a	-0.030130137
203	0x3e11c151	0.142339
204	0xbd55d030	-0.052200496
205	0x3e0cd754	0.13754016
206	0xbdeba66d	-0.115063526
207	0xbdad5dc0	-0.08465147
208	0xbdcbd4a8	-0.0995267
209	0x3dedea0e	0.11616908
210	0x3d717f24	0.05895914
211	0xbd95d0ed	-0.0731524
212	0xbcb1e8bb	-0.02171742
213	0x3d16c0a4	0.03680481
214	0xbdc721b3	-0.097232245
215	0x3d6a86c4	0.05725743
216	0x3a054691	0.00050840626
217	0xbddd3c20	-0.108024836
218	0x3c67dd47	0.014151878
219	0xbe146ed9	-0.1449541
220	0xbdc35205	-0.09537128
221	0x3de950fc	0.113924
222	0xbd7ba458	-0.061436027
223	0x3bf3b1f0	0.0074369833
224	0xbbbefaba	-0.005828229
225	0x3dda8f3a	0.106718495
226	0xbdba6e9c	-0.09103128
227	0x3d6156ba	0.05501435
228	0xbd2d5648	-0.042318612
229	0x3e024fd8	0.1272577
230	0x3e08e3da	0.13368168
231	0xbbbc7248	-0.005750928
232	0x3c5773c2	0.013150157
233	0xbdf0d216	-0.11758821
234	0x3e1eaecc	0.15496367
235	0x3d4ef1ac	0.050523445
236	0xbc5d4992	-0.01350631
237	0x3df7799f	0.12083744
238	0x3ce90315	0.028443852
239	0xbca14ffb	-0.019691458
240	0x3ddc2c93	0.10750689
241	0x3dccf09c	0.1000683
242	0xbcb4c322	-0.022065703
243	0x3c90bab4	0.017667152
244	0xbc162b14	-0.009165544
245	0xbdbbd40e	-0.091713056
246	0x3daf2abf	0.08553075
247	0x3dc68d5c	0.09694931
248	0xbde50d73	-0.11184206
249	0xbcf6bca6	-0.030119251
250	0x3dbad366	0.09122352
251	0x3de68a6b	0.1125687
252	0x3bdd2522	0.0067488113
253	0xbcba4d8f	-0.022742061
254	0xbde52708	-0.11189085
255	0x3de9cc7d	0.11415956

lstm.bias_ih_l1 f4 [200]
0	0xbdda23a7	-0.106513314
1	0xbd57ea27	-0.05271354
2	0xbdef2918	-0.1167776
3	0xbda274bf	-0.07932424
4	0x3dd5d764	0.10441473
5	0x3e186c58	0.1488508
6	0xbd47a21c	-0.048738584
7	0x3cbfa468	0.023393825
8	0xbd106e9e	-0.035261743
9	0x3dac2330	0.08405149
10	0xbd6ab9ef	-0.057306226
11	0x3e065f32	0.13122252
12	0xbdfdd508	-0.12394148
13	0x3b69cf3b	0.0035676498
14	0x3c8cb15f	0.01717442
15	0x3de91768	0.113814175
16	0x3e07ad91	0.13249804
17	0x3df97116	0.121797726
18	0xbddd7840	-0.108139515
19	0xbdb82e1a	-0.08993168
20	0xbd8f75d3	-0.07004895
21	0x3dba02f7	0.09082597
22	0xbd5a20bd	-0.053253878
23	0x3d84b84f	0.064804666
24	0x3d1b0743	0.037848722
25	0xbd8e904a	-0.06961115
26	0xbd80978b	-0.062789045
27	0x3de79cc0	0.113091946
28	0x3de45ef2	0.11150922
29	0x3d570210	0.0524922
30	0xbdf0d6f4	-0.11759749
31	0xbddd8110	-0.10815632
32	0xbdcec0b7	-0.10095351
33	0x3c871355	0.01648871
34	0x3ab9a90e	0.0014164762
35	0xbe1b8ce7	-0.15190469
36	0xbde45e7a	-0.111508325
37	0xbd14782d	-0.03624742
38	0xbd6215e3	-0.055196654
39	0xbddcaba6	-0.10774927
40	0x3d4f6398	0.05063209
41	0xbdf5729f	-0.11984753
42	0x3dede16c	0.116152614
43	0xbb8d3815	-0.004309664
44	0x3d27bbd5	0.040950615
45	0xbdf4b96c	-0.11949429
46	0x3dc31d62	0.09527089
47	0xbd05a681	-0.032629494
48	0x3de51ba8	0.11186916
49	0x3d990566	0.07471733
50	0xbce1d0b4	-0.027565338
51	0x3ca7a553	0.020464575
52	0xbd7045c5	-0.058660287
53	0x3d571f9d	0.052520383
54	0xbdb586a9	-0.08863575
55	0x3db41bad	0.08794341
56	0xbdbfb37c	-0.09360406
57	0xbcbda175	-0.023148278
58	0xbdd8f850	-0.10594237
59	0xbd2f45e9	-0.04279128
60	0x3d8eb037	0.06967204
61	0xbd34c82a	-0.044136204
62	0x3e116129	0.1419722
63	0x3d0aa5b6	0.03384944
64	0xbbfb7464	-0.007673787
65	0xbdce3f1e	-0.100706324
66	0x3dd40780	0.10352993
67	0xbdfecf8e	-0.12441932
68	0xbdb79673	-0.08964243
69	0x3de9ba76	0.11412518
70	0x3de33585	0.110941924
71	0xbd8920c4	-0.06695703
72	0x3d851d61	0.06499744
73	0xbda4007d	-0.08007906
74	0xbd109997	-0.035302725
75	0xbddf3309	-0.10898406
76	0x3e24854b	0.16066472
77	0xbdae0a77	-0.0849809
78	0x3e0382de	0.1284289
79	0x3dfe542e	0.124184
80	0x3d55fd34	0.052243426
81	0xbd440f9f	-0.04786646
82	0xbcb96df2	-0.022635434
83	0x3db04ac9	0.08608014
84	0xbdf52d16	-0.1197149
85	0x3db565ab	0.08857282
86	0x3cfd1fe8	0.030899003
87	0x3dd07d5f	0.10180163
88	0x3e14677d	0.14492603
89	0x3d997d19	0.074945636
90	0x3e194156	0.1496633
91	0x3d82036a	0.063483074
92	0xbd59dc45	-0.05318858
93	0xbd86bbf6	-0.065788195
94	0x3d4890ea	0.048966326
95	0xbd1e8775	-0.0387034
96	0xbde5c0d1	-0.112184174
97	0xbd8924a7	-0.06696444
98	0x3daa7ec9	0.083249636
99	0xbd854962	-0.06508137
100	0xbdf376b0	-0.11887872
101	0xbe0bbfd7	-0.136474
102	0xbdf9e52b	-0.122019134
103	0xbd105a9d	-0.035242666
104	0x3db71669	0.08939821
105	0x3e2567bc	0.16152853
106	0xbbba64cd	-0.005688286
107	0xbc498db8	-0.012301855
108	0x3d55aaaa	0.05216471
109	0xbba680ab	-0.0050812564
110	0x3d07febd	0.03320192
111	0xbdb97b26	-0.09056692
112	0x3dfe59ad	0.12419448
113	0xbdd4c40d	-0.10388956
114	0xbd612f5f	-0.054976817
115	0x3dcefcd9	0.101068206
116	0xbbba1e6e	-0.005679897
117	0xbc11ea90	-0.008906022
118	0xbd2cf18e	-0.042222552
119	0x3c6d9f69	0.014503338
120	0x3d2e72aa	0.04258982
121	0xbe2236e8	-0.15841258
122	0xbda60ea7	-0.081082635
123	0xbd25017f	-0.04028463
124	0x3c1103ec	0.008851033
125	0xbde5332e	-0.111914024
126	0xbd9464cf	-0.0724579
127	0x3d2c816f	0.042115625
128	0xbda61964	-0.081103116
129	0x3c3639a4	0.011122141
130	0xbb8a8840	-0.004227668
131	0xbd30a91f	-0.043130036
132	0xbdcd534d	-0.10025654
133	0xbdce901f	-0.10086083
134	0xbc5f25b9	-0.013619834
135	0x3d85f91b	0.06541654
136	0x3de4787f	0.11155795
137	0x3e1fd0e4	0.15607029
138	0xbe158246	-0.14600477
139	0xbd9f0f1a	-0.07766552
140	0xbdaf15ec	-0.08549103
141	0x3e0a78e8	0.13522685
142	0x3d043e4e	0.03228598
143	0xbc41632a	-0.011803428
144	0xbdc36b1e	-0.09541915
145	0x3dcf4111	0.10119832
146	0xbc835278	-0.016030535
147	0xbdf1d766	-0.11808662
148	0xbdaf9b20	-0.085745096
149	0x3e12d2a6	0.14338169
150	0x3d64215e	0.055695884
151	0xbd804013	-0.06262221
152	0xbdd1170d	-0.10209475
153	0xbc9bf572	-0.019037936
154	0xbd2076ff	-0.039175984
155	0xbdf39640	-0.11893892
156	0x3ce140cf	0.027496723
157	0x3d1d7683	0.0384431
158	0x3db44fe1	0.08804298
159	0xbdadfc5f	-0.084954016
160	0x3d7be799	0.061500166
161	0xbcbddbbd	-0.023176068
162	0xbce9af81	-0.02852607
163	0x3ccc37aa	0.024928886
164	0xbda6b9a6	-0.081408784
165	0xbdcdd828	-0.10050994
166	0x3e1a4405	0.1506501
167	0x3e148802	0.14505008
168	0x3d874762	0.06605412
169	0x3dfa57a2	0.12223746
170	0xbdf22ead	-0.11825309
171	0xbd96b4a8	-0.07358676
172	0x3d71e977	0.05906054
173	0x3de84ad4	0.11342397
174	0x3dc0f9d0	0.09422648
175	0xbd5fe0bc	-0.054657683
176	0x3d8128d0	0.063066125
177	0xba335e9c	-0.0006842406
178	0xbdc918f6	-0.09819214
179	0x3d5a3c39	0.05328009
180	0x3d3acc05	0.045604724
181	0xbdabcc1a	-0.08388539
182	0xbd4492c7	-0.04799154
183	0x3cfb4a58	0.030675098
184	0x3bf4a95a	0.0074664773
185	0x3d9bc1d9	0.07605333
186	0xbdf26f1d	-0.118375994
187	0xbdb22730	-0.08698881
188	0x3cb39a93	0.021924293
189	0xbde7a4a6	-0.11310701
190	0xbdee1ce7	-0.116266064
191	0x3dd0c8e2	0.10194565
192	0x3c717965	0.014738415
193	0xbdd9168c	-0.106000036
194	0xbe071174	-0.13190252
195	0x3cdfa7e0	0.027301729
196	0xbdc91a04	-0.09819415
197	0x3de8bcdd	0.11364148
198	0xbd413ce0	-0.047177196
199	0x3d4c57b9	0.049888346

lstm.bias_hh_l1 f4 [200]
0	0xbde8c57d	-0.11365793
1	0x3d876cae	0.06612526
2	0x3dee5462	0.116371885
3	0xbd3f0002	-0.046630867
4	0x3d1c1f74	0.038115934
5	0x3dc5ed44	0.096643955
6	0xbd613e55	-0.054991085
7	0xbdddf3d8	-0.10837525
8	0x3dca3f1b	0.09875318
9	0xbc061ddc	-0.00818583
10	0xbdc094b1	-0.09403361
11	0xbd466894	-0.048439577
12	0xbdb586b5	-0.08863584
13	0x3debef6b	0.11520275
14	0x3d9b430e	0.07581149
15	0x3e0be236	0.13660511
16	0x3d07a57f	0.033116814
17	0xbd89ffce	-0.06738244
18	0xbd8dd47e	-0.06925295
19	0x3deb7431	0.11496771
20	0xbbedad3f	-0.0072533186
21	0xbd772941	-0.060342077
22	0x3dc9230d	0.098211385
23	0x3e1a82c2	0.15088943
24	0x3e035d9e	0.12828681
25	0xbd89fd73	-0.06737795
26	0x3e18eaf2	0.14933375
27	0x3d21df94	0.03951986
28	0x3dbeaf9b	0.09310838
29	0xbda0efaa	-0.07858212
30	0xbd8c1c74	-0.068413645
31	0xbce59b36	-0.028028112
32	0xbdf8bc7f	-0.12145328
33	0x3dee2a97	0.11629217
34	0xbd232eee	-0.039839678
35	0x3db3e961	0.08784748
36	0x3d6fcad4	0.05854304
37	0xbdb86542	-0.090036884
38	0x3d81c936	0.06337206
39	0x3ddea567	0.10871392
40	0x3d6d1888	0.057884723
41	0xbc1288fe	-0.008943794
42	0xbd04aec5	-0.032393236
43	0xbdba5626	-0.09098463
44	0x3e078df3	0.13237743
45	0xbde758ab	-0.11296209
46	0xbd934222	-0.07190348
47	0x3dc31528	0.095255196
48	0x3e0acd7e	0.13554952
49	0x3e027358	0.12739313
50	0xbdaeeaa1	-0.08540846
51	0x3dd9cb1d	0.10634444
52	0x3e0d7082	0.1381245
53	0xbe113ef1	-0.14184166
54	0x3b8b9bcc	0.004260516
55	0xbd789181	-0.06068564
56	0x3c0eb385	0.008709793
57	0x3e15f338	0.14643562
58	0xbde0a24c	-0.10968456
59	0x3d3e0443	0.046390783
60	0x3df7d65a	0.12101431
61	0x3e01fa0c	0.12693042
62	0x3db8a2d8	0.09015435
63	0x3dfbb8fc	0.12291142
64	0xbe1ea74c	-0.15493506
65	0x3d5c72a4	0.053820267
66	0x3bdb5fb4	0.0066947583
67	0xbc406fa5	-0.011745368
68	0xbdc82b14	-0.097738415
69	0x3def3d7c	0.11681649
70	0xbb2ab3bb	-0.002604707
71	0x3daec984	0.0853453
72	0xbb936874	-0.004498536
73	0xbdafefa6	-0.08590631
74	0xbddd038b	-0.107916914
75	0xbd9f74d2	-0.077859536
76	0xbdd630fa	-0.1045856
77	0xbdef104e	-0.11673032
78	0x3ca81651	0.020518454
79	0xbd0f7ad7	-0.03502926
80	0xbd121b1d	-0.03567039
81	0xbd893933	-0.06700363
82	0xbde725bd	-0.11286495
83	0xbdb6b07c	-0.089203805
84	0xbe02d186	-0.1277524
85	0x3cf9bf6c	0.030486785
86	0x3e140275	0.14454062
87	0x3e1f37c2	0.15548614
88	0x3e25e1ef	0.16199468
89	0xbdb5baf3	-0.08873548
90	0x3d8e6900	0.06953621
91	0xbbca5f7b	-0.006175933
92	0xbda3592b	-0.07975992
93	0x3dc1e67e	0.09467791
94	0xbcb50878	-0.022098765
95	0x3d817c29	0.0632251
96	0x3ddae178	0.10687536
97	0x3dafc741	0.085829265
98	0xbdba3e18	-0.09093875
99	0x3dd70d62	0.105005994
100	0xbdc7a00d	-0.09747324
101	0xbe08d537	-0.13362585
102	0xbde46ce8	-0.11153585
103	0xbd763897	-0.060112562
104	0xbda90805	-0.08253483
105	0xbdc7425f	-0.09729456
106	0xbae336fd	-0.0017335113
107	0xbd71097f	-0.058846947
108	0x3c21888f	0.009859218
109	0xbd1a7855	-0.037712414
110	0x3e0e8261	0.13916923
111	0xbdfa47c2	-0.12220718
112	0xbd77691d	-0.06040298
113	0xb973f92d	-0.00023267111
114	0xbcd8c924	-0.026463099
115	0xbc887dd9	-0.016661571
116	0x3c2cbef2	0.010543572
117	0xbcfb6e00	-0.0306921
118	0x3da6827c	0.08130357
119	0xbc724079	-0.014785879
120	0x3d0ddab8	0.034632415
121	0xbe1957c4	-0.14974886
122	0x3da0ed4f	0.07857763
123	0x3d991e14	0.0747644
124	0xbcdbd10c	-0.02683308
125	0xbcc10a9a	-0.023564626
126	0xbde783ff	-0.11304473
127	0x3cb79ac4	0.022412665
128	0x3d7518cb	0.059838098
129	0x3d77fbf1	0.060543004
130	0x3d3eac55	0.046551067
131	0xbd886f41	-0.06661845
132	0xbda38541	-0.079844005
133	0x3cf8535e	0.03031319
134	0x3c3a2973	0.011362421
135	0x3d29973e	0.041404
136	0x3e22c43a	0.15895167
137	0x3dea264e	0.11433087
138	0x3c90aea9	0.01766141
139	0xbc828e62	-0.015937034
140	0x3d5daa37	0.054117408
141	0xbd425d2f	-0.047452148
142	0x3e07cc06	0.13261423
143	0x3d958857	0.073013954
144	0x3da18560	0.078867674
145	0xbe07ea6e	-0.13273022
146	0x3d37bccd	0.04485779
147	0x3c962fa1	0.018333258
148	0xbd90842b	-0.07056459
149	0x3da4b162	0.080416456
150	0xbe116f9f	-0.14202736
151	0xbdd6aa3d	-0.10481689
152	0x3d898714	0.06715217
153	0xbe09aef9	-0.13445653
154	0x3e0b3622	0.13594869
155	0x3d7567da	0.059913494
156	0xbe138dc9	-0.14409555
157	0xbddc98ed	-0.10771356
158	0x3d7b9b6e	0.061427526
159	0xbd8cf82d	-0.06883273
160	0x3e193d3c	0.14964765
161	0xbd55850f	-0.052128848
162	0xbafa9459	-0.0019117697
163	0xbda58226	-0.080814645
164	0xbd662a5a	-0.056192733
165	0x3db8c2c3	0.09021523
166	0x3d9708e7	0.07374745
167	0xbe02a831	-0.12759472
168	0xbc766ae0	-0.015040129
169	0xbd33c319	-0.04388723
170	0x3d977b5c	0.07396576
171	0xbbf9c07f	-0.0076218243
172	0x3c9d85b6	0.019228797
173	0xbd404ba4	-0.046947137
174	0x3dd8b780	0.10581875
175	0x3d4fdca6	0.050747536
176	0xbb978c6d	-0.0046248944
177	0x3d92f9b3	0.071765326
178	0xbb228646	-0.0024799271
179	0x3e02eda1	0.1278596
180	0xbde54849	-0.11195428
181	0xbd98725a	-0.07443686
182	0x3dd7c5be	0.10535763
183	0xbdef5a33	-0.11687126
184	0xbb8f103c	-0.004365949
185	0xbe1c676e	-0.1527383
186	0xbdac8b71	-0.08425034
187	0xbd3c4ca0	-0.045971513
188	0x3e217c84	0.15770155
189	0xbe0d74ce	-0.13814089
190	0xbd665209	-0.05623058
191	0xbd99fc16	-0.07518785
192	0xbdd430c4	-0.10360864
193	0x3c884c8d	0.016638065
194	0xbdd741b8	-0.10510582
195	0xbdff7fc4	-0.12475541
196	0xbd889266	-0.06668548
197	0xbd988c3f	-0.07448625
198	0xbd99d999	-0.075122066
199	0x3d5d45e2	0.054021724

fc.weight f4 [1, 50]
0	0x3deeeff1	0.11666859
1	0xbb9072a1	-0.004408196
2	0xbde0b319	-0.1097166
3	0x3df24249	0.11829049
4	0x3e0f7fbd	0.14013572
5	0x3e1a2298	0.15052259
6	0xbd9c1b1f	-0.076223604
7	0xbd54b5cf	-0.0519312
8	0x3ddff4ef	0.10935389
9	0xbd3cf507	-0.046132114
10	0x3dcb9995	0.09941403
11	0xbc1e2fb0	-0.009654924
12	0x3c71b84f	0.014753415
13	0xbc4aa28f	-0.012367859
14	0x3d7aaaa9	0.06119791
15	0x3e15d8d8	0.146335
16	0x3e131d9d	0.14366765
17	0xbd7e6621	-0.062109116
18	0x3e01e905	0.12686546
19	0xb993f29e	-0.0002821879
20	0x3dc392eb	0.09549507
21	0xbda71dd8	-0.08159989
22	0x3da5cc1e	0.08095573
23	0xbe038998	-0.12845457
24	0xbcd932a7	-0.02651341
25	0x3db93827	0.09043913
26	0xbde09b01	-0.10967065
27	0x3ca5c537	0.02023564
28	0xbddb318c	-0.1070281
29	0x3dfcc7c6	0.12342791
30	0xbd05cb38	-0.032664508
31	0xbd99ff4f	-0.075193994
32	0xbb7c5afb	-0.0038506377
33	0x3cb4f525	0.02208955
34	0x3e049d8f	0.12950729
35	0xbda9d37d	-0.08292291
36	0x3dd2e9c0	0.102984905
37	0x3da83307	0.08212858
38	0xbe1a91e0	-0.1509471
39	0x3dbde455	0.092720665
40	0xbd91bf86	-0.07116608
41	0x3dcdeb8d	0.10054693
42	0x3c2be965	0.010492657
43	0x3c548091	0.012970106
44	0xbded8156	-0.115969345
45	0xbe13b8ec	-0.14426011
46	0xbda56485	-0.08075813
47	0xbccc3032	-0.024925325
48	0xbd06c1cc	-0.032899663
49	0x3d3059c7	0.04305437
