models/daily_model_BTC_USDT.pth (torch, 128277 bytes, 9 tensors)

lstm.weight_ih_l0 f4 [200, 1]
000000 81 02 a0 3d 87 1f 99 3d ca d7 15 3c c9 63 ad 3c
       0.078129776 0.074767165 0.009145686 0.021165745
000010 fb 56 98 bd 1f 6a 14 3c f8 7c 6a 3b 52 dc cc bc
       -0.07438465 0.009058504 0.0035780054 -0.0250074
000020 2b b8 88 3d 93 30 14 be 2d 23 26 3d d9 20 06 be
       0.06675752 -0.14471655 0.04056089 -0.13098468
000030 0f 00 2c bd 88 39 e3 bd 5e cf d2 bc 7e 46 c4 3d
       -0.041992243 -0.110949576 -0.025733646 0.09583758
000040 a4 ca c0 bd 30 02 9a 3d 2e 95 42 3c 38 58 82 3c
       -0.09413651 0.075199485 0.0118763875 0.015911207
000050 a1 fa c4 3a 4c 14 d9 bd c1 18 e3 3c 93 c0 05 3d
       0.0015028307 -0.105995744 0.027721765 0.032654356
000060 79 a9 15 3d 63 bb 9e 3d 22 03 5d 3d 92 c8 cf bd
       0.036538575 0.07750585 0.053958066 -0.101456776
000070 a6 16 de bd 19 13 cb 3d dc 23 90 bc 4d 3d af bc
       -0.108441636 0.09915752 -0.017595224 -0.021391535
000080 a2 f3 59 3d 1e b5 50 bb 1a d7 8d bb 11 4f b4 bd
       0.053210862 -0.0031846236 -0.0043286206 -0.08804143
000090 71 74 8d bc 5c be 21 3d 03 f4 10 3d 74 6b 3f 3a
       -0.017267438 0.03948818 0.035388958 0.00073020835
0000a0 eb 4b 3b bd ab 87 c5 bc c0 70 aa 3c d9 a8 13 3e
       -0.045726698 -0.024112543 0.020805717 0.14419879
0000b0 53 c2 46 3d 4d 88 1c bd c9 17 d5 3d fc de e5 bc
       0.048525166 -0.038215924 0.10404927 -0.028060429
0000c0 44 f3 be bd fc 0d 3b bd 1a 22 d1 bd 8b 09 b5 bd
       -0.09323743 -0.045667633 -0.102115825 -0.08839711
0000d0 7d 8f 96 3d c4 d4 a2 bc 61 c9 24 3e 1b 5d 91 3d
       0.07351587 -0.019876845 0.16092445 0.070978366
0000e0 a3 19 d7 bc 76 61 a6 3d 31 47 e8 3d 3a 77 cd bd
       -0.026257342 0.08124058 0.11341704 -0.10032506
0000f0 8f 54 0a 3e ab 95 f2 bd 62 b8 b5 3d 4a 2e dd bd
       0.13508819 -0.11844953 0.08873059 -0.107998446
000100 f6 92 89 3d 8e 19 87 3c 15 53 7f bc 8e d2 d3 bc
       0.06717484 0.016491678 -0.015583773 -0.025857236
000110 d8 e9 4e 3c 51 b3 e2 3d d8 b5 3a bd aa ba e8 3d
       0.012628995 0.11069358 -0.045583576 0.11363728
000120 33 8c ba bd 76 d5 f8 3d 2a 33 0d 3e 91 72 f2 3d
       -0.09108772 0.121500894 0.13789049 0.11838258
000130 b4 0a bf bc 67 b3 80 3c d4 25 9f bd ac 7c af bd
       -0.023320533 0.015710546 -0.07770887 -0.08568701
000140 09 fc a1 3d 86 0a cb bd cd aa 87 3d de a7 84 bd
       0.079094 -0.099141166 0.066243745 -0.064773306
000150 5b 5c 2f 3d 1a c7 3b bb 24 8a f6 bc fa 94 fe 3c
       0.042812686 -0.002865261 -0.030095167 0.031076897
000160 a1 06 bb 3d 3d 7c 5c 3c b6 db c0 bd 4e 55 0c bd
       0.09132124 0.013457355 -0.094169065 -0.03426104
000170 01 c7 1c bd 3b d9 fe bc a5 4a ed 3d fb b8 76 3d
       -0.038275722 -0.031109443 0.11586503 0.060235005
000180 aa 03 f8 3d 44 2d 01 be cf b0 b6 3c 5c bd 3b bd
       0.12110074 -0.12614924 0.022301106 -0.045834884
000190 9c dd 4c bc 25 cf a5 3d 57 71 d9 bd ad 73 e9 bd
       -0.012504008 0.0809615 -0.10617321 -0.113990165
0001a0 24 32 5f bd cc 1a 59 3d ac 1c c2 bd da 50 92 3d
       -0.054491177 0.05300407 -0.09478125 0.071443275
0001b0 fc f2 8c bd 1d 2c 00 be 7a 84 c0 bd c0 2f c6 3d
       -0.06882283 -0.12516828 -0.09400268 0.09677076
0001c0 d4 47 90 bb 4e 63 a0 bd f1 aa 96 3d 88 eb cf 3d
       -0.004403094 -0.07831441 0.07356823 0.10152346
0001d0 6e 21 05 3d a7 10 20 3e 3c 7d 16 bd 96 2b b0 3b
       0.032502584 0.15631352 -0.036740527 0.0053762896
0001e0 87 c3 f9 bd 8b f5 ad bd e0 dc 93 3d bf fb 3b bc
       -0.12195497 -0.08494099 0.07219863 -0.011473595
0001f0 36 e3 9b 3c 18 75 1b 3e 9a 3a f0 3d 14 51 b3 3d
       0.019029241 0.15181386 0.11729927 0.08755699
000200 23 b0 f8 3d 2d 6f a6 bd 25 da a2 3d 44 57 87 bb
       0.121429704 -0.08126674 0.07951764 -0.004130276
000210 7f fc a2 3d 4c 62 19 bd b5 7d c2 3d 97 e1 89 3d
       0.07958316 -0.03744726 0.09496633 0.06732481
000220 f5 8d 5c bd f7 38 f5 bd dc ae 04 3d 53 20 ef bd
       -0.05384632 -0.11973756 0.03239332 -0.11676087
000230 7d 16 f9 3d 8d e3 bf bd d6 a2 ad 3d 87 98 0f 3e
       0.121624924 -0.09369574 0.08478324 0.14023028
000240 7d ef 4c bd ea 36 83 3d bd 8b 6c bd 93 01 01 be
       -0.05003308 0.064069584 -0.057750452 -0.12598257
000250 47 d9 21 3e 74 94 52 bd cb a2 b7 3d f7 5f 8a 3d
       0.15805541 -0.051411107 0.08966597 0.06756585
000260 76 48 ef 3c 6e 37 a4 3d 2c ec f3 bc 5b 4d 84 bd
       0.029209357 0.08018385 -0.029775701 -0.06460067
000270 9d 78 fc 3c 44 a4 06 be 68 9d 93 3d ef 17 5a 3d
       0.030819232 -0.131486 0.07207757 0.05324548
000280 a4 df 6f bd 9f d7 b2 bd 28 e3 9a 3c 4a 74 65 3c
       -0.05856289 -0.08732533 0.018907145 0.014004776
000290 df 73 cb 3d 88 60 f5 bd cf d5 a8 bd cd 21 87 bc
       0.0993421 -0.119813025 -0.08243906 -0.01649561
0002a0 99 8a 5e 3d 07 e4 8b bd d9 24 d8 3b 14 b7 00 be
       0.054331396 -0.06830602 0.0065961895 -0.12569839
0002b0 9e 6c fb bd cb ab 86 bd d7 85 e9 bd cd e2 fb 3d
       -0.122765765 -0.06575736 -0.11402481 0.12299118
0002c0 6c fc 18 3e 32 7c 03 bc 9a 28 82 3d 4d 4b d2 3d
       0.14940041 -0.008025216 0.063554004 0.10268269
0002d0 43 39 de bd ec 8d 09 bd ac 3f ef 3b 34 49 c6 3d
       -0.108507656 -0.033582613 0.0073012915 0.09681931
0002e0 94 f3 20 3e eb 47 11 3e e1 74 86 3d d2 7f a1 bc
       0.15717918 0.14187591 0.06565262 -0.01971427
0002f0 f8 b1 0b be b2 7a ad bd 35 cb 9e bd 76 bf e7 3d
       -0.13642108 -0.08470668 -0.077536024 0.11315815
000300 cf d9 ad 3d 91 aa 4f 3d ad b7 ae bd c3 aa 22 3d
       0.08488809 0.050699774 -0.08531127 0.039713632
000310 ad 61 33 bd 9a 26 eb 3d 7d b0 d0 3d 89 8e a9 3d
       -0.043794323 0.11481972 0.101899125 0.082791395

lstm.weight_hh_l0 f4 [200, 50]
000000 3b 20 98 3d 20 c9 fe bd 84 97 58 3b 97 d6 03 3c
       0.074280225 -0.12440705 0.0033049295 0.008046768
000010 f9 f0 a6 bb fe f7 c4 bd c1 95 0d 3e 3d 78 75 3d
       -0.005094644 -0.09617613 0.13826658 0.05992912
000020 45 9e 31 3d 89 a5 86 bd 91 0f c2 bd 5f 00 bc 3d
       0.04336383 -0.06574542 -0.09475625 0.09179758
000030 96 aa ba bd 55 ac 11 be 46 37 78 3d 6a 64 a1 3d
       -0.09114568 -0.14225896 0.060599588 0.078804806
000040 05 77 16 be e9 a1 86 bd b3 5d ef bb 5f a4 9e 3d
       -0.1469384 -0.06573851 -0.007304871 0.07746195
000050 6e 21 41 3d f3 37 dc bd 48 ea 68 bd 66 63 11 be
       0.04715102 -0.10752859 -0.056864053 -0.14198074
000060 84 26 aa bd 90 fc d9 bd b6 a8 cf 3d a2 46 0c be
       -0.083081275 -0.106438756 0.10139601 -0.1369882
000070 38 cd c1 3d fd ca f9 3d 00 2a b7 3d 0c 94 07 3c
       0.094629705 0.1219692 0.08943558 0.008275043
000080 29 75 34 bd 86 55 ae 3d 2c e2 00 3c cd 3c 12 be
       -0.044057045 0.08512406 0.007866424 -0.14281006
000090 d4 87 c6 3d fc a7 fb bb 3f d5 c0 3d 1e 24 a2 3d
       0.09693876 -0.0076799374 0.094156735 0.07917045
0000a0 9d cc ec bd 2b 20 98 3d 67 95 10 3d 28 88 df bd
       -0.115624644 0.074280106 0.03529873 -0.109146416
0000b0 5c 40 f5 bd 21 6b 5a bd 66 12 f6 bb 0e aa 06 3e
       -0.11975166 -0.053324822 -0.0075095175 0.13150808
0000c0 14 d8 8d 3d d3 05 f5 3d 03 0c b8 3d 82 35 eb bd
       0.06925979 0.119640015 0.08986666 -0.11484815
0000d0 df 6e 07 3d e0 0c 86 bd 6f b9 9e 3d 3b 31 48 3c
       0.03306472 -0.065454245 0.077502124 0.012218769
0000e0 47 c2 ff 3d ca 25 af bd 38 9a 8a bd 00 9c 13 bd
       0.12488227 -0.085521296 -0.06767696 -0.036037445
0000f0 d4 8e ec 3d 21 44 0b be 7b e3 8b 3d 0e 81 ae 3c
       0.1155068 -0.13600208 0.06830498 0.021301772
000100 44 c9 e8 bd 58 49 d9 3d 38 d5 c2 bc aa a5 3f 3d
       -0.11366513 0.10609692 -0.023783311 0.04678885
000110 84 01 ad bd f5 5a 0a bd ca f9 a4 3d 07 29 be 3d
       -0.08447555 -0.03377815 0.08055456 0.09285169
000120 85 d0 02 be ca 96 4c bd ad 63 0d bd 32 53 a2 3a
       -0.12774856 -0.04994849 -0.034518886 0.0012384413
000130 3f 13 39 bd cc 0a 92 3d e0 c4 0e 3e 2b 6d a1 3d
       -0.04518437 0.071309656 0.1394229 0.0788215
000140 5b ba 14 bd 93 e8 a4 3d 85 c5 a1 bd 89 18 1b 3d
       -0.036310535 0.080521725 -0.07899002 0.037865195
000150 0c 77 d8 3d 1f d4 e3 3c 80 f7 79 bd 26 ec b1 3d
       0.105695814 0.027811108 -0.06102705 0.0868762
000160 ff 35 9e bd cc 87 49 3d be 7e 06 be 12 34 8b bd
       -0.07725143 0.04920177 -0.13134286 -0.06797041
000170 d2 7c b2 3d 2e 71 73 bc f3 78 cc 3d 32 ca 30 bd
       0.08715214 -0.014858527 0.09984007 -0.04316158
000180 f8 0c c9 bd 71 0d f9 bd 8a 9a 86 3b cc d8 2d 3d
       -0.09816927 -0.12160767 0.004107778 0.04244308
000190 68 56 fe 3c 81 99 07 3e 68 49 26 bd 1c 56 f9 bd
       0.031047061 0.13242151 -0.04059735 -0.12174627
0001a0 98 b9 de bc b0 ba 61 3d 0a c1 82 bd 3e fd fb 3c
       -0.027188107 0.05510968 -0.063844755 0.030760404
0001b0 44 de 11 3e ce 32 ef bd 2c 3c 55 3d 7d c2 16 be
       0.14244944 -0.11679612 0.052059337 -0.14722629
0001c0 a9 3a d6 3d a1 70 3f bd 1d f9 a6 3d 59 69 f1 bc
       0.10460407 -0.04673827 0.08152983 -0.029469179
0001d0 90 6b 9f 3d 97 54 67 3d 25 6d 0c 3e 11 6c d1 bc
       0.07784188 0.056477156 0.1371351 -0.025564225
0001e0 de 5a 08 be 6c 47 02 bd 6b 25 1d bd a3 3d 35 bd
       -0.13315913 -0.031806394 -0.038365763 -0.044248234
0001f0 03 d9 de 3d 1e 92 69 3d 99 22 01 3e 05 64 50 3d
       0.108812355 0.057024114 0.12610854 0.050876636
000200 42 3f d3 3d 0a 7a 71 bd 41 d8 96 3d c3 be 8b bd
       0.103148 -0.058954276 0.07365466 -0.06823494
000210 52 21 3f 3d 5c 7f 40 3c 01 bb 92 bd d6 47 9e 3d
       0.046662636 0.011749115 -0.071645744 0.07728545
000220 6d d6 8a ba d2 0a 28 bd 07 20 e7 3c f8 b1 b5 bc
       -0.0010592468 -0.041025944 0.028213514 -0.022179589
000230 48 59 e0 bd e0 d5 d7 bd c7 bb b7 3b 14 21 0f be
       -0.10954529 -0.1053884 0.0056071016 -0.13977462
000240 cf b9 17 3e 4d 2c 8d 3d ab 6f 5f bd 47 04 ba bd
       0.14816974 0.06893215 -0.054549854 -0.09082847
000250 82 9c 74 3d 98 ce 2e bd 55 3d 9c 3c d3 50 fa 3c
       0.05971957 -0.042677492 0.019072214 0.030556118
000260 8d 87 bd bc 9f 99 d8 3d 59 44 d0 bb 22 bd 86 bd
       -0.023135925 0.10576176 -0.006355804 -0.06579043
000270 c6 c7 02 3d b8 04 d3 3d 95 83 07 be d0 79 e4 3b
       0.0319288 0.103036344 -0.13233788 0.006972529
000280 ad e3 ac bc 98 e1 b5 bc 6d 34 30 3d da c3 c1 3d
       -0.021104658 -0.022202298 0.043018747 0.09461184
000290 8c 6b 18 3e a4 2a 3d 3b 3c fc 9c 3c b5 b0 ec 3c
       0.14884776 0.0028864527 0.019163243 0.028892854
0002a0 66 ee dd 3c 0e 29 3b bd a8 f0 ef 3b 72 7d 99 3d
       0.027091216 -0.04569345 0.0073223896 0.0749463
0002b0 cc 47 58 bd b8 98 ec bd 44 b1 9a 3d 2e 06 f7 3c
       -0.052802846 -0.11552566 0.07553342 0.030154314
0002c0 1d af 0e 3d 38 68 21 3e e7 0d fa 3d 6b a3 8e bd
       0.03483497 0.15762413 0.12209683 -0.06964763
0002d0 29 ea 0a 3e 83 8a 56 3c ea de ca bc 2b 29 1b bc
       0.13565888 0.013094547 -0.024764497 -0.009470264
0002e0 f6 f7 19 3e 34 c1 b1 3d dc 60 c9 3d 85 28 37 3d
       0.15035996 0.08679429 0.098329276 0.044716377
0002f0 9c 0f 06 3e 83 d2 32 bd cd 6c a2 bd 91 1e 0b 3e
       0.13091892 -0.04365779 -0.07930908 0.13585879
000300 2a f9 85 bd aa fc 98 3d 14 d5 e9 3d c8 ff 93 bd
       -0.06541665 0.07470067 0.114175946 -0.07226521
000310 87 b3 97 bb d9 f8 f6 bd cc df 0d 3e 67 c8 f7 3c
       -0.0046295556 -0.12059183 0.13854903 0.030246926
000320 95 74 87 bd 6f 7c ef bd ec e8 ab bc a4 f1 b4 bd
       -0.06614033 -0.11693656 -0.02098509 -0.08835152
000330 d9 aa 2c 3c a2 75 8b 3d 30 c8 b6 bd be 07 f6 3d
       0.01053878 0.06809546 -0.089249015 0.120131955
000340 2c 40 b9 bd 28 59 74 bd a0 00 fa 3d b2 8c 98 bb
       -0.09045443 -0.05965534 0.122071505 -0.004655444
000350 b9 e8 0c 3e ab 23 bb bd bd 8b 4e 3c 3b c2 1b bd
       0.13760652 -0.091376625 0.012606558 -0.03802703
000360 6c 55 9f 3d 48 da f4 bd 85 05 a7 bd b3 c1 b7 bd
       0.07779965 -0.11955696 -0.0815535 -0.08972492
000370 4e b3 fe bd a4 f6 ae 3d 29 f9 c7 bd 7e 0d 0e 3e
       -0.124365434 0.08543137 -0.097643204 0.13872334
000380 92 ad 84 bd e0 db 09 3b a5 18 f8 bd 40 eb 4a 3d
       -0.064784184 0.0021035597 -0.121140756 0.049540758
000390 07 8e 8d 3d 27 43 b4 bd 53 79 a8 3d 2a b1 62 ba
       0.06911855 -0.08801871 0.08226266 -0.00086476153
0003a0 b1 1d 05 3e ce 69 b8 3d 2d 87 94 3d 8a df cc bd
       0.12999608 0.09004556 0.07252345 -0.10003574
0003b0 aa 79 db bd 6e 87 5c 3d 79 9a 17 bc ee da 0b 3e
       -0.10716565 0.053840093 -0.009253138 0.13657734
0003c0 e7 f4 d1 3d 95 3c 5c bd 97 cc d1 bd ab ef 13 3e
       0.102517895 -0.053768713 -0.102441005 0.14446895
0003d0 cb c0 af 3d fa 12 b4 3d e5 a6 20 be 94 b3 9e 3d
       0.08581694 0.08792682 -0.15688665 0.077490956
0003e0 3f e6 9d 3b 94 7c 8a bc 4f bc 03 bd a8 9a 10 be
       0.0048187072 -0.016905107 -0.032162007 -0.14121497
0003f0 7c 09 09 be 64 ac f1 3d f4 84 0c be b2 f1 9e 3b
       -0.13382524 0.11800459 -0.13722593 0.0048505897

lstm.bias_ih_l0 f4 [200]
000000 d9 6c 06 be ac 38 14 bc 6a 1e ee bc 8f 54 09 bd
       -0.1312746 -0.009046715 -0.029067237 -0.033527907
000010 12 a4 d5 bd 22 37 70 bb fe 94 ca 3d 19 c1 b6 bd
       -0.104316846 -0.0036653955 0.09891699 -0.08923549
000020 83 bf 10 3e ef ae cb bd 13 53 8c 3d b4 0c 51 3c
       0.14135556 -0.09945475 0.06851783 0.012759376
000030 3b 3f ef bd d3 78 c0 bd f8 72 d5 bd 68 f4 9c bd
       -0.11681982 -0.093980454 -0.10422319 -0.07663804
000040 df 9b bd 3d af a5 2d bd 5f d4 20 bc 9a e7 7c 3b
       0.09258246 -0.042394336 -0.009816258 0.0038590194
000050 4e 49 d3 3c 28 76 f2 bc a6 49 48 bd d0 e1 39 bb
       0.02579179 -0.029597357 -0.04889836 -0.0028363355
000060 c4 db b6 3b 69 37 9e 3c a6 ee 12 bc 8e c9 73 bd
       0.0055803973 0.019313531 -0.008968031 -0.05951839
000070 67 83 42 bd 72 ae 95 bd d4 b9 69 bd 58 de 9b 3d
       -0.047488596 -0.073086634 -0.057061985 0.07610768
000080 21 70 e7 bc af 8c 6e bc fe f2 e7 bd 8c eb cf 3d
       -0.02825171 -0.014559909 -0.11325644 0.10152349
000090 11 77 06 be be 56 82 bc ea cf 8c 3d 08 5e e5 bc
       -0.13131358 -0.015910503 0.06875594 -0.02799894
0000a0 c8 83 60 3c 4b 38 89 bd b4 9d 17 3e 2a 68 f3 bd
       0.013703294 -0.0670019 0.14806253 -0.11885102
0000b0 3a dc 35 bc c7 47 e5 3d 09 02 e3 bb 96 1c e0 bd
       -0.011099869 0.11195331 -0.006927733 -0.10942952
0000c0 a7 39 a8 bc cf fe 10 3e 30 6a 15 3c aa c9 e9 3d
       -0.020535303 0.14159702 0.009119555 0.114154175
0000d0 d9 39 37 bd 3d fb f2 bc 9f 83 da bc 91 fa 47 bd
       -0.044732902 -0.029660815 -0.02667409 -0.048822943
0000e0 37 b7 cd 3b d3 d7 0f be 3c 71 f3 bd 74 4e a9 3d
       0.0062779444 -0.14047174 -0.11886832 0.08266917
0000f0 a5 b5 fe bc e5 6c ca 3d c0 c4 3f 3d 6a ef a9 3d
       -0.031092474 0.09884051 0.046818495 0.08297618
000100 91 9c c5 bc 58 1e e1 3b f5 2e 92 bc 4c 30 a4 3d
       -0.024122508 0.0068700723 -0.017844656 0.080170244
000110 1f da de bd 52 ac 3a bd 9f e2 28 3b cf 5c ef bd
       -0.10881447 -0.045574494 0.0025769842 -0.11687624
000120 a6 9d d6 bd 78 9c dc 3d 4a 12 87 3d 49 87 d6 bc
       -0.10479288 0.107720315 0.06595285 -0.026187556
000130 af f7 8c 3d f0 0f de bd ea 71 af b9 da 46 88 3d
       0.068831794 -0.108428836 -0.00033463474 0.06654139
000140 6f a8 41 3d 64 eb 2d bd b5 f5 ba 3c 35 e6 a8 3d
       0.04727977 -0.042460814 0.02282224 0.082470335
000150 5b 60 b8 bd e6 93 01 3e b4 07 17 be ae f5 04 3d
       -0.09002753 0.12654075 -0.14749032 0.03246086
000160 d0 09 4e 3d e5 e7 96 3d 62 72 82 3d 43 97 09 3e
       0.050302327 0.07368449 0.06369473 0.13436608
000170 6a 30 df 3d 8c 1a 01 3e 02 de 9c bd 0e f0 82 3d
       0.10897906 0.12607783 -0.07659532 0.06393443
000180 2c ec a2 bd c2 19 7f 3d 5b 68 fb 3d 2d ec ff bd
       -0.079552025 0.062280424 0.122757636 -0.12496219
000190 74 67 a5 bd 04 c6 d1 bd 9a 01 d2 bd ed c4 a5 bd
       -0.08076373 -0.102428466 -0.10254212 -0.08094201
0001a0 a4 17 04 be 63 fb 10 be 34 c7 ba 3d 76 e4 b0 bd
       -0.12899643 -0.14158396 0.09120026 -0.086373255
0001b0 22 67 ed 3b 2d 61 00 3e 5b 6c 1b 3e 34 59 00 3e
       0.0072449604 0.1253707 0.15178053 0.12534028
0001c0 9e 78 04 3e f3 2b 8e 3d f4 9c 5a 3d e2 4f 99 bd
       0.12936637 0.069419764 0.05337234 -0.074859396
0001d0 6d 1d 1e 3e 8e 63 85 3c e7 96 ea bd 65 a8 b0 bd
       0.15440913 0.016282823 -0.114545636 -0.08625869
0001e0 1d b5 67 3d b7 23 9c 3d 48 79 de 3c 5b 2e 09 3e
       0.056569207 0.076239996 0.02715744 0.1339659
0001f0 b0 4c 19 3e d8 a8 1e bd c4 09 0f bd 67 0f d9 3d
       0.1497066 -0.03873524 -0.034921423 0.10598641
000200 05 66 45 3d 89 56 e7 3d 63 8e e0 3d 68 93 eb 3d
       0.048192997 0.11295802 0.10964658 0.11502725
000210 21 2e b5 bc 3c 75 e8 bd 7c e5 ae 3d 92 00 4c 3b
       -0.022116723 -0.11350486 0.085398644 0.003112827
000220 e3 a8 bb bd 73 e1 a3 bd ca fd 6e 3c 8a f8 86 3d
       -0.09163072 -0.080019854 0.014586875 0.06590374
000230 80 bf f7 3d 6d 72 6e 3d 56 63 76 3d 03 45 ec 3d
       0.120970726 0.058214594 0.060153328 0.115366004
000240 1f 2e 01 be d7 1d af bb 22 68 79 bd 8c 2a 16 bb
       -0.1261525 -0.0053441334 -0.060890324 -0.0022913544
000250 2e 9b 93 bd cd e2 5f bd 0e 6a 90 bd 39 95 0d be
       -0.072073326 -0.054659653 -0.07051478 -0.13826455
000260 8a c4 e3 bd 87 41 8b bd 7c 9b 18 3e 2e f9 06 3e
       -0.11121471 -0.06799608 0.14903063 0.13180992
000270 cc 0d 17 bd 85 e8 07 be 65 d4 fa 3c 25 c1 1c be
       -0.036878392 -0.13272293 0.030618856 -0.15308054
000280 a1 09 df bd 8f 20 b8 3d 8d 25 ab 3d 68 cd 9b 3d
       -0.108905084 0.08990585 0.083567716 0.076075375
000290 c0 e6 dc bd f1 30 36 bd 58 a9 b9 bd 8b 07 bc bd
       -0.107861996 -0.044480268 -0.09065503 -0.09181126
0002a0 6d 46 a3 3c ab 21 01 3e 2e 4d d2 bd 70 38 10 bb
       0.019931043 0.126105 -0.10268627 -0.0022006296
0002b0 51 c7 71 3d 40 24 ee 3d 37 3e b2 3d 02 93 fc bd
       0.059027974 0.11628008 0.08703273 -0.12332727
0002c0 cc ef 8c bc 1b 7e 18 3e db 1a 01 bd e2 1b 17 be
       -0.017204188 0.14891855 -0.031519752 -0.1475673
0002d0 bc b5 ff 3d ff 4c 35 3d 64 66 59 3d ba 50 f0 3d
       0.12485835 0.044262882 0.053076163 0.11734147
0002e0 85 67 ec bc 26 ea 7e 3d ca 39 0b be 9c 66 9e 3c
       -0.028857956 0.06223502 -0.13596264 0.019336037
0002f0 f5 bd ad bd f9 74 cc 3c 3b 60 eb bd 3f 07 1a 3e
       -0.08483497 0.02495812 -0.11492964 0.15041827
000300 fc 6d 1f 3d b3 a7 f1 bd bc 1f e8 bb 56 bb c3 bd
       0.03892325 -0.11799564 -0.007083861 -0.09557216
000310 2c a6 d6 3d bb ca 0b 3e a0 5d fb 3d f1 5a 01 3e
       0.104809135 0.13651554 0.12273717 0.12632348

lstm.bias_hh_l0 f4 [200]
000000 2f d4 f4 3d b9 74 ff bb d9 20 1c 3c aa c0 1a bc
       0.11954533 -0.007795897 0.009529316 -0.009445349
000010 5a cd bb bd 18 27 b2 3d 8b 37 e1 3d e2 b8 20 3d
       -0.09170027 0.08698863 0.10996922 0.039238818
000020 50 a3 86 bd 84 b3 3d 3c ce 84 a8 3b 97 51 22 3d
       -0.06574118 0.011578444 0.0051427847 0.03962859
000030 98 1d f0 3d a7 6f 27 3d 16 cf 8d 3d ea d1 13 3d
       0.117243946 0.040877964 0.06924264 0.03608886
000040 b3 d4 99 3d de d9 c0 bd d5 c2 a9 bd a7 ed a6 bd
       0.07511272 -0.09416555 -0.082891144 -0.08150797
000050 47 41 fa bd f7 23 d1 3b fc cb 67 3d d4 d8 f7 3d
       -0.12219482 0.006382461 0.05659102 0.121019036
000060 85 c9 35 bc 7c 87 66 bd 6d b0 a1 3d 3f 9b 94 bd
       -0.011095409 -0.05628155 0.07894979 -0.07256173
000070 75 a8 0c be fc d1 f8 3c 77 14 d6 bd be fa 7e bc
       -0.13736136 0.030373566 -0.10453122 -0.015562711
000080 2b 54 90 bd 31 bf 05 bd c9 35 72 bd da 44 ce bb
       -0.07047304 -0.032653037 -0.059133325 -0.006294829
000090 33 44 be 3c 60 fd 05 bd c9 ea 6b bd ff 70 01 3e
       0.02322588 -0.03271234 -0.057596955 0.12640761
0000a0 07 7c 8b 3d f7 ee ba 3d 33 b1 d4 bd b0 bd 39 3d
       0.06810766 0.0912761 -0.103853606 0.045346916
0000b0 9c c5 c7 3d 9a 46 74 bd f1 a8 7f bd 4c 3b b1 3c
       0.09754488 -0.059637643 -0.062416974 0.02163472
0000c0 a2 1c 39 bb b1 d7 c3 bd da 9e b8 bb e5 87 da bd
       -0.0028245826 -0.09562624 -0.005634171 -0.10670451
0000d0 22 a7 0c 3d b5 eb 01 3b 81 88 54 3d 8f ce 69 bd
       0.034339078 0.001982433 0.051887993 -0.057081755
0000e0 94 f5 1a bd 0b 3a 73 3d 1d 63 ed 3d c8 ee d2 3c
       -0.037831858 0.059381526 0.1159117 0.025748625
0000f0 01 3c 00 be 0f dd cb 3d 9a 08 61 3d 5c c6 2f bd
       -0.1252289 0.09954273 0.054939844 -0.04291378
000100 e9 85 e3 bb cd 20 42 bd 1f 7e b0 3d a6 24 1b bd
       -0.0069434536 -0.047394563 0.08617806 -0.037876748
000110 e6 ff ee bc 59 1d b1 3d da 2b 92 bd 8d d9 ad bd
       -0.029174756 0.08648176 -0.0713727 -0.0848876
000120 48 c1 fe bd 2b 6b 85 3d 79 7c 92 bd cf 74 34 3d
       -0.12439209 0.06514581 -0.071526475 0.04405671
000130 d6 62 07 3e 33 dc 0a 3e 47 5e 1e be cd 94 f7 bd
       0.13221297 0.13560562 -0.15465651 -0.12088928
000140 eb 48 83 3c 49 b5 00 3e 9f 27 01 be 80 d5 c5 bc
       0.016025981 0.12569155 -0.1261277 -0.024149656
000150 8d be 09 3e 12 71 70 bc d3 d9 da 3c 81 8a 4f 3d
       0.13451596 -0.014675396 0.026715195 0.050669197
000160 47 c5 9e 3d f3 09 b4 bd 91 41 0b 3e f6 32 07 3e
       0.077524714 -0.0879096 0.1359923 0.13203034
000170 e7 90 65 3d 1d ed 50 3d c5 de 26 bd 7a 19 37 3d
       0.056046393 0.05100738 -0.040739793 0.04470203
000180 b8 69 fb 3c d1 89 87 3d 3e 32 b5 39 62 3e 02 3e
       0.030690059 0.06618083 0.00034560444 0.1271911
000190 30 12 91 bb ac 83 8e bd e7 6a b7 3d 88 e3 05 3e
       -0.004427217 -0.06958708 0.08955937 0.13075078
0001a0 4e ab c1 3d 64 b5 b3 3d f4 0d d0 bb 92 a0 3b bd
       0.09456502 0.08774832 -0.0063493196 -0.04580743
0001b0 da 5d 38 bd ea de fa bd 02 49 0a 3e ec f3 dd bd
       -0.04501138 -0.12249549 0.13504413 -0.1083754
0001c0 b2 f8 b5 bd 30 6f bb 3d 12 ca 01 bc 07 d1 b5 3c
       -0.088853255 0.09152067 -0.0079217125 0.022194399
0001d0 41 d1 f9 3c 61 b9 96 3b 21 aa a8 bc af e5 89 ba
       0.030495288 0.0045997356 -0.020588936 -0.0010520722
0001e0 04 50 76 3c 76 80 29 bc 31 45 fe bd 79 d0 2d bd
       0.015033726 -0.010345569 -0.12415541 -0.042435143
0001f0 be a2 47 bd 50 32 0b 3e 6a 78 04 be 3b d8 03 3e
       -0.048739187 0.13593411 -0.1293656 0.12875454
000200 ab 57 6f 3d 66 59 5f ba 99 86 4a bd d3 d2 9c bd
       0.058433216 -0.00085200963 -0.04944477 -0.07657399
000210 23 fd c5 3c de 60 a7 bc 31 6b 94 bc a9 93 1c 3e
       0.024168557 -0.020431932 -0.01811752 0.15290703
000220 17 ae 12 3e e9 5b 12 be 24 cd e3 3d aa e6 92 3d
       0.14324223 -0.14292873 0.11123112 0.07172902
000230 e0 9d f1 3d 28 67 f6 3d 74 c3 21 3d b7 68 72 3d
       0.117976904 0.12031394 0.03949304 0.059181895
000240 c7 6e a8 bd 76 d3 e7 bd c3 e6 05 bb 58 df 24 bd
       -0.08224254 -0.1131963 -0.0020431734 -0.04025206
000250 e1 47 90 3d 90 d0 1b 3a 76 df 29 3d 87 a8 af 3c
       0.0704496 0.0005943859 0.041472875 0.021442665
000260 4f 4e 9b bd 1c 1b 10 bd 13 8d 2b 3d 5b c9 95 3d
       -0.075832956 -0.035182104 0.041882586 0.07313796
000270 d0 b4 68 bd 35 c7 bb bd c1 02 c2 bd 29 ca 1c 3d
       -0.05681306 -0.09168855 -0.094731815 0.038278732
000280 72 27 c1 bd f6 5f c5 3c 2d c5 dc 3d 2b 38 d4 3d
       -0.09431352 0.02409361 0.10779796 0.10362276
000290 27 57 d9 3d dc 28 a2 3d 22 7b 54 bd 63 6f 99 3d
       0.10612326 0.079179496 -0.05187524 0.074919485
0002a0 de 52 8b 3d 74 32 90 3d 5b bd 67 bc 6a a7 9d 3d
       0.06802915 0.07040873 -0.014144267 0.07697947
0002b0 9d 8b 63 3c b6 19 fd bd 8c 35 f6 bd 3b 6b 73 bd
       0.013888267 -0.123584196 -0.12021932 -0.059428435
0002c0 36 7c 9c bd 67 8d 5a bc 21 89 fb 3d 39 45 0b 3d
       -0.07640879 -0.013339377 0.12282015 0.034001563
0002d0 d6 60 28 3d 5e d4 12 3d b9 22 17 3d 56 67 8e 3d
       0.041107975 0.03584706 0.03689835 0.069533035
0002e0 9e 4f fd bd db f5 02 3e 14 53 69 bd f8 1f f4 3d
       -0.123687014 0.12789099 -0.056963995 0.1192016
0002f0 53 36 ea bd 29 34 9a 3c d4 21 b7 3d db ce a4 bd
       -0.11436143 0.0188237 0.08941999 -0.08047267
000300 82 ac 75 bd 9f 93 bc 3c 38 c5 ec bd 93 70 c4 3d
       -0.05997897 0.02301961 -0.11561054 0.09591784
000310 d2 be 5a bd ad aa 47 3d 1f 83 24 3d 78 af 15 3e
       -0.053404637 0.048746753 0.04016411 0.14617717

lstm.weight_ih_l1 f4 [200, 50]
000000 1e 90 ea 3d 82 f1 c1 bd ad b3 75 bd 96 58 b9 3d
       0.114532694 -0.09469892 -0.059985805 0.090500996
000010 5d eb 8a 3c 32 2c c7 bd 22 00 f6 3d b7 1e 0c 3e
       0.016957933 -0.097252265 0.12011744 0.13683592
000020 4b 92 05 be f8 c6 9c bd ec eb 60 3d 00 5f 42 37
       -0.13044088 -0.07655138 0.054912493 1.158542e-05
000030 8a 2e 91 bd 36 2d 8c 3c 84 2b b8 3d f1 8a d1 3d
       -0.07088955 0.017111402 0.08992675 0.10231579
000040 33 b1 ca bd d3 64 9b 3d 78 e5 10 be f6 94 8c bd
       -0.09897079 0.0758759 -0.14150035 -0.068643495
000050 91 c6 84 3d 9b da 08 be a0 bf ab bd 38 25 bd 3d
       0.06483186 -0.13364641 -0.08386159 0.092356145
000060 bf b6 f4 3d 72 2d bc 3d f2 39 d5 3d 31 4d 9b 3d
       0.119489186 0.091883555 0.10411443 0.075830825
000070 df 45 af bd 6b 9b bf bd 8a 7b f1 3d 98 5b 0e 3c
       -0.08558249 -0.093558155 0.11791141 0.00868883
000080 22 73 af 3b 96 a0 7d bc 02 8a b9 3d 24 f3 2d bd
       0.005354301 -0.015480181 0.09059526 -0.042468205
000090 5f 37 c2 bd f4 8c e5 bd 4a c4 7f bd 7f 43 5f bd
       -0.094832174 -0.11208525 -0.062443055 -0.05450773
0000a0 49 76 84 bd d8 5f df 3d 5e f5 98 bc fb 14 38 3d
       -0.064678736 0.109069526 -0.018671688 0.044941884
0000b0 6a 16 17 3d 75 ef e1 bd 95 80 bc 3d 59 a8 e5 bd
       0.03688661 -0.11032001 0.092042126 -0.112137504
0000c0 cd 55 d0 bd 3c 4e 59 3d 2e a6 d4 bb 5b 20 02 be
       -0.10172615 0.053053126 -0.0064895367 -0.12707655
0000d0 ee 0a ac 3d a4 88 54 bd 5d 8a 8c bd 78 51 0d 3c
       0.08400522 -0.051888123 -0.06862328 0.008625381
0000e0 be 91 e5 3c a7 57 da 3c bd 15 cf bc b8 7c c5 bd
       0.028023597 0.026653124 -0.02527892 -0.09642929
0000f0 6f c4 24 3d 08 79 d3 3d 11 5d c7 bd 4d 4c ed bc
       0.040226396 0.10325819 -0.09734548 -0.028967047
000100 07 d9 bc bd aa 93 59 bd 4c 6c fb bd f3 06 05 3d
       -0.09221082 -0.05311934 -0.12276515 0.03247733
000110 8e 36 3e bc 30 02 03 3d bb 39 06 be 25 5e 01 3d
       -0.011609687 0.031984508 -0.1310796 0.031583924
000120 47 0a b4 bd b8 a8 41 bd e8 5b a8 bd 39 bc e0 bd
       -0.08791023 -0.047280043 -0.08220655 -0.109734006
000130 b5 50 a1 bd 96 4f 78 bd 73 e9 f7 3d 2d b0 b0 3d
       -0.07876722 -0.060622774 0.12105074 0.08627353
000140 69 e3 bb bd 20 82 22 3d 2d 03 9f 3d 39 35 0d be
       -0.091742344 0.039674878 0.077642776 -0.13789834
000150 af a7 36 3d f8 3a 20 bd 9f fa 7c bd 1e 35 af bd
       0.04459351 -0.039118737 -0.06176245 -0.08555053
000160 26 d1 dc bd d3 75 5a bd 5f 7b e8 bc 6d 06 e1 bd
       -0.107820794 -0.053335022 -0.02837914 -0.10987554
000170 e0 45 82 bd 00 77 0d 3e 45 48 e0 bc 7a 6b af bd
       -0.06360984 0.13814926 -0.02737821 -0.085654214
000180 87 9f cc bd f2 aa 4a bc 20 3f ef 3d e2 4c 0c be
       -0.09991365 -0.012369858 0.11681962 -0.13701203
000190 eb 77 b9 bd f5 4d f8 bd 0a 4b ab bc b5 62 ec 3d
       -0.09056076 -0.12124244 -0.020909805 0.11542264
0001a0 24 8f ad bd 95 6b b8 bd c8 84 f2 3d e6 b7 4a bb
       -0.084745675 -0.09004895 0.11841732 -0.0030932366
0001b0 ee a7 7d 3d 2a 96 76 bd 3a b9 a1 bd 34 31 8e bd
       0.06192773 -0.0602018 -0.07896657 -0.069429785
0001c0 6d d2 1e bc 92 46 85 bd a4 af 9f bd 93 2d b4 3d
       -0.009693724 -0.06507601 -0.07797173 0.08797755
0001d0 15 9c e3 3d 5a 39 f8 3d fd 81 87 bc 12 ad da 3c
       0.11113755 0.12120314 -0.016541475 0.026693854
0001e0 e9 49 0c be 57 27 11 3d 5b 4c 00 be 5c 76 85 3d
       -0.1370007 0.035437908 -0.12529127 0.06516716
0001f0 af 42 ca 3c 10 8c d9 bd 8d 2f a2 bd c6 61 b0 bd
       0.02469 -0.10622418 -0.07919226 -0.08612399
000200 c0 71 2e 3d fe 9e 2d bd ce 63 f7 bb 11 89 f3 3c
       0.04258895 -0.042387955 -0.0075497394 0.029728444
000210 2a 45 e2 bd 13 a2 0c be a1 13 70 3c 26 c6 22 bd
       -0.11048348 -0.13733701 0.014653117 -0.03973975
000220 b5 31 fa bd 7f 00 a8 3d 93 d1 b2 bd 0c 96 35 bb
       -0.12216512 0.082032196 -0.08731379 -0.0027707843
000230 53 d2 bc 3c 43 0c f2 3d 97 b6 19 b9 76 32 06 3e
       0.02304951 0.11818745 -0.00014659237 0.13105187
000240 93 ff f0 bc f7 94 30 3d 14 23 0c bd cc ca a3 3c
       -0.029418742 0.043110814 -0.03421314 0.019994162
000250 c3 a3 c4 bd 24 b1 ee 3d 1c 8a 90 3d 1f 1e 14 be
       -0.096015476 0.11654881 0.07057592 -0.14464615
000260 c7 fd f8 3d 12 59 19 be 8b 8c 09 bd 6c 90 45 bd
       0.12157779 -0.14975384 -0.033581298 -0.048233435
000270 74 74 b2 3d ee da 8e bd 50 e8 13 be 62 f1 07 be
       0.08713618 -0.06975351 -0.14444089 -0.13275674
000280 e1 74 d9 bd 42 06 ce 3d 7d a1 93 bc 14 99 4f 3d
       -0.10617996 0.10059787 -0.01802134 0.050683096
000290 ae 09 b9 bd 76 8a f2 bd 9e 30 e7 bd 86 ec a0 bd
       -0.090350494 -0.118428156 -0.1128857 -0.07857613
0002a0 76 ae 65 bd d4 36 00 be 99 54 b2 bd 39 68 dc bd
       -0.056074582 -0.12520915 -0.08707542 -0.107620664
0002b0 29 02 01 3d 78 f9 f0 3d 2d d2 04 3e bf 75 b0 bd
       0.0314962 0.117663324 0.129708 -0.08616208
0002c0 99 a1 a4 bd 7f 35 eb 3c c9 d8 78 bc 44 0e 83 3c
       -0.08038635 0.028712032 -0.015188404 0.015998013
0002d0 be f4 b7 3d 9b 2c 05 3e 2c c4 3d bd 1f 64 e8 3c
       0.08982228 0.13005297 -0.046329662 0.028368054
0002e0 5c 5d b9 bc 86 68 f6 bc 97 42 6c bd 67 9c fc 3d
       -0.022627525 -0.030079138 -0.057680693 0.12334519
0002f0 73 26 10 3e fa fa 05 be d8 c9 2c 3c 99 32 9d bd
       0.14077167 -0.13084021 0.01054617 -0.07675666
000300 51 f9 e7 bd d9 3d b6 3d 87 a2 fc bc e8 7d 71 bd
       -0.1132685 0.08898515 -0.030839218 -0.058957964
000310 88 08 1b 3d 0f 48 cf bd 24 a3 4c bd 5a 09 a9 3c
       0.037849933 -0.10121166 -0.04996027 0.020634342
000320 42 a2 6b bb 10 b2 d5 b9 6b a5 ef 3c de d2 a6 bd
       -0.0035954867 -0.00040759193 0.029253682 -0.081456885
000330 db 6f ec 3d b1 72 77 bd 00 da 07 be b3 06 f9 3c
       0.11544772 -0.060412113 -0.13266754 0.030398702
000340 1d d9 30 3d df 90 df 3d 8b da 3b bc 16 7c 2a bc
       0.043175805 0.10916304 -0.011465679 -0.010405561
000350 56 5b 89 3d c6 7c ef bd 41 2c 16 3e 0f 90 08 3d
       0.06706874 -0.116937205 0.14665319 0.03334051
000360 48 1e 13 3e f7 e9 9d 3d 15 28 0f be 5b 4c 58 3d
       0.1436702 0.07710641 -0.13980134 0.052807193
000370 4b 14 24 bd 9e 83 01 3e d3 4f af bd e8 78 a9 3d
       -0.040058415 0.12647864 -0.08560147 0.08275014
000380 58 1c b2 bd c7 6d ea bd aa cd 89 3d 68 6f 87 bd
       -0.086968124 -0.114467196 0.067286804 -0.06613046
000390 38 c7 d8 bd 81 c7 55 bd 4b 94 6e 3d 72 f4 10 3e
       -0.10584873 -0.052192215 0.058246892 0.14155748
0003a0 e3 46 1c bd 30 70 bf 3c d9 13 28 bd e2 72 ee bd
       -0.03815354 0.023368925 -0.041034553 -0.11643006
0003b0 9b bc cc 3d 31 18 a0 3c f3 b7 82 3d a6 f0 35 3d
       0.09996911 0.019542785 0.06382742 0.044418953
0003c0 15 1d 65 bd eb 29 2f bd ba 8c 25 bd 0f b3 28 3d
       -0.055935938 -0.042764585 -0.04041741 0.04118639
0003d0 34 03 1f 3d de b2 04 3e 1d ed 7b bd 0f 8f 90 3d
       0.038821414 0.12958857 -0.061505426 0.07058536
0003e0 4e b3 d0 bc ba 9f cd bd 03 d5 92 3d 50 07 11 3e
       -0.025476124 -0.10040231 0.07169535 0.14162946
0003f0 32 95 06 3e 29 7d 3d bd fc 43 cc 3d 3c ff 3a 3c
       0.13142851 -0.04626194 0.099739045 0.011413392

lstm.weight_hh_l1 f4 [200, 50]
000000 4b 20 bc bc 2c 56 03 3e 4e 55 38 bd a1 31 04 3d
       -0.022964617 0.1282584 -0.045003228 0.032273892
000010 a5 67 d9 bd c4 ab 0e be 14 53 94 3d 4a 38 90 3d
       -0.10615472 -0.13932711 0.072424084 0.07041986
000020 68 56 1f bd d8 a8 df 3d 74 33 df bd ea 43 08 3e
       -0.038900763 0.10920876 -0.10898486 0.13307157
000030 d3 dd 7a bd de 71 b4 bb db d1 6b 3d a8 9f fc 3c
       -0.061246704 -0.005506738 0.05757318 0.030837849
000040 7f 79 61 bc d7 b2 ab 3d a5 bf dd 3d e1 52 b3 3d
       -0.013761877 0.0838372 0.10827569 0.08756042
000050 73 ce 07 be 8f e2 eb bc 01 43 81 bd c5 d4 82 3d
       -0.13262348 -0.028794555 -0.06311608 0.06388239
000060 94 83 0f 3d 5f 98 b4 3d 58 ba 95 bc 97 23 a4 bd
       0.035037592 0.08818125 -0.018277332 -0.08014601
000070 fc f5 a4 bd 53 c6 fb 3d fe be 05 be ff f6 e6 bd
       -0.0805473 0.12293687 -0.13061139 -0.112775795
000080 cb 0a c9 bd 14 17 e1 3c dc df 02 3e ed 82 d8 3d
       -0.09816512 0.027476825 0.12780708 0.10571847
000090 dc 02 11 3e 54 5c b7 bd 38 f8 ea bd 50 24 62 bd
       0.14161247 -0.08953157 -0.11473125 -0.05521041
0000a0 b9 a1 7d bc a3 1a 92 3d 3f 4b ad bd 19 fe ae 3d
       -0.015480452 0.07133987 -0.08461618 0.08544559
0000b0 98 6a da bc 3a b0 b4 bb ec 1b 49 3d e9 95 b8 bd
       -0.026662156 -0.005514172 0.049098894 -0.09012968
0000c0 b9 8b e6 3b d9 94 21 bd 2e f2 83 3d 09 5f fc 3c
       0.007035699 -0.039448593 0.064426765 0.030807035
0000d0 cf 20 9f 3d 56 0c 4b 3d 2b cc 67 bc ec 13 ae bc
       0.077699296 0.04957231 -0.0141477985 -0.021249734
0000e0 79 d7 79 3d 77 07 57 3c a9 84 2a bd f3 79 1d b9
       0.060996506 0.013124338 -0.04163042 -0.00015018116
0000f0 19 b0 d4 bd 55 87 06 bd 9e a4 85 bd b0 84 0c 3d
       -0.103851505 -0.032843906 -0.06525539 0.03430623
000100 48 1d d9 bd a6 8a b1 3b e0 07 e3 3d 8b c0 2f bb
       -0.10601288 0.0054181395 0.110854864 -0.0026817645
000110 b0 13 60 bd 08 98 b1 bd 4c b9 9b 3d 87 41 d4 bd
       -0.054706275 -0.08671576 0.07603702 -0.10364061
000120 6b 69 2c bd 71 08 8f bd 59 b3 ec 3d 58 07 a9 3d
       -0.042092722 -0.06984032 0.11557645 0.08253354
000130 5d a6 8d bc 3c 06 5c bd 32 ce d5 3d 4d 1d c6 3d
       -0.017291242 -0.053716883 0.10439719 0.096735574
000140 32 23 c8 3d 87 42 f5 3d d1 fb d3 bd c7 89 3d 3d
       0.09772338 0.1197558 -0.103507645 0.046273973
000150 67 3c f3 bd 58 cd 5c bd 1a df 3a 3d a3 0f 8e bd
       -0.11876755 -0.05390677 0.045622922 -0.06936576
000160 e9 27 14 3e 84 fc 18 bd 20 27 96 bd 71 59 ce 3d
       0.1446835 -0.037350193 -0.07331681 0.10075653
000170 11 f7 b5 bd 5e a8 b2 bd f5 31 36 bd 1d 68 84 3a
       -0.08885015 -0.0872352 -0.044481236 0.0010101829
000180 bb 8a 99 bd a7 c5 2e 3d dc fd 1e 3d b2 4b c0 3d
       -0.07497164 0.042668965 0.038816318 0.09389438
000190 db 59 3f 3d 55 d6 18 bd 2f 4c 72 bc 25 d6 03 3e
       0.046716552 -0.037313778 -0.014788671 0.12874658
0001a0 9d 92 b3 bc fe 12 bb bd 0a f9 63 3d 99 17 a5 bd
       -0.021920497 -0.09134482 0.055657424 -0.080611415
0001b0 cd ce 72 bd 68 6a eb 3d 04 f0 b0 3c 13 a0 ed bd
       -0.05927925 0.11494905 0.021598823 -0.11602797
0001c0 23 09 15 3d d4 f9 94 bc 09 b5 cb 3d 6e 36 da 3d
       0.036385667 -0.018185534 0.09946639 0.10654913
0001d0 c8 64 10 3d a5 fe 44 3d aa af f8 bd e7 7d 04 3e
       0.035252362 0.04809441 -0.1214288 0.12938653
0001e0 87 8a eb bd 86 92 05 bd 77 c1 6e 3d ee 10 00 3e
       -0.11501031 -0.03261044 0.05828997 0.12506458
0001f0 60 30 84 3d 42 64 5b bc bd 18 34 bd 42 d6 38 3a
       0.06454539 -0.013390603 -0.043968905 0.000705097
000200 dc 2a 01 3e 21 14 f9 3d 92 71 e2 3d fd b2 0d 3d
       0.12614006 0.121620424 0.11056818 0.034594525
000210 ed 3c c2 bd 5a d7 94 bd 75 88 fd bd 0e e7 75 3c
       -0.09484277 -0.072676376 -0.12379543 0.015008701
000220 b1 05 2b bd f8 65 20 3d f8 8c f4 3d 7a 2d cb 3d
       -0.041753475 0.039159745 0.1194095 0.09920783
000230 5f a7 9f 3d 13 0e 47 3c 5e 99 03 be dd 65 93 bd
       0.077955954 0.012149352 -0.12851474 -0.07197163
000240 be 46 fc 3c f4 25 07 3e 9f 65 d2 3d d3 88 83 3d
       0.030795451 0.13198072 0.10273289 0.064225815
000250 41 e0 b7 bd 34 03 57 bc 7e a1 65 3d f6 57 dc 3c
       -0.0897832 -0.013123322 0.056062214 0.026897412
000260 76 0e b1 bd 2e 60 11 3c 5f 3b 18 be 74 ee 0e be
       -0.08645336 0.008873029 -0.14866398 -0.1395815
000270 40 83 bf bd 63 bc 10 be 31 61 fb 3b 32 b9 8d 3d
       -0.09351206 -0.14134364 0.007671498 0.06920089
000280 19 6d 51 3d 35 d8 ea 3d b4 3f 06 3e 18 b8 dd bd
       0.051129434 0.114670195 0.13110238 -0.10826129
000290 2a 03 82 3d f0 8c 0c 3e 92 70 cf bc ca 74 8d bc
       0.0634826 0.13725638 -0.025322232 -0.017267603
0002a0 5f 79 96 3d 8b a7 c0 bd fa 81 07 3e da 1d c3 bd
       0.073473684 -0.09406956 0.13233176 -0.09527178
0002b0 93 01 c1 bb 35 ff 22 bd 43 65 0d 3d 15 46 81 3d
       -0.0058900802 -0.039794166 0.0345204 0.06312195
0002c0 a3 a3 08 be e4 30 9a bd 06 82 40 3b de dc 98 bd
       -0.13343672 -0.075288564 0.0029374375 -0.07464002
0002d0 67 96 14 3d 4f 66 1c 3e 36 13 01 3d 36 78 1d 3e
       0.036276247 0.15273403 0.03151246 0.15377888
0002e0 10 9d 0d 3d 84 c3 11 be 0a 47 79 3d a4 2d 83 bd
       0.034573615 -0.1423474 0.060858764 -0.0640519
0002f0 12 6c 13 bd 92 e5 ea 3d 98 28 87 3d c5 f8 9a bc
       -0.035991736 0.11469568 0.065995395 -0.01891745
000300 a6 28 a4 bd 56 38 79 3d 2a 46 2f ba ae c0 e6 3d
       -0.080155656 0.06084474 -0.00066861755 0.112672195
000310 5a e2 a9 bc 50 93 56 3c 77 da 27 3d 64 44 40 bc
       -0.020737816 0.0130966455 0.04097983 -0.011735056
000320 d6 4e 31 3d e9 84 f2 3b 2a 2c 06 be ee 4d a3 3d
       0.043288074 0.007401098 -0.13102785 0.07973848
000330 70 25 0b 3d 5b bf d2 3b 08 21 a0 3d 44 0d 03 be
       0.03397125 0.0064315028 0.078188 -0.12798029
000340 54 17 21 bd 9c 6a 06 bd 3b 23 4d 3b 6a bc f2 3d
       -0.039328888 -0.032816514 0.0031301517 0.118523434
000350 fa 22 bd bd 55 99 a8 bc 07 87 9c bc ca ad 41 3d
       -0.09235187 -0.020580927 -0.019107355 0.04728488
000360 fc b7 e7 3d 48 2a 8c 3d 83 97 72 bc af 08 d4 bd
       0.11314389 0.06844002 -0.014806631 -0.10353219
000370 32 a0 43 bd 17 bf 53 3c 47 d5 8a 3d a8 84 3e 39
       -0.047760196 0.012923977 0.06778961 0.0001816923
000380 3c 41 03 be 0d 7b eb bc f3 59 0b 3d 85 ae e8 bc
       -0.12817854 -0.028745199 0.03402133 -0.02840353
000390 a9 80 fd 3d 86 85 0f 3e fd 04 d6 3d 4c 0e 93 bd
       0.123780556 0.14015779 0.1045017 -0.07180461
0003a0 37 aa 8d bd a0 54 1b bb 37 c1 44 bd 58 d9 bb 3d
       -0.069172315 -0.0023701563 -0.048035827 0.091723144
0003b0 88 68 03 be 73 ce b3 bd 59 aa f3 bd 84 fc f2 3c
       -0.12832844 -0.087796114 -0.118977256 0.029661424
0003c0 72 7b 81 bd 1e ae dd 3d 2d cf 9b bd 5e 12 ff bd
       -0.063223734 0.10824226 -0.07607875 -0.12454675
0003d0 62 d4 dc bb dd 32 fb bc d2 ca 2c 3d 2a c9 31 bd
       -0.006739185 -0.030663902 0.042185612 -0.043404736
0003e0 cd f6 b1 bd 00 3b a4 bb cd ab 0a be a7 e1 d2 bd
       -0.08689652 -0.005011916 -0.135421 -0.10296946
0003f0 bb c3 a8 3d 44 7e b3 3d dd f0 43 3d b1 f3 61 3c
       0.082404576 0.08764318 0.047837127 0.013791011

lstm.bias_ih_l1 f4 [200]
000000 0b 9b 48 3b 4f 5b 2d bd fc 7c ad 3d 6f 61 e9 3d
       0.003060999 -0.042323407 0.084711045 0.11395537
000010 31 f2 c5 bd e0 76 04 be 10 95 c8 3d 26 30 c2 3d
       -0.09665335 -0.12935972 0.097940564 0.0948184
000020 89 52 d4 3c db 50 00 be 5d c2 67 bd 16 6a 31 bc
       0.025918262 -0.12530844 -0.056581844 -0.0108285155
000030 4f b8 08 3e d6 38 18 3e e6 02 44 3d 8a 23 0f bd
       0.13351558 0.14865431 0.047854327 -0.034946002
000040 00 34 b0 bd 12 b9 e7 bd 88 34 60 3d 5a dd e9 3c
       -0.08603668 -0.11314596 0.054737598 0.028547931
000050 82 8f 8d bd d0 20 ff bd 49 c3 8d 3d dd 3f fe 3c
       -0.069121376 -0.1245743 0.06922013 0.031036312
000060 ce 61 79 bc d9 98 76 3d 52 f6 ca bd c4 bb 70 bd
       -0.015221072 0.06020436 -0.09910263 -0.058772817
000070 88 f1 1b bd a5 66 1c bd 69 75 54 3d b3 d6 ed bd
       -0.03807214 -0.038183827 0.051869784 -0.11613216
000080 ba 6b 83 bb 84 54 d0 3c 8a 37 d1 3d 80 57 47 3d
       -0.0040106447 0.025430925 0.10215671 0.04866743
000090 15 0b 88 3d bc db ec bd 26 89 b3 bd 69 7f 94 bd
       0.06642739 -0.115653485 -0.08766393 -0.07250864
0000a0 eb 7f c9 3d 3a 49 01 be 1e 42 7e bd 9a c2 9d bc
       0.098388515 -0.1262559 -0.062074773 -0.019257832
0000b0 f1 09 a4 bd 48 48 60 bd 03 86 1a be 05 d2 d3 3a
       -0.08009709 -0.054756433 -0.15090184 0.0016160613
0000c0 0d ea 00 3e b0 0f 0b 3e 2c 22 fe 3d 36 c1 b2 3d
       0.12589283 0.13580203 0.124088615 0.08728258
0000d0 55 77 2b bd 03 f5 be 3d 3c 3c 15 3d 16 f4 df bd
       -0.04186185 0.09324076 0.036434397 -0.109352276
0000e0 1b af c2 3d ed 85 1b bb 55 06 0d 3d f8 42 8b 3c
       0.09506055 -0.002373095 0.034429867 0.016999707
0000f0 48 7a f6 bd 09 0e ad 3d 4a 7f 1a 3e b3 1f ad bd
       -0.12035042 0.084499426 0.1508762 -0.08453312
000100 cf b2 ad bd ad 54 d0 3d a2 8c bb 3c 2e d1 a1 3d
       -0.08481371 0.101724006 0.022894207 0.07901226
000110 73 ec ea 3c fe 72 6f bd db 4b 32 3b 45 b8 54 bd
       0.0286772 -0.058459274 0.0027205858 -0.051933546
000120 5d ca 1a 3e 2e 5c 01 be 3f 4e 34 bd ad 48 6a bb
       0.15116258 -0.1263282 -0.044019934 -0.0035748885
000130 2a 76 16 3e a0 fa 0f bd be a2 fc bd 49 de 66 bc
       0.14693514 -0.035151124 -0.12335728 -0.014091083
000140 5d 5e 91 3d d4 48 a4 3d 06 38 12 be 53 f9 07 3d
       0.070980765 0.08021703 -0.14279184 0.03319676
000150 1d 07 7d bc e0 d7 d8 3d 70 d5 95 bd 14 f7 ef 3d
       -0.0154435905 0.1058805 -0.073161006 0.11717048
000160 a3 51 01 3e 1e ac cd bd 7b 7a 12 be d0 54 9a 3c
       0.12628798 -0.100425944 -0.14304535 0.01883927
000170 b7 88 9a bd 76 26 ce bd f1 87 0d bd a5 3a 2d bd
       -0.075456075 -0.100659296 -0.034553472 -0.042292256
000180 14 78 81 3d c5 3d b2 3b 93 df 93 3c 7f e6 ba bb
       0.06321731 0.0054394924 0.018050944 -0.005703747
000190 c4 a3 b7 3d b7 2b ba bb 52 12 d3 bc c3 46 8f bd
       0.08966783 -0.0056814807 -0.025765572 -0.069959186
0001a0 85 7f bb bc f6 94 c0 bd 77 ef 02 3e 36 cf 48 bd
       -0.022887954 -0.09403412 0.12786661 -0.049025737
0001b0 4b f8 89 bd d6 d7 07 3e 54 55 06 3d f0 99 6d bd
       -0.06736811 0.13265929 0.03279622 -0.058008134
0001c0 49 2b d5 3d 27 36 17 be de f7 4d bd ad e0 0d 3c
       0.104086466 -0.14766751 -0.050285213 0.008659524
0001d0 2b 4e 97 bd ae 3d fa bd e5 3a b1 bd a8 e8 b1 bc
       -0.07387956 -0.12218796 -0.08653811 -0.021717384
0001e0 40 e1 03 3d 4a 3d b1 3d 80 d4 3b 3c 73 67 8e 3d
       0.032197237 0.08654268 0.011464238 0.06953325
0001f0 d6 1f c3 3d b5 6a c5 3d 0b b2 0a be 07 e3 86 3d
       0.095275566 0.096394934 -0.1354448 0.06586271
000200 94 ab e0 bc b1 22 12 3c 76 96 57 3d 8a 18 fc 3d
       -0.027425565 0.008919404 0.052633725 0.12309368
000210 11 53 55 3d ba 0d 85 bd de 23 88 3d b0 25 10 be
       0.05208117 -0.06496759 0.06647466 -0.14076877
000220 8d 7d c1 bd be b3 ef 3d b7 db f4 3d e5 f9 cd bd
       -0.09447775 0.11704205 0.1195597 -0.10057429
000230 c0 c0 d3 bd d6 f0 41 3d d0 8c 04 be 1c 84 d6 3d
       -0.103394985 0.04734882 -0.1294434 0.104744166
000240 a1 68 db 3d 4e c1 76 3d d6 77 7a bd d4 3f 38 bc
       0.10713316 0.060242943 -0.06114944 -0.011245687
000250 c9 1b 66 3d bb 4e 85 bd c4 5b 03 be 47 b2 e4 bd
       0.05617884 -0.06509157 -0.12827975 -0.11166816
000260 e3 01 a0 bd a0 cd d6 3d 66 f9 bf bc a0 4b 84 bd
       -0.0781286 0.104884386 -0.023434352 -0.06459737
000270 11 b6 e2 bd e7 e0 be 3d 1f aa c6 bd c8 3d 2f bd
       -0.11069883 0.093202405 -0.09700417 -0.04278353
000280 ef b2 e2 bd 23 db 08 bd 8f 77 0d bd 59 fd 64 bc
       -0.11069285 -0.03341211 -0.034537848 -0.013976418
000290 27 cd cb bd 40 35 d0 3c 88 a7 a8 3d 68 ec 88 bc
       -0.09951239 0.025416017 0.08235079 -0.01671429
0002a0 87 9d f5 3d f8 05 a1 bd 2f 85 86 3d a1 ef b4 bd
       0.119929366 -0.078624666 0.065683715 -0.08834768
0002b0 1a 4c 1d 3e e1 3c 26 3d 41 7a e4 bb bb ad b9 bd
       0.15361062 0.040585402 -0.0069725816 -0.090663396
0002c0 df 70 0e 3e 9a 23 ab bc e0 78 a1 3d 8c bc 8f 3d
       0.13910244 -0.020891 0.07884383 0.07018384
0002d0 ac da e7 bd 43 37 fc bb 07 ab 3e 3c 4d 9e 42 3d
       -0.11321005 -0.0076970174 0.011637456 0.04751425
0002e0 84 de d3 3b 2f 36 7c 3d 8e c3 a7 3c 73 9a 0b bd
       0.006465735 0.06157511 0.02047899 -0.03408284
0002f0 cb 8e c5 3c 4e 0b ea 3c 3a 05 b2 bc f7 46 ed bd
       0.02411594 0.028569844 -0.021731008 -0.11585801
000300 86 9a ce 3d c3 63 17 3d ea 6d a4 bd 2f 1c 29 3d
       0.10088067 0.036960375 -0.08028777 0.041286644
000310 4a 46 48 3d 15 10 06 3d 10 f6 01 be 81 ec e5 3c
       0.048895158 0.03273018 -0.12691522 0.028066875

lstm.bias_hh_l1 f4 [200]
000000 93 ea c0 3d 50 16 1c 3e 8a 7f 88 3b 49 aa 98 bd
       0.094197415 0.15242887 0.0041655945 -0.07454354
000010 49 fe f4 bc 80 76 64 bd 8d 7c bf 3d 70 52 29 bd
       -0.029906409 -0.055777073 0.09349928 -0.041338384
000020 ff 10 da 3d ae c2 db 3d 2b 69 d6 bd f0 5a d4 3d
       0.10647773 0.107304916 -0.10469278 0.103689075
000030 cd bb 2c 3a 5c 1c cd 3d 27 bc 5f 3d 06 ae 11 3d
       0.0006589264 0.10015175 0.054622795 0.035566352
000040 d4 04 e9 3c 9b 0f 95 3c a1 d5 53 3d 91 3b a8 3c
       0.028444685 0.018195918 0.051717404 0.020536216
000050 ba a1 45 3d 2c 18 9d 3d 44 f6 df 3c 43 f1 91 3d
       0.048249938 0.07670626 0.027339108 0.07126095
000060 48 94 e3 bd 8b 7c 79 bc c0 0f ed bd ba 21 75 bd
       -0.11112267 -0.015227447 -0.1157527 -0.059846617
000070 b5 7e a1 bd 20 a1 e0 bd 14 8d e2 bd a6 a1 8f 3d
       -0.078854956 -0.10968232 -0.11062065 0.07013254
000080 d3 6d 8f bd 6f 95 e9 bd af 1e 6c bd 42 be cb 3d
       -0.07003369 -0.11405455 -0.05764645 0.09948398
000090 82 b3 5f bd 5d cf 82 3d d6 b5 74 bd 8f e0 a0 bd
       -0.05461455 0.06387208 -0.059743725 -0.07855331
0000a0 27 ca 8d 3d fe 4a bb 3d ce 80 11 bb c5 e5 47 bd
       0.06923323 0.09145163 -0.0022202018 -0.04880311
0000b0 8e 90 1f bc 4d 2b 81 3d 63 cd c4 bd 0b c5 d7 3d
       -0.009739054 0.06307087 -0.09609487 0.1053563
0000c0 7b 36 22 3d 7c 34 c7 bd df 4d a9 bd d9 87 e9 bd
       0.039602738 -0.097268075 -0.08266806 -0.11402864
0000d0 7a b8 d9 3d 3d 3b 1b 3e 2a 2e 0a bc 7a f0 fd 3d
       0.10630889 0.15159316 -0.008433858 0.12399383
0000e0 0b 21 ef 3c e8 ec 23 3d d6 48 63 3c 18 8b d9 3d
       0.02919056 0.040020853 0.013872346 0.10622233
0000f0 d6 36 0e 3e 1d 6c fb bc 7e 23 dd 3d 7b 5d 04 3e
       0.13888106 -0.0306912 0.10797785 0.12926285
000100 41 83 3a bd f3 e8 0a 3e 1b d5 a9 3c 35 f7 c2 3d
       -0.04553533 0.13565426 0.0207315 0.09519807
000110 5f 71 b7 bd 43 86 50 bd 92 48 b5 ba bb e4 29 3d
       -0.08957171 -0.050909292 -0.0013830832 0.0414779
000120 1e 0b b4 3d d2 4a 59 3c 5e b2 0d be d0 7c 6f bd
       0.08791183 0.013262467 -0.13837573 -0.05846864
000130 0c 96 6b bd 4d 15 af 3b 40 b9 ac 3d 46 e2 cd 3c
       -0.057516143 0.0053431154 0.08433771 0.02513231
000140 41 05 b5 3b 79 41 72 3d 04 cb 00 be 0c 14 0d bc
       0.005524308 0.05914447 -0.12577444 -0.008610737
000150 de ba 96 3d 08 ab f2 3d 64 ab 84 3d 0d 95 21 bd
       0.07359861 0.11849028 0.06478003 -0.039448787
000160 ce e0 b2 3c 74 5f 7b 3d e5 51 60 3d b3 45 dd 3d
       0.02183571 0.061370328 0.0547656 0.1080431
000170 d6 93 ca 3d e0 87 29 3d 64 ff f3 3c a1 e1 ad bd
       0.09891479 0.041389346 0.029784866 -0.08490301
000180 3a 70 00 be 79 cf 9c bc a4 9a 99 3c cc e3 be bd
       -0.12542811 -0.0191419 0.018750496 -0.093207926
000190 70 c6 da bc be e8 d6 bd 9d 14 5f 3d 77 7a f8 3d
       -0.02670595 -0.10493611 0.054463018 0.12132733
0001a0 d5 ab 10 be f0 6e 8c 3d 75 5b f1 bc 4f 0c f1 bc
       -0.14128049 0.06857097 -0.029462555 -0.029424815
0001b0 bf 75 de 3d ab 37 4d bd 02 4c c5 bd 0f a7 00 be
       0.10862302 -0.050101917 -0.09633638 -0.12563728
0001c0 78 c4 21 3d fd 2c 26 bd 41 bc d9 3c 59 45 87 3c
       0.039494008 -0.040570248 0.026579024 0.01651256
0001d0 70 89 11 be 13 47 e2 bc 2d 58 c5 bd cd 29 1d be
       -0.14212584 -0.027621781 -0.09635959 -0.15347977
0001e0 e3 8e 1a 3e 7c 08 87 3d 61 68 df 3d 5c f0 0f bd
       0.1509357 0.06593415 0.109085806 -0.035141334
0001f0 8f d0 37 3c f2 6a f6 bd 1c b4 29 bb 08 af 88 3c
       0.011219158 -0.12032117 -0.0025894707 0.016685024
000200 dd a0 46 3d 52 e0 6b 3d 32 1f 8a bd 0d 5b 98 bd
       0.048493255 0.057586975 -0.06744231 -0.074392416
000210 1e 2f 84 3d 15 21 f9 3d 62 68 5b bd 07 58 8b 3d
       0.064542994 0.12164513 -0.053566344 0.06803899
000220 82 23 60 3b 8e 75 05 bd 00 a1 62 3c 8c b9 0d be
       0.0034200852 -0.032582812 0.013832331 -0.13840312
000230 a7 49 f5 3d aa 39 f7 bd bb 0b 07 3d 26 e8 99 bd
       0.11976939 -0.120715454 0.03297017 -0.07514982
000240 2d 2d 25 3d c4 8f 1d 3d 29 35 3a bd 11 00 d8 3d
       0.040326286 0.038467184 -0.045460854 0.10546888
000250 50 f8 d2 bd bf 20 67 3d 46 6b f2 bd c1 c6 c2 bd
       -0.10301268 0.056427713 -0.11836867 -0.095105655
000260 8b f7 b5 bd 85 05 bd 3d e9 b4 39 bd b1 92 0a 3e
       -0.08885106 0.092295684 -0.045338545 0.13532521
000270 56 22 e5 bc b5 a1 0f bd 2e ec f9 3d a9 6f 1a 3e
       -0.027970474 -0.035066325 0.12203251 0.15081657
000280 c8 65 12 3e e2 d1 13 be ef 10 a6 3c 19 7f bb 3d
       0.14296639 -0.14435533 0.020271746 0.09155101
000290 ac 9c 16 be c9 25 13 3e 23 9b c2 3d be 4b 77 3c
       -0.14708203 0.14369883 0.09502246 0.015093742
0002a0 37 1a 86 bd 24 a7 13 3e 0a c6 95 bd 72 d1 ba 3d
       -0.06547969 0.14419228 -0.073131636 0.0912198
0002b0 c2 49 89 bd 0f df 02 3e 7e 87 b3 bc e5 e8 07 3e
       -0.06703521 0.12780403 -0.021915194 0.13272436
0002c0 34 97 ba 3d 56 f5 85 bd 7e c5 0d 3e cd 44 cc bd
       0.09110871 -0.06540935 0.13844869 -0.0997406
0002d0 80 77 6a 3d e7 e1 1b 3e 09 f4 e9 bd ed 19 d2 bd
       0.05724287 0.15222894 -0.11423499 -0.10258851
0002e0 5c c0 3d 3d 73 a3 10 3e 4d ab a6 ba e3 de 26 3d
       0.046326026 0.14124851 -0.0012715847 0.040739905
0002f0 81 a0 98 3c 3e 91 d5 bd 52 fa 9f bd 40 24 b7 3d
       0.018631222 -0.104280934 -0.07811417 0.08942461
000300 c7 66 75 bd 6e 78 a0 3c 83 f3 90 bc 15 11 6c 3c
       -0.05991247 0.019588675 -0.01769424 0.01440837
000310 82 fb 57 bb 33 ad 8e bd 15 e5 03 3b 7d ab 8c 3c
       -0.0032956307 -0.06966629 0.0020125557 0.017171616

fc.weight f4 [1, 50]
000000 5c 75 fd bc 8b b8 f5 bd 15 e5 76 3d 66 a9 55 3b
       -0.03093975 -0.119980894 0.060277063 0.003260219
000010 e3 57 e0 bd f9 58 a8 bd e7 af da 3b cc 40 48 3d
       -0.10954263 -0.08220095 0.006673801 0.04888992
000020 62 c1 66 bb b5 cb 0b 3e ff 3c aa bd c0 80 0e 3c
       -0.003521048 0.13651927 -0.08312415 0.008697689
000030 11 8f 09 3e 01 8d c7 bd a2 e3 bf 3a 96 53 df 3d
       0.13433482 -0.09743691 0.0014639983 0.109046146
000040 62 c9 ea bd 4c 4f ec bd a5 bb 11 be 35 1f 1e bd
       -0.11464192 -0.11538562 -0.14231737 -0.03860398
000050 ac 15 b3 3d 76 b0 f0 3c a5 22 0c 3e f1 e5 7e 3d
       0.08744368 0.029381018 0.13685091 0.062231008
000060 31 4d 97 bd 9e b2 ca bd 4b 43 41 bd a1 8e a5 3c
       -0.0738777 -0.0989735 -0.047183316 0.020209612
000070 31 90 c4 3d 6d 60 d3 3d db 30 33 bd 77 30 97 3d
       0.09597815 0.10321126 -0.043747764 0.07382291
000080 49 e2 d7 bd 77 2a 97 bd 54 c3 b3 3d 49 96 0f be
       -0.10541207 -0.073811464 0.0877749 -0.14022173
000090 5f c5 c1 3d 00 63 b4 3d eb 7d c3 3c a1 44 6d bd
       0.09461474 0.08807945 0.023863753 -0.057926778
0000a0 d7 2e de 3d d6 32 9f 3b c9 62 9c bd 39 77 83 bb
       0.10848778 0.004858355 -0.07636029 -0.004012015
0000b0 ff 36 ad bd 16 3b fa 3c b4 16 89 bc 60 90 18 3c
       -0.08457755 0.030545752 -0.016734459 0.009311765
0000c0 a2 d2 ec bd 5d 11 05 be
       -0.115636125 -0.12994905
