models/daily_model_ETH_USDT.pth (torch, 128277 bytes, 9 tensors)

lstm.weight_ih_l0 f4 [200, 1]
00000000: a640 93bd f867 debd 3a7b f53d e660 1c3e
00000010: 7c4e 183e 5a3a 79bd 246c 1a3e ac89 1ebb
00000020: 6c4c 613c 8d70 823c be67 583c ebd1 c5bc
00000030: d332 7e3d 6244 c7bd b5b4 933d cea7 333d
00000040: 3c78 b0bd 50da 00bd ae97 0ebe f991 bebd
00000050: 1cd7 95bd 844f d23d 6449 80bd 2433 9abd
00000060: 1263 203e c9de 07bd abbb dbbd 0545 bd3d
00000070: ec9d f8bc f2a9 be3d f756 08be c97f a8bd
00000080: b5f2 d83b b957 723d c4cc 8dbc 469a 1a3e
00000090: 2162 1e3e ec05 f43d f573 043d de4d 03be
000000a0: b019 a6bd 6a43 cbbd 642f a83b 8464 dfbc
000000b0: 8a6c a3bd 8e85 c23d dbd0 073e b5fc 453c
000000c0: fb6b 17be 92b3 bebb 69be 9dbd 2344 9f3c
000000d0: 00ac 12bc a308 e0bd 146c b83d aa25 133e
000000e0: df11 163e 2664 823d 369c 9abd 5992 1a3d
000000f0: 126e 213e af06 d23d 1895 03bd f74d 183e
00000100: 12f8 b63d 5b7e 6dbc 212f 0f3d e735 833c
00000110: bea4 013e a529 efbd 503a 4cbd a9f8 9f3d
00000120: dafa f1bd 8aac 0fbd b3ef b43d 90cc cabd
00000130: ead8 b6bc 4069 ef3d 6ea1 c93b 1e7e c23d
00000140: f156 b1bd 3cce fb3d 1dad 143e 759f 3a3c
00000150: 686a 8bbd c3dd 55bc 857b 173e 230a fbbd
00000160: 6c26 9cbc 532f b9bd 5ba6 3bbd 3a23 d2bd
00000170: b961 913d e019 2a3d 1942 edbc ec2b 28bd
00000180: 1a31 93bd a935 813d b76c 00be d464 053e
00000190: 9f85 cebd 431f 85bc 1674 ee3d e8cc 973c
000001a0: cefe c0bd eb5b edb9 0700 f0bd ea84 4b3d
000001b0: 6009 6db8 2da7 533d ddc0 c13d 42b2 a93d
000001c0: ffe0 16bd 98e4 073d 8ba6 a3bd 8f47 d03b
000001d0: 78a6 69bc 69ff f5bb 02b3 05bd 68fb 873d
000001e0: 2ec2 843d 57d3 523c 0cc9 adbd 5d60 5bbd
000001f0: 0c81 df3d eb34 9e3d 6049 12be 5869 7dbc
00000200: 4e3a 0bbd 5b0b c8bd 6d78 90bd 20a5 ef3d
00000210: d17d 85bd d8e9 11bd bbf5 053e 394d d0bd
00000220: 2456 bcbd 5077 2ebd 9f53 d4bd 1b34 0cbd
00000230: 7811 0f3d 861f 43bd a007 6a3d aa85 0abe
00000240: f435 093e 6ae2 7fbd 4e47 eabc 1493 353d
00000250: 2bc9 48bd ad80 fbbd 4601 11be 0856 fc3a
00000260: 12d6 48bd 90ad 0dbd ddcc 57bc 88f2 ec3d
00000270: aa4f f8bd ad6e 8cbd f8b1 583d 1e81 5ebd
00000280: 6c77 483d cd1c 00be 2c59 023e a1c9 c9bd
00000290: 06a5 513d a69d 95bd c047 cf3c f923 d9bd
000002a0: 1018 813d 0bb6 62bd 2ff7 0b3e d857 143d
000002b0: 0246 a8bd 9c25 c3bc 34a6 d2bd 1dc7 9d3c
000002c0: 9691 abbd abe0 093e 6750 2cbd b330 8bbd
000002d0: 3180 c1bc 105f 823a df30 033e e5b4 c4bc
000002e0: 538e dc3d 5ad4 c83d 932a c13d 6a8a 01be
000002f0: 9875 263d 88da 933d ff24 a8bd 8842 e33c
00000300: 696c 3d3d 5c8d 9fbd 9cfe b23d 1ace 8e3c
00000310: 6295 f8bd 1ab2 b93d 95f8 19be e162 b1bd
-0.07190065 -0.10859674 0.11986394 0.15271339 0.1487369 -0.060846664 0.15080315 -0.0024190946
0.013751131 0.015922809 0.013208328 -0.024147948 0.06206019 -0.0972984 0.072122015 0.043861203
-0.08616683 -0.0314582 -0.13925049 -0.09305186 -0.073164195 0.10269073 -0.06263998 -0.075292856
0.15662792 -0.03317145 -0.10729154 0.0924168 -0.03034874 0.09309758 -0.13314424 -0.08227498
0.00662073 0.05916569 -0.017309554 0.15097913 0.1546712 0.11915192 0.032337148 -0.12822673
-0.08110368 -0.099249676 0.0051326025 -0.02726961 -0.079796866 0.0949813 0.13263266 0.012084176
-0.14787285 -0.0058197463 -0.077023335 0.01944167 -0.008952141 -0.10939147 0.09004989 0.14369836
0.14655255 0.06366758 -0.07549326 0.037737224 0.15764645 0.10255181 -0.03212461 0.14873491
0.089340344 -0.0144954575 0.034957055 0.016016914 0.126605 -0.11677865 -0.0498603 0.078111
-0.11815424 -0.035076655 0.088347815 -0.099022985 -0.02232023 0.11689997 0.006153277 0.09496711
-0.08659161 0.122951955 0.14519162 0.011390557 -0.06807405 -0.01305336 0.14793213 -0.12257793
-0.01906129 -0.090422295 -0.045812946 -0.10260625 0.07098717 0.041528583 -0.028962182 -0.041057512
-0.071871 0.06309063 -0.12541471 0.13026744 -0.1008408 -0.016250258 0.116432354 0.018530324
-0.094236 -0.00045272647 -0.11718755 0.049687304 -5.6513934e-05 0.051673103 0.09460614 0.08285953
-0.036835667 0.03317699 -0.0799075 0.0063561867 -0.014260881 -0.007507254 -0.03264142 0.06639749
0.06482349 0.01286777 -0.08485612 -0.053558696 0.109132856 0.07724937 -0.14285803 -0.01546701
-0.03399115 -0.09767791 -0.070542194 0.11701417 -0.06518138 -0.0356234 0.1308202 -0.10170979
-0.091961175 -0.042594254 -0.10367512 -0.03422938 0.03492877 -0.047637485 0.057136178 -0.13527551
0.13399488 -0.062471785 -0.028598454 0.044329718 -0.049019974 -0.12280402 -0.14160642 0.0019251714
-0.04903228 -0.03458935 -0.013171402 0.11569697 -0.1212457 -0.06857047 0.0529041 -0.054322354
0.048942015 -0.12510987 0.12729329 -0.09852911 0.05118277 -0.0730546 0.025302768 -0.10602564
0.06303418 -0.05534939 0.13668512 0.036216587 -0.08216478 -0.023821644 -0.10285607 0.019259984
-0.08377378 0.1346461 -0.042068865 -0.06796398 -0.023620697 0.0009946544 0.12811612 -0.024012038
0.10769334 0.09806128 0.094319485 -0.12650457 0.04063949 0.07219416 -0.082101814 0.027741686
0.046245966 -0.07790634 0.08739969 0.017432261 -0.121378675 0.09067173 -0.15036233 -0.08661438

lstm.weight_hh_l0 f4 [200, 50]
00000000: 2234 4e3d 7cfd e23d 81fc fdbd 695c 673d
00000010: 8da0 7b3c 1e49 d4bb e4d8 a23d c4b8 9dbd
00000020: 5809 3b3d 8758 d83d d2be adbd 094e 64bd
00000030: 5251 9e3c f8d9 15be e3c3 d3bd ba3a fdbc
00000040: 7c0d 5b3d f7c6 90bd e733 753d 7b4b 96bc
00000050: f776 0a3e 78da 9c3d b3a9 adbd 4b5f 91bd
00000060: 4032 b93c a3dc 84bc ec3d 73bd b72d 4cbd
00000070: 9dae 59bd 2539 ecbc f44c 9cbd 9e0a fcbc
00000080: ecb9 903c bee7 a6bd feed ac3d 7c8e 0cbc
00000090: 1a52 183e 7932 05be 1cc6 0cbc a9b0 f6bd
000000a0: e210 cdbd 82fb 9ebd af06 92bd 853c 583d
000000b0: e13f 15bd 8304 4dbd 8331 013e d58c 103d
000000c0: 6468 843d 33e5 cdbc 0ff9 fb3d ff34 083e
000000d0: eaa1 833c 0e81 39bd b6d1 f83c a7aa d93c
000000e0: 24a0 7c3c 7472 efbb 0366 84bd 1472 c1bd
000000f0: c99d aabd 5cff 87bd d976 f8bc f577 a43d
00000100: d424 03be d755 a7ba cc03 f33d 1582 b3bc
00000110: 9f2f 613d 4037 b7bd eec1 9d3d 7d5f 413d
00000120: a00b 243c 3936 dfbd b5f4 70bb 2e96 c03d
00000130: 5940 093e 6cf1 f73d 80a2 303c 6083 613d
00000140: 9198 a13d 3f80 4abd 1b66 723d 6d1b e0bd
00000150: b2c2 18be fe8a 05be 4ce6 6e3b f4f5 e2bd
00000160: 34d3 dd3d f001 8abd 53fc 043e 3a8a 0fbe
00000170: 616a 1abe 562b fe3b 3ae7 71bd 8fc1 a8bd
00000180: c941 bcbd b42b 5ebd 82bb 98bd 8471 1abc
00000190: c3fc be3c efb7 113d 2ea5 bb3d dbe1 873c
000001a0: c2a9 99bd 2620 893c 2b19 fa3d 63b6 c9bd
000001b0: 0515 bbbd 2b82 763d c76f 7ebc 97a7 9d3d
000001c0: 061d 92bd aa2d 9ebc b526 19bd 07f2 acbd
000001d0: 320b d13c 6872 f6bd f759 ad3d 6ec9 abbd
000001e0: 755b c1bd 8f94 18bb d9a7 153d 63ca 99bc
000001f0: b983 dfbd fc35 dfbd a9b5 12bd 9c6b 77bd
00000200: 1384 c43d 9073 edbd 08a3 01be 8b4c a0bd
00000210: 3fc5 90bd 05bc eabd 949e 92bd 31cb d13d
00000220: 3640 17be b826 0cbe 8788 c33d 4217 b8bd
00000230: 207d 67bd ce04 9dbd 233a 1cbc 38fe dd3c
00000240: 7378 9abc 4a5f ecbc b6a2 103e 598b f93d
00000250: d82b b03c 10d6 ba3c e113 53bb 183b a8bb
00000260: 111e 183e df95 b33d e403 d9bc 59d4 b83c
00000270: 16fc 663d 56fc 36bd 268f 89bd 171d e1bc
00000280: 7c82 95bc b081 ebbd 177d c6bd 3421 81bc
00000290: bffb 013e 8477 98bc e81a 853d 2361 cc3c
000002a0: ff1a 66bd 1b83 86bd af99 17bd 6a8e 613d
000002b0: c82e 3b3b 2016 883d ce03 98bd e07e 9f3d
000002c0: f553 1dbe 10d9 07bd 1d80 073e 2e55 0ebd
000002d0: d8b6 26bd 223c 703c c0e6 3b3d 0e47 a73d
000002e0: 4f51 1dbd af4c 873c e7b2 013d 0588 893a
000002f0: 4f7f 2b3c 8c74 773d b84f 9dbd 8aea 92bd
00000300: 29f1 e03d 99c3 f0bd daac 1f3e 5212 03be
00000310: 62e1 93bd a2d5 a73d a097 f73d ed53 e2bd
00000320: eb9d f63d ad19 6e3d be7e 9a3d 7f07 823c
00000330: 8b25 0bbd f219 8b3d 825d 933d 57a0 f2bd
00000340: ba29 40bd 9ceb 2dbd d733 29bd 6e42 c1bd
00000350: 9bc6 9fbd 4e8d 9b3d 9dc2 53bd dd28 f7bd
00000360: 8928 e03d 9563 4dbb 1c2b 1e3d 364a a7bd
00000370: fab7 c6bc 7c58 9abc 740b 993c 4af1 40bd
00000380: 4abb 85bc 9d73 df3d 97c4 cbbd b6e2 ebba
00000390: afe3 df3d 11dd ad3b 27b4 c83d 66bb ae3d
000003a0: fe17 893d be1e e7bd 63fa cd3d 606c 7e3d
000003b0: f3da 03be 0f94 dc3d afbd 16be a085 853d
000003c0: 2989 7cbd fbb0 b1bd e808 c03d 9efe 333d
000003d0: 0be0 c53d a392 983b f627 fcbd 37c4 ec3d
000003e0: ee2f 983d a30d e6bd 06e1 bf3d dc67 7d3d
000003f0: c881 cf3b 04c1 d9bd 0590 5f3d ed5d e3bd
0.050342686 0.110835046 -0.12401677 0.056484614 0.0153581025 -0.006478443 0.07951525 -0.07701257
0.045663208 0.1056376 -0.08483662 -0.055738483 0.019325886 -0.1463393 -0.10340097 -0.030911792
0.053479657 -0.070691995 0.05986395 -0.018346539 0.13521944 0.07658857 -0.08479633 -0.07098254
0.022606969 -0.016218489 -0.059385225 -0.049848285 -0.05314504 -0.028835842 -0.07631865 -0.030766781
0.01766678 -0.0814967 0.08443831 -0.008578893 0.1487507 -0.13007535 -0.008592155 -0.12045414
-0.10012986 -0.07762815 -0.07130181 0.05279209 -0.036437873 -0.05005313 0.12616543 0.035290558
0.064652234 -0.025133705 0.123033635 0.13301466 0.016068418 -0.04528909 0.030373435 0.026570631
0.01541904 -0.007307345 -0.0646477 -0.09445587 -0.083308764 -0.06640503 -0.030330108 0.080306925
-0.12807018 -0.0012766671 0.118659586 -0.021912614 0.054977056 -0.08946085 0.07703005 0.047210205
0.010012537 -0.10899014 -0.003676695 0.094036445 0.13403453 0.121065944 0.0107809305 0.05505693
0.07890428 -0.04943871 0.059179407 -0.10942731 -0.1491802 -0.13041303 0.0036453186 -0.11082068
0.108312994 -0.06738651 0.12986879 -0.14017573 -0.15079643 0.007756631 -0.059058405 -0.08240043
-0.09192235 -0.054240897 -0.07457639 -0.009426478 0.023313886 0.035575803 0.09162365 0.016587188
-0.07503082 0.016738962 0.12211832 -0.09849241 -0.091348685 0.06018273 -0.0155295795 0.07697981
-0.07134442 -0.019308884 -0.03739043 -0.084446006 0.025518034 -0.1203354 0.08464425 -0.08388029
-0.09441272 -0.0023281907 0.036537025 -0.018773263 -0.10913796 -0.108989686 -0.035817776 -0.06040536
0.09595504 -0.115943074 -0.12659848 -0.078270994 -0.07068872 -0.11461643 -0.071591526 0.10243834
-0.14770588 -0.13686645 0.09547525 -0.08988811 -0.056515813 -0.07666932 -0.009535345 0.02709876
-0.018856263 -0.028854031 0.1412457 0.121847816 0.021505281 0.022807151 -0.0032207894 -0.0051339976
0.1485522 0.0876882 -0.026491113 0.022562193 0.05639275 -0.04467424 -0.067167565 -0.027479691
-0.018250696 -0.11499345 -0.09691828 -0.015762903 0.1269369 -0.018611677 0.064992726 0.024948662
-0.05617809 -0.06567975 -0.0370118 0.055067457 0.002856182 0.06644845 -0.07422601 0.07787871
-0.15364058 -0.03316599 0.13232465 -0.034749202 -0.040701717 0.014662774 0.045874357 0.081678495
-0.03840762 0.016516058 0.031664755 0.0010492807 0.010467364 0.060413882 -0.07681221 -0.07173641
0.10983498 -0.11756057 0.15593281 -0.12799957 -0.07220723 0.08195044 0.12089467 -0.11051164
0.12041839 0.058129955 0.075437054 0.015872715 -0.03397135 0.06792058 0.071955696 -0.11846989
-0.046914794 -0.042461023 -0.041309204 -0.094364986 -0.07801553 0.07595311 -0.05169927 -0.12068341
0.109452315 -0.0031339873 0.03861533 -0.081684515 -0.024257649 -0.01884102 0.01868222 -0.04710511
-0.016324658 0.10910723 -0.09949606 -0.0017996642 0.10932099 0.005305894 0.09799986 0.08531837
0.06694029 -0.112851605 0.10057523 0.062115073 -0.12876491 0.107704274 -0.14720796 0.065196276
-0.061654244 -0.086763345 0.09376699 0.043943994 0.096618734 0.0046561523 -0.123123094 0.115608625
0.07431017 -0.1123307 0.09369092 0.061866626 0.00633261 -0.10632518 0.054580707 -0.11101899

lstm.bias_ih_l0 f4 [200]
00000000: e1d4 963d 9cf7 ddbd 5d26 31bd c745 173e
00000010: e206 053d a476 cc3d 5d4b 91bc 58ff fb3d
00000020: 5610 3f3d 6850 87bd b262 fc3d 6011 e8bc
00000030: e404 3cbd dc8a c83c 40c4 9f3c 8e0d eb3d
00000040: 4a10 9b3d ed62 8cbc 331b 58bd fa18 ffbd
00000050: 9711 c7bd 0ec1 77b9 f85c d4bc 7a9c 12bd
00000060: 5012 f9bd 69c2 e0bb dc95 28bc 412c 0e3d
00000070: 79a9 f6bd b2dd eebd 1534 47bd 7291 8d3c
00000080: 3ae3 c1bd 03b6 31bc 1da8 69bc 41a5 5a3c
00000090: 3d6a c83d 23f6 0bbe e4af 773c 44c9 fa3b
000000a0: 83ad 363b bb98 fdbd 0887 863c 8562 9b3c
000000b0: 3860 8ebd c8a1 12bd c77d 7bbd 43ab f43d
000000c0: 890f cf3d 2a33 0a3e 33aa 85bd a081 d13d
000000d0: 43c6 ac3d 359a 883d e948 153c 984d d3bd
000000e0: 67af 1d3e 9c6b 013e f71f df3d 6557 92bd
000000f0: af9b 82bd d8d7 98bb e7bc 03be 9598 cebd
00000100: 6388 d23d a5e7 073e 489a 12bd 6bcc fdbd
00000110: adee b73d 4076 f43b fe35 1cbd eb16 83bc
00000120: e914 773d 50bd bdbd a2c6 e73d 8a21 133e
00000130: e148 103e 3f4b 6ebc 53d8 13be f94d 2c3c
00000140: 5057 0ebd 38f2 d9bd e26c 5ebc 9709 75bd
00000150: 75cc a0bd 14f1 073d 5a67 433d b0d6 9e3d
00000160: 3b96 c9bd f0a7 71bc 618d 98bd 69cc 03be
00000170: cfcf b53d 0d96 dfbd b3b5 01be c56f e4bd
00000180: b09f f3bc d658 4bbd be01 fcbc b5d0 cdbd
00000190: 6bd2 bb3c 2a37 46bd 2894 0a3e 839f b13d
000001a0: f74c 16be 6273 acbc a68c e5bc 6023 c5bc
000001b0: 9b50 12be 4f8f 90bd 05cd edbc 12a5 b53b
000001c0: d8fa eb3d 6e89 bd3d 33ff 7dbd 2361 b2bd
000001d0: 68c8 93bd bee2 0dbb 155c 843d d512 363c
000001e0: 385a 05bd 8d13 f6bc 6a60 96bd 0545 a03c
000001f0: fa0a c8bd 8cc6 7fbc f970 3abd 2df7 13bd
00000200: b2e3 b23d 0d51 54bd 8b1e 50bc cfe6 0d3d
00000210: 746c bb3d e4c9 803c e0b8 b73a cbb2 c93d
00000220: adf3 61bd ab48 b1bc 3762 b4bd ec5a 1a3d
00000230: d04b c13d e548 ab3d 750c 143d ddcc 8a3d
00000240: 0cb5 103d 6795 d73d 6211 bf3d f191 c73d
00000250: 8f91 613d 9fce 0abe 4b0c d23c 673d fcbd
00000260: 7f15 903d 256d 9dbd 90b5 613d a6d6 96bd
00000270: bd3d efbb ed67 053e fbc1 cf3d 1b27 fa3c
00000280: 926f bf3d 8c42 c6bd 5cb0 cd3d ade6 b2bc
00000290: 7ce9 7f3d bb4c 22bc 44a8 9bbd 62ca fd3d
000002a0: 7998 813d 555b 143e 988e 9abd c849 813d
000002b0: a223 febd 769e 043d e8b8 013e 3b4f cdbd
000002c0: d45b a8bd 9de2 c33d 22e1 eb3c f60f 0a3c
000002d0: 4f10 f6bd 5df0 9bbd de73 04be 6898 7dba
000002e0: 472a 6d3d da04 fe3c 81ff 8b3d a2d2 14bd
000002f0: cdd8 8c3d 770c be3d 161b 90bd 1180 10bd
00000300: 224e 0c3e 6a9b 8e3c 8b57 c5bd a898 4fbd
00000310: 1484 4b3b c344 da3d 5065 ab3d b66b 5b3d
0.07364822 -0.10838243 -0.043249477 0.14772712 0.032477267 0.099835664 -0.017736131 0.12304562
0.04664644 -0.06607133 0.12323512 -0.028328598 -0.0459031 0.024480276 0.019502759 0.11477195
0.07571466 -0.017137015 -0.052760314 -0.12455936 -0.09720152 -0.00023627674 -0.025923237 -0.03579376
-0.12161696 -0.006859113 -0.0102896355 0.034710173 -0.12044043 -0.11663379 -0.048633654 0.017281268
-0.09467168 -0.010846618 -0.014261273 0.013345064 0.09785888 -0.13668112 0.015117619 0.0076533873
0.0027874417 -0.12382647 0.01642181 0.018967876 -0.06951946 -0.035798818 -0.061399247 0.11946728
0.10110385 0.1349608 -0.065266035 0.10229802 0.08436253 0.06670038 0.009111621 -0.10317534
0.15398942 0.12638706 0.10894769 -0.071455754 -0.063773505 -0.0046644025 -0.1286503 -0.100876965
0.1027992 0.13271959 -0.035791665 -0.12392505 0.08981071 0.0074603856 -0.03813743 -0.01600214
0.060322676 -0.09264624 0.11317183 0.14368263 0.14090301 -0.014544307 -0.1443799 0.010516637
-0.034751236 -0.10641903 -0.013575764 -0.0598236 -0.07851497 0.033188894 0.047705986 0.07755792
-0.09843107 -0.014749512 -0.07448841 -0.12870945 0.08877527 -0.10917292 -0.12666969 -0.11154131
-0.02973923 -0.049645267 -0.03076255 -0.10049573 0.022927484 -0.048392452 0.1353308 0.086730026
-0.14677797 -0.021051113 -0.028021168 -0.02406472 -0.14288561 -0.07058584 -0.029028425 0.0055433596
0.11522454 0.09254728 -0.062010955 -0.087099336 -0.07215959 -0.0021650041 0.06462876 0.011112888
-0.032556742 -0.03003862 -0.07342608 0.019564161 -0.097677186 -0.015611302 -0.045517895 -0.036124397
0.08734836 -0.05183511 -0.0127025945 0.034643944 0.09151545 0.015721269 0.0014016889 0.09848555
-0.055164028 -0.021641096 -0.088077955 0.037684366 0.09438288 0.08363513 0.036144692 0.06777356
0.03532891 0.10526543 0.093294874 0.09744633 0.055070456 -0.13555382 0.025640627 -0.12316399
0.0703535 -0.07686833 0.055104792 -0.0736516 -0.007301061 0.13027926 0.10144421 0.030536225
0.09347452 -0.096806616 0.100434035 -0.02183851 0.062478527 -0.009905989 -0.076004535 0.12392117
0.0632791 0.14487965 -0.07546729 0.06312901 -0.1240914 0.032377683 0.12668192 -0.10024878
-0.0822064 0.095647074 0.028793875 0.008426657 -0.12014829 -0.07614205 -0.12934825 -0.00096738944
0.057901647 0.031008173 0.06835843 -0.036333688 0.06877289 0.09279721 -0.07036416 -0.035278384
0.1370168 0.017408092 -0.09635838 -0.050682694 0.0031054066 0.106576465 0.08368933 0.053569518

lstm.bias_hh_l0 f4 [200]
00000000: 5b76 3bbd 5c67 f6bc 5e35 f4bc a85a b13d
00000010: 841c db3d 6177 86bd e3b8 273d 04ba 49bd
00000020: e44c bfbd 1abb 533d 62cc c33d cf69 fd3b
00000030: d580 10be 0114 513d 5f4a b23a 37ec 613d
00000040: a148 483d f3d2 fb3d 3714 03be 82de 95bd
00000050: afec 103e 9a1d c3bb e466 7cbc 61e9 65bd
00000060: d34f 973d 024d b13d 6931 1e3d 19cc cebb
00000070: db6a a63d c51e 8d3d 3363 30bd 7b67 c13d
00000080: cfda 053e d513 ea3d fb57 fbbd 95db d83d
00000090: a7e9 16bb 2581 b8bd 10ab d83d 7ff5 02be
000000a0: edde f93d da25 fb3d e063 90bc b865 dfbd
000000b0: 1cda 7abd 3ed2 70bd 3ac0 023e 106d 753d
000000c0: 897e 33bd 0b33 c43d 9ce3 453d 2444 3f3a
000000d0: d307 793c 3b9b 633d 02d1 9f3b 72bd 60bd
000000e0: 8549 d7bd a23e d53d 9042 f2bc e277 903b
000000f0: 813a f0bb db48 fabd 2baf ad3d 948e 6b3d
00000100: a7fe 0abd fad0 b33c 07be 76bc 1f1c 80bd
00000110: 0fea af3b 4b09 b43d 7fe3 f33d 478d 4b3c
00000120: 978d 7c3d 6493 953d 5386 32bd 9ae8 0d3e
00000130: 8080 92bd 60e8 dc3d 647b 42bd c093 12bd
00000140: 19f7 8e3d ec8a 80bd a9e8 a5bd d279 2c3d
00000150: 43fc 88bd 7a7f 30bc dab0 b4bb 0054 d93d
00000160: 205d e6bd a5e6 92bd 70d1 f33d 8e8f 863a
00000170: 20f7 f13d bba2 113b 63e3 1cbc cdfa 943d
00000180: cc15 f13d 87d4 013e a574 acbd 9ca7 94bc
00000190: 1ad0 033e 2332 31bd 2a62 f2bd e3c3 fa3d
000001a0: 6525 51bd cc84 6e3d e78c 1abe bd82 113d
000001b0: 41aa e4bd b917 c1bc 25d3 18be 7439 b4bd
000001c0: b3ee 583d 9b93 0cbd d46a cb3d 2ec5 dabd
000001d0: 7702 a23d 3254 bebc e982 2a3c 5c2f 16be
000001e0: c722 a8bc f947 8ebd f5ca e4bd 6fe7 ac3d
000001f0: 6920 c7bd 2972 e43d 2eb5 573d d03b 06be
00000200: 4cf5 71bd 08a5 3b3b 38fe 99bc 6abe a53c
00000210: d54f 8f3d ea93 043e 600e db3c 6ec0 f5bd
00000220: e8f8 c1bc a51d 183d 5414 dcbd d10b f0bc
00000230: f9c1 973c b9db 783d 1d62 f43d caa0 d43c
00000240: 1c94 0cbd e2bf b9bd 0d98 823d eef3 fb3d
00000250: 6bc5 473d 1632 eebd 2a9d 11be add0 22bc
00000260: 672a b33d 6bd6 83bd 5688 143e 9471 31bd
00000270: 2a45 0e3e 820f a3bd 0477 0cbd 622d a83d
00000280: 92a2 0e3c 0a2e 9f3d 6958 a73d 3a8c f3bd
00000290: 869b a7bc 100a 303c 930d 5fbd 5feb 97b9
000002a0: 94ca 9cbd 04e3 88bd ce89 82bd 773d 393d
000002b0: 59a7 75bb a782 c13d 980b bb3d 24db 543c
000002c0: 3539 843c 9612 0bbd 8724 9fbd 4f50 37bd
000002d0: 7905 40bc 9495 68bd 286d 98bd 2749 b8bd
000002e0: 6e52 803d 604b 693d 2708 cd3d e6ab 923d
000002f0: 9c32 46bd 8702 0abe a274 a6bd bba1 e6bd
00000300: 0391 d93b c4ba d03d 2dad 063e b27c 17be
00000310: bc43 b2bc 755f eabd 9e2c fdbd 6b64 a83c
-0.04576717 -0.030078582 -0.029810604 0.086598694 0.10698798 -0.065657385 0.040947806 -0.049249664
-0.093408376 0.051692106 0.09560467 0.0077335606 -0.14111646 0.051044468 0.0013602487 0.055156913
0.04889739 0.12296095 -0.1280068 -0.073178306 0.14152788 -0.0059544565 -0.01540539 -0.05613077
0.07388272 0.08657266 0.03862134 -0.0063109514 0.0812585 0.068906344 -0.043063354 0.094435655
0.1307175 0.11429564 -0.1227264 0.10588757 -0.0023027451 -0.09009007 0.105795026 -0.12788962
0.12200723 0.12263079 -0.01762575 -0.10908073 -0.06124316 -0.058794253 0.12768641 0.059918463
-0.043821845 0.09580048 0.04831277 0.00072962255 0.015199619 0.05556796 0.0048772106 -0.05486817
-0.105120696 0.10412337 -0.029572755 0.0044088224 -0.007331193 -0.12220927 0.08480676 0.05750902
-0.03393426 0.021950234 -0.0150599545 -0.06255364 0.005368478 0.08790835 0.11908626 0.01242382
0.061658468 0.07303503 -0.043585133 0.13858262 -0.07153416 0.107865095 -0.047480956 -0.035785437
0.06980724 -0.06276497 -0.08101017 0.042108364 -0.0668874 -0.01077258 -0.0055142464 0.10611725
-0.11248231 -0.07172898 0.119051814 0.0010266171 0.118147135 0.002222224 -0.009575698 0.07274399
0.117717355 0.12678729 -0.08420686 -0.018146329 0.12872353 -0.043260705 -0.118351296 0.12244394
-0.051061053 0.058232114 -0.15092812 0.035525072 -0.11165286 -0.023570882 -0.14924295 -0.08800021
0.052962016 -0.034320455 0.09932485 -0.1068214 0.079106264 -0.023233507 0.010407188 -0.14666504
-0.020524396 -0.069473214 -0.111715235 0.0844258 -0.097229786 0.11154587 0.05266302 -0.13108754
-0.059071824 0.0028632302 -0.018797979 0.020232398 0.069976486 0.1294705 0.026740253 -0.11999594
-0.023678258 0.037137646 -0.10746065 -0.02930251 0.01852511 0.06075642 0.11932776 0.025955576
-0.034320936 -0.09069802 0.06376658 0.12302385 0.048772257 -0.11630647 -0.1422011 -0.0099374475
0.08748322 -0.06437381 0.14505133 -0.043321207 0.13893571 -0.07961942 -0.03429319 0.08211781
0.008705752 0.07772453 0.0817116 -0.118919805 -0.020459902 0.010744587 -0.054456305 -0.0002897633
-0.07655826 -0.06683925 -0.063739404 0.045224633 -0.003748378 0.09448748 0.09133071 0.0129917
0.01614056 -0.03395327 -0.07770639 -0.044754323 -0.011720055 -0.056783274 -0.07442695 -0.08998328
0.06265722 0.05695665 0.100113206 0.07161693 -0.04838811 -0.13477527 -0.08127715 -0.112613164
0.006639601 0.10191873 0.13151999 -0.14793661 -0.021760814 -0.11443988 -0.12362026 0.020555696

lstm.weight_ih_l1 f4 [200, 50]
00000000: 3baf adb9 3929 563d e30f 9bbd 9047 223d
00000010: 2d1f bcbd 72d4 a8bc b87b e6bd 373b ca3d
00000020: 5e50 29bd 2d99 eebd a2ee 14be 77b3 ef3d
00000030: 1777 a3bd 18d7 a9bc 3c17 b0bb b67b 893d
00000040: 81d6 80bd 1466 9bbd 9aee 3b3d a49c 053d
00000050: 5f8f c33d 2543 b73d 06e0 1f3d 417f 8b3c
00000060: 5089 a2bc b510 683d 7731 06bd 4366 9fbd
00000070: e3a0 a2bd 4e6f 1ebe 910f b13d b16d 623d
00000080: f2d6 70bd c93b 993c 6cf6 13ba 7432 05be
00000090: 63ac c6bd 4589 c53d 106e 18be c1e5 023d
000000a0: f8e1 97bc fb7c 6cbd e5fc f4bc 9345 82bd
000000b0: e1df 9dbc 42ef a93d b1af 843d b2cf 91bd
000000c0: 080a da3b 359a 14be 3d3b c63b a269 333d
000000d0: bade 82bd b7b1 a83c d0c7 dbbc 0367 fcbd
000000e0: f9bb 19be 52e7 543d e56b 02bd 4493 febd
000000f0: 42b3 9dbc 5fde 85bd 531a b6bd 09a4 b0bc
00000100: 0aa6 aa3c 47f0 38bd c790 7ebc 3d2a 3d3d
00000110: 869c d33d 4586 35bd 4666 4fbc 46bc 28bd
00000120: 3310 933c d1c3 993d 908c d2bd b94a 093e
00000130: 7e4b dfbd 555e 813d e000 ed3d 535c e93d
00000140: f351 c8bd 8db3 c53d 6998 133e c843 b03d
00000150: 48f8 9ebd 5e29 1dbe 725a f63c a849 993c
00000160: 48e8 c33d 4c66 883d 39f3 073e d671 ff3d
00000170: 6f0e dbbd 100c 303d 7bf7 933d a9c1 a83d
00000180: 8cf6 bbbc f9d1 fc3b f046 b0bc d6a0 743d
00000190: 2717 223d 1f70 cbbd 5c1f d3bc 0a4f 5abd
000001a0: 500f 11bd 9f3e e03d 34cf dabd f5bc ecbd
000001b0: 176c 81bd 1f26 273d fac9 3e3d 3a77 f8bd
000001c0: 1e18 d2b9 ca49 7abd 0d93 e2bd 9be8 2a3d
000001d0: 54bb debd 2d98 d8bc 4a6e 90bc 60b6 f43d
000001e0: cf18 36bd 0f99 a53c ddfe 7bbd 0ec3 113e
000001f0: ad7f eb3d 05bf ca3d 3414 833a ebcb c43d
00000200: ecee 37bc 2f86 83bd e1be 1dbe eeab 3dbd
00000210: 79b0 72bd 8d3b f53d 1414 023e 4ec6 b3bd
00000220: 9cc5 85bd 368d e8bc e4c8 b43d 8819 c73d
00000230: 59c3 8cbc be8c 163e f4b3 8abd 672a 183d
00000240: 389c 2a3d 14e5 c0bd 89e1 ecbc 1dee ce3d
00000250: efdf 8fbd 73e2 08be 352a b3bd 827c 7c3d
00000260: 9b67 08be f181 123c db2f debd ed53 f4bd
00000270: 544b f5bc 6afa 30bd 4130 c03c 517f c8bd
00000280: 52e8 a23d dd4c 02be 1734 91bd 836f 833d
00000290: 2dae d4bc 85a5 7b3d d2be 073e d87f 13be
000002a0: c736 9aba d12f 233d 60dd 62bd 50c3 03bd
000002b0: 85cc a8bd c8f2 f3bd c63c 643d c9d0 4ebd
000002c0: 9d09 0dbe eaf1 46bd 0f6d 0c3e 9fd6 a8bd
000002d0: e551 afbd f8c9 19bc b84e b7bd 4ac5 d2bd
000002e0: c071 873d 3be1 1ebd 2e2d f53d 558e 59bd
000002f0: b3e9 7339 f38d 26bd 3c14 edbd 2f2c efbd
00000300: c757 e53d 4099 08be abce 0cbd 471f dbbd
00000310: 1ebb b13c 9769 66bd bf17 843d ae56 483c
00000320: 00bf b43d 1eb8 10be e9d3 01bd 27d6 073e
00000330: dc69 eebd b2d4 343c 7f1b fe3d c62d 19bd
00000340: 2c53 eb3d 7956 983d 20b3 9c3c e99d 13bd
00000350: 56c0 c4bc 26cd 1c3d 2a90 cfbd 6f28 f63d
00000360: 3d32 723d 8d50 f33d 7f94 eabd 5ca3 853c
00000370: 454d 133e ed0d 583c dd12 013e 4016 8c3d
00000380: 8f20 fabd 1543 883c 1703 c73d 4ede 013e
00000390: 3538 193c c1ff b03d 44b9 cebd 18cd d83b
000003a0: 0c10 3e3c c46d 5c3d da9d 7f3d ec58 4c3d
000003b0: 6fa9 bfbd 1a4b a03c cd9d cc3d cc43 3ebd
000003c0: 4904 47bc ec66 cabd d047 0ebd 554f f1bd
000003d0: 5d91 aabd c1ed 963d 47bc d93c e884 833c
000003e0: e88b 033e 7d02 9b3c f80e 48bd b755 443d
000003f0: c246 a0bd e833 043e a5ab 8fbd 831c 183d
-0.00033127688 0.052285407 -0.075713895 0.03961903 -0.09185634 -0.020609114 -0.11254066 0.098745756
-0.04133641 -0.1165031 -0.14544156 0.11704152 -0.07981699 -0.020732448 -0.0053738635 0.06713049
-0.062909134 -0.07587829 0.045881845 0.032620087 0.0954883 0.08948354 0.039032005 0.017028453
-0.019840866 0.056656558 -0.032762017 -0.07783177 -0.07940843 -0.15472147 0.08645547 0.05528039
-0.058798738 0.018705266 -0.00056443247 -0.13007528 -0.09700849 0.09645323 -0.14885736 0.03195739
-0.018540367 -0.05773638 -0.029905746 -0.063609265 -0.019271793 0.08297588 0.06478823 -0.07119693
0.006654028 -0.1451195 0.006049542 0.04380191 -0.06390138 0.020592554 -0.026828676 -0.123243354
-0.15013112 0.051978417 -0.031841177 -0.124304324 -0.019250516 -0.065365545 -0.0889174 -0.021562593
0.020831127 -0.04515102 -0.015537447 0.04618286 0.10332589 -0.044317503 -0.012658661 -0.041195177
0.01795206 0.07508052 -0.102807164 0.1340741 -0.10903071 0.063168205 0.115724325 0.113945626
-0.097812556 0.09653387 0.14413609 0.08606678 -0.077622 -0.15347812 0.030072425 0.01871188
0.095657885 0.066601366 0.13276376 0.12472884 -0.10696112 0.042980254 0.072249375 0.08240063
-0.022944711 0.0077154604 -0.0215182 0.059723698 0.03957286 -0.09933495 -0.02577179 -0.053298034
-0.035414994 0.10949444 -0.10684052 -0.11559478 -0.063194446 0.04080784 0.04657934 -0.12132116
-0.0004007229 -0.061105527 -0.11063204 0.041725736 -0.10875574 -0.02643975 -0.017630715 0.11948848
-0.044457253 0.020214586 -0.061522353 0.14234564 0.114989616 0.09899715 0.0010000528 0.09609207
-0.011226397 -0.06422078 -0.15404846 -0.046306543 -0.05925033 0.11974249 0.12702972 -0.08778058
-0.065318316 -0.028387647 0.08827379 0.097216666 -0.017182993 0.14702126 -0.067726046 0.037149813
0.041652888 -0.09418693 -0.028916137 0.1010401 -0.07025134 -0.13367634 -0.08748285 0.061642177
-0.13320772 0.008942113 -0.108489715 -0.1193007 -0.029943146 -0.043207563 0.02346051 -0.09789909
0.07954468 -0.12724634 -0.070900135 0.064177535 -0.02596196 0.06143715 0.13256386 -0.14404237
-0.0011765592 0.039840523 -0.0553869 -0.032168686 -0.08242134 -0.11911541 0.05572202 -0.05049208
-0.13773198 -0.04857055 0.13713478 -0.08244061 -0.08560542 -0.009386532 -0.08950561 -0.10291536
0.06613493 -0.038789015 0.11971508 -0.053114254 0.00023261346 -0.040662717 -0.11576125 -0.11678349
0.11198383 -0.1333971 -0.03437678 -0.10699325 0.02169567 -0.056253042 0.06449842 0.012227697
0.08825493 -0.14132735 -0.031696234 0.13265286 -0.11641285 0.011037039 0.12407588 -0.03739717
0.11490473 0.07438368 0.019128382 -0.036039267 -0.024017494 0.038281582 -0.10134919 0.12019431
0.059129942 0.11880598 -0.11454105 0.016313247 0.14384945 0.013186914 0.12604852 0.06840181
-0.12213241 0.01663355 0.09717386 0.12682459 0.00935178 0.08642531 -0.1009393 0.006616246
0.011600506 0.05381562 0.0624064 0.04988949 -0.09358489 0.019567061 0.099910356 -0.046451375
-0.012147018 -0.09882912 -0.034736454 -0.117827095 -0.08328507 0.07369567 0.026579035 0.016054586
0.12846339 0.018922085 -0.0488424 0.047933307 -0.07825996 0.12910426 -0.070151605 0.037136566

lstm.weight_hh_l1 f4 [200, 50]
00000000: e4f7 f1bd 80fa d53d df01 c5bd e715 873b
00000010: eca0 e03b e750 593d 8fde 873c 5643 043d
00000020: be8d 0b3e 0b77 99bd 61ce 91bd 90d3 7ebd
00000030: fd8d 09bd f6f4 13bd ef9c efbd 7b10 183e
00000040: 38e8 89bc a81c f8bd d25c e83d 2707 633d
00000050: b8ba 733c d0dc 93bd d293 44bc 4d23 c4bd
00000060: 0c9a 7e3b 29ce 8f3d 877c fc3c b037 97bd
00000070: 9856 653d 537a f43d cbe2 cabc f126 763c
00000080: 3451 223d 9afc f3bd 7d8c 09be f66f 56bd
00000090: 9b1b 99bd 593e 0ebd 8842 12bd b5b3 123e
000000a0: 48ec 413c ffc1 c5bd 48ec a5bd c4ed 0a3d
000000b0: b149 573d 6151 d63d cd16 733d 95b2 273d
000000c0: 3ca0 dd3d e3d2 c0bd 2325 03be 56dd 18be
000000d0: 63a8 563d 30f5 efbd 6f3b a6bd 8761 b7bd
000000e0: 3513 f53c 3ce2 003d cb9f d53c 0dcd 18bd
000000f0: 1051 7f3d 6a61 f03d 9c1b 6c3d 63fa 073d
00000100: 5443 06bd 6761 a73c 23ff 123d cc3b b43d
00000110: 2fd1 fdbd 5cf9 963c 36dc 363c e27f 8ebd
00000120: c8fd b8bc 2037 d33d 7d3c 083c b1af 373c
00000130: a0d1 cbbb 2e1f e9bc ba29 00be 4d65 783d
00000140: a050 843c 1833 fbbc 9b3e 943d 4874 05be
00000150: 8f5e a6bd d23e 613d 4df9 b4bd 41c5 a1bd
00000160: 6b60 fabd 2c66 163e 3a05 f13d 64a8 08bc
00000170: c4d8 413d 8aa3 8f3d 12e9 933d 24e1 dabd
00000180: 13c8 85bd f7d4 9a3d ffed 763c ee0f b6bc
00000190: 2099 173e 8fa0 90bd 2900 13be a869 8d3d
000001a0: bad6 013e e976 d83c 6368 dd3d a231 36bc
000001b0: ea68 b43d a073 f53d 7403 1bbb 573b ff3d
000001c0: 57f6 c8bd af76 483c cb87 fb3d 8c3d 343d
000001d0: 9140 94bd d42c 07be 97f5 09be 1df8 43bd
000001e0: e24d 923d baa1 933d 3f7e 2ebd 0c54 903d
000001f0: a983 3f3d c91f e5bc a456 fe3d 111c 13bd
00000200: a287 743d e85d edba 67bb acbd bfb6 f33d
00000210: d7f2 743d 9e6a 5a3d 3ac3 eabd 88c5 013e
00000220: 79bf 8bbd 1d44 e7bd cc77 23bd af8a 523b
00000230: 59a5 8e3d c223 253c c3b8 003e bbba 3e3d
00000240: 9ed3 a93c 9e80 b7bd 72a4 063e 788b a2bd
00000250: b0f3 08be e747 953d e03b d3bd 5399 053d
00000260: a5a5 f3bd 3085 e8bd 29f0 893d 9d33 af3d
00000270: 8562 15bd 394f 32bd beb3 803d efbc d0bd
00000280: a4b3 bcbc 857f e43c 4983 ae3d 70b9 5fbd
00000290: 8c38 b9bb f8a3 98bd 54a9 40bd 5eec 873c
000002a0: a642 d23d 5133 523d 90ce aa3d 6c2c a13d
000002b0: 603d fa3d 34d1 0c3d 8bca b93d 8652 e4bd
000002c0: 5175 f5bd ad37 11be a092 3ebc b033 d0bd
000002d0: 575f 1f3d 5aeb 72bd 690f 34bd 95ba 63bd
000002e0: faf3 95bd 3cc9 f23d 66ca 80bd 22e9 24bd
000002f0: 1335 2b3d b8d1 ac3d a072 fd3c 636f 5cbd
00000300: a245 bebd 0683 c63d e6e2 97bd 111b f33d
00000310: 0dcd 15bd 8240 a93d 48d1 debd 13a3 42bd
00000320: d0d4 b53d 6a7d b3bd b1fe 913d 743f cfba
00000330: 9adb ac3d c48b 0c3c 165c b0bd 4d32 17be
00000340: c3f1 c5bc a23b 4abd 0182 693d 0929 3d3d
00000350: 4f3c 4bbd 5cab 703c 2e91 69bd b85a 513c
00000360: 3144 a13d 126c 0bbd d4bb e23d 0faf c23d
00000370: 96e4 413d cc29 0c3d 08a1 7f3c 6d50 c4bd
00000380: 812c ac3d 98dc bbbb 8b8f 08bd 0890 a93d
00000390: 6c4e 71bd f3b7 893d 0624 debd 4c8d d53d
000003a0: 599e 9fbc 9e4b 97bc 5781 943d 7ad4 cdbd
000003b0: 4c83 1d3c f2c6 073d 91a3 acbd 8f88 f8bd
000003c0: fa64 53bd cfec 3bbd 24d5 983d 37ac 3e3b
000003d0: 3435 8f3d 7219 90bd 351d e5bd 9cdb 7d3d
000003e0: f841 d6bd 0f90 9bbd 786f 9bbd 9f5c b83d
000003f0: 903f 8c3d 07f4 0bbe bd51 b2bd d269 d43d
-0.118148595 0.1044817 -0.096194975 0.004122484 0.006855121 0.05305567 0.016585616 0.03229078
0.13628289 -0.07493409 -0.07119442 -0.06221348 -0.033582676 -0.036122285 -0.116998546 0.14850037
-0.016834363 -0.12114841 0.11345829 0.055426743 0.01487606 -0.07219851 -0.011998134 -0.095770456
0.0038849143 0.07021744 0.030821098 -0.073836684 0.055990785 0.11937394 -0.024766346 0.015023933
0.039628223 -0.11913414 -0.13432498 -0.052352868 -0.074759685 -0.034727428 -0.03570798 0.14326365
0.011836119 -0.096561424 -0.08101708 0.033918157 0.052560512 0.104647405 0.059347916 0.040941793
0.10821578 -0.094152234 -0.12807135 -0.14928183 0.05240668 -0.11716688 -0.08116805 -0.08954149
0.029916385 0.031465754 0.026077172 -0.037304927 0.062333167 0.1173733 0.057643518 0.03319777
-0.032779053 0.020432187 0.03588785 0.08800468 -0.12393414 0.01842945 0.011160901 -0.069579855
-0.02258195 0.10313249 0.008315203 0.011211322 -0.0062200576 -0.02845725 -0.12515917 0.060643483
0.016151726 -0.030664012 0.072385035 -0.13032639 -0.08123504 0.05499155 -0.08836613 -0.07898951
-0.122254215 0.14687413 0.11768575 -0.008340929 0.047325864 0.070136145 0.07222189 -0.106874734
-0.06532302 0.07560151 0.015071391 -0.022224393 0.14804506 -0.07061874 -0.1435553 0.06904918
0.12679568 0.026423888 0.10810926 -0.011120232 0.08809073 0.11984944 -0.0023653181 0.1246249
-0.098126106 0.012235328 0.1228176 0.04400401 -0.072388776 -0.13200694 -0.13472591 -0.04784404
0.07143761 0.07208581 -0.042600866 0.07047281 0.04675642 -0.027969258 0.12418869 -0.035915438
0.059699662 -0.0018109651 -0.08434182 0.119000904 0.059801903 0.053324334 -0.11463018 0.12673008
-0.0682363 -0.112922885 -0.03990917 0.003212612 0.06965131 0.010079326 0.12570481 0.0465648
0.02073079 -0.08960079 0.13148668 -0.07936758 -0.1337421 0.07289105 -0.103141546 0.032616924
-0.118968286 -0.113535285 0.0673526 0.08554766 -0.03647091 -0.043532584 0.06284283 -0.10192286
-0.023034878 0.027892837 0.085211344 -0.054620206 -0.005652493 -0.074531496 -0.047036484 0.0165922
0.102666184 0.05131847 0.0834018 0.07869801 0.122187376 0.0343792 0.09071835 -0.111485526
-0.11985267 -0.14181395 -0.011631638 -0.101661086 0.038909283 -0.05930648 -0.04396001 -0.05559786
-0.073219255 0.11854789 -0.062886044 -0.040261395 0.041798662 0.08438438 0.030938447 -0.053817164
-0.09290625 0.096929595 -0.07416324 0.11870397 -0.036572505 0.08264257 -0.10879761 -0.0475188
0.088784814 -0.08764155 0.07128657 -0.0015811757 0.08440323 0.008578245 -0.08611314 -0.14765282
-0.024163133 -0.049373277 0.057008747 0.046181712 -0.04961806 0.014689293 -0.05702322 0.012777977
0.078743346 -0.03403861 0.110709816 0.09506046 0.047337137 0.034219548 0.015602358 -0.095856525
0.08406926 -0.005733084 -0.03334002 0.08279425 -0.05891268 0.06724539 -0.10846715 0.10427341
-0.019484686 -0.018468674 0.07251232 -0.10050292 0.009613823 0.033148713 -0.08429635 -0.121354215
-0.05160997 -0.045880135 0.07462528 0.0029094347 0.069925696 -0.07036103 -0.111872114 0.061977014
-0.10461801 -0.07595836 -0.0758962 0.09002041 0.06848061 -0.13667308 -0.087069966 0.10371746

lstm.bias_ih_l1 f4 [200]
00000000: 6a0a 383b 2502 6dbd 7b81 843d d12f 46bd
00000010: f074 c1bc 0786 743d b969 a9bd a858 c3bc
00000020: 1d60 d13b c6c3 cabc 882c edbc ff9c 92bd
00000030: ef20 4a3b dd32 00be 37d9 463c 6c80 23bc
00000040: b443 6abd df38 833d bc61 28bd 00a8 ff3d
00000050: 091c 903d d039 b93d 93e3 1b3d 23a3 ce3d
00000060: 7639 a43d 3f4f f83d f72c 9c3d 0d2a d9bc
00000070: b44e ebbd 9cd2 8cbd d132 01bd 62b5 c53d
00000080: ff30 f43d 4870 f93d 0e95 e3bd 8e34 283d
00000090: a2ac 933d 728b 6a3d 5f2d ab3d e326 5f3d
000000a0: e3e2 34bd e809 c2bd 6dc7 a33d 2f91 9bbd
000000b0: 3a36 3bbd be76 bfbd efec d3bd 03e9 9b3c
000000c0: dba1 873d 3d45 383d 0504 973c 3597 2c3b
000000d0: 2cff cebd 8061 913b 5e19 04bd c7aa 8dbd
000000e0: 8778 f43d a02d c8bd 6997 c6bd 63d4 babd
000000f0: cf1b 9bbd b3bc 1cbd 0d2a 05bc 0775 dbbd
00000100: 27bf 753d 3eb0 bc3d b2f1 b63d baa9 d7bd
00000110: a6bf 2dbd de71 023e a99f afbb d444 8b3d
00000120: 59a2 00be df81 633d 3f5c 8dbc b53c 76bd
00000130: 8156 443d 765d 643c 3ff5 63bc 7d14 0cbe
00000140: 65ab 1d3d 8a1b b9bd e2b2 52bd ebbd 2c3d
00000150: 680c c3bd 5eed 17be b20e 1bbd d45d 4e3d
00000160: 032b 853d 9a04 92bd d023 0c3e 576b f2bd
00000170: e7be a8bd 7002 59bd 606a 023e f383 dfbd
00000180: 4c35 03be 0fb6 8cbd c643 52bd 4936 803d
00000190: 4853 23bc 26b6 893d 34c5 3abd e88c f1bd
000001a0: 8ef7 883d b598 a83d df6b b2bd 8c33 e1bc
000001b0: 909e afbc dce8 abbd 4f57 1fbd 2c24 f63d
000001c0: 00d6 f93c db89 eabd 075e 18be a514 5cbd
000001d0: 0592 84bd 1909 0b3e 200c d03d 6ada f63d
000001e0: 5e1f c83d e427 05be f319 9f3c 08c9 5f3d
000001f0: 5131 cc3d d014 8d3d bb2f a33d 495f 13be
00000200: c28c d83c 9d27 5d3b e682 123e 3ee1 fe3d
00000210: 3de0 4a3c da03 8fbd 3fc6 f8bd 5351 d8bd
00000220: 95f9 b23b bdfa 693d fd60 b3bd e37e b23d
00000230: 4b46 d83c d7c8 8a3d ea39 9ebd e5f4 783d
00000240: 3f0d 0c3e cd46 333d f749 d63c ab52 c9bd
00000250: 106b f6bd afc5 8fbd fa8e 1d3c 1bdd 62bc
00000260: bbcb 703d d5a9 eb3d ec33 113e 52bb 0f3e
00000270: 873c 8abc cec7 a23d 9e1c 843d a75b 3b3c
00000280: 6574 13bc 6fb2 643d fe18 eabd 3885 15bb
00000290: 8a23 8b3d 614f 13be 075f bebd db6b 03be
000002a0: 700d 163e 1c69 c3bd 3078 0c3e b3f6 d8bd
000002b0: 5204 d5bd 4d3c cb3d 9c77 c93c 5042 ea3d
000002c0: e6ae dbbc eef2 59bd 91f0 a6bd c0c7 913d
000002d0: 2b2b a13d b9c6 6a3d 8d79 dcbd 2515 0ebd
000002e0: 0cdd 143e c9a8 39bd 5a53 10bd c85a 4e3d
000002f0: d743 1abb 8d98 1b3e 8af8 0b3e 230d dfbb
00000300: 5806 763d 26d3 a9bd b85c d2bb a27d ebbd
00000310: 0b99 183e eaa5 fcbd 74a1 dabb 2721 dd3d
0.002808238 -0.057863373 0.06470009 -0.048385445 -0.02361533 0.05969813 -0.08272118 -0.023845986
0.0063896314 -0.024751555 -0.028951898 -0.07158851 0.0030842384 -0.12519403 0.012136749 -0.009979349
-0.057193473 0.06407332 -0.04110883 0.12483215 0.07036597 0.0904423 0.03805883 0.100897096
0.08018772 0.1212449 0.07625764 -0.02650931 -0.11489621 -0.06876108 -0.031542603 0.09653737
0.11923408 0.12179619 -0.11112414 0.041065745 0.072106615 0.05726189 0.08358263 0.054480445
-0.04416169 -0.09474546 0.07997022 -0.07596051 -0.04570601 -0.0934882 -0.10347926 0.019032007
0.06622668 0.044987906 0.018434534 0.0026335244 -0.10107264 0.0044366717 -0.032250755 -0.06917339
0.11937051 -0.09774327 -0.09696848 -0.09122541 -0.075736634 -0.038265895 -0.0081277015 -0.107156806
0.05999675 0.09213303 0.089328185 -0.1053042 -0.0424191 0.1273875 -0.005359609 0.06800237
-0.1256193 0.055543777 -0.0172559 -0.06011649 0.04793406 0.013938298 -0.013913452 -0.1367969
0.038493533 -0.09038456 -0.051440127 0.042173307 -0.09523851 -0.14836642 -0.03785581 0.05038245
0.065023445 -0.07129784 0.13685536 -0.1183688 -0.08239537 -0.05298084 0.12735891 -0.10913839
-0.128133 -0.068706624 -0.051334165 0.06260354 -0.009968586 0.06724195 -0.045598224 -0.11794454
0.06687842 0.082322516 -0.08711981 -0.0274904 -0.021437913 -0.08394024 -0.038901623 0.12018618
0.030497551 -0.11452075 -0.14879619 -0.053730626 -0.064731635 0.13577689 0.10158563 0.12053378
0.09771608 -0.13003498 0.019421553 0.054635078 0.09970344 0.06888735 0.07968088 -0.14391817
0.026434306 0.0033745535 0.14307746 0.12445305 0.012382564 -0.069831565 -0.121471874 -0.10562386
0.0054618814 0.05712389 -0.087587334 0.08715608 0.026400706 0.067765884 -0.0772589 0.060780425
0.13676928 0.043768693 0.026158316 -0.09830221 -0.12032139 -0.07020127 0.009616608 -0.013846661
0.058788043 0.11507002 0.14179963 0.14036301 -0.016874565 0.07948266 0.06450771 0.011435426
-0.008999919 0.05583423 -0.11430548 -0.0022815 0.06793888 -0.1438575 -0.09295469 -0.12834112
0.14653563 -0.095415324 0.13717723 -0.10593929 -0.10401215 0.09923611 0.024593167 0.11438429
-0.026816797 -0.05321019 -0.08151353 0.071181774 0.07869562 0.057318423 -0.107653715 -0.034688134
0.14537448 -0.04532698 -0.03523574 0.050379544 -0.002353897 0.15194912 0.13669029 -0.006806986
0.060064644 -0.082922265 -0.0064197443 -0.11498572 0.14902131 -0.12336333 -0.0066720787 0.10797339

lstm.bias_hh_l1 f4 [200]
00000000: fc7f c3bc 0816 d63d c4f0 a0bd 6ba9 a3ba
00000010: c7a8 b43d a284 1b3e e39a 9fbd 0986 893d
00000020: b66a 8fbd 1cec a5bd 0a7a 103e 7cfe fa3d
00000030: a3b8 d3bd fad7 0fbd 9bd4 8abd 9774 8e3d
00000040: 77b8 16bc 2b3f d6bd 329f e1bd 50bf dbbc
00000050: ef73 d63d 4072 9dbc 8fe5 003e 9e13 f8bd
00000060: 802c d23d 5cc4 823d 773b f33d eee0 c63d
00000070: 24e2 633d fd74 46bc 95bf 36bd fb72 393d
00000080: 8d2f 95bd c0b6 98bc ce4e c83d 5903 273d
00000090: b104 f0bd 950b fe3d 6a6c 0fbe 4526 f9bd
000000a0: d5bc 013e 4959 88bd efe6 e83c 3755 85bd
000000b0: ab11 b53d c6f1 033e efcf c83d 2cb1 08be
000000c0: 75e9 c6bd c4d5 e5bd df8c 083e 8fd3 fb3d
000000d0: 2d96 dfbc ba84 b43d 48d6 043e cb83 9cbc
000000e0: 41ee d0bd b1ea c9bb 7bb3 7bbd 8381 3bbc
000000f0: 8031 89bc 79d4 173e 4b29 b53c fc1f 5c3d
00000100: 5ab0 9c3d eae5 debd b8f1 90bd ef34 783d
00000110: 35b1 4ebc aadf abbc 383a fbbd a61a 3cbd
00000120: 6113 513d 0147 debb dc03 64bd 07aa bebd
00000130: a8bd e0bd 6070 fabd 80da f3bc 3e9d 953d
00000140: 13ad 153d 0749 013e e2e3 2cbd 3181 063b
00000150: bfbb d6bd e3b8 f53d 50b3 523d e1e0 e0bd
00000160: d87b 70bd be66 9fbc 6c6e 01be 52ac 56bc
00000170: 2c9c c8bc 6599 4c3d a663 ef3d bf8d 303c
00000180: c87d 8cbc 5b9f af3d e0eb 7abd 425c 8abc
00000190: 2a08 3d3d eb27 13be 06dd 72bd 57c2 113e
000001a0: 2b18 1bbd 70ed 073e 4fe9 e9bc b20d 99bd
000001b0: b01e fe3d ffaa edbd 0731 1d3e a363 87bd
000001c0: 0bcd abbd fe9a f0bd 14c9 24bd 1123 b33d
000001d0: de36 9ebc f66f eabd 60bc 08be 4620 a93c
000001e0: 19a2 033e 79a2 e73d 4898 11be 272e bcbc
000001f0: 4d53 943d c815 1abe 4655 54bd ab30 023e
00000200: f020 863d 8f6b 8c3d f88e 773d 80f8 063d
00000210: a7d5 fcbc bf3d 02bc a1e6 1bbe a2f9 d93d
00000220: 562c 8c3d 91ed 0dbe 4e0d 163d d507 c23a
00000230: deda 4f3a 817a 6fbd 6d7b ce3d a30b e43d
00000240: b8ef 093e 02d3 0fbc 8c66 043e 6fed 83bd
00000250: badc 69ba ab69 6fbd 5e9d 03bd 47a9 623d
00000260: f678 aa3c bb4a da3d 821f ddbd abd7 f6bc
00000270: 18fe fc3c fd86 cf3d d809 bc3d 064b f9bd
00000280: affb b8ba 2eca 053e 23f0 05be d7b0 fbbd
00000290: 48ca ec3d ff0d 55bd 054a 32bd de9e b8bd
000002a0: fdab 013d 7c00 c53c 3573 c9bd c30a d0bd
000002b0: 6c98 8cba 8b54 023d 1269 c1bd c4e3 87bd
000002c0: 2cba f93c 4e63 143e cd81 893d c4e7 0e3d
000002d0: f725 a4bd 4c06 fabd 3cbb fbbc fffe b1bd
000002e0: 86e0 15bc 2119 9fbd f151 7d3c 5052 263d
000002f0: aa2c 423d ba22 f43d eff9 f13d fc0c 24bc
00000300: 3272 713d 4ec9 4aba 1541 053e 04aa e5bd
00000310: 0f3c 8c3d ffd7 043d 20b5 d6bd 23d0 913d
-0.023864739 0.10453421 -0.078584224 -0.0012486404 0.08821254 0.15187314 -0.07793214 0.06715018
-0.07002775 -0.08101675 0.14109054 0.1225557 -0.10337951 -0.03511808 -0.067788325 0.069558315
-0.009199253 -0.10461267 -0.11016692 -0.026824623 0.10471331 -0.019219518 0.1258757 -0.12113117
0.10262394 0.06385109 0.118765764 0.09710871 0.055635586 -0.012112853 -0.0446163 0.04527567
-0.0728446 -0.01864183 0.09780656 0.040774677 -0.11719645 0.12404553 -0.140062 -0.121655025
0.1266969 -0.06657655 0.02843043 -0.06510394 0.088412605 0.12885198 0.09805285 -0.13348836
-0.09712497 -0.11222413 0.13334988 0.12296211 -0.02729329 0.08814378 0.12972367 -0.019105813
-0.10201693 -0.0061620106 -0.061450463 -0.011444452 -0.016747236 0.14827146 0.022114417 0.05374144
0.07650824 -0.108836964 -0.07077354 0.060597356 -0.012615492 -0.020980675 -0.12266964 -0.04592385
0.05104387 -0.0067833667 -0.055667743 -0.09309774 -0.10973674 -0.12228465 -0.029767275 0.07305382
0.03654201 0.12625514 -0.042209513 0.0020523781 -0.104850285 0.11998155 0.051440537 -0.10980392
-0.058711857 -0.019458171 -0.12639779 -0.013102608 -0.024488531 0.049950976 0.11688928 0.010775982
-0.01714982 0.085753165 -0.061260104 -0.016889695 0.046150364 -0.14370696 -0.059292816 0.14234291
-0.037864845 0.13274169 -0.028553633 -0.07473315 0.12408197 -0.116048805 0.15350734 -0.06610801
-0.08388718 -0.117483124 -0.040230826 0.08746923 -0.019313272 -0.11447136 -0.1335311 0.020645272
0.12854804 0.11310286 -0.14218247 -0.022971226 0.07242451 -0.15047371 -0.051839136 0.12713878
0.06549251 0.06856453 0.06043908 0.03295183 -0.030863596 -0.007949292 -0.15224697 0.10643317
0.06844394 -0.13860156 0.036633782 0.001480336 0.0007929037 -0.05846644 0.10082135 0.11135032
0.13470352 -0.0087783355 0.12929744 -0.06441771 -0.00089211354 -0.058450382 -0.0321325 0.055337217
0.020809632 0.10658785 -0.10797025 -0.030132135 0.03088288 0.10133169 0.09181565 -0.12172513
-0.0014113093 0.13065407 -0.13079886 -0.12289589 0.115620196 -0.0520153 -0.04352762 -0.090146765
0.03165816 0.024048083 -0.09836427 -0.10158303 -0.0010726578 0.031818908 -0.09443869 -0.0663524
0.030484281 0.14491007 0.06714211 0.034888998 -0.08015054 -0.12208232 -0.030728929 -0.08691215
-0.009147769 -0.07768465 0.015461431 0.040605843 0.047405876 0.11920686 0.11815249 -0.010012861
0.058946796 -0.0007735685 0.13013108 -0.112140685 0.06847393 0.032432552 -0.104837656 0.07119777

fc.weight f4 [1, 50]
00000000: 459f 0c3e 73a1 f8bd 63e3 33bd 1a68 cd3d
00000010: 6a0b 1b3d c069 cb3d c29a dabd 203c febd
00000020: ef8c 94bd 9d4e a53d 71a6 e43d b79a a23d
00000030: 0dd7 1a3d 0843 c4bd 540f 09be 2fef 8e3b
00000040: f8f9 41bd a448 4f3d f5bb 90bd 4ab6 df3d
00000050: 2a16 0a3e 52b5 c4bd dcee 11be b2a7 e23d
00000060: 7882 8e3d 1310 08be 9ca0 1d3d dd90 06be
00000070: 6b27 08bd 5ccd 413d 9f9d b13d 784b ec3b
00000080: 8021 7bbd 23f8 023d 74c8 9ebd 4ee5 8dbd
00000090: 79da ccbd db91 89bd a159 d43b 63f8 8f3d
000000a0: ed68 08be 883c 9e3d 61d5 d13d d52a 0dbd
000000b0: 64c2 e63d e2c8 bcbc 5871 533d 5b0a b13d
000000c0: 2e1d a83d 316c e8bb
0.13732632 -0.12140169 -0.043918025 0.100296214 0.037852682 0.099322796 -0.10674049 -0.12413812
-0.072534434 0.08071635 0.11164559 0.07939666 0.037802745 -0.09583098 -0.13384753 0.004362009
-0.04735753 0.050606385 -0.070671 0.10923441 0.13485017 -0.096048966 -0.14251274 0.110671416
0.06958479 -0.13287382 0.038483247 -0.13141198 -0.033240717 0.047314987 0.08672642 0.007211145
-0.061311245 0.031974923 -0.07753077 -0.06928502 -0.10002608 -0.06717273 0.006480411 0.07029798
-0.13321276 0.07726389 0.10245777 -0.034464676 0.11267546 -0.023045007 0.051621765 0.08644553
0.082086906 -0.0070929755
