models/daily_model_SOL_USDT.pth (torch, 128277 bytes, 9 tensors)

lstm.weight_ih_l0 f4 [200, 1]
0	0xbd2f0035	-0.042724807
1	0xbc77800e	-0.015106214
2	0x3e12f169	0.14349903
3	0x3d411658	0.04714045
4	0x3dc179fd	0.094470955
5	0x3daf1daa	0.0855058
6	0xbcecec28	-0.028921202
7	0x3c554d56	0.013018927
8	0x3d29da21	0.04146779
9	0x3df5c862	0.120011106
10	0x3d5e303f	0.05424523
11	0xbd4a8bad	-0.04944961
12	0x3decb651	0.115582116
13	0xbd87e6eb	-0.06635841
14	0xbd34c8f9	-0.044136975
15	0x3d100b41	0.035166983
16	0xbd7027fe	-0.05863189
17	0x3de69967	0.11259728
18	0x3d794238	0.060854167
19	0xbdf565dd	-0.119823195
20	0x3db95e99	0.09051246
21	0xbddbadca	-0.10726507
22	0xbc0a3e6c	-0.008437734
23	0xbddb815f	-0.10718035
24	0xb98dc3fc	-0.00027039635
25	0xbd54c335	-0.051943976
26	0x3d4e9bce	0.050441556
27	0x3db4ab92	0.08821787
28	0xbddc7b18	-0.10765666
29	0xbc3a027d	-0.011353132
30	0x3d8ac965	0.06776694
31	0xbcc3e6e8	-0.023913816
32	0xbd425364	-0.04744281
33	0x3c5aa4cb	0.013344954
34	0x3e1cc76a	0.15310445
35	0xbdc87157	-0.09787243
36	0x3d2a1ae6	0.04152956
37	0xbdb5b33e	-0.08872078
38	0xbd6eee15	-0.05833252
39	0x3ce4a006	0.027908336
40	0x3e1d7307	0.1537591
41	0xbd14acee	-0.03629773
42	0xbc57cb5e	-0.013171045
43	0xbd8593cb	-0.0652233
44	0xbd3ac8fc	-0.04560183
45	0x3c91fd49	0.017820971
46	0x3d6f7b47	0.058467176
47	0xbd857abc	-0.0651755
48	0x3d90bb33	0.070669554
49	0xbc800138	-0.015625581
50	0x3ca7bcfb	0.020475855
51	0xbd821cc0	-0.0635314
52	0xbdafb035	-0.08578531
53	0xbdee373d	-0.116316296
54	0xbd10a360	-0.035312057
55	0xbdaee3ee	-0.08539568
56	0x3dd59291	0.10428346
57	0x3d48a6a0	0.04898703
58	0xbe0f76dd	-0.14010186
59	0xbdee9692	-0.11649813
60	0xbd6394c5	-0.0555618
61	0xbde40f99	-0.111357875
62	0xbdc86f9a	-0.09786911
63	0xbcd153ef	-0.025552718
64	0x3e062569	0.13100208
65	0x3e1bf785	0.1523114
66	0xbcdde28c	-0.027085565
67	0xbcec40cd	-0.028839493
68	0x3d76a103	0.060212146
69	0x3d6a276c	0.057166502
70	0x3dbda3f9	0.09259791
71	0x3da036f4	0.078229815
72	0x3beffcc8	0.007323835
73	0xbdd5b376	-0.1043462
74	0xbdd190cf	-0.10232698
75	0x3d347700	0.0440588
76	0x3dbe7a69	0.09300692
77	0xbd6803d1	-0.056644265
78	0x3db4d8e3	0.0883043
79	0xbc805cbf	-0.015669225
80	0x3e073ad8	0.13206041
81	0x3e1d9bd1	0.1539147
82	0x3d3b0275	0.04565664
83	0x3ab50ea8	0.0013813572
84	0xbd4ee4fa	-0.050511338
85	0x3d26dd52	0.04073841
86	0xbdd9089a	-0.10597344
87	0x3d9a362f	0.07529866
88	0x3c4a44f6	0.012345543
89	0xbd9543bd	-0.07288311
90	0x3e1e8095	0.15478738
91	0x3e1b8f93	0.15191488
92	0xbd2d7c81	-0.042355064
93	0xbdda4cb6	-0.10659163
94	0x3b578e82	0.0032891338
95	0x3d65a274	0.05606313
96	0xbd988a5d	-0.07448266
97	0x3d7a006c	0.06103556
98	0x3d541abc	0.05178331
99	0xbdf02535	-0.11725847
100	0x3db34e5e	0.08755182
101	0xbb8b1ec4	-0.004245611
102	0x3cf1769f	0.029475508
103	0x3dcef40d	0.10105143
104	0x3c67ca92	0.014147418
105	0xbe1b3fbd	-0.15161033
106	0x3e09e786	0.13467225
107	0x3cd59d36	0.02607594
108	0x3c1ca075	0.00955974
109	0xbdc57a5e	-0.0964248
110	0xbdd962e2	-0.106145635
111	0xbdc7bca0	-0.09752774
112	0xbd313952	-0.043267556
113	0x3ddb705b	0.107147895
114	0xbb5067ca	-0.0031800144
115	0x3df6426d	0.120243885
116	0xbd8846eb	-0.066541515
117	0x3cee0a8a	0.02905776
118	0x3e0e08b9	0.13870515
119	0xbbef3748	-0.007300291
120	0xbc97e68d	-0.018542552
121	0xbcc2a540	-0.023760438
122	0x3da5a4e8	0.08088094
123	0xbddea35e	-0.108710036
124	0x3d6251cf	0.0552538
125	0x3ceca7ac	0.028888546
126	0x3da91413	0.08255782
127	0x3c50bc36	0.0127401855
128	0x3b00c524	0.0019648755
129	0x3d9bacad	0.07601295
130	0x3deac99c	0.11464235
131	0x3dcdc8ff	0.100481026
132	0xbb93bb6e	-0.0045084273
133	0x3d6fd8eb	0.05855648
134	0xbdd6b7f0	-0.10484302
135	0x3d5caa39	0.053873274
136	0xbe168d49	-0.14702334
137	0xbe12f53c	-0.14351362
138	0xbdfcd667	-0.123455815
139	0x3d9c1989	0.07622058
140	0x3b898cb5	0.004197682
141	0x3d0f53a5	0.03499188
142	0x3da654a6	0.08121614
143	0xbdfb3aad	-0.12267051
144	0xbd82b0fb	-0.063814126
145	0x3e197986	0.14987764
146	0xbc81d782	-0.015849832
147	0x3b9a6752	0.004712024
148	0x3e1dbdf5	0.15404494
149	0x3dc6e8a7	0.09712344
150	0xbbd6f1bc	-0.0065595787
151	0xbd1e420d	-0.03863721
152	0xbda62359	-0.08112211
153	0xbd066216	-0.032808386
154	0x3d7ce331	0.061740104
155	0xbd56d3b2	-0.052447982
156	0x3d7d218e	0.06179958
157	0x3de30f40	0.11086893
158	0x3d673fc3	0.056457292
159	0xbdcbeadc	-0.09956905
160	0x3d142855	0.036171276
161	0xbb433f04	-0.00297922
162	0xbccc19c7	-0.024914635
163	0xbd06fcd5	-0.032955963
164	0x3a2a42c6	0.00064949354
165	0xbdc4a2c6	-0.09601359
166	0xbdd8db00	-0.10588646
167	0x3dc96a9b	0.098347865
168	0xbd01425a	-0.03155742
169	0xbd244038	-0.040100306
170	0x3e24c175	0.16089423
171	0xbca1d563	-0.019755071
172	0x3dd94b95	0.10610119
173	0x3d91980d	0.071090795
174	0x3d67542c	0.056476757
175	0xbd011b4b	-0.03152017
176	0xbda1d20f	-0.079013936
177	0xbd159d01	-0.036526684
178	0xbc27d58c	-0.010243785
179	0xbb96c4ef	-0.004601113
180	0x3d9df910	0.077135205
181	0x3ddafb4e	0.10692464
182	0xbc7a3b3a	-0.01527291
183	0xbcdd1cd2	-0.026991282
184	0xbdb75dc2	-0.0895343
185	0x3e0d4cc1	0.1379881
186	0xbd0804b7	-0.03320762
187	0x3e2093d3	0.1568139
188	0xbde8c850	-0.113663316
189	0xbd8f49cc	-0.069964975
190	0x3cf47388	0.029840246
191	0x3e1421d0	0.14466023
192	0x3d13bb8d	0.036067534
193	0xbd234853	-0.039863896
194	0xbda6f210	-0.081516385
195	0xbcf8b913	-0.030361688
196	0xbdfce66a	-0.123486355
197	0xbe1125bb	-0.1417455
198	0x3b3bcb47	0.0028655098
199	0x3c7b4d6d	0.015338284

lstm.weight_hh_l0 f4 [200, 50]
0	0xbe06397b	-0.13107865
1	0xbbf68b5a	-0.007523936
2	0x3e0e2ab9	0.13883485
3	0x3e0048cd	0.12527771
4	0xbdf77b8d	-0.12084112
5	0xbc604c5a	-0.013690079
6	0x3e22ebb9	0.15910234
7	0xbdea0157	-0.11426037
8	0xbdb7a457	-0.08966892
9	0x3d582b9f	0.052775975
10	0xbdc4f50f	-0.09617054
11	0xbe02ca4e	-0.12772486
12	0xbcc3a878	-0.023884043
13	0xbcb86072	-0.022506926
14	0x3e08cead	0.1336009
15	0xbde24744	-0.11048749
16	0xbd906552	-0.07050575
17	0x3d2afef5	0.041747052
18	0x3d317ea7	0.043333676
19	0xbbf4ae0a	-0.007467036
20	0x3d4c8666	0.04993286
21	0x3d3acfa1	0.045608167
22	0xbdcc267c	-0.09968278
23	0xbdad0444	-0.08448079
24	0x3daa51bc	0.08316371
25	0x3b8f165a	0.004366678
26	0x3db72527	0.08942633
27	0xbd8de072	-0.06927575
28	0x3dfeaaab	0.12434896
29	0xbceebb90	-0.029142171
30	0x3da5cf81	0.08096219
31	0x3dfd7622	0.12376048
32	0x3da78e9c	0.081814975
33	0xbd0c38ce	-0.03423386
34	0x3de98690	0.11402619
35	0x3d8defbd	0.06930492
36	0xbd6a4054	-0.057190254
37	0x3cb22d17	0.021750016
38	0xbdfde171	-0.12396515
39	0xbd7e1b2e	-0.06203764
40	0xbd0de08c	-0.034637973
41	0x3e12ac54	0.1432355
42	0x3e131d49	0.1436664
43	0xbc3fb37e	-0.011700509
44	0xbd53fe3a	-0.05175612
45	0x3d9fb50e	0.07798205
46	0xbd9e2fad	-0.07723937
47	0x3df8f2cd	0.121556856
48	0x3e21097f	0.15726279
49	0xbd21dfc3	-0.039520036
50	0xbdf55ee5	-0.1198099
51	0x3db8d71b	0.09025403
52	0xbda385d3	-0.07984509
53	0xbde6d778	-0.11271566
54	0x3d226da9	0.03965536
55	0x3d1abbd5	0.037776787
56	0x3cf1772b	0.029475769
57	0x3c8e9f01	0.017409803
58	0xbd139847	-0.036033895
59	0x3d98e19e	0.07464908
60	0x3dc5d6a9	0.09660084
61	0x3d211537	0.039326873
62	0x3d07af9c	0.03312646
63	0xbd5b1e0a	-0.053495444
64	0x3e0b349a	0.13594285
65	0x3ddb4cb4	0.10707989
66	0x3cd7c242	0.026337747
67	0x3dc1e26e	0.09467016
68	0x3d499df7	0.049222913
69	0x3b447588	0.002997728
70	0xbbe30e4b	-0.006929194
71	0xbdddf4ba	-0.108376935
72	0xbc3029f2	-0.010752188
73	0xbcdac18c	-0.026703618
74	0xbe005a0f	-0.12534355
75	0x3e1bdd99	0.15221252
76	0x3d819180	0.0632658
77	0x3e085d08	0.13316739
78	0xbda78268	-0.0817917
79	0x3df39d3d	0.11895225
80	0xbde3c471	-0.111214526
81	0x3d24617d	0.040132035
82	0x3e2002fe	0.15626141
83	0xbd1a2bc2	-0.037639387
84	0xbd999cf6	-0.07500641
85	0xbd771500	-0.06032276
86	0xbd1ef8e4	-0.03881158
87	0xbe17aee8	-0.14812815
88	0xbe06b5a8	-0.13155234
89	0x3d1e48bd	0.038643587
90	0xbd57215e	-0.052522056
91	0x3e00b0af	0.125674
92	0x3d749309	0.059710536
93	0xbb9fd8d6	-0.004878144
94	0x3d8b2848	0.067947924
95	0xbdd68601	-0.10474778
96	0x3d918749	0.07105882
97	0x3d17a676	0.037023984
98	0xbcb7b429	-0.022424774
99	0x3d536455	0.051609356
100	0x3da94f8b	0.08267125
101	0x3d28e615	0.04123505
102	0x3d0e4d38	0.03474161
103	0x3cf4c2bc	0.029878013
104	0x3db2c54b	0.08729037
105	0xbdc2db71	-0.095145114
106	0x3c8408f2	0.016117547
107	0x3d81323a	0.06308408
108	0xbd06342a	-0.03276459
109	0xbd63bcf1	-0.05560011
110	0xbce20f9c	-0.027595334
111	0x3de8aeb4	0.11361447
112	0x3d80cbe9	0.06288893
113	0x3d4d3acd	0.050104905
114	0xbd9ed857	-0.07756107
115	0xbdb4ac99	-0.08821983
116	0xbe1dddc5	-0.1541663
117	0x3dd02793	0.10163798
118	0xbde7b616	-0.11314027
119	0xbdbf7e3b	-0.093502484
120	0x3d024626	0.03180518
121	0x3d1a42c4	0.03766133
122	0x3de6499e	0.1124451
123	0x3d1ec0d1	0.038758103
124	0xbe045e32	-0.12926558
125	0x3dc69e9e	0.096982226
126	0x3d25451d	0.040349115
127	0xbde6fdeb	-0.112789
128	0xbd539848	-0.0516589
129	0x3dbbd7f5	0.0917205
130	0x3d78f79e	0.06078302
131	0x3d5c1a8d	0.05373626
132	0x3c0493ee	0.00809191
133	0xbc84bd7d	-0.016203636
134	0x3db123ef	0.08649432
135	0x3daedbc9	0.085380144
136	0xbdee0430	-0.116218925
137	0xbdb91419	-0.090370364
138	0x3ca04976	0.019566279
139	0xbd7c6337	-0.061618056
140	0x3ccb2c49	0.02480139
141	0xbd3a562f	-0.045492347
142	0xbc89bab5	-0.016812662
143	0xbe0ce0e3	-0.13757662
144	0xbd9801b0	-0.07422197
145	0x3b526091	0.0032101015
146	0x3a5d78b4	0.0008448467
147	0xbd8c28e2	-0.06843735
148	0x3d992ee0	0.07479644
149	0x3d39ccbd	0.04536127
150	0x3e00cb46	0.12577543
151	0xbdfdec2a	-0.1239856
152	0xbc9ba46c	-0.0189993
153	0xbe0de19f	-0.13855599
154	0x3da94743	0.08265545
155	0x3cb58b18	0.022161052
156	0xbdbca0cf	-0.09210359
157	0x3daecd16	0.08535211
158	0xbd92c7bd	-0.07167003
159	0x3d80d2fa	0.062902406
160	0x3dcda072	0.10040368
161	0xbdf249f0	-0.11830509
162	0x3bc6c2f4	0.0060657207
163	0x3dc60365	0.09668616
164	0xbd1f69dc	-0.038919315
165	0x3e0cb022	0.13739064
166	0x3d9f0da3	0.07766273
167	0x3dc6e7e0	0.097121954
168	0x3dfbaaea	0.12288459
169	0xbd2428b7	-0.04007789
170	0x3db555ae	0.08854233
171	0xbe00dee1	-0.12585022
172	0x3b89f155	0.004209677
173	0x3dcfd491	0.10147966
174	0xbd9cd1df	-0.07657217
175	0xbd80ee1b	-0.06295415
176	0xbbdaeff4	-0.0066814367
177	0x3d057819	0.032585237
178	0xbd8186f1	-0.06324566
179	0xbd9d7e8b	-0.07690152
180	0x3d3a25c4	0.045446172
181	0x3c641d2b	0.01392297
182	0xbe09e302	-0.13465503
183	0x3d8a2448	0.06745201
184	0x3ce41edd	0.027846748
185	0xbd909c46	-0.07061057
186	0x3d4e7d6e	0.050412588
187	0xbddc45aa	-0.10755475
188	0x3d8a8e6b	0.06765445
189	0xbdebaf8a	-0.11508091
190	0x3dc67e08	0.09692007
191	0x3de62bbd	0.11238811
192	0x3d1cbbcb	0.03826503
193	0x3b82b618	0.0039889924
194	0xbdeb0a26	-0.11476545
195	0x3dfb03ab	0.12256559
196	0x3dde56c2	0.108563915
197	0x3b9f628c	0.0048640426
198	0xbdee009c	-0.1162121
199	0x3dc44a88	0.09584528
200	0xbba6d236	-0.005090977
201	0x3d8199aa	0.06328137
202	0xbdba1a02	-0.09086992
203	0x3c2cd468	0.0105486885
204	0x3d1dde3e	0.038542025
205	0xbd9e5840	-0.07731676
206	0x3d0623e7	0.032749083
207	0x3d877935	0.06614915
208	0xbde86aeb	-0.11348518
209	0xbd9a4bba	-0.07533975
210	0x3ca64d3b	0.020300498
211	0x3e19d9ed	0.15024538
212	0xbd7e3815	-0.062065203
213	0x3b859e0a	0.0040776776
214	0xbde43bd4	-0.11144224
215	0xbd2b029e	-0.041750543
216	0x3d229930	0.039696872
217	0x3d9fddf9	0.0780601
218	0x3d505b38	0.050868243
219	0xbd3e57fb	-0.046470623
220	0xbd026dd3	-0.031843018
221	0x3d4da94d	0.050210286
222	0x3dccfc5c	0.10009071
223	0x3d90cb41	0.070700176
224	0x3d1cc129	0.03827015
225	0x3c3727fc	0.011178967
226	0xbd191395	-0.03737219
227	0xbdadf8bb	-0.08494707
228	0xbdb52647	-0.088451914
229	0xbd81fd9f	-0.063472025
230	0x3d40c851	0.047066037
231	0xbe05f84f	-0.13083003
232	0xbd6dd20c	-0.058061644
233	0x3c18ba60	0.009321779
234	0xbb9cb618	-0.0047824495
235	0xbca3f7e1	-0.020015659
236	0x3d74967b	0.05971382
237	0x3ced9b31	0.029004665
238	0x3e188e0b	0.14897935
239	0xbcdf526a	-0.027260978
240	0xbd8c23d0	-0.06842768
241	0x3dc15ab8	0.09441131
242	0x3c3b2158	0.011421524
243	0xbdd6b8a8	-0.10484439
244	0xbd7cde31	-0.061735336
245	0x3d0647f4	0.032783464
246	0x3d329ff3	0.04360957
247	0xbcdef65e	-0.027217086
248	0xbdf961d5	-0.12176863
249	0xbd3557eb	-0.0442733
250	0xbd4eafbf	-0.050460573
251	0x3e018ffe	0.12652585
252	0x3caee7a7	0.021350695
253	0x3da764ec	0.08173546
254	0x3dbf528c	0.093419164
255	0x3d29ae2c	0.04142587

lstm.bias_ih_l0 f4 [200]
0	0xbdc703b2	-0.09717502
1	0x3e02a218	0.12757146
2	0x3d78ee01	0.060773853
3	0x3d2a4c14	0.04157646
4	0x3dab3862	0.083603635
5	0xbd49a58b	-0.04923014
6	0x3da77f03	0.081785224
7	0x3ddb3d5d	0.107050635
8	0x3dfcd4bc	0.12345263
9	0x3c61e1de	0.013786761
10	0x3b998a3e	0.004685669
11	0x3d43565a	0.047689773
12	0x3dcfe45e	0.101509795
13	0x3d819eea	0.063291386
14	0x3db7c9ee	0.08974062
15	0xbc805458	-0.015665218
16	0x3d3baebf	0.045820948
17	0x3cb0f10b	0.021599313
18	0xbd6b1188	-0.057389766
19	0xbdd0cf20	-0.10195756
20	0xbd914a14	-0.070942074
21	0x3e183b27	0.14866315
22	0xbd3a177d	-0.045432556
23	0xbd820267	-0.063481145
24	0x3c37b97d	0.011213657
25	0xbd143003	-0.0361786
26	0x3df7e67a	0.12104507
27	0xbdd05daf	-0.10174119
28	0x3d663c4a	0.05620984
29	0x3e1dd88e	0.1541464
30	0x3d78fa24	0.060785428
31	0x3e1db6cd	0.15401764
32	0xbdebed51	-0.11519874
33	0xbdc4a887	-0.096024565
34	0xbd8df7e6	-0.069320485
35	0xbd87f2cb	-0.06638106
36	0x3d94b2c4	0.07260659
37	0x3db36b13	0.08760657
38	0xbde8536f	-0.11344039
39	0x3d2c2a2c	0.042032406
40	0xbcd10120	-0.025513232
41	0x3d888a57	0.06667011
42	0x3def24df	0.116769545
43	0xbd04f8a2	-0.032463677
44	0x3d9609f1	0.07326115
45	0x3d77369e	0.06035482
46	0xbcf176e8	-0.029475644
47	0xbd908078	-0.070557535
48	0xbd8f137a	-0.06986137
49	0x3b680e7e	0.0035409029
50	0x3db06e23	0.08614757
51	0x3dc49200	0.0959816
52	0xbd7b7ee2	-0.0614003
53	0xbd0ba708	-0.03409484
54	0x3daf40f0	0.08557308
55	0xbd035bb2	-0.03206987
56	0x3da3457e	0.07972239
57	0xbd3cd76d	-0.046103884
58	0xbda0f1c3	-0.078586124
59	0x3c0603ed	0.008179647
60	0x3dfbf1b1	0.12301958
61	0x3e086f4b	0.13323705
62	0xbce818e6	-0.028332185
63	0xbe085bfc	-0.13316339
64	0x3de82ea6	0.113370225
65	0x3e0169a5	0.12637956
66	0xbc1d6911	-0.009607569
67	0xbdc1eb0b	-0.09468659
68	0xbd7c06cc	-0.06152992
69	0x3dfde968	0.12398034
70	0x3dbc53dd	0.09195683
71	0x3e0e2fc7	0.13885413
72	0xbc7189bc	-0.014742311
73	0x3da7e8b0	0.081986785
74	0x3decdded	0.115657665
75	0xbdcd52f9	-0.100255914
76	0x3df24617	0.11829775
77	0x3e06d019	0.1316532
78	0x3aff242a	0.0019465734
79	0x3dff9d42	0.124811664
80	0xbcafcbd7	-0.021459503
81	0x3e03561b	0.12825815
82	0x3d4d1ce7	0.05007639
83	0xbd3fa857	-0.0467914
84	0xbdab468a	-0.08363064
85	0xbd46a6d7	-0.048498955
86	0x3da6539f	0.08121418
87	0x3db0d71d	0.086347796
88	0xbdd6f332	-0.104956046
89	0x3e1eb437	0.15498434
90	0xbdb13b2b	-0.086538635
91	0x3e236e3d	0.15960021
92	0x3dfa203d	0.1221318
93	0xbe123760	-0.14278936
94	0x3de95d1c	0.11394712
95	0x3df2b27d	0.1185045
96	0x3dc3dcc2	0.095635906
97	0x3bfa924c	0.0076468345
98	0x3c9ee947	0.019398345
99	0xbdac42e0	-0.08411193
100	0x3cbddabd	0.023175592
101	0xbd8f0b7a	-0.06984611
102	0x3d8856a5	0.06657151
103	0xbdb4cb0b	-0.0882779
104	0x3d364305	0.04449751
105	0x3c8ed19e	0.017433938
106	0xbdc208e3	-0.09474351
107	0xbcb29798	-0.021800801
108	0xbca8a3f5	-0.020585993
109	0xbd3ae3c3	-0.045627367
110	0xbd5accc9	-0.053417955
111	0x3c761612	0.01501991
112	0xbdfe988c	-0.1243144
113	0xbd49e5a0	-0.049291253
114	0xbd007be3	-0.031368148
115	0xbdc31ca0	-0.09526944
116	0xbdbc9f60	-0.09210086
117	0x3dcb5f51	0.099302895
118	0xbc9da60c	-0.019244216
119	0xbd76e8ad	-0.06028049
120	0x3d8c3e45	0.068478145
121	0x3d53a01b	0.05166636
122	0xbe00dc7e	-0.12584111
123	0x3cd14775	0.025546769
124	0x3ca9e32e	0.02073821
125	0xbcac0b1e	-0.021001395
126	0xbde6da52	-0.1127211
127	0xbd1eb1cc	-0.03874378
128	0x3d94fc5f	0.072746985
129	0xbca2f224	-0.019890852
130	0xbdbbd978	-0.09172338
131	0x3dfe1464	0.12406233
132	0x3d4cac83	0.049969207
133	0xbe01603c	-0.12634367
134	0x3e201fa5	0.15637071
135	0xbdf5809b	-0.1198742
136	0x3dc68c6c	0.09694752
137	0x3d59e8ba	0.05320046
138	0x3c0717b5	0.008245398
139	0xbe08ef92	-0.13372639
140	0x3e190be2	0.14945939
141	0xbd39d13c	-0.045365557
142	0x3dc6f6c0	0.097150326
143	0x3c60fc48	0.013732024
144	0xbc2a9364	-0.010411117
145	0xbdd71b4b	-0.105032526
146	0x3c7f1521	0.015569002
147	0x3de0914f	0.109652154
148	0xbdd5df97	-0.10443037
149	0x3d6ee48c	0.058323428
150	0xbd1b8e68	-0.037977606
151	0xbd6ac4d4	-0.057316616
152	0x3e0b27a7	0.13589345
153	0x3d9cee98	0.07662696
154	0x3df64432	0.12024726
155	0x3d18f254	0.037340477
156	0xbd892d82	-0.06698133
157	0xbda0a7fa	-0.07844539
158	0x3c8eaae3	0.01741547
159	0xbd716f9f	-0.05894434
160	0x3dc803db	0.0976636
161	0x3c851cac	0.016249023
162	0x3e190ab4	0.14945489
163	0x3dbada96	0.09123723
164	0xbe04ac34	-0.12956315
165	0x3d054c60	0.03254354
166	0x3d08e311	0.033419672
167	0x3dee24b7	0.116280966
168	0xbdaf474d	-0.085585214
169	0x3dc9d447	0.09854942
170	0xbd2789c6	-0.040902875
171	0xbc6cd026	-0.014453923
172	0xbdc2c102	-0.095094696
173	0xbd9b26d0	-0.07575762
174	0xbd2ae065	-0.041717906
175	0xbd851d97	-0.064997844
176	0xbd866f75	-0.065642275
177	0x3de709f1	0.11281193
178	0xbcb31ad5	-0.02186338
179	0x3ca26c63	0.019827073
180	0x3d71c8f8	0.05902955
181	0x3e07620b	0.13220994
182	0xbd15af60	-0.036544204
183	0xbd91d666	-0.071209714
184	0xbdb75f79	-0.08953757
185	0x3e0f8d78	0.1401881
186	0xbd37eb10	-0.044901907
187	0x3d8ab27e	0.06772326
188	0x3e1b32fd	0.15156169
189	0xbc8b589e	-0.01701003
190	0xbd348b3c	-0.044078097
191	0x3dd59ff2	0.10430898
192	0xbda93f86	-0.08264069
193	0xbdc25c73	-0.094902895
194	0xbdcf88ab	-0.10133489
195	0xbd591586	-0.052999042
196	0x3e0cf51b	0.13765375
197	0x3d988025	0.07446317
198	0x3df319a0	0.11870122
199	0x3e1813dc	0.14851326

lstm.bias_hh_l0 f4 [200]
0	0xba0f655c	-0.0005470121
1	0xbda40bc0	-0.08010054
2	0xbd84c8cb	-0.06483611
3	0xbd7c15ce	-0.061544232
4	0x3dcc28ab	0.09968694
5	0x3cf579c6	0.029965293
6	0x3cdff21e	0.02733713
7	0x3c25f246	0.010128563
8	0x3da14e3d	0.07876251
9	0xbd0c5055	-0.034256298
10	0x3d81ac24	0.06331661
11	0x3ce5112c	0.02796229
12	0xbdef6557	-0.11689251
13	0xbd444600	-0.04791832
14	0x3cb65f4d	0.02226224
15	0x3d1ddef3	0.0385427
16	0x3bf53257	0.0074828076
17	0xbd5a9ca7	-0.05337205
18	0x3e072528	0.13197768
19	0xbddfab80	-0.10921383
20	0x3cbc3132	0.022972677
21	0xbcfa78ae	-0.030575123
22	0xbd8cbb5b	-0.06871673
23	0x3d97ef67	0.07418709
24	0xbe01e7e0	-0.1268611
25	0xbc05a1d5	-0.00815626
26	0xbde6bee9	-0.11266882
27	0xbdc407f0	-0.095718265
28	0x3d835d99	0.06414337
29	0x3dffae7e	0.124844536
30	0xbdf62a3c	-0.12019774
31	0xbdbf510d	-0.09341631
32	0xbd705582	-0.058675297
33	0xbe095dca	-0.13414684
34	0xbd481c29	-0.04885498
35	0xbc3be17a	-0.011467332
36	0x3cf93a50	0.030423313
37	0x3daaf487	0.08347421
38	0xbca65a08	-0.020306602
39	0xbcb596f8	-0.022166714
40	0x3e01f1e0	0.12689924
41	0x3dda50ea	0.106599644
42	0x3d297184	0.041368023
43	0xbd45bcaf	-0.048275646
44	0xbcb05ccc	-0.021528624
45	0x3e017132	0.12640837
46	0xbd19644d	-0.03744917
47	0xbcf5d44d	-0.03000846
48	0x3d46c073	0.048523378
49	0xbdf4d88b	-0.11955365
50	0xbd842e1a	-0.06454106
51	0xbd2341f3	-0.039857816
52	0x3e0362fb	0.12830727
53	0xbe1664b3	-0.14686851
54	0xbdea1042	-0.11428882
55	0x3e030dfc	0.12798303
56	0xbda159c6	-0.07878451
57	0xbded47da	-0.1158597
58	0x3deab20b	0.1145974
59	0xbd37d4bc	-0.044880614
60	0x3d61a421	0.055088166
61	0xbd3957a8	-0.04524961
62	0xbd8eacf8	-0.06966585
63	0x3d84c93f	0.06483697
64	0xbdf0b46a	-0.11753161
65	0xbdd54e16	-0.10415284
66	0xbdeb1951	-0.11479438
67	0xbde239ce	-0.110461816
68	0x3d8b7e9c	0.06811258
69	0xbe0d13e1	-0.13777114
70	0x3e16f0d2	0.14740303
71	0x3dd4099d	0.10353396
72	0x3daa9883	0.083298706
73	0x3c6f65a7	0.014611638
74	0x3d8a9e0e	0.06768428
75	0x3de591c4	0.11209443
76	0x3cf77337	0.030206306
77	0x3d5896ec	0.052878305
78	0x3d0bcf2e	0.03413313
79	0xbd36ba90	-0.044611514
80	0xbd93e545	-0.07221464
81	0xbdb9111b	-0.09036466
82	0x3db0397c	0.08604714
83	0x3d0b37f7	0.03398892
84	0x3cffa577	0.03120683
85	0xbd1ee60c	-0.03879361
86	0xbd103609	-0.035207782
87	0xbdd58e2d	-0.104275085
88	0x3e12a71a	0.14321557
89	0xbd7b3dc2	-0.061338194
90	0x39fc553c	0.0004812869
91	0xbde3a512	-0.11115469
92	0xbcacfe8a	-0.021117467
93	0xbc578737	-0.013154796
94	0xbd96559e	-0.07340549
95	0x3d4c5711	0.04988772
96	0x3da95d57	0.08269756
97	0x3d9de74f	0.07710134
98	0xbdd7913a	-0.10525747
99	0xbd98f8a0	-0.074692965
100	0xbe1898d4	-0.1490205
101	0x3e14e901	0.14542009
102	0x3e10ca6a	0.14139715
103	0xbbb4c096	-0.005516122
104	0x3dd987e1	0.1062162
105	0x3d03b174	0.032151654
106	0x3dec8088	0.11547953
107	0xba01bc7a	-0.00049490447
108	0xbce07fb9	-0.027404653
109	0xbddd1ad2	-0.10796131
110	0x3b1bbea9	0.0023764765
111	0x3a9eb1f8	0.0012107482
112	0xbe151337	-0.14558111
113	0x3d2ee753	0.042701077
114	0x3dd9ea20	0.10640359
115	0xbdbcc714	-0.09217659
116	0x3ce77970	0.028256148
117	0x3d02b58c	0.031911418
118	0x3e0b2547	0.13588439
119	0x3d8ad10a	0.06778152
120	0x3ce61f9c	0.028091244
121	0x3cc0299b	0.023457339
122	0xbdfce000	-0.12347412
123	0x3db7d212	0.089756146
124	0xbd768da0	-0.060193658
125	0x3dd792a0	0.105260134
126	0xbdf76f01	-0.12081719
127	0x3e0d4bcf	0.1379845
128	0x3c756b53	0.014979201
129	0xbd9ef337	-0.07761233
130	0x3dab808b	0.08374127
131	0xbd833f46	-0.06408553
132	0x3cbc5b05	0.02299262
133	0xbd73dfc9	-0.05953959
134	0xbd4c6b21	-0.049906854
135	0xbd951946	-0.07280211
136	0xbdcad4dc	-0.09903881
137	0xbe19f026	-0.15033016
138	0xbc53f4e1	-0.012936802
139	0xbd6d96df	-0.05800521
140	0x3e005cd0	0.12535405
141	0x3cdb540a	0.026773471
142	0xbded92cc	-0.11600265
143	0xbbba5363	-0.00568621
144	0x3d023276	0.031786405
145	0x3c66dad2	0.014090257
146	0xbdfb168e	-0.12260161
147	0xbdaa561b	-0.083172046
148	0x3dcbdc03	0.09954073
149	0xbd22d270	-0.03975147
150	0xbddb8b82	-0.107199684
151	0x3e1621e0	0.1466136
152	0xbd35e077	-0.04440352
153	0xbdbb468c	-0.09144315
154	0x3db07e88	0.08617884
155	0xbd144fab	-0.03620879
156	0x3dc9bdcb	0.09850653
157	0xbceef81f	-0.029171048
158	0x3df05c32	0.11736335
159	0xbddc82ea	-0.107671574
160	0x3e04e962	0.12979653
161	0xbd9e2c6c	-0.077233166
162	0x3cf227d9	0.029560016
163	0xbd582b04	-0.052775398
164	0x3d688e9b	0.056776624
165	0x3d831379	0.064001985
166	0xbdd2e2cc	-0.10297164
167	0xbbf3cde0	-0.0074403137
168	0xbd9cbc94	-0.07653156
169	0x3c294474	0.010331262
170	0x3c99a210	0.018754035
171	0x3d85546b	0.06510242
172	0x3d116640	0.035497904
173	0xbdcaae0b	-0.09896477
174	0x3d9c3b8a	0.07628544
175	0xbc6b8b73	-0.014376509
176	0x3df4e16d	0.11957059
177	0xbdb801bb	-0.08984705
178	0x3bd52529	0.006504674
179	0xbda770d4	-0.08175817
180	0x3c24f4f9	0.010068172
181	0x3d82420a	0.06360252
182	0x3d8480bc	0.06469867
183	0xbdb331df	-0.087497465
184	0x3da90df3	0.08254614
185	0xbc509920	-0.01273182
186	0xbd9571f1	-0.07297123
187	0x3e0e3574	0.13887578
188	0xbdb245c3	-0.08704712
189	0x3e0f4d4b	0.13994329
190	0x3d99caad	0.075093605
191	0x3dd7c03e	0.10534714
192	0xbde934db	-0.113870345
193	0xbdb1b87c	-0.08677766
194	0xbde6940f	-0.11258709
195	0xbd1bb9d6	-0.038019024
196	0x3e00ed27	0.12590466
197	0xbd92c090	-0.07165635
198	0xbd252986	-0.040322803
199	0xbdecf16d	-0.11569486

lstm.weight_ih_l1 f4 [200, 50]
0	0xbdcdd035	-0.10049478
1	0x3d3d73a5	0.046252865
2	0xbd894531	-0.0670265
3	0xbd38f897	-0.04515895
4	0x3d86c4d0	0.06580508
5	0xbcc04c1c	-0.023473792
6	0xbce0932f	-0.027413933
7	0xbdd2e6a8	-0.102979004
8	0x3d90d6c6	0.07072215
9	0x3dad1f4d	0.08453236
10	0x3e1c3e7a	0.15258208
11	0x3e018d74	0.12651616
12	0x3db15ed5	0.08660666
13	0xbcf51cbc	-0.029920928
14	0x3d8d4343	0.06897595
15	0xbc03dcbe	-0.0080482345
16	0xbd8f8529	-0.0700782
17	0xbd874dfb	-0.066066705
18	0x3d7686c9	0.060187135
19	0x3df8db9e	0.12151264
20	0x3bf77e2d	0.007552883
21	0x3de12c2d	0.10994754
22	0x3d5d3673	0.054007005
23	0x3bdd28f4	0.0067492668
24	0xbd8812c3	-0.066442035
25	0x3ccd7052	0.025077973
26	0xbbd35493	-0.006449291
27	0x3d0dfac2	0.03466297
28	0xbe105a29	-0.14096893
29	0x3dfa0018	0.12207049
30	0xbe055a74	-0.13022786
31	0xbd4b5b18	-0.04964742
32	0xbdafe8a2	-0.08589293
33	0xbd930eee	-0.07180582
34	0x3d91dcf3	0.07122221
35	0xbb0edf07	-0.0021800415
36	0x3ddbaaad	0.10725913
37	0xbdca448b	-0.09876355
38	0x3c84b40c	0.016199134
39	0x3e1e78bb	0.15475743
40	0x3d0c97e3	0.034324538
41	0x3dd9027c	0.10596177
42	0x3d3f93d4	0.04677184
43	0xbc5909eb	-0.0132469935
44	0xbd931057	-0.07180851
45	0x3d49d00a	0.049270667
46	0x3dc92e45	0.09823278
47	0x3defef14	0.117155224
48	0xbe14227f	-0.14466284
49	0x3d96efee	0.07369982
50	0xbd5b7065	-0.053573985
51	0xbe08bb34	-0.13352662
52	0xbe09661b	-0.13417856
53	0x3c5d67e8	0.013513543
54	0xbe06ea47	-0.13175307
55	0xbd700eb9	-0.05860779
56	0xbe0d9209	-0.13825239
57	0x3dfd833f	0.12378549
58	0x3d5e34ff	0.05424976
59	0x3cce174d	0.025157595
60	0x3dec6921	0.11543489
61	0xbdc156da	-0.09440394
62	0x3db2a506	0.08722882
63	0xbe123811	-0.142792
64	0xbddc1cdb	-0.10747691
65	0x3da6b863	0.08140638
66	0x3db4b8ff	0.08824348
67	0xbdc9bb5a	-0.098501876
68	0xbc834d94	-0.016028203
69	0xbdd44b36	-0.10365908
70	0x3ce224c4	0.027605422
71	0x3dfa1b9f	0.122122996
72	0xbd0adc44	-0.033901468
73	0xbdec8bc4	-0.11550096
74	0x3dcb6c8b	0.09932812
75	0xbe0bff5e	-0.13671634
76	0x3dfe1d12	0.124078885
77	0xbdc116c1	-0.09428168
78	0x3d9de479	0.07709593
79	0xbdb361c7	-0.08758884
80	0xbca57226	-0.020196032
81	0x3ad7c265	0.0016461132
82	0xbe153637	-0.14571463
83	0xbd08ef61	-0.033431415
84	0x3de42529	0.111399
85	0x3da7ec10	0.08199322
86	0x3d5eb49e	0.05437147
87	0xbd708c7e	-0.058727734
88	0xbd9d4ab4	-0.07680264
89	0xbe0061c3	-0.12537293
90	0x3d213c62	0.039364226
91	0x3dde43af	0.10852753
92	0xbd43b12f	-0.047776397
93	0x3d5b6db0	0.053571403
94	0x3ccc1fcb	0.024917504
95	0x3d044d6e	0.032300405
96	0xbddb1b0d	-0.10698519
97	0x3d1c1bd9	0.038112495
98	0xbde25ec0	-0.110532284
99	0x3cf689b4	0.030094959
100	0x3dc1a07d	0.09454439
101	0xbdbdd1ee	-0.092685565
102	0x3d174bc2	0.036937483
103	0xbd2cf2e6	-0.042223834
104	0xbd14756c	-0.036244795
105	0x3c9140ef	0.017731158
106	0x3cc1e157	0.02366702
107	0xbc059b6c	-0.008154731
108	0xbd858eee	-0.06521402
109	0x3d107d61	0.03527582
110	0x3ca469c0	0.020069957
111	0xbd99bcc8	-0.0750671
112	0x3ddee407	0.108833365
113	0x3dfd101f	0.123565905
114	0x3e1c29e3	0.15250354
115	0x3cdbc57a	0.026827563
116	0xbe212ecc	-0.15740508
117	0x3e0cacd9	0.13737811
118	0xbdc2acdb	-0.09505626
119	0xbcfad508	-0.03061916
120	0x3d1a2148	0.037629396
121	0xbd9f1959	-0.077685066
122	0xbde4cde7	-0.11172085
123	0x3db520f2	0.088441744
124	0x3db4c325	0.08826283
125	0x3cd179e7	0.025570823
126	0xbde4560c	-0.11149225
127	0xbdb72787	-0.08943086
128	0xbd33c77e	-0.043891422
129	0xbdf29537	-0.11844867
130	0x3dc84ec3	0.097806476
131	0xbdedb9d0	-0.116077065
132	0x3e1a83dc	0.15089363
133	0x3dec8afe	0.11549948
134	0xbe059511	-0.13045146
135	0x3ccb0954	0.024784721
136	0xbddf383c	-0.10899398
137	0xbdd5f500	-0.10447121
138	0xbd8c22cb	-0.06842574
139	0xbdd16566	-0.10224418
140	0x3de96a99	0.11397285
141	0x3e0626ed	0.13100787
142	0xbb50f5d2	-0.0031884802
143	0x3deafe06	0.114742324
144	0xbcc17551	-0.023615511
145	0xbb9b2d48	-0.0047356226
146	0x3df79d65	0.120905675
147	0x3d76f211	0.060289446
148	0xbd2406c3	-0.04004551
149	0x3c36d0ab	0.011158149
150	0x3d99238d	0.07477484
151	0xbd1c2f55	-0.038131077
152	0x3e0e01b3	0.13867836
153	0xbd97f92e	-0.07420574
154	0xbbeb9e05	-0.0071904683
155	0xbd47314e	-0.048631005
156	0xbdb54bc6	-0.08852343
157	0x3d74887d	0.059700478
158	0x3d3fc854	0.046821907
159	0xbdb4266a	-0.087963894
160	0xbe0049da	-0.12528172
161	0xbc663239	-0.01405006
162	0xbe0f02c3	-0.13965897
163	0x3dcc0b2a	0.09963067
164	0x3cd0fb00	0.025510311
165	0xbdd56fc1	-0.10421706
166	0x3d8ccb52	0.06874718
167	0x3d60b939	0.054864142
168	0x3d69be5a	0.0570663
169	0xbd659c85	-0.05605747
170	0xbc4cc607	-0.012498385
171	0x3d8f6365	0.0700138
172	0xbd4aac94	-0.04948099
173	0x3c487e10	0.012237087
174	0x3dd21b93	0.102591656
175	0xbc8c64e6	-0.017137956
176	0x3db628dd	0.08894513
177	0x3e19108d	0.1494772
178	0x3d616a95	0.055033285
179	0xbc72f3f6	-0.014828673
180	0xbc7bddbf	-0.015372693
181	0x3e0bb1d9	0.13642062
182	0xbc6d55e7	-0.014485813
183	0x3dd606c1	0.10450507
184	0x3e1a33d1	0.15058829
185	0xbd444380	-0.047915936
186	0xbc13061a	-0.008973623
187	0xbe0bcb8e	-0.13651869
188	0xbe16d85f	-0.14730977
189	0xbd6c094b	-0.05762605
190	0x3de14c9f	0.110009424
191	0xbb74b251	-0.003733773
192	0xbc2b474a	-0.010454008
193	0xbe10becf	-0.14135288
194	0x3cef673a	0.029224027
195	0x3c034a9e	0.008013396
196	0xbd7dc6f5	-0.06195732
197	0xbd1238de	-0.035698764
198	0x3d5b7354	0.053576782
199	0x3dd345b6	0.10316031
200	0xbe08f9ff	-0.13376616
201	0x3cf213b1	0.029550405
202	0xbd3fd6b5	-0.04683562
203	0xbdd6f9ad	-0.104968406
204	0x3da1b52f	0.07895886
205	0x3dee98a4	0.11650208
206	0xbd998b6a	-0.07497294
207	0x3d79e0e4	0.061005488
208	0x3daf5cec	0.08562645
209	0x3bd77b94	0.006576011
210	0x3dfb67ae	0.12275635
211	0xbdcab094	-0.09896961
212	0x3d8d0395	0.06885449
213	0x3d4528c7	0.04813459
214	0xbe026255	-0.12732823
215	0x3da8db9d	0.08245013
216	0xbd4d12e6	-0.05006685
217	0x3e1284a5	0.14308412
218	0xbd909167	-0.07058983
219	0xbd08cfe3	-0.03340138
220	0x3d9329ec	0.0718573
221	0xbe0b4cdb	-0.13603537
222	0x3d7110e3	0.058853995
223	0x3da384df	0.079843275
224	0xbcd59814	-0.026073493
225	0xbdca623b	-0.09882017
226	0xbd229e50	-0.03970176
227	0x3df9d908	0.121995986
228	0x3ccf8e49	0.025336402
229	0xbe0228d1	-0.12710883
230	0x3d9c1203	0.07620623
231	0x3b9bbff4	0.004753107
232	0xbda92122	-0.08258273
233	0xbdbe5cc5	-0.09295038
234	0x3d8e594b	0.06950625
235	0x3de2c063	0.11071851
236	0x3c8f6d2f	0.017508117
237	0x3d93565c	0.07194206
238	0x3d3258cd	0.04354172
239	0x3de0b52b	0.10972055
240	0x3d837166	0.064181134
241	0xbe06ea22	-0.13175252
242	0x3d0461af	0.03231972
243	0xbe070ea7	-0.13189183
244	0xbdefe3c2	-0.11713363
245	0xbca10b34	-0.019658662
246	0x3d94c616	0.072643444
247	0x3e091598	0.13387144
248	0xbd1b18e3	-0.03786553
249	0xbdb1d294	-0.08682743
250	0xbc5a10bf	-0.013309657
251	0x3de653a8	0.11246425
252	0xbdeeacbd	-0.11654041
253	0xbde9d287	-0.11417108
254	0xbe098a48	-0.13431656
255	0xbc20d5d6	-0.009816607

lstm.weight_hh_l1 f4 [200, 50]
0	0x3b5c19e9	0.003358478
1	0xbdbbd831	-0.091720946
2	0xbdc0da8c	-0.094166845
3	0xbd0002de	-0.031252734
4	0xbe02357c	-0.12715715
5	0x394d0a96	0.00019554267
6	0x3e133d06	0.14378747
7	0x3dc0ec68	0.09420091
8	0x3c240b0a	0.010012398
9	0xbd1a7873	-0.037712526
10	0xbe053440	-0.13008213
11	0x3d03a65b	0.03214107
12	0x3cfe1a1a	0.031018306
13	0x3db32534	0.0874733
14	0xbd123f3f	-0.035704847
15	0x3dedf622	0.11619212
16	0xbde7ae52	-0.11312546
17	0xbe12d45d	-0.14338823
18	0x3dd2a6c3	0.102857135
19	0xbddc4274	-0.107548624
20	0xbd2be614	-0.041967466
21	0x3d9e5023	0.077301286
22	0x3d361216	0.04445084
23	0x3db2b55f	0.08726
24	0x3dd3fab0	0.10350549
25	0x3e1374a3	0.14399962
26	0xbdc03aa1	-0.093861826
27	0xbc96ad8c	-0.0183933
28	0xbdb23621	-0.087017305
29	0xbdf2bb0f	-0.11852085
30	0xbd5779e7	-0.05260649
31	0xbc1d5c21	-0.009604485
32	0xbd37fbe2	-0.04491795
33	0x3de6af47	0.112639
34	0x3c8d8297	0.017274184
35	0x3d868b1b	0.06569501
36	0x3cf1374c	0.029445313
37	0x3db2e9fd	0.08736036
38	0x3d530825	0.05152144
39	0xbccaf1b9	-0.024773465
40	0x3d02c5a8	0.03192678
41	0x3d849311	0.06473363
42	0x3d6bb64f	0.05754691
43	0xbd29e973	-0.0414824
44	0xbdff4a7b	-0.12465378
45	0xbde01569	-0.10941584
46	0x3c44381f	0.011976271
47	0xbbd787a4	-0.006577449
48	0xbe1147c4	-0.14187533
49	0x3cb50869	0.022098737
50	0x3d07d32a	0.033160366
51	0xbc599176	-0.0132793095
52	0xbbc0ddd1	-0.0058858176
53	0x3dd31b4e	0.10307942
54	0xbd9eab93	-0.07747569
55	0x3d0a88a8	0.03382173
56	0xbd505a41	-0.050867323
57	0x3dc7600e	0.09735118
58	0x3d501d6c	0.05080931
59	0xbc8d1c3f	-0.017225383
60	0xbe1a10f7	-0.15045534
61	0xbdf838b4	-0.1212019
62	0x3d07f9f7	0.03319737
63	0xbd331c7e	-0.043728344
64	0x3df29013	0.11843886
65	0xbd61a5d4	-0.055089787
66	0xbdb1dcee	-0.08684717
67	0x3d192c6b	0.037395876
68	0xbc802352	-0.015641842
69	0x3d362ceb	0.04447643
70	0xbd85f5d6	-0.0654103
71	0x3e04a20c	0.12952441
72	0x3e02136a	0.12702718
73	0xbc8d1ee6	-0.017226648
74	0xbd13cc06	-0.036083244
75	0x3da491c2	0.080356136
76	0x3d3851c0	0.044999838
77	0x3c227b77	0.009917132
78	0xbd098e65	-0.033583064
79	0x3dfe0a73	0.12404337
80	0xbdda48d6	-0.106584236
81	0x3c844c57	0.016149683
82	0x3c8261dd	0.015915805
83	0xbdf93199	-0.12167663
84	0x3e1db356	0.15400442
85	0xbdef4826	-0.11683683
86	0xbd8c104f	-0.06839048
87	0xbdb56e26	-0.088589
88	0xbd472b3d	-0.04862522
89	0x3d069080	0.03285265
90	0x3d60367d	0.054739464
91	0xbd394a41	-0.04523683
92	0xbd8c2ac8	-0.068440974
93	0xbcadc06c	-0.021209918
94	0xbdd80612	-0.10548033
95	0x3c982513	0.018572366
96	0x3d792023	0.060821664
97	0xbdd3ae83	-0.1033602
98	0xbddbbdab	-0.10729536
99	0x3d6ef66d	0.05834048
100	0xbdea0cae	-0.114282
101	0xbd6e30b9	-0.058151934
102	0x3d15c054	0.03656037
103	0x3dc249f6	0.09486763
104	0x3d82aa7a	0.06380172
105	0x3ddd629d	0.108098246
106	0x3cb85838	0.022503003
107	0x3e1e838c	0.15479869
108	0x3e12fe4a	0.14354816
109	0xbd981dbd	-0.07427547
110	0x3d04dd10	0.032437384
111	0x3e18f114	0.14935714
112	0xbd158966	-0.036507986
113	0x380ae7da	3.3117693e-05
114	0xbd7f47c6	-0.062324308
115	0xbe121fc6	-0.14269933
116	0xbd871c1b	-0.065971576
117	0xbd817c0e	-0.0632249
118	0xbd95c991	-0.07313836
119	0xbdd6f985	-0.10496811
120	0xbd876bcf	-0.0661236
121	0xbdef73b1	-0.11691988
122	0x3c160353	0.009156066
123	0xbdcc96aa	-0.099896744
124	0xbd997ce6	-0.074945256
125	0xbd8b1346	-0.067907855
126	0xbdc23d9b	-0.094844066
127	0x3de421a9	0.11139233
128	0xbdd0d086	-0.10196023
129	0xbe069b4b	-0.13145177
130	0xbc81fa65	-0.015866468
131	0xbd496908	-0.04917243
132	0xbd9da3af	-0.07697236
133	0x3e081e2d	0.13292761
134	0x3ddcb24d	0.10776196
135	0xbcfbdf00	-0.030745983
136	0x3d226ae0	0.039652705
137	0xbc7c51dc	-0.015400376
138	0x3d6ea740	0.05826497
139	0x3d3bbdc6	0.04583528
140	0x3d9658b7	0.0734114
141	0xbd5e2c13	-0.05424125
142	0x3d98b68d	0.07456694
143	0xbcd94fc1	-0.026527287
144	0x3dd9b4d7	0.106301956
145	0x3c883862	0.016628448
146	0x3d8a24ff	0.06745338
147	0xbc67c5b6	-0.014146259
148	0xbd7d3b28	-0.061823994
149	0xbd19a057	-0.037506428
150	0x3df2b275	0.11850444
151	0x3d99507e	0.07486056
152	0xbcf0b71f	-0.029384194
153	0x3d31e9e0	0.04343593
154	0xbda15609	-0.07877738
155	0xbd4e1330	-0.050311267
156	0xbe165238	-0.14679801
157	0xbd1c1bdf	-0.038112517
158	0x3d8c2228	0.06842452
159	0x3d58e602	0.052953728
160	0xbd35daf5	-0.044398267
161	0xbdfcaaf4	-0.12337294
162	0x3dfb705f	0.122772925
163	0x3dc54b0d	0.096334554
164	0x3dc9be7f	0.09850787
165	0xbe170639	-0.14748468
166	0xbd4ff3b7	-0.050769534
167	0xbd4899dc	-0.048974857
168	0x3de8e823	0.113724016
169	0xbdac9124	-0.08426121
170	0xbcd59c7d	-0.026075596
171	0xbdf1ca24	-0.118061334
172	0xbdb98402	-0.090583816
173	0xbda23d82	-0.07921888
174	0xbd247d94	-0.040158823
175	0xbd9efe2c	-0.07763323
176	0x3dfe2add	0.12410519
177	0x3dc05380	0.09390926
178	0xbcdb0b31	-0.026738735
179	0xbd2812ac	-0.041033432
180	0x3c1661b7	0.0091785705
181	0x3c0c1858	0.008550726
182	0x3d089936	0.03334924
183	0xbdcc2e7c	-0.09969804
184	0xbda83b69	-0.082144566
185	0xbdeb9afc	-0.1150417
186	0xbd9d860b	-0.07691582
187	0xbe123885	-0.14279373
188	0xbdb4962f	-0.08817708
189	0xbe12f0a1	-0.14349605
190	0x3d13e7ba	0.036109664
191	0xbe110ad2	-0.14164284
192	0x3cd855d8	0.026408121
193	0xbdf35fb5	-0.11883489
194	0x3d62302e	0.05522173
195	0xbdd413c9	-0.10355336
196	0xbdb1df02	-0.086851135
197	0x3dfa2294	0.122136265
198	0xbc92772d	-0.017879093
199	0xbd792351	-0.060824696
200	0x3d74a105	0.059723873
201	0xbdcf8c71	-0.10134209
202	0xbdec68d3	-0.11543431
203	0x3dc19856	0.09452884
204	0xbd8a6932	-0.06758346
205	0x3d1077e1	0.035270575
206	0xbd174e18	-0.03693971
207	0xbd327685	-0.04357006
208	0x3e019dca	0.12657848
209	0x3c95f1d5	0.018303791
210	0x3b074fef	0.002064701
211	0x3c9bd78e	0.019023683
212	0x3c3bed4a	0.011470148
213	0xbdec7413	-0.11545577
214	0xbbdd6a18	-0.006757032
215	0xbc6b8882	-0.014375808
216	0xbd01eeec	-0.031721994
217	0xbdb4d881	-0.08830357
218	0xbcf3fc00	-0.029783249
219	0x3cf38d52	0.029730473
220	0xbdfde7be	-0.12397717
221	0x3e0a5414	0.13508636
222	0x3da42bbe	0.08016156
223	0x3d90789f	0.07054257
224	0x3c2adbd4	0.010428388
225	0xbdd091aa	-0.10184033
226	0xbdf86b86	-0.121298835
227	0x3d2dfa1f	0.042474862
228	0xbd8dbb08	-0.06920439
229	0x3ce9cb2f	0.028539268
230	0xbd21c356	-0.039492927
231	0xbb169aec	-0.0022980524
232	0xbb4969a6	-0.0030733137
233	0xbe0e64f2	-0.13905695
234	0x3d2e5128	0.042557865
235	0xbdb8a3b7	-0.09015601
236	0x3d333e92	0.043760844
237	0xbda855ee	-0.08219515
238	0xbdf116a9	-0.117719
239	0x3e05df86	0.13073549
240	0xbd63ba58	-0.055597633
241	0x3b361cec	0.0027788235
242	0x3daeac99	0.08529014
243	0xbded2458	-0.11579198
244	0xbd82ee0c	-0.0639306
245	0xbe07aa6c	-0.13248605
246	0xbccbb424	-0.024866171
247	0x3d877b1f	0.0661528
248	0xbdce293f	-0.10066461
249	0x3d9e4726	0.07728414
250	0x3dc8aa42	0.09798099
251	0x3e05c95a	0.13065091
252	0xbcf86cf5	-0.030325392
253	0xbbd90900	-0.0066233873
254	0xbcf766a4	-0.03020031
255	0xbcdb4a41	-0.026768805

lstm.bias_ih_l1 f4 [200]
0	0xbe15f404	-0.14643866
1	0xbb1bb0b1	-0.002375644
2	0x3d9211b6	0.07132284
3	0x3d89a0e8	0.067201436
4	0x3acb22a1	0.0015497991
5	0xbd7996df	-0.060934898
6	0xbde87db0	-0.11352098
7	0x3dd543db	0.10413333
8	0xbc10e77d	-0.008844254
9	0x3e01f173	0.12689762
10	0xbdc92bb8	-0.09822792
11	0xbdabd692	-0.083905354
12	0xbdb9c065	-0.090698995
13	0x3dfda130	0.1238426
14	0x3dbd2d01	0.092370994
15	0x3da99e7f	0.08282184
16	0x3c95d3fc	0.018289559
17	0x3e15876e	0.14602444
18	0xbdd77146	-0.10519652
19	0xbdcd6a5a	-0.100300506
20	0x3d0bf26f	0.03416675
21	0xbab24fa9	-0.0013604063
22	0xbdfe748f	-0.124245755
23	0x3dbdd504	0.09269145
24	0x3e1fbb0d	0.15598698
25	0x3cc2a147	0.023758544
26	0xbc6726aa	-0.014108339
27	0xbdca2369	-0.09870035
28	0x3c3aff56	0.011413416
29	0x3d030257	0.031984653
30	0x3d74e69a	0.05979023
31	0xbdda4ed7	-0.10659569
32	0x3dd29497	0.102822475
33	0x3c9e827a	0.019349325
34	0x3e019908	0.12656033
35	0xbd7f5edd	-0.062346328
36	0xbddd0596	-0.10792081
37	0x3c9a389d	0.018825823
38	0xbd46480b	-0.04840855
39	0xbd819bed	-0.063285686
40	0xbd997eeb	-0.07494911
41	0x3d136f21	0.035994653
42	0xbd3a54fe	-0.04549121
43	0xbd408aba	-0.0470073
44	0xbd20f469	-0.039295588
45	0xbd776f7b	-0.06040905
46	0xbd651da2	-0.055936463
47	0xbe09475a	-0.13406125
48	0x3d121099	0.03566036
49	0x3dd9b868	0.10630876
50	0xbdf43331	-0.119238265
51	0xbd880742	-0.06642009
52	0x3dae227d	0.08502672
53	0xbd80150d	-0.06254015
54	0x3dee9325	0.11649159
55	0x3dce1a92	0.10063662
56	0xbd210de7	-0.0393199
57	0x3dc82c20	0.09774041
58	0xbdcf32af	-0.10117089
59	0xbd69916a	-0.057023443
60	0xbd9a002e	-0.075195655
61	0xbcac0b12	-0.021001372
62	0x3d8fd7b6	0.070235655
63	0x3e0d57e7	0.13803063
64	0xbd7fcade	-0.06244933
65	0xbdf7ca45	-0.12099127
66	0x3d13696b	0.035989206
67	0x3d1f1769	0.038840685
68	0x3de95ba9	0.11394436
69	0xbdbba4d9	-0.091623016
70	0xbcd11ca3	-0.02552635
71	0x3e152b6b	0.14567344
72	0xbdb6a10f	-0.08917438
73	0x3d4cef1c	0.05003272
74	0x3cbcf2b6	0.023064952
75	0xbda0a599	-0.07844085
76	0x3d9ec17b	0.07751747
77	0x3cf333c8	0.029687777
78	0xbd046896	-0.032326303
79	0x3e02d155	0.12775166
80	0xbdc6bdcc	-0.0970417
81	0xbca69a8e	-0.02033737
82	0x3c9c31a3	0.019066637
83	0x3db0fedc	0.086423606
84	0xbd055b04	-0.032557502
85	0x3ddcecb7	0.10787337
86	0x3d8e333a	0.069433644
87	0xbdcc9b62	-0.099905744
88	0xbd47fa8c	-0.048822924
89	0x3c3c0a1e	0.0114770215
90	0xbd9f5a97	-0.077809505
91	0xbd617b1d	-0.05504905
92	0x3d91a23d	0.071110226
93	0xbdfba821	-0.122879274
94	0x3e00ce59	0.12578715
95	0x3e17cbb5	0.14823802
96	0x3dfc95c8	0.12333256
97	0xbc76470a	-0.0150315855
98	0x3df10ac0	0.117696285
99	0x3de79409	0.11307532
100	0x3d686c67	0.056744006
101	0x3df0e69d	0.11762736
102	0x3d119d9a	0.03555069
103	0x3d8dea64	0.06929472
104	0xbdb065ae	-0.08613144
105	0xbd935f42	-0.07195903
106	0xbcde08f1	-0.027103873
107	0x3d3855b2	0.0450036
108	0x3d30cec9	0.043165956
109	0xbde0c4cf	-0.10975038
110	0x3d4d33ce	0.050098233
111	0xbd5a5db8	-0.053312033
112	0x3d71cba0	0.059032083
113	0x3e07219b	0.13196413
114	0xbe032cf3	-0.12810116
115	0xbdc519b1	-0.09624041
116	0x3cba6dfa	0.022757519
117	0x3d4bf57c	0.04979466
118	0x3b871b67	0.0041231397
119	0x3dec51b6	0.115390226
120	0xbdf7619f	-0.120791666
121	0x3d3521c5	0.04422166
122	0xbd5329e9	-0.05155364
123	0x3d59847f	0.053104874
124	0x3e13f514	0.14448959
125	0x3d69855c	0.057011947
126	0xbc030222	-0.007996114
127	0x3dd39575	0.10331241
128	0x3da1100e	0.0786439
129	0x3de626dc	0.112378806
130	0xbdac701f	-0.08419823
131	0xbdb583c8	-0.08863026
132	0x3c86f6d2	0.016475115
133	0x3d42f1af	0.04759377
134	0x3d474459	0.048649166
135	0x3d55f7d3	0.052238297
136	0xbe0e417c	-0.13892168
137	0x3d0a6f46	0.033797525
138	0x3d87041a	0.06592579
139	0xbd8e7cc6	-0.069573924
140	0x3be2cc1c	0.0069213044
141	0xbdabe6dd	-0.08393643
142	0x3dd0ff1e	0.1020491
143	0xbe075b92	-0.13218525
144	0xbde7bd43	-0.11315396
145	0x3c6d2c4a	0.014475891
146	0x3ddf8f96	0.10916059
147	0xbcb74bfe	-0.022375103
148	0xbdb6993a	-0.089159444
149	0x3d40dc47	0.047085073
150	0xbd8eaf90	-0.0696708
151	0x3dab01db	0.08349963
152	0x3e212af0	0.15739036
153	0x3c8402c4	0.0161146
154	0x3dafcd20	0.08584046
155	0xbe15a50c	-0.14613742
156	0x3dc43e62	0.09582211
157	0x3de5344c	0.111916155
158	0x3d839d9f	0.06426548
159	0xbcb14558	-0.021639511
160	0xbdf6b540	-0.120462894
161	0x3e00bd01	0.125721
162	0x3dc124a5	0.094308175
163	0xbdf9c294	-0.12195316
164	0x3dde3b3e	0.10851143
165	0xbd70022f	-0.058595832
166	0x3d146fae	0.03623932
167	0xbc2d98e5	-0.010595535
168	0x3da02492	0.07819475
169	0xbdd10ca0	-0.10207486
170	0xbc99fe12	-0.018797908
171	0xbd800a83	-0.06252005
172	0x3cc02fc5	0.023460278
173	0xbd8af2cf	-0.06784593
174	0x3db3493e	0.08754204
175	0x3c91e332	0.01780853
176	0xbd95dda5	-0.07317666
177	0x3e1b4541	0.15163137
178	0xbc32186f	-0.010870083
179	0x3dfc22a4	0.12311295
180	0x3c8b6665	0.017016599
181	0xbdf82f98	-0.12118453
182	0x3e0b367f	0.13595007
183	0x3db3ed1e	0.08785461
184	0x3db3bf4e	0.08776723
185	0xbd09eab8	-0.03367111
186	0xbca382cd	-0.019959832
187	0xbd827747	-0.063704066
188	0xbe1733a3	-0.14765792
189	0x3d93a0db	0.07208415
190	0xbd4c581a	-0.049888708
191	0xbd11032e	-0.035403423
192	0x3b500da6	0.0031746416
193	0xbddd9f11	-0.10821355
194	0x3dd280be	0.10278462
195	0xbd04387c	-0.03228043
196	0x3e1087f8	0.14114368
197	0xbd6c79a0	-0.05773318
198	0x3bb64853	0.005562821
199	0x3c6dedb8	0.014522009

lstm.bias_hh_l1 f4 [200]
0	0x3bc92d8d	0.0061394633
1	0xbd4f1f54	-0.050566986
2	0xbc44c26d	-0.012009245
3	0x3d80bc36	0.062858984
4	0x3b6d3ef5	0.0036200855
5	0x3d585a2a	0.052820362
6	0xbd728661	-0.059210185
7	0xbbfe37db	-0.0077581233
8	0x3e159974	0.14609319
9	0x3cd9ba42	0.026578072
10	0xbc31acf4	-0.010844458
11	0xbd6ec2d8	-0.058291286
12	0xbd9f5f9b	-0.07781907
13	0xbc0b045b	-0.008484925
14	0xbd7e0116	-0.062012754
15	0x3e134dcc	0.14385146
16	0x3db8928f	0.09012329
17	0x3dab7488	0.08371836
18	0xbd81ce46	-0.06338172
19	0x3d3bace6	0.045819186
20	0x3e0d1fdd	0.13781686
21	0x3c8cb368	0.017175391
22	0xbdaa204d	-0.08306942
23	0xbdb26514	-0.08710685
24	0x3df6f096	0.12057607
25	0x3dc2db78	0.095145166
26	0x3e07e2fa	0.13270178
27	0x3bc11f89	0.005893652
28	0x3d18035e	0.037112586
29	0x3dd3281a	0.10310383
30	0x3dd4275c	0.1035907
31	0x3dd6dd50	0.10491431
32	0xbdd38d0c	-0.10329637
33	0x3dd7d08d	0.10537825
34	0x3dbb6414	0.09149948
35	0x3d85c9bb	0.06532618
36	0x3d2854ba	0.041096427
37	0xbc56109d	-0.013065484
38	0x3dc507d9	0.096206374
39	0x3d52f571	0.051503602
40	0xbd442bf3	-0.047893476
41	0xbd9dad6e	-0.07699095
42	0x3d4de7da	0.05026994
43	0xbdeae0ce	-0.11468659
44	0xbde30ceb	-0.11086448
45	0xbdf785f8	-0.120860994
46	0xbde958fe	-0.11393927
47	0x3c380c2d	0.011233372
48	0xbe1710fe	-0.14752576
49	0xbd88c6b8	-0.066785276
50	0x3d1926c5	0.03739049
51	0x3cf987b8	0.030460224
52	0x3d8c70c0	0.06857443
53	0xbccd11fd	-0.025032992
54	0x3d6f4a98	0.058420748
55	0x3d71f8dd	0.059075225
56	0x3da0e8ef	0.078569286
57	0xbde0b605	-0.109722175
58	0x3c89283c	0.016742818
59	0x3e081337	0.1328858
60	0xbdc9b048	-0.09848076
61	0x3d9b26e9	0.07575781
62	0x3e1ca5cc	0.15297621
63	0xbc89b59e	-0.016810235
64	0x3e0bd34d	0.13654824
65	0xbccfb303	-0.025353914
66	0x3d31205a	0.043243743
67	0xbd84fe70	-0.064938426
68	0x3c34ec45	0.011042659
69	0xbd599cb1	-0.05312795
70	0x3e032ad4	0.12809306
71	0xbdca1d39	-0.09868855
72	0x3d2b9d88	0.04189828
73	0xbd0570f0	-0.03257841
74	0x3e1fb3aa	0.1559588
75	0xbdb88395	-0.09009472
76	0x3d4bfaa8	0.04979959
77	0x3dd60941	0.10450984
78	0xbdf2ec33	-0.11861458
79	0x3db1f196	0.08688657
80	0xbd9d5449	-0.07682092
81	0x3d72dcd4	0.05929263
82	0x3d702f8d	0.058639098
83	0xbdfdc2d0	-0.12390673
84	0x3e0b344a	0.13594165
85	0x3d356610	0.044286788
86	0x3daa0cdd	0.08303235
87	0x3dcc86c3	0.09986641
88	0xbd1a249d	-0.037632573
89	0xbd847aa9	-0.06468708
90	0xbdd853a3	-0.105628274
91	0xbe0b324c	-0.13593405
92	0xbb890851	-0.0041818996
93	0xbd0ca568	-0.03433743
94	0x3d99398d	0.0748168
95	0xbd7420f0	-0.059601724
96	0x3d04174c	0.03224878
97	0x3bf1a545	0.007374438
98	0x3dc45540	0.09586573
99	0x3d62ef4c	0.055403993
100	0x3d38c237	0.045107093
101	0xbd9cca74	-0.07655802
102	0x3b1833a8	0.002322415
103	0xbe182db3	-0.14861183
104	0x3e0be1d7	0.1366037
105	0xbd7129cd	-0.058877755
106	0xbd365391	-0.04451329
107	0x3df1d66d	0.118084766
108	0x3d674ca8	0.05646959
109	0x3cedd84e	0.029033806
110	0x3d72b03c	0.0592501
111	0x3e0af612	0.13570431
112	0xbc066145	-0.008201902
113	0x3d180407	0.037113216
114	0x3db5312b	0.08847269
115	0xbd39a005	-0.045318622
116	0x3ba7a61b	0.005116237
117	0x3dedb9f3	0.116077326
118	0xbd2bbbbb	-0.04192708
119	0x3df08cc2	0.117455974
120	0xbe0a9239	-0.13532342
121	0xbd648fbd	-0.055801142
122	0x3d0b385c	0.033989295
123	0xbde0a492	-0.10968889
124	0xbd5eaa09	-0.054361377
125	0xbdce963c	-0.10087249
126	0xbd173c5c	-0.036922798
127	0x3d9738dc	0.07383892
128	0xbb03d982	-0.0020118658
129	0x3d25df66	0.040496252
130	0x3e1cc8cc	0.15310973
131	0xbc3d8f85	-0.011569862
132	0xbdf74bb5	-0.12074987
133	0x3cf4e5c7	0.029894723
134	0xbdec34e2	-0.11533524
135	0xbdc7f70f	-0.097639196
136	0xbdda9910	-0.106737256
137	0xbd971180	-0.07376385
138	0x3d3fb64d	0.046804715
139	0xbd09f4a2	-0.033680566
140	0xbda8785f	-0.08226084
141	0xbdcb1f0d	-0.09918032
142	0xbdb6b280	-0.08920765
143	0x3ca4c202	0.020112041
144	0xbde8e48f	-0.11371719
145	0x39efe07c	0.00045752886
146	0xbdebe674	-0.11518565
147	0xbcbace4c	-0.022803448
148	0x3d67bd29	0.05657688
149	0x3e1be488	0.15223897
150	0xbe018a8a	-0.12650505
151	0xbd9d4d15	-0.07680718
152	0xbcf70f8f	-0.030158786
153	0xbd43b135	-0.04777642
154	0xbd874b2b	-0.06606134
155	0x3cbb77a2	0.022884194
156	0x3d8e1600	0.0693779
157	0x3ddd454c	0.10804233
158	0x3d93d70e	0.07218753
159	0x3dfe41f7	0.124149255
160	0x3daebeb2	0.08532466
161	0x3d7d36c8	0.06181982
162	0xbda6cb7f	-0.081442825
163	0x3dea6e93	0.114468716
164	0x3d98817f	0.074465744
165	0x3a61b5cf	0.00086101604
166	0x3d5bc9a9	0.053659115
167	0x3d9c41b1	0.07629717
168	0x3d900b12	0.070333615
169	0x3e198772	0.14993075
170	0xbdb79e93	-0.089657925
171	0xbdfe32d7	-0.12412041
172	0x3ddff5f0	0.10935581
173	0x3d772e5b	0.060346942
174	0x3d9b78ac	0.07591376
175	0xbd13588b	-0.035973113
176	0x3de53b2b	0.11192926
177	0xbd85a095	-0.06524769
178	0x3db75cb1	0.08953226
179	0xbc30110b	-0.010746251
180	0x3e107a27	0.14109097
181	0xbde92997	-0.11384886
182	0xbd335b60	-0.043788314
183	0x3df477e5	0.119369306
184	0x3e1e4f83	0.15460019
185	0xbddff137	-0.1093468
186	0xbd405ec1	-0.046965364
187	0xbd19785c	-0.0374683
188	0xbe0541d6	-0.13013396
189	0x3dac495b	0.08412429
190	0xbd4fd8f1	-0.050744
191	0xbcb4cd87	-0.02207066
192	0x3d3a5b3f	0.045497175
193	0xbdefb8a2	-0.11705138
194	0xbdf8d1b4	-0.12149373
195	0x3d3a8996	0.04554137
196	0xbde69c97	-0.11260336
197	0x3d242a67	0.0400795
198	0xbdbd6d6a	-0.09249385
199	0xbdf62d62	-0.12020375

fc.weight f4 [1, 50]
0	0xbd9371f6	-0.07199471
1	0xbd462b47	-0.048381116
2	0xbe0caa91	-0.13736941
3	0xbd977927	-0.07396155
4	0x3c0a91ef	0.008457645
5	0x3d5bf613	0.05370147
6	0x3ae47946	0.0017431162
7	0x38b76aec	8.746036e-05
8	0x3caed58f	0.021342067
9	0xbdde6647	-0.108593516
10	0xbda64115	-0.08117882
11	0xbc5ad675	-0.013356795
12	0x3d97e06b	0.07415851
13	0x3dda05dd	0.106456496
14	0xbe180548	-0.14845765
15	0xbcd063e8	-0.025438264
16	0xbd6ac791	-0.057319228
17	0xbaba62fe	-0.0014220176
18	0xbd2ce115	-0.042206842
19	0x3e081bda	0.13291875
20	0xbde899e9	-0.11357481
21	0x3deb07f6	0.11476128
22	0xbd93e386	-0.07221131
23	0x3cd1c332	0.025605772
24	0x3dee1349	0.11624772
25	0xbc39c434	-0.011338282
26	0xbdf843c0	-0.12122297
27	0x3e01b15c	0.12665313
28	0xbdf635ba	-0.12021966
29	0xbd85e814	-0.06538406
30	0x3e154b3f	0.14579485
31	0xbdeba948	-0.11506897
32	0xbd3e68a0	-0.046486497
33	0xbdfa860b	-0.12232598
34	0xbdb1d052	-0.08682312
35	0x3d99b986	0.07506089
36	0xbdb346d2	-0.08753742
37	0xbd39c4c1	-0.045353655
38	0xbd624303	-0.05523969
39	0x3da316cf	0.07963335
40	0x3b1ca56e	0.0023902315
41	0x3de41b69	0.111380406
42	0xbe14e959	-0.1454214
43	0xbdfb655b	-0.122751914
44	0x3b8a08a2	0.004212455
45	0x3d68e739	0.056861136
46	0xbe17e2d7	-0.14832626
47	0xbd9e3d0a	-0.07726486
48	0xbb4c3c3c	-0.0031163832
49	0xbb8a4c4b	-0.0042205206
