models/daily_model_ADA_USDT.pth (torch, 128277 bytes, 9 tensors)

lstm.weight_ih_l0 f4 [200, 1]
00000000: b89e 623c 5588 bb3c aaf5 463d afe9 623c
00000010: def5 163d 616b ac3d e6bb 37bd 42b5 9cbd
00000020: cf9f c13d a198 e23d 58ef c33d 2551 e13c
00000030: d84f 11bd 3ef7 42bc 43d3 c2bc 5a64 cc3d
00000040: a2e7 903d 9e68 20bd 843f 9b3c 350a 3bbd
00000050: 0eea 823d 87f1 b23d 1233 00be 03e4 113e
00000060: a687 973d 35b6 0e3d 4117 883d f4d7 20bd
00000070: cba6 e43c cd5e 853d ed47 be3d ef89 d8bc
00000080: 180d debc 014f 163d 2590 b4bd c0e9 cc3d
00000090: 4b20 c93d f03a 093e 905c f33d c2b1 ba3c
000000a0: 3b34 133d bc8f 903d 1424 99bd c32d 15be
000000b0: 41f6 28bd e7ac 453d e010 af3c 266f 093e
000000c0: b322 97bd aed9 18be 771a 9c3d e618 49bc
000000d0: 82a1 28bb 4350 98bd e247 f7bc 4bdc 1d3e
000000e0: 63c0 a0b9 3639 003e 3c1b fa3d 7232 bb3d
000000f0: 48c9 0b3c 5694 453d 85b2 e73d 87fa 573d
00000100: 3161 863d 9c33 9c3d d953 873d a031 8e3c
00000110: 389f 1d3e a67b 243e 9e20 713c 6c75 3fbd
00000120: 71fe 12be edd2 f33d f148 a63d 01d7 c8bd
00000130: ce06 cabd ea0b 033e 7f9d f73d 836e c4bc
00000140: 32e0 0e3e 49c3 afbc ad00 8bbd 2903 7dbd
00000150: c2ac 8dbc 57e0 9f3d 0076 fd3d 4e9f 4bbc
00000160: c5a8 febc 1934 003e 7358 2f3d 75f9 083d
00000170: 39cb 953d 4394 d6bc 3533 e6bc e183 6a3d
00000180: 2dc2 b0bd f5f4 5bbb 0e33 a0bd 4408 a53d
00000190: a78e 123e 079d 0ebd b1fb fe3d 1c27 ce3d
000001a0: 020f a3bd c665 143d e348 a6bc eedd ca3d
000001b0: 7cf9 a83c de19 bb3c d032 423d 6e5d c33d
000001c0: 3c54 0d3c f0cc 5bbd 5723 c43b fc88 05bd
000001d0: 90e2 473c 9a33 cabd 920f a3bd f9c3 82bd
000001e0: 6243 d5bd e4b5 59bd 1ac0 a83c 0b59 dc3c
000001f0: 4144 82bc 2dc1 a7bd 2e37 db3d 8ed1 52bb
00000200: 3132 2e3d a870 363d 0448 a53d d4ce 643d
00000210: fd5d 593d 4b71 b13d 7515 033d b7e1 a73d
00000220: 13e2 ddbd e27f cdbc 5255 c23c e4e4 0d3e
00000230: 45ec 693d db5a 013e d188 50bd 1da0 7a3c
00000240: ded4 9dbc c581 d33d fb3c 0ebd dd8e 91bd
00000250: f831 5c3d e1c0 5e3d aed6 033d 4d45 873c
00000260: 6a73 00be 8946 c13d bce1 0f3e ee0d e7bd
00000270: 8f6e 61bd 2c07 dc3c 454b 01be 785b 9e3a
00000280: bc31 adba 9371 373d f8bf 043e 7ddd 563d
00000290: 71d9 efbd 3a48 3ebd 5e68 b7bd 1bcc 6fbd
000002a0: 4b5b 073e be1c d63b 4b2a b3bd f3ab 5e3d
000002b0: 03ac fcbd 1d00 3c3d 5ff1 2f3c b3d3 bbbd
000002c0: 081c 083e 696f fc3d 7cc3 07bc 2133 45bd
000002d0: 9ffe 8a3d 0afa b73b 8319 653d 5269 153e
000002e0: 53e3 c53d 5a03 ef3d be60 8cbd ccfe ec3d
000002f0: 5fec 133d 80b2 41bd 76ac 81bd e063 5c3c
00000300: 9238 0bbe 3a1d 8fbd 62f9 a6bc f7c2 bbbd
00000310: ff93 dfbd b9e3 bf3d a460 c7bd 84d9 21bd
0.013831787 0.022892157 0.048574127 0.01384966 0.03685557 0.084189184 -0.04485693 -0.0765176
0.09454309 0.11064268 0.095671356 0.027504513 -0.035476536 -0.011899767 -0.023782378 0.09980078
0.070754305 -0.03916227 0.018951185 -0.04566403 0.06392299 0.08737474 -0.12519482 0.14247136
0.0739892 0.034841735 0.0664506 -0.03926845 0.027911564 0.065122224 0.092910625 -0.02643296
-0.027105853 0.036696438 -0.08816556 0.10005522 0.098206125 0.13401389 0.11882889 0.02278984
0.035938483 0.07058665 -0.074775845 -0.14568238 -0.04125047 0.048260596 0.021370351 0.13421306
-0.07379665 -0.14926788 0.07622235 -0.012274003 -0.0025731032 -0.07437184 -0.030185644 0.15416066
-0.00030660917 0.12521824 0.12212226 0.09140481 0.008531876 0.048237167 0.11313347 0.052729156
0.065615065 0.07627031 0.066077895 0.017357647 0.15392768 0.16062793 0.014717249 -0.04674284
-0.14354874 0.11905465 0.08119381 -0.09806634 -0.09864579 0.12797514 0.12090587 -0.023978477
0.13952711 -0.021455424 -0.06787238 -0.061770592 -0.017294291 0.07806461 0.12376022 -0.012428118
-0.031086335 0.12519874 0.04280896 0.033441026 0.07314152 -0.026193744 -0.02810059 0.057254676
-0.08630786 -0.0033562754 -0.07822238 0.08058217 0.1431223 -0.03481772 0.1245035 0.10066053
-0.07961847 0.03622987 -0.020298427 0.09905611 0.020626776 0.022839483 0.04741174 0.09539305
0.00862604 -0.05366224 0.005985658 -0.03260134 0.012200013 -0.098731235 -0.07961954 -0.06385035
-0.10413243 -0.05315198 0.020599414 0.026897928 -0.015901687 -0.08191142 0.10703884 -0.0032168361
0.042528335 0.04454103 0.080703765 0.05586131 0.05306815 0.08664187 0.032002885 0.081973486
-0.10834136 -0.025085393 0.023722325 0.13856846 0.05711009 0.12632315 -0.05091173 0.015296963
-0.019266542 0.10327486 -0.034726124 -0.07107327 0.05375859 0.054383162 0.032187156 0.016512537
-0.12544027 0.09437282 0.14050955 -0.11281954 -0.055037078 0.026858889 -0.1262637 0.0012081703
-0.0013213675 0.044786047 0.12963855 0.05245732 -0.117113955 -0.0464556 -0.08955453 -0.05854426
0.13218419 0.006534188 -0.08748301 0.054363202 -0.12337496 0.045898546 0.0107387 -0.09171238
0.13291943 0.12325937 -0.008286353 -0.048144463 0.06786846 0.005614524 0.055932533 0.14590958
0.09662499 0.11670561 -0.068543896 0.11572036 0.036114093 -0.04728937 -0.063317224 0.013451546
-0.13595799 -0.069879964 -0.020382587 -0.09168046 -0.109169 0.093696065 -0.097352296 -0.03951408

lstm.weight_hh_l0 f4 [200, 50]
00000000: 48ee 053e e0a8 493c eb80 a93d 1d1e d53d
00000010: d5f5 b8bd 7525 a3bd 9494 df3d 39d0 2a3d
00000020: d1ef 05bc a87f 183e 7b16 e13d 3a9a b4bc
00000030: 85a5 223d a8f3 ca3c c621 8bbd ce3c b23c
00000040: 157a b33d d52a 603d 5881 a9bd 1f54 eebd
00000050: 66ea ebbb a029 d73c f759 113d 78ff 1abe
00000060: 1429 a23d 59fb 073e e44b 71bc 1780 d03b
00000070: ede6 3ebd 3421 efbd 1333 963d e63d ea3b
00000080: 2d6d 423d 21bd 9fbd 8f39 c1bd 2f66 ebbd
00000090: 6f7b e3bd 8579 eb3d 36a4 0abd 007a c33d
000000a0: d7f3 d7bd f0e3 85bd 9ab3 c53d 0a1f 50bd
000000b0: 241e d4bd 8368 9ebd c826 013e cce6 513d
000000c0: 4ab6 8bbd c72f b7bd a508 f0bd ff45 513b
000000d0: a0d6 b33d 0301 0e3d 0c7b b83d 62da 98bd
000000e0: 9a2d f73d 223f fcbc b2e9 713d 8567 a6bd
000000f0: e040 173e fc10 76bd cd74 d2bd 7a58 fd3d
00000100: 5b1d 94bd 8277 debd b5f7 3dbd 9222 bb3d
00000110: 92c7 b3bd 0508 943c 7db6 13be fad7 c6bc
00000120: 73a4 a8bc ac5d 653d 7266 cb3d 9a92 dfbb
00000130: ca1e e6bd 8c6b 723d 5718 39bd 8575 983d
00000140: 7b46 cf3d d2f2 183c 6b38 18be 9137 4cbd
00000150: 93fa 9dbd 638c eb3d 493a a7bd 683d cd3c
00000160: b0e8 883d ae9f 3e3d 8495 973d 0f08 803d
00000170: 76e5 8ebd 8a54 dfbd f17e babc 712c d93d
00000180: 5e34 aebc 8b71 91bd 567d d8bd d06a 5e3d
00000190: 3380 12be 51b0 a0bd 5d48 26bd a410 e0bd
000001a0: cc14 1cbd b5a4 133e eb07 e539 86c1 e33d
000001b0: 11d3 d9bd 0737 a83d 7bd8 b73d 6ec8 a5bd
000001c0: f7bc 803d 8351 bdbd bd16 cabc ed39 853d
000001d0: b5d3 543d 377d 29bd 84b0 febd 5efe 463d
000001e0: 6e4c 8bbc 934b 81bc c4f3 08be 3850 933d
000001f0: 8ad4 a23d c8f2 4bbd 6e6c 1cbd c158 6b3d
00000200: 41c4 ccbd 6a2e cebd 3cf2 d13c 162e a33d
00000210: 668a a2bd c134 b2bd 8901 ed3d 079e 95bd
00000220: 5d66 c5bd 3e14 19be b3dc d43d 019b 933c
00000230: 408b b2bd 24d7 90bd 3613 153e 6b48 1bbe
00000240: 6ec5 13be 4a58 27bd dfa6 03be b142 ce3c
00000250: c329 90bd dde5 1abd 69a3 2ebd d3f6 d1bc
00000260: b8de 05be 4584 903d 8d6a d13d cf59 d83d
00000270: 8b75 2e3d f89c 6b3d 6bb5 0b3d 92f7 ca3d
00000280: ec8c fbbd 1487 8f3d c2f5 85bd 963d 003d
00000290: 0e46 c7bd 3426 02bd 09d6 aa3d bdda 2fbd
000002a0: 39d3 483d 4509 63bc 1a4e 8a3c bc5d bfbd
000002b0: 245e 65bc 4c84 1e3d 3dda 923d 7e53 0bbd
000002c0: 6145 1d3e 9bc5 693d f54d 903c b879 a23d
000002d0: c07a 303d b854 253d 0d70 bdbd 0ffa 90bd
000002e0: 88df b63c 57f4 1cbd 23bf 85bb 54c1 0e3d
000002f0: 78c8 00be 2539 483d 2efa c63c 150f be3d
00000300: 5fb3 263d bd71 463c 15e9 11be 30d1 dbbd
00000310: a8be 6cbd 8024 84bc c2c1 353d 6f60 17bd
00000320: c38b ab3d 28d9 4abc 58ac 6dbd 91e2 01be
00000330: 4490 94bd af2e 1cbe a0d6 cbba 485e fb3d
00000340: 48f9 893d 8775 eb3d 2a7d 013d 3843 1a3e
00000350: 8850 1dbe 4078 f23d 1e17 c63d 1268 83bd
00000360: 87d2 a1ba d610 e6bc 4e43 ef3d e956 0c3e
00000370: b037 24be 7101 853d 029f 58bb 3ab0 c5bd
00000380: 1647 e13d 9ff6 fbbd b3e6 e4bd b001 ffbc
00000390: 31b5 debd 9b90 dbbd d9e1 1cbd e2e4 063c
000003a0: 800c b5bd bac9 02bd 6468 a1bc 348f 2abd
000003b0: 586b 3fbd 3ee0 61bc bf5c d6bd 094d 043e
000003c0: d68a e83d 72ba 5fbd f0da 41bd b9ec 933d
000003d0: 1424 173e f306 9fbd 1768 ddbd 3ca2 913d
000003e0: 5832 1abe bac2 a5bd b2f6 8abd a784 f43d
000003f0: 7f9d bf3d 190b f5bd 63d2 e6bd a599 dbbd
0.13079178 0.012308329 0.08276542 0.10406134 -0.09031264 -0.07966129 0.10917011 0.041702483
-0.0081748525 0.14892447 0.10990616 -0.022046197 0.039708633 0.024774387 -0.06793551 0.02175751
0.0876352 0.054728348 -0.082766235 -0.116371386 -0.0071995733 0.026264966 0.035486188 -0.15136516
0.07917991 0.13279475 -0.014727566 0.0063629257 -0.046606947 -0.11676255 0.073339604 0.007148492
0.0474674 -0.07799745 -0.094348066 -0.11494099 -0.111075275 0.114977874 -0.03384801 0.09544754
-0.10544556 -0.06537616 0.09653397 -0.05081085 -0.10357311 -0.07734778 0.1261245 0.051245496
-0.06821878 -0.0894466 -0.11720399 0.003193259 0.08781171 0.034668934 0.09007844 -0.07463528
0.12069245 -0.030791823 0.05906076 -0.081252135 0.14770842 -0.06007479 -0.10276184 0.12370391
-0.072321616 -0.10862638 -0.04637881 0.09137453 -0.087782994 0.01807023 -0.14425083 -0.024272908
-0.020586228 0.055997536 0.09931649 -0.006822896 -0.11236341 0.059184596 -0.045189228 0.0744429
0.10120865 0.009335237 -0.14865272 -0.04985768 -0.07713809 0.11501386 -0.08165414 0.025053695
0.066850066 0.046539 0.07401565 0.06251537 -0.0697736 -0.109047964 -0.022765609 0.1060418
-0.021265205 -0.07101735 -0.10570781 0.054301083 -0.14306717 -0.0784613 -0.040596355 -0.10940674
-0.03810577 0.144183 0.00043684183 0.11120896 -0.10635961 0.08213621 0.08976837 -0.080948696
0.06286042 -0.09244063 -0.024669046 0.06505189 0.051959712 -0.04137918 -0.124360114 0.048582427
-0.017004218 -0.015783107 -0.13374239 0.07193035 0.07950695 -0.04979208 -0.038189344 0.05745769
-0.0999837 -0.100674465 0.025628202 0.079677746 -0.07936554 -0.08701468 0.115725584 -0.07305532
-0.09638665 -0.14949128 0.103936575 0.018018248 -0.08717966 -0.07072285 0.1455811 -0.15164344
-0.14430782 -0.040855683 -0.12856625 0.025178285 -0.070392154 -0.03781687 -0.04263631 -0.02563039
-0.13073242 0.070564784 0.10225401 0.10564005 0.042592566 0.057522744 0.03410856 0.099105015
-0.12282738 0.07008186 -0.06541015 0.031308733 -0.09730159 -0.031774715 0.08341605 -0.042933214
0.049029563 -0.0138571905 0.016882945 -0.0934405 -0.013999496 0.038700387 0.07170532 -0.03401517
0.15358497 0.057073217 0.017615298 0.07933372 0.043085814 0.040363997 -0.092498876 -0.07078945
0.022323385 -0.038318958 -0.004081623 0.03485234 -0.12576473 0.048882622 0.024289217 0.092802204
0.040698405 0.012112078 -0.1424907 -0.10733259 -0.05779901 -0.016130686 0.044374235 -0.0369572
0.08376267 -0.012380876 -0.058025688 -0.12684084 -0.07254079 -0.15252183 -0.0015551634 0.12273842
0.06737 0.11497026 0.031613506 0.15064704 -0.15362751 0.11839342 0.09672378 -0.06416334
-0.0012346067 -0.0280842 0.11682759 0.13705029 -0.16036868 0.064944156 -0.003305376 -0.09652753
0.10999887 -0.123028986 -0.11176815 -0.031128734 -0.10874403 -0.10720941 -0.038301323 0.008233281
-0.08840275 -0.031930663 -0.019703098 -0.041640475 -0.04673323 -0.013786374 -0.10466909 0.12920012
0.11354606 -0.054621167 -0.047327936 0.07222886 0.14759856 -0.07764997 -0.10810869 0.07111022
-0.15058267 -0.08093782 -0.06785335 0.11939364 0.09356212 -0.11965007 -0.11270597 -0.10722665

lstm.bias_ih_l0 f4 [200]
00000000: 98db 703d f619 01bd aa9f 7fbd e8b8 19be
00000010: 62d0 aa3c 8286 cdbd d4b6 5f3d 4072 273d
00000020: 2e61 81bd 2e42 76bc cb04 85bd b2be 583d
00000030: ccca a23b f68d b9bc cc57 31bc 3b85 72bb
00000040: c000 9fbd 2e61 b9bd a806 7bbd 1352 ff3d
00000050: c158 bcbd db01 02bd 602b 1bbe fa3f 2fbb
00000060: 64c9 833d 92c9 bf3d beaa 283d 79aa f53c
00000070: 96e6 053e e7bb c3bd 435e 2a3d 1bc1 93bd
00000080: 4609 bbbd 24e9 d2bd 8f8f 6a3d 081c 41ba
00000090: 803c e7bd e003 b63d 7140 bcbd ed92 2b3b
000000a0: 9802 05bc dc69 67bd 89b9 c3bd a526 1cbe
000000b0: 703d 91bd 40c0 813c c8ba c73c 50ae edbc
000000c0: e7b6 40bd fa36 73bd 9b74 a53d 2556 833d
000000d0: 595b 963d a8b9 b5bd 80f0 ac3d d218 1ebd
000000e0: 46d0 973d 80d0 853d ecc1 f3bd 5201 bf3d
000000f0: 6ca9 ea3d 7ba3 df3d 4154 9abd 2091 d4bc
00000100: 35c4 a7bd a7cc 97bd f626 91bc eb45 b8bd
00000110: 00d1 20bd 61df 9c3c c2b9 003d 0e2d eb3d
00000120: a5ce 71bc dfce 1c3d 84ad e3bd ea6a 9c3d
00000130: 8174 9a3d aa49 0dbe d150 af3d 4c58 0d3c
00000140: 170f 863d 5191 f6bd 4f09 dcbd f8ad b93a
00000150: 1219 86bd 224d 3b3d 9afb 75bd cdad d9bb
00000160: 946a d43d 1d08 df3d a879 80bc b37c a23b
00000170: d6ac 253d 3fd3 e53d 31b8 a2bd d6fb 073e
00000180: e915 1a3e 02d6 073e 32cb 8abd 6a31 0bbe
00000190: aae0 973b a5f7 c23d 5651 723c 3f46 c1bd
000001a0: e54c ab3d 8d21 12be d384 f2bd 837b 413d
000001b0: cb91 a8bd 51eb 173e 95d7 f03d 8abf d8bd
000001c0: fd76 a63b 2b7a 883b 3946 cd3c 57ed 6bbd
000001d0: f23a 14bd 0f0a 133e b578 c13d 6fcb 193e
000001e0: b536 c23c 3e54 2e3d 150b d0bd 7883 c63c
000001f0: 75f6 90bd a257 863d ce56 ddbd 6dd8 f4bd
00000200: f065 9cbd 27f0 a93d 1fae 04be ecf3 0fbe
00000210: a7f2 f3bd c061 f2bd 3652 d5bc e5c1 0a3e
00000220: e370 8c3d cb98 a03d 19ae 153c 6e4b 13bd
00000230: 9613 103e 7a39 c53d 1022 d6bd e42b 923d
00000240: 0aec b23d 022e 2a3d 0fce 543c b275 bbbd
00000250: 2a74 08bd 9541 b8bd 688b fabd 4f73 d4bd
00000260: a85d bfbd 2505 bc3d 9ef5 8ebd 41ab b7bd
00000270: 659d c3bd d23f b23d ae5a 243d 97f1 dd3d
00000280: d837 b4bc 3497 b7bc dbac 55bb 1e29 003d
00000290: 0d50 433d 2826 82bd 0f68 1b3e a777 eb3d
000002a0: 8cd2 163e 81b2 1b3e 953f ee3d 48c8 173e
000002b0: 500c efbd d805 953c a228 6abd 661d c43d
000002c0: 38e8 813d 690b 063d e654 e83d 20de 88bd
000002d0: 44a3 803d e2c6 67bd f0dc ecbd 1bbd 9cbc
000002e0: bcd7 b43c 73f7 bebd 9ac6 843d 0cdc f7bd
000002f0: 22c1 76bc 462d e5bc 3f06 513c 259f 903d
00000300: 1ce3 f53d f039 16be 6436 06be 39b6 d0bc
00000310: 6c3c 543d f11c dd3d 915a 27bd 7233 013c
0.05880317 -0.0315189 -0.062408127 -0.15011942 0.020851318 -0.10035421 0.054617718 0.04088044
-0.06317364 -0.015030427 -0.06495055 0.052916236 0.004968023 -0.0226507 -0.010824155 -0.003700568
-0.07763815 -0.09051739 -0.061285645 0.12466826 -0.09196616 -0.03174005 -0.15153265 -0.0026741014
0.064348966 0.09364618 0.041178457 0.029988514 0.13076243 -0.09557324 0.0415938 -0.07214566
-0.09132628 -0.10298374 0.057265814 -0.00073665427 -0.11290836 0.08887458 -0.09191979 0.0026180104
-0.008118294 -0.05649744 -0.095568724 -0.15249117 -0.070917964 0.015838742 0.024381056 -0.029013783
-0.04704943 -0.0593786 0.08078881 0.06412915 0.07341642 -0.08873302 0.08444309 -0.03859789
0.07412772 0.06533909 -0.11902222 0.09326424 0.11458096 0.10919853 -0.075356014 -0.025948107
-0.081917204 -0.07412081 -0.017718773 -0.08997711 -0.039261818 0.019149484 0.031427152 0.11483203
-0.014758741 0.038283225 -0.1111708 0.0763758 0.075417526 -0.13797632 0.085603364 0.008627009
0.06545847 -0.12039436 -0.10743963 0.0014166227 -0.065477505 0.045727856 -0.0600544 -0.006643033
0.10371891 0.10890219 -0.01568301 0.004958713 0.040448032 0.112219326 -0.07945288 0.13279662
0.1504742 0.13265231 -0.06777038 -0.13593069 0.0046349363 0.09519891 0.0147899 -0.094372265
0.08364276 -0.14270611 -0.118417405 0.04723693 -0.08230933 0.1483586 0.11759869 -0.10583408
0.0050801025 0.004164954 0.025057899 -0.05759939 -0.036189027 0.14359306 0.09446851 0.1501901
0.023707727 0.04256081 -0.10158364 0.024232611 -0.07078258 0.065596834 -0.10807572 -0.119553424
-0.076366305 0.082977585 -0.12957047 -0.14057893 -0.11911517 -0.118350506 -0.026040178 0.13550527
0.06857469 0.07841643 0.009135746 -0.035960607 0.14069971 0.096301034 -0.10455716 0.07137278
0.08736427 0.041547783 0.012988581 -0.09153308 -0.033313908 -0.08996884 -0.12233621 -0.10373556
-0.093440354 0.09180669 -0.069804415 -0.08968211 -0.09551505 0.08703579 0.04012554 0.10837095
-0.021999285 -0.022410966 -0.003260425 0.031289212 0.047683764 -0.06354934 0.15176414 0.11497431
0.14728755 0.15204813 0.11633221 0.14822495 -0.1167227 0.018191263 -0.057167657 0.0957592
0.0634312 0.032725725 0.11344318 -0.06682992 0.062811404 -0.056586154 -0.11565578 -0.019133141
0.022075526 -0.09324541 0.06483193 -0.121025175 -0.015060695 -0.02797569 0.012757837 0.070616044
0.12006208 -0.14670539 -0.13106686 -0.025477516 0.051815435 0.10796536 -0.040857855 0.007885801

lstm.bias_hh_l0 f4 [200]
00000000: e746 573d 39f9 f73a 9932 13bd ad13 813d
00000010: d3d9 c33d 4365 c63c 2ee4 d3bd f753 92bd
00000020: c99c 28bd cf43 b53c 56ed 40bd 68d0 1e3d
00000030: fb25 9a3d 83dc 70bd 2f1d 01be e60b 9e3b
00000040: 3168 f63c 8d18 65bd 367a 063e 493e d7bd
00000050: 9cc8 a5bd 9af0 e5bc 2f90 e2bd 4555 16bd
00000060: c66f ed3b da7d b03d 311b 703d cf6d 6b3d
00000070: 29ee 1f3e 6857 3abd 2c98 3cbd 9697 f0bc
00000080: 7e5f 1abd 87d0 90bd 53b8 6a3d 665a 173e
00000090: 7ddb f33c c752 0d3e 474e 803b 0b7c e7bd
000000a0: 7a9d f13d 6355 fa3c 4f0d 26bc da0c b3bd
000000b0: b900 d73d 9228 0b3e e11d 1b3e 5d6c 47bd
000000c0: f8e6 aa3d fad1 1abe 3887 d43c c0bb c23d
000000d0: a2e1 cf3d ec70 a9bd 620c 60bd a054 113e
000000e0: 4904 b63d 22bc dabd 46dc b7b9 b9fd f43d
000000f0: 844a ae3d fb11 de3b 60e0 d23d f2a4 afbc
00000100: 7334 6e3d c89e e4bd d0fe 093e ee46 563c
00000110: ac14 6f3d 4ef2 44bc f627 01be 41d8 be3d
00000120: 7327 9e3d a7a0 46bc a49c 413d f6fc a63c
00000130: d997 babd 021a 72bc 098e be3c 1297 fdbd
00000140: 8ebb 0a3d ca80 743d e530 a6bd f31d 00bd
00000150: eb4f a43d a25d e33d d625 acbd afd3 c03d
00000160: 4434 95bc 0663 d83d de29 eabd 4cc6 49bd
00000170: e77d 463d aa0c debd 6384 bc3c 4787 a83d
00000180: 4206 ed3d 1c13 2abc de16 d13d 0b87 b03d
00000190: cdaa 883d a232 503d 28d4 46bd 7958 81bd
000001a0: 8065 163e 2592 1abe 86be b6bc 9feb eabd
000001b0: e7da c3bd af3a 453d ebf2 08bd 546a cc3d
000001c0: 902c c1bd d3f4 f93d 900e 80bd 1d11 073e
000001d0: 4186 153e e3ff 513d 593e e2bd 9c06 043e
000001e0: 489a 113d f742 cabc 1019 903d bf89 88bd
000001f0: 2847 dd3c 78a4 d73d 6f30 b4bd c29d 5d3d
00000200: b034 f13d 36db ab3d 6c92 74ba 8c6c eabd
00000210: e89c 97bc 3466 bebd 26b2 d2bd f236 a8bd
00000220: 71a0 163d f873 eb3d c8e1 0abe fc3c 143e
00000230: 949a 153e 461f ec3d b07c f7bd ed36 3a3d
00000240: 6446 9e3d 00a6 063e c6e7 e23d b448 07be
00000250: 138b a7bd a1c6 b7bd ba17 fcbd 54fc 7abc
00000260: 12bd 93bd 90a3 5e3c 4e72 e73d 1f4f 83bc
00000270: 4a66 fcbd b715 403c 3d63 ed3d 69e9 da3d
00000280: e17f f3bd 478d 9d3c 8b83 d4bd f256 abbb
00000290: 50f4 9a3c 95f5 ee3d 760a 663d 969b f1bd
000002a0: dcdb 03bd f9f7 153d 1fb0 013e 037e 013e
000002b0: cef9 edbd 6816 dcbd 9e49 153d 9990 95bc
000002c0: a128 fabd 98f3 8ebd 5eea d1bd 8122 5cbd
000002d0: 19ce fb3b 9d0e ffbd 01ba bcba bf46 bdbd
000002e0: dc6e 0a3c f8bf cabd 4d13 abbd 6765 efbb
000002f0: 8d3d d63d 5ed0 b8bd bbaa 2c3b df1c 973d
00000300: 7adf cf3d 238d 633d 0819 febd 0b97 b13a
00000310: 8f92 dbbd 8fa6 ad3d 46a9 68bd a6cf a03d
0.052557852 0.0018918879 -0.035936926 0.06302581 0.09563031 0.024218207 -0.10346256 -0.07144921
-0.041165147 0.02212706 -0.04710134 0.03877297 0.075267754 -0.058804046 -0.12608789 0.0048231957
0.03007898 -0.055931617 0.13132557 -0.10509927 -0.08094904 -0.02806883 -0.11062657 -0.036702413
0.0072459904 0.08617754 0.05861968 0.05747777 0.15618195 -0.045493513 -0.04604356 -0.029369157
-0.037688725 -0.070710234 0.05730469 0.14780578 0.029767746 0.13801108 0.0039155814 -0.11302956
0.117976144 0.030558294 -0.010135009 -0.087426856 0.10498185 0.13589695 0.15148117 -0.048687328
0.08344835 -0.15119162 0.025943384 0.09508467 0.10150458 -0.08273491 -0.05469931 0.14192438
0.08887536 -0.10680415 -0.00035068596 0.11962456 0.085103065 0.006777046 0.102967024 -0.021440957
0.05815549 -0.111630976 0.1347611 0.013078434 0.058369324 -0.012020661 -0.126129 0.09318591
0.07722368 -0.012123263 0.047268525 0.020384293 -0.09110994 -0.014776709 0.023261087 -0.1238233
0.033870272 0.059693135 -0.08114795 -0.03127856 0.08023056 0.111018434 -0.08405654 0.094153754
-0.018213399 0.10565762 -0.11433767 -0.049261376 0.048459914 -0.10842259 0.023012346 0.08228927
0.11573459 -0.010380533 0.1020944 0.086195074 0.06673203 0.050829537 -0.04854217 -0.06315703
0.14687157 -0.15094812 -0.022307646 -0.114707224 -0.09563237 0.04815167 -0.03343479 0.09981218
-0.09432328 0.122049 -0.062527776 0.13190122 0.14601995 0.051269423 -0.11047048 0.12893146
0.035547525 -0.024690134 0.0703603 -0.06666898 0.027011469 0.10529417 -0.087983005 0.054105528
0.117776275 0.083914205 -0.000932968 -0.11446485 -0.018507436 -0.092968374 -0.10287885 -0.08213605
0.036774103 0.11496729 -0.13562691 0.14476389 0.14609748 0.115294024 -0.12084329 0.045462538
0.0772827 0.13149261 0.110793635 -0.13211328 -0.08180823 -0.08973432 -0.12309213 -0.015318949
-0.07213797 0.013588801 0.11301099 -0.016028939 -0.123241976 0.011723927 0.11591194 0.10689051
-0.11889625 0.019232405 -0.10376652 -0.0052288705 0.018915325 0.11667935 0.05616232 -0.11797254
-0.032192096 0.03661344 0.12664841 0.12645726 -0.11619912 -0.10746461 0.03644716 -0.018257426
-0.122147806 -0.069800556 -0.1024978 -0.053743843 0.007684481 -0.12453959 -0.0014398695 -0.09242009
0.0084492825 -0.098998964 -0.08353291 -0.0073057893 0.10460959 -0.09024118 0.002634688 0.073785536
0.10150047 0.05555452 -0.12407118 0.0013549043 -0.10721313 0.08479034 -0.056802057 0.07852106

lstm.weight_ih_l1 f4 [200, 50]
00000000: 75ec cdbc 91df fb3c bc41 183d e6e4 dd3d
00000010: 5a73 183e be50 54bd ca74 803d 8955 01be
00000020: af07 07be 0be9 b2bd 7e9b f8bd 4c1e 903d
00000030: e4d5 e6bd 69a3 753d 1f42 93bd d87f bebd
00000040: 00fb 49bd 626a 9cbd c7bb 3d3d 866a b63d
00000050: c06d 753c 25f6 58bd 42d8 e53b 8e30 b73d
00000060: 9b51 06bd 4acc 88bd 866a ea3d 398d 00be
00000070: b6ab 033e 4474 6e3c 52c6 44bd 62d3 a7bc
00000080: e9ec d13c a539 6c3b e8b2 89bd ab72 0f3d
00000090: 2ddd d23b f740 793d 03ea e43d 18bd f0bc
000000a0: f532 94bd 0c11 56bd da14 bb3d d9e7 203e
000000b0: 0a2e eb3d 2cf1 87bd 8bff 0fbc 2bd9 dbbc
000000c0: 0a13 33bd f340 cd3d 1b25 0c3e 7074 4bbd
000000d0: 386f 0abd 5144 aabc 447b 203e 0d3a c63d
000000e0: 628c 343d da69 d83d 9163 5bbd 3001 993d
000000f0: 8cd5 abbd f540 523d 072c 5cbb 44d9 30bc
00000100: 7577 b9bd 133c 58bc ac74 bcbc cd9b 933d
00000110: 177f cd3d 2341 a93d e690 4a3c 3207 ba3d
00000120: f04d 703d d8a1 9f3d c506 91bd 5041 9e3d
00000130: 0f8c fe3d 722b efbc 3abe e63d 542c 7cbd
00000140: 7e43 78bd 535e ac3d b408 e23b 973c 0d3d
00000150: 9595 cd3d c466 f43d fe86 a03d f225 cebd
00000160: 3a71 0dbe 7325 063e 0c60 b03d 1d01 ebbd
00000170: 2903 21be b5be c63c 0503 6fbd 9025 52bc
00000180: bf0c 33bd ab05 153d 9012 9a3d 919d b93c
00000190: 66b5 02bb 01fe 84bd c243 b1bd 8e49 673c
000001a0: 1c2f 0d3e 7445 96bc 88b1 e33b 0880 c7bc
000001b0: 381c 3fbd 6b85 c1bd c1bc 4cbd edcd 113d
000001c0: e4f2 e6bd 43ff 67bd 3449 9cbd f4c7 ddbd
000001d0: 65c8 03bd 7aaf f6bd a5a6 e2bc f8be 04bd
000001e0: 146e f83d 833f bb3d b84b 2ebc afa2 9d3b
000001f0: 92b0 0e3d bce9 e7bd 8ca4 193d 0181 f93d
00000200: 0a96 0f3d b316 51bd b547 d63c ab6b 16be
00000210: 6085 d2bd d8aa be3d 9d78 73bd 9184 67bd
00000220: 1d15 80bd 9a54 febd 2e88 b93d 8291 a6bd
00000230: 74db c7bd 985e a33d e131 3dbd 06c3 b73c
00000240: d1e7 003e 069e 82bd 7dde 26bd 6b33 06be
00000250: 1d12 ad3d 7390 7abd 4a29 413d b242 f33c
00000260: ef10 8bbc c38c 023e 8117 173d 328b 96bd
00000270: e2d1 9d3d 4401 3d3d 75f3 013c 7083 403c
00000280: 3e8d 70bd b7cd 5abd b33d 2d3d 43e9 903d
00000290: c845 0f3e dcbe d93d 661b de3d eecc fc3d
000002a0: c160 dabd b5aa 973c 6d52 0b3e 611d d13d
000002b0: e67d c6bc ea4f debd c4b2 47bd 7c9a 8d3d
000002c0: 604b eabd 31e3 c1bd 8eed d23d acd0 cd3d
000002d0: 9c6f edbd 2e62 f53d effa 073e da33 e7bc
000002e0: e08f e43d 9143 fb3d d391 46bd b921 d23b
000002f0: f3fa c9bd 5b80 c23b 9ad8 0dbe decf cf3d
00000300: 2eb7 ab3d 1908 ccba 575c 74bd 8666 053d
00000310: 8491 5fbc c656 d8bd c23a 11bd 9be4 da3d
00000320: b49a df3d 737f ce3d 23e2 19be 5649 9a3c
00000330: 683c 293d fe73 09bd 06a3 ba3d 7471 7ebc
00000340: aada 8dbc 0120 e73d 2112 a4bd a6a5 8e3d
00000350: 755b 173e 22de bbbc 9193 41bd 767e ecbd
00000360: 37d4 c2bd 39d3 dbbd c597 e4bd bc9a c6bd
00000370: d4b8 0f3e f9b6 93bd 7ed3 a53d 2e8b e63c
00000380: f0c5 5a3c 97fb a8bd 7faa bb3d c9f6 8abd
00000390: e31c 44bc 6838 e1ba ab9d c63d 31e0 98bc
000003a0: d3e9 d2bb 190b 703d a00d a1bd 5b09 4abc
000003b0: 7651 fcbd 30ea 01be 108a ebb9 da11 f5bd
000003c0: 2bde 08be db2a d0bd ed7e 0c3d b83b 26bd
000003d0: 49e6 bebc 733d c03b 5801 023d af75 cc3a
000003e0: 88fa 283d 8524 07bd f5ec a0bc 0a79 fe3d
000003f0: e208 e23d bb69 df3d be19 fd3d bb6d f5bd
-0.025137166 0.030746253 0.037172064 0.108346745 0.14887753 -0.051834814 0.06272276 -0.12630285
-0.13186525 -0.08735856 -0.12139033 0.07037029 -0.11271265 0.059970293 -0.07190346 -0.09301728
-0.049311638 -0.076374784 0.046321657 0.089070365 0.01497978 -0.052969117 0.0070143053 0.08944808
-0.03279267 -0.0667959 0.11446099 -0.12553872 0.12858471 0.014554087 -0.048040695 -0.020486537
0.025625663 0.00360451 -0.06723577 0.035021465 0.0064350576 0.06085297 0.11177447 -0.029387042
-0.07236282 -0.05226235 0.091348365 0.15713443 0.11483391 -0.06637797 -0.008788954 -0.026836952
-0.04371933 0.10022154 0.1368603 -0.04967159 -0.033797473 -0.020784529 0.15672022 0.09679041
0.044079192 0.105670646 -0.05356175 0.074709296 -0.0839034 0.05133148 -0.0033595578 -0.010793988
-0.09055988 -0.013197917 -0.023004852 0.07207451 0.10034006 0.08264377 0.012363648 0.09083404
0.058668077 0.07794541 -0.07081369 0.07727301 0.12429058 -0.029195521 0.112667516 -0.061565712
-0.06061124 0.084164284 0.00689801 0.03448161 0.10038296 0.119336635 0.07838248 -0.10065831
-0.13812724 0.13100223 0.086120695 -0.11474822 -0.15723862 0.024260858 -0.05835249 -0.012826338
-0.043713327 0.03638236 0.07523072 0.022658141 -0.0019944548 -0.0649376 -0.08655502 0.014116658
0.13787502 -0.018343665 0.0069486536 -0.024353042 -0.04665777 -0.094492756 -0.049984697 0.035596777
-0.112767965 -0.05663992 -0.0763115 -0.10829154 -0.032173533 -0.12045188 -0.027667353 -0.032408684
0.12130371 0.09142973 -0.01063817 0.004810653 0.03483636 -0.11323878 0.03751044 0.12182809
0.035055198 -0.05104704 0.02615724 -0.1468951 -0.102793455 0.093099296 -0.059441198 -0.05652291
-0.06254027 -0.1241848 0.09059177 -0.08133222 -0.09758654 0.07977027 -0.046190146 0.022431862
0.12588431 -0.06377797 -0.040739525 -0.13105552 0.084507205 -0.061172914 0.047158517 0.029694889
-0.016975848 0.12749009 0.03688765 -0.07350768 0.077060476 0.046143785 0.00793158 0.011750087
-0.05872845 -0.05341884 0.04229517 0.07075741 0.13991463 0.10632107 0.108450696 0.12343775
-0.106629856 0.018514017 0.13605662 0.10210682 -0.024229955 -0.10855086 -0.04875447 0.06914231
-0.11440158 -0.094671614 0.10299216 0.100495666 -0.115935534 0.11981617 0.13279317 -0.028222967
0.111602545 0.12268747 -0.048478913 0.0064127115 -0.09862318 0.0059357113 -0.13852158 0.101470694
0.08384548 -0.0015566378 -0.059658375 0.032568477 -0.0136455335 -0.10563426 -0.035456426 0.10688134
0.10918179 0.10082903 -0.1502767 0.018833797 0.041317374 -0.033557884 0.091131255 -0.015529979
-0.017316181 0.11285401 -0.0801127 0.06965189 0.14780982 -0.02293307 -0.04725987 -0.11547558
-0.09513133 -0.10733647 -0.1116176 -0.09697482 0.1403535 -0.07212634 0.080969796 0.028142538
0.013352856 -0.08251112 0.09163379 -0.06785352 -0.011969778 -0.0017182948 0.096980415 -0.01866159
-0.0064365654 0.058604334 -0.07863927 -0.012331332 -0.12320225 -0.12686992 -0.00044925557 -0.119662955
-0.13366 -0.10164424 0.034300733 -0.040584296 -0.023303168 0.0058667003 0.031739563 0.0015599037
0.04125455 -0.032993812 -0.01964424 0.1242543 0.110368505 0.10908838 0.123584256 -0.1198382

lstm.weight_hh_l1 f4 [200, 50]
00000000: 53fc 123d fb22 a53d 36a3 d23d 6cda af3d
00000010: 8a7a 46bc 719d b53d 7b47 f93b 4f5e 393d
00000020: a94d b83d 8b1a 64bd db00 8fbd eda6 413d
00000030: 2aba 3bbd af2d 063e 1ed9 d0bd 4d6f 313c
00000040: d743 52bd cb08 ad3d 8f2a 2bbd 7e02 d8bd
00000050: b8d3 42bd 8383 0cbe 89e1 d3bd d1b5 253d
00000060: 5e1e 573c 22e4 bb3d 9ff0 4a3d 9ffb 3d3d
00000070: 6f8d c53c 23fd 0abe c18e 8d3d fbf6 eabd
00000080: 5d02 1bbe 56a5 f83d 5989 c3bd 39e8 fe3d
00000090: 54b0 0dbe b5d0 de3c 01cd b03d ba97 ae3d
000000a0: 28fe 83bb 4413 dc3d 4a22 0b3e e420 18be
000000b0: 157a 073e e116 e5bd cc27 eabd 0887 01bd
000000c0: a2d2 db3d 8457 f9bd c27b 19be 4477 b93d
000000d0: 6b06 163d 6352 a03d 2d83 c93d b35b 233d
000000e0: 167b 023e 9a3b 8ebd 71d9 b8bd 10d1 603d
000000f0: b392 a3bb 82bb 3fbd 49e3 5b3c 4448 e3bd
00000100: 2056 22be a8e1 853c 7560 a3bd 90e9 d8bd
00000110: 7924 1a3e bcf1 45bd 54f9 e5bd fa09 00be
00000120: b9e9 c5bd 67ee 07be b675 7dbc b275 b4bd
00000130: 1cda d83d 07b1 e8bd 0c0c ba3c 03f3 85bd
00000140: a77f 993d 08ec 8abd a4f8 aabd b83f 803c
00000150: e864 a73d b380 153e 2f3e d0bc f4b1 383d
00000160: 7005 db3d dd99 1e3d fc33 45bc 3738 a43d
00000170: a289 e03d eeaa 5b3d 2141 093d 9181 89bd
00000180: b4d3 03bd 36be 80bd de47 02be f804 f1bc
00000190: b538 173d 7c26 853d 4ad4 ac3c 48db 1b3a
000001a0: 8a23 c2bc 24be a3bd 37d1 c73d 5de1 fabd
000001b0: dde5 00bd a948 003e a6b5 ae3d 777a b0bc
000001c0: d02a d2bd 9d21 ed3d 8ab2 e6bd 9ce3 e8bc
000001d0: 8a24 f13d fc83 f7bb 368e 0c3e 2684 37bd
000001e0: f23b 973d bca4 773d 1abe f43d 5cfb f4bd
000001f0: 5584 61bc 4f87 a1bd bef4 7f3d 3c3b a8bd
00000200: 22d5 cebd b846 d1bd 485a c8bc 309a e53c
00000210: 728e 9abc aca8 0dbd 2293 9bbc 3e80 f9bd
00000220: c769 e23d c01d ac3d e03c a73d e2dd a83d
00000230: 3942 15be 996e 083e 5150 903d ff32 e3bd
00000240: ed0f 83bd 7ebc 2f3d d735 93bd 3c51 cabd
00000250: 89e3 c4bd a370 19be 1aba 57bd 6845 35bc
00000260: 1574 f83d 7bba a53a c36b 583c 920b c3bd
00000270: 2fcb 843d e41e 403c aa57 2f3d 4244 443c
00000280: 535c 813d b940 6f3c bda4 13be 1e06 e1bd
00000290: ee11 ac3d 6164 e53d 2b6b 92bd 3b06 c73d
000002a0: b894 633a 4e33 0bbe 6fdc 863d f9cf 33bd
000002b0: 6609 df3d 5a20 10bd 9660 9ebd bcb1 b9bd
000002c0: 922d d9bc 8488 eebd 055f bcbd d037 f8bc
000002d0: eb76 a9bd 243d 613c 43dc ec3d c92c 3d3d
000002e0: 113b a73d 5d3d b13d 9fd4 b1bd 9937 60bc
000002f0: ebb6 8d3d 2e04 923c 63c2 a6bd 4985 d13d
00000300: b28a fb3d d37a 4bbc d6c2 c5bd 13d9 bf3c
00000310: 25ce 073e 82b5 90bc 683c cfbd 0094 a4bd
00000320: 73ba 093d 8f39 adbd 29b4 123c bb6d e83c
00000330: 1286 eb3d f060 743d b40d a3bd 859d 523d
00000340: 9582 633d 2373 d2bd 137d 8fbc ecd0 23bd
00000350: d874 10bd a980 2bbd 0cfd a9bd 1f18 95bd
00000360: 2df2 5cbd 0231 68bd b0fe 663d bffe f33c
00000370: 1f08 ffbd 9f1b 9d3d e7cb 9a3d b8e2 a5bd
00000380: 1895 b7bd 3456 ef3d 54f6 a6bc 2134 0cbe
00000390: 3529 cabd 9f03 2bbd 9278 d7bc 52e4 e6bd
000003a0: cdbb 9bbd 8938 a6bd 92dd 77bc 5d99 dfbd
000003b0: fbbc f4bc 2ade 893b 8a0b fdbd 1080 cabd
000003c0: bd38 203c 5420 aebd 36c5 94bd 6345 113e
000003d0: 87d4 fd3d 156e 0f3b 1817 1d3d 9b65 533c
000003e0: f8c1 c2bc 69e5 003e b360 a1bd 7549 ba3d
000003f0: dbdc 663d c717 773b 9f3c 08be ba99 aabb
0.035885166 0.080633126 0.10285036 0.085865825 -0.0121141765 0.0886792 0.007607398 0.045255955
0.089991875 -0.055689376 -0.06982585 0.047278333 -0.045831837 0.13103364 -0.10197662 0.010829759
-0.05133423 0.08448943 -0.041788634 -0.1054735 -0.047565192 -0.13722043 -0.10345752 0.040456597
0.013129799 0.09174372 0.04954588 0.046382543 0.024115292 -0.13573126 0.06911994 -0.11472889
-0.1513762 0.1214091 -0.09547681 0.12446637 -0.13836795 0.027199129 0.086328514 0.08525033
-0.0040281005 0.10745862 0.13587299 -0.14856297 0.13230164 -0.111860044 -0.11433372 -0.031622916
0.107335344 -0.121748954 -0.14988616 0.09055951 0.036627214 0.07828214 0.09839473 0.039882373
0.12742266 -0.06944962 -0.09025849 0.054886878 -0.004991853 -0.04680968 0.013420888 -0.11097768
-0.15853167 0.016342953 -0.07977382 -0.105914235 0.15052976 -0.04832624 -0.11229196 -0.12503806
-0.0966372 -0.13274537 -0.015469959 -0.08811511 0.10588476 -0.1136189 0.022710823 -0.065404914
0.07495051 -0.06783301 -0.08348206 0.015655383 0.08173543 0.14599876 -0.025420276 0.045091584
0.106943965 0.038720954 -0.01203632 0.08018535 0.109637514 0.053629808 0.033509377 -0.06714166
-0.032184318 -0.0628628 -0.12722728 -0.029421315 0.036919314 0.06501481 0.021097321 0.0005945456
-0.023698587 -0.07995251 0.097567014 -0.12250016 -0.031469215 0.12527718 0.085307404 -0.02154277
-0.10262072 0.11578677 -0.112645224 -0.028428845 0.117745474 -0.0075535756 0.13726124 -0.04480376
0.073844805 0.060459837 0.119503215 -0.119620055 -0.013764461 -0.07887136 0.062489264 -0.08214423
-0.100992456 -0.10218567 -0.024457112 0.028027624 -0.018866751 -0.034584686 -0.018991057 -0.121826634
0.11055332 0.08404112 0.08165908 0.08245446 -0.14576043 0.1332344 0.07046569 -0.11093711
-0.06399522 0.04290437 -0.071880035 -0.098787755 -0.096137114 -0.14984374 -0.052667715 -0.011063911
0.12131516 0.0012644076 0.013209286 -0.09523691 0.06484067 0.011726115 0.042808212 0.011979165
0.063164376 0.014602833 -0.14418311 -0.10987495 0.08401857 0.112007864 -0.07149347 0.09717985
0.00086815236 -0.1359379 0.06585013 -0.04389951 0.108904645 -0.035187103 -0.07733266 -0.09067103
-0.026510987 -0.11647132 -0.09197811 -0.030300051 -0.08274635 0.013747487 0.11565449 0.04618529
0.08165563 0.08654282 -0.086831324 -0.0136851305 0.069196545 0.017824259 -0.08142545 0.102305
0.122823134 -0.01241942 -0.09656303 0.023418939 0.13262232 -0.017664675 -0.101189435 -0.08036041
0.033625077 -0.08458244 0.008954086 0.028372636 0.11500181 0.05966276 -0.07961598 0.051419754
0.055544455 -0.10275867 -0.017515695 -0.039994165 -0.03526768 -0.041870747 -0.08300218 -0.07279991
-0.053941894 -0.056687362 0.056395233 0.029784558 -0.12452721 0.07671284 0.075584225 -0.08099884
-0.08963984 0.11686364 -0.02038113 -0.1369176 -0.09871141 -0.0417515 -0.02630261 -0.112740174
-0.076041795 -0.08116252 -0.01512851 -0.109179236 -0.02987527 0.004207392 -0.123557165 -0.09887707
0.009779152 -0.0850226 -0.072641775 0.14186625 0.12394052 0.0021885682 0.038352102 0.012902643
-0.023774132 0.12587513 -0.07879772 0.09096042 0.056362968 0.0037703381 -0.13304375 -0.005206314

lstm.bias_ih_l1 f4 [200]
00000000: 7c39 0a3e b53e 9e3b 9623 063e 0e9f 083d
00000010: 4414 1dbe b9a7 c83d 41d9 83bc 69e3 e83c
00000020: d657 babd 90b4 cabd 58a4 a03d 583d b83d
00000030: 4ac3 f5bd 372a cbbb 2bda f8bd d8f3 fb3d
00000040: f5d6 e1bb 48a0 b43d 4f47 ecbd 041e 55bd
00000050: 8526 fd3d 0760 a6bd 04fa 12be 094d 01be
00000060: e254 903d 4df2 cb3d 0089 0f3e 8a09 a1bd
00000070: e9dc 07be da03 e53d 2ad0 87bd 3486 cf3c
00000080: 6a3e 96bd 0947 583d a5ed b93d 3fa5 213e
00000090: 0f59 8ebc 9130 ffbd df4b 193e 4505 ad3d
000000a0: 55f8 e83d 70cc 543d bc19 263d e254 ba3d
000000b0: 3610 edbd 50c7 013d c528 5e3d 9700 94bd
000000c0: 8683 c0bd a762 8bbd cf3a 103e 2092 193e
000000d0: 0966 833d 2a24 8cbd 63f3 c2bd d2e5 01bd
000000e0: 1947 553d 46ff 1fbd c094 8ebd 2ac1 81bd
000000f0: 9e1b 023e ecb6 923d 664e 9abc 7467 c23d
00000100: 2a82 1c3d 6d33 babb 48a3 6dbd 84f2 423d
00000110: cc35 fabd f215 a8bc 4615 793d 5de8 f7bd
00000120: 35a8 ef3d 7df2 76bd b9c2 e5bd 40d8 c83d
00000130: 8c3d a5bc c1b0 7c3d 1ca4 5d3c 0103 b9bc
00000140: 1505 abbb 7fc2 bd3d 8e14 89bd a2b6 e1bd
00000150: 2020 7f3c c440 073e 4ab4 44bd 61a0 053e
00000160: cf7b acbc 616f d8bd db17 d23d 3483 c0bd
00000170: e13a f1bc 4d21 d8bc c29d aabd cdef f0bb
00000180: 80a5 0e3e d752 b2bd 5661 073e 8064 99bc
00000190: c082 10be 002d 81bc 537a ec3b 7c83 113e
000001a0: 74c5 d23d 536b 5f3d 0643 6fbd 52e0 b8bd
000001b0: 107b 973b 3477 593d 26ea 93bd 1339 a33d
000001c0: 8e25 043d e2c2 b33d 091d f4bd b8ba 753d
000001d0: 9f39 acbc 3750 f03d 96fa f53c f5a0 c8bc
000001e0: a5d6 a3bd af82 4c3d a1f4 bebd b06d 64bd
000001f0: 00b2 9d3d a481 813c b47b 693d abc2 d23d
00000200: 0e7a 46bd 12b6 fb3b 171c 1ebe db89 513d
00000210: 425b 17be 6b82 8bbc 865e 673d 96ea 963d
00000220: 3fde 90bd 38bd af3c 8fb5 99bd 96a2 0b3e
00000230: f5a8 fdbd b32e 043e b675 4f3c b4bd 9bbd
00000240: a15d f73c 3eea e9bc f020 1f3e 31d3 b53d
00000250: d1c2 07bd 0560 7d3c 46b1 ecbd 524b b43d
00000260: ab79 8cbd 6853 f5bd 3e5e c23d 8e8e 083d
00000270: 2a6d e33d 4ebd d33d e673 55bc 143c 023e
00000280: d640 aabd a7ee 2dbc 5a0c 643d 9106 fc3d
00000290: eb87 abbd e9e8 6fbc 6d3e fc3d 7884 e7bd
000002a0: d719 953d 1d81 223d 7e78 bb3d ef9e 1cbb
000002b0: 9eab 6c3c b285 8b3c b067 9f3d 34ae a53d
000002c0: 68bf b73c 2d18 713d 552f f7bd 4915 2abd
000002d0: b310 85bd 360c f23d 3aa0 963d e4a0 963d
000002e0: b2e9 ca3d 248d 953d e676 bdbc daa9 abbd
000002f0: 5958 1e3d 6c54 c33d 2575 d83d 7998 f33d
00000300: c7ed 70bd fe6f 00bd c3a2 af3b a198 bf3d
00000310: 65b9 fbbd 82dc 7c3d dce9 99bd b458 bb3d
0.13498491 0.0048292526 0.13099512 0.03335481 -0.15339762 0.097976156 -0.016094806 0.02842875
-0.090987846 -0.09897721 0.07843846 0.089960754 -0.12000139 -0.0062001008 -0.12150987 0.12302369
-0.00689208 0.08819634 -0.115370385 -0.05203058 0.12360863 -0.081237845 -0.14353186 -0.12627043
0.0704744 0.099583246 0.14017105 -0.078631476 -0.13267864 0.11182375 -0.06631501 0.025332548
-0.07336123 0.05280212 0.0907853 0.15785693 -0.01737645 -0.12460435 0.14970349 0.08448271
0.113754906 0.05195278 0.040551886 0.09098221 -0.115753576 0.03168422 0.0542381 -0.07226675
-0.09400086 -0.06805926 0.14084934 0.14997149 0.06415946 -0.06842835 -0.095190786 -0.031713314
0.052069757 -0.039061807 -0.069619656 -0.06335671 0.12705848 0.07163796 -0.018836211 0.09492388
0.03821007 -0.0056824 -0.058017045 0.047594562 -0.12217292 -0.020518277 0.060811304 -0.12104867
0.11702005 -0.06028985 -0.11218781 0.098068714 -0.02017095 0.061692003 0.013527896 -0.02258444
-0.0052191117 0.09265613 -0.066933736 -0.110211626 0.015571624 0.132083 -0.0480235 0.13049461
-0.02105513 -0.10568119 0.10258456 -0.09400025 -0.029447021 -0.026383067 -0.08330871 -0.007352805
0.1393032 -0.08707207 0.13220724 -0.01872468 -0.14112377 -0.015768528 0.0072167306 0.14210314
0.102915674 0.05454571 -0.058413528 -0.09027161 0.0046228245 0.053092197 -0.07222395 0.079698704
0.032262377 0.08777405 -0.119196005 0.059992522 -0.02102357 0.1173405 0.030026715 -0.024490813
-0.079999246 0.049929317 -0.09324003 -0.05576867 0.076999664 0.015808888 0.057002738 0.10291036
-0.048456244 0.0076816166 -0.15440403 0.05115686 -0.14780906 -0.017029962 0.05648663 0.073689625
-0.0707364 0.021452531 -0.07505333 0.1363624 -0.123857416 0.1290844 0.012662342 -0.076045424
0.030196013 -0.028554078 0.15539908 0.08878172 -0.033144776 0.015464787 -0.1155725 0.08803429
-0.06859144 -0.11978799 0.094906315 0.033339076 0.11104806 0.103388414 -0.013028121 0.1271823
-0.08313148 -0.010615981 0.055675842 0.1230594 -0.08375534 -0.014642932 0.12316594 -0.11304563
0.07280319 0.039673913 0.091538414 -0.0023898443 0.014445214 0.017031524 0.07783449 0.08089867
0.022430137 0.058860946 -0.12069575 -0.041524205 -0.06497326 0.11818735 0.073547795 0.07354906
0.09907855 0.07302311 -0.023127984 -0.08382006 0.038658474 0.095375866 0.105692185 0.11894316
-0.058820512 -0.031356804 0.005359979 0.093552835 -0.122912206 0.06173373 -0.07515308 0.09147778

lstm.bias_hh_l1 f4 [200]
00000000: ef06 86bc 4432 db3c 347e 87bd 5361 303d
00000010: b79e fb3d 5714 a1bd 5ccf 89bc 218a 0a3d
00000020: 84fe 373c 7156 6abd 0311 40bc 7dac ec3d
00000030: ac3a e3bd 17e6 c83d d0a8 303d 031a f2bc
00000040: 3fe4 0bbd 4eb7 1abd 8b90 453d b1e3 853d
00000050: 3971 d03d 605a ef3d 5519 16be 1d51 9c3d
00000060: 9886 9ebd ac80 873d fbe7 663b dc20 67bd
00000070: de2b e5bd e221 52bd a11a 273d 91a3 70bd
00000080: f3be f7bc 1e0c 083c a5cc bfbd 5c05 86bd
00000090: 928c 9c3d d68c 12be 26ce 113e c04d f83d
000000a0: 08db 07bd 6d49 e33c ce8a 3b3c df67 66bd
000000b0: 9855 8f3d 4dde 673d 9145 b83d 5366 4b3d
000000c0: 8f8d d0bb 1bb4 c83d c99f 8e3d 3221 993d
000000d0: 3647 1a3e 95d3 30bc 5798 0abc 6ceb 6c3d
000000e0: 290a dfbd 8d63 113d 77e0 0e3e b0d1 ab3d
000000f0: 207f f7bd c05e b9bd 4a14 263d 953f 1fbb
00000100: 78e6 893d fc75 eb3d 52f5 f4bd 546b 18be
00000110: 2d6e 23bc 8dba e3bd 94c5 ff3c c576 693d
00000120: 122f ac3b 1aec e8bd 4b88 663d 1b02 093e
00000130: bd1d 0e3e f8d2 f33d 6030 b73d 1756 ea3d
00000140: 9454 a1bd bcf0 b33d f0b4 01bd be72 0c3e
00000150: 6d73 d63c 01f9 4c3d 88f2 a3bd 267e 193d
00000160: 72a5 103c bfe8 143d 97ea c93a 899c f9bc
00000170: 44f8 d9bd 902a 90bd 9f73 d53d 2a0f a63d
00000180: a34f 75bd a254 883d a9d8 a6bd 6554 a1bd
00000190: 634b d9bc 5075 e13d 6daf ccbd 8ddb 3bbd
000001a0: 2b8b 79bd 74e0 eebd 8cab 9b3d 46dd fd3b
000001b0: 3a9e c83d 2d57 b1bd 2d15 debd fdd1 17be
000001c0: 81a4 9a3d e53e 97bc 8df4 3cbd d39b f9bd
000001d0: 8e42 ee3d 853b 7bbd e0c4 0a3e 2c68 2a3d
000001e0: c6af c5bb 3a99 02be c67e 7d3d 6882 ccbd
000001f0: b3bb a3bc 704f 723d bef8 3abd acfe 0ebe
00000200: 24d2 9e3d f4cc 2fbd fe8b 00be f7d7 53bd
00000210: 8b7a 09be e0a7 dd3d 77fe 1fbe e4e1 123e
00000220: b0f4 073c 2309 8abd f884 ebbd fbbf f13d
00000230: 17aa b23c ff76 d1bc 131f 0ebd d0f3 f9bd
00000240: c00b 793d fce0 81bd f594 073d 563c f1bc
00000250: 770a cfbd fa99 a03b 0fdd c53c 57fb 81bd
00000260: a649 85bc bc0f a13d 5735 a3bd 4dc3 db3d
00000270: ab6e 193e 1035 553d 1a2b 113d 6393 7dbd
00000280: 8da9 0cbe 3ed9 053e 94b1 843d f304 12bc
00000290: 20f8 f9bd a3c7 17bd 732e 15be 2374 4bbd
000002a0: b53f 22bd 37ea 113e 9154 803d d5f4 fabd
000002b0: d2f2 44bd 570d a93d b275 58bd 2cfb 5c3d
000002c0: 0faa 0d3e 67c8 fd3d d6ac a63c cc7a 3c3d
000002d0: 521f 11bd 0388 a2bd f685 43bd 2c87 26bd
000002e0: 5c56 cd3d c636 34bd dfca 99bd 27f1 373d
000002f0: 59bf 99bd 4a7b debc 70f0 07be 663d 173e
00000300: 2b2c 1d3d 5839 edbc b8ed b4bd 5634 dd3d
00000310: 8e86 d63c 42c7 02be c444 383c bef4 b6bd
-0.016360728 0.026757367 -0.06615868 0.043061566 0.12286132 -0.07865208 -0.01682251 0.033823136
0.011230115 -0.057211343 -0.011722806 0.11556337 -0.11095175 0.09809511 0.043129742 -0.029553419
-0.03415322 -0.03777247 0.04823355 0.06537569 0.101778455 0.116871595 -0.14658101 0.07632659
-0.077405155 0.06616339 0.0035233486 -0.05642782 -0.111900076 -0.051301844 0.04079688 -0.05874974
-0.030242419 0.00830367 -0.09365205 -0.06543991 0.07643999 -0.14311537 0.14238796 0.12124205
-0.03316787 0.027744973 0.011446668 -0.056251403 0.069987476 0.056608487 0.08997644 0.04965813
-0.0063645313 0.097999774 0.0696407 0.07477035 0.15066227 -0.010792633 -0.008459172 0.057841703
-0.1089061 0.03549533 0.13952814 0.08389604 -0.12084794 -0.09051275 0.040546693 -0.0024299372
0.067334116 0.11497113 -0.11960854 -0.14884692 -0.009974998 -0.11119566 0.031222142 0.056998033
0.0052546347 -0.11373158 0.056282323 0.1337971 0.13878532 0.119054735 0.08944774 0.114422016
-0.0787746 0.08786151 -0.031666696 0.13715646 0.026178086 0.050042156 -0.080052435 0.03747382
0.008828508 0.036354776 0.0015404996 -0.03047015 -0.10643056 -0.07039368 0.104224436 0.08108361
-0.0598904 0.066567674 -0.081467934 -0.07877425 -0.026525205 0.11008704 -0.09994397 -0.045863677
-0.060923737 -0.11663905 0.07601079 0.007747325 0.09795804 -0.086592056 -0.10843883 -0.14826198
0.07550908 -0.018462608 -0.04613166 -0.12187924 0.11633788 -0.06133606 0.13551664 0.041603252
-0.0060329167 -0.12753764 0.06188848 -0.099858105 -0.019986963 0.05915779 -0.045647375 -0.13964337
0.07754925 -0.042920068 -0.12553403 -0.051719632 -0.13425653 0.10823035 -0.15624414 0.14343983
0.008298084 -0.06740024 -0.11499971 0.118041955 0.02180962 -0.025569437 -0.034697603 -0.12204707
0.06080222 -0.063417405 0.03310104 -0.029447716 -0.10109418 0.004901168 0.02415326 -0.063467674
-0.01627047 0.07864329 -0.07969158 0.1073061 0.14983623 0.052052557 0.035441495 -0.061908137
-0.13736553 0.13071153 0.06479183 -0.008912313 -0.12205529 -0.037055623 -0.145685 -0.049671303
-0.039611537 0.14249502 0.0626613 -0.12253729 -0.048083134 0.082544975 -0.052846618 0.053950474
0.13834403 0.12391739 0.020346086 0.046015546 -0.03543026 -0.079360984 -0.047735177 -0.040656254
0.10026237 -0.04399755 -0.07509398 0.044907715 -0.075072 -0.027158398 -0.13275313 0.14769515
0.0383722 -0.028958008 -0.08834404 0.10800998 0.026187208 -0.12771323 0.011246864 -0.089333996

fc.weight f4 [1, 50]
00000000: 4d0d 0cbe 0bd2 fbbb d36e 19bc d805 c83d
00000010: 02c6 69bd 73c6 963d 0983 833d d1e2 503c
00000020: 0597 d43d 298e c1bd 9f76 eb3d 5135 96bd
00000030: 1595 98bd bd6e 123e 2dd6 be3c 96b1 12bd
00000040: 7967 133c 2eb3 abbd c131 783d a9a1 03bd
00000050: a83d b13d fe78 dabb 1789 2bbc e268 e73c
00000060: 5e54 9bbd c1d3 1ebd 9119 04be c83f 10ba
00000070: 24d6 94bd 0109 81bd 9136 13be b881 ac3d
00000080: f165 333d 36c2 123e 1d50 8cbd 22d1 f23d
00000090: c6a6 e93d fa24 85bd ff33 04be 81e0 163e
000000a0: dd4f 043c b82a 31bc 89ae aabd 740b 13be
000000b0: 40fe a6bd 5a66 b8bd a65f 973d b208 dcbd
000000c0: f6d6 82bd a134 7cbc
-0.13676949 -0.007684951 -0.009364801 0.097667396 -0.0570736 0.0736207 0.06421477 0.01274939
0.10380367 -0.09450943 0.114972346 -0.07334388 -0.0745031 0.14300056 0.023295486 -0.03581389
0.008996838 -0.08383785 0.060594324 -0.032136593 0.08654338 -0.0066672554 -0.0104696965 0.028248254
-0.07584451 -0.038776163 -0.12900378 -0.0005502668 -0.072674066 -0.063005455 -0.14376284 0.084231794
0.04379839 0.14331898 -0.06851218 0.11856295 0.11408763 -0.06501193 -0.1291046 0.14734079
0.0080756815 -0.010813408 -0.08334071 -0.14359838 -0.08153963 -0.09003897 0.0739129 -0.10743846
-0.06388657 -0.015393407
