models/daily_model_DOGE_USDT.pth (torch, 128293 bytes, 9 tensors)

lstm.weight_ih_l0 f4 [200, 1]
000000 3a 0c 04 3e b5 33 0a 3e 6b 87 87 bc ce 3b 19 3e
       0.12895289 0.13496287 -0.016544065 0.1496422
000010 c6 5a 92 bc 76 2f 7f 3c 82 a1 6b bd a6 e1 a6 3d
       -0.01786555 0.01557528 -0.057527073 0.08148508
000020 c1 49 15 3e 4b dc eb bd 92 c5 00 3e d9 07 84 3c
       0.14578916 -0.11516627 0.12575367 0.016117023
000030 c7 99 bb 3d 0f 9b dc 3c 58 13 59 3d 30 dd cf bc
       0.0916019 0.026929406 0.052996963 -0.025374025
000040 81 d2 f9 3d 0e 69 29 3d 67 30 45 bd 90 f5 02 3d
       0.121983536 0.041359954 -0.048141863 0.031972468
000050 f9 97 95 bd 16 70 cc bc bd bb 6c bd 06 e5 e9 3d
       -0.07304377 -0.02495579 -0.05779623 0.11420636
000060 96 c2 b9 bd c8 07 9e bd 2b cc 3d bd c1 43 84 bd
       -0.090703174 -0.07716328 -0.046337288 -0.064582355
000070 e2 eb 09 3d 01 37 fc bd da c4 17 3e be b0 07 be
       0.03367222 -0.12315179 0.14821187 -0.13251016
000080 bb 13 c7 3d 40 90 35 3d 66 56 ce bc 3e a4 dd 3d
       0.0972056 0.04432702 -0.025187682 0.10822342
000090 8f 7c f3 3b cb 96 0a 3e 4e 36 d9 3c fa 81 c1 bc
       0.00743062 0.13534085 0.026515152 -0.023621548
0000a0 1a 94 ce 3c eb 05 91 bc 73 76 a2 3d 1a 13 e6 3d
       0.025217105 -0.017703017 0.07932749 0.11234112
0000b0 63 41 98 3d 28 0d 27 bd 89 e4 d1 3d a5 5a 3c 3d
       0.074343465 -0.04078403 0.10248668 0.045984883
0000c0 e8 57 be 3d 32 e5 87 bd e4 93 f4 bd f1 dc 17 bd
       0.092941105 -0.066355124 -0.119422704 -0.03707594
0000d0 ec cf bd bd 06 44 0b 3e e2 00 52 3d d5 d7 3a 3d
       -0.092681736 0.13600168 0.051270373 0.04561599
0000e0 95 a5 63 3d 2e c1 a5 bb 92 f4 06 3e 7c 96 e5 bd
       0.055577833 -0.005058429 0.13179234 -0.11210343
0000f0 4d 8b 3b 3c b6 b3 da bd 01 8f f5 3c 0b 2d 2f bd
       0.011446786 -0.106788084 0.029975416 -0.042767566
000100 b8 1a f3 3c 29 c0 0f bd 23 5e 06 3e e6 92 81 bd
       0.029675826 -0.035095368 0.13121848 -0.06326847
000110 d8 e7 89 bd 8c dc b9 bd 1c 6d f3 3d 9c 30 1c 3d
       -0.06733674 -0.09075269 0.11886045 0.038132295
000120 6a de 09 3e 5a 7b cc bd dc 75 f4 bd a4 4f fa bd
       0.1346375 -0.09984465 -0.119365424 -0.122222215
000130 eb 6e d0 bd 34 37 9f 3d 12 67 91 3d 98 42 09 3e
       -0.10177406 0.07774201 0.07099737 0.1340431
000140 f5 1d 57 bd 5e e7 dc bd ca f8 82 3d 9c f2 14 bd
       -0.052518804 -0.10786317 0.06395109 -0.036364183
000150 ac 10 da 3d 25 d8 4f bc bc 75 88 3d 2e da b5 bd
       0.10647711 -0.01268581 0.06663081 -0.08879505
000160 8f 7e 7b bd 18 44 83 3d e4 89 8d 3c ff bf 7b bc
       -0.061399993 0.06409472 0.017277665 -0.0153656
000170 3b 3c d5 3d 93 28 a8 3d 5f 29 e1 bd 10 1e 5f bd
       0.10411879 0.08210864 -0.10994219 -0.05447203
000180 f2 f1 19 3e 80 a2 dd bc e0 ae ed bc a0 63 ef bd
       0.15033701 -0.027055025 -0.029014051 -0.11688924
000190 f1 de 75 bd f4 11 59 3d 66 d4 1e bd 7c d9 aa bd
       -0.060027067 0.052995637 -0.038776778 -0.08342263
0001a0 08 4f 82 bc 93 a8 a9 bd 4a 0c 06 be 43 2f 9c bd
       -0.015906826 -0.08284106 -0.13090625 -0.07626202
0001b0 ee fd 13 be 3c 01 a1 bd 8c e5 0c 3e d8 17 17 3d
       -0.14452335 -0.078615636 0.1375944 0.036887974
0001c0 27 e4 7a 3d 8d 87 e3 bd 06 9d be bd b2 f9 4c bd
       0.06125274 -0.11109839 -0.093072936 -0.050042816
0001d0 79 2f 30 3d 67 ef 13 be a9 09 46 bd 78 2a 88 bd
       0.043014023 -0.14446793 -0.048349056 -0.06648725
0001e0 cf 32 85 bc fb f2 62 bd ef 0c 39 bc 45 81 ec bd
       -0.016259579 -0.055407505 -0.0112945875 -0.11548094
0001f0 36 a3 9c bd f6 dd ba bd 77 49 5c bd 90 02 ba bd
       -0.076483175 -0.09124367 -0.053781 -0.0908252
000200 3c 98 0d 3e 13 c3 3d bd 47 55 d0 3d 3b f1 00 3d
       0.13827604 -0.046328615 0.10172515 0.031480055
000210 f7 bc df bd 85 f2 f1 3d bd ee 73 bd cb b9 09 bd
       -0.10924714 0.11813835 -0.05955385 -0.03362445
000220 8d b7 d1 bd 64 74 24 be 35 f5 69 3d 76 63 53 bd
       -0.10240088 -0.16060024 0.057118613 -0.051608525
000230 01 60 2c 3d 84 a4 c3 bd 83 c1 ac 3d 26 4d f5 bd
       0.042083744 -0.09552863 0.08435347 -0.119776055
000240 68 09 93 bc c4 53 0d 3c 34 a3 bf 3d 50 82 c0 3d
       -0.017948821 0.008625928 0.093573004 0.09399855
000250 5d ef 18 3e e7 39 bb bd ae 1b 67 3d 8c 20 31 bd
       0.1493506 -0.09141903 0.05642288 -0.04324393
000260 3c b2 8d 3a a7 20 b0 bd fd 79 11 3e 23 1c ef bd
       0.0010810564 -0.08599978 0.14206691 -0.116752885
000270 5b fd b1 3d f9 2e 45 3d b5 5f 89 3d 36 f5 b3 bd
       0.08690902 0.0481405 0.06707708 -0.08787005
000280 1b 79 06 3e 92 ce a9 3c 4d 71 ae 3b 6c 94 ef bd
       0.13132136 0.020728383 0.005323565 -0.11698231
000290 50 22 35 3d e2 ac d9 bc 58 1c 54 bd e6 57 11 3e
       0.044222176 -0.026571695 -0.051784843 0.14193687
0002a0 fb ca 4a 3d 49 91 a8 bd c8 ac a2 bd a7 72 77 bc
       0.049509984 -0.08230836 -0.07943112 -0.015103019
0002b0 39 f8 a0 3d 06 da 80 bc 14 bf 74 bd 94 2e 77 bd
       0.07859845 -0.015728962 -0.05975254 -0.060347155
0002c0 52 90 e5 bd 38 30 91 3d 5b ff 04 3e 26 da ee bd
       -0.112091675 0.07089275 0.12988035 -0.11662702
0002d0 c8 82 5a 3d b9 88 78 3d 5b 41 60 3c ea dc f1 bc
       0.05334738 0.060677264 0.013687457 -0.029524285
0002e0 3a a3 c1 3d 8d e4 c2 3d d6 dd 1c 3d 5e 78 76 bb
       0.09454961 0.09516249 0.038297497 -0.0037608366
0002f0 20 29 d8 bc bf ee 13 3d 4f a6 1a bd 2b f8 af bc
       -0.026386797 0.036116358 -0.03775626 -0.02148064
000300 1f bc e1 3d 94 6a dc 3d e7 d7 ae bc 57 08 2e bc
       0.110222094 0.10762516 -0.021343185 -0.010622106
000310 60 0b bc 3c 93 b7 48 3c 73 c6 61 3d e7 b0 73 3d
       0.022954643 0.012250799 0.055120897 0.05949488

lstm.weight_hh_l0 f4 [200, 50]
000000 fd 44 e1 bd 93 1e 05 bd 0a c9 de 3d 16 65 96 3d
       -0.109994866 -0.03249986 0.10878189 0.07343499
000010 77 2a 6f bc e1 85 d9 bd 84 3b db bd 15 a3 15 be
       -0.014597527 -0.106212385 -0.10704711 -0.14612992
000020 ae 5c 87 bd 05 43 e7 3c 40 b2 96 3d 63 d0 49 3d
       -0.06609474 0.0282302 0.07358217 0.049271
000030 2f 3f 0c be bd 90 99 bd 00 2e 90 bc c7 11 1d 3e
       -0.13695978 -0.0749831 -0.01760006 0.15338813
000040 2d ff 21 3d b7 61 66 bd ef 44 9b 3d dd 2f 6d bd
       0.039549995 -0.056245532 0.075815074 -0.057906974
000050 08 8f b1 bd b9 ee ed 3d b5 8a ab bd f2 89 06 bd
       -0.08669859 0.11617798 -0.08376066 -0.0328464
000060 c0 84 fc bd 19 d8 cd 3d 29 01 00 3e 16 1e 8a 3d
       -0.123300076 0.10050983 0.12500443 0.0674402
000070 f7 c6 a1 bd 6d f8 1b be c6 39 08 be 28 9d fe 3d
       -0.07899278 -0.15231486 -0.13303289 0.12432319
000080 89 33 64 3d 1d 2b 0e 3e 11 10 5f 3d d0 43 60 3d
       0.05571321 0.13883634 0.05445868 0.05475217
000090 c3 0a b5 bc ea 53 02 be b5 cc e8 bd 63 01 1b be
       -0.022099858 -0.12727323 -0.1136717 -0.15137248
0000a0 48 56 a0 3d 37 95 55 bd ff 28 39 bd 17 07 88 bd
       0.07828957 -0.052144255 -0.045205113 -0.06641977
0000b0 1a 01 39 bd 12 0e f2 bd ba 0b 95 bd eb 3d ef 3c
       -0.045167066 -0.1181909 -0.07277627 0.02920433
0000c0 5e 69 b4 bc 36 5f d4 3d 9e 25 ed bc 0e 8b b1 bd
       -0.0220229 0.103697225 -0.028948601 -0.08669101
0000d0 ac 5e 2c bd 2b f0 56 bd 77 85 74 bd 7e 05 1c be
       -0.042082474 -0.052475136 -0.059697594 -0.1523647
0000e0 ef 05 7e 3d 70 06 ec bd a2 de 5c 3d 5b e6 41 3d
       0.062017377 -0.11524665 0.053923257 0.047338825
0000f0 40 71 b1 3d 77 58 f9 bd 37 33 bf 3d 04 22 58 bd
       0.08664179 -0.121750765 0.0933594 -0.052766815
000100 3f 6b 51 3d 91 dd 16 3e 45 10 99 bb 6a 80 93 bc
       0.05112767 0.14732958 -0.004671129 -0.018005569
000110 48 44 8f bc b4 5f ec bd c9 81 8a 3d b2 c9 04 be
       -0.017488614 -0.115416914 0.06763036 -0.12967566
000120 9a da 90 3d 46 ad bb 3d 6b e0 18 3e 11 64 01 bd
       0.07072945 0.09163909 0.14929359 -0.03158957
000130 72 14 ce bd 90 89 3c 3d e4 a6 c2 3d 0c 8f 21 be
       -0.100624934 0.046029627 0.09504488 -0.15777224
000140 03 18 45 bd 89 0c 8c bd fe f6 97 bc ff 6b 57 bd
       -0.048118602 -0.068383284 -0.018550392 -0.052593227
000150 45 09 99 bd d6 cd e8 bc d4 82 1b be 83 9e ca 3d
       -0.07472471 -0.028418463 -0.15186626 0.09893515
000160 51 de 07 3e 5e 22 1f bd 00 fe 9e 3a dd 51 2e bd
       0.132684 -0.038851134 0.0012130141 -0.04255854
000170 c6 cd 11 be 50 2e 00 be f4 a7 12 3d 8f 71 c0 bd
       -0.14238653 -0.12517667 0.035804704 -0.093966596
000180 f6 7d 97 bd 9e 3b da bc 9b d3 f4 bc 5d e7 ff bc
       -0.07397072 -0.026639756 -0.029886058 -0.031238252
000190 0e 65 9f 3c c3 bf 67 bc 82 18 85 bd 71 70 5a bd
       0.019457366 -0.014144841 -0.06498815 -0.05332989
0001a0 f7 9e 05 be 07 db d0 3d 90 a9 94 bd 7a 57 b4 3c
       -0.13048922 0.10198026 -0.07258904 0.022014368
0001b0 3c 10 86 bd f1 c2 86 bb ed 5e f5 3d 41 24 62 3d
       -0.06546065 -0.0041125943 0.11980996 0.055210356
0001c0 79 43 03 be 36 89 89 3d e4 5d 05 3e 33 f9 4a 3d
       -0.12818708 0.06715624 0.13024098 0.04955406
0001d0 16 48 e1 3d d6 69 fd 3d c0 14 15 bc f8 97 15 3d
       0.110000774 0.12373702 -0.0090991855 0.03652188
0001e0 60 1e cd bd 06 bc a8 bc 5f 80 b6 3d f8 36 69 3d
       -0.10015559 -0.020597469 0.089112036 0.056937188
0001f0 48 44 9b bd 8a 28 e7 bd 49 f3 a9 bd 61 a4 02 be
       -0.07581383 -0.11287029 -0.08298356 -0.12758018
000200 2b 58 bf bd 4f 83 53 bd 70 36 a6 3d 24 f3 1d 3d
       -0.093429886 -0.051638898 0.08115852 0.038561955
000210 38 90 db bd f1 d0 c7 bd e8 dc 5f 3d 3d d7 b8 bd
       -0.10720867 -0.09756649 0.054654032 -0.090254284
000220 e0 0b 0c bd a9 b0 52 3d 8f ea 50 bd 3f 66 fb bc
       -0.034191012 0.051438008 -0.051004943 -0.030688403
000230 04 1c 86 3b f5 bf a6 bc 96 b1 ac bd c0 e1 ec bd
       0.004092695 -0.020355204 -0.08432309 -0.11566496
000240 92 f6 04 be ea 35 b9 bd f9 fc 1b 3e a0 f2 a7 bd
       -0.12984684 -0.090434864 0.1523322 -0.08200574
000250 d7 f2 a0 bd 7b ce 3e 3d 11 ce 6a 3d 22 06 c6 3d
       -0.07858818 0.046583634 0.057325426 0.096691385
000260 ea 4b c1 3d e2 1c c5 3d 57 b8 1c be 62 a1 b2 bb
       0.094383076 0.096246496 -0.15304695 -0.0054513672
000270 6f 3f 85 3d ce 9a fa bc c7 55 d5 bd 95 86 f0 3d
       0.065062396 -0.030591395 -0.10416751 0.117444195
000280 98 96 8b bd 94 2b c2 bd c5 bc 0f be c4 58 b3 3c
       -0.06815833 -0.09480968 -0.14036854 0.021892913
000290 91 d2 8f 3d 21 33 3c 3d 42 1c 1d 3d 9c aa 00 be
       0.07022584 0.045947198 0.038357027 -0.12565082
0002a0 47 d4 ed bd cc fb 0b 3b 8e 7c 0c 3e 60 52 c1 3d
       -0.11612754 0.00213598 0.13719389 0.0943954
0002b0 23 0f cb bd f3 25 bd bc 95 27 b2 bd b8 e4 6e bd
       -0.099149965 -0.023089385 -0.08698956 -0.058323592
0002c0 2c bd 2a 3d 30 e9 be 3d e1 e4 0a 3e 24 b5 10 be
       0.041684315 0.09321821 0.13563873 -0.141316
0002d0 51 b5 9d 3d 5b 76 a9 bd 8b 80 33 3d e4 f3 0d 3e
       0.07700599 -0.08274528 0.04382376 0.13862568
0002e0 63 8a 88 bc 0a 15 16 3e df 6a 0d be 2e 4e 98 bd
       -0.01666755 0.14656463 -0.138103 -0.074367866
0002f0 fb 4d b4 3d db 92 49 bd 66 f9 34 bc aa 84 2d bd
       0.08803936 -0.049212318 -0.011045789 -0.042362846
000300 d9 5d a4 3d 31 ae ab 3d 60 76 e9 3c 43 8c c7 bd
       0.080257125 0.08382834 0.028498828 -0.0974355
000310 24 42 c5 bd c9 ac fe ba 0c b5 7e 3d 4f c3 46 bd
       -0.09631756 -0.0019430156 0.06218438 -0.048526105
000320 4e 47 b3 bc a3 b7 e2 3d 66 43 b0 bb 6e 17 b4 3c
       -0.021884587 0.11070182 -0.0053791283 0.021983828
000330 1e 74 55 bd 5e 46 11 be eb bf 12 be a0 20 aa bd
       -0.05211269 -0.14186999 -0.14331023 -0.08307004
000340 5b 92 a7 bd 6f b9 e8 3c 18 4c 68 bd 35 4d 8a bd
       -0.08182212 0.028408734 -0.056713194 -0.06753007
000350 72 3a fe 3d 5c 18 84 3d a4 4a d7 3d 85 a1 5a bd
       0.12413491 0.06449959 0.105122834 -0.053376693
000360 3d f9 46 bd ab 52 15 3d 19 5b a0 bd 15 08 a1 bd
       -0.048577536 0.03645579 -0.078298755 -0.0786287
000370 fe c9 3c bc 23 2c 20 bd fe 9f f9 bd 67 fe a1 3d
       -0.011522768 -0.039104592 -0.12188719 0.079098515
000380 a7 d8 05 3e c4 b0 f2 3c 4f df 23 bc b0 7f eb bd
       0.13070928 0.029625304 -0.010001971 -0.11498964
000390 80 7b 13 bd d1 fa d1 3c c8 30 4a 3d b0 c1 24 bb
       -0.03600645 0.025632294 0.049362928 -0.002513986
0003a0 04 13 48 bd b8 61 c0 3d 54 2c 03 be 8c 8f d6 3d
       -0.04884626 0.09393638 -0.12809879 0.10476598
0003b0 69 4c 90 bd 8b 5a 17 bc f0 61 ad bc da 24 cd 3a
       -0.07045824 -0.009237896 -0.021164864 0.0015651241
0003c0 ca 58 de bc 47 51 f4 3d 04 9b a7 bc 26 e7 fe 3d
       -0.027141947 0.11929565 -0.02045966 0.12446432
0003d0 d1 a0 f6 3d 0f ae ac bd 73 7b b3 bd b7 a4 c5 3d
       0.12042392 -0.084316365 -0.087637804 0.096505575
0003e0 81 55 fd 3d 61 cd bb bd c3 a2 c5 bc 3b 1f 1c be
       0.12369824 -0.09170032 -0.024125462 -0.15246288
0003f0 75 b9 dd bd 78 0b 6e 3c 5d 9b 19 3d e3 bf 2c 3d
       -0.10826389 0.014529102 0.03750168 0.042175185

lstm.bias_ih_l0 f4 [200]
000000 bd dc 19 3e 51 a5 b2 bc 45 0c f4 3d bb 79 59 3d
       0.15025611 -0.021807345 0.11916403 0.053094607
000010 5d 85 ab bd 90 b4 4a bd be 9b cf bd e1 9c 1b 3d
       -0.083750464 -0.049488604 -0.10137127 0.03799141
000020 15 d8 ca 3d 99 e7 1a be d2 10 76 bd e8 87 03 bc
       0.099044956 -0.1512741 -0.060074635 -0.008028008
000030 10 b9 cd 3d 4f d5 7b bd 6c 5a b0 bc 0c 71 4d bc
       0.100450635 -0.061482724 -0.021527492 -0.0125391595
000040 9b 30 7a bd 49 b4 36 bd 46 6a ae bc 71 bc 36 bd
       -0.06108151 -0.044605527 -0.02129091 -0.044613305
000050 ff 70 5f bd 54 5b 22 3b 56 bf 79 bc 76 35 73 bd
       -0.05455112 0.0024773674 -0.015243372 -0.059377156
000060 31 58 d5 3d cf c9 b7 3d 4a 6d ff bc 1e b5 1c bc
       0.10417212 0.08974039 -0.031180043 -0.009564666
000070 e2 06 f4 bd 8b e5 ba bd 38 b8 40 3c 60 20 25 bd
       -0.11915375 -0.09125813 0.011762671 -0.04031408
000080 38 3d 02 3d 81 45 50 bd f5 e6 20 bc 65 db 23 3d
       0.031796664 -0.050847534 -0.009820689 0.040004153
000090 0d 44 ff 3d 4f e3 06 3e ee 4a b4 bd a8 67 f9 3b
       0.124641515 0.13172649 -0.08803354 0.0076112337
0000a0 2e de 13 bd f5 3d 56 3c cb e3 9b 3d 79 67 90 bd
       -0.03610056 0.013076295 0.076118074 -0.07050986
0000b0 95 e1 26 bd 07 d1 f7 bd 4e d2 fc bc c3 d7 f6 bd
       -0.040742476 -0.12100416 -0.030862 -0.12052872
0000c0 7c 99 90 3d 9b 7e bc bd e5 7a 51 bd bc 1c b0 bd
       0.07060525 -0.092038356 -0.051142592 -0.08599231
0000d0 6e 70 f8 3d 2d c7 c2 bc ea 6b 09 3e 8a b5 a9 bd
       0.12130819 -0.023776615 0.13420072 -0.08286579
0000e0 ad bf f1 3d f0 d2 08 bd 2f d1 ae bd c3 14 d9 3d
       0.118041374 -0.03340429 -0.08535992 0.10599663
0000f0 2a e2 c9 bd 7b 2f c1 bd e8 c7 83 3d cf dc 65 ba
       -0.098575905 -0.09432884 0.064346135 -0.000876856
000100 19 72 68 bc 55 b5 06 3e d4 29 cf bd fd c7 03 bd
       -0.014187359 0.1315511 -0.101154 -0.032173146
000110 8d 85 91 3d 93 1a 09 bd 38 59 e4 bb 00 e4 71 bd
       0.07105551 -0.03347261 -0.0069686435 -0.05905533
000120 9f 07 d8 bc fc 01 f6 3d c3 39 02 bc 90 d4 3a 3d
       -0.026370822 0.12012097 -0.007948342 0.04561287
000130 26 ac c7 3d cc 8f 01 3e 8d cd af 3d 77 b4 df 3d
       0.097496316 0.1265251 0.085841276 0.10923093
000140 4e 9c 96 bc a2 ce bd ba aa 18 8f bd 34 e5 f0 bd
       -0.018385079 -0.0014481137 -0.06987126 -0.11762467
000150 7e bb 0d 3e 37 05 ee bd 2e 0e d3 bd 0a 92 f4 bc
       0.13841054 -0.116220884 -0.10305439 -0.029854793
000160 a9 77 00 be e8 19 b9 bd 6d b2 b1 bd 89 ef 0c 3d
       -0.12545647 -0.09038144 -0.0867661 0.034408126
000170 0b d6 d9 bd 57 39 ec bd dd ce be bd 49 ef b2 bd
       -0.106365286 -0.11534374 -0.093168 -0.08737046
000180 17 82 57 3d 1e 0c bc 3c 1d 91 53 3d c3 ba 13 3e
       0.052614298 0.022954997 0.051652063 0.14426713
000190 4b 0b 2f bd 71 ca 18 bd 95 c3 df 3c 68 e6 10 3e
       -0.04273538 -0.03730244 0.02731494 0.14150393
0001a0 4e c8 e3 3c 06 a0 df 3a c5 6a 18 3d 10 a8 09 be
       0.027805474 0.001706124 0.0372112 -0.13443017
0001b0 c5 8e ec bd 28 87 40 bd 15 8e 04 be 00 b9 c2 bd
       -0.115506686 -0.047003895 -0.12944825 -0.09507942
0001c0 59 84 bd bd 46 a1 73 3d 60 0c 24 3d 0d 95 1a bc
       -0.09253759 0.059479974 0.040050864 -0.009434951
0001d0 69 31 5e bc 94 42 68 bc fb f0 c5 3d 60 68 b8 bd
       -0.013561585 -0.01417603 0.09665104 -0.09004283
0001e0 10 c8 ae 3d 23 e0 63 3d 3b 8b 43 bd 4a c7 a7 3d
       0.08534253 0.055633675 -0.047740202 0.08192308
0001f0 c1 03 99 3c 1a ee 98 bd af 37 f4 3d 7c ef 79 3d
       0.018678548 -0.07467289 0.11924683 0.061019406
000200 f4 13 ff 3d 98 70 5f bd 3c d9 0e be 47 4e cc 3d
       0.12454978 -0.054550737 -0.13950056 0.09975868
000210 5a 37 a0 3c b3 0e af 3d de 95 63 bd ac 86 af 3d
       0.019557644 0.085477255 -0.055562846 0.085706085
000220 57 93 c6 bd 2c 67 55 bc aa e4 fa 3d 35 b6 68 bd
       -0.096960716 -0.013025086 0.122506455 -0.05681439
000230 f1 2e dd 3d 7e a0 90 3d 36 94 4f 3d 2e be fe 3d
       0.10799969 0.070618615 0.050678454 0.12438618
000240 e6 ae c4 bc 4e 6a 54 bd 78 6b dc 3d 43 58 b8 bd
       -0.02400918 -0.051859193 0.107626855 -0.090012096
000250 31 a8 af bd a8 69 e3 3d ff a1 d5 bd ed 14 4e bd
       -0.08577002 0.11104137 -0.10431289 -0.050312925
000260 e4 c5 48 3d e7 36 1d 3d 6a ba 91 bd 0b fc 45 bd
       0.04901685 0.038382437 -0.07115634 -0.04833607
000270 5e 4a d1 3d de 1c c5 bd 3a de d0 3d a7 aa df bc
       0.102192625 -0.096246466 0.10198636 -0.027303053
000280 04 e1 58 bd 9e 4f 15 be 23 48 4c bd 58 0c 07 3e
       -0.052948967 -0.14581153 -0.049873482 0.13188303
000290 1e ba b9 bd 91 58 f7 bd ea aa 51 ba 45 a5 f3 3d
       -0.09068702 -0.120774396 -0.00079981855 0.11896757
0002a0 3a 2f b4 bc 87 6b 0b 3e 63 3a 02 3e 8a b5 f2 3d
       -0.021995176 0.13615237 0.12717585 0.11851032
0002b0 37 04 ad bd 81 63 ba bd da 9d e9 bd dc 51 1f bd
       -0.084480695 -0.0910101 -0.11407061 -0.038896427
0002c0 fd 14 cf bd 49 81 a9 3d 91 2f 01 3d be a6 fe 3d
       -0.10111425 0.08276612 0.031539503 0.12434147
0002d0 3c 6f e7 bd 7d 64 07 be c2 3c 13 bd 03 14 69 3d
       -0.11300513 -0.13221927 -0.035946615 0.05690385
0002e0 6d db 0d 3e 8f e6 e6 3b 3d 83 da 3d cf 4a 91 bc
       0.13853236 0.0070465277 0.10669563 -0.017735867
0002f0 82 78 73 bc 54 01 10 bd 4d 9c 95 bd 51 85 13 bd
       -0.014860274 -0.035157517 -0.07305203 -0.036015812
000300 a0 2c d7 bd 00 a1 fd bc 6a 4f 6e bd 15 89 94 bd
       -0.105065584 -0.03096056 -0.058181204 -0.07252709
000310 85 e8 ae bd 90 1a f2 bd d9 1c 36 bc b6 97 c9 bd
       -0.08540443 -0.11821473 -0.011115276 -0.0984339

lstm.bias_hh_l0 f4 [200]
000000 e0 a5 15 3e c6 bc af bc 65 5d 58 3d 6b 21 ac bd
       0.14614058 -0.021452319 0.052823443 -0.084048115
000010 1e fc ed 3c db f4 14 be 8a c5 99 3d f5 65 7e 3d
       0.029050883 -0.1454653 0.07508381 0.062108953
000020 d6 c5 ee bd 91 b8 4a 3d 4f dc 80 3c 34 9c cb bd
       -0.11658828 0.049492422 0.015730051 -0.09941903
000030 be cc 9e bd b6 4a 1e 3e c0 ba b1 bd 8c eb eb 3d
       -0.07753895 0.15458187 -0.08678198 0.115195364
000040 c6 ad 1d 3d 76 2a ab 3d e5 c8 5f bd 9d a5 32 3d
       0.0384958 0.08357708 -0.054634947 0.043614972
000050 5f 79 af 3c 7f 60 d0 3d 65 b5 12 be 63 e6 2b bd
       0.021420179 0.10174655 -0.14327009 -0.04196776
000060 82 a5 b4 3c 31 4b e7 bd dd 40 77 3c a7 d4 dd 3d
       0.022051577 -0.112936385 0.015091148 0.10831576
000070 1b cc d4 3d cd 00 79 bd 83 5b 9a 3d fe 16 ee bd
       0.103904925 -0.06079178 0.07536986 -0.11625479
000080 44 6d a0 3d 0f c8 c4 bd 85 b3 de bd 07 23 8b 3d
       0.07833341 -0.09608471 -0.108740844 0.0679379
000090 9e 82 e1 bc 98 97 62 3d d4 dc 0b 3e 36 95 1e 3e
       -0.027528103 0.055320352 0.13658458 0.15486607
0000a0 f8 ca 88 3d 46 b1 e2 bd 3e cd 95 bb 98 35 f1 3a
       0.06679338 -0.110689685 -0.004571586 0.0018402813
0000b0 0d dd 17 be 34 a7 0c 3e 32 be e5 3d c0 25 41 bd
       -0.14830418 0.13735658 0.112179175 -0.04715514
0000c0 d4 05 13 bc 2d 8c 85 bd f6 c6 95 3d f2 bd 27 3d
       -0.0089735575 -0.06520877 0.073133394 0.04095263
0000d0 8b 6e 10 bd 6b 2c bf 3d 85 d7 9d bc 26 0e 2a 3b
       -0.035261672 0.09334644 -0.019267807 0.0025948375
0000e0 e2 03 df 3d 07 8b 93 bd 79 5e e0 bd 75 32 83 3d
       0.108894125 -0.07204252 -0.10955519 0.06406108
0000f0 3a 20 c2 bd ac 3f 2d 3d 9e 06 64 bd 72 aa db 3d
       -0.09478803 0.04229705 -0.055670373 0.10725869
000100 a7 b0 8e bc ce a4 95 bd 0c a3 b5 bd c6 58 e9 3d
       -0.017418219 -0.073068246 -0.08868989 0.11393885
000110 ac 87 99 bd 46 a4 0a 3d 65 53 ca 3d 8e ae ff bd
       -0.074965805 0.03384807 0.098791875 -0.124844655
000120 25 3a fc bd 3b 79 b1 3c 35 45 18 bd 65 ae eb bd
       -0.12315778 0.021664253 -0.037175376 -0.115078725
000130 28 a9 ac 3d e3 87 ea bd 41 2a 3b bd c9 f5 d7 bd
       0.084307015 -0.114516996 -0.045694593 -0.10544927
000140 92 0c 64 3d c6 30 0a ba ca e7 4b 3d 54 42 a1 3d
       0.05567605 -0.000527155 0.0497816 0.07873979
000150 9a 78 9a 3c 37 69 c0 bc e4 94 e3 3d 51 83 d8 3c
       0.018856335 -0.02348767 0.11112383 0.026429804
000160 1c e9 19 3d 6a d4 c6 bd 24 08 1b be df 8b 52 bd
       0.037575826 -0.097084835 -0.15139824 -0.051402923
000170 2e be 68 bd 20 87 df 3c 44 3c 96 bd 9e 37 0a 3d
       -0.056821994 0.027286112 -0.073357135 0.033744447
000180 c1 15 1a 3e ae e6 c0 bc e7 71 68 3d cc e3 96 3c
       0.15047361 -0.023547497 0.05674925 0.018419169
000190 31 e4 e5 3d 4f de 9e 3d c0 a4 c7 bc 83 32 c2 3d
       0.11225165 0.07757246 -0.024370551 0.094822906
0001a0 a5 ec c8 bc 0f 52 27 bc d6 c4 82 bd 95 4d e2 bd
       -0.024526903 -0.010212435 -0.063852 -0.11049954
0001b0 e2 7e cb 3d 18 04 9e bd 08 84 0b be 3b c9 53 bd
       0.0993631 -0.077156246 -0.13624585 -0.05170558
0001c0 5b 79 37 3d ce 28 c6 3b 03 42 7c 3d 84 97 99 3d
       0.044793468 0.0060473448 0.06158639 0.074996024
0001d0 0e 81 d1 3d ca ec 0b be 65 03 8d 3d 9f 0b b1 3d
       0.10229693 -0.13664547 0.06885413 0.08644795
0001e0 c7 a9 bf bd 82 0c aa bb 19 f6 ba 3c 7d 09 e3 39
       -0.09358554 -0.0051894793 0.022822427 0.00043303883
0001f0 b9 e9 c1 3d f6 b2 e1 3d f1 b1 02 3e 20 6c 50 3d
       0.09468407 0.11020462 0.12763192 0.050884366
000200 d1 e0 cd 3d 93 6a 35 3d 09 33 c2 bd 79 bf a5 3d
       0.10052646 0.04429109 -0.094823904 0.08093161
000210 17 17 ae 3a 06 b5 9b 3d c5 f2 e6 bd fd 20 07 3e
       0.0013282028 0.07602887 -0.11276773 0.13196178
000220 d5 d4 3d 3d a4 ee 65 3c cf ad e2 bd 7c 04 ff bc
       0.04634555 0.014033947 -0.110683076 -0.031130068
000230 bd db 80 bd c3 c7 1b 3e 31 13 18 be 40 d7 4d bd
       -0.06291912 0.15212922 -0.14851071 -0.050254107
000240 9d b5 74 bd 30 bd f8 bd 1d b0 95 3d b5 bd ed bd
       -0.059743512 -0.1214546 0.073089816 -0.11608449
000250 3f cd ae 3d be a5 12 3d a2 85 64 bd 04 9a 15 3a
       0.08535241 0.035802595 -0.055791505 0.0005706849
000260 8b 4b dd 3c 60 3e 3a bd e6 3b 9c bd cf ef bc bd
       0.02701356 -0.04546964 -0.07628612 -0.09225427
000270 8f 82 3a 3d ae 52 04 be 26 1c e1 3d 17 50 a5 3d
       0.045534667 -0.12922165 0.10991697 0.080719166
000280 4b c7 02 3e f4 53 de 3d 92 f2 bc bd 21 7a 3b bd
       0.12771337 0.108558565 -0.09225954 -0.045770768
000290 08 ee b8 3d ad cd db bc e7 49 c0 bd c1 d1 48 bd
       0.09029776 -0.026831472 -0.09389096 -0.049028162
0002a0 8f d3 ec 3d 7c c9 a9 bd 69 b4 26 3d 13 3d 04 be
       0.11563789 -0.08290383 0.040699396 -0.12913923
0002b0 f9 e5 b7 3d 52 e3 46 3d 53 9a ed 3d a5 69 d7 bb
       0.08979411 0.048556633 0.11601701 -0.006573873
0002c0 f0 8e 80 3d f4 f5 07 3e 8f b5 77 3a cc f2 c1 bd
       0.06277263 0.13277417 0.00094493566 -0.09470138
0002d0 c8 1d a7 bd be 69 8e 3d 2e 6a cc bd 2d 54 d5 bd
       -0.08159977 0.069537625 -0.0998119 -0.10416446
0002e0 9a 5f cd bd 17 3e 33 bd d3 d7 45 3c 6a 5a dc bd
       -0.10028 -0.043760385 0.012075382 -0.107594326
0002f0 45 82 77 bd 2d 68 1e 3e 16 8e 17 bd 63 1c f7 bc
       -0.06042697 0.15469427 -0.037000738 -0.030164903
000300 04 2c ac 3d 71 18 05 be d3 a5 f7 bd 31 c9 20 3d
       0.08406833 -0.12997605 -0.12092175 0.03925437
000310 e5 7b 83 3d 79 38 f8 bd 15 4e 14 3e 56 23 1d bd
       0.064201154 -0.12120146 0.14482911 -0.038363777

lstm.weight_ih_l1 f4 [200, 50]
000000 07 41 14 3d b0 3a ed 3d 2c 66 17 3d 06 c6 6d 3d
       0.036194827 0.115834594 0.036962673 0.058050178
000010 f7 0c 15 be 26 c0 17 be 0a 0f 17 3d c6 b6 1d bc
       -0.14555727 -0.14819393 0.036879577 -0.009626096
000020 7d 3d 91 3d 22 d6 64 3d 0f 93 00 be 72 ef 7d 3c
       0.07091806 0.055868275 -0.12556098 0.015498983
000030 03 96 f0 bd 87 a0 87 bd a7 6a 11 3d cf 63 8e 3b
       -0.117473625 -0.06622415 0.035502102 0.004345394
000040 a8 f3 96 bd 5f 71 06 3d dc 2a e3 3d 4e 1b 05 be
       -0.073706925 0.032822963 0.11092159 -0.12998697
000050 9b 95 05 3e f5 ea b1 3d 72 d0 db bc 12 0a 1c be
       0.13045351 0.086873926 -0.026832793 -0.15238217
000060 bb d1 3d bd e8 5e 35 3d ca e4 3f bd 54 39 0c bd
       -0.046342593 0.044279963 -0.04684905 -0.03423436
000070 27 18 31 bd 05 6c d5 3d 12 51 d8 3d 70 7e c4 bd
       -0.043235924 0.10420994 0.10562338 -0.095944285
000080 78 d0 2d bd ad ec 12 3e 92 8b bf bc a2 1b 5e bd
       -0.04243514 0.14348097 -0.023381982 -0.05422557
000090 6b d4 a1 3a 34 c3 c4 3d 2b 27 41 bb 06 d2 17 be
       0.0012346631 0.096075445 -0.0029472809 -0.14826211
0000a0 19 97 01 bd 83 e6 aa 3d ee dc 0b bd 25 8a e2 3d
       -0.03163824 0.08344748 -0.03414624 0.11061505
0000b0 f1 b6 0a 3d e7 fb 57 bc dd c4 8d 3d e8 16 06 bd
       0.033865873 -0.013182617 0.06922314 -0.03273669
0000c0 7b db d7 bd 90 1a de bd 35 9a bc bd 6d 19 30 bb
       -0.105399095 -0.1084491 -0.092091 -0.0026870624
0000d0 f0 36 f1 bd 47 a8 20 3d f4 37 d6 ba 21 03 b5 3d
       -0.117780566 0.03922298 -0.001634358 0.088384874
0000e0 7e d1 53 bc 9e bc b2 3b 39 ed f1 3c 86 76 6f bd
       -0.012928365 0.005454614 0.029532062 -0.058462642
0000f0 57 f1 b1 bd 10 71 17 be ee 2a 1a be 31 2b d0 3c
       -0.0868861 -0.14789224 -0.15055439 0.02541122
000100 66 90 7c bd b2 89 61 3d 87 9f 36 3d 8a 6a ba 3d
       -0.061661147 0.055062957 0.04458573 0.09102352
000110 78 e1 d0 38 14 ba 1c 3b cb 2b d5 3d b0 0c 1a 3d
       9.96021e-05 0.0023914622 0.104087435 0.037609756
000120 76 0b 3f 3d 6f 44 b0 bd 69 1e ac bd 54 c6 ef 3d
       0.04664179 -0.08606803 -0.08404238 0.1170775
000130 8d c6 f1 3d 4a 2d 15 bd 28 7c 2f 3d 0f e3 0d be
       0.11805449 -0.036420144 0.042843014 -0.13856147
000140 b6 5c 0d bc ca cf e7 bd a0 b3 96 3d b2 c5 f6 bd
       -0.008628061 -0.113189295 0.073584795 -0.12049426
000150 2f 9c 5b bd 4b 77 1a 3e 48 61 88 bd 71 95 d1 bd
       -0.053615745 0.15084569 -0.0665918 -0.10233582
000160 f5 36 0b 3e 85 d6 b9 bd d6 a4 4d 3d 9c e9 c5 3d
       0.13595183 -0.090741195 0.050206028 0.09663698
000170 63 8b a5 3c ab cd a8 bd 8d fc e1 3d 68 7e 48 3d
       0.020208066 -0.08242353 0.11034498 0.048948675
000180 b0 7f 8e bd 35 aa ca bd 94 73 47 bc bd 64 84 3d
       -0.06957948 -0.09895746 -0.012173552 0.06464527
000190 60 3b 94 3d a0 cb 1b 3d 14 d3 a0 3d a7 10 23 3e
       0.072378874 0.03803599 0.0785276 0.15924321
0001a0 51 25 85 3c 60 30 0d 3d bb ed 75 3d ff 40 0b 3c
       0.016253145 0.034469962 0.06004117 0.008499383
0001b0 24 87 3c bc 36 59 dc 3d 45 84 a6 3d 4f 0f a4 3d
       -0.011506829 0.10759203 0.08130697 0.080107324
0001c0 da e2 82 bd e3 cc 75 bd c9 a9 a1 bd df 84 cf bd
       -0.06390925 -0.06000985 -0.07893712 -0.10132765
0001d0 47 b4 01 bb 58 18 76 3d f2 97 1b 3d 97 30 41 bd
       -0.0019791292 0.06008181 0.037986703 -0.04716548
0001e0 ad 7f 88 bc 9e 46 c2 bd 8c 71 e2 bd 9c 68 af bb
       -0.016662443 -0.094861254 -0.110568136 -0.0053530466
0001f0 0c 02 84 bd a3 61 b5 3c d8 d3 09 3e c7 31 54 3d
       -0.06445703 0.022141283 0.13459718 0.051805284
000200 7d f9 02 3e db b6 d7 bd da 85 71 bc f2 a1 f5 bd
       0.12790485 -0.10532924 -0.014741385 -0.11993779
000210 85 9f bf b9 85 cd ac bd c9 6b e7 3d 75 70 d0 bd
       -0.0003654921 -0.08437637 0.11299855 -0.101776995
000220 0b a0 e2 3c 5b ff d5 bd d3 bb 54 3d d9 0d a3 bc
       0.027664205 -0.10449096 0.051936936 -0.019904064
000230 b6 62 12 3b 88 1e 1a bd 11 1c a1 3d 87 d8 2c bc
       0.0022336668 -0.037626773 0.07866681 -0.010549671
000240 c4 04 f6 bb 3c 6e 7b bd d7 a6 aa bd 0b 72 9d bd
       -0.0075078923 -0.061384425 -0.083326034 -0.076877676
000250 a9 64 16 3e 22 b9 19 3e 13 67 a6 bd 72 cc 98 ba
       0.14686836 0.15012029 -0.081251286 -0.0011657609
000260 a6 7e 17 3d 5d 72 e1 3d 1f 56 16 3d 10 08 a1 3c
       0.036986016 0.11008141 0.036703225 0.019657165
000270 9b cd d3 bc cd 6b 33 3d f0 36 fd bd 5a 48 02 be
       -0.025854876 0.04380398 -0.12363994 -0.12722912
000280 99 2a 49 bb 18 cf af bd c1 60 b0 bd 8e f5 28 bd
       -0.0030695556 -0.08584422 -0.08612204 -0.041249804
000290 c6 6f 8c 3d c0 62 6b 3d 4a 29 56 bd a5 40 9a 3b
       0.068572566 0.057467222 -0.05228547 0.0047074133
0002a0 4f 70 f1 3d 0e 23 f5 3c fd 7f b2 3d 4c 36 91 bd
       0.11788999 0.029923942 0.08715818 -0.070904344
0002b0 b1 e8 e7 bd d6 37 7f bd eb b2 35 bb bb f6 3a bd
       -0.11323679 -0.06230911 -0.0027725052 -0.045645457
0002c0 ac 85 b9 bd ca c6 f6 3d 6d e1 14 be f9 e6 55 3c
       -0.09058699 0.12049635 -0.14539118 0.013055556
0002d0 6c 02 92 3d fa d9 54 bd 86 20 8d 3d 45 bd 70 bc
       0.07129368 -0.05196569 0.06890969 -0.014693563
0002e0 88 80 8d bd 47 85 bb bd d0 0f 4e bd 8b 54 f7 bd
       -0.06909281 -0.0915628 -0.05030805 -0.12076672
0002f0 76 c2 b0 3d d1 41 14 3e a6 3c b1 bd b3 cc f2 bb
       0.086308405 0.14478232 -0.08654146 -0.007409656
000300 97 92 83 3d ed c6 df 3c 7d 42 85 bd bc 24 91 bd
       0.06424444 0.027316535 -0.06506822 -0.07087085
000310 2f b0 fb 3d 80 52 c7 3d 52 55 ed 3d 7c a4 a9 3d
       0.12289464 0.097325325 0.11588539 0.08283326
000320 81 a9 fb 3b 5c fd f2 3d db 88 a1 bc 51 c9 8a 3c
       0.0076801185 0.11864731 -0.019718578 0.016941698
000330 8a 69 a0 bd 2f 68 b8 3d 58 35 3c bd 81 46 ed 3a
       -0.0783263 0.090042464 -0.04594931 0.0018102677
000340 df 74 02 be 46 51 f3 3c ef 06 aa bd 23 9b 3a bd
       -0.12739895 0.02970184 -0.08302104 -0.045558106
000350 fb ad bb bc 86 5e 8a 3d 2e 0a ed 3b a5 40 27 3d
       -0.022910109 0.0675631 0.0072338795 0.040833134
000360 22 91 a8 bd 57 b6 00 be 1b 4c 8a 3d a3 62 33 bd
       -0.08230807 -0.12569557 0.06752797 -0.04379524
000370 29 19 f6 bd 3f 42 39 bd 3d 6f 21 be 35 3e 9d 3c
       -0.12016518 -0.045229193 -0.1576509 0.019194702
000380 77 71 e2 3c d2 40 0c 3e c0 e5 78 bd 09 74 6a bd
       0.027641995 0.13696602 -0.06076598 -0.057239566
000390 e4 a1 57 3d 4c 2f 49 bd 0d 66 bd 3d 65 ae 22 3d
       0.052644625 -0.04911737 0.0924798 0.039717097
0003a0 84 30 d0 b9 f1 5c 10 bd af 32 88 3d 98 25 44 bd
       -0.00039708999 -0.035244886 0.06650292 -0.047887415
0003b0 d9 bb 16 3d 04 2e 9a 3d 3a 9d d0 bd 14 2c 13 be
       0.03680024 0.07528308 -0.101862386 -0.14372283
0003c0 fb 34 76 bd fb 15 ad 3d 18 88 c1 bd fe 20 e6 3c
       -0.06010912 0.08451458 -0.09449786 0.028091904
0003d0 a3 91 2a 3b 94 52 3f 3c f8 c3 59 bd 42 33 4a bc
       0.0026026748 0.011677403 -0.053165406 -0.012341322
0003e0 16 61 eb 3d f6 19 b7 3d 34 7f 12 3d 4b 22 d5 bd
       0.11493127 0.089404985 0.03576584 -0.104069315
0003f0 34 b8 53 3d cf b2 45 bd d5 e5 a7 3d 83 11 58 3d
       0.05168934 -0.04826623 0.08198134 0.052751075

lstm.weight_hh_l1 f4 [200, 50]
000000 03 24 3e bd 99 32 60 bd 47 93 08 be 16 99 84 bc
       -0.046421062 -0.054735754 -0.13337432 -0.016186278
000010 be c4 6c 3d bf 29 8e bd 7a f4 c5 bc 92 4e f6 3d
       0.057804815 -0.06941556 -0.024164427 0.12026705
000020 f4 90 91 bd 99 da 63 3d 47 be 37 bd 99 9e d2 3d
       -0.07107726 0.055628393 -0.044859197 0.10284156
000030 12 7f d6 bc 89 ec 06 3e ac ae 79 bd a1 ab eb bd
       -0.026183639 0.13176169 -0.060957596 -0.11507345
000040 eb fa 97 3c 43 88 ae bd 64 92 85 bd cd f4 e8 3d
       0.018552264 -0.085220836 -0.065220624 0.11374817
000050 dd da fc 3d 4f 5f a0 bd be be 1f be c8 7a e7 3c
       0.12346432 -0.07830679 -0.15600106 0.028256789
000060 bd 41 d6 bd 1d 27 d0 bc 4c da 35 3d e4 3a 29 3d
       -0.10461757 -0.025409276 0.044397637 0.041315928
000070 8d b0 e1 3b c0 7d 4a 3d dc 67 a7 bd 95 44 f9 bc
       0.0068875016 0.04943633 -0.081741065 -0.03042821
000080 81 5f 02 bd f7 63 01 be 5c ba a1 bd 2c 2a 09 3d
       -0.03182936 -0.1263579 -0.07896873 0.033487484
000090 87 f3 bf 3c 0b eb 6c bd bf 37 d4 3d 39 60 81 bd
       0.023431553 -0.057841342 0.10362195 -0.06317181
0000a0 4e 47 cb bb fd 30 df 3d c9 7e ca 3d e5 0f f0 3d
       -0.0062035685 0.10898016 0.098874636 0.11721782
0000b0 d8 b9 11 3d a5 bc e4 bd 2a 4a 0c bd 7f 71 d8 bc
       0.035577625 -0.111687936 -0.034250416 -0.026421307
0000c0 d3 e1 f0 bd 7e ab 8a bd ac b9 f1 bd d5 3e af bd
       -0.117618226 -0.06770991 -0.11802992 -0.08556906
0000d0 df 5e 23 be 59 8d f7 3d 49 1d 8d 3b e0 4a 12 3e
       -0.15954159 0.12087507 0.0043064696 0.14286375
0000e0 a0 e0 7c 3d 5e 4f 21 3e 18 02 be bc 6b 9b 48 bd
       0.061737657 0.15752932 -0.023194358 -0.048976343
0000f0 b1 28 8f bd 02 db 16 be a3 58 dd bc ff 3c 1a 3d
       -0.06990183 -0.14731982 -0.027019804 0.037655827
000100 28 6f 7b 3d 71 3e 1f bd c6 4e 84 3d ec 1f 51 3d
       0.061385304 -0.03887791 0.06460337 0.051055834
000110 b4 b9 34 3d f9 23 5b 3d a4 7c 88 bd 4e aa c4 3d
       0.044122413 0.053501103 -0.06664398 0.096027955
000120 ea b4 1e be 17 37 c2 ba a9 d0 bf 3d 87 8b dc 3d
       -0.154987 -0.0014817443 0.09365971 0.107688
000130 09 e0 36 3d e4 1f 12 bd 7d 61 a8 3d ae 4f 19 be
       0.04464725 -0.035674945 0.082217194 -0.14971802
000140 32 be c1 bc 3a f1 0e bd fb a1 d7 3d 69 d0 12 3e
       -0.023650263 -0.03489802 0.10528942 0.14337315
000150 d4 d4 35 bd 73 39 43 3d 3a 5d 1c bd c8 1c ef bc
       -0.04439242 0.04766221 -0.038174845 -0.029188529
000160 79 f2 59 3d 8b 55 53 3d d0 bc ac bd f8 00 6f 3c
       0.053209756 0.051595252 -0.084344506 0.014587633
000170 0a 53 0e 3e 24 67 e6 bd 8b 69 96 bc 20 ae 11 be
       0.13898864 -0.11250141 -0.018360874 -0.1422658
000180 14 d5 97 bc 0a 7c 1c 3e a9 4e 9b 3d 10 8e 1b be
       -0.01853422 0.15281692 0.075833626 -0.15190911
000190 6a 43 e5 bd bc 32 52 bc 0e a0 0b bd a2 24 b4 3d
       -0.11194499 -0.012829479 -0.034088187 0.0879605
0001a0 a2 b0 5b bd 31 8a ed 3d 91 3e d2 bd e1 8f df bb
       -0.053635247 0.115986235 -0.1026584 -0.0068225716
0001b0 f6 50 81 3c 42 80 5c bd 44 77 5c bb 13 0f 4d bd
       0.015785675 -0.053833254 -0.0033640424 -0.050063204
0001c0 d6 82 ae bd ab 01 bd bd 1c ec 9a bc 7c b9 ff 3d
       -0.08521049 -0.09228834 -0.018911414 0.1248655
0001d0 73 5f 97 3d ce 83 da bd a8 30 8d bd 0d 37 e4 3d
       0.07391252 -0.10669671 -0.06894046 0.111433126
0001e0 ec e5 76 bd 06 f7 af 3b 55 33 ac bd a4 7e 4e 3d
       -0.060277864 0.0053700237 -0.08408228 0.050413743
0001f0 b1 f8 9d bd ab a2 ec bd e3 cd fb bd ed 3f 09 be
       -0.0771345 -0.11554464 -0.12295129 -0.13403292
000200 fb ac 8d bb 7e 73 c4 3b 5a 91 33 bd ef c2 a0 3d
       -0.0043235994 0.005995213 -0.04383979 0.07849681
000210 50 cd 02 3d c9 b2 59 3d f0 e4 95 3d 03 0f 41 3d
       0.031934083 0.05314902 0.07319057 0.047133457
000220 cb 3f f9 3d ac 59 df 3d a0 fd a3 bd 35 a8 fb 3d
       0.12170371 0.109057754 -0.080073595 0.12287942
000230 e0 a1 09 bd dc 42 c7 bc 4d bc 83 3c a4 20 0a be
       -0.03360164 -0.024323873 0.016081 -0.13489014
000240 e6 0d b9 3d 4b eb 97 3d a5 53 1f 3e 66 32 36 3d
       0.09035854 0.074179254 0.15559252 0.044481657
000250 78 4e 64 bd cd 03 1d bd a0 77 74 bd 1f 41 e6 bd
       -0.055738896 -0.038333703 -0.059684396 -0.112428896
000260 61 c8 86 3d 7d 1b 0d 3d ba e7 d5 bc 38 43 b2 bd
       0.06581188 0.034450043 -0.026111472 -0.08704227
000270 cf fd 87 bc df bc c6 3c a4 1b bb 3d d1 2c 34 3d
       -0.016600518 0.024259983 0.091361314 0.043988053
000280 39 b6 e9 3d 4a 43 02 3e b2 a6 5d bd b6 c0 7f bc
       0.11411709 0.12720981 -0.05411405 -0.015609911
000290 c4 97 d2 bd 06 3f 8f bd 02 03 24 3d 0a 03 7e 3d
       -0.10282853 -0.06994443 0.04004193 0.062014617
0002a0 84 11 45 3d 4d 0c d7 3d eb 50 8d 3d b4 8d af bd
       0.048112407 0.10500393 0.069001995 -0.085719496
0002b0 19 69 66 bc 3e ee e3 3c ec c3 67 3d 42 c2 b8 bd
       -0.014063143 0.027823564 0.05658333 -0.09021427
0002c0 b4 73 3b bd a8 ae 87 3d 26 78 81 3d 6c e0 15 3e
       -0.04576464 0.0662511 0.063217446 0.14636391
0002d0 b1 f2 da 3d cd ae a1 bd 07 6d 07 3d 73 b2 d1 bd
       0.10690821 -0.07894669 0.03306296 -0.102391146
0002e0 4f 2c 88 3b f9 b7 f0 bc 18 69 3a 3d bb 4b e7 3d
       0.0041556726 -0.0293846 0.04551038 0.11293741
0002f0 f7 4d d1 bd 0f 11 e7 3d 22 58 e3 3d 2a 8f 64 bd
       -0.10219949 0.112825505 0.111007944 -0.055800594
000300 6e 2b 47 bd e4 9f 93 bc c9 74 a4 3d 24 8b c0 bc
       -0.048625402 -0.018020578 0.080300875 -0.023503847
000310 81 c8 15 3d b7 b8 91 bd 95 d6 01 3e 82 70 a7 bb
       0.03656817 -0.0711531 0.12679513 -0.0051098475
000320 8d d8 18 3e 49 ea fb bd b8 08 68 bd 7b 90 96 3d
       0.14926358 -0.12300546 -0.05664894 0.07351776
000330 46 a8 f7 3c cd 26 6f bd 9b 45 09 be b3 68 b5 bd
       0.030231606 -0.058386613 -0.13405459 -0.088578604
000340 2f 01 cd bd 44 7b 75 bd 43 a7 c7 bd 27 ce 74 bd
       -0.100099914 -0.05993201 -0.097486995 -0.059766915
000350 e4 2a d7 3d 51 36 9a bc 2f d7 d7 bd 4c 24 76 3d
       0.105062276 -0.018824728 -0.1053909 0.06009321
000360 1b 1c 85 bd 36 74 93 bd fe c7 2a bc 84 89 da 39
       -0.06499501 -0.071999 -0.010423658 0.00041682657
000370 0f 28 c7 bd 78 e5 c1 bd 42 16 1c be e9 f8 9c bd
       -0.097244374 -0.09467596 -0.15242866 -0.07664663
000380 1b 3e b7 3d b5 68 e6 3c 67 98 c1 3d 5e d3 38 3c
       0.089473926 0.0281261 0.094528966 0.011280863
000390 c6 c4 fc bd c2 92 58 bb fa 1b 0b bd fe 5b cb 3d
       -0.12342219 -0.003304646 -0.033962227 0.099296555
0003a0 16 d9 66 3d 37 f8 21 3e eb 9a 04 be 90 1d 4c bd
       0.056359373 0.15817343 -0.12949722 -0.04983288
0003b0 5a 48 0d be 84 cc a2 3c 05 cc b8 bd 6b 51 2b bd
       -0.13797131 0.019872911 -0.09023289 -0.041825693
0003c0 6c ba ee 3d 19 02 84 bd 2a c1 9a 3d d3 bc 99 3d
       0.11656651 -0.064457126 0.07556374 0.075067185
0003d0 3f 5d d1 3d 3a 84 c7 3d 3d 6c d7 3d 1f d1 02 3d
       0.102228634 0.09742017 0.10518692 0.031937715
0003e0 ce 47 d1 3d 0d eb f6 3d 6e e6 aa bd 09 2e af 3c
       0.10218774 0.12056551 -0.08344732 0.021384256
0003f0 9c 5d b6 3d fa 2d d1 bd ce 13 28 3d 8b 77 d5 3d
       0.08904573 -0.102138475 0.041034512 0.10423192

lstm.bias_ih_l1 f4 [200]
000000 d2 e5 0f bd a8 55 c2 3c a7 a9 2c 3d 3f 84 fe 3d
       -0.035131283 0.023722485 0.04215398 0.12427568
000010 88 da 89 3b 0b f3 bc 3d 41 71 ba 3d c0 ac 6a 3b
       0.004206959 0.09226044 0.09103633 0.0035808533
000020 f1 fb 72 bc bf 58 10 be b4 0d 49 3b ad fe e5 bd
       -0.014830575 -0.14096354 0.0030678334 -0.11230216
000030 d1 df c7 3c 37 e7 bc bd 4a c2 37 bc 75 17 cb bd
       0.024398716 -0.09223788 -0.011215756 -0.099165834
000040 24 4c 95 3d 95 bc 94 3d 1a 4d 45 bd 32 01 f8 bd
       0.07289913 0.07262532 -0.048169233 -0.12109603
000050 12 1c 88 bd 9b 5a 05 3e 5c 15 fe 3d 8f 06 a9 bd
       -0.06645979 0.13022844 0.12406418 -0.08253204
000060 00 61 fd 3c 1b c4 23 3d fa 58 cf bd 34 ac 17 bd
       0.030930042 0.039981943 -0.10124393 -0.03702946
000070 a1 68 ef 3d 8d 6a fa 3d d8 b7 49 3c f0 03 fb bd
       0.11689878 0.12227354 0.012311898 -0.122566104
000080 7e 6c f7 3c ae 28 24 3d 92 a0 31 3d 5d a4 d1 3c
       0.0302031 0.040077858 0.043366022 0.02559107
000090 3a 85 c5 3d 89 ba 71 bd 77 07 0a be 0c 67 8e bd
       0.096445516 -0.059015784 -0.1347941 -0.069532484
0000a0 41 07 43 bd 5c 3e a4 bd 34 c6 18 be a7 c6 5a 3d
       -0.04761434 -0.080197066 -0.14919358 0.053412106
0000b0 9b d2 f8 3d 15 ca 60 3b 0f c4 9e bc 5a db 9d 3c
       0.12149545 0.0034300138 -0.019380597 0.019269634
0000c0 e5 8e f8 bd 20 7d a6 bd 1b 53 80 3d 49 dd b3 bd
       -0.1213663 -0.081293344 0.06265851 -0.08782441
0000d0 18 81 12 3e 30 33 c8 3d 44 59 9a bd e3 9a 0b ba
       0.14307058 0.09775388 -0.07536557 -0.0005325509
0000e0 b8 7c 0b 3e 81 50 09 3e 13 73 1a 3e dd aa e1 3d
       0.13621795 0.13409616 0.1508296 0.11018918
0000f0 8d 91 a7 3d 00 f3 61 b9 c0 cd 11 3e d4 32 9e 3d
       0.081820585 -0.00021548197 0.14238644 0.077245384
000100 18 de c9 bd df 53 2e 3d 40 bc 21 3e 2e 0a 86 bd
       -0.09856814 0.042560454 0.15794468 -0.0654491
000110 d0 98 b7 bb 23 c9 c6 bc 5d 98 2c 3d 11 48 1d 3e
       -0.0056029335 -0.024265831 0.042137492 0.15359522
000120 85 20 37 3c 85 98 90 bd ce ae 9c 3d bb 08 0e 3d
       0.011177187 -0.07060341 0.07650529 0.034676295
000130 38 0b b0 bd 36 75 ee 3d 2b c3 4b 3d 5d ed 1e 3c
       -0.0859589 0.1164345 0.049746674 0.0097001465
000140 c1 e9 51 3d 83 4d 97 bd 99 cf c7 3d 29 3a f8 bd
       0.051248316 -0.07387831 0.09756393 -0.12120468
000150 3f a5 9b 3d 78 cd 13 3e 0a 3c bf 3d 1b 19 79 bd
       0.075998776 0.14433849 0.093376234 -0.060814958
000160 f4 ea 8d bd 01 81 ca bd eb a4 d7 bc 4d 3a 0f 3d
       -0.069295794 -0.09887887 -0.026323756 0.03496771
000170 10 9b ef bd 87 9a bb 3d 3a 73 ca bc 42 6f 3b bd
       -0.11699498 0.09160333 -0.024713147 -0.0457604
000180 dc 94 98 bd f1 3d d8 3d a9 7c 9a bd c5 16 92 bc
       -0.07450268 0.105586894 -0.07543308 -0.017833123
000190 7b a1 bf bd 47 a1 e7 bd c3 e4 08 be 50 72 82 bb
       -0.09356972 -0.11310058 -0.13368516 -0.0039809123
0001a0 8e 36 cc 3d 3d 86 3b bd a0 e2 12 be 16 09 e0 3d
       0.09971343 -0.045782316 -0.14344263 0.10939233
0001b0 d1 83 56 3d d8 ee 05 3d d4 e8 bd 3d b9 94 95 bd
       0.052371804 0.032698482 0.09272924 -0.07303757
0001c0 d3 5d 20 be 15 2e 90 3d 00 45 8f bd a7 8b d6 bd
       -0.15660791 0.070400394 -0.069955826 -0.10475855
0001d0 0c bb 1e 3e fb b7 59 bd 99 db 93 3d 01 38 57 3c
       0.1550104 -0.053153973 0.07219619 0.013135911
0001e0 c5 1d c2 bd 53 3f 44 bc 62 5c 44 3c 2a 14 c6 bc
       -0.09478334 -0.011977988 0.011984916 -0.024179537
0001f0 29 59 0a 3e e5 7b b0 bb 3e 6f d5 bd 8b 06 84 3d
       0.13510574 -0.005385863 -0.104216084 0.064465605
000200 67 56 9e 3d 86 47 d7 bb d6 31 37 3d 86 a3 71 3d
       0.07731324 -0.0065698056 0.04472526 0.05899384
000210 46 c0 2c 3d 29 a2 ce 3d f8 41 bc 3c b9 20 f6 3d
       0.042175554 0.10089523 0.022980675 0.1201796
000220 14 db 00 be ef ff 9b bd 58 1b dc 3d cc 49 c3 3d
       -0.12583572 -0.07617175 0.10747403 0.0953556
000230 77 82 da 3d 5b 73 75 bd 02 d3 a7 3d fa b3 40 bd
       0.106694154 -0.059924465 0.081945434 -0.04704664
000240 e8 cd d0 3d 49 08 9a 3d c0 77 91 3d cd 68 34 bd
       0.101955235 0.075211115 0.071029186 -0.04404526
000250 54 05 a2 bc 58 de c4 3d 41 bc 16 3e 6f ff bf 3d
       -0.019777931 0.09612721 0.1472025 0.09374892
000260 d1 5a 16 3d fa f1 33 bd a5 9a 14 bc b0 f1 f2 bd
       0.036707703 -0.04393194 -0.009070073 -0.118625045
000270 10 4c 26 3c 12 f5 b8 3d 6f 33 f2 bc 06 38 6e bc
       0.010149971 0.090311185 -0.029565541 -0.014539724
000280 2b c2 c9 3c b2 ed 0c be 41 b6 53 3c fe 7e e9 bd
       0.02462872 -0.13762549 0.012921871 -0.11401175
000290 a9 c4 f3 b9 81 38 05 3c dc 02 09 3e 9e 01 aa 3c
       -0.00046495095 0.008131147 0.13379997 0.020752724
0002a0 01 d0 e0 bd 0a 92 e0 bd b3 4c a2 3d 83 f6 4a bd
       -0.109771736 -0.10965355 0.079247855 -0.0495515
0002b0 53 28 59 bd 72 1e 8b 3c 6a 0f 64 3b 64 b0 d4 bc
       -0.05301697 0.01698229 0.0034799227 -0.025963016
0002c0 8f d4 cd bc 63 71 ae 3c b5 5d ed 3d 20 b3 7a 3d
       -0.02512577 0.021294301 0.11590139 0.061205983
0002d0 58 ad 86 bd 57 69 26 3d 55 72 98 3b a2 2e b4 3d
       -0.065760314 0.040627804 0.0046523013 0.08797957
0002e0 70 b1 3e 3c bb b0 1c 3e 86 cd 07 3e b3 94 09 3c
       0.011638984 0.15301792 0.13261995 0.008397269
0002f0 8c 41 9e 3c 6e 77 8a bd 91 59 ff bc 5b 7d e2 3c
       0.019318365 -0.06761061 -0.031170638 0.027647665
000300 18 66 ce bc 67 01 b8 bd 29 3c 34 bd 19 b1 06 be
       -0.025195166 -0.089846425 -0.044002686 -0.13153495
000310 ad f9 8a ba 97 e2 f9 3d 4a 43 bf bd e2 bf 52 bb
       -0.0010602974 0.12201422 -0.09339006 -0.0032157828

lstm.bias_hh_l1 f4 [200]
000000 37 3e 9d ba 83 af 0e 3e f4 80 a9 bd a4 0e 5d 3d
       -0.0011996691 0.1393414 -0.08276549 0.05396904
000010 d9 82 43 bd 52 86 05 bd 52 9e b6 bd 3d d3 b5 bd
       -0.047732208 -0.0325988 -0.08916916 -0.08878181
000020 88 bf 84 3d 7b 45 0d bd 65 65 ba bd 12 a5 8c 3d
       0.06481844 -0.03449009 -0.09101371 0.06867422
000030 ab 8a fd 3d db 2c e1 3d 0f 0f fe 3d 98 5a 8e bc
       0.123799644 0.109948836 0.12405216 -0.017377183
000040 a1 29 be bc 49 7e c3 bd 34 89 1b bd 6f 1e 8a bd
       -0.02321321 -0.09545571 -0.037972644 -0.06744086
000050 f6 d6 be bc 67 b0 ce 3d 91 0b fd 3c cc 6c c5 3d
       -0.02329586 0.1009224 0.030889304 0.09639892
000060 cb f4 e6 bd 48 37 15 bd 5c e0 2e 3d 55 c1 87 bd
       -0.11277159 -0.036429673 0.042694435 -0.06628672
000070 7b 12 a5 bd 53 df 96 bc 49 87 82 3d 99 63 f5 3d
       -0.080601655 -0.018417036 0.0637346 0.11981887
000080 7d bc c8 3d 02 c8 a9 bd 83 59 ab 3b a7 c9 be 3c
       0.09801576 -0.082901016 0.0052291765 0.023289515
000090 79 e7 a6 3c 8e 01 3e bd db a5 06 be 1b a4 1a 3d
       0.020374047 -0.0463882 -0.13149206 0.03775416
0000a0 cd 92 cb bc 36 ea 79 bb 52 41 52 3d 09 a7 eb bc
       -0.024850274 -0.0038133985 0.051331826 -0.028766172
0000b0 33 1e 98 bd a3 02 19 be a7 b1 73 3c 8b bb 67 3c
       -0.07427635 -0.14942412 0.014873899 0.014143835
0000c0 9c 22 4e bd 7e e5 9f 3c 5e 20 8d 3d 09 b1 09 3e
       -0.050325975 0.01951861 0.06890939 0.1344644
0000d0 3d a6 dc 3c 7d 39 82 3c 9a 04 75 3d dc 58 12 3e
       0.026934737 0.015896553 0.05981884 0.1429171
0000e0 fe b9 13 bd 01 75 71 3c 1b 8d d0 bd 89 ea d0 3d
       -0.036066048 0.014737369 -0.10183164 0.10200984
0000f0 b1 25 83 bb f6 94 87 bc b9 72 7b 3d 10 bb 60 bd
       -0.004002296 -0.016550522 0.061388705 -0.054865897
000100 bb ac 90 3b f9 b9 e5 bd 86 e5 d1 3c ea 16 09 be
       0.0044151223 -0.11217112 0.02562214 -0.13387647
000110 b2 18 06 be b4 f1 13 bd 2d 2f d1 bc 3d 4a fa 3c
       -0.13095358 -0.036119178 -0.02553519 0.030552978
000120 cd fe 94 bd 68 1e 17 3e ba 26 18 3e e7 24 f2 bd
       -0.07275162 0.14757693 0.14858523 -0.11823445
000130 37 b8 3f bd 12 b0 07 be 54 fb fa 3d 72 99 25 bd
       -0.04680654 -0.13250759 0.12254968 -0.04042954
000140 bb f9 7d 3d 2b b5 f3 bd 9f e3 b4 bc 0b 9b 34 3d
       0.06200574 -0.118997894 -0.022081194 0.044093173
000150 2d 16 0a 3d 74 5f db 3c 8e 79 c2 3d dc 1a 85 bd
       0.033712555 0.026778914 0.09495841 -0.06499264
000160 4e df e1 bd c3 b3 e5 3d 68 31 b5 bd 87 0e 35 bd
       -0.1102892 0.112159275 -0.08847314 -0.044203307
000170 f1 c0 7a 3d 60 a8 23 3d 08 36 62 3d e9 b6 16 be
       0.06121916 0.039955497 0.05522731 -0.14718212
000180 8c fd e2 bd 96 c0 ee 3d c4 90 c0 3d 41 37 1c 3d
       -0.110835165 0.116578266 0.09402612 0.03813863
000190 db d5 13 3e da 82 36 bd ab be c6 3d 92 93 a4 bd
       0.14437048 -0.044558384 0.09704336 -0.08035959
0001a0 0a 8b 07 be 58 3c 78 3d eb d5 c5 bd 27 1a 41 3d
       -0.13236633 0.060604423 -0.09659942 0.04714408
0001b0 60 a3 9b 3d 6c 95 e5 3d 7e 19 fa bd 92 c5 8a bd
       0.07599521 0.112101406 -0.122118935 -0.06775965
0001c0 e3 6d 8b 3d df 44 01 bb fd 5c ba 3b b7 6d 4a bc
       0.068080686 -0.0019724888 0.0056873546 -0.01235526
0001d0 cb 46 19 3e 20 40 ad bc a5 b7 31 bd 3c 4b 0e 3e
       0.14968412 -0.021148741 -0.043388028 0.13895887
0001e0 cf ad 29 bc 47 12 bb 3d ec 1d a8 bd 78 8d 41 bc
       -0.010356381 0.091343455 -0.08208832 -0.011813514
0001f0 e0 5f 3b ba 4f e1 b4 3d eb 34 91 bd b9 47 cd bd
       -0.00071477704 0.08832037 -0.070901714 -0.10023446
000200 d2 fd 22 be 06 c3 a8 bd 1a 08 dc bc 82 16 f1 3a
       -0.15917137 -0.08240323 -0.026859332 0.0018393549
000210 00 61 16 3e eb 3e b3 3d a4 af 5f bd 4d d1 f7 bb
       0.1468544 0.08752235 -0.054610863 -0.0075627924
000220 36 87 49 3d 1f 14 e3 3d 30 2c b4 bd 78 c6 0a 3c
       0.049201213 0.11087822 -0.087974906 0.00847017
000230 a3 57 f9 bd 42 f9 7a bd 3c 71 01 3d f1 7d 6b bc
       -0.121749185 -0.061272867 0.03160213 -0.0143732885
000240 e8 53 01 be 29 46 c8 bd fc e6 89 3d 2f f3 c4 3d
       -0.12629664 -0.09779007 0.0673351 0.09616696
000250 27 10 8f bd 34 f5 ee bd 85 86 c4 bd 77 c2 f4 3d
       -0.06985503 -0.116678625 -0.0959597 0.11951154
000260 e7 75 09 bc 3f 50 ba 3d d7 f0 07 3e a1 41 a1 bd
       -0.0083899265 0.09097337 0.13275467 -0.07873846
000270 00 81 b8 bd bb 02 ae bd 0d aa 01 3e 27 26 f3 bd
       -0.0900898 -0.084966145 0.12662525 -0.11872511
000280 91 7d bb bd c6 f8 ae 3d c2 de 9c bd 39 86 d3 bd
       -0.09154809 0.085435435 -0.07659675 -0.10328335
000290 47 c2 86 bd 12 5d cf bd ac 18 23 3e fa 3e a3 3d
       -0.06580024 -0.10125174 0.1592738 0.07970996
0002a0 43 b8 f0 3d 49 8f e9 3d c8 a6 06 3d 6a 18 9c bb
       0.11753895 0.114042826 0.0328739 -0.0047636526
0002b0 02 9f aa 3c 6e 1f 39 3d da 2a c9 3d 5c ef cb 3d
       0.020827774 0.04519599 0.098226264 0.099577636
0002c0 e8 d2 c4 3d 38 6b 74 bd 82 a8 07 3e 56 92 81 bd
       0.0961054 -0.059672564 0.13247874 -0.063267395
0002d0 d9 9c fb 3c f2 07 be 3c c3 40 dc 3d 0f a6 17 3d
       0.03071444 0.023197148 0.1075454 0.0370236
0002e0 98 6e 33 bc 83 1a 82 bb e0 b5 82 bd 98 43 af 3d
       -0.010951661 -0.0039704456 -0.06382346 0.08557814
0002f0 53 63 be 3d fc 53 9e 3d 96 ca 91 bd 4b 41 7c 3c
       0.09296288 0.077308625 -0.07118718 0.015396426
000300 bd 14 64 bd 6b 02 94 3d 6d ba 8f 3d fd 46 ee 3d
       -0.05568384 0.07227024 0.0701798 0.11634634
000310 ad 38 b5 3d 88 27 e1 bd a8 20 cb bd e4 92 90 3d
       0.08848701 -0.10993868 -0.09918338 0.07059267

fc.weight f4 [1, 50]
000000 21 d3 06 3e 76 e3 00 be 77 d9 c1 bd 93 67 2f 3d
       0.13166477 -0.1258677 -0.09465306 0.042823385
000010 37 66 a6 bd b2 3c e8 3d e7 f1 a2 bd 4e ac e2 3d
       -0.08124965 0.11339702 -0.079562955 0.11068021
000020 51 63 8b 3d aa 56 a1 bc 4d 8c de bd bb ae 95 3d
       0.068060525 -0.019694645 -0.10866604 0.07308718
000030 27 55 12 be 6b dd 6e bd bd 92 12 be 77 28 f7 3d
       -0.14290296 -0.05831663 -0.14313789 0.12068265
000040 7b c3 fd 3c eb fc 02 bd d1 ed 65 3d 2a 34 18 3e
       0.030977001 -0.031979483 0.056135003 0.14863649
000050 b0 6e 76 3d 58 1e 0a 3e 58 58 d3 bd ee 64 c1 bd
       0.060164154 0.13488138 -0.103195846 -0.09443079
000060 eb b7 f4 3d 33 86 b7 3d ae 41 da bc f4 2b c6 3d
       0.11949142 0.08961143 -0.026642647 0.09676352
000070 1b d1 0a be 11 d4 8f 3d 8a b4 bc bd 40 86 9a bd
       -0.1355633 0.0702287 -0.092141226 -0.075451374
000080 99 fa 25 3d f0 09 fd 3d 49 14 ac 3d af 93 0a 3d
       0.04052219 0.12355411 0.084023066 0.03383225
000090 ae 6d 52 3d e7 17 71 bd 3c fb ef 3d 60 42 d5 3d
       0.05137413 -0.058860686 0.11717841 0.10413051
0000a0 32 25 00 3d 0b a9 fe 3d 7d 6c d5 bc f8 b5 b0 bd
       0.031285472 0.12434586 -0.026052708 -0.08628458
0000b0 ce 19 b4 bd ab 93 30 3d a9 2c c1 bd ae fa 9c 3c
       -0.08793984 0.043109577 -0.094323464 0.019162502
0000c0 77 0c e8 3d 4f 29 b5 bd
       0.113305025 -0.088457696
