models/daily_model_XRP_USDT.pth (torch, 128277 bytes, 9 tensors)

lstm.weight_ih_l0 f4 [200, 1]
00000000: d2c1 d43c 49f6 92bd 3a81 0bbd 4cd1 a63d
00000010: 543f c43d b71f ebbd 8e70 f1bd 042d ac3d
00000020: 394b 3e3d b3f6 b6bc ab33 a8bd 3519 f33d
00000030: 3639 d63d a92c 99bd 3047 e63d 262a ff3d
00000040: adfb 993c fd4e 123c 222d 38bd e432 233e
00000050: a31b a43d 000b c13d 2c96 e63d 6418 acbb
00000060: 0e3c 7f3c c07a d73d 83c3 083e bf4e fe3c
00000070: ffb3 183c 7b3c 863b b8f7 c23c bc7a c93d
00000080: 7518 f83d b05b 6dba 2b39 b2bd 81be 813c
00000090: 6af5 2a3b 4bc7 253e ea3d efbd a5e6 993d
000000a0: 8fc7 ce3d 72a0 813d 63dc 413d 2e7b 69bc
000000b0: 4458 cdbd 9516 a83d 7c71 d5bd 5982 e6bd
000000c0: 7643 9dbd a035 543d 09a7 f73d 032c 0b3d
000000d0: 19dd 9abd b007 c1bd 3028 e6bc 6ebd d7bd
000000e0: 9e3f 0fbc 5a3c 09bd 21d5 bdbd 31aa 05be
000000f0: 19ff 86ba 9da4 a6bd 136c d93b 8e6b f63b
00000100: 29ab 4bbd fa41 d13c dd8a 2abd 6412 66bc
00000110: cdc0 103e 0707 1d3e 6e8b fbbd 1d52 aabd
00000120: bf24 083d c28e 14bd b665 ab3d d057 463d
00000130: 54d3 cc3d 58de 23bd 8cb1 09bd 3f78 a53d
00000140: 47da e7bd b378 e03d fa97 b7bd cb7b 39bc
00000150: 6b48 44bd 12ea e5bb 216e 1d3e c37a f0bd
00000160: f852 0abe 111a 9e3d 47a0 153d 9b7d 0cbe
00000170: 5ddd 85bd 0fc5 ed3d 780d 413d 8e06 a6bd
00000180: 65fd 043e 335f b73d 5be5 913d 440f 64bd
00000190: 50a7 0b3d 3d58 503d c3b7 25bb 5e5c 24be
000001a0: 659a 183d 1c10 2abd a1e0 033e 3750 89bd
000001b0: f5d0 cd3c 2eb3 92bd 90cc 62bd 10fb 093e
000001c0: ffd0 0bbe 54d2 d13d e574 adbd feaa 1abe
000001d0: 7d6a 87bd 7d96 7fbd 39a9 923d 72f4 153e
000001e0: f447 023e 9495 cabd f93b 0a3d 56c2 d33c
000001f0: 6805 9cbc 1c0c b13a 1b17 b2bd 7d86 bbbd
00000200: fe0e be3d 9659 fabd aba9 be3d 556d bcbd
00000210: da26 5fbd c096 86bd 0d54 013e db6e 0ebe
00000220: da07 a03c 7298 b4bd 9b37 e03d 855c 7ebc
00000230: 0030 c23c e5d2 a7bd 4ac5 ff3d 2e66 863d
00000240: a34b e73d 612e d0bd 871a 03be a9a7 b63b
00000250: 89ef a2bc 4d4b 30bd a14c 9f3d 7415 d63b
00000260: f11c 903d 6e12 bbbd 8a90 763d 334e c1bd
00000270: 2e83 e9bc a8cd b13d c0ec c3bd 288a ad3d
00000280: 03bc d43d 1278 6d3d 3fb0 25bd b502 3b3c
00000290: 4506 253d 17e3 e6bc 08ea f5bd 626a 5a3c
000002a0: d6b8 c03d f841 2fbd 9922 113d 9231 0bbd
000002b0: e7ca 85bd a113 b2bd 9af0 f3bd 01b1 86bd
000002c0: 2dc9 ecbc ec36 eebd dabc 0b3e d152 cfbd
000002d0: dbb0 be3d 6fc9 ea3d 9995 e33c 69bd 013e
000002e0: ca8b 49bd 135d 103e 8a22 843d bd93 023b
000002f0: 8f9c 00be 83b7 2f3d 3ec4 e3bd 91e3 343d
00000300: 5d7c 44bd 3218 87bd 2ecc 9f3c 12e5 9ebd
00000310: 9e57 113d d1b7 363d aa62 903d 9b3a dc3d
0.025971327 -0.071758814 -0.034058787 0.08145389 0.095823914 -0.114806585 -0.11789046 0.084070235
0.046458457 -0.022334432 -0.0821298 0.11870042 0.10460131 -0.074792214 0.11244047 0.12459211
0.018796766 0.008929965 -0.044964917 0.15937382 0.08013084 0.09425926 0.11259112 -0.005251931
0.015578283 0.105214596 0.13355832 0.031043408 0.009320258 0.0040965653 0.023799762 0.09837863
0.1211404 -0.0009054495 -0.0870231 0.01583791 0.002608622 0.16189305 -0.11681731 0.07514695
0.100966565 0.06329431 0.047329318 -0.01425056 -0.10026601 0.08207432 -0.10422036 -0.112553306
-0.07678883 0.051808953 0.12092406 0.03397752 -0.07561702 -0.094252944 -0.028095335 -0.10534178
-0.008743195 -0.03350482 -0.09269167 -0.13053204 -0.0010299414 -0.08136866 0.006635198 0.0075201457
-0.049723778 0.025544155 -0.041636337 -0.014042471 0.14136048 0.15334712 -0.122824535 -0.08316443
0.03323817 -0.036268957 0.08369009 0.04842359 0.10001245 -0.040006965 -0.033616588 0.08079576
-0.1132093 0.109605215 -0.08964534 -0.011321018 -0.047920626 -0.0070164287 0.15374042 -0.11742165
-0.13508213 0.077198155 0.036529806 -0.1371979 -0.06536362 0.116098516 0.047131985 -0.08106719
0.12987287 0.08953705 0.07123824 -0.05567862 0.03409511 0.0508654 -0.0025286532 -0.1605086
0.037256617 -0.04151927 0.12878658 -0.06704753 0.025124053 -0.07163082 -0.055370867 0.13474679
-0.13653944 0.10245195 -0.084695615 -0.15104291 -0.06612108 -0.062399376 0.07161183 0.1464403
0.1272276 -0.09891811 0.0337486 0.025849503 -0.019045547 0.0013507637 -0.08695813 -0.09156511
0.09280203 -0.122241184 0.09309705 -0.09200541 -0.05448041 -0.06571722 0.12629719 -0.13909476
0.019534994 -0.08818139 0.10948106 -0.015524988 0.023704529 -0.08194522 0.12488802 0.06562458
0.112937234 -0.10165096 -0.12803088 0.005574186 -0.01988961 -0.043040562 0.07778288 0.006533319
0.0703677 -0.091343746 0.060196437 -0.094387434 -0.028504934 0.08681804 -0.09566641 0.08473617
0.10387423 0.057975836 -0.040451284 0.01141422 0.040289182 -0.028184457 -0.120075285 0.013331028
0.09410255 -0.042787522 0.035433386 -0.03398282 -0.06532841 -0.0869515 -0.119111255 -0.065767296
-0.028904522 -0.11631569 0.1364626 -0.10123218 0.09311076 0.11464202 0.027781295 0.1266991
-0.04920558 0.14098005 0.064519 0.0019924485 -0.12559722 0.04289962 -0.111214146 0.044162337
-0.047970165 -0.06596412 0.01950654 -0.077585354 0.03548395 0.044608895 0.07050069 0.107533656

lstm.weight_hh_l0 f4 [200, 50]
00000000: 6b21 ec3d fa82 aa3d 14a2 82bd 0b4f 21bd
00000010: 8c85 0e3e 8129 6ebd 4d42 373c e0a6 9f3d
00000020: 332b 163e 8f0b 0c3d 9aa0 1f3d 4154 f83d
00000030: 7e03 bc3d a604 69bd 8ff3 2f3d b7a5 fd3c
00000040: 8482 823d a71f 66bd 6861 f9bb e41e 113d
00000050: 9792 f43d 5869 823d 49c3 d7bd ded1 7e3c
00000060: 7927 33bd ca36 313d 104e 6c3d 9910 3f3d
00000070: e2a1 85bd 5821 fb3d 8405 06bc 1561 f33d
00000080: 94e8 b93d ca40 9a3d 2375 54bd c8df ba3d
00000090: b4b6 01bd a055 ab3d 916e 99bc 08ba b3bb
000000a0: a9ea 8f3d 0692 aebd daab aebd ae87 d8bd
000000b0: fdf2 bd3d d987 143e 3e23 093d 31dd 833d
000000c0: 96dc 6f3d f3c2 263d 5619 2d3c 8e09 8a3d
000000d0: 7c97 913d 9045 d9bd 17b2 95bd d353 fcbc
000000e0: ce31 f7bd f263 c13c b585 943b c844 243c
000000f0: 548f b33d c320 8cbd 76d3 8dbc d8b5 3b3d
00000100: a196 a63c 50a5 003d d291 16bd f863 75bd
00000110: d112 55bd 7fce cdbd 0909 923d 1511 0fbe
00000120: 42ef 003e 64db 12bc 38a8 553d 62e0 e23d
00000130: b427 38bc 49e0 bc3d b532 fc3c e6ab 94bd
00000140: 5db8 c1bc 800a 8abd 034e d73d 8d7a b9bd
00000150: 0453 1bbd 5d39 93bc 94d0 01bd 2b93 debd
00000160: fceb 64bb d67e 8d3d 8603 09bd 625c 5fbd
00000170: ff10 b0bd aa50 b53c b04f 3c3d e52f 5e3d
00000180: b75a c73d b47e b7bd 34d8 ee3d 7717 c1bd
00000190: d444 bfbc 252a fbbd 32a4 edbc d663 a1bd
000001a0: f9c0 edbd 6a5d 98bd 7c18 8ebd 1c57 d5bd
000001b0: a9fb e93d 8c18 e03d 6e18 cbbb 531d 03bd
000001c0: 73c6 debd 71df 083e 87bd 163d f654 fb3b
000001d0: eda0 48bd 2e19 093e 276e db3d 3921 fd3d
000001e0: 3388 073e 2824 edbd 8961 0bbe b421 cfbd
000001f0: 3036 05be 28b1 a9bc f64b 04bd dabd 04bd
00000200: e41e 823d 795b c7bc ce2f 943d 6f57 5c3d
00000210: a1ce 063e 4431 c63d 3a60 86bd 35f6 89bd
00000220: 1a7b 77bc e745 f9bd 1b34 91bd 7cf6 91bd
00000230: 556b c83d 4303 98bd 7c2f cbbd efa4 babd
00000240: a848 d4bc 8752 94bd d408 e9bd 8ae9 183e
00000250: 677d 87bd 9b05 a3bc 13ec a03c 65e6 d83c
00000260: d174 c23c 3f62 303d 5af0 94bd 01e0 9abd
00000270: c59c 6f3b a42c 1cbe c9ca bfbd f3f5 9e3d
00000280: 32bb 763c 2bc0 99bd 0dd9 bbbd 4dd0 4bbd
00000290: 46dc de3d b2df 843d fb98 babd ccbb 2c3d
000002a0: 4e47 fdbd a1e9 233e 05aa 243d 20a8 0bbd
000002b0: cb14 063e 122a 213b 6080 e6bd 47f9 9d3d
000002c0: cf9b e4bb ac8a 0ebe caf2 0e3c 6a52 aa3d
000002d0: a2c8 d03d 5897 17be 4178 c5bd d42c f93d
000002e0: 869c 123e 1eb4 5e3c 8057 56bc 1646 ef3d
000002f0: e68b 19bb aaac ab3d d10b fabd e859 f2bd
00000300: 078f 003d 3e9d b5bc dfae 4a3c 8ea1 bebd
00000310: f184 cd3c b3a2 11be a9c4 cfbb ff1a 05be
00000320: 2971 27bd a8af 953d 68b8 2fbd ec85 05be
00000330: 30b7 05be 9d70 093d 7621 31bc 57d1 863c
00000340: 143b 7c3d 6df8 16bd 5aef d9bd 2d54 c73d
00000350: 5990 053e 8e39 b2bd 5a56 f0bd 6fc3 96bd
00000360: b8fc fd3c 728c 423c 65bb 153d 3e1e 183e
00000370: a2a5 9ebd a5df 8d3d cc80 1b3e 5c2c 56bd
00000380: e105 9fbd 287e e63d 1e12 f83d 7d51 273c
00000390: 2d19 99bd 23a5 7bbd 5f98 f9bd 3bd6 0fbd
000003a0: aee9 b4bd 7902 e83d dedf ac3b c50b 4a3d
000003b0: 9527 cb3d 9b37 3e3d 4c91 3a3d 93ce 78bc
000003c0: 57c7 62bb 533b 0bbe 4db4 77bd bbc1 e1bb
000003d0: 14d9 163e fd9d 9bbc d5a5 1b3d 396d 373d
000003e0: a8e9 d5bd b123 003e 0629 5b3d 7659 e0bb
000003f0: 05f9 cbbd d04e f3bd b03c 7fbd 148b 76bd
0.115298115 0.08325763 -0.0637857 -0.039382022 0.13918132 -0.05814505 0.011185241 0.07795501
0.14664917 0.03419071 0.03897152 0.12125445 0.091803536 -0.0568892 0.042956885 0.030962808
0.0637255 -0.05618253 -0.0076104887 0.03542985 0.11942022 0.06367749 -0.105352946 0.015552966
-0.043738816 0.04326514 0.057691634 0.046646688 -0.06525017 0.12262219 -0.008180026 0.11883751
0.09077564 0.07531889 -0.051869523 0.09124714 -0.03166838 0.08365941 -0.01872948 -0.005484823
0.0702718 -0.085239455 -0.08528872 -0.10572754 0.09274862 0.14504947 0.033480875 0.06438673
0.058559977 0.04071326 0.010565123 0.06740104 0.071089715 -0.10608971 -0.073093586 -0.03080169
-0.12070046 0.023607228 0.0045325407 0.010026164 0.08767572 -0.06842186 -0.017312746 0.045827717
0.020335497 0.031407654 -0.03676016 -0.05990979 -0.052019898 -0.10049152 0.071306296 -0.1397136
0.1259127 -0.00896344 0.05216238 0.11077954 -0.011239935 0.092224665 0.030785898 -0.072593495
-0.023647482 -0.06740284 0.105129264 -0.09056578 -0.037920967 -0.017971689 -0.031693056 -0.10867914
-0.0034930697 0.06908958 -0.033450626 -0.054531462 -0.08596992 0.02213319 0.045974433 0.054244895
0.09734099 -0.089597136 0.11662331 -0.09428304 -0.02334825 -0.12263898 -0.029008958 -0.0788037
-0.11609072 -0.07439692 -0.06938264 -0.104170054 0.114249535 0.10942182 -0.0061979806 -0.032010388
-0.10877695 0.13366486 0.03680184 0.0076700402 -0.048981596 0.13388512 0.10714369 0.12359852
0.1323555 -0.11579162 -0.13611425 -0.1011385 -0.13008952 -0.020714357 -0.032299004 -0.03240762
0.06353548 -0.02433561 0.072356805 0.05379432 0.1316476 0.096773654 -0.065613225 -0.067364134
-0.015105033 -0.12171536 -0.070900165 -0.07127091 0.09786097 -0.07422497 -0.09921166 -0.0911349
-0.025913551 -0.07242303 -0.11378637 0.14932838 -0.066157155 -0.019900134 0.019643819 0.026477048
0.023737343 0.043062445 -0.07272406 -0.075622566 0.0036561948 -0.15251404 -0.0936485 0.07761755
0.015059279 -0.07507356 -0.091722585 -0.049759198 0.108818576 0.06487979 -0.0911121 0.042171285
-0.12367116 0.16007091 0.040201206 -0.034095883 0.1309387 0.0024591726 -0.11254954 0.077135615
-0.0069765816 -0.13920087 0.008724878 0.083165005 0.10194518 -0.14803827 -0.09642077 0.121667534
0.14317521 0.013592748 -0.013082385 0.1168329 -0.0023429333 0.083825424 -0.12209285 -0.118335545
0.0313864 -0.022169705 0.012370794 -0.09308158 0.025087805 -0.14222221 -0.0063405824 -0.1299858
-0.040879402 0.073088944 -0.042900473 -0.13039368 -0.13058162 0.033554662 -0.0108112 0.016457243
0.06157978 -0.03685801 -0.10641356 0.09732852 0.13043346 -0.08702384 -0.1173522 -0.07361495
0.031004295 0.011874305 0.036555666 0.14855286 -0.07746436 0.069274224 0.15185851 -0.0522884
-0.07764793 0.11254531 0.121128306 0.010212299 -0.07475505 -0.061436784 -0.121872656 -0.035116415
-0.08833633 0.113285966 0.0052757105 0.04932763 0.09919659 0.04643975 0.045548722 -0.01518597
-0.003460368 -0.13596849 -0.060474683 -0.0068895495 0.14731246 -0.018996233 0.037999947 0.044781897
-0.10444957 0.12513615 0.05350592 -0.006846602 -0.09959606 -0.11880267 -0.062313735 -0.06019123

lstm.bias_ih_l0 f4 [200]
00000000: 90c7 a5bc 466b 06bd e0b5 05be a35d 1d3e
00000010: 2da7 c1bd 033b 1c3e 1a2b 6abd e16d 2d3d
00000020: 6653 d1bc db52 643d 9d99 b83d 0fdd 84bd
00000030: 2022 7b3d 612c cabd 1276 ee3d a619 ac3d
00000040: 5741 f93d 67fa 36bc 84cf 0e3e e05d a3bd
00000050: cbe7 ac3c 4138 523d 4611 943b 7560 013e
00000060: d530 7cbd 4262 ddbd 8fa7 4fbd 1a0b be3d
00000070: 3e06 603d f79e ff3c ced8 e13d fe0f e03d
00000080: 49e9 fabd 03ab 83bd 3c98 1cbd 109b aabb
00000090: ebed 03bd 8c6a 753b af5e f73d cd48 043c
000000a0: f1f1 f33d 6b89 b5bd aaca dfbc 3c5b 923a
000000b0: 2e75 3a3c dfc5 3c3d 17ef f53d 5396 d3bd
000000c0: 12a3 0c3d 67f3 953d 0969 803d 4df8 bebd
000000d0: 212c e4bd e14a ed3d 18f4 45bd 9dab 14bd
000000e0: c16a 6bbd 5f4e 14bc f559 363d 49d9 223d
000000f0: 95da 183e bbed 0cbb d093 0abe f445 c63c
00000100: 2019 c53d dcd0 843d 1bc8 a73d 585e e9bd
00000110: 40cb 053e 21a2 203e d769 103d b8de a03d
00000120: 4f07 aebc f4ee eabc 96d4 843c 0d5b 56bd
00000130: 2cd5 15bd 1476 a0bc 52a7 89bd a475 4ebd
00000140: 3a2c 733d 8df7 59bd 6b4b 023e eb98 bc3d
00000150: 52db b33d 214c 583d 8412 92bc 4b7d 923b
00000160: 89a4 ea3d d7fc fb3d 5a9a a53d df9c 153d
00000170: bf99 3c3d 6adc eabd 400c e03d 377a 9c3c
00000180: 299d f83b 4eb4 d6bd e29b 513d 823c 263d
00000190: 9632 153d 32f1 1b3e fd9f 0ebd d4cc f43d
000001a0: 07d5 08be e241 c43c 9358 8d3d 1fa4 e8bd
000001b0: 55d4 7dbd 64d8 a13d bd6e 863d 54c7 ce3c
000001c0: 7afd ea3b 3341 6fbc d2a6 9e3d ce9a d3bd
000001d0: 5ab4 cc3d 5a13 34bd 72ff 03be 285d 033e
000001e0: 8d53 11be c086 8dbd 1193 f63d e6ba 0f3e
000001f0: 1769 c23d e3e4 b73c 0f32 46bd aacb 813d
00000200: b5ee 993c c636 0ebe 26bc a93d 9038 30bb
00000210: 09f3 18be 53bf 70bd 4323 4a3d 6743 8e3b
00000220: 42ef 903c 7fd6 c6bd c420 75bd f1b9 9b3d
00000230: 3031 183e a708 023e 35af 123e a3a5 943d
00000240: 7159 1b3c 443f 06be 4d62 b4bb c1ab 07bd
00000250: 95d0 6c3d ec9b 323d cb85 603d 5ac3 61bd
00000260: 36a0 9d3d 83e5 91bd fe03 883d be84 fdbd
00000270: d407 953d 6f6d bb3d 09d7 5c3d 3a8f 99bd
00000280: d487 483c af6b 28bd 4d90 94bd 402e a03d
00000290: c8d3 173e c743 143e b653 4c3d 3499 da3c
000002a0: 9306 c1bc ff0b 74bd ac5e c03d 09b0 cbbc
000002b0: d69f dbbd 9e1a ad3c feec 7b3d 41bd d5bd
000002c0: 33dc d2bd 8ab8 823d 315e a53d 7520 28bc
000002d0: 53d9 85bd 62dc 1b3e 9f40 263d c3aa 7f3d
000002e0: ecb5 fd3d b109 0a3e 8097 d9bc 82bc 973d
000002f0: d7ae 2a3d 83b4 f03c e527 0cbd 40a5 d2bb
00000300: 6040 b73d fd8b b2bd 9706 613c 265c 543d
00000310: 5afa 92bd fcc2 c93d 4aae 953d 5acc 64bd
-0.02023676 -0.032817148 -0.13057661 0.15367751 -0.094557144 0.15256886 -0.05717001 0.042341117
-0.025552463 0.05574308 0.090136744 -0.06487476 0.06131184 -0.09871746 0.11643614 0.084033296
0.12170666 -0.011168099 0.13946348 -0.079768896 0.021106621 0.05132318 0.0045186607 0.12634452
-0.061570007 -0.10809757 -0.050696906 0.09279461 0.054693453 0.03120373 0.1102768 0.1094055
-0.12251527 -0.06429102 -0.03823112 -0.005206473 -0.032209318 0.003744754 0.12078606 0.008073998
0.11911381 -0.08864101 -0.027318317 0.0011166106 0.011380477 0.046087142 0.120084934 -0.103314064
0.034335203 0.07321816 0.06270034 -0.09324703 -0.111412294 0.11586548 -0.04832849 -0.036296476
-0.057474855 -0.009051888 0.044519383 0.039758 0.14927132 -0.0021504003 -0.13532948 0.024203278
0.09623933 0.06485149 0.08192464 -0.11394948 0.13065815 0.15686847 0.035257187 0.0785498
-0.02124372 -0.028678395 0.01621465 -0.052332927 -0.03658025 -0.019587554 -0.06721367 -0.05040516
0.05936835 -0.0532146 0.12724082 0.09208854 0.087820664 0.052806977 -0.017831095 0.0044705025
0.11457164 0.12304085 0.08086081 0.036526557 0.04604506 -0.11467822 0.109398365 0.019101245
0.0075870943 -0.10483609 0.051174052 0.04058505 0.036425196 0.15228727 -0.034820545 0.1195313
-0.13362513 0.023957197 0.0690166 -0.113594286 -0.061970074 0.07902601 0.065640904 0.025241531
0.00717133 -0.014602947 0.07746662 -0.10332261 0.09995337 -0.043963768 -0.12890413 0.12828505
-0.14192028 -0.06910467 0.120397694 0.1403614 0.094927005 0.022448009 -0.048387583 0.06337674
0.018790582 -0.13888082 0.082878396 -0.0026889183 -0.1493646 -0.05877621 0.049350034 0.004341531
0.017692212 -0.09708881 -0.0598457 0.07603825 0.14862514 0.12698613 0.14324649 0.07258155
0.009481774 -0.13110071 -0.0055048824 -0.03312278 0.057816107 0.04360573 0.054815095 -0.055117942
0.076965734 -0.07123854 0.066413864 -0.12378834 0.07276884 0.09151732 0.05391601 -0.074980214
0.012239415 -0.04111832 -0.07254086 0.078213215 0.14826882 0.1447898 0.04988452 0.026684381
-0.023562705 -0.059581753 0.09393057 -0.024864214 -0.10723846 0.021130856 0.06150531 -0.10436488
-0.10295906 0.06382854 0.08074606 -0.010261645 -0.06535592 0.15220788 0.04058897 0.06241871
0.123882145 0.1348026 -0.026561499 0.07409002 0.041670647 0.02938295 -0.034217734 -0.0064283907
0.089478254 -0.08718107 0.013734481 0.051845692 -0.07176657 0.098516434 0.073086336 -0.055858947

lstm.bias_hh_l0 f4 [200]
00000000: cf7e cabc 35a3 093d 34cd 783d 0bd1 52bc
00000010: 5513 72bd afb1 cabd 4016 16bd 7a38 2d3d
00000020: 0531 f3bd 62c5 14bc 60cb 91bd 2012 66bd
00000030: 962e dabd 2f7c 943d 6857 1b3e 7074 1b3e
00000040: 538e 97bd eff6 a73d f52a e43d 006a 603d
00000050: d9ab 323c 6268 de3d 71ea 833d ad3d 2dbc
00000060: fc5d 2e3d 5927 113d d4da 62bd 033a eb3b
00000070: fe97 cd3d a683 dabd 1078 e53d 43c2 29bd
00000080: 2c3d 163e 6e58 973c d9be 163c d966 ff3d
00000090: aaf4 b43d 0d23 fd3d f5fa 703d e33b de3c
000000a0: 322b 963a 38d5 9a3d 66c2 0fbd 16f0 7f3d
000000b0: dd52 da3d 685d 61bd f6bd 833d ff4b b63c
000000c0: f54b 01be 15f0 bcbd b617 c9bd 2498 e8bc
000000d0: 5ac9 f43d b700 d43d 409f c7bd 2a74 bfbd
000000e0: 8c90 bb3a 9fb3 883c 040a 94bd 20d7 4638
000000f0: 64e7 ac3d 5139 4c3d 040d f6bd 34c6 82bd
00000100: a615 a83d b116 9c3d 1659 dabc caef 78bd
00000110: df26 2a3c d626 e93c 5a0c e83c 4699 71bd
00000120: 0540 e9bd a4c0 78bd 6fed 873b 433f 6bbb
00000130: 00e4 1c3c e63c afbd d483 d43d 2a12 40bd
00000140: 13cd c93c ad6a c5bb 5c88 1abc 0529 0abd
00000150: 7963 ccbb c47c fdbc 33dd 123e da67 f3bd
00000160: f7ab b4bd 6508 d2bd 4ee1 0c3d 9078 0bbd
00000170: 2c6d fb3d 7214 b23d 44d1 9a3c 074b 253d
00000180: 96ca 053e 4969 9a3d 1ca9 863d 256f c4bd
00000190: c0b6 dcbd 4915 c43d df08 a0bd 7b6a efbd
000001a0: 238e b5bd 64bc d3bd 7469 12bd 0b5e ce3d
000001b0: 1476 bfbd 22ab e43d 6bf1 ee3d 06a5 8d3d
000001c0: d2a6 063e b60b 50bd 65a4 abbd 7f0a d9bd
000001d0: 43f0 553d 14af 63bd 8acb 4fbc a490 c5bd
000001e0: c93c 033e 185e c2bb b608 1ebd 875e 003e
000001f0: 5e37 173e 5e9d 00be fc21 27bc 13be edbd
00000200: 418a e3bd d070 213b 5af6 9b3d 86cc a5bd
00000210: cba8 0b3d 329e d73c 839f ca3d 09e3 3d3d
00000220: ae67 d33d 347a 853a 745f 0ebe 6bbd 9cbd
00000230: 8d79 b03b 7432 d8bd 6078 acbd b11d e9bd
00000240: a6aa 2d3d f8ed 9c3c 143b 77bd 81e6 a5bd
00000250: dd47 bf3d bb6e c8bc 7488 aa3d ea2e 113e
00000260: 8a37 96bb 606c db3d ca9e bbbd 487e 81bd
00000270: c0b2 1abd b33b d33d e432 babd 01a5 1e3d
00000280: 7b0d 353d 05ed a4bc 28be f6bd 8b84 8b3d
00000290: 669b 273d 94b7 efbc 5f54 05be b701 123d
000002a0: 7583 153c da77 c6ba 5d45 a9bc 9da0 03be
000002b0: d584 1abd 0ac7 963d 57c7 283b 6135 aa3c
000002c0: 7638 f73c c88e 9dba 89ce f43d 14ec 0b3d
000002d0: b6e6 0b3e 5215 4a3d c24e 503d 722b 5abd
000002e0: 8bb3 693d 40a4 953d 3ae7 043e 77c2 843d
000002f0: 3cfa e4bd 0761 d63d c6b9 143e 59ef 9d3d
00000300: 9f47 4b3c f1ca c13c 3a2b 1e3e 4153 073e
00000310: 9004 ddbd c2c6 5d3a fda6 bebd 6c03 a6bc
-0.02471867 0.033602912 0.060742572 -0.012867223 -0.059100468 -0.09897172 -0.036642313 0.04229019
-0.11874584 -0.009080263 -0.07118869 -0.05616963 -0.10653417 0.07250249 0.15170062 0.15181136
-0.07400193 0.08201396 0.11141006 0.05478859 0.0109052295 0.10859753 0.064412005 -0.010573787
0.0425701 0.035437915 -0.055384472 0.0071785464 0.10038756 -0.10669641 0.11204541 -0.041445028
0.14671773 0.018474784 0.009200775 0.124707885 0.088357285 0.12360201 0.05883308 0.027128166
0.0011456965 0.075601995 -0.035097502 0.062484823 0.10660336 -0.05502072 0.064327165 0.022253035
-0.12626632 -0.092254795 -0.098189756 -0.028392859 0.11952467 0.10351699 -0.097471714 -0.093483284
0.0014310046 0.016687213 -0.07228473 4.740723e-05 0.08442572 0.04985935 -0.12014201 -0.063854605
0.08207254 0.076215155 -0.026653808 -0.060775556 0.010385244 0.028460901 0.028326202 -0.058984064
-0.11389164 -0.06073059 0.0041481773 -0.0035895861 0.009575844 -0.08556537 0.10376707 -0.046892323
0.02463392 -0.0060246796 -0.009431925 -0.033730526 -0.006237444 -0.030943282 0.14342193 -0.118850425
-0.08821862 -0.102555074 0.034394555 -0.034050524 0.12276682 0.08695306 0.018898614 0.040354755
0.13065562 0.07539613 0.06575224 -0.09591512 -0.10777044 0.09574372 -0.07814192 -0.116902314
-0.08865001 -0.10338667 -0.0357451 0.10076531 -0.093486935 0.111654535 0.116671406 0.06916241
0.13149574 -0.05079242 -0.08380965 -0.10597705 0.052231085 -0.05558689 -0.012682805 -0.09646729
0.12816156 -0.005931627 -0.038582526 0.1253606 0.14767215 -0.12560031 -0.010200974 -0.116085194
-0.11110354 0.0024633892 0.07615347 -0.080956504 0.03409652 0.02632055 0.09893706 0.046359096
0.1032251 0.0010183514 -0.139036 -0.07653316 0.0053855837 -0.10556498 -0.08421397 -0.11382616
0.04239907 0.019156441 -0.060359076 -0.08100606 0.09339879 -0.024466863 0.083268076 0.14178053
-0.0045842575 0.1071403 -0.09161146 -0.06322914 -0.037768126 0.10314121 -0.09091738 0.03873158
0.04420231 -0.020132551 -0.12047988 0.0681239 0.040919684 -0.029262342 -0.13020466 0.035646167
0.00912558 -0.001514192 -0.020662958 -0.12854238 -0.037724335 0.073621824 0.0025753581 0.020777406
0.03017829 -0.0012020702 0.11953456 0.03416069 0.13662228 0.04933674 0.05085636 -0.05326409
0.05705599 0.07306719 0.12978831 0.06482404 -0.11180541 0.10467725 0.14523992 0.077116676
0.0124072125 0.02365634 0.15446177 0.13215353 -0.10791886 0.0008460098 -0.09309194 -0.020265304

lstm.weight_ih_l1 f4 [200, 50]
00000000: b64a c6bd f377 abbb 0a26 09be a365 d7bd
00000010: 66e5 19bb 9a2b 8a3d bd4e 8abc b8f1 7dbd
00000020: ce73 db3d ef7a 743c ec98 94bd fe63 50bd
00000030: 7838 8d3d 6a83 a73c 0b48 54bc d269 213c
00000040: 1c15 64bd f4a0 d5bc cb16 f43d 13e0 ce3d
00000050: 56d5 4e3d 0b29 983c f36f f6bb 96c5 f6bd
00000060: 721a aabd bdc1 4a3d c5d2 233d 6c35 723c
00000070: a795 93bd 5a9e 883d 287a 033e 504d ef3c
00000080: dcd9 1d3d 20ae 053e 52ae 4e3c b627 b1bd
00000090: ba04 02be 6e46 91bd 663d 86bb 90f4 8c3d
000000a0: 0d92 85bd 6936 1a3d cb4d 7d3d 2c79 f4bb
000000b0: eb46 c4bd b6ba 3abd a60b 06be c9a1 c6bc
000000c0: fef6 063e b0d8 a0bc 38a5 103d 88cc 3ebc
000000d0: b54b 93bd f545 04bd 0a8f ef3d 405f d9bd
000000e0: f936 293d 9223 d9bd 59d6 acbc 9caf ca3b
000000f0: 95bc debc a1f5 143e 586d 003c df42 65bd
00000100: 157b a2bd 7712 a33d b8b8 123d 5f4d a2bd
00000110: f696 de3d 44cc 88bd e352 553d 2c66 23bd
00000120: cd43 193b 2478 d63d 42b3 afbc 8706 203c
00000130: db93 febc de58 b43d d936 58bd cb93 d63d
00000140: 399a 43bc 3d92 16bd c250 1ebe e057 30bb
00000150: 0453 883d 6017 c8bd 882a da3d cf68 8e3d
00000160: 9540 fe3d c4bf c43d 9306 d0bd e022 c8bd
00000170: 728d 47bc aa0d 853d 76f7 bc3b efce f9bb
00000180: 7b04 1abe bc4a 9dbc 33e5 d83d 1f4e a8bd
00000190: 20ab 52bd 3839 673d 8f6e dbbc e576 a53d
000001a0: 3e11 523d 03f0 893c dea7 bf3c e8f2 19be
000001b0: c9fa a13c 1d0c 583c 4ab7 853d ce6c f23d
000001c0: 8b6f eebd 4ea7 0e3e bfb8 14be 3d92 57bd
000001d0: 9976 563c 676f a13d 67f3 83bd 9f77 2dbd
000001e0: 8489 c6bc 9f8e 0cbe 4cf4 ba3d daa2 76bd
000001f0: d422 07be c390 41bd be61 ed3d d68f aa3c
00000200: 136a fd3b 09ac cdbd a1d8 d63d f0b1 e63d
00000210: cb1f 0bbe 312d 11be 7eba 1a3e 1b28 1cbe
00000220: 5181 323c 661b b23d e5f0 053e 63c6 82bc
00000230: 385b fb3b 5d69 08bd 4ec3 90bd 97cc f3bd
00000240: 73bf 573d 0013 ae3d 9f8b cdbd 5344 ee3d
00000250: 3eb3 f23c 109c 993c 8ec6 69bd 5d59 8a3d
00000260: a8e1 66bc 02fe a9bd 747f 4cbd 2782 f6bd
00000270: daeb f4bd fbd7 62bd fd8a 143e 51dd 21bb
00000280: 954c 293d 2818 d63d f94c a9bd 53d9 c1bd
00000290: 7101 e0bd 6b05 0dbe 1777 fcbb b721 6b3d
000002a0: 7f88 35bd 8cf2 5a3d 6f9b 81bd a44e f6bd
000002b0: b302 fc3d 9850 d63c bb95 bd3d 90e4 77bd
000002c0: 2e3f 443d 777e 18be 96ba 03be e221 25bd
000002d0: a9bd d43d 3c27 833c 0d55 febd cf5c 85bd
000002e0: ef21 f93d b10f c53d f4f9 c8bd dd40 cebd
000002f0: 3f35 8f3c c716 98bd 6383 b6bb ffc6 31bd
00000300: fd4b 453d de33 443d 3487 e43d 26e4 1a3c
00000310: 958c e7bd 3daa 0abe 74e7 febd 349d c7bd
00000320: c8a4 963d 9610 4b3d 483a 903d c876 cd3d
00000330: 98d0 82bd 65cc 27bc 674b 523d 4c52 8c3d
00000340: 0bcc df3d 2bc2 0bbe 5f74 003e caf0 343b
00000350: d19b 00be c8be 70bd c8aa b93d 8d80 433d
00000360: db71 06bd f189 f33d d825 1d3e 0c8a cd3d
00000370: 8485 eabc 907a 0ebe fa4d 15bd b881 ec3c
00000380: 5eb1 09bc 0002 4fbd fe04 8f3d 50ab d1bd
00000390: ae9c 6a3d c7f1 9c3d 37f5 8ebc 7c35 7d3d
000003a0: bdb5 86bd f697 a8bd 3431 a3bd 84be 7fbc
000003b0: 8875 dbbc b432 64bd c9bf 6e3d 3fb1 133d
000003c0: 780b 853d 13c5 90bd a0b8 10be f9ff f93d
000003d0: 6290 1abd 07af 033e 8bb2 f33c 0511 133e
000003e0: a324 033e 7cf0 353d cae7 4ebd d177 1cbe
000003f0: a43b 52bd 4ed0 243c ebea 54bd 8c59 f1bd
-0.09682219 -0.005232805 -0.13393417 -0.105174325 -0.002348268 0.067465976 -0.016883248 -0.0619981
0.10715447 0.014921888 -0.0725573 -0.05087661 0.06895536 0.020448405 -0.0129566295 0.00985189
-0.055684194 -0.026077725 0.1191841 0.101013325 0.05049642 0.018574258 -0.0075206696 -0.12049405
-0.08305825 0.04950117 0.039995927 0.014783245 -0.07206278 0.06670828 0.12839568 0.02921167
0.038537845 0.13054705 0.012614803 -0.086501524 -0.12697116 -0.070935115 -0.0040966747 0.06882584
-0.065219976 0.037649546 0.061841767 -0.007460734 -0.09583839 -0.045588218 -0.13090381 -0.024247067
0.13180158 -0.019634575 0.035313815 -0.011645444 -0.07192174 -0.03229328 0.116972044 -0.106138706
0.04131219 -0.106024876 -0.021098303 0.006185485 -0.027189532 0.14546825 0.00783857 -0.055971976
-0.07933632 0.07962506 0.035820693 -0.079249136 0.10868637 -0.066795856 0.052081 -0.03989236
0.002338636 0.10472134 -0.021447781 0.009767181 -0.031076362 0.088060126 -0.05278668 0.10477408
-0.011938625 -0.036760557 -0.15460494 -0.0026907846 0.06656459 -0.097700834 0.106526434 0.069535844
0.12414662 0.09606889 -0.10157504 -0.09772277 -0.012179719 0.06496747 0.0057668043 -0.0076235454
-0.15040772 -0.019200675 0.10590591 -0.082180254 -0.05143273 0.056451052 -0.026786117 0.08079318
0.051285975 0.01683808 0.023395475 -0.15034068 0.019772904 0.013186482 0.065291 0.11837159
-0.11642369 0.13931009 -0.145236 -0.052629698 0.013089799 0.078825764 -0.0644291 -0.042350408
-0.024235494 -0.1372628 0.09128627 -0.0602139 -0.1319688 -0.047257196 0.115909085 0.02082054
0.0077335923 -0.10042579 0.104905374 0.11264408 -0.13586347 -0.14177395 0.15110204 -0.15249674
0.010895089 0.08696632 0.13080175 -0.015963739 0.007670786 -0.033303607 -0.070685014 -0.11904257
0.052672815 0.08499718 -0.10036396 0.116341256 0.029626485 0.018751174 -0.057074122 0.06755326
-0.014091887 -0.08300401 -0.049926236 -0.12036543 -0.119590476 -0.055381756 0.14506145 -0.0024698565
0.0413328 0.10453826 -0.082666345 -0.094652794 -0.10937775 -0.13771598 -0.0077046263 0.0574052
-0.044319626 0.053453967 -0.06328475 -0.12026718 0.12305202 0.026161477 0.092570744 -0.06052071
0.047911815 -0.14891993 -0.12864146 -0.040315516 0.10387737 0.01600992 -0.12418566 -0.065118425
0.121646754 0.096221335 -0.098133 -0.100709654 0.017481444 -0.074262194 -0.0055698617 -0.043402668
0.04816817 0.047901027 0.111586004 0.009453809 -0.11306111 -0.13541503 -0.1244649 -0.09746781
0.07355648 0.049576364 0.07042366 0.10032421 -0.06387442 -0.010241603 0.05134144 0.068516344
0.1092759 -0.13648288 0.12544392 0.0027609342 -0.12559439 -0.058775693 0.09065777 0.047730017
-0.032823425 0.118915446 0.15346467 0.10036096 -0.028628118 -0.13913941 -0.036451317 0.028870448
-0.008404104 -0.050539017 0.06983374 -0.102377534 0.057278328 0.07663303 -0.017450912 0.061818585
-0.065776326 -0.08232109 -0.07968369 -0.015609387 -0.026789442 -0.055712417 0.05828837 0.036057707
0.06496328 -0.07068839 -0.14132929 0.12207026 -0.03773535 0.12859736 0.029748222 0.14361961
0.12806945 0.044418797 -0.05051402 -0.15280081 -0.05132641 0.010059429 -0.051981848 -0.11784658

lstm.weight_hh_l1 f4 [200, 50]
00000000: 5e65 0d3e 38e3 04bd 497d ed3d e11b 973d
00000010: 5287 d73d d489 5f3d ecbf e73d c655 d53d
00000020: 079f 90bd 4a0c 3e3d 4481 c93d fdc4 01be
00000030: 703b b0bd 4074 a13d 4f2f 51bd 35cd bbbd
00000040: 2441 5fbc 455f 1f3c 9a7f 86bd 6e15 cebd
00000050: 1981 f0bd 63d5 a7bd 6a16 083e aaae ec3c
00000060: 9e5d 92bd b3cc 0a3e 2ba7 a23d af27 34bc
00000070: 010a 2bbc 2c69 d0bd 7a6f 86bd 2417 e93d
00000080: a352 babd 0ec2 833c 1371 ca3d 08e9 bcbd
00000090: 9695 453c 8355 683d 2fd2 0b3e 1578 b5bd
000000a0: e92e 99bd 715a 263d f1ba 3c3d 2d4d f53d
000000b0: c383 813d 6dc2 ef3d 4d10 0d3e c845 f3bc
000000c0: 1e49 9c3d 14e4 a53d d594 9dbd 5510 81bd
000000d0: c4d4 723d e310 c73d da45 253d 5a60 dcbd
000000e0: 8790 cebd c3c7 0d3d 3077 97bd d023 d93c
000000f0: ed64 a83c 0e77 f63d bc47 ac3d c41c 153e
00000100: a5f5 bd3d 6999 f9bd 1c0a f93d f157 023e
00000110: d794 c73d 7b07 b0bc 7f8e a6bd a6a6 0dbe
00000120: 0b0d d83d 66b2 513d d9ac e5bd bc1a dd3d
00000130: e79f e63d 00ae 163d 85a5 ca3d 9f8b 20be
00000140: 90ae b2bd 2ead 17be 9d7d 15be 92fa a3bb
00000150: c1b7 06bd 6c4d dabc 1453 983c 3b34 713d
00000160: a76d c63d e015 77bd 4849 c33d 3983 0ebd
00000170: b922 693d 782a c2bd 469f f4bd 3f9e 0c3d
00000180: 1d7f 27bd f137 8b3c 8c3f 40bc 86fe d2bc
00000190: 5270 e2bd ab8f fd3d bde8 98bd 0e08 123e
000001a0: 94b4 8abd 3489 aa3d 122b d6bd 864d ee3d
000001b0: 4f4f 0e3e 442b 123e 5a08 0b3e a0b9 ff3d
000001c0: 1cb4 d8bd c653 b6bc 0183 a23d f551 16bc
000001d0: 0dc6 d1bd 0691 d8bd 8fb9 133e 7c2a 063e
000001e0: 3c27 b23c ee10 9f3d d7a9 003e f7e9 ccbd
000001f0: af14 c6bd ebf7 f13d 72f9 043e 5736 c4bd
00000200: d463 01be 65be cf3c 9597 6fbd cc78 0fbe
00000210: f660 cdbd e16b 0cbe a490 983d 9329 6bbd
00000220: 4947 cd3d 2031 85bb 8c11 9bbd dcf8 bb3a
00000230: 16e2 0f3e 3780 0d3e 693f a4bd 6d8d 46bc
00000240: 521d ad3d 6d0d 103e 8c29 ac3d fcc3 39bd
00000250: 8c68 bb3d ab49 803c d93d c83d 8311 13bc
00000260: b183 853c e9b6 0fbe 659b cebd 3a77 d93d
00000270: eaf0 cabd a83d cdbd 3b54 dabd b3d1 333d
00000280: aa65 b03b e649 a33d f514 dd3d 138e 73bd
00000290: c675 2b3d 44d3 143e b3f8 e4ba bae9 83bc
000002a0: 29b1 a63d c461 40bc 41d5 52bd 37ab 0cbe
000002b0: a3f9 a53c 7a1e 1d3d 680a cdbd dce5 9dbc
000002c0: 6637 2fbd 1cf7 903d c185 a43a 4175 d9bd
000002d0: dfae 013e ff49 d63d 1f6b c6bd e2a0 e63d
000002e0: daff aebc 4bde b03c cba8 0d3d 4d3d b5bd
000002f0: ca42 e0bd f578 2f3c 320d 8c3c 3b8b b93d
00000300: 57a8 8fbc 0f92 013e ce3d 0b3e 90a9 fd3d
00000310: be82 753d 7f47 4dbd db37 e6bc fc6e 483c
00000320: 8786 113e 0bf6 a43c 3162 fbbd 3ee2 eebc
00000330: 7463 c9bd aea7 aabd 9d72 73bd c6c6 eb3d
00000340: e275 12be ef63 f53c bb61 a63d bb2b a2bd
00000350: c9e8 263d 741f b73d b574 043c 1983 db3c
00000360: 43dc 54bd b251 8dbd b40c 0abc 834c 4abc
00000370: 3c92 223d 051d 073e ff1d c4bd 4ee8 ef3d
00000380: 2c2e c13d 653a 16be 8a18 f4bd 14bb a83d
00000390: ae74 81bc 4c74 e33d 3472 da3d 2f5f 45bc
000003a0: 0437 cebd 80dd d53c c217 08bd a25a 0bbd
000003b0: 3978 d7bb 9f20 1b3e 63ad 9ebd d009 daba
000003c0: 2bf5 873d 6a68 94bd 6ef4 fdbd 246f 53bd
000003d0: f8ad 41bd c6b1 f73d 8064 4cbc 97fc 823d
000003e0: 41a4 cd3d aa32 bdbd 00d8 80bc 9cc6 16bd
000003f0: 2e6f 393d f754 af3d e7ae e2bd 1fbd abbd
0.138082 -0.032443255 0.11596162 0.07378364 0.10523857 0.054574803 0.11315903 0.104167506
-0.07061582 0.04639844 0.098391086 -0.12672801 -0.08605087 0.07883501 -0.051070508 -0.091699995
-0.013626371 0.009727304 -0.06567307 -0.10062681 -0.117433734 -0.08194997 0.132898 0.02889188
-0.07146762 0.13554649 0.07942041 -0.010995789 -0.010439397 -0.1017631 -0.06564231 0.11381367
-0.09097793 0.016083743 0.098848484 -0.09224135 0.01205959 0.056722175 0.13654397 -0.088607945
-0.074796505 0.040613595 0.04607672 0.11977611 0.0632396 0.11707006 0.1377575 -0.02969636
0.076311335 0.08100143 -0.07694403 -0.06301943 0.05928494 0.09720018 0.04034982 -0.10760565
-0.1008616 0.034614336 -0.0739578 0.026506335 0.020555938 0.12034427 0.0841212 0.14561754
0.092753686 -0.12187464 0.12160131 0.1272886 0.09745186 -0.021487942 -0.08132648 -0.13833103
0.10549363 0.051195525 -0.11214609 0.10796115 0.11260968 0.036787033 0.098948516 -0.15678261
-0.087247014 -0.14812157 -0.14598699 -0.0050042355 -0.032890085 -0.026648246 0.018594302 0.0588877
0.09688883 -0.060323596 0.09535462 -0.034793112 0.05691788 -0.094807565 -0.119444415 0.034330603
-0.04089271 0.016994448 -0.011733901 -0.025756132 -0.1105658 0.12380918 -0.07466266 0.14260885
-0.06772724 0.08326951 -0.10457434 0.1163588 0.13897441 0.14274317 0.13577405 0.12486577
-0.10581228 -0.022256743 0.07935143 -0.0091748135 -0.10242853 -0.10574536 0.14426254 0.13102144
0.021747224 0.07766901 0.12564789 -0.10005563 -0.09671914 0.11814865 0.12985781 -0.09580677
-0.12635738 0.025359342 -0.05849417 -0.14010924 -0.100282595 -0.13713028 0.07449463 -0.057412695
0.10023362 -0.004064694 -0.07571706 0.0014341134 0.14051089 0.13818441 -0.08019907 -0.0121186795
0.08452858 0.14067622 0.08406362 -0.04535292 0.091508 0.015660128 0.097774215 -0.008976343
0.016298147 -0.14034618 -0.10088233 0.10618444 -0.09909232 -0.100215256 -0.10660597 0.043901157
0.005383213 0.079730794 0.10795013 -0.059461664 0.041860364 0.14533716 -0.0017469138 -0.01610266
0.08139259 -0.011742059 -0.051472906 -0.13737188 0.020260638 0.038359143 -0.100117505 -0.019274645
-0.04277744 0.070783824 0.0012552069 -0.106180675 0.12664364 0.104633324 -0.096884005 0.11261155
-0.021362234 0.021590373 0.0345848 -0.08849583 -0.10950239 0.010709991 0.017096136 0.09059759
-0.017536325 0.12653373 0.13597795 0.12385857 0.05993914 -0.050117012 -0.028102806 0.012233492
0.14211474 0.020136854 -0.12274588 -0.029160615 -0.09833422 -0.083327636 -0.059435476 0.115125224
-0.14302781 0.029954879 0.08124109 -0.07918497 0.040749345 0.08941546 0.008084466 0.02679591
-0.05196787 -0.06900348 -0.00842588 -0.012347343 0.03969024 0.13194664 -0.09576034 0.117142305
0.09432635 -0.14670713 -0.11918743 0.08238807 -0.015802708 0.11106166 0.10666314 -0.012046619
-0.10069087 0.026106596 -0.033225782 -0.03402198 -0.006575611 0.15149163 -0.07747915 -0.0016635004
0.06638559 -0.07246478 -0.12400137 -0.051619664 -0.04728505 0.120944545 -0.012475133 0.06395834
0.100410946 -0.09238179 -0.015727997 -0.036810502 0.045272045 0.08561128 -0.11068516 -0.08385681

lstm.bias_ih_l1 f4 [200]
00000000: 18a2 033e 1729 f03d 8e5d 86bd e4fe a73c
00000010: 62d9 12bb 8de6 07be 3802 2e3c 6c6d 883d
00000020: d0dc 21bd 6251 19be 3a74 d8bd 2013 c2bc
00000030: ed45 4f3c 9d79 c2bd 4b3a 853d 95ac 76bd
00000040: bfd0 edbb a0c2 973d ea83 1b3d 0129 ea3d
00000050: 6ea9 373d 9258 74bc 3d3f 113e 6f48 0fbe
00000060: 76f0 a7bc 8978 7c3c bf25 e33d 59b3 123d
00000070: cae2 26bd d7b2 b43d 5fae 543d d93d c1bc
00000080: 836e 793c 40c9 ffbb 16d2 a9bd 32d6 99bd
00000090: 3148 013e ef32 f7bd b13a ea3d 1b95 6f3d
000000a0: 4b77 babc 2015 08bd d23c a8bd b841 1f3e
000000b0: 6bdd ac3c c239 003e 259d dabd 7cf2 63bc
000000c0: 0480 5e3d ec3e 2c3d 49e1 89bd 3ec6 f7bd
000000d0: 98b4 673a e74a febb 3a8d 9c3c 2be2 f43d
000000e0: 0234 d03b c5fa dcbd f103 b13d 7fc7 a3bc
000000f0: c319 e2bd 59cc d4bd 8640 a83d f92a 85bd
00000100: 7e31 10be c284 483c 2bb9 fe3d ca53 863c
00000110: 3ae9 1cbe de52 edbd 7a02 033e fb21 f33d
00000120: feb0 d33d f06f eebd f234 8d3d 703c 173e
00000130: 0b55 04be 7df8 2bbb 9581 b0bd 9387 f5bc
00000140: 068a 07bc 82cc 1f3e 1132 6fbd b2d8 123e
00000150: bc02 943c 792a 603d c240 2fbd d191 9f3d
00000160: d2e8 233d 5fc1 7bbd 6f5f ecbd e493 043d
00000170: 5d1d da3d 5575 b0bd 6b39 af3d 422a 9a3d
00000180: 45b6 d03d 9795 7c3d 4ba1 a8bd 71c3 1d3d
00000190: d40f 9dbd 0b24 cbbd 5e57 abbd ee0a f739
000001a0: 8e08 4e3d 39be b0bd 0a45 f53d 2bcd cfbd
000001b0: ec9f 8f3d ea0c 8bbd 76a7 7abd e198 e4bd
000001c0: 2485 c3bd 0f59 f23d b444 0a3e 9925 02be
000001d0: 5195 e83d fff1 27bb f291 f93d 5565 c8bd
000001e0: f959 dbbb 65f9 52bd 8069 20bd 4cc9 be3d
000001f0: 91fd c8bd 1f59 bb3d 0344 babd 3525 443d
00000200: 6c47 7a3d 4e7a f93b 2313 0e3d dd1e 01be
00000210: af04 76bd e836 50bd 722f 553b deff d53d
00000220: 2516 c83d ef00 79bd 4bc6 80bc 1730 15bd
00000230: 8303 87bd 0c39 0d3c 8ab3 75bd d03a 4e3d
00000240: bc46 d9ba 7795 a63d 3945 6e3d fcbf 1dbd
00000250: d89c ce3c 9635 d4bc 7fe6 e63d 9eab cf3c
00000260: 367f 823d 01c4 9b3c e549 1bbd 93c5 cd3d
00000270: c9d9 85bd 896e c6bc 18b4 8abc 3a90 9bbc
00000280: 70d8 8ebd 502c 4f3d 1f34 bb3d df6a eb3d
00000290: 6dde 58bd c8cf fd3d 1987 f13d 7ca0 d63d
000002a0: 6a79 eb3d c020 a2bd 3633 ca3d 71a8 dd3b
000002b0: 300e 593d 51a8 b6bd ab48 c9bd 5ca5 fe3d
000002c0: f646 c2bd 4145 bfbd 3242 9b3d 8004 adbd
000002d0: 9be1 e9bc 7387 933d 6951 1e3e 0f89 cebd
000002e0: 95bc cebd ea44 013e 09df 04be 8a9d c53d
000002f0: b195 8e39 3bf8 e3bd 6582 d23d c5f5 083e
00000300: 951f 8b3d 2ddd ac3d f5c5 d5bc 1cbd fbbd
00000310: 0555 18bd 2af4 9f3c 4431 f23b 7c90 b1bd
0.12854803 0.11726587 -0.06560813 0.020507284 -0.0022407402 -0.13271542 0.010620646 0.066614956
-0.039517224 -0.14972451 -0.105690435 -0.02369076 0.012650949 -0.09495852 0.06505259 -0.06022318
-0.0072575505 0.07410169 0.0379676 0.11433602 0.044839315 -0.014913695 0.1418428 -0.13992475
-0.020500403 0.015409597 0.11091184 0.03581557 -0.040743627 0.088231735 0.051924106 -0.023589062
0.015224102 -0.0078059733 -0.08292024 -0.07511558 0.12625195 -0.12070262 0.11436976 0.058491807
-0.022761961 -0.03322327 -0.082147256 0.15552413 0.021101674 0.12522033 -0.10674504 -0.013912793
0.054321304 0.042052194 -0.06732423 -0.120983586 0.0008838861 -0.007760394 0.01911031 0.119572006
0.006353856 -0.10790018 0.0864333 -0.019992588 -0.1104007 -0.10390539 0.08215432 -0.06502337
-0.1408138 0.012238683 0.12437662 0.016397376 -0.15323344 -0.11588071 0.12793913 0.11871716
0.10336493 -0.11642444 0.06894864 0.14769149 -0.12923066 -0.002624064 -0.08618466 -0.029971873
-0.008272653 0.15605357 -0.058397356 0.14340475 0.01806771 0.054728005 -0.042786367 0.07791484
0.040016957 -0.06146371 -0.1154164 0.032367602 0.10650132 -0.08616129 0.085558735 0.07527591
0.10191015 0.061666097 -0.08233889 0.038516466 -0.076690346 -0.09918984 -0.08366273 0.00047119654
0.050301127 -0.08630032 0.11976059 -0.101465546 0.070129246 -0.067895725 -0.06119486 -0.11161972
-0.09546879 0.11833393 0.1350277 -0.12709655 0.11356605 -0.0025626419 0.1218604 -0.097849526
-0.006694075 -0.051507372 -0.039163113 0.09315738 -0.09813989 0.09147858 -0.090950035 0.047887046
0.06110327 0.007613457 0.03468622 -0.1260943 -0.06006306 -0.050833613 0.00325295 0.104491934
0.09769849 -0.060791906 -0.015719553 -0.036422815 -0.06592467 0.008619558 -0.059985675 0.050349057
-0.0016576867 0.08133977 0.058171485 -0.03851317 0.025221273 -0.025904458 0.112744324 0.025350388
0.0637192 0.01901436 -0.03791227 0.1004745 -0.0653568 -0.02422263 -0.016931579 -0.018989671
-0.06974876 0.05057937 0.09140801 0.114949934 -0.052946497 0.12393147 0.11793346 0.10479829
0.11497767 -0.07916403 0.09873049 0.0067644645 0.052992046 -0.089188226 -0.098283134 0.124338835
-0.09486191 -0.09339381 0.07580985 -0.08448124 -0.02854996 0.07203569 0.15460743 -0.100847356
-0.10094563 0.12623945 -0.12975706 0.09649189 0.0002719588 -0.111313306 0.10278777 0.13375004
0.06793133 0.084406234 -0.02609537 -0.12291929 -0.037190456 0.019525606 0.007391127 -0.08670136

lstm.bias_hh_l1 f4 [200]
00000000: 25af 4cbd f108 d2bb e6b5 833d 96a6 673d
00000010: 6fa3 2abd 655d 8d3d c1ec fcbd b8b8 77bd
00000020: ec3f 5c3d 8cbb 9ebd 5736 143e bd9c febd
00000030: bb6b f1bd ee71 febd 56e1 12be d941 4cbd
00000040: 6e6f c2bd 0756 cf3d 52e1 16be 18a9 1f3b
00000050: 3fe9 f7bd 9b41 3cbd 9cda 103d 9a32 d1bd
00000060: 9b5e bcbd ce75 42bd 6da7 5b3c 9bf6 fd3d
00000070: 44ed d73a 9b9f 1dbe 269d a33d 2aff a0bd
00000080: 1a53 ebbd df04 d7bc 9b2b c3bc 7e16 8cbd
00000090: 748d f23d 02ce c83d 163f f2bd 209b cebd
000000a0: 53a2 b53c 1f40 7f3d 4496 adbd a2e6 34b9
000000b0: 6e09 4dbd eb6d 85bb 20b0 07be ea0a 96bd
000000c0: 8b75 b93d 96a9 f6bd 1b81 11bd 0f97 dcbd
000000d0: cafb 69bc 7d85 ae3c 539b d1bd 3898 71bc
000000e0: 0210 e6bd 1d7f d4bc db41 f13d 4177 343d
000000f0: 2afa 163e f4ad 0e3e 60bd fabd 4967 b2bd
00000100: 5525 9e3d 544c 49bc a1d7 b4bd 5437 5cbd
00000110: 8069 73bd a9ab 0b3e 6825 f2bd 11a3 63bd
00000120: 5f82 20bd 6a64 053e 9f01 9bbc caeb 903c
00000130: afd2 8e3d f577 fabd a5d1 ab3d 80e4 19be
00000140: 1056 1b3d 25bc 603d 4d22 ff3d 9cfb f2bd
00000150: aa2e f23d 57f3 cabd c6b5 bb3d be23 073e
00000160: fc90 72bd 0c98 0fbc 7dbd 53bd 2ce0 fdbd
00000170: 4e03 933d e910 143e e3e1 0a3e ec6a a23d
00000180: fea2 b6bd 70e4 c83c b46f ea3d 9908 e9bc
00000190: 50de c9bd 027d 343c 73c6 9a3d 1e2a e93d
000001a0: ed2f e63d b0ce 20bc f76f c53d 89d2 f6bd
000001b0: b171 a63b 9d15 f43d 3449 9b3c 35f8 f53d
000001c0: 32c0 e7bd 04a8 b1bc 33a5 f1bd af3c fc3d
000001d0: 9b3f 3d3d 6c51 01bd bf67 37bd 206f d5bc
000001e0: 64a3 bd3d a90c 02bb df6a 2fbd 8e85 a0bb
000001f0: d5c2 10bd b135 1b3e a20c b3bd add2 64bd
00000200: f406 623d 4814 d7bd a6b3 32bd 4ee2 7a3d
00000210: 536d 2abd 5f3f 35bd 63b4 18be 4064 f33c
00000220: 7703 9c3c 5175 0c3e cffa d6bd e2fa a03d
00000230: 99f5 7d3d 7312 053e b3c0 88bd 2ce8 08be
00000240: f4bf 05be 7819 0f3d 0963 cbbc 5bc2 9b3d
00000250: 5bca 773d 7c18 a43d 3e82 e5bd 5609 aa3d
00000260: de35 ba3d 2fa5 8cbd 03d7 f03d bbeb 583d
00000270: e228 4dbd 0484 3d3d 575c 7cbc e722 65bd
00000280: 0332 b9bd 1132 ffbd b4db 2e3c bc68 1abd
00000290: c402 873c 0ef9 6ebd 9289 f23d e866 c5bd
000002a0: 4263 da3b 4cb5 d23d 15cb f13d dd90 193d
000002b0: 75d4 b5bd 068b 02bd ea06 063d 1344 9dbd
000002c0: 917b d9bd f515 9fbd 94a9 b4bd e726 35bd
000002d0: d607 1fbb 5ced a13d b981 143e 4464 143e
000002e0: 4198 8b3d 3ccd 93bd 98c7 52bd 634c f93d
000002f0: 563c 613d 1bc2 e2bb ab6a 5bbb 6468 cbbd
00000300: d5e9 11bd 88ec 5c3d 2901 d4bd 3c2b 6b3d
00000310: df12 863d 37de 93bd a1c0 013e 7e77 d4bd
-0.04997172 -0.0064097573 0.06431179 0.056555353 -0.04165977 0.06902579 -0.12349845 -0.060478896
0.0537719 -0.077506155 0.14473854 -0.12432239 -0.11788126 -0.12424074 -0.14343771 -0.049867485
-0.0949391 0.1012383 -0.1473439 0.0024362262 -0.12105035 -0.045961004 0.035364732 -0.102147296
-0.09197732 -0.04747563 0.013406617 0.12400552 0.0016473909 -0.15392916 0.07988958 -0.07861169
-0.1149046 -0.02624744 -0.023824504 -0.068402275 0.11843386 0.09804918 -0.11828439 -0.100881815
0.022172129 0.06231701 -0.084759265 -0.00017252055 -0.05005782 -0.004071941 -0.1325078 -0.073263004
0.09055623 -0.12044065 -0.035523515 -0.10771 -0.014281223 0.021303887 -0.10234704 -0.014745764
-0.11233522 -0.025939519 0.11780139 0.044059042 0.14743868 0.13933545 -0.12243152 -0.08711106
0.07721964 -0.012286264 -0.088301904 -0.053763703 -0.059426785 0.13639702 -0.11823541 -0.055575434
-0.03918683 0.13026586 -0.018921671 0.017690558 0.069737785 -0.12229911 0.08389596 -0.15028572
0.037923872 0.05486693 0.12457714 -0.11864397 0.11825307 -0.09909695 0.0916553 0.13197228
-0.0592203 -0.008764278 -0.051694382 -0.12396273 0.07178365 0.14459576 0.13562731 0.0793055
-0.08917807 0.02452299 0.11447087 -0.028446482 -0.09856856 0.011016132 0.075573824 0.11384986
0.1123961 -0.009814903 0.09640496 -0.12051875 0.005079471 0.11918185 0.018955804 0.12010232
-0.11315955 -0.021686561 -0.117990874 0.12316262 0.046203237 -0.03157179 -0.044776674 -0.026053965
0.0925968 -0.0019843972 -0.04282653 -0.0048987335 -0.035342056 0.151572 -0.08742644 -0.05586498
0.055182412 -0.10501915 -0.043628357 0.061250977 -0.041608166 -0.04424989 -0.14912562 0.029710889
0.01904462 0.13716628 -0.10497057 0.07860352 0.0620018 0.12995319 -0.066773795 -0.13369817
-0.13061506 0.0349364 -0.024827497 0.0760543 0.060495716 0.080124825 -0.11206482 0.08302562
0.090923056 -0.06867444 0.1175976 0.052959185 -0.050087817 0.046268478 -0.015402875 -0.05594149
-0.09042742 -0.12460721 0.0106724985 -0.03769754 0.016480811 -0.058342986 0.11842646 -0.096387684
0.0066646645 0.10288486 0.11806313 0.037491668 -0.088784136 -0.031870864 0.032721438 -0.07679
-0.106192715 -0.0776786 -0.08821407 -0.044226553 -0.0024266145 0.07906601 0.1450261 0.14491373
0.068161495 -0.0721688 -0.05145988 0.12172773 0.05498918 -0.006920112 -0.0033480327 -0.0993202
-0.03562339 0.05393651 -0.10351784 0.05741428 0.06546568 -0.072201185 0.12671138 -0.10374354

fc.weight f4 [1, 50]
00000000: b24a 8ebb 49ab 06be a675 6e3c 2814 49bd
00000010: 122d a9ba 6377 033d e4a4 8c3d c536 1abe
00000020: 0f10 c7bd bcf8 813d c4ca 7f3d 0bb5 07bd
00000030: 5ca2 aa3c fafa d9bd 53f9 973d 2429 84bd
00000040: 6597 033e 85f7 0a3d 0ae9 dbbd b528 aebc
00000050: 642e 0bbe 5792 e83d 82e8 10be 64b9 c7bd
00000060: 0e22 9a3d 3a0b 0f3e 9c9f 4b3d b64d 93bd
00000070: 9726 933d 7f9f ff3b ddaf 79bd 5fd3 efbd
00000080: 2f7f 1dbc bb06 c7bd e13e 95bd be97 01be
00000090: 4792 44bd 27ab a0bc e51f 38bc cd93 c4bd
000000a0: 9d85 82bc a3df dd3b 76ca 13be c12d c0bd
000000b0: 2906 82bd d75e e6bd 5bd2 483d 2a04 8c3d
000000c0: 1221 caba 1aa7 d2bc
-0.0043424005 -0.13151278 0.014554417 -0.049091488 -0.0012907109 0.032096278 0.06867388 -0.15059955
-0.0971986 0.063462704 0.06244923 -0.03313164 0.020829372 -0.10643573 0.07420602 -0.064531595
0.12850721 0.03392746 -0.10737808 -0.021259645 -0.13591915 0.11356037 -0.14151195 -0.09752157
0.07526027 0.13969126 0.049712762 -0.071925566 0.07185095 0.007800996 -0.060958732 -0.11710238
-0.009612842 -0.097180806 -0.07287384 -0.12655541 -0.047991063 -0.019612862 -0.011238073 -0.09598503
-0.015932852 0.0067710443 -0.14432701 -0.09383727 -0.06348831 -0.11248558 0.049028736 0.06836732
-0.0015421233 -0.025714446
