models/daily_model_DOT_USDT.pth (torch, 128277 bytes, 9 tensors)

lstm.weight_ih_l0 f4 [200, 1]
000000 a2 4e fd bd 7c 00 72 3d 7b 31 07 3e 6d 13 8f bd
       -0.12368514 0.059082493 0.13202469 -0.06986127
000010 8e ae d6 3d 93 57 bd 3d 87 f1 d9 bd 24 8e 87 bb
       0.104825124 0.09245219 -0.10641771 -0.0041368175
000020 25 ff 00 3d 70 41 f8 bd ef b4 de 3d 85 e6 d4 3d
       0.031493325 -0.12121856 0.10874354 0.103955306
000030 0f a4 06 3e 76 ec c2 bd 6b 38 03 3d 38 f7 14 bd
       0.13148521 -0.095177576 0.032036226 -0.03636858
000040 43 e7 3a 3d 23 ae 90 bd 71 17 c7 bd 38 31 b3 bd
       0.045630705 -0.07064464 -0.09721268 -0.08749622
000050 2e f5 bc 3b c8 84 a3 3c 20 55 8e 3c 6d 06 13 bd
       0.0057665324 0.019960776 0.017374575 -0.0358948
000060 dd ab eb bd 77 03 6d 3d b7 f2 a5 bd c2 ff dc 3d
       -0.1150739 0.057864632 -0.08102935 0.107909694
000070 a6 db b7 3d 20 e9 b7 3d 62 51 de 3d a4 e4 f8 3d
       0.089774415 0.08980012 0.10855366 0.12152985
000080 e7 3b 52 bc c6 a2 a2 bd d7 8c 97 bd 8d 7c fa bd
       -0.012831665 -0.07941203 -0.0739991 -0.122307874
000090 37 52 24 3e 43 89 74 bd 15 0f 02 bd 4a c2 71 bd
       0.16046987 -0.059701215 -0.031752665 -0.05902318
0000a0 bc 72 3a 3b 00 16 14 be 2a 5a 13 3c fa 59 75 bb
       0.0028449735 -0.14461517 0.008993665 -0.0037437663
0000b0 23 f5 01 3c 8a 6a 8d 3c 19 c2 83 3d 92 c0 1d bc
       0.00793198 0.017262716 0.064335056 -0.009628432
0000c0 a4 53 43 bd 3a 42 69 3d 35 d6 00 3d f5 53 95 3d
       -0.047687188 0.056947924 0.031454284 0.07291404
0000d0 b2 6e 1c 3e 84 39 c0 3d d1 ef 0b 3d 08 5c ab 3d
       0.15276602 0.0938597 0.034164254 0.08367163
0000e0 3a 07 32 3d ff b3 53 bc b3 83 1a 3d 27 8c 64 bd
       0.043463923 -0.012921332 0.037723254 -0.055797722
0000f0 d4 42 e9 bd 3f c6 17 bc 2f 99 29 3c af ec ae 3d
       -0.113896996 -0.009263574 0.010351463 0.085412376
000100 54 e8 f5 bd 0c 6f 03 be de e3 b4 bd c5 36 f4 3d
       -0.12007204 -0.1283533 -0.08832525 0.11924509
000110 d0 30 3b bd 28 8a d9 bb 2e 14 0f 3d bf d6 2c 3d
       -0.045700848 -0.006638784 0.034931354 0.042196985
000120 d0 ab 2c bc ff 9a f7 bc b3 7a 8d bd 18 94 96 bd
       -0.01053901 -0.030225275 -0.06908169 -0.073524654
000130 8d 35 2a 3d c9 e1 02 3e 6b 7c e0 3d 95 be ac 3d
       0.041554976 0.12781443 0.10961231 0.08434788
000140 b2 d5 1f 3e 54 50 a7 bd 72 9b 99 3d 29 b9 df 3d
       0.15608862 -0.08169618 0.07500352 0.10923988
000150 38 83 e4 bd da 9b a2 3d 57 8c f2 3d 13 68 d8 bd
       -0.111578405 0.079398826 0.11843174 -0.105667256
000160 5c a9 68 bd a0 78 02 3e 44 04 6d 3d e1 c9 c8 3d
       -0.05680214 0.12741327 0.057865396 0.0980413
000170 4b 97 21 3e 67 89 6f 3b 11 13 01 3c 77 7b 91 bd
       0.1578037 0.0036550404 0.007878081 -0.07103627
000180 06 0a c4 3d 0d f9 cc bc 0f 21 9b bd e6 2d a2 bd
       0.09572224 -0.0250211 -0.07574665 -0.07918911
000190 91 9b f9 bc 7a 31 8c 3d 54 8a e2 bd 6e 53 dc bc
       -0.030469688 0.068453744 -0.1106154 -0.026895251
0001a0 d7 1f 9a bd 10 27 d7 3b 5e ef 19 bd cd 64 95 bb
       -0.07525604 0.006565936 -0.037581794 -0.0045591355
0001b0 9e 1e 04 3d a3 b1 fd 3d 55 12 a6 bd d2 b8 fa 3b
       0.03225576 0.12387397 -0.08108965 0.007651427
0001c0 8e e9 61 bb 57 17 ef bd d2 eb 7d bd 41 aa 00 bc
       -0.0034471485 -0.116743736 -0.061992474 -0.007853092
0001d0 ad c3 53 bd bf 42 a9 3c 6e 14 95 bd 71 93 d2 bd
       -0.051700283 0.02066171 -0.07279287 -0.102820285
0001e0 f0 88 ac 3d cd 16 1d 3e a8 50 28 3d 5c 1d f2 bd
       0.08424556 0.15340729 0.041092545 -0.11822006
0001f0 6c 89 c4 3d 0c cf 40 3d 0e da 06 3e 27 32 ba bd
       0.09596524 0.047072455 0.13169119 -0.09091597
000200 24 5c e2 bd 5b fc 25 be b5 b6 ec 3d fd 50 04 be
       -0.11052731 -0.16209547 0.11558286 -0.1292152
000210 16 ce 93 bd ea d8 7d 3d 89 fc d1 bd 26 cd 60 bc
       -0.07217042 0.061974443 -0.102532454 -0.013720786
000220 98 a6 60 3c 35 8c 2f bd 12 ec fb bd 5c 20 12 be
       0.013711594 -0.04285832 -0.12300886 -0.14270157
000230 03 16 92 bc d8 1c a7 3c 28 05 3d 3d a2 e3 19 be
       -0.017832762 0.020399496 0.046147496 -0.15028241
000240 82 9e 15 be 3e 9d f6 bd 2c 0d 26 3d 71 d0 97 bd
       -0.14611247 -0.1204171 0.040539905 -0.07412804
000250 ee e6 ce bd 13 2b 95 bc 40 04 38 bb bd c5 da bd
       -0.1010264 -0.018209016 -0.0028078705 -0.10682247
000260 1c b7 22 3c 1a 80 d0 3c 6e 79 96 3d 14 c8 29 bd
       0.009931352 0.025451709 0.073473796 -0.041450575
000270 05 e6 3b bd 5a 96 f1 bc 1a 34 20 3b d6 76 c2 bd
       -0.04587366 -0.029490639 0.0024445117 -0.094953224
000280 f2 40 03 3e ea 01 81 3d 85 7a 69 bc 11 41 f8 3c
       0.12817743 0.06299193 -0.014250402 0.030304464
000290 e6 fb 09 3e df 5e ce 3c a6 83 ac 3d 7a 57 b6 bc
       0.13474998 0.025191722 0.084235474 -0.022258509
0002a0 4e 2f 39 bd dc 19 9d 3d e9 9f 04 3e 24 80 0e bb
       -0.04521113 0.07670948 0.12951626 -0.0021743858
0002b0 70 d7 27 bd 05 6f 85 3d c3 cb 64 bd 7d 8b 30 3d
       -0.04097694 0.06515316 -0.055858385 0.043101776
0002c0 c7 23 9d 3d c4 8c ce bd d0 29 d3 bd e2 b4 12 bd
       0.076728396 -0.10085443 -0.103107095 -0.035817035
0002d0 f9 99 a3 bd 76 d4 aa 3d 5e d4 c0 3d 54 8e a9 bd
       -0.07988352 0.08341305 0.09415506 -0.082791
0002e0 91 bb 0a 3e 51 02 2a bd 73 74 4e bd 3a 96 32 bd
       0.13548113 -0.041506115 -0.050404023 -0.0436003
0002f0 2b 05 0b bd 78 39 d7 bc d8 f4 0e 3c 39 91 23 3d
       -0.033940475 -0.02627252 0.0087253675 0.039933417
000300 bd 15 5c bd 8e 5e 9c 3d 4e 36 5d 3d 3d 1d f8 3d
       -0.05373167 0.076352224 0.054006867 0.12114952
000310 e5 e4 56 bc 19 1c cd 3d 01 c2 77 bd 73 fb 8f bc
       -0.013116096 0.10015125 -0.06048775 -0.017575955

lstm.weight_hh_l0 f4 [200, 50]
000000 9f 59 ca 3d bc 9a f3 3d a9 21 38 bd 55 69 8e 3d
       0.09880375 0.118947476 -0.044953976 0.06953684
000010 42 a3 8b 3d c2 03 d5 bd 4b 55 ee bd ae aa fc 3d
       0.06818248 -0.10401107 -0.11637362 0.12337242
000020 a0 5b 88 bc 7b 10 d6 bd 69 9b cd ba 8c 84 4e 3c
       -0.016645253 -0.10452362 -0.0015686575 0.012604844
000030 ca 7f 3a 3d 43 27 97 3c 00 71 e5 3d b6 b4 05 be
       0.045532025 0.018451339 0.11203194 -0.13057217
000040 f0 e6 88 bc 8d 94 e2 3d a8 da 52 bd c3 f1 fd 3d
       -0.016711682 0.1106349 -0.051478058 0.12399628
000050 e7 7d 94 bd d2 b6 6e 3c 86 44 06 be ac 2e c2 bd
       -0.072505765 0.014569955 -0.13112077 -0.09481558
000060 a2 c7 83 bd 76 2f e7 bb 1f 53 a6 3d f9 c7 1a 3d
       -0.06434561 -0.0070552183 0.08121323 0.037788365
000070 45 74 9d bd 8e eb 1f 3e bd 2a c4 bc 4a 65 fd 3d
       -0.07688192 0.156172 -0.02394616 0.12372835
000080 cc 42 b5 bc d5 59 20 be b9 a1 63 3d 72 aa 9c b9
       -0.022126578 -0.15659268 0.055574153 -0.0002988163
000090 76 6c 12 bd 58 32 59 bc a1 f7 bb 3d 80 72 8b 3d
       -0.035747968 -0.013256632 0.09178091 0.068089485
0000a0 f5 92 45 3d fd d2 5a bd 43 fb ab bd 8f 68 0d bd
       0.048235852 -0.05342387 -0.08397534 -0.034523543
0000b0 c2 3a 11 3e 9c 3e bb 3d 59 6e 85 3d 23 32 04 3e
       0.1418257 0.09142801 0.06515188 0.1290975
0000c0 db 8c ae 3d 43 6f 5e bc 37 e0 13 3e 28 8f 8b 3d
       0.0852296 -0.013576332 0.14441 0.06814414
0000d0 6b 1f d2 3d f5 86 79 bd 7e 3e c8 bd a9 0e 1b 3e
       0.10259899 -0.06091972 -0.097775444 0.15142311
0000e0 18 1b be 3d ec 38 5c 3c 19 5d d9 3d 10 e8 d2 3d
       0.092825115 0.013441306 0.1061346 0.10298169
0000f0 b8 33 fa bd cf 87 d8 3d 6f 32 1e be 27 d8 a5 3d
       -0.12216896 0.105727784 -0.15448926 0.080978684
000100 56 7e 9c 3d 31 28 b1 3c 3e 72 74 bc 31 98 8a 3d
       0.07641284 0.02162561 -0.014919816 0.067673095
000110 05 ee 55 bd f2 bf 04 bc 07 63 b6 bc 4f 8d ad bd
       -0.052228946 -0.008102404 -0.022264017 -0.08474218
000120 12 e8 10 3d a1 65 44 bd 5b f2 f0 bd 24 34 d8 bd
       0.03537757 -0.047948483 -0.11764976 -0.1055682
000130 fe 75 95 3d 55 db d3 3d 49 e5 9e bd 64 e4 85 bc
       0.07297896 0.10344569 -0.077585764 -0.016344257
000140 a6 d4 e8 ba 03 ea fa 3d 22 84 7b 3d 6f 34 23 3e
       -0.001776357 0.122516654 0.06140531 0.1593797
000150 b7 0d 8f 3c b7 40 85 3b 29 2c 53 3d ea d4 14 be
       0.017462594 0.0040665525 0.051555786 -0.14534345
000160 fc 66 25 3d 92 1e 6a bd df bf 65 3d 44 1e fe bc
       0.040381417 -0.05715806 0.056091186 -0.031020291
000170 24 2c f3 bd 09 ec f1 3c 31 5f 0c bd 35 4e 1f be
       -0.118736535 0.029531496 -0.03427047 -0.15557177
000180 de 77 ec bd f8 3f 46 3d 90 6d 98 3d cd 7a b3 bb
       -0.115463 0.04840085 0.074427724 -0.0054772855
000190 e6 06 d8 3d 28 ce 62 3d a6 e8 e1 3d b0 e9 7d bd
       0.10548191 0.055372387 0.11030702 -0.06199044
0001a0 99 1b ae bd 0e 14 2e bd 33 ee 17 3e 60 12 a4 3c
       -0.085013576 -0.042499594 0.1483696 0.020028293
0001b0 f2 78 a6 3d f9 3c ef 3c 0c c7 db bd fa 2d 1f 3e
       0.08128537 0.029203879 -0.107313246 0.15544882
0001c0 67 53 20 be d7 48 2e 3d a7 c4 ca 3d 33 76 76 3d
       -0.15656815 0.042549934 0.0990079 0.060171317
0001d0 67 ea 1b be 61 0b 83 bd a7 55 0e bd 14 90 6f 3d
       -0.15226136 -0.06398655 -0.034749653 0.058487013
0001e0 71 eb c5 bd f6 ca 06 bc 3c bc 80 bd 83 55 d3 bd
       -0.096640475 -0.008227101 -0.06285903 -0.103190444
0001f0 19 25 a4 bd d1 a7 a6 bb fb 32 eb 3d 6c f3 b1 bd
       -0.08014888 -0.0050859232 0.11484333 -0.08689007
000200 25 b7 52 bc 90 40 a1 bd b5 ec 09 3e 0a 58 c9 3d
       -0.012861048 -0.078736424 0.13469203 0.09831245
000210 52 66 a2 bd 01 62 80 3d 5d 0b c4 3d 24 e4 46 bc
       -0.07929672 0.06268693 0.0957248 -0.012139354
000220 56 7b 59 3c b1 ce df bd 2e 5b d9 bc 11 de cc bc
       0.0132740345 -0.10928095 -0.026532736 -0.025008233
000230 29 6e dd bd 08 8e f9 bd 59 99 73 bd 2c ed d9 bd
       -0.10812027 -0.121852934 -0.059472416 -0.1064094
000240 92 02 d6 bb b3 01 3c bd f4 26 71 bd f8 0a e8 bc
       -0.006531068 -0.045900058 -0.05887504 -0.028325543
000250 fe 7b 37 3d 9e 73 b7 3d 34 ac 6f 3d 32 73 d5 bd
       0.044795983 0.08957599 0.058513835 -0.104223624
000260 c1 c0 b6 bd 61 f4 00 3e 9c 6f 88 3d 67 50 09 bd
       -0.08923484 0.12593223 0.06661913 -0.033523943
000270 d2 29 ef bd 96 63 e8 3d 28 6b 03 3d 01 70 4b bc
       -0.116778985 0.113471195 0.032084614 -0.0124168405
000280 21 5d 05 be 9f e4 8d bd f1 a6 84 bd 4a ef a8 bd
       -0.13023807 -0.06928372 -0.06477154 -0.08248766
000290 84 52 d2 bc 47 b5 9a bd a4 0e 52 3d ab 67 97 3d
       -0.025674112 -0.07554107 0.051283494 0.0739282
0002a0 c5 4d 96 bd 58 6a 32 3d d1 45 98 3c d9 5e 6e bd
       -0.07339052 0.04355845 0.018587979 -0.058195923
0002b0 9a 5a f1 3d 7b e9 b7 bd 0c ed af 3d 46 dd 0a be
       0.11784859 -0.0898008 0.08590135 -0.13560972
0002c0 40 36 0a 3e 9d bb 2f 3d 7b 11 d2 3d 04 24 a8 3d
       0.13497257 0.04290353 0.102572404 0.082099944
0002d0 3b 19 05 3e a8 9f f8 3d e4 e7 79 3d 9d a5 38 3d
       0.12997906 0.12139827 0.061012164 0.045079816
0002e0 90 19 d5 bd 30 03 08 be b8 1c d6 3d 51 dc 00 3c
       -0.10405266 -0.13282466 0.104546964 0.0078650275
0002f0 b3 51 8d 3d 41 b2 b8 3d 27 dc 07 be 73 f1 b9 bc
       0.069003485 0.09018374 -0.13267575 -0.02269814
000300 8f e8 8e 3d a3 50 96 3d 22 ba 4d 3d 55 dc ad 3d
       0.06977951 0.07339599 0.05022634 0.084892906
000310 af 68 07 3c 3e 38 82 3d 41 bb 74 3b b9 18 af 3c
       0.008264705 0.063583836 0.0037343057 0.021374093
000320 43 3c 75 bd 57 69 80 3a 25 7e 9d 3d 59 79 e1 3d
       -0.059871923 0.0009797019 0.07690076 0.11009473
000330 3a 79 fe bd fe 2f 1a 3e f4 87 1d 3d e3 b7 06 be
       -0.12425466 0.1505737 0.038459733 -0.13156085
000340 b9 d5 ee 3c 5c e6 76 bb c9 d7 6f 3d c8 08 bd bd
       0.029154645 -0.0037673926 0.058555398 -0.092301905
000350 85 01 99 bc 97 ad 5f bc 44 5f d2 bd 65 86 42 bd
       -0.018677482 -0.013652227 -0.10272077 -0.04749145
000360 8d cc 4f 3c 27 bc 0e 3e b5 b7 c0 3d e4 b8 93 bd
       0.012683046 0.13938962 0.09410039 -0.072129995
000370 23 eb d0 3d 87 1c da bd 25 a6 1c be 7d 91 8e 3d
       0.10201099 -0.106499724 -0.15297754 0.069613434
000380 78 d8 1c bd 4c 7e 6d 3c 54 7e be 3d 4b 20 16 3d
       -0.03829238 0.014495444 0.09301439 0.03665189
000390 2d 8a 9f bc ed bb 87 3d 80 21 9b bc ea 23 f7 bd
       -0.019475067 0.06627641 -0.018936872 -0.12067397
0003a0 42 f6 1f be 3a b2 ad bd ee 0b ac bd 81 78 1f bd
       -0.15621284 -0.0848126 -0.08400713 -0.03893328
0003b0 0c 9b 11 be 53 2e 7f 3d 13 14 07 be bc 67 0f be
       -0.14219302 0.062300038 -0.13191251 -0.14004415
0003c0 97 08 1d bd 65 9a ce 3d b1 03 cd bd 06 4f bb bd
       -0.03833827 0.10088042 -0.1001047 -0.09145932
0003d0 1c 5e 18 bd d0 59 39 bd 7b 0e 0d 3e 7f 65 f3 3d
       -0.037199125 -0.045251667 0.13775055 0.11884593
0003e0 cf 54 9b bd cf c1 d1 bd a4 91 3a 3d 2f 58 12 bd
       -0.07584535 -0.10242044 0.04554905 -0.03572863
0003f0 25 5f 9e bd 68 62 dd bd 84 d2 0e be 8d a3 9e bd
       -0.07732991 -0.10809785 -0.13947493 -0.077460386

lstm.bias_ih_l0 f4 [200]
000000 be b2 9a bd d6 49 a6 3d 5a c0 d9 bd f6 52 86 3a
       -0.075536236 0.08119552 -0.10632391 0.0010248113
000010 c5 d0 b3 bd 67 ce 76 bd 12 c1 91 bd ec 9f 50 bd
       -0.08780054 -0.060255434 -0.07116903 -0.050933763
000020 4f 5e be 3d d0 58 8d 3d 42 6b 1c 3b ff 4f 02 3e
       0.09295332 0.06901705 0.0023867642 0.12725829
000030 97 bc aa 3c 38 39 d7 bd 94 86 55 bc f4 0a 84 bd
       0.02084188 -0.105089605 -0.013032574 -0.06447402
000040 0f a9 6f 3d 41 66 9b bc 97 f2 b0 3c bd 0f 23 bd
       0.058510836 -0.018969657 0.02160005 -0.03980993
000050 b7 b5 f4 bd 61 46 f1 3d 75 b6 a9 3c 70 97 90 bd
       -0.11948722 0.11781002 0.020716885 -0.070601344
000060 31 8b 3b bc ff c4 07 3e f1 21 dd 3d 38 da 1d bd
       -0.01144676 0.13258742 0.107974894 -0.038538188
000070 ea bd f9 3d f9 87 aa 3c 87 b5 e3 3c 6c 2d 45 bd
       0.12194426 0.02081679 0.02779652 -0.04813902
000080 ee a4 07 3e f4 63 c6 3d 59 d2 83 3d f2 f1 ab 3d
       0.1324651 0.09687033 0.06436605 0.08395757
000090 a9 9a d2 bd 13 00 80 3d 67 10 e9 3d 8f 53 7e 3d
       -0.10283405 0.06250014 0.113800816 0.062091406
0000a0 cc 30 0d 3c 98 01 8f bd 74 25 ab 3d 89 72 f1 3d
       0.008617591 -0.06982726 0.08356753 0.11789424
0000b0 c7 bd 7a bd 7f 9d 08 3e 1f 44 4b 3d 23 6e 07 3e
       -0.061216142 0.1334133 0.049625512 0.13225608
0000c0 2d ef cb 3d ff a1 39 3c a2 f6 11 3e a2 d2 d1 3c
       0.099577285 0.011330127 0.14254239 0.025613133
0000d0 64 d5 cb bd 46 31 b2 bd 05 30 cc 3d 79 6b b6 3d
       -0.099528104 -0.087008044 0.099700965 0.089072175
0000e0 b7 91 18 3c bd 30 da bd b7 50 ea bd 4a 6a 01 3e
       0.009312085 -0.10653827 -0.114411764 0.12638202
0000f0 da ed 8e bd 27 10 da 3d d9 2b a0 3d b2 2b fd bd
       -0.0697896 0.10647612 0.07820863 -0.1236185
000100 82 27 12 3e 48 bb 0c be df 57 3c bd 49 99 a2 3d
       0.14272884 -0.13743317 -0.045982238 0.07939393
000110 8c 6e 9b bd 6e 28 e6 bd ae c7 14 be 42 e0 f1 3d
       -0.075894445 -0.1123818 -0.14529297 0.11810352
000120 18 e7 b1 3d f8 4f 8c 3c 30 af 56 3d e8 61 b4 bd
       0.08686656 0.017127976 0.052413166 -0.08807737
000130 0f 6e a4 3d 92 69 d1 3d 1e 07 00 ba 6d 94 e6 bd
       0.080288045 0.10225214 -0.0004883873 -0.11258779
000140 80 c5 a3 3c 96 0d 05 3e e8 f1 5e bc 5f 52 00 3e
       0.019991636 0.12993464 -0.01360748 0.12531422
000150 84 03 05 3e d0 8d 0d 3e ea d5 c0 3d 7d 09 60 3d
       0.12989622 0.13823628 0.09415801 0.05469655
000160 ab aa 11 3d f8 a9 1f 3e 8e 4d c9 3c 49 02 d8 bc
       0.035563152 0.15592182 0.024573114 -0.026368277
000170 2e ed b1 bc 94 b8 b2 bd e2 31 ea 3d b8 2a 47 3d
       -0.021719541 -0.08726612 0.11435296 0.048624724
000180 f5 e8 b2 bd 22 64 f3 3a c8 d4 84 3d b0 3c bd 3c
       -0.08735839 0.0018569271 0.06485897 0.023100227
000190 1d 4e 3b 3d f5 21 07 bc 09 f8 96 3d 32 cc cf 3d
       0.04572879 -0.008247842 0.07371528 0.10146369
0001a0 1b 60 4b 3d 3c 5c 78 3d e9 16 f7 3d 6a fd 5c bd
       0.0496522 0.060634837 0.12064917 -0.053952612
0001b0 fd 08 b1 3d 7f c6 4e bd 72 74 27 bd 08 e7 7a bd
       0.086442925 -0.05048227 -0.040882535 -0.061255485
0001c0 02 af 2a bd a9 0e c1 3d 09 5b bf 3d a0 33 47 bd
       -0.041670807 0.09426624 0.093435355 -0.048633218
0001d0 9e 61 85 3d a6 67 97 bd 15 1e 96 3d d8 8f 8f bd
       0.065127596 -0.07392816 0.073299564 -0.07009858
0001e0 be c5 cc bd 4d ae 94 3d 11 49 97 bd 08 d3 eb 3d
       -0.09998654 0.07259808 -0.07386983 0.115148604
0001f0 d6 4b 09 be 0f 97 ed 3d 73 bb 51 3c db eb f7 3d
       -0.13407835 0.11601078 0.012801039 0.12105533
000200 14 d8 cb bd c4 c9 b2 3d ad f7 77 3c dd d4 11 3d
       -0.09953323 0.0872989 0.015134734 0.035603393
000210 4b 25 0b be a3 49 f8 bd 0d 3c e4 bd 6a ca 9c 3d
       -0.13588445 -0.1212342 -0.11144266 0.07655795
000220 04 f1 dd bd 29 00 1e bc 39 c2 59 bd f2 06 52 bd
       -0.10836986 -0.009643593 -0.05316374 -0.051276155
000230 3d 0f e7 3d 0b 28 e5 bc 1a a4 0d 3e 9c 6d 73 bd
       0.11282203 -0.027973196 0.13832131 -0.059430704
000240 f8 dd ac 3d 3f f2 25 bd 19 ac 06 bd 04 6e b8 3d
       0.08440775 -0.040514227 -0.03287897 0.09005359
000250 39 1e ee bd f0 2f 16 be e1 4e 9e 3d 97 c7 aa bd
       -0.11626858 -0.14666724 0.07729889 -0.0833885
000260 66 6c f1 bd e3 23 31 3d b3 a4 ad bd 29 3d c1 bd
       -0.117882535 0.043247115 -0.084786795 -0.094354935
000270 50 ad 91 bb 68 9d 6d 3d 1f bb 20 3b 4a dc d1 bd
       -0.0044457093 0.058011442 0.0024525595 -0.10247095
000280 16 af 0f 3e 98 df 6d 3d 52 4f 6b 3c 0b c8 ca bd
       0.14031634 0.058074564 0.014362173 -0.099014364
000290 b8 76 dc bd bf bb e4 bc 7d 97 67 bc 8e 47 81 bc
       -0.10764831 -0.027921556 -0.014135239 -0.01578119
0002a0 2c ed cb 3c 1f 7e f4 3d 29 f2 8c bb 47 59 e3 bd
       0.024893366 0.11938118 -0.0043013287 -0.11101013
0002b0 74 7f b2 bc f8 c4 d0 3d 06 44 f0 3c b1 4e 5e 3d
       -0.02178929 0.10193819 0.029329311 0.054274265
0002c0 2d bd a2 bc cb eb 74 3d ff d0 fb 3d 0f ff 49 bd
       -0.019865597 0.059795182 0.12295722 -0.04931551
0002d0 96 d3 ca 3d f3 20 ac bc a1 95 98 3d 22 d2 1d 3c
       0.09903638 -0.021011805 0.074504144 0.009632619
0002e0 be 72 12 3e 1f 5c da 3d 71 0e d6 3d c4 58 e3 bd
       0.14301583 0.10662102 0.10451973 -0.11100915
0002f0 a9 5c 0b be ef 29 b0 bc 96 4e bc bc 12 45 39 3d
       -0.13609566 -0.02150437 -0.022986691 0.045231886
000300 c5 19 34 bd f2 6b 96 3d 82 81 89 bd a1 db bc 3d
       -0.04396989 0.07344808 -0.06714155 0.092215784
000310 f9 fe 72 bd 37 4c b8 bd a8 15 a2 ba 43 ce 85 3d
       -0.059325192 -0.08998912 -0.0012366073 0.06533482

lstm.bias_hh_l0 f4 [200]
000000 6b 34 6a 3d 67 95 ea 3d 15 33 2f bc c1 05 92 3d
       0.057178896 0.114542775 -0.010693331 0.07130004
000010 02 79 b0 3c a7 ed 0a 3d ee 97 24 3d 1d 21 bc 3c
       0.021542076 0.03391805 0.040183954 0.022965008
000020 cc ed b4 bc 3f c9 a6 3b 99 da 02 bc 17 f9 b4 3c
       -0.022086047 0.0050899084 -0.007986688 0.022091432
000030 92 2e d5 3d b9 aa 81 3d c5 3b 1b 3e 9f a0 1f 3d
       0.10409273 0.06331391 0.15159519 0.03897154
000040 1f ff 9b bd dd 4d 84 3d 8c 95 97 3b b0 f6 96 3d
       -0.0761702 0.06460164 0.0046259817 0.07371271
000050 b9 5d a9 3d 82 24 3c bc 49 6e 09 3c 85 0c 8e 3d
       0.08269829 -0.0114833135 0.00838811 0.06935982
000060 28 41 d5 bd f7 d9 23 3e d2 e0 ec bd 3e 38 ab bd
       -0.10412818 0.16001116 -0.115663186 -0.08360337
000070 69 a6 d9 bd a0 fa 09 3e 8d 8b 07 bd 0a e9 47 bd
       -0.10627443 0.13474512 -0.03309207 -0.048806228
000080 6c 66 01 3e 07 fb 8c 3d 30 03 ec bd df d2 54 3d
       0.12636727 0.06883817 -0.115240455 0.051958915
000090 82 f9 fa 3d a3 80 97 3d 33 86 94 3d 72 a0 1a bc
       0.12254621 0.073975824 0.07252159 -0.009437667
0000a0 9a 29 d6 bc 37 37 22 3c 45 a9 19 3e dc b2 0f 3e
       -0.026142884 0.00990086 0.15005977 0.14033073
0000b0 6f 68 fe 3d 8a 2e 09 bd 04 a6 93 3d 62 9f d4 bc
       0.12422263 -0.03349165 0.07209399 -0.025954906
0000c0 4b 64 d2 3d 2b df 77 3c ca 59 00 3e df 18 d9 bd
       0.102730356 0.015128891 0.12534252 -0.10600447
0000d0 83 e5 f1 bd 8f ed 40 3d ef cc de bd ce c2 d7 3c
       -0.11811354 0.047101554 -0.10878932 0.026338007
0000e0 89 0f 0e 3e 29 22 e9 3d 34 4f 6a 3d bf f5 16 3e
       0.13873114 0.11383469 0.05720444 0.14742182
0000f0 e6 04 b1 3c b9 20 df 3d 8b 4f 45 bd 84 a6 a5 bd
       0.021608781 0.10894913 -0.04817156 -0.08088401
000100 14 4f 38 bb 44 36 b1 bd 92 52 ae bd 89 35 11 bd
       -0.0028123306 -0.086529285 -0.08511843 -0.035451446
000110 96 00 e0 bd d3 9c 46 bd d2 c2 d7 3d b9 d7 2b bd
       -0.10937612 -0.048489403 0.10535206 -0.041953776
000120 86 1b 35 3c 9e 0a a4 bb 33 2b cc 3c 55 7c 23 bc
       0.011053925 -0.0050061485 0.024922943 -0.009978374
000130 1f 1e d0 bd 18 6d 45 3d 2a a6 18 3e 8d 7f 16 3d
       -0.10161995 0.048199743 0.14907137 0.036742736
000140 df 23 6e bd ab 4c bf bc d2 79 c7 3c f6 b3 22 3e
       -0.058139678 -0.023351988 0.02435008 0.15888962
000150 90 62 9d bd b9 26 e8 bd 12 0b 14 3e e5 b3 1b bd
       -0.07684815 -0.11335511 0.14457348 -0.038013358
000160 e6 f5 13 3b 5e df df bd e0 d9 aa 3d 0d 57 94 bc
       0.0022576987 -0.10931276 0.083423376 -0.018107915
000170 76 33 a7 bb 3e e9 88 bd 84 c6 d5 3d ec e8 a2 bd
       -0.00510257 -0.066851124 0.104382545 -0.079545826
000180 37 b5 04 3e 0b 25 75 bd 07 b4 8a 3d 2b 3b cb 3d
       0.12959753 -0.05984978 0.06772619 0.09923395
000190 5e 6b 04 3e 65 d5 35 bd 00 f9 cd bd ee a0 09 3d
       0.12931582 -0.044392962 -0.100572586 0.03360074
0001a0 03 1d 58 bd 0a ae 7c 3b d3 0e 88 bc aa ff a4 bd
       -0.052762043 0.0038555884 -0.016608631 -0.080565766
0001b0 d7 78 09 3c a1 14 00 be 41 8e b6 3d 12 be 9d 3d
       0.008390627 -0.1250787 0.089138515 0.07702269
0001c0 39 08 4f bc 16 8b 48 bd 58 e8 de bd 14 75 04 3d
       -0.012636238 -0.048960768 -0.1088416 0.032338217
0001d0 a5 cf b1 bd 75 40 33 bc a8 fe 83 3c a6 92 9f 3d
       -0.08682183 -0.010940661 0.01611264 0.07791643
0001e0 28 e4 a1 bd c2 16 ad 3d 7b 5a 93 bd ae 22 ca 3d
       -0.079048455 0.08451606 -0.07194992 0.09869896
0001f0 ed 5c 41 bd c3 03 e6 bc d5 bc f9 bd 70 90 2c bd
       -0.04720776 -0.028077966 -0.1219422 -0.042129934
000200 e5 cf 75 bd b1 87 21 3d b4 6c 3a bd 04 ec 9a 3d
       -0.060012717 0.039436046 -0.045513824 0.07564548
000210 a2 8e 40 bd 97 2c 9b 3d 1a 59 d7 3c bc 7e fc bd
       -0.047011025 0.07576864 0.026287604 -0.1232886
000220 ad 34 16 be f9 4e 51 bd d0 dd 81 bd 8a 72 23 3d
       -0.14668532 -0.051100705 -0.063411355 0.039904155
000230 94 27 f2 bc 00 b6 83 bd 56 3c 1a 3d 09 a6 b3 3c
       -0.029559888 -0.06431198 0.037655197 0.021929758
000240 06 2b f8 bd 57 ff 09 be 95 49 e5 3c 97 e5 94 ba
       -0.12117581 -0.1347631 0.027989188 -0.0011359927
000250 72 63 5f bd 62 78 46 3d a7 e8 c6 3b 61 18 bd 3c
       -0.054538198 0.04845465 0.006070215 0.023082914
000260 39 08 14 3e 49 89 54 3c d4 55 ae 3d 49 87 6a bd
       0.14456262 0.012972184 0.08512464 -0.057257924
000270 81 30 15 3e 75 c3 79 3d 43 2c f3 bc b0 4c e8 3c
       0.14569284 0.060977418 -0.029684192 0.02835688
000280 83 66 06 3e 32 fb b0 bc c1 e2 71 bd 80 c3 57 3d
       0.13125043 -0.021604154 -0.05905414 0.052676678
000290 7a 50 90 3d 20 a0 16 3d 82 ab 15 3e 27 d9 a1 3d
       0.070466 0.0367738 0.14616206 0.07902747
0002a0 c3 61 02 3e ca 2f 05 3e 36 57 df bd 8a 62 13 bd
       0.12732606 0.13006511 -0.10905306 -0.035982646
0002b0 c0 03 6d bd aa 16 9b 3c 42 db fe 3d 74 3d 8c bc
       -0.057864904 0.018931706 0.12444164 -0.017119147
0002c0 76 be 11 be 27 4c 32 bd 2d 9c 76 3d 5c eb 6d 3d
       -0.14232811 -0.043529656 0.060207535 0.058085784
0002d0 ed 46 96 bd 34 c8 49 3d c3 a4 3c 3d 57 79 c3 bb
       -0.07337747 0.049263194 0.046055567 -0.0059653926
0002e0 0c b4 5c bd 1c 1b 38 3d 18 12 d5 bd 6e 76 4b bd
       -0.053882644 0.04494773 -0.10403842 -0.04967349
0002f0 ab e8 f8 bd 58 24 d1 bb d9 55 2c bd 38 9f ac 3d
       -0.12153753 -0.0063825063 -0.04207406 0.08428806
000300 e8 0a 91 bd 3e 8a eb 3d 93 25 fd bb da 6e 9a 3d
       -0.07082158 0.11500977 -0.0077254265 0.075406745
000310 ce 1a ee bd 04 fa 10 3d db 3f bb 3d de 1a a0 3d
       -0.11626206 0.035394683 0.09143039 0.078176245

lstm.weight_ih_l1 f4 [200, 50]
000000 c5 b9 db 3d 02 55 85 3d bc df e9 bd f9 9e 9e 3c
       0.10728792 0.065103546 -0.11419627 0.019362913
000010 49 c4 12 bd 40 a0 1e 3e a4 43 e3 bc 9f ec 86 3d
       -0.035831723 0.15490818 -0.027742215 0.06588101
000020 14 cd 94 3d 88 87 0f bb 10 ee 32 3d 18 c4 32 bb
       0.07265678 -0.0021900851 0.043684065 -0.0027277526
000030 bf 32 b6 3d c6 3d b3 3d 4b 62 1a be 00 8e ac 36
       0.08896398 0.08752017 -0.15076558 5.1425304e-06
000040 10 51 05 3c 90 54 c2 bd 35 b0 7f bd 0b 8d 41 bd
       0.008137003 -0.09488785 -0.062423903 -0.04725365
000050 f4 5e d8 3d ef 67 c6 bd 96 7b 12 be 7d 29 61 bd
       0.10564986 -0.096877925 -0.14304957 -0.054971207
000060 de be 89 3d cb 1f e7 bd 9d 87 87 bd 1e d4 a0 bc
       0.06725858 -0.11285361 -0.06617663 -0.019632395
000070 a6 13 bc bc dd 0e d8 3d ce d3 8a bd 7d 3d e3 3b
       -0.022958588 0.1054971 -0.0677868 0.00693482
000080 e5 a5 cb 3d 9d 55 a4 3d d4 f9 ca bd 7a 66 4d 3b
       0.09943751 0.08024142 -0.09910932 0.0031341598
000090 71 f7 e2 bd 3d e0 8a bd 99 38 a1 bc c7 47 a5 3d
       -0.11082352 -0.06781051 -0.019680308 0.08070331
0000a0 55 b0 11 3e 06 19 c6 3c 96 37 d3 bd f3 aa 59 3d
       0.14227422 0.024181854 -0.103133366 0.053141546
0000b0 8c 13 72 3d 88 21 75 bd b4 06 25 bd 21 c1 78 3d
       0.059100673 -0.05984643 -0.040289596 0.060731057
0000c0 48 8c 9f 3d 9e e6 0f be 89 74 b7 bd e3 20 ef 3d
       0.077904284 -0.14052817 -0.08957774 0.116761945
0000d0 34 22 f2 3d 9e 3c 85 bd 74 56 a6 bd a5 f6 bb 3d
       0.1182293 -0.065057024 -0.081219584 0.09177903
0000e0 25 02 c6 3d 23 c4 ad 3d 03 a7 5b bd 68 99 80 3d
       0.09668378 0.08484676 -0.05362607 0.0627926
0000f0 f2 ff e4 bd 70 de fb ba 9d 8b c6 bc 77 6c d5 3d
       -0.1118163 -0.0019216072 -0.024236495 0.10421079
000100 d0 0a f2 3d 7f 37 92 3c a9 c8 1b bd 82 89 88 3d
       0.118184686 0.017848728 -0.03803316 0.066668525
000110 44 f9 98 3d 11 ff 02 3e b4 cd f0 3d e4 c0 0f 3d
       0.07469419 0.12792613 0.11757985 0.035096064
000120 d8 87 09 be 43 15 d2 3c 27 8a 3e 3d 32 5d 13 3a
       -0.13430727 0.025644904 0.04651847 0.0005621492
000130 dd 50 83 3c 25 5b 35 bd 24 6c 6f bd 93 97 18 bc
       0.01602977 -0.044276375 -0.05845274 -0.009313482
000140 55 62 ac bd 5d 0e e7 3d 91 49 1e 3c 94 a1 07 be
       -0.08417193 0.112820365 0.009661094 -0.13245231
000150 63 64 b6 bd 0c c5 9c bd 92 cc 16 3e 75 3e b5 bd
       -0.08905866 -0.07654771 0.14726475 -0.08849803
000160 42 b6 11 3e 0f e8 d6 3d 22 ea e9 3d b8 c6 e2 bd
       0.14229682 0.104934804 0.114216104 -0.11073059
000170 38 2b 99 3c 66 b4 d9 3d 4a 46 3b 3c 98 d3 25 3d
       0.018697366 0.106301114 0.011430332 0.040484995
000180 68 54 9a bb be 02 81 bc e8 ab c3 3d d9 bd 90 bd
       -0.004709769 -0.015748378 0.09554273 -0.070674606
000190 17 93 a4 3d d2 48 4f bd cf 80 22 bc 4f cc 03 bd
       0.08035868 -0.050606556 -0.009918406 -0.032177266
0001a0 42 01 87 bd 28 04 40 bd 16 c4 2f 3c 53 94 3c bd
       -0.06592037 -0.046878964 0.010727903 -0.04603989
0001b0 21 fa 1b 3d 37 38 1b bc fe bf 04 be 06 35 43 bd
       0.03808034 -0.009473852 -0.12963864 -0.04765799
0001c0 29 68 81 bb 8a d6 bf 3c 76 4a 57 bd 44 84 93 bd
       -0.0039491844 0.02341773 -0.052561246 -0.07202962
0001d0 a5 1c 31 bd d1 a6 cc bc 28 ad 81 3d 2a 38 23 3d
       -0.04324021 -0.024981888 0.06331855 0.039848484
0001e0 27 db 89 3d 26 07 80 bd 4c 0c e3 3d b0 4b 36 bd
       0.06731253 -0.062513635 0.1108633 -0.044505775
0001f0 04 39 2d 3d c6 64 0a 3e 77 d5 d1 3d 1f 4b 83 bc
       0.042290702 0.13515005 0.10245793 -0.016027031
000200 6e 8c a3 bc 24 f5 84 3d 34 64 c5 3c 78 6a 17 3d
       -0.019964423 0.06492069 0.024095632 0.03696677
000210 9d 4d 1d be cb c3 e3 3d 34 5a 1a be 45 0c 1e be
       -0.15361638 0.11121329 -0.15073472 -0.15434368
000220 9b 8c 9e bc 19 de 15 3c 64 43 09 bd 32 21 b5 bd
       -0.019354155 0.0091471905 -0.033511534 -0.08844222
000230 a5 54 92 3d ee d4 98 3d a9 80 9b 3d 78 3d f6 3d
       0.07145051 0.07462488 0.07592899 0.12023443
000240 66 5a 26 3b cc 44 ca 3d c3 b2 09 3e d7 20 b5 bd
       0.0025383472 0.09876403 0.13447098 -0.08844154
000250 16 19 92 bd a8 d5 fa bd 8b 82 9b bd 6f de 0e be
       -0.07133691 -0.12247783 -0.075932585 -0.13952039
000260 8c ef 51 bd 10 c1 b0 bd 4d dd 91 bd 92 da 9e bc
       -0.05125384 -0.08630574 -0.07122288 -0.019391332
000270 55 9d d2 bd 16 eb 07 be d8 2e 09 be 77 4b 55 bd
       -0.10283915 -0.13273272 -0.13396776 -0.052073922
000280 8a 79 03 3e 28 a9 f8 3b 63 3e 87 bd b8 5b e9 3c
       0.12839332 0.0075885244 -0.06603696 0.028486118
000290 e6 7d 56 bd 95 0b 14 bd 3f 05 a7 bb e9 02 1f be
       -0.05236616 -0.036143858 -0.005097061 -0.15528454
0002a0 46 80 f4 3d 22 98 d4 bd 9f 43 d3 3c ee d8 13 3d
       0.11938529 -0.103805795 0.02578908 0.036095552
0002b0 26 db aa bd 12 4f c1 3b a0 f9 e0 3d 29 37 da 3d
       -0.083425805 0.0058993185 0.10985112 0.10655052
0002c0 bb e2 2d bc 4a db e4 3b 2d 59 4e bd be 2b 9a 3d
       -0.010613139 0.006984149 -0.050378013 0.075278744
0002d0 a3 ac 46 bc c7 fc b2 3d 87 49 16 3e ec 83 16 be
       -0.012126121 0.0873962 0.14676486 -0.14698762
0002e0 2f c2 ca 3d e5 d7 92 3c 06 3a ed 3c e0 35 8f 3d
       0.09900319 0.017925212 0.028958332 0.06992698
0002f0 cb a8 9d bd 93 96 45 3d cc 13 a8 3d 02 ef 9f bd
       -0.0769821 0.048239302 0.08206901 -0.07809259
000300 89 65 dc bd e9 f4 2d bc 93 ca 74 bc eb a1 c6 bc
       -0.10761554 -0.010617473 -0.014940876 -0.02424713
000310 60 df d2 3c f0 e0 10 3e 47 18 be 3d 27 40 0d be
       0.02574128 0.14148307 0.09281974 -0.13794003
000320 e4 67 a2 bc 59 71 13 be 8f ac 6b 3d 92 8f a2 3c
       -0.01982493 -0.14398707 0.05753761 0.01984385
000330 0c 97 14 3e b1 75 9f 3c 9d 0b db 3d 8f 89 94 bd
       0.14510745 0.0194653 0.106955744 -0.072528
000340 e9 8b 92 3d 76 a0 de bd 60 9a 11 3e 12 94 ce bd
       0.07155592 -0.10870449 0.14219046 -0.10086836
000350 d1 7d d9 bd 30 33 a7 3c 93 50 91 bd 37 c2 37 bc
       -0.10619701 0.02041015 -0.070954464 -0.011215738
000360 63 eb 9f bd 72 aa f8 bc 65 51 ce 3d 3b af 69 bd
       -0.07808568 -0.030354712 0.100741185 -0.05705188
000370 5d 1c a3 3d e9 51 3a 3c 84 a2 f6 3d 5f e5 9f bd
       0.07964394 0.011372068 0.12042716 -0.07807421
000380 0d ef 2b 3d 23 b3 06 3e 7b 55 40 3c 29 b6 de bd
       0.041976023 0.13154273 0.01173913 -0.10874588
000390 b5 d9 6f 3d c8 90 1a 3e 57 34 b1 3d 5a 65 8c bd
       0.05855723 0.15094292 0.08652561 -0.06855269
0003a0 dd e4 3a 3d 44 9b 29 3d a1 4e 15 3d 67 57 96 bd
       0.045628417 0.04140784 0.03645194 -0.073408894
0003b0 19 b6 0a be bc ef 07 be e6 23 5b bc 96 b0 e6 3d
       -0.13546027 -0.13275045 -0.013375258 0.1126415
0003c0 ee 1d fe bc 98 e7 06 be 4d 7d 81 3d 80 29 42 3d
       -0.031020131 -0.13174284 0.06322727 0.04740286
0003d0 ef a3 ef 3d cb 92 78 3d 38 18 06 be 62 7b e9 3d
       0.1170119 0.060686868 -0.13095176 0.114004865
0003e0 45 6b 12 3c 26 13 c2 bd c3 29 f2 3d a0 9a f0 3d
       0.008936708 -0.094763085 0.11824372 0.117482424
0003f0 7b 6f c1 bd ad 2d 0c 3e a2 ac 04 be 24 47 f0 3b
       -0.09445091 0.13689299 -0.12956479 0.0073326994

lstm.weight_hh_l1 f4 [200, 50]
000000 52 d7 53 bb bc 96 f0 bd 8e 38 ed bc 9b 75 a8 3d
       -0.0032324386 -0.117475 -0.028957631 0.082255565
000010 bd e6 81 3c 06 4b 72 bd 4c 11 a1 3c 83 2b a8 3d
       0.015857095 -0.05915358 0.019661568 0.08211424
000020 5f 78 39 bd a8 e2 be bc f2 08 51 bc ab 4c da bd
       -0.04528081 -0.023301437 -0.01275848 -0.106591545
000030 bb 97 5b bc 97 92 c3 3c 3b d8 fa 3d 27 65 d3 bd
       -0.013402875 0.02387361 0.12248274 -0.10322028
000040 3e 33 83 bd aa 89 c1 bd 9c 1b b8 bd 68 2d b1 3d
       -0.06406258 -0.094500855 -0.08989641 0.08651239
000050 36 75 e3 3d 26 a6 07 be 1d ad b0 3d 77 29 bc 3d
       0.111063406 -0.13246974 0.08626769 0.09187596
000060 a3 f9 6a 3c 8b f4 b5 3a c6 5a 2a bc a3 83 f6 3b
       0.014341745 0.0013882084 -0.010397619 0.0075230165
000070 8b 06 ea bb 9f 9d 84 3d 4b 7d 07 3e f0 d2 47 3d
       -0.0071418933 0.06475376 0.13231389 0.04878515
000080 14 4f 98 bc c0 57 d5 bd 52 e5 1f 3d 55 46 86 bd
       -0.018592395 -0.104171276 0.039037056 -0.065563835
000090 34 82 17 be 4d 34 8c bd 46 56 e5 bd 5d a6 93 bd
       -0.14795762 -0.06845913 -0.11198096 -0.07209466
0000a0 7f fd 7c 3c a4 12 ef bc e0 4a 0c 3e 01 ee 0c bd
       0.015441298 -0.029183693 0.13700438 -0.034406666
0000b0 d8 06 bf bd 3b a2 9a bd b3 7d be 3c f2 f1 a4 bc
       -0.09327477 -0.07550474 0.023253297 -0.0201349
0000c0 0b c8 7a bd a3 04 3a 3d a1 0a 1d 3e 0c f2 d4 3d
       -0.061225932 0.04541458 0.15336086 0.10397729
0000d0 28 79 d2 ba 3b 66 66 bd a7 f4 9d 3d ea a8 eb 3d
       -0.0016057836 -0.05624984 0.07712679 0.11506827
0000e0 c5 8b 97 bd a2 57 d8 bd 59 3d 05 bd 17 a8 69 3d
       -0.07399706 -0.1056359 -0.03252921 0.05704507
0000f0 05 16 d5 3d c8 4f 9c 3d db 89 c8 3d 83 84 e9 3d
       0.104045905 0.076324046 0.09791919 0.11402228
000100 c7 b5 47 3d 56 1f 9c 3d 8a 6e 23 3d f8 8f be 3d
       0.04875734 0.07623164 0.03990034 0.093048036
000110 69 c6 12 3d d2 68 84 3b e5 f8 4c 3d ea b0 ac bd
       0.03583375 0.004040816 0.05004205 -0.08432181
000120 0f 26 e8 3c 56 b8 98 bd f6 14 a0 3c 28 fd 9c bc
       0.02833846 -0.07457034 0.019541245 -0.019163683
000130 70 8e fc 3d 04 3b f9 bd f2 40 5e 3b b9 55 52 bd
       0.12331855 -0.121694595 0.0033913222 -0.051351283
000140 9e 30 c9 3d 24 04 32 bd 55 20 e7 bd e7 f0 b1 3d
       0.09823726 -0.04346098 -0.11285464 0.086885266
000150 9a 7d ca bd 1c b9 e7 3d 12 58 df bd fb ec 18 bb
       -0.09887238 0.11314604 -0.1090547 -0.002333461
000160 61 cf 1e be 9b 86 07 bd 2c 1b 31 3d 93 23 1d bc
       -0.15508796 -0.033087354 0.043238804 -0.009591001
000170 5c 83 0e be 08 6b 11 3d 50 3e fc 3d 27 1d f6 3d
       -0.13917297 0.035502464 0.12316573 0.12017279
000180 4e be 9b bd ed 28 6b 3d 29 ff 9d bd d4 de ed 3b
       -0.07604657 0.057412077 -0.077146836 0.007259229
000190 47 22 d7 3d 95 65 88 3d 51 38 92 3d e1 64 65 bd
       0.10504585 0.0666 0.07139648 -0.05600441
0001a0 79 8c e7 bd 9c c4 c6 3d 2d c9 9b bd 39 03 94 bc
       -0.1130609 0.09705469 -0.076067306 -0.018067943
0001b0 fa 34 f3 bc f6 5b cb bd cc 89 65 bd 0c 27 80 bd
       -0.029688347 -0.099296495 -0.056039616 -0.062574476
0001c0 54 74 b5 bd b2 fd b5 bd 41 ee bb 3d 30 51 0f be
       -0.088600785 -0.08886279 0.09176303 -0.13995814
0001d0 de 13 33 bd 4d e4 04 3e 8d 93 87 bc 11 b6 0b bd
       -0.04372012 0.12977715 -0.01654985 -0.03410918
0001e0 52 ff ef 3d 34 c0 20 3d 2b 55 55 bb 32 b9 4f 3d
       0.1171862 0.0392458 -0.0032551985 0.050713725
0001f0 a3 45 6d bd 31 71 e6 bd 0c 4d 6e bd 0a 52 de bd
       -0.05792774 -0.11252058 -0.058178946 -0.108554915
000200 77 a0 63 3d d3 0a 2d 3d 5f d9 8c 3c 67 6a dc 3d
       0.055572953 0.04224665 0.017193494 0.10762482
000210 89 3c bc 3d 95 f6 5d 3d 1c 40 81 bb 18 45 df bd
       0.09191234 0.054190237 -0.00394441 -0.109018505
000220 9a 7d 40 3d 3a c5 f3 bc 39 ec 89 3d 6c f3 87 3d
       0.046994783 -0.02975713 0.06734509 0.06638226
000230 c8 fc 14 3e 15 44 11 be 4f 27 aa bd 2c f5 17 bb
       0.14549553 -0.14186127 -0.08308279 -0.0023186905
000240 6a 43 03 3c 43 7d 8e bd aa 81 ca 3d 6f 09 5c bd
       0.008011678 -0.069574855 0.09888013 -0.053719934
000250 d9 df 83 bd d2 9d 18 3e 74 7f a6 3d 57 3b 9b 3d
       -0.0643918 0.14903954 0.081297785 0.075796776
000260 50 26 1c be 84 a3 82 3d 1e 01 c6 3d 66 49 19 bd
       -0.1524899 0.063788444 0.09668182 -0.037423514
000270 eb 38 bd bd 8c 0b 1a bd 85 55 00 3e e8 ed 8f 3d
       -0.09239372 -0.03760867 0.12532623 0.07027799
000280 04 2e 48 3d 71 e2 81 bd 21 c6 f4 bc 71 60 01 be
       0.04887201 -0.063420184 -0.029879631 -0.12634446
000290 99 21 e0 3b 42 88 d4 3c 22 d7 3d 3d cc f7 07 be
       0.0068399427 0.025943879 0.046347745 -0.13278121
0002a0 39 b8 18 3d f7 bc 1d be 8a 2f 03 3e 16 03 db bd
       0.037285063 -0.15404116 0.12811103 -0.10693948
0002b0 00 0a 09 3d 85 ec 11 3e b8 ac 2c 3a 9b c7 16 3e
       0.033456802 0.14250381 0.00065870164 0.14724581
0002c0 bf fc b3 3c ea e8 56 3c 16 a6 8a 3d cf 31 7d bd
       0.021971105 0.0131170545 0.0676996 -0.06181508
0002d0 d6 45 eb 3d e6 13 ec 3c 61 5d a8 bc 05 ac 8f 3d
       0.114879295 0.028818082 -0.020552339 0.07015232
0002e0 68 ff c7 3d c8 f7 15 bd 67 4a 0b 3b c2 99 fa 3c
       0.09765512 -0.036613256 0.0021254064 0.030590896
0002f0 46 0d e7 bd b6 49 bb 3d 6a c5 08 bd 7b 95 f4 bc
       -0.112818286 0.091449186 -0.033391394 -0.029856434
000300 3a 54 46 bd ef dc ea bd 3c e4 13 bb bf ff a0 3d
       -0.04842017 -0.11467921 -0.0022566458 0.0786128
000310 42 df 46 bd 96 5f a1 bc 45 b2 77 bb 52 55 a2 3d
       -0.04855276 -0.0196989 -0.0037795466 0.0792643
000320 68 a4 bf bd 41 6f ba bd 8f 0b 5b 3c 43 02 91 3d
       -0.0935753 -0.09103251 0.013369455 0.070805095
000330 d5 1c 13 3d 64 00 c3 bc 13 83 aa 3c bf 65 90 bd
       0.03591617 -0.023803897 0.020814454 -0.070506565
000340 46 0d 70 bd f8 d5 ad bd 18 43 cb 3d 98 e4 da bc
       -0.05860641 -0.08488077 0.099249065 -0.02672033
000350 1b 0d 03 3e 95 a0 64 3d ed c9 6d bd 35 13 d0 3d
       0.12797968 0.055817205 -0.0580539 0.101599135
000360 bc 66 64 bd cf c0 ee 3d ca 6d 87 3d a4 fa e4 3b
       -0.055762038 0.11657869 0.066127375 0.0069878865
000370 3b e7 eb bd ac f1 3b bd b0 be 44 bd 08 55 21 bd
       -0.11518713 -0.045884773 -0.048033416 -0.039387733
000380 ad f1 80 bd 13 64 ec 3d 96 16 51 3d 7a a4 f2 bd
       -0.06296096 0.11542525 0.05104693 -0.11847778
000390 be 8e 0a 3d e8 7a c4 3c 49 19 ee 3d 60 80 24 3d
       0.033827536 0.023984388 0.116259165 0.04016149
0003a0 5f 62 6f 3d 47 48 a4 3d 24 5a f6 bd ad f7 29 3d
       0.058443423 0.08021598 -0.12028912 0.041495968
0003b0 46 64 c6 bc f7 5f b2 3d 3a 76 b7 bd 97 80 e1 3d
       -0.024217736 0.0870971 -0.08958097 0.11010855
0003c0 0d 50 d2 3d e8 e8 72 bd 65 a7 b4 3d 9c 34 01 3d
       0.10269175 -0.059304148 0.088209905 0.031544313
0003d0 68 51 0f bd bc 89 14 3c 3a dc cb bc 37 c5 2e bd
       -0.034989744 0.009066042 -0.024885286 -0.042668547
0003e0 95 6c 81 bd 91 15 9a bd 70 93 9a bc 6f 6a 21 3e
       -0.063195385 -0.07523645 -0.018869132 0.15763257
0003f0 9b 04 87 3c c4 dd a1 3d d1 1f eb 3d 42 46 20 bd
       0.016481688 0.079036266 0.11480678 -0.039129503

lstm.bias_ih_l1 f4 [200]
000000 0f 9b 8e 3d 5d 92 a2 bd fe d2 c3 bd 1d 17 07 be
       0.06963169 -0.07938073 -0.09561728 -0.13192411
000010 ec 53 d3 bc 4e 96 0c 3e 49 d2 04 3e e4 73 16 3d
       -0.025796853 0.13729212 0.12970842 0.036731616
000020 65 f3 a6 bd 30 27 c3 bc f5 eb 0e 3e c8 65 14 bd
       -0.081518926 -0.023822397 0.13957198 -0.03622988
000030 c6 83 30 bd df be ca 3d 66 88 8a 3d d6 ae cf 3d
       -0.04309442 0.09899687 0.06764297 0.10140769
000040 db 49 9f bd 79 1d 32 bd df cb ad bd 08 13 ef bc
       -0.07777759 -0.04348514 -0.08486151 -0.02918388
000050 f0 a6 25 bd 60 aa 0e 3e 51 ce 9d 3d 55 80 1e 3d
       -0.040442407 0.1393218 0.07705367 0.038696606
000060 fa 1d ca bd 8c 11 ed 3d ca c5 e9 bd 47 ae 9a 3d
       -0.09868999 0.115756124 -0.114146784 0.07552772
000070 4b d7 9c 3d bd 3f ae bd fa 02 08 bd 70 cb 52 bd
       0.076582514 -0.08508251 -0.033205964 -0.051463544
000080 8b 1f 62 bd 8f 25 dc bd 57 bb 92 bd 79 8c 2f 3d
       -0.055205863 -0.10749351 -0.071646385 0.042858575
000090 d2 94 da 3b 7e ea 0e 3e ee 67 74 bc e5 ed 2b 3d
       0.006670573 0.13956639 -0.014917357 0.04197492
0000a0 e0 a0 08 be 83 6f d6 bc 84 91 17 3e 08 1d a7 bd
       -0.13342619 -0.02617622 0.14801604 -0.08159834
0000b0 22 1b 32 bd 59 f2 e7 3d ea 0e cf 3d dc 19 95 3d
       -0.043482907 0.11325521 0.101102665 0.07280323
0000c0 f2 ce f3 3d ac 15 ab 3d 76 36 fa 3d be 5c c3 3c
       0.11904706 0.08353743 0.12217419 0.023847934
0000d0 c8 d2 74 3c 68 30 7e bd 00 aa ae 3b fe 98 92 bd
       0.014942832 -0.062057883 0.005330324 -0.07158087
0000e0 03 f5 7f bc b1 fa e8 3d 0f a5 1d 3d c7 30 59 3d
       -0.01562238 0.113759406 0.03848749 0.053025033
0000f0 9e bb 15 3e 8e 32 dd bc 6c a7 be bd 44 e4 27 3a
       0.14622352 -0.027001645 -0.09309277 0.00064045587
000100 5f 23 ea 3d c0 29 db 3d a5 02 b8 bb 52 49 df 3d
       0.11432528 0.107013226 -0.0056155496 0.109026566
000110 7c 8e 5a 3d 5f 86 25 3d e7 e9 78 bd 7b c4 c0 bc
       0.05335854 0.04041135 -0.06076994 -0.02353119
000120 11 4e 80 3d 9b c5 cd 3c 53 72 1b bd 26 2a 06 bd
       0.0626489 0.02511864 -0.037950825 -0.03275504
000130 fa 3a a8 3d 86 f1 e7 3c 4d 59 97 3d ea 98 fc bc
       0.08214374 0.02831341 0.0739008 -0.030834634
000140 ad ae 02 be fc d0 26 bd b5 84 9f 3d 91 e6 b2 3d
       -0.12761946 -0.040726647 0.07788984 0.08735383
000150 74 6a 00 bd e3 53 89 bd c8 5d 05 be af ec 32 bd
       -0.03135152 -0.06705453 -0.13024056 -0.04368275
000160 38 df 22 bd fb 64 cc 3d 3c 15 e5 3d 9d 4b af bd
       -0.03976366 0.09980198 0.11185691 -0.08559344
000170 5d 5d bf bd 00 b1 16 be 00 9a 97 bc c3 fa c3 3d
       -0.093439795 -0.14715958 -0.01850605 0.095693134
000180 1a 4d c6 3d a2 69 06 3e 2d b9 1f bd f4 5c 87 3d
       0.09682675 0.13126233 -0.038994957 0.06609526
000190 cd eb da 3d 8c 1b 5a 3d 24 9a 78 3d 94 01 07 3e
       0.10689507 0.053248927 0.060693875 0.13184196
0001a0 a2 75 bf bc fa c2 03 be 1f 52 a6 bd 5f 54 05 bd
       -0.023371521 -0.12867346 -0.08121132 -0.032551166
0001b0 15 21 00 bd 58 5e b7 bd b0 ac 84 3c 98 53 c4 bd
       -0.03128155 -0.089535415 0.016195625 -0.09586257
0001c0 a3 20 7d bd 04 6a ab 3d 76 cb e3 3d 1d ca 1f 3d
       -0.061798703 0.0836983 0.111227915 0.03901111
0001d0 2a bb 89 bd b7 1d dd 3d 02 bb a1 bc dc 9d fc bc
       -0.06725152 0.10796683 -0.019742493 -0.030836992
0001e0 42 ef 94 bd e9 1c f2 bd b8 d2 6a 3d 3d 2d fa 3d
       -0.07272197 -0.118219204 0.057329863 0.1221566
0001f0 3d b2 c9 bb a0 63 55 3d 2e 98 c6 bd 9b 56 71 bd
       -0.006155281 0.052096963 -0.09696995 -0.058920484
000200 14 39 e4 3d 6f 9c c7 3d 54 7e 64 3d 66 76 ff bd
       0.11143699 0.09746634 0.05578454 -0.124737546
000210 c2 6e e3 3d 91 a6 83 3d 38 28 8f 3d 41 36 f5 3c
       0.1110511 0.064282544 0.06990093 0.029933097
000220 20 bc 0e be c1 d9 0d be 5f 24 67 3d 00 34 b6 3c
       -0.13938951 -0.13852598 0.05643117 0.022241592
000230 bf 47 0d 3d e9 95 c8 bd 82 aa 00 3e 9b 84 09 3e
       0.03449225 -0.09794218 0.12565044 0.13429491
000240 e5 ed eb bd 6b 16 96 3d d0 df fc 3c f4 45 f9 3d
       -0.11519984 0.07328495 0.03086844 0.121715456
000250 8e 9e e1 bd d5 d9 bc bc fa 19 f6 3c c5 cc d1 bd
       -0.1101657 -0.02305309 0.030041683 -0.10244135
000260 47 18 88 bb be d6 b4 bd ad 91 0a 3d 03 69 e2 bd
       -0.0041532847 -0.08830021 0.033830334 -0.11055186
000270 f6 de aa bd e5 17 0e 3d b4 5f 45 3d f9 f6 21 bc
       -0.08343308 0.034690756 0.048186973 -0.009885543
000280 f8 81 cb bd fb 30 9b bd ef cb 83 bd 1d 63 f4 bd
       -0.09936899 -0.07577702 -0.064353816 -0.11932967
000290 89 e1 d1 bd 5d 98 69 bc a2 b7 ed bd 24 53 84 bd
       -0.102480955 -0.014257518 -0.11607291 -0.0646117
0002a0 d9 9f c5 bd fc 67 91 3c 35 77 b5 bd 3b 01 e4 3c
       -0.09649629 0.017749779 -0.088606276 0.027832618
0002b0 aa 48 a3 bc a4 ae 0c 3d 21 e6 be 3d 0c 89 a1 3d
       -0.01993211 0.034346238 0.09321237 0.07887468
0002c0 91 e4 9f 3d 1a 7f 9a bc 8c 98 1e 3e fd e9 81 3d
       0.078072675 -0.018859435 0.1548788 0.06343458
0002d0 cc 4e e5 3d 8e b9 b9 bd 9a c0 59 3c 15 fd 25 3c
       0.1119667 -0.09068595 0.013290549 0.01013114
0002e0 09 bb 7e 3d 93 a5 a7 bc 7d fd fb 3d b1 9c 01 3e
       0.06219009 -0.020464694 0.123042084 0.1265743
0002f0 b6 44 ca 3d 01 26 44 bd 0c 76 02 be 1f eb b0 bd
       0.09876387 -0.047887806 -0.12740344 -0.08638596
000300 ae a5 55 3d 2c 12 19 3d 2b e2 ff bc a2 3f 42 bd
       0.052159958 0.037370846 -0.031235775 -0.047423966
000310 20 c0 19 be fd 9d 2d bd 47 06 e5 3a 8b 2b 81 3c
       -0.15014696 -0.042386997 0.0017473184 0.015767833

lstm.bias_hh_l1 f4 [200]
000000 54 1d 1b 3e db 22 4c 3d 01 14 14 3d 7f 7b ee bd
       0.15147907 0.04983793 0.03615189 -0.11644649
000010 e8 dd 71 bd 9b cb 6c 3c 90 2b 51 39 71 5a 0f 3e
       -0.059049517 0.01445284 0.00019948022 0.13999344
000020 34 f9 ca 3d 75 03 1e bd d1 2a 37 3d 38 63 20 bb
       0.09910813 -0.038577516 0.044718567 -0.0024473201
000030 e7 63 be bd 24 e1 b4 bc 8a 39 08 3e 99 48 f9 3d
       -0.092963986 -0.022080012 0.133032 0.1217205
000040 08 f4 d2 bd c5 1a 18 3e 07 ca ca bd 8c 70 c4 bd
       -0.103004515 0.14853962 -0.09901815 -0.09591779
000050 47 a1 23 3d c3 24 0e 3d f3 c1 12 3e f2 21 ae bd
       0.039948728 0.034703027 0.14331798 -0.08502568
000060 f4 94 e3 ba 0d 47 14 3d f0 2f a6 bd 84 33 f0 bc
       -0.0017363117 0.03620057 -0.08114612 -0.02932144
000070 0c 3a aa 3d d7 e9 f1 3d 1d fe 07 bd 69 51 33 bd
       0.08311853 0.118121795 -0.033201326 -0.04377881
000080 0f f9 b3 bc ec 0b 0c 3d ff 06 f3 3c f2 ef 05 3d
       -0.021969346 0.034191057 0.029666422 0.032699533
000090 0e f4 24 3d 28 65 81 bd 4c d6 b3 bd 1c a3 b5 3d
       0.04027181 -0.06318122 -0.08781108 0.08869001
0000a0 20 84 8e bd a0 06 a9 bd 88 67 f3 bd d3 67 dd 3d
       -0.069587946 -0.08253217 -0.118849814 0.108108185
0000b0 57 ef 40 bd c8 16 f1 bd 21 9b 3d bd 38 8f 84 bd
       -0.047103252 -0.11771923 -0.04629052 -0.06472629
0000c0 a8 4c aa bc 4a f1 03 3e 96 8e 41 3b 4c e7 05 3d
       -0.020788506 0.12885013 0.002953445 0.032691285
0000d0 df 1d f3 3d 69 4b dc 3d f2 e3 e0 3d 7c 26 f5 bd
       0.11870932 0.10756571 0.10980977 -0.11970231
0000e0 74 78 9b bc 88 e8 64 3d 4b 7d f1 bd ef 52 54 bd
       -0.018978335 0.05588582 -0.11791476 -0.051836904
0000f0 9a b5 de 3d 70 95 8c bd d2 83 d7 3d 51 5b c0 3d
       0.108744815 -0.068644404 0.105231896 0.09392417
000100 20 2a 92 3d af 86 45 3d 67 18 85 bd bc dd 6d bd
       0.07136941 0.048224147 -0.06498795 -0.05807279
000110 92 23 06 3d 22 09 8b 3c db 8a 5c bd 3d 2f 5f 3d
       0.032748766 0.016972128 -0.05384336 0.05448841
000120 7a e4 8d 3c 10 91 7c 3d 2b d2 7d 3d 1f 6d 49 bd
       0.01732086 0.06166178 0.06196801 -0.04917633
000130 b0 d4 03 3e cc 36 d0 bd f4 a5 89 bc cd 3d 37 3d
       0.12874103 -0.10166702 -0.016802765 0.044736672
000140 5b fa 97 3d 5f a7 bb bb 9e e3 48 3c db 0a 15 3e
       0.074207984 -0.0057267393 0.012261299 0.14554922
000150 39 5a 20 3e 18 b8 e8 bd de 14 a8 bd 5b 8f 35 bd
       0.15659417 -0.11363238 -0.08207105 -0.044326168
000160 e1 14 45 bd 6a de b9 bd 8d 08 a0 bd 56 74 85 bd
       -0.048115615 -0.09075625 -0.07814131 -0.0651633
000170 b8 ac 84 3c a8 fc 6c 3d a4 1f 54 bd 90 0c 0b 3e
       0.01619564 0.05785814 -0.051787987 0.13579011
000180 8c f1 84 bd 60 4a 1f 3c 46 90 1c 3e a6 46 67 3d
       -0.06491384 0.009722322 0.15289411 0.05646386
000190 51 0c 77 bd 11 1e 60 3d f0 9b 48 3c 21 6e e5 3b
       -0.06031448 0.054716174 0.01224421 0.007001654
0001a0 2c 0f 03 3e 2b 76 2d bd 18 78 9c 3d b6 68 72 3d
       0.12798756 -0.042349022 0.076400936 0.05918189
0001b0 01 1c cb bd 9a 22 47 3d 52 f4 9a 3c 25 0e 00 3e
       -0.09917451 0.048616983 0.01891533 0.12505396
0001c0 28 43 54 b9 ca 48 da 3b 6c b3 42 bd 25 75 e0 bd
       -0.00020242913 0.006661509 -0.04753439 -0.109598435
0001d0 f8 e6 a2 3d b8 65 6e 3d 4b f9 a7 3d c2 70 03 be
       0.0795421 0.058202475 0.08201846 -0.12835982
0001e0 f2 b1 de 3d 2c c1 fc bd 29 4a 53 bd 0b e8 3d 3c
       0.10873784 -0.12341532 -0.051584397 0.011590968
0001f0 45 76 73 bd ac e8 23 bd 78 5b 99 3d 34 a3 10 bd
       -0.059438962 -0.040016815 0.074881494 -0.035311893
000200 e9 5a 6e 3c 68 11 df 3d 45 40 04 3d 91 95 a9 3d
       0.014548042 0.10891992 0.032287855 0.08280481
000210 b2 ab 4e 3c 48 cf 1c bd a2 6e 36 bd c3 ef 49 3d
       0.012614178 -0.038283616 -0.0445391 0.04930092
000220 40 4c 01 be 87 6d cf bd a3 a6 2e bd f6 c0 ba 3d
       -0.12626743 -0.101283126 -0.042639386 0.09118836
000230 5b 00 09 3e 74 0b c6 bc fc 95 12 b9 f0 85 6e bd
       0.13379042 -0.024175383 -0.00013979519 -0.0582332
000240 db 61 9f bc 2e ba 17 be 2a 83 ad ba 2c 2e 29 3d
       -0.01945584 -0.14817116 -0.0013237942 0.0413038
000250 f8 38 00 bd 01 ca 83 bc a2 5f 23 3e ac a6 72 bd
       -0.03130433 -0.016087534 0.1595445 -0.059240982
000260 f7 c7 e4 3b ac ed 8b 3d 6c cb cc 3d 3a 5c e3 bd
       0.0069818455 0.06832442 0.09999737 -0.11101575
000270 b6 e9 9e bd 28 46 90 bc d3 62 d2 3d 5e f2 05 be
       -0.077594206 -0.017611578 0.102727555 -0.13080737
000280 f4 61 9b 3b 45 ea bb 3c ae f3 18 3e 2e e1 0e 3e
       0.0047419015 0.022938857 0.14936706 0.13953087
000290 84 66 da 3b 38 81 cd bd ef 40 8b 3d 03 ca f1 3c
       0.006665053 -0.10034412 0.067994945 0.029515272
0002a0 12 56 fc 3d cb 08 13 be 71 fb 2b 3c 48 63 02 3e
       0.12321104 -0.14358823 0.01049696 0.12733185
0002b0 8f 13 e4 bd f5 2a 96 bc 2a e9 a9 3c 64 2f 02 be
       -0.11136543 -0.01833103 0.020741064 -0.1271339
0002c0 90 55 81 bd 36 ae 62 bd 26 fd 14 bd db ab ff bd
       -0.06315148 -0.05534192 -0.036374234 -0.12483951
0002d0 5b b3 d1 bd e9 7e 0c 3e 56 65 83 3d e2 d2 c0 3d
       -0.102392875 0.13720287 0.06415813 0.09415223
0002e0 9e 2b 97 bd 5f 2f 30 3c f1 73 ff bc ca ee b0 3d
       -0.07381366 0.010753482 -0.031183215 0.086392954
0002f0 f5 c5 1e bd a2 a0 23 bd f4 9b e0 3c 14 1b bc bd
       -0.038763005 -0.039948113 0.027418114 -0.09184852
000300 f3 da ca bd d0 c9 1f bc 24 28 7e 3b 34 20 14 3e
       -0.099050425 -0.009752706 0.003878125 0.1446541
000310 23 fb 0d 3d cc 48 b6 39 7e 17 ba 3d 4f e5 b1 bd
       0.03466333 0.00034767983 0.09086512 -0.08686315

fc.weight f4 [1, 50]
000000 04 81 44 bc dc 43 46 bd 1d 23 ac 3d 9c b1 98 bd
       -0.01199365 -0.04840456 0.08405135 -0.07455751
000010 a0 49 80 bd 49 2c b3 bd 7c 1e 15 3e 97 ad 0f 3e
       -0.06264043 -0.08748681 0.1456241 0.14031063
000020 8b 33 50 3d 23 d3 d0 3d c3 1a 17 be 52 d6 b9 3d
       0.050830405 0.10196521 -0.14756303 0.090740815
000030 ae 05 5d 3d 62 a5 0a 3e b6 ea 8a bd 30 f9 3a 3c
       0.053960495 0.13539651 -0.06783049 0.01141195
000040 40 cc f3 bd cd 04 bd 3d 2b ed 22 bd 82 ae fc bb
       -0.11904192 0.09229431 -0.039776962 -0.0077112326
000050 7b f8 fb bd 7b 0e ad bd 72 d1 cb 3d 42 85 13 3e
       -0.12303253 -0.084500276 0.09952058 0.14406303
000060 75 43 bf bd 54 b5 50 3d 37 73 06 be 5d a0 bb bc
       -0.09339038 0.050954178 -0.13129888 -0.022903616
000070 c9 dc 22 3e 85 0b c2 3d 4f 55 ce bd 26 07 13 3e
       0.15904535 0.094748534 -0.10074865 0.14358196
000080 ce 79 26 bd 3c 39 c2 3d 48 de 1f 3e 9e c6 11 be
       -0.040643506 0.09483573 0.15612137 -0.14235923
000090 94 65 a3 bd 31 ea 4d 3c ed 21 89 bc 62 40 f8 bd
       -0.07978359 0.012568043 -0.01673981 -0.12121655
0000a0 df 81 48 bc 4a 5d df 3c cf 69 a4 3d 24 ba 91 bd
       -0.012237995 0.027266163 0.08027994 -0.07115582
0000b0 7a 32 ca bd fe d9 34 bd 49 f4 0f 3c 31 5b 5e bc
       -0.09872909 -0.044153206 0.008786269 -0.013571546
0000c0 36 e0 b3 3c 9e ae 1d 3e
       0.021957498 0.15398642
