models/daily_model_LTC_USDT.pth (torch, 128277 bytes, 9 tensors)

lstm.weight_ih_l0 f4 [200, 1]
0	0x3d91f0d8	0.071260154
1	0x3e01f0ca	0.1268951
2	0x3e0e3a80	0.13889503
3	0xbe13e3c3	-0.14442353
4	0xbd158f71	-0.03651375
5	0xbddc1a52	-0.10747208
6	0xbded0c68	-0.11574632
7	0xbc7deef2	-0.0154988635
8	0xbdc9ead4	-0.09859243
9	0x3d9cb4f6	0.07651703
10	0x3dce6411	0.1007768
11	0x3cfc3926	0.03078897
12	0x3cd3d5f3	0.025858855
13	0x3dfd9358	0.12381619
14	0x3ccd5d26	0.02506883
15	0xbde206f5	-0.11036483
16	0xbd926dba	-0.07149835
17	0xbde698a3	-0.11259582
18	0xbe06e030	-0.13171458
19	0xbd8ffb8d	-0.070304014
20	0xbd43dec2	-0.04781986
21	0x3ca13d9a	0.019682694
22	0xbd3886b3	-0.045050334
23	0x3de59513	0.11210074
24	0x3e05b625	0.13057764
25	0x3d33a93f	0.043862578
26	0x3dd97302	0.10617639
27	0x395734f3	0.00020523723
28	0xbdb486f6	-0.08814804
29	0x3d41d88e	0.047325663
30	0x3b21bcb2	0.0024679122
31	0xbdd4c739	-0.10389561
32	0xbddd0825	-0.10792569
33	0xbdbc6f18	-0.09200877
34	0x3dc61264	0.096714765
35	0xbd972f28	-0.07382041
36	0xbda2de7f	-0.07952594
37	0x3d8d085d	0.06886361
38	0xbdfa891c	-0.12233183
39	0xbd3d1e1e	-0.0461713
40	0xbda28ddd	-0.079372145
41	0x3d055fd6	0.0325621
42	0xbdbbe7ec	-0.09175095
43	0x3cb0b26b	0.021569451
44	0x3de7eb84	0.11324218
45	0x3d8f5707	0.06999021
46	0x3dbb0124	0.09131077
47	0x3dd1e6ff	0.10249137
48	0xbda48abb	-0.08034273
49	0x3e009fa0	0.12560892
50	0xbc2cd763	-0.010549399
51	0xbc130b83	-0.008974913
52	0xbdc6c209	-0.09704978
53	0xbdee871d	-0.116468646
54	0x3dd48c69	0.103783436
55	0xbd0a55c6	-0.033773206
56	0x3dba74e0	0.091043234
57	0xbe071adb	-0.13193838
58	0x3dec9144	0.11551145
59	0xbdbe5439	-0.09293408
60	0x3dceaf1c	0.10091993
61	0xbb11f2a3	-0.0022269867
62	0x3e0379d7	0.12839447
63	0xbd2a907d	-0.0416417
64	0x3cbe5c8e	0.023237493
65	0xbdb120ce	-0.08648835
66	0xbb832393	-0.0040020435
67	0xbe0f9c3e	-0.14024445
68	0x3db5896c	0.08864102
69	0x3d711a76	0.058863126
70	0x3dec4cb0	0.115380645
71	0x3d1cae55	0.038252193
72	0xbc9e102e	-0.019294824
73	0x3d846ce0	0.06466079
74	0x3c3f09bf	0.0116600385
75	0xbdfda175	-0.12384311
76	0xbd04d3a9	-0.032428417
77	0x3d07d004	0.033157364
78	0xbdc49886	-0.09599404
79	0xbc8e2069	-0.017349439
80	0x3dfdf57e	0.124003395
81	0x3dfe4b2c	0.12416682
82	0xbcb35d44	-0.021895058
83	0x3d5b825c	0.053591117
84	0xbcabe1e1	-0.02098173
85	0x3da6f31c	0.08151838
86	0xbe071acf	-0.1319382
87	0xbd0d5f35	-0.034514625
88	0xbcd16b84	-0.025563963
89	0x3d0848f4	0.0332727
90	0x3e061d2d	0.13097067
91	0x3c6ab126	0.014324462
92	0x3d428884	0.047493473
93	0xbd543ebc	-0.05181764
94	0xbd8de87f	-0.06929111
95	0xbc510ea9	-0.012759843
96	0x3dbe8b1a	0.09303875
97	0xbd9978ca	-0.07493742
98	0x3e16296d	0.1466424
99	0x3ca29b6d	0.019849503
100	0xbe0fab7f	-0.14030264
101	0xbd8e6f6d	-0.069548465
102	0x3dffa8bf	0.12483358
103	0x3d2676d8	0.040640682
104	0xbcc9c1a1	-0.024628462
105	0xbd91056c	-0.07081112
106	0x3dcf03bc	0.10108134
107	0xbddb7b0c	-0.10716829
108	0xbdfef6a1	-0.124493845
109	0x3d0f56a2	0.03499473
110	0xbe1950b9	-0.149722
111	0xbd822d9e	-0.06356357
112	0xbd8a10a4	-0.06741455
113	0xbde275e8	-0.11057645
114	0x3e1286bf	0.14309214
115	0xbd4d51c6	-0.050126813
116	0xbd94ee8e	-0.07272063
117	0xbca64ed9	-0.02030127
118	0x3d742435	0.059604842
119	0xbda88528	-0.082285225
120	0x3d8010e8	0.062532246
121	0x3da723f8	0.08161157
122	0x3e138ef0	0.14409995
123	0x3d17c59e	0.037053697
124	0xbd16b0dd	-0.036789764
125	0xbd2a8ba2	-0.04163707
126	0x3d00fd5c	0.031491622
127	0x3cf2c1aa	0.029633362
128	0xbdbbdbc7	-0.091727786
129	0x3e0e5f9c	0.1390366
130	0x3d92143f	0.07132768
131	0x3cdee4e1	0.027208747
132	0xbca1e923	-0.019764489
133	0xbe1d8b94	-0.15385276
134	0x3d1bc566	0.03803005
135	0xbdae3f29	-0.085081406
136	0xbdeba4a7	-0.11506014
137	0xbe095845	-0.13412578
138	0xbd2ea7da	-0.042640544
139	0x3d209057	0.039200153
140	0xbdf95903	-0.12175181
141	0x3daef0cc	0.08542022
142	0x3d843668	0.0645569
143	0x3d314d37	0.04328653
144	0x3dc2eb90	0.09517586
145	0xbdf4efca	-0.11959799
146	0x3da589ed	0.08082948
147	0xbd557570	-0.05211395
148	0xbd5a8878	-0.053352803
149	0x3d7fe480	0.062473774
150	0xbce19d37	-0.027540786
151	0xbdf209e2	-0.11818291
152	0xbd9fa6cb	-0.07795485
153	0xbde0560f	-0.109539144
154	0xbda9ef79	-0.08297629
155	0xbde96065	-0.11395339
156	0x3df992df	0.121862166
157	0x3d7df4df	0.062001105
158	0xbd952b5a	-0.07283659
159	0x3e116ba0	0.14201212
160	0x3d9e3d95	0.077265896
161	0xbd9a7eb0	-0.07543695
162	0xbd687bc0	-0.056758642
163	0xbc5c1d2e	-0.013434691
164	0x3cb5cd20	0.022192538
165	0x3d6ae5e7	0.05734816
166	0x3df5f8b3	0.12010326
167	0xbd24f488	-0.040272266
168	0x3b5c7643	0.0033639825
169	0x3e19ed1a	0.15031853
170	0xbcc36929	-0.023853855
171	0x3d2eee73	0.04270787
172	0xbe0bb2a4	-0.13642365
173	0x3d288abf	0.041147944
174	0xbdc2e07f	-0.095154755
175	0xbdb37d23	-0.08764102
176	0x3df202db	0.11816951
177	0xbd9fbcd1	-0.07799686
178	0x3de669c4	0.11250642
179	0xbc253221	-0.010082752
180	0xbe041bcb	-0.12901227
181	0xbd50b310	-0.050952017
182	0x3d6ce904	0.05783941
183	0x3dee0412	0.1162187
184	0xbcbe056b	-0.023195943
185	0x3e0b66fa	0.13613501
186	0x3d68a1f0	0.05679506
187	0x3d68d7fa	0.056846596
188	0xbe17921b	-0.14801829
189	0xbd81fd91	-0.06347192
190	0x3d49d4ef	0.049275335
191	0x3d187ba6	0.037227295
192	0x3d9ec99f	0.077533
193	0xbdfd03ee	-0.12354265
194	0xbcff3592	-0.031153474
195	0x3de89789	0.11357028
196	0xbd5cb6e4	-0.053885356
197	0x3db96348	0.090521395
198	0x3d9a7557	0.07541912
199	0xba99f6af	-0.0011746491

lstm.weight_hh_l0 f4 [200, 50]
0	0xbb848986	-0.0040447144
1	0xbe217fd4	-0.15771419
2	0xbdae4d30	-0.08510816
3	0xbdd40ed3	-0.1035439
4	0xbd46c706	-0.048529647
5	0x3e05aec8	0.13054955
6	0xbd0ed752	-0.034873314
7	0xbdb36043	-0.08758595
8	0xba78fffd	-0.00094985944
9	0xbda8455e	-0.08216356
10	0x3ccbacba	0.024862636
11	0xbb98fcc4	-0.004668804
12	0xbc04f4bb	-0.008114989
13	0xbdbca803	-0.09211733
14	0x3e1ac4e7	0.15114175
15	0xbe136861	-0.14395286
16	0x3d80b631	0.0628475
17	0x3d3ef30d	0.04661851
18	0x3dc1e050	0.09466612
19	0x3dc63134	0.096773535
20	0x3df71231	0.120640166
21	0x3d7e565e	0.062094085
22	0xbdf540b0	-0.11975229
23	0x3cf534fd	0.029932493
24	0x3dd81fc6	0.10552935
25	0x3dc396e5	0.09550265
26	0xbdf3f3f7	-0.11911767
27	0xbd1d0b4b	-0.038340848
28	0xbe13e484	-0.1444264
29	0x3d2f8ce4	0.042858973
30	0xbd97886e	-0.07399069
31	0x3dd32281	0.103093155
32	0x3b4dae16	0.003138428
33	0x3d779e74	0.060453847
34	0x3db92a7f	0.090413086
35	0xbda71734	-0.081587225
36	0x3d264143	0.040589582
37	0xbdbb0507	-0.09131818
38	0xbe052965	-0.13004072
39	0x3d9c6033	0.07635536
40	0x3c557735	0.013028909
41	0xbd06b66d	-0.03288882
42	0x3e047fdc	0.129394
43	0xbd8b2630	-0.06794393
44	0x3dde984d	0.10868893
45	0xbd6b9291	-0.057512823
46	0xbb3e63d7	-0.0029051208
47	0xbdde03d2	-0.108405724
48	0x3db85473	0.090004824
49	0x3e0b2922	0.1358991
50	0xbda3c1df	-0.07995962
51	0x3bef61ff	0.007305383
52	0x3d5d9752	0.05409939
53	0x3d8739d8	0.0660283
54	0x3daff36f	0.08591353
55	0x3dc9a86e	0.098465785
56	0x3d8b241e	0.06793998
57	0xbc99a578	-0.01875566
58	0xbda21ca4	-0.07915619
59	0xbb64b082	-0.0034895246
60	0xbd41ce1f	-0.047315713
61	0x3e0db781	0.13839532
62	0x3d76d68d	0.060263205
63	0x3d24b548	0.040211946
64	0xbddd2b38	-0.10799259
65	0x3db4a0e1	0.08819748
66	0xbde2cf35	-0.11074678
67	0x3d2c543d	0.042072523
68	0x3d8ebbfc	0.06969449
69	0x3da2b99b	0.07945558
70	0xbde05e8d	-0.10955534
71	0xbd9133de	-0.07089971
72	0xbd07965f	-0.03310239
73	0x3e116356	0.1419805
74	0x3cbbab06	0.022908699
75	0x3c064c56	0.008196911
76	0x3d956f18	0.0729658
77	0xbd96274d	-0.07331715
78	0xbe038341	-0.12843038
79	0xbdc9d4cf	-0.09855043
80	0x3dfa4279	0.1221971
81	0xbd16b332	-0.036791988
82	0x3d98a99c	0.074542254
83	0xbdd2332b	-0.10263666
84	0x3dd92c0a	0.10604103
85	0x3bd96b3b	0.0066350973
86	0x3d9430bb	0.07235857
87	0xbd976605	-0.073925056
88	0x3dabc938	0.08387989
89	0x3cfc550f	0.030802278
90	0xbdbd9c71	-0.092583545
91	0x3d236d28	0.03989902
92	0xbdfb8ffb	-0.122833215
93	0xbd11f15d	-0.035630573
94	0x3da64787	0.081191115
95	0x3db2f019	0.08737201
96	0x3af8bbe2	0.0018976892
97	0x3c6a988e	0.014318598
98	0x3dc37bd0	0.095451
99	0x3d169f38	0.036772937
100	0x3d2c4041	0.042053465
101	0x3c7a3ed9	0.015273773
102	0x3da8b092	0.08236803
103	0xbca4d145	-0.020119319
104	0xbd12f5a2	-0.035878785
105	0xbd78a337	-0.06070253
106	0xbc4dfa3c	-0.012571868
107	0x3d37595f	0.044762965
108	0x3dfd5fbb	0.12371775
109	0x3dbd1e29	0.09234268
110	0x3d6739b6	0.05645152
111	0x3dec4c37	0.11537974
112	0xbd15e788	-0.03659776
113	0xbd6a2c4e	-0.05717116
114	0xbd037d9f	-0.032102223
115	0xbd8fde78	-0.070248544
116	0x3db9bc97	0.09069174
117	0x3d04574c	0.032309815
118	0x3d5a9664	0.05336608
119	0x3d745fa1	0.05966151
120	0x3d9a6ede	0.075406775
121	0xbdf6729d	-0.120335795
122	0x3b4f4892	0.0031628949
123	0xbc890af0	-0.016728848
124	0x3dd29143	0.10281613
125	0xbd9161c1	-0.07098723
126	0xbd1a8555	-0.03772481
127	0x3c36a68b	0.011148105
128	0x3da1760c	0.07883844
129	0x3b94d61b	0.004542125
130	0xbd1efe7b	-0.03881691
131	0xbdc0573f	-0.09391641
132	0x3e120579	0.142599
133	0x3dca7c7e	0.09887026
134	0x3d88d8b5	0.066819586
135	0x3994fd5a	0.0002841752
136	0x3e105d05	0.14097984
137	0x3dec9ce5	0.11553363
138	0x3d411d99	0.047147367
139	0x3cac6d9b	0.021048358
140	0xbdcd7d9d	-0.100337245
141	0xbd43de48	-0.047819406
142	0xbcd392fe	-0.025826927
143	0x3e01efb7	0.126891
144	0x3de66eb1	0.112515815
145	0xbcfdf4d5	-0.031000534
146	0xbcd7a920	-0.026325762
147	0x3d9e8fb9	0.07742257
148	0xbe01e2c7	-0.12684165
149	0x3dd08031	0.101807006
150	0x3b9ddec9	0.004817818
151	0x3cdf84a6	0.027284931
152	0xbcee38cf	-0.029079823
153	0xbbf2b572	-0.007406884
154	0xbd5de24b	-0.054170888
155	0x3d3b883b	0.045784216
156	0xbd4df1e0	-0.050279498
157	0x3c89b74b	0.016811034
158	0xbcc6c23b	-0.024262538
159	0x3e094caf	0.13408159
160	0xbde41e77	-0.11138623
161	0xbdb9c53f	-0.09070825
162	0xbde33103	-0.110933326
163	0xbdef32b5	-0.116795935
164	0xbd152463	-0.036411654
165	0xbd38560f	-0.045003947
166	0xbe0b8cd9	-0.13627948
167	0x3d9628dc	0.07332012
168	0xbd660fc6	-0.056167386
169	0x3e05a123	0.1304975
170	0x3dfc240d	0.12311564
171	0xbcc723fa	-0.024309147
172	0x3d319e6a	0.043363966
173	0xbd2afedc	-0.04174696
174	0x3c9187f9	0.017765032
175	0x3dcd45f0	0.10023105
176	0x3dc41096	0.09573476
177	0xbd8e512a	-0.069490746
178	0xbde5ffff	-0.11230468
179	0x3d91cc80	0.071190834
180	0xbd011beb	-0.031520765
181	0xbdec5e8f	-0.11541473
182	0xbbcac457	-0.0061879563
183	0xbda79a8a	-0.08183773
184	0xbdf236a1	-0.11826826
185	0xbdc2a5c9	-0.09504277
186	0x3de15163	0.110018514
187	0x3e160200	0.146492
188	0x3c57b509	0.013165721
189	0x3dc7fd4d	0.0976511
190	0xbd8947b4	-0.067031294
191	0x3d083a9e	0.033259027
192	0xbdb1168b	-0.08646878
193	0xbdfc4de4	-0.12319544
194	0x3de41e98	0.11138648
195	0x3d5a8421	0.053348664
196	0xbd7487f5	-0.05969997
197	0xbd7aa1f7	-0.061189618
198	0x3bbafcc2	0.0057064006
199	0xbda934ff	-0.08262061
200	0xbdbbf81b	-0.09178182
201	0xbce7ba05	-0.028286943
202	0x3d6f4acf	0.058420952
203	0x3ddf1350	0.108923554
204	0xbd5ab85d	-0.05339848
205	0xbca35757	-0.019939108
206	0x3dc3ad4a	0.09554537
207	0x3cb2caa9	0.021825152
208	0x3ca1b8ee	0.019741502
209	0xbe0a9fc0	-0.13537502
210	0xbcc33aaf	-0.023831693
211	0x3dc25f58	0.094908416
212	0x3d41406c	0.047180578
213	0x3d289c00	0.0411644
214	0x3d34a7ec	0.044105455
215	0xbda34a1f	-0.07973122
216	0xbd63d429	-0.055622254
217	0x3e0bae40	0.1364069
218	0x3d1f0b09	0.038828883
219	0xbe0ccafc	-0.13749307
220	0xbdd5f2fa	-0.10446735
221	0x3e07a6a9	0.1324717
222	0x3cdea378	0.027177557
223	0xbe036304	-0.1283074
224	0xbd9bf38f	-0.076148145
225	0x3daf0867	0.085465245
226	0xbdd6eb2d	-0.10494075
227	0x3e0f7b1b	0.14011805
228	0xbddfbbb1	-0.10924471
229	0xbd99e3ce	-0.075141534
230	0xbd9a25d3	-0.07526746
231	0xbdb2d078	-0.087311685
232	0xbde16db0	-0.11007249
233	0xbc5fd6a2	-0.013662012
234	0xbdf341a8	-0.11877757
235	0xbd7b4807	-0.061347988
236	0xbe04a7c1	-0.12954618
237	0x3d8b200b	0.06793221
238	0x3de8eefe	0.11373709
239	0xbdd3d56b	-0.103434406
240	0x3dc0c948	0.09413391
241	0xbcc214d6	-0.023691576
242	0x3ded3774	0.115828425
243	0x3d9ed653	0.07755723
244	0x3e0b8e2b	0.13628452
245	0xbd7cff94	-0.061767176
246	0xbd301f8e	-0.042998843
247	0xbae206f3	-0.0017244503
248	0xbd8d0a5c	-0.068867415
249	0x3d1910e6	0.03736963
250	0xbca9d8b7	-0.02073322
251	0x3d889a6b	0.06670078
252	0xbdd051b0	-0.10171831
253	0x3d7d6875	0.061867196
254	0x3c0a50a5	0.008442079
255	0xbde57fdd	-0.112060286

lstm.bias_ih_l0 f4 [200]
0	0xbc045e7c	-0.008079167
1	0xbe04bdc2	-0.12963012
2	0xbc8d4627	-0.017245365
3	0xbd86086d	-0.06544576
4	0x3db8711c	0.09005949
5	0x3c7f51c9	0.015583464
6	0xbd304f9d	-0.043044675
7	0xbd136e2a	-0.035993733
8	0x3c0acae5	0.008471225
9	0x3de74242	0.112919345
10	0x3dcdc1d0	0.100467324
11	0xbdd21d1d	-0.10259459
12	0xbdad1f66	-0.084532544
13	0xbd9be5b0	-0.07612169
14	0x3c601194	0.013676066
15	0x3c311ab8	0.010809593
16	0xbde6bfe5	-0.1126707
17	0x3de5cddd	0.11220906
18	0xbe0369c7	-0.1283332
19	0xbc458642	-0.012055935
20	0x3df3b0af	0.11898934
21	0xba8d0d14	-0.0010761344
22	0x3d714a03	0.058908474
23	0xbd530a63	-0.051523577
24	0xbbae9863	-0.0053282245
25	0xbdab91f0	-0.08377445
26	0x3dacea37	0.084431104
27	0x3d106865	0.03525581
28	0x3d85e6f7	0.06538194
29	0x3d0dee2a	0.03465096
30	0xbd18a525	-0.03726687
31	0xbd9cd1db	-0.07657214
32	0x3dcae80e	0.09907542
33	0x3db8d20e	0.0902444
34	0x3d571224	0.052507535
35	0xbd009ee2	-0.031401522
36	0xbde9185a	-0.11381598
37	0xbd9e1938	-0.07719654
38	0x3c968849	0.018375533
39	0xbde9a9c1	-0.11409331
40	0xbdf1977c	-0.117964715
41	0xbd0d2d3f	-0.03446698
42	0x3c268c0c	0.010165226
43	0xbd46ce60	-0.04853666
44	0x3c9c49e0	0.019078195
45	0xbdc5066a	-0.09620364
46	0xbd8d9560	-0.06913257
47	0xbd95ebdb	-0.073203765
48	0x3df41fad	0.11920104
49	0xbdb34e94	-0.08755222
50	0x3d731ebb	0.05935548
51	0x3d90ecd7	0.070764236
52	0x3dc6a8a1	0.09700132
53	0xbd76c127	-0.0602428
54	0x3cc56fb1	0.02410111
55	0xbd3f75ac	-0.04674308
56	0x3cbeae52	0.023276482
57	0xbd5873ff	-0.052844997
58	0x3e14aa49	0.14518084
59	0x3d47d837	0.048790183
60	0xbe1212d3	-0.14264993
61	0x3da993e2	0.082801595
62	0xbc7d4737	-0.0154588735
63	0xbde861e0	-0.11346793
64	0xbd13d2f8	-0.036089867
65	0x3e17e090	0.14831758
66	0x3ce45b86	0.027875673
67	0x3d00425e	0.031313293
68	0xbe02b194	-0.12763053
69	0x3d9b4101	0.07580758
70	0x3d2afeaf	0.04174679
71	0x3dcb68c7	0.09932094
72	0xbe0c3014	-0.13690215
73	0x3ce352ea	0.027749497
74	0x3dd6d30c	0.10489473
75	0x3d9db7f8	0.07701105
76	0xbd2dfe5d	-0.042478908
77	0xbd5af25a	-0.05345378
78	0xbd8b9dff	-0.06817245
79	0x3da94b0c	0.08266267
80	0xbe0c0032	-0.1367195
81	0x3d845642	0.06461765
82	0x3dfe0ac3	0.124043964
83	0x3d010fd4	0.031509236
84	0x3c895df5	0.016768435
85	0x3df45acc	0.11931381
86	0x3e04c35f	0.12965153
87	0xbcf8177b	-0.030284634
88	0xbddfaf0c	-0.109220594
89	0x3dbc9a45	0.09209112
90	0xbd236d21	-0.039898995
91	0x3d2eb2c1	0.04265094
92	0xbdd8bef9	-0.105833
93	0xbd83ac79	-0.06429381
94	0x3deb57c2	0.11491348
95	0x3d788e1c	0.0606824
96	0x3e0bd771	0.13656403
97	0x3d93e4c9	0.07221372
98	0xbdb99627	-0.090618424
99	0x3d43cb9a	0.04780159
100	0xbcc69c7c	-0.02424454
101	0xbd944761	-0.07240177
102	0x3dafcaf4	0.08583632
103	0x3d6de097	0.058075514
104	0xba9c8c2c	-0.001194363
105	0xbcfa4c65	-0.030554006
106	0x3dfd343b	0.12363478
107	0xbdc94866	-0.09828262
108	0x3dc3b794	0.09556499
109	0x3c276016	0.01021578
110	0x3dd310c8	0.10305935
111	0xbdfd79ae	-0.12376724
112	0xbdeb2d49	-0.11483247
113	0xbad6de1f	-0.0016393102
114	0x3c4f5aa0	0.012655884
115	0xbdac8375	-0.08423511
116	0x3e1140e3	0.14184909
117	0xbb906132	-0.004406118
118	0xbd8f1df1	-0.06988133
119	0xbe17ce7f	-0.14824866
120	0x3deeba6c	0.11656651
121	0xbc6af6fa	-0.01434111
122	0x3b1df60c	0.0024102954
123	0xbd84601a	-0.064636424
124	0x3d8a1834	0.06742898
125	0xbdb62333	-0.088934325
126	0xbda76149	-0.081728525
127	0x3db42521	0.08796144
128	0xbb4dd530	-0.0031407587
129	0xbc11b9b3	-0.008894372
130	0x3d17d8b5	0.037071902
131	0xbbd9fa21	-0.006652132
132	0xbdd02190	-0.101626515
133	0xbdc88037	-0.0979008
134	0x3dc531fc	0.096286744
135	0x3d83162b	0.064007126
136	0x3de4a04d	0.111633874
137	0xbb9af403	-0.0047287955
138	0x3d174bb2	0.036937423
139	0x3e00af26	0.12566814
140	0x3d36dc76	0.04464384
141	0x3dc27bb8	0.09496254
142	0xbd5dc2ab	-0.054140728
143	0x3d1bb4c7	0.0380142
144	0x3d7c67b0	0.06162232
145	0xbca813a9	-0.020517187
146	0x3daa254d	0.08307896
147	0x3d13090d	0.035897303
148	0xbdc7d71e	-0.09757827
149	0xbe0cadbf	-0.13738154
150	0x3c8fdf52	0.017562542
151	0x3d182d7f	0.037152763
152	0xbd24de2d	-0.040250946
153	0x3ce925b0	0.028460354
154	0x3e16b6a6	0.14718112
155	0x3d6b5509	0.057454143
156	0x3dc23864	0.09483412
157	0xbc0fe305	-0.008782153
158	0xbde53e23	-0.11193492
159	0xbdf08e2f	-0.11745869
160	0xbd25c1f9	-0.04046819
161	0x3dfde8e7	0.12397938
162	0x3c6ea6db	0.014566149
163	0xbb30b7a9	-0.0026964939
164	0xbcb3b632	-0.021937463
165	0xbccee345	-0.025254855
166	0xbd891fb7	-0.06695502
167	0xbd290ce7	-0.04127207
168	0xbdf64feb	-0.12026962
169	0x3ce7a35b	0.028276136
170	0x3b2e2593	0.002657269
171	0xbe0bd67f	-0.13656043
172	0xbe0a22da	-0.13489857
173	0x3d8d7b71	0.0690831
174	0xbe06ee8c	-0.13176936
175	0x3da68cfa	0.08132358
176	0x3cfbe04b	0.0307466
177	0x3db34301	0.08753014
178	0x3cbb7187	0.022881282
179	0xbc80f654	-0.015742458
180	0xbd4ba306	-0.04971602
181	0x3e06f2d6	0.13178572
182	0x3d1b5d9c	0.03793107
183	0x3d3b6ba0	0.045756936
184	0x3d362345	0.04446723
185	0xbd0df251	-0.03465492
186	0x3dd13889	0.10215861
187	0xbc40a26c	-0.011757474
188	0x3de065c4	0.1095691
189	0xbd9c5939	-0.07634205
190	0x3a0de484	0.00054127746
191	0x3e0c769a	0.13717118
192	0xbd9ce560	-0.07660937
193	0xbe019aab	-0.12656657
194	0x3c812bee	0.015768018
195	0x3cb29fa3	0.021804636
196	0x3db6e6e6	0.08930759
197	0x3dcd27fb	0.10017391
198	0x3df35524	0.11881474
199	0xbe12ace3	-0.14323764

lstm.bias_hh_l0 f4 [200]
0	0x3d1d0ebd	0.038344134
1	0x3dfcfcd3	0.1235291
2	0x3c1e0ec2	0.009647073
3	0xbbfe3e07	-0.007758859
4	0xbdc39941	-0.09550715
5	0xbb5fff41	-0.0034179243
6	0x3d8c0ac6	0.06837992
7	0x3d32095c	0.043465957
8	0x3d8dcbd6	0.06923644
9	0x3d9801a6	0.074221894
10	0x3d9ab427	0.075538926
11	0x3b931f79	0.004489836
12	0xbd7fb5c9	-0.062429223
13	0x3e0e6c01	0.13908388
14	0x3d9db853	0.07701173
15	0x3dda1338	0.10648197
16	0x3daf27d4	0.085525185
17	0xbddf23f8	-0.10895532
18	0xbdf25cad	-0.11834083
19	0xbd4f0c1c	-0.050548658
20	0xbd8a7cc3	-0.06762078
21	0x3cdc9319	0.02692561
22	0xbd13d251	-0.036089245
23	0xbd2cceab	-0.04218928
24	0x3d847cb4	0.06469098
25	0x3bbe7549	0.0058123213
26	0x3dd1f588	0.102519095
27	0xbde0b3ef	-0.109718196
28	0x3d4ab07d	0.04948472
29	0xbd8370b1	-0.064179786
30	0xbd8f9340	-0.070105076
31	0x3c04ca11	0.008104817
32	0x3d9b99a0	0.07597661
33	0x3e0bb238	0.13642204
34	0x3a8be52b	0.0010673156
35	0xbd5f7cc1	-0.054562334
36	0x3d6da964	0.05802287
37	0x3b41811c	0.0029526418
38	0xbd812891	-0.063065656
39	0xbdce6114	-0.1007711
40	0xbc2f6275	-0.010704626
41	0xbdb626ef	-0.08894145
42	0x3e01327e	0.12616917
43	0xbdcc3cb3	-0.09972515
44	0xbdb98bda	-0.09059878
45	0xbe0a5cbc	-0.13511938
46	0x3d756f4c	0.059920594
47	0xbd98e6f7	-0.07465928
48	0xbd0b5e11	-0.034025256
49	0x3d318ce1	0.043347243
50	0x3e1d0124	0.15332466
51	0xbcbd86f7	-0.023135645
52	0xbc3422e0	-0.010994643
53	0xbdb5195f	-0.0884273
54	0xbd8f1e96	-0.06988256
55	0xbde48982	-0.1115904
56	0xbdd95c57	-0.106133156
57	0x3c67f30e	0.01415707
58	0x3debe52a	0.11518319
59	0xbd88bbba	-0.06676431
60	0x3cde1c5d	0.027113134
61	0xbe03cf9d	-0.12872167
62	0xbdedd6e5	-0.116132535
63	0x3db5b37a	0.08872123
64	0xbd8c3df9	-0.06847758
65	0x3dcca131	0.09991682
66	0x3c61b748	0.013776608
67	0xbe105c52	-0.14097717
68	0x3dd04a34	0.10170403
69	0x3d0b67e5	0.03403463
70	0x3ce3ac8f	0.027792243
71	0xbd83dd82	-0.06438734
72	0x3df22622	0.118236795
73	0xbe06399a	-0.13107911
74	0x3dbeb446	0.09311728
75	0x3d9bdca9	0.07610447
76	0xbd27fc75	-0.041012246
77	0xbd968aa1	-0.0735066
78	0x3b517d40	0.0031965524
79	0xbd44eb31	-0.04807586
80	0x3d7caff7	0.06169125
81	0x3d0cb8c5	0.034355897
82	0x3d931129	0.071810074
83	0x3d1390a2	0.036026604
84	0xbd0aff16	-0.033934675
85	0xbd7cb716	-0.06169804
86	0x3dcbb7fd	0.09947202
87	0xbdeff3ab	-0.11716398
88	0xbc8d05ed	-0.01721474
89	0x3df8a7b7	0.12141364
90	0x3d5a21f9	0.053255055
91	0x3d27f0bb	0.041001063
92	0x3d13586f	0.03597301
93	0xbdd4fbd0	-0.10399592
94	0x3d4fec3f	0.05076241
95	0x3df951a4	0.12173775
96	0xbba923af	-0.0051617245
97	0x3b71290b	0.0036798145
98	0x3c863015	0.01638035
99	0x3d86e8bf	0.065873615
100	0x3d30af8c	0.043136165
101	0x3d635f5f	0.055510875
102	0x3d3f639d	0.046725858
103	0xbbd84471	-0.0065999557
104	0x3c00a345	0.0078514265
105	0x3da33db4	0.07970753
106	0x3e1580a5	0.14599855
107	0xbde9e879	-0.11421294
108	0xbc990506	-0.018679153
109	0xbdd33029	-0.1031192
110	0x3d66cd23	0.056347977
111	0x3db07d3e	0.08617638
112	0x3d7af7ca	0.061271466
113	0xbdeffafe	-0.11717795
114	0x3dce565e	0.10075067
115	0xbd4b7d6f	-0.04968017
116	0x3c0cb0a5	0.008587037
117	0x3d8b4c65	0.068016805
118	0x3d69976e	0.05702918
119	0x3d782bf6	0.0605888
120	0xbd864076	-0.06555264
121	0xbe035a8c	-0.1282751
122	0xbda2f0b1	-0.079560645
123	0xbdd208d1	-0.10255588
124	0x3c6c04ca	0.014405439
125	0xbd037494	-0.0320936
126	0xbc765e88	-0.015037186
127	0x3d8c8003	0.06860354
128	0xbdbef9b5	-0.093249716
129	0xbddddda1	-0.10833288
130	0xbd9bec08	-0.07613379
131	0x3e05b8fe	0.1305885
132	0xbc88aa83	-0.016682869
133	0x3de212b5	0.11038724
134	0x3c7a0928	0.015260972
135	0x3e16040c	0.14649981
136	0xbd6b1be1	-0.057399634
137	0xbd081109	-0.03321937
138	0x3d666fd2	0.056258984
139	0x3dd2cf20	0.10293412
140	0x3c1d8f5b	0.009616698
141	0x3de3c92e	0.11122356
142	0x3d99ea9b	0.075154506
143	0x3c312f61	0.010814519
144	0x3e11a98a	0.1422483
145	0x3d5c824d	0.053835202
146	0xbd1e495e	-0.038644187
147	0x3e178182	0.14795497
148	0xbd90e1a0	-0.070742846
149	0x3de68c2e	0.11257206
150	0xbd7d5adb	-0.061854225
151	0x3d8b1ed3	0.06792989
152	0xbdf1a61f	-0.11799263
153	0xbdbaac9a	-0.091149524
154	0x3d23aa23	0.039957177
155	0x3d07c3e7	0.03314581
156	0x3ce54804	0.027988441
157	0x3d51b1fb	0.051195126
158	0x3e189c2c	0.14903325
159	0x3c95c941	0.018284442
160	0x3cb593cc	0.022165202
161	0xbdad309c	-0.08456537
162	0xbd9c4d25	-0.07631902
163	0xbd09b3dc	-0.033618793
164	0xbd9b3f71	-0.0758046
165	0xbd328c60	-0.043590903
166	0xbd13e846	-0.036110185
167	0xbd23435a	-0.039859153
168	0xbd97fbc1	-0.07421065
169	0x3e13d580	0.14436913
170	0x3e137ef2	0.14403895
171	0xbdd8b8ce	-0.10582124
172	0xbde8311b	-0.11337491
173	0xbd8d5e97	-0.06902807
174	0xbe0425fb	-0.12905113
175	0x3d061ac3	0.032740366
176	0x3cbb63aa	0.022874672
177	0x3cec837f	0.028871296
178	0xbbdcbaa7	-0.006736118
179	0xbd4e6146	-0.050385736
180	0x3dfddecf	0.12396013
181	0xbd9247a7	-0.07142573
182	0x3de31d2b	0.11089548
183	0xbe030946	-0.12796506
184	0x3c598def	0.0132784685
185	0xbdf13a9c	-0.11778757
186	0xbd0fdc78	-0.035122365
187	0x3dceb0bd	0.10092304
188	0x3cb0e8bb	0.02159535
189	0xbe14e6f6	-0.1454123
190	0x3d464787	0.048408058
191	0x3e029b0d	0.1275446
192	0x3db0a6ce	0.086255655
193	0x3d50014f	0.050782498
194	0x3d9a6354	0.075384766
195	0x3dc32622	0.09528758
196	0x3e06433e	0.13111588
197	0xbde950af	-0.11392342
198	0xbcba46a7	-0.022738768
199	0xbda0772f	-0.078352325

lstm.weight_ih_l1 f4 [200, 50]
0	0xbe0b55d8	-0.13606966
1	0x3cef0892	0.029178891
2	0xbd46d6b8	-0.048544616
3	0x3e015870	0.12631392
4	0x3dc5144a	0.096230105
5	0x3d7872ea	0.060656466
6	0x3dab1837	0.08354228
7	0x3d0022e7	0.031283285
8	0x3d809f10	0.06280339
9	0x3dc604d3	0.09668889
10	0xbde52844	-0.11189321
11	0x3d3ee3eb	0.04660408
12	0xbddbd11f	-0.10733246
13	0xbdd1404d	-0.102173425
14	0xbcb9b4cf	-0.022669224
15	0xbe06226a	-0.13099065
16	0xbcf5a4dc	-0.029985838
17	0xbcb6e915	-0.022327939
18	0xbdb07f46	-0.086180255
19	0x3dc74227	0.097294144
20	0xbdbc82ae	-0.09204613
21	0xbd40bfb7	-0.047057834
22	0x3d8725a6	0.06598978
23	0x3d8bf948	0.06834656
24	0x3d7921e9	0.060823355
25	0xbda3afdd	-0.07992528
26	0x3da0d501	0.07853127
27	0x3d3439a2	0.044000275
28	0xba00d99b	-0.0004915238
29	0x3cf70adb	0.030156543
30	0xbdadfa54	-0.08495012
31	0x3d76e977	0.060281243
32	0xbda65620	-0.08121896
33	0xbd4dc2a5	-0.050234456
34	0x3d9dbd65	0.0770214
35	0x3d9751ff	0.073886864
36	0x3deb2845	0.1148229
37	0x3c467ff0	0.012115464
38	0xbc2e7bf7	-0.010649673
39	0x3e0cffa8	0.137694
40	0x3c83caa2	0.016087834
41	0x3d666fbf	0.056258913
42	0x3ca807f3	0.020511603
43	0xbd9051c0	-0.070468426
44	0xbd8fa0f0	-0.07013118
45	0xbde73d1d	-0.11290953
46	0x3b227a4a	0.0024792128
47	0x3d800ba3	0.062522195
48	0xbc96c427	-0.01840408
49	0x3de209b8	0.1103701
50	0x3e07c425	0.13258417
51	0xbb0565a7	-0.002035478
52	0xbdb6f629	-0.0893367
53	0xbbe4141c	-0.006960405
54	0xbdbf012c	-0.093263954
55	0xbdc4ce41	-0.09609652
56	0xbc79ae5c	-0.015239324
57	0xbd408f63	-0.047011744
58	0x3e0af644	0.13570505
59	0x3dbdbbf9	0.092643686
60	0xbdc11154	-0.09427133
61	0xbdaa4213	-0.08313384
62	0xbd839036	-0.064239904
63	0xbdc38cf6	-0.095483705
64	0xbd813def	-0.06310641
65	0xbd30cf79	-0.04316661
66	0xbcd1381e	-0.025539454
67	0x3c25fd47	0.010131187
68	0xbe027bc3	-0.12742524
69	0xbd0b5c59	-0.034023616
70	0xbdbe561a	-0.09293766
71	0x3ca3e299	0.020005511
72	0x3db38b5a	0.087668136
73	0xbdd2db1f	-0.102957
74	0x3d4a4d37	0.049390044
75	0xbd9ac706	-0.07557492
76	0xbdba15d7	-0.09086197
77	0x3dfef9f0	0.124500155
78	0x3d214528	0.039372593
79	0xbe0571a6	-0.13031635
80	0x3d810339	0.06299443
81	0xbd4a019b	-0.049317937
82	0x3dabc3c5	0.083869494
83	0xbcb95c8a	-0.022627134
84	0x3d193628	0.037405163
85	0x3c585661	0.013204188
86	0x3dcc347e	0.099709496
87	0x3cc2dde6	0.02378745
88	0x3caa72fc	0.020806782
89	0x3d8125dc	0.06306049
90	0xbdcdd0fd	-0.10049627
91	0xbcc3ee6f	-0.023917405
92	0x3d62badb	0.05535398
93	0x3c25527b	0.010090466
94	0xbdfa9de8	-0.122371495
95	0xbc1b868b	-0.009492527
96	0x3ca5056a	0.020144183
97	0xbd34584d	-0.044029523
98	0x3cd4a223	0.025956219
99	0x3cafe3f4	0.021471001
100	0xbdf548c6	-0.11976771
101	0x3dda6381	0.1066351
102	0x3e01f970	0.12692809
103	0x3cc6c43c	0.024263494
104	0xbe08116d	-0.13287897
105	0x3d65822b	0.05603234
106	0x3d485d9d	0.0489174
107	0xbde3a42e	-0.11115299
108	0x3c80d0f8	0.015724644
109	0x3d93acb7	0.07210677
110	0x3dd65d34	0.10466996
111	0xbd9a4af5	-0.07533828
112	0xbca5ae03	-0.020224577
113	0xbd85269c	-0.06501505
114	0xbd94b693	-0.07261386
115	0xbd1400ef	-0.036133703
116	0xbdbf526b	-0.09341892
117	0x3cb88fec	0.022529565
118	0x3d978d46	0.07399993
119	0x3da7d3fa	0.08194728
120	0x3df5a35d	0.1199405
121	0xbd1c7156	-0.038194023
122	0x3da6d20c	0.08145532
123	0xbdead0e8	-0.11465627
124	0xbdade6bd	-0.084912755
125	0x3df14069	0.117798634
126	0xbde16654	-0.11005846
127	0xbd7a112a	-0.061051525
128	0xbe0fc3ab	-0.14039485
129	0xbe16cfee	-0.14727756
130	0x3db41318	0.08792704
131	0x3dc1aa05	0.09456257
132	0xbe036feb	-0.12835662
133	0xbdaf7990	-0.08568108
134	0x3e166ac3	0.14689164
135	0xbc595c27	-0.0132666
136	0xbdf14159	-0.11780042
137	0xbe1e2fda	-0.15447941
138	0xbe02ca7d	-0.12772556
139	0x3e0f15b8	0.13973129
140	0xbd58ba03	-0.05291177
141	0xbc8b7d97	-0.01702766
142	0xbcdfd6bc	-0.027324073
143	0xbdafcc2d	-0.08583865
144	0x3da688bc	0.08131549
145	0x3dc1ccd3	0.09462895
146	0x3cf6f5c5	0.030146489
147	0xbce6e42d	-0.028184975
148	0x3c8d887a	0.017276991
149	0xbdeaabfa	-0.11458583
150	0x3df552dc	0.11978695
151	0xbd19c4c9	-0.037541185
152	0x3e06f9f2	0.13181284
153	0x3e1c0964	0.15237957
154	0x3da11683	0.07865622
155	0x3df920cf	0.12164461
156	0xbcd77098	-0.026298806
157	0xbd207b8c	-0.039180323
158	0xbc4f7790	-0.012662783
159	0xbda27eef	-0.07934367
160	0xbdd79c9f	-0.1052792
161	0xbd8aef3f	-0.06783914
162	0xbdbb2a2f	-0.09138905
163	0xbdd089e1	-0.10182548
164	0xbd6e16c4	-0.05812718
165	0xbdeb1bf5	-0.11479942
166	0x3ded7b3d	0.115957715
167	0x3c569e4b	0.013099263
168	0xbd945288	-0.07242304
169	0x3d5d000f	0.053955134
170	0xbc565e06	-0.01308394
171	0x3d699df9	0.05703542
172	0x3df0b3c0	0.117530346
173	0xbd323319	-0.04350576
174	0x3dc92aa1	0.09822584
175	0xbe083b83	-0.13303952
176	0x3e019d45	0.1265765
177	0xbdf99d49	-0.12188203
178	0xbd97dffe	-0.0741577
179	0x3d3e0bae	0.046397857
180	0xbd3aa995	-0.045571882
181	0x3dea7d26	0.114496514
182	0xbde5bba9	-0.11217434
183	0xbdb7d1e7	-0.089755826
184	0x3b4b81d4	0.0031052725
185	0x3e0f983f	0.14022921
186	0xbe1f5534	-0.15559846
187	0x3c37d98b	0.0112213
188	0x3cca8b36	0.024724584
189	0x3ca1389e	0.019680317
190	0x3c814ac7	0.015782727
191	0x3e093517	0.13399158
192	0x3e197cfa	0.14989081
193	0xbd9e0fb3	-0.07717838
194	0x3db684f9	0.08912081
195	0xbe0653df	-0.13117932
196	0x3db51e27	0.08843642
197	0x3d30b74c	0.043143556
198	0x3d6c1994	0.05764158
199	0xbdc7c0c2	-0.097535625
200	0x3d82c5b2	0.06385364
201	0xbcdde14f	-0.027084975
202	0xbcedf245	-0.029046187
203	0xbc88c2d5	-0.016694466
204	0x3ddcbee3	0.10778596
205	0x3df709df	0.1206243
206	0xbd1dedcc	-0.03855686
207	0x3dba639d	0.09101031
208	0xbdb858cb	-0.09001311
209	0xbda47750	-0.080305696
210	0x3e03b9da	0.12863865
211	0x3d66d222	0.056352742
212	0x3d998737	0.07496493
213	0x3d82029d	0.06348155
214	0xbdf5aa6b	-0.11995395
215	0x3d8bd91a	0.06828518
216	0x3dafe7e9	0.08589155
217	0xbde55612	-0.11198057
218	0xbcb150d5	-0.021644989
219	0xbdd367cc	-0.10322532
220	0x3c622cb0	0.0138046
221	0xbd0ea2a5	-0.03482308
222	0x3dc4259f	0.09577488
223	0x3cc2a3c1	0.023759725
224	0x3dbd08a3	0.09230163
225	0xbd57e7a3	-0.05271114
226	0x3d0ecadc	0.03486143
227	0xbe02ddbb	-0.12779896
228	0x3dc9743e	0.098366246
229	0xbdc25986	-0.094897315
230	0xbce5783f	-0.02801144
231	0xbd508992	-0.050912447
232	0x3d220f25	0.039565224
233	0x3dc0454a	0.09388216
234	0xbccdf86b	-0.025142869
235	0x3ddea6f1	0.10871685
236	0x3e125561	0.14290382
237	0x3d864d7d	0.065577485
238	0x3db58c4f	0.08864652
239	0x3d7e6e16	0.062116705
240	0xbd492dff	-0.04911613
241	0x3d0f0cec	0.034924433
242	0xbdd3f24a	-0.10348947
243	0xbd6ef4d1	-0.058338944
244	0x3d371c88	0.044704944
245	0x3d50e359	0.050998066
246	0xbd6547db	-0.05597673
247	0xbdecf74d	-0.115706064
248	0xbdcdb2a4	-0.100438386
249	0x3d690bd1	0.056896035
250	0xbb259338	-0.0025264751
251	0x3d978926	0.07399206
252	0x3db2bbaf	0.08727204
253	0xbdae268f	-0.08503448
254	0xbe119bc8	-0.14219582
255	0xbe15d5fb	-0.14632408

lstm.weight_hh_l1 f4 [200, 50]
0	0xbe0a9bd6	-0.13536009
1	0xbde6fed9	-0.11279077
2	0x3d9a0544	0.075205356
3	0xbe080734	-0.13283998
4	0x3e0322cd	0.12806244
5	0xbdfe015d	-0.12402604
6	0xbdc27e85	-0.09496788
7	0xbe006c8d	-0.12541409
8	0xbdb4f77e	-0.08836268
9	0x3d046725	0.03232493
10	0xbdce0b19	-0.100607105
11	0x3c5aef59	0.013362729
12	0x3e03b9c8	0.12863839
13	0xbcadff8d	-0.02124002
14	0x3d18ac6c	0.03727381
15	0xbd574910	-0.052559912
16	0xbc9157be	-0.017742034
17	0xbc6e996d	-0.014562947
18	0xbdb5d42d	-0.0887836
19	0x3dd9dbc3	0.10637619
20	0xbcbb97c4	-0.022899516
21	0xbc083d8c	-0.008315455
22	0xbdccac24	-0.09993771
23	0x3dbd196d	0.09233365
24	0xbccf4fd1	-0.025306614
25	0x3d7fddef	0.06246751
26	0xbe07f499	-0.132769
27	0xbd8f00df	-0.06982588
28	0x3cdc88ab	0.026920637
29	0x3ca0abd1	0.019613178
30	0x3d472776	0.048621617
31	0xbd8989e2	-0.06715752
32	0xbcbd5873	-0.023113465
33	0xbe0997b9	-0.13436784
34	0xbd357a43	-0.04430605
35	0x3ded325a	0.115818694
36	0x3daab0f8	0.08334535
37	0x3d0a6ada	0.033793308
38	0x3bce4423	0.0062947436
39	0x3dabb209	0.08383567
40	0x3c0b66a2	0.008508356
41	0x3d91e8be	0.0712447
42	0xbac5ebd9	-0.0015100195
43	0xbddc484c	-0.10755977
44	0xbd70b3d2	-0.05876524
45	0x3d2c9aa8	0.04213968
46	0xbaf83bec	-0.0018938757
47	0x3cf8a631	0.030352684
48	0x3da14ec2	0.0787635
49	0x3cea4e51	0.028601797
50	0xbd4f736b	-0.05064718
51	0x3d4f02ad	0.05053966
52	0x3d3b3442	0.045704134
53	0x3dbce757	0.09223812
54	0xbd724730	-0.05914992
55	0x3d639fc4	0.055572286
56	0x3d93a02a	0.07208283
57	0x3dc509e2	0.096210256
58	0xbcf70713	-0.03015474
59	0x3c400918	0.011720918
60	0xb992a7e1	-0.0002797237
61	0x3d77f7ee	0.06053918
62	0x3d82c8e0	0.0638597
63	0xbcaed18f	-0.02134016
64	0xbdb6f35b	-0.08933135
65	0x3d48ebc6	0.049052976
66	0x3db7c84b	0.0897375
67	0xbd23c101	-0.039978985
68	0xbd30e526	-0.043187283
69	0xbc8623c5	-0.016374478
70	0x3d9cc46d	0.07654653
71	0xbd149746	-0.036277078
72	0xbda1456e	-0.07874571
73	0x3cb46af6	0.02202366
74	0x3db8c332	0.090216056
75	0xbcc93dec	-0.02456566
76	0xbd8db060	-0.069184065
77	0x3d40f959	0.047112796
78	0xbdf4915e	-0.11941789
79	0xbd4f2e07	-0.050581004
80	0x3db45d54	0.088068634
81	0xbd99e02f	-0.07513463
82	0xbdbeb6cb	-0.09312209
83	0xbde2990e	-0.11064349
84	0x3dc3c9d5	0.09559981
85	0x3e072bb2	0.13200262
86	0xbde61caa	-0.11235936
87	0x3e042e78	0.12908351
88	0x3d8f4c6e	0.06997
89	0xbd6ef8d6	-0.058342777
90	0x3d20a88c	0.03922324
91	0x3e144b68	0.1448189
92	0x3de427b9	0.11140389
93	0x3cfd0be7	0.030889465
94	0x3dbf1a7c	0.09331223
95	0xbdd77911	-0.105211385
96	0x3e008d7f	0.12553976
97	0xbdd06920	-0.10176301
98	0x3df2b407	0.11850744
99	0x3e00b126	0.12567577
100	0xbdc11268	-0.09427339
101	0xbca0d5fb	-0.019633284
102	0xbe1b25a5	-0.15151079
103	0xbca15e49	-0.019698279
104	0x3da02239	0.078190275
105	0xbdf1e968	-0.11812097
106	0xbd82ef8f	-0.063933484
107	0x3ad2cca6	0.0016082719
108	0xbd17c835	-0.037056167
109	0x3ce887d2	0.028385077
110	0xbda6a19a	-0.08136292
111	0xbd11601c	-0.035492048
112	0x3e1b17f8	0.15145862
113	0xbddae161	-0.10687519
114	0x3d58f855	0.052971203
115	0xbc9344b2	-0.017977092
116	0xbd62114f	-0.055192288
117	0xbd3b0897	-0.04566249
118	0xbdf64bae	-0.120261535
119	0xb8bd4bae	-9.026319e-05
120	0x3ca6f223	0.020379132
121	0x3d377223	0.044786584
122	0xbdf6f7e3	-0.120589994
123	0xbc744788	-0.0149096325
124	0xbd88f6cd	-0.066876985
125	0xbd75722d	-0.05992334
126	0xbdd6a510	-0.10480702
127	0xbdf5b88b	-0.119980894
128	0x3d8312dc	0.064000815
129	0xbde5652d	-0.112009384
130	0xbd069893	-0.03286035
131	0x3cb34976	0.021885615
132	0x3d64b960	0.05584085
133	0x3d3828e7	0.044960883
134	0xbdec6ff6	-0.11544792
135	0x3d8a70b8	0.06759781
136	0x3d0919d4	0.033471897
137	0x3db731c1	0.08945037
138	0xbc8e70a4	-0.017387696
139	0x3da0b178	0.078463495
140	0x3db5c159	0.08874769
141	0xbd15f979	-0.03661487
142	0x3d9c8ef9	0.07644457
143	0x3d52f66e	0.051504545
144	0x3d793462	0.06084097
145	0xbc04a08e	-0.00809492
146	0x3dd4f4b8	0.10398239
147	0xbe14623e	-0.14490601
148	0xbdbf518c	-0.09341726
149	0xbdea68c5	-0.114457645
150	0xb9976fc3	-0.00028884233
151	0x3d9bd899	0.07609672
152	0xba2181d2	-0.00061610073
153	0x3d84549f	0.06461453
154	0x3dea72f7	0.11447709
155	0xbe158d59	-0.14604701
156	0xbda61ee9	-0.081113644
157	0x3d8e5065	0.06948928
158	0x3e116534	0.14198762
159	0xbc663d61	-0.01405272
160	0x3d3e3dd1	0.04644567
161	0xbd623a4d	-0.05523138
162	0x3b3ff463	0.0029289953
163	0xbde29244	-0.11063054
164	0x3cfa6c64	0.030569263
165	0x3cf4bfcb	0.02987661
166	0xbd9cf7c1	-0.07664443
167	0xbbb6d292	-0.005579301
168	0xbe1b9e87	-0.15197192
169	0x3dcd6613	0.10029235
170	0x3c1f83e2	0.009736033
171	0x3de77dac	0.11303267
172	0xbc8d6174	-0.017258383
173	0x3dddf0dc	0.10836956
174	0x3dc2b3b8	0.09506935
175	0x3d9a8b0f	0.075460546
176	0xbe10dbc9	-0.14146341
177	0xbdaec408	-0.08533484
178	0xbda2212c	-0.07916483
179	0xbc3d8f6c	-0.011569839
180	0xbe1548e2	-0.14578584
181	0xbd30725d	-0.043077815
182	0xbde00395	-0.10938183
183	0x3daa3cb0	0.083123565
184	0x3dbf9c49	0.09355981
185	0xbd2a3e97	-0.041563597
186	0x3df575e5	0.11985377
187	0x3b107a70	0.0022045635
188	0xbd38bf6f	-0.04510444
189	0x3df89879	0.12138457
190	0xbdaef330	-0.08542478
191	0x3d9c4777	0.07630818
192	0xbd9a93f8	-0.07547754
193	0x3df1156a	0.117716625
194	0xbdb027fb	-0.08601376
195	0xbc51557c	-0.012776729
196	0xbe04bf99	-0.12963714
197	0xbca871bd	-0.020562047
198	0x3d797617	0.060903635
199	0xbda0726d	-0.07834325
200	0x3d2cc3a7	0.042178776
201	0xbd77c46b	-0.060490053
202	0xbcfb3701	-0.030665876
203	0x3c1b0fb6	0.009464195
204	0x3c63b325	0.013897692
205	0x3c55e72b	0.013055603
206	0xbdcbfbf4	-0.099601656
207	0x3de99684	0.11405662
208	0x3c9d2ea6	0.019187283
209	0x3dab5ead	0.08367667
210	0x3dfafe51	0.12255538
211	0xbdaca987	-0.08430772
212	0xbcf00d48	-0.029303208
213	0xbd0b0b32	-0.033946224
214	0x3d88c7a1	0.06678701
215	0x3e0fb7bb	0.14034931
216	0x3e09f425	0.1347204
217	0x3dcedaf5	0.101003565
218	0x3d9da863	0.07698133
219	0xbd5afc1b	-0.053463083
220	0xbcd39083	-0.025825744
221	0xbce5d915	-0.028057614
222	0xbcba7d36	-0.022764783
223	0x399f299d	0.00030357848
224	0xbd08681d	-0.033302415
225	0x3e1cede4	0.15325123
226	0x3d3bfbe4	0.04589452
227	0xbcbdc4e1	-0.023165168
228	0xbdf67a29	-0.12035019
229	0xbe00ae75	-0.1256655
230	0xbb8fe720	-0.004391566
231	0xbdc629a1	-0.09675909
232	0xbe09dbaa	-0.13462701
233	0x3c2ebc5f	0.010665028
234	0xbe09ff0e	-0.13476202
235	0xbd8850e4	-0.06656054
236	0x3d8c7361	0.06857944
237	0x3d95fcdb	0.07323619
238	0x3cb2c5dc	0.021822862
239	0x3d54e5ea	0.051977076
240	0xbd8d71b0	-0.0690645
241	0x3d83ef3e	0.06442116
242	0xbde9970b	-0.11405762
243	0x3de2f765	0.11082343
244	0xbe10c9d5	-0.14139493
245	0xbd8bdc34	-0.0682911
246	0xbdbfe4d5	-0.09369818
247	0x3d21beca	0.03948859
248	0xbca28d30	-0.019842714
249	0xbde77965	-0.11302451
250	0x3d5b6f27	0.0535728
251	0x3db56697	0.08857458
252	0x3dc47425	0.09592465
253	0xbd98fc56	-0.07470004
254	0x3c9a6ca3	0.01885063
255	0x3db8c16b	0.090212665

lstm.bias_ih_l1 f4 [200]
0	0x3e12768a	0.14303032
1	0xbde082bf	-0.10962438
2	0x3cf04ef0	0.029334515
3	0x3da161c6	0.07879977
4	0x3c7509f2	0.014955984
5	0xbdb94c48	-0.090477526
6	0xbdbddbb7	-0.09270423
7	0x3d7f3b96	0.062312685
8	0xbd0d47ec	-0.03449242
9	0xbdde7c24	-0.10863522
10	0x3c9eacdb	0.019369533
11	0x3c162e76	0.009166351
12	0xbdcc2349	-0.099676676
13	0xbd4e0035	-0.050293166
14	0xbde1a1a6	-0.1101716
15	0xbc5709e2	-0.013124915
16	0x3da02f59	0.07821531
17	0x3b319ef1	0.0027102793
18	0xbdcb1e89	-0.099179335
19	0x3d597331	0.05308837
20	0x3e0a7a22	0.13523152
21	0xbdf2f7fb	-0.11863705
22	0xbd9724f7	-0.07380097
23	0x3da57364	0.0807865
24	0xbe0482cd	-0.12940522
25	0x3e086786	0.13320741
26	0xbdee8f3f	-0.11648416
27	0xbdfeeaa7	-0.124471
28	0xbd2b7b8d	-0.041865874
29	0x3ceada4a	0.028668541
30	0x3dd10df5	0.1020774
31	0xbe019cea	-0.12657514
32	0x3beac0d3	0.0071640997
33	0x3d39a55f	0.045323726
34	0x3d819feb	0.0632933
35	0xbc311459	-0.010808074
36	0x3dd47606	0.10374074
37	0x3d45022f	0.048097786
38	0x3baca00e	0.0052681034
39	0x3b97d6e0	0.0046337694
40	0xbd879d5c	-0.06621811
41	0x3cf8bc7c	0.030363314
42	0xbc36b4b5	-0.011151482
43	0x3da70ed1	0.08157123
44	0x3ce15fc2	0.027511481
45	0x3dcdb0cf	0.10043489
46	0xbd9b9e0b	-0.07598504
47	0xbd94ce7c	-0.07265946
48	0xbd23b993	-0.0399719
49	0xbdf243e4	-0.11829355
50	0xbe02ee17	-0.12786137
51	0xbdb5e71c	-0.08881971
52	0xbcce92d5	-0.0252165
53	0xbd373f70	-0.044738233
54	0x3d60b59b	0.054860692
55	0xbc9a5778	-0.018840536
56	0x3db6e3d9	0.08930177
57	0x3d6bd5aa	0.057576813
58	0x3c9f3300	0.019433498
59	0xbdcf565b	-0.10123893
60	0xbdfa1668	-0.12211305
61	0xbde163ad	-0.1100534
62	0x3e00f69f	0.12594078
63	0xbd9cdfe7	-0.076598935
64	0xba6d8f87	-0.000906222
65	0xbd569089	-0.052383933
66	0xbdf57adc	-0.11986324
67	0xbd2e3afe	-0.042536728
68	0x3e061f7d	0.1309795
69	0xbd896f04	-0.06710628
70	0xbd5b07be	-0.05347418
71	0x3d8bf5ab	0.06833967
72	0x3dbdf45a	0.09275122
73	0xbe0683ff	-0.1313629
74	0xbc5338df	-0.012891977
75	0x3e1a6539	0.15077676
76	0x3d69b488	0.057056934
77	0xbdb18a3e	-0.08668946
78	0x3d43e46c	0.047825262
79	0xbdf09f86	-0.11749177
80	0x3dc3753c	0.09543845
81	0x3bb007e0	0.0053720325
82	0x3de66715	0.1125013
83	0xbd79e9fd	-0.061014164
84	0x3e05bf66	0.13061294
85	0xbdd21584	-0.1025801
86	0x3d6d8001	0.057983402
87	0x3d83ab30	0.06429136
88	0xbdc153c3	-0.094398044
89	0x3c730926	0.014833724
90	0x3d4c0273	0.049807023
91	0xbd0655b9	-0.032796595
92	0xbd0d17f8	-0.034446687
93	0x3cb71d63	0.02235288
94	0xbd701365	-0.058612246
95	0xbb120a4f	-0.0022283976
96	0xbc83e101	-0.016098501
97	0x3d27d237	0.04097196
98	0xbc090971	-0.008364067
99	0x3e12780a	0.14303604
100	0xbe0034ab	-0.12520091
101	0x3d83f5b5	0.06443349
102	0xbe17772c	-0.14791554
103	0xbda9598a	-0.08269031
104	0xbc7976a3	-0.015226039
105	0xbd8aa7fb	-0.06770321
106	0xbdf11885	-0.11772255
107	0xbcbb3404	-0.022851951
108	0x3dcf5a63	0.10124662
109	0x3cef2928	0.02919443
110	0xbdc5fbb7	-0.096671514
111	0x3d562641	0.052282576
112	0xbd9e9cff	-0.077447884
113	0xbd6cf033	-0.05784626
114	0x3d68e044	0.0568545
115	0xbe15ad0a	-0.1461679
116	0xbd9f4951	-0.07777656
117	0x3c8fc090	0.017547876
118	0xbdbf89ac	-0.09352431
119	0xbde2ef30	-0.11080778
120	0xbe06dc95	-0.13170083
121	0x3d62cd0b	0.055371325
122	0xbdf04584	-0.11732009
123	0x3d029643	0.031881582
124	0xbd261126	-0.040543698
125	0x3c6f7160	0.014614433
126	0xbded3579	-0.11582465
127	0x3e09e5b8	0.13466537
128	0xbd4f08ef	-0.05054563
129	0xbd748222	-0.059694417
130	0xbdcda400	-0.10041046
131	0x3da7b1d1	0.08188213
132	0x3d9cf203	0.076633476
133	0xbd21adf8	-0.03947255
134	0x3d306a9c	0.04307042
135	0xbdc79d9b	-0.09746858
136	0x3dca1681	0.098675735
137	0x3d114e2d	0.035474945
138	0xbd97852d	-0.07398448
139	0x3d5e3a27	0.054254677
140	0xbc898771	-0.016788216
141	0xbe1b6703	-0.15176015
142	0xbd88f28d	-0.06686888
143	0x3c9b0ac0	0.018926024
144	0xbd4a4333	-0.049380492
145	0x3e13b19f	0.14423226
146	0xbdb0c5c4	-0.08631471
147	0x3dded66e	0.10880743
148	0x3dfbdfbd	0.12298534
149	0x3e0db436	0.13838276
150	0xbd4da159	-0.0502027
151	0x3d7456db	0.059653144
152	0x3de02d18	0.10946101
153	0x3acf0756	0.0015795033
154	0x3d58118d	0.052751113
155	0x3d142298	0.036165804
156	0xbdbe4e2b	-0.09292253
157	0x3e116e2d	0.14202185
158	0x3b1c15e8	0.0023816768
159	0xbd9cbec0	-0.0765357
160	0x3d174a73	0.036936235
161	0x3d88557e	0.06656931
162	0xbcc60185	-0.024170646
163	0xbe19aa95	-0.15006478
164	0x3cd4da7e	0.025983091
165	0x3d3ce64c	0.046118066
166	0xbc822f6c	-0.015891753
167	0xbc8e58c4	-0.017376311
168	0xbdbc537e	-0.09195612
169	0xbc19fcb4	-0.009398628
170	0x3d886432	0.06659736
171	0xbdd54479	-0.10413451
172	0xba0a94ca	-0.00052864535
173	0xbd2d1704	-0.042258278
174	0x3d8dff57	0.06933468
175	0x3d4e4767	0.050361063
176	0x3e011d86	0.12608919
177	0xbca4780b	-0.020076772
178	0xbd2511dc	-0.040300235
179	0xbc9395f0	-0.018015832
180	0xbdaf26e4	-0.0855234
181	0xbd72aa43	-0.059244405
182	0xbc92178d	-0.017833496
183	0xbab4567c	-0.0013758685
184	0x3d415130	0.047196567
185	0x3ddc0027	0.107422166
186	0xbdbc9051	-0.09207214
187	0x3db6f2c9	0.08933026
188	0x3e003629	0.1252066
189	0x3d4a4721	0.04938424
190	0x3de7fa49	0.11327035
191	0xbc9a1c94	-0.018812455
192	0x3e015995	0.12631829
193	0x3de911f2	0.11380376
194	0x3d5685ae	0.05237358
195	0x3ddc4750	0.10755789
196	0xbd82309f	-0.0635693
197	0xbc8479fa	-0.016171444
198	0x3d2c9b20	0.042140126
199	0x3de27342	0.1105714

lstm.bias_hh_l1 f4 [200]
0	0x3de5d637	0.11222499
1	0x3de55719	0.11198253
2	0x38f1a1be	0.00011521902
3	0x3d204a5b	0.03913341
4	0xbc4fe80b	-0.012689601
5	0xbc1fccbf	-0.009753405
6	0x3dd09e55	0.101864494
7	0x3da1cffa	0.079009965
8	0x3dfee9ad	0.12446914
9	0x3ca87743	0.02056468
10	0x3ca2854a	0.019838948
11	0xbde1bd8c	-0.11022481
12	0x3da83ad6	0.08214347
13	0xbdf6b427	-0.1204608
14	0x3db4a456	0.08820407
15	0xbdde5c3b	-0.10857435
16	0x3d83bb28	0.064321816
17	0x3dcd7324	0.10031727
18	0x3d9e1748	0.07719284
19	0xbde92ae6	-0.11385135
20	0x3dff7623	0.12473705
21	0xbe061621	-0.13094379
22	0x3d99afb7	0.07504218
23	0x3d54575e	0.051841132
24	0xbdd35ac5	-0.10320047
25	0x3dfc6fea	0.123260334
26	0x3e0ecbf7	0.13944994
27	0x3e069314	0.13142043
28	0x3df653c7	0.12027698
29	0x3c72a209	0.01480914
30	0xbd342769	-0.043982897
31	0x3d872d98	0.06600493
32	0xbcddf601	-0.027094843
33	0xbd426343	-0.047457945
34	0xbd8b1f87	-0.06793123
35	0xbdec4201	-0.11536027
36	0xbd78dea8	-0.060759217
37	0xbd908f13	-0.07058539
38	0x3d428b98	0.04749641
39	0x3db66848	0.08906609
40	0x3cd66768	0.026172355
41	0x3e17cd36	0.14824376
42	0xbd8d6d6a	-0.06905635
43	0x3d173a0e	0.0369206
44	0xbdc070be	-0.09396504
45	0x3e0947c1	0.13406278
46	0xbcb13fa8	-0.021636799
47	0x3dfa108e	0.12210189
48	0xbe015f15	-0.12633927
49	0x3c0cfffe	0.008605955
50	0x3c19b61c	0.009381797
51	0xbd0327f9	-0.032020543
52	0xbe03a5ed	-0.12856264
53	0x3d3832d7	0.04497036
54	0xbdbe0dae	-0.09279953
55	0x3c70a662	0.014688106
56	0x3d10fa4b	0.035394948
57	0xbd9fcb66	-0.07802467
58	0xbcdf8ff0	-0.027290314
59	0x3e173b89	0.14768805
60	0x3de1d57f	0.11027049
61	0x3de8c481	0.11365605
62	0x3de00613	0.109386586
63	0x3ce41cdf	0.027845798
64	0xbdb81b9c	-0.08989641
65	0x3daaf2a6	0.08347063
66	0x3d90efca	0.07076986
67	0xbd0a0711	-0.033698145
68	0xbca36327	-0.01994474
69	0x3dd7a340	0.10529184
70	0x3d0fc65e	0.035101287
71	0xbda20081	-0.07910252
72	0x3dc1a4bf	0.09455251
73	0xbc5c751f	-0.013455658
74	0xbda814e0	-0.082071066
75	0x3dd484b2	0.10376872
76	0xbd21886d	-0.039436746
77	0x3e035c93	0.12828283
78	0x3e0492ce	0.12946627
79	0x3ccf2358	0.025285408
80	0xbd8fa193	-0.0701324
81	0x3d6e6417	0.058200922
82	0x3ccbcb43	0.024877196
83	0xbce80612	-0.028323207
84	0xbd3f5d1c	-0.046719655
85	0xbd171c36	-0.03689214
86	0xbda169c3	-0.078815006
87	0xbc5e7c7f	-0.013579487
88	0x3c866f68	0.016410545
89	0xbd98e3f5	-0.07465354
90	0xbd99d70d	-0.07511721
91	0x3de98071	0.114014514
92	0xbd3c6cb8	-0.04600212
93	0x3d946ff0	0.07247913
94	0xbca4ce42	-0.020117883
95	0xbbabaa9f	-0.0052388455
96	0xbc423d9a	-0.011855507
97	0x3d9a6386	0.07538514
98	0x3dbabb22	0.09117724
99	0x3ddcf089	0.10788066
100	0xbd481545	-0.04884841
101	0xbd834bc2	-0.06410934
102	0xbdd81691	-0.10551179
103	0x3de6d7df	0.11271643
104	0xbdff2546	-0.12458281
105	0xbd8462b5	-0.06464139
106	0x3d8906bf	0.0669074
107	0x3ce854af	0.028360693
108	0xbe0d7abb	-0.13816349
109	0xbe02b558	-0.1276449
110	0x3d8771d3	0.06613507
111	0xbd6a836a	-0.057254232
112	0x3d9a4e2a	0.0753444
113	0xbdd829a9	-0.10554821
114	0xbcfb636f	-0.030687062
115	0xbdd57817	-0.10423296
116	0xbdad02ea	-0.084478214
117	0x3d6e64ec	0.058201715
118	0x3c686d85	0.014186268
119	0xbd8527f0	-0.06501758
120	0xbe18a231	-0.14905621
121	0xbddb7ed5	-0.10717551
122	0xbdd60aaf	-0.104512565
123	0xbc04120b	-0.008060942
124	0x3c9ac8ad	0.018894518
125	0xbe082354	-0.13294727
126	0xbc06324b	-0.008190702
127	0x3e0e5116	0.1389812
128	0x3bc7af6a	0.006093909
129	0xbc53ac10	-0.012919441
130	0x3ca03333	0.019555664
131	0x3d0e427e	0.03473138
132	0x3da3bed9	0.07995386
133	0xbdc562e4	-0.096380025
134	0x3e0a6c7a	0.13517943
135	0xbda2dab9	-0.07951874
136	0x3d80501f	0.06265282
137	0x3db9fafc	0.090810746
138	0xbd5d60d6	-0.054047428
139	0xbde08389	-0.10962588
140	0xbe009a09	-0.1255876
141	0x3c54e1a7	0.012993253
142	0xbe1058c5	-0.14096363
143	0xbdc40dca	-0.095729426
144	0x3d270ad2	0.040781803
145	0x3d83392c	0.06407389
146	0xbdb1cde3	-0.08681848
147	0xbe095e25	-0.1341482
148	0xbd899011	-0.067169316
149	0x3d9edf1a	0.07757397
150	0x3b9446e7	0.004525054
151	0xbde858ff	-0.113451
152	0xbd47a559	-0.048741672
153	0xbdf060f8	-0.11737245
154	0x3da710d1	0.08157504
155	0xbda27658	-0.079327285
156	0xbd4be005	-0.04977419
157	0x3df4b779	0.11949057
158	0xbdb1f60f	-0.0868951
159	0xbdedbc51	-0.11608184
160	0x3adc951a	0.0016829104
161	0xbe112cdd	-0.1417727
162	0xbd423d26	-0.047421597
163	0xbc702b4c	-0.01465876
164	0xbd82f69c	-0.06394693
165	0x3d986413	0.07440963
166	0xbdae89e9	-0.08522398
167	0xbcc1e880	-0.023670435
168	0x3df79ec9	0.12090833
169	0x3d07575f	0.033042308
170	0xbc046d26	-0.008082664
171	0xbcc2bea8	-0.023772553
172	0xbd805bcc	-0.06267509
173	0x3df12afc	0.11775777
174	0xbc89e796	-0.016834062
175	0xbd950360	-0.07276034
176	0x3da0fe19	0.07860965
177	0xbda8ed0d	-0.08248339
178	0x3d740905	0.059578914
179	0x3e007ab8	0.12546813
180	0x3e06aec7	0.1315261
181	0x3c40067b	0.011720295
182	0x3d1716a7	0.036886837
183	0x3dccc3a1	0.09998251
184	0xbdbb4b3c	-0.09145209
185	0xbdff583a	-0.12468
186	0xbd554986	-0.05207207
187	0x3dc93272	0.09824075
188	0x3dd9d4f2	0.10636319
189	0xbcec6f97	-0.028861804
190	0xbdf05351	-0.11734641
191	0xbdfa00b6	-0.12207167
192	0x3d8987f1	0.06715382
193	0x3ccb98ad	0.024853075
194	0x3cce280e	0.025165584
195	0xbd9255d0	-0.07145274
196	0xbdb556c4	-0.0885444
197	0x3cd8d34f	0.026467947
198	0x3e0a0389	0.13477911
199	0xbd6e4027	-0.05816665

fc.weight f4 [1, 50]
0	0x3c36b354	0.011151154
1	0x3d5e6c1e	0.054302327
2	0xbd6e9e41	-0.05825639
3	0xbe093075	-0.13397391
4	0x3dbd926e	0.09256445
5	0x3df35c43	0.11882832
6	0xbd892717	-0.06696909
7	0x3d937265	0.071995534
8	0xbda9e861	-0.08296276
9	0xbdfce57c	-0.12348458
10	0x3da2fe0c	0.07958612
11	0x3da84bcf	0.08217584
12	0x3d8dfd51	0.06933082
13	0x3db8446a	0.08997424
14	0xbd8ce01f	-0.06878685
15	0xbd9f7d95	-0.07787625
16	0x3dbeae21	0.09310556
17	0x3e07e047	0.13269149
18	0x3b9f14c2	0.0048547694
19	0xbe0b8b2e	-0.13627312
20	0xbd889902	-0.06669809
21	0x3d03e926	0.03220477
22	0xbd9dc7e6	-0.07704143
23	0x3e0ab41c	0.13545269
24	0x3d432ba0	0.047649026
25	0xbda2cdbf	-0.07949399
26	0xbdd6285d	-0.104569174
27	0x3dfb73ea	0.12277968
28	0xbd76057b	-0.06006382
29	0xbdda0618	-0.106456935
30	0xbd03d50f	-0.03218561
31	0xbdde7554	-0.10862222
32	0x3d812d19	0.0630743
33	0xbd757eb3	-0.059935283
34	0x3dfc457f	0.12317943
35	0x3df1f037	0.118133955
36	0x3c493309	0.012280234
37	0x3df03ed2	0.11730732
38	0xbd4c1aa3	-0.04983009
39	0x3e07b87c	0.13253969
40	0xbc985241	-0.01859391
41	0x3c9cf85e	0.0191614
42	0xbde592a4	-0.1120961
43	0x3de69157	0.1125819
44	0xbc32d374	-0.010914672
45	0x3d9459eb	0.07243713
46	0xbdf7a784	-0.12092498
47	0xbe0a40fc	-0.13501352
48	0x3c864445	0.016389975
49	0x3d9d9cb1	0.07695902
