models/daily_model_BNB_USDT.pth (torch, 128277 bytes, 9 tensors)

lstm.weight_ih_l0 f4 [200, 1]
000000 5e db 8a 3d 7d 97 d0 3d 30 e0 91 3d 6a a0 06 3c
       0.06780122 0.10185144 0.071228385 0.008216957
000010 4c 22 d2 3d b3 0a ef 3b ef 21 6c 3d fd b3 10 3e
       0.10260448 0.0072949766 0.05764955 0.1413116
000020 a3 c4 1c bd 88 99 af 3d f1 51 13 3e d2 d7 83 bc
       -0.038273465 0.08574206 0.14386727 -0.016094122
000030 ab a8 19 3e d2 7c 0e 3e 83 56 b2 bd 3c 1e ad bc
       0.15005748 0.13914803 -0.08707907 -0.021132581
000040 fb 77 c9 3d 45 1b ad 3c da 81 d6 3d 5f 2c cc bd
       0.098373376 0.021131167 0.10473986 -0.099694006
000050 53 d9 ec 3d 22 5b b8 bb fd f4 0f 3e 45 cb 09 3e
       0.11564889 -0.0056260983 0.140583 0.13456447
000060 b6 5e c0 bc 63 43 8e 3d d6 57 65 bd b3 b2 c3 3d
       -0.023482662 0.06946447 -0.05599197 0.095555685
000070 7a d0 f5 bd 23 de 4d 3d fd 32 0f 3e 95 9d 67 bd
       -0.120026544 0.050260674 0.13984294 -0.056546766
000080 be 79 61 bd 78 7a 05 3d 91 93 e8 3d 93 23 25 bd
       -0.055047743 0.0325875 0.11356271 -0.04031713
000090 9d 69 89 bd 3e 77 0d bd 6f 32 18 3e 3a be 09 3e
       -0.06709597 -0.034537546 0.14862989 0.13451472
0000a0 41 0a 24 3e 3a 90 3f 3c 52 08 48 bd d1 66 1a bd
       0.16019537 0.011692101 -0.04883606 -0.03769571
0000b0 ca c3 50 bd 6f 7a c1 3c 99 d3 c4 bd 4a 39 f8 bc
       -0.05096797 0.023617951 -0.096106716 -0.030300755
0000c0 75 09 fa bd 26 83 f0 bc ac b7 cd 3d 50 ca f6 3d
       -0.12208835 -0.029359411 0.10044798 0.12050307
0000d0 c2 6e 8e 3d 0c 23 f3 bd 4f e2 d8 bd e9 a7 38 bd
       0.06954719 -0.11871919 -0.1059004 -0.045082007
0000e0 32 80 ba bd 93 39 b3 3c f8 31 e5 bd eb 75 36 3d
       -0.091064826 0.02187804 -0.111911714 0.04454605
0000f0 30 f0 af bd 3a 5d ff bc 21 88 c8 3d 0f d4 26 3d
       -0.08590734 -0.031172384 0.097915895 0.04072958
000100 25 90 75 bd 5f 36 13 bd 0c 38 8a bd 02 2a 57 3d
       -0.05995192 -0.035940524 -0.06748971 0.052530296
000110 cb 5b 01 3d 49 68 25 bd 05 fd 0a be 53 e8 61 3d
       0.03158168 -0.040382657 -0.13573082 0.055153202
000120 16 37 da bd 0b 54 d9 bc a8 3f 94 bd ee 44 86 3d
       -0.10655038 -0.026529333 -0.07238704 0.06556116
000130 c7 65 38 3c b7 03 2b bd 68 11 13 3e 68 b4 2c 3d
       0.011254734 -0.04175159 0.14362109 0.042164236
000140 da a6 fb 3c 00 eb 6d bd 76 55 0b 3e e3 1c 0a be
       0.03071921 -0.05808544 0.1360682 -0.13487582
000150 81 00 a6 3d 2b 8d b1 bd 64 eb 61 bd fc 2f f5 bc
       0.08105565 -0.08669504 -0.055156127 -0.029930107
000160 33 a4 5e 3d 22 2b 0d 3d 8f 58 c3 3d 22 54 70 3c
       0.05435581 0.034464963 0.095383756 0.014668496
000170 97 e4 1d be 9d 8c 1c 3e 75 cf c6 3c f3 0b dc bd
       -0.15419231 0.15288015 0.024268845 -0.10744467
000180 0d c5 0f 3e 77 08 21 3e ca 2e 0c be a7 bc 23 3d
       0.14040013 0.15725885 -0.13689724 0.039974835
000190 d0 20 14 3c d4 57 09 3d 51 41 24 3e c7 3f 35 bd
       0.009041026 0.033531025 0.16040541 -0.044250276
0001a0 bc 8b 9f 3d d6 6d ab bd 51 3a 04 3d eb 4e 13 be
       0.07790324 -0.08370559 0.032282177 -0.14385574
0001b0 7e 80 17 3e 56 36 dc bc 3e 26 86 3c 88 94 17 be
       0.1479511 -0.026881378 0.016375657 -0.14802754
0001c0 95 78 f2 bd 65 70 3b bd 2b d3 5c bd 4a f9 94 3d
       -0.118394054 -0.045761485 -0.053912323 0.072741106
0001d0 59 a9 44 3c 66 e6 e8 bd 5e 2b 64 3a 3f 9b 23 be
       0.012003266 -0.1137207 0.0008703972 -0.1597719
0001e0 f8 3f 03 bc 62 ef 7a bd 14 de 31 bd 86 ce f4 bd
       -0.008010857 -0.06126345 -0.04342468 -0.11953454
0001f0 1d 3e 78 3d 8e 88 ad bd 4f 19 84 3d 2d 45 07 3e
       0.06060611 -0.08473311 0.0645014 0.13209982
000200 f2 02 21 3e 70 63 64 3d cd 84 5c bd 99 14 0a be
       0.1572378 0.055758893 -0.053837586 -0.1348442
000210 42 92 35 bd d2 79 c0 3d e2 6c 00 3e da 47 31 bd
       -0.044328935 0.093982354 0.12541535 -0.043281414
000220 a5 10 32 bd d6 17 88 bd f6 5d e9 3d 83 68 0e be
       -0.043472905 -0.06645171 0.11394875 -0.13907056
000230 71 a2 87 3d 4f 85 01 3d be fb 5c 3d f0 6d 02 bd
       0.0662278 0.031621274 0.053951018 -0.031843126
000240 73 64 5a 3c f7 6f 3c bd 2a 32 1c bd fe e1 08 3d
       0.013329613 -0.046005215 -0.038133778 0.033418648
000250 b6 b4 a8 bd 69 0b d1 bd 58 ac 07 be f4 64 e2 3d
       -0.08237593 -0.102072544 -0.13249338 0.110544115
000260 1c f3 58 3c c0 2a 01 3e 1e 0d 8d bd 71 9f ce bd
       0.013241556 0.12613964 -0.068872675 -0.10089005
000270 ba ba 7b bd c8 5c 52 bd 67 ac 6e 3c a1 29 85 3d
       -0.061457373 -0.051358014 0.014567471 0.06502081
000280 22 91 c4 bd 9d 78 05 3d 18 b6 01 be 53 61 a4 bd
       -0.095979944 0.03258573 -0.1266712 -0.080263756
000290 31 10 00 be df db b5 3d e2 2e 0f bd 16 3d 96 bd
       -0.12506177 0.08879828 -0.03495682 -0.0733587
0002a0 22 dd c3 bb d8 0a 32 3d 88 fc 18 be f6 81 5c bd
       -0.005977289 0.043467373 -0.14940083 -0.053834878
0002b0 5a 05 f5 3d b7 98 a6 3c c6 69 c3 bd 6a 57 e1 bd
       0.11963911 0.020336492 -0.09541659 -0.11003001
0002c0 6b d9 90 3d 79 6a 44 bc 95 f1 d4 bd 21 83 00 3e
       0.07072719 -0.011988276 -0.103976406 0.12550022
0002d0 2e 77 44 bd ca b3 0c 3e ca ae c9 3d a0 f2 f6 3d
       -0.04796522 0.13740459 0.098477915 0.12057996
0002e0 85 0d e0 bd be 42 d4 bd 37 03 b9 3d a2 b1 21 3e
       -0.10940079 -0.103642926 0.09033816 0.15790418
0002f0 cc c7 5b 3c 4b 51 82 bd d2 db 97 bd 1d 22 91 3d
       0.0134143345 -0.06363162 -0.07414974 0.07086585
000300 77 34 0f be 0c db a9 bc ba 80 22 3c 73 6f ad 3c
       -0.13984857 -0.020734333 0.009918386 0.021171307
000310 e2 be bc bd b4 55 f4 3d d6 e8 86 ba af 9f 19 be
       -0.092160955 0.11930409 -0.0010292779 -0.1500232

lstm.weight_hh_l0 f4 [200, 50]
000000 4e 0b a8 bd 3a ce a5 bd 8d 47 87 bd e8 f9 a0 3d
       -0.08205281 -0.08095975 -0.06605444 0.07860166
000010 c1 c0 a9 3d 6d d5 bf bd 0c 9d 75 bb 4b 11 87 3c
       0.08288718 -0.093668796 -0.003747764 0.016487738
000020 1f 03 ee bd cc 39 cf 3d 02 8b 2c 3d 0f 1a c3 3b
       -0.11621689 0.10118446 0.042124756 0.005954034
000030 7c 05 f8 bd c7 c0 ca ba 42 78 33 bd 4f c1 7e 3d
       -0.12110421 -0.0015468829 -0.04381586 0.062196072
000040 fb 91 60 bd 4e 82 a1 bc 5c 6f 2b bb 98 5d 0e bd
       -0.054826718 -0.019715454 -0.0026158905 -0.034757227
000050 83 88 01 be 7a 11 b7 3d de 7a ff 3d 62 72 64 bd
       -0.12649731 0.0893888 0.12474607 -0.055773146
000060 28 98 cd bd e6 0e f0 bd e7 b4 7e bd 94 68 ef 3d
       -0.10038787 -0.11721592 -0.06218424 0.116898686
000070 29 2a 7b bd ec 50 09 3e 1c 11 b5 bc 02 46 b7 bd
       -0.061319504 0.13409775 -0.022102885 -0.089489
000080 9c 75 8d 3d f9 c8 0a bd 1f e9 ac 3d 70 ef 6c bd
       0.06907198 -0.03388307 0.08442902 -0.057845533
000090 d1 9c fb 3d 2f d8 8e bd 4d e7 6b 3d 27 3c e4 3d
       0.1228577 -0.069748275 0.057593632 0.11144286
0000a0 df 7a b3 bd 56 db e7 bd 25 c4 55 3c 63 e4 d2 bd
       -0.0876367 -0.11321132 0.013047253 -0.102974676
0000b0 2f 67 99 bc 56 e5 bf 3a 22 c8 1a 3e e0 ec 75 3b
       -0.01872596 0.0014640491 0.15115407 0.0037525222
0000c0 09 1a 2f 3c e6 59 f6 3c 55 37 9a 3d 4a dc b3 3d
       0.01068736 0.030072164 0.07530085 0.08782251
0000d0 de f5 ad bd 50 57 f2 3c 82 1e 08 be 94 06 13 3d
       -0.08494161 0.02958265 -0.13292888 0.035894945
0000e0 44 89 a8 bc ef 6a 8f bd ce a0 a1 3d 9d 6c 99 bd
       -0.020573266 -0.07002818 0.07891999 -0.074914195
0000f0 54 e4 5d 3d 34 95 8d bd 45 5a 07 3e 80 09 d2 bd
       0.05417283 -0.06913224 0.13218029 -0.10255718
000100 f8 f4 6d bc f7 80 c3 bd 21 a1 af bd c2 29 19 3e
       -0.014523737 -0.095460825 -0.08575655 0.14957336
000110 78 66 76 bc 18 54 8b bd 53 9d 91 bd ec 77 28 bd
       -0.015039079 -0.06803149 -0.07110085 -0.04112999
000120 c5 9f c9 bd ee 68 10 be 3c f5 d5 3d 62 ca ad 3a
       -0.09844927 -0.14102527 0.10447165 0.0013259167
000130 00 c8 ed 3d 41 bc e4 bc eb fa aa bc 4d b7 b8 bd
       0.116104126 -0.027921798 -0.0208716 -0.09019337
000140 4f 2d 52 3d 06 80 a3 3d 74 be e7 bd f2 fd 8e 3c
       0.05131274 0.07983403 -0.11315623 0.017455075
000150 59 e4 83 3b 7e 1b 38 3d 7c be ba bc 14 63 48 bd
       0.004025024 0.044948094 -0.022795908 -0.048922613
000160 e8 ec 9f 3c df e6 f9 3b d4 1c 02 3d 10 14 ec 3d
       0.019522145 0.007626399 0.031765774 0.11527264
000170 15 60 3c bc 6e d2 0e be bd b6 25 bd 4a 67 b5 bd
       -0.011497517 -0.1394746 -0.040457476 -0.088575915
000180 f8 2d 27 bd 18 1d 17 bc 51 9a b9 bd fe 95 01 3d
       -0.040815324 -0.009223245 -0.09062637 0.031637184
000190 93 55 22 3e 90 a2 f3 3c 98 b1 17 bd 13 7b e1 bc
       0.15852956 0.029740602 -0.0370346 -0.027524507
0001a0 0b d6 93 bd 6e 59 5a bd be 32 a9 bb 77 e7 d9 bd
       -0.0721856 -0.053307943 -0.0051635196 -0.106398515
0001b0 e8 8b e6 bc 93 77 08 be 18 5f 39 bc fa 48 c8 3d
       -0.028142884 -0.13326864 -0.011314176 0.09779544
0001c0 50 6a 05 be 16 2d 15 3e 61 f4 da 3d a6 48 cd 3d
       -0.13028836 0.1456798 0.10691143 0.10023622
0001d0 86 d2 af bd 6b a6 4b 3c c9 a8 b5 3d 2e 66 af bb
       -0.08585076 0.012429814 0.08870084 -0.005352757
0001e0 19 e3 a6 bd 3f e4 05 bc 74 8b 7f bd 0d aa f3 3d
       -0.08148784 -0.008172094 -0.062388852 0.11897669
0001f0 ec c8 02 3e 48 70 de 3d 3c 56 cc 3d 79 81 8f 3d
       0.12771958 0.1086126 0.099773854 0.07007117
000200 b5 51 47 bd b9 db c8 bc 0b 17 9c 3d c5 e7 27 3d
       -0.048661906 -0.024518834 0.076215826 0.040992517
000210 92 46 d3 bb fb 8a 8d 3d d9 68 12 3e 23 35 b0 3d
       -0.0064476216 0.06911274 0.14297809 0.08603885
000220 4f 19 24 be e6 09 96 bc 3f e5 0b 3e 2f 4b 9e 3d
       -0.1602528 -0.018315267 0.13661669 0.07729184
000230 52 ee 23 3d b4 62 90 3d 7f 3c 4c 3d 2d 6f 59 3d
       0.0400222 0.07050076 0.04986238 0.05308454
000240 b8 4b f0 bc e5 d1 e9 3d 4a dc 5d bd f9 c1 6b 3d
       -0.02933298 0.11416987 -0.054165162 0.057558034
000250 e7 31 f2 3d 89 fd 41 bd bc 5d f9 bd c7 74 2f bd
       0.11825924 -0.04736093 -0.121760815 -0.042835977
000260 68 c2 56 bd 12 ef d5 bd 18 05 69 bd 77 e1 c2 bc
       -0.052431494 -0.1044599 -0.056889623 -0.02378915
000270 03 f7 c3 3d a9 7d fd 3d 85 4d 9f 3d 87 fc f0 3d
       0.09568598 0.123774834 0.077784576 0.11766916
000280 5a 40 28 bd d3 32 d5 bc 11 09 fc 3d 43 0e 12 be
       -0.041076995 -0.026025211 0.12306417 -0.14263253
000290 af d3 f7 3d 41 f6 83 3d 9c 63 c4 bd f3 bd ef bd
       0.12100922 0.064434536 -0.095893115 -0.11706152
0002a0 24 c6 74 3c 0f 6d bd 3d 87 e1 6c 3d 28 e6 25 3d
       0.0149398185 0.09249317 0.057832267 0.040502697
0002b0 4c 64 19 be ac 28 c6 3d 4d 72 c3 bd cd 5b 9e 3d
       -0.14979666 0.09675726 -0.095432855 0.07732353
0002c0 4e 4d c2 bd ed 49 3a bd 2c e9 0d be 92 97 86 bd
       -0.09487401 -0.045480657 -0.1385848 -0.065718785
0002d0 44 65 4f 3d fd 3e a3 bd 6e 38 d8 39 3c d6 90 bd
       0.050633684 -0.079709984 0.00041240774 -0.07072112
0002e0 1b f2 93 3d 4c 5c 0c bd 85 62 a8 3d 60 5b 18 3e
       0.07223912 -0.03426771 0.08221916 0.14878607
0002f0 ab e9 00 be 85 55 a4 3d 6e 66 29 bd a3 f7 ba bc
       -0.12589137 0.08024124 -0.04135745 -0.02282316
000300 91 c7 d0 3c e4 4c b3 bd 8a ae 01 be 5c fc 28 3d
       0.025485786 -0.087549 -0.12664238 0.041256294
000310 17 56 fa bd 16 5a f8 3d 05 88 06 bb 99 da 18 be
       -0.122234516 0.121265575 -0.0020527851 -0.14927138
000320 75 10 ad 3c 13 ca 0d 3d 27 d4 57 3d ad 99 be 3d
       0.021126011 0.03461654 0.05269256 0.09306655
000330 5a 97 c0 3d e6 37 04 be 15 9d 5a bc bb 3d fd 3d
       0.09403868 -0.12911949 -0.013343115 0.1236529
000340 4e b2 5f 3c df d2 c0 bd 9f eb 01 3e 51 2b 9a 3c
       0.013653351 -0.094152205 0.12687539 0.018819483
000350 83 8f 95 bd 92 0a cc bd 77 45 02 bd 9d bc 82 3d
       -0.07302763 -0.099629536 -0.031804528 0.063836314
000360 b4 97 21 bd 99 ff a2 bd db e5 f8 3d 0d df de bd
       -0.039451316 -0.07958908 0.121532165 -0.10882387
000370 22 72 90 3d 42 d8 87 3d bd cb 05 be 04 03 d5 3d
       0.07053019 0.06633045 -0.13066001 0.10400966
000380 40 5a cf bc 9e 3c d2 3d bb 4c 01 bd fd 29 7d 3d
       -0.02531159 0.10265468 -0.031567317 0.06180762
000390 24 0e 8d 3d 30 d3 cc bc 8d 97 a4 3d f9 35 ff bd
       0.06887463 -0.025003046 0.080367185 -0.12461466
0003a0 cd 6e c7 bd 12 b2 52 bd 0a ae 07 be e8 43 c8 bb
       -0.097379304 -0.051439352 -0.13249984 -0.0061116107
0003b0 8a 0c cb 3d f2 6e 4b 3d 11 c3 ef bd 39 14 cd 3c
       0.09914501 0.049666353 -0.11707128 0.025034057
0003c0 fd 59 0f be 85 f9 c1 bd 5c bf 71 bd c9 9d 13 bd
       -0.13999172 -0.0947142 -0.059020385 -0.036039148
0003d0 be 1c c8 bd e6 c9 3d 3d 72 a6 b9 bd fd 43 03 3b
       -0.09771107 0.046335123 -0.0906495 0.0020029538
0003e0 f3 a1 d7 bd e6 9a e2 bd 70 e0 30 3d ce 70 af 3d
       -0.10528936 -0.11064701 0.04318279 0.08566438
0003f0 58 79 d9 3c 7d 03 fb bd 9b b3 c6 3c ab f3 76 bd
       0.026547119 -0.12256525 0.024255564 -0.060290974

lstm.bias_ih_l0 f4 [200]
000000 10 5d 97 3c e7 d2 96 3d fa 29 ac bd 17 38 cc bd
       0.018476993 0.07364445 -0.08406444 -0.09971636
000010 8c 83 ea bd a4 7d 1e 3e 77 14 a1 bd 93 0f 71 3d
       -0.11450872 0.15477616 -0.078652315 0.058852743
000020 9a c4 48 3d f9 dd 04 3e 96 b8 b3 3b 13 33 b9 3d
       0.04901562 0.12975301 0.005484651 0.09042945
000030 14 b5 34 bd 42 2d 0d bd 73 e8 dd 3d 00 0b 85 3d
       -0.044118002 -0.03446699 0.10835352 0.06496239
000040 78 0c e1 bd 17 59 9c 3d 6b aa 21 bd 39 68 20 3e
       -0.10988706 0.0763418 -0.039469164 0.15664758
000050 16 1a d3 bd a5 fa 97 bc a4 ff a3 3d e0 50 53 bd
       -0.1030771 -0.018552134 0.08007744 -0.0515908
000060 e5 03 af bd 6c 28 e2 3d 1f eb 8c bd ba 9d 2e bd
       -0.08545665 0.11042866 -0.06880783 -0.04263089
000070 1a 71 2a bd 94 21 df 3d f7 93 8d 3d 45 f3 15 3e
       -0.04161177 0.108950764 0.06912988 0.14643581
000080 6a 83 d4 bb 62 48 ed bd b3 f6 04 3e ea c6 0b 3e
       -0.0064853923 -0.115860716 0.12984733 0.13650098
000090 ea 88 b8 3d dc 28 03 3b 95 22 96 bd 50 7e dd 3c
       0.09010489 0.0020013368 -0.07330815 0.02703777
0000a0 3b f5 eb 3d a3 0b 10 3d 38 d3 b3 3d 67 f5 b4 3c
       0.115213834 0.035167348 0.08780521 0.022089673
0000b0 61 3d 8e bd a9 71 af bd 06 12 93 bc f8 aa ed bc
       -0.06945301 -0.08566601 -0.01795293 -0.029012188
0000c0 a7 d8 5e bd fe 16 3a 3d 19 d4 21 3d 9e 7e de 3d
       -0.054405835 0.045432083 0.039508913 0.10863994
0000d0 36 ea c7 bc 9c 72 26 bc 70 be bc 3d cb 3a d4 3d
       -0.024403673 -0.010159161 0.092160106 0.10362776
0000e0 65 dc 07 bb c9 d9 fd bb b4 04 ca bd 97 25 03 be
       -0.002073073 -0.0077469093 -0.09864178 -0.12807308
0000f0 03 b8 c1 bc 11 2b af 3d 0c 93 9e 3d 6a b3 ce 3d
       -0.023647314 0.08553136 0.07742891 0.10092814
000100 fb 8a c1 bd c1 56 97 3d 5f 53 49 3d 42 25 8d bd
       -0.094503365 0.07389594 0.049151774 -0.06891872
000110 a7 a8 8a bd bb cb 07 3e 7a b5 a4 3d 05 35 94 bd
       -0.06770449 0.13261311 0.080424264 -0.07236675
000120 8f db 6b bd 0d 65 99 bd 1d 14 51 bd 97 b8 4d 3d
       -0.057582434 -0.07489977 -0.051044572 0.050224867
000130 95 48 16 3d a6 9e 9c bd 28 27 e3 ba 53 bc fc 3d
       0.036690313 -0.07647447 -0.0017330395 0.123406075
000140 4c 62 5d 3d c7 df 72 3d 48 5a 91 3d 26 f9 15 bd
       0.05404882 0.059295442 0.07097298 -0.03661456
000150 a6 0e 40 3d aa c7 bc bd f0 a1 a4 bd 9f 26 17 3e
       0.04688897 -0.092177704 -0.080386996 0.14760827
000160 0d 91 16 3d 15 6e 32 3d 71 9b bd bb 82 8e 7b bd
       0.036759425 0.043562014 -0.0057863523 -0.061415203
000170 fc c7 ef 3d c5 01 ac 3d e5 56 cd 3d 39 53 c5 bd
       0.11708066 0.08398775 0.100263394 -0.09635014
000180 e1 f3 e0 bd 88 b6 cc 3d 1c 72 1f bd 92 31 03 bd
       -0.10984016 0.099957526 -0.038927183 -0.032029696
000190 ff e8 c7 3d da ae dd 3d 19 82 09 3e c0 d3 64 bd
       0.09761237 0.10824366 0.13428535 -0.055866003
0001a0 34 d2 3f 3d 13 b7 d4 bc bb 1e ac 3d d5 d2 22 be
       0.046831325 -0.025966203 0.08404299 -0.15900739
0001b0 62 a5 1e 3e 65 40 d7 bd 02 cb 94 3d 3d ae db bb
       0.15492776 -0.10510329 0.07265283 -0.0067041204
0001c0 5a 79 54 bd 3a 48 17 3e bc 5a 44 3d bd 0c 87 3d
       -0.051873542 0.14773646 0.047938094 0.065942265
0001d0 ab 56 4a bd 54 d8 9f 3d fe 2d 4a 3c 04 d0 d2 bb
       -0.04939906 0.07804933 0.012340067 -0.006433489
0001e0 25 d9 b3 bd 19 4c 78 3d 49 5a 90 3d 27 2b e7 bd
       -0.087816514 0.060619447 0.070484705 -0.112875275
0001f0 10 14 c8 bc 22 b7 f4 bd 75 76 cd bd 97 03 d4 bd
       -0.024423629 -0.11948992 -0.100323595 -0.10352247
000200 d5 90 1a 3e 3e a2 85 bd 90 6d 2e 3d 31 05 0e be
       0.15094312 -0.06525086 0.042584956 -0.13869168
000210 6a 4b ef 3d 7b 04 d7 3d a2 28 78 3b 12 e7 21 3d
       0.11684306 0.104989015 0.0037866016 0.039527006
000220 47 00 03 be 27 93 1b bd db 31 76 3b ea ca 16 be
       -0.12793075 -0.037982132 0.0037566337 -0.14725843
000230 c3 ac 5e 3d c2 16 d1 bd fd 2a bf 3d ab 83 fa bd
       0.054363977 -0.10209419 0.09334371 -0.12232145
000240 4d 08 0e be 9a 6e b1 3a 32 ac 1b bc b8 16 1a be
       -0.13870354 0.001353699 -0.009501504 -0.15047729
000250 3c c3 05 3c 24 9a 84 3d b9 d3 55 bd 9b 7d c2 bd
       0.008164223 0.064747125 -0.052203868 -0.094966136
000260 45 80 c9 3d 9d 66 af bd b4 c9 03 be ef ec c0 3d
       0.098389186 -0.08564494 -0.12869912 0.094201915
000270 e4 f5 b9 3d c3 bd ca bb 81 d5 82 bd ab 65 1b bd
       0.09080103 -0.006187172 -0.06388379 -0.037938755
000280 1e 44 95 bd 26 d7 03 3e a1 85 68 3d 80 ef 77 bc
       -0.07288383 0.12875041 0.056768063 -0.015132785
000290 c0 ac 02 be cd b8 1d 3c 76 5c 0a be 7e b7 26 bb
       -0.12761211 0.0096265795 -0.13511834 -0.002543896
0002a0 e6 0f 99 bd 72 df 10 3d a1 7a b4 bd 7a 0d 0e 3e
       -0.074737355 0.035369344 -0.08812452 0.13872328
0002b0 88 23 19 3b e2 64 c5 3d a5 4b 63 bd 80 07 00 be
       0.0023367126 0.096383825 -0.055492062 -0.12502861
0002c0 fc 3f e5 3d c8 e7 dc bd a0 a7 74 3d c1 d1 30 bd
       0.11193845 -0.10786396 0.059730172 -0.043168787
0002d0 d8 25 fd 3d 75 3d ee bc cf 77 00 3e 94 10 e7 bd
       0.12360734 -0.02908204 0.12545703 -0.11282459
0002e0 92 9a a9 3d 7d ad 10 bd f9 70 5c 3d 9c 43 12 3e
       0.08281435 -0.0353217 0.053818677 0.14283603
0002f0 50 9d a2 3c 7c 2b 82 bd 9d 24 0c 3e 31 8a 03 be
       0.019850403 -0.0635595 0.13685842 -0.12845685
000300 f9 41 98 bd 08 28 b4 bd 88 dd d1 bd b9 21 52 bd
       -0.07434458 -0.08796698 -0.10247332 -0.05130169
000310 62 27 18 3d 98 ba b6 39 ea 91 d9 bc 6e b3 79 3d
       0.037146933 0.00034852768 -0.026558835 0.060962133

lstm.bias_hh_l0 f4 [200]
000000 7c 97 d6 3d b4 86 dc 3d 93 f0 3a bd 1f 11 fa 3d
       0.10478112 0.1076788 -0.045639586 0.12210297
000010 12 e3 ea bd cc 48 67 3d 9b ae 8c 3d ec 53 7f 3d
       -0.114690915 0.05646591 0.06869241 0.062335894
000020 4d 8f 10 3e 83 fe 80 bd be 7a fa bc 7c d1 d9 bd
       0.14117165 -0.06298544 -0.030576106 -0.10635659
000030 85 47 c7 bd 6b e9 2e 3d c3 b0 05 3e c4 0e 88 3b
       -0.09730438 0.042703073 0.1305571 0.004152151
000040 ba ca 83 3d 3a ee 84 3d 07 01 8a bd cd 20 fa 3c
       0.064351514 0.064907506 -0.06738477 0.030533219
000050 9d af 39 bc 1b 02 ee 3d 47 06 90 bb e6 8d 77 3d
       -0.011333373 0.11621495 -0.0043952796 0.06043806
000060 04 77 bb 3d 53 22 32 3d 47 34 fd bd 7c 33 d4 bd
       0.0915356 0.043489765 -0.12363487 -0.10361382
000070 c2 c1 18 3e a8 d4 b4 bd 79 65 04 3e e8 e0 ee bd
       0.14917663 -0.088296235 0.12929334 -0.11663991
000080 ea de 97 3c f9 8e 17 bd 1b 34 05 be 9e 91 ee 3c
       0.01853891 -0.037001584 -0.13008158 0.02912217
000090 48 76 da 3d 43 f2 05 3e a5 64 00 3e 30 2c 10 3e
       0.106670916 0.13080697 0.12538393 0.14079356
0000a0 a7 d9 4b 3d ff 96 4a bd 52 27 50 bd 64 39 6d bd
       0.049768116 -0.049460407 -0.05081875 -0.05791606
0000b0 7e 34 9a bd ee a2 53 3d be 39 92 3d ff 06 0e bd
       -0.07529543 0.051669054 0.0713992 -0.03467464
0000c0 0f 0f ce bd e7 21 b7 3c a3 40 fc 3c 5c 4d 75 bd
       -0.10061466 0.022355033 0.03079254 -0.05988823
0000d0 26 97 07 3e e8 b3 aa bb fb 6c a3 3d fc 1a 33 3d
       0.13241252 -0.005209435 0.07979771 0.043726906
0000e0 70 bf 9b 3c 3c b0 a1 bd 1d da 9b 3d 2d 2d fc 3d
       0.019012183 -0.07894942 0.07609961 0.12313304
0000f0 15 cb f3 3d cf b7 06 3c eb 5b e8 bd d9 67 62 3d
       0.11903969 0.008222534 -0.11345657 0.055274818
000100 29 c1 0e be 29 d3 9b 3c 2c 53 82 3d cb 7e 1b 3e
       -0.13940872 0.019021587 0.0636352 0.15185086
000110 5f 71 22 3e ad 2e cf bd b3 52 df bd 9b 69 d6 3d
       0.1586356 -0.101163246 -0.109044455 0.104693614
000120 19 60 56 3d 08 4f 5f 3d 63 f5 f2 bd 95 90 84 3d
       0.05233774 0.05451873 -0.1186321 0.06472889
000130 d0 b3 11 bc 52 19 3c bd af 14 96 3d d5 77 b1 bd
       -0.008892968 -0.045922585 0.07328164 -0.08665434
000140 69 97 63 bd 44 01 e5 bd 05 f8 86 3d 8c cd a7 bd
       -0.055564318 -0.11181882 0.06590275 -0.08193502
000150 b7 d8 11 bd e8 7a dc bd c3 1e fe 3c fb c0 db bd
       -0.035607066 -0.1076563 0.031020528 -0.107301675
000160 af 78 eb 3d ef c6 1a 3e f5 ea e0 3d a6 09 b2 bd
       0.11497628 0.1511495 0.109823145 -0.086932465
000170 08 96 7c bd 16 f2 a9 bd ed a1 cf bd d7 4f 02 bd
       -0.06166652 -0.08298127 -0.10138307 -0.031814422
000180 cf 53 93 bd 47 de 03 3e 25 17 ae 3d b6 ec c5 bb
       -0.071937196 0.12877761 0.08500508 -0.006040181
000190 aa 04 bd 3d 21 59 0e 3e 97 1e 74 bd df 5c 45 3d
       0.09229405 0.13901187 -0.059599485 0.048184272
0001a0 f2 72 c1 bd 3f ed 0a 3e 7c d4 f1 3d 12 8d e0 3a
       -0.09445752 0.13567065 0.11808106 0.0017131886
0001b0 46 3e a6 3d ee 97 fc 3d 19 58 de 3d a3 b3 a1 bd
       0.081173465 0.12333666 0.10856647 -0.07895591
0001c0 49 0c e4 3d d8 91 3e 3d 09 2b 60 bd ed 2d ac 3d
       0.11135156 0.046525806 -0.05472854 0.08407197
0001d0 9a b2 a6 3d 7e ed 0b 3e bf 56 e0 bd 64 a2 fd bd
       0.08139534 0.13664815 -0.109540455 -0.12384489
0001e0 c8 9d c8 3d 85 46 be bd 4b 9c c3 3c d9 d2 04 bd
       0.097957194 -0.09290794 0.023878237 -0.032427642
0001f0 86 30 ab 3d 79 04 37 bd 59 a3 a2 bd be e9 ba bb
       0.083588645 -0.044682 -0.07941312 -0.005704134
000200 64 08 53 bd a7 fb b7 bd 20 5d ff 3d ad cc 8c bd
       -0.051521674 -0.08983546 0.12468934 -0.06874976
000210 3b 38 e8 3d 5e 3d 38 3d c9 23 b8 bc f7 dc 1e 3e
       0.1133885 0.0449804 -0.022478001 0.15513979
000220 30 16 c5 bd da 1a 31 3d 6b 5e a6 3c 0b f8 15 be
       -0.096233726 0.0432385 0.020308694 -0.14645402
000230 ff 60 fa 3c 39 10 06 3e e3 1d 94 bc 1d a4 ed 3c
       0.03056383 0.13092126 -0.018080657 0.02900892
000240 32 86 d8 bd 63 dd 0e be ce 2a 05 be 7d 83 12 bd
       -0.10572471 -0.1395164 -0.1300461 -0.03576993
000250 5e 19 16 3d 40 23 e4 3c 2a 1c 9d bc 6a f9 41 3d
       0.036645286 0.02784884 -0.019178469 0.047357
000260 28 82 ac 3d a6 36 5d bd ee 9c d5 bc 24 7f 1c 3d
       0.08423263 -0.054007195 -0.026075806 0.03820719
000270 4d af 03 3e 20 9d 60 b9 6d 2f d4 bd 7c 21 00 3e
       0.1285984 -0.00021420838 -0.10360608 0.12512773
000280 a4 fc 36 bc 5b 85 88 bc e9 49 0f 3e 5e 3d b9 bb
       -0.011168633 -0.016665151 0.13993038 -0.0056530675
000290 1f 04 5c 3c 51 bb f1 3d 8c 92 42 3c 56 63 c9 3d
       0.013428717 0.11803306 0.01187576 0.098334
0002a0 fe d0 21 3e 16 a5 ab bb 25 80 c4 bd 1a 46 21 3e
       0.1580238 -0.0052381856 -0.09594754 0.15749398
0002b0 80 21 d4 bd 46 fc ea bc cd fc 71 3c 7c 36 13 be
       -0.10357952 -0.028684746 0.014769745 -0.14376253
0002c0 4d 8e 33 3b 78 cc 20 3d 7a 31 76 bd 99 07 e1 3d
       0.002739805 0.039257497 -0.06010578 0.10987777
0002d0 13 2f 2e bc 4b b4 8c bd 3b c6 23 3e 2e 72 f8 bd
       -0.010631341 -0.06870326 0.15993588 -0.12131153
0002e0 09 5f c9 bd 1f 91 9c 3d 71 f6 7f 3d 6e a7 07 ba
       -0.0983258 0.07644867 0.062490884 -0.000517479
0002f0 7d 2d b0 bd 1a 73 c4 3d 1c 27 18 3d c5 c5 e5 3d
       -0.08602426 0.095922664 0.037146673 0.11219362
000300 5d 85 82 3d f5 b5 ff 3d b1 64 92 3d 55 45 dc 3d
       0.06373093 0.124858774 0.071481116 0.107554115
000310 62 41 a4 bc bd 16 98 3d 74 2d 1c be 54 66 bf bd
       -0.020050708 0.07426212 -0.15251714 -0.093456894

lstm.weight_ih_l1 f4 [200, 50]
000000 e7 5a 08 be e1 95 f4 bd 34 7b 30 3d a8 4a 66 bd
       -0.13315926 -0.1194265 0.043086246 -0.05622354
000010 b3 fa d9 3c 73 f3 30 bc e0 e0 04 3e 22 a4 e5 bd
       0.0266088 -0.01080023 0.12976408 -0.112129465
000020 f1 2f e1 3d 44 1b c1 3d be 4a 66 bd e0 7d 0d be
       0.10995472 0.09429029 -0.056223623 -0.13817549
000030 61 e1 3b 3b b2 59 43 bd bf 57 b9 bd 56 fa 46 3d
       0.0028668272 -0.047692962 -0.09049939 0.048578583
000040 b4 01 da 3d 63 2e d2 bd dd e7 69 bd b3 30 ad bc
       0.10644856 -0.10262754 -0.057105888 -0.021141386
000050 da da 04 bd dc 22 41 3d af 70 74 bb 37 81 8e 3d
       -0.032435276 0.047152385 -0.003729861 0.069582395
000060 22 b1 42 3d 0e be f6 3d 3d 2f cc 3d a3 5f a5 3d
       0.04753221 0.12047969 0.099699475 0.08074882
000070 ee a2 3f bd ce f1 b0 bc 53 88 92 bd b9 59 2a 3d
       -0.04678624 -0.021599676 -0.07154908 0.041589472
000080 20 9e 31 3c 73 0d 93 bd bb 71 b3 bd e5 79 8b 3d
       0.010840923 -0.071802996 -0.08761927 0.06810359
000090 e4 1c dc 3c e4 30 ab bd 5c ee 81 3d 41 df db bb
       0.026869245 -0.083589345 0.063442916 -0.0067099635
0000a0 6a d9 65 bd b0 c6 51 bd da ae 0d be 3c d1 69 3c
       -0.056115545 -0.051214874 -0.13836232 0.014271077
0000b0 b5 80 0e be f4 c7 4d bd 13 6d f4 3d 8d 10 e5 bb
       -0.13916285 -0.05023952 0.11934867 -0.0069904984
0000c0 ef 04 be bd ae cc e4 3d 4e 50 8f bd bd eb 9f bd
       -0.09278285 0.11171852 -0.06997739 -0.078086354
0000d0 41 b1 06 3e 5d a5 0a bd b5 cc 85 3d ed 1e 22 bd
       0.13153554 -0.03384911 0.065331854 -0.039580274
0000e0 e5 38 a0 3d 6e 6b 87 3d d3 b1 91 bd 3e 78 f2 bd
       0.07823352 0.066122875 -0.071139954 -0.118393406
0000f0 6c 93 89 bd ca f4 cf 3b 5a 85 dc bd 40 c2 85 3d
       -0.067175716 0.00634632 -0.10767622 0.06531191
000100 8b 7f fd bd b9 a1 97 3d a8 85 00 3e 97 4c 77 3c
       -0.123778425 0.07403893 0.12550986 0.015093944
000110 99 a4 30 3c 8c a0 93 3c 40 dc 24 b9 bd 9a 98 3d
       0.010781431 0.01802089 -0.00015722308 0.07451389
000120 9c d5 ce bd d5 fa 5d 3d 98 13 7f 3d c4 60 11 3b
       -0.100993365 0.05419429 0.062274545 0.002218292
000130 79 e4 23 bd 6a 05 f4 3d 18 ca 16 3e 9b e0 a6 3d
       -0.04001281 0.11915095 0.1472553 0.08148309
000140 40 9d 82 3c a1 5e e2 bd 30 ac 9a bd 22 4f 5d 3d
       0.015944123 -0.11053205 -0.075523734 0.054030545
000150 4c 8f 3d 3d be 34 36 3c e0 04 e9 b7 55 7f 76 bc
       0.046279237 0.011120973 -2.7778035e-05 -0.015045007
000160 e2 34 7b 3d 6f a2 bc bd e2 eb b6 3d e8 0d 41 bd
       0.06132973 -0.09210669 0.0893171 -0.047132403
000170 b6 e0 8f bd 99 9d 27 bd 69 69 5e bd e0 93 0b 3d
       -0.07025282 -0.04092178 -0.054299746 0.03407657
000180 fc 7d b1 bd 5a 79 1f 3d 61 1a f7 bc 08 30 c5 bd
       -0.08666608 0.03893409 -0.030163946 -0.09628302
000190 95 2d 00 be 50 17 95 3c 14 ac 01 be 94 f0 e1 3d
       -0.12517388 0.018199593 -0.12663299 0.11032215
0001a0 de a2 f6 3d ed 39 61 bd a0 a6 f0 3a db e1 87 3d
       0.12042783 -0.054986883 0.0018360205 0.066348754
0001b0 31 81 7f 3d 51 1b 9f 3d 1f dd 9e bd e8 92 85 bd
       0.062379066 0.07768882 -0.07757019 -0.06522161
0001c0 7e 48 05 be d0 9d bf bc c0 66 07 bc fb 18 ab 3d
       -0.13015935 -0.02339068 -0.008264244 0.08354374
0001d0 3e ba 71 3d ae 3d e2 3c 70 b1 b7 bd 97 ba da 3d
       0.059015505 0.027617302 -0.089693904 0.106801204
0001e0 60 b7 93 bd a2 54 53 3d d0 ff f2 bd bf 0e b8 3d
       -0.072127104 0.051594384 -0.118651986 0.089871876
0001f0 21 1b a4 bd c1 cc da 3d f7 b0 93 bc 06 23 f5 bd
       -0.08012987 0.10683585 -0.01802872 -0.11969571
000200 7b b3 7d bd 2a 16 8a 3d e4 da b6 bd 69 31 f8 bb
       -0.061938744 0.06742509 -0.08928469 -0.0075742495
000210 f5 11 e0 bd eb 92 0c 3c 63 87 b4 bc 81 f3 d0 bd
       -0.10940925 0.00857995 -0.022037214 -0.10202695
000220 cb 92 02 3e e5 f7 c5 3b f2 1d d5 bd 69 db 9c bd
       0.1275131 0.006041514 -0.10406102 -0.07659037
000230 65 38 1d be 66 72 8c bd b0 07 f3 3d a0 0e e9 bd
       -0.15353544 -0.06857757 0.11866701 -0.113797426
000240 c5 eb d0 b9 45 41 0f 3e 85 c8 f2 bd 86 58 ea bd
       -0.00039848514 0.13989742 -0.11854652 -0.11442666
000250 a6 ea e7 bd c9 31 45 3c 75 49 5a bd 07 d1 c4 bd
       -0.113240525 0.0120357955 -0.05329271 -0.09610181
000260 ad 48 e4 bd 36 34 ba bc d8 f6 0e be 40 b7 9c bd
       -0.11146674 -0.022729974 -0.13961351 -0.0765214
000270 78 49 ef bd b7 50 0c 3d 44 31 8d bb 1f 45 d8 bd
       -0.11683935 0.034256663 -0.0043088514 -0.10560059
000280 69 b1 e4 3d 14 2f a1 3b 92 40 c8 3d 13 27 af 3d
       0.11166651 0.004918942 0.09777941 0.08552375
000290 48 f3 b3 3d dc 80 ae 3d c8 fb a6 bd f4 f7 98 3c
       0.087866366 0.08520672 -0.08153492 0.01867292
0002a0 0f 90 13 bc 26 79 07 bd 28 b1 dd bd 39 94 c7 3d
       -0.009006514 -0.03307452 -0.108248055 0.09745068
0002b0 65 0f 8e bc 53 fa 2b 3c 5d 8d af 3d 02 f7 16 bd
       -0.017341325 0.010496694 0.08571885 -0.03685666
0002c0 07 41 e3 bd cf 9a 9f 3c e4 86 ef 3d 5b c8 85 3d
       -0.11096387 0.019482998 0.1169565 0.065323554
0002d0 38 89 0e be bb 77 ca bd 09 32 98 bd a4 eb 81 bd
       -0.13919532 -0.09886118 -0.074314184 -0.06343773
0002e0 9f 44 2c bc dd 52 47 3d b0 da fc 3d 6a 8a f2 3d
       -0.010514407 0.04866301 0.12346399 0.11842807
0002f0 74 d8 ad 3d b6 c4 11 3d 1b 3d 27 3c c5 ab 03 be
       0.08488551 0.03558799 0.01020744 -0.12858494
000300 ed 2a d1 bc d3 18 8c bd 74 5d d6 3d 46 31 bd bb
       -0.025533164 -0.06840672 0.104670435 -0.005773696
000310 42 09 90 3d 64 f0 ee bd ba fc 22 3c b1 0c 87 3d
       0.07033016 -0.116669446 0.00994795 0.065942176
000320 d0 8d ae bd 83 2c bf bc b9 57 13 3d 49 64 07 bd
       -0.08523142 -0.023336655 0.03597233 -0.033054624
000330 c4 bb 07 be 6c 57 a1 bd 27 e9 9e bd be 94 ee 3d
       -0.1325522 -0.078780025 -0.07759314 0.11649464
000340 d6 a7 03 3e db 45 1f 3c b5 82 9e bd 14 31 04 be
       0.12856993 0.009721245 -0.07739774 -0.12909347
000350 29 fe 52 3d 52 6d d5 bd da 4a 7b bd ba cd 9b bc
       0.051511917 -0.10421242 -0.06135068 -0.019018997
000360 76 e5 bb 3d e6 9e 89 3d 26 85 e5 bd fb 12 d5 3d
       0.091746256 0.067197606 -0.11207037 0.10404011
000370 4b 45 a1 bd de 64 4c 3d 20 b9 8c 3d df a2 20 be
       -0.07874545 0.049900882 0.06871247 -0.1568713
000380 85 7a f1 3d db e3 1c be 4e 61 d4 3d de 81 9f bd
       0.11790947 -0.15321295 0.10370122 -0.07788442
000390 f6 9d 89 bd 78 68 3a bb d4 11 75 3d ba 60 1d be
       -0.06719582 -0.0028443616 0.059831455 -0.1536893
0003a0 4a 4b be bc a2 6c c2 bd 09 2c a1 bd a1 54 ec bc
       -0.02322926 -0.09493376 -0.07869727 -0.028848948
0003b0 8e a5 d6 bb 83 b6 4d bd f5 b2 5d 3d 08 7b c6 3c
       -0.0065504974 -0.050222885 0.054125745 0.024228588
0003c0 08 02 e7 3d a1 63 07 3e 1c ef bd 3c b2 dd 72 3d
       0.11279684 0.13221599 0.023185305 0.059293456
0003d0 83 6d d7 3a a7 8b 32 3d 2c e9 c5 3c 14 5f c9 3c
       0.0016435835 0.043590214 0.024159037 0.02458147
0003e0 9c 9d 42 3d 16 9b 0f 3e 5b a9 b7 bd 57 32 a4 bd
       0.04751359 0.14024004 -0.08967849 -0.08017414
0003f0 8d aa b9 3d 51 c4 fe 3b c3 0c 48 3d 87 eb f8 3c
       0.09065733 0.0077748676 0.048840296 0.030385746

lstm.weight_hh_l1 f4 [200, 50]
000000 a6 d9 75 bd c9 4b 0b bc bb 09 c9 bd 58 66 f9 3d
       -0.06002202 -0.008501955 -0.09816309 0.12177724
000010 cc a1 fe bc 3d 75 b0 bd 8a f0 ef 3d 7a fa cb 3d
       -0.03108301 -0.086161114 0.11715801 0.09959884
000020 0e f8 00 3e 80 b2 2d bd a9 d2 5b 3c 3c 81 1f bc
       0.12594625 -0.04240656 0.0134169245 -0.009735402
000030 7d 32 26 3c fb a6 e4 bd 98 40 d0 3d 35 88 8e bd
       0.010143873 -0.111646615 0.1016857 -0.06959573
000040 91 95 9b 3d 82 bd e7 bd b4 a6 ef bd ac 99 a5 3d
       0.07596887 -0.113154426 -0.11701718 0.08085951
000050 c2 ff 6f bb c1 9b b5 3d 11 66 28 3d f2 81 b0 3d
       -0.003662095 0.08867598 0.041112963 0.08618535
000060 00 da 93 3b de 2c f6 3d f4 f7 bf bd 0e fd 52 3d
       0.0045120716 0.120202765 -0.09373465 0.051510863
000070 73 63 91 3d 2d 42 59 3d c2 6d c7 3d 2b fd 61 bd
       0.070990466 0.053041626 0.097377315 -0.05517308
000080 00 fa f0 3d 27 67 11 be 11 29 9b 3d f7 cb bc 3c
       0.11766434 -0.14199506 0.07576192 0.023046477
000090 c5 a2 57 bc e8 41 e6 bd b0 24 72 3d ce 20 82 bd
       -0.013161366 -0.11243039 0.05911702 -0.06353913
0000a0 9e d8 8f bd d6 f4 92 bd c7 05 18 3e 96 8d f2 bd
       -0.07023738 -0.07175605 0.14845954 -0.118434116
0000b0 67 9f 84 3c fc 60 c6 bc 00 f6 4a 3d 2c e3 92 bd
       0.01618929 -0.024216168 0.04955101 -0.07172236
0000c0 ee 3a 2a 3d e4 40 05 be 86 e9 f4 bd 02 54 c6 3d
       0.041560106 -0.13013035 -0.119586036 0.09683992
0000d0 a3 12 f9 bc b6 04 f6 bd fc 31 79 bd ac 35 d5 bd
       -0.030404394 -0.12012617 -0.060838684 -0.10410628
0000e0 70 3c 33 bd 02 f5 40 bd f3 78 30 bd 96 6e 94 bb
       -0.04375881 -0.047108658 -0.043084096 -0.0045297844
0000f0 df 31 22 bd 95 a4 06 bd 0b 14 a1 ba 70 2f cc bd
       -0.039598342 -0.0328718 -0.0012289298 -0.099699855
000100 31 66 cc bd a0 83 e3 bd 94 fd 21 3d 9a b3 7b bd
       -0.09980429 -0.1110909 0.03954847 -0.06145058
000110 38 0e 4e 3c 3f 26 09 be 77 9c 9d 3d e1 f4 22 3c
       0.012576632 -0.13393496 0.07695859 0.009946079
000120 1d 61 9d 3d c3 bf 96 bd 52 f1 01 bb fc 49 ef bc
       0.076845385 -0.073607944 -0.0019827676 -0.029210083
000130 b5 89 ec bd ed 4b d3 bd 29 0a dd 3c ce e5 b5 3d
       -0.11549703 -0.10317216 0.026982384 0.088817224
000140 d9 df a7 bd 83 0f 02 be 37 7b a1 3d 87 00 12 3e
       -0.081969924 -0.1270123 0.078848295 0.14258014
000150 95 f0 a2 bd 57 bb 8e bc 58 ae 70 3d ba 86 07 3e
       -0.07956044 -0.017423315 0.058760017 0.13234988
000160 e3 6e f9 bd cd 64 65 bd 25 02 b5 bd 7d 5f 46 3c
       -0.12179353 -0.056004334 -0.088383 0.012107727
000170 5c 37 9b bb 37 ce ca 3c d1 e0 3c 3d e9 92 f2 3d
       -0.004736824 0.024756534 0.04611284 0.11844427
000180 36 4f 4d bd e4 0d 3a 3d da e2 43 bd 74 5d 04 3e
       -0.05012437 0.045423403 -0.047823764 0.12926275
000190 32 3d bd 3d 97 a0 fb bd c3 8d 16 be 84 1e 9b bc
       0.09240188 -0.122864895 -0.14702515 -0.01893545
0001a0 9f 47 3a 3c cc 4a 00 3e e4 7a 8c 3d 08 9f 55 3d
       0.011369615 0.12528533 0.06859377 0.052153617
0001b0 82 f7 18 be 49 98 a5 3d 0e 5b 8f bd de 08 f9 bd
       -0.14938167 0.08085687 -0.06999789 -0.121598944
0001c0 83 a0 c3 bd 89 62 6d bd 95 6c 81 3d b1 37 8c 3d
       -0.095520996 -0.0579553 0.063195385 0.0684656
0001d0 3f be 8b bd f5 c9 54 3d ec fe 16 be 7c 8d ea bc
       -0.06823396 0.051950414 -0.14745682 -0.028631918
0001e0 16 4e e9 3a e9 da 0f be 1c fd 8c 3d ce a0 cb bd
       0.0017799761 -0.14048351 0.06884214 -0.099427804
0001f0 0f f0 c7 bd 75 1b d4 3c 4e d3 d8 bd d7 9d e5 3d
       -0.097625844 0.025891999 -0.10587178 0.11211746
000200 ec c1 b3 3c 7a a5 58 bd 43 ae d1 3d 68 56 6d bd
       0.021943055 -0.052892186 0.10238316 -0.05794373
000210 03 c3 30 3d b8 97 14 bc c7 b4 69 3d 63 f1 f8 bd
       0.043154728 -0.009069376 0.05705717 -0.12155416
000220 29 db 83 3d 92 e2 db bd 67 5c 3b bd d3 21 8a bd
       0.06438286 -0.10736574 -0.04574242 -0.06744733
000230 fe 08 f4 3d 2f d3 85 3d 19 c9 ca ba 29 cb f5 3d
       0.119157776 0.06534421 -0.0015471309 0.1200164
000240 da 86 48 bb c7 d3 1b 3e 57 0d 12 bc ba e7 f8 3d
       -0.0030597956 0.15217505 -0.008914313 0.12153573
000250 98 2f e0 3d fe e4 84 bd bb 65 b8 bd 3e 21 28 3d
       0.10946578 -0.06488989 -0.090037785 0.041047327
000260 9c 88 15 be cd 57 d5 bd 88 a0 e4 bd 8e 01 d4 bd
       -0.14602894 -0.10417137 -0.111634314 -0.10351859
000270 9b 12 bf bd 1d 8c da bd 53 57 ee 3d ed 06 0d 3e
       -0.093297206 -0.10671256 0.116377495 0.13772173
000280 82 3a 72 38 90 c2 2e 3d b3 39 86 3d a8 b8 10 3e
       5.7751786e-05 0.042666018 0.06553974 0.14132941
000290 7f 7c 41 bd 3e 0d af bd 25 41 b2 bc 88 87 a3 bd
       -0.04723787 -0.085474476 -0.021759579 -0.07984835
0002a0 24 e8 bb bd a7 53 d1 3c a9 e6 0c be 2d b4 9c 3d
       -0.09175137 0.025552584 -0.13759865 0.07651553
0002b0 31 47 01 be 47 29 49 bd cb 81 ad bd 26 e4 d7 bd
       -0.12624814 -0.04911163 -0.08472022 -0.10541563
0002c0 17 e7 b4 bd 93 02 9e 3d ad 0c be 3b 1c 43 09 3d
       -0.088331394 0.07715335 0.005799851 0.033511266
0002d0 ff 00 50 bd f8 dc 8f 3d aa 1d fe 3c 94 e5 53 bb
       -0.0507822 0.07024568 0.031020004 -0.0032332884
0002e0 18 c6 28 bc 0a 8d 80 3d ec 65 08 3e be 45 9a bd
       -0.0103011355 0.06276901 0.1332013 -0.075328335
0002f0 a6 3a da bd e5 0b 7e bd 09 12 3b 3d 55 cb 23 3c
       -0.106557176 -0.062023062 0.045671497 0.009997209
000300 b5 25 f6 bb aa bb bb bd ac 40 65 3c 3e a7 d0 bd
       -0.0075118192 -0.091666535 0.01399247 -0.10188149
000310 35 22 0a 3c 6b 93 c3 3d 47 36 b7 3d 42 fc 26 3d
       0.008431007 0.09549602 0.089458995 0.040767916
000320 09 44 05 3d 4d 80 24 be bb 5b 0e 3e ee 1f ef 3c
       0.032535587 -0.16064568 0.1390218 0.02919003
000330 bd 07 0e bd 0d 1f 19 bc e4 e7 80 bb 3c 78 27 3d
       -0.03467535 -0.009345782 -0.0039338935 0.04088615
000340 68 fc 76 3b 32 5c b8 3d 89 33 70 3c 02 9b 92 bd
       0.0037687067 0.0900196 0.014660724 -0.07158472
000350 ba 6e e6 3d de 64 95 bd bc 4b 80 bd 96 54 a1 bd
       0.11251588 -0.072946295 -0.06264445 -0.078774616
000360 25 e6 b7 3d 4a 64 a9 3d 51 88 10 3e 42 8a a5 3c
       0.089794435 0.08271082 0.141145 0.020207528
000370 1f 66 a4 3d 05 78 19 3e 79 53 a1 3d 2e ad e0 3d
       0.080272906 0.1498719 0.07877249 0.109705314
000380 d0 95 86 bc df bc 2d 3d 51 89 b7 bd 49 34 b6 bd
       -0.016428858 0.04241645 -0.08961738 -0.08896691
000390 2e 4c 7a bc 1a f9 bc bc 96 84 a2 3d 73 da 2a bd
       -0.015276952 -0.023068 0.07935445 -0.041712236
0003a0 24 6c a2 3d 64 a4 bb 3d 2e a0 07 be f3 94 e2 bd
       0.079307824 0.091622144 -0.13244697 -0.11063566
0003b0 39 14 dd bd 3e 7d e1 3d 21 75 d9 3d 20 61 b6 bd
       -0.10794873 0.11010216 0.10618044 -0.08905244
0003c0 4b f8 26 bd 1f 4c db 3d 48 14 7e 3d cf 6b 8f bd
       -0.040764134 0.10707878 0.06203106 -0.07002985
0003d0 a4 df e0 3b b8 f7 00 3e 40 df 92 bd a3 4d 30 3d
       0.0068625975 0.12594497 -0.07171488 0.04304279
0003e0 ca 26 12 be 43 2b 5a 3d 99 8a 75 bc de 89 8c bd
       -0.1427261 0.053263914 -0.014986658 -0.068622336
0003f0 2b 2b 12 be a6 05 ee bd b8 b3 63 3d 21 2b 18 bd
       -0.1427428 -0.11622171 0.055591315 -0.037150506

lstm.bias_ih_l1 f4 [200]
000000 9f c3 55 bc b8 84 86 3d 68 e7 c4 3d 8c 0f 95 3c
       -0.013047128 0.06568283 0.0961445 0.01819589
000010 c1 e0 41 3d 66 0e 01 bd 57 38 02 3e d6 56 83 bb
       0.047333483 -0.031507872 0.12716804 -0.0040081544
000020 1c bd 6f 3d b7 ab a7 3d 1a e2 a9 bd 4b 49 91 3d
       0.058529958 0.08187049 -0.082950786 0.07094058
000030 6c 55 ef bc 02 68 09 3e 72 0b b8 bc 4c c6 cc 3d
       -0.029215537 0.13418582 -0.022466395 0.099987596
000040 25 9d 05 3e 09 8a 10 3e 3d 6d 01 be d2 26 e2 3d
       0.13048227 0.14115156 -0.12639327 0.11042561
000050 cb 95 64 bd c2 36 17 3e cc 6d ee bd 90 9d 3f bd
       -0.055806916 0.14766982 -0.11642036 -0.046781123
000060 83 a0 af 3d 90 e3 0e bd 74 5c c0 3d 03 cc 65 bd
       0.08575537 -0.03488499 0.09392634 -0.056102764
000070 d8 9a 6c bd c3 be 66 3c 28 24 f1 3b 75 ea 61 3d
       -0.057764858 0.014083567 0.0073590465 0.055155236
000080 3b e0 9a bd 40 d0 10 be 7e 27 6b bd e8 ce a8 3d
       -0.075623 -0.14141941 -0.05741071 0.08242589
000090 bd 10 0b be 4e 9a b8 3d fe f3 55 bd f6 68 01 bd
       -0.13580604 0.09013806 -0.052234642 -0.03159424
0000a0 c8 84 c2 3d 7b 1e 75 3c 8a b3 79 3d a4 44 16 bd
       0.09497982 0.01496088 0.060962237 -0.036686555
0000b0 6b e6 9e 3d 82 4a 81 3d 10 91 06 3e 75 f7 fb 3d
       0.077587925 0.06313039 0.13141274 0.12303058
0000c0 28 72 7a 3c 54 6b f0 bd 69 8b b8 bd 26 85 c6 bd
       0.015286006 -0.11739221 -0.090109654 -0.09693365
0000d0 e0 d3 cd 3c 33 91 8f 3b 0c 94 d1 3d 38 c1 e9 3d
       0.025125444 0.004381323 0.10233316 0.11413807
0000e0 a6 7c f5 3c 70 1a af bd 67 88 8e bd 5a ec a7 3d
       0.029966664 -0.085499644 -0.069596104 0.08199377
0000f0 21 48 d6 3d 39 30 3e bd 39 e9 02 3e bb ac aa 3d
       0.10462976 -0.046432707 0.1278428 0.08333727
000100 9c 6b 0d bc 81 75 72 bd 3d 26 0b 3e 24 33 b5 3d
       -0.008631613 -0.05919409 0.13588805 0.08847645
000110 ba a3 d0 bd 6d be c9 bd b0 ef b2 39 1f 59 43 3c
       -0.10187478 -0.09850774 0.00034129387 0.011923104
000120 e4 f4 2b 3d 07 8a 17 be 81 63 e4 3d c5 ae a3 bd
       0.041981593 -0.14798747 0.11151791 -0.07992319
000130 29 9a 2b 3c 36 21 e5 bd 74 fa bc bd 4e d2 36 bd
       0.010473766 -0.11187975 -0.09227458 -0.044634156
000140 f7 8d 1e bd 54 53 1f 3e 94 7a 0b 3d 44 03 da bd
       -0.038709607 0.15559131 0.034052446 -0.10645154
000150 b6 4e 2f 3c 11 d3 07 bd 20 fb b4 3d a1 3b 01 be
       0.0106999185 -0.033160273 0.08836961 -0.12620403
000160 2e 1e a7 bd 0d ce 63 3d 91 eb ca 3d 11 b8 01 3d
       -0.08160053 0.055616427 0.09908212 0.03166968
000170 cb 4b 61 3d a1 02 e1 3b 03 a1 fa 3b de 23 e5 3d
       0.055003922 0.0068667685 0.0076485886 0.11188482
000180 26 d3 ea bd ab 56 b3 bc 26 6b 2c bd 7e 27 04 3e
       -0.114660546 -0.021891912 -0.042094372 0.1290569
000190 6f 32 d9 bd 74 e4 43 bd 06 48 5d bc ff 3d e5 3d
       -0.106053226 -0.04782529 -0.013505941 0.111934654
0001a0 59 01 95 bd a7 3c db bd e8 c2 e0 3d 17 d9 1e 3d
       -0.07275648 -0.10704928 0.109746754 0.03878125
0001b0 84 19 9a 3d 3c 3d 62 bb 40 f7 2b bd fb cd 01 bb
       0.07524398 -0.0034521362 -0.041983843 -0.0019806612
0001c0 f7 3a f3 bd e7 39 15 be 4d ad bd 3d 61 f7 bd 3d
       -0.11876481 -0.14572869 0.0926157 0.092756994
0001d0 7f 53 9c bd 0f 0a e5 bd a2 c6 84 3c e2 f2 a5 3c
       -0.07633113 -0.11183559 0.016207997 0.020257417
0001e0 c5 bf 0e 3c 5f 59 32 3c 17 b4 46 3c e1 11 bf bd
       0.008712714 0.010885566 0.012127898 -0.09329582
0001f0 8f d1 1f be 14 d5 be 3d 26 ec 07 be 80 b9 24 3d
       -0.15607284 0.09317985 -0.13273677 0.04021597
000200 31 02 2b bd 27 38 01 be 9b 90 c1 bd 7e 27 58 bd
       -0.041750137 -0.12619077 -0.094514094 -0.052772038
000210 fe 1e ca bd f9 eb 27 3b ac 35 a8 3c a3 5a c2 3d
       -0.098691925 0.0025622828 0.020533405 0.09489944
000220 f7 64 8e bd a9 45 7d 3c 0d 41 87 bc 01 22 d7 bb
       -0.06952851 0.015458503 -0.01651051 -0.006565333
000230 63 28 d1 3d 7d 7c 70 bd ce 47 de bd 76 e7 a6 3d
       0.10212781 -0.05871247 -0.108535394 0.081496164
000240 ec 67 62 bd 8d 50 aa bd 22 40 c0 bd ad 1f 10 be
       -0.05527489 -0.08316145 -0.09387232 -0.14074583
000250 81 f8 13 3d 40 a4 04 3d eb 85 0f 3d 2c 71 e5 bc
       0.036125664 0.032383204 0.035039824 -0.028008066
000260 4d 98 81 bd 62 ce b3 bd 1c f1 fc 3d b7 27 19 be
       -0.06327877 -0.08779599 0.123506755 -0.14956556
000270 d9 48 1d bd 1e 00 0f 3e a0 cd d7 bd 7f 75 f6 bd
       -0.03839955 0.13964888 -0.10537267 -0.12034129
000280 17 e6 54 bd 4d 01 52 3d 96 a7 94 bc 7d 65 aa bd
       -0.051977243 0.05127077 -0.018146317 -0.083201386
000290 7c b8 17 3d 7c cc 0a 3e c5 ab f9 3d e9 23 c2 3d
       0.037041172 0.13554567 0.121909656 0.094795056
0002a0 74 83 b7 bc d0 e6 0d 3e 22 27 1f be 41 1f be 3d
       -0.022401549 0.13857579 -0.15542272 0.09283305
0002b0 48 f9 14 bd 71 87 b6 bd 21 0b 64 3d 5c 1e e4 bd
       -0.036370546 -0.08912552 0.055674676 -0.11138603
0002c0 7a 46 28 bd 1a 65 ef 3d c7 b4 87 bd af a7 da 3d
       -0.041082837 0.116892055 -0.066262774 0.10676514
0002d0 8a a4 ad 3d 4b 03 0c 3d ae 04 80 3d 25 26 8d bc
       0.08478649 0.034182828 0.062508926 -0.017230103
0002e0 36 f6 29 3d ec ed 4e b9 d4 5d 0c be 63 be 85 3d
       0.04149457 -0.00019734324 -0.13707668 0.06530454
0002f0 f5 64 cb bc 25 30 00 be a9 e5 4e 3d 8d 80 97 3b
       -0.024828414 -0.12518366 0.05051199 0.0046234787
000300 e0 84 05 3e 18 3a 6e bd eb 83 fe 3d 6e d6 49 3d
       0.13038969 -0.05816087 0.12427505 0.04927676
000310 61 3a ba 3d b6 78 41 bd da b5 83 bb 9c 58 9e bb
       0.09093166 -0.04723426 -0.004019481 -0.0048323404

lstm.bias_hh_l1 f4 [200]
000000 2e 83 87 bd 1f 95 81 3d 1b 73 ff bd 4a 95 05 be
       -0.066168174 0.06327271 -0.124731265 -0.1304523
000010 fc d4 91 3d 43 63 0b be 28 6f d4 3b 06 b3 13 3d
       0.07120702 -0.13612084 0.0064829774 0.036059402
000020 76 73 02 bc 12 c0 a9 3b 28 b3 ba 3d d1 c0 a8 3d
       -0.007962098 0.0051803673 0.091162026 0.08239902
000030 43 28 1b be f3 a0 47 bd 77 ae 10 3d 1d fd 1b 3e
       -0.15152077 -0.048737478 0.035322633 0.15233274
000040 b8 63 88 bc bd 1d fd 3c 3a 88 b7 3c 15 d5 8d 3d
       -0.016649112 0.03089797 0.022403825 0.06925408
000050 ff 9e 07 bd d8 13 47 bd 3d 6f 04 be 45 dd e9 bd
       -0.033110615 -0.04860291 -0.12933059 -0.11419157
000060 84 f5 1b 3e 3c 9e b9 3d 34 ff 94 bc cf df eb 3c
       0.15230376 0.09063384 -0.018188097 0.028793244
000070 f8 e9 12 bd 0c b5 7a 3d 04 bf a3 bd 43 f4 37 bc
       -0.03586766 0.061207816 -0.07995418 -0.01122767
000080 4a c2 b4 3c c3 e1 f7 3d 4e 8a 17 bd 87 c9 e7 bd
       0.0220653 0.121036075 -0.036997132 -0.11317735
000090 26 4f d3 bd 9b 09 c2 3d 76 f1 28 3c 75 f2 7e 3c
       -0.10317831 0.09474488 0.010311475 0.015560736
0000a0 7d 85 25 3d b7 c1 73 3d ae 7d f0 bc d7 02 8c bc
       0.040410507 0.059510913 -0.029356804 -0.017091198
0000b0 d7 a9 dc bd 3f 41 2c 3d 0d 46 af 3d 80 b9 f4 3d
       -0.10774582 0.04205441 0.08558283 0.11949444
0000c0 2c 86 a7 bd 81 ca d2 bd 4e e9 53 3d ae 8f 1c bb
       -0.08179888 -0.10292531 0.05173617 -0.002388935
0000d0 b1 3c b2 3d 18 ef 7b 3c 45 e5 44 3a 6a 99 fe bd
       0.08702982 0.015376829 0.00075109705 -0.12431605
0000e0 88 7b 94 3d 7b a2 3d 3d ea 4e 6e 3b 30 73 03 3e
       0.07250124 0.04629753 0.0036362954 0.1283691
0000f0 5b 23 d3 3c 90 88 eb 3d bc c4 fd 3d a5 66 23 3c
       0.025773695 0.115006566 0.1239104 0.009973203
000100 b8 1c db 3d f3 e3 0c 3d c9 bb 98 bd 70 0e 5c 3d
       0.10698837 0.034397077 -0.07457692 0.053724706
000110 be 1e 0c be cd 07 bf bd 6a f7 67 3d 28 a2 a8 bd
       -0.13683602 -0.0932766 0.056632437 -0.08234054
000120 b3 99 2b bc c0 e1 75 3d cb f6 23 3d 2c d9 cf 3d
       -0.0104736565 0.060029745 0.040030282 0.10148844
000130 1d 71 3e 3d 23 3b be 3d 2c fb f5 bc 60 9f ec bd
       0.046494592 0.09288623 -0.030026995 -0.11553836
000140 b8 99 c1 3d fe b0 76 3d 3c 57 61 3d d0 3d 6b 3d
       0.09453148 0.060227387 0.055014834 0.057431996
000150 5e b0 7b 3d cd 47 a4 3c be 52 b8 bc 6f 15 8b 3c
       0.061447494 0.020053769 -0.022500392 0.016977994
000160 e2 c8 f7 3d 4f ff 14 bc a6 6a 79 3d 18 05 cb 3d
       0.12098862 -0.009094073 0.060892724 0.09913081
000170 4c cc ad 3c 81 d8 50 bd 75 a5 85 bd a0 a9 f8 3d
       0.02121558 -0.050987724 -0.06525699 0.121417284
000180 b0 34 8d 3d 30 a3 1e 3e 12 95 1b bd 2c c4 9d bd
       0.06894815 0.15491939 -0.03798396 -0.077034324
000190 b5 ab 13 3e 3d 69 fb bd 90 75 ec 3a 25 8c 7f bd
       0.1442097 -0.12275932 0.0018040407 -0.06238951
0001a0 be 17 a4 bd 7d b9 88 bd 69 90 2d bd 65 dd 7f bd
       -0.08012341 -0.06676004 -0.04237405 -0.062466998
0001b0 66 6f d0 bb 2f 9b 83 bc 70 ac 93 3d a8 95 8f 3d
       -0.006360936 -0.016065208 0.07210624 0.070109665
0001c0 bf 39 c3 3d 98 de 6b bd 71 1d b4 3b 49 c6 f9 3c
       0.095324986 -0.05758533 0.0054966738 0.030490058
0001d0 64 a0 32 bd 73 b6 a2 3d 25 58 fa 3d c6 ce 04 be
       -0.04360999 0.07944956 0.122238435 -0.12969503
0001e0 b2 23 24 bb fd ad d2 3d fe 30 68 bd 62 56 9b bd
       -0.002504569 0.10287092 -0.056687348 -0.075848356
0001f0 4f 05 c7 3d 4c 15 c9 b8 a1 5a 10 be ec aa 7a 3d
       0.097178094 -9.588394e-05 -0.14097072 0.06119816
000200 97 f0 09 3e b4 90 a0 3d cd 74 ac bd 76 dd 3a bd
       0.13470684 0.078401 -0.084207155 -0.045621358
000210 bc 5c ab 3d 03 7f 0a bd 03 03 b3 bd 72 f4 c2 3d
       0.08367297 -0.033812534 -0.08740809 0.095192805
000220 31 f6 cb bd 26 dc 99 bd c9 c9 bb bd 9b 49 f0 3d
       -0.09959067 -0.07512693 -0.09169347 0.11732789
000230 44 91 86 bd ef bf 1c be 62 e6 11 3c cc 5f 44 3d
       -0.06570676 -0.15307592 0.008905025 0.04794292
000240 5e 61 90 3d 70 5c 31 3c 14 14 cc 3d 6f cb b1 3d
       0.07049821 0.0108252615 0.09964767 0.0868138
000250 1b 96 f7 bd 2f 10 22 3e ca 46 bc bb 02 75 1b bd
       -0.12089177 0.15826486 -0.0057457434 -0.037953384
000260 30 98 a9 3d 0c 54 49 3d 80 ad 13 3e ce 92 e4 bd
       0.082809806 0.04915242 0.14421654 -0.11160813
000270 23 e5 e5 3c cd f8 b4 3d ef a8 04 3b 69 30 57 bc
       0.028063362 0.088365175 0.0020242294 -0.0131341005
000280 7e 56 13 3d 70 25 ea bd e0 03 19 bd 4f a8 19 3e
       0.035971157 -0.11432922 -0.03735721 0.15005611
000290 18 65 9f 3c 4f 75 36 3c a9 f3 1d 3e dd d9 d5 3b
       0.019457385 0.011136367 0.1542498 0.0065262155
0002a0 7e 66 de 3d b0 d3 c0 bd 43 a1 14 bc 7f 3f ed 3d
       0.108593926 -0.09415376 -0.009071651 0.115843765
0002b0 e5 58 f6 3d 7a b3 97 bd 3b 50 bd 3d 9a 48 77 bd
       0.12028674 -0.07407279 0.09243818 -0.060371973
0002c0 65 71 91 bc 4a fb 43 bd 72 91 c1 3d 22 fc 8e 3d
       -0.017754266 -0.04784707 0.094515696 0.06981684
0002d0 a8 9c 96 bd 9c a7 c6 3d e2 ae 85 bd 48 ef 15 be
       -0.073540986 0.09699938 -0.06527497 -0.1464206
0002e0 5b fa 5c 3d e9 fc d1 3d 2e f5 13 3c e7 ac 6b bd
       0.053949695 0.10253317 0.009030623 -0.05753794
0002f0 2c 50 05 bb 21 37 fc bd 9e 8c ba 3d e4 78 ea 3d
       -0.0020341976 -0.123152025 0.09108852 0.11448839
000300 09 3c f7 bc 07 aa ee bd 97 c3 f5 3d 99 ad 1d bd
       -0.030179994 -0.11653524 0.120001964 -0.038495634
000310 aa 67 66 bd 77 8f e2 bd dd 96 3f bd ff 91 d7 bd
       -0.056251206 -0.1106252 -0.046774734 -0.105258934

fc.weight f4 [1, 50]
000000 b5 90 06 3e 31 e8 94 bd 15 ac 51 bd 83 51 be 3d
       0.13141139 -0.072708495 -0.0511895 0.09292891
000010 10 fd 7f bd d6 46 ab 3d c9 ca 91 3d d3 71 0b be
       -0.0624972 0.0836312 0.07118756 -0.13617639
000020 a2 03 60 3d bd 46 dc bd 53 4c 22 bd c8 24 1e 3e
       0.054690965 -0.1075568 -0.03962357 0.15443718
000030 63 99 94 bc 44 a4 ca bd a4 16 12 bd 87 36 a2 3d
       -0.018139547 -0.098946124 -0.035666123 0.079205565
000040 80 65 8d bc 31 5e ba 3d 34 46 e4 bd d1 ab 93 bd
       -0.017260313 0.09099997 -0.11146203 -0.07210506
000050 46 75 8f bc 3e 09 16 3e 34 8b 87 3d e8 5f 71 3c
       -0.017511975 0.14651963 0.06618348 0.0147323385
000060 47 27 3f bd 84 0a b3 bd c1 f2 45 bd 8a 03 83 bd
       -0.046668317 -0.0874224 -0.04832721 -0.063971594
000070 67 88 a2 3d 22 28 87 3d c1 5f 0d 3d 36 aa 4e bd
       0.07936173 0.065994516 0.034515146 -0.050455295
000080 9d 9c a6 3d dc 88 d2 bd 8d 2a 5d bd 59 8c 8c 3c
       0.0813534 -0.1028001 -0.053995658 0.017156767
000090 4a 2c 48 3d f1 95 a4 bd 30 f1 23 be b3 03 9b bd
       0.048870362 -0.080364116 -0.16009974 -0.07569065
0000a0 e7 00 b9 bd f0 a4 57 bd 32 81 d2 3d 60 d9 0c 3d
       -0.09033375 -0.05264753 0.10278548 0.034386992
0000b0 a8 8e 03 3e e2 12 b7 3d 3c 72 3d bd 86 8a e7 bc
       0.12847388 0.089391485 -0.04625152 -0.028264295
0000c0 6c ce 76 3c 48 12 e7 3d
       0.015063863 0.11282784
