models/daily_model_MATIC_USDT.pth (torch, 128373 bytes, 9 tensors)

lstm.weight_ih_l0 f4 [200, 1]
00000000: d7d4 d2bd 560d cb3d 541a b8bd d331 f8bd
00000010: 8727 183e 850c 9a3b 894a aa3d 6b13 0cbd
00000020: e626 dbbd 40b3 c33d cbe2 0bbd c161 6ebd
00000030: 18fc babd 19b8 a4bd 521f 35bd 3d7b 693d
00000040: 37ab dc3d af81 d3bd 9105 fc3d b4b9 94bd
00000050: 08c4 9dbd 7de3 093c e26b 983d a23e 923d
00000060: f519 fe3c 1419 ad3d 0b1d e93d ea61 5fbd
00000070: 874e 62bd 3820 be3c 61ee eebd 65a0 bdbd
00000080: 9371 303d dbd7 c63d 3884 cc3d 2ba5 96bc
00000090: 33d2 38bd 7610 fcbd 5272 05be 433e 7abd
000000a0: 15c5 913d 02d7 fc3b 52ac 843d 9bc0 8fbd
000000b0: 8ac1 0d3d f694 c03c 5cf4 063e 4d6a 6dbd
000000c0: 4db7 3abc dd70 713d d141 1c3d 2ca1 023e
000000d0: e3cf b9bd ef44 4c3d 5d47 033e 1328 36bd
000000e0: e0ba e3bd 317c f23d e3f2 183c 224e 933d
000000f0: ac3f 88bd eddd fe3d e275 013d b2f5 65bc
00000100: 554c 9ebd 1189 ac3d bed6 09bd 1dc8 e83c
00000110: 5a8d e13b f533 fe3c 8328 393d 4be7 7ebc
00000120: 2581 41bd ce6f 79bd abae ebbc 3b3a 2a3d
00000130: 9f19 013e 1ffe 4c3d 5a8f efbd 54e0 9c3d
00000140: 822a 13bd 6761 0ebd ea2c abbd f271 913d
00000150: ece2 aebc b8f7 7c3d 57ee ac3d 0140 dc3d
00000160: 22aa f43d 2600 debd 56d4 833d bf4d e0bd
00000170: 0a38 68bb 8c0e 173e 07cc b53d 8ad4 c6bd
00000180: 21a8 f83d dd57 d2bd 2ba8 a2bd 47a8 c9bc
00000190: 66a0 5cbc bc5e 2e3b d290 e6bd 8462 8cbc
000001a0: 511f 233d b933 e9bc 3ba8 93bd 62d7 bb3d
000001b0: a55f 953d 0f1a 373d 0c58 873c 3031 613d
000001c0: 31b8 8bbd 1daf 393d 76f2 8c3d caf0 8d3d
000001d0: 5d38 4f3d 8e75 c3bd d558 3f3d 9a79 09be
000001e0: f61c 853b 64c6 93bd 22be 5dbb 89a8 02be
000001f0: 51ab 403d f2bd a23d 6c61 9f3a 7a72 7bbd
00000200: c504 aabd be22 65bd c6f4 8a39 1086 5cbd
00000210: 7edf f3bd 0ffe 19be f847 5abd b651 553c
00000220: 8fe5 97bd 8ea1 62bd 761a fb3d 2138 b0bd
00000230: adef f33d 3095 0e3d e5f1 80bd ed16 a3bd
00000240: cb29 63bd 8327 d2bc e93f b1bd f9fe c23d
00000250: 0f54 923c 4bf4 bfbd a4cd 1abe 6a24 44bd
00000260: 0dbd d83d 72c8 ddbc 46d3 8d3d b1c7 83bd
00000270: 7d13 963d efae 703d 3277 da3b 5231 c43c
00000280: 6475 ef3d 7f4f babd c526 5c3d fb2e d33d
00000290: 8c88 dcbc 77d8 a33d 3778 173d 3bf5 2abd
000002a0: 52ec af3d a9c7 113d 912e 393d d152 65bd
000002b0: 8393 c5bd 4724 9cbd 0334 673d 5ed4 1dbd
000002c0: 3648 1fbd 2b83 57bd 7a18 43bd 4827 68bd
000002d0: a71f 9e3d b004 c33d f1a1 e1bd 9b34 853c
000002e0: 1b0c 473d 4a61 073e bc89 f43d e3a2 dabc
000002f0: b68c 083c a67e 1bbd 96ea bcbd b739 b03d
00000300: 6890 5a3d aa33 80bd a33e 3e3d 675b 0cbd
00000310: 64a8 bebc 2e79 6ebd 853f ba3c a78c 8fba
-0.10294502 0.09914653 -0.08989397 -0.12118878 0.14858828 0.0047011995 0.08314998 -0.034198206
-0.10700779 0.095556736 -0.034151834 -0.058198694 -0.09130114 -0.08042926 -0.044219323 0.057002295
0.10774844 -0.103274696 0.12305749 -0.072619826 -0.077034056 0.008416054 0.07442452 0.071408525
0.031018237 0.08452049 0.11382493 -0.054536738 -0.05525067 0.023208722 -0.11666561 -0.092591085
0.043077063 0.0970914 0.09986156 -0.018389305 -0.045122337 -0.12307827 -0.13031891 -0.061094534
0.071176685 0.0077160606 0.0647818 -0.070191585 0.0346084 0.02350853 0.13179153 -0.057962704
-0.011396241 0.058945525 0.038148705 0.12756795 -0.09072854 0.049870428 0.12820192 -0.04447181
-0.11119628 0.11840094 0.009335252 0.07192637 -0.066527694 0.12444673 0.031606562 -0.014035629
-0.07729403 0.08424581 -0.03365206 0.028415734 0.0068833055 0.031030634 0.04520465 -0.015558074
-0.047242302 -0.06089764 -0.028769812 0.04155944 0.1260743 0.050047036 -0.11697264 0.07659975
-0.03592921 -0.03476086 -0.08358176 0.071018115 -0.02134844 0.06175968 0.08443897 0.10754395
0.11946513 -0.10839872 0.06436984 -0.10952329 -0.0035433793 0.14751643 0.08876806 -0.09708507
0.12141443 -0.10270665 -0.07942232 -0.024616374 -0.013465976 0.002660676 -0.11258091 -0.01713682
0.039824788 -0.028467046 -0.07209822 0.091719404 0.07293633 0.044702586 0.016521476 0.05497855
-0.06822241 0.045333017 0.06882183 0.069306925 0.05059086 -0.09543906 0.046715576 -0.13425294
0.0040622903 -0.072155744 -0.0033835252 -0.12759604 0.04703838 0.079463854 0.0012159771 -0.06138847
-0.08301691 -0.055941336 0.00026503782 -0.05383879 -0.11907862 -0.15038322 -0.05329129 0.01301997
-0.07416832 -0.05532985 0.122609064 -0.08604456 0.11910949 0.034810245 -0.06296138 -0.07963357
-0.05545978 -0.025653606 -0.08654768 0.095212884 0.017862348 -0.09372767 -0.15117508 -0.04788629
0.105829336 -0.027073119 0.06925063 -0.064345725 0.07327936 0.05876058 0.006667041 0.023949299
0.11692312 -0.09097194 0.05374791 0.10311695 -0.02692058 0.08000272 0.03697988 -0.041737776
0.085899964 0.0355908 0.045210425 -0.055987183 -0.09647276 -0.07624107 0.056446087 -0.038532607
-0.038887225 -0.052615326 -0.047630765 -0.056678087 0.07720881 0.095223784 -0.11017216 0.016260436
0.04859553 0.13220707 0.11940333 -0.026688999 0.008334329 -0.03796258 -0.09224431 0.08604758
0.053360373 -0.06259854 0.046446454 -0.034266856 -0.023273654 -0.058221035 0.022735367 -0.0010951952

lstm.weight_hh_l0 f4 [200, 50]
00000000: 7198 503d ba60 edbc 9bee 903c 5941 943c
00000010: 4551 073c 9a58 2f3d 2aab c7bd 035c a4bd
00000020: b144 0f3d 2ec8 ea3d 3cfe 8dbd bed9 023e
00000030: 378a f7bd 8f4c 5abd 4d16 56bc d212 fabd
00000040: ac6e b2bc 74b7 d4bd 6462 853d 58a0 bcbd
00000050: 5343 c33c 81a9 2d3d f586 53bd 714c 1e3e
00000060: 02a9 1a3e b18c 053e 7030 043e c7ce 983c
00000070: 462b 903c 59e2 d2bc e550 6a3d bf7b 043e
00000080: e38e eabd 1849 013c af90 193e cb4c 3ebd
00000090: 4dc6 1fbd a816 073e 9f02 34bc 8d10 0ebe
000000a0: 88a7 0e3c bbee 9ebd 0abe 75bd 788f 84bd
000000b0: 1218 e7bc 8a76 afbc 6b56 dd3d e74c d83d
000000c0: 0441 f9bc 93a0 38bd 104f ae3d 8091 823d
000000d0: c3a2 fc3c deb0 a6bd b974 993c b57e a5bc
000000e0: 8959 d93d 6e9d fc3c 6479 b53c 7b87 07be
000000f0: ea9c 79bd 96c7 503d 156a 85bd 95b7 b6bd
00000100: b57e 01be 9440 cfbd 8293 f33c 20fa 0d3d
00000110: 14f0 8fbd 3d03 fdbd c80f e23d 8ddf c03d
00000120: d503 013e c07c a9bd 3be2 a0bc f87b 6cbb
00000130: 9c05 d1bd db03 27bd 3332 a8bd 2108 fa3d
00000140: 200d debc 9b67 19be 255b 94bd e76f 8b3d
00000150: 3e2b 7cbd 962a d83d 21a1 9ebd a969 77bd
00000160: 70f5 76bd 17db 9abc 8fe4 ba3d 80a9 973d
00000170: 73e3 bc3d ff5c 3f3d 1c32 7cbd bf1e 15be
00000180: 9a7e 0dbe 8625 17bd 9b6a b8bb 5bbe 8fbd
00000190: 9cfa dabd 9955 c9bd 3987 603d 8804 3dbd
000001a0: 07df 69bd 5455 76bc 3115 01be 9686 ad3d
000001b0: 2708 f73d be5a 933c 89cc e53d 8474 00be
000001c0: 2896 a73b 25ec f23d 0a7e cebd 59ff 54bd
000001d0: fadd ddbd 1c00 b2bd a5cf fa3d 7299 2abd
000001e0: d94b 95bc 87b0 96bd 6c31 6cbd 83ad b03c
000001f0: 8aaa d8bd ab54 c53a e6cc bb3d a1b7 96bd
00000200: e947 993c 7d98 b23d ac54 d63d d6da 27bd
00000210: 0b13 a83d c0db b83d 8f54 17be c60f d1bd
00000220: a812 453d ad9c 8e3d eebb de3d 5131 8b3d
00000230: 7cd4 33bd 6cce 0bbd e642 ea3b e72e c23d
00000240: bb27 1cbb fa85 08be 483f c1bd ff23 d5bd
00000250: a49a 31bd 6ca1 cb3d daca 893c 044e 833d
00000260: 65f4 bbbd 0a5c e73d 7853 f43d e1b6 013e
00000270: c5f4 893c 4c9f 003c 87a2 bb3d 15ff 07bd
00000280: e218 b2bd 4009 513d 4ec8 e0bd 56d9 9d3d
00000290: 1a1e 8c3c a03f 083d 7305 bb3b 7e45 253d
000002a0: 8dd6 b1bc fadb 70bc 1f6c da3d 1e1c 93bc
000002b0: 4f64 0b3e d73d 8e3d 0a12 903d 814e 843c
000002c0: bcb7 8d3d 4d57 98bd 575f aa3d d4ac b03d
000002d0: 3682 0abe 7f94 8d3d 6f5c 3f3d 0cbc 4bbd
000002e0: 926b 27bd f8eb f7bd 32f5 ef3c 8c3b 0bbe
000002f0: 562f c73d 7ffe ddbd 0080 6cbd a987 293d
00000300: c07b e03d 1da5 00be a00e 163d c297 4bbb
00000310: 84b0 0cbe 5dbb 553d ff24 9dbd 0c26 9abd
00000320: c14b 0abe 0b6b 17bd 26f7 eaba 0ef0 2abd
00000330: 12bc a23d 2ad3 4b3c 595f 463d c7ad 07be
00000340: bf47 b7bd 3179 723d dfcb 91bc cb11 bb3d
00000350: e484 4c3d ee85 c9bd 7050 95bd 1a3b d1bb
00000360: af58 0abd c727 3b3d 52dc 16be 34d4 12be
00000370: 981c e0bc 5dd9 77bd 90d6 20bd 1e19 0b3c
00000380: aaa8 80bd 7ecf cf3d 013b 12bd 2de5 533d
00000390: 7d03 d83d f036 4cbd f33f ab3d 1ef5 b5bd
000003a0: 94ce 14be 068c 0fbe f89d 52bd 49e9 95bd
000003b0: 5798 8fbd 593b 27bd 6f81 04bd 0918 a83d
000003c0: 9b85 453d 0286 2fbc 951c e7bd d101 c23c
000003d0: 89f4 ae3d 2b11 1c3d 29ab ce3b c9df 96bd
000003e0: 79db 073e b9b2 00be 2a79 b53c 3ce4 103d
000003f0: b972 523d b13c 323d 690c 91bc 7836 0fbd
0.05092663 -0.028976787 0.017691901 0.018097566 0.008259122 0.042809106 -0.09749444 -0.08025362
0.03497762 0.114639625 -0.06933257 0.12778375 -0.12086909 -0.05329567 -0.01306684 -0.12210621
-0.021781288 -0.103865534 0.06512907 -0.09210271 0.023835814 0.04239798 -0.051642377 0.15458848
0.15103534 0.13041951 0.12909102 0.018653287 0.01759876 -0.025742697 0.057206053 0.1293783
-0.11453035 0.007890962 0.14996599 -0.046459954 -0.039007474 0.13192236 -0.010986953 -0.13873501
0.008706935 -0.07760378 -0.05999569 -0.06472677 -0.02820972 -0.021418829 0.108074985 0.10561543
-0.03042651 -0.04507501 0.08511174 0.06375408 0.03083933 -0.081392035 0.018732416 -0.02020202
0.106127806 0.030836787 0.02215261 -0.13235275 -0.06094066 0.05097159 -0.06514374 -0.08921734
-0.12645991 -0.10119739 0.029733423 0.034662366 -0.07028213 -0.12354133 0.11038166 0.09417639
0.12599118 -0.08275747 -0.019639125 -0.0036084633 -0.10206148 -0.04077516 -0.082127 0.12208582
-0.027105868 -0.14980929 -0.07243947 0.06808453 -0.061564676 0.105549976 -0.07745577 -0.0604035
-0.06029266 -0.018903298 0.09125625 0.074053764 0.0922307 0.046719547 -0.061571226 -0.1456251
-0.13817826 -0.03690102 -0.0056279427 -0.07018729 -0.10692331 -0.098307796 0.05481646 -0.0461469
-0.05709746 -0.015034992 -0.1260574 0.08472936 0.12062102 0.017987605 0.112206526 -0.12544447
0.0051143356 0.11861447 -0.10082634 -0.05200133 -0.10833354 -0.08691427 0.12246636 -0.041650243
-0.018224644 -0.07357889 -0.05766432 0.021567112 -0.10579403 0.001505514 0.09169941 -0.07359243
0.018711047 0.08720491 0.10465369 -0.040980183 0.08206757 0.09026289 -0.1477835 -0.10208087
0.048113495 0.06963477 0.108756885 0.06796516 -0.043903813 -0.034132406 0.007149088 0.09481602
-0.0023827392 -0.13332358 -0.09435898 -0.10407256 -0.043360367 0.09942898 0.01682036 0.06411365
-0.09177474 0.11296852 0.11929983 0.12667419 0.016840348 0.007850479 0.09161859 -0.03320225
-0.08696152 0.051034212 -0.10975705 0.07707469 0.017104197 0.033263803 0.0057074367 0.040349476
-0.021708751 -0.014700884 0.10665154 -0.017957743 0.13612483 0.06945389 0.07034691 0.016150715
0.0691981 -0.07438526 0.08318966 0.08626714 -0.13526234 0.06913089 0.04671901 -0.049739882
-0.04087407 -0.12105554 0.029291723 -0.13596934 0.097258255 -0.10839557 -0.057739258 0.04138914
0.109611034 -0.12562986 0.03663504 -0.0031065797 -0.1373921 0.052180637 -0.07673072 -0.07526788
-0.1350546 -0.03696732 -0.0017926439 -0.04173284 0.07946028 0.012440482 0.048430774 -0.13249885
-0.08949231 0.05919761 -0.017797409 0.09134253 0.049931422 -0.09839998 -0.07290733 -0.0063852193
-0.03377598 0.04569223 -0.14732483 -0.14338762 -0.027357385 -0.06051003 -0.039267123 0.008489875
-0.0628217 0.10146998 -0.0357008 0.05173223 0.1054754 -0.04985708 0.08361807 -0.08884643
-0.14531928 -0.14018258 -0.051420182 -0.07319886 -0.070114784 -0.040828083 -0.03235 0.08207709
0.04822312 -0.010713102 -0.112847485 0.023682507 0.08542735 0.03810231 0.006307025 -0.073669024
0.13267316 -0.12568177 0.022152502 0.03537391 0.05137894 0.04351491 -0.017706113 -0.034964055

lstm.bias_ih_l0 f4 [200]
00000000: 2ca2 9e3c af8f 473d eb8c 0dbd 25ad 953c
00000010: 1381 d23c 4a67 01bd 9da1 dabd afc3 dc3c
00000020: 1666 94bd 2b1c e23d 75f9 613c 0b10 323d
00000030: 3676 fabd e3aa ae3c d7dd 24bd 3710 953d
00000040: ba1f 82bc 9c86 063c aea5 0f3e 1a13 f8bd
00000050: 4266 0b3d fc09 05be 2e5b b6bd 0b24 ae3d
00000060: e503 f03b 75e9 ab3d d133 003e 7ef8 9cbc
00000070: 5329 53bc ce91 843c 43ce 44bd 0cb3 c43d
00000080: 146a 0a3e cc0c 573d c0ad 003e 7e96 b83c
00000090: 2a12 58bc 12e2 94bd 7ef3 51bd 018a 89bc
000000a0: a865 dd3d a9d6 dfbd d5d5 b93d 11ee f7bd
000000b0: e16b e1bd e876 acbd a66d 383d 6311 b13d
000000c0: 7120 003e 9d7c 473d 57d4 e6bd af80 f6bd
000000d0: c1ca b8bc c681 ac3d 6565 29bc 5131 9f3d
000000e0: 8ea9 d13b c416 8abd 63c7 913d f2c9 f9bc
000000f0: 024e 0cbe 1b2b fa3d 9342 b7bd d370 2cbd
00000100: e762 0a3e 9406 d9bd 938c 0f3e 5f9a 02bd
00000110: d0ec c13d 9cf9 65bb 883a 83bd 6f66 cc3d
00000120: 739b c33d 96fc 073e 1ce8 073e fcba 57bd
00000130: fb03 26bd 19fe a4bd ecc0 103e 80dd adbc
00000140: 9d7a 273d 95cb 52bd 4104 963c a1e7 e63b
00000150: cc05 11bd e7ea 483d 9f50 0f3e a27a d3bd
00000160: e084 003e 8e95 9cbc 48da e53c b9bb b9bd
00000170: cc3b 983d c0de adbd 5f40 eabd bd8d ecbd
00000180: bf3f eebd 4ef3 9e3c c040 e33d c864 54bc
00000190: 2380 9bbd 8cc6 9c3d 9fa4 16bd ea04 00be
000001a0: a1bd b7bc 4150 88bc df6a 3dbd 61e8 12bc
000001b0: 4952 84bd ca90 c93d 3361 2cbc 8d48 c03b
000001c0: 3e65 e13d 9ec5 16bd 4ece 0c3d fb86 9f3d
000001d0: 69a4 b5bd 6cfb 82bd 1f0e 23bd 6eb7 e9bc
000001e0: 8328 0cbe 22ab fcbd 579e ff3d 0fd8 b3bd
000001f0: cde5 44bd 3403 aebd 904c b93d 8fdd 8e3d
00000200: e089 d1bc e98b f8bc 183a 7abd 3a5a 2d3c
00000210: eb11 c23d bbc1 09bc a635 59bd 6d5a 6bbc
00000220: 3936 09be dc2f 0bbe 657a 2a3d b660 be3d
00000230: 259c 943d 85c9 b53c 1b81 703d ad3d aa3d
00000240: ff2a 063e a582 7c3d d92a 9abd 6f9b d3bd
00000250: b782 d2bb 821d ddbc e7dd 983d 15c7 923d
00000260: 4cfe ad3d 2f03 e23d 5351 fa3c 3759 15be
00000270: 96c0 9abd 1cc0 66bd 02be c23d 2b1b a43d
00000280: 3933 18be 74d3 093e addd edbc d456 cbbd
00000290: e6e1 e03d 9088 d9bd 7c07 0cbe add9 bcbd
000002a0: 453d bc3d 90c5 713d 7322 d73d d8cb 99bc
000002b0: cfce db3d 560f 56bc 7d54 803d abd2 7ebd
000002c0: 45fd a8bc d92a b0bc b993 f5bd 00c5 073e
000002d0: dd43 c7bd 062b 0f3e 1dfa a03d 4091 c6bd
000002e0: 8a43 133e 028f 9a3d 387b f8bd 7057 4bbd
000002f0: 7858 053e 68a4 07bd a61c cdbd a79a b73d
00000300: 501b e73c 38e3 0a3e ca39 4b3d 5020 cebb
00000310: c08b ad3d 5a16 e33d 0855 cb3d a3d6 60bd
0.019364439 0.04872101 -0.034558218 0.018271038 0.025696313 -0.031592645 -0.106753565 0.026948778
-0.07246034 0.11040529 0.013792385 0.04347233 -0.12229578 0.02132172 -0.040250625 0.07278483
-0.015884269 0.008210804 0.14028046 -0.12113018 0.034033068 -0.1299209 -0.0890411 0.085029684
0.007324683 0.08394138 0.12519766 -0.019161459 -0.01288827 0.016182806 -0.04804827 0.09604463
0.13517028 0.05250244 0.1256628 0.022532698 -0.013187924 -0.07269682 -0.051257603 -0.016789438
0.10810405 -0.10929615 0.09073988 -0.121059544 -0.110069044 -0.08421117 0.045026444 0.086458944
0.12512375 0.048702825 -0.11270969 -0.12036263 -0.022557618 0.0842319 -0.010339116 0.07773078
0.0063983863 -0.067426234 0.07118108 -0.030491803 -0.13701633 0.12215253 -0.08948245 -0.042099785
0.13514291 -0.10596958 0.14018469 -0.0318855 0.094689965 -0.0035091406 -0.06407648 0.09980475
0.09551134 0.13279948 0.13272136 -0.052668557 -0.04053114 -0.08056278 0.14136094 -0.021223783
0.040888418 -0.051463682 0.018312575 0.0070466553 -0.03540592 0.049052145 0.13995598 -0.10326125
0.12550688 -0.019114282 0.028058186 -0.090690084 0.0743328 -0.08489752 -0.11438059 -0.11550472
-0.11633252 0.019403126 0.110963345 -0.012963481 -0.075927995 0.07655057 -0.03677809 -0.12501875
-0.02242929 -0.01663983 -0.0462445 -0.008966536 -0.06461007 0.098420694 -0.010521221 0.0058680237
0.110056385 -0.036809556 0.034376435 0.07789417 -0.088692494 -0.06395611 -0.03980839 -0.028529849
-0.13687329 -0.123373285 0.12481373 -0.08781444 -0.048070718 -0.08496705 0.09047806 0.06975853
-0.02557844 -0.030340152 -0.06109056 0.010580594 0.09476074 -0.008408005 -0.05302968 -0.014364821
-0.1339959 -0.13592476 0.04162063 0.0929579 0.07256345 0.022190819 0.058716875 0.08312545
0.13102339 0.06164803 -0.07527704 -0.10332381 -0.006424274 -0.02699161 0.074641995 0.07166878
0.08495769 0.110357635 0.030556357 -0.14584814 -0.07556264 -0.056335554 0.09508897 0.080129944
-0.1486329 0.13459569 -0.029036367 -0.099286705 0.10980587 -0.1062175 -0.1367473 -0.09221206
0.09191374 0.0590263 0.105046175 -0.018773958 0.10732805 -0.01306518 0.06266115 -0.062212627
-0.02062858 -0.021504806 -0.119910665 0.13258743 -0.09729741 0.13981256 0.07860205 -0.09695673
0.14381233 0.07546808 -0.12132877 -0.049643934 0.1302203 -0.033115774 -0.1001523 0.089650445
0.028211266 0.1356324 0.04961566 -0.006290473 0.08473921 0.110882476 0.09928328 -0.054892194

lstm.bias_hh_l0 f4 [200]
00000000: 8fc0 a53c 3b33 d33d 59e6 23bd deca f4bc
00000010: d36e b23c 4d86 523c 8571 dc3d 9f60 763d
00000020: 14ca 963b e801 093e 97e1 883d 05c6 fb3d
00000030: 179c 493d c06e bb3d 9804 113e 52c0 883d
00000040: 99a7 d73d 496f ffbc 58a6 81bc 60e8 b93d
00000050: 78e2 eb3d 86eb 5cbd a121 dd3d 3070 f93d
00000060: 38c2 5a3c a8f0 003e 2110 0e3d 2953 d9bb
00000070: bf16 d6bd 9ba7 a0bd cec3 e2bd 2ba1 b33d
00000080: c22b ae3d f1d9 b33d ab18 f93d d7d0 01be
00000090: 68d9 5c3d 03ec babd 91ef 373d bb09 fe3d
000000a0: a4de f43d 8afb 723c 8612 a2bd 0e3c 44bd
000000b0: f020 babd f6a8 b33d a582 b3bd cb40 03be
000000c0: a5f6 d7bc 85bf babc 0308 1f3c 0547 c63d
000000d0: 6a80 703d 248b 8e3d 05ea 2a3d 03ba b7bd
000000e0: 9be8 0dbe b56a 1e3d bf35 cdbc 75dc bb3d
000000f0: 1b9f debd acff 98bd d016 25bd bb72 9dbd
00000100: 6daa e8bd b8b4 eabd ef3d aabd 3f4a 1fbc
00000110: 02fd 133e 729e b53d 46bd 15bd 54c3 353d
00000120: 9771 aabd 81d7 90bd e747 cebd bc9f 983d
00000130: 2165 093e 69b4 c13d c248 a63d 9a36 abbc
00000140: ac41 133e c9a6 313c f98d c4bd 09e4 a9bc
00000150: f193 60bd 49a0 a0bd 7d3b 2ebd 854b f03c
00000160: 30fe 133e ae00 e1bd 2f1c c6bc a94c e83d
00000170: c67d 663c 7ed9 a53d 5f18 403d a6ed 4f3c
00000180: 714b 7bbd 82bf fcbd bb3c 5b3a f5ab 513c
00000190: c752 c4bd b368 31bd afc3 7ebd 9964 3cbd
000001a0: 5283 063e b8fe aabd 43e4 053e 49ff c6bd
000001b0: 32fc ec3c 712b b53b a0d3 9dbd 033b 0dbe
000001c0: a2b6 18bd e587 a2bd 0d02 953d 675a bcbc
000001d0: 70f5 bcbc 7536 1fbd 3b00 8abd 585e 1c3c
000001e0: f200 09be 1138 a5bd 515d a5bd fc82 c5bc
000001f0: aaee 4e3d 74ff e3bd 06af 49bd 7e38 78bd
00000200: 975f f23d 3cb7 9a3d a57e bfbd a4f6 ebbd
00000210: f910 0fbd 2a9c 06be 0e7f dabc 603a ee3d
00000220: d823 8c3c 7e02 cb3c 9d6d fe3c c75f 8d3c
00000230: 2033 f5bc 8f00 1a3d f8f9 f8bd 33c4 29bd
00000240: 9d61 643d 529c 72bd e234 dcbd 55f3 72bd
00000250: a811 553c 663b 07bd 897c d9bd de46 fdbc
00000260: 83f8 80bb 96a1 a2bc 0d78 d93d 47a3 b33d
00000270: 7c1d e3bc 8e8b bf3d 7c47 c63d e8f0 a9bd
00000280: e0a6 d5bd 945b 7e3d 39ce 83bd 489e 813d
00000290: 574f c13d edbf 063e ab97 c83d 9dbc 65bb
000002a0: 54d7 e5bd 53cc 023d 5a28 9ebd dfac 8b3d
000002b0: 571a 2fbb 3867 ae3d d4e0 fa3d 9a6e 9b3d
000002c0: bee1 0bbc b350 543c 6e38 82bd d6ee cc3c
000002d0: f96d 153e 1b04 db3d 05c8 053e 4b2c 09bd
000002e0: 8839 b43d 239b 54bd 4e85 6dbd 61d2 e43d
000002f0: 29aa 8f3d 148b bdbc 1ffd 1b3d 4e18 4ebd
00000300: 4a0b 99bd b6fd 0ebd 1c22 8c3d b6c1 0b3e
00000310: 8dc8 ad3d 34b3 d0bc 3490 14be ee95 a2bd
0.02023342 0.10312506 -0.0400146 -0.02988189 0.02178136 0.012849403 0.1076384 0.06015074
0.0046017263 0.13379633 0.06683653 0.122936286 0.049221125 0.09151983 0.14161909 0.06677307
0.105300136 -0.031180995 -0.01582639 0.09077525 0.11517805 -0.05393555 0.1079743 0.12179601
0.013351969 0.12591803 0.03468335 -0.006632228 -0.10453557 -0.07844468 -0.11072503 0.08770975
0.0850444 0.087818034 0.12162908 -0.12677322 0.053918272 -0.09127047 0.044906203 0.124042
0.11956528 0.014830479 -0.07913689 -0.047908835 -0.090883136 0.08772461 -0.08765153 -0.12817685
-0.026362726 -0.022796402 0.0097065 0.09681515 0.058716215 0.06960133 0.041727085 -0.08971026
-0.13858263 0.038675983 -0.025050042 0.09172908 -0.10870191 -0.074706405 -0.04030496 -0.07687899
-0.11360631 -0.114602506 -0.08312594 -0.0097222915 0.14451984 0.08868112 -0.03655746 0.044375733
-0.08322447 -0.07072354 -0.10072308 0.07452342 0.13417484 0.09458239 0.08119346 -0.02090006
0.1438052 0.010842987 -0.09597392 -0.020738618 -0.054828588 -0.07843072 -0.0425372 0.029332886
0.14452434 -0.10986458 -0.02418336 0.11342747 0.014068073 0.08098124 0.046898242 0.012690937
-0.061351243 -0.12341215 0.00083632366 0.012797345 -0.09586101 -0.04331274 -0.062198337 -0.045994375
0.13136032 -0.08349365 0.13075356 -0.097166605 0.02892885 0.0055288603 -0.0770638 -0.13792042
-0.037283547 -0.07936076 0.07275782 -0.022992326 -0.023066252 -0.038870294 -0.06738325 0.009543978
-0.13379267 -0.080673344 -0.08074439 -0.02411031 0.050520577 -0.11132708 -0.04923918 -0.06060075
0.118346386 0.075544804 -0.093503274 -0.11521652 -0.034928296 -0.1314551 -0.026671913 0.11632228
0.017106935 0.024781462 0.031058127 0.017257584 -0.029931605 0.03759819 -0.12157053 -0.041446876
0.055757154 -0.05923111 -0.10752274 -0.05931409 0.013004698 -0.03301563 -0.10619456 -0.030917581
-0.003935875 -0.01985244 0.10618601 0.08771377 -0.02772402 0.0935279 0.09681603 -0.08297902
-0.104322195 0.062099054 -0.06435818 0.06329018 0.09438961 0.13159151 0.09794553 -0.003505505
-0.11222711 0.03193314 -0.0772254 0.06820082 -0.002671858 0.08515781 0.12249914 0.07589455
-0.008537708 0.012958693 -0.06358419 0.02501623 0.14592732 0.106941424 0.13064583 -0.033489507
0.08800036 -0.051905762 -0.057988457 0.11172939 0.07014877 -0.023137607 0.038083192 -0.050316148
-0.07472856 -0.034909926 0.06842443 0.13648114 0.08485518 -0.025476076 -0.14508134 -0.07938753

lstm.weight_ih_l1 f4 [200, 50]
00000000: 4a1b edbc d913 06be cd6a f1bd cfa3 0f3d
00000010: 3f2e 0cbd fc81 bfbd ca27 57bd d139 803d
00000020: 30f2 7dbc 278e 553c fb6f 46bd bf0d 713d
00000030: 9926 323d bebe 07be bb0b 00bd 88b8 a63d
00000040: 3bbe 0c3e f9f3 f7bd 0a9e b2bd 156f 73bd
00000050: 420e d13d 75bf d93b ca0b 913d b0b3 e03d
00000060: f635 8a3d 816a edbc 7f31 bdbd b947 e43c
00000070: c7f0 d33a d00c e2bc a3ed 083e 9b2b 9f3d
00000080: 1177 6bbd b35f 82bd d065 41bd a9dc e5bc
00000090: 20c3 ac3d b400 d5bd 5265 c0bd a80a fb3d
000000a0: 30d4 0d3d cb7d cdbd 409d b2bd 1bb3 80bd
000000b0: 8530 523d 0a9e 023e eaa1 02be 6c0d c3bd
000000c0: 63cd c9bc c710 78bd 03d6 fabd d750 c33c
000000d0: 92f5 20bd 10e9 d23a 514f 0ebc 3cb6 8bba
000000e0: 3f3d bcbd 0c3c cfbc 42f8 82bb c914 99bc
000000f0: dc8e bb3d f2a6 3bbd 0ff5 edbc aff2 98bd
00000100: 66f5 dbbd 2d28 5e3c 984f 0ebe 1b32 053d
00000110: fba9 ccbc 0f19 b83d af4b 8ebd a14f 5dbc
00000120: 6082 9aba 3425 03be d2a8 aa3d c024 19bd
00000130: 86ff 49bd 7c14 2d3d c85f 0d3d 0a84 583b
00000140: 8e21 06be b809 03bd dacd ba3d f4e8 87bd
00000150: 1ed0 edbd e764 a33a 7808 4abd 3194 10be
00000160: 515e fcbc f714 19bd 32c5 1c3d a7ef 153d
00000170: ee72 e4bd 0525 f43d 0bb0 9f3d f751 ae3d
00000180: 802c 79bd fdbb 05be 69b3 a13d 79c1 ed3d
00000190: e8b0 f83d 22f9 a83d a080 823c ef6b cb3c
000001a0: 649a 0b3e a204 c63d 4be2 57bc d1d0 c8bd
000001b0: ef2d 1f3e 111e 613d fb07 19be 13f1 1d3d
000001c0: 31e7 f93d bd93 a9bc 5a0e 41bd 8336 8d3c
000001d0: 151f 813d 6396 6d3d 11f7 8dbd b5dd eabd
000001e0: a7ec 44bd abf3 04bd 5a31 e3bc 4e8f c6bd
000001f0: cb13 9ebd 57e6 1fbd 9826 23bd 1f94 963c
00000200: 340a 75bd 5968 b3bc c182 773d d576 d0bd
00000210: d76d 8e3d 8d00 27bd c332 9e3c 13ae 83bd
00000220: 865a d03c cbe4 d5bd d82e 153e 3905 053e
00000230: 2791 003e cd33 cdbd 5eea fd3d 4f78 06be
00000240: 6527 93bc e6a4 1bbe 2b09 6d3d fa96 05be
00000250: 5077 0d3d 2f83 1c3d 3517 f9bc 0d68 0c3b
00000260: b579 86bd c578 643d 3c63 84bb d121 2e3d
00000270: 1ced 1a3d cb52 bcbd 82bd 9a3d 603b c13d
00000280: d69c 713d bb5b a4bd 5495 cebd f95e c13c
00000290: b2a9 df3d b377 f93d 6277 c93d dfa9 0ebe
000002a0: 1780 b83d c3b4 fa3d 2be3 9abc 4155 03be
000002b0: e6ee d03d 350e 3a3d bc00 2e3c 8cc1 c7bd
000002c0: 19f4 b6bd 14bf fdbd 8cbf 3bbd 9def b23c
000002d0: bb9d ea3d e55c f8bd 9236 943d 9657 203d
000002e0: 2847 533d 26c3 d7bd 3313 0fbe 169e 343c
000002f0: 428e f9bd 4c26 ebbd 35e3 a83d d6af 44bc
00000300: 63e9 cebd 435c ab3c bd4e 1f3c 1d59 803d
00000310: 7d28 373c 8730 fb3d aa0e aebd e3f4 833c
00000320: 9ace a9bd 03a4 c5bd 4c30 d23d de64 11be
00000330: f694 cabc bc85 a5bd f31e d5bd 43f0 cc3c
00000340: 27a4 c3bd e5a2 b13d 05d0 bb3d 0c45 ac3c
00000350: 0a00 0bbe a69c 923c 726a 873d 383b 423c
00000360: b450 953d d746 b83d 1aa0 de3d d3ad 90bd
00000370: 9789 43bd 6fb9 a3bd bf0a da3d 93dc dabd
00000380: 65d7 e03d d5ba 063e cdfa e9bd 486b 3b3d
00000390: e4dd cdbb 2d82 5e3d be61 663d 4069 c0bd
000003a0: a54c fc3d d63f 0dbe 2ac9 a3bd c94e 043e
000003b0: 3a8b ce39 526f 93bd 98fc aa3d 6f21 a3bd
000003c0: 95bd bfbd 6f9d c33d 3d8d 09be dcd2 d53c
000003d0: 6125 963d 90d0 863d 9399 f7bd 896f d33d
000003e0: 9705 843d 37fb c0bc 2cb2 8cbd af1c ffbd
000003f0: b352 acbd c36c dbbd 3564 f9bd 4874 dd3c
-0.028943677 -0.13093509 -0.11787949 0.03506833 -0.03422379 -0.093509644 -0.05252818 0.062610276
-0.0154996365 0.01303438 -0.048446637 0.058851 0.04349384 -0.13256356 -0.031261187 0.08140665
0.13744442 -0.12107081 -0.0872155 -0.059432108 0.102077976 0.006645138 0.07082327 0.10971773
0.067485735 -0.02898145 -0.09237956 0.027866231 0.001616978 -0.027594 0.13371901 0.07771989
-0.057486597 -0.063659094 -0.047216237 -0.02805932 0.08435655 -0.10400525 -0.09394325 0.12257892
0.034626186 -0.10033759 -0.08721399 -0.06284162 0.051315803 0.127556 -0.12757078 -0.095240444
-0.024634069 -0.060562875 -0.12247851 0.023842258 -0.039296694 0.0016091187 -0.008685903 -0.0010659168
-0.09191369 -0.025297187 -0.00399688 -0.018686669 0.09158108 -0.04581351 -0.029047517 -0.07468163
-0.107401654 0.013559383 -0.1389755 0.032518487 -0.024983397 0.089891545 -0.06948029 -0.013507755
-0.0011788122 -0.1280716 0.08332981 -0.037388563 -0.04931595 0.042255864 0.034515172 0.0033037686
-0.13098738 -0.03199169 0.09121294 -0.06636229 -0.11611961 0.0012465984 -0.049324483 -0.1411903
-0.030806692 -0.03737351 0.038273998 0.036605503 -0.111547336 0.119211234 0.077972494 0.08511727
-0.060833454 -0.13059993 0.07895548 0.116091676 0.12143117 0.08250643 0.015930474 0.02483174
0.13633114 0.096688524 -0.013176511 -0.098054536 0.15544866 0.054960314 -0.1494445 0.038559984
0.122022994 -0.02070033 -0.047132827 0.017237907 0.063047566 0.058004748 -0.0693189 -0.114680685
-0.04807725 -0.032458942 -0.027733494 -0.09695302 -0.07718619 -0.03903803 -0.039831728 0.018381177
-0.059824184 -0.021900343 0.06042743 -0.101789154 0.06954544 -0.04077201 0.019311314 -0.064296864
0.02543379 -0.104440294 0.1456865 0.12990274 0.12555371 -0.10019646 0.123982176 -0.13131832
-0.01796312 -0.15199623 0.05787007 -0.13045874 0.034537613 0.038211044 -0.030406574 0.0021424324
-0.065661825 0.055779237 -0.00404015 0.04251272 0.03782378 -0.09195479 0.07555677 0.09435153
0.05898746 -0.08025309 -0.10087076 0.023604857 0.10921039 0.12181034 0.098372236 -0.13931988
0.09008806 0.12241509 -0.01890715 -0.1282549 0.10201816 0.045423705 0.010620292 -0.09753713
-0.08933277 -0.12389961 -0.04583697 0.021842772 0.11455866 -0.12127093 0.07236971 0.03914603
0.05158153 -0.105352685 -0.13972168 0.011024019 -0.12185337 -0.11481914 0.08246461 -0.012004813
-0.10103109 0.020918017 0.0097233625 0.06266997 0.011179087 0.12265115 -0.08498891 0.016107982
-0.08291359 -0.096504234 0.10263118 -0.14198634 -0.024729233 -0.080821484 -0.10406294 0.02501691
-0.09552794 0.08673648 0.09170536 0.021029018 -0.13574234 0.017896961 0.066121 0.011854939
0.072907835 0.08997887 0.10870381 -0.07064404 -0.047738638 -0.07994353 0.10646581 -0.106866024
0.10978583 0.13157208 -0.114247896 0.04575661 -0.006282555 0.054323364 0.056245558 -0.09395075
0.12319306 -0.13793883 -0.079973534 0.12920679 0.00039395114 -0.07198967 0.0834896 -0.07965361
-0.09362332 0.095515124 -0.13432784 0.026101522 0.07331348 0.06582749 -0.12089839 0.10324008
0.06446379 -0.023557289 -0.06869921 -0.12456643 -0.08414211 -0.10714104 -0.12177316 0.027032986

lstm.weight_hh_l1 f4 [200, 50]
00000000: 207f 183e a111 933d 7e35 cc3d 30ca eabd
00000010: 422d 503d ecc9 b3bd 9dba b5bc b646 893d
00000020: dfae 043e 4f1e 153e ca8a dfbc 1223 00be
00000030: 3178 f53d 3843 833d 349e a9bd 62de 933c
00000040: a723 fc3c 79ab b3bd dcf3 0c3e e1b3 98bd
00000050: e5d5 f3bd 681e 1f3c 4ce2 0abd d6f1 223c
00000060: b158 383d cda2 10be 9e39 be3d b149 f1bd
00000070: efb3 033e 25bc e0bd 270d 9cbd d73d 1c3d
00000080: 67e5 cd3c c4c1 9fbd b9d9 f63d 45e6 bf3d
00000090: 0ada 40bc b899 6bbd eff7 0a3e 9e80 2cbd
000000a0: 7e71 77bd abbb ebbc 765c 67bd bc73 e8bd
000000b0: 4d02 1abc c06d 04bd 75d8 07be 8d33 093e
000000c0: 20a6 ea3d 485d 903d 1ada 37bd 4255 263d
000000d0: 3552 6fbc 8415 d93d 5893 89bd c299 493d
000000e0: 1d38 b73c fb41 9e3d 7240 c5bd e403 a63d
000000f0: 2961 e13d 00a7 bd3d 751b 1ebc 6ea9 aabd
00000100: 7086 223d 2eab 263d efb2 a7bd 286b 30bd
00000110: 6ef1 9d3d 5fa7 e0bd 1432 103e 3aff 0a3e
00000120: e2e7 01bd 6ad0 c23d a9a6 9e3d e80a 083d
00000130: 5773 7b3b 9642 9e3d 7ffb e43d 289f cf3d
00000140: a519 9b3b f07d 29bb b7b8 533c d217 233a
00000150: 2c6d a4bd dd92 8a3d d012 debd 6aec 4d3d
00000160: 3c46 b1bd 22be cf3d 26dd 8cbc 44f4 65bd
00000170: 1d39 0d3e f403 413c 009b 24bc dde0 aabd
00000180: ab84 073e e5dc 993c 453b c63d a8d3 f3bd
00000190: 9c3c 193d 5272 c0bc d9ad 483d 4f53 7bbd
000001a0: 031a 79bd be55 2fbd 6c67 6fbc 8892 adbd
000001b0: f846 0fbd 0bff fbbd beba 7ebd d304 823d
000001c0: 1e7d c7bc 2833 28bd 9102 44bd 2e2c 7abd
000001d0: 129f a63d 5575 7d3d 2f83 c8bc bccb 33bc
000001e0: 4d33 f43d 0b7d 8f3d 0e6d 5c3c 2d8c 933d
000001f0: f894 803d 6341 dbbd 7ff2 cabd 7166 063e
00000200: 3af8 b83d 5a7a 69bb 1677 143e de0b fb3d
00000210: 710c 1c3d 6ed4 973d a486 233d 6bd7 d4bd
00000220: d1f2 e53d 835c 703d 95a8 05be 4f29 12bd
00000230: 99f6 77bc be47 c9bd 0aa8 e03d 59e3 323d
00000240: 5e88 df3d e09c f3bd 9bbb fdbd 4295 09be
00000250: 4616 c43c 60b8 d3bd c62f cc3d a435 c23d
00000260: 8559 e93d fbf2 85bd 2a7d f93d 9b71 86bd
00000270: 0dbd fc3d 4a33 723d fbfd d9bd 22a1 77bb
00000280: 4b33 b3bc 22eb 843d e776 123e 6aed dd3d
00000290: df6c a5bd 3231 20bd f8a1 8e3d 3e33 84bd
000002a0: 7f0d 243d 5aa8 6bbc 5597 8d3c c4ff b33d
000002b0: f055 0e3d 7626 d7bd f30a c33d 0ab8 723d
000002c0: 51d7 04be afb4 ed3d 59b4 f03d 7c13 263d
000002d0: 7c0c 54bd a6c6 18bd 890b 623c 96dc bfbd
000002e0: a733 25bc 8041 9fbd d1df f83c 8f2e 673d
000002f0: 760c e2bd 83a6 1bbd f5bf a5bc 0c27 12be
00000300: cd97 173e b3d6 d73d faac 9bbc e711 bbbd
00000310: 73f3 ca3d 593b 003d 34d6 8abd 8bbd 9abd
00000320: 901e 463d 2b9e a03d ce9f 9b3d 716f d5bd
00000330: e02b d5bb 6e93 5d3d ce3e e53d dcca 49bd
00000340: 99c9 5d3d 687c b73c 73ba 9fbd b642 72bd
00000350: a965 a7bd fb39 7e3c 772c 4abd c106 ea3d
00000360: 7c16 0b3d 0602 2d3d 37ec 7dbd 4b7e 0d3d
00000370: 4f06 0d3d d9c5 673d 967c 6bbd caa4 fcbc
00000380: 4b0a 5cbd 481b 1b3e 6242 26bd 65a6 af3b
00000390: 339d c93c 3865 b2bd d1e8 043e 3653 443d
000003a0: bea6 e9bc 1997 e73d 071e 9cbd 43b0 f23d
000003b0: ab6a 903d c297 ba3d 3583 3ebd 7a6a 0a3d
000003c0: 66b8 0dbe f35e 9fbd a066 fcb9 7ced 5c3d
000003d0: 5e89 ecbd b42b b53d 0aa5 fd3d 80f6 0e3d
000003e0: 95e1 603d 7b11 b93d 850a 1ebd ac3a 2b3d
000003f0: b9e6 44bd 8952 f7bc b263 c63d 3265 0bbe
0.14892244 0.07181097 0.0997114 -0.114643455 0.05082441 -0.08778748 -0.02218371 0.0670294
0.12957333 0.14562343 -0.02728786 -0.12513378 0.11985815 0.06409305 -0.08282128 0.018050376
0.03077872 -0.0877294 0.137649 -0.07456184 -0.119060315 0.009711839 -0.03390722 0.0099453535
0.045006458 -0.14124604 0.09288333 -0.11781634 0.12861608 -0.10973386 -0.07619696 0.038144913
0.025133802 -0.0780063 0.12053246 0.09370092 -0.011770735 -0.057519644 0.13571142 -0.042114846
-0.06041097 -0.02877601 -0.056484662 -0.113501996 -0.009399963 -0.03233123 -0.13266166 0.13398571
0.11457467 0.07049042 -0.044885732 0.040608652 -0.014607002 0.10599807 -0.06717557 0.0492189
0.022365624 0.077274285 -0.096314326 0.08106211 0.1100486 0.09260368 -0.009650101 -0.083330974
0.03967899 0.040690593 -0.08188426 -0.043070942 0.07712065 -0.109694235 0.14081603 0.13573924
-0.03171528 0.09512408 0.07746632 0.033213526 0.0038368308 0.07727544 0.111807816 0.101377785
0.0047332817 -0.0025862418 0.012922457 0.0006221506 -0.080286354 0.06766293 -0.10843432 0.05027429
-0.08655974 0.10143687 -0.017195296 -0.056141153 0.13791318 0.011780728 -0.0100467205 -0.083436705
0.13234203 0.018782089 0.096792735 -0.119056046 0.037411317 -0.023492012 0.04899392 -0.061358746
-0.060815822 -0.04280638 -0.01461206 -0.08475214 -0.03497979 -0.12304505 -0.06218981 0.063485764
-0.024351653 -0.04106441 -0.04785401 -0.06107729 0.08135809 0.061879475 -0.024476616 -0.010973867
0.11923847 0.07006272 0.013453735 0.07204471 0.062784135 -0.10705831 -0.09909534 0.13125016
0.090317205 -0.0035625906 0.14498553 0.12258123 0.038097803 0.074135646 0.039923325 -0.1039265
0.11227954 0.058681976 -0.1305259 -0.035683926 -0.015134477 -0.09828137 0.10969551 0.043673847
0.10914682 -0.11895156 -0.123892985 -0.13435844 0.023936402 -0.10337901 0.099700496 0.094828874
0.113940276 -0.065404855 0.12182076 -0.06564637 0.12340746 0.059130944 -0.10644146 -0.0037785252
-0.021875044 0.064901605 0.1430317 0.10836299 -0.08077406 -0.039109416 0.06964487 -0.06455086
0.040051933 -0.0143834 0.017284075 0.08789018 0.034749925 -0.10505383 0.09523573 0.059257545
-0.12972762 0.11606728 0.117531486 0.040545925 -0.05176972 -0.03729882 0.0137966955 -0.09368245
-0.010083116 -0.07776165 0.030380161 0.056440886 -0.11037533 -0.038000595 -0.020233134 -0.14272708
0.14804001 0.105389975 -0.01900338 -0.09134274 0.099097155 0.0313066 -0.06779137 -0.07555684
0.04836899 0.07842668 0.0759884 -0.104216464 -0.0065054744 0.054095678 0.1119362 -0.049265727
0.054147337 0.022398189 -0.07799234 -0.05914565 -0.08173687 0.015516753 -0.04935881 0.114270695
0.03395699 0.042238258 -0.06199285 0.03454427 0.034429844 0.056585167 -0.05749186 -0.030840296
-0.053720754 0.15147126 -0.04059065 0.005360412 0.024611091 -0.08710712 0.12979437 0.04793092
-0.028521892 0.113081165 -0.07622915 0.118500255 0.07051595 0.09110977 -0.046511848 0.03379295
-0.13839874 -0.07781782 -0.00048141647 0.05393742 -0.11549638 0.08846226 0.12384994 0.03490305
0.05490263 0.09036537 -0.03858425 0.041804 -0.048071597 -0.030190723 0.09686984 -0.13612822

lstm.bias_ih_l1 f4 [200]
00000000: af30 17bd 947f 433c 97f9 b63c 37ca 763d
00000010: 59dd dc3d d79e 733d c2ae 803d 8b80 c73c
00000020: c775 e6bd 2aa6 54bd 4390 253d eb3d f7bd
00000030: d3ed 7d3d a697 cb3d e343 c1bd 9a76 c4bd
00000040: 4e84 bdbc 9811 443c cf85 8a3d d016 0cba
00000050: 5824 8e3d 0b97 253c 0285 723c 6c36 b2bd
00000060: 9e72 89ba 6387 13be 7bdf c63d 532f a23d
00000070: 2ede eb3d 33ea fd3d cedc e53d ef44 3fbd
00000080: 8e77 a8bd 95a0 bebd 1f3b b1bd 6f45 823d
00000090: 0490 5b3d 09c2 2bbd bebb 663d 6c1e f5bd
000000a0: 0cfb bbbd e4a3 ccbc 62eb 4e3c 34f1 aa3d
000000b0: 8d58 213d 64ea dd3c d08d 46bd 542a 8f3d
000000c0: f66b bd3d cb8b ac3d ccc2 d0ba 919b 083e
000000d0: 4b8f f23d d28e 1cbd e071 01be 5b5f fcbc
000000e0: e384 023d 3a21 55bd d84d ad3d fc10 b4bc
000000f0: 5214 8fbd 71b0 1abe c123 eabd 6fc4 b9bd
00000100: 8fb9 24bd e0a2 0abe 7f48 ca3d 84c1 633d
00000110: 660a 04bd d8e1 eb3d 9bc9 173e ba48 40bd
00000120: 12ec 953a 065c c5bd d960 283d 1004 0dbd
00000130: 2a55 00be 7337 103d 590e 68bc 4bd1 f5bd
00000140: 40ba debd d54a f63d 9547 b7bc a763 58bd
00000150: 6fae bf3d 25a3 a9bd 3e17 9b3d 58ba 013e
00000160: dcf1 eabd d099 673d 463f 05be 8217 e13c
00000170: 3fe8 cf3b 6874 f9bb 986d 60bd 7995 aabd
00000180: 14a7 2cbd 2976 8dbd 683f 1b3c a960 8f3d
00000190: 12f1 c8bd fea2 c7ba 5ee1 12be 6220 f1bd
000001a0: 7176 a9bc 300d f23d 20b2 023e 55b0 bf3d
000001b0: 6345 123b 1e1f 8fbd d3ba c03d 6df4 373d
000001c0: 0576 8cbd d24c 4fbc 2c1e b3bd e680 1a3e
000001d0: c91c 04be aa45 8e3d 587c e9bc b1cf c63d
000001e0: bf84 193e dbb7 f53d 362e f7bd 8715 083e
000001f0: 6f95 8abd b509 debc 1d46 02be 5f0f 153d
00000200: ffb0 df3c 96d7 5dbd 04ce 833d 4930 acbc
00000210: 975b 8fbd 2bca c73d d76c 043b d039 8bbd
00000220: 69cd 55bd 0839 febd f6c7 00be a914 193c
00000230: 5468 53bd edb0 d73d 8bbe 003e fc8d b73a
00000240: 22d0 e5bd da82 0b3e 2888 bfbc ab2c f2bd
00000250: b07b 853d 77f3 7e3d 70e6 0cbe c6f1 86bc
00000260: 9a13 a3bd 77c0 463d c02b 0d3e 94f2 e0bd
00000270: c898 9bbd 1037 863d 19fb fa3b e761 3f3d
00000280: 1702 5b3d 9c4d eabd 7409 2fbc 34fe 2e3c
00000290: 5255 ad3d 8d35 eb3d 2407 febd f9a5 003e
000002a0: 195f ec3d 59fd 193c 28aa 2e3d a92d 34bd
000002b0: 9e4b adbd a167 5a3c f23f b4bd 0080 a7bd
000002c0: 5186 113e 1768 783d d7d1 e13d 0064 91bd
000002d0: 71f1 0d3d 48c4 603d d42e 403d a2d5 83bd
000002e0: bae6 a4bd d598 f03d 3902 fb3d 52d5 96bc
000002f0: 6cdc 8ebd c802 57bd d7e3 ffbd 1b9c 28bd
00000300: 1938 a33d 6ac3 c33c 0c26 97bd eff0 d83c
00000310: 9720 aebd 9304 c33d c3a4 b8bd 3cfd 063c
-0.036911663 0.011932272 0.02233581 0.06025144 0.10784406 0.059477653 0.062833324 0.024353286
-0.11252933 -0.05191628 0.04042078 -0.12072357 0.061994385 0.09941034 -0.094367765 -0.09592934
-0.023134377 0.011967085 0.06763803 -0.00053439755 0.06940526 0.010106812 0.014802219 -0.087017864
-0.0010486429 -0.14407115 0.09710594 0.07919183 0.11516987 0.123981856 0.11223756 -0.0466966
-0.08225928 -0.09307972 -0.086538546 0.063609 0.05360414 -0.041933093 0.05633139 -0.11968693
-0.09178743 -0.024980493 0.012629362 0.08346787 0.03939109 0.027089305 -0.048475087 0.06990495
0.092491075 0.08425101 -0.0015927195 0.13340594 0.11843737 -0.03822214 -0.12641096 -0.030807188
0.031865012 -0.05203364 0.08462113 -0.021980755 -0.06986298 -0.1510637 -0.11432601 -0.0907067
-0.040216025 -0.13538694 0.09877109 0.055604473 -0.03223648 0.11517686 0.14823 -0.046944357
0.0011438152 -0.09636693 0.041107986 -0.034427702 -0.12532488 0.03520913 -0.014163577 -0.1200281
-0.10875368 0.12025992 -0.022373 -0.05282941 0.093594424 -0.082830705 0.075727925 0.12668741
-0.11471912 0.05654317 -0.13012418 0.02747703 0.0063448246 -0.0076127537 -0.054792017 -0.08329291
-0.042151526 -0.06907303 0.009475566 0.07000858 -0.098116055 -0.001523107 -0.14343783 -0.11773755
-0.02068636 0.118189216 0.12763262 0.093598045 0.002231919 -0.06988357 0.09410634 0.044910837
-0.06858448 -0.012652593 -0.08745989 0.15088233 -0.12901606 0.06946881 -0.028501675 0.09707583
0.14992045 0.11997958 -0.12069361 0.13289462 -0.067667834 -0.027104238 -0.12722059 0.036391612
0.027306078 -0.054160677 0.06435779 -0.021019118 -0.06999891 0.09755357 0.0020206475 -0.06798136
-0.052197848 -0.124132216 -0.12576279 0.009343305 -0.051613167 0.10531793 0.12572686 0.0014004107
-0.11221339 0.13624135 -0.023380354 -0.11824926 0.06517732 0.062243905 -0.1375978 -0.016472708
-0.07962723 0.048523393 0.1378622 -0.10983768 -0.075975 0.06553471 0.0076593277 0.046724226
0.05346879 -0.11440584 -0.010683406 0.010680724 0.08463539 0.114848234 -0.12403706 0.12563314
0.11541576 0.009398782 0.042642742 -0.043988857 -0.084616885 0.013330371 -0.08801259 -0.08178711
0.14211394 0.060646143 0.11026352 -0.070991516 0.034654085 0.05487469 0.04691966 -0.064372316
-0.0805182 0.117479004 0.12256283 -0.018412266 -0.06975636 -0.052492887 -0.12494629 -0.0411645
0.07969684 0.023896892 -0.07380304 0.026482074 -0.0850231 0.09522357 -0.09015801 0.008239087

lstm.bias_hh_l1 f4 [200]
00000000: afeb e43b 687e 883c 8f33 013d 072c 573d
00000010: aa41 afbd 895b c3bd 5893 93bd e3fd 1a3d
00000020: d301 cb3d ab06 cfbc ff70 543d 6307 f93c
00000030: 86ca ecbc d086 d63d 0a4f febd c765 e9bd
00000040: 463a 043d bb6f 99bc 7439 45bd 55d8 97bc
00000050: d2e2 9d3d 4b27 ea3d 0850 d7bd 75f8 ee3c
00000060: 125f f73d fad7 0bbe d517 78bd 6b01 123e
00000070: 46f9 b63d ea20 773d 1dd0 743b 0c7d 913c
00000080: e734 83bd 1afb 723d 03cc 39bd 6638 f2bd
00000090: 70cc bbbd b1ee c4bc 72fe e53c d65b 01be
000000a0: 8827 05bd 854a 8d3d b6d4 33bd 737e aa3d
000000b0: 9c49 6abd 3927 cf3c a247 5d3d 8663 8dbd
000000c0: 3928 563d e4d9 cdbd 1667 ac3d 58a3 a43d
000000d0: 8699 023e 072b 05be 7f83 bb3d 8a51 18bc
000000e0: 0a53 fabd 5f96 813d d603 4abd 165d 8c37
000000f0: 00dc eebd 353f c8bd 2ff2 e43c ab47 02be
00000100: 09e0 dcbd 357d 313d 12cb c03d 89dc 9e3d
00000110: e867 32bd 09a2 07be 37f0 eebd 8990 85bd
00000120: b1d4 e33d 4c98 1c3e 8d57 c43c 206f e03d
00000130: 3d6e f13d 7fd9 013d 89d5 a03d 984f 95bd
00000140: 56df ef3d f923 17bc f03d 06be 8ded 89bd
00000150: 20ef dd3d bb50 833d 1a2b 003d 57b4 5bbd
00000160: c562 0dbd 8ebb 103d b146 e0bd 6d3e ed3d
00000170: e8c3 9ebb e883 bcbc 7078 ad3d b44d 803c
00000180: b098 8d3d 9a60 15be bfd2 753d 771a 213c
00000190: a6fe a53d 05cf 08be c0a3 a93c c0ac f43d
000001a0: 98c6 06be 01a3 303d f4fe 3b3d 8aca bfbd
000001b0: 36e3 6dbd 5ea9 b9bd 22e2 913d 10cf 00be
000001c0: d23c 8d3c bbd4 69bd cd07 0e3e 29fd b5bd
000001d0: 57ff f1bd 6427 143c 3919 1abe dece a03d
000001e0: 3415 353c e505 f63d c1b9 b23c 535c fbb8
000001f0: f761 d43d 682a babc a8d6 913d f982 a1bc
00000200: 8580 103d 348c 0fbe 853e 153e 632e c03c
00000210: 5dec eabc 440f c23c b7cf bdbd cc03 62bd
00000220: 2c9f 6a3d ec3b a03d dffd f03b baee 4f3d
00000230: e7c0 783c d44d 15be e62a 7abc 1555 113e
00000240: 42bf cd3c e908 babd 5160 613d bf40 783d
00000250: ffe3 06bc 4242 aabd 2367 15be 49c4 37bd
00000260: 347d 99b8 e8ad 24bc af40 d8bd 3ee1 14be
00000270: c07c a73c 5067 033e 4e58 bb3d 4b0c 13bc
00000280: c23a 853d f0ce 413d 7df3 11be c244 5d3d
00000290: 012e aebd a740 a43d 9b3c 7b3d 3259 913d
000002a0: 435d 1ebc 41c7 8a3d c62a 653d 130b 173e
000002b0: 835a 26bd 1c18 9ebd 5542 4fbd 2e3e cfbd
000002c0: ff7b bc3d c35a 053e 344c 073d 9775 c73d
000002d0: 8493 eebd 1f0f 843d b5bc 8b3d acfb e8bd
000002e0: 93f2 38bc 501d 68ba 0764 b63d 7f5e fc3c
000002f0: 571e 82bd f7eb 99bd fbbb dd3d 925d b1bc
00000300: 060e 9fbd aa5b 9e3d 98ba b73d e048 b63d
00000310: 8a12 debd cbae e43d 980b e5bd 3bd6 a0bd
0.0069861035 0.016661838 0.03154331 0.052532222 -0.08557446 -0.09538943 -0.07205838 0.03783978
0.09912457 -0.025271734 0.051865574 0.03039903 -0.028905164 0.10474932 -0.12417419 -0.113963656
0.032282136 -0.018730035 -0.048150495 -0.018535772 0.07709278 0.11433276 -0.105133116 0.029171208
0.1207868 -0.13656607 -0.060569603 0.14258353 0.08934264 0.060334124 0.003735549 0.017759822
-0.06406575 0.0593215 -0.045360576 -0.118271634 -0.09169853 -0.024039598 0.02807543 -0.12632689
-0.032508403 0.06898979 -0.04390403 0.083248995 -0.057199106 0.025287258 0.054023392 -0.06903748
0.052284453 -0.10051325 0.084180996 0.08038968 0.12753877 -0.13004695 0.0915594 -0.009296784
-0.1222287 0.06327509 -0.049320064 1.6732647e-05 -0.116630554 -0.09777681 0.027947513 -0.12722652
-0.10784919 0.043332297 0.094137326 0.077569075 -0.043556124 -0.13245405 -0.11666911 -0.065217085
0.11124552 0.15292472 0.023967529 0.109586954 0.117886044 0.03170156 0.078532286 -0.07290572
0.1171252 -0.009224885 -0.13109565 -0.06734762 0.10836625 0.064118825 0.031291105 -0.053638782
-0.034518022 0.035335116 -0.10950983 0.115841724 -0.004845131 -0.023012117 0.08470237 0.015662052
0.069138885 -0.14587632 0.060015436 0.00983297 0.08105211 -0.13360222 0.020707965 0.11947012
-0.13161695 0.043124203 0.04589744 -0.09364803 -0.058078013 -0.09065507 0.071232095 -0.12578988
0.017240915 -0.05708764 0.13870163 -0.08886177 -0.1181628 0.009042595 -0.15048684 0.07851957
0.0110524185 0.12012843 0.02181709 -0.000119858094 0.10370248 -0.022725299 0.071210206 -0.019715773
0.035278816 -0.14018327 0.1457463 0.023459619 -0.02867716 0.02368892 -0.09268134 -0.055179402
0.057280704 0.07823929 0.0073544825 0.050764777 0.01518271 -0.1458047 -0.015269017 0.14192612
0.025115613 -0.09083731 0.055023495 0.06060862 -0.008233069 -0.08313419 -0.14590125 -0.044864926
-7.3189294e-05 -0.010051228 -0.105592124 -0.14539048 0.020445228 0.1283238 0.09147702 -0.008975099
0.06505348 0.04731649 -0.1425304 0.05402065 -0.08504868 0.08020144 0.061337095 0.07097091
-0.00966579 0.06776286 0.055948995 0.14750318 -0.040613662 -0.07719442 -0.05060037 -0.10119282
0.09203338 0.13022904 0.033031657 0.09739225 -0.1164923 0.064481966 0.068231024 -0.113761276
-0.011288303 -0.00088544656 0.089057975 0.030806778 -0.06353443 -0.0751571 0.1082687 -0.021651063
-0.07766347 0.07732327 0.08971137 0.089006186 -0.1084338 0.111661516 -0.11183852 -0.07853361

fc.weight f4 [1, 50]
00000000: e869 233d 0a48 9cbd b276 17be 0f40 c23c
00000010: 733b 49bd 339f e9bd d8a2 0f3e 32f9 0d3e
00000020: f0e3 5abd ff5f e73d 8064 9c3d 6657 733d
00000030: cc33 52bd ce7c 12be 6feb 233d 777a 813d
00000040: 452e b5bd f18e b6bd c246 d1bd 7a93 aabd
00000050: 533e ed3d 4418 a53d cef4 d1bd c391 eb3d
00000060: 8951 e4bd 0f73 8fbd 1729 0cbe 96d5 943c
00000070: 3151 29bd f3e5 18be fecf 1f3d 0a4a 8f3d
00000080: dca9 8bbd 4dca 153d 401f 97bd 7661 a6bd
00000090: 998e 413d 9be5 47bd 895a 3e3d 868c 593c
000000a0: d4fb 2b3d c19b 94bd a9d8 663d 8efc c33c
000000b0: 3e34 243c e1ce e33d a81a 8ebd 5c78 b73d
000000c0: 9bfe abbd 777e a5bd
0.039895922 -0.07630928 -0.14791372 0.023712186 -0.04912896 -0.11407318 0.14026964 0.13864592
-0.053440034 0.11297607 0.07636356 0.05940952 -0.05131893 -0.14305422 0.04001945 0.063221864
-0.08846716 -0.08913983 -0.10218574 -0.0832891 0.11584153 0.08061269 -0.10251771 0.11502411
-0.11148364 -0.070043676 -0.1368755 0.018168252 -0.041337196 -0.14931469 0.039016716 0.06996544
-0.068195075 0.036569882 -0.07379007 -0.08124058 0.047255132 -0.048802953 0.04647306 0.013278132
0.04198821 -0.0725627 0.056358967 0.023924138 0.010022221 0.111234434 -0.06938678 0.089585036
-0.083981715 -0.08080762
