models/DOGE_USDT_model.pt (torch, 128197 bytes, 9 tensors)

lstm.weight_ih_l0 f4 [200, 1]
000000 13 07 f4 bd cc b3 de bc c0 a9 4c 3b 28 25 f1 3d
       -0.11915412 -0.027185343 0.0031229109 0.11774665
000010 0b d1 42 bd 94 fd 88 3d 38 4c c5 bd 8d c5 a1 bd
       -0.04756264 0.06688991 -0.09633678 -0.07899008
000020 f5 e8 c0 bc f1 61 f8 3d c6 97 ac 3d 6d 76 7d bd
       -0.023548583 0.12128056 0.08427386 -0.061880518
000030 a1 90 90 bd d7 f5 bb bd 14 30 c0 bc 04 08 82 3c
       -0.07058836 -0.091777496 -0.023460425 0.015872963
000040 11 2e a7 3d d6 20 82 3d 4f 43 7f 3d 56 a6 f0 bc
       0.08163083 0.06353919 0.06232005 -0.02937619
000050 a7 46 b5 3d be 54 22 3e fe 9a 7e bd 5a 5d 03 3e
       0.088513665 0.15852639 -0.06215953 0.1282858
000060 7d b3 08 3c 41 2c b2 3b f1 9e 59 3d 82 4d 6d bd
       0.008343575 0.0054374044 0.053130094 -0.057935245
000070 97 70 b3 bc b0 be 27 bd ee 34 bd 3d 32 07 83 3d
       -0.021904273 -0.04095334 0.09238611 0.06397857
000080 37 51 64 bd 80 7a dd bd 70 bd 21 3e b6 46 0e 3e
       -0.055741515 -0.10814381 0.15794921 0.13894162
000090 69 9c a5 bd 24 64 cd 3d e7 77 e9 3d a4 9b 65 bd
       -0.080864735 0.10028866 0.11399823 -0.056056634
0000a0 9d 18 58 bd d4 32 3c 3d 46 a1 17 3d 85 97 ef bd
       -0.052757848 0.04594691 0.037019037 -0.11698822
0000b0 a8 d7 eb bc 9f c2 c6 3d 3c db 22 3e 8b d4 be 3d
       -0.028789356 0.0970509 0.15903944 0.09317883
0000c0 ab 35 d6 bc 22 96 a8 bd b3 e9 31 bd c0 32 9a bd
       -0.026148638 -0.082317606 -0.043435764 -0.07529211
0000d0 65 1c c6 bd 50 5a 59 3c 02 9d f6 3c 8a 46 a1 bd
       -0.096733846 0.013266161 0.030104164 -0.078747824
0000e0 43 89 1b 3e ba a3 a8 3d bf f0 05 be 9d 9c 15 3e
       0.1518908 0.08234353 -0.13080119 0.14610524
0000f0 a1 42 ac bd 98 ae 5d 3c ad dc 8d bd e2 28 83 bd
       -0.08411146 0.013530396 -0.06926856 -0.06404282
000100 df b6 c7 3d 64 a0 40 bd 29 d5 9b bc 73 cb f2 3d
       0.09751677 -0.04702796 -0.019022541 0.11855211
000110 49 e2 e2 bd ab f6 bd bb a7 88 5a 3d 05 23 01 3e
       -0.11078317 -0.0057972274 0.053352978 0.12611015
000120 0a 35 49 3d ac 0c 80 bc d5 f6 64 3d 9e 70 f9 bd
       0.049122848 -0.015631042 0.05589946 -0.12179683
000130 01 c5 91 bd 99 dd 39 3d 66 22 1c bd cb fa 48 3d
       -0.07117654 0.045377348 -0.038118742 0.0490673
000140 c5 6d fd bd 34 01 14 bd b1 95 0f 3e 43 96 c8 bd
       -0.123744525 -0.03613396 0.14021946 -0.09794285
000150 a3 17 bb bd 0e 92 c1 bb 93 d4 44 bc d8 d0 ba 3d
       -0.09135368 -0.0059073037 -0.012013572 0.09121865
000160 6c ec e0 bd 76 4b 78 bc 7a 85 04 3e 30 92 ab bd
       -0.10982594 -0.01515471 0.12941542 -0.083774924
000170 45 a4 dd 3c b6 30 0d be 1d f0 63 bd 00 44 68 bd
       0.027055869 -0.13788113 -0.05564891 -0.056705475
000180 51 07 dc 3b 14 c5 a6 bd ac e0 f4 3d 31 d7 77 3b
       0.0067147394 -0.081430584 0.11956915 0.0037817473
000190 53 96 9e bd fc d7 db 3d d8 d1 99 bd 18 51 84 bb
       -0.07743516 0.10734555 -0.07510728 -0.0040379874
0001a0 20 1e 0e 3e 0b 93 db bd 9f d1 4b bd 39 5c f1 bd
       0.1387868 -0.107214056 -0.049760457 -0.11785168
0001b0 c9 ab a2 3d 38 e5 8e bd 0a 15 e4 3d d6 30 43 3d
       0.07942922 -0.06977314 0.111368254 0.047653995
0001c0 ac 50 1e 3e 26 3b af 3d b8 ff 16 bd 81 4b 02 be
       0.15460461 0.085562035 -0.036864966 -0.12724115
0001d0 b7 6b 09 3e 74 b8 77 3c 5b fa 88 bd 5e 1d e8 bd
       0.13419996 0.015119661 -0.066883765 -0.11333726
0001e0 eb 41 11 3b 18 f8 a9 3d af 0d 6a 3d dd 77 8a 3c
       0.0022164534 0.08299273 0.057141956 0.016902858
0001f0 69 00 5b 3d 3a a4 9b bd 58 20 58 bd 4a 45 fe bd
       0.053467188 -0.07599683 -0.05276522 -0.124155596
000200 ec 92 f0 3d 42 ce cb 3d 6b 0a b7 bd 86 36 e3 bd
       0.11746773 0.0995145 -0.08937534 -0.11094384
000210 85 18 02 3e ce 21 bb bd ed 4b 99 bb 47 9a d7 3c
       0.12704666 -0.09137307 -0.0046782405 0.026318682
000220 23 50 fd 3d 65 d6 33 bd e7 af 14 be f2 48 89 bd
       0.123688005 -0.043905634 -0.14520226 -0.06703366
000230 2a a1 8c bd 2d 6a 93 3d ab 79 aa 3d e2 44 89 bc
       -0.06866677 0.07197986 0.083239876 -0.016756479
000240 2c fc 8e 3d 5d cb 40 3c 1d 93 c3 3d 7a 83 8f 3d
       0.06981692 0.011767236 0.09549544 0.07007499
000250 30 70 c4 3d 3b 70 f0 b9 44 c3 e9 3d 5d 94 d4 3d
       0.095917106 -0.00045859985 0.11414197 0.103798606
000260 64 3b f9 bd 7d c5 5c bd a4 7e 07 3e 94 99 57 3c
       -0.12169531 -0.053899277 0.13231903 0.0131591745
000270 17 20 ac 3d d3 f6 cc 3d ae ab 79 bd f6 d7 b5 3d
       0.08404558 0.100080155 -0.060954742 0.08879082
000280 de 69 b3 3d f9 8f 01 3e 3d ae c6 bd c5 ab a2 3d
       0.08760427 0.12652577 -0.09701202 0.07942919
000290 7b 5e 2d 3c 92 ad 94 bd c8 6a 96 3d 94 a7 2a 3d
       0.010581608 -0.072596684 0.07344586 0.04166372
0002a0 ed 78 e5 3d 60 65 20 bd b3 09 cd bc ff 87 2f bc
       0.112047054 -0.03915918 -0.025029039 -0.010713576
0002b0 75 a9 01 3e d1 b9 c2 bd b8 12 82 3d ad 34 8f bd
       0.12662299 -0.09508098 0.063512266 -0.06992469
0002c0 7d 3b cc 3c 65 3e 12 3e cf 7d 85 3d 60 07 ae bc
       0.02493071 0.14281614 0.06518137 -0.021243751
0002d0 2a 7e b0 bd 82 e6 14 3e d4 d8 6a bd e1 9f da bd
       -0.08617814 0.14541057 -0.05733569 -0.10675026
0002e0 0c 2e cc 3d e8 fd e9 3d b5 92 11 3e 46 b1 95 bd
       0.0996972 0.11425382 0.1421612 -0.07309203
0002f0 82 b7 ee bd 3e 71 f0 3d be 3d ea 3c 2f 05 17 3e
       -0.11656095 0.11740349 0.028593894 0.14748071
000300 b3 60 4b bd 9f 4b c2 3d 4f ac 7b bb de 26 0f 3e
       -0.049652766 0.0948708 -0.0038402264 0.1397967
000310 ff 2b e3 3c 6a 6c ff 3d 3d 88 05 3e a0 83 1c 3e
       0.02773094 0.1247185 0.13040252 0.15284586

lstm.weight_hh_l0 f4 [200, 50]
000000 33 51 cb bd 2e 04 e8 3c 57 62 c7 3d 78 46 86 3d
       -0.09927597 0.028322306 0.09735554 0.065564096
000010 ee 4d 0e 3e 28 ad 23 be e7 bb 0f bd aa b5 df 3d
       0.13896915 -0.15984023 -0.035091307 0.109233215
000020 3c b7 c8 3c dd 1e 92 3d 0a e5 cc bb 45 60 08 3e
       0.024501435 0.07134793 -0.0062528895 0.13317974
000030 7a 03 b0 ba de a6 22 3d 74 f1 79 3d 6a af d9 bc
       -0.001342877 0.03970992 0.061021283 -0.026572902
000040 4e c5 0e bc 38 32 8c bc c6 54 89 3d 53 2e 0d be
       -0.008714033 -0.01711379 0.067056224 -0.13787203
000050 a8 ef 93 3d c0 ae 09 3d 36 7e 84 bc b9 eb 14 bc
       0.07223445 0.03361392 -0.016173463 -0.009089404
000060 b4 69 1b 3e ef e7 97 3d f7 4f 60 bd cf bc bc bd
       0.15177041 0.07417285 -0.05476376 -0.092157
000070 d9 41 d7 3d 09 9a 74 3d 3c c4 3d bd 52 95 91 bd
       0.10510606 0.059717212 -0.04632972 -0.07108559
000080 61 8d d7 bd 76 60 26 3d 3b 1b 6d 3d 45 4f d7 3d
       -0.10525013 0.040619336 0.057887297 0.10513166
000090 b5 be 81 bd b5 56 dc bc 5e a8 7b 3d 28 05 cf bd
       -0.063352026 -0.026896814 0.061439864 -0.10108405
0000a0 87 23 f4 3d 16 5f 72 3d 5c 61 15 bd 0d f0 3d bc
       0.11920839 0.059172712 -0.036469802 -0.011592877
0000b0 b7 d5 a3 3d c9 98 ca bd dd c3 25 3d cb b1 a6 3d
       0.07999747 -0.09892423 0.040469993 0.0813938
0000c0 c0 55 f4 3c a9 d3 96 bd 1c e0 1a 3d 5b 25 cf bd
       0.029826045 -0.0736459 0.037811384 -0.10114547
0000d0 5f 5e d6 bd 13 62 e8 3c 22 b0 ec bc 83 fa 01 3c
       -0.104672186 0.028367078 -0.02889258 0.007933262
0000e0 db 6b ee 3c d9 3d 8f bd dc b9 c5 3c 3b c7 0f be
       0.029104164 -0.069942184 0.024136476 -0.14040844
0000f0 9f f9 65 bd 57 b2 82 bd 76 98 fd bd c6 ef 1e bc
       -0.05614626 -0.06381672 -0.12382595 -0.009700721
000100 1a c9 8f 3d 36 7b e7 3c f6 6e b8 3d 6c 7b bc 3d
       0.07020779 0.028256994 0.09005539 0.09203228
000110 30 50 b3 bd a0 e2 f3 bd e3 77 26 3d da 3f 41 bc
       -0.08755529 -0.1190846 0.040641677 -0.011795009
000120 7f a8 c8 bd 1c 61 e5 3d 0c b9 4b bd dc fe 68 bd
       -0.09797763 0.11200163 -0.04973702 -0.056883678
000130 2a be fa bc d6 c9 d7 bb d6 19 07 be 2d b7 c9 3d
       -0.030608255 -0.00658534 -0.1319345 0.09849391
000140 37 f7 33 bd 49 92 fc 3d b6 e7 86 bd ef 07 7b 3d
       -0.043936934 0.12332589 -0.06587164 0.061286863
000150 bb ed c2 bd 38 c9 c7 3d 7a 3f 8d bd fe 8a 49 3d
       -0.09518 0.09755176 -0.06896873 0.04920482
000160 a5 16 f9 bd fc fd 16 ba 44 94 a8 bb 4c f2 f6 bd
       -0.12162522 -0.00057598925 -0.0051446278 -0.12057933
000170 0c 57 e8 ba 3c c6 85 bb 9a 30 67 bd 5f bf ca bb
       -0.0017726137 -0.0040824693 -0.056442834 -0.006187364
000180 c1 70 8b 3d 50 3c 04 be de 1c b2 bd a8 e5 d0 bd
       0.068086155 -0.12913632 -0.08696912 -0.102000535
000190 ab f8 04 3d 73 06 9f 3d 70 fa de 3d 01 aa ec bd
       0.03246371 0.07764902 0.10887611 -0.11555863
0001a0 bd 63 36 3d 61 b5 05 3d 20 2a 07 3e 36 98 a0 3d
       0.04452871 0.03264368 0.13199663 0.07841532
0001b0 6d f6 3d 3d bf 70 c5 bd cf 20 71 bb f0 ac c1 bd
       0.046377588 -0.09640645 -0.0036793237 -0.09456813
0001c0 fc 54 02 3e e0 58 fd ba 71 59 d7 3b a1 7a 4b 3a
       0.12727731 -0.0019328855 0.0065719415 0.00077621086
0001d0 30 42 f0 3c 6c 1d b0 3d 70 e7 1d 3e 65 80 17 3d
       0.029328436 0.08599362 0.15420318 0.03698768
0001e0 4d 93 d9 bd ca 69 c0 bd bc 78 ef 3d 41 1e e1 bd
       -0.106237985 -0.09395178 0.1169295 -0.109920986
0001f0 96 63 05 3e 09 e8 bb bd 22 23 46 bd 7b a6 58 bd
       0.1302627 -0.091751166 -0.04837335 -0.052893143
000200 6f 4f 8e bd bf a0 aa 3d 55 66 8d 3c cf 33 3b bd
       -0.069487445 0.08331441 0.01726071 -0.045703705
000210 59 fc 05 bd c9 65 42 bd 11 17 99 bd 3d 88 e0 bc
       -0.03271136 -0.04746035 -0.07475103 -0.027408713
000220 89 1f 11 3c be 5a 0b 3e 64 bb c2 bd 3c fb f1 bd
       0.008857616 0.13608834 -0.09508398 -0.11815497
000230 bb 73 05 3e 60 8a 33 bd 88 59 00 3e 97 5d c1 bb
       0.13032429 -0.043833137 0.12534153 -0.0059010494
000240 2a b2 dc 3d 71 b8 00 3d ba 7a 2c bd 5d 6c d9 bd
       0.107761696 0.031425897 -0.04210923 -0.10616372
000250 21 1a 7b bd 97 30 da 3d 12 4d 25 3d c2 b0 7e bd
       -0.061304215 0.10653799 0.040356703 -0.062180288
000260 16 27 af bd 23 a8 21 3e 54 c2 7f 3c 5e 7d 0d be
       -0.08552377 0.15786795 0.015610296 -0.13817355
000270 ce 0f c7 3d 7d 62 86 bc 46 56 14 3e 21 b9 12 be
       0.097198114 -0.016404385 0.14486036 -0.14328434
000280 35 eb 03 3e fd 33 bd 3c 58 c8 f6 3d e9 8f b9 3d
       0.12882693 0.023096079 0.12049931 0.09060652
000290 ca ac b9 bd bd 4e 23 bd 78 c2 d3 bd a6 a0 69 3d
       -0.0906616 -0.039870013 -0.10339826 0.057037972
0002a0 54 12 c2 bc 3d fa 0b bc f7 93 7b 3d a2 af 10 bd
       -0.02369038 -0.008543548 0.061420407 -0.035323747
0002b0 0d ba 1e 3d 86 17 1c 3d b7 40 ec bd 09 99 84 3d
       0.03875165 0.03810837 -0.11535781 0.06474502
0002c0 d1 dc ec bd 36 f3 fd bd 8f c9 ad 3d b1 15 a5 3c
       -0.11565555 -0.123999044 0.0848571 0.020151945
0002d0 03 1b dc 3c ab 4a e8 bd 98 57 60 3c 2e 60 e3 bd
       0.026868349 -0.11342367 0.013692759 -0.11102329
0002e0 55 2a 7c 3d dc 9c 93 ba 8b b0 3a 39 bc 33 3c bc
       0.06156381 -0.0011261958 0.0001780411 -0.011486944
0002f0 60 36 3e bd ef 63 fa 3d e6 e0 f3 b9 ee 74 29 bd
       -0.046438575 0.12226092 -0.00046516134 -0.04137128
000300 7b 0b 33 3d d3 f6 0c 3d 4e 9b d9 bd 49 c8 a9 3b
       0.04371212 0.034415077 -0.10625325 0.0051813466
000310 94 5a f6 3c a0 cf c1 3d c3 23 77 bd 5c 96 63 bd
       0.030072488 0.094634295 -0.06033684 -0.055563316
000320 80 47 c4 bd a0 c0 85 3c 9f 4a 89 bd 22 58 f7 bb
       -0.0958395 0.016327202 -0.06703686 -0.007548348
000330 cc 36 1f 3e 87 95 1e 3c 3f 55 4d 3b 81 94 e3 3d
       0.15548247 0.009679205 0.0031331328 0.11112309
000340 ad a8 72 bd dc ba 6c 3c c7 86 c9 bd 9e e5 38 bc
       -0.059242893 0.014448848 -0.0984016 -0.011285214
000350 3a f9 2f 3d d0 dc 15 be 4a 25 bc 3d 24 76 6d 3d
       0.04296229 -0.14635015 0.091868 0.057973996
000360 d1 b0 e3 bd 3e e4 b7 bb ab 8f fd 3d c7 17 a1 bc
       -0.111177094 -0.0056119254 0.12380918 -0.019664658
000370 0c f1 8f bc eb 36 b5 3d 91 76 11 3e 4b 6a f9 3b
       -0.017570995 0.088483654 0.14205386 0.007611548
000380 b4 44 fe 3d 0a 0c 19 3d eb 2d 01 be 5e a4 7b 3d
       0.12415448 0.037364997 -0.12615173 0.06143605
000390 fa b8 ce 3d 4a 0e b9 3c 7a d5 c6 bc 76 fe 21 be
       0.10093875 0.022589821 -0.024271715 -0.15819725
0003a0 22 4b 86 3d 8c e8 56 3d 90 2b 33 bc f9 6b fc bd
       0.06557299 0.052467868 -0.010935679 -0.12325282
0003b0 ba a5 57 3d 22 b5 f6 3d 16 55 d7 3d 10 3d 48 3d
       0.052648284 0.12046267 0.10514276 0.04888636
0003c0 dd 73 09 be 29 b3 eb 3d 1c 9d fa 3d 0e 2b f7 bc
       -0.13423105 0.115087815 0.122369975 -0.030171897
0003d0 7b b4 df bd 9b 2b 64 bd 52 74 23 3d d0 1d 94 bd
       -0.10923096 -0.055705648 0.039905854 -0.07232249
0003e0 ef 71 69 bd b1 a3 f7 3c 9d bb a9 bc c4 60 3c 3d
       -0.05699342 0.030229421 -0.020719344 0.04599072
0003f0 74 cb 0a 3d 32 19 9f bd 97 ca 93 3d c1 f1 73 3d
       0.033885434 -0.077684775 0.07216375 0.059556726

lstm.bias_ih_l0 f4 [200]
000000 a6 f9 39 bc 7c cb 4d bd b4 79 a0 ba a6 ad 65 3d
       -0.011351025 -0.050242886 -0.0012243302 0.056073807
000010 e7 1a c0 3d b8 17 f9 3d 4e 7a 5b 3c dd 98 eb bd
       0.09380131 0.12162727 0.013395859 -0.11503766
000020 55 ca d7 bd 35 c3 f1 3d 57 e6 83 3d 1c d4 1f 3e
       -0.10536639 0.11804811 0.06440418 0.15608257
000030 74 b0 13 3e ae 64 a1 3d 85 68 e2 bd c5 a9 1d 3e
       0.1442278 0.07880531 -0.11055092 0.15396793
000040 49 7d 93 3d db bb 03 3d 95 d7 f0 3c 04 f1 6f 3d
       0.072016306 0.032161575 0.029399673 0.05857946
000050 36 b5 b8 3d 16 11 3f bd 0a ae 11 3e 3b 8a f4 3c
       0.09018938 -0.046647154 0.14226547 0.02985107
000060 9b 4e 83 3c 6d 95 79 3d 26 5b 98 bd c3 f4 1d bd
       0.016028693 0.06093352 -0.0743926 -0.0385635
000070 33 80 ff bd 06 35 4d bd 47 27 e1 bb 04 1d f4 3d
       -0.12475624 -0.050099395 -0.0068711373 0.11919597
000080 cb 76 03 3c d8 3b b9 3d cb d8 00 3e 1e d2 55 3d
       0.008023928 0.090446174 0.125827 0.052202336
000090 ee 0d e0 bc 39 4d e7 bd 1c 3d 74 bd 73 01 f4 bc
       -0.027350392 -0.11294026 -0.05962859 -0.029785847
0000a0 cc 39 b5 bd 1b a3 93 3c a8 9f d5 3d ee d3 13 bd
       -0.088489145 0.01802211 0.10430843 -0.036090784
0000b0 78 7f 8d bc 53 ca f5 bd dc 6b 10 3e 31 27 cc bd
       -0.017272696 -0.12001481 0.14103645 -0.09968413
0000c0 41 a7 17 3b d5 49 da bb 66 72 8f 3c 78 67 b0 bd
       0.0023140463 -0.0066616335 0.017510604 -0.08613485
0000d0 64 79 aa bd 82 a9 14 3e ea 4c d5 bd 22 87 b4 3d
       -0.08323935 0.14517787 -0.10415061 0.08814837
0000e0 0f 7e b2 bd 39 ce f4 bc f8 44 19 3d 76 ae 2b bd
       -0.0871545 -0.02988349 0.03741929 -0.041914426
0000f0 9f 2c 02 be 2f 6a 37 bc 8e bd f8 3d e3 db f0 3d
       -0.12712334 -0.01119475 0.1214553 0.1176069
000100 f7 9c a1 3d bd ad ab bd 34 9a db bd d1 a9 ef bd
       0.07891267 -0.08382747 -0.10722771 -0.11702312
000110 7c 1f 97 3c 26 16 f3 3c 16 71 88 3d 16 87 52 bd
       0.01844763 0.029673647 0.066621944 -0.05139836
000120 59 34 ee 3d df 9a 4b 3d 68 04 4b 3d 1c 15 0e 3e
       0.11631078 0.049708243 0.04956475 0.1387524
000130 7e 6f c8 3d 7f b3 58 bd d3 31 53 3d 60 ef c1 bc
       0.097868904 -0.052905556 0.051561188 -0.023673713
000140 1f 7a 90 bd 8a 42 10 3e 36 02 8d bd d8 ed 91 3d
       -0.07054543 0.14087883 -0.06885187 0.07125443
000150 14 cd 99 3d 79 4f c9 3d 58 22 8a bd f9 c3 96 bd
       0.07509819 0.09829611 -0.06744832 -0.073615976
000160 fd 0f 0b 3e 78 80 f6 3d e4 75 bf bc af 7b 1e 3d
       0.13580318 0.12036222 -0.023371644 0.038692173
000170 6c 0f b4 bd bc df ed bd 49 42 48 3c a3 b7 cf 3b
       -0.08792004 -0.116149396 0.012222835 0.00633903
000180 77 57 10 3e 1e b5 0a 3e 38 63 0a 3e 17 1f 42 bd
       0.14095865 0.13545653 0.13514411 -0.04739293
000190 e5 e6 df 3d 8d 09 f1 3d 5b f7 a7 3d 2e 31 cf 3d
       0.109327115 0.117694 0.08201476 0.10116802
0001a0 e3 57 13 3e 8e b7 00 be 76 55 c5 3d 3c 2f 28 bc
       0.14388995 -0.1257002 0.09635441 -0.010265168
0001b0 75 c2 dc 3d 67 71 68 3c c1 43 e5 bd d9 fa 06 3c
       0.10779277 0.0141871935 -0.11194564 0.008238518
0001c0 78 90 cd 3d fc 7f a4 bd 21 ac a8 3d 56 0e e8 3c
       0.10037321 -0.080322236 0.08235956 0.028327148
0001d0 3f d4 97 3d cc da 83 3d 4a 2b c1 3c fc dc 72 3d
       0.074135296 0.064382166 0.023580212 0.05929278
0001e0 8a 05 0b 3d 24 26 1e 3e 06 4a f3 3d 49 c7 8d bd
       0.03394083 0.15444237 0.11879353 -0.06922776
0001f0 3b c7 c2 3d df f5 f9 3c bd 74 8f bd 15 e4 e0 bd
       0.095106564 0.030512748 -0.07004688 -0.10981003
000200 41 f0 21 bb e6 a4 8f 3d de d6 8d bc 2d d1 07 be
       -0.0024709853 0.07013874 -0.01731437 -0.13263388
000210 2d 06 20 bc da 00 c7 bd c8 e1 a3 bc 89 df 9a bd
       -0.009767097 -0.09716959 -0.020005122 -0.07562167
000220 8e 04 0c 3d 29 74 12 be d0 ba c0 bd 2f 71 fa bd
       0.03418403 -0.14302124 -0.09410632 -0.12228619
000230 73 d9 65 bc b1 6c 90 3d 31 92 03 3c 43 81 ce bd
       -0.014028895 0.07051981 0.00803046 -0.100832485
000240 d3 5e d8 3c 61 22 12 3d d7 fc 00 3e 86 e4 82 bc
       0.026412403 0.035677318 0.12596451 -0.01597811
000250 63 ca ba 3d 8d 04 a7 3d 53 60 4a 3d 2f 8b 9b 3d
       0.091206335 0.08155165 0.04940827 0.075949065
000260 d9 11 80 3d c3 87 07 3e fd e9 fa 3d 74 8b ef bd
       0.06253404 0.13235383 0.12251661 -0.116965204
000270 d7 4a f5 bc d4 cf 11 be 7d 18 ac bc 73 0e 0e 3e
       -0.029942913 -0.14239436 -0.02100777 0.138727
000280 cb ad 93 bd 53 a6 aa 3b 35 e8 25 3d 83 dd ad 3c
       -0.07210883 0.0052078157 0.040504653 0.02122379
000290 60 c5 06 3e 97 2e f2 bc 4c 56 8b bd 49 6e b4 bd
       0.1316123 -0.029563231 -0.06803569 -0.08810098
0002a0 53 50 94 3d ea 22 cb 3d b2 88 03 3e 9f d1 f8 39
       0.07241883 0.09918769 0.12845114 0.00047458426
0002b0 e3 c4 cf 3c de c9 df bd 51 3a 00 bb 5d 02 fd 3d
       0.025362438 -0.10927175 -0.001956601 0.123539664
0002c0 10 3d bd bd f0 84 d1 bd 1e ca 8f bd e8 2d 9b 3d
       -0.092401624 -0.10230434 -0.07020973 0.07577115
0002d0 c1 d4 ae 3c d2 29 8a 3d ae 66 85 3d 01 51 cd bd
       0.021341683 0.06746258 0.06513725 -0.10025216
0002e0 8f 0c a1 3d f6 7a 28 3c 0b c0 d3 3d 6d 11 d4 3d
       0.078637235 0.010283222 0.10339364 0.10354886
0002f0 dd 2e d9 3b 89 8d 44 bd 2f f3 34 3d a9 40 ce 3d
       0.006627901 -0.04798654 0.04417723 0.10070927
000300 71 99 7d bd 09 21 d1 3d d5 2f 71 bc 37 35 c5 3d
       -0.06191391 0.10211379 -0.014720877 0.096292906
000310 5b af e4 bd 6b 1a e6 bc 9f ed 05 3e f9 df 20 3e
       -0.11166259 -0.028088769 0.13078927 0.15710439

lstm.bias_hh_l0 f4 [200]
000000 85 5e ab bd 14 15 b8 bd 85 1e ba bd f3 72 1c 3e
       -0.083676375 -0.08988395 -0.090878524 0.15278225
000010 c3 8c e7 bd a8 5e c4 bb ab 05 22 3e 27 a8 cb bc
       -0.11306145 -0.005992729 0.15822475 -0.024860455
000020 ec b0 d5 3d b7 43 68 3d 55 74 14 3c 4b 56 66 bd
       0.10434136 0.056705203 0.009060939 -0.05623464
000030 de aa de bd f4 04 1d 3d 55 ad b8 bd ab 51 99 bc
       -0.10872434 0.0383348 -0.090174355 -0.0187157
000040 6d ad f1 3d eb 2a e0 3d d8 50 bd bc ef 2a eb 3b
       0.118006565 0.10945686 -0.023109838 0.007176749
000050 b8 6c 82 bd 5c 99 1f bd 29 d9 2d bd 59 b1 d1 3b
       -0.06368393 -0.038964614 -0.04244343 0.0063993153
000060 44 7f ec bd f6 7a b3 3d 82 2b c1 3d ba 6c bd bd
       -0.115477115 0.08763687 0.094321266 -0.092492536
000070 7d c1 8b bd 6c 7d 80 3d d0 1b cc bd 07 7c 8a bd
       -0.06824014 0.06273922 -0.09966242 -0.067619376
000080 7e 4f dd 3d ff e0 80 bd 5a bf 0c 3d fc ef 6c 3d
       0.108061776 -0.062929146 0.034362175 0.057846054
000090 64 44 72 bd ac 32 57 bc 27 47 b5 bc 95 5d 0e 3e
       -0.059147254 -0.01313464 -0.022128655 0.13902886
0000a0 f8 32 5f bd c5 7e 73 3d 11 31 82 bc 8e 0f 85 bc
       -0.054491967 0.05944707 -0.015892537 -0.016242769
0000b0 b7 42 f3 3d 25 03 a9 3d 72 14 9e bd f2 cc cc bd
       0.11877959 0.08252553 -0.077187434 -0.10000028
0000c0 b6 79 ab bd 99 c2 8c 3d 15 71 4d 3d 3e f9 0a 3e
       -0.08372824 0.06873054 0.05015667 0.13571641
0000d0 84 cd fc bd 7a 8c c9 3c e3 f1 ed 3d a5 da 74 bd
       -0.123438865 0.024603117 0.11618402 -0.05977883
0000e0 eb fe d8 3d 7d 30 26 3d 9f ea ed bd 92 32 69 bc
       0.10595497 0.040573586 -0.11617016 -0.014233248
0000f0 f5 a8 80 bd ed 34 72 3d b1 00 f1 3d f0 1f 28 3d
       -0.06282226 0.059132505 0.1176771 0.041046083
000100 7d 3d f6 3a 85 64 a2 bb 9a f6 e9 bd f5 63 b7 bb
       0.0018786635 -0.0049558305 -0.11423989 -0.0055966326
000110 c7 96 59 3d ee 28 41 3d 9b 82 23 bd 0f 62 c5 bd
       0.053122308 0.047158174 -0.039919477 -0.09637844
000120 b4 0e 16 3e b2 df cc bd 61 2d 88 bd c8 77 b2 bd
       0.14654046 -0.10003604 -0.0664928 -0.08714253
000130 5a a5 a2 3d 5d bb 9f bc 1e 2d 6f 3c c4 97 6f bc
       0.079416946 -0.019498521 0.014598159 -0.014623586
000140 85 fe c9 3c b4 6b cc bc 13 02 de 3d ca 7f 7a bd
       0.024657497 -0.0249537 0.108402394 -0.061157025
000150 9a e8 1c 3d dc 16 01 3b a9 6a e9 bd aa e5 f1 bd
       0.038307764 0.0019697463 -0.11397297 -0.11811383
000160 d5 fa 2b 3b f3 c8 a8 3d 89 f1 9e 3c 3a 1c d7 bc
       0.0026242037 0.08241453 0.019402282 -0.026258577
000170 7c ea 92 bd dc 20 b5 bd a8 15 e8 3d d1 59 f2 bd
       -0.071736306 -0.08844158 0.113322556 -0.11833537
000180 9e bf f5 3b b6 8b 81 3d 55 5a 53 bd 5b fb e5 bc
       0.007499649 0.06325476 -0.05159982 -0.028073957
000190 75 5f 0e 3e 4f a1 1e bb 07 89 e9 3d bd 3d fc bb
       0.13903601 -0.0024205034 0.11403089 -0.0076977895
0001a0 6a e1 00 3d f6 77 a1 3d 73 94 fc bd 48 23 15 3e
       0.03146497 0.07884209 -0.12333002 0.1456424
0001b0 52 53 da 3d 6e 4c 13 be 60 63 f2 3d 27 bc 15 bb
       0.10660423 -0.14384624 0.118353605 -0.0022847743
0001c0 41 29 20 3c 64 69 b0 bc 54 b1 94 3d fa b5 54 bc
       0.009775461 -0.02153463 0.07260385 -0.01298284
0001d0 6d e9 dd bd 96 6d 02 bd af 4a a3 3d e8 04 b1 bd
       -0.10835538 -0.03184279 0.07973229 -0.08643514
0001e0 c9 6f be 3d 98 04 02 3e 34 dd 8f bd 91 04 f7 3d
       0.09298665 0.12697065 -0.07024613 0.12061418
0001f0 58 43 26 3d 64 91 f6 bd b6 97 af 3d 86 f4 4d 3a
       0.040591568 -0.1203945 0.085738584 0.0007856566
000200 a1 2d c7 bd a7 9b ea bd 15 05 bf bd c9 9e 0f bc
       -0.097255 -0.114554696 -0.09327141 -0.008765885
000210 d2 a7 9e 3c 7b 7c 9f bb 01 a0 c0 bd 00 23 20 3d
       0.019367132 -0.004867134 -0.09405518 0.03909588
000220 5e 8c 5b 3c 04 bf fa bd 54 18 89 bc 60 55 e7 3c
       0.013400165 -0.122434646 -0.016735233 0.028238952
000230 9a 2d d3 bd 8f 3f ca 3d f5 9d 10 3e ed a7 f6 bb
       -0.10311432 0.09875404 0.14122756 -0.0075273425
000240 a2 20 d7 3d 27 e7 93 3d ee a4 fe bb c3 83 42 bc
       0.10504271 0.07221823 -0.007771126 -0.011872235
000250 fa 51 a1 bc 58 0e 10 3e a5 f8 95 bd 39 03 83 bd
       -0.01969241 0.14067972 -0.07322816 -0.06397099
000260 1c 62 de bd e9 98 90 3d 53 97 a7 bd 25 86 1c 3e
       -0.10858557 0.07060415 -0.0818316 0.15285547
000270 d9 71 fc 3d b3 e1 01 3e c8 00 8f bc a9 08 92 bd
       0.12326402 0.12683754 -0.017456427 -0.07130558
000280 08 fe a1 bd ec 13 db 3d c3 8b 1e 3e 3f 2e a2 3d
       -0.07909781 0.10697159 0.15483002 0.07918977
000290 f9 3d 12 bd bc 4c 33 bc c9 51 d7 3d 5e 85 97 bd
       -0.035703633 -0.010943588 0.10513646 -0.07398485
0002a0 19 e4 3e bd 30 c1 bd 3d 6b 45 c8 3d 42 fa 21 bd
       -0.04660425 0.09265363 0.097788654 -0.039545305
0002b0 8c fb 5f bd 72 88 84 bd de a4 b3 3c ea 3a fd bd
       -0.054683253 -0.064713374 0.0219292 -0.123647526
0002c0 06 60 bd 3b f4 d1 90 3d 3b 1b 4a 3d 42 28 e2 bc
       0.005779269 0.070712954 0.049342375 -0.027607087
0002d0 83 d8 09 be 2e 56 bc 3d 21 fe 03 bd 3a ca 12 3e
       -0.13461499 0.09196125 -0.032224778 0.14334956
0002e0 b0 70 20 3d 7d 2a 69 3c 00 1e 12 3d 62 1a 59 bd
       0.039169967 0.014231321 0.03567314 -0.053003676
0002f0 68 3a a1 3d da de 80 3d b0 04 0a 3e 28 16 6e bc
       0.07872468 0.062925056 0.1347835 -0.01453165
000300 5f e1 0d 3d c7 db 67 3d dc ec d2 bd 28 c8 5c bd
       0.03463876 0.05660608 -0.102990836 -0.05390182
000310 97 a4 2d 3d 05 42 e3 bd 3c 50 f6 bd e6 84 cd 3c
       0.042393293 -0.110965766 -0.12027022 0.025087785

lstm.weight_ih_l1 f4 [200, 50]
000000 85 43 d9 3d 97 89 c1 bd f7 b9 11 3e 3c e0 18 3e
       0.106085815 -0.09450071 0.14231096 0.14929289
000010 e3 15 7c bd 98 82 a1 3d ac f6 2f bd 0f ae 88 3d
       -0.06154431 0.07886237 -0.042959854 0.06673824
000020 71 16 89 bd a5 c8 83 3d c3 b3 72 3d c1 8a 79 3d
       -0.066937335 0.06434754 0.059253465 0.06092334
000030 7d 6c 22 3e cd e3 9c 3d a3 33 e0 3d 65 61 10 bb
       0.15861697 0.07660637 0.10947349 -0.0022030708
000040 8b 40 bf bd a4 be ca bd 6c f0 d5 3d b0 6f 0f 3c
       -0.093384825 -0.09899643 0.104462475 0.008754656
000050 c6 53 ed bc cd d8 75 bc a9 08 d4 bd 4e 9b 42 3d
       -0.02897061 -0.015005303 -0.10353214 0.04751139
000060 53 9a 5f bd 12 df fc 3c 96 7e b8 bd 4f d8 94 bd
       -0.054590534 0.030868087 -0.09008519 -0.0726782
000070 c4 cb d5 3d 9c c0 6e 3d 86 aa 9f bd 15 65 53 3d
       0.10439256 0.058289155 -0.07796197 0.05161007
000080 aa a2 24 3e f4 b7 e9 3c 0e 49 12 3d fa c6 10 3e
       0.16077676 0.028530098 0.0357142 0.14138404
000090 63 c4 0a 3d d2 21 d8 3c 29 d5 75 bd 01 73 a5 bd
       0.033878695 0.026383314 -0.06001774 -0.08078576
0000a0 93 bc 9b 3d a4 61 0f 3e 59 7e 82 bd 10 07 ba 3c
       0.07604327 0.1400209 -0.06371755 0.022708446
0000b0 43 62 1f 3e ef bb 75 bd 2e 10 e7 bd ee b2 23 bd
       0.15564828 -0.05999368 -0.11282383 -0.039965563
0000c0 cf 26 fa bc 58 91 f8 bd fc 30 c6 bd eb 9b 87 3d
       -0.030536084 -0.12137097 -0.09677312 0.06621536
0000d0 db 99 bc 3a 2a 94 5f bc 15 cc ef bd e9 4d f2 bc
       0.0014389114 -0.013646165 -0.117088474 -0.029578166
0000e0 f8 5a 75 bc 66 8e e1 3d a3 22 93 3d b1 a3 c9 bd
       -0.014975302 0.110134885 0.07184341 -0.09845675
0000f0 5e ac b5 bd 5a 66 26 3d 7d d2 87 3d 86 ba ab bd
       -0.08870767 0.040624954 0.06631944 -0.08385186
000100 c7 60 90 bc ab 90 95 bd 16 42 8a bd 42 25 7a 3d
       -0.017624272 -0.07302984 -0.06750886 0.061070688
000110 66 b7 05 be 3a b8 86 bd 73 dc c6 bc cd d1 88 bd
       -0.13058242 -0.06578107 -0.02427504 -0.06680641
000120 42 96 79 bd 00 0a 67 bc f4 fb 07 3a 6a 04 1d 3e
       -0.060934313 -0.014101505 0.0005187385 0.15333715
000130 88 76 59 bd a7 a7 9e 3d 1a 63 04 3e ec cb d0 bc
       -0.053091556 0.07746821 0.12928429 -0.025487863
000140 c8 99 1d bd b0 c9 e5 bd 56 8c 1a bd de ca 02 3e
       -0.038476735 -0.112201095 -0.03773149 0.127727
000150 04 3a 1f 3e 07 e3 e4 bd 5f 13 23 3d a1 da 1b 3d
       0.15549475 -0.111761145 0.039813396 0.038050298
000160 4b b6 fd 3d 0d 6a 1b 3e 59 51 9b bc cc 6e 5f 3c
       0.12388285 0.15177174 -0.018959688 0.013637256
000170 63 62 fb 3c a7 19 e8 bd 05 1a 94 3d d7 7b d4 bd
       0.030686563 -0.11333018 0.07231525 -0.10375183
000180 e5 8e b2 3d b0 cc e0 3d 3a ae 8f 3c 60 de 48 bd
       0.08718661 0.10976541 0.017539132 -0.0490402
000190 c5 ed c0 3d 6e 82 e9 bc 46 2a 05 3d f4 e4 87 3d
       0.09420351 -0.028504577 0.03251102 0.06635466
0001a0 33 08 ba bd aa 0d 16 be 2a f4 ee bd 4f 71 dd 3d
       -0.09083595 -0.1465365 -0.11667664 0.108126275
0001b0 aa 80 91 3c 93 cf 61 bd fa 2d b9 3c 9f 33 bf bd
       0.017761547 -0.0551296 0.022604931 -0.09336018
0001c0 74 34 9d 3c 05 8d 89 bd 39 59 d3 bd 23 af ac bd
       0.01919005 -0.067163505 -0.10319752 -0.08431842
0001d0 40 e0 0e bd 74 97 9f 3d 94 a8 cd 3c 47 0c 16 3b
       -0.03488183 0.07792559 0.025104798 0.0022895501
0001e0 01 ac 7c bc d8 71 9b bd 43 ee 1c 3d 24 7e 0f 3e
       -0.015421868 -0.07590073 0.03831316 0.14012963
0001f0 01 9b bb bd d1 1d 55 3d ed b8 0d 3e 75 8c 96 bd
       -0.09160424 0.05203039 0.13840075 -0.07351009
000200 02 ce e5 3d 2e 59 cb 3c f8 a3 ba bd 52 25 c3 3d
       0.112209335 0.024822798 -0.09113306 0.09528603
000210 cd 2c 7b bc 5f 9f b3 bc f1 50 e8 bc 33 1d d9 bd
       -0.015330506 -0.02192658 -0.028358908 -0.106012724
000220 0f 25 c7 3d e7 9d cf 3c 24 70 d7 3d e7 ec da 3c
       0.09723865 0.025343848 0.10519436 0.026724292
000230 a8 e1 cf bd 46 d2 9b bd 95 1f b4 3d db ff 8e bd
       -0.101504624 -0.07608466 0.08795086 -0.06982394
000240 e4 4b 1e ba b1 3f 69 bd 7b 19 11 3d d3 c8 11 be
       -0.000603853 -0.056945506 0.03542469 -0.14236765
000250 91 59 86 bc 1c 0c 40 bd 94 4d e1 3d 14 6f b8 bd
       -0.01640013 -0.04688655 0.11001125 -0.090055615
000260 01 18 ec bd a0 5a cf 3d 46 2a 5a bb 69 0b ef bd
       -0.11528016 0.10124707 -0.0033289357 -0.11672098
000270 ee 2c 4a bd 55 a6 81 bd c2 7e eb 3d c7 4a 96 3d
       -0.049359255 -0.063305534 0.114987865 0.073384814
000280 67 19 b7 bc 35 9f 22 3d 65 60 e5 3c ab 83 a1 bd
       -0.02235098 0.039702613 0.028000066 -0.07886442
000290 9f 26 80 3d d1 4a 50 bc 12 ee ef bc 02 1c 1b be
       0.062573664 -0.01271315 -0.029288325 -0.15147403
0002a0 6e eb fb 3d eb 9f c4 bd fc 50 80 3d 8d 7f 06 be
       0.12300764 -0.096008144 0.062654465 -0.13134594
0002b0 47 7a 14 bd 5d ee 43 3d 4a c6 bd 3d d5 5e 8c 3c
       -0.036249425 0.047834743 0.09266336 0.017135063
0002c0 eb 59 8b bd dc fb 05 3d 72 c8 00 3e 1c 27 fe bd
       -0.0680426 0.032710895 0.12576464 -0.12409803
0002d0 5b e7 46 bd 36 c6 17 3e d8 d4 be 3c 15 b0 62 3d
       -0.04856048 0.14821705 0.023294851 0.055343706
0002e0 0c 2d ff bd 82 4a 1a bd c8 50 3c 3b 07 9b 9a 3b
       -0.12459764 -0.037668712 0.0028734673 0.0047181877
0002f0 46 86 15 3c cd c9 8f 3d c4 e0 6d bd be 21 8a 3d
       0.009126252 0.07020912 -0.05807568 0.06744717
000300 5b ea a8 3c ad 5c 1a 3e cd 6e a3 bd 20 f1 71 3d
       0.020619562 0.15074416 -0.07980118 0.059067845
000310 b6 85 d8 bc e3 b7 f9 bd f1 05 8f 3d 4d ba 12 be
       -0.026430946 -0.12193277 0.06983555 -0.1432888
000320 ac c1 7a 3d aa ce 62 bc 0d cc 67 bc 7a 84 d3 3b
       0.061219856 -0.013843218 -0.014147771 0.0064550014
000330 ce e7 73 bd a0 bb d5 3d ee 68 37 bd d0 a7 e3 3d
       -0.059547238 0.10436177 -0.044777803 0.11115992
000340 da 3b fa 3b 02 c3 1c 3d 4d f9 97 3d 99 c3 d4 bc
       0.0076365294 0.03827191 0.07420597 -0.025972174
000350 af d0 22 3e 05 12 89 bd 2a db f6 3d 9e ea 4c bd
       0.15899919 -0.0669289 0.12053521 -0.050028436
000360 e0 49 c4 3d 42 02 be 3b d2 99 5a bd b0 03 15 be
       0.09584403 0.005798609 -0.05336935 -0.14552188
000370 a9 b4 15 3e 32 a0 38 bd e7 73 10 3e 0a 4c 10 3e
       0.14619698 -0.04507465 0.14106713 0.14091507
000380 08 ef b7 3d f0 d8 0b be b2 83 3f 3d 1c 1b de bd
       0.089811385 -0.13656974 0.046756454 -0.108450145
000390 d4 84 fc 3d 34 ce f0 3c 92 1a 04 3d fe ea 98 3d
       0.123300225 0.0293952 0.032251902 0.07466696
0003a0 04 e7 94 bd 72 3e 75 3d a3 10 68 3d 96 fa da 3d
       -0.07270625 0.059874006 0.05665649 0.10692327
0003b0 3e 1b 25 3c 49 22 c9 3d 7a 38 06 ba 71 3a 6b bd
       0.010077296 0.098209925 -0.000512011 -0.05742878
0003c0 14 37 a2 bc 58 1b a0 3d 87 2f db bd c3 e0 f7 bd
       -0.019801654 0.078177154 -0.107024245 -0.12103417
0003d0 a6 42 1b 3e f2 26 a5 3d 52 c2 a4 3d 7a b6 bd 3d
       0.15162143 0.08064069 0.08044876 0.0926332
0003e0 0b 92 17 3e 01 fc b4 3d cb c6 93 bc 52 c9 2d bc
       0.14801805 0.088371284 -0.018039128 -0.0106070805
0003f0 2a 4f 82 bd bf 88 94 bd 75 62 1a 3e 6b 46 b7 3c
       -0.063627556 -0.07252645 0.15076621 0.022372445

lstm.weight_hh_l1 f4 [200, 50]
000000 08 db 16 be 5f 1a 10 bd 77 25 52 3d d1 1c d2 bd
       -0.14731991 -0.0351814 0.05130526 -0.102594025
000010 dd f4 3e bd 1f 47 24 bd 22 d0 96 3d 53 35 f3 bc
       -0.04662024 -0.04010689 0.07363917 -0.029688513
000020 05 53 b9 3c ae 72 05 be 8b cd ab bb 16 c2 c2 3d
       0.022622595 -0.13032028 -0.0052430085 0.09509675
000030 61 09 1b 3e 25 16 54 3d fe da de 3d 1e c5 cf bd
       0.15140297 0.05177893 0.10881613 -0.10145019
000040 07 03 68 bd cd 7c 88 bd a8 98 e7 3d e9 8c 7e bd
       -0.056643512 -0.06664429 0.11308414 -0.0621461
000050 ca 32 1f 3e fb 71 0d 3c 38 a8 68 bd c3 0c 9a 3d
       0.15546718 0.008633132 -0.05680105 0.07521965
000060 41 04 a8 bd 5b c8 44 3d 51 41 21 be cc 65 d6 3c
       -0.08203936 0.048042636 -0.15747572 0.026171587
000070 97 4b 8b 3d 39 8d 89 3d cf 46 ec bc 46 62 e3 b9
       0.06801527 0.06716389 -0.028842358 -0.00043370033
000080 df ae a4 bd f0 cb 3f bd c2 b3 c9 3c 8c 6d b3 3b
       -0.080411665 -0.04682535 0.024621848 0.0054757055
000090 f1 f9 38 3d 38 57 00 3e 6c df f2 3c e9 de 8d bd
       0.045160238 0.12533271 0.029647551 -0.06927282
0000a0 71 68 5e 3d 69 49 76 bd da 32 a7 bc e9 e6 a9 bd
       0.05429882 -0.060128603 -0.02040999 -0.08295996
0000b0 c6 06 28 3d 22 b1 eb bc 4e c2 3e bd fe e9 d5 3d
       0.041022085 -0.028770987 -0.046572022 0.10445021
0000c0 14 31 f0 bd 1a 2c a5 3d d1 63 06 3e 0f 36 05 3e
       -0.11728111 0.08065052 0.13124014 0.13008903
0000d0 00 5d b5 bd 20 67 a9 3d 63 13 07 be 9b 67 2a bd
       -0.08855629 0.08271623 -0.13190989 -0.041602712
0000e0 2d b4 ce ba b4 0e a0 bd 0d f7 19 3d 30 a5 ca 3c
       -0.0015770249 -0.078153044 0.03758912 0.02473697
0000f0 0d 13 ae bd 89 1b 58 3b a5 93 f9 3d 87 53 87 3d
       -0.084997274 0.0032975397 0.12186364 0.066077285
000100 22 06 e4 3d 95 51 f0 bd 12 c7 ac 3d 59 fd 18 3e
       0.11133982 -0.117343105 0.08436407 0.14940394
000110 ed f7 b3 bd 4d 6a 9d 3b 42 6c 81 bc 3a 1f 0c 3e
       -0.087875225 0.004803932 -0.015798692 0.13683787
000120 ba 8e ce bd c3 8a e5 bd e3 11 15 be f4 db 78 3d
       -0.10085817 -0.11208107 -0.14557604 0.06075664
000130 45 6f b9 3d 48 c3 d1 bb e0 9f 61 bd d8 c8 d8 3d
       0.09054426 -0.006401453 -0.05508411 0.10585183
000140 7b 81 2a bd ea da e8 bb f2 66 81 bd 4b b7 ac 3b
       -0.04162739 -0.0071061747 -0.063184634 0.0052708737
000150 ee b5 18 3d b8 da d2 3d de fb 22 3d 57 b0 f4 bd
       0.037282877 0.102956235 0.03979098 -0.11947697
000160 4b 69 11 3e 78 ff d8 bd fb 3d a0 bb 0e cc 52 bd
       0.14200322 -0.10595602 -0.004890201 -0.051464133
000170 90 a4 ee bd 95 65 8e 39 ed b4 37 bd 88 63 20 3d
       -0.116524816 0.00027160035 -0.04485028 0.03915742
000180 d6 c9 ac 3c 27 af fb bc 95 27 d3 bd 48 36 3f 3c
       0.021092337 -0.030723168 -0.10310284 0.0116706565
000190 4a 2c f4 3d ae 48 05 bd 2a 94 ad 3d fa ce 83 3d
       0.1192251 -0.032540016 0.08475526 0.06435962
0001a0 04 59 9b bd 4f cb 89 bd 6a a7 7b 3d 70 a7 af 3d
       -0.07585338 -0.06728231 0.061438955 0.08576858
0001b0 85 af ca 3d 66 a1 76 3d 06 c1 f4 bd eb 97 0f 3e
       0.09896759 0.060212515 -0.11950879 0.14022796
0001c0 cb d9 b2 bd c5 54 01 3e 1e 24 0f be aa 9e c5 3d
       -0.08732947 0.12629993 -0.13978621 0.096494034
0001d0 1e b6 95 bd 70 0c 4b 3d a8 a8 0f be 41 0d fd bd
       -0.07310127 0.04957241 -0.14029181 -0.123560436
0001e0 f5 14 f0 bc b9 b4 81 bd 2a 37 29 3d 20 92 35 3c
       -0.029306868 -0.06333298 0.041312374 0.011082202
0001f0 e6 c0 2f 3d aa 81 98 3d 40 8c b8 bd 0c 2a 1b 3e
       0.04290857 0.074466065 -0.090111256 0.15152758
000200 15 13 65 3d 9b eb 57 bd 00 7b a3 3b 0d 56 93 bc
       0.0559264 -0.052714925 0.004989028 -0.017985368
000210 25 9a 0e be b4 df c9 3d 73 35 05 3e de 21 43 bc
       -0.13925989 0.09857121 0.1300867 -0.01190993
000220 ce d6 ad bd 68 0e 16 be fe 3b 16 3d e0 4f 84 bd
       -0.08488236 -0.14653933 0.036678307 -0.064605474
000230 2b 8b af bd c8 1e 0b bc 63 2b cb 3d 38 b4 c6 bd
       -0.08571466 -0.008491226 0.09920385 -0.09702343
000240 d1 a0 14 be b4 15 6e 3c 4d 6c 2a 3b 88 f2 8b bd
       -0.14514472 0.014531542 0.0026004494 -0.068333685
000250 5e eb 4a 3d 2f 76 19 3d 6a 77 90 3d 30 20 ef 3c
       0.04954087 0.037466224 0.070540264 0.029190153
000260 b0 4f a1 3c 60 29 e1 3c 4d 5f d2 bc 0a c1 86 3d
       0.019691318 0.02748555 -0.025680209 0.06579788
000270 0b 5f 47 3d c3 c6 d4 3d f1 a0 36 bd fa 8f 79 bd
       0.048674624 0.10389473 -0.04458708 -0.060928322
000280 76 0c fb bd 32 2c 03 3e 86 8e 02 3e 27 78 88 ba
       -0.12258236 0.12809828 0.12749681 -0.0010411785
000290 76 d1 23 3c 4d 7d 24 bd d7 48 a9 bd e4 dc f3 bd
       0.00999867 -0.04015856 -0.08265846 -0.11907366
0002a0 87 a9 0d 3d b7 8a 02 3e 55 76 f7 bd 21 b3 06 3e
       0.034585502 0.12748228 -0.12083117 0.1315427
0002b0 a9 78 97 bc f0 e9 fa bc f2 02 25 bd 80 7b 82 3b
       -0.018490152 -0.030629128 -0.040286012 0.0039820075
0002c0 d8 5c ca 3d cb ef cb 3d 52 08 d9 bd 9b 68 cf 3d
       0.0988099 0.09957846 -0.1059729 0.10127374
0002d0 a5 ad cd bc 70 9f 7b 3d c2 42 bf bc 93 40 09 be
       -0.025107214 0.06143135 -0.023347262 -0.1340354
0002e0 cb db 12 be 29 da 08 be 51 c6 15 3d 62 3f 8c 3d
       -0.14341657 -0.13364471 0.036566082 0.06848027
0002f0 ca 45 b7 3d da 3d b7 bd 1e 19 55 bd c4 a6 39 39
       0.08948858 -0.08947344 -0.052025907 0.000177051
000300 e0 ff 1c bd 64 9b 37 3d ce 87 17 bd f8 1a 8a 3d
       -0.03832996 0.044825926 -0.036994748 0.06743425
000310 42 4c b5 bd a7 61 0e be f1 d1 81 bb a2 73 91 bc
       -0.08852436 -0.13904439 -0.0039617945 -0.017755333
000320 cb 1f 16 be 07 0c 15 be 37 13 e9 3d 9f 66 0c be
       -0.14660566 -0.1455537 0.11380618 -0.13711022
000330 80 3d 3a bd d3 ab 20 3e 4c fa bb 3d 5f 86 e8 bd
       -0.045468807 0.15690546 0.091786 -0.11353754
000340 d4 c3 d4 bd f1 b9 04 3e f9 75 f4 3d 09 2c 45 bd
       -0.10388914 0.12961556 0.11936564 -0.0481377
000350 38 43 35 bd 15 6d f0 bd 48 11 e0 bd 7d d7 eb bd
       -0.044253558 -0.11739556 -0.10940796 -0.115157105
000360 95 a6 c2 3d f5 ba 46 3c 51 69 89 3d 9e d2 4e 3d
       0.09504429 0.012129535 0.06709541 0.05049383
000370 98 1f 98 bb a9 2e 17 be 2a 38 05 be 7d 4f ff bd
       -0.004642438 -0.14763893 -0.13009706 -0.12466333
000380 b3 25 d3 3c 85 d7 5e bc a0 7a ee 3c a7 84 65 bd
       0.025774812 -0.013601189 0.029111207 -0.05603471
000390 58 47 d7 bd de e3 dc bc ae 54 8f 3b 3d f6 eb 3c
       -0.105116546 -0.026964124 0.0043741083 0.028803939
0003a0 9a a3 c4 bc 35 33 62 3d 82 08 8e 3d 1c 4c 79 bd
       -0.024003793 0.055224616 0.069352165 -0.0608636
0003b0 76 b1 19 3d 47 a5 73 3d a6 d0 ae bd 6c e3 bf bd
       0.037522756 0.059483793 -0.0853589 -0.09369549
0003c0 c0 fd 65 bd 5b bb cc bc be d2 8b 3c bf 66 fb 3d
       -0.056150198 -0.024991682 0.017068263 0.12275457
0003d0 6c 77 14 3b 7d ef 7c bc c5 db a4 3d e1 bc e1 bd
       0.0022654189 -0.015437958 0.0804973 -0.11022354
0003e0 d5 47 12 bd 46 d4 0c bb 8b 58 04 3e 07 24 ba 3d
       -0.035713036 -0.002148883 0.12924401 0.09088903
0003f0 c4 27 0d be 28 29 01 bd 24 f5 8f bd 72 c6 01 be
       -0.137847 -0.03153339 -0.07029179 -0.12673357

lstm.bias_ih_l1 f4 [200]
000000 61 8f 24 3e 38 4a f9 3c 6d 4d c6 bd 45 e7 d9 bd
       0.1607032 0.030430898 -0.096827365 -0.10639814
000010 48 c6 78 bd ba a1 a3 3d ea 5a 10 3b a8 89 14 3e
       -0.06073597 0.07989831 0.0022026845 0.14505637
000020 d4 f8 78 bd 6c c8 11 be 3e b2 a4 3d 5f 44 df bd
       -0.060784176 -0.14236611 0.080418095 -0.109017126
000030 14 e9 10 bd 19 bf c3 bd 69 35 b7 3d 52 e7 e2 bc
       -0.03537853 -0.09557933 0.08945734 -0.027698193
000040 01 5f 9e bd 06 aa fa 3c 79 09 14 bd 75 1f fa bd
       -0.07732964 0.030598652 -0.036141846 -0.12213031
000050 02 40 34 bd aa 92 04 3e a2 3a 15 3e f1 f0 ec 3d
       -0.044006355 0.12946573 0.14573148 0.115693934
000060 08 23 e4 bc 28 bd ad 3d 20 a8 03 3d a3 9b 15 3d
       -0.027848735 0.08483344 0.03214276 0.03652538
000070 df 72 0e bd 75 2a ba 3d 4a ab 5c bd 11 64 e4 3d
       -0.03477752 0.09090129 -0.05387429 0.11151899
000080 6a 30 63 3d 1c 15 5c 3c 91 fb 44 bd 2f 4b ca 3d
       0.055466093 0.013432767 -0.048091475 0.098776214
000090 8c 38 d4 bd 60 cc f0 3c 22 b8 9e bb dc 35 27 bd
       -0.10362348 0.029394329 -0.0048437277 -0.04082285
0000a0 af db 04 be f4 21 79 bd 3a 1c 16 3e ab 1a b6 bd
       -0.12974428 -0.060823396 0.14659205 -0.08891805
0000b0 56 7f d9 bd 73 3f 99 3b a3 7f f2 bd 55 95 cb bd
       -0.106199905 0.004676753 -0.11840751 -0.09940592
0000c0 9f 2f 09 3e 76 c6 84 3c b4 0d 00 3e c6 e1 34 bd
       0.13397072 0.016207915 0.12505227 -0.044160627
0000d0 ae c0 87 bc 91 52 65 3d 35 9d af bd 81 e9 b0 3d
       -0.016571369 0.055986945 -0.08574907 0.08638287
0000e0 2b 90 4b bd dc f9 e0 3b 1e 25 35 3d 5b ac 06 be
       -0.049698036 0.006865723 0.04422485 -0.13151686
0000f0 ee 02 aa 3d 57 bd b0 bd 79 6c b2 bd 8f 93 b9 bc
       0.0830134 -0.08629864 -0.08712096 -0.02265337
000100 43 a1 05 be a8 7d be 3d 56 a2 dd 3a 6e c6 9a bd
       -0.13049798 0.09301311 0.0016909342 -0.07557379
000110 57 d6 50 3d 6d 32 86 3d 77 28 87 bd c0 86 88 3d
       0.05098566 0.06552587 -0.06599515 0.066663265
000120 d7 d2 08 bd 52 89 a3 3c 73 cf 87 bd 26 e2 dc bd
       -0.033404198 0.01996294 -0.06631365 -0.10785322
000130 e0 f4 09 bd a5 5d cb bd 40 17 e6 bd e9 62 00 bd
       -0.033680797 -0.09929971 -0.11234903 -0.031344328
000140 c9 d3 6a 3d ef c6 7b 3d 25 96 f7 3d d9 fb fc 3d
       0.05733088 0.061469015 0.12089185 0.12352724
000150 e0 81 95 3d 17 dd bc 3d 7f 57 d7 3d 7e ae d8 bd
       0.07300162 0.09221857 0.105147354 -0.10580157
000160 1c 34 cc bd 04 c3 51 3c 4a d7 a1 3c e7 22 6c bd
       -0.099708766 0.012802843 0.019755978 -0.057650473
000170 39 eb 0d 3e 90 c5 c0 bd e4 d7 4a 3d d6 03 2f bd
       0.13859262 -0.09412682 0.049522296 -0.042728268
000180 66 cb f7 3d 95 c5 db bd c0 6c 31 bd d6 92 ba 3c
       0.12099342 -0.10731045 -0.043316603 0.022775095
000190 7b 6c a6 bd f9 ea f3 bd 74 8a 15 be be d7 10 bd
       -0.0812616 -0.11910052 -0.14603597 -0.035361998
0001a0 ec a4 bb 3d a4 ac ca 3d 91 03 c1 bc 1d e2 48 3c
       0.09162316 0.0989621 -0.02356127 0.012260941
0001b0 7f d6 ae 3d de 8a e9 bd 52 42 1f 3d 61 73 be 3d
       0.08537006 -0.1140344 0.038881607 0.092993505
0001c0 2d 3d e8 3d 2a e7 b3 3d 9e 4f 95 3d df 03 91 bd
       0.11339793 0.087843254 0.072905764 -0.070808165
0001d0 48 0c 01 3c 93 7d 1d bd 34 a6 50 3d b3 0c b8 bc
       0.007876463 -0.038449835 0.050939754 -0.022466993
0001e0 ef 2f ce 3d b5 ed fc 3c 09 8f c6 bd 27 3a 21 bc
       0.10067736 0.030875066 -0.096952505 -0.009840525
0001f0 11 62 7e 3d a1 76 c2 3d d1 ab 19 be 01 a4 1b 3e
       0.062105242 0.09495283 -0.15006949 0.15199281
000200 a7 0e f6 bd 63 ca e2 bc b4 60 78 3c ac b0 96 3d
       -0.120145135 -0.027684396 0.015159775 0.07357916
000210 ea 5e 0b be e4 38 60 3d 92 d9 f9 3d 0d ae c8 3d
       -0.13610426 0.054741755 0.12199701 0.097988226
000220 ec 15 f2 3d 96 2d 81 bd e8 4f aa 3c 8c 93 b5 bd
       0.118205875 -0.06307523 0.020790055 -0.08866033
000230 f0 34 e3 3d 7c 1f fd 3c c3 53 47 bd 96 71 84 bd
       0.110940814 0.030898802 -0.048663866 -0.06466977
000240 ee 7c 17 be 1b 52 19 3d d3 a3 08 be a8 2c 8c bd
       -0.1479375 0.037431818 -0.13343744 -0.06844455
000250 ad 3e 84 bc 11 dd 92 3c d7 d4 67 bd df ed 28 3d
       -0.016143167 0.017927678 -0.056599464 0.041242477
000260 00 27 a8 3c fd c0 3a 3d 8f e6 9f 3d e5 5b 9c 3d
       0.02052641 0.045594204 0.078076474 0.07634715
000270 fe e1 87 bc 2b 04 1e 3d 90 b8 fa 3d d4 97 06 bd
       -0.016587254 0.038578194 0.12242234 -0.03285964
000280 c7 6c 89 3d 1e 9e 86 3d 7c eb b4 3d 31 8c 00 3e
       0.06710201 0.06573127 0.088339776 0.12553479
000290 69 33 1d bd d4 76 99 3d b4 91 b6 bd 2f 7d 16 3e
       -0.038379107 0.07493368 -0.089145094 0.14696191
0002a0 92 60 9f bd a9 5a a1 3c 26 23 18 3e 7f 05 4a 3d
       -0.07782091 0.01969655 0.14857158 0.049321648
0002b0 fb 0e ee 3d ad 08 bd 3c ce 57 e3 3d 61 4a e3 bd
       0.11623951 0.023075426 0.11100732 -0.11098171
0002c0 36 da c8 3d c6 bd 91 bd e8 71 eb 3d f3 4c 07 3d
       0.098072454 -0.071162745 0.11496335 0.03303237
0002d0 98 6c 5f bd 30 18 f9 bc c4 6b 59 3c ce a1 c3 bb
       -0.054546922 -0.030407041 0.013270322 -0.0059702164
0002e0 d8 99 b8 3d 89 cb 3a bd 8c 06 fd 3d 70 38 80 bc
       0.09013718 -0.045604263 0.12354764 -0.015651911
0002f0 f4 0d bf 3d 66 89 e3 3d a1 50 6e 3d 69 d0 e2 bd
       0.09328833 0.11110191 0.058182362 -0.11074907
000300 aa af 95 3d 1e e1 bd 3d d0 86 13 bd 6c ad 17 3d
       0.07308896 0.09271453 -0.03601724 0.037030622
000310 e5 66 dd 3d 7d 37 55 3d 22 a7 da 3b 85 49 00 3e
       0.10810641 0.05205487 0.006672756 0.12528045

lstm.bias_hh_l1 f4 [200]
000000 c1 b9 87 bd b4 c5 db bd 4b 1d 9b bd a8 e4 ae bb
       -0.066272266 -0.10731068 -0.075739466 -0.0053373165
000010 22 9c 5a bd 6a 04 3c bd 68 b3 14 bd 45 d2 bc 3c
       -0.053371556 -0.045902647 -0.036303908 0.023049483
000020 76 2c db 3d 06 54 08 be b9 f8 21 3e dc bf 06 be
       0.107018396 -0.13313302 0.15817536 -0.13159126
000030 e6 d6 fb 3d 01 2d a4 bd 8e a3 f9 bc e0 6d 15 be
       0.12296848 -0.08016396 -0.030473497 -0.14592695
000040 1e 1d 10 3d 78 da 18 3e b6 9c 04 be 60 ab 04 be
       0.03518402 0.14927089 -0.12950405 -0.12956
000050 f8 52 b4 3d 0d 26 5e bd 92 c6 e2 3d 9e b6 60 3d
       0.088048875 -0.054235507 0.110730305 0.054861657
000060 04 ab b1 bd 18 9e e0 bc 88 2c 0c 3e d8 00 a9 bd
       -0.08675197 -0.027419135 0.13688862 -0.08252114
000070 24 e3 f2 bc 2b 54 61 3b cc 93 ef 3d 2f 8e fb 3c
       -0.029649325 0.0034382443 0.11698112 0.030707447
000080 80 32 05 3e 11 2a ae 3a ab 57 1e bd 61 bb 5f 3d
       0.13007545 0.0013287683 -0.038657825 0.054622058
000090 ca d1 cb 3d f2 9a 03 be 72 b5 4e bd e2 12 05 3e
       0.099521235 -0.12852076 -0.05046601 0.12995484
0000a0 1e 72 91 bb 4c 77 5e 3d c3 4c 55 3d 0e 72 61 bc
       -0.0044386527 0.05431299 0.05207516 -0.013760103
0000b0 b8 ff 58 bd 61 54 b0 3c b3 94 05 3e 88 57 1c 3e
       -0.052978247 0.02152461 0.13045006 0.15267766
0000c0 32 e7 d6 3d d8 2f d8 bc d3 45 c3 bd 03 2f 15 bd
       0.10493316 -0.026390001 -0.09534802 -0.036421787
0000d0 a6 e2 93 bc f9 06 99 3d 2f 51 f6 bc 31 ed de bd
       -0.01805241 0.07472033 -0.030068008 -0.108850844
0000e0 90 10 cf bd d1 4a 97 3d 64 95 c5 bc 10 6a b0 bd
       -0.10110581 0.07387317 -0.024119087 -0.0861398
0000f0 b1 f5 0c bd b3 52 0e 3e ea b5 e4 3d 83 51 cd bd
       -0.034413997 0.13898735 0.1116751 -0.10025313
000100 bf f4 26 3d 0e cb c1 bd ed 64 03 be 2d 5a d7 3d
       0.04076075 -0.09462558 -0.12831469 0.105152465
000110 65 86 91 bc ac ef 15 3d 2a 5d 1f 3c 03 33 d9 bc
       -0.01776428 0.036605522 0.009726802 -0.026513582
000120 9d 16 54 bd 6e dc 4b bb ec 7f fd 3b 9d 1a e9 3d
       -0.05177938 -0.0031106728 0.0077361967 0.11382029
000130 a8 12 25 3e 85 be 60 bc bc 63 62 bd 65 b8 f3 bd
       0.16120398 -0.013717298 -0.055270895 -0.11900405
000140 92 d0 88 bd a3 89 8e bd 17 b3 e8 bd 17 8d 0c 3e
       -0.06680407 -0.06959846 -0.11362284 0.13725697
000150 18 e2 83 bd 2e 87 93 bd 4a 3f 00 bc c9 68 0e 3e
       -0.06439608 -0.07203518 -0.007827589 0.1390716
000160 74 a3 c1 bd e0 fe 08 3e 61 b6 7b bd f1 a5 b9 3d
       -0.09455004 0.13378477 -0.061453227 0.09064854
000170 cb e9 1f 3e 0d 98 0a be c7 2b a6 3d af 18 90 3d
       0.15616529 -0.13534565 0.081138186 0.07035958
000180 61 6c 62 bd cc 99 d6 bd 19 3a f1 bd bd f5 1c bc
       -0.05527914 -0.10478553 -0.117786594 -0.009580073
000190 e4 df 22 be 27 e8 63 bd bf 09 ad bd 61 7f a4 bd
       -0.1590572 -0.05564132 -0.084491245 -0.08032108
0001a0 86 be 91 3d a1 16 2b 3c 2d 11 4a 3b 6b 9d 94 3d
       0.071164176 0.010442407 0.0030832991 0.072565876
0001b0 58 1c b6 bd 5e 16 ce 3c ef f2 dd 3c 22 80 76 3d
       -0.08892125 0.02515715 0.027093379 0.06018079
0001c0 01 73 d6 3d 7b a0 7a 3d 08 77 2f bd cf 03 d5 bc
       0.10471154 0.061188202 -0.042838126 -0.026002793
0001d0 91 b4 8f 3d 38 71 a0 bd 23 14 a9 bd 58 0d ab 3d
       0.07016862 -0.07834095 -0.08255794 0.083521545
0001e0 7c 87 52 3d 46 d0 e1 bd 6c 4d 1d be 88 50 82 bd
       0.05139874 -0.11026053 -0.15361565 -0.06363016
0001f0 73 d7 a3 bd 8b 01 a5 bd 23 ee 66 bd 4b d5 01 3e
       -0.08000078 -0.08056935 -0.05637945 0.12679021
000200 18 82 e2 bd b8 e1 09 be ff 54 1b be 5f a3 9f bd
       -0.1105997 -0.13465011 -0.15169142 -0.077948324
000210 6f 47 d2 bd 2f 68 0b bd 00 6c b7 bd 5a 15 7c 3c
       -0.10267531 -0.034034904 -0.08956146 0.01538595
000220 2d 61 fa 3d 1a 2f d1 bc 05 25 f0 bd 11 8e 20 bb
       0.12225566 -0.025535155 -0.11725811 -0.002449874
000230 1c 6e 58 bd 10 9b af 3d 05 a3 f2 3d 21 a3 0a bc
       -0.052839383 0.08574498 0.118475 -0.0084617445
000240 76 2b f7 bd 2b dd a3 3d b5 91 92 3d 30 41 13 3e
       -0.120688364 0.08001169 0.07156698 0.14380336
000250 52 78 60 b9 00 66 b3 3d ae 39 da 3b c7 f3 65 3d
       -0.00021407127 0.08759689 0.006659708 0.056140687
000260 1b 69 07 3e 7d a2 1c be bf 0e d1 3d e4 d7 17 3e
       0.13223688 -0.1529636 0.10207891 0.1482845
000270 cb bc 2f bb b0 f4 d5 bd c0 6d 1c 3e 7c e2 a4 3c
       -0.002681541 -0.10447061 0.15276241 0.020127527
000280 a4 e7 2e 3d 7c 8e f9 3d dd 6e 3c 3d d5 f2 9c 3d
       0.04270138 0.1218538 0.046004165 0.07663504
000290 51 b4 f4 3c 93 5c 48 3d 51 b9 4c bd 42 25 c1 bd
       0.029871138 0.04891641 -0.04998142 -0.094309345
0002a0 c6 2b e7 3d 33 3d e7 bd 89 15 78 bd 5f d1 c4 3c
       0.11287646 -0.1129097 -0.060567413 0.024025617
0002b0 3b de fd 3d 63 ff 63 bd a7 e7 a7 bd 5e 1e c8 bd
       0.12395903 -0.055663478 -0.08198481 -0.09771417
0002c0 fc a1 b0 bd 8d 1c ab bc 7b ed c1 3d 63 20 e6 3c
       -0.08624646 -0.020887638 0.09469124 0.028091615
0002d0 fd 34 34 bd 68 de 70 bc e8 ee 0c 3e 82 21 0a 3c
       -0.043995846 -0.014701463 0.1376301 0.00843084
0002e0 48 1e ea 3d 77 99 9a bd c6 33 21 bd e8 08 43 bd
       0.11431557 -0.07548802 -0.039356016 -0.047615916
0002f0 e4 24 03 be ff fd 8e bd 8f cb fb bd c4 07 11 3e
       -0.12807041 -0.0698204 -0.12294685 0.14163119
000300 61 c1 0f 3e f7 f2 dd 3c 11 0f 01 3e 6a 11 5a 3d
       0.14038612 0.027093394 0.12603404 0.053239264
000310 39 de 00 3e 3f fb 33 bc 6f 34 48 3c 2c 1d a3 3d
       0.12584771 -0.010985195 0.012219532 0.079645485

fc.weight f4 [1, 50]
000000 72 cf 70 bd 07 f8 79 3d d6 63 87 bd 3f 45 8f 3c
       -0.058791585 0.061027553 -0.06610839 0.017489074
000010 37 d3 21 3e 62 14 51 3c 7c 15 af 3d a7 35 b5 3d
       0.15803228 0.012761207 0.0854902 0.08848124
000020 80 e7 a9 3d 28 2a d1 3d d5 ba 53 3d 00 b7 1f 3d
       0.08296108 0.10213119 0.05169185 0.03899288
000030 85 eb 80 3c f7 ac 8c bd 9b 5b 10 be c2 05 4e 3c
       0.015737304 -0.06868928 -0.14097445 0.012574615
000040 9e 95 f0 bc 6e 3b 13 be f4 1b 90 3d 07 a8 78 bd
       -0.029368218 -0.1437814 0.07036582 -0.06070712
000050 69 3d af 3d 5f 31 87 bd e8 ad 7d bd 37 2e 83 bd
       0.08556635 -0.06601214 -0.061933428 -0.06405299
000060 15 37 1c 3b 59 00 e4 bc 15 42 5e bd 40 81 48 3d
       0.0023836542 -0.027832197 -0.05426224 0.048951387
000070 29 51 c8 3c 30 93 9c bd de 8e a3 bd 8c 6b 79 bc
       0.024452763 -0.07645261 -0.07986234 -0.015223395
000080 1c b6 0e 3c 2a 22 5e 3c 2a 0c cb 3d dc 8d 22 3d
       0.00871041 0.01355795 0.099144295 0.03968607
000090 df 16 07 3e 70 c6 0e be 89 79 af 3d 5a 7d f9 3d
       0.13192318 -0.13942885 0.08568103 0.12182112
0000a0 1b 88 8a bc a2 9a 82 bd 43 f6 b2 3d a3 30 3f bd
       -0.016910603 -0.0637715 0.08738377 -0.046677243
0000b0 e1 99 a4 bd 32 45 c2 bc d2 e9 20 be 23 f1 23 3d
       -0.080371626 -0.023714636 -0.15714195 0.040024888
0000c0 b9 90 ad 3d 34 e7 06 3c
       0.08474869 0.008233834
