models/DOGE_USDT_model.pt (torch, 128197 bytes, 9 tensors)

lstm.weight_ih_l0 f4 [200, 1]
0	0xbdf3104c	-0.11868343
1	0xbcd8f9f9	-0.026486384
2	0x3b7fddd9	0.0039042144
3	0x3df26745	0.11836103
4	0xbd40e894	-0.047096804
5	0x3d8a26dd	0.06745694
6	0xbdc43545	-0.09580473
7	0xbd9e62f4	-0.077337176
8	0xbcb3c77f	-0.021945713
9	0x3df960ca	0.12176664
10	0x3dae0a80	0.084980965
11	0xbd7a60c3	-0.061127435
12	0xbd8fa811	-0.07014478
13	0xbdbaa0db	-0.09112712
14	0xbcb974b0	-0.022638649
15	0x3c86331b	0.01638179
16	0x3da84db9	0.082179494
17	0x3d83863b	0.06422087
18	0x3d819bc3	0.06328537
19	0xbce88d03	-0.028387552
20	0x3db6fcd3	0.08934941
21	0x3e22e84a	0.15908924
22	0xbd7be9d5	-0.061502296
23	0x3e03e681	0.12880899
24	0x3c113c3c	0.008864459
25	0x3bc8af5c	0.00612442
26	0x3d5c9af9	0.05385873
27	0xbd6b258a	-0.057408847
28	0xbcab980b	-0.020946523
29	0xbd1d23b1	-0.038364116
30	0x3dbe9524	0.0930579
31	0x3d845379	0.06461234
32	0xbd61e22e	-0.055147342
33	0xbddc7327	-0.10764151
34	0x3e222207	0.15833293
35	0x3e0ee26f	0.13953565
36	0xbda4bb06	-0.080434844
37	0x3dce7feb	0.10082992
38	0x3dea870c	0.114515394
39	0xbd6345f5	-0.055486638
40	0xbd56032f	-0.05224913
41	0x3d3e09a2	0.046395905
42	0x3d197260	0.037462592
43	0xbdeda405	-0.1160355
44	0xbce7364c	-0.028224133
45	0x3dc7e4a6	0.09760408
46	0x3e235f72	0.15954378
47	0x3dc08b99	0.09401626
48	0xbcd21ae9	-0.025647597
49	0xbda763bf	-0.08173322
50	0xbd3016d9	-0.04299054
51	0xbd98d4ab	-0.07462438
52	0xbdc488cb	-0.09596404
53	0x3c62a8a7	0.013834155
54	0x3cf9fbda	0.0305156
55	0xbda03189	-0.07821948
56	0x3e1c0bb9	0.15238847
57	0x3dabfbbb	0.08397623
58	0xbe04517c	-0.12921709
59	0x3e160ffc	0.14654535
60	0xbdaace36	-0.08340113
61	0x3c69613a	0.014244372
62	0xbd8d06bd	-0.06886051
63	0xbd81e287	-0.06342035
64	0x3dc933cc	0.098243326
65	0xbd3e9982	-0.046533115
66	0xbc979324	-0.01850278
67	0x3df41ed2	0.11919941
68	0xbde0fbab	-0.10985502
69	0xbb9d90de	-0.0048085293
70	0x3d5db1e4	0.054124728
71	0x3e01ad6b	0.1266381
72	0x3d4babc1	0.049724344
73	0xbc77f452	-0.015133934
74	0x3d66f0ca	0.056381978
75	0xbdf8189a	-0.121140674
76	0xbd905a78	-0.070485055
77	0x3d3be3c8	0.045871526
78	0xbd1867d4	-0.037208393
79	0x3d5bb3ae	0.053638153
80	0xbdfc13a9	-0.123084374
81	0xbd119022	-0.035537846
82	0x3e102780	0.14077568
83	0xbdc79bd4	-0.09746519
84	0xbdba70f8	-0.09103578
85	0xbbaf674d	-0.0053528906
86	0xbc3e13af	-0.011601373
87	0x3dbbe157	0.091738395
88	0xbddfeaab	-0.10933431
89	0xbc6fe9bf	-0.014643132
90	0x3e050463	0.12989955
91	0xbdaab747	-0.08335739
92	0x3ce119f2	0.027478192
93	0xbe0c5557	-0.1370443
94	0xbd61c528	-0.055119663
95	0xbd661e04	-0.05618097
96	0x3beadc8c	0.0071674045
97	0xbda518dc	-0.08061382
98	0x3df5ccac	0.12001929
99	0x3b8e9c34	0.004352117
100	0xbd9deaf8	-0.07710832
101	0x3ddd34dc	0.10801098
102	0xbd98977a	-0.07450767
103	0xbb6bb84d	-0.0035968006
104	0x3e0e9133	0.13922577
105	0xbddc85de	-0.10767721
106	0xbd4d4943	-0.050118696
107	0xbdefad82	-0.11703016
108	0x3da5d60d	0.080974676
109	0xbd8fc5fb	-0.07020184
110	0x3de56111	0.112001546
111	0x3d456fb4	0.04820223
112	0x3e1eba74	0.15500814
113	0x3dae4b8e	0.08510505
114	0xbd14f068	-0.03636208
115	0xbe02bee3	-0.1276813
116	0x3e09e7cc	0.1346733
117	0x3c80175f	0.015636144
118	0xbd87b3a1	-0.06626058
119	0xbdea2cc9	-0.11434323
120	0x3b380484	0.0028078863
121	0x3dab0618	0.08350772
122	0x3d6c64af	0.057713207
123	0x3c8d8f0d	0.017280126
124	0x3d5cb463	0.053882968
125	0xbd9cd09f	-0.07656979
126	0xbd55ec65	-0.052227397
127	0xbdff35f3	-0.12461462
128	0x3df20cbd	0.11818836
129	0x3dc99b77	0.09844106
130	0xbdb8316b	-0.08993801
131	0xbde46ab7	-0.11153167
132	0x3e029f87	0.12756167
133	0xbdbc0b9c	-0.09181902
134	0xbba3b10a	-0.00499547
135	0x3cdb332f	0.026757805
136	0x3dfe073a	0.12403722
137	0xbd35b58e	-0.044362597
138	0xbe152cb1	-0.1456783
139	0xbd8a43f2	-0.06751241
140	0xbd8d84de	-0.06910108
141	0x3d943448	0.07236534
142	0x3dab3995	0.08360592
143	0xbc8f4151	-0.0174872
144	0x3d8fffa9	0.07031185
145	0x3c48108b	0.012210975
146	0x3dc47040	0.095917225
147	0x3d8e72b4	0.06955472
148	0x3dc55782	0.096358314
149	0x38363b0a	4.3447166e-05
150	0x3deac979	0.11464209
151	0x3dd6001c	0.104492396
152	0xbdf7a30a	-0.12091644
153	0xbd5a4197	-0.053285208
154	0x3e080064	0.13281399
155	0x3c609985	0.013708477
156	0x3dad3c0f	0.08458721
157	0x3dd05469	0.1017235
158	0xbd7317d5	-0.0593489
159	0x3db6e52c	0.0893043
160	0x3db4d540	0.08829737
161	0x3e0257f1	0.1272886
162	0xbdc5be79	-0.096554704
163	0x3da4197c	0.08012673
164	0x3c3ad86b	0.011404137
165	0xbd93a279	-0.072087236
166	0x3d978286	0.07397942
167	0x3d2d7741	0.042350058
168	0x3de771bf	0.11300992
169	0xbd1c59ca	-0.038171567
170	0xbcc639d7	-0.024197502
171	0xbc262ec4	-0.010142986
172	0x3e025d2d	0.12730856
173	0xbdc19eb7	-0.094541006
174	0x3d8329f7	0.064044885
175	0xbd8dcbf6	-0.06923668
176	0x3cd296e4	0.025706716
177	0x3e12c8ed	0.1433446
178	0x3d87755e	0.06614183
179	0xbc98b585	-0.018641243
180	0xbdaf1e63	-0.08550718
181	0x3e158caa	0.1460444
182	0xbd686a25	-0.056741852
183	0xbdd99106	-0.10623364
184	0x3dcd07be	0.10011242
185	0x3deb4392	0.114874974
186	0x3e1206cd	0.14260407
187	0xbd949505	-0.07254986
188	0xbdedb562	-0.11606862
189	0x3df1a1b8	0.117984235
190	0x3cee7c5a	0.02911203
191	0x3e178073	0.14795093
192	0xbd49880f	-0.04920202
193	0x3dc441d5	0.09582869
194	0xbb54c7bf	-0.003246769
195	0x3e0fbd6a	0.140371
196	0x3ce799d8	0.0282716
197	0x3e0093c0	0.12556362
198	0x3e060e47	0.13091384
199	0x3e1d241f	0.1534581

lstm.weight_hh_l0 f4 [200, 50]
0	0xbdc9ccea	-0.098535374
1	0x3ced3a42	0.028958444
2	0x3dc90dd7	0.09817093
3	0x3d87db06	0.06633572
4	0x3e0ef42e	0.13960335
5	0xbe246798	-0.16055143
6	0xbd12de9a	-0.03585682
7	0x3de2a0bf	0.11065816
8	0x3ccdf893	0.025142943
9	0x3d90c356	0.070685074
10	0xbbb5e75a	-0.005551261
11	0x3e093968	0.13400805
12	0xba3423c4	-0.00068717846
13	0x3d1f6e9c	0.038923845
14	0x3d7d846d	0.06189387
15	0xbcdf93cd	-0.027292157
16	0xbc03b03b	-0.008037622
17	0xbc85ea82	-0.016347174
18	0x3d8b3dee	0.067989215
19	0xbe0dd7a8	-0.13851798
20	0x3d95a749	0.07307298
21	0x3d0c4d80	0.034253597
22	0xbc7d6d56	-0.015467962
23	0xbc08aa0c	-0.008341324
24	0x3e1c2577	0.15248667
25	0x3d966c59	0.073448844
26	0xbd5cd907	-0.05391791
27	0xbdbe1be9	-0.09282667
28	0x3dd905e3	0.10596826
29	0x3d6fe37c	0.058566555
30	0xbd40a381	-0.04703093
31	0xbd92ecd7	-0.0717408
32	0xbdd61a44	-0.104542285
33	0x3d23981a	0.039939977
34	0x3d6a5487	0.057209518
35	0x3dd8d87e	0.105881676
36	0xbd804cd3	-0.06264653
37	0xbce1fd3c	-0.027586572
38	0x3d78ec0d	0.06077199
39	0xbdd07b12	-0.10179724
40	0x3df2b9dd	0.11851857
41	0x3d751ef1	0.05984396
42	0xbd128acf	-0.03577691
43	0xbc549d68	-0.012976982
44	0x3da53e74	0.080685526
45	0xbdc920cc	-0.09820709
46	0x3d287d80	0.04113531
47	0x3da4ca29	0.080463715
48	0x3cf9ca98	0.030492112
49	0xbd9566fd	-0.07295034
50	0x3d1e800a	0.038696326
51	0xbdcd757b	-0.10032173
52	0xbdd45eed	-0.10369668
53	0x3cefc776	0.029269915
54	0xbce6432a	-0.028108198
55	0x3be7d18b	0.00707454
56	0x3ce716f6	0.02820919
57	0xbd8c0442	-0.068367496
58	0x3ccc8ef9	0.024970518
59	0xbe109b2f	-0.14121698
60	0xbd6256e8	-0.05525866
61	0xbd80ba66	-0.06285553
62	0xbdfbf3f5	-0.123023905
63	0xbc2de52e	-0.010613723
64	0x3d91e19f	0.07123112
65	0x3ce07be4	0.027402826
66	0x3dba172b	0.0908645
67	0x3dbe4ca4	0.09291962
68	0xbdb11a42	-0.086475864
69	0xbdf597ee	-0.11991869
70	0x3d2a9bd5	0.04165252
71	0xbc3422c4	-0.010994617
72	0xbdc6ed66	-0.09713249
73	0x3de72abe	0.11287449
74	0xbd4837ad	-0.04888122
75	0xbd6c9eb5	-0.057768542
76	0xbcf2e6b1	-0.029651018
77	0xbbf2c4ce	-0.007408715
78	0xbe0618d9	-0.13095416
79	0x3dc70c30	0.097191215
80	0xbd3776f5	-0.04479118
81	0x3dfae823	0.12251308
82	0xbd852ab3	-0.06502285
83	0x3d77a72f	0.060462173
84	0xbdc49691	-0.09599031
85	0x3dc98f70	0.09841812
86	0xbd8b8537	-0.06812518
87	0x3d460f50	0.048354447
88	0xbdfac68b	-0.122449
89	0xbabc1558	-0.0014349623
90	0xbbc3c5ea	-0.005974521
91	0xbdf5490b	-0.119768225
92	0xba758aad	-0.00093666726
93	0xbbb4ec7c	-0.005521355
94	0xbd63ca1f	-0.05561268
95	0xbbaebf00	-0.0053328276
96	0x3d8d18ad	0.06889472
97	0xbe054ee1	-0.13018371
98	0xbdb078a1	-0.08616758
99	0xbdcf2bd1	-0.10115779
100	0x3d0943c6	0.0335119
101	0x3da0edc4	0.0785785
102	0x3de13442	0.109962955
103	0xbdea6a25	-0.11446027
104	0x3d3a4121	0.045472268
105	0x3d019508	0.031636268
106	0x3e060e14	0.13091308
107	0x3da42822	0.08015467
108	0x3d41c32b	0.047305267
109	0xbdc76ebd	-0.097379185
110	0xbb3161b8	-0.0027066302
111	0xbdbf5d0c	-0.09343919
112	0x3e03524f	0.12824367
113	0xbb48ed18	-0.0030658897
114	0x3bfc4f90	0.0076999143
115	0xb981615d	-0.0002467734
116	0x3cf86392	0.030320916
117	0x3db26191	0.087100156
118	0x3e1f2a6e	0.1554353
119	0x3d13b06e	0.03605693
120	0xbdd76114	-0.10516563
121	0xbdbe7b94	-0.093009144
122	0x3df18f4d	0.117949106
123	0xbddee5fa	-0.10883708
124	0x3e0670e4	0.13129002
125	0xbdbdf94b	-0.092760645
126	0xbd41174e	-0.047141366
127	0xbd5c9f77	-0.053863015
128	0xbd8beae0	-0.06831908
129	0x3da70e26	0.081569955
130	0x3c853d4f	0.016264586
131	0xbd3f1b99	-0.04665718
132	0xbd01d7cb	-0.031699937
133	0xbd4671c5	-0.048448343
134	0xbd9b2881	-0.07576085
135	0xbcd76ab7	-0.026296003
136	0x3c21af50	0.009868458
137	0x3e0a59c9	0.13510813
138	0xbdc4b4c1	-0.096047886
139	0xbdf40f91	-0.119170316
140	0x3e046d87	0.12932406
141	0xbd2f8125	-0.04284777
142	0x3e015e94	0.12633735
143	0xbbe7c5ae	-0.007073126
144	0x3ddebed5	0.10876242
145	0x3d04fc9b	0.032467466
146	0xbd2878fb	-0.041131
147	0xbddc1865	-0.107468404
148	0xbd771101	-0.06031895
149	0x3ddc3cb7	0.10753768
150	0x3d28ea41	0.041239027
151	0xbd7b817d	-0.061402787
152	0xbdad35bb	-0.08457514
153	0x3e22986f	0.15878461
154	0x3c863e3f	0.016387103
155	0xbe0e5c26	-0.1390234
156	0x3dc53389	0.0962897
157	0xbc72fd5b	-0.014830912
158	0x3e1522ec	0.14564103
159	0xbe138c26	-0.14408931
160	0x3e04c61c	0.12966198
161	0x3cc51f1c	0.024062686
162	0x3df86aea	0.12129767
163	0x3db7a4d1	0.08966983
164	0xbdb7a09a	-0.08966179
165	0xbd26d2a6	-0.040728234
166	0xbdd2150a	-0.10257919
167	0x3d6d5ec3	0.0579517
168	0xbcb947aa	-0.02261718
169	0xbc18d726	-0.009328639
170	0x3d7f829b	0.062380414
171	0xbd0d7c71	-0.034542505
172	0x3d2233b5	0.039600093
173	0x3d1fc1ef	0.03900331
174	0xbdea7f06	-0.11450009
175	0x3d82d5d3	0.0638844
176	0xbdeacefe	-0.11465262
177	0xbdff9bae	-0.124808654
178	0x3dafd622	0.085857645
179	0x3c99f8db	0.018795421
180	0x3cd5398b	0.026028415
181	0xbde9eba5	-0.11421899
182	0x3c6e39dd	0.014540163
183	0xbde50eda	-0.11184473
184	0x3d78c96d	0.06073897
185	0xb969e07c	-0.00022304239
186	0x3a862926	0.0010235652
187	0xbc49c231	-0.012314365
188	0xbd41849e	-0.047245614
189	0x3df8a4c8	0.121408045
190	0xbaa9f44a	-0.001296648
191	0xbd261f98	-0.040557474
192	0x3d36749c	0.0445448
193	0x3d07b97d	0.03313588
194	0xbdd7e7e7	-0.10542279
195	0x3bc60bc4	0.006043883
196	0x3cfcf968	0.030880645
197	0x3dbf9684	0.093548805
198	0xbd73d2ef	-0.059527334
199	0xbd6029ae	-0.05472725
200	0xbdc2e404	-0.09516147
201	0x3c8ab06b	0.016929826
202	0xbd87c266	-0.066288754
203	0xbbe03a24	-0.0068428684
204	0x3e1fcea1	0.15606166
205	0x3c13fdf2	0.009032713
206	0x3b1fcb5a	0.0024382682
207	0x3de66286	0.112492606
208	0xbd702c2e	-0.058635883
209	0x3c62d6de	0.013845174
210	0xbdc82f7e	-0.097746834
211	0xbc2c90c8	-0.010532565
212	0x3d326bce	0.04355984
213	0xbe169b57	-0.14707695
214	0x3dbdc2d6	0.09265678
215	0x3d6acfa3	0.057326924
216	0xbde2715b	-0.11056777
217	0xbba1087b	-0.004914341
218	0x3dff569f	0.124676935
219	0xbca615ba	-0.020274032
220	0xbc89b5a9	-0.016810255
221	0x3db66c15	0.08907334
222	0x3e121f23	0.1426969
223	0x3c07de81	0.008292795
224	0x3dff99dc	0.12480518
225	0x3d165354	0.03670056
226	0xbe005f41	-0.12536336
227	0x3d79229e	0.06082403
228	0x3dd05137	0.101717405
229	0x3caef01c	0.021354727
230	0xbccc1439	-0.024911987
231	0xbe229be0	-0.15879774
232	0x3d879b15	0.066213764
233	0x3d545f3d	0.05184864
234	0xbc3d49b4	-0.011553217
235	0xbdfb02d5	-0.122563995
236	0x3d5a41a4	0.053285256
237	0x3df569a9	0.11983044
238	0x3dd61508	0.1045323
239	0x3d459464	0.04823722
240	0xbe0a17dd	-0.13485666
241	0x3decf234	0.11569634
242	0x3dfbe613	0.122997425
243	0xbcff432c	-0.03115996
244	0xbdde6c29	-0.10860474
245	0xbd617af0	-0.055048883
246	0x3d25ef2a	0.040511288
247	0xbd95e8f4	-0.07319823
248	0xbd66fa54	-0.056391075
249	0x3cfcd53f	0.030863402
250	0xbca2f640	-0.019892812
251	0x3d3f5f74	0.04672189
252	0x3d0e8641	0.034796003
253	0xbd9d5a9a	-0.076832965
254	0x3d954461	0.07288433
255	0x3d70ac8d	0.058758307

lstm.bias_ih_l0 f4 [200]
0	0xbc305e6d	-0.0107647
1	0xbd4a792f	-0.049431976
2	0xb9b3022e	-0.00034143165
3	0x3d68a739	0.0568001
4	0x3dc14592	0.094370976
5	0x3dfa7e64	0.12231138
6	0x3c661e83	0.0140453605
7	0xbde80249	-0.11328561
8	0xbdd44762	-0.10365178
9	0x3df2f91e	0.118639216
10	0x3d8596bb	0.0652289
11	0x3e20b65f	0.15694569
12	0x3e1441a0	0.14478159
13	0x3da2f5cd	0.07957039
14	0xbde08070	-0.109619975
15	0x3e1e4d48	0.15459168
16	0x3d94dacd	0.072682954
17	0x3d06fe9d	0.032957662
18	0x3cf9a519	0.030474233
19	0x3d747118	0.059678167
20	0x3dbaa080	0.09112644
21	0xbd3c515a	-0.04597602
22	0x3e1276ab	0.1430308
23	0x3cf9cd66	0.03049345
24	0x3c887c1a	0.016660739
25	0x3d7cd54c	0.061726853
26	0xbd969c7a	-0.07354064
27	0xbd1b5ae4	-0.037928477
28	0xbdfd4612	-0.123668805
29	0xbd424f60	-0.04743898
30	0xbbc75b4f	-0.006083883
31	0x3df59fc9	0.11993367
32	0x3c0f09bd	0.008730349
33	0x3dba7e2b	0.09106096
34	0x3e015969	0.12631764
35	0x3d58ba4b	0.052912038
36	0xbcdb9b2e	-0.026807394
37	0xbde5f747	-0.11228805
38	0xbd71ac8d	-0.059002448
39	0xbcee740a	-0.029108066
40	0xbdb3f19d	-0.087863185
41	0x3c983b2c	0.018582903
42	0x3dd6c3cc	0.10486564
43	0xbd0f946c	-0.035053656
44	0xbc87f73c	-0.016597383
45	0xbdf4691e	-0.11934112
46	0x3e110c63	0.14164881
47	0xbdca32c7	-0.09872966
48	0x3b3fd9fb	0.0029274214
49	0xbbc39721	-0.0059689437
50	0x3c941112	0.018074546
51	0xbdaecd4d	-0.08535252
52	0xbda8adbb	-0.082362615
53	0x3e155ced	0.1458623
54	0xbdd43c06	-0.10363011
55	0x3db5db26	0.0887969
56	0xbdb13975	-0.08653537
57	0xbce69666	-0.028147887
58	0x3d203bf4	0.039119676
59	0xbd296ad3	-0.04136164
60	0xbe0152a8	-0.12629187
61	0xbc29d429	-0.010365524
62	0x3df9cfcb	0.121978365
63	0x3df260ff	0.11834907
64	0x3da35633	0.079754256
65	0xbdaa6b65	-0.08321265
66	0xbdda49f3	-0.10658636
67	0xbdee17f1	-0.1162566
68	0x3c9fa8f5	0.019489745
69	0x3cfc1f22	0.030776564
70	0x3d8a3e45	0.06750158
71	0xbd4fe600	-0.050756454
72	0x3defabdb	0.11702701
73	0x3d4e252f	0.05032843
74	0x3d4d77f5	0.050163228
75	0x3e0ede19	0.13951911
76	0x3dca1ccb	0.09868773
77	0xbd563702	-0.052298553
78	0x3d5776e0	0.052603602
79	0xbc9c7aef	-0.019101588
80	0xbd8ee161	-0.06976581
81	0x3e10fbbe	0.14158532
82	0xbd8ba0f4	-0.06817809
83	0x3d932590	0.07184899
84	0x3d9aae82	0.07552816
85	0x3dcab155	0.09897105
86	0xbd890cb9	-0.0669188
87	0xbd9576a1	-0.07298017
88	0x3e0baedf	0.13640927
89	0x3df7c765	0.12098578
90	0xbcba802a	-0.022766192
91	0x3d20abf1	0.039226476
92	0xbdb2f417	-0.08737963
93	0xbdebf843	-0.115219615
94	0x3c52d03d	0.012867031
95	0x3be4f448	0.0069871284
96	0x3e10ec2a	0.1415259
97	0x3e0bab4a	0.1363956
98	0x3e0af7ee	0.1357114
99	0xbd3f5193	-0.046708655
100	0x3de0ccf2	0.1097659
101	0x3df2a0bb	0.11847063
102	0x3da967fc	0.082717866
103	0x3dd04f45	0.101713695
104	0x3e13e4c6	0.14442739
105	0xbe014e37	-0.12627493
106	0x3dc45fc2	0.09588577
107	0xbc18f957	-0.009336791
108	0x3de027b5	0.109450735
109	0x3c5fbef5	0.013656368
110	0xbde3bc53	-0.11119904
111	0x3c11a766	0.008890009
112	0x3dce9a02	0.100879684
113	0xbda5a6be	-0.08088444
114	0x3da9ee52	0.08297409
115	0x3ce3910e	0.027779128
116	0x3d9905e2	0.07471825
117	0x3d852010	0.06500256
118	0x3cc726f5	0.024310568
119	0x3d6e4b9c	0.058177575
120	0x3d0de128	0.034638554
121	0x3e1ec910	0.15506387
122	0x3df4aa95	0.119465984
123	0xbd8cc7b7	-0.0687403
124	0x3dc3d843	0.09562733
125	0x3cf46db1	0.029837461
126	0xbd8e1f4a	-0.06939562
127	0xbde20ad6	-0.11037223
128	0xbad5a4bf	-0.0016299709
129	0x3d8d45bd	0.06898067
130	0xbc935c1a	-0.017988253
131	0xbe088616	-0.133324
132	0xbc15d61d	-0.009145287
133	0xbdc821aa	-0.09772046
134	0xbca748a3	-0.020420378
135	0xbd99c281	-0.07507802
136	0x3d0de201	0.034639362
137	0xbe1308ea	-0.14358869
138	0xbdc1ec70	-0.09468925
139	0xbdfba1fa	-0.12286754
140	0xbc6ecd92	-0.014575379
141	0x3d916e0a	0.071010664
142	0x3c0b5a9a	0.008505488
143	0xbdd02f5c	-0.10165283
144	0x3cdd466b	0.027011117
145	0x3d146b4c	0.03623514
146	0x3e018639	0.12648858
147	0xbc880d84	-0.016608007
148	0x3dbbe8da	0.09175272
149	0x3da8434e	0.08215962
150	0x3d4cee0e	0.050031714
151	0x3d9d34ca	0.07676084
152	0x3d81e263	0.06342008
153	0x3e084836	0.13308796
154	0x3dfc284d	0.12312374
155	0xbdee2b2b	-0.116293274
156	0xbcefd4c9	-0.029276269
157	0xbe1005b8	-0.14064682
158	0xbc9dfab0	-0.019284576
159	0x3e0eb33d	0.13935561
160	0xbd92025b	-0.071293555
161	0x3bc77f98	0.0060882084
162	0x3d28447f	0.041080948
163	0x3cb49605	0.022044191
164	0x3e07bc3c	0.132554
165	0xbced02c8	-0.02893199
166	0xbd89fdef	-0.06737887
167	0xbdb2c728	-0.08729392
168	0x3d96859e	0.07349704
169	0x3dcd66a2	0.10029341
170	0x3e047f28	0.12939131
171	0x3a983593	0.0011612646
172	0x3cd65707	0.026164545
173	0xbdde6c3a	-0.10860486
174	0xbaab1107	-0.0013051339
175	0x3dfea5f0	0.12433994
176	0xbdbb6123	-0.09149387
177	0xbdd0340c	-0.10166177
178	0xbd8d8a34	-0.06911126
179	0x3da0a840	0.07844591
180	0x3cb5557b	0.022135487
181	0x3d8bb02a	0.0682071
182	0x3d86ddb8	0.06585258
183	0xbdcc0340	-0.099615574
184	0x3da222dd	0.07916806
185	0x3c34a939	0.011026674
186	0x3dd4e642	0.10395481
187	0x3dd56bd5	0.10420958
188	0x3bed2745	0.0072373473
189	0xbd41b3aa	-0.04729048
190	0x3d3795d9	0.04482064
191	0x3dcf75cd	0.101298906
192	0xbd7b41f3	-0.06134219
193	0x3dd34604	0.10316089
194	0xbc6583c9	-0.014008471
195	0x3dc6a4ce	0.09699403
196	0xbde3557d	-0.1110029
197	0xbcde2a0f	-0.027119664
198	0x3e06937a	0.13142195
199	0x3e219ecc	0.15783232

lstm.bias_hh_l0 f4 [200]
0	0xbdaa2b1c	-0.08309004
1	0xbdb66bee	-0.08907305
2	0xbdb84fa0	-0.08999562
3	0x3e1d3158	0.15350854
4	0xbde66218	-0.11249179
5	0xbbadf3ff	-0.0053086276
6	0x3e22aff0	0.15887427
7	0xbcbd4dd6	-0.023108404
8	0x3dd933df	0.10605597
9	0x3d6aaf8c	0.05729632
10	0x3c21f777	0.00988566
11	0xbd62cd41	-0.055371527
12	0xbddd8887	-0.10817056
13	0x3d202736	0.039099894
14	0xbdb6c540	-0.08924341
15	0xbc94359b	-0.018091967
16	0x3df30af1	0.11867321
17	0x3de1cc4d	0.110252954
18	0xbcb48354	-0.022035278
19	0x3c0795c2	0.008275451
20	0xbd80816e	-0.06274687
21	0xbd1cd9a0	-0.03829348
22	0xbd2ab6a9	-0.041678105
23	0x3be6be06	0.0070416955
24	0xbdeb33e3	-0.11484506
25	0x3db51ae5	0.0884302
26	0x3dc2ea2e	0.095173225
27	0xbdbc1fca	-0.09185751
28	0xbd89875b	-0.0671527
29	0x3d85f041	0.065399654
30	0xbdca7f10	-0.098875165
31	0xbd88f942	-0.06688167
32	0x3ddec1dd	0.1087682
33	0xbd7f3d59	-0.062314365
34	0x3d0ec1d3	0.034852814
35	0x3d6fd829	0.058555756
36	0xbd700b02	-0.058604248
37	0xbc4c8313	-0.012482422
38	0xbcb02606	-0.021502506
39	0x3e0f0f41	0.13970663
40	0xbd5ca29c	-0.053866014
41	0x3d75cacc	0.060007855
42	0xbc7b4104	-0.015335325
43	0xbc792111	-0.015205638
44	0x3df4a4c7	0.11945491
45	0x3daa645a	0.08319922
46	0xbd9cd365	-0.07657508
47	0xbdcad888	-0.09904581
48	0xbdaa381f	-0.083114855
49	0x3d8e2dc5	0.069423236
50	0x3d4fc06e	0.050720625
51	0x3e0bc655	0.13649876
52	0xbdfb01db	-0.12256213
53	0x3ccf27d8	0.025287554
54	0x3def02c7	0.116704516
55	0xbd72329b	-0.059130292
56	0x3dda4385	0.106574096
57	0x3d2d4c67	0.04230919
58	0xbdea6f21	-0.114469774
59	0xbc602402	-0.01368046
60	0xbd7dea0f	-0.061990794
61	0x3d759a6d	0.059961725
62	0x3df212ee	0.11820017
63	0x3d2b2a28	0.04178825
64	0x3b32464b	0.0027202542
65	0xbb8e3f09	-0.0043410105
66	0xbde8a659	-0.11359853
67	0xbb9e4601	-0.0048301225
68	0x3d5ddb85	0.05416443
69	0x3d45ad6b	0.048261087
70	0xbd1fe83f	-0.039039847
71	0xbdc41184	-0.09573653
72	0x3e16ca74	0.14725667
73	0xbdcb9a89	-0.099415846
74	0xbd86f39a	-0.06589432
75	0xbdb0e5ce	-0.08637582
76	0x3da452a7	0.08023577
77	0xbc9ac264	-0.01889152
78	0x3c8020aa	0.015640575
79	0xbc24aee3	-0.010051462
80	0x3cd06184	0.025437124
81	0xbcc6a21d	-0.024247224
82	0x3ddf6355	0.10907618
83	0xbd78105a	-0.06056247
84	0x3d1eab74	0.03873773
85	0x3b2d522e	0.0026446688
86	0xbde8550a	-0.11344345
87	0xbdf09852	-0.11747803
88	0x3b53b3bf	0.0032303182
89	0x3daa0fe0	0.08303809
90	0x3ca3e742	0.020007733
91	0xbcd2bbb7	-0.025724275
92	0xbd91cf27	-0.07119589
93	0xbdb33963	-0.0875118
94	0x3de96765	0.11396674
95	0xbdf10608	-0.117687285
96	0x3c042b05	0.008066897
97	0x3d83780a	0.0641938
98	0xbd510779	-0.051032517
99	0xbce06052	-0.02738968
100	0x3e0ed27d	0.13947482
101	0xbad7774c	-0.0016438751
102	0x3deaf9a8	0.114733994
103	0xbbea5c5b	-0.007152123
104	0x3d0314fb	0.03200243
105	0x3da04aa1	0.07826734
106	0xbdfd8a27	-0.12379866
107	0x3e1616a7	0.14657079
108	0x3dddb892	0.108262196
109	0xbe13d794	-0.14437705
110	0x3df3eace	0.1191002
111	0xbad613e7	-0.0016332836
112	0x3c28758b	0.010281931
113	0xbcb5046d	-0.022096837
114	0x3d95f385	0.07321838
115	0xbc5db08b	-0.013530861
116	0xbddcb7ca	-0.107772425
117	0xbcffc615	-0.031222383
118	0x3da4c99b	0.08046266
119	0xbdb34d98	-0.08755034
120	0x3dbfdd99	0.09368438
121	0x3e02a784	0.12759215
122	0xbd8e7ca4	-0.06957367
123	0x3df80423	0.12110164
124	0x3d28656a	0.04111234
125	0xbdf7f370	-0.12106979
126	0x3db0ed29	0.08638985
127	0x396a51b6	0.00022346419
128	0xbdc574b3	-0.09641399
129	0xbdecfad0	-0.11571276
130	0xbdc06661	-0.09394527
131	0xbc1aed4d	-0.009455991
132	0x3ca3bfda	0.019988943
133	0xbbb18989	-0.005418007
134	0xbdc179b9	-0.09447045
135	0x3d225d10	0.039639533
136	0x3c630228	0.013855495
137	0xbdfbe884	-0.12300208
138	0xbc8ddeda	-0.017318178
139	0x3ce29232	0.027657602
140	0xbdd44c1c	-0.10366079
141	0x3dcb40e8	0.09924489
142	0x3e111a7d	0.1417026
143	0xbc08c4c8	-0.008347698
144	0x3dd85a88	0.105641425
145	0x3d950b9d	0.07277606
146	0xbbed78d7	-0.0072470712
147	0xbc4cd5bd	-0.012502131
148	0xbc9cd828	-0.01914604
149	0x3e10adb8	0.14128768
150	0xbd94b1ca	-0.07260473
151	0xbd81599e	-0.06315921
152	0xbddc9192	-0.10769953
153	0x3d9219cf	0.07133829
154	0xbda65903	-0.081224464
155	0x3e1d3649	0.1535274
156	0x3dfdcf5c	0.12393066
157	0x3e03abcf	0.12858509
158	0xbc80e2fb	-0.015733233
159	0xbd90bf15	-0.07067696
160	0xbda05298	-0.078282535
161	0x3ddce180	0.10785198
162	0x3e1f22d6	0.15540633
163	0x3da3dc60	0.080010176
164	0xbd0e6285	-0.034761924
165	0xbc28f51d	-0.010312346
166	0x3dd8aa26	0.10579328
167	0xbd95de3d	-0.07317779
168	0xbd3a7985	-0.045526046
169	0x3dc004e8	0.09375936
170	0x3dca3254	0.098728806
171	0xbd1f2a38	-0.038858622
172	0xbd5cb279	-0.053881142
173	0xbd832ace	-0.06404649
174	0x3cb8fb16	0.022580665
175	0xbdfb9757	-0.12284725
176	0x3bdb1edd	0.006687029
177	0x3d9222d8	0.07135552
178	0x3d4e9b11	0.05044085
179	0xbccc3edc	-0.024932317
180	0xbe09086c	-0.13382119
181	0x3dbddc86	0.09270577
182	0xbd01100d	-0.031509448
183	0x3e13711a	0.14398614
184	0x3d229d4e	0.0397008
185	0x3c7558c0	0.014974773
186	0x3d146a6f	0.036234315
187	0xbd566594	-0.052342966
188	0x3da279ee	0.079334125
189	0x3d824bc8	0.063621104
190	0x3e0aad5a	0.13542691
191	0xbc646d01	-0.013942004
192	0x3d1038dd	0.03521048
193	0x3d6c25be	0.05765318
194	0xbdd1775b	-0.102278434
195	0xbd59e8f8	-0.053200692
196	0x3d305855	0.04305299
197	0xbde145ef	-0.10999667
198	0xbdf50483	-0.11963751
199	0x3cd37b8e	0.025815751

lstm.weight_ih_l1 f4 [200, 50]
0	0x3ddac387	0.10681825
1	0xbdc059ae	-0.09392105
2	0x3e129102	0.14313129
3	0x3e19a7e2	0.15005448
4	0xbd799087	-0.060928848
5	0x3da011ef	0.078159206
6	0xbd3316e2	-0.043722995
7	0x3d8b8921	0.06813265
8	0xbd87e066	-0.066345975
9	0x3d827407	0.06369787
10	0x3d756229	0.059908066
11	0x3d7cf636	0.061758243
12	0x3e231421	0.15925647
13	0x3d9b4f3d	0.07583473
14	0x3de20d54	0.110376984
15	0xbb3f9675	-0.0029233966
16	0xbdbde170	-0.092715144
17	0xbdc9303c	-0.09823653
18	0x3dd7db41	0.10539866
19	0x3c05c465	0.0081645
20	0xbce64690	-0.028109819
21	0xbc6bc54a	-0.014390299
22	0xbdd29c5c	-0.102837294
23	0x3d45a1be	0.048249952
24	0xbd5cb468	-0.053882986
25	0x3cf70c78	0.030157313
26	0xbdb6cb91	-0.08925546
27	0xbd962efa	-0.07333179
28	0x3dd7974c	0.105269045
29	0x3d6a6c5d	0.05723225
30	0xbda1147a	-0.07865234
31	0x3d50c98c	0.05097346
32	0x3e255ac6	0.16147909
33	0x3ce4416a	0.027863223
34	0x3d0f9476	0.035053693
35	0x3e1186bb	0.14211552
36	0x3d0da493	0.03458078
37	0x3cd2958d	0.025706077
38	0xbd7880b0	-0.0606696
39	0xbda6e49c	-0.081490725
40	0x3d9a571f	0.07536148
41	0x3e100ecf	0.14068149
42	0xbd811531	-0.0630287
43	0x3cafb86b	0.021450242
44	0x3e2013a1	0.15632488
45	0xbd72dd59	-0.059293125
46	0xbde5bb29	-0.112173386
47	0xbd278056	-0.040893875
48	0xbcf4c746	-0.029880177
49	0xbdf72903	-0.12068369
50	0xbdc35139	-0.09536976
51	0x3d89c248	0.06726509
52	0x3b3c80b4	0.0028763236
53	0xbc47bb48	-0.012190647
54	0xbded3861	-0.11583019
55	0xbcfd6582	-0.030932192
56	0xbc869df8	-0.016432747
57	0x3de5b454	0.112160355
58	0x3d955750	0.07292044
59	0xbdcc52ba	-0.09976716
60	0xbdb36d0d	-0.08761034
61	0x3d2ca88d	0.04215293
62	0x3d8a777f	0.06761073
63	0xbdaeb917	-0.08531397
64	0xbc836e40	-0.016043782
65	0xbd987437	-0.07444041
66	0xbd877f83	-0.06616118
67	0x3d80138e	0.0625373
68	0xbe041021	-0.12896778
69	0xbd88ac67	-0.06673508
70	0xbcbb716f	-0.022881238
71	0xbd864974	-0.06556979
72	0xbd740123	-0.059571397
73	0xbc4f882c	-0.012666743
74	0x3afa334b	0.0019088773
75	0x3e1ba795	0.15200646
76	0xbd5322ec	-0.051546976
77	0x3d9bfefe	0.07616995
78	0x3e06009b	0.13086168
79	0xbcdef82e	-0.02721795
80	0xbd231210	-0.039812148
81	0xbde85dd0	-0.11346018
82	0xbd14e683	-0.036352646
83	0x3e016f8e	0.12640211
84	0x3e1ddc80	0.15416145
85	0xbde1fac2	-0.110341564
86	0x3d28ba1a	0.041193105
87	0x3d167425	0.036731858
88	0x3dfb16de	0.12260221
89	0x3e1a0190	0.15039659
90	0xbca66e34	-0.02031622
91	0x3c7551a2	0.014973076
92	0x3d0349ac	0.03205268
93	0xbde5391d	-0.11192534
94	0x3d96ddf8	0.07366556
95	0xbdd1ac6e	-0.102379665
96	0x3db53e0f	0.08849727
97	0x3ddd66eb	0.10810646
98	0x3c9a9f42	0.018874768
99	0xbd434e7c	-0.04768227
100	0x3dc290f6	0.09500305
101	0xbce4436e	-0.027864184
102	0x3d08c303	0.033389103
103	0x3d899a03	0.067188285
104	0xbdb8a2bf	-0.09015416
105	0xbe16d713	-0.14730482
106	0xbdf0a8b7	-0.1175093
107	0x3de0737d	0.10959528
108	0x3c96d408	0.018411651
109	0xbd64beff	-0.05584621
110	0x3cbf04e8	0.02331777
111	0xbdbd5b1f	-0.092458956
112	0x3ca2fe93	0.019896781
113	0xbd8b477f	-0.06800746
114	0xbdd16230	-0.10223806
115	0xbdae4c22	-0.08510615
116	0xbd0bda67	-0.03414383
117	0x3da14c12	0.078758374
118	0x3cd5da3f	0.026105044
119	0x3ad75216	0.0016427662
120	0xbc6dc84b	-0.014513086
121	0xbd9a0d52	-0.07522072
122	0x3d200de5	0.03907575
123	0x3e1052b5	0.1409405
124	0xbdba03af	-0.09082734
125	0x3d51f2e3	0.051257025
126	0x3e0ea684	0.13930708
127	0xbd9805a2	-0.074229494
128	0x3de7bbf2	0.113151446
129	0x3cc20268	0.023682788
130	0xbdbc2fc8	-0.09188801
131	0x3dc1b60e	0.09458552
132	0xbc6e90ab	-0.014560859
133	0xbcb9a20e	-0.022660282
134	0xbcee4f72	-0.029090617
135	0xbdd776a9	-0.105206795
136	0x3dc8b84a	0.09800775
137	0x3cc98c60	0.024603069
138	0x3dd5f8c0	0.10447836
139	0x3cd499d0	0.02595225
140	0xbdd16a9f	-0.102254145
141	0xbd9a53f9	-0.07535548
142	0x3db5ab7e	0.088706
143	0xbd926d9b	-0.07149812
144	0x39143026	0.00014132317
145	0xbd661715	-0.056174356
146	0x3d140adc	0.03614317
147	0xbe12ceca	-0.14336696
148	0xbc8068ee	-0.015675034
149	0xbd3cf5cd	-0.04613285
150	0x3de45953	0.1114985
151	0xbdb5b5cf	-0.08872568
152	0xbde8d07a	-0.11367889
153	0x3dd2700c	0.102752775
154	0xbb007ed8	-0.0019606855
155	0xbdf209df	-0.11818289
156	0xbd5060cd	-0.050873566
157	0xbd7aa12f	-0.061188873
158	0x3dee41d4	0.116336495
159	0x3d936b56	0.07198207
160	0xbcab8861	-0.020939054
161	0x3d2926ad	0.04129665
162	0x3cf0c59a	0.029391099
163	0xbda49dc9	-0.08037908
164	0x3d839f84	0.064269096
165	0xbc6879b5	-0.0141891735
166	0xbce448be	-0.027866717
167	0xbe199212	-0.14997128
168	0x3dff665f	0.124706976
169	0xbdc7643c	-0.09735915
170	0x3d83bff2	0.06433095
171	0xbe0518d2	-0.1299775
172	0xbd0e8d03	-0.034802448
173	0x3d4a0034	0.0493166
174	0x3dc0c211	0.09412015
175	0x3c804d1e	0.015661772
176	0xbd8825ec	-0.06647858
177	0x3d0037a0	0.031303048
178	0x3e02755b	0.1274008
179	0xbe00e192	-0.12586048
180	0xbd4cd724	-0.05000986
181	0x3e16589a	0.14682236
182	0x3ccac30a	0.024751205
183	0x3d5cde40	0.05392289
184	0xbe010695	-0.12600167
185	0xbd144654	-0.036199883
186	0x3b8dea0c	0.004330879
187	0x3b56fbed	0.0032803968
188	0x3bfcd879	0.0077162352
189	0x3d8cccd7	0.068750076
190	0xbd73c134	-0.059510425
191	0x3d8d0565	0.068857946
192	0x3cb4c2fa	0.022065628
193	0x3e1afda8	0.15135825
194	0xbda082d6	-0.07837455
195	0x3d77dca0	0.06051314
196	0xbccd0bf7	-0.02503012
197	0xbdfd2630	-0.12360799
198	0x3d91e66a	0.07124026
199	0xbe113ffe	-0.14184567
200	0x3d7e026f	0.06201404
201	0xbc58e43a	-0.013238007
202	0xbc5979d0	-0.013273671
203	0x3beeb2b4	0.0072844867
204	0xbd71281d	-0.058876146
205	0x3dd42c4f	0.10360014
206	0xbd3acf96	-0.045608126
207	0x3de6a284	0.11261466
208	0x3c074108	0.008255251
209	0x3d19db8f	0.037562903
210	0x3d995dab	0.07488569
211	0xbccd5ffd	-0.025070185
212	0x3e238780	0.15969658
213	0xbd8ac907	-0.06776624
214	0x3df8d708	0.12150389
215	0xbd50239f	-0.05081522
216	0x3dc5ca2e	0.09657703
217	0x3bd9358a	0.006628697
218	0xbd5681f2	-0.05237002
219	0xbe15a23b	-0.14612667
220	0x3e16a314	0.14710647
221	0xbd35e56e	-0.044408254
222	0x3e113a0e	0.14182302
223	0x3e111f73	0.14172153
224	0x3db9841c	0.09058401
225	0xbe0ca114	-0.13733321
226	0x3d4334fb	0.047657948
227	0xbddf8f7d	-0.1091604
228	0x3dfe7468	0.124245465
229	0x3ce7aebe	0.028281566
230	0x3d010af8	0.0315046
231	0x3d9781fb	0.07397839
232	0xbd93557d	-0.0719404
233	0x3d724539	0.059148047
234	0x3d651a61	0.05593336
235	0x3ddc9cae	0.10772072
236	0x3c31a5af	0.010842725
237	0x3dc7a209	0.09747703
238	0xba9f93f8	-0.0012174835
239	0xbd6e5ed8	-0.05819592
240	0xbca85047	-0.020546092
241	0x3da1969e	0.07890056
242	0xbdd9a569	-0.106272526
243	0xbdf7a74d	-0.12092457
244	0x3e1c046d	0.15236063
245	0x3da6b702	0.08140375
246	0x3da636ab	0.08115896
247	0x3dbbaa6d	0.091633655
248	0x3e184eac	0.14873761
249	0x3db6848a	0.089119986
250	0xbc8ad830	-0.01694879
251	0xbc1e809a	-0.009674216
252	0xbd7fdd66	-0.062467
253	0xbd9238cf	-0.07139742
254	0x3e1b6188	0.15173924
255	0x3cae9b02	0.021314148

lstm.weight_hh_l1 f4 [200, 50]
0	0xbe17aafb	-0.14811318
1	0xbd09dbe9	-0.03365699
2	0x3d4f03aa	0.050540604
3	0xbdcfd704	-0.10148433
4	0xbd3ba2c6	-0.04580953
5	0xbd20a2c7	-0.039217737
6	0x3d98d2d5	0.07462088
7	0xbceb9d7f	-0.028761623
8	0x3cc05244	0.023476727
9	0xbe0462c4	-0.12928301
10	0xbb907a4a	-0.0044091092
11	0x3dc4611d	0.095888354
12	0x3e1be568	0.1522423
13	0x3d4e725b	0.050402027
14	0x3ddcfc9b	0.10790368
15	0xbdc9b0ef	-0.098482005
16	0xbd6c3246	-0.057665132
17	0xbd8a3823	-0.067489885
18	0x3de99728	0.11405784
19	0xbd80fee8	-0.062986195
20	0x3e1fefba	0.15618792
21	0x3c003f7b	0.007827635
22	0xbd6b7691	-0.05748612
23	0x3d983d9b	0.07433625
24	0xbda6438e	-0.08118354
25	0x3d49a67e	0.049231045
26	0xbe22252f	-0.15834497
27	0x3cdc1d60	0.026869476
28	0x3d897a77	0.067128114
29	0x3d87d0ad	0.066315986
30	0xbcf2c9e2	-0.02963728
31	0xbaa44d21	-0.0012535193
32	0xbda65b1c	-0.081228465
33	0xbd3bfe1e	-0.045896642
34	0x3cd024f0	0.025408238
35	0x3bcaeb5e	0.0061926087
36	0x3d3bf31a	0.045886137
37	0x3dfedc20	0.12444329
38	0x3cfb94fc	0.03071069
39	0xbd8bf522	-0.06833865
40	0x3d61e6c0	0.0551517
41	0xbd7a829c	-0.061159715
42	0xbca14553	-0.019686377
43	0xbdac796b	-0.08421596
44	0x3d251391	0.040301863
45	0xbce477fb	-0.027889242
46	0xbd41dcf8	-0.047329873
47	0x3dd7b450	0.10532439
48	0xbdee71c8	-0.11642796
49	0x3da6fb93	0.08153453
50	0x3e04d2b6	0.12971005
51	0x3e07400a	0.13208023
52	0xbdb86589	-0.09003741
53	0x3dad1336	0.0845093
54	0xbe057d11	-0.1303599
55	0xbd23b4bd	-0.039967287
56	0x3917c73d	0.00014474704
57	0xbd9c9534	-0.07645646
58	0x3d207daa	0.039182343
59	0x3cd8e658	0.026477024
60	0xbdaae417	-0.08344286
61	0x3b9d9acd	0.0048097135
62	0x3dfccf4f	0.123442285
63	0x3d835679	0.06412978
64	0x3de0a25c	0.109684676
65	0xbde9e23b	-0.11420103
66	0x3da927bd	0.082595326
67	0x3e175d4e	0.14781687
68	0xbdb08287	-0.08618646
69	0x3b55ab40	0.0032603294
70	0xbc6bb339	-0.014385992
71	0x3e0a8fb2	0.13531378
72	0xbdd15695	-0.10221592
73	0xbde8c9f1	-0.11366642
74	0xbe137036	-0.14398274
75	0x3d7c6af3	0.061625432
76	0x3db61f4a	0.08892687
77	0xbba4bae7	-0.0050271633
78	0xbd662258	-0.056185097
79	0x3dd59a07	0.10429769
80	0xbd30c232	-0.04315395
81	0xbc0da0e6	-0.008644318
82	0xbd8445d3	-0.064586304
83	0x3be52843	0.006993325
84	0x3d1ed6d2	0.038779087
85	0x3dd5b91f	0.104357
86	0x3d28da90	0.041224062
87	0xbdf8091c	-0.121111125
88	0x3e133378	0.14375103
89	0xbdd5a059	-0.104309745
90	0xbb59b18c	-0.0033217398
91	0xbd59fbdd	-0.05321871
92	0xbdebbe77	-0.11510938
93	0x3a59abee	0.00083035126
94	0xbd3d85d2	-0.0462702
95	0x3d26fcfd	0.040768612
96	0x3ca0c66c	0.019625865
97	0xbcee6d58	-0.029104874
98	0xbdcfe45b	-0.10150977
99	0x3c5a48ec	0.01332305
100	0x3df267ec	0.11836228
101	0xbcfc7f82	-0.03082252
102	0x3dabe030	0.0839237
103	0x3d864048	0.065552294
104	0xbd998c8f	-0.074975125
105	0xbd87d83f	-0.066330425
106	0x3d7ffedf	0.062498923
107	0x3db1b37d	0.08676813
108	0x3dcc967f	0.09989642
109	0x3d7b36eb	0.06133167
110	0xbdf2e332	-0.1185974
111	0x3e107a2a	0.14109102
112	0xbdb10136	-0.08642809
113	0x3dff8d2f	0.124781005
114	0xbe102783	-0.14077573
115	0x3dcba12b	0.0994285
116	0xbd97f765	-0.07420234
117	0x3d474a57	0.04865488
118	0xbe0e94d2	-0.13923958
119	0xbdfef006	-0.124481246
120	0xbce9945e	-0.02851313
121	0xbd8382ad	-0.06421409
122	0x3d261d0d	0.04055505
123	0x3c25df16	0.010123989
124	0x3d338f80	0.043838024
125	0x3d9ad548	0.075602114
126	0xbdba789d	-0.091050364
127	0x3e1bf310	0.1522944
128	0x3d61513c	0.05500911
129	0xbd5bade6	-0.05363264
130	0x3b871897	0.0041228044
131	0xbc9aaf83	-0.018882519
132	0xbe0f7dc9	-0.14012827
133	0x3dcbe921	0.09956575
134	0x3e061756	0.1309484
135	0xbc362fcb	-0.011119793
136	0xbdac3555	-0.0840861
137	0xbe170830	-0.14749217
138	0x3d1af7dd	0.037834037
139	0xbd823a58	-0.063587844
140	0xbdada573	-0.084788226
141	0xbc1d7d39	-0.009612375
142	0x3dcccdbf	0.100001805
143	0xbdc8fec1	-0.098142155
144	0xbe15703e	-0.14593598
145	0x3c7da216	0.015480539
146	0x3ae79891	0.001766937
147	0xbd8a0125	-0.067384996
148	0x3d4eb89a	0.05046902
149	0x3d1d5a1f	0.038416024
150	0x3d8d4a4b	0.06898936
151	0x3cff4827	0.031162335
152	0x3c94cdd5	0.018164555
153	0x3cf00cf9	0.02930306
154	0xbcc57bcc	-0.024106883
155	0x3d8a2ac7	0.067464404
156	0x3d4e64b8	0.05038902
157	0x3dd836af	0.10557305
158	0xbd3015ff	-0.042989727
159	0xbd7265c3	-0.05917908
160	0xbdf7d58d	-0.121012785
161	0x3e04c081	0.1296406
162	0x3e043700	0.12911606
163	0xbb435a46	-0.0029808446
164	0x3c08ca9a	0.008349085
165	0xbd1670cb	-0.03672866
166	0xbdacddff	-0.0844078
167	0xbdf72207	-0.12067037
168	0x3d14a431	0.036289398
169	0x3e00f09b	0.12591784
170	0xbdf476a4	-0.119366914
171	0x3e051e19	0.12999763
172	0xbca32c33	-0.019918537
173	0xbd041ad8	-0.032252163
174	0xbd1e74cf	-0.038685616
175	0x3b9c87ce	0.0047769314
176	0x3dc70728	0.09718162
177	0x3dcee882	0.10102941
178	0xbddcba14	-0.10777679
179	0x3dcc203d	0.099670865
180	0xbcda5887	-0.026653541
181	0x3d754137	0.059876647
182	0xbccc99bd	-0.024975652
183	0xbe07836e	-0.1323373
184	0xbe114bfb	-0.1418914
185	0xbe075ba4	-0.13218552
186	0x3d1bd3bf	0.038043734
187	0x3d88d73c	0.06681678
188	0x3dbadbde	0.091239676
189	0xbdb3dc04	-0.08782199
190	0xbd4e8ec8	-0.050429136
191	0xbacbdc01	-0.0015553237
192	0xbd170194	-0.03686674
193	0x3d251e5f	0.040312167
194	0xbd1d8ca1	-0.038464192
195	0x3d8d79aa	0.06907971
196	0xbdb85c3b	-0.090019666
197	0xbe0cb923	-0.13742499
198	0xbb1b1e5d	-0.002366922
199	0xbc83e6f6	-0.016101342
200	0xbe170436	-0.147477
201	0xbe13868d	-0.14406796
202	0x3de75cbc	0.112969846
203	0xbe0b3349	-0.13593782
204	0xbd369ace	-0.044581227
205	0x3e21a933	0.157872
206	0x3dbe26be	0.09284733
207	0xbde67322	-0.112524286
208	0xbdd2da95	-0.102955975
209	0x3e05daf6	0.13071808
210	0x3df653a3	0.12027671
211	0xbd419fb7	-0.047271457
212	0xbd31835e	-0.043338172
213	0xbdf349c8	-0.11879307
214	0xbde219cf	-0.11040079
215	0xbde4c54d	-0.11170445
216	0x3dc06553	0.09394326
217	0x3c379334	0.01120453
218	0x3d8b8f19	0.06814403
219	0x3d4b15de	0.0495814
220	0xbb7c8554	-0.0038531618
221	0xbe1815a3	-0.14852004
222	0xbe05fc94	-0.13084632
223	0xbe00a219	-0.12561835
224	0x3cdac9b0	0.0267075
225	0xbc4aca42	-0.012377324
226	0x3ce6ae15	0.02815918
227	0xbd626571	-0.055272523
228	0xbdd933c8	-0.106055796
229	0xbce47062	-0.02788562
230	0x3b6591a3	0.0035029433
231	0x3ce4a157	0.027908964
232	0xbccbc849	-0.024875777
233	0x3d665b36	0.05623933
234	0x3d8fcace	0.07021104
235	0xbd76162c	-0.06007974
236	0x3d1cf4ae	0.038319282
237	0x3d6faf84	0.058516994
238	0xbdac8136	-0.084230825
239	0xbdbdd319	-0.09268779
240	0xbd623235	-0.055223662
241	0xbcd5cc90	-0.02609852
242	0x3c924f99	0.01786022
243	0x3df6ef85	0.120574035
244	0x3ac17328	0.0014759051
245	0xbc6d3d17	-0.014479897
246	0x3da3289c	0.0796673
247	0xbddfc7bc	-0.10926768
248	0xbd0e770d	-0.034781504
249	0xba9aec56	-0.0011819701
250	0x3e032a62	0.12809137
251	0x3dbeaf17	0.093107395
252	0xbe0e4d3e	-0.13896653
253	0xbcf60947	-0.03003372
254	0xbd8d9205	-0.06912617
255	0xbe00830b	-0.12549989

lstm.bias_ih_l1 f4 [200]
0	0x3e25187e	0.16122624
1	0x3d010382	0.031497486
2	0xbdc51b29	-0.09624321
3	0xbdd74d42	-0.10512783
4	0xbd767ecb	-0.060179513
5	0x3da56c89	0.08077342
6	0x3b42557d	0.0029653006
7	0x3e1523a4	0.14564377
8	0xbd7656f2	-0.06014151
9	0xbe10b834	-0.14132768
10	0x3da57670	0.08079231
11	0xbddd9eb1	-0.108212836
12	0xbd0db5b8	-0.03459713
13	0xbdc149b8	-0.09437889
14	0x3db81ec0	0.0899024
15	0xbcafdf0d	-0.021468664
16	0xbd9c3f86	-0.07629304
17	0x3cff2be1	0.031148853
18	0xbd10b8d8	-0.03533253
19	0xbdf8d061	-0.1214912
20	0xbd3382d6	-0.043825947
21	0x3e051492	0.12996128
22	0x3e1563a2	0.14588788
23	0x3dee8fc0	0.11648512
24	0xbcdf6985	-0.027271995
25	0x3daf39fb	0.08555981
26	0x3d0611d2	0.03273184
27	0x3d174083	0.036926758
28	0xbd0b5e7e	-0.03402566
29	0x3dbb5943	0.09147885
30	0xbd5a8d45	-0.05335738
31	0x3de55b74	0.11199084
32	0x3d6657b1	0.056235973
33	0x3c66afc8	0.014079995
34	0xbd431cd9	-0.047634933
35	0x3dcaa000	0.09893799
36	0xbdd3a3fc	-0.10334012
37	0x3cf6d2eb	0.03012987
38	0xbb824828	-0.003975887
39	0xbd248a8b	-0.040171187
40	0xbe042a94	-0.12906867
41	0xbd7545d0	-0.05988103
42	0x3e166d1e	0.14690062
43	0xbdb6867d	-0.0891237
44	0xbdd8baba	-0.1058249
45	0x3bb53d3f	0.0055309827
46	0xbdf1b624	-0.11802319
47	0xbdcab584	-0.098979026
48	0x3e09b72e	0.13448784
49	0x3c8cba7e	0.01717877
50	0x3e009f16	0.12560686
51	0xbd31527b	-0.04329155
52	0xbc826c29	-0.015920715
53	0x3d6a3d8c	0.057187602
54	0xbdae573b	-0.08512732
55	0x3db2b6e9	0.087262936
56	0xbd482d86	-0.04887154
57	0x3bf517a1	0.0074796234
58	0x3d37d53e	0.044881098
59	0xbe05a025	-0.13049372
60	0x3daae58f	0.08344566
61	0xbdaf12df	-0.08548521
62	0xbdb0d23c	-0.08633849
63	0xbcb1216c	-0.021622382
64	0xbe050bcb	-0.1299278
65	0x3dc69412	0.09696211
66	0x3b341ebc	0.002748414
67	0xbd99857e	-0.07496165
68	0x3d544142	0.051820047
69	0x3d878c61	0.06618572
70	0xbd86b796	-0.06577985
71	0x3d89a6bb	0.067212544
72	0xbd07cbbb	-0.033153277
73	0x3caa2744	0.020770676
74	0xbd867b32	-0.065664664
75	0xbdda9a4a	-0.106739596
76	0xbd075751	-0.033042256
77	0xbdca5d1f	-0.09881043
78	0xbde4a67a	-0.111645654
79	0xbcfb4e4c	-0.030676983
80	0x3d6d0e5c	0.057875022
81	0x3d7dc119	0.06195173
82	0x3df92470	0.12165153
83	0x3dfe4400	0.12415314
84	0x3d968eb9	0.07351441
85	0x3dbd3cc9	0.092401095
86	0x3dd80000	0.10546875
87	0xbdd727ae	-0.10505615
88	0xbdca62e7	-0.098821454
89	0x3c5cecd5	0.0134841995
90	0x3ca78ca6	0.020452809
91	0xbd684bfb	-0.056713086
92	0x3e0e3fb2	0.13891485
93	0xbdc0ceea	-0.09414466
94	0x3d4c6fe0	0.04991138
95	0xbd2b9382	-0.04188872
96	0x3df8a59f	0.12140965
97	0xbddabb56	-0.10680263
98	0xbd2ee502	-0.042698868
99	0x3cc26463	0.023729509
100	0xbda7075d	-0.08155701
101	0xbdf46e14	-0.11935058
102	0xbe160a7b	-0.14652435
103	0xbd0df69f	-0.034659024
104	0x3dbc2d03	0.09188273
105	0x3dcbd77e	0.09953211
106	0xbcbf2eef	-0.02333781
107	0x3c4d0e40	0.0125156045
108	0x3daf6c64	0.08565596
109	0xbde89ed1	-0.11358417
110	0x3d1fbd0a	0.03899864
111	0x3dbf65a3	0.093455575
112	0x3de953e8	0.11392957
113	0x3db171e7	0.08664303
114	0x3d953214	0.07284942
115	0xbd9e9c3b	-0.07744642
116	0x3bee73bc	0.00727698
117	0xbd1e5637	-0.03865644
118	0x3d51cfe7	0.05122366
119	0xbcb9ee64	-0.022696681
120	0x3dcdf9cd	0.10057411
121	0x3cfb9fe0	0.030715883
122	0xbdc670cb	-0.09689482
123	0xbc273b13	-0.0102069555
124	0x3d7fd263	0.0624565
125	0x3dc23314	0.09482399
126	0xbe1a0982	-0.1504269
127	0x3e1bd4f2	0.15217951
128	0xbdf73e82	-0.12072469
129	0xbce4d20b	-0.027932188
130	0x3c74837f	0.014923929
131	0x3d96408c	0.0733653
132	0xbe0bfb73	-0.13670139
133	0x3d61a0e9	0.055085097
134	0x3dfa0f77	0.12209981
135	0x3dc876c8	0.09788281
136	0x3df235a5	0.11826638
137	0xbd820906	-0.06349377
138	0x3cac8c51	0.021063002
139	0xbdb54770	-0.08851516
140	0x3de40912	0.111345425
141	0x3cf871a5	0.030327627
142	0xbd473348	-0.04863289
143	0xbd82f588	-0.063944876
144	0xbe179970	-0.14804626
145	0x3d1b802f	0.037964042
146	0xbe089fe6	-0.13342246
147	0xbd8bd249	-0.06827218
148	0xbc8204d6	-0.015871447
149	0x3c983d53	0.01858393
150	0xbd6511c4	-0.055925146
151	0x3d2d5868	0.04232064
152	0x3cacc9a8	0.021092251
153	0x3d402e9b	0.046919446
154	0x3da12d1e	0.078699335
155	0x3d9e3702	0.07725336
156	0xbc806be9	-0.015676456
157	0x3d211a77	0.03933188
158	0x3dfbed26	0.12301092
159	0xbd02523f	-0.031816717
160	0x3d8ac346	0.06775527
161	0x3d885347	0.06656509
162	0x3db6a1cb	0.08917578
163	0x3e01babd	0.12668891
164	0xbd1a627b	-0.037691575
165	0x3da64068	0.08117753
166	0xbdb464da	-0.088082984
167	0x3e173a0d	0.14768238
168	0xbd9d8fe9	-0.07693464
169	0x3ca75fb6	0.02043138
170	0x3e18a562	0.14906839
171	0x3d4c818d	0.049928237
172	0x3def0835	0.11671487
173	0x3cc45885	0.02396799
174	0x3de4cc21	0.11171747
175	0xbde1ca19	-0.11024875
176	0x3dca4ca3	0.098778985
177	0xbd907b6e	-0.07054792
178	0x3decf8bb	0.11570879
179	0x3d0a7ecb	0.033812325
180	0xbd5cfceb	-0.05395214
181	0xbcf366bf	-0.02971208
182	0x3c660572	0.014039384
183	0xbbacab63	-0.0052694543
184	0x3db9e783	0.090773605
185	0xbd388fbb	-0.045058947
186	0x3dfdf384	0.123999625
187	0xbc737c90	-0.014861241
188	0x3dc0d994	0.094165
189	0x3de52af5	0.11189834
190	0x3d7189f9	0.05896947
191	0xbde09e29	-0.10967667
192	0x3d96bcdc	0.07360241
193	0x3dbd760b	0.092510305
194	0xbd116bad	-0.03550308
195	0x3d1b659a	0.03793869
196	0x3dde5bf1	0.1085738
197	0x3d578acd	0.052622605
198	0x3bf1b233	0.0073759793
199	0x3e014eb3	0.12627678

lstm.bias_hh_l1 f4 [200]
0	0xbd86a786	-0.06574921
1	0xbdd9967f	-0.10624408
2	0xbd99eb07	-0.07515531
3	0xbb85446f	-0.004066996
4	0xbd5854a5	-0.0528151
5	0xbd386ecd	-0.045027543
6	0xbd1193bf	-0.035541292
7	0x3cc1a223	0.023636883
8	0x3ddc7d65	0.107661046
9	0xbe0743ce	-0.13209459
10	0x3e225ad3	0.15854959
11	0xbe05ed06	-0.13078699
12	0x3dfd7096	0.1237499
13	0xbda1b7a0	-0.07896352
14	0xbcf5fe30	-0.030028433
15	0xbe0f0cd7	-0.13969742
16	0x3d145c12	0.036220618
17	0x3e196ab4	0.1498211
18	0xbe03c88e	-0.12869474
19	0xbe0403d3	-0.12892084
20	0x3db4b18e	0.08822928
21	0xbd5c1e72	-0.053739972
22	0x3de31895	0.11088673
23	0x3d63f438	0.055652827
24	0xbdb07ca4	-0.08617523
25	0xbcdaaacd	-0.026692772
26	0x3e0cc6f6	0.13747773
27	0xbda82e68	-0.08211976
28	0xbcecba5b	-0.028897455
29	0x3b8396eb	0.0040157936
30	0x3df0a2ce	0.117498025
31	0x3cff6bbd	0.031179303
32	0x3e05fc52	0.13084534
33	0x3b017fb6	0.001975996
34	0xbd1c78f3	-0.038201284
35	0x3d606505	0.05478384
36	0x3dcc665a	0.099804595
37	0xbe02da21	-0.12778522
38	0xbd4b2770	-0.049598157
39	0x3e05bdb7	0.13060652
40	0xbb769d6d	-0.0037630454
41	0x3d625370	0.055255353
42	0x3d569055	0.05238374
43	0xbc64d08f	-0.01396574
44	0xbd577680	-0.052603245
45	0x3cb753d2	0.022378836
46	0x3e05f973	0.13083439
47	0x3e1cc76f	0.15310453
48	0x3dd7f654	0.1054503
49	0xbcd03bd2	-0.02541915
50	0xbdc2230e	-0.094793424
51	0xbd119fb8	-0.03555271
52	0xbc8e8e21	-0.017401757
53	0x3d9b7c76	0.075920984
54	0xbcf13941	-0.029446246
55	0xbddd1fc9	-0.10797078
56	0xbdcd5f3d	-0.10027931
57	0x3d988cac	0.07448706
58	0xbcc03522	-0.023462836
59	0xbdae51a2	-0.08511664
60	0xbd0b306e	-0.033981733
61	0x3e0f27ed	0.13980074
62	0x3de65027	0.112457566
63	0xbdcb34f9	-0.09922213
64	0x3d294aa4	0.04133095
65	0xbdb9b4a4	-0.090676576
66	0xbe024fb7	-0.12725721
67	0x3dd89b1d	0.105764605
68	0xbc8ab093	-0.0169299
69	0x3d18a395	0.03726538
70	0x3c22e427	0.009942091
71	0xbcd4b30e	-0.025964286
72	0xbd530f81	-0.051528458
73	0xbb16ecde	-0.0023029367
74	0x3c096204	0.008385185
75	0x3deb6279	0.114933915
76	0x3e25ba0b	0.16184251
77	0xbc58ba50	-0.013228014
78	0xbd5f8233	-0.054567527
79	0xbdf25a83	-0.1183367
80	0xbd87b347	-0.06625991
81	0xbd8d8c8d	-0.069115736
82	0xbde724cc	-0.11286315
83	0x3e0d312a	0.13788286
84	0xbd82d53f	-0.0638833
85	0xbd93277c	-0.071852654
86	0xbbf5f682	-0.0075061927
87	0x3e0f2c31	0.13981701
88	0xbdbfd23f	-0.09366273
89	0x3e09b17e	0.13446614
90	0xbd78dbb4	-0.0607564
91	0x3dbb9168	0.091585934
92	0x3e203e44	0.15648752
93	0xbe0a9cb9	-0.13536347
94	0x3da6f7c3	0.081527255
95	0x3d91d0d9	0.07119913
96	0xbd60b7ed	-0.054862905
97	0xbdd58f8d	-0.10427771
98	0xbdeff63a	-0.11716886
99	0xbc0d529f	-0.008625655
100	0xbe232d55	-0.15935262
101	0xbd64ee5d	-0.055891383
102	0xbdae09cd	-0.08497963
103	0xbda30ed1	-0.079618104
104	0x3d92469d	0.07142375
105	0x3c346d72	0.011012422
106	0x3b58b644	0.0033067623
107	0x3d9522ee	0.07282053
108	0xbdb58673	-0.08863535
109	0x3cd1c694	0.025607385
110	0x3cdee85f	0.027210413
111	0x3d7864a8	0.06064287
112	0x3dd789bc	0.105243176
113	0x3d75b5f6	0.059987985
114	0xbd2fb219	-0.042894457
115	0xbd05b29e	-0.032641046
116	0x3d8e7a44	0.06956914
117	0xbda0dd89	-0.078547545
118	0xbda87f48	-0.08227402
119	0x3daa94ec	0.08329186
120	0x3d521b36	0.05129548
121	0xbde223ba	-0.110419706
122	0xbe1d3e4e	-0.15355799
123	0xbd8310a4	-0.06399658
124	0xbda31f4c	-0.07964954
125	0xbda54518	-0.08069819
126	0xbd6864e4	-0.05673684
127	0x3e02063c	0.1269769
128	0xbde3b1f3	-0.111179255
129	0xbe0a22ae	-0.13489792
130	0xbe1b92d3	-0.15192728
131	0xbda0137f	-0.078162186
132	0xbdd3807f	-0.10327243
133	0xbd0a002a	-0.033691563
134	0xbdb7361b	-0.08945867
135	0x3c7a5b30	0.01528053
136	0x3dfa80e6	0.12231617
137	0xbcd49cd7	-0.025953693
138	0xbdef95ed	-0.11698518
139	0xbb170a41	-0.0023046883
140	0xbd56c5d9	-0.052434776
141	0x3dae6f9b	0.08517381
142	0x3df2b343	0.11850598
143	0xbbfd8565	-0.007736849
144	0xbdf7647c	-0.12079713
145	0x3da4f434	0.080543905
146	0x3d929991	0.07158197
147	0x3e136e61	0.14397575
148	0x3871cde4	5.7650628e-05
149	0x3db4be0f	0.08825313
150	0x3bf05248	0.0073340274
151	0x3d6a5e50	0.05721885
152	0x3e07fd70	0.13280272
153	0xbe1b4714	-0.15163833
154	0x3dd2554f	0.102701776
155	0x3e18c572	0.1491907
156	0xbae81862	-0.0017707462
157	0xbdd4698a	-0.103716925
158	0x3e1d080b	0.153351
159	0x3cad6da6	0.021170449
160	0x3d3194a5	0.04335465
161	0x3dfb43a5	0.122687615
162	0x3d3fdb78	0.04684016
163	0x3d9f4feb	0.07778915
164	0x3cfa562f	0.030558674
165	0x3d61efba	0.05516026
166	0xbd485fa0	-0.04891932
167	0xbdbfab87	-0.09358888
168	0x3de8fc6f	0.11376273
169	0xbde5bbf0	-0.11217487
170	0xbd760c9a	-0.06007061
171	0x3cc9c97b	0.024632206
172	0x3dfed775	0.12443439
173	0xbd605777	-0.054770913
174	0xbda67354	-0.08127466
175	0xbdc69e16	-0.09698121
176	0xbdaf2f8f	-0.08553993
177	0xbca6132b	-0.020272812
178	0x3dc3744e	0.09543668
179	0x3cec8414	0.028871574
180	0xbd31c550	-0.043401062
181	0xbc657b82	-0.014006497
182	0x3e0db883	0.13839917
183	0x3c159cb8	0.009131603
184	0x3deb6bf3	0.11495199
185	0xbd997b91	-0.074942715
186	0xbd1f59d5	-0.03890403
187	0xbd3fcbd4	-0.046825245
188	0xbe023f14	-0.12719375
189	0xbd8d5c70	-0.06902397
190	0xbdfa2ee4	-0.12215975
191	0x3e1220e3	0.14270358
192	0x3e1047f9	0.14089955
193	0x3cdc46a6	0.026889157
194	0x3e0195da	0.1265482
195	0x3d5dc998	0.054147333
196	0x3e0158be	0.12631509
197	0xbc2aadfc	-0.010417458
198	0x3c53b9f8	0.012922756
199	0x3da52786	0.08064179

fc.weight f4 [1, 50]
0	0xbd7371b0	-0.059434593
1	0x3d7e5f18	0.062102407
2	0xbd88a06e	-0.066712245
3	0x3c96a218	0.01838784
4	0x3e228169	0.15869679
5	0x3c5d7005	0.013515477
6	0x3db0c1dc	0.08630726
7	0x3db6d5f5	0.08927528
8	0x3dab5310	0.08365452
9	0x3dd2e1b0	0.10296953
10	0x3d56699c	0.05234681
11	0x3d2246cc	0.0396183
12	0x3c86ac88	0.016439691
13	0xbd8ecf23	-0.06973102
14	0xbe1120c7	-0.1417266
15	0x3c81e8c3	0.01585806
16	0xbcf7ad05	-0.03023387
17	0xbe13f0ca	-0.14447322
18	0x3d91bbb8	0.07115883
19	0xbd7b4c72	-0.0613522
20	0x3db0547f	0.08609866
21	0xbd887bd5	-0.06664244
22	0xbd7fad1d	-0.062420953
23	0xbd849cbf	-0.064752094
24	0x3b49d1a2	0.0030795117
25	0xbcd80fb5	-0.026374677
26	0xbd613b69	-0.0549883
27	0x3d4a9746	0.04946067
28	0x3cc22f69	0.023704248
29	0xbd9df73e	-0.07713173
30	0xbda4dc86	-0.08049874
31	0xbc81f474	-0.015863635
32	0x3c048d2d	0.0080903
33	0x3c6b952f	0.01437883
34	0x3dcc494b	0.09974917
35	0x3d24b189	0.040208373
36	0x3e07a7ea	0.13247648
37	0xbe0f8c39	-0.14018334
38	0x3db1347d	0.086525895
39	0x3dfb02d9	0.122564025
40	0xbc84f7a6	-0.01623137
41	0xbd845586	-0.06461625
42	0x3db40da2	0.08791663
43	0xbd42a3be	-0.047519438
44	0xbda5b5d7	-0.08091324
45	0xbcbc4f74	-0.022987105
46	0xbe2180a5	-0.1577173
47	0x3d26e327	0.040743973
48	0x3daefb78	0.085440576
49	0x3c135c7f	0.008994221
