models/DOT_USDT_model.pt (torch, 128181 bytes, 9 tensors)

lstm.weight_ih_l0 f4 [200, 1]
000000 56 5e a9 3d ff 8a 1d 3e e1 98 15 3e 37 0e 70 bc
       0.08269946 0.15385054 0.146091 -0.014651827
000010 31 db a9 3d 1a d5 b0 3c 24 10 94 3d 9a 8a 83 3d
       0.082937606 0.02158599 0.07229641 0.064229205
000020 e9 51 a0 bd 02 46 b1 3d 7c 99 90 bd 07 0e ad 3c
       -0.07828123 0.08655931 -0.07060525 0.021124853
000030 54 f4 47 3d 1c 43 d1 3c 58 07 09 bd 5a 73 00 be
       0.048816994 0.025544696 -0.03345427 -0.12544003
000040 ed f1 58 3a da 52 23 3d d4 07 85 bd 10 f7 70 3d
       0.0008275796 0.039873935 -0.06495634 0.058829367
000050 24 56 7f 3b a1 88 1b bd 98 28 25 3e 41 f9 1d bb
       0.0038961256 -0.037972096 0.16128767 -0.0024104866
000060 85 66 d6 bc 34 7f 7f 3d 58 cd 02 3c 1b 7a 9e 3c
       -0.026171932 0.06237717 0.007983528 0.019345334
000070 c8 5f e3 bd 1e 82 69 3d d4 47 71 bd 76 34 a6 bd
       -0.11102253 0.057008855 -0.05890639 -0.08115475
000080 48 d2 bc bd a6 f4 9c 3d 9f 69 fa 3d a5 ff 2b bc
       -0.092197955 0.076638505 0.12227177 -0.010497962
000090 8c 31 d5 3d d8 3d fd 3d c9 d4 83 3d 37 c8 b3 bc
       0.10409841 0.123653114 0.0643707 -0.021946056
0000a0 d4 e2 fb bd e2 96 f2 bd cb 79 b9 bc 6f ae 17 3e
       -0.122991234 -0.11845185 -0.022641083 0.14812635
0000b0 81 a0 ca bd 35 9d 16 3d bd 86 18 3e 99 80 03 3c
       -0.09893895 0.036771018 0.14895149 0.008026266
0000c0 ed 08 18 3e d4 c6 a7 3d 5f 48 73 bb eb 99 00 3e
       0.14847155 0.0819222 -0.0037121994 0.12558715
0000d0 af 38 ec 3d 8c df d3 3d 9e bb d0 bd 1a 09 96 bc
       0.11534249 0.103453726 -0.10192035 -0.018314887
0000e0 20 7d 02 3e d2 d2 ff 3d 12 71 e7 bc 74 34 87 bc
       0.12743044 0.12491383 -0.028252158 -0.016504504
0000f0 0f db 85 3d aa 28 61 3c 30 62 d9 bd 10 58 66 3d
       0.06535923 0.013742605 -0.10614431 0.056236327
000100 5f c3 1a bd be 4d 4d bd cb 37 7e 3c 3a af 94 3d
       -0.037783977 -0.05012297 0.015516232 0.07259984
000110 1b c4 21 3e ec 71 39 bd d1 14 91 bd 25 57 24 3d
       0.15797465 -0.04527466 -0.070840485 0.04012217
000120 ee fe 6a bd b6 06 f8 3d a2 ee d8 bd 24 18 b6 bd
       -0.057372026 0.12110655 -0.105923906 -0.08891323
000130 b3 ac 32 3d 37 aa c7 bc 22 11 95 bd d0 44 76 bd
       0.04362173 -0.024373157 -0.072786584 -0.06012422
000140 32 a6 92 3d 2f 75 d7 bd c7 22 5d 3d e5 fa 49 3d
       0.071606055 -0.10520398 0.053988244 0.049311537
000150 cb 28 75 bd 84 e6 51 bd 58 9e 7d 3d ae 50 6a 3d
       -0.059853356 -0.051245227 0.061918586 0.05720585
000160 d0 15 a6 bb 62 3d 83 3d c8 f2 b4 3c ba b2 6c 3d
       -0.005068518 0.06408192 0.022088423 0.057787634
000170 4f 63 99 3d 7b 24 0c 3e ee 67 55 39 a9 1c 0b 3e
       0.07489645 0.13685791 0.0002035198 0.13585152
000180 46 8a 04 be 40 24 4b bd 9a 65 a7 3d f9 bc 3e 3d
       -0.12943372 -0.049595118 0.08173676 0.046566937
000190 a2 ab f2 3b c6 8b f6 bd 2c d8 d9 3d 67 10 c1 bd
       0.007405714 -0.120383784 0.10636935 -0.094269566
0001a0 bf 65 c4 bc 65 eb e3 3d d0 a4 d5 3d 64 b7 47 3c
       -0.023974298 0.11128882 0.10431826 0.01218972
0001b0 fd d1 44 bb 07 8c ab 3d d8 c6 a6 bc 47 43 50 bd
       -0.003003239 0.083763175 -0.020358488 -0.05084541
0001c0 f9 a6 cc 3d 8d 94 e5 bd 71 03 01 3d d1 0f b4 bd
       0.09992785 -0.112099744 0.031497423 -0.08792079
0001d0 35 86 ba 3d d8 7f c0 3c 06 41 07 bc b9 2f aa bd
       0.09107629 0.02349846 -0.008255249 -0.083098836
0001e0 69 8f c4 bc f8 95 f0 3d 61 12 8a bd 3d 3f 26 3e
       -0.023994165 0.11747354 -0.06741787 0.16235061
0001f0 d2 19 ba 3d 47 1c 79 3a 18 3a 06 bd 26 2b 26 3d
       0.09086956 0.000950281 -0.032770246 0.040568493
000200 d2 55 bc bc 48 c4 10 3d a5 36 01 3e 56 8b 12 3d
       -0.022990141 0.03534344 0.12618501 0.035777412
000210 70 44 ab bd 16 6c fc 3d c5 d0 0a be 62 bd 76 3d
       -0.08362663 0.12325303 -0.13556202 0.060239203
000220 28 b5 92 3d 7d b0 07 3e bc 2e c2 3d db 53 1e 3d
       0.07163459 0.13250919 0.0948157 0.03865419
000230 57 74 fe 3b b9 3a 41 3d 01 5b ac bd 2d 29 8b 3b
       0.0077653336 0.047175143 -0.08415795 0.004246852
000240 47 9d 67 bd 96 55 17 ba 11 28 89 bb c2 92 03 3e
       -0.056546476 -0.0005772946 -0.0041856845 0.12848952
000250 e5 43 60 3d 59 47 2a bd c2 f4 9d bc ae a3 1c 3e
       0.05475225 -0.04157195 -0.019281749 0.15296814
000260 a7 c1 5c 3d 50 00 12 3c d3 f0 ae 3d 36 6c c3 3d
       0.05389562 0.008911207 0.08542027 0.09542124
000270 b0 f2 ea bd 09 36 08 3e 56 9b 91 bd 0f 89 15 bd
       -0.1147207 0.13301863 -0.07109706 -0.036507662
000280 3f 47 f8 bc f5 90 93 bd 4a 6b 5c bd 89 f0 a8 3d
       -0.03030741 -0.07205383 -0.053813256 0.082490034
000290 81 34 da bd 0c 59 c7 bd c2 e5 8b 3d 32 e7 a3 bd
       -0.106545456 -0.09733781 0.06830932 -0.080030814
0002a0 4e 53 04 3c 52 37 d1 bd 0a ca 87 3d ad 8e 2a 3c
       0.008076502 -0.1021563 0.06630333 0.010409993
0002b0 83 b1 df 3c ee fb 89 3d cc 8a 84 3c 9f d2 28 bd
       0.027306324 0.06737505 0.016179465 -0.04121649
0002c0 8c 80 0d 3e 1c 8a 4e bd 55 61 86 3d ea 0d 08 3d
       0.13818568 -0.05042468 0.06561533 0.033216394
0002d0 fb bf 1b 3e 88 4d d3 bb 70 c7 2c 3c 11 e9 a9 3c
       0.15209953 -0.0064484514 0.0105455965 0.020741018
0002e0 e0 32 bd bc fb aa b1 bc 19 e8 55 3d df 70 24 3e
       -0.023095548 -0.021687975 0.0522233 0.16058682
0002f0 53 c3 71 bd 86 11 0a 3d f6 0b 07 be 71 ea 48 3c
       -0.059024166 0.033708118 -0.13188156 0.012262926
000300 74 5b 1c bd b0 f1 31 bd 49 86 35 bd cf cc 32 bd
       -0.038173154 -0.04344338 -0.044317517 -0.043652352
000310 43 4e eb bd 2b d0 a9 bd a0 7a eb 3d 73 2e 4a bd
       -0.114895366 -0.08291658 0.11497998 -0.049360704

lstm.weight_hh_l0 f4 [200, 50]
000000 15 ad 99 3d 08 c0 05 be 38 a7 0a 3c c0 08 9e 3d
       0.07503716 -0.13061535 0.00846272 0.07716513
000010 74 dd ac 3d 2c 88 8c bd 48 e5 02 be 3c ff b7 bd
       0.08440676 -0.0686191 -0.12782776 -0.08984229
000020 3a b2 00 bd bc 29 ec 3d 45 fd 21 3d bd 54 d1 3d
       -0.03141997 0.11531398 0.039548177 0.10221241
000030 58 f0 2c 3d 3a 85 e8 3d 80 26 18 3e dc c5 0c 3e
       0.042221397 0.11353536 0.14858437 0.13747352
000040 2e 56 02 be 7c ba b3 bc 1f 64 17 be 77 fa 22 3d
       -0.12728187 -0.021939509 -0.14784287 0.039789643
000050 ae d2 b9 bd 1e 2b f5 3d 92 97 f4 3d 74 ac 0d bd
       -0.09073387 0.119711146 0.11942972 -0.034588292
000060 02 55 19 bd 51 3c a8 bd 1d fc f1 3c 37 63 cb bc
       -0.037434585 -0.082146294 0.029539162 -0.024827583
000070 52 2a 61 bd 8e 70 fd 3c 8c 5a ab bc bd 8c f0 3d
       -0.054972 0.03093746 -0.0209172 0.11745594
000080 77 b9 93 bd 64 01 cc 3d 1e 58 4e bd 94 dd 01 3e
       -0.07213109 0.09961203 -0.050377004 0.12682182
000090 ae f4 62 bd 1e 27 5e 3d c9 cc 17 3e 4a 35 a9 3d
       -0.055409126 0.054236524 0.14824213 0.08262117
0000a0 4c e4 d5 3d f5 80 88 bc fb ef d8 3d 47 74 cf 3d
       0.10443935 -0.016663054 0.10592648 0.101296
0000b0 a5 9c 1a 3d 10 0e 27 3d 3d 7a d2 3d a9 bc 02 be
       0.037747044 0.040784895 0.10277221 -0.1276728
0000c0 ff 28 ef 3c e0 1a 29 bc b1 1a 24 bd 82 7b 1c be
       0.029194353 -0.010321349 -0.040064517 -0.1528149
0000d0 b1 5a d3 3c 1a bc b3 3c 96 05 1a 3e 71 22 0c bd
       0.025800081 0.02194028 0.15041193 -0.034212533
0000e0 4b 34 bc 3d fa 6a 86 3c 71 18 de bd f6 81 e4 bb
       0.091896616 0.016408432 -0.108445056 -0.0069735004
0000f0 27 fb b7 bd 3a c4 04 be fa 92 f0 bd b0 75 d1 3d
       -0.089834504 -0.1296548 -0.117467836 0.10227525
000100 9a 6a 8d bd 26 b3 c1 bd 08 b1 e4 39 d5 ca 01 3e
       -0.06905098 -0.09457998 0.00043619447 0.1267503
000110 e2 6c a2 bd ed 65 f0 3b dd 52 21 bb 3d c7 32 3d
       -0.07930924 0.0073363692 -0.002461604 0.04364704
000120 55 d4 bf 3d 09 43 15 3e 3a 57 1b 3d 44 8c a0 3d
       0.09366671 0.14576353 0.037924983 0.078392535
000130 9a 86 43 3d c3 df b4 3d 26 0b 01 be 57 25 8e 3c
       0.047735788 0.08831742 -0.12601909 0.01735179
000140 17 a7 8f 3d 57 ab 01 3e ce c5 3c 3c 14 80 47 3d
       0.07014292 0.12663017 0.01152177 0.04870613
000150 61 43 8a 3d b7 b4 a3 3d 79 55 ad bd e8 2a 6d bd
       0.06751133 0.07993453 -0.08463568 -0.057902247
000160 31 6f c3 bd 77 10 a8 bc 92 79 c6 3c 7a cf 9c bc
       -0.095426925 -0.020515664 0.024227891 -0.019141901
000170 af da ab bb 87 d6 82 3d e2 20 16 be 8f a5 1b be
       -0.005244575 0.06388574 -0.14660981 -0.15199874
000180 69 c4 bc 3d 31 15 53 3d da 09 0f be 9f 7b f5 bd
       0.0921715 0.05153388 -0.13968602 -0.119864695
000190 3d ff 89 3d a7 b3 25 be d9 63 ce bd 90 28 7a 3d
       0.06738136 -0.16181813 -0.10077638 0.06107384
0001a0 98 2c 92 bd 99 10 bb bd c1 45 84 3d 81 51 e2 ba
       -0.07137412 -0.09134025 0.06458617 -0.0017266722
0001b0 23 ac 10 be 35 6d 0c 3e 0e 71 95 3d 49 43 8d 3d
       -0.14128165 0.13713534 0.07296954 0.06897599
0001c0 e0 80 97 3d 1f 97 32 3d f3 c0 c6 bd 6e 1f 21 3c
       0.07397628 0.04360115 -0.09704771 0.009834154
0001d0 1c 0d 05 bd 01 c1 d8 3a 72 de 63 3c 6d d0 aa 3c
       -0.032483205 0.0016537012 0.013908016 0.020851338
0001e0 93 ed 3b 3c 80 2d a6 3d af 6d 8f bc 65 88 77 bd
       0.011470216 0.08114147 -0.017508356 -0.06043281
0001f0 74 0e df 3d 00 0b 9e 3d 0a a9 3e bd ac b6 23 bd
       0.108914286 0.07716942 -0.046547927 -0.03996913
000200 18 d7 49 3c 1d 03 b4 bd f8 c1 b2 bd c1 0e da bd
       0.012319349 -0.08789656 -0.08728403 -0.10647345
000210 49 33 e4 bd 69 15 fd 3d 83 42 5d 3d 56 ba e9 bd
       -0.11142594 0.12357599 0.05401851 -0.11412494
000220 ee 69 af 3d 7c 58 d8 bd eb 2a f6 3d a1 33 0b 3e
       0.08565126 -0.10563752 0.12019905 0.13593914
000230 b4 cf c6 bc d9 12 c7 bd d4 74 e1 3c 8c f1 72 bd
       -0.024268962 -0.09720392 0.027521528 -0.05931239
000240 26 4f e5 3d 90 2c df bd bf 2c cd ba f4 04 a2 3d
       0.11196737 -0.108971715 -0.0015653594 0.07911101
000250 f6 77 d1 bd c3 6c e6 3d 3f 12 b1 bc ba 33 6a bd
       -0.10227959 0.112512134 -0.021615146 -0.057178237
000260 56 3b c0 3d ba a7 b6 bd da 60 ea bd 46 85 49 3d
       0.093863174 -0.0891871 -0.11444254 0.049199365
000270 45 b1 f2 3d 4a 86 fe 3c 29 a1 08 3e 4d 5b a7 bd
       0.11850218 0.031069893 0.13342728 -0.08171711
000280 7d 11 ea 3d df 89 4f 3d bf 79 f4 3c 80 81 04 be
       0.11429117 0.050668593 0.02984321 -0.12940025
000290 bc 24 dd 3d 07 33 48 bd eb ea 9e bd 7a cd 03 3e
       0.10798022 -0.04887679 -0.07759651 0.12871352
0002a0 dd d3 ee bd 35 9e de bd a3 78 f5 3d 80 a1 0c 3d
       -0.116615035 -0.10870019 0.119859 0.034333706
0002b0 8e 11 1a 3d df 86 b2 3d 17 f6 f5 bd 00 1b 32 3d
       0.037614398 0.08717131 -0.120098285 0.04348278
0002c0 2c 61 f9 3d 2e 9e aa bd f3 4f 66 bd 51 a7 a4 bd
       0.12176737 -0.08330952 -0.05622859 -0.080397256
0002d0 92 99 e4 3d 94 52 0d be 47 56 b2 3c 57 da 0f bc
       0.11162104 -0.13801032 0.021769656 -0.008780084
0002e0 76 bc 7f 3d ef 73 14 3d 68 67 ef 3d 87 c6 87 bd
       0.06243559 0.036243375 0.11689645 -0.06629663
0002f0 ed 31 cb bd 88 4e fc 3d 30 d6 50 3d b0 37 04 bd
       -0.09921632 0.12319666 0.050985515 -0.03227967
000300 ce 3c 16 bb f5 ea 01 3e 5f ce c9 bd 38 35 c2 3d
       -0.0022924426 0.12687285 -0.09853815 0.09482807
000310 4a b9 a8 bc cf 47 20 bd dd 99 02 be 49 4c 9e bd
       -0.020596165 -0.039130982 -0.12754007 -0.07729394
000320 2f 91 e5 bd 18 ca 87 3d 7e 22 74 3d 58 14 68 3d
       -0.11209332 0.06630343 0.059603207 0.056660026
000330 c0 aa 1e 3e 2b da af 3d ed e5 b1 3d 57 c1 25 bd
       0.15494823 0.08586534 0.08686433 -0.040467586
000340 33 ea 34 3d 22 9f 75 3d cf e5 23 3e ff 8b ab 3d
       0.044168662 0.059966214 0.16005634 0.083763115
000350 04 cd 2a bd 51 c7 b8 bd cf b1 d7 bd 84 98 bd 3c
       -0.041699424 -0.090223916 -0.10531961 0.023144014
000360 cd c1 60 bc d8 c8 f2 bd a3 4f 05 bc 79 e3 f7 3d
       -0.013718081 -0.11854714 -0.008136663 0.12103934
000370 69 1d cc 3d 6d b2 66 bd 0f 74 03 3d 88 c4 6b 3d
       0.09966547 -0.056322504 0.032093104 0.057560474
000380 25 a2 38 bd 45 45 89 3c 85 3c a5 bd 11 73 5b 3d
       -0.045076508 0.016756663 -0.08068184 0.053576533
000390 aa 63 ec 3d 74 77 00 3e 11 35 fc 3d b7 1a f6 3c
       0.11542447 0.12545568 0.12314809 0.030042036
0003a0 57 42 bc 3d ed 6e c4 bd 73 56 e8 bc dd c4 2d 3d
       0.09192341 -0.0959147 -0.028361535 0.04242407
0003b0 ac c7 d6 bd 9f c8 d5 ba 4b 67 b6 3d 93 1a e9 bc
       -0.10487303 -0.00163104 0.0890642 -0.028455054
0003c0 f9 41 e1 bc 9b 38 e9 3c c3 05 a0 3d d9 b1 0a be
       -0.027497279 0.028469374 0.07813599 -0.13544406
0003d0 f0 27 e3 bd ee 6f ea 3d 9a a7 1b be f1 49 cc 3c
       -0.11091602 0.1144713 -0.15200654 0.024937602
0003e0 ef 0d 0c 3c 2e 9e 1e 3d 51 e8 ad 3d 6a 3f 5e 3d
       0.008548244 0.03872507 0.084915765 0.054259695
0003f0 71 d9 af 3d 2b 36 0c be a1 ed 27 bd bd 39 08 3e
       0.085863955 -0.13692538 -0.040998105 0.13303275

lstm.bias_ih_l0 f4 [200]
000000 c2 a6 74 bb 85 bf d5 bd 88 e3 3b bd 0a 0e 10 3e
       -0.003733084 -0.1043692 -0.045871288 0.14067855
000010 a4 0f 43 3d c9 e8 d5 bd 72 31 5a 3d dc 5f a0 bd
       0.047622338 -0.10444791 0.05326981 -0.07830784
000020 bb 03 cc 3d c3 e7 c3 bd 55 30 66 bd b1 76 70 3d
       0.09961649 -0.095656894 -0.056198437 0.058706943
000030 e0 16 f1 3d da 95 45 bd 08 53 ad 3d ce b2 f2 3d
       0.11771941 -0.048238613 0.084631026 0.118505105
000040 10 10 09 3e 6b bd 69 bd b5 17 ad 3d 81 92 ab 3d
       0.13385034 -0.05706541 0.084517874 0.08377553
000050 f0 ff e4 3d 10 bc 09 3c 35 90 96 bc df 9f 21 3e
       0.11181629 0.008406654 -0.01837931 0.15783642
000060 5a 50 c6 3a 0a 70 b6 3b f0 c8 bb 3c 47 5c a9 3c
       0.0015130148 0.0055675553 0.022922963 0.020673884
000070 0e ea 3d bd e8 d9 a0 3d 6d 46 e5 3d 9a 92 1c bc
       -0.04636579 0.07854062 0.11195073 -0.009556437
000080 cc 34 e2 3d de ed 81 3c c3 ee a1 bd 40 b9 1e 3e
       0.110452265 0.015860494 -0.07906868 0.15500355
000090 95 d1 b9 3c 30 98 05 3e 5d 6d 94 bc a9 63 a6 bd
       0.022682944 0.13046336 -0.018118555 -0.081244774
0000a0 32 bb 6c 3d ff c3 15 be 45 55 d1 3c ca 06 46 bd
       0.05779571 -0.14625548 0.025553355 -0.04834632
0000b0 e5 9f 8e bd 17 5d 11 3e 7a 3b 64 3c 86 7d 8d bb
       -0.06964091 0.14195667 0.013930196 -0.004317942
0000c0 31 4a 29 3d 2f 0c bd bd 03 e3 73 bd 91 08 a9 bc
       0.04133052 -0.092308395 -0.059542667 -0.020633968
0000d0 3f 76 ba 3d 12 b0 8a 3c 39 90 d8 3c ac dd c0 bd
       0.09104585 0.01692966 0.026435958 -0.094172806
0000e0 50 26 e4 3d 43 62 06 be ee d3 6a bd fd 1d 92 3d
       0.1114012 -0.13123421 -0.05733102 0.07134626
0000f0 45 0f 02 3e 60 1e 27 bd 05 61 08 3e c1 21 e1 bd
       0.12701137 -0.040800452 0.1331826 -0.10992766
000100 e3 b2 79 3d c3 84 ae bd 67 0f 0f 3d 87 99 d2 bd
       0.060961615 -0.08521416 0.0349268 -0.10283189
000110 7c a4 95 3d a9 21 c3 3d df ae b3 bc 1e ff 21 3e
       0.073067635 0.095279045 -0.021933971 0.15819976
000120 27 a7 b2 bd 96 e8 11 3e df 1a 8c bd e0 af c2 bd
       -0.08723288 0.1424888 -0.06841063 -0.09506202
000130 4d ae b2 3c 7a 6f 38 bc 08 fd b0 bd 0f 96 d0 bd
       0.021811629 -0.011257047 -0.08642012 -0.101848714
000140 55 3f b5 3d 0c 46 ea bd cb fa f8 bd fb d1 0e 3d
       0.0884997 -0.11439142 -0.1215721 0.03486822
000150 c0 58 4f bd 8f 08 75 bb 49 19 c2 3d bb a3 46 ba
       -0.050621748 -0.0037389135 0.09477479 -0.00075774983
000160 3b ff 87 3d 01 3c 07 3e ff eb 0b 3e e2 ab 6b 3d
       0.06640478 0.13206483 0.13664244 0.057536967
000170 61 57 88 3d 55 ff 1f 3d 41 3c c7 bd 7d de ec 3d
       0.06657291 0.039061863 -0.097282894 0.11565874
000180 b1 7a e6 bd 8d b7 9a bd a0 23 3e bd cf fe ee 3d
       -0.1125387 -0.07554541 -0.046420693 0.11669695
000190 1d 5a 2d 3d d5 c0 86 bc f3 a3 f6 3d 49 fd d8 bd
       0.042322267 -0.016449371 0.120429896 -0.10595185
0001a0 83 b0 97 3d ce b7 f0 bd b2 38 57 3c 57 13 20 bb
       0.07406714 -0.11753808 0.013136076 -0.002442559
0001b0 f4 40 33 3a 34 86 80 bd b2 5b 21 3e 08 db 6c bd
       0.0006837987 -0.06275597 0.15757635 -0.057826072
0001c0 43 3b 07 3d fe ee c4 3d 53 f9 a1 3d e3 e5 8f 3d
       0.0330155 0.09615897 0.07908883 0.07026269
0001d0 49 be 52 3d f7 3f 86 3c d6 59 98 bd 04 18 aa 3d
       0.051451 0.016387923 -0.0743901 0.08305362
0001e0 c1 21 ee 3d 66 33 1c 3e 03 f6 96 3d c4 fa 07 bb
       0.11627532 0.15253982 0.07371142 -0.0020748833
0001f0 43 c8 26 3d e9 37 d8 3d 6e 36 14 3e f7 03 ea 3d
       0.04071833 0.10557539 0.14473888 0.114265375
000200 8c b6 3b 3d 18 50 ba bd a0 58 44 3c f0 47 3e bd
       0.045828387 -0.09097308 0.0119840205 -0.046455324
000210 c5 f3 ec bd 7d 7c 15 bd ac 67 17 be 2d 42 67 3c
       -0.11569933 -0.036495674 -0.14785641 0.014114899
000220 be dd 24 3d bd 18 e5 3d 3d e9 7f bc 65 dd 13 3d
       0.040250532 0.11186359 -0.015619573 0.03609981
000230 7c e2 a5 bd a8 d8 01 be 7e f2 e7 bb b4 ef 39 bd
       -0.08099839 -0.12680304 -0.007078468 -0.045394614
000240 3a 6b c9 3c fb c3 db bd d8 51 a6 bd c7 60 0c 3e
       0.024587262 -0.1073074 -0.08121079 0.13708793
000250 79 75 92 bd 57 bc c2 bd 53 55 d0 3d 0c 35 12 3e
       -0.071513124 -0.09508579 0.10172524 0.14278048
000260 71 f9 1a 3e 4c 36 b8 ba 57 4a a5 bd 29 47 c6 3d
       0.15134217 -0.0014054268 -0.0807082 0.096815415
000270 1c bb 89 3d 59 80 65 3d 08 27 09 3d f2 d5 ac 3d
       0.067251414 0.056030605 0.03348449 0.08439244
000280 03 8d e7 3d ec 37 9f 3c 4b ab 29 bd 2d 4b f3 3d
       0.11306193 0.019435845 -0.041423123 0.11879573
000290 be 4a ed bd 49 89 d8 3c 51 fe 64 bc ff 5b 90 bd
       -0.115865216 0.02643265 -0.013976649 -0.07048797
0002a0 07 21 9d bd c9 e4 98 bd 21 12 1b 3e 2c 7e 26 3c
       -0.07672315 -0.07465512 0.15143634 0.010161918
0002b0 bf fd 09 3d 16 44 89 bd ad 9a 0f bd 55 50 90 3c
       0.033689257 -0.067024395 -0.03505962 0.01761643
0002c0 49 97 87 bd 09 ed ae bd 4f 88 e0 bb 98 48 a3 bd
       -0.06620652 -0.085413046 -0.0068521868 -0.079728305
0002d0 8b 6f 31 3d 69 57 08 3e 83 d4 1a bd 6d a9 92 bd
       0.043319266 0.13314594 -0.037800323 -0.07161222
0002e0 0a cf 0e 3c 29 cc d6 bd b0 e2 cb bb f1 c2 23 3e
       0.008716354 -0.10488159 -0.0062220916 0.15992333
0002f0 80 35 67 bd 44 78 ca bd ec bb b0 bd 7e 27 dc 3c
       -0.056447506 -0.0988622 -0.08629593 0.0268743
000300 9c b7 dd bd dc c3 4f bd 2e 32 0c 3e ed 9f 8c bd
       -0.10826036 -0.050723895 0.13691017 -0.06866441
000310 74 a9 10 3e 24 51 95 3d cb 6b 1f bd fc 1b cf bd
       0.14127141 0.07290867 -0.03892116 -0.101127595

lstm.bias_hh_l0 f4 [200]
000000 cc 53 02 3e 09 31 8f bb c3 b8 02 3d 3e 66 ed 3d
       0.12727278 -0.004369859 0.031914484 0.11591767
000010 5e 1e d9 bd 4c eb db bb 53 a0 9f 3c 46 b2 0f 3e
       -0.10601495 -0.006711399 0.019485628 0.1403285
000020 6a 35 08 3c d0 bb fb 3d 91 34 05 3e 9f 2e 0d be
       0.008313516 0.12291682 0.13008334 -0.13787316
000030 bf a6 fb 3c 4d 71 a0 3d 00 4f b0 bd 7a a8 60 3a
       0.03071916 0.078341104 -0.08608818 0.0008570027
000040 3f 93 0f 3c f1 31 51 bd 7e df 4a 3c 76 20 bc 3c
       0.008763134 -0.05107302 0.012382386 0.022964697
000050 5c d0 ea bd bd 4f d8 3d b1 88 b3 bd 0d 62 f6 3d
       -0.11465523 0.10562084 -0.08766306 0.120304205
000060 e5 0a f0 3d e7 8b 92 bd 8c be e2 bd e0 f0 c0 3d
       0.11720828 -0.071555905 -0.110715 0.09420943
000070 d1 6d be 3c b8 02 91 bc 29 09 3a 3c 39 f8 2d bd
       0.023245724 -0.017701492 0.011354723 -0.04247305
000080 e2 cc 9a 3d 9b 28 a0 bd 01 82 45 bd fa f2 ec 3d
       0.075586095 -0.07820245 -0.048219685 0.115697816
000090 d4 81 16 3e 1c a1 c2 bd cd 6c 64 3d 2b 2f b0 bb
       0.14697963 -0.095033854 0.055767823 -0.0053767166
0000a0 0e 9f 8a 3d f4 c0 b0 3d eb cf f8 bd 9b 33 a2 bd
       0.067686185 0.08630553 -0.12149032 -0.07919999
0000b0 05 2b 9b 3d 8a 37 1b 3c bd 26 1d bc c6 26 ab bd
       0.07576565 0.009473691 -0.009591755 -0.08357005
0000c0 fe ad a5 bd e6 03 e4 3c 58 eb 5d bd bf ee 54 bd
       -0.08089827 0.02783389 -0.05417952 -0.0519855
0000d0 32 a3 39 3d fe 97 6f 3d 98 e6 11 3e d2 f9 50 bd
       0.04532165 0.05849456 0.14248121 -0.051019497
0000e0 52 f5 ad bd 08 07 a6 bd bc 84 dc 3c ab 6b a9 bc
       -0.08494057 -0.0810681 0.026918761 -0.020681223
0000f0 70 a0 ea 3d 29 1f 94 bd 6d 21 95 bd fe c1 8a 3d
       0.11456382 -0.07232506 -0.07281766 0.06775282
000100 9c 1e 1b bc 77 42 af 3d 8e cb 9c 3d 5e 45 be 3d
       -0.009467747 0.08557599 0.076560125 0.092905745
000110 01 3c e6 3d de 46 e1 3d 9e 7a 73 bd c1 61 01 3e
       0.112419136 0.10999845 -0.05944311 0.12634946
000120 e9 71 9a bd 57 84 d0 bc 0d 9e 0b 3d f9 3e c6 bc
       -0.07541258 -0.02545373 0.034086276 -0.02419995
000130 a3 43 a2 bd b1 c5 8e bd b7 c2 86 3d 8a b5 d5 3d
       -0.07923057 -0.069713004 0.06580108 0.104350165
000140 03 c1 06 bd da a8 d4 bd c3 e3 5f 3d 24 c8 9e bc
       -0.032898914 -0.103837684 0.05466057 -0.019382544
000150 26 85 2c 3d e7 1a 2f bc 2f 07 1d 3e d5 69 6c 3d
       0.042119168 -0.010687566 0.15334772 0.057718117
000160 d8 e2 db bd 4a 1a 2b 3c e8 61 3c 3d e1 b7 07 be
       -0.107366264 0.0104432795 0.04599181 -0.13253738
000170 bc 0f da 3c 2b 78 ad bd ea 7b 61 3d ee 9d cc bc
       0.02661883 -0.08470186 0.055049814 -0.02497765
000180 47 2e ca bd 60 20 07 be 46 1d da 3d d4 c0 a0 3c
       -0.09872108 -0.13195944 0.10650115 0.019623198
000190 22 8b 76 3d 01 18 ac 3c a2 3c f6 bc 63 2d 53 3d
       0.06019128 0.02100754 -0.030058209 0.051556956
0001a0 9d 9a 04 3e a2 71 84 3d a0 a3 62 3d 1f a7 ed 3d
       0.12949605 0.06466986 0.055331826 0.116041414
0001b0 3a af 03 be 1c 06 01 3e db 04 0f 3e 97 d9 cd 3d
       -0.12859812 0.12599987 0.13966696 0.100512676
0001c0 9d 43 fc 3d 84 69 3e bd 3e 90 0c 3e 14 3b b1 bc
       0.12317584 -0.046487346 0.13726899 -0.021634616
0001d0 b2 15 84 3d e5 6d 50 bd 74 a9 8d bd ac fe d7 3d
       0.064494506 -0.050886054 -0.06917086 0.10546622
0001e0 96 5b db 3d fc 7c 52 3b 8a 1c 78 3d 02 eb 77 3d
       0.10710828 0.0032117954 0.060574092 0.060526855
0001f0 c9 ea 0b be f5 da 0f 3d a4 e3 a4 bb 84 c5 98 bd
       -0.13663782 0.035120923 -0.0050320197 -0.07459548
000200 1a e1 0a be 24 6e b2 3d cf be 0f 3e fb 4f f3 3d
       -0.13562432 0.08712414 0.14037631 0.118804894
000210 66 90 19 3d 9b 28 8a 3d a2 f9 72 bd 03 13 dc 3c
       0.037491225 0.06746026 -0.0593201 0.026864534
000220 5e 70 1a 3e 01 af 23 3e 31 af bf 3c 6c a4 82 bc
       0.15081927 0.15984727 0.023398967 -0.015947543
000230 62 70 b4 3d 78 58 b1 3c e7 6c fd bd 6d 42 b6 bd
       0.08810498 0.02164863 -0.12374287 -0.088993885
000240 8e 93 25 be 23 46 9a bd c6 2c df bd 0b 7a 02 3d
       -0.16169569 -0.07532909 -0.10897212 0.03185467
000250 82 b5 2a bd b8 c5 98 bc 05 5c e9 3c a3 36 f1 3d
       -0.041677006 -0.018648967 0.028486261 0.11777999
000260 a1 5f da bd 49 4e 0d 3e 47 0b 05 bc cd 89 08 be
       -0.10662771 0.13799395 -0.0081203645 -0.13333817
000270 dd 98 f7 3d b6 34 a6 3b 21 40 d6 bd 42 9e af 3d
       0.12089703 0.0050722016 -0.1046145 0.08575107
000280 47 d9 97 bd 1b 67 d0 bb fc 47 b9 bb e1 45 8e 3c
       -0.07414489 -0.0063599474 -0.005654333 0.017367305
000290 82 15 a8 3d 37 60 dd 3d 23 5a 9b 3c e3 9f a3 bd
       0.08207227 0.10809367 0.018963879 -0.0798948
0002a0 c7 4c 19 3b b0 ff 03 3e f3 ae ee bd 4f 2f a0 bd
       0.002339171 0.12890506 -0.11654463 -0.078215234
0002b0 15 af 04 3e 7c b7 c8 bc 3b 67 ff 3d c6 09 71 bc
       0.12957413 -0.024501555 0.124708615 -0.014711803
0002c0 ad 04 77 bd 26 66 e4 3d 10 08 85 3d de cb 00 3e
       -0.060307194 0.11152296 0.064956784 0.12577769
0002d0 5e 0b 51 bd 9b 82 7b 3c fd 49 c0 3d ca ad 4e bd
       -0.05103623 0.015350963 0.09389112 -0.050458707
0002e0 a3 36 d7 3d de 50 b4 bd 52 60 54 bd 36 90 c6 3d
       0.10508468 -0.08804487 -0.05184967 0.09695475
0002f0 16 37 08 3e 69 a4 a2 bc 9c 17 d3 bc 66 52 9c 3d
       0.13302264 -0.019853787 -0.025768094 0.07632904
000300 3b 10 9c 3d 1a 02 0e bd 96 e2 80 bd 57 12 9e bd
       0.07620283 -0.034669973 -0.06293218 -0.07718342
000310 8a 4c a0 3d 6c 04 f4 bd 86 55 0a bd 85 dc 63 3c
       0.07827099 -0.11914906 -0.033772968 0.013907556

lstm.weight_ih_l1 f4 [200, 50]
000000 09 9e ac 3d 09 ff 53 bc 3d 5b c0 3c 5b 9b a1 3d
       0.0842858 -0.012939223 0.023481006 0.0789096
000010 e8 7c fc 3d 17 21 ad bd f0 de cb 3c 19 4b b6 bd
       0.123285115 -0.08453577 0.024886578 -0.089010425
000020 a0 99 90 bd 45 93 62 bd 06 01 85 3d 40 e2 2f 3c
       -0.07060552 -0.05531623 0.06494336 0.010735095
000030 9d a9 39 3d 1b 7a 69 bd e1 2d d7 3d b6 53 f6 bb
       0.04532777 -0.057001214 0.105067976 -0.0075173033
000040 0b 5e e3 3d 25 ac 9f 3d 44 4b db bc e8 dc 18 bb
       0.11101922 0.07796506 -0.026769288 -0.002332503
000050 41 29 97 bd 98 d5 36 3d 9d db 41 3d bc fa 1e bc
       -0.073809154 0.044637293 0.04732858 -0.009703334
000060 89 bf 99 3d d7 02 57 bb a4 d3 d7 3d ae 3e be bd
       0.075072356 -0.003280809 0.10538414 -0.09289299
000070 48 17 93 3d b2 47 f4 bc d0 38 c2 bc 4f 87 0e be
       0.07182175 -0.029819343 -0.023708731 -0.13918804
000080 ec 59 07 3e 7d ee 11 be 8f 43 1e 3e a7 2d 4a 3c
       0.13217896 -0.14251132 0.15455459 0.012339986
000090 10 e6 09 3c 52 62 c3 3d ca 62 ed bd 36 f1 8e bd
       0.008416668 0.095402375 -0.11591108 -0.06979601
0000a0 ce 59 c1 3d ed 28 b4 3d 0c 26 c6 3d 78 dd 8f 3c
       0.09440957 0.087968685 0.096752256 0.01756166
0000b0 e4 ec bb 3c 27 5e 36 3d f6 2b e7 3d 7f fd 1a be
       0.022940107 0.044523384 0.11287682 -0.15135764
0000c0 2d db f4 3d 4b 01 bb 3c 79 bd 88 3d 78 39 1f bd
       0.11955867 0.022827765 0.06676764 -0.038873166
0000d0 61 38 24 bd 07 fc 00 3d 99 95 b5 bd b7 96 f3 bd
       -0.04009283 0.031490352 -0.08866424 -0.11893981
0000e0 43 8c f6 bd 18 b4 73 b9 3f 04 61 bd 7b cf 85 3d
       -0.120384715 -0.00023241376 -0.05493569 0.065337144
0000f0 f0 c8 f3 3d f7 9b ce bd be cc 3a bd 21 fb e0 bc
       0.1190356 -0.10088342 -0.045605414 -0.027463498
000100 e6 83 04 3e c2 db df 3c 3f 15 3d bd ac f2 b0 39
       0.1294094 0.027326468 -0.04616284 0.0003375014
000110 b4 50 ce 3d d3 35 c6 3d 39 16 c6 bd 56 2a 11 3e
       0.10073987 0.09678235 -0.096722074 0.14176306
000120 c9 15 43 bd 32 74 a8 3d 92 b4 b5 3c eb 4f 04 3e
       -0.047628198 0.082252875 0.02218083 0.12921111
000130 10 af ca bb 4d 98 57 3d 26 21 f7 3c 21 34 2f bd
       -0.00618542 0.05263548 0.030167174 -0.042774323
000140 07 ca 17 3e 2d e7 e6 3d cc 3b 01 3e c0 9e 99 bd
       0.14823161 0.11274562 0.12620467 -0.07500982
000150 25 fb 56 bd fe c3 02 bd 8f 93 eb 3d 81 03 12 3e
       -0.052485604 -0.031925194 0.11502754 0.14259149
000160 d5 28 8c bd 6c 85 a9 bd 76 d9 9f bd d8 93 f6 3c
       -0.068437256 -0.08277401 -0.07805149 0.030099794
000170 03 13 52 3d 8d fb c3 3d 9d f5 7d bd 6e f8 8f 3d
       0.051287662 0.09569464 -0.062001813 0.07029806
000180 0f 3b 2d 3d c8 4f e0 3d c2 cc d9 3d 14 d7 0a 3b
       0.04229265 0.10952717 0.106347576 0.0021185325
000190 e2 fb bf 3d ab 6f 5b 3d 68 34 c0 3d 36 55 07 be
       0.09374215 0.05357329 0.09384996 -0.13216099
0001a0 91 8f a0 3d d2 b2 ea bd fb 1d c2 bd 84 8d e2 3c
       0.07839883 -0.114598885 -0.094783746 0.02765537
0001b0 3e a5 a7 bd e9 ec ce bd 37 47 03 bc b2 cf c7 3d
       -0.08185814 -0.10103781 -0.008012584 0.097564116
0001c0 90 b5 12 3e 3d 82 f9 bd 51 06 b5 bd 15 3f 01 3e
       0.14327073 -0.12183044 -0.088390954 0.1262172
0001d0 b3 5e 24 3e 38 9e 16 3c 44 18 8e 3d 4e 19 0e 3e
       0.1605175 0.009192996 0.06938222 0.1387684
0001e0 5a 33 ab bd 1c 8d 1b 3d e6 59 3b 3c 29 3d bd 3d
       -0.08359404 0.03797637 0.011435008 0.09240181
0001f0 81 48 c5 bc 7d 21 47 3d 23 78 ae 3d f3 6b 91 3d
       -0.024082424 0.04861592 0.08519008 0.07100668
000200 61 fb 68 3d ee f4 9b bd be 31 c7 3d 88 a8 4d bd
       0.05688036 -0.07615076 0.097262844 -0.050209552
000210 3a 11 fe bd 17 0c 09 3e b7 c8 cf bd 0d 51 43 3c
       -0.124056295 0.13383518 -0.10145705 0.0119211795
000220 4e ca 84 3d 81 1f ba 3c a4 9a 97 3d c0 a8 36 ba
       0.06483899 0.0227201 0.07402542 -0.0006967895
000230 2a 9a 51 3c b3 8f 5d bd 55 5d 2f ba 92 c1 86 bd
       0.012793103 -0.05409212 -0.0006689628 -0.06579889
000240 d9 da 59 3d 81 fe 0d 3d fc fe 0c be 9b 7a 50 3c
       0.053187225 0.034666542 -0.13769144 0.012724544
000250 5e 4c fb bb 04 81 fb bd 00 03 a9 3d 11 c6 fb 3c
       -0.007669016 -0.12280467 0.08252525 0.030734094
000260 5e 36 c6 3d 44 29 85 3d 1c 09 d9 bd 26 9f 04 3c
       0.096783385 0.065020114 -0.105974406 0.008094585
000270 21 76 4a 3d 08 5d 12 be 63 2c 25 bb 61 a1 eb bd
       0.049429063 -0.14293301 -0.0025203458 -0.1150539
000280 47 48 79 3d 08 ec aa 3d fb aa 70 3d 1c 91 2a bd
       0.060859945 0.08345801 0.05875681 -0.041642293
000290 a0 0a 8a 3d 06 1c 24 bd c6 eb 6b bd 2f 38 0e be
       0.06740308 -0.040065788 -0.057597898 -0.1388862
0002a0 c8 45 77 3d a1 58 96 3d 07 d7 8a 3d ad 58 f6 bd
       0.060369283 0.07341123 0.067792945 -0.12028632
0002b0 86 3f ea 3d f7 f9 74 bb c4 a5 f8 bd 14 f5 d4 bb
       0.114378974 -0.0037380436 -0.12140992 -0.006498942
0002c0 d6 f8 ef bd 87 04 c2 3d a8 a4 10 3e 00 ff 4c 3d
       -0.117173836 0.0947352 0.14125311 0.050047874
0002d0 04 91 18 be e4 26 0d 3d c3 3c 39 3d 29 f2 87 bd
       -0.14899069 0.034460917 0.045223963 -0.06637985
0002e0 7c 88 19 3e f9 ee e1 3d 59 f8 6a 3d 93 6e f4 bd
       0.14993471 0.110319085 0.05736575 -0.11935153
0002f0 8f fa ec bc ca dc 0c 3d 59 7d 01 be 05 9d e7 3c
       -0.02892807 0.03439025 -0.12645473 0.028273115
000300 2e 32 af 3d c7 ad db bb d6 58 f5 3d 3e 1e 95 3c
       0.08554493 -0.0067040655 0.11979835 0.018202897
000310 e1 cf fc 3d 07 50 ea 3d b4 98 1c 3d d8 97 aa 3d
       0.12344337 0.11441045 0.038231567 0.08329743
000320 be 71 30 bd 2c c6 8f 3d c9 c8 db bd 57 24 05 be
       -0.043077223 0.0702022 -0.10731656 -0.13002144
000330 b4 b0 f1 bd 20 75 52 3d 65 89 a4 bd 47 89 ee 3d
       -0.118012816 0.05138123 -0.080340184 0.11647277
000340 f7 c6 f4 bd 19 b4 b5 3d 5a dd b4 3d 6e 38 ce 3d
       -0.11952012 0.088722415 0.08831282 0.10069357
000350 35 9b 83 3d bf 13 07 3d 69 20 20 bd 74 44 ba 3d
       0.06426088 0.032977816 -0.03909341 0.09095088
000360 59 ba 89 bd 01 f5 ea 3d 29 40 aa 3c 90 97 ad bc
       -0.06724996 0.11472512 0.020782547 -0.021190435
000370 fb c3 cc 3d 84 e0 08 be cc 9f bc bd 99 15 82 3c
       0.09998318 -0.13366896 -0.09210166 0.01587944
000380 00 a5 b5 3c cf 67 1b bd 75 f8 41 bd a1 b8 0b 3d
       0.022173405 -0.037940796 -0.047356088 0.034111623
000390 b3 1e 87 3d 2e 33 58 3c df 03 b8 3c 44 8a c9 3c
       0.06597652 0.013195796 0.022462783 0.024602063
0003a0 0f 2f 24 bd 2b 6b c6 3c d0 97 09 be 1b 87 f8 3d
       -0.04008394 0.024221024 -0.13436818 0.12135144
0003b0 67 73 61 bd 8b 80 c4 bd bb 11 bf bd fd 5c f4 3d
       -0.055041697 -0.0959483 -0.09329554 0.119317986
0003c0 01 63 c8 bd 85 71 00 be e6 81 cd bd 48 c1 0f be
       -0.097845085 -0.12543304 -0.10034542 -0.14038575
0003d0 34 6d f2 3d e4 92 d3 3c df f0 a1 bd 19 85 6f 3d
       0.11837235 0.025826879 -0.07907271 0.05847654
0003e0 59 a3 82 3d 36 95 96 3d 04 db e4 3d 85 44 cd 3d
       0.06378812 0.073526785 0.111745864 0.10022835
0003f0 82 e4 49 3d 87 18 1c be 1b 4e 1b 3d fc d0 7d bb
       0.049290188 -0.15243731 0.037916284 -0.00387293

lstm.weight_hh_l1 f4 [200, 50]
000000 0f 9c af 3d 27 be c4 3d b9 cb d6 bd 4d 2c 8e 3c
       0.08574688 0.09606581 -0.10488076 0.017355109
000010 a1 c8 c0 bc db 8e 74 bd 43 a0 bf 3d fd e5 d7 3d
       -0.023533167 -0.05970655 0.09356739 0.10541914
000020 29 df 10 be cf 55 f1 3c f9 09 14 be fd 84 c8 bc
       -0.14147629 0.029459862 -0.1445693 -0.024477476
000030 5d a0 a6 bd 96 ab 0a be 65 b5 66 bc bd 22 ba bd
       -0.081360556 -0.13542017 -0.014081334 -0.09088657
000040 a1 c8 cd bd ba ea 62 bc 0d fb 44 bd 77 40 d6 bd
       -0.100480326 -0.0138499085 -0.048090983 -0.104615144
000050 55 9f 1c bd 97 a9 b5 3d 74 32 3c 3d 2e 88 bf 3b
       -0.03823789 0.08870237 0.045946553 0.0058450913
000060 68 1c b7 3d 40 1f eb 3d da d5 44 bd 02 1c c9 3d
       0.08940965 0.1148057 -0.048055507 0.09819795
000070 51 24 88 bc 9e 29 80 3d d0 d8 72 bd ef 0d 83 3d
       -0.01661888 0.06257938 -0.0592888 0.06399142
000080 0c fb 39 bd 05 9a df bd ae 8a b4 3d 1b 64 f0 bc
       -0.045405433 -0.10918049 0.088155136 -0.029344609
000090 0a cf 94 bd 66 6d 1d 3e 8e 47 11 3e f2 88 07 be
       -0.07266052 0.15373763 0.14187452 -0.13235834
0000a0 6e d1 aa bd 8c 27 eb bc b4 19 b5 bd ae de 1c 3d
       -0.08340727 -0.02870538 -0.08842793 0.0382983
0000b0 80 b4 cb 3c 79 a0 f7 3c f5 61 f6 3d 28 73 5d bd
       0.024866343 0.030227887 0.120304026 -0.0540649
0000c0 d4 d3 6f bb 83 14 12 3d 05 bd a1 3d 02 99 3a 3d
       -0.0036594765 0.035664093 0.07897381 0.045556076
0000d0 e5 f8 0a be e4 6a ef bd 23 68 f8 bd b0 c7 53 3d
       -0.13571508 -0.1169031 -0.121292375 0.05170411
0000e0 db e0 ad 3d bd 11 06 3e 5e 8d 6c bd 3e b3 8f bd
       0.084901534 0.13092704 -0.057752006 -0.070166096
0000f0 9a 6a f9 bc 59 23 97 3d 2f eb 12 be 90 47 4d bd
       -0.03044634 0.07379789 -0.14347528 -0.050117075
000100 5f f5 48 bd b0 b2 cc bd b4 82 8b 3c 26 f2 43 3d
       -0.04906213 -0.099950194 0.017030098 0.047838353
000110 ac 03 9c 3c 46 e7 a9 bd 01 c0 ea bd bd 98 f6 bd
       0.01904472 -0.08296065 -0.11462403 -0.12040851
000120 a0 ba 95 3d b8 29 58 bc 13 8d 98 3d d0 26 12 3e
       0.073109865 -0.01319354 0.07448783 0.14272618
000130 69 de 87 3b 9b 11 49 bd 6e 00 3d bb aa d5 ac bd
       0.0041463864 -0.049089056 -0.0028839367 -0.08439191
000140 40 f8 da bd 3f b8 e8 3d 05 cc c9 3d a7 a0 db bd
       -0.10691881 0.11363267 0.09853367 -0.107240014
000150 25 78 06 be 5c 75 77 bd 8e 20 bb bd a5 43 de 3d
       -0.13131769 -0.060414657 -0.09137069 0.10852746
000160 0a 1c 87 bd c1 63 08 bd 08 27 6e 3a 80 04 04 be
       -0.06597145 -0.033298258 0.00090847956 -0.12892342
000170 04 c5 fd bd 38 af cf 3d 7b 20 1f 3d 55 eb 33 3d
       -0.123910934 0.10140842 0.038849335 0.043925602
000180 af 23 5f 3d 2f 50 c9 bc 61 15 34 bc 9e cf bb bd
       0.05447739 -0.024574367 -0.010991425 -0.09170459
000190 28 8a 1e bc fa 90 7f 3d 2e 37 73 3d d4 02 e3 3c
       -0.009676494 0.06239412 0.059378795 0.02771131
0001a0 eb b1 eb 3d 6f c0 f5 bd a6 de 23 3e 4a 08 84 bd
       0.115085445 -0.119995944 0.16002902 -0.064468935
0001b0 e9 15 c6 bd 3e c9 a3 3d e9 4c 2c bd 5c 0c ad bd
       -0.09672148 0.07997368 -0.042065535 -0.08449623
0001c0 8d ef 9e 3c 10 99 d8 3d d5 e1 7e bd a8 b0 d8 3c
       0.019401336 0.10576069 -0.06222709 0.026451424
0001d0 3e 7e 7b 3d 11 b8 de bc 35 d2 99 3d c0 37 40 bc
       0.06139969 -0.02718738 0.07510797 -0.011732042
0001e0 8f 2e 97 3c 39 6a 16 be 24 cb 14 be 08 6d 32 3d
       0.018454818 -0.14688958 -0.14530617 0.04356101
0001f0 38 cf cf 3d 1c 16 e0 3c 69 5b b2 3d 52 6d 87 bc
       0.10146946 0.027354293 0.08708841 -0.01653162
000200 e2 06 04 be 76 49 38 3d 19 c9 9b 3d db 1a a6 bd
       -0.1289325 0.044991933 0.07606716 -0.08110591
000210 4b 95 d4 3d 2b b0 71 39 ca 71 ae 3d aa 19 d6 3d
       0.10380038 0.00023049179 0.08517797 0.10454114
000220 1e 00 b3 bd 36 ac 73 bd 68 da bb 3d 9c ab 61 3d
       -0.08740257 -0.059490405 0.09172517 0.0550953
000230 24 84 65 3d 22 0b a8 bd 5d e5 0e be b0 c7 15 3e
       0.056034222 -0.082052484 -0.13954683 0.14626956
000240 ca 05 c9 bc 6b 9f b4 bd 93 55 fd 3d 85 2a 7b 3d
       -0.024538893 -0.08819469 0.123698376 0.061319847
000250 03 ce e6 3d 0e b4 b1 bc 1c 44 95 3d 67 a9 b1 3d
       0.11269762 -0.021692302 0.072883815 0.08674889
000260 8b 4b 81 3d cb 5b c2 ba 05 a3 b8 3d 8f 57 89 3d
       0.06313237 -0.0014828382 0.090154685 0.067061536
000270 89 a8 06 bd 6b 22 1f be 20 34 bd 3a bd c0 04 be
       -0.03287557 -0.15540473 0.001443509 -0.12964149
000280 75 20 2c be 66 a3 65 3a 99 16 dd 3d 20 db 38 3d
       -0.16809256 0.0008760005 0.10795326 0.04513085
000290 79 1f 1c 3e a2 0f dc 3c f8 6e 3c 3d 54 37 b5 bc
       0.15246381 0.026862923 0.046004266 -0.022121109
0002a0 4a 78 6f 3d 85 8f 0d 3e c3 5a b7 bc 98 9c cb 3c
       0.058464326 0.1382428 -0.022382146 0.024854943
0002b0 0a 8c 00 3e ea 06 d0 bd 56 0e 18 3e d7 d0 c6 3c
       0.1255342 -0.10157569 0.14849219 0.024269504
0002c0 17 ac 84 3c 11 ce c3 3d df dd 67 bd e1 f3 ae bd
       0.01619534 0.095607884 -0.056608077 -0.0854261
0002d0 a4 1e e6 bb 23 44 90 3d e2 d3 58 ba 15 3d 3b bd
       -0.0070226956 0.07044246 -0.0008271319 -0.04571255
0002e0 9c 67 13 3e 62 1a d9 3d 3c 24 41 bd f4 7d f4 3d
       0.14394993 0.10600735 -0.047153696 0.11938086
0002f0 b0 af c6 3b 85 7c 73 bc 04 bb e1 3d 50 5e b4 bd
       0.006063424 -0.014861231 0.110219985 -0.08807051
000300 00 e5 a5 bc 3b 32 8a 3c 2a a1 d3 3d 5b 98 87 3d
       -0.020250797 0.016869655 0.10333474 0.066208564
000310 4e 22 0e 3e 31 e7 97 bd 6f 27 ea bd 5d 35 92 bd
       0.13880274 -0.07417143 -0.114333026 -0.071390845
000320 f6 4e bc bd 37 5d c2 3c d6 bb f3 3d d3 a5 7f bd
       -0.09194748 0.023726089 0.11901061 -0.062414
000330 62 7a 63 3c 1a 67 d1 b8 ba c2 f7 3d 81 46 9e 3d
       0.013884159 -9.985101e-05 0.12097688 0.07728291
000340 de 55 8f 3d cc 45 82 bd 54 2d cf 3b 9e ec df 3c
       0.069988 -0.06360969 0.006322542 0.027334508
000350 d1 4c 3c bd 09 4c e3 bd 78 c6 91 3c b0 fb 90 3b
       -0.045971695 -0.11098487 0.017794833 0.0044245347
000360 fc 7d 0e be bc 2d a4 3c 05 ec 96 bd de fc c5 bc
       -0.13915247 0.02004134 -0.07369236 -0.024168428
000370 d4 eb d4 3d c4 b8 59 3d ff 41 94 bd a6 95 89 bc
       0.10396543 0.05315472 -0.0723915 -0.01679499
000380 16 de e3 3d 38 ef 0c be b3 66 06 bc 3d 75 f5 3d
       0.11126344 -0.1376313 -0.008203196 0.11985252
000390 33 09 bf bd 42 38 de 3c df ef 80 bd 4d 55 0b be
       -0.093279265 0.027126435 -0.06295752 -0.13606758
0003a0 57 9a 57 3d 30 a0 e5 bc f4 7f e4 3d e0 83 5e bb
       0.052637424 -0.028030485 0.111572176 -0.0033953115
0003b0 1e a8 d5 3d 75 de 8c bc 39 e2 46 bd 5e 46 29 bd
       0.104324564 -0.01719592 -0.048555586 -0.041326873
0003c0 93 79 e0 3d 2e 35 94 3d e4 a7 ee 3d 12 2d cf 3d
       0.109606884 0.07236706 0.11653116 0.10116018
0003d0 61 3f a0 bd 8b b6 f6 3d 78 e2 22 bd ef 75 a6 bd
       -0.078245886 0.12046536 -0.03976676 -0.08127963
0003e0 c8 43 c7 3d b5 05 f7 bd 80 71 55 bd 5b ed e2 bd
       0.09729725 -0.120616354 -0.052110195 -0.11080428
0003f0 cf 8e 38 3d 32 cc 16 bd 82 19 09 3c c8 e1 e0 bc
       0.045058068 -0.03681583 0.008367898 -0.02745141

lstm.bias_ih_l1 f4 [200]
000000 cd ef 0d be 11 28 34 bd df 98 d4 bc c4 88 9f bd
       -0.13861008 -0.043983523 -0.0259518 -0.07789758
000010 bd 4e 4c 3d d3 a3 60 3d 92 56 99 3d 0a d3 24 3e
       0.04987978 0.054843735 0.07487215 0.1609613
000020 0f 06 9e 3d bf 7f e4 3d 2a 78 c6 3d 7f df ae 3d
       0.07715999 0.11157178 0.09690888 0.08538722
000030 57 78 e3 3d 13 a4 5c 3b dc 25 35 3d 67 81 a3 3d
       0.111069374 0.0033667132 0.04422556 0.07983666
000040 7d 92 1e be 2a 90 4a 3d d7 84 a9 3d 8f 2a 3d 3d
       -0.15485568 0.04945389 0.0827729 0.046183165
000050 f1 69 bb bd 82 56 e1 3d 4b 2f e2 3d 69 77 1c bc
       -0.09151066 0.11002828 0.11044177 -0.009549954
000060 e0 8a b0 3c db 7f 20 bd 44 ab 83 3d b1 e4 df 3c
       0.021550596 -0.039184432 0.06429151 0.027330728
000070 33 13 2a bd 54 eb 14 3c 4a c7 70 3d 2c 67 db 3d
       -0.041522216 0.00908931 0.058783807 0.10713038
000080 d9 8f 52 bd 9f 99 00 be 8b 03 5c bd 63 29 f8 3d
       -0.051406715 -0.12558602 -0.053714316 0.12117269
000090 db 80 d9 bd 6c c8 13 bd 5a eb fa 3d 00 c3 ea 3d
       -0.1062028 -0.03607981 0.12251921 0.114629745
0000a0 81 58 24 3e 93 4e 92 bd 33 b9 9f bd 18 09 06 3d
       0.16049387 -0.07143893 -0.07798996 0.032723516
0000b0 d7 5d f1 bc 9b 2f 56 3d 2f b7 3a 3d 09 22 90 bd
       -0.029463692 0.052291494 0.045584854 -0.07037742
0000c0 d5 35 b2 bd a8 8f 4d bd 4a 80 cc bd eb 1b 2e 3d
       -0.08701674 -0.05018583 -0.09985407 0.042507093
0000d0 ff 9a 97 bd 09 a8 e4 bd 4b bb 48 bd e7 e3 1c 3c
       -0.0740261 -0.11164863 -0.04900674 0.0095758205
0000e0 98 36 a8 3d 47 22 0a 3e 1a c1 79 3d 04 59 b3 3d
       0.08213538 0.13489638 0.06097517 0.08757213
0000f0 4c be f4 3d fe 04 02 be e7 a5 73 bd 8c 8a e2 3d
       0.11950359 -0.12697217 -0.05948439 0.11061582
000100 41 ff df 3c 9c 23 a1 3d 53 26 00 3e 9e b1 eb bd
       0.027343394 0.0786812 0.1251462 -0.11508487
000110 28 37 f8 bd c2 28 67 3d 2a b8 db bd d4 a2 6b bd
       -0.12119895 0.056435354 -0.10728486 -0.057528332
000120 92 2c cb bc 4a 4c 96 bd df 53 1a 3e c8 51 06 3e
       -0.024801526 -0.0733877 0.15071057 0.13117135
000130 3d c9 2f bc 37 9c 23 3e d3 a8 ac bd f4 98 06 3e
       -0.010729131 0.1597756 -0.08430638 0.13144284
000140 21 e8 b9 3d 58 b2 10 bc cb d9 35 3d cf 7b 66 3d
       0.09077478 -0.008831583 0.044397157 0.056270417
000150 b7 8f 09 3e b0 46 8e bd 34 e5 b2 bc 7f c0 7b 3b
       0.13433729 -0.06947076 -0.021837808 0.0038414297
000160 3a f3 6d 3d 44 1c ab bd 03 d6 cd bd 00 48 06 3d
       0.058093287 -0.083550006 -0.10050585 0.03278351
000170 bf 42 a8 3b 1d f8 8a 3d 17 3e 87 bd 7a 4a 6b 3d
       0.00513491 0.06785605 -0.066036396 0.057444073
000180 97 d4 06 3e 48 1d f3 3d b7 6b 92 3d a5 42 17 3e
       0.13167034 0.11870819 0.07149451 0.14771517
000190 79 14 84 bd 64 23 7a bc 8b e5 10 3d ae 44 91 bb
       -0.06449217 -0.015267227 0.03537516 -0.004433236
0001a0 c8 3c 96 3d e2 37 88 bd 15 39 19 3e c7 ef cf 3d
       0.07335812 -0.06651284 0.14963181 0.10153156
0001b0 ad 20 82 3d bf 37 a1 bd 11 a2 9a 3d be 88 69 bc
       0.06353889 -0.07871961 0.07550443 -0.014253793
0001c0 ac 34 35 3c 8c c4 8e 3d c6 4a fe 3c f1 b0 ff bc
       0.011059921 0.06971082 0.031041514 -0.031212302
0001d0 00 85 c0 3c 98 9e 1a bd 6c 65 e0 bd a3 6e 51 bd
       0.02350092 -0.037748903 -0.10956845 -0.051130902
0001e0 d7 7c d1 3d d2 d9 1e 3b 60 2a a7 bd 00 08 06 3e
       0.102288894 0.0024238718 -0.08162379 0.1308899
0001f0 85 98 1b bd 7a 2b ef 3d 56 be 75 3d 16 af 36 3d
       -0.03798725 0.11678214 0.05999597 0.04460057
000200 9c ce f0 bc 6c 95 c1 bd c5 8e 6e ba 2b 3a c5 bd
       -0.029395394 -0.09452328 -0.0009100254 -0.09630235
000210 42 f6 ba bd 1b 62 72 3d f9 88 1d be 7b 3c 12 be
       -0.09129001 0.059175592 -0.15384282 -0.14280884
000220 68 70 08 be 08 be eb bd d2 6f be 3d f1 34 ba 3d
       -0.1332413 -0.11510855 0.09298672 0.09092129
000230 48 d3 de 3d 09 ab e2 bd 38 26 00 be bc 06 b5 3d
       0.108801425 -0.110677786 -0.1251458 0.08839175
000240 ff e7 1a be 87 78 bd 3d 51 22 9a bd b5 2e 2b bd
       -0.15127562 0.092515044 -0.075260766 -0.04179259
000250 51 a3 40 bd e3 48 98 3d 91 6d 0b bd 13 dc a7 bd
       -0.04703075 0.07435777 -0.034040038 -0.08196273
000260 35 24 f6 3d 14 ed 1a 3d 28 fc fd 3c da 9d f9 3d
       0.12018625 0.03782375 0.031004027 0.12188311
000270 3e 8c 33 bc 25 a4 c0 bd 8b 1d 8f bd c8 15 92 3d
       -0.010958729 -0.09406308 -0.06988057 0.07133061
000280 f5 47 2a 3d d1 a7 a8 3d ce ec 2c bd c7 51 ca bd
       0.04157253 0.082351334 -0.042218022 -0.09878879
000290 fd 77 74 3d 1d 43 57 3d fd 76 5e 3b f0 14 ca 3c
       0.059684742 0.05255424 0.0033945434 0.024668187
0002a0 ad a5 81 3c 18 4d 81 bd a2 b1 17 be a4 e1 ba 3d
       0.01582607 -0.063135326 -0.14813855 0.09125069
0002b0 db ed 3a bd 05 cd 1d 3e eb 8d fc bc fe 63 a2 bd
       -0.045636993 0.1541024 -0.03082939 -0.07929228
0002c0 29 c1 20 3d 2c 7b 7e bd b9 11 9e 3d f8 fa 00 3e
       0.039246712 -0.062129185 0.07718224 0.12595737
0002d0 e8 76 f6 3c 2f 7f 53 3d b6 b7 e0 bd 50 7d 37 bd
       0.030085996 0.051634964 -0.1097254 -0.04479724
0002e0 2c f9 d8 3d 88 2c 54 3c c6 4c 25 3e 5c bc 9a 3d
       0.10594401 0.01295007 0.16142568 0.07555458
0002f0 72 2c df 3d 2d df 19 3e ab 0e 28 bc ef bb 95 bd
       0.10897149 0.15026541 -0.010257403 -0.07311236
000300 ad 80 df bc 51 74 17 3d 76 bb da bd 13 18 52 3d
       -0.027283037 0.036976162 -0.106802866 0.05129249
000310 90 2f b0 3c 41 58 b7 3d c6 34 da 3d 4d ee d8 3c
       0.021507055 0.0895238 0.10654597 0.026480818

lstm.bias_hh_l1 f4 [200]
000000 1d bc 86 bd c2 cb 93 3d 18 f6 8e 3d a4 b5 be 3c
       -0.065788485 0.07216598 0.069805324 0.023279972
000010 82 1a 51 3d 1d d9 54 3d 19 ed 59 3c c3 c2 92 3d
       0.05105067 0.051964868 0.013301157 0.07166054
000020 79 50 d0 bd 2a f7 e7 bc dc 44 ca 3d f3 56 f0 3d
       -0.10171599 -0.0283161 0.09876415 0.11735334
000030 ce 5b ea 3d 71 aa f3 bd 3c 26 9a 3d d2 e5 a9 3d
       0.114432916 -0.118977435 0.07526824 0.08295788
000040 b2 4b 17 be 74 5a 2c 3d 26 f3 fc bd 5c 4d d3 bd
       -0.14774969 0.04207845 -0.123510644 -0.103174895
000050 0f cc ac bd 35 87 1b bd ee 79 00 3d d0 be c2 bc
       -0.084373586 -0.03797074 0.03136628 -0.023772627
000060 71 e4 e8 bd cc 48 1f bd 8d 71 a2 3d 1e 49 bf bd
       -0.11371697 -0.038887784 0.07931814 -0.09340118
000070 15 5b e1 3d da 83 e8 bc dd 48 ff 3d b6 71 f0 3d
       0.11003701 -0.028383184 0.124650694 0.11740439
000080 36 13 83 bd 79 ca 8a bc 58 42 94 bd 2f dd 94 3d
       -0.064001486 -0.01694225 -0.072392166 0.0726875
000090 49 1f 5e 3d 64 e7 19 bd 5e 7f 3c bc 0d 02 dd bd
       0.054229055 -0.037574187 -0.011504976 -0.10791407
0000a0 e8 99 bd 3d c6 fd 02 3d 03 dd 28 bc 6c 36 6e bd
       0.09257871 0.0319803 -0.0103066 -0.05815737
0000b0 27 47 74 bd f8 53 0e be 5a cc 0a be 88 6e 69 3d
       -0.05963817 -0.13899219 -0.13554516 0.056990176
0000c0 ed 35 28 3a 67 f7 cc bd 25 35 6a bd 43 12 c9 3d
       0.0006416727 -0.10008126 -0.05717959 0.09817936
0000d0 f9 2d 58 3d 32 02 c4 bd 6c f5 b9 bd b2 01 1d bd
       0.052778218 -0.09570731 -0.09080014 -0.038331695
0000e0 e8 ba 8f 3c 36 5a ee 3d 2b 7a 38 3d 9c c8 38 bd
       0.017545179 0.116383 0.045038383 -0.04511319
0000f0 82 2e cb 3d 89 c8 a5 3d 77 c3 0c bd 20 f1 3a bb
       0.0992098 0.0809489 -0.034366097 -0.002852507
000100 72 9b e0 bc 29 f9 f1 bd 32 ae c6 bd da 67 8b bd
       -0.027417872 -0.11815102 -0.09701194 -0.068069175
000110 83 67 f6 bd 66 3d e0 bd dc f6 e5 bd 3b e8 bb bd
       -0.12031462 -0.10949211 -0.11228725 -0.09175154
000120 23 e8 19 3e fc 9b dd bc 52 98 de 3d 9c 64 fa 3d
       0.1502996 -0.027051918 0.108688965 0.12226221
000130 15 49 0a 3e 12 65 1a 3e a4 46 d5 3d 9a c7 0a 3e
       0.13504441 0.15077618 0.10413864 0.13552704
000140 47 dc 23 bd ff 18 ed bd 65 76 1e 3e 90 21 22 3d
       -0.040004995 -0.11577033 0.15474851 0.03958279
000150 7b 24 e4 bd c7 83 04 3e 59 41 5a bd c6 46 cc bd
       -0.111397706 0.12940894 -0.053284977 -0.099744365
000160 78 3d b0 3d ec 40 83 3d 24 a6 a0 bd be 6e 44 bd
       0.08605474 0.06408867 -0.07844189 -0.047957174
000170 e0 1d ad bc 8f 54 67 bd e0 68 a8 3c c1 3d f5 3c
       -0.02113241 -0.056477126 0.02055782 0.029936673
000180 e2 7b 8e bd c8 dc f1 bd 53 d2 c0 bc 84 c3 1e bd
       -0.069572225 -0.11809689 -0.02353779 -0.038760677
000190 9a 43 64 bc 00 66 4f 3d 68 34 0c be 1b 11 e3 3d
       -0.013932133 0.050634384 -0.13691866 0.11087247
0001a0 84 1c 25 bd 12 02 0d 3e 47 d2 72 3d a6 73 0c bd
       -0.040310398 0.13770321 0.059282567 -0.03428998
0001b0 ec 9e 0d bd fc c0 3c bd d3 00 b6 3d 3d 5d 6f bc
       -0.034575388 -0.04608248 0.08886876 -0.014609632
0001c0 0e 07 98 3d 74 c7 a0 ba 78 08 f8 3b 10 02 99 3d
       0.074232206 -0.0012266473 0.007569369 0.074710965
0001d0 d4 74 f7 bd 64 38 0e be 1c 26 a9 bd 66 4e 04 be
       -0.1208283 -0.13888699 -0.08259222 -0.12920532
0001e0 ff ae ce 3d a6 3a f7 bd 1e 5b 36 bd 9a 92 24 bc
       0.100919716 -0.12071733 -0.04452049 -0.010044718
0001f0 31 51 69 bd 61 65 d2 3d fd fd 6e bd ab 81 db bd
       -0.056962196 0.10273243 -0.05834769 -0.107180916
000200 cf 0a 12 be 61 62 3d 3d c8 ab 00 be f9 d8 b6 bd
       -0.14261936 0.0462364 -0.1256553 -0.08928103
000210 67 d6 3d bd 5e b2 ff 3d 44 81 b3 bd d6 4f 14 be
       -0.046347048 0.12485193 -0.0876489 -0.1448358
000220 12 02 ce bd 5c b0 b1 3b e1 e6 8c bd 9e 63 ef 3d
       -0.10058989 0.005422635 -0.06879974 0.11688922
000230 86 0d c2 bc e4 96 be 3d 8e 66 a3 3d 63 73 16 3e
       -0.02368809 0.09306124 0.07978545 0.14692454
000240 48 a4 af 3b 46 f0 f3 3d 7b 4d 44 3d 9a 45 91 bc
       0.00536016 0.11911063 0.047925454 -0.017733384
000250 35 74 f3 3d 50 ad 43 3c 08 ea f3 3d 61 d3 fb 3c
       0.11887399 0.011943176 0.11909872 0.030740442
000260 a2 d9 e4 bd 83 ae 59 3d fd ab 9d 3d 6c 0f ff bc
       -0.11174323 0.053144943 0.0769882 -0.031135283
000270 2d 24 a5 3d 9c 48 d8 bc df e3 43 bc d2 52 f9 bc
       0.080635406 -0.02640181 -0.011956184 -0.030435
000280 78 e9 11 3e fa b6 5d 3d 4a dd dc bd 30 a8 03 3e
       0.14249218 0.05412958 -0.10784395 0.12857127
000290 c0 d3 04 bd 22 0c 04 be 88 57 09 be de 45 13 bd
       -0.032428503 -0.12895253 -0.13412297 -0.035955302
0002a0 ed 51 b7 3d 1b 5a 9b bd 3d 80 16 bd 6c b6 15 3e
       0.08951173 -0.07585546 -0.03674339 0.1462037
0002b0 f0 19 a3 bd 30 6d de 3d 33 5d 21 3e 29 dd ac 3d
       -0.079639316 0.108606696 0.15758209 0.084406205
0002c0 55 c0 73 3d 4d 9b 81 bd 4d cf 8c 3d 23 3f b4 bd
       0.059509594 -0.063284494 0.06875477 -0.08801105
0002d0 1a 42 85 3d e0 7a 1f 3d a0 d0 07 bd e0 38 aa bd
       0.065067485 0.038935542 -0.033157945 -0.08311629
0002e0 a7 44 42 3d 06 bd c1 bd af 20 14 bc 1e 5e 4f 3c
       0.047428753 -0.094598815 -0.0090409955 0.012656717
0002f0 a6 e4 08 3e e8 06 1a 3e 33 39 89 3d ee 31 d0 3c
       0.13368472 0.15041697 0.06700363 0.025414433
000300 05 58 d7 bc 21 07 1e 3e 9f 79 a8 3d ed 59 f2 3d
       -0.026287088 0.15432407 0.082263224 0.11833558
000310 31 97 1c bd 27 5a 31 bd 13 ba 0a 3e 98 e7 e2 bd
       -0.038230125 -0.043298867 0.13547544 -0.11079329

fc.weight f4 [1, 50]
000000 da 13 40 3d cf 52 f2 bd 73 a3 a2 39 c5 fa 17 bd
       0.046893932 -0.11832201 0.00031020827 -0.037104387
000010 c5 30 43 bd 23 d8 c3 3d 60 4b e8 3d a4 69 a1 3d
       -0.047653932 0.09562709 0.11342502 0.078814775
000020 e2 76 c1 3d 92 a9 f3 3d c1 56 81 3d ba 31 6d 3d
       0.09446503 0.11897577 0.06315375 0.05790875
000030 ca 7c 82 bd 64 c9 e6 bc 45 d5 d0 bd c9 00 cb 3c
       -0.06371458 -0.028172202 -0.10196928 0.024780648
000040 a0 2f 79 3d 6a b3 24 be b5 25 2a 3d 0a 7d a1 bd
       0.060836434 -0.16084066 0.041539866 -0.078851774
000050 d3 6c 3d bd 39 92 9b bd 2a 26 18 be eb 6a 3e 3d
       -0.04624636 -0.07596249 -0.14858308 0.046488684
000060 b1 e5 59 bd 9f ce 04 3d 44 cf d9 3a 2e c5 06 bd
       -0.053197566 0.03242361 0.0016617556 -0.03290289
000070 b9 b6 41 bd f7 6c 69 3c 3f c0 00 bd e3 75 78 3d
       -0.0472934 0.014247171 -0.03143334 0.0606593
000080 a0 08 f3 bd 4a 5d b2 bc 70 a6 4a bd 8f 16 19 be
       -0.118668795 -0.021773 -0.049475133 -0.14950012
000090 67 a1 10 be 3b d6 0b be 1d 2a 2e bd 80 8d 16 3d
       -0.1412407 -0.13655941 -0.04252063 0.03675604
0000a0 44 d1 ae 3c c8 84 0f be 01 d7 b3 3d 9e 06 0a 3e
       0.02134002 -0.14015496 0.08781243 0.13479087
0000b0 c6 76 98 bd 52 0c 87 bd c0 43 a0 bd c6 b2 04 be
       -0.07444529 -0.06594147 -0.07825422 -0.12958822
0000c0 91 55 b1 bd bc 67 e6 3d
       -0.086588986 0.112502545
