models/DOT_USDT_model.pt (torch, 128181 bytes, 9 tensors)

lstm.weight_ih_l0 f4 [200, 1]
0.08216713 0.15307227 0.14531346 -0.015203309 0.08236398 0.021049295 0.071573064 0.06380077
-0.07907708 0.086348556 -0.071369104 0.020772172 0.04801888 0.026618581 -0.0341588 -0.12557556
6.119184e-05 0.039497368 -0.065676555 0.05822895 0.0031399566 -0.03875632 0.16061199 -0.0031231642
-0.026588257 0.06193185 0.007367587 0.01914478 -0.111740515 0.05660664 -0.059685946 -0.08171798
-0.092895925 0.076303236 0.12145499 -0.011124381 0.103434466 0.12287112 0.063919425 -0.02235343
-0.12350366 -0.11846399 -0.023316806 0.1474302 -0.09948885 0.035946757 0.14825529 0.007436608
0.14792746 0.08158659 -0.004279736 0.12477717 0.11452108 0.1028644 -0.102518655 -0.018874116
0.12667228 0.12445829 -0.029076427 -0.016847363 0.0645572 0.013372717 -0.106968075 0.057762913
-0.03851403 -0.05025324 0.014716133 0.072160676 0.15721872 -0.04592319 -0.071605116 0.039279632
-0.058069333 0.1203743 -0.10634729 -0.08938516 0.042978194 -0.0246399 -0.07351282 -0.060529925
0.07078873 -0.10578765 0.053266484 0.04893657 -0.060695045 -0.051883806 0.061217006 0.056397494
-0.005549112 0.06363218 0.021551788 0.05770843 0.07419304 0.13612539 -0.00036767265 0.13497864
-0.13014111 -0.050205346 0.08115053 0.04619939 0.006681424 -0.11952871 0.10553731 -0.09362223
-0.024697429 0.11061139 0.10354317 0.011557067 -0.0021301187 0.08326625 -0.021186773 -0.05024828
0.099108115 -0.11220469 0.03072914 -0.08845034 0.09023451 0.022944205 -0.0074406234 -0.08385816
-0.024870554 0.116666876 -0.06829658 0.16163254 0.0916 0.00037356652 -0.033523 0.040511414
-0.0221731 0.03474921 0.12537874 0.035047356 -0.08287247 0.12280943 -0.1347182 0.059527088
0.07090954 0.1316935 0.09420751 0.03802282 0.008445811 0.0476868 -0.08342734 0.005084526
-0.055871133 0.000324468 -0.0034020296 0.12783717 0.055484664 -0.04111628 -0.019825062 0.15220778
0.05311449 0.008362338 0.08485138 0.09488973 -0.11544713 0.13259883 -0.0718737 -0.036724865
-0.031048192 -0.07240439 -0.05460291 0.08356937 -0.10721633 -0.097460896 0.067560315 -0.080417275
0.007377738 -0.1027456 0.06559587 0.009633071 0.026622618 0.06668968 0.0157732 -0.04165797
0.13759547 -0.050626487 0.06490548 0.032813538 0.15134776 -0.0070144534 0.009854949 0.0203921
-0.02391504 -0.022311067 0.05158017 0.15983157 -0.05947892 0.033308756 -0.13236113 0.012255269
-0.038831394 -0.044156946 -0.0448589 -0.044439666 -0.11558784 -0.08350109 0.11445005 -0.04970827
00000000: 3e47 a83d fabe 1c3e 0dcd 143e 4d17 79bc
00000010: 72ae a83d 926f ac3c e694 923d faa9 823d
00000020: 2af3 a1bd 83d7 b03d f729 92bd 672a aa3c
00000030: 72af 443d 360f da3c 19ea 0bbd e196 00be
00000040: 1e54 8038 fec7 213d 6e81 86bd 7b81 6e3d
00000050: bbc7 4d3b f2be 1ebd 7877 243e 00ae 4cbb
00000060: 9ecf d9bc 40ac 7d3d cd6b f13b 83d5 9c3c
00000070: 36d8 e4bd 5ddc 673d 4079 74bd c25b a7bd
00000080: 3840 bebd df44 9c3d 65bd f83d 0943 36bc
00000090: 73d5 d33d dba3 fb3d 30e8 823d 8a1e b7bc
000000a0: 7def fcbd 409d f2bd e302 bfbc f1f7 163e
000000b0: cfc0 cbbd e83c 133d 3cd0 173e caae f33b
000000c0: 4c7a 173e df16 a73d 073d 8cbb 2c8b ff3d
000000d0: 078a ea3d 92aa d23d 4df5 d1bd e49d 9abc
000000e0: 61b6 013e fde3 fe3d b031 eebc 7b03 8abc
000000f0: 9136 843d 3e19 5b3c 1412 dbbd ce98 6c3d
00000100: e3c0 1dbd 57d6 4dbd ef1b 713c fac8 933d
00000110: f2fd 203e f419 3cbd b4a5 92bd aee3 203d
00000120: 1cda 6dbd cd86 f63d 9ccc d9bd 910f b7bd
00000130: e709 303d 9ed9 c9bc e48d 96bd 3aee 77bd
00000140: aff9 903d 32a7 d8bd f52d 5a3d b671 483d
00000150: 5e9b 78bd 1d84 54bd afbe 7a3d 0f01 673d
00000160: 53d5 b5bb 9751 823d 608d b03c ad5f 6c3d
00000170: 85f2 973d 7464 0b3e 30c4 c0b9 d737 0a3e
00000180: b643 05be 1fa4 4dbd 4032 a63d 923b 3d3d
00000190: d9ef da3b 78cb f4bd f223 d83d 03bd bfbd
000001a0: 4352 cabc 3988 e23d 710e d43d da59 3d3c
000001b0: 7699 0bbb 7f87 aa3d e28f adbc 24d1 4dbd
000001c0: 32f9 ca3d 93cb e5bd adbb fb3c 7425 b5bd
000001d0: dfcc b83d 7cf5 bb3c 79d0 f3bb d4bd abbd
000001e0: 55bd cbbc 0bef ee3d 14df 8bbd 0083 253e
000001f0: c898 bb3d 40db c339 6a4f 09bd 4cef 253d
00000200: 5ca4 b5bc 3055 0e3d 4963 003e d18d 0f3d
00000210: 0bb9 a9bd 8383 fb3d 91f3 09be add2 733d
00000220: 0539 913d a9da 063e deef c03d d1bd 1b3d
00000230: 4d60 0a3c 3c53 433d f4db aabd 189c a63b
00000240: 21d9 64bd 5c1d aa39 96f4 5ebb bfe7 023e
00000250: e343 633d 8b69 28bd 2b68 a2bc 5bdc 1b3e
00000260: 948e 593d 3002 093c 8fc6 ad3d 8c55 c23d
00000270: 8b6f ecbd fdc7 073e 8532 93bd d06c 16bd
00000280: c758 febc c148 94bd 4da7 5fbd 6b26 ab3d
00000290: 3c94 dbbd 9499 c7bd 105d 8a3d d0b1 a4bd
000002a0: f4c0 f13b 496c d2bd 2157 863d 07d4 1d3c
000002b0: ad17 da3c 9994 883d cc36 813c 8ca1 2abd
000002c0: d4e5 0c3e b85d 4fbd 2aed 843d 7d67 063d
000002d0: e8fa 1a3e 80d9 e5bb a776 213c 550d a73c
000002e0: 79e9 c3bc b3c5 b6bc ba45 533d e3aa 233e
000002f0: 2ba0 73bd c36e 083d ad89 07be 53ca 483c
00000300: ab0d 1fbd eadd 34bd f7bd 37bd 5e06 36bd
00000310: 51b9 ecbd 9f02 abbd ca64 ea3d e69a 4bbd

lstm.weight_hh_l0 f4 [200, 50]
0.07479852 -0.1302507 0.008072901 0.07748154 0.08411312 -0.06889326 -0.12819614 -0.09008225
-0.031101814 0.11349545 0.03918547 0.102362126 0.04183759 0.115811236 0.14822786 0.13759798
-0.1276385 -0.022146065 -0.14752437 0.03952191 -0.09106144 0.11933079 0.11920523 -0.03498892
-0.03735466 -0.082433194 0.02925897 -0.024775624 -0.05466751 0.030707017 -0.02131815 0.117221676
-0.07178429 0.09926837 -0.04998949 0.12651421 -0.055782095 0.053826634 0.14796062 0.0824037
0.10461517 -0.016734164 0.106291674 0.10159248 0.03803526 0.04114066 0.10310609 -0.12803926
0.029450234 -0.010040271 -0.04050562 -0.15224408 0.025198543 0.022462128 0.1499125 -0.034685668
0.09131839 0.015966617 -0.10791765 -0.013776499 -0.09041054 -0.12930055 -0.11806403 0.10346923
-0.06961987 -0.09470126 -0.0001291741 0.12633584 -0.07878158 0.006858259 -0.0029976435 0.043054912
0.09323413 0.14515115 0.03821854 0.07789675 0.047248356 0.08845632 -0.12550797 0.016913535
0.06952896 0.12619595 0.0120793255 0.048154496 0.06811148 0.07941867 -0.08522099 -0.058527883
-0.09591043 -0.020932939 0.024616543 -0.019064529 -0.0046681445 0.06439122 -0.14611886 -0.15143113
0.09271757 0.050955255 -0.13922238 -0.119378135 0.0669145 -0.16122673 -0.10139627 0.06162626
-0.071895525 -0.091839485 0.06398915 -0.0021945243 -0.14073725 0.13471514 0.07237852 0.06934492
0.07336332 0.045594905 -0.09763239 0.009742206 -0.033068128 0.001226004 0.014452956 0.020358348
0.010916166 0.08053246 -0.017955981 -0.061063148 0.10921458 0.07665384 -0.047052592 -0.04012593
0.012850482 -0.08834936 -0.08791391 -0.106934525 -0.11084975 0.122998364 0.054635882 -0.11466038
0.08504885 -0.10627856 0.11969209 0.13549766 -0.023874093 -0.09705768 0.028115693 -0.058788463
0.11248217 -0.108389206 -0.0010019874 0.07851355 -0.10179971 0.11302815 -0.021895697 -0.056794196
0.09345332 -0.08881323 -0.114764266 0.04888969 0.11811455 0.03078596 0.13375646 -0.08261345
0.113918595 0.050811935 0.029444233 -0.122690976 0.10761129 -0.04856508 -0.077974625 0.12852348
-0.11628305 -0.10897417 0.11951753 0.033938084 0.03738686 0.08675164 -0.12004717 0.04316803
0.12147722 -0.08348649 -0.055904776 -0.080627516 0.11120791 -0.13828781 0.022140032 -0.009172701
0.06284207 0.03591173 0.11650509 -0.06672316 -0.099529676 0.12295089 0.05112292 -0.032244544
-0.0019091178 0.12718958 -0.09821794 0.09519005 -0.020241851 -0.03952412 -0.12728024 -0.07695597
-0.11235273 0.06668348 0.059192926 0.05700458 0.15463535 0.08557751 0.08647694 -0.04072799
0.04450454 0.056524843 0.1596732 0.08392597 -0.042103514 -0.08849269 -0.10569632 0.023234066
-0.014093339 -0.11876777 -0.007800226 0.120752744 0.099320404 -0.056722462 0.031851895 0.05714004
-0.04497639 0.016448092 -0.08097828 0.05366656 0.11574634 0.12520975 0.122727424 0.029790072
0.09229115 -0.09628329 -0.027952988 0.042097103 -0.1052668 -0.002063837 0.08876736 -0.028687181
-0.027305834 0.028400961 0.07852122 -0.13512783 -0.11061081 0.11484546 -0.15165056 0.024548452
0.0088205235 0.039035197 0.08470578 0.05458831 0.08550357 -0.13662602 -0.04126016 0.13279562
00000000: f72f 993d 7160 05be 3344 043c a4ae 9e3d
00000010: 8043 ac3d e917 8dbd d945 03be 0b7d b8bd
00000020: 3bc9 febc 4d70 e83d f280 203d 3ca3 d13d
00000030: e55d 2b3d 712e ed3d 0bc9 173e 7ce6 0c3e
00000040: abb3 02be aa6b b5bc a110 17be bae1 213d
00000050: 6c7e babd b463 f43d df21 f43d 8b50 0fbd
00000060: 3301 19bd bcd2 a8bd 82b0 ef3c 40f6 cabc
00000070: 0aeb 5fbd 488d fb3c 67a3 aebc eb11 f03d
00000080: a403 93bd 374d cb3d c8c1 4cbd f18c 013e
00000090: c47b 64bd 5179 5c3d fd82 173e 45c3 a83d
000000a0: 7a40 d63d 1616 89bc 73af d93d b80f d03d
000000b0: dcca 1b3d 1c83 283d 4929 d33d b91c 03be
000000c0: 9e41 f13c f37f 24bc 39e9 25bd dfe5 1bbe
000000d0: 2d6d ce3c 7f02 b83c aa82 193e 8f12 0ebd
000000e0: 2305 bb3d 6ccc 823c ee03 ddbd d3b6 61bc
000000f0: 2929 b9bd 5d67 04be 8ecb f1bd ade7 d33d
00000100: dd94 8ebd bcf2 c1bd e972 07b9 2f5e 013e
00000110: 3d58 a1bd 3fbb e03b 1d74 44bb 595a 303d
00000120: 89f1 be3d 81a2 143e 0b8b 1c3d 5588 9f3d
00000130: 7e87 413d 9628 b53d 2985 00be 418e 8a3c
00000140: 3365 8e3d 8339 013e 5de8 453c a63d 453d
00000150: 087e 8b3d 41a6 a23d 5888 aebd efba 6fbd
00000160: b06c c4bd 8e7b abbc a2a8 c93c 372d 9cbc
00000170: 3cf7 98bb 8bdf 833d 2fa0 15be c310 1bbe
00000180: b6e2 bd3d 75b6 503d 5090 0ebe 867c f4bd
00000190: 780a 893d 9f18 25be d9a8 cfbd d16b 7c3d
000001a0: f63d 93bd 5716 bcbd be0c 833d 02d2 0fbb
000001b0: 6d1d 10be c4f2 093e 313b 943d b604 8e3d
000001c0: 823f 963d b9c1 3a3d 7ef3 c7bd c69d 1f3c
000001d0: 7272 07bd deb1 a03a 17cc 6c3c 8dc6 a63c
000001e0: b8d9 323c 34ee a43d 6c18 93bc 5a1d 7abd
000001f0: e5ab df3d b0fc 9c3d 38ba 40bd 165b 24bd
00000200: d48a 523c 82f0 b4bd 350c b4bd 7d00 dbbd
00000210: 3205 e3bd 91e6 fb3d e0c9 5f3d 10d3 eabd
00000220: 172e ae3d 93a8 d9bd 2021 f53d e6bf 0a3e
00000230: 9a93 c3bc 2dc6 c6bd e252 e63c 2ccc 70bd
00000240: 0d5d e63d 29fb ddbd 1e55 83ba b6cb a03d
00000250: 5e7c d0bd 4d7b e73d 9b5e b3bc 08a1 68bd
00000260: 7464 bf3d b6e3 b5bd 8709 ebbd 8e40 483d
00000270: 0be6 f13d d632 fc3c 74f7 083e 3e31 a9bd
00000280: 274e e93d 2d20 503d 0835 f13c 6845 fbbd
00000290: 4f63 dc3d 2dec 46bd 29b1 9fbd a99b 033e
000002a0: cf25 eebd da2d dfbd 9bc5 f43d a902 0b3d
000002b0: f722 193d d8aa b13d 4adb f5bd f6d0 303d
000002c0: 0cc9 f83d f7fa aabd 68fc 64bd 0a20 a5bd
000002d0: f9c0 e33d 529b 0dbe 035f b53c 1949 16bc
000002e0: 58b3 803d 2e18 133d 389a ee3d 27a6 88bd
000002f0: 37d6 cbbd adcd fb3d 4466 513d db12 04bd
00000300: 5d3b faba fc3d 023e 7d26 c9bd 00f3 c23d
00000310: 3dd2 a5bc 0be4 21bd c055 02be 179b 9dbd
00000320: 3019 e6bd 5991 883d 4874 723d a27d 693d
00000330: bb58 1e3e 4343 af3d d21a b13d 65d2 26bd
00000340: 644a 363d 9886 673d 5f81 233e 61e1 ab3d
00000350: bc74 2cbd a83b b5bd 5077 d8bd 5e55 be3c
00000360: c0e7 66bc 843c f3bd 0a99 ffbb 374d f73d
00000370: 7f68 cb3d d055 68bd 2277 023d ad0b 6a3d
00000380: 2a39 38bd 26be 863c f1d7 a5bd 78d1 5b3d
00000390: 6b0c ed3d fc36 003e 8458 fb3d 4f0a f43c
000003a0: 2403 bd3d 2c30 c5bd aafd e4bc 036e 2c3d
000003b0: 1f96 d7bd 7041 07bb a9cb b53d 6101 ebbc
000003c0: 7cb0 dfbc 22a9 e83c bccf a03d f35e 0abe
000003d0: ec87 e2bd 1934 eb3d 494a 1bbe d619 c93c
000003e0: f583 103c 5fe3 1f3d 397a ad3d fe97 5f3d
000003f0: 7f1c af3d b1e7 0bbe 6a00 29bd 93fb 073e

lstm.bias_ih_l0 f4 [200]
-0.00415015 -0.10502503 -0.04652995 0.14023815 0.047166348 -0.10486494 0.05266477 -0.078621164
0.0989399 -0.09575445 -0.056842297 0.058473647 0.11704054 -0.0470737 0.084044695 0.118483454
0.133204 -0.057319667 0.08391874 0.083292834 0.11118226 0.0077388207 -0.018933507 0.15724446
0.0012167955 0.0052386275 0.022428952 0.020580132 -0.046960805 0.078256875 0.111289315 -0.01000445
0.10987053 0.015643477 -0.079766 0.1544952 0.022136806 0.12979902 -0.018452805 -0.081531174
0.057404295 -0.1461633 0.024996933 -0.048919708 -0.070069596 0.14125217 0.013351832 -0.004786781
0.04090842 -0.09253568 -0.059991974 -0.021318782 0.090346545 0.016455946 0.025957758 -0.094609894
0.11076453 -0.13157173 -0.058033664 0.07112099 0.12633224 -0.041048612 0.1324805 -0.108321495
0.060352594 -0.08522932 0.034249213 -0.10314614 0.07243559 0.09475086 -0.022574313 0.15747705
-0.0878064 0.14187992 -0.06871213 -0.09541554 0.021291591 -0.011413769 -0.08702167 -0.1021338
0.087803654 -0.11485757 -0.12217513 0.034613002 -0.051341344 -0.004256926 0.09419437 -0.0014450528
0.066043705 0.13173802 0.13622905 0.057566185 0.06599154 0.03845369 -0.09773081 0.114908926
-0.11312569 -0.076033235 -0.04688285 0.116441704 0.041715913 -0.015714973 0.11971603 -0.10541991
0.07346251 -0.11809772 0.01247805 -0.0029569457 0.001439522 -0.06328937 0.15686703 -0.05734611
0.03231301 0.09616527 0.07843652 0.06984855 0.05072802 0.015953869 -0.073695704 0.08241111
0.115520164 0.15184796 0.07295338 -0.002673621 0.041327357 0.10511562 0.14410815 0.1142912
0.046523068 -0.09145027 0.011293293 -0.047070015 -0.11506042 -0.036820266 -0.14713049 0.013519629
0.03964289 0.11116516 -0.016112238 0.035590023 -0.08043664 -0.12640443 -0.0064660427 -0.044680074
0.025141073 -0.10652322 -0.080544986 0.13655593 -0.07090315 -0.09474326 0.10130066 0.14214689
0.1506846 -0.0018388747 -0.08115611 0.09640624 0.06664748 0.055729266 0.032830477 0.084292084
0.11244614 0.01920743 -0.042090233 0.1199677 -0.116414316 0.026425635 -0.014601813 -0.07074855
-0.07729621 -0.07512316 0.15085454 0.009505938 0.03313013 -0.0675838 -0.03534289 0.017294124
-0.06667095 -0.08550466 -0.007436112 -0.08000971 0.042689696 0.13269761 -0.03837202 -0.07183939
0.008019928 -0.10538343 -0.0067426306 0.15928994 -0.0567822 -0.09913668 -0.08665127 0.02697365
-0.10879498 -0.051310137 0.13649361 -0.069327235 0.1406998 0.072448164 -0.039324947 -0.10136303
00000000: fbfd 87bb 5d17 d7bd 3096 3ebd 979a 0f3e
00000010: 8031 413d 6ec3 d6bd 04b7 573d 2204 a1bd
00000020: 01a1 ca3d e91a c4bd 78d3 68bd 1082 6f3d
00000030: f3b2 ef3d 5ad0 40bd a01f ac3d 74a7 f23d
00000040: a166 083e 07c8 6abd 97dd ab3d 6f95 aa3d
00000050: 86b3 e33d ef95 fd3b 711a 9bbc b104 213e
00000060: e27c 9f3a cba8 ab3b ecbc b73c aa97 a83c
00000070: f959 40bd 2445 a03d a7eb e33d b4e9 23bc
00000080: cd03 e13d c026 803c 5b5c a3bd fd33 1e3e
00000090: 3f58 b53c 09ea 043e 562a 97bc d1f9 a6bd
000000a0: c420 6b3d d5ab 15be 5ec6 cc3c 0860 48bd
000000b0: a680 8fbd 69a4 103e a4c1 5a3c 6eda 9cbb
000000c0: 968f 273d 5983 bdbd 25ba 75bd baa4 aebc
000000d0: 9c07 b93d 9fce 863c 5da5 d43c d5c2 c1bd
000000e0: 84d8 e23d bdba 06be b5b4 6dbd e2a7 913d
000000f0: 3d5d 013e 9722 28bd f8a8 073e a9d7 ddbd
00000100: 4834 773d b68c aebd e748 0c3d 493e d3bd
00000110: 1c59 943d bd0c c23d c4ed b8bc aa41 213e
00000120: d8d3 b3bd f848 113e f2b8 8cbd 3969 c3bd
00000130: b46b ae3c d100 3bbc 6b38 b2bd 872b d1bd
00000140: 67d2 b33d 723a ebbd f436 fabd 5dc6 0d3d
00000150: 4d4b 52bd af7d 8bbb fae8 c03d ed67 bdba
00000160: ec41 873d 55e6 063e a17f 0b3e 85ca 6b3d
00000170: 9326 873d 9e81 1d3d 1727 c8bd 5f55 eb3d
00000180: 71ae e7bd 50b7 9bbd 3b08 40bd fd78 ee3d
00000190: 4ede 2a3d b0bc 80bc ae2d f53d 65e6 d7bd
000001a0: 8373 963d 38dd f1bd bc70 4c3c 51c9 41bb
000001b0: 58ae bc3a db9d 81bd c0a1 203e c1e3 6abd
000001c0: a65a 043d 4cf2 c43d 54a3 a03d c20c 8f3d
000001d0: 2fc8 4f3d b0b1 823c c6ed 96bd 28c7 a83d
000001e0: d695 ec3d 087e 1b3e 9568 953d eb37 2fbb
000001f0: e046 293d dc46 d73d 1691 133e 8111 ea3d
00000200: f98e 3e3d 474a bbbd 8107 393c 7dcc 40bd
00000210: cca4 ebbd d9d0 16bd 60a9 16be 6f81 5d3c
00000220: 9560 223d 8faa e33d d0fd 83bc d8c6 113d
00000230: f7bb a4bd 2a70 01be 19e1 d3bb 7402 37bd
00000240: a7f4 cd3c d928 dabd c5f4 a4bd 51d5 0b3e
00000250: ac35 91bd c108 c2bd b876 cf3d f48e 113e
00000260: 104d 1a3e 6506 f1ba 2d35 a6bd a270 c53d
00000270: 797e 883d 5f44 643d 4079 063d 54a1 ac3d
00000280: 294a e63d e658 9d3c cf66 2cbd a0b1 f53d
00000290: a16a eebd 937a d83c 713c 6fbc 9ee4 90bd
000002a0: 7a4d 9ebd 2cda 99bd 9d79 1a3e cbbe 1b3c
000002b0: 76b3 073d 6069 8abd b5c3 10bd 68ac 8d3c
000002c0: c78a 88bd 111d afbd a1aa f3bb 21dc a3bd
000002d0: 64db 2e3d e2e1 073e fb2b 1dbd 8820 93bd
000002e0: 0466 033c 45d3 d7bd 49f1 dcbb e71c 233e
000002f0: 7494 68bd 2c08 cbbd 3976 b1bd d8f7 dc3c
00000300: e7cf debd 942a 52bd fbc4 0b3e 70fb 8dbd
00000310: 9c13 103e b45f 943d 3213 21bd 6c97 cfbd

lstm.bias_hh_l0 f4 [200]
0.12685573 -0.005025694 0.03125582 0.11547727 -0.10647093 -0.007128422 0.018880589 0.14001514
0.007636925 0.12281926 0.12943949 -0.13810645 0.030040273 0.07950602 -0.08667451 0.0008353576
0.00811678 -0.051327277 0.011783255 0.022482002 -0.115289256 0.10495299 -0.08821726 0.11971223
0.11691206 -0.07188483 -0.111209005 0.094115674 0.02265071 -0.017985243 0.010693307 -0.042921066
0.07500436 -0.07841947 -0.048917 0.11518948 0.14643349 -0.09569818 0.05543357 -0.0056631067
0.06729477 0.086397715 -0.122046754 -0.079773374 0.075336955 0.008769219 -0.01017012 -0.08403888
-0.08132037 0.027606618 -0.054628827 -0.05267031 0.04462235 0.05802085 0.14200301 -0.05145658
-0.085577235 -0.08140561 0.026216121 -0.020906495 0.11388468 -0.072573215 -0.07351976 0.06935899
-0.010076769 0.08556083 0.07588254 0.092591494 0.111787096 0.10947026 -0.06008345 0.12562676
-0.0759861 -0.026062634 0.033784766 -0.024553465 -0.07975061 -0.06986973 0.065199524 0.104065076
-0.033594944 -0.10430384 0.054057535 -0.019637767 0.041399572 -0.011205578 0.1527673 0.057030812
-0.10772734 0.010116477 0.045578435 -0.13250816 0.026037462 -0.08531005 0.054601893 -0.025727464
-0.099308066 -0.13244727 0.106038995 0.019367946 0.059584927 0.02174194 -0.030772064 0.052088898
0.12889144 0.06411023 0.054673802 0.11552702 -0.12784243 0.12546648 0.13895763 0.10099264
0.12247334 -0.04648105 0.13661668 -0.022048766 0.063771516 -0.051320106 -0.06847647 0.10482371
0.10635313 0.002519939 0.05981604 0.05992812 -0.13602878 0.034661148 -0.0056627714 -0.07456966
-0.13492964 0.08664695 0.13968559 0.1181902 0.038130138 0.06713567 -0.058594197 0.026269268
0.15021162 0.15914883 0.022906302 -0.01645733 0.08866673 0.02204723 -0.12313044 -0.088279344
-0.16114187 -0.074544914 -0.10830631 0.03132268 -0.04106704 -0.018306429 0.028061671 0.11714638
-0.10728525 0.13756049 -0.008568266 -0.13374737 0.120293096 0.0047708643 -0.10526852 0.08565071
-0.07476068 -0.006588364 -0.0063214395 0.018539274 0.08152317 0.10808664 0.01833872 -0.08015539
0.0017661039 0.12843703 -0.11712643 -0.07887121 0.129015 -0.025060968 0.12442534 -0.015034108
-0.060771633 0.111431345 0.06437287 0.12549631 -0.0516658 0.014902617 0.09331943 -0.050685894
0.10438826 -0.08854671 -0.05237021 0.09632139 0.13268793 -0.02012827 -0.026123429 0.07642838
0.075668216 -0.035256214 -0.06334873 -0.077846244 0.077699386 -0.11960956 -0.034176756 0.013672102
00000000: 78e6 013e 94ae a4bb 1a06 003d 597f ec3d
00000010: 6e0d dabd 8a95 e9bb 77ab 9a3c 2160 0f3e
00000020: 2c3f fa3b aa88 fb3d c98b 043e c76b 0dbe
00000030: 0517 f63c 0dd4 a23d 6882 b1bd e6fb 5a3a
00000040: 3efc 043c 8d3c 52bd 8e0e 413c 2d2c b83c
00000050: c61c ecbd 98f1 d63d 40ab b4bd b02b f53d
00000060: 976f ef3d 5b38 93bd 8cc1 e3bd b8bf c03d
00000070: fb8d b93c ca55 93bc fb32 2f3c 00ce 2fbd
00000080: e39b 993d 639a a0bd 315d 48bd 76e8 eb3d
00000090: a9f2 153e 68fd c3bd 500e 633d 9591 b9bb
000000a0: d7d1 893d 49f1 b03d a6f3 f9bd 3960 a3bd
000000b0: 434a 9a3d c5ac 0f3c 93a0 26bc 941c acbd
000000c0: 4b8b a6bd 4627 e23c 7ac2 5fbd d3bc 57bd
000000d0: edc5 363d 45a7 6d3d 3d69 113e 23c4 52bd
000000e0: 1e43 afbd fcb7 a6bd 31c3 d63c 1944 abbc
000000f0: 5f3c e93d 44a1 94bd 8791 96bd 160c 8e3d
00000100: 0819 25bc 843a af3d 4e68 9b3d 9ca0 bd3d
00000110: a2f0 e43d f231 e03d 101a 76bd 4da4 003e
00000120: 9a9e 9bbd 4e81 d5bc e561 0a3d 5924 c9bc
00000130: 4a54 a3bd dc17 8fbd 5487 853d 1220 d53d
00000140: da9a 09bd 409d d5bd 6f6b 5d3d 62df a0bc
00000150: 9992 293d 9a97 37bc 086f 1c3e 2499 693d
00000160: 27a0 dcbd 94bf 253c 74b0 3a3d 38b0 07be
00000170: 844c d53c 09b7 aebd 3ca6 5f3d 67c2 d2bc
00000180: 0762 cbbd 42a0 07be f92a d93d 87a9 9e3c
00000190: 530f 743d 271c b23c b215 fcbc 2b5b 553d
000001a0: 1efc 033e 394c 833d a3f1 5f3d 6e99 ec3d
000001b0: 20e9 02be 497a 003e e94a 0e3e 3bd5 ce3d
000001c0: 4dd3 fa3d ea62 3ebd 3ee5 0b3e 9d9f b4bc
000001d0: a49a 823d 0835 52bd 643d 8cbd d0ad d63d
000001e0: abcf d93d 9025 253b aa01 753d 3077 753d
000001f0: 214b 0bbe d9f8 0d3d c58e b9bb fab7 98bd
00000200: ff2a 0abe f573 b13d bd09 0f3e b40d f23d
00000210: 592e 1c3d 6d7e 893d 7800 70bd a632 d73c
00000220: 13d1 193e e9f7 223e ffa5 bb3c 86d1 86bc
00000230: e796 b53d 649c b43c d02b fcbd cdcb b4bd
00000240: 6002 25be 01ab 98bd b3cf ddbd 364c 003d
00000250: ea35 28bd 5df7 95bc 97e1 e53c 71ea ef3d
00000260: 5fb8 dbbd a8dc 0c3e ea61 0cbc 12f5 08be
00000270: 3a5c f63d e954 9c3b 0697 d7bd a469 af3d
00000280: 211c 99bd 34e3 d7bb 1424 cfbb addf 973c
00000290: 9ff5 a63d 875c dd3d 153b 963c 8228 a4bd
000002a0: 9d7c e73a ff84 033e fbdf efbd 3b87 a1bd
000002b0: 821c 043e a94c cdbc b6d2 fe3d 9f51 76bc
000002c0: adeb 78bd 1e36 e43d ecd5 833d 1b82 003e
000002d0: 859f 53bd 1b2a 743c 421e bf3d 039c 4fbd
000002e0: 83c9 d53d fa57 b5bd 2582 56bd 2644 c53d
000002f0: 58df 073e 0be4 a4bc cd00 d6bc 7c86 9c3d
00000300: f0f7 9a3d d268 10bd fbbc 81bd da6d 9fbd
00000310: db20 9f3d dbf5 f4bd edfc 0bbd f400 603c

lstm.weight_ih_l1 f4 [200, 50]
0.08486901 -0.01349866 0.023975436 0.07847635 0.1238523 -0.083918646 0.025411803 -0.08842951
-0.07119902 -0.056564704 0.0654838 0.009927845 0.04584058 -0.05264689 0.105612144 -0.0064334846
0.11155785 0.07870463 -0.027361196 -0.0016995618 -0.07322723 0.045162477 0.04802721 -0.009201473
0.07426459 -0.002714994 0.10603016 -0.092365816 0.07123729 -0.029105872 -0.02319571 -0.13858226
0.13164781 -0.14204945 0.15405166 0.012913634 0.008936184 0.09587841 -0.11528999 -0.06913692
0.09358256 0.08721124 0.096223824 0.016978443 0.02235507 0.043949567 0.112343736 -0.15086208
0.11890095 0.02236768 0.06618958 -0.03816542 -0.040842026 0.032146815 -0.08930056 -0.11954044
-0.12110774 -0.0008109673 -0.054264106 0.065083675 0.11830554 -0.10039043 -0.046352774 -0.027071571
0.12868702 0.02700891 -0.046871055 -0.0002167188 0.10141222 0.09615479 -0.09740065 0.14102048
-0.04820347 0.08149374 0.022624988 0.12857018 -0.006814445 0.05392268 0.03081637 -0.043357912
0.14746478 0.11218677 0.1269115 -0.07569845 -0.051734388 -0.032585822 0.11429237 0.14180815
-0.069055185 -0.08331738 -0.077508435 0.030127045 0.052012175 0.09634507 -0.06137919 0.07101904
0.042989943 0.10879981 0.10695203 0.002745223 0.09350818 0.053928904 0.0934566 -0.13183707
0.078108996 -0.11485551 -0.095152095 0.027420862 -0.081541024 -0.10230066 -0.008381975 0.097706944
0.1428823 -0.12086366 -0.08875293 0.1262703 0.16016302 0.008989123 0.06969958 0.13849688
-0.083919 0.037593126 0.011211958 0.09199966 -0.023987811 0.048326127 0.08491443 0.07231491
0.05718041 -0.07637878 0.09685757 -0.050430782 -0.123706035 0.13349003 -0.10106457 0.0116141215
0.06446168 0.022299299 0.07375685 -0.0009002265 0.012974686 -0.0542615 -0.00030115075 -0.06550133
0.053465 0.035025254 -0.13735023 0.012352174 -0.0074154697 -0.12251435 0.083218925 0.029778482
0.097495876 0.06475962 -0.10517829 0.009014121 0.05022031 -0.14224298 -0.0034855728 -0.11760717
0.061699383 0.082020216 0.05953722 -0.03459818 0.06823931 -0.038352396 -0.05675471 -0.13766922
0.05940054 0.07437458 0.06873832 -0.1194509 0.11556699 -0.002912414 -0.122565225 -0.0057055224
-0.11605689 0.09467442 0.14038679 0.051281698 -0.1481595 0.03530239 0.04444808 -0.06581776
0.14915642 0.11116502 0.05818574 -0.118635565 -0.02790574 0.03534279 -0.12803063 0.027621498
0.084727325 -0.0075727156 0.11891927 0.017247895 0.122697584 0.11512873 0.037187733 0.08296931
-0.04343288 0.07067889 -0.107836366 -0.12957072 -0.11842319 0.051008213 -0.08083338 0.11611683
-0.119079046 0.08820065 0.08781417 0.10095663 0.06374427 0.033607904 -0.039584562 0.09086308
-0.06772838 0.114401184 0.021224245 -0.021587957 0.09953496 -0.13418004 -0.09244707 0.015351132
0.02239113 -0.03835548 -0.047754314 0.03520637 0.06639738 0.012843695 0.021928335 0.02426633
-0.039606225 0.023752956 -0.13384746 0.120919496 -0.05554654 -0.0965009 -0.09368422 0.11900011
-0.097535685 -0.12558222 -0.099851005 -0.13996369 0.11876808 0.02631473 -0.07860355 0.057976983
0.06416302 0.073946 0.11113727 0.10097689 0.048506707 -0.15177098 0.03724358 -0.004513211
00000000: cecf ad3d 7c29 5dbc 2268 c43c 35b8 a03d
00000010: 46a6 fd3d 8add abbd 6a2c d03c 881a b5bd
00000020: cbd0 91bd 64b0 67bd 5f1c 863d 66a8 223c
00000030: 55c3 3b3d 44a4 57bd 2e4b d83d fbcf d2bb
00000040: 7178 e43d e52f a13d 9624 e0bc d5c3 deba
00000050: 28f8 95bd 4afc 383d 2eb8 443d c6c1 16bc
00000060: 0918 983d 0aee 31bb 5726 d93d 4a2a bdbd
00000070: dbe4 913d 706f eebc ee04 bebc 82e8 0dbe
00000080: afce 063e 6975 11be b8bf 1d3e b593 533c
00000090: 1369 123c e65b c43d 291d ecbd a897 8dbd
000000a0: 37a8 bf3d ce9b b23d ff10 c53d 6016 8b3c
000000b0: fb21 b73c 7604 343d 7914 e63d 977b 1abe
000000c0: 5782 f33d 6d3c b73c 678e 873d 5853 1cbd
000000d0: f849 27bd 61ac 033d 36e3 b6bd 9ed1 f4bd
000000e0: 5607 f8bd 1897 54ba 0a44 5ebd 974a 853d
000000f0: 2d4a f23d 7f99 cdbd 68dc 3dbd 33c5 ddbc
00000100: 88c6 033e ca41 dd3c ddfb 3fbd 033f 63b9
00000110: 36b1 cf3d cdec c43d fe79 c7bd ac67 103e
00000120: 0071 45bd 31e6 a63d 0a58 b93c e7a7 033e
00000130: b54b dfbb 07de 5c3d 9d72 fc3c 1198 31bd
00000140: 0201 173e 2dc2 e53d 17f5 013e ca07 9bbd
00000150: 70e7 53bd b678 05bd 1e12 ea3d 2836 113e
00000160: ce6c 8dbd 4da2 aabd bebc 9ebd fecc f63c
00000170: b80a 553d 9050 c53d bf68 7bbd 6e72 913d
00000180: 3916 303d 6fd2 de3d aa09 db3d 33e9 333b
00000190: 3781 bf3d 8ee4 5c3d 2d66 bf3d 4c00 07be
000001a0: 9cf7 9f3d 5e39 ebbd 1adf c2bd b7a1 e03c
000001b0: fbfe a6bd 0283 d1bd 8d54 09bc 941a c83d
000001c0: bd4f 123e 5e87 f7bd 19c4 b5bd 004d 013e
000001d0: c601 243e 1d47 133c a7be 8e3d 20d2 0d3e
000001e0: badd abbd 40fb 193d 5cb2 373c 516a bc3d
000001f0: 1682 c4bc 9ef1 453d 9ee7 ad3d d719 943d
00000200: 0136 6a3d 7a6c 9cbd 435d c63d 8290 4ebd
00000210: 9759 fdbd 9cb1 083e f1fa cebd 2849 3e3c
00000220: 7c04 843d 05ad b63c d50d 973d 2efd 6bba
00000230: c793 543c 4e41 5ebd c5e3 9db9 9025 86bd
00000240: 1efe 5a3d a476 0f3d 8aa5 0cbe c660 4a3c
00000250: 78fd f2bb cee8 fabd af6e aa3d 01f2 f33c
00000260: ebab c73d b1a0 843d b767 d7bd f7af 133c
00000270: d0b3 4d3d 25a8 11be 356e 64bb 07dc f0bd
00000280: 7eb8 7c3d 37fa a73d 4ddd 733d d2b6 0dbd
00000290: 0dc1 8b3d 6717 1dbd a077 68bd 29f9 0cbe
000002a0: fb4d 733d b351 983d adc6 8c3d aca2 f4bd
000002b0: 63ae ec3d 33de 3ebb 7a03 fbbd 64f5 babb
000002c0: 3caf edbd aae4 c13d 8ec1 0f3e c20c 523d
000002d0: 20b7 17be 3d99 103d 310f 363d 76cb 86bd
000002e0: 76bc 183e 7caa e33d 2c54 6e3d 34f7 f2bd
000002f0: 949a e4bc 9ac3 103d 761a 03be 7b46 e23c
00000300: 8585 ad3d 8b24 f8bb f28b f33d 754b 8d3c
00000310: df48 fb3d 9dc8 eb3d 2a52 183d d0eb a93d
00000320: ade6 31bd 18c0 903d 50d9 dcbd 30ae 04be
00000330: dc87 f2bd fded 503d f98b a5bd a9ce ed3d
00000340: b7df f3bd 8ba2 b43d ead7 b33d 5ac2 ce3d
00000350: 5b8c 823d 71a8 093d 6c23 22bd 6c16 ba3d
00000360: 2db5 8abd 2b4b ea3d 78de ad3c 3ad9 b0bc
00000370: fcd8 cb3d 7e66 09be e454 bdbd 5083 7b3c
00000380: 9a6d b73c a31a 1dbd 079a 43bd 8e34 103d
00000390: 59fb 873d 5c6e 523c 0da3 b33c 2fca c63c
000003a0: 233a 22bd 8f95 c23c 4f0f 09be a4a4 f73d
000003b0: c584 63bd 44a2 c5bd 83dd bfbd 54b6 f33d
000003c0: cac0 c7bd a098 00be af7e ccbd a452 0fbe
000003d0: ae3c f33d fd91 d73c e6fa a0bd 4679 6d3d
000003e0: e767 833d 0071 973d f09b e33d f9cc ce3d
000003f0: f8ae 463d da69 1bbe b98c 183d 8fe3 93bb

lstm.weight_hh_l1 f4 [200, 50]
0.084716514 0.09523321 -0.10555292 0.018160626 -0.024391042 -0.05893476 0.094213985 0.10615274
-0.14075564 0.03112138 -0.1438387 -0.023321526 -0.082675286 -0.13474442 -0.015042139 -0.09011518
-0.10079008 -0.014531004 -0.04808473 -0.10530038 -0.03761896 0.08795712 0.04519063 0.0065399464
0.08869114 0.11548077 -0.048960537 0.09734229 -0.017285654 0.06171861 -0.059948333 0.064459614
-0.046111282 -0.10860798 0.08753438 -0.029972928 -0.073264964 0.15298802 0.14068787 -0.1316311
-0.08272955 -0.029566672 -0.087120675 0.03894274 0.024180066 0.030623654 0.11950596 -0.054879844
-0.004692837 0.036402673 0.078782365 0.046150114 -0.13521962 -0.117340975 -0.12074316 0.051140357
0.08423027 0.13038339 -0.05825934 -0.070520766 -0.03107113 0.07334619 -0.14312893 -0.05027982
-0.04855336 -0.100496024 0.023219885 0.048500087 0.019082332 -0.08234446 -0.114988625 -0.11982342
0.07366853 -0.013771854 0.075108275 0.1421833 0.004584818 -0.04846937 -0.002324101 -0.08390505
-0.10635816 0.11456268 0.099199325 -0.1077441 -0.13072185 -0.05974402 -0.09077638 0.109037906
-0.06564997 -0.033946868 0.0003187345 -0.12833296 -0.12395293 0.100747325 0.039403133 0.04517892
0.054883644 -0.024027552 -0.010451261 -0.092085555 -0.010102361 0.06262049 0.05956002 0.02763481
0.11527538 -0.120210685 0.1597152 -0.0646766 -0.09689837 0.080009334 -0.042331778 -0.08457084
0.019372763 0.10579174 -0.062078886 0.026252529 0.06249122 -0.026884433 0.07596837 -0.011462443
0.018362258 -0.14665365 -0.14508902 0.043321405 0.10173358 0.027136495 0.08717803 -0.016280951
-0.12870155 0.045137335 0.07630126 -0.07439059 0.10410277 2.9559436e-05 0.08544565 0.10485877
-0.08713634 -0.059312068 0.091704525 0.054806087 0.05578778 -0.08182383 -0.13923863 0.14596057
-0.024318278 -0.08843315 0.12378736 0.06151563 0.112865746 -0.021771356 0.071748905 0.08497698
0.06190917 -0.00037769266 0.08822755 0.0687144 -0.031705774 -0.15386385 0.0026981232 -0.12275152
-0.1666143 0.003998793 0.10452244 0.045647677 0.15000601 0.028444687 0.046121374 -0.023464339
0.059425343 0.136855 -0.021829687 0.023261255 0.12377913 -0.100187406 0.14708288 0.025709711
0.014336927 0.09347303 -0.057933893 -0.08758266 -0.008282623 0.07163638 -0.0022580922 -0.045058973
0.14276591 0.10487084 -0.048121974 0.11777441 -2.988649e-05 -0.01322429 0.1114075 -0.09025562
-0.018030457 0.018090025 0.10203546 0.06605989 0.1371076 -0.07602386 -0.11716269 -0.07013973
-0.09233627 0.024082 0.1192851 -0.06262056 0.014198054 -0.0004310642 0.12053978 0.07696759
0.06970612 -0.06372474 0.0059330855 0.027121413 -0.04586043 -0.110971436 0.018067636 0.0041101184
-0.13470228 0.020467937 -0.073374465 -0.02378387 0.1038022 0.05350726 -0.072063275 -0.017144185
0.11164968 -0.13794905 -0.007995107 0.12023264 -0.09294523 0.02738358 -0.06262233 -0.13474292
0.053066142 -0.028321778 0.111942664 -0.0029573932 0.10469436 -0.016912581 -0.04846194 -0.041739512
0.10924687 0.07272008 0.116709374 0.100732 -0.07791917 0.122977704 -0.03958224 -0.08096611
0.09759816 -0.12078072 -0.052246615 -0.11016665 0.04560898 -0.03728265 0.008963882 -0.02806337
00000000: da7f ad3d a109 c33d 212c d8bd 98c5 943c
00000010: b9cf c7bc 9365 71bd 43f3 c03d 9c66 d93d
00000020: 3f22 10be 44f2 fe3c 744a 13be c90c bfbc
00000030: a951 a9bd 71fa 09be 4e73 76bc 4f8e b8bd
00000040: 086b cebd 7313 6ebc 7ef4 44bd baa7 d7bd
00000050: 5716 1abd dd22 b43d cf19 393d 0c4d d63b
00000060: b3a3 b53d 2f81 ec3d d88a 48bd 655b c73d
00000070: a59a 8dbc a7cc 7c3d 628c 75bd 6703 843d
00000080: 2fdf 3cbd dc6d debd 3a45 b33d c989 f5bc
00000090: f10b 96bd e4a8 1c3e 7b10 103e 4eca 06be
000000a0: 1c6e a9bd ce35 f2bc 536c b2bd 6c82 1f3d
000000b0: 4615 c63c 75de fa3c 8abf f43d b0c9 60bd
000000c0: 5fc6 99bb f81a 153d a658 a13d e707 3d3d
000000d0: 0377 0abe 7750 f0bd 3148 f7bd 8d78 513d
000000e0: eb80 ac3d 3983 053e 58a1 6ebd 316d 90bd
000000f0: e288 febc 8736 963d 6490 12be 36f2 4dbd
00000100: e3df 46bd dcd0 cdbd a137 be3c 07a8 463d
00000110: 8d52 9c3c 36a4 a8bd 287f ebbd fb65 f5bd
00000120: 87df 963d 58a3 61bc 5ed2 993d 8098 113e
00000130: 3e3c 963b d187 46bd f24f 18bb 69d6 abbd
00000140: 4fd2 d9bd d79f ea3d 0429 cb3d f0a8 dcbd
00000150: f3db 05be 25b6 74bd f7e8 b9bd 444f df3d
00000160: 7e73 86bd df0b 0bbd d21b a739 b769 03be
00000170: 09db fdbd 9d54 ce3d 2e65 213d 880d 393d
00000180: accd 603d 6ed5 c4bc c43b 2bbc 5a97 bcbd
00000190: 6084 25bc 2c3f 803d 35f5 733d 6662 e23c
000001a0: 8015 ec3d 0531 f6bd 628c 233e 2a75 84bd
000001b0: a772 c6bd efdb a33d 1664 2dbd 7a33 adbd
000001c0: a1b3 9e3c 57a9 d83d 6e46 7ebd 8b0f d73c
000001d0: cbf6 7f3d be3c dcbc 4e95 9b3d f8cc 3bbc
000001e0: 726c 963c 602c 16be 3792 14be c971 313d
000001f0: b259 d03d 5b4d de3c 658a b23d a15f 85bc
00000200: 57ca 03be ede1 383d d643 9c3d 185a 98bd
00000210: d533 d53d 68f6 f737 21fe ae3d 32c0 d63d
00000220: 8a74 b2bd 36f1 72bd 95cf bb3d 597c 603d
00000230: ba81 643d 4193 a7bd 9294 0ebe b076 153e
00000240: 2037 c7bc 701c b5bd 3a84 fd3d d0f7 7b3d
00000250: 2826 e73d d859 b2bc 17f1 923d 6908 ae3d
00000260: 7894 7d3d 0d05 c6b9 a5b0 b43d 23ba 8c3d
00000270: eadd 01bd 7c8e 1dbe ffd2 303b 2665 fbbd
00000280: f09c 2abe 4f08 833b dc0f d63d 0ff9 3a3d
00000290: 2d9b 193e d504 e93c c4e9 3c3d 4938 c0bc
000002a0: fd67 733d b823 0c3e 2cd4 b2bc 638e be3c
000002b0: ea7f fd3d 0e2f cdbd e59c 163e 2c9d d23c
000002c0: 6ee5 6a3c ca6e bf3d 174c 6dbd 8a5e b3bd
000002d0: d7b3 07bc 18b6 923d 80fc 13bb c28f 38bd
000002e0: 3a31 123e 86c6 d63d 8c1b 45bd b633 f13d
000002f0: c0b4 fab7 b1aa 58bc 9e29 e43d f0d7 b8bd
00000300: 9cb4 93bc 8831 943c f8f7 d03d 684a 873d
00000310: ef65 0c3e 66b2 9bbd fef2 efbd 6ba5 8fbd
00000320: cc1a bdbd 9d47 c53c bf4b f43d 353f 80bd
00000330: f49e 683c 7500 e2b9 8fdd f63d 2fa1 9d3d
00000340: 15c2 8e3d 1e82 82bd 546a c23b ba2d de3c
00000350: 25d8 3bbd fe44 e3bd 9402 943c 2cae 863b
00000360: 65ef 09be 60ac a73c 5a45 96bd 64d6 c2bc
00000370: 3f96 d43d 6e2a 5b3d e995 93bd f671 8cbc
00000380: 96a8 e43d 8442 0dbe e9fd 02bc 883c f63d
00000390: 125a bebd 8853 e03c 2340 80bd 0cfa 09be
000003a0: e25b 593d 1303 e8bc 3242 e53d d3d0 41bb
000003b0: ff69 d63d 418c 8abc 0780 46bd 0df7 2abd
000003c0: d3bc df3d 44ee 943d 5305 ef3d 944c ce3d
000003d0: 1694 9fbd bcdb fb3d fd20 22bd 8fd1 a5bd
000003e0: 8be1 c73d e25b f7bd 8c00 56bd 0d9f e1bd
000003f0: 7bd0 3a3d b1b5 18bd 3fdd 123c 27e5 e5bc

lstm.bias_ih_l1 f4 [200]
-0.13821399 -0.04482919 -0.026423585 -0.07735217 0.049262512 0.053974826 0.07399069 0.16022633
0.076720774 0.11112604 0.09602889 0.08526784 0.11079369 0.0030401575 0.043601416 0.079352275
-0.15507987 0.048550457 0.0826145 0.04533386 -0.09186729 0.10928465 0.109616 -0.010278908
0.020666532 -0.039538007 0.06404682 0.026406398 -0.04217156 0.00860241 0.058198474 0.107144795
-0.05241968 -0.12577316 -0.05434963 0.12024497 -0.106877334 -0.036655772 0.12232183 0.1138623
0.15971877 -0.072375275 -0.07753963 0.03170577 -0.029998668 0.051773004 0.045285605 -0.071133874
-0.08761129 -0.05060249 -0.099645466 0.041710194 -0.07450747 -0.11116225 -0.049606644 0.00879245
0.08128295 0.13418055 0.060514953 0.08716423 0.11868114 -0.12718861 -0.05976595 0.11020147
0.026778163 0.07822789 0.12477178 -0.11596794 -0.12142919 0.055646077 -0.1077443 -0.058225024
-0.025611948 -0.07408787 0.14984077 0.13081247 -0.010980653 0.15883467 -0.08497144 0.1309436
0.090217315 -0.008908316 0.04338278 0.05602079 0.13371281 -0.07032379 -0.022474376 0.0032997746
0.05792683 -0.08435838 -0.10124472 0.031890977 0.005414813 0.06690516 -0.06653946 0.05680351
0.13135028 0.11802673 0.070898555 0.14734115 -0.0639954 -0.014124718 0.03608173 -0.0045889877
0.07437414 -0.06758514 0.14852498 0.10056296 0.06266073 -0.079700224 0.0742522 -0.011729404
0.011811116 0.06902698 0.031996466 -0.03194274 0.024392825 -0.03657345 -0.10729049 -0.05000655
0.10169091 0.0034748057 -0.08057619 0.12993182 -0.036820956 0.11617561 0.06063072 0.045731552
-0.028531097 -0.09375804 -0.00011482338 -0.09776299 -0.090085246 0.058707137 -0.15306175 -0.14166296
-0.1323597 -0.11421842 0.09362051 0.08991692 0.107816555 -0.109483495 -0.12369528 0.0872038
-0.15049432 0.09171357 -0.07454341 -0.04071989 -0.046086702 0.07360176 -0.033643115 -0.08255506
0.11972619 0.03836204 0.030466946 0.121292725 -0.011709321 -0.09467453 -0.07027441 0.07093958
0.04084156 0.08223467 -0.042477395 -0.099120066 0.05919407 0.05214693 0.0031635216 0.023881726
0.015635189 -0.0638396 -0.14848845 0.09057475 -0.046277355 0.15342878 -0.031563938 -0.07962643
0.039036106 -0.062842086 0.07656694 0.12552293 0.029520078 0.051586136 -0.110437326 -0.044980485
0.105360694 0.012210115 0.16076694 0.075018086 0.10891551 0.14966139 -0.010912781 -0.07384377
-0.026848327 0.036283795 -0.10723515 0.050792497 0.021225277 0.088920236 0.10601553 0.026131196
00000000: f887 0dbe d09e 37bd 4676 d8bc d16a 9ebd
00000010: 7dc7 493d b514 5d3d 6e88 973d 5f12 243e
00000020: c81f 9d3d 0d96 e33d cbaa c43d e8a0 ae3d
00000030: cde7 e23d 613d 473b 6697 323d 7283 a23d
00000040: 42cd 1ebe d8dc 463d ca31 a93d ffaf 393d
00000050: eb24 bcbd a1d0 df3d 5a7e e03d dd68 28bc
00000060: dc4c a93c 9bf2 21bd fb2a 833d 3b52 d83c
00000070: 16bc 2cbd 1ff1 0c3c 8661 6e3d bb6e db3d
00000080: 05b6 56bd aeca 00be b89d 5ebd ff42 f63d
00000090: 81e2 dabd 5d24 16bd de83 fa3d a330 e93d
000000a0: 518d 233e 7d39 94bd 19cd 9ebd e9dd 013d
000000b0: c4bf f5bc ee0f 543d 667d 393d a3ae 91bd
000000c0: 8c6d b3bd 8e44 4fbd ec12 ccbd 4fd8 2a3d
000000d0: 5f97 98bd 09a9 e3bd 5630 4bbd 350e 103c
000000e0: ad77 a63d a066 093e 87de 773d 2983 b23d
000000f0: 190f f33d bb3d 02be 24cd 74bd 4fb1 e13d
00000100: e15d db3c f235 a03d 5988 ff3d 9980 edbd
00000110: deaf f8bd 24ed 633d 0ba9 dcbd 5d7d 6ebd
00000120: 26d0 d1bc 62bb 97bd dc6f 193e b4f3 053e
00000130: 32e8 33bc 8ea5 223e 8205 aebd 1416 063e
00000140: dbc3 b83d 2ff4 11bc 24b2 313d 0e76 653d
00000150: 03ec 083e eb05 90bd 2f1c b8bc 0841 583b
00000160: af44 6d3d 16c4 acbd 6459 cfbd 1da0 023d
00000170: be6e b13b 9305 893d d745 88bd ccaa 683d
00000180: b080 063e 00b8 f13d 4333 913d 99e0 163e
00000190: 0510 83bd 5c6b 67bc 70ca 133d 385f 96bb
000001a0: 7851 983d 146a 8abd ef16 183e f4f3 cd3d
000001b0: 4554 803d df39 a3bd 8a11 983d b02c 40bc
000001c0: 6983 413c 045e 8d3d ba0e 033d 64d6 02bd
000001d0: 76d3 c73c 0bce 15bd 1ebb dbbd abd3 4cbd
000001e0: 5343 d03d 91b9 633b 2105 a5bd d90c 053e
000001f0: 92d1 16bd 7aed ed3d eb57 783d 0251 3b3d
00000200: 0cba e9bc 3704 c0bd 55cd f0b8 f637 c8bd
00000210: 9d7e b8bd e576 703d 38bc 1cbe 1810 11be
00000220: 4d89 07be 59eb e9bd 1cbc bf3d 5d26 b83d
00000230: edce dc3d e238 e0bd f353 fdbd e897 b23d
00000240: 2f1b 1abe 53d4 bb3d 37aa 98bd e6c9 26bd
00000250: 69c5 3cbd 85bc 963d 5dcd 09bd a112 a9bd
00000260: 0133 f53d 8421 1d3d d195 f93c 5268 f83d
00000270: 74d8 3fbc b8e4 c1bd 08ec 8fbd c548 913d
00000280: 7b49 273d a76a a83d c7fc 2dbd 76ff cabd
00000290: 7b75 723d 0598 553d 1653 4f3b 9ca3 c33c
000002a0: 5e15 803c 56be 82bd 5b0d 18be 417f b93d
000002b0: 538d 3dbd 6f1c 1d3e 3049 01bd 2f13 a3bd
000002c0: 53e4 1f3d 5ab3 80bd 21cf 9c3d 1589 003e
000002d0: 17d4 f13c fc4b 533d f72c e2bd 753d 38bd
000002e0: 59c7 d73d ef0c 483c 17a0 243e 15a3 993d
000002f0: 180f df3d d640 193e 85cb 32bc 673b 97bd
00000300: 06f1 dbbc 519e 143d 1a9e dbbd cb0b 503d
00000310: a2e0 ad3c d01b b63d ac1e d93d 1711 d63c

lstm.bias_hh_l1 f4 [200]
-0.06539238 0.07132031 0.06933353 0.023825381 0.050433405 0.05109596 0.0124197 0.07092555
-0.10215521 -0.02876183 0.097884156 0.117233954 0.11415723 -0.119304 0.07464408 0.082473494
-0.14797388 0.041175015 -0.12366905 -0.10402419 -0.084730215 -0.03871439 0.030540517 -0.024501583
-0.11460103 -0.03924136 0.07907346 -0.09432552 0.109387666 -0.028870085 0.12406537 0.1174188
-0.06501446 -0.017129378 -0.073027484 0.07175978 0.053554516 -0.03815015 -0.011702358 -0.108681515
0.09180361 0.03104395 -0.00985625 -0.059175115 -0.060173154 -0.1395107 -0.13584442 0.05623372
4.713251e-05 -0.10049792 -0.056970973 0.09738246 0.052296843 -0.09522094 -0.09140004 -0.039115068
0.016692739 0.11566717 0.04457817 -0.045521084 0.09838735 0.08073244 -0.03464766 -0.0032668663
-0.027983103 -0.118604325 -0.097386345 -0.06895224 -0.12054486 -0.110281385 -0.11274669 -0.092448235
0.14948918 -0.027752081 0.10781915 0.12190332 0.13479288 0.14983524 0.10347358 0.1350278
-0.04056245 -0.115847066 0.15373415 0.03933316 -0.11202219 0.12855592 -0.053921547 -0.10028603
0.08588829 0.0632803 -0.079180755 -0.048849706 -0.020852504 -0.057428006 0.020054763 0.029296117
-0.06989226 -0.11877835 -0.024133747 -0.03913468 -0.013435358 0.051776893 -0.13621211 0.11071672
-0.039294373 0.13663091 0.058175713 -0.03525856 -0.03545356 -0.047063105 0.08761653 -0.012085247
0.074983396 -0.0019104918 0.008524323 0.07398053 -0.1199364 -0.13771154 -0.08031426 -0.12808098
0.10032173 -0.11966639 -0.04347289 -0.011002778 -0.055795904 0.10212589 -0.057712942 -0.106049955
-0.14175504 0.047001638 -0.1248601 -0.090741664 -0.04514229 0.12438347 -0.08686781 -0.14368992
-0.09970828 0.0063127573 -0.06816595 0.115884855 -0.024672952 0.09425553 0.081235975 0.14573659
0.006141444 0.118309155 0.048642807 -0.016660687 0.11981803 0.011187168 0.119495645 0.030148098
-0.11220328 0.053683233 0.07645112 -0.031725667 0.07988482 -0.027013252 -0.0123500265 -0.030826021
0.1417612 0.05401292 -0.108103305 0.12824 -0.032919176 -0.12935986 -0.134354 -0.036741756
0.089320846 -0.07655973 -0.037093285 0.14552775 -0.08027968 0.10793305 0.15684755 0.08407205
0.05929899 -0.0639974 0.06813947 -0.088445485 0.06450157 0.038886715 -0.033869877 -0.08329953
0.046845447 -0.09533876 -0.009699725 0.012120226 0.13362874 0.14981295 0.066348255 0.024683021
-0.025852382 0.1536317 0.08183094 0.11783559 -0.038511902 -0.043902416 0.13494499 -0.11114291
00000000: 71ec 85bd 6210 923d bdfe 8d3d 722d c33c
00000010: 4293 4e3d ff49 513d ff7b 4b3c 6a41 913d
00000020: c036 d1bd ee9d ebbc 7d77 c83d 5b18 f03d
00000030: 44cb e93d a855 f4bd ffde 983d dde7 a83d
00000040: 7786 17be 22a7 283d 3346 fdbd a20a d5bd
00000050: 0987 adbd fb92 1ebd 1b30 fa3c 8bb7 c8bc
00000060: f2b3 eabd 8cbb 20bd 44f1 a13d bd2d c1bd
00000070: a406 e03d f580 ecbc fc15 fe3d 4579 f03d
00000080: 4d26 85bd e952 8cbc 6f8f 95bd cbf6 923d
00000090: fb5b 5b3d 5543 1cbd 3fbb 3fbc 6a94 debd
000000a0: 8803 bc3d e24f fe3c 1c7c 21bc 9b61 72bd
000000b0: 2078 76bd e5db 0ebe cd1a 0bbe 5455 663d
000000c0: 26b0 4538 dad1 cdbd 655a 69bd 7570 c73d
000000d0: 3735 563d 3203 c3bd f22f bbbd 1f37 20bd
000000e0: 36bf 883c e9e2 ec3d 9997 363d 5174 3abd
000000f0: 4f7f c93d 0d57 a53d b4ea 0dbd ec18 56bb
00000100: d23c e5bc d3e6 f2bd 7e72 c7bd d536 8dbd
00000110: 39e0 f6bd 35db e1bd bde7 e6bd 8055 bdbd
00000120: b113 193e 5558 e3bc 49d0 dc3d 73a8 f93d
00000130: 2507 0a3e 696e 193e f5e9 d33d ba44 0a3e
00000140: d024 26bd 3a41 edbd 7c6c 1d3e cf1b 213d
00000150: e46b e5bd 2aa4 033e d7dc 5cbd c362 cdbd
00000160: 33e6 af3d 1a99 813d 8529 a2bd a116 48bd
00000170: dfd2 aabc a139 6bbd e349 a43c 69fe ef3c
00000180: ac23 8fbd 1042 f3bd 23b4 c5bc b04b 20bd
00000190: fa1f 5cbc 0214 543d 307b 0bbe 73bf e23d
000001a0: 23f3 20bd f9e8 0b3e a849 6e3d 486b 10bd
000001b0: c137 11bd 3ec5 40bd 4c70 b33d 3301 46bc
000001c0: e590 993d 7869 faba 9aa9 0b3c 1b83 973d
000001d0: 37a1 f5bd 4104 0dbe ce7b a4bd a927 03be
000001e0: 7b75 cd3d a713 f5bd a110 32bd ff44 34bc
000001f0: 3f8a 64bd 6127 d13d 6864 6cbd b830 d9bd
00000200: 3c28 11be ca84 403d a7b6 ffbd c4d6 b9bd
00000210: 1fe7 38bd c3bc fe3d c0e7 b1bd 7323 13be
00000220: db33 ccbd 3fdb ce3b 979a 8bbd 0a55 ed3d
00000230: ee1e cabc 0b09 c13d 0c5f a63d f93b 153e
00000240: 2b3e c93b 124c f23d ae3d 473d fe7b 88bc
00000250: 2863 f53d 624a 373c 22ba f43d 25f9 f63c
00000260: d5ca e5bd f3e2 5b3d 6892 9c3d c6f2 01bd
00000270: a79a a33d e54a ddbc c457 4abc da86 fcbc
00000280: d929 113e a73c 5d3d 4465 ddbd 5951 033e
00000290: 42d6 06bd e976 04be 1894 09be 867e 16bd
000002a0: d9ed b63d 59cb 9cbd 21ef 17bd 3a05 153e
000002b0: ac69 a4bd 010c dd3d a59c 203e f82d ac3d
000002c0: 7fe3 723d 1211 83bd b58c 8b3d e822 b5bd
000002d0: 6619 843d ad47 1f3d 24bb 0abd f298 aabd
000002e0: 03e1 3f3d f840 c3bd 98eb 1ebc ea93 463c
000002f0: f9d5 083e 9168 193e 98e1 873d 0c34 ca3c
00000300: 60c8 d3bc a151 1d3e fb96 a73d c953 f13d
00000310: a8be 1dbd 05d3 33bd 052f 0a3e e59e e3bd

fc.weight f4 [1, 50]
0.04669222 -0.11768357 0.00079515524 -0.037632506 -0.047071595 0.095035 0.112711295 0.078262255
0.09395085 0.1185784 0.06249064 0.05741217 -0.06333132 -0.02811069 -0.10142812 0.024209894
0.061688248 -0.16013932 0.04143068 -0.07820843 -0.046620008 -0.07535076 -0.14800812 0.045894258
-0.05254062 0.031877223 0.002125478 -0.032238647 -0.04672603 0.014745305 -0.030867673 0.060933027
-0.117959 -0.022297842 -0.04887431 -0.14879157 -0.14063552 -0.13603897 -0.04218728 0.036068685
0.020722134 -0.13952884 0.08773612 0.1340938 -0.0738775 -0.06529172 -0.077855825 -0.12901323
-0.08601106 0.112140626
00000000: 5740 3f3d 1504 f1bd f771 503a 8b24 1abd
00000010: 25ce 40bd b6a1 c23d 2ed5 e63d f647 a03d
00000020: 4e69 c03d 3bd9 f23d 2ff6 7f3d 0629 6b3d
00000030: dab3 81bd 6448 e6bc 8cb9 cfbd d453 c63c
00000040: d1ac 7c3d 90fb 23be 37b3 293d be2b a0bd
00000050: 9ff4 3ebd 8051 9abd 718f 17be 9efb 3b3d
00000060: d534 57bd b191 023d 9a4b 0b3b ac0c 04bd
00000070: cb63 3fbd 4b96 713c 34de fcbc e994 793d
00000080: 7d94 f1bd f7a9 b6bc 6e30 48bd d15c 18be
00000090: c202 10be cd4d 0bbe 92cc 2cbd c2bc 133d
000000a0: 77c1 a93c a6e0 0ebe ffae b33d e34f 093e
000000b0: 164d 97bd aab7 85bd e072 9fbd 0b1c 04be
000000c0: 9126 b0bd fca9 e53d
