models/ETH_USDT_model.pt (torch, 128181 bytes, 9 tensors)

lstm.weight_ih_l0 f4 [200, 1]
000000 08 9d d1 bc d4 1e d8 bc d4 79 0e 3e 18 f6 a0 3d
       -0.025587574 -0.026381887 0.13913661 0.07859439
000010 f7 ee 75 3d 8c 49 f1 3c 53 4c 37 3c 51 3e 06 3d
       0.060042348 0.029454015 0.011187631 0.032774273
000020 e9 09 91 bd f8 d0 cd 3d 67 f6 2e 3d f0 65 3d bb
       -0.07081968 0.10049623 0.042715456 -0.002889987
000030 86 0a 4a 3d 93 7b fc 3d 0b 22 88 3d 12 cf b0 bd
       0.049326442 0.123282574 0.06647118 -0.086332455
000040 6f 62 90 bd c4 1b b5 bd e6 89 e6 3d ca 49 f9 3d
       -0.07050025 -0.088431865 0.11256771 0.12172277
000050 9a 14 c9 3d bd 60 21 3e 9e 88 b4 bd b9 db 9b 3d
       0.098183826 0.15759559 -0.0881512 0.07610268
000060 41 ed e5 3b 8d 70 cd bd 01 5c 6d 3d c4 13 a2 3d
       0.0070168083 -0.10031233 0.05794907 0.07913926
000070 77 3a 1a 3e 14 89 2f bc 74 12 df bc 60 a0 cd 3d
       0.15061365 -0.010713834 -0.027230479 0.10040355
000080 40 22 da bd 66 78 ab 3d ad 3b 04 bd 65 c3 13 3e
       -0.10651064 0.083725736 -0.032283474 0.14430006
000090 64 d8 fe 3c 6d 94 e6 bd 84 1a 72 3d cb 4f a3 3d
       0.031109042 -0.11258779 0.05910732 0.07974204
0000a0 ea d7 ef bd 87 c9 14 3d e5 bc 83 3d 4a 8e 17 3d
       -0.11711104 0.036325004 0.06432513 0.03700093
0000b0 a6 2d b0 3d 98 21 ee bd c1 45 39 bd 80 11 8f bd
       0.08602457 -0.11627501 -0.045232538 -0.0698576
0000c0 f6 c7 04 bd 13 25 21 3e 0e 62 0c be e0 62 cc bd
       -0.03241726 0.15736799 -0.1370928 -0.099797964
0000d0 f1 08 0c be 31 84 13 bc c4 8c 73 bd e6 70 1a 3d
       -0.13675286 -0.009003685 -0.059460416 0.037705325
0000e0 71 d1 c9 bd ae cb 21 3e 43 a3 33 bd 58 e8 44 3d
       -0.09854401 0.15800354 -0.04385687 0.048073143
0000f0 b2 18 c9 3d 95 77 ca bd 7c eb 1a 3e 85 1d 30 bd
       0.098191634 -0.0988609 0.15128893 -0.042996902
000100 df f7 31 3d 1a d9 87 3d 62 15 03 be 3c 5d 03 be
       0.04344928 0.06633206 -0.12801126 -0.12828535
000110 0d 19 b8 3d 33 dd 9c ba 9b d1 d0 bd ec b4 93 3c
       0.08989153 -0.0011967778 -0.10196229 0.018030606
000120 b1 7a f0 3d f7 81 a3 bd ec 1a 95 3c fa e6 d5 bd
       0.117421515 -0.07983773 0.018201314 -0.10444446
000130 a2 c0 ec 3c 19 88 06 3e 3c 31 c6 3c 75 56 9a 3c
       0.028900448 0.13137855 0.024193399 0.018840054
000140 1f 02 f2 bc d8 a9 c3 3c 0c 3d e4 bd 5a af 05 3d
       -0.029542027 0.023884699 -0.11144456 0.03263793
000150 bd 95 f7 3c 71 10 9c bd 3a a7 cd 3d 02 cb cb bd
       0.030222768 -0.076203234 0.100416616 -0.0995083
000160 30 f8 e3 3d 1a 5a 01 3d 1f 0c 05 3e 9c b4 19 3d
       0.111313224 0.03158007 0.12992905 0.03752576
000170 b6 ba a7 bb fd 89 df 3d ec ea 49 3d be 35 37 bc
       -0.005118693 0.10914991 0.049296305 -0.011182247
000180 69 cc 96 3c 5e 48 f4 bc ef 7c 0b 3d 6a d7 c6 3d
       0.018408017 -0.029819664 0.034054693 0.09709056
000190 ba 39 13 bd d0 95 14 be f0 a3 f3 bd 44 cf 66 bd
       -0.035943724 -0.14510274 -0.11896503 -0.056350008
0001a0 89 ef ca bd 43 aa 89 bd e8 b6 06 be 06 ed 45 3d
       -0.09908969 -0.06721928 -0.1315571 0.048321746
0001b0 46 77 cf bd 84 ac b0 bd f6 ab 77 bd a5 b9 a9 bc
       -0.101301715 -0.08626655 -0.06046673 -0.020718405
0001c0 10 79 0b bd fc 7c fc 3d a0 b4 9f 3d 7a 4c 61 3c
       -0.034051 0.123285264 0.07798123 0.013751144
0001d0 fa ae 21 3b a2 c7 8f 3d 22 72 5d bd 65 0b a6 bd
       0.0024670945 0.07020499 -0.054063924 -0.08107642
0001e0 56 0d 24 3d d4 5c 40 3d 62 9b 16 3c b5 5d 37 bd
       0.04005178 0.046963528 0.00919232 -0.0447671
0001f0 aa 78 22 be 88 32 c2 3d b4 3f 16 bd d3 04 27 be
       -0.15866342 0.09482294 -0.036681846 -0.16310434
000200 2c 40 7f 3d d2 1f 13 3e 8c 72 8c bd d4 57 0f be
       0.06231706 0.14367607 -0.068577856 -0.13998348
000210 44 a4 fc 3d 1c 73 93 3d d9 52 c4 3d 0e f8 02 bd
       0.12336019 0.0719969 0.095861144 -0.031974845
000220 5e f0 95 bb c0 82 de 3d fd a2 f9 3d 3c 95 07 3e
       -0.004575773 0.10864782 0.12189291 0.13240522
000230 a0 b0 0d 3d 2f 89 f0 3c 64 10 a8 bd b5 bc df bd
       0.03459227 0.02936229 -0.08206251 -0.10924665
000240 49 7c 44 3d e1 30 0c be 1b eb 4d 3d f1 13 3c bd
       0.04797009 -0.13690521 0.050273042 -0.045917455
000250 ad 1f 41 bc a2 a8 79 bd 83 71 0c 3e e6 09 15 3d
       -0.011787337 -0.060951836 0.13715176 0.036386393
000260 f3 d5 dd bd 14 3a 38 bd a5 ac 4b bd 08 ec d2 bd
       -0.10831823 -0.044977263 -0.049725194 -0.10298926
000270 00 86 af bd d6 88 fc 3d 83 c6 18 3e 94 62 56 bd
       -0.0857048 0.12330787 0.14919476 -0.052340105
000280 df 86 af bd 73 d8 66 3d 7f eb b6 3c 45 01 c7 bd
       -0.085706465 0.056358766 0.02232909 -0.09717039
000290 5a 59 9b bb 7f a3 e6 bd e2 bf e7 bd 57 53 be bd
       -0.004740876 -0.11261653 -0.113158956 -0.092932396
0002a0 01 83 8d 3d d9 66 de bd 06 70 28 bd cd 56 f2 3c
       0.06909753 -0.108594604 -0.04112246 0.029582405
0002b0 6e 37 db 3d 9e 34 05 be 41 03 b9 3d f4 c1 65 bd
       0.10703932 -0.13008353 0.09033824 -0.05609317
0002c0 18 f9 c6 bc ba d7 13 bd 6a eb 38 bd cf f2 9b bd
       -0.024288699 -0.036094405 -0.045146383 -0.076146714
0002d0 f5 9f 3c 3d 05 8e 43 3d e7 ae ae bd f0 74 0c be
       0.046050984 0.047742862 -0.08529454 -0.13716483
0002e0 b9 7d 02 3e de 12 f2 bd 3e 62 75 3d 70 39 1f 3e
       0.12743272 -0.11820005 0.059908144 0.15549254
0002f0 24 2d 50 bd c7 f0 1c 3e 94 79 ba bd 96 10 d5 3c
       -0.0508243 0.15326224 -0.091052204 0.026008885
000300 5d 31 de 3c 92 45 3d 3d 30 18 b5 3c 6a 74 2f bd
       0.027123148 0.046208926 0.02210626 -0.04283563
000310 c1 c0 90 bc 37 e5 ba 3d 78 d3 38 3d 5c 97 41 3d
       -0.017670037 0.091257505 0.045123547 0.04726349

lstm.weight_hh_l0 f4 [200, 50]
000000 8c 33 94 bc 87 40 12 bd 7b 71 08 be 49 72 ce 3d
       -0.018090986 -0.03570607 -0.1332454 0.10080392
000010 70 d7 0b be c9 79 cd 3d 4b 2e e0 bc 85 0a af bd
       -0.13656402 0.10032994 -0.027365824 -0.08546928
000020 62 e4 57 bd e6 66 99 3d b6 59 97 3c ec a6 3a bd
       -0.052708037 0.074903294 0.018475395 -0.045569345
000030 b4 75 47 bd 01 ae 01 be 59 53 ea 3d 6f 1c 48 bd
       -0.048696235 -0.12664033 0.114416786 -0.04885524
000040 66 9f 16 3d e7 01 f8 bd 07 17 6e 3d a9 02 20 bd
       0.036773108 -0.12109738 0.05812743 -0.039065037
000050 66 bb 91 bd 19 ee a7 bd 54 ed bc 3c 40 bb b4 bc
       -0.071158215 -0.081997104 0.023062386 -0.022061944
000060 ab 97 0a bb 39 de 89 bd 16 f3 87 3b be 4e f7 bd
       -0.002114753 -0.06731839 0.004148851 -0.12075566
000070 db d3 ef 3d 0e 22 e0 3c fb e2 00 be 49 2d 92 3d
       0.1171033 0.027359989 -0.12586586 0.07137544
000080 37 0d 9d 3d 05 d2 ab bc de eb 06 3e 21 ba ac 3d
       0.07668536 -0.020974169 0.13175914 0.08433939
000090 3c 40 fa bd ee 16 32 3d 08 90 bd 3d 0a db 24 3d
       -0.12219283 0.0434789 0.092559874 0.040247954
0000a0 51 3e ed 3b 08 f6 b2 3d 63 0e 75 3c 2c 5a 46 bd
       0.0072400947 0.08738333 0.014957043 -0.04842584
0000b0 62 fd 9d 3d 75 b2 62 bd c6 db 85 3d 96 f0 0b 3c
       0.077143446 -0.05534597 0.06536059 0.008541247
0000c0 40 37 03 be 9a 6c 1f 3d 5b fd f1 bd 5d 53 e5 3d
       -0.12814045 0.03892193 -0.11815902 0.11197541
0000d0 77 41 97 bd 8d d9 00 be 27 1d 94 bd 2a f1 f9 bd
       -0.07385533 -0.12582989 -0.07232123 -0.122042015
0000e0 e9 25 30 bd 3a 8b 99 bd 13 bc c3 3d 5a 75 0c 3d
       -0.043004904 -0.074972585 0.09557357 0.034291603
0000f0 06 95 90 3d 5f c3 b4 3d 2d 7a 87 bd 3a 29 f3 3d
       0.07059674 0.088263266 -0.066151 0.11873098
000100 12 c8 fb bd 1e 0d 29 bd d0 7e 16 bd 77 e5 3c bd
       -0.1229402 -0.041272275 -0.03674203 -0.046117272
000110 ed c4 9e 3d 1d c6 05 be fb 7e c5 bd ae 14 48 3d
       0.07752404 -0.13063855 -0.0964336 0.048847847
000120 64 96 15 3d f1 8f 35 bd 34 e2 b1 3c 36 f3 08 be
       0.036520377 -0.044326726 0.021714307 -0.13374028
000130 cc 73 70 3d 44 f0 5b bd 4b df f6 bd 2e f8 de bd
       0.058704183 -0.053695932 -0.120543085 -0.1088718
000140 4f eb d3 bd b7 3b 5d bd 1c 8a 3c bd 8e cd 10 3c
       -0.10347616 -0.054012027 -0.04603015 0.008838071
000150 96 1c ed bd d4 5b 97 bd 5e d0 1a bd 5e c3 85 bd
       -0.11577718 -0.07390562 -0.03779637 -0.06531404
000160 96 d4 98 3d a6 b6 f1 3d 2f 8b e6 bd d9 52 03 bc
       0.074624225 0.118024155 -0.11257016 -0.008015358
000170 f5 83 8f bc c8 49 a0 3d 54 4e 6f 3d 9d 88 4c bd
       -0.017518977 0.07826573 0.05842431 -0.049934972
000180 7f b2 8a 3d 33 a1 d2 3d b3 71 ef 3d 80 a3 b7 bd
       0.06772327 0.102846526 0.11691608 -0.08966732
000190 2c fb 12 3b fb 33 11 be 7f 3c ed 3d ba ab 22 bd
       0.0022427542 -0.14179985 0.11583804 -0.039714552
0001a0 e5 ee 90 bc 1a d7 90 3b 5f fc a2 3d 9e 68 64 bd
       -0.017692039 0.0044201734 0.07958292 -0.055763833
0001b0 f9 a8 57 3d f8 74 ca bc 07 7d 9e bd fd 7d 95 3d
       0.05265138 -0.024713978 -0.07738691 0.07299421
0001c0 6c e7 c3 bd 41 49 ca 3c 2f 26 3c 3b 6c fd 82 3d
       -0.095656246 0.024693133 0.0028709283 0.06395993
0001d0 e4 1b ef bd b7 f0 01 bd c4 8e 73 bd aa ef 0f 3c
       -0.116752416 -0.031723704 -0.059462324 0.008785168
0001e0 2a 40 95 3d 21 d1 93 bd 7f 6c 02 3d 55 e6 e5 3d
       0.07287629 -0.072176225 0.03184175 0.11225573
0001f0 8b 7e 61 bd e8 9a be 3d f2 fd bb 3d 56 9f 08 be
       -0.05505232 0.0930689 0.091792956 -0.13342032
000200 f7 58 f6 bd 72 10 48 3d 12 ce fc 3d ca 47 00 3e
       -0.120286874 0.04884381 0.12343992 0.12527385
000210 32 f6 89 3d 90 8f cb 3d 7f 51 a8 bd de 53 9a bc
       0.06736411 0.09939492 -0.08218669 -0.01883882
000220 2a 1e 09 be 9d 4e be 3d b5 53 d8 bd 71 94 d8 3d
       -0.13390413 0.09292338 -0.10562841 0.10575188
000230 14 ca f6 bc c6 6d 54 bc d0 a4 d0 3c f3 b4 c0 bd
       -0.030125655 -0.012965625 0.025469214 -0.09409513
000240 2e f2 3d bd f0 12 60 bd da 3d a2 3d 44 91 f6 3d
       -0.04637354 -0.05470556 0.079219535 0.12039426
000250 0e dc 0a 3e f0 0d 88 bc 1d 17 fc 3b 56 03 d8 bd
       0.13560507 -0.016608208 0.007693185 -0.10547511
000260 65 e3 c4 3c ec ad 85 bd e6 27 d5 3d 9c 35 ff bd
       0.024034211 -0.065273136 0.10408001 -0.12461397
000270 44 a5 9f bd 8b 6b a7 3d b2 55 16 be 25 3a 7a 3d
       -0.07795194 0.08174809 -0.14681128 0.061090607
000280 f9 64 ea 3d 1a b6 0e 3d 8a f8 8e 3d 5b a0 0d 3d
       0.1144504 0.034841634 0.06980999 0.034576755
000290 0e 14 ce 3b 8e 81 9c 3d cf 9a c1 bd 23 56 4a bd
       0.006289012 0.07641898 -0.094533555 -0.049398553
0002a0 78 16 0b 3c 05 6e b2 3d 81 30 1e 3e e5 7e ae bd
       0.008489244 0.08712391 0.1544819 -0.08520297
0002b0 10 a9 e6 3d 0f 0e 81 bd 66 dd 1a bd 7f b8 48 bd
       0.11262715 -0.063015096 -0.0378088 -0.049004074
0002c0 2b b6 7e bd 89 78 a7 3b 1f 54 c4 bd 7e 77 84 bc
       -0.062185448 0.0051108045 -0.09586357 -0.01617026
0002d0 7f 8f 03 be b9 24 7c 3d 18 49 1a 3d e7 1c 95 bd
       -0.12847708 0.06155846 0.037667364 -0.07280903
0002e0 9d 54 25 bc e8 2a 8f 3d fe 8a b0 3d d5 bb 62 3d
       -0.010090974 0.069906056 0.08620261 0.05535491
0002f0 a7 2c 4b 3d 76 f3 1d 3e 42 22 b1 3d d9 d2 00 be
       0.04960313 0.15424904 0.08649112 -0.12580432
000300 6a 65 1d be 94 9e fb bc 9b 3d 37 bd 67 4a 92 bd
       -0.15370718 -0.030715264 -0.044736486 -0.07143097
000310 d0 e3 41 3d f5 18 71 3c 1a 33 05 3e f9 02 49 3d
       0.0473364 0.014715423 0.13007775 0.0490751
000320 26 c1 01 3a 5e 7d aa 3d ce 19 18 bc e4 fd c5 bd
       0.0004949741 0.08324693 -0.009283496 -0.096675664
000330 da ff ec 3d 0c 9a 6b 3d a4 30 e6 3c 5c 89 c8 3d
       0.11572237 0.057519957 0.028099366 0.09791824
000340 c5 30 dc bb 59 e7 08 3d 03 5b a4 bc 41 2a ff 3d
       -0.006719681 0.033423755 -0.020062929 0.12459231
000350 ce c1 f6 bd 00 40 19 bd ee 7c a6 bc ab f0 c5 3b
       -0.12048684 -0.03741455 -0.020323243 0.0060406527
000360 39 80 23 bd b8 6f 1e 3e fd a3 0a bc 86 5c 88 ba
       -0.039917205 0.15472305 -0.008461949 -0.0010403551
000370 d8 0d 4f 3d 9e b7 e6 3d 4f 66 39 bd 7f 13 a0 3c
       0.05055031 0.11265491 -0.045263585 0.019540546
000380 7b be 29 3d 9c 85 a5 bd cb 8c 41 bb cd 77 bb 3b
       0.041441422 -0.080821246 -0.0029533382 0.0057210685
000390 86 c8 36 3d 24 a0 d4 3c a5 d0 bd bb 29 e3 3f bd
       0.044624828 0.025955267 -0.0057926946 -0.046847496
0003a0 0a 15 c7 3c 33 0f f7 3d 36 f7 0c be 24 81 3c 3d
       0.024302024 0.12063446 -0.13766178 0.046021596
0003b0 bb 29 1a bc b7 5b a8 3d 60 17 f6 bb a3 92 91 3d
       -0.009409363 0.08220618 -0.0075101107 0.07108047
0003c0 4a 42 82 bd 3a fd b4 3d 55 5a 6f bc 36 5c be bd
       -0.063603 0.08837362 -0.014608939 -0.092949316
0003d0 cf fc dd bd be 84 e7 3d 38 5d 96 3d 68 5b 72 bd
       -0.10839235 0.113046154 0.07341999 -0.059169203
0003e0 54 9c 4c 3c 18 ff 24 3c 46 b1 29 3c 8b 95 d9 bd
       0.012488443 0.010070585 0.010357207 -0.10624226
0003f0 e6 65 1c 3d ef 01 fc 3c ac ca 9a bc 8a 0c f5 bd
       0.038183115 0.03076264 -0.01889547 -0.11965282

lstm.bias_ih_l0 f4 [200]
000000 0a 8f a3 3d 3b c4 e3 bd ff d6 ee 3d 41 fd a7 bd
       0.07986267 -0.11121412 0.11662101 -0.08202601
000010 b7 cb 7c bc d2 32 38 3d c6 da 8b 3d b9 c4 f9 bd
       -0.015429429 0.04497034 0.06828837 -0.12195725
000020 48 76 e8 3c 53 05 17 3d 98 c0 06 3e fd 66 2e 3c
       0.028376713 0.036870312 0.13159406 0.0106446715
000030 af 64 b2 bb 44 a6 1b 3e ea 75 72 bd e2 6e 08 bc
       -0.0054441313 0.15200144 -0.059194483 -0.008327218
000040 72 cd 16 bd 7d b6 a0 bd f6 72 f6 3c 2e e5 78 bc
       -0.03681702 -0.07847307 0.030084115 -0.015191359
000050 da 4e 2f bd 16 7b 32 3d 8f c3 f6 3d 8c 73 f0 3d
       -0.042799808 0.043574415 0.120490186 0.11740789
000060 91 10 79 bc 46 a8 68 bd 29 fb 98 3d c7 40 ed 3d
       -0.015201704 -0.056801103 0.0746978 0.11584621
000070 2c 50 a2 3d a6 e5 18 bd 2a 7b 67 bb 77 b7 af 3c
       0.07925448 -0.037328385 -0.0035321214 0.021449788
000080 63 a5 e8 3d 1a 63 cc 3d d7 33 10 bd 49 01 d5 bc
       0.1135967 0.099798396 -0.03520569 -0.02600159
000090 a6 54 29 bd 70 3a 90 bd 25 60 01 3e 1c 0d df 3b
       -0.041340493 -0.07042396 0.12634332 0.0068069827
0000a0 4c 76 29 bc 16 54 10 3e d4 ba 8f 3d dd c2 89 3d
       -0.010343146 0.14094576 0.070180565 0.0672662
0000b0 21 3f c9 bb b1 3e a3 3d ae 85 b9 bb a0 8a 0a 3e
       -0.0061415588 0.07970942 -0.005661688 0.13529444
0000c0 cc 28 b9 3d 31 50 05 3e 1c a3 51 bd 86 2f 65 3d
       0.090409845 0.13018872 -0.051180944 0.055953525
0000d0 02 e8 8a bd 1a 97 65 3d 3b 32 ea 3c 0b 05 9e bd
       -0.06782533 0.056052305 0.028588405 -0.077158056
0000e0 cf 74 f8 bd 7d a1 39 bd 86 f7 f2 3d 0f e6 a7 3c
       -0.121316545 -0.045320023 0.118636176 0.020495443
0000f0 34 b1 87 3b 25 44 cb bd 2b 6a 0f 3e e9 15 14 3e
       0.0041409973 -0.09925107 0.14005344 0.14461483
000100 55 03 57 bd ca e8 b6 3c 17 79 45 bd 30 90 05 bd
       -0.052493412 0.0223278 -0.048211183 -0.03260821
000110 47 77 0d bd 8f 38 02 3e f5 30 9b bd 3c 69 0c 3e
       -0.03453758 0.12716888 -0.07577697 0.13712019
000120 ce 6f 08 3c 16 ce b7 bd 97 d6 e5 3c 48 c2 f0 bd
       0.008327438 -0.08974855 0.028056426 -0.11755806
000130 44 57 96 3d 6a 67 12 3e 3c 1f b7 3d a3 48 a9 bd
       0.07340863 0.14297262 0.08941504 -0.082658075
000140 df f8 d5 3d d5 8c 9e bc d6 82 20 bd fa 3d 15 bc
       0.10447859 -0.019354263 -0.039187275 -0.009109015
000150 a9 82 06 bc 4b 26 c3 bd bb aa 88 3d ea 38 ac 3c
       -0.008209863 -0.09528788 0.06673189 0.021023232
000160 90 78 f2 bd be 13 15 bc a8 84 47 3c 81 62 c9 3d
       -0.11839402 -0.009098945 0.012177624 0.09833241
000170 34 6a d1 3d 0f b6 da bd 82 90 92 3b 6d d8 06 be
       0.10225335 -0.10679256 0.004472793 -0.13168497
000180 38 ac 6e 3d e1 7f b2 bd bc 29 11 3e 3b 05 b3 bd
       0.05826971 -0.08715797 0.14176077 -0.08741232
000190 20 74 c1 3d ac 84 c9 bd f3 7b 10 be 77 73 26 be
       0.09445977 -0.09839758 -0.14109783 -0.16254984
0001a0 35 50 a5 3c 99 d5 d9 bd 09 e6 c5 3c 05 57 16 3e
       0.020179847 -0.10636444 0.02415754 0.14681633
0001b0 cc 92 4b 3d 84 3f 6d bc f8 87 00 bd b2 13 6b 3d
       0.049700543 -0.014480475 -0.03137967 0.05739183
0001c0 20 58 12 3e ce bc 1c 3e a3 99 17 3d 5e 27 f0 39
       0.1429143 0.15306398 0.037011754 0.00045805698
0001d0 22 7d c3 3c f2 68 ab 3d ff 82 89 bd 23 3b 19 bc
       0.023863379 0.08369626 -0.06714439 -0.009352478
0001e0 80 bb 81 bd 46 11 eb 3c 42 32 00 be f4 aa c8 bd
       -0.06334591 0.02869476 -0.12519172 -0.09798232
0001f0 ea 4b 97 bc 00 01 be bc ae 75 f3 3a 57 e2 1c be
       -0.018468816 -0.023193836 0.00185745 -0.15320717
000200 e0 cd 0d 3e 5d 23 ac bc a6 60 f5 bd 42 d2 bd 3d
       0.13848066 -0.021012956 -0.11981325 0.09268619
000210 89 4f 00 3e 8c cb 0b 3c 2c 56 8f bc 1d 4b dc bc
       0.1253034 0.008532416 -0.017497145 -0.026891286
000220 f4 79 06 3c 55 d9 99 bd d9 40 13 3d f3 04 dd 3d
       0.008207787 -0.07512156 0.035950515 0.107919596
000230 34 d1 b9 bd 61 8f 87 bd 76 e6 ca 3d c8 ac e8 bd
       -0.090731055 -0.06619144 0.09907238 -0.113610804
000240 6a f7 e9 bc de 9d 82 bd ea d5 35 bd 9f 27 98 bd
       -0.028560359 -0.06377767 -0.044393457 -0.07429432
000250 c3 26 06 3e ec 0b 9d bd 65 2c f9 bd db 08 eb 3d
       0.13100724 -0.076682895 -0.12166671 0.114762984
000260 28 a2 d4 3b 05 6a 7e 3d 94 42 b4 bd 9b 88 82 3d
       0.006489057 0.062112827 -0.08801761 0.06373712
000270 3f c9 83 3d 61 ee b4 bd dc d4 d5 bd 5b 46 e9 3d
       0.06434869 -0.0883453 -0.1044099 0.11390372
000280 23 a0 b6 bd 94 d3 a9 bd 68 b6 3d 3c db 6f dc bd
       -0.089172624 -0.082923084 0.011579134 -0.10763522
000290 1b 24 f5 ba 7f b6 d8 bd 0d f8 f4 bd e9 94 17 3e
       -0.0018702777 -0.10581683 -0.119613744 0.14802898
0002a0 12 a1 62 bd c2 85 04 be 80 f7 1b be 4b b7 17 3d
       -0.05532939 -0.1294165 -0.15231133 0.037040036
0002b0 3d 2f 06 3e dd f5 13 3e 7f eb 11 3d 77 6f cb 3d
       0.13103957 0.14449258 0.035624977 0.099333696
0002c0 c5 40 0c 3e 45 f3 0f 3e 42 8a c3 3d 06 e5 c6 bc
       0.13696583 0.14057644 0.09547855 -0.024279129
0002d0 2d 3d 5f 3d 39 4e f4 bd 8f 13 cd 3d 12 1a f4 bd
       0.0545017 -0.11928982 0.10013496 -0.11919035
0002e0 aa e1 06 3e 5d 4d 8a 3d 9f cf c1 3d d9 69 4b 3d
       0.13172022 0.06753037 0.09463429 0.04966149
0002f0 d0 62 94 3d dc 49 90 bd c5 d4 e8 3d ae 87 95 3c
       0.072454095 -0.070453376 0.113687076 0.018253174
000300 e2 7b ac bc b4 b1 ed 3d 77 d2 ef bc d6 d4 a2 bb
       -0.021055166 0.1160616 -0.029275162 -0.0049692197
000310 08 59 3e 3c a1 2b 9b bd b2 4f e0 bd fd 82 b9 3d
       0.011617906 -0.07576681 -0.10952701 0.09058187

lstm.bias_hh_l0 f4 [200]
000000 00 29 d1 3d af 54 5b bd ad 9a c9 3d 73 0d 04 3e
       0.10212898 -0.053547557 0.09843955 0.12895755
000010 5e 6b 1e 3d 7e aa e1 3c 27 f9 80 bd b7 88 0a 3e
       0.038676612 0.027547117 -0.06297522 0.13528715
000020 0c 0d b4 bc 3f e9 1e 3d 6b d3 11 3e 60 a2 84 3d
       -0.021978877 0.03879666 0.14240806 0.06476283
000030 0a fe c3 3d 95 e7 05 3e 1d 96 24 3d 76 4b b7 3d
       0.095699385 0.13076623 0.04018222 0.0894994
000040 c6 8d fc 3c a1 4b a0 3d 35 45 c7 bd 87 2c 58 bd
       0.030829322 0.07826925 -0.09729997 -0.05277684
000050 01 02 a3 3c cc 3d db bd 26 fd 18 bc f4 11 47 bb
       0.019898416 -0.10705146 -0.009337699 -0.003037569
000060 3b 06 38 bd db c5 32 bd f4 5e 76 3d 63 95 91 bd
       -0.044927817 -0.04364572 0.060149148 -0.071085714
000070 57 b0 ea 3d ca 1f 66 3d 11 91 85 bd 53 76 a9 bd
       0.114594154 0.05618266 -0.0652181 -0.08274522
000080 5c e1 db 3d 04 56 7e ba e5 74 5d 3a 04 7f e4 bd
       0.10736343 -0.00097021484 0.00084478996 -0.11157039
000090 ac bd ff 3c d5 7d 0d 3e 4b ea e3 bd 9a 21 e9 bd
       0.031218372 0.13817532 -0.11128672 -0.11383362
0000a0 c4 66 01 3e 4f bd 13 3e 55 58 9e 3d e0 2b 15 3e
       0.12636858 0.14427684 0.07731692 0.14567518
0000b0 ea f2 26 3b d4 39 5f 3d b9 8c 49 bb 92 ef ca bd
       0.0025474378 0.05449851 -0.0030754043 -0.09908976
0000c0 bc 69 ba 3d fa af 15 3e e1 74 0f 3e d7 db 8b bd
       0.091021985 0.14617911 0.1400943 -0.068290405
0000d0 7c 3b 09 3e b7 39 b8 bd 8d 9b 1e bd fd d5 02 be
       0.13401598 -0.08995383 -0.038722564 -0.12776943
0000e0 a5 b6 e2 3d f0 93 22 3e 06 76 c1 3d 26 81 c7 bb
       0.11069993 0.15876746 0.09446339 -0.0060883937
0000f0 28 f9 d3 3c 32 a2 a6 bb 7b 40 b5 bc 0e d0 f9 3d
       0.025875643 -0.005085253 -0.022125473 0.121978864
000100 21 2d a4 3a 9f 8e 23 bd 00 8c a2 bd ff 0e d7 3d
       0.0012525656 -0.039930936 -0.07936859 0.10500907
000110 d0 07 b8 3d f9 9a 96 bd b3 83 8c 3c 2d 52 76 bd
       0.08985865 -0.073537774 0.017152643 -0.060136963
000120 9b 42 41 bc e3 2f c6 bd 5e 6b 2f 3d 20 00 02 3e
       -0.011795665 -0.096771024 0.042827003 0.1269536
000130 f1 91 4d 3d 06 7e d9 3d 96 bb e9 3d b5 c4 e7 3d
       0.05018801 0.1061974 0.11412732 0.11316816
000140 5f d6 a7 bd ae 29 fb 3d 10 12 5d bd 06 7d 0e 3d
       -0.08195185 0.12263809 -0.053972304 0.0347872
000150 d4 67 e2 bd 13 28 90 3c bc 1c d1 3c 89 a4 5c bd
       -0.1105496 0.017597234 0.025526397 -0.05386785
000160 7a 72 5a 3d b5 53 82 3d 57 e6 fc 3d 90 d2 30 bd
       0.05333183 0.06363622 0.12348621 -0.043169558
000170 53 94 0d bd 31 8d ab 3d 75 cb a1 bd 14 13 68 3c
       -0.03456528 0.083765395 -0.079001345 0.014164705
000180 5a 61 cd 3d ca fd f8 3d 51 09 8a bd b5 dd f0 3d
       0.10028334 0.121577814 -0.06740058 0.11761037
000190 3d 56 14 3d 63 f2 db 3d 9d d7 a2 bd 72 7e ea 3d
       0.036215056 0.10739591 -0.07951281 0.11449899
0001a0 34 97 00 bb 9c d3 9e 3c 92 a5 b6 bd 5b 1e 04 3e
       -0.0019621374 0.019388013 -0.08918299 0.12902205
0001b0 57 c3 15 be c1 fe 91 bd 69 e3 b1 bd 70 5d 8e 3d
       -0.14625297 -0.071286686 -0.08685953 0.069514155
0001c0 b2 26 57 3c 1e 7b bb bd ac 84 14 be fa 6b eb bd
       0.013131784 -0.09154342 -0.14503735 -0.11495204
0001d0 de 7a 05 be 78 f2 08 3e 04 ba 19 be 4f ce 06 3e
       -0.13035151 0.13373744 -0.15012366 0.13164638
0001e0 78 1c fb 3c f9 2d 9f 3d 9a 82 e4 3d 54 83 f1 3d
       0.030653223 0.077724405 0.11157723 0.11792627
0001f0 13 1d bc 3d 46 8e ec bd da cb 18 be 5a 93 ef 3d
       0.09185233 -0.11550574 -0.14921513 0.11698027
000200 d1 07 b9 3c 19 95 a4 3d 4e ba 81 3d ec e7 1e 3d
       0.022586735 0.080362506 0.06334363 0.038795397
000210 af 33 d6 3d 0b 5b cf bd e0 cf b8 bc f3 55 fa 3b
       0.104590766 -0.10124787 -0.02256006 0.0076396405
000220 d7 2f eb 3d 36 da f4 bd fa 6e c7 3c 02 73 bf 3d
       0.11483734 -0.11955683 0.02434491 0.09348108
000230 d7 4a df bd 56 9f 93 3b a9 e7 b4 bd 95 ed 73 3d
       -0.109029464 0.0045050783 -0.08833248 0.059552748
000240 1e c1 02 be 11 03 dc 3d b8 13 22 3e 57 f2 0d be
       -0.12768981 0.10742772 0.15827835 -0.13861977
000250 38 4b 9b 3c 97 65 22 bd 38 78 f4 3d 17 27 f4 3c
       0.018956766 -0.039647665 0.119369924 0.029803796
000260 e8 39 e2 3d 01 ae e9 3d 23 35 c3 3d a3 e3 82 3d
       0.11046201 0.11410142 0.095316194 0.063910745
000270 9e 10 dc 3d a1 78 ba bd 1a c6 c0 bd 05 06 86 3b
       0.10745357 -0.091050394 -0.09412785 0.004090073
000280 40 55 e4 3d 56 fa 75 bd ac 1a 9e 3d ff af c8 bd
       0.11149073 -0.060053192 0.07719931 -0.097991936
000290 50 88 64 3d 88 81 14 bd 67 64 20 3d f4 48 b4 3d
       0.05579406 -0.036256343 0.03915825 0.08802977
0002a0 cb 15 84 bd 85 0c 17 3d 1d f4 1f 3d 1a 60 1d 3c
       -0.06449469 0.036877174 0.039051164 0.009605432
0002b0 0d 93 0d 3d 84 9e 0c bc cb 94 94 3d 7d a8 aa 3d
       0.034564067 -0.008582715 0.072549425 0.08332918
0002c0 ef 09 aa bc 34 8c 17 3d 2e 71 4b 3d f7 24 9f bd
       -0.02075669 0.036998942 0.049668483 -0.07770722
0002d0 ef d9 29 bd 5d 31 88 3b 6d a4 0a 3d 50 32 b3 bd
       -0.041467603 0.004156275 0.033848215 -0.08749831
0002e0 02 f3 09 3e a9 1c 94 3d 24 d1 fa bc be 79 c5 3d
       0.13471606 0.07232029 -0.030617304 0.09642361
0002f0 74 e6 bb bd ed 8b cc 3c fb 9e 1c 3c 26 07 9b 3d
       -0.09174815 0.024969066 0.009559388 0.07569723
000300 48 24 f1 bd ad 25 a7 3d cc 89 17 3d 22 c9 7f 3d
       -0.11774498 0.08161483 0.036996648 0.062447675
000310 98 f2 b9 3d 89 f9 ef 3d 4d 6c 20 3e 2d 40 69 3d
       0.09079474 0.11717517 0.15666313 0.05694597

lstm.weight_ih_l1 f4 [200, 50]
000000 b9 20 dc bd 51 21 45 3d b8 cc 0f be 85 41 0f be
       -0.10748429 0.048127476 -0.14042938 -0.13989837
000010 0f d4 50 bd 9a ab 70 3c a7 2b 83 bd ff 6d 4c 3d
       -0.050983485 0.0146893505 -0.064048104 0.049909588
000020 4e 84 d0 bd 25 0a e9 bd e1 7a 69 3d 67 bc 04 3c
       -0.10181485 -0.11378888 0.057001952 0.008101559
000030 58 0f c8 bc ab 42 27 bd ad 2d a3 3d 0e df 34 bd
       -0.024421379 -0.040835064 0.07967696 -0.044158034
000040 f6 13 73 3b 88 5c dd 3d ed e3 87 bd f6 92 61 bd
       0.0037090755 0.108086646 -0.0663527 -0.055071793
000050 bb 2c 12 3e ff e4 cf 3d 49 c1 f3 3d 49 69 67 3d
       0.14274876 0.101510994 0.119021006 0.056496892
000060 06 94 45 bd 2e f0 74 bd 04 03 42 bc 73 29 0a 3e
       -0.04823687 -0.059799366 -0.011841539 0.13492374
000070 e6 af 29 3d 34 84 cc bd 53 35 c5 bc 35 78 0b 3d
       0.041427515 -0.09986153 -0.024073279 0.034050185
000080 3c 45 4e bd ea 67 09 be f2 16 41 3d 9b bc b4 bc
       -0.050358996 -0.13418546 0.047141023 -0.02206259
000090 cf f6 3c bd 54 c4 d0 3d 6f 4e 13 3e ee e7 dc 3d
       -0.046133813 0.101936966 0.14385389 0.107864246
0000a0 ba b1 ff bd 2e c9 03 bd 34 a0 69 3a 75 49 ed 3b
       -0.124850705 -0.03217428 0.0008912117 0.007241423
0000b0 b9 41 2e bd 32 78 99 bd 92 7c ed 3c 95 0b 82 3d
       -0.042543147 -0.074936286 0.028990064 0.06349865
0000c0 0f e3 09 bd ca 8d 05 3d 69 73 11 3e 01 dd 44 bd
       -0.033663806 0.032605924 0.14204182 -0.04806233
0000d0 c1 dc 06 be f8 df 85 bd 28 96 60 3d eb f1 24 be
       -0.13170148 -0.06536859 0.0548307 -0.1610791
0000e0 c8 18 6f 3d 6b 4b a1 3d 2a 57 7c bd a9 8d 08 bd
       0.058373243 0.07875713 -0.061606564 -0.033338223
0000f0 6d 2e 02 bd 5b e1 50 bd 62 79 52 3d e9 71 bf 3c
       -0.031782556 -0.050996166 0.05138529 0.023369746
000100 cd 70 93 bd d9 6d a3 3b f9 63 c8 3c 10 d1 af 3d
       -0.071992494 0.00498746 0.024461733 0.085847974
000110 a1 fd a9 bd 66 10 ef bd 5d f1 0d 3e 48 8b ca bc
       -0.08300329 -0.1167305 0.13861604 -0.024724618
000120 ae fb 65 bb f0 d4 15 3e a4 76 5a 3d bd f2 f9 bd
       -0.003509264 0.1463201 0.0533358 -0.12204502
000130 38 55 eb bd 5c 24 f1 3d 5c 64 89 3d d9 96 82 bd
       -0.114908636 0.11774513 0.06708595 -0.06376428
000140 d2 df e8 3c 51 0c b9 bd 71 db 10 3d ba 50 b1 3d
       0.028427038 -0.09035552 0.035365526 0.086579755
000150 be dc 1c 3d c1 96 b6 3d ce 3f 18 3e 4b 79 ab 3b
       0.038296454 0.08915473 0.1486809 0.005232965
000160 d0 53 a5 3d 97 ad 1c 3e 0e 65 44 3d 05 2f 24 be
       0.080726266 0.15300594 0.047947936 -0.16033562
000170 ca a3 aa bd 9a 82 94 bd 0d f6 18 be 73 dc c3 3d
       -0.083320215 -0.07251473 -0.14937611 0.09563532
000180 e8 e2 66 3d 6e 61 15 be 5f 50 1d 3d 02 10 b9 3b
       0.05636874 -0.14587948 0.038406726 0.0056476602
000190 b1 20 8f 3c 86 85 4e 3d 25 6e ab bc 66 e5 c4 bd
       0.017471643 0.050420307 -0.020926544 -0.09614067
0001a0 f7 56 15 3d 13 55 a0 3d a1 66 e5 3d df 1b 57 bd
       0.03645989 0.078287266 0.112012155 -0.052516814
0001b0 83 ac 0a 3c 3d fb a6 3d af 1f e6 3d 16 f5 f6 3c
       0.008463982 0.08153389 0.11236512 0.030146163
0001c0 8c 65 23 3e 81 24 c8 bd 55 bb fe bc 7e 66 16 3d
       0.15956706 -0.097725876 -0.031095186 0.036718838
0001d0 76 75 12 be f0 59 84 bc 3b 43 a3 3c ed ca c9 3d
       -0.1430262 -0.016156167 0.019929519 0.09853158
0001e0 0f 0d 11 3e 4a 7f bb 3d 5b 25 e1 bd cb b4 95 bd
       0.14165138 0.09155138 -0.10993453 -0.07309874
0001f0 8a 1b 22 bd c6 a6 f4 bc 1f 35 df bd 1d 08 a6 3d
       -0.039577045 -0.02986468 -0.10898804 0.08107016
000200 27 62 9f 3c cc 50 37 bd a0 21 e7 bd 63 3a eb 3d
       0.019455982 -0.04475479 -0.1128571 0.11485746
000210 6c 8b 0e 3e b9 56 96 bd 14 3a 1b 3d 0b 7c 6d 3d
       0.13920373 -0.0734076 0.037897184 0.057979625
000220 cf 8c 56 3d 77 e8 6f 3d 1a 66 c0 bb f9 26 95 3c
       0.05238038 0.058571305 -0.0058715465 0.01820706
000230 c9 5f 91 3d 52 ba 5c bd a6 94 2f bc 89 b6 e9 3d
       0.07098348 -0.053888626 -0.010716593 0.11411769
000240 70 53 31 3b a4 47 94 bd 66 a0 fc 3d 7a 27 42 3c
       0.002705779 -0.07240227 0.12335281 0.011850232
000250 18 d3 34 bd b3 c3 61 bd b6 42 6f 3d 74 35 ba bc
       -0.044146627 -0.055118274 0.05841323 -0.022730567
000260 43 02 df 3d 96 92 0f be fc 7a 1d be b8 3c 81 bd
       0.10889103 -0.14020762 -0.15378946 -0.06310409
000270 e7 98 fd bd b7 38 f6 bd ba 83 16 be 49 25 ee bd
       -0.123826794 -0.12022536 -0.14698687 -0.11628205
000280 60 2d 00 be ae a0 eb bd b0 7a 1b 3d ed 2b 3f 3d
       -0.12517309 -0.115052566 0.0379588 0.04667275
000290 8e be 06 be b4 4a ed bd 4c 07 02 3e c7 aa 7a 3d
       -0.13158628 -0.11586514 0.12698096 0.061198022
0002a0 3a 0f 05 be 7a 07 e7 bd e2 4c 8f b9 9f f8 c9 bb
       -0.1299409 -0.11280723 -0.00027332368 -0.006163671
0002b0 90 ef 1c bd 5c 70 02 3e 82 7f 97 3d cb bc 42 bd
       -0.038314402 0.12738174 0.07397367 -0.04754333
0002c0 d6 ec 5c 3d 40 f3 da bd da 7b 2d 3d 64 21 35 3d
       0.0539368 -0.106909275 0.042354442 0.044221297
0002d0 f2 19 3c bc a7 4a 7a 3d 99 60 a0 3c 89 7e 44 3d
       -0.011480795 0.06110635 0.019577311 0.047972236
0002e0 79 68 c5 bd 84 23 ee 3d 1b b2 8b 3c ab a1 9b bd
       -0.09639067 0.11627868 0.0170527 -0.07599195
0002f0 00 9b 0d 3d 58 57 93 3d af 61 e7 bb dd 29 5c bd
       0.034571648 0.07194394 -0.0070612053 -0.05375086
000300 a6 13 75 bd 48 cc 4a 3d 1e 94 a9 3b 3a 36 11 be
       -0.05983319 0.049511224 0.0051751276 -0.14180842
000310 62 e8 99 3d c6 ec 0c 3d 17 9a e5 bc 75 94 bf 3b
       0.07515027 0.034405492 -0.028027577 0.005846555
000320 44 52 21 3b 12 ad 0f bd 97 ac 28 3c 4b 5c 0c 3e
       0.0024615685 -0.035077162 0.010295055 0.13707082
000330 ee d2 09 bc 9b 7c df bc 84 92 41 bd 6f a4 35 3b
       -0.008412106 -0.027281096 -0.04725887 0.0027716418
000340 43 e4 d7 3d 73 b8 45 bd a0 80 cd 3d 9f 4b 1a be
       0.10541584 -0.048271608 0.10034299 -0.1506791
000350 cf a4 8e 3c b8 39 e2 3b 01 1e 9c 3d 18 b0 0e 3e
       0.017412571 0.0069038533 0.0762291 0.13934362
000360 93 a2 c7 3d 00 56 a0 3c 95 31 cc bd 75 d9 57 bb
       0.097478054 0.019572258 -0.099703945 -0.003293601
000370 9e a8 81 3c fc 07 d9 bb 44 33 8c 3d 04 b2 c8 bc
       0.015827473 -0.0066232663 0.06845716 -0.024498947
000380 2a aa 1f bd 7c f5 f9 bd a8 62 8d 3d 15 3e cb 3d
       -0.03898064 -0.122050256 0.06903583 0.099239506
000390 d9 4f 6f bd da f4 eb bd 2e b6 00 3e 93 9c eb bd
       -0.058425758 -0.11521311 0.12569496 -0.115044735
0003a0 9a 8b 38 3d e7 93 51 3b 15 16 9c bd 3e 07 b0 3b
       0.04505501 0.0031979026 -0.07621399 0.005371957
0003b0 4e 2e 61 bd 7b d0 26 bd c3 0b 08 be 71 35 ab bd
       -0.0549758 -0.040726166 -0.13285737 -0.083598025
0003c0 00 ec 0a 3e 93 81 84 3d f5 0c 1d 3e 26 08 95 bd
       0.1356659 0.06470027 0.15336974 -0.07276945
0003d0 ff 3d 28 bd 46 54 1e 3e 81 41 ae 3c 1f ff 93 3d
       -0.04107475 0.15461835 0.02127147 0.07226395
0003e0 16 7a 83 bd 30 71 07 3e f3 ad f7 3d 08 ce d3 3d
       -0.064197704 0.13226771 0.12093725 0.10342032
0003f0 ab 1a 8a bd d6 fa 7c 3d 41 84 6c 3d 7c 68 01 3e
       -0.06743368 0.061762653 0.057743315 0.12637514

lstm.weight_hh_l1 f4 [200, 50]
000000 bb 91 75 bd c4 ef 92 bd f2 d1 8c bd 78 94 e1 bd
       -0.059953433 -0.07174638 -0.068759814 -0.11014646
000010 ca e6 ba bc 6f 06 b0 bd 63 1e fe ba e3 97 58 bd
       -0.022815127 -0.08594977 -0.0019387718 -0.052879225
000020 b3 c4 1f bd 14 48 f3 bd 53 4d 4d bd f6 72 09 3e
       -0.039005946 -0.11878982 -0.05012257 0.1342276
000030 b3 64 16 bb fd ae dd bd 76 f8 7a 3d 6e 2d f8 3d
       -0.0022948205 -0.10824392 0.061272107 0.1211804
000040 c8 4c ae 3d db ab e1 3d d0 95 59 bd 7a 18 7d 3c
       0.085107386 0.11019107 -0.053121388 0.01544773
000050 23 67 97 3d aa 92 be bd df f1 39 bc c6 96 f4 bd
       0.07392719 -0.09305318 -0.0113491705 -0.1194282
000060 c3 20 e9 bd 55 87 e3 3d a4 28 1c be 70 f4 ad 3d
       -0.11383202 0.11109797 -0.15249878 0.084938884
000070 85 f3 14 3d b6 cf 0c 3d 0b 33 18 3c 8f 34 20 3d
       0.03636505 0.034377776 0.009289513 0.039112624
000080 41 4b b0 3c cf ca da 3d a6 98 6e 3d f2 de bd bd
       0.021520259 0.10683214 0.058251046 -0.09271039
000090 ce a7 74 bd fa 3f 98 bc fb 19 07 3e ff 10 01 be
       -0.059730344 -0.018585194 0.13193505 -0.1260414
0000a0 ec 6d 1e 3d 65 98 19 3d c2 51 f9 bc dc 8d 4c 3c
       0.03867905 0.03749885 -0.030434493 0.012484994
0000b0 5e 4d c4 bb 03 4b 7e 3c 1a c4 00 3d 91 4b 60 3d
       -0.005990668 0.015520814 0.031437017 0.054759566
0000c0 4c c0 82 b8 d7 f1 7d bd 1d 62 a8 3d b7 52 d6 bb
       -6.234701e-05 -0.061998215 0.082218386 -0.006540622
0000d0 34 39 21 be 7d 6a 63 3d 0b 5e 0b be 4b d6 20 3d
       -0.15744478 0.055521477 -0.13610093 0.039266866
0000e0 9c 3e b1 3d 61 04 12 bd cd 1d fb 3c 00 ec 05 be
       0.0865452 -0.035648707 0.030653859 -0.13078308
0000f0 6e c9 a9 bd 09 28 1e bd 26 ec 15 3d f2 89 80 3d
       -0.08290373 -0.0386124 0.03660216 0.06276311
000100 7f 25 85 3d 3b fb e6 3d 7a 74 e0 bc b2 0f b2 bc
       0.065012924 0.11278387 -0.02739929 -0.021736
000110 6c 94 88 3d e5 fa 69 3d 8d 8a c7 bd b7 fd a3 3d
       0.06668934 0.057124037 -0.09743223 0.08007377
000120 ab 12 a9 bd d6 d0 81 bd 2c 5a 29 3d 19 c3 e1 3d
       -0.08255514 -0.063386604 0.04134576 0.1102354
000130 52 8c c1 bd 8e 31 63 3d 4f 81 f5 3b c2 75 6a bd
       -0.09450592 0.05546718 0.0074922214 -0.05724121
000140 69 e1 d4 3d 44 67 04 be 9d 9b d8 bd 22 db 75 bc
       0.10394556 -0.12930018 -0.10576556 -0.015005859
000150 3e ff f5 bc 77 29 12 3e 47 d0 c0 3d c2 7b f0 3c
       -0.030028936 0.1427363 0.09414726 0.029355887
000160 01 31 fb bc a2 ce bc bd 36 1b 1a 3e 87 e6 9f 3d
       -0.030663015 -0.092190996 0.15049443 0.078076415
000170 0c ce e1 bc 08 69 bc bd e5 93 1e 3d cb 1c cd bd
       -0.027564071 -0.091997206 0.038715262 -0.100152574
000180 f5 ba bd 3d 20 78 07 3e 17 b8 8d bd a6 61 a9 bc
       0.09264175 0.13229418 -0.06919878 -0.020676445
000190 c3 1f 12 bd 50 5e bc bd d2 14 e9 bc af ec 15 3d
       -0.03567482 -0.09197676 -0.02845231 0.036602672
0001a0 be f4 16 bd 36 4b 6a bd 83 88 af bc 7f e3 be 3d
       -0.036854498 -0.057200633 -0.021427399 0.09320735
0001b0 94 82 f4 3c b1 28 f6 3d 40 93 b4 bd cd 27 89 bd
       0.02984742 0.1201948 -0.08817148 -0.066970445
0001c0 de 8a f9 3d c9 59 cc bd cb 86 21 3e 34 cd dd bd
       0.1218469 -0.09978063 0.15774076 -0.10830155
0001d0 75 0b f4 bd bf 12 3f 3c 60 50 2c 3d 19 07 ad bb
       -0.11916248 0.011662184 0.04206884 -0.005280387
0001e0 66 5e ef bc fd 88 d2 3d 5b 56 dc bd d8 72 ec 3d
       -0.029219817 0.10280035 -0.107586585 0.11545342
0001f0 d7 1b 8a 3c 41 8e 1c be 9f c8 f2 bc 26 c6 a0 3c
       0.016858978 -0.1528864 -0.02963668 0.019625735
000200 01 ba 64 3d 60 8f bc 3d 77 bd c9 3d af c2 cb 3b
       0.05584145 0.09207034 0.09850591 0.0062182765
000210 91 a6 2b 3c d9 3d 5c 3d 55 fb d3 bd d8 6c c4 bd
       0.010476724 0.05376992 -0.10350672 -0.09591073
000220 55 26 f9 bd b8 fb fd bc 34 c3 10 be 52 74 1a 3d
       -0.121655144 -0.031003818 -0.14136964 0.037708588
000230 85 66 15 3e 3f c3 3c bb 68 0f 89 bd c6 c7 2e bd
       0.1458989 -0.00288029 -0.06692392 -0.042670988
000240 3d 62 b5 bd 59 e2 85 3d f8 f0 bc 3d 6d ad 56 bc
       -0.08856628 0.06537313 0.09225649 -0.013102871
000250 fb 59 f4 3c cc 68 fc 3d 18 d5 b0 bd 11 d1 d0 bc
       0.029828062 0.12324676 -0.086343944 -0.025490316
000260 a3 99 8f bc 8b 8d e1 3d 50 0e da 3c ff b3 b5 3d
       -0.017529314 0.11013325 0.026618153 0.08872222
000270 8a 17 bd 3d 38 cf 06 bd b0 64 cf bd d4 72 df bd
       0.09233005 -0.032912463 -0.101266265 -0.109105736
000280 b9 d8 e5 3d 3c 82 92 3d 2e 42 11 3d a7 8b 15 3e
       0.11222977 0.071537465 0.035463504 0.14604054
000290 00 7d fd bd 9d 49 da 3d 05 08 22 bc 7a 23 63 3d
       -0.123773575 0.10658572 -0.009889607 0.055453755
0002a0 c9 69 10 3e 8e 0d 31 3d 47 27 ff bd c9 26 03 be
       0.14102854 0.043225817 -0.124586634 -0.12807764
0002b0 f7 c4 85 bd 01 5d cc bd 61 bf cc 3d 57 1a f7 bc
       -0.06531709 -0.099786766 0.0999744 -0.030163927
0002c0 cc 14 46 bc 11 1b 56 3d ef c5 a9 3d 4d 11 27 3b
       -0.012089919 0.052271906 0.08289706 0.002549249
0002d0 34 99 11 be 98 4a 9b 3d b8 d3 d0 bd 0d 7a a8 3c
       -0.14218599 0.07582587 -0.10196632 0.02056601
0002e0 d1 28 ce 3d 76 18 1c 3e 40 8e 92 3d 86 31 8a bc
       0.10066379 0.15243706 0.07156038 -0.016869318
0002f0 db 4d 94 3c 9b f6 51 bd 44 11 e5 3d be 82 06 3e
       0.01810353 -0.051260572 0.11184934 0.13135812
000300 f1 ce 1b be 29 c3 62 bd 56 ec bd bd 14 f2 e1 3d
       -0.1521566 -0.0553619 -0.09273593 0.11032501
000310 55 da bd 3d c0 78 17 bd ef ae 33 bd c2 e3 e6 bd
       0.09270159 -0.03698039 -0.043868 -0.1127391
000320 de 96 4c 3d 9d 7d 34 3d fc 8d 9a 3d d9 57 99 bd
       0.049948566 0.044065107 0.075466126 -0.07487459
000330 37 95 d2 bd e7 84 e4 3c e0 60 ce 3d ce ef d7 3d
       -0.10282367 0.027895404 0.10077071 0.10543786
000340 f3 33 15 3d 38 5c bd bc f4 ae a4 bd ed b2 5d 3c
       0.036426496 -0.023115262 -0.08041182 0.013531429
000350 9e 5e 43 bc e9 fb f0 bb 87 1b de bd 3a 38 1a bb
       -0.011924414 -0.007354249 -0.10845094 -0.0023532049
000360 02 c0 46 bd 7e c6 60 bd 81 74 1c 3d 17 5c 0d 3e
       -0.048522957 -0.054876797 0.038197044 0.1380466
000370 4e e7 b5 3d b3 ad f0 bd d8 0b 8a 3d a9 c5 27 3d
       0.088820085 -0.117518805 0.0674054 0.040959988
000380 8b 2d e4 3d 6d d7 a9 3d f2 15 85 bd 0b 83 87 bc
       0.11141499 0.08293042 -0.06498326 -0.016541978
000390 c6 20 b3 bd 7c 91 4e 3d 0b b6 97 bd cd 65 ab bd
       -0.087464854 0.050431713 -0.07407769 -0.08369026
0003a0 16 74 16 3c 91 8a 58 bd a3 96 ad 3d e0 1f c9 bd
       0.0091829505 -0.052866522 0.08475997 -0.09820533
0003b0 24 16 b6 bd da 01 c4 bc 5c 60 bb 3d 5f 53 03 3d
       -0.08890942 -0.023926664 0.091492385 0.03206193
0003c0 5e ec 75 bc 5e cf ab bd a7 ca 98 bd ec 94 95 3c
       -0.015009968 -0.083891615 -0.07460528 0.018259488
0003d0 bb af a6 3d 4c f1 40 3d 6a 12 51 3d c5 3e 7f bd
       0.08138987 0.04710512 0.05104295 -0.06231572
0003e0 fa c5 ba 3d e8 84 f3 bd 53 27 d3 3d 61 14 df bd
       0.09119792 -0.11890584 0.10310235 -0.10892559
0003f0 e9 53 06 be 4e 81 d3 bd 3d 21 c4 bd bf e8 11 3d
       -0.13117947 -0.10327397 -0.09576652 0.035622355

lstm.bias_ih_l1 f4 [200]
000000 b2 e8 06 3e c7 f4 f1 bd 16 da 3e bc 79 3e 93 bc
       0.13174704 -0.11814266 -0.011648675 -0.017974125
000010 72 26 1d be a3 af ec 3b d1 4c ac bd a2 97 ac bd
       -0.15346697 0.007223086 -0.08413089 -0.08427359
000020 7b 2a 7c bc 3b 85 b4 bd 93 2c 11 3e 19 ac 11 bd
       -0.0153909875 -0.08814474 0.1417716 -0.035564516
000030 2d 5b cc bb 69 f0 4b bd 43 4a c9 bc fa a4 0d 3e
       -0.006236455 -0.04978982 -0.024571544 0.13832465
000040 f2 db 0a 3e ea 1c 08 3e 67 97 06 be 55 38 ed bd
       0.13560465 0.1329228 -0.13143693 -0.1158301
000050 fa ce 8e bd 33 ee ae 3d 80 f5 fc 3d d5 17 9f bd
       -0.069730714 0.08541527 0.12351513 -0.077682175
000060 9d 9f f0 bd 3b 56 81 bd 1c 9c a1 3d a6 ee df bd
       -0.11749194 -0.06315275 0.078911036 -0.109341905
000070 94 81 ab ba f4 71 f4 bd 2f b8 99 bc 06 e5 d4 bb
       -0.0013084882 -0.11935797 -0.018764583 -0.0064970283
000080 f4 d6 56 bd 75 19 63 ba a9 7c 83 3d 37 5f eb bd
       -0.05245109 -0.0008663156 0.064202614 -0.1149277
000090 cd f3 76 3d f2 2b f1 3d df e2 d4 3d af 95 a8 bd
       0.0602911 0.1177596 0.10394835 -0.08231675
0000a0 c8 10 51 bd fe 94 3a bd 55 f0 99 bd 85 c3 7d bd
       -0.051041394 -0.045552246 -0.07516543 -0.06195404
0000b0 a3 47 51 3c 99 32 bc bd 04 36 0f 3e c5 74 31 bd
       0.012773427 -0.09189338 0.13985449 -0.04332425
0000c0 6f fb c5 bc 3a 7e 9e bd 36 76 1e bc 3e 8d e8 bd
       -0.024167744 -0.077389196 -0.009671738 -0.11355065
0000d0 27 d4 d0 bb ba b1 c2 3d 6b e3 88 3d dc 66 69 3d
       -0.006372947 0.09506555 0.066840015 0.05698286
0000e0 34 9e 84 3d 7e a4 9e bd a7 2b a5 3d 98 da 81 3d
       0.06475487 -0.07746218 0.08064967 0.063405216
0000f0 d9 25 d9 3d 34 d4 fb bc db 3d a5 bb f9 30 9a 3d
       0.10602922 -0.030740835 -0.005042774 0.07528872
000100 ec 29 8d bd 8c 40 c7 3d 37 c2 2f bc 05 48 dd bd
       -0.068927616 0.09729108 -0.010727457 -0.10804752
000110 1f dc 21 bd b8 c5 a9 bd 04 3b d5 3d f7 94 7e 3c
       -0.039516564 -0.08289665 0.10411647 0.015538446
000120 a9 80 99 3d 81 47 72 bd 4f ef 54 3c 93 3e ce 3b
       0.07495243 -0.059150223 0.012996509 0.0062940805
000130 ee ef 09 bb 45 c2 b5 bd 80 dd ab 3d 2a 07 ec bd
       -0.002104755 -0.088749446 0.08391857 -0.11524804
000140 e1 c9 80 bd b6 9d 4c 3c 95 59 0e 3e b8 b3 bf 3c
       -0.06288505 0.012488773 0.1390136 0.023401126
000150 dd 20 52 3c 07 59 19 3d 93 24 aa 3d c8 92 d3 bd
       0.012825218 0.03743842 0.08307757 -0.10330731
000160 91 b6 14 be 9b 29 e5 3d 5c 0a 00 3e 6d 8e a3 bd
       -0.14522769 0.11189576 0.12503952 -0.0798615
000170 95 51 70 bd 22 9a 7d bd 2e 71 35 3d 34 dd 8a bd
       -0.058671553 -0.06191457 0.04429739 -0.067804724
000180 fd e0 f1 bd 07 53 c3 bd 6c 07 1f bd 39 f9 d7 bc
       -0.11810491 -0.095373206 -0.038825437 -0.026363956
000190 2b c8 e2 bc e7 6e 09 be 7d 71 a1 bc c1 69 dc 3d
       -0.027683338 -0.13421212 -0.019707436 0.107623585
0001a0 a6 3e 8d 3b 6b 8f 42 3d 65 27 e0 bd 00 03 f3 3d
       0.004310447 0.047500055 -0.10945014 0.118658066
0001b0 e9 72 c2 bd 80 16 98 3d a5 12 bb bd b4 6d f6 3d
       -0.094945736 0.074261665 -0.091344155 0.12032643
0001c0 4e 02 8e 3d 59 6c d3 3d 36 e2 da 3d d6 72 88 bd
       0.06934033 0.103234 0.106876776 -0.06662528
0001d0 c6 b0 13 be 71 ee 00 3e 01 92 88 bd 2e 62 19 bd
       -0.14422902 0.12590958 -0.06668473 -0.037447147
0001e0 55 ef 7c bc 40 d2 1a 3d 4d 22 fc 3d 6e 34 bf 3d
       -0.015437921 0.037798166 0.1231123 0.09336172
0001f0 13 b6 b1 3d 4f 23 aa bd 8c 1f 18 bd 94 a3 00 3e
       0.08677306 -0.08307516 -0.03713946 0.125624
000200 dd 5a e1 3d 7d c3 da bd 0f a7 e5 bb f9 a1 20 bd
       0.11003659 -0.10681818 -0.0070084403 -0.03921697
000210 5e bc c2 bd 48 da 06 3d 58 e4 d5 bd 4d 5a 40 bd
       -0.095085844 0.032923013 -0.10443944 -0.046961118
000220 42 5a 33 bd 91 4f cf bc 46 71 05 bd a3 ab ed bd
       -0.04378725 -0.025306495 -0.03257873 -0.11605003
000230 a5 59 b9 3d da 8e 1c 3e 64 2c 75 3b e1 88 19 be
       0.090503015 0.15288869 0.0037410492 -0.14993621
000240 51 7d db bd 5d 7e 79 3d 50 b1 16 3e c5 56 d4 bc
       -0.107172616 0.060911525 0.14716077 -0.025920281
000250 d3 54 8f 3c 9a 42 ac bc c6 80 e2 bd 78 bd 12 3e
       0.017496502 -0.021027852 -0.11059718 0.14330089
000260 57 90 0d 3e 74 0d 16 3e 28 e7 ba 3d 43 95 e3 3d
       0.13824593 0.1465357 0.09126121 0.11112454
000270 55 6d 84 b9 63 37 19 3d d1 0d e3 3d 4f 56 a9 3c
       -0.0002525846 0.037406337 0.1108662 0.020671038
000280 c3 79 7d 3d ad ff 94 3d b4 39 b7 bc 9b 70 a3 bd
       0.0618837 0.07275329 -0.022366382 -0.07980462
000290 e3 ed 40 3b b1 6b 76 bd 6f 83 08 3e df 29 9d 3d
       0.0029438667 -0.060161296 0.13331388 0.07674002
0002a0 84 a8 00 3d ed 84 a8 bd 85 80 b5 bd 30 40 0e 3d
       0.03141071 -0.082284786 -0.08862404 0.034729183
0002b0 00 7a 02 3e 97 5e 07 3e 25 4c 62 3c 2c b3 00 3e
       0.12741852 0.13219677 0.0138121 0.12568349
0002c0 8a 21 95 bd 05 8b 0e 3d 6d f4 36 bd d6 49 a1 3b
       -0.07281788 0.034800548 -0.044666696 0.004922132
0002d0 90 63 b5 bd a4 ff b7 bc c7 cd 46 bd b0 09 e8 bd
       -0.08856881 -0.022460766 -0.04853609 -0.11329973
0002e0 db a4 d8 3d 98 32 3b 3d b2 92 20 3d a0 6d 99 bd
       0.10578319 0.045702547 0.0392024 -0.074916124
0002f0 a2 1c a5 bd 78 fc 10 3d 36 b2 80 3d bd 6a a5 3d
       -0.08062102 0.035397023 0.06283991 0.08076999
000300 68 0f 3c bd f0 92 80 bd d2 5e b0 3c 24 83 a6 bd
       -0.04591313 -0.06278026 0.021529589 -0.08130482
000310 77 3d 5a bd a7 44 d2 3d 87 6e bf bd 1e cf 8e 3c
       -0.053281274 0.10267001 -0.09347253 0.017432746

lstm.bias_hh_l1 f4 [200]
000000 d5 5c ab 3c f5 9e fe 3d 8d 7e 70 3d ac 73 19 3e
       0.02091829 0.124326624 0.05871444 0.14985532
000010 a6 00 22 bc 37 30 4f 3d e3 c3 ba 3d ca 91 6a bd
       -0.00988785 0.05058309 0.09119394 -0.05726794
000020 4f d6 ef 3c de 74 0a 3d e1 22 37 3d 27 2c 9a 3d
       0.029276995 0.03380286 0.044710997 0.07527953
000030 bc c1 a2 bc e6 83 ba 3d 51 7d b4 3c 70 99 17 3e
       -0.01986777 0.09107189 0.022032412 0.14804626
000040 85 fe 21 3e b5 95 53 3d e2 f3 d4 bd 06 5b e9 bd
       0.15819748 0.051656444 -0.103980795 -0.113943145
000050 ea a6 07 bd b7 2e 9c bd 0f 30 b5 bd cf 93 b7 bd
       -0.033118166 -0.07626098 -0.08847057 -0.08963739
000060 ae ae 47 bd e0 32 11 3e 8d 64 0c be 29 cf 6d bd
       -0.048750572 0.14179564 -0.13710232 -0.05805889
000070 62 a3 06 3c d8 63 36 bd 0d fe fe bc bd e5 04 3e
       0.008217664 -0.044528812 -0.031127 0.12978263
000080 fc 99 c8 bd 93 e9 05 3e fd b7 72 3d f7 4b c8 3c
       -0.09794995 0.13077383 0.059257496 0.024450285
000090 73 88 5e bd e2 f8 1f 3d c0 01 33 3c 53 8c 09 bd
       -0.054329347 0.039055713 0.01092571 -0.03358109
0000a0 bb 91 de 3d b0 24 a8 3d 53 e9 8e bd c5 49 15 3c
       0.1086764 0.082101226 -0.06978097 0.009111826
0000b0 b6 2f 01 3e 5b 8c c9 bd 4e 4e f8 3d 58 e6 19 3e
       0.12615857 -0.09841224 0.121243104 0.15029275
0000c0 d2 3f cd 3d 8b 94 25 bd 7e e2 a8 3b d2 79 1c 3d
       0.100219384 -0.040424865 0.005153953 0.038202114
0000d0 df b0 a5 bd c1 42 08 3e 59 18 d2 3d c8 1d 8e 3d
       -0.08090376 0.13306715 0.1025855 0.06939274
0000e0 23 73 1e be 75 4c d6 bc d9 f7 fc 3d 2f 44 77 bd
       -0.15473609 -0.026159504 0.12351961 -0.06036776
0000f0 c3 eb b2 bd 93 b4 d9 3d 8c 5e 3a 3d 0c 67 a7 3b
       -0.08736374 0.10630145 0.045500323 0.0051087197
000100 91 9a 80 3d 76 ff d6 3d 70 86 99 3d 8b be a9 3c
       0.06279481 0.10497944 0.07496345 0.02072074
000110 9e af 78 3c 6a 59 89 3d 52 b5 0c 3e 9c 19 d5 3d
       0.015178589 0.067065075 0.13741043 0.10405275
000120 cc e7 33 bd a9 28 c1 3d 65 c7 9a bd 8c 86 c9 3d
       -0.04392223 0.094315834 -0.07557563 0.09840116
000130 e1 dd da 3d 8f d7 16 3c 81 cc 60 3b b3 0f cb bd
       0.10686851 0.009206667 0.0034301581 -0.09915104
000140 33 28 af bd 3d e6 10 3e f4 21 e0 bc 1d ea 54 bd
       -0.08552589 0.14150329 -0.02735994 -0.05198108
000150 79 e1 25 3d fe 00 08 3e 9b 00 37 bd c5 03 de 3d
       0.04049823 0.13281628 -0.04467831 0.10840563
000160 7b c5 f9 bc 19 6d 95 3c a4 c9 aa bd 46 7b dc 3d
       -0.030489674 0.018240498 -0.08339241 0.107657
000170 7c 22 0d be 4b f4 56 bd 37 b8 8f bd 16 17 95 bd
       -0.13782686 -0.05247907 -0.07017558 -0.07279794
000180 8a d3 99 bb a7 91 9e 3d 85 ba 58 3d f6 34 0a 3e
       -0.004694407 0.07742625 0.052912254 0.13496765
000190 de ed be 3a b9 61 47 bd d0 87 e4 bd cb a2 bc bd
       0.001456674 -0.04867718 -0.11158717 -0.09210738
0001a0 38 87 97 bd 9b 8b b6 bc 9b 6b bb bd a2 f2 d4 3d
       -0.07398838 -0.022283366 -0.091513835 0.10397841
0001b0 43 f8 e2 bd 29 9a b2 3b 16 a0 62 bd f3 90 be 3c
       -0.110825084 0.005450506 -0.05532845 0.023262477
0001c0 a2 5e 17 3e e0 a0 d3 bd a9 93 21 3e 7d 89 91 bd
       0.14782193 -0.10333419 0.15778984 -0.07106302
0001d0 10 a6 cd 3d 58 36 10 bd 8a 7f 01 3e 4f 37 27 3d
       0.100414395 -0.035208076 0.12646309 0.04082423
0001e0 c1 5e 20 3e 78 4d 3b bd 8d 7a c4 3d 8a aa 80 3d
       0.15661146 -0.045728177 0.09593687 0.06282528
0001f0 ff ff 18 be 63 59 cb bd c3 b7 50 3d 37 31 ae 3d
       -0.14941405 -0.099291585 0.0509565 0.08505481
000200 15 0e ed bd eb f0 43 bd eb 22 93 bd 49 78 8c bd
       -0.115749516 -0.04783718 -0.071843944 -0.0685888
000210 d2 3a 51 bd 06 f9 be 3d a2 90 04 be 71 3b 0c 3e
       -0.051081486 0.09324841 -0.12945798 0.1369455
000220 62 4f c4 bd f7 d7 88 3d 9a ee a0 3c 90 b4 05 be
       -0.095854536 0.06681817 0.019645024 -0.1305716
000230 d3 b3 2b 3d eb 57 c2 bd 11 b9 05 be a6 30 ca bd
       0.04191954 -0.09489425 -0.13058878 -0.0987256
000240 1b 38 6e 3c 51 8f 86 bd dc 06 37 bd eb 55 57 3d
       0.014539744 -0.06570304 -0.044684276 0.052572172
000250 12 64 97 bd 74 59 9a 3d 56 ab 93 bd fb 93 00 3e
       -0.07392134 0.07536593 -0.07210414 0.1255645
000260 e9 fb 86 3d df 5e 2c bd 66 47 61 bc 66 57 a1 3d
       0.06591017 -0.042082664 -0.013749933 0.07877998
000270 13 b4 ab 3c e4 cc e8 bd 29 5b 3c 3d ae b9 89 3d
       0.02095989 -0.11367205 0.045985375 0.06724869
000280 ec d4 b1 bd 22 42 c2 bd 8e 41 8f bd 20 07 4b 3c
       -0.0868319 -0.0948527 -0.069949254 0.012391835
000290 dd 72 f1 bc d6 ff e9 3d c3 0f 43 3b cf 23 fb bd
       -0.029473716 0.1142575 0.0029764033 -0.12262689
0002a0 2d dc a8 bd c5 7a 1b 3c 45 c8 c6 bd f1 3f eb 3d
       -0.0824512 0.00948972 -0.09706167 0.11486805
0002b0 e4 cb ac 3d 8f 9d ff 3d 8c 03 94 bd 5f b1 c6 bd
       0.084373266 0.12481224 -0.07227239 -0.097017996
0002c0 ec 88 96 3d cb 4c 31 3d 44 86 a9 3c bf af 84 bc
       0.073503345 0.043286126 0.020693906 -0.016197084
0002d0 cd 5e 07 3e ab cd 53 3c ad bb ee bd 55 e9 19 3e
       0.13219757 0.012927453 -0.1165689 0.15030415
0002e0 cc 04 09 3e 4f d7 e9 3d b2 38 2b 3d 93 07 0f 3e
       0.13380736 0.1141802 0.041802116 0.13967733
0002f0 37 82 36 bd d5 fe d2 bd c8 8a 57 3d 45 09 de bd
       -0.044557776 -0.103025116 0.052622586 -0.10841612
000300 b8 40 1b 3d f5 1f e0 3d 47 18 0c be d8 a6 25 bd
       0.037903517 0.10943595 -0.13681136 -0.040442318
000310 73 c4 17 3e 71 4a 2f 3c e3 aa d9 bc ea 6e ca 3d
       0.14821033 0.010698901 -0.026570743 0.098844364

fc.weight f4 [1, 50]
000000 71 68 60 bd 50 ac ca bc 44 d7 d2 bd a9 48 05 3e
       -0.054787103 -0.024740368 -0.10294965 0.13015999
000010 3d 33 ca 3d e0 6a c9 bd 4e 78 37 3d 5e ec 38 bb
       0.09873054 -0.09834838 0.044792466 -0.0028217058
000020 3f 19 83 bc c9 a4 10 3b 81 c1 65 bd 4d c0 60 3d
       -0.01600325 0.0022070876 -0.056092743 0.054870892
000030 1d 29 1c 3e f9 f2 7f 3d 10 01 a8 3c a1 68 e2 bd
       0.15250058 0.062487576 0.02050832 -0.11055113
000040 59 d3 fc bd 32 f2 e9 3c 5a 62 cf bc d0 d2 ca bd
       -0.12344999 0.02855787 -0.025315452 -0.099034905
000050 9c 47 34 3d ca f6 d2 bd c9 c0 d0 3d 64 7d 87 3d
       0.044013605 -0.103009775 0.10193021 0.06615713
000060 b0 54 ec bd 8c 1a 66 bc d6 fa af bd 82 f6 8b 3d
       -0.1153959 -0.014044415 -0.08592765 0.06834127
000070 7c 74 c8 3d 80 9f af 3d 19 c6 44 bc 4f 13 60 bd
       0.09787843 0.08575344 -0.012010121 -0.054705914
000080 ca 6d aa 3c 91 5b 16 3d 01 f5 65 3c 1b de 66 3d
       0.020804305 0.03670842 0.014035464 0.05636416
000090 57 64 8c 3d b2 bc 27 bd 95 10 4f 3d 49 9a 88 bd
       0.06855076 -0.04095144 0.050552923 -0.066700526
0000a0 45 87 fb bd bf 84 aa 3c b3 6b 0f 3d cc 25 84 3a
       -0.1228166 0.020815251 0.03501482 0.0010082065
0000b0 48 f5 b3 3d 23 00 d6 3d 34 9e fa 3d 30 11 8c 3d
       0.08787018 0.10449245 0.12237206 0.06839216
0000c0 72 e4 4d bd ae e3 02 be
       -0.05026669 -0.12782165
