models/ETH_USDT_model.pt (torch, 128181 bytes, 9 tensors)

lstm.weight_ih_l0 f4 [200, 1]
000000 15 ab cf bc 20 f4 d2 bc e6 0a 0f 3e 59 03 a2 3d
       -0.025350133 -0.025751173 0.13969001 0.07910795
000010 e0 fe 77 3d d6 33 f1 3c 81 b9 40 3c 14 1d 09 3d
       0.060545802 0.029443663 0.011762978 0.033474997
000020 e4 ab 8f bd 26 06 cf 3d 70 d6 31 3d 34 d3 16 bb
       -0.070152074 0.101085946 0.043417394 -0.002301407
000030 b2 79 4c 3d 43 81 fd 3d 40 1e 89 3d f3 99 af bd
       0.049920745 0.1237817 0.06695223 -0.08574285
000040 54 64 8f bd 66 cb b3 bd fd ec e7 3d 38 88 f9 3d
       -0.07001558 -0.087790295 0.11324499 0.12184185
000050 ee f1 c7 3d 4b f3 21 3e 60 48 b4 bd 1b 6a 9c 3d
       0.09762941 0.15815465 -0.08802867 0.076374255
000060 03 f4 f7 3b 8c b7 cc bd dc 4b 70 3d 56 68 a3 3d
       0.0075669303 -0.09995946 0.058666095 0.07978885
000070 a4 e8 1a 3e b9 2a 25 bc 26 b8 db bc 5c 64 cd 3d
       0.15127808 -0.010080987 -0.026821207 0.10028908
000080 48 a9 d8 bd 5a fc ab 3d 63 12 03 bd 46 1e 14 3e
       -0.10579163 0.083977416 -0.031999957 0.14464673
000090 7e 5a 01 3d 85 79 e5 bd de 2f 74 3d 87 9a a4 3d
       0.03158044 -0.11204819 0.059615962 0.08037286
0000a0 57 04 ef bd c8 95 16 3d c1 02 85 3d db 5a 1a 3d
       -0.1167075 0.036763936 0.06494666 0.037684303
0000b0 06 fe b0 3d 92 4b ed bd b5 9a 36 bd 1b 0b 8d bd
       0.08642201 -0.115866795 -0.044581134 -0.06886884
0000c0 db 61 02 bd a9 bc 21 3e 28 18 0c be ea 08 cb bd
       -0.031831603 0.15794624 -0.1368109 -0.099138096
0000d0 cf 73 0b be 85 96 0a bc 5d 5a 71 bd a0 0b 1b 3d
       -0.13618396 -0.008458738 -0.058924068 0.037852883
0000e0 00 9a c8 bd 90 95 22 3e f2 c5 30 bd 91 7d 47 3d
       -0.09794998 0.15877366 -0.043157525 0.048703734
0000f0 dd a3 ca 3d 5e 2e c9 bd 52 93 1b 3e f2 d6 2d bd
       0.09894536 -0.09823297 0.15192917 -0.042441316
000100 dc 0f 34 3d 02 14 89 3d 9b 90 02 be 90 ae 02 be
       0.043960437 0.06693269 -0.12750475 -0.12761903
000110 0d 85 b9 3d e5 4b 89 ba 47 06 d2 bd 7b 89 98 3c
       0.090585805 -0.0010474889 -0.102551036 0.018620243
000120 c7 d5 f0 3d 56 ec a2 bd f5 ee 99 3c 61 2d d5 bd
       0.11759525 -0.07955234 0.018790701 -0.10409046
000130 1c f8 f2 3c bf 3d 07 3e c8 2f cc 3c 92 da 9f 3c
       0.029659323 0.13207148 0.024925128 0.019513402
000140 5d 5a ee bc 2e c8 c3 3c 43 b2 e2 bd a3 d8 06 3d
       -0.029095823 0.023899164 -0.11069157 0.032921445
000150 f8 1e fa 3c 48 4f 9b bd 09 a6 ce 3d 02 a9 ca bd
       0.030532345 -0.07583481 0.100902624 -0.09895517
000160 dd 16 e5 3d e4 0e 04 3d 5f 87 05 3e f1 a5 1b 3d
       0.111860014 0.032240763 0.13039921 0.03800005
000170 0e 01 92 bb 21 f7 e0 3d 53 8d 4b 3d 16 11 30 bc
       -0.004455692 0.10984636 0.049695324 -0.010746261
000180 9a 8c 9c 3c 54 79 eb bc f5 f5 0d 3d ac 21 c8 3d
       0.019110013 -0.028744377 0.03465839 0.097720474
000190 4d e8 10 bd a4 52 15 be 9f d4 f4 bd 9d 84 69 bd
       -0.03537779 -0.14582306 -0.11954617 -0.057011236
0001a0 3c 52 cc bd ba 49 8a bd 3a 6b 07 be 42 0f 49 3d
       -0.099766225 -0.067523435 -0.13224497 0.049086817
0001b0 02 00 d1 bd 5e 10 b2 bd f0 e8 7a bd 1e 71 a3 bc
       -0.102050796 -0.08694528 -0.061257303 -0.0199514
0001c0 8a 7d 08 bd c8 c7 fd 3d bd 42 9e 3d 3e 37 55 3c
       -0.03332285 0.12391621 0.07727573 0.013013659
0001d0 b8 b3 ed 3a 2a 3d 91 3d 3a bd 60 bd c2 13 a5 bd
       0.0018135225 0.07091744 -0.05486796 -0.08060409
0001e0 bd 31 24 3d 02 20 43 3d 45 d3 0d 3c 7e 10 35 bd
       0.040086497 0.047637947 0.008656328 -0.04420518
0001f0 36 35 23 be f3 ed c0 3d b7 b5 19 bd 4f bf 27 be
       -0.15938267 0.09420385 -0.037526812 -0.16381572
000200 fb 24 81 3d 92 da 13 3e da a5 8d bd 15 6f 0f be
       0.063058816 0.14438847 -0.06916399 -0.14007218
000210 73 3a fe 3d 6c 69 92 3d 82 71 c5 3d ff 55 05 bd
       0.12413492 0.07149014 0.096407905 -0.032552715
000220 ef be 80 bb 04 ec dc 3d f8 db fa 3d 29 4e 08 3e
       -0.003929011 0.10787204 0.12248987 0.13311066
000230 55 1a 0b 3d 4e 63 eb 3c 7c a6 a9 bd 00 42 e1 bd
       0.03396066 0.028733876 -0.082837075 -0.109989166
000240 3d 21 42 3d dc c6 0c be fb fd 50 3d 0a 64 40 bd
       0.04739498 -0.13747734 0.051023465 -0.046970405
000250 11 b2 35 bc fb 7c 7c bd d2 ae 0c 3e 88 a4 17 3d
       -0.011089818 -0.06164263 0.13738564 0.037022144
000260 0e b0 dc bd d5 36 36 bd e9 99 49 bd 80 ef d2 bd
       -0.10775767 -0.044485886 -0.049219046 -0.10299587
000270 1e 51 ae bd 2a ee fd 3d 65 6b 19 3e cf 00 54 bd
       -0.085115656 0.12398942 0.14982374 -0.051758584
000280 9f 32 ae bd 12 3d 69 3d 73 9b bb 3c 3d f5 c5 bd
       -0.08505749 0.056943007 0.022901272 -0.09665916
000290 02 9a 8c bb 17 76 e5 bd 33 bf e6 bd c7 18 bd bd
       -0.00429082 -0.112041645 -0.11266937 -0.092332415
0002a0 0d db 8e 3d 50 29 de bd dd b1 2a bd 76 97 f6 3c
       0.06975374 -0.108477235 -0.04167353 0.03010152
0002b0 14 75 db 3d 51 e6 04 be c2 1a ba 3d 80 5a 64 bd
       0.1071569 -0.12978484 0.09087135 -0.05575037
0002c0 bc 2a c1 bc 00 3e 11 bd b6 58 36 bd 81 ac 9a bd
       -0.023579948 -0.03545952 -0.044518195 -0.07552434
0002d0 8a 48 3e 3d af 1a 43 3d ef 3e ad bd bc 36 0c be
       0.046455897 0.04763287 -0.08459269 -0.13692755
0002e0 c0 c9 02 3e 30 57 f1 bd 54 32 77 3d c4 c5 1f 3e
       0.12772274 -0.11784208 0.06035073 0.15602785
0002f0 4c 1a 4e bd 4b 93 1d 3e 33 a5 b9 bd fb 66 d8 3c
       -0.050318047 0.15388219 -0.090647124 0.026416292
000300 a3 39 e3 3c b7 e9 3f 3d 0e 4c b8 3c 07 cf 2d bd
       0.027737444 0.046853747 0.022497203 -0.042433765
000310 bd 95 8b bc 76 e0 bc 3d f4 25 3b 3d 3d de 43 3d
       -0.017039174 0.092225 0.04569049 0.047819365

lstm.weight_hh_l0 f4 [200, 50]
000000 ce 45 95 bc 8a 6d 12 bd 68 94 08 be 55 78 ce 3d
       -0.018221762 -0.035748996 -0.13337862 0.10081545
000010 3c cd 0b be a5 74 cd 3d 8f 87 e0 bc 9e da ae bd
       -0.1365251 0.10032014 -0.02740839 -0.08537792
000020 62 17 58 bd 0b 48 99 3d cb e0 96 3c a1 c5 3a bd
       -0.052756675 0.07484444 0.018417737 -0.04559863
000030 29 5e 47 bd da a0 01 be 57 7b ea 3d d6 ee 47 bd
       -0.048673782 -0.12659016 0.114493065 -0.048811756
000040 b3 a5 16 3d ba d8 f7 bd f3 c5 6d 3d 0a c2 20 bd
       0.036779117 -0.12101884 0.058050107 -0.03924755
000050 3c 97 93 bd 58 e5 a7 bd 2a 4a bf 3c d4 3f b6 bc
       -0.0720658 -0.08198041 0.023350794 -0.022247232
000060 fb 59 08 bb 15 9b 89 bd b1 bd 86 3b 02 78 f7 bd
       -0.0020805586 -0.06719033 0.0041119684 -0.120834365
000070 be fb ef 3d 5d 8c e0 3c 86 df 00 be 0e a4 92 3d
       0.11717938 0.02741068 -0.12585267 0.07160197
000080 88 3c 9d 3d 9d 8d aa bc a8 cf 06 3e d6 e3 ac 3d
       0.07677561 -0.02081948 0.13165152 0.08441894
000090 89 42 fa bd d5 73 32 3d 41 bd bd 3d a6 4d 25 3d
       -0.12219722 0.043567497 0.09264613 0.040357254
0000a0 53 0c ee 3b 66 1e b3 3d f7 64 75 3c 59 8d 46 bd
       0.0072646528 0.087460324 0.014977685 -0.048474643
0000b0 27 0c 9e 3d 73 95 62 bd 0a ef 85 3d a8 e8 0a 3c
       0.077171616 -0.055318307 0.06539734 0.008478321
0000c0 3d 31 03 be f3 46 1f 3d dc 6a f1 bd 6e 5d e4 3d
       -0.12811752 0.03888602 -0.1178796 0.11150633
0000d0 ec 5c 98 bd da 47 01 be 60 eb 94 bd 1b b4 fa bd
       -0.074395984 -0.12625065 -0.07271457 -0.12241384
0000e0 53 13 32 bd 39 7b 98 bd f8 c0 c2 3d 88 75 0a 3d
       -0.04347546 -0.07445378 0.09509462 0.033803493
0000f0 31 94 8f 3d 8c 90 b5 3d 74 8c 86 bd c1 14 f4 3d
       0.07010687 0.08865461 -0.06569758 0.11918021
000100 8c 83 fc bd 3d a6 2a bd 86 33 18 bd ec d2 3a bd
       -0.12329778 -0.041662443 -0.03715851 -0.045611307
000110 3c c2 9d 3d 38 89 05 be a0 ad c6 bd d4 e7 49 3d
       0.07703063 -0.13040626 -0.09701085 0.049293354
000120 57 0f 15 3d ab 87 34 bd 85 a3 ae 3c d7 41 09 be
       0.036391582 -0.044074696 0.021318207 -0.13404022
000130 2c 89 6e 3d c3 03 5e bd 29 d6 f5 bd 30 fd dd bd
       0.058236286 -0.054202806 -0.120037384 -0.10839307
000140 b3 b9 d4 bd 3b 13 5e bd 8c 6f 3a bd d6 34 0c 3c
       -0.10386982 -0.05421756 -0.045516536 0.008557519
000150 bc 75 ec bd e0 12 98 bd a2 12 19 bd 05 73 86 bd
       -0.115458935 -0.07425475 -0.037371285 -0.06564907
000160 bf da 99 3d 3d cc f2 3d e8 53 e7 bd 08 32 09 bc
       0.07512426 0.118553616 -0.11295301 -0.008373745
000170 55 e3 92 bc 90 4d 9f 3d 4d af 6d 3d cd 2b 4e bd
       -0.017930666 0.07778466 0.058028508 -0.05033474
000180 6f a9 8b 3d 8f a0 d1 3d 54 60 f0 3d c7 98 b8 bd
       0.06819426 0.10235702 0.11737123 -0.09013515
000190 2d c4 21 3b 87 9f 11 be 60 40 ec 3d 61 25 24 bd
       0.002468358 -0.14221011 0.11535716 -0.04007471
0001a0 b2 aa 93 bc e8 14 86 3b db 24 a2 3d 3f 88 62 bd
       -0.01802573 0.0040918477 0.07917186 -0.055305716
0001b0 06 f2 55 3d ac f5 cd bc e4 5d 9f bd 4a 2d 96 3d
       0.052232765 -0.02514156 -0.0778158 0.07332857
0001c0 d2 19 c3 bd d7 87 cd 3c 82 c7 28 3b c9 50 82 3d
       -0.09526409 0.025089188 0.0025753682 0.06363065
0001d0 81 d7 ef bd a1 1d 00 bd 3d 56 75 bd b6 cc 12 3c
       -0.11711026 -0.031278256 -0.059896696 0.00895994
0001e0 8d ec 93 3d 74 07 93 bd 7a 26 02 3d 58 48 e6 3d
       0.07222853 -0.07179156 0.031774975 0.11244267
0001f0 d7 df 62 bd ce 1e be 3d 5b 28 bb 3d 76 14 09 be
       -0.05538925 0.09283219 0.091385566 -0.13386711
000200 c6 6f f5 bd df c7 49 3d 09 1c fc 3d 07 22 00 3e
       -0.1198421 0.049262878 0.12310035 0.1251298
000210 12 e4 8a 3d 31 1e cb 3d 19 c9 a7 bd aa b1 9c bc
       0.06781782 0.09917868 -0.08192653 -0.019127686
000220 b1 be 08 be 9d bd bd 3d 46 6c d7 bd cc 8a d9 3d
       -0.13353993 0.092646815 -0.105186984 0.106221765
000230 52 7b f9 bc e5 47 59 bc e6 c3 cd 3c f9 90 c1 bd
       -0.030454312 -0.01326177 0.025117826 -0.094514795
000240 56 52 3f bd 52 78 61 bd 57 14 a3 3d 47 b0 f5 3d
       -0.04670938 -0.055046387 0.07962864 0.11996513
000250 31 43 0b 3e b1 63 8b bc a4 46 00 3c 27 b4 d8 bd
       0.1359985 -0.01701531 0.007829342 -0.10581236
000260 f6 7d c1 3c e0 46 86 bd 06 9e d4 3d 7b 94 ff bd
       0.023619633 -0.06556487 0.10381703 -0.12479492
000270 4c 57 a0 bd bb 39 a8 3d 90 b1 16 be 49 be 78 3d
       -0.078291506 0.08214136 -0.14716172 0.060728345
000280 d3 a4 e9 3d 1b c2 0f 3d c2 a5 8f 3d 3e df 0e 3d
       0.11408391 0.035097223 0.07014038 0.03488087
000290 d1 3d c6 3b 85 f8 9b 3d 99 31 c2 bd 4d c7 48 bd
       0.0060498496 0.07615761 -0.09482116 -0.049018193
0002a0 67 28 05 3c 34 a5 b2 3d 2b 9a 1d 3e e9 d8 ad bd
       0.008127308 0.08722916 0.15390842 -0.08488638
0002b0 da 9f e6 3d d4 c4 80 bd 37 f1 1b bd 53 7b 49 bd
       0.11260958 -0.06287542 -0.038071837 -0.049189877
0002c0 aa 0d 80 bd 70 09 9b 3b a7 8b c3 bd 52 9c 81 bc
       -0.06252606 0.0047313496 -0.09548121 -0.01582161
0002d0 b8 d0 03 be eb cc 7b 3d cb dc 1b 3d ac 73 95 bd
       -0.12872589 0.061474722 0.03805236 -0.07297453
0002e0 56 4e 22 bc e5 b4 8e 3d 86 28 b1 3d 3d e8 61 3d
       -0.009906372 0.06968097 0.08650307 0.05515312
0002f0 32 b2 4c 3d b2 5c 1e 3e 96 a6 b0 3d 0c 11 01 be
       0.049974628 0.15465048 0.08625524 -0.12604159
000300 0b b0 1d be b0 86 fe bc 9a 54 38 bd f8 d6 92 bd
       -0.15399186 -0.031070083 -0.045002557 -0.07169908
000310 89 4f 43 3d 52 2a 6b 3c cd 89 05 3e b9 9e 47 3d
       0.047683273 0.014353352 0.13040848 0.048735354
000320 c2 c7 22 3a 0b d4 a9 3d ab b4 1e bc 49 8e c6 bd
       0.0006209576 0.08292397 -0.009686629 -0.096951075
000330 75 7e ec 3d d5 ce 6a 3d a0 87 e3 3c 69 4f c9 3d
       0.11547557 0.057326157 0.027774632 0.098295994
000340 b0 28 e7 bb 32 7c 07 3d 2c 38 a7 bc 7b a9 ff 3d
       -0.007054411 0.033077426 -0.020412527 0.12483498
000350 80 1d f6 bd 81 07 18 bd f0 4a a8 bc 5c ed bd 3b
       -0.120173454 -0.03711653 -0.020543545 0.0057961177
000360 a2 9e 24 bd 5a cf 1e 3e 2c 5e 10 bc b4 f8 78 ba
       -0.040190347 0.15508786 -0.008811515 -0.0009497509
000370 34 94 4c 3d 68 55 e7 3d 26 65 39 bd eb 0b a1 3c
       0.049946025 0.11295587 -0.04526248 0.019659003
000380 b2 ba 28 3d ff dc a5 bd ae d0 56 bb 44 89 af 3b
       0.04119367 -0.08098792 -0.0032778191 0.0053569395
000390 4a 48 38 3d e6 5b d7 3c 36 b2 c5 bb 33 27 40 bd
       0.044990815 0.026288938 -0.0060332073 -0.046912383
0003a0 ac 1e ca 3c 14 c3 f6 3d b6 ca 0c be f0 a6 3b 3d
       0.024672829 0.12048927 -0.13749203 0.0458135
0003b0 0d 83 15 bc 7d f9 a7 3d d3 52 ea bb fe 5d 92 3d
       -0.009125483 0.08201883 -0.0071509867 0.07146834
0003c0 ac b9 82 bd a2 8a b4 3d 4a be 73 bc 98 0d bf bd
       -0.0638307 0.088155046 -0.014876911 -0.09328765
0003d0 83 80 de bd 0e 00 e7 3d 00 0a 97 3d 2b c7 73 bd
       -0.108643554 0.11279307 0.07374954 -0.059516113
0003e0 2d c0 51 3c de b1 1f 3c a3 8c 25 3c 78 5e d9 bd
       0.012802166 0.009746997 0.010104331 -0.106137216
0003f0 f3 9f 1c 3d 69 3d fd 3c 6e 62 99 bc d9 bd f4 bd
       0.038238477 0.030913072 -0.018723693 -0.11950273

lstm.bias_ih_l0 f4 [200]
000000 fd f2 a3 3d 0b 93 e2 bd 30 e0 ef 3d 7d 0a a7 bd
       0.08005331 -0.110632025 0.11712682 -0.08156297
000010 3e 5e 75 bc 61 fc 37 3d 51 ee 8c 3d 4d 6e f8 bd
       -0.014976082 0.04491842 0.06881393 -0.12130413
000020 1e 89 ed 3c 40 3c 19 3d 6e 6b 07 3e ea 3b 37 3c
       0.028996047 0.037410975 0.13224575 0.011183718
000030 2c 87 a0 bb 33 1d 1c 3e fb b2 70 bd 68 33 ff bb
       -0.0048989262 0.15245514 -0.05876444 -0.0077881105
000040 5d 05 15 bd bd 7f 9f bd 41 8f fb 3c c1 b1 77 bc
       -0.036382068 -0.07788036 0.030707957 -0.015118063
000050 24 c5 31 bd 12 90 34 3d 11 ea f6 3d e1 e6 f0 3d
       -0.0434009 0.04408271 0.120563634 0.11762787
000060 27 dd 70 bc eb 69 67 bd 52 58 9a 3d fb 7b ee 3d
       -0.014701164 -0.056497496 0.07536377 0.11644741
000070 1e 93 a3 3d 18 81 16 bd c1 be 4f bb 79 60 ae 3c
       0.07987045 -0.036744207 -0.0031699392 0.021286236
000080 e5 04 ea 3d 78 cc cc 3d a5 3b 0f bd 08 92 d2 bc
       0.11426715 0.09999937 -0.03496899 -0.025704399
000090 ce 98 27 bd 11 3a 8f bd 0c d9 01 3e f3 11 f2 3b
       -0.04091721 -0.06993497 0.12680453 0.0073873936
0000a0 b7 9c 23 bc b1 b9 10 3e 98 e6 90 3d 31 0f 8b 3d
       -0.009986094 0.14133336 0.07075232 0.06790007
0000b0 d0 d2 bd bb e8 fb a3 3d eb d2 a5 bb 87 80 0b 3e
       -0.005792953 0.08007032 -0.005060544 0.13623248
0000c0 01 42 ba 3d 20 db 05 3e fb ad 50 bd 11 af 67 3d
       0.090946205 0.13071871 -0.05094717 0.05656344
0000d0 5a d7 89 bd fd 9b 67 3d c6 2a ee 3c d2 ce 9d bd
       -0.06730528 0.056545246 0.02907313 -0.077054635
0000e0 20 58 f7 bd e1 ad 36 bd e4 4b f4 3d 66 a6 ac 3c
       -0.120773554 -0.044599418 0.119285375 0.021075439
0000f0 ea ae 9e 3b ab 15 ca bd ac 04 10 3e 1f 9b 14 3e
       0.0048426287 -0.09867414 0.14064282 0.14512299
000100 6c 22 55 bd 4c 67 bb 3c 4c 9b 43 bd 5e 0a 03 bd
       -0.05203478 0.022876404 -0.047755525 -0.03199231
000110 d4 d7 0a bd 52 53 02 3e 33 7e 9c bd 16 f6 0c 3e
       -0.033897236 0.12727097 -0.07641258 0.1376575
000120 89 74 0a 3c 0f 54 b7 bd 29 3f ea 3c 24 23 f0 bd
       0.008450636 -0.0895158 0.02859457 -0.117254525
000130 8a c9 97 3d d1 0f 13 3e 58 84 b8 3d f5 01 a8 bd
       0.074114874 0.14361502 0.090096176 -0.08203498
000140 4e c9 d6 3d 8b d8 9e bc e1 a1 1d bd 9d 72 11 bc
       0.104876146 -0.019390365 -0.038484458 -0.008877424
000150 a9 3a 02 bc c2 7f c2 bd 82 8f 89 3d dc 53 b0 3c
       -0.007948556 -0.09497024 0.06716825 0.021524362
000160 76 73 f1 bd 94 19 0b bc 22 6e 4e 3c 83 3f ca 3d
       -0.117896006 -0.008489985 0.0125995 0.09875395
000170 cc aa d2 3d cb 63 d9 bd cf fe 9d 3b dd 72 06 be
       0.10286483 -0.10614737 0.0048216353 -0.13129754
000180 dc 55 71 3d 86 67 b0 bd a2 ba 11 3e 58 d5 b1 bd
       0.058919773 -0.086134955 0.14231351 -0.0868327
000190 ac 83 c2 3d 1b e5 ca bd af 07 11 be b2 13 27 be
       0.09497771 -0.0990698 -0.14163087 -0.16316107
0001a0 31 2d a0 3c b7 5c da bd 60 aa c0 3c 4d 13 17 3e
       0.019552799 -0.10662215 0.023518741 0.14753456
0001b0 92 b3 48 3d 7c 93 77 bc b8 91 03 bd 81 03 6e 3d
       0.048999377 -0.015110847 -0.03212139 0.05810881
0001c0 5e 0a 13 3e bb 55 1d 3e 53 ea 14 3d c2 94 70 b9
       0.14359424 0.15364735 0.03635628 -0.000229436
0001d0 f7 89 be 3c 63 c5 ac 3d 61 0c 8b bd db 42 12 bc
       0.023259146 0.08436086 -0.067894705 -0.008927072
0001e0 10 c5 81 bd 9b 2d f0 3c ae b1 00 be 5f 9f c7 bd
       -0.06336415 0.029318621 -0.1256778 -0.097471945
0001f0 fc c8 9c bc 6c ad c2 bc f6 4b 8b 3a 22 90 1d be
       -0.019138806 -0.023764335 0.0010627497 -0.15387014
000200 f4 83 0e 3e 6e b2 a6 bc 64 7a f6 bd 08 be bd 3d
       0.13917524 -0.020348754 -0.12035063 0.09264761
000210 10 0e 01 3e 8e 52 04 3c 77 3d 8b bc 32 a0 e0 bc
       0.1260302 0.008076323 -0.016997082 -0.027420137
000220 f9 4b 10 3c 44 55 9b bd 0f 81 15 3d 74 5c de 3d
       0.008807176 -0.075846225 0.036500033 0.10857478
000230 30 03 bb bd 14 be 88 bd 16 6a c9 3d 68 18 ea bd
       -0.09131467 -0.066768795 0.098346874 -0.114304364
000240 a2 46 ee bc 4c b1 83 bd 9a f6 32 bd 69 35 9a bd
       -0.029086415 -0.06430301 -0.04369221 -0.075297184
000250 e7 d0 06 3e ff 5c 9e bd 24 cb f8 bd c8 3b ec 3d
       0.13165627 -0.07732581 -0.12148121 0.1153484
000260 41 62 e5 3b e1 1a 80 3d 83 54 b3 bd 95 6e 82 3d
       0.007000238 0.06255127 -0.08756354 0.06368748
000270 0c e3 84 3d 41 a3 b3 bd a1 a5 d4 bd 5c 5c ea 3d
       0.06488618 -0.087713726 -0.10383154 0.114433974
000280 a0 67 b5 bd 33 bc a8 bd 86 3e 46 3c e2 7c db bd
       -0.088576555 -0.08239021 0.012099868 -0.10717179
000290 7d 17 c1 ba a4 a4 d7 bd 34 12 f4 bd da 24 18 3e
       -0.0014731731 -0.105294496 -0.119175345 0.14857808
0002a0 2a 2c 60 bd 72 73 04 be a3 94 1c be 3b 9f 19 3d
       -0.054729618 -0.12934664 -0.15291075 0.03750537
0002b0 ad 40 06 3e 29 36 14 3e 03 e4 13 3d 94 08 cc 3d
       0.1311061 0.14473785 0.03610612 0.09962574
0002c0 73 ec 0c 3e 38 8c 10 3e d5 b8 c4 3d 66 36 c2 bc
       0.13762073 0.14115989 0.096055664 -0.02370758
0002d0 06 b2 60 3d de a2 f4 bd 1c 69 ce 3d 6d b9 f3 bd
       0.054857276 -0.11945127 0.10078642 -0.119006015
0002e0 07 21 07 3e 32 ee 8a 3d 81 9d c2 3d fc 63 4d 3d
       0.13196193 0.067837134 0.09502698 0.05014418
0002f0 6d 52 95 3d 78 20 8f bd 92 8f e9 3d 2f 6d 98 3c
       0.07291112 -0.06988615 0.11404337 0.01860675
000300 da e0 a7 bc 89 e8 ee 3d 7e 09 ed bc ad 42 97 bb
       -0.02049296 0.11665446 -0.02893519 -0.0046161027
000310 81 d0 47 3c 32 4c 99 bd 83 41 df bd b7 8b ba 3d
       0.012195707 -0.07485236 -0.10901167 0.0910868

lstm.bias_hh_l0 f4 [200]
000000 f3 8c d1 3d 52 f2 58 bd de a3 ca 3d d6 86 04 3e
       0.10231962 -0.05296547 0.098945364 0.12942061
000010 bc 46 20 3d 97 3d e1 3c 38 cb 7f bd ed 33 0b 3e
       0.039129958 0.027495189 -0.062449664 0.13594027
000020 36 fa ae bc 2c 20 21 3d 41 7e 12 3e fc bc 85 3d
       -0.021359544 0.039337322 0.14305975 0.065301865
000030 e2 1b c5 3d 84 5e 06 3e 0c 59 26 3d 1c 66 b8 3d
       0.09624459 0.13121992 0.040612265 0.09003851
000040 f8 0e 00 3d 61 82 a1 3d 22 fe c5 bd ab df 57 bd
       0.031264275 0.07886196 -0.096676126 -0.05270354
000050 6d 15 9e 3c 4e 33 da bd 14 c9 17 bc 39 a7 38 bb
       0.019297326 -0.10654317 -0.009264249 -0.0028175844
000060 61 f9 35 bd 80 87 31 bd 46 19 79 3d 2f 5a 90 bd
       -0.04442728 -0.043342113 0.06081512 -0.07048451
000070 48 f3 eb 3d 58 84 68 3d 2e d3 84 bd 12 cc a9 bd
       0.115210116 0.056766838 -0.06485592 -0.082908764
000080 de 40 dd 3d 19 a6 49 ba 9a c0 8d 3a 32 e3 e3 bd
       0.10803388 -0.0007692292 0.0010814846 -0.111273184
000090 af 9a 01 3d 05 fe 0d 3e 7c f8 e2 bd 4d f1 e7 bd
       0.03164166 0.13866432 -0.11082551 -0.11325321
0000a0 5d c4 01 3e ea 22 14 3e 19 84 9f 3d 09 d2 15 3e
       0.12672563 0.14466444 0.077888675 0.14630903
0000b0 8d cb 3d 3b 45 b4 60 3d 33 27 22 bb c5 03 c9 bd
       0.0028960437 0.05485942 -0.0024742603 -0.09815172
0000c0 f1 82 bb 3d e9 3a 16 3e 29 b2 0f 3e 13 9c 8a bd
       0.091558345 0.1467091 0.14032806 -0.0676805
0000d0 d0 c3 09 3e 46 37 b7 bd 47 9f 1c bd e2 ba 02 be
       0.13453603 -0.089460894 -0.038237836 -0.12766603
0000e0 53 d3 e3 3d d7 50 23 3e 64 ca c2 3d cd 7f b4 bb
       0.11124291 0.15948807 0.09511259 -0.005508399
0000f0 96 b8 d9 3c 80 ba 93 bb 6e 6c b0 bc 78 da fa 3d
       0.026577275 -0.0045083165 -0.021536078 0.12248701
000100 30 4a e0 3a 5c 4f 21 bd 1b 9d a1 bd e9 51 d8 3d
       0.0017111953 -0.039382324 -0.078912936 0.10562498
000110 8b 57 b9 3d 76 65 96 bd c5 4e 87 3c c4 1e 74 bd
       0.090499006 -0.07343571 0.016517052 -0.059599653
000120 df 3d 3f bc dc b5 c5 bd a7 9f 31 3d b3 4f 02 3e
       -0.011672466 -0.096538275 0.043365147 0.12725715
000130 7e 76 50 3d d6 ce da 3d b2 20 eb 3d 63 0b e9 3d
       0.050894253 0.10683982 0.114808455 0.11379125
000140 f0 05 a7 bd c1 16 fb 3d 1c 31 5a bd dc 6f 0f 3d
       -0.08155429 0.12260199 -0.05326949 0.035018787
000150 d5 de e1 bd 37 c2 92 3c d6 af d4 3c 0f 97 5a bd
       -0.1102883 0.017914874 0.025962751 -0.053366717
000160 b1 7c 5c 3d fb 92 83 3d 86 c3 fd 3d 8d 18 2f bd
       0.053829852 0.06424519 0.12390809 -0.042748023
000170 22 13 0b bd 75 df ac 3d 8f 14 a1 bd 1b 6c 6e 3c
       -0.033953793 0.084410585 -0.07865249 0.014552142
000180 2b b6 ce 3d 25 16 fb 3d 85 e7 88 bd 98 0d f2 3d
       0.100933395 0.12260083 -0.06684784 0.11818999
000190 5b 75 16 3d f4 91 da 3d 13 ef a3 bd fd 3d e9 3d
       0.036733013 0.106723696 -0.08004584 0.113887765
0001a0 5b af 29 bb 2a b7 9c 3c 7c f4 b7 bd a3 da 04 3e
       -0.0025891874 0.019130308 -0.089821786 0.12974028
0001b0 26 7b 16 be 40 49 93 bd 49 68 b3 bd 58 d5 8f 3d
       -0.14695415 -0.07191706 -0.08760125 0.07023114
0001c0 85 4a 62 3c 46 49 ba bd 7f 30 15 be 6b d4 ec bd
       0.013811712 -0.09096007 -0.14569281 -0.11563953
0001d0 44 19 06 be b1 a0 09 3e b5 7e 1a be d4 3d 07 3e
       -0.13095576 0.13440205 -0.15087397 0.1320718
0001e0 35 f6 fa 3c 0d 75 a0 3d c7 83 e3 3d e9 8e f2 3d
       0.030634979 0.07834826 0.11109119 0.11843664
0001f0 cd bd ba 3d 61 b9 ed bd 2f 9c 19 be c4 37 ee 3d
       0.09118233 -0.11607624 -0.15000986 0.1163173
000200 5e b8 be 3c 55 f1 a5 3d 91 a0 80 3d 72 bf 1e 3d
       0.023281273 0.08102671 0.062806256 0.038756795
000210 bd b0 d7 3d 2a 4a d0 bd 2b b7 b4 bc 9e 01 e9 3b
       0.10531757 -0.10170396 -0.022059998 0.0071107885
000220 16 6a ec 3d 25 56 f6 bd 69 ef cb 3c 83 ca c0 3d
       0.11543672 -0.120281495 0.024894433 0.09413626
000230 d3 7c e0 bd 1a b4 80 3b 09 64 b6 bd 55 16 71 3d
       -0.10961308 0.00392772 -0.08905799 0.058859188
000240 05 4b 03 be a3 ef da 3d 8d cb 22 3e 3c f9 0e be
       -0.12821586 0.10690238 0.15897961 -0.13962263
000250 57 9c a0 3c bd 07 25 bd 79 d9 f4 3d cf f2 f8 3c
       0.019605799 -0.040290583 0.11955542 0.030389218
000260 e9 45 e3 3d de 93 ea 3d 34 23 c4 3d 9d c9 82 3d
       0.11097319 0.11453985 0.09577027 0.06386111
000270 6b 2a dd 3d 81 2d b9 bd df 96 bf bd 1d 66 97 3b
       0.10799106 -0.09041882 -0.09354948 0.004620327
000280 c3 8d e5 3d 95 cb 73 bd b1 2b 9f 3d 06 bd c7 bd
       0.112086795 -0.059520323 0.07772005 -0.0975285
000290 b6 28 66 3d d2 5d 12 bd 19 30 22 3d d8 68 b5 3d
       0.05619117 -0.035734005 0.03959665 0.08857888
0002a0 58 db 82 bd c5 55 17 3d 8f 7f 1d 3d d5 ff 24 3c
       -0.06389493 0.03694703 0.038451727 0.010070761
0002b0 ca d8 0d 3d bb 99 08 bc 0e 91 95 3d 9a 41 ab 3d
       0.034630574 -0.008337433 0.073030576 0.08362122
0002c0 74 ac a4 bc 01 f0 19 3d 59 ce 4d 3d 51 f9 9d bd
       -0.020101763 0.0375824 0.050245617 -0.07713569
0002d0 16 65 28 bd 20 e7 82 3b 85 4f 0d 3d ab d1 b2 bd
       -0.041112028 0.0039948374 0.034499664 -0.08731397
0002e0 5f 32 0a 3e 7e bd 94 3d a1 99 f7 bc d0 76 c6 3d
       0.13495778 0.07262705 -0.030224623 0.096906304
0002f0 d7 f6 ba bd 7c 31 d1 3c 70 75 22 3c 86 c0 9b 3d
       -0.09129112 0.025536291 0.009915695 0.0760508
000300 86 fd ef bd 82 5c a8 3d 49 ee 18 3d b3 9d 80 3d
       -0.11718278 0.082207695 0.03733662 0.06280079
000310 87 21 bb 3d f8 d8 f1 3d 65 f3 20 3e a2 51 6b 3d
       0.09137254 0.11808962 0.15717848 0.057450898

lstm.weight_ih_l1 f4 [200, 50]
000000 b4 ad db bd 61 51 43 3d ee 5d 10 be f6 a8 0f be
       -0.107264906 0.04768503 -0.14098331 -0.14029297
000010 6e 4f 52 bd c4 74 6f 3c 02 15 84 bd f9 87 4e 3d
       -0.05134528 0.014615241 -0.064493194 0.050422642
000020 94 75 d1 bd ee 04 ea bd 85 7d 67 3d a3 70 0a 3c
       -0.102275044 -0.114267215 0.05651619 0.008449706
000030 3b 65 c4 bc 3b 9f 25 bd a0 74 a2 3d 6d 59 36 bd
       -0.023974052 -0.040435057 0.07932401 -0.044518877
000040 e2 0d 59 3b 61 62 de 3d 47 de 88 bd d0 bd 60 bd
       0.0033119847 0.10858608 -0.06683021 -0.05486852
000050 e5 d5 11 3e b8 c3 d0 3d 80 7d f3 3d df 6c 68 3d
       0.1424175 0.101935804 0.118891716 0.056744453
000060 f5 0d 47 bd 24 32 76 bd c8 64 49 bc e3 a7 09 3e
       -0.048597295 -0.06010641 -0.0122920945 0.1344295
000070 f1 c0 2b 3d da 94 cb bd 2f f7 c7 bc 17 bb 0a 3d
       0.04193205 -0.099405006 -0.024409859 0.03386983
000080 f8 37 4c bd 71 b0 09 be 60 37 42 3d 90 75 b7 bc
       -0.049858063 -0.13446213 0.04741609 -0.022394925
000090 b4 43 3b bd d5 29 d0 3d a2 d0 13 3e 29 fa dd 3d
       -0.045718864 0.10164229 0.14435056 0.1083873
0000a0 d2 2a 00 be 02 33 05 bd fe 76 03 3a 00 ee dd 3b
       -0.12516335 -0.032519348 0.00050149846 0.0067727566
0000b0 ca c6 2f bd 97 39 9a bd b5 44 f1 3c 3c 11 81 3d
       -0.04291419 -0.07530516 0.029451707 0.06302115
0000c0 ff 10 08 bd 5d b7 03 3d 0b a7 11 3e 72 88 46 bd
       -0.033219334 0.03215729 0.14223878 -0.04846997
0000d0 d8 67 07 be ee 95 86 bd 11 4a 5f 3d 95 43 25 be
       -0.13223207 -0.065715656 0.054513995 -0.16139062
0000e0 b3 6e 6d 3d 3a 42 a2 3d 96 0b 7e bd b1 54 0a bd
       0.0579669 0.07922788 -0.062022768 -0.033772174
0000f0 71 f8 03 bd cb 8c 4f bd 82 1a 54 3d 61 da c2 3c
       -0.032219354 -0.05067138 0.051783092 0.023785772
000100 64 0d 94 bd cf 38 99 3b db 6c c5 3c 80 c0 b0 3d
       -0.072291166 0.0046759616 0.024099758 0.086304665
000110 e3 e8 aa bd 41 b6 ee bd 71 7f 0d 3e 74 74 c7 bc
       -0.08345201 -0.11655856 0.13818146 -0.024347521
000120 b2 70 6b bb 19 06 16 3e 56 2b 59 3d 1a 73 fa bd
       -0.0035925326 0.14650764 0.053019844 -0.12228985
000130 d9 29 ec bd 52 36 f0 3d 67 54 8a 3d 2a bc 81 bd
       -0.11531419 0.11729111 0.0675438 -0.063347176
000140 71 28 e6 3c 99 4e b9 bd ca c3 12 3d 98 e1 b0 3d
       0.028095456 -0.090481944 0.03583125 0.086367786
000150 88 d4 1d 3d 1d 01 b6 3d 73 9f 18 3e bc 05 a3 3b
       0.038532764 0.08886931 0.14904575 0.004975049
000160 93 4a a6 3d 66 2e 1d 3e 5a 1e 43 3d 2a 7b 24 be
       0.08119693 0.15349731 0.047636367 -0.16062608
000170 f0 57 ab bd d7 5d 95 bd 35 4c 19 be cb 30 c3 3d
       -0.08366382 -0.07293289 -0.14970477 0.09530791
000180 f1 8e 68 3d 8b d3 15 be 66 ec 1e 3d 60 e7 ab 3b
       0.056776945 -0.14631478 0.038799666 0.005246088
000190 4f 8c 93 3c 45 5f 4b 3d 42 9b b2 bc 16 5f c6 bd
       0.01801124 0.049651403 -0.021802548 -0.09686105
0001a0 15 86 12 3d 98 7e 9f 3d 0f d2 e3 3d 64 ab 53 bd
       0.0357724 0.07787818 0.1112405 -0.051677123
0001b0 ef 90 fb 3b 3c 55 a5 3d a2 75 e4 3d 2f 7a fc 3c
       0.0076771895 0.08072898 0.11155249 0.03081998
0001c0 4a 30 24 3e 73 a9 c6 bd b0 24 02 bd de 96 13 3d
       0.16034046 -0.097002886 -0.03177327 0.03603255
0001d0 bd 32 13 be 11 2c 7b bc aa b1 9c 3c f7 dd ca 3d
       -0.14374824 -0.0153303305 0.019127686 0.09905618
0001e0 b4 00 11 3e 76 08 bd 3d 1e 10 e2 bd 7b 89 94 bd
       0.14160424 0.092301294 -0.1103823 -0.07252785
0001f0 4b ea 24 bd e0 cd f9 bc a0 cc e0 bd 88 59 a4 3d
       -0.0402625 -0.030493677 -0.10976529 0.08024889
000200 4b 31 a6 3c 9d 1b 34 bd 48 7b e8 bd 7d 33 ea 3d
       0.020287177 -0.043971647 -0.11351639 0.11435602
000210 40 64 0f 3e f2 90 97 bd ef ad 1d 3d 2a cb 6a 3d
       0.14003086 -0.07400693 0.038495954 0.05732266
000220 d1 94 59 3d 2d 60 6d 3d 98 80 a5 bb 22 1b 9c 3c
       0.053120438 0.05795305 -0.00505073 0.019055907
000230 29 12 90 3d 20 79 5f bd 8d 4f 3b bc c4 15 e8 3d
       0.07034714 -0.054558873 -0.011432541 0.113322765
000240 f4 c6 03 3b 7f b3 95 bd 90 3d fe 3d 63 fd 34 3c
       0.00201076 -0.07309627 0.12414086 0.01104674
000250 37 ab 31 bd 6b f0 64 bd 1c 16 71 3d ce b7 bf bc
       -0.043376174 -0.055893343 0.058858976 -0.023403075
000260 1c 62 dd 3d c6 34 10 be 97 14 1e be 57 ff 81 bd
       0.108097285 -0.14082631 -0.15437542 -0.0634753
000270 23 fa fe bd 07 b3 f4 bd fe 37 17 be e8 97 ef bd
       -0.124500535 -0.11948209 -0.14767453 -0.11698896
000280 63 e8 00 be e7 70 ea bd 08 3d 1e 3d 46 d3 41 3d
       -0.12588648 -0.11447316 0.038632423 0.047320627
000290 87 55 07 be 82 7c ee bd fb 62 01 3e 56 a7 7d 3d
       -0.1321622 -0.11644842 0.12635414 0.061927162
0002a0 95 c9 05 be 6f 26 e6 bd 4d d8 d5 b9 65 b0 b4 bb
       -0.13065179 -0.112377994 -0.00040787683 -0.005514192
0002b0 7b 5e 1e bd 66 ea 02 3e 2b 4d 96 3d 83 e4 44 bd
       -0.038664322 0.12784728 0.07338937 -0.04806949
0002c0 43 26 5a 3d 1f 6f dc bd 07 7d 30 3d 1d f0 37 3d
       0.053259145 -0.10763382 0.043087985 0.044906724
0002d0 93 7c 45 bc e2 a9 78 3d 9b 61 a6 3c 3a 79 42 3d
       -0.012053627 0.060708888 0.020310214 0.047478892
0002e0 08 63 c4 bd b2 ff ec 3d 38 f0 90 3c e7 b1 9c bd
       -0.09589201 0.115722075 0.01769267 -0.0765112
0002f0 fc 9b 10 3d 7e e4 94 3d 03 59 f9 bb 2b 7c 5e bd
       0.03530501 0.07270144 -0.007609488 -0.054317635
000300 93 98 77 bd 48 f4 47 3d 48 0a 96 3b 15 d2 11 be
       -0.06044824 0.04881695 0.0045788623 -0.14240296
000310 32 50 9b 3d 05 08 0a 3d 72 1e e0 bc 57 79 a9 3b
       0.075836554 0.033699054 -0.027358267 0.0051719355
000320 aa da 0e 3b 62 61 0f bd 17 79 27 3c 9e 7f 0c 3e
       0.0021797814 -0.03500498 0.010221741 0.13720557
000330 7f 25 07 bc e7 c0 dd bc e4 43 41 bd 85 4f 35 3b
       -0.008248686 -0.027069522 -0.047183886 0.0027665806
000340 db 05 d8 3d 15 8c 45 bd 37 94 cd 3d 1f 74 1a be
       0.10547992 -0.048229296 0.10038035 -0.15083359
000350 b0 03 8e 3c f7 cb e0 3b 50 77 9c 3d be dc 0e 3e
       0.017335743 0.006860252 0.076399446 0.13951394
000360 ad dc c7 3d b9 2e a0 3c 54 23 cc bd 54 25 6b bb
       0.097588874 0.01955353 -0.09967676 -0.0035880404
000370 9a a6 76 3c 42 7a dc bb 1e f4 8c 3d d1 f9 ca bc
       0.015054369 -0.0067284415 0.06882499 -0.024777325
000380 1b fc 1e bd b2 81 f9 bd 5e 89 8d 3d 37 4a cb 3d
       -0.038814645 -0.121829405 0.06910966 0.09926265
000390 12 60 6f bd 0c 16 ec bd c2 dc 00 3e df ea ea bd
       -0.05844123 -0.115276426 0.12584212 -0.11470579
0003a0 bc 7f 38 3d a6 6f 62 3b 54 95 9c bd 3d 25 b6 3b
       0.045043692 0.003455141 -0.076456696 0.0055586384
0003b0 90 a1 61 bd 8e e7 25 bd 30 0a 08 be 44 2b ab bd
       -0.05508572 -0.04050403 -0.13285136 -0.08357862
0003c0 2c 1a 0b 3e c4 e1 84 3d 24 30 1d 3e e2 e7 94 bd
       0.13584203 0.06488374 0.15350395 -0.07270791
0003d0 50 9f 27 bd 3b 7c 1e 3e 79 ad ad 3c 36 15 94 3d
       -0.040923417 0.15477078 0.021200882 0.07230608
0003e0 f3 a6 83 bd fc 85 07 3e 2b ab f7 3d d7 5e d3 3d
       -0.064283274 0.13234705 0.120931946 0.10320824
0003f0 91 d1 8a bd e8 58 7c 3d 2a 03 6c 3d 81 74 01 3e
       -0.06778253 0.061608225 0.057620205 0.12642099

lstm.weight_hh_l1 f4 [200, 50]
000000 dd b4 76 bd 36 9b 93 bd 5d ba 8d bd 85 e2 e0 bd
       -0.06023108 -0.072073385 -0.069203116 -0.10980705
000010 92 b2 ba bc e8 76 b0 bd e7 f3 05 bb 1b 14 57 bd
       -0.022790227 -0.086164296 -0.0020439567 -0.05250941
000020 68 99 21 bd c4 b7 f3 bd f8 e2 4e bd fb e2 09 3e
       -0.03945294 -0.11900285 -0.050509423 0.13465492
000030 ed d2 f2 ba 95 0c dd bd 51 aa 7c 3d ba 37 f7 3d
       -0.0018525996 -0.107934155 0.061685864 0.12071176
000040 ff 71 ad 3d fb 1c e2 3d 36 22 59 bd 43 9f 78 3c
       0.08469009 0.11040684 -0.05301114 0.01517469
000050 36 3b 98 3d 26 f9 be bd df 5d 34 bc af e7 f3 bd
       0.074331686 -0.09324865 -0.011008709 -0.119094245
000060 c7 ce e9 bd 67 a9 e2 3d 96 66 1c be cf a7 ae 3d
       -0.11416393 0.11067467 -0.15273508 0.08528101
000070 9a 3d 16 3d a6 38 0e 3d d1 2a 14 3c ac 37 1f 3d
       0.03667984 0.034721993 0.009043411 0.038871452
000080 56 69 ae 3c d0 91 db 3d 8a 5a 6d 3d f3 10 bd bd
       0.021290462 0.10721171 0.057947673 -0.092317484
000090 8a 02 77 bd 9e 6c 9a bc ac 3f 07 3e 01 80 01 be
       -0.060305156 -0.01885062 0.13207883 -0.12646486
0000a0 b4 6b 1d 3d ae db 1a 3d bc 04 f9 bc 37 56 46 3c
       0.03843279 0.03780716 -0.030397765 0.012105516
0000b0 9c 52 bb bb 5c 2a 81 3c 5e 40 02 3d e1 78 61 3d
       -0.005716635 0.015767269 0.031799667 0.05504692
0000c0 1a 0c ca b9 85 e2 7e bd 75 0c a8 3d 67 ad df bb
       -0.0003853746 -0.062227745 0.08205501 -0.006826091
0000d0 55 9c 21 be 23 6d 64 3d 4f 67 0b be 61 4d 20 3d
       -0.15782292 0.055768143 -0.13613628 0.039136294
0000e0 25 e8 af 3d 64 b0 10 bd 7a 09 f8 3c ed 0f 06 be
       0.085892 -0.03532447 0.030277956 -0.13092013
0000f0 c9 74 aa bd 94 b6 1c bd c9 7a 17 3d b4 f6 80 3d
       -0.08323056 -0.038260058 0.03698233 0.06297055
000100 55 e2 85 3d ed 2d e6 3d 94 2d e3 bc 2e a2 b0 bc
       0.0653731 0.112392284 -0.027731694 -0.021561708
000110 da b2 88 3d 10 35 69 3d 2a db c6 bd 32 c0 a3 3d
       0.06674738 0.05693537 -0.09709771 0.07995643
000120 4b 78 a8 bd 0b 43 81 bd 2f 61 28 3d 0c 09 e1 3d
       -0.08226069 -0.063116156 0.041108306 0.10988054
000130 81 cc c1 bd 52 54 64 3d 2a ee fc 3b df 80 69 bd
       -0.09462834 0.055744477 0.007718821 -0.057007667
000140 d4 7c d4 3d 36 93 04 be 86 11 d9 bd c4 d1 70 bc
       0.103753716 -0.12946782 -0.105990455 -0.0146984495
000150 83 6c f8 bc 9e 7c 12 3e 7b 9a be 3d ef f7 ee 3c
       -0.03032518 0.1430535 0.093068086 0.029170958
000160 02 c8 fa bc 83 88 bd bd 61 fb 19 3e 55 60 a0 3d
       -0.03061295 -0.09254553 0.150373 0.07830874
000170 d2 66 e2 bc 5f 0a bd bd af 2d 1f 3d cb c5 cc bd
       -0.02763692 -0.09230494 0.038861927 -0.099986635
000180 c3 5a be 3d fd ad 07 3e b0 3e 8e bd 22 88 aa bc
       0.09294655 0.13249965 -0.069455504 -0.020816866
000190 92 8f 14 bd 98 b5 bd bd 79 64 ef bc 1b a3 18 3d
       -0.03626973 -0.09263152 -0.029222714 0.037264924
0001a0 52 8d 15 bd 2f 7d 6c bd 75 48 ae bc 3b 51 c0 3d
       -0.036511727 -0.057736572 -0.021274785 0.093904935
0001b0 04 2e ee 3c f0 0f f5 3d 94 09 b6 bd e1 9c 87 bd
       0.029074676 0.119659305 -0.08888546 -0.06621719
0001c0 68 1e fb 3d f7 0f cb bd 1a 49 22 3e b2 6d df bd
       0.12261659 -0.099151544 0.15848199 -0.109095946
0001d0 77 90 f5 bd dc f4 47 3c f3 14 2e 3d 94 89 c0 bb
       -0.11990445 0.012204375 0.042500447 -0.0058757756
0001e0 71 61 e9 bc 8d 7a d1 3d 6b f8 da bd b6 cc ed 3d
       -0.028488846 0.10228453 -0.10691913 0.11611311
0001f0 94 c1 84 3c ab 52 1d be dc 50 f7 bc 31 3e a6 3c
       0.016205586 -0.15363567 -0.030189924 0.020293327
000200 0e 56 67 3d fd ec bd 3d 95 91 c8 3d ad 4b b9 3b
       0.056478553 0.092737176 0.097933926 0.005654773
000210 23 7e 22 3c 5f 20 5f 3d 86 46 d5 bd 1f f4 c2 bd
       0.009917769 0.05447423 -0.10413842 -0.09519219
000220 df ea f9 bd 58 67 01 bd d7 4a 10 be e9 61 17 3d
       -0.12203001 -0.031592697 -0.14091049 0.03695861
000230 c1 d2 14 3e 5f 54 13 bb dd ad 89 bd c0 a9 31 bd
       0.14533521 -0.002248071 -0.06722615 -0.043374777
000240 89 2c b4 bd b3 0b 87 3d 9e 5a be 3d 0d b1 4c bc
       -0.08797557 0.06594028 0.092946276 -0.012493384
000250 11 09 ef 3c 32 48 fb 3d 5c d0 b1 bd 8c 51 d5 bc
       0.029179128 0.122696295 -0.086823195 -0.026039861
000260 cb 0a 95 bc 2d ad e2 3d 27 0f dc 3c c9 d6 b4 3d
       -0.018193623 0.11068187 0.026862694 0.088300295
000270 c2 25 bd 3d c6 62 04 bd 25 c2 d0 bd 0a 51 e0 bd
       0.09235717 -0.03232076 -0.1019328 -0.10952957
000280 81 9a e4 3d 33 d4 93 3d bd f9 13 3d 05 13 16 3e
       0.11162282 0.07218208 0.03612684 0.14655693
000290 cf 2f fc bd 73 e0 d8 3d 6d 64 2c bc 38 e8 64 3d
       -0.12313806 0.10589685 -0.01052199 0.055885524
0002a0 8a bd 10 3e 92 15 2f 3d 08 e1 fd bd 60 90 03 be
       0.14134803 0.04274518 -0.12396437 -0.12848043
0002b0 1b 9f 84 bd 84 3d cb bd 9b a4 cb 3d f1 5c fc bc
       -0.064756595 -0.099238425 0.099435054 -0.030806037
0002c0 e3 46 4d bc f0 62 58 3d 47 d9 aa 3d 78 54 4b 3b
       -0.012529108 0.05282873 0.083422236 0.003102569
0002d0 2f 12 12 be 6f 5f 9a 3d eb c3 d1 bd 1a 5c ad 3c
       -0.14264749 0.07537734 -0.102424465 0.021162082
0002e0 42 10 cd 3d f7 b7 1c 3e 9f a6 91 3d 77 14 8e bc
       0.100128666 0.15304552 0.071118586 -0.017343743
0002f0 7e 28 97 3c 91 97 54 bd a9 24 e4 3d 24 0b 07 3e
       0.018451925 -0.051902357 0.11139805 0.13187844
000300 9e 05 1c be 41 32 65 bd cf f1 bc bd d3 e1 e2 3d
       -0.15236518 -0.05595613 -0.09225809 0.11078229
000310 49 0b bf 3d ee 6f 15 bd 53 e2 35 bd 6c c8 e7 bd
       0.09328324 -0.036483698 -0.044405293 -0.11317524
000320 65 c2 4d 3d 2d 54 35 3d c3 bf 9a 3d 30 cb 99 bd
       0.050234217 0.04426973 0.07556107 -0.07509458
000330 5e 85 d3 bd 25 4f e7 3c 2d 01 cd 3d af 97 d7 3d
       -0.10328172 0.028235981 0.1000999 0.10526978
000340 54 94 15 3d a9 a1 ba bc e6 5e a4 bd ed bf 5b 3c
       0.03651841 -0.022782164 -0.08025913 0.013412458
000350 ce f8 44 bc 16 00 f9 bb d6 5c de bd fb e5 15 bb
       -0.01202221 -0.007598887 -0.10857551 -0.0022872675
000360 34 37 46 bd 3e 21 62 bd c5 aa 1a 3d e1 a7 0d 3e
       -0.04839249 -0.055207483 0.037760515 0.13833572
000370 51 9d b5 3d 45 f2 ef bd aa a2 89 3d 84 dd 26 3d
       0.08867896 -0.11716131 0.06720479 0.040738598
000380 fd a5 e4 3d a3 15 aa 3d 90 6f 84 bd 1c 3e 89 bc
       0.11164472 0.08304908 -0.06466591 -0.016753249
000390 43 9d b3 bd 2e b7 4d 3d ac 18 97 bd a3 bc aa bd
       -0.0877023 0.050223522 -0.07377753 -0.08336761
0003a0 01 17 1b 3c 91 36 59 bd 0d fe ad 3d 6c 72 c9 bd
       0.009465934 -0.053030554 0.08495722 -0.09836277
0003b0 88 13 b8 bd 1f 98 c1 bc 4f 90 ba 3d 87 d3 03 3d
       -0.089881 -0.023632107 0.09109556 0.03218415
0003c0 ff 0b 71 bc e6 4f ac bd 6a bf 97 bd 44 fc 96 3c
       -0.014712333 -0.08413677 -0.07409556 0.018430836
0003d0 24 20 a6 3d 06 bb 3f 3d c9 54 50 3d 53 2c 80 bd
       0.08111599 0.04680922 0.050862107 -0.06258454
0003e0 34 3f bb 3d 1c d9 f2 bd 83 21 d3 3d 79 3f df bd
       0.091429144 -0.118578166 0.10309126 -0.10900778
0003f0 42 87 06 be 9c 58 d3 bd 29 85 c4 bd 0f 18 12 3d
       -0.13137534 -0.10319635 -0.09595711 0.035667475

lstm.bias_ih_l1 f4 [200]
000000 6f 8c 07 3e f4 bc f0 bd ad 60 2f bc 25 2b 8c bc
       0.13237165 -0.1175479 -0.010704202 -0.017110417
000010 c1 03 1d be a2 5f fa 3b d6 1c ac bd 42 3a ab bd
       -0.15333463 0.007640795 -0.084039375 -0.08360721
000020 46 dc 6d bc b1 65 b3 bd 67 18 12 3e 8f 72 0d bd
       -0.014517849 -0.087596305 0.14267121 -0.03453308
000030 45 65 af bb cf 0e 4a bd 07 f3 c3 bc 0f e7 0e 3e
       -0.0053526484 -0.04933053 -0.023919595 0.1395533
000040 bd fd 0b 3e 88 7f 08 3e 0d 3a 06 be 90 bc eb bd
       0.13671012 0.133299 -0.13108082 -0.11510575
000050 b5 f2 8c bd b8 66 af 3d 4c 07 fe 3d 60 bf 9d bd
       -0.0688223 0.08564514 0.124037355 -0.077025175
000060 21 48 ee bd f8 ca 7e bd 13 4d a2 3d d3 47 de bd
       -0.11634851 -0.062205285 0.07924857 -0.10853543
000070 37 eb 31 ba 1d 93 f3 bd 19 7c 96 bc 28 e9 be bb
       -0.0006787064 -0.11893294 -0.018369721 -0.0058261342
000080 2d 93 54 bd 44 4b 8f b8 22 9c 84 3d 89 df e9 bd
       -0.05189817 -6.832791e-05 0.064750925 -0.11419589
000090 93 cf 76 3d 39 58 f2 3d 96 8f d4 3d fc 85 a7 bd
       0.060256552 0.118332334 0.10378949 -0.08179852
0000a0 12 8d 4f bd 28 f7 37 bd 45 49 99 bd ac a0 7a bd
       -0.050671645 -0.04491344 -0.07484678 -0.061188385
0000b0 67 06 59 3c 32 8d bb bd e1 31 10 3e 34 fd 2e bd
       0.013246155 -0.0915779 0.14081527 -0.042721942
0000c0 65 f7 bf bc d0 a1 9d bd 58 23 15 bc e3 7f e7 bd
       -0.023433397 -0.07696879 -0.009102665 -0.11303689
0000d0 e1 3b b2 bb 89 45 c4 3d d9 33 89 3d 5a eb 6a 3d
       -0.005439267 0.09583575 0.06699342 0.057353355
0000e0 70 2b 85 3d a6 67 9d bd e0 fd a6 3d d7 eb 82 3d
       0.06502426 -0.07685785 0.081538916 0.06392639
0000f0 3a e3 da 3d 7c 0d f3 bc d4 71 89 bb b1 11 9b 3d
       0.10687871 -0.029669516 -0.0041944776 0.07571734
000100 00 d3 8b bd fd d2 c9 3d 22 4d 1e bc 93 b0 dc bd
       -0.068273544 0.09854696 -0.009661945 -0.10775866
000110 ab 6f 20 bd 19 59 a8 bd 44 ff d6 3d 00 ee 80 3c
       -0.039168995 -0.08220119 0.10497907 0.015738487
000120 7a 7b 9a 3d 1b 8d 6f bd 45 bc 66 3c a1 29 ef 3b
       0.075430825 -0.058484178 0.014082973 0.0072986637
000130 c8 8f e9 ba a6 4d b4 bd 41 fa ac 3d bc 41 eb bd
       -0.0017819339 -0.08803873 0.0844617 -0.11487147
000140 2d ef 7f bd f6 de 56 3c 46 f8 0e 3e 5c f3 c5 3c
       -0.062483955 0.0131146815 0.13961896 0.024163894
000150 62 d8 5a 3c 1c 30 1c 3d 76 25 aa 3d 54 7f d2 bd
       0.013357254 0.03813182 0.08307926 -0.10278192
000160 05 d3 14 be 20 48 e6 3d 3a 68 00 3e 33 4a a2 bd
       -0.14533623 0.112442255 0.1253976 -0.07924309
000170 d6 ac 6e bd a0 53 7a bd 0c 11 37 3d a0 51 8a bd
       -0.058270298 -0.061114907 0.04469399 -0.0675385
000180 dc 3e f0 bd 9c 36 c2 bd 12 47 1c bd 43 dd d4 bc
       -0.117307395 -0.09483072 -0.038153715 -0.025984412
000190 10 a0 ea bc d1 39 0a be e4 b6 ab bc b5 bf de 3d
       -0.028640777 -0.13498618 -0.020961232 0.10876409
0001a0 56 7b ab 3b 73 e0 3e 3d 60 6c e2 bd 71 c6 f4 3d
       0.0052332086 0.04660077 -0.11055827 0.11951912
0001b0 e0 b3 c4 bd 30 13 96 3d 70 6a bd bd df ea f8 3d
       -0.09604621 0.073278785 -0.09248817 0.12154173
0001c0 54 6d 90 3d 12 dd d4 3d 03 be dc 3d 1c 49 8b bd
       0.07052103 0.10393728 0.10778429 -0.06801054
0001d0 55 1e 15 be f0 9a 01 3e cc 02 87 bd a6 d2 1d bd
       -0.14562352 0.1265676 -0.0659233 -0.038530968
0001e0 5e 2b 6a bc 7c ff 17 3d 50 ba fd 3d 63 22 c1 3d
       -0.014292566 0.037108883 0.12389052 0.09430387
0001f0 94 79 ae 3d e9 84 ac bd 02 c1 1b bd 21 be 01 3e
       0.08519283 -0.08423788 -0.038025863 0.12670185
000200 5a 65 e3 3d 33 c9 d8 bd c0 d0 ff bb 80 55 24 bd
       0.11103316 -0.10585251 -0.0078068674 -0.0401206
000210 20 55 c4 bd 7c ff 0a 3d 10 69 d7 bd 62 02 3c bd
       -0.09586549 0.033935055 -0.10518086 -0.04590071
000220 eb 02 41 bd f8 81 d6 bc 99 25 05 bd bb 42 ef bd
       -0.047121923 -0.02618502 -0.03250656 -0.1168265
000230 84 29 b7 3d b4 9a 1d 3e 34 79 4b 3b 59 86 1a be
       0.08943465 0.15391046 0.0031047584 -0.15090312
000240 3f 5d d9 bd 68 cc 7c 3d f2 d7 17 3e ca fc cc bc
       -0.106134884 0.061718374 0.1482847 -0.025022883
000250 a4 17 87 3c 48 5d b3 bc 4a f2 e1 bd 40 4c 13 3e
       0.016490765 -0.021895066 -0.11032541 0.14384556
000260 ab 27 0e 3e c6 9d 16 3e a7 13 bb 3d a6 26 e4 3d
       0.1388232 0.14708623 0.09134608 0.11140184
000270 dc 64 87 b9 1d 65 1b 3d 47 11 e4 3d 93 61 ad 3c
       -0.00025824353 0.037938226 0.11136108 0.021164691
000280 96 2d 80 3d 19 56 96 3d 2c bb b1 bc 15 3f a3 bd
       0.06258695 0.073406406 -0.021695696 -0.07971016
000290 d1 bf 60 3b 13 9b 73 bd af 45 09 3e fd bf 9d 3d
       0.003429402 -0.059474062 0.13405488 0.077026345
0002a0 db b8 01 3d b1 a7 a7 bd cc 26 b4 bd 51 ab 0e 3d
       0.031670433 -0.081862815 -0.087964624 0.03483135
0002b0 fe e4 02 3e 14 d1 07 3e 10 51 6b 3c 81 6b 01 3e
       0.12782666 0.1326335 0.0143625885 0.12638666
0002c0 57 95 94 bd ce fb 10 3d 1a 88 35 bd da 7e ac 3b
       -0.07255047 0.03539639 -0.04431925 0.0052641453
0002d0 3f 83 b4 bd 3a ff b4 bc 83 8d 44 bd b4 fb e6 bd
       -0.08814096 -0.022094358 -0.04798652 -0.11278477
0002e0 b6 77 d9 3d 2d f5 3c 3d 1d 4a 20 3d 35 be 98 bd
       0.10618536 0.046132255 0.03913318 -0.07458154
0002f0 b2 88 a5 bd 79 67 12 3d 20 0b 81 3d d0 6c a6 3d
       -0.08082713 0.03574321 0.0630095 0.08126223
000300 d1 c2 3a bd 1b 93 7e bd 90 e3 b1 3c 96 03 a6 bd
       -0.045595948 -0.06215201 0.021714956 -0.08106153
000310 32 05 58 bd 0b fb d2 3d 1b 18 be bd a3 d9 91 3c
       -0.05273933 0.10301789 -0.092819415 0.017803973

lstm.bias_hh_l1 f4 [200]
000000 bb 7a b0 3c c8 d6 ff 3d e7 5c 74 3d 16 56 1a 3e
       0.021542897 0.12492138 0.05965891 0.15071902
000010 88 d5 1f bc 36 e6 50 3d de f3 ba 3d 0c d7 67 bd
       -0.0097555 0.051000796 0.09128545 -0.05660157
000020 68 fd f6 3c f5 b3 0c 3d 37 d2 3a 3d ee 48 9c 3d
       0.03015013 0.034351308 0.045610633 0.07631098
000030 41 84 9b bc b4 74 bb 3d 8d d4 b9 3c 85 db 18 3e
       -0.018983962 0.09153119 0.02268436 0.1492749
000040 50 20 23 3e 2c 20 55 3d 2e 39 d4 bd 41 df e7 bd
       0.15930295 0.052032635 -0.10362469 -0.11321879
000050 60 ee 03 bd 32 b6 9b bd 43 1e b4 bd 5a 3b b6 bd
       -0.032209754 -0.076031104 -0.087948345 -0.08898039
000060 ba ff 42 bd 3f 2b 12 3e 11 0c 0c be 82 81 6a bd
       -0.04760716 0.1427431 -0.13676478 -0.057252415
000070 df f4 10 3c 2a a6 34 bd f9 c1 fb bc 9c 95 05 3e
       0.008847444 -0.04410378 -0.030732142 0.13045353
000080 1b 78 c7 bd c3 ba 06 3e ed f6 74 3d b2 4a ce 3c
       -0.09739705 0.13157181 0.0598058 0.025182102
000090 ad ac 5e bd 71 51 22 3d 89 67 30 3c ef 6c 07 bd
       -0.054363895 0.03962845 0.010766872 -0.03306287
0000a0 95 53 df 3d 9c 73 a9 3d 43 42 8e bd 2d d5 21 3c
       0.10904614 0.08274004 -0.06946232 0.009877485
0000b0 a3 ab 01 3e f4 e6 c8 bd 07 46 fa 3d 3e 84 1a 3e
       0.1266313 -0.09809676 0.12220388 0.15089509
0000c0 d4 c0 ce 3d ba db 23 bd 38 88 bb 3b 90 94 1e 3d
       0.10095373 -0.04000447 0.0057230256 0.0387159
0000d0 5a c7 a3 bd a7 0c 09 3e c7 68 d2 3d 08 e0 8e 3d
       -0.07997008 0.13383733 0.10273891 0.06976324
0000e0 86 2c 1e be 15 59 d1 bc 12 ca fe 3d b3 21 75 bd
       -0.15446672 -0.025555173 0.124408856 -0.05984659
0000f0 62 2e b1 bd 41 e6 db 3d 0e d8 3d 3d 8c 72 b5 3b
       -0.08651425 0.10737277 0.046348624 0.0055373367
000100 7d f1 81 3d e7 91 d9 3d 11 b5 9b 3d 55 1c ac 3c
       0.06344888 0.10623532 0.07602895 0.021009604
000110 6c 61 7e 3c 09 c6 8a 3d 73 97 0d 3e 7d 82 d5 3d
       0.015526157 0.067760535 0.13827305 0.10425279
000120 27 f2 31 bd dc 85 c2 3d c7 8d 98 bd 3d 95 cb 3d
       -0.043443825 0.09498188 -0.07448917 0.09940574
000130 21 87 db 3d 8a 7c 22 3c 46 32 82 3b 45 4a ca bd
       0.10719133 0.009917388 0.003973278 -0.09877447
000140 e6 55 ae bd 50 8a 11 3e 78 2c db bc 4b ca 51 bd
       -0.085124776 0.14212918 -0.026754603 -0.051218312
000150 59 0f 28 3d c3 b6 08 3e d7 fe 36 bd 39 17 df 3d
       0.04103026 0.13350968 -0.044676628 0.10893101
000160 2f a9 fa bc 2c e7 99 3c e7 0d aa bd 80 bf dd 3d
       -0.030598251 0.01878699 -0.08303433 0.10827541
000170 4b b9 0c be c9 ad 53 bd 47 e8 8e bd 82 8b 94 bd
       -0.13742559 -0.051679406 -0.06977897 -0.072531715
000180 e0 62 7f bb 12 ae 9f 3d df 7a 5b 3d 75 98 0a 3e
       -0.0038968846 0.07796873 0.053583976 0.1353472
000190 02 df 02 3a 64 8d 4a bd 29 19 e7 bd d7 4c ba bd
       0.0004992337 -0.049451247 -0.11284096 -0.09096687
0001a0 6f a3 95 bd 8f e9 bd bc 96 b0 bd bd 13 b6 d6 3d
       -0.07306563 -0.023182658 -0.09262197 0.10483947
0001b0 3b 39 e5 bd 0c 65 92 3b a8 4f 67 bd a1 85 c8 3c
       -0.111925565 0.004467612 -0.05647245 0.024477782
0001c0 25 94 18 3e 27 30 d2 bd 90 81 22 3e c3 5f 94 bd
       0.14900263 -0.102630906 0.15869737 -0.072448276
0001d0 f5 ca ca 3d 5a 84 0d bd 25 47 02 3e d7 c6 22 3d
       0.09901992 -0.03455005 0.12722452 0.03974041
0001e0 00 8b 21 3e 3c 20 3e bd 90 12 c6 3d 7f 98 82 3d
       0.1577568 -0.04641746 0.09671509 0.063767426
0001f0 40 9e 1a be fd ba cd bd 4d 16 4d 3d 50 66 b0 3d
       -0.1509943 -0.10045431 0.050070096 0.086132646
000200 98 03 eb bd 5e fc 3f bd 86 c5 94 bd 0d 52 8e bd
       -0.11475295 -0.046871535 -0.07264237 -0.06949244
000210 54 6c 54 bd 9f 0b c1 3d fe 52 05 be 6d 51 0d 3e
       -0.051861122 0.09426045 -0.1301994 0.13800593
000220 b7 23 cb bd 5f 0b 87 3d f6 85 a1 3c 19 80 06 be
       -0.099189214 0.06593966 0.019717198 -0.13134803
000230 90 53 27 3d 3c 40 c0 bd dd 5f 06 be 93 2b cc bd
       0.040851176 -0.09387252 -0.13122506 -0.099692486
000240 a5 38 7f 3c 4c e8 84 bd 54 6c 32 bd e8 02 5b 3d
       0.01557747 -0.064896196 -0.04356034 0.05346957
000250 60 73 99 bd c9 92 98 3d da 1c 93 bd c3 22 01 3e
       -0.07492709 0.07449872 -0.071832374 0.12610917
000260 8f 2a 88 3d 9e 1d 2a bd 6e e3 5f bc c9 e8 a1 3d
       0.066487424 -0.04153215 -0.013665063 0.07905728
000270 36 a8 ab 3c 07 b6 e7 bd 17 62 3e 3d 7e bc 8a 3d
       0.020954233 -0.11314016 0.046480265 0.06774233
000280 38 64 b0 bd b6 eb c0 bd ed e1 8d bd 5b 93 4c 3c
       -0.08612865 -0.09419958 -0.069278575 0.012486304
000290 9e 78 ed bc 23 68 eb 3d c7 9f 73 3b b2 8d fa bd
       -0.028988179 0.11494472 0.0037174092 -0.122340575
0002a0 02 54 a8 bd aa 64 22 3c 8c 6e c5 bd 81 75 eb 3d
       -0.08219148 0.0099116955 -0.09640226 0.114970215
0002b0 e4 a1 ad 3d 44 41 00 3e f0 e2 92 bd b6 40 c5 bd
       0.08478144 0.12524897 -0.07172191 -0.09631483
0002c0 1f 15 97 3d 94 bd 33 3d ea 5e ac 3c 7f e2 81 bc
       0.073770754 0.043881968 0.021041352 -0.015855072
0002d0 f7 ce 07 3e 7c ce 59 3c 8a 9b ed bd 53 70 1a 3e
       0.13262545 0.013293859 -0.11601932 0.15081911
0002e0 38 6e 09 3e 9a b8 ea 3d 1d f0 2a 3d 49 5f 0f 3e
       0.13420951 0.11460991 0.041732896 0.14001192
0002f0 57 5a 37 bd 56 49 d2 bd 9e 3c 58 3d 32 07 dd bd
       -0.04476389 -0.10267894 0.052792184 -0.10792388
000300 4f 8d 1c 3d 58 69 e1 3d b0 e7 0b be bb a7 24 bd
       0.0382207 0.11006421 -0.136626 -0.040199023
000310 85 52 18 3e 8d fd 34 3c 35 51 d4 bc 8d 31 cb 3d
       0.14875229 0.011046779 -0.025917629 0.099215604

fc.weight f4 [1, 50]
000000 0c d9 61 bd 9d a1 cd bc 0a e8 d3 bd c4 b0 05 3e
       -0.055138633 -0.025101477 -0.10346992 0.13055712
000010 81 79 ca 3d 4b e9 c9 bd 15 a5 37 3d f8 a5 1e bb
       0.09886456 -0.0985895 0.04483517 -0.0024207812
000020 1b 7d 87 bc b9 77 00 3b 2e 91 67 bd 33 d1 62 3d
       -0.016539147 0.001960261 -0.05653494 0.05537529
000030 db ae 1c 3e 3a c7 80 3d e1 d3 ab 3c 2c 97 e3 bd
       0.15301077 0.062879995 0.020975055 -0.11112818
000040 b8 da fd bd 7e 94 eb 3c 36 a1 ce bc 88 72 cb bd
       -0.12395233 0.02875733 -0.025223356 -0.099339545
000050 96 33 36 3d 12 68 d3 bd bc 80 d1 3d 3f 39 88 3d
       0.04448279 -0.10322584 0.10229632 0.06651544
000060 40 24 ed bd ef 42 6e bc ed a0 b0 bd 28 bb 8c 3d
       -0.1157918 -0.014542325 -0.08624444 0.06871635
000070 d2 3a c9 3d 99 84 b0 3d 55 e8 48 bc 6c 19 61 bd
       0.09825672 0.08619041 -0.0122624235 -0.054955885
000080 bb 94 a8 3c 0e 33 18 3d f7 5e 60 3c a8 ba 68 3d
       0.020578733 0.037158065 0.013694516 0.056818634
000090 de ef 8b 3d b4 eb 28 bd 38 e4 4f 3d f9 99 89 bd
       0.068328604 -0.04124041 0.050754756 -0.06718821
0000a0 62 41 fc bd 74 60 ad 3c f6 ea 10 3d e1 3b 16 3a
       -0.12317158 0.021164156 0.035380326 0.00057309686
0000b0 52 c0 b4 3d c3 a0 d6 3d 39 71 fb 3d 29 be 8c 3d
       0.08825745 0.104798816 0.12277455 0.06872208
0000c0 b9 53 4f bd f7 27 03 be
       -0.050616954 -0.12808214
