models/LTC_USDT_model.pt (torch, 128181 bytes, 9 tensors)

lstm.weight_ih_l0 f4 [200, 1]
0	0x3d82822c	0.063724846
1	0x3d963cf9	0.07335848
2	0x3e07c217	0.13257633
3	0xbde8d2ea	-0.11368354
4	0x3e0af65a	0.13570538
5	0x39892cae	0.00026163965
6	0x3e05beec	0.13061112
7	0xbd8e19ee	-0.069385394
8	0x3da4586f	0.0802468
9	0xbe144e41	-0.14482976
10	0x3e02c51a	0.12770501
11	0x3e1c21df	0.15247296
12	0xbdec7396	-0.11545484
13	0x3dde22c0	0.10846472
14	0xbd62ed82	-0.055402286
15	0x3de1cb76	0.11025135
16	0xbc8e3d01	-0.017363073
17	0xbda96c93	-0.08272662
18	0x3b9d2e5b	0.004796786
19	0xbe053c02	-0.13011172
20	0xbde70afa	-0.112813905
21	0x3df28945	0.11842588
22	0xbdf44fae	-0.1192926
23	0x3da80d26	0.08205633
24	0xbdca6025	-0.09881619
25	0x3e21c779	0.15798749
26	0x3c394849	0.011308738
27	0xbd3ba0e9	-0.045807753
28	0x3d3888f7	0.045052495
29	0x3e07ac90	0.13249421
30	0x3d3a96a5	0.045553822
31	0xbdbfafc6	-0.09359698
32	0xbc1c7696	-0.0095497575
33	0x3e0019f3	0.12509899
34	0x3d23b8cf	0.03997117
35	0xba34c877	-0.00068963267
36	0xbdbfc628	-0.09363967
37	0xbd987ade	-0.0744531
38	0xbde93d3d	-0.113886334
39	0x3d8d9070	0.06912315
40	0xbd9f08e6	-0.07765369
41	0x3d2bc788	0.041938335
42	0xbdd6242c	-0.10456118
43	0xbdd4db38	-0.10393375
44	0x3e11efc3	0.14251618
45	0xbd1b1089	-0.037857566
46	0x3d116405	0.035495777
47	0x3e2362a7	0.15955602
48	0x3c9945b8	0.018710002
49	0xbdddcdfc	-0.10830304
50	0xbd39e266	-0.045381926
51	0xbd07bfb8	-0.03314182
52	0x3d347551	0.044057194
53	0x3bcc13d9	0.006227952
54	0xbdbefa7a	-0.09325118
55	0xbaa27433	-0.0012394249
56	0x3d3c73cd	0.046008874
57	0x3ce09df2	0.027419064
58	0xbdf1fca4	-0.118157655
59	0xbdd42d14	-0.103601605
60	0xbd21a642	-0.039465196
61	0x3e1faa99	0.15592422
62	0x3d7b5f5c	0.06137024
63	0x3d101845	0.035179395
64	0xbd1b135a	-0.037860252
65	0xbb933bca	-0.0044932114
66	0x3e1d6399	0.15370025
67	0x3e10fc02	0.14158633
68	0xbdf58bd1	-0.119895585
69	0xbd67c984	-0.056588665
70	0x3c078c36	0.008273175
71	0xbd38fa8e	-0.045160823
72	0x3e05509b	0.1301903
73	0x3e1a1f8d	0.15051098
74	0xbd2cb466	-0.04216423
75	0x3e0f6005	0.14001472
76	0xbe14f34c	-0.14545935
77	0x3e04bf9b	0.12963717
78	0xbcd5a0d6	-0.02607767
79	0x3e25c49e	0.16188285
80	0xbc106f26	-0.008815562
81	0x3c6b979d	0.014379409
82	0xbdd35aed	-0.10320077
83	0x3c2de732	0.010614203
84	0x3dea7559	0.114481635
85	0x3de2cf0c	0.11074647
86	0xbd2649f0	-0.040597856
87	0xbe03d0a0	-0.12872553
88	0x3dfc2271	0.12311257
89	0x3d2ef343	0.04271246
90	0xbe0330f0	-0.12811637
91	0xbd9dad71	-0.07699097
92	0xbd61154c	-0.05495195
93	0xbd9b449b	-0.07581445
94	0x3c834330	0.016023248
95	0xbca2f362	-0.019891445
96	0x3de79256	0.11307208
97	0xbdc774e0	-0.09739089
98	0xbd892c5f	-0.06697916
99	0x3d541ef8	0.051787347
100	0x3e09a315	0.13441117
101	0xbd85cc6a	-0.065331295
102	0xbd914d6d	-0.07094846
103	0x3d40699d	0.04697572
104	0xbdd1de2c	-0.10247454
105	0xbcc337c3	-0.0238303
106	0x3caa9492	0.020822797
107	0xbdfeee68	-0.12447816
108	0x3d17f079	0.037094567
109	0xbdae5a41	-0.08513308
110	0x3df7df7f	0.12103175
111	0xbd9e986b	-0.07743915
112	0xbe1208bc	-0.14261144
113	0x3dd552f3	0.10416212
114	0x3de32d85	0.110926665
115	0x3d84241d	0.064522006
116	0xbdd98ff2	-0.106231585
117	0xbd8cc0d9	-0.0687272
118	0xbdcb2157	-0.099184684
119	0xbd0c8f7c	-0.034316525
120	0x3cd04c9c	0.025427155
121	0xbde5e789	-0.112258025
122	0xbd84f46e	-0.06491934
123	0x3e2594f9	0.1617011
124	0x3d941398	0.072303
125	0xbd19a06b	-0.037506502
126	0xbded2dc6	-0.11580996
127	0xbdd9219b	-0.10602113
128	0xbdc16efe	-0.09444998
129	0xbd9146ae	-0.07093559
130	0x3ddf917b	0.1091642
131	0xbdcba899	-0.09944267
132	0xbc25c35f	-0.010117381
133	0x3d5c26ef	0.053748067
134	0x3dd216b7	0.10258239
135	0x3cc6bf3b	0.024261108
136	0xbe02198c	-0.12705058
137	0xbd90bbc2	-0.07067062
138	0xbd273dc5	-0.040830392
139	0xbdf8ff2e	-0.12158047
140	0x3dae30cb	0.085054
141	0x3db1e1b0	0.086856246
142	0xbe133d6d	-0.14378901
143	0xbc9c4902	-0.019077782
144	0xbd010de0	-0.031507373
145	0x3df5f12a	0.12008889
146	0xbd894b1e	-0.067037806
147	0xbda4a840	-0.08039904
148	0xbd8285a9	-0.0637315
149	0xbc155ef4	-0.009116877
150	0x3dfe1f65	0.12408332
151	0xbdec427d	-0.11536119
152	0x3dbaf29b	0.091283046
153	0x3daeff55	0.085447945
154	0x3d9802b4	0.074223906
155	0xbd675c2b	-0.056484383
156	0xbdb23d19	-0.0870306
157	0x3b714953	0.0036817386
158	0x3dafee34	0.085903555
159	0xbd94cb9a	-0.072653964
160	0xbdba9a0e	-0.09111415
161	0x3b3f5f95	0.0029201258
162	0x3dd458d6	0.103685066
163	0xbda98c50	-0.082787156
164	0x3ccf548a	0.025308866
165	0xbca9eeba	-0.020743717
166	0xbd0f4be0	-0.03498447
167	0xbdc5aa2a	-0.09651597
168	0x3e11ac32	0.14225844
169	0xbe0095fe	-0.12557217
170	0x3e1c2297	0.1524757
171	0x3cc522f5	0.02406452
172	0xbdfb38fa	-0.12266727
173	0xbc21f5fd	-0.009885308
174	0x3cb3b7fa	0.021938313
175	0x3d887fd3	0.066650055
176	0xbdaee55e	-0.08539842
177	0xba80bde3	-0.0009822216
178	0x3c97d59a	0.01853447
179	0xbca6f1cc	-0.02037897
180	0xbd679db9	-0.0565469
181	0x3daf677c	0.0856466
182	0x3e1d7246	0.15375623
183	0x3e0f91a1	0.14020397
184	0xbe06924f	-0.1314175
185	0xbde8f0aa	-0.11374028
186	0x3cd1a414	0.025590934
187	0x3d84d44d	0.06485806
188	0x3e13bbcd	0.14427109
189	0x3e0a55a0	0.13509226
190	0xbd42fa8a	-0.047602214
191	0x3a705b3a	0.0009168867
192	0x3d211768	0.039328963
193	0xbcd886fa	-0.02643155
194	0xbd64e6f4	-0.055884317
195	0x3d90506b	0.070465885
196	0xbd5d0ac4	-0.053965345
197	0xbd75f495	-0.060047705
198	0x3e1caf59	0.15301265
199	0x3e113a01	0.14182283

lstm.weight_hh_l0 f4 [200, 50]
0	0xbdecf7a7	-0.115706734
1	0xbdb90a8d	-0.090352155
2	0xbd973df8	-0.073848665
3	0x3caa1f98	0.020767018
4	0xbdc8f62d	-0.09812579
5	0x3c954368	0.018220618
6	0x3d812cda	0.06307383
7	0x3cf848e8	0.030308202
8	0xbd0ad3cc	-0.03389339
9	0x3ce7a028	0.02827461
10	0xbdebee27	-0.11520033
11	0xbd8a1091	-0.06741441
12	0xbdc4863b	-0.09595915
13	0xbde1fadc	-0.11034176
14	0x3d77ff74	0.060546353
15	0x3c823fcc	0.015899561
16	0x3d0b5f43	0.034026396
17	0xbd8cb51e	-0.06870483
18	0xbdbbfe36	-0.09179346
19	0xbdd6f7ab	-0.10496458
20	0xbc19e361	-0.00939259
21	0xbd2fb0b4	-0.042893127
22	0xbd633bc6	-0.055476926
23	0x3db5fb51	0.088858254
24	0x3e0bfe8c	0.1367132
25	0xbc91f898	-0.017818734
26	0x3d6ba4fa	0.05753038
27	0xbd8fb0bd	-0.07016132
28	0x3c69aa1b	0.014261748
29	0x3db0da44	0.08635381
30	0x3e07c5ed	0.13259096
31	0xbe0bf17a	-0.13666335
32	0x3e1d7adc	0.15378898
33	0xbc8cfea0	-0.017211258
34	0xbd0a6a40	-0.033792734
35	0xbd986ae1	-0.074422605
36	0xbda1a715	-0.078931965
37	0xbd1e9946	-0.03872039
38	0x3dcc3600	0.09971237
39	0x3d6d556f	0.057942804
40	0x3be5330c	0.0069946107
41	0xbd989c00	-0.0745163
42	0x3dbce29c	0.0922291
43	0x3da332b5	0.07968656
44	0xbcb3a235	-0.021927932
45	0xbdd8849b	-0.105721675
46	0xbd2ef8fe	-0.042717926
47	0x3dcdbeb2	0.10046138
48	0x3d3907b3	0.04517336
49	0xbd5218cd	-0.051293183
50	0x3db29f3b	0.08721777
51	0xbd9dc156	-0.077028915
52	0xbdfa4171	-0.12219513
53	0xbb85359d	-0.004065229
54	0xbd9ab799	-0.0755455
55	0x3e1178af	0.14206193
56	0x3bb335f0	0.0054690763
57	0xbdb72d70	-0.089442134
58	0x372ba1e0	1.0230084e-05
59	0x3d0f7935	0.0350277
60	0xbcb79b18	-0.022412822
61	0x3da75ffd	0.08172605
62	0xbda19246	-0.078892276
63	0xbdd0e3df	-0.10199713
64	0xbdde2850	-0.10847533
65	0x3dbff143	0.09372189
66	0xbe0f22f4	-0.13978177
67	0xba4de9e0	-0.00078549795
68	0x3dc6356c	0.09678158
69	0xbd79b569	-0.06096402
70	0x3e11a5ed	0.14223452
71	0xbd7ffac4	-0.062495008
72	0xbd191baa	-0.037379898
73	0xbcde71ae	-0.027153816
74	0xbdef063b	-0.1167111
75	0xbd15a14d	-0.03653078
76	0x3c580b86	0.013186341
77	0xbdd9aef2	-0.10629071
78	0x3d263075	0.040573556
79	0x3bd3fa02	0.0064690122
80	0xbd1a16d9	-0.037619445
81	0x3deb04e3	0.114755414
82	0xbd1d17f4	-0.03835292
83	0xbd98809d	-0.07446406
84	0x3e170d7a	0.14751235
85	0x3ddf2820	0.10896325
86	0xbd88262f	-0.06647908
87	0xbc5a38f9	-0.013319247
88	0xbde5529e	-0.111973986
89	0x3d79623d	0.060884703
90	0x3e250b6d	0.1611764
91	0xbda9d28f	-0.08292114
92	0x3dcbd7b6	0.09953253
93	0xbc7fe6d5	-0.0156189995
94	0xbe11cb35	-0.14237674
95	0xbd343e3b	-0.04400466
96	0xbda4b13e	-0.08041619
97	0x3c94c9b5	0.018162588
98	0xbe01665a	-0.126367
99	0x3dee9720	0.116499186
100	0x3cdc0fa3	0.026862925
101	0xbd62a803	-0.05533601
102	0xbde6dd21	-0.11272646
103	0xbda11ad6	-0.07866447
104	0xbd36ea17	-0.04465684
105	0xbdf19b8c	-0.11797246
106	0xbd8e22e3	-0.06940248
107	0x3df40aee	0.11916147
108	0xbd1285c7	-0.03577211
109	0xbd74ae67	-0.059736636
110	0x3de73a0e	0.1129037
111	0x3cbd8ec5	0.023139367
112	0x3d5d0a4b	0.053964894
113	0x3d18b785	0.037284393
114	0xbca230c5	-0.019798646
115	0xbdc280eb	-0.094972454
116	0x3d76bfe5	0.0602416
117	0x3cc564d5	0.024095932
118	0x3def3c26	0.11681394
119	0xbda42936	-0.08015673
120	0xbde68576	-0.112559244
121	0xbd85d5d3	-0.06534924
122	0xbd2f3e64	-0.04278411
123	0x3d0b76d6	0.034048878
124	0xbddbe738	-0.10737461
125	0x3d23c7e3	0.03998555
126	0xbd461e62	-0.04836882
127	0xbddfe9cf	-0.10933267
128	0x3dff8c58	0.1247794
129	0x3cf3e3ed	0.02977177
130	0xbde5fc49	-0.1122976
131	0x3dbdfbf5	0.092765726
132	0xbdff180a	-0.12455757
133	0xbd8fbf55	-0.070189156
134	0x3def3e4f	0.11681806
135	0xbd43985c	-0.047752723
136	0xbded408c	-0.11584577
137	0x3dfcf9de	0.12352346
138	0xbdff7ca3	-0.124749444
139	0x3d90e275	0.07074443
140	0xbc0c04fa	-0.008546108
141	0xbde8b0af	-0.11361825
142	0xbd98bb65	-0.07457618
143	0xbbd053db	-0.0063576526
144	0xbd2f6f0e	-0.04283052
145	0x3d7ea83a	0.062172152
146	0x3df7873b	0.1208634
147	0x3c803629	0.015650826
148	0x3dc80f9e	0.09768604
149	0xbe0920ca	-0.13391414
150	0xbd3b049a	-0.045658685
151	0xbe0cd99b	-0.13754885
152	0x3d8d0545	0.06885771
153	0xbe108269	-0.14112248
154	0x3df5f1ed	0.12009034
155	0x3c609604	0.0137076415
156	0x3dea2700	0.1143322
157	0x3ddb9115	0.107210316
158	0x3e07ab5d	0.13248964
159	0x3ba850d9	0.005136591
160	0xbd929068	-0.071564496
161	0x3d096c4c	0.033550546
162	0x3d4b830e	0.04968553
163	0xbe007564	-0.12544781
164	0x3e0142ba	0.1262311
165	0x3d156539	0.036473487
166	0x3c2b6a80	0.010462403
167	0x3d11483b	0.035469275
168	0x3da88193	0.08227839
169	0xbdfefc04	-0.12450412
170	0xbdb7980c	-0.089645475
171	0xbaaa327a	-0.0012985014
172	0xbd9f0779	-0.07765097
173	0x3daf59da	0.0856206
174	0xbd9dfad7	-0.077138595
175	0xbdc799d8	-0.0974614
176	0x3c6eae35	0.014567901
177	0xbda5071d	-0.080579974
178	0xbd60bc6e	-0.0548672
179	0x3d9870ad	0.07443366
180	0xbd4e273d	-0.05033039
181	0x3db3cf2e	0.08779751
182	0x3d841d86	0.06450944
183	0xbde65df9	-0.112483926
184	0xbde7e8b4	-0.113236815
185	0x3d4504a3	0.048100125
186	0x3de0333a	0.10947271
187	0xbdb5c57e	-0.08875559
188	0x3e1a9ed2	0.15099648
189	0xbddc0da4	-0.10744789
190	0x3d49eb1d	0.049296487
191	0xbd204352	-0.0391267
192	0x3d81763b	0.06321379
193	0x3c805253	0.015664255
194	0x3d93b9fd	0.07213209
195	0xbdc56381	-0.096381195
196	0x3cb5c5e9	0.022189097
197	0x3a499dba	0.00076910446
198	0x3d80a4f2	0.06281461
199	0xbdcf17ad	-0.10111938
200	0xbddb6e00	-0.1071434
201	0x3e247933	0.16061859
202	0x3cbc5e2c	0.022994123
203	0xbd9ebf99	-0.07751388
204	0x3d8e9a87	0.069630675
205	0x3d48b4c1	0.049000505
206	0x3da239b2	0.07921161
207	0x3bf54c19	0.007485878
208	0xbe12b6bc	-0.1432752
209	0xba99650a	-0.0011703086
210	0xbdc13a16	-0.09434907
211	0xbe0d39cf	-0.13791583
212	0xbe01cf56	-0.12676749
213	0x3db7144d	0.08939419
214	0x3d2b8da0	0.04188311
215	0xbdfb80e1	-0.12280441
216	0xbdeb340d	-0.11484537
217	0x3ddaba76	0.10680096
218	0xbdeb8332	-0.11499633
219	0x3da1a9c0	0.07893705
220	0x3e0f01c1	0.13965513
221	0x3d36f9b4	0.04467173
222	0xbdc85eda	-0.097837165
223	0xbd98cfd0	-0.07461512
224	0xbcf9f043	-0.030510074
225	0xbe0eb0aa	-0.1393458
226	0x3db24b41	0.0870576
227	0xbcebf617	-0.028803868
228	0xbde3da03	-0.11125567
229	0x3e032421	0.12806751
230	0x3dcb9259	0.09940023
231	0x3da3d499	0.07999534
232	0x3e18cdd8	0.14922273
233	0x3e1445be	0.1447973
234	0x3d59b94c	0.05315523
235	0x3baa8820	0.0052042156
236	0xbdf7069f	-0.1206181
237	0xbdc26d1d	-0.09493468
238	0xbcffa4b8	-0.031206474
239	0xbd7cfde3	-0.061765563
240	0xbd2d9ad8	-0.042384
241	0x3e122a29	0.14273895
242	0xbe02b083	-0.12762646
243	0x3db28bf4	0.087181
244	0xbd8e8689	-0.06959254
245	0xbbc06a79	-0.0058720675
246	0x3c7a3fdc	0.015274014
247	0xbe0a64dd	-0.13515039
248	0x3cac937d	0.021066422
249	0x3cd6cf9f	0.026222048
250	0xbde34de0	-0.11098838
251	0xbe052dbb	-0.13005726
252	0x3d15a958	0.036538452
253	0x3d8db783	0.06919768
254	0x3deebaf3	0.116567515
255	0xbc99263a	-0.018694986

lstm.bias_ih_l0 f4 [200]
0	0x3e0a9086	0.13531694
1	0x3e15a288	0.14612782
2	0xbd7d1f65	-0.06179752
3	0xbd9373b9	-0.07199807
4	0xbd9234ff	-0.071390145
5	0x3d8b2ccf	0.06795656
6	0xbd9d0aa9	-0.07668049
7	0x3dd5bb3c	0.10436103
8	0xbdcd0b18	-0.100118816
9	0x3da5e800	0.08100891
10	0xbdb1480d	-0.08656321
11	0x3d857c51	0.06517852
12	0xbdc0cb4e	-0.09413777
13	0x3d89fe4d	0.06737957
14	0x3de308d7	0.110856704
15	0xbdb5e9f1	-0.088825114
16	0x3d3415bb	0.043966036
17	0xbdaebe7e	-0.08532427
18	0xbd98f6ae	-0.074689254
19	0x3de50a65	0.11183623
20	0x3e17a7c0	0.14810085
21	0x3e253a11	0.16135432
22	0xbdf8e22e	-0.12152515
23	0x3e247bbc	0.16062826
24	0x3d64b62d	0.0558378
25	0x3ded845a	0.1159751
26	0xbda1168d	-0.07865629
27	0xbae00c7e	-0.0017093567
28	0xbdae70a7	-0.085175805
29	0xbc605f67	-0.013694621
30	0xbdbb3291	-0.09140504
31	0x3dd4b4ca	0.10386045
32	0x3dd5e2aa	0.10443623
33	0x3c34ffc0	0.011047304
34	0x3dddd7b0	0.10832155
35	0x3e1e6428	0.15467894
36	0x3c3cb36e	0.011517389
37	0x3d05de67	0.032682803
38	0xbc0ceb61	-0.008601041
39	0xbbddd686	-0.006769958
40	0x3d60cfb4	0.05488558
41	0xbc021b49	-0.007941076
42	0xbdbfb3f5	-0.09360496
43	0x3c813cc8	0.015776053
44	0x3df08775	0.117445864
45	0xbb6dceae	-0.003628652
46	0x3e03d6cd	0.12874909
47	0x3dd1acf5	0.10238067
48	0x3d7e6c69	0.062115107
49	0x3df721ca	0.120669916
50	0xbd19f397	-0.03758582
51	0x3d12da77	0.035852876
52	0x3c503063	0.012706849
53	0xbdbeeead	-0.093228675
54	0x3c3e906b	0.011631112
55	0x3d8591de	0.065219626
56	0x3d101f33	0.035186004
57	0x3dd6d310	0.10489476
58	0xbd9cfddf	-0.076656096
59	0xbd6a0c81	-0.05714083
60	0x3d943516	0.07236688
61	0x3d486f1f	0.0489341
62	0xbd3c4c15	-0.045970995
63	0x3d7fd1cf	0.06245595
64	0x3af6b5cc	0.001882249
65	0xbdef6d3f	-0.11690759
66	0xbc15196b	-0.009100298
67	0xbc67892f	-0.014131828
68	0x3e1f4eac	0.15557355
69	0xbbf28f38	-0.007402327
70	0x3e0bb4b7	0.13643156
71	0xbdc861e5	-0.09784297
72	0x3db7cd7f	0.08974742
73	0xbdafcc96	-0.085839435
74	0xbc7f1db8	-0.01557105
75	0x3d0c74b3	0.03429098
76	0xbcf268ce	-0.02959099
77	0xbcaccb4d	-0.021093035
78	0x3ddc1921	0.107469805
79	0x3e0c85e3	0.13722949
80	0xbc764b75	-0.015032639
81	0xbdf3ae0e	-0.11898433
82	0xbd34ff63	-0.04418887
83	0x3de2feaf	0.11083733
84	0x3c5c07c8	0.01342959
85	0xbcb802d0	-0.022462279
86	0xbde1288c	-0.10994062
87	0xbd65de61	-0.05612028
88	0x3da5bfaf	0.08093201
89	0x3da51102	0.080598846
90	0x3dd3f233	0.1034893
91	0xbd877995	-0.06614987
92	0x3e0584f6	0.13039002
93	0xbd91c934	-0.071184546
94	0xbcfd81e6	-0.03094573
95	0xbd1e300f	-0.03862005
96	0x3e08b364	0.13349682
97	0x3e0da541	0.1383257
98	0xbd7d7a74	-0.06188436
99	0xbd7673d8	-0.06016907
100	0x3c90e26c	0.017686091
101	0xbac4f869	-0.0015027645
102	0x3dc659b8	0.09685081
103	0x3dabfee0	0.08398223
104	0xbd09f429	-0.033680115
105	0x3e114d2b	0.14189593
106	0xbd7e0299	-0.062014196
107	0x3aae7045	0.0013308605
108	0x3c18fb4b	0.009337257
109	0x3de028cf	0.109452836
110	0xbd25c947	-0.040475156
111	0xbde4cd47	-0.11171966
112	0xbd65d16d	-0.056107927
113	0xbcf85e79	-0.030318486
114	0xbbe010ef	-0.006837956
115	0xbd7b50e0	-0.061356425
116	0xbc8bbafa	-0.01705693
117	0xbdf4f928	-0.11961585
118	0xbc9b602b	-0.018966755
119	0x3c0a8581	0.008454681
120	0x3e0d8bd4	0.13822871
121	0xbe0cfc93	-0.13768224
122	0x3d952782	0.07282926
123	0x3d081358	0.033221573
124	0xb9f807cb	-0.00047308052
125	0xbd090a86	-0.0334573
126	0x3c060e9a	0.008182192
127	0xbdf1a14e	-0.117983446
128	0x3e0bd632	0.13655928
129	0x3e03f6da	0.12887135
130	0x3dbf00fe	0.09326361
131	0x3d9e0c01	0.07717133
132	0x3d9a5a81	0.075367935
133	0x3dfd5c0a	0.12371071
134	0x3d82228d	0.06354246
135	0xbd884cab	-0.06655248
136	0xbd53c62b	-0.05170266
137	0xbe021464	-0.12703091
138	0x3dc1d492	0.09464373
139	0xbd358b18	-0.044322103
140	0x3de4f5bc	0.111796826
141	0x3e0f1eba	0.13976565
142	0x3c04bd00	0.008101702
143	0x3e02786d	0.12741251
144	0x3dc3f799	0.0956871
145	0xbe151b9b	-0.14561312
146	0x3d79f5e5	0.06102552
147	0xbc800764	-0.015628524
148	0xbdd34963	-0.10316732
149	0xbe210122	-0.15723088
150	0x3d8c9cde	0.068658575
151	0x3d03f9fc	0.032220826
152	0xbdec1064	-0.11526564
153	0x3d9cd69c	0.07658121
154	0xbd29c308	-0.041445762
155	0xbda2cbb1	-0.07949007
156	0xbde29276	-0.110630915
157	0xbded09a3	-0.11574104
158	0xbd9eff25	-0.07763509
159	0xbdc41e87	-0.09576135
160	0x3d48353d	0.048878897
161	0x3dd98e6e	0.106228694
162	0xbe03a5b0	-0.12856174
163	0x3d72a968	0.05924359
164	0xba05e51a	-0.0005107686
165	0xbdf550ad	-0.11978278
166	0x3d4fdd0a	0.05074791
167	0xbdcae3b1	-0.0990671
168	0xbb072605	-0.0020622027
169	0xbe09d660	-0.13460684
170	0xbdeb6114	-0.114931256
171	0x3da69771	0.08134354
172	0x3da965cf	0.082713716
173	0x3e261f1d	0.16222806
174	0x3e0943c9	0.13404764
175	0xbdb73cca	-0.089471415
176	0xbca64c43	-0.020300036
177	0x3c81ad5e	0.015829738
178	0x3cc5ca39	0.024144279
179	0x3e01776a	0.12643209
180	0x3e23e55e	0.16005465
181	0xbdd8f9dc	-0.10594532
182	0x3dc489a7	0.095965676
183	0xbdb7cc55	-0.0897452
184	0x3dd1535a	0.10220976
185	0x3db8dd4f	0.09026586
186	0xbd9eea15	-0.07759491
187	0x3de6842a	0.11255677
188	0xbdb01435	-0.08597604
189	0x3cf922d0	0.030412108
190	0xbda565bc	-0.08076045
191	0x3d9036b7	0.07041686
192	0x3d907793	0.07054057
193	0x3cf95144	0.030434258
194	0x3decdd7c	0.11565682
195	0x3d397926	0.04528155
196	0x3e16e4d3	0.14735727
197	0x3e21de26	0.15807399
198	0x3da3f6ae	0.08006035
199	0xbdd26ccc	-0.102746576

lstm.bias_hh_l0 f4 [200]
0	0xbbefa1e4	-0.007313
1	0xbdb3aa7d	-0.087727524
2	0xbcb44a6c	-0.022008143
3	0xbdfae871	-0.12251366
4	0x3c27439a	0.010208989
5	0x3dec6095	0.11541859
6	0xbdc0fbd2	-0.09423031
7	0xbe00a06f	-0.125612
8	0xbd2422b8	-0.040072173
9	0xbda00341	-0.07813121
10	0x3e16ccb4	0.14726526
11	0xbd16fe6e	-0.036863737
12	0xbc133b57	-0.008986316
13	0x3e0377bb	0.12838642
14	0xbd3ddce7	-0.046353247
15	0xba4da47f	-0.0007844641
16	0xbdb59f2b	-0.088682495
17	0x3b21745d	0.0024636008
18	0xbbddb9dd	-0.0067665414
19	0xbda36ce0	-0.07979751
20	0x3c97f846	0.018551003
21	0xbdce44c1	-0.100717075
22	0x3c78cfed	0.015186292
23	0xbd92da17	-0.071705036
24	0xbddc59a8	-0.10759288
25	0x3db4cb6b	0.088278614
26	0x3dc1f178	0.09469885
27	0xbbfe2374	-0.007755691
28	0xbdc6fa04	-0.097156554
29	0xbd86d26a	-0.06583102
30	0x3da84e67	0.08218079
31	0xbdb24b0d	-0.08705721
32	0x3e1aa777	0.15102945
33	0xbdf851fc	-0.12125012
34	0x3d0c71c5	0.034288187
35	0xbd5f9d72	-0.05459351
36	0xbd945b3e	-0.072439656
37	0x3da6926a	0.08133395
38	0x3dff8ba4	0.12477806
39	0x3d99cdb6	0.075099394
40	0xbc8ab96c	-0.01693412
41	0xbd96e3b6	-0.07367651
42	0xba7d6f5b	-0.00096677773
43	0xbd96b474	-0.073586375
44	0x3caf9871	0.021434994
45	0x3dde19f6	0.108447954
46	0x3d70cf5b	0.0587915
47	0xbd9a4a84	-0.07533744
48	0x3b0c32c6	0.0021392568
49	0xbd9d0bcf	-0.07668268
50	0xbd965e2e	-0.07342182
51	0xbd50af79	-0.050948594
52	0xbe018048	-0.12646592
53	0x3dcbc5b4	0.09949818
54	0xbd9ab2da	-0.075536445
55	0x3c84a21b	0.01619058
56	0xbd4f3ecd	-0.050597
57	0xbd900019	-0.070312686
58	0x3dde9503	0.108682655
59	0x3d982f1a	0.07430859
60	0x3ce3fe2f	0.027831165
61	0x3df9e1a1	0.122012384
62	0xbbab69ae	-0.005231104
63	0x3d7c4016	0.061584555
64	0x3d5b2cee	0.053509645
65	0x3c351874	0.011053193
66	0x3d082b5d	0.03324448
67	0x3e1a0c52	0.15043762
68	0x3c901ba8	0.017591313
69	0xbc77fea1	-0.015136392
70	0xbd983c4c	-0.07433376
71	0xbde55df1	-0.111995585
72	0x3e0f9665	0.14022215
73	0x3e223b77	0.15842997
74	0x3dc9ffe4	0.098632604
75	0x3d38fd27	0.0451633
76	0x3ca964a6	0.020677876
77	0xbc497435	-0.012295772
78	0x3d2f9b48	0.042872697
79	0xbdbccd3b	-0.09218832
80	0x3ce0708d	0.027397418
81	0x3da811de	0.08206533
82	0x3d8a040e	0.067390546
83	0xbdb1afa0	-0.08676076
84	0xbd172d84	-0.03690864
85	0xbdb02501	-0.08600808
86	0xbd9cbdc7	-0.07653385
87	0x3d1cb74c	0.038260743
88	0xbcbab44d	-0.022791052
89	0xbdac0a1e	-0.08400367
90	0xbde9d16c	-0.11416897
91	0x3bc6aca5	0.0060630613
92	0xbdff8227	-0.124759965
93	0xbd5a316d	-0.053269792
94	0xbb131921	-0.0022445398
95	0x3d208163	0.039185893
96	0x3cd3b4df	0.025843082
97	0x3d681fea	0.05667106
98	0x3d0ec4a7	0.03485551
99	0xbd60d1ca	-0.05488757
100	0xba66a00b	-0.0008797652
101	0x3e25b0c1	0.16180708
102	0x3d570ff5	0.052505452
103	0x3d63a517	0.055577364
104	0x3d8d1541	0.068888195
105	0xbd9f7b9f	-0.07787251
106	0xbc73e86c	-0.014886957
107	0xbc4c9e23	-0.012488875
108	0xbdbad5fc	-0.091228455
109	0x3d8e7159	0.06955213
110	0x3e259395	0.1616958
111	0xbdc68539	-0.09693379
112	0xbc0c89c1	-0.008577765
113	0xbdec127a	-0.115269616
114	0xbe0f089c	-0.13968128
115	0xbda11a5f	-0.07866358
116	0xbe1b890d	-0.15189
117	0xbdb621bc	-0.08893153
118	0xbe16742e	-0.14692757
119	0x3dd93186	0.10605149
120	0xbcac8481	-0.021059277
121	0xbca15701	-0.019694807
122	0x3d4fe73c	0.05075763
123	0x3e02d1c7	0.12775336
124	0x3cb309a8	0.02185519
125	0xbd8192a8	-0.063268006
126	0xbdbdd08b	-0.09268292
127	0xbe20d449	-0.1570598
128	0x3dc156cd	0.09440384
129	0x3e22c9ca	0.15897289
130	0x3d2c4bf5	0.042064626
131	0xbd84065d	-0.06446526
132	0x3de0387e	0.10948275
133	0xbdebb76e	-0.11509596
134	0xbcfaf245	-0.030633101
135	0xbdf77d7b	-0.120844804
136	0x3dc930e2	0.09823777
137	0x3d1ffd17	0.039059725
138	0xbdf29f6e	-0.11846815
139	0x3dda7885	0.106675185
140	0xbdd9ba8b	-0.106312834
141	0x3d8b7dc8	0.068111
142	0xbd6ab1f6	-0.057298623
143	0x3e0dfb25	0.13865335
144	0xbe1d3ff5	-0.15356429
145	0xbcac5cde	-0.021040376
146	0x3dd5bdea	0.10436614
147	0x39cad0ae	0.0003868392
148	0xbd855d71	-0.06511963
149	0x3dc1f707	0.09470945
150	0xbdcc27a7	-0.099685006
151	0xbcdfb33c	-0.027307145
152	0xbc3e2273	-0.011604893
153	0xbde8a9b4	-0.11360493
154	0xbd2ea044	-0.04263331
155	0xbd90b4b7	-0.070657186
156	0xbdb98df8	-0.090602815
157	0x3e0e8481	0.13917734
158	0x3d8b367b	0.06797501
159	0xbd34f6c2	-0.04418064
160	0xbdf184ce	-0.117929086
161	0xbd7666a6	-0.060156487
162	0x3d697308	0.056994468
163	0xbe14a9e0	-0.14517927
164	0xbdf3e042	-0.11908008
165	0x3ca702d7	0.020387096
166	0x3d6a7562	0.05724085
167	0xbdc84df9	-0.09780497
168	0x3d32883f	0.043586966
169	0xbde4c944	-0.11171201
170	0xbc63b3de	-0.013897864
171	0x3d3d163c	0.046163782
172	0x3e0e6f3e	0.13909623
173	0xbdc08063	-0.09399488
174	0xbd541b94	-0.051784113
175	0xbd1f58ab	-0.03890292
176	0x3cafad2d	0.021444881
177	0x3d007d05	0.031369228
178	0xbc24add9	-0.010051214
179	0xbd92ee00	-0.07174301
180	0x3ce2c306	0.027680885
181	0xbd84eb4d	-0.064901926
182	0xbd9e1fab	-0.07720884
183	0xbdafe185	-0.08587936
184	0x3b86a1d5	0.0041086474
185	0xba9faa1e	-0.0012181436
186	0xbaaa6654	-0.0013000467
187	0x3da7f41a	0.082008556
188	0x3c2be519	0.010491633
189	0xbd9fb737	-0.07798617
190	0xbd841b3b	-0.06450506
191	0xbdc065cf	-0.093944184
192	0xbd217dc1	-0.03942657
193	0x3cd85816	0.02640919
194	0xbd1888f8	-0.03724
195	0xbd75594c	-0.059899613
196	0xbb4f4f44	-0.003163294
197	0xbcedb20b	-0.029015562
198	0x3d78f7bd	0.060783137
199	0x3d26341b	0.040577035

lstm.weight_ih_l1 f4 [200, 50]
0	0xbdfb2b60	-0.122641325
1	0xbdb97051	-0.09054626
2	0x3e1b28e1	0.15152313
3	0x3cb92fee	0.022605862
4	0x3dc7ef86	0.09762482
5	0xbde9c643	-0.114147685
6	0xbd8279f4	-0.06370917
7	0x3e03b573	0.12862186
8	0x3db811cc	0.089877695
9	0xbe07d8dd	-0.1326632
10	0x3db3e307	0.087835364
11	0xbd457a1a	-0.04821215
12	0xbcf1e93d	-0.029530162
13	0xbd645225	-0.0557424
14	0xbd50985f	-0.050926562
15	0xbd96a480	-0.07355595
16	0x3dd00621	0.10157419
17	0x3e0e1415	0.13874848
18	0xbca457cd	-0.020061398
19	0xbd07c5d8	-0.033147663
20	0x3c9453b5	0.01810632
21	0xbbf66f57	-0.007520597
22	0xbd9f6a83	-0.077839874
23	0x3d9b91d4	0.07596174
24	0xbd665ac3	-0.0562389
25	0x3d1ca483	0.038242828
26	0xbd8c17c5	-0.06840471
27	0x3dc6fe20	0.09716439
28	0x3d96a695	0.07355992
29	0xbc04774c	-0.008085083
30	0xbdf7231b	-0.12067243
31	0xbdb85091	-0.08999742
32	0xbcec6923	-0.028858727
33	0xbcb1c3e4	-0.021699853
34	0x3db5eacc	0.088826746
35	0x3d749c7d	0.05971955
36	0xbe0c3ffd	-0.13696285
37	0xbcca9aa0	-0.024731934
38	0x3daae4a1	0.08344389
39	0xbe1810d5	-0.14850171
40	0xbd80a2af	-0.062810294
41	0x3da5cbc9	0.080955096
42	0x3e0deb14	0.13859206
43	0x3e0bd473	0.13655262
44	0x3d906415	0.07050339
45	0xbd80780c	-0.06272897
46	0xbde31b5d	-0.110892035
47	0xbcddcb1c	-0.02707439
48	0x3cd63832	0.026149843
49	0xbdaad6ce	-0.08341752
50	0xbd8bd500	-0.06827736
51	0xbdb9dc5d	-0.09075234
52	0x3dca4c90	0.098778844
53	0xbdbf6324	-0.093450814
54	0xbdccdc68	-0.10002977
55	0x3d175618	0.03694734
56	0x3d3bc367	0.045840647
57	0xbd6ba117	-0.057526674
58	0xbce9e1e1	-0.02855009
59	0x3ca80b88	0.020513311
60	0xbd84387e	-0.064560875
61	0x3d11ae36	0.03556653
62	0x3dcef3cf	0.101050965
63	0xbd9ed3c3	-0.07755234
64	0xbd951d2d	-0.072809555
65	0xbd5a8d90	-0.05335766
66	0xbe0e960c	-0.13924426
67	0xbd02928b	-0.031878036
68	0x3c393c40	0.011305869
69	0x3e0522ee	0.13001606
70	0x3dc2aad7	0.09505241
71	0xbe1d31c6	-0.15351018
72	0xbd039851	-0.032127682
73	0x3defdc33	0.117119215
74	0x3d2f3ba6	0.042781495
75	0xbaa4858e	-0.001255201
76	0x3ddc7dc1	0.10766173
77	0xbd0e6bfc	-0.03477095
78	0x3cb6cd28	0.022314623
79	0xbd954671	-0.07288826
80	0x3dcf21ec	0.10113892
81	0xbbfc6215	-0.007702122
82	0xbdcacdd4	-0.0990254
83	0x3e0bc837	0.13650595
84	0xbbac0915	-0.005250106
85	0x3db70e75	0.08938304
86	0xbe19b8f0	-0.15011954
87	0x3d80b7e9	0.06285078
88	0x3dd92329	0.106024094
89	0x3cfa1283	0.030526405
90	0x3df759d3	0.120776795
91	0xbc2376f9	-0.009977096
92	0x3da6117d	0.081088044
93	0x3cf50af8	0.029912457
94	0x3c4bc013	0.012435931
95	0xbe0fe74e	-0.1405308
96	0xbde4925a	-0.11160727
97	0xbe07de39	-0.13268365
98	0xbdc3e414	-0.09564987
99	0xbe243d97	-0.1603912
100	0x3d8fe9a7	0.070269875
101	0x3b40c01f	0.0029411388
102	0xbdc45ca4	-0.09587982
103	0xbdc92c83	-0.09822943
104	0xbdb968b8	-0.09053177
105	0x3c78b8f7	0.015180818
106	0x3d14af22	0.036299832
107	0x3ce94cb2	0.028478954
108	0x3d8ff779	0.070296235
109	0x3c1809e4	0.009279702
110	0x3daabcc0	0.083367825
111	0xbd8f09d5	-0.06984297
112	0x3dedc22f	0.11609303
113	0xbd810c6d	-0.06301198
114	0xbd7ab342	-0.06120611
115	0xbd5e0f54	-0.054213837
116	0x3d3eddd6	0.046598278
117	0x3d985517	0.074381046
118	0x3dd1dca1	0.1024716
119	0x3d51b5a3	0.051198613
120	0x3be2dbf9	0.0069231954
121	0x3dc6f832	0.09715308
122	0x3d91bdeb	0.07116302
123	0xbdb005d9	-0.08594865
124	0xbc0a16fa	-0.00842833
125	0x3cc88d2f	0.024481384
126	0xbdef91d9	-0.1169774
127	0x3ba89ae4	0.0051454175
128	0xbd654d69	-0.055982027
129	0x3cf031b7	0.02932058
130	0xbce03551	-0.027369173
131	0x3ba534f7	0.0050417143
132	0xbb780b5c	-0.0037848568
133	0x3e0aadac	0.13542813
134	0x3d9f3976	0.07774632
135	0xbd741808	-0.05959323
136	0xbdffc226	-0.12488203
137	0xbe02b146	-0.12762937
138	0x3b1678b7	0.0022960135
139	0x3da4d10b	0.08047684
140	0x3da8bf62	0.082396284
141	0x3c721288	0.014774926
142	0xbdc3bb62	-0.09557225
143	0x3c24c67b	0.010057087
144	0xbdf9760a	-0.12180717
145	0x3deb2f47	0.11483627
146	0x3d28fc02	0.04125596
147	0x3dd4e206	0.10394673
148	0xbe1469c6	-0.14493474
149	0xbdc46aae	-0.0959066
150	0x3e0477cd	0.12936325
151	0xbdc969a8	-0.098346055
152	0xbd34101b	-0.043960672
153	0x3d90a0c7	0.07061916
154	0x3dd1db2e	0.10246883
155	0xbc07b16d	-0.008282048
156	0x3c26700f	0.010158553
157	0x3d292fba	0.04130528
158	0xbd84240a	-0.064521864
159	0x3e05f2fe	0.13080975
160	0x3dcb84da	0.09937449
161	0xbd97edbe	-0.074183926
162	0xbd5535a2	-0.0520531
163	0x3dd1c9c9	0.102435656
164	0x3cd6fd67	0.026243879
165	0xbe20d841	-0.15707494
166	0xbd99be62	-0.07507016
167	0xbd63c39d	-0.055606473
168	0x3cf057b8	0.029338703
169	0xbda23ecd	-0.079221345
170	0xbd9530d6	-0.07284705
171	0xbe04785b	-0.12936537
172	0x3cf7bc2b	0.030241093
173	0xbd686e82	-0.056746013
174	0x3c431cf7	0.011908761
175	0xbd588782	-0.052863605
176	0xbdb4acab	-0.08821996
177	0xbdd037ce	-0.10166894
178	0xbd0dddb5	-0.034635264
179	0xbd57adc5	-0.052655954
180	0x3ba8df21	0.005153552
181	0x3c956691	0.018237384
182	0x3de06907	0.109575324
183	0x3dd726f0	0.105054736
184	0x3e038785	0.12844665
185	0xbd16c52a	-0.036809124
186	0x3d67126b	0.05641405
187	0x3ddeeb46	0.108847186
188	0x3d9f0873	0.077652834
189	0xbe188c00	-0.14897156
190	0x3e12b251	0.14325835
191	0x3d139ce5	0.0360383
192	0x3df9b6c6	0.121930644
193	0xbd946633	-0.072460555
194	0x3d547a80	0.051874638
195	0x3af13985	0.0018403983
196	0xbb2b2f14	-0.002612059
197	0x3d3ca015	0.046051104
198	0xbd985842	-0.07438709
199	0xbe0dabda	-0.13835087
200	0xbe08928d	-0.13337155
201	0xbe0d04de	-0.13771388
202	0x3c0c30b5	0.008556535
203	0x3dd8c65e	0.105847105
204	0xbdbe79af	-0.09300553
205	0xbd63f436	-0.05565282
206	0xbcfff0ab	-0.03124269
207	0xbd80d69a	-0.06290932
208	0x3bdf705b	0.0068188137
209	0x3d7d8fd5	0.061904747
210	0x3dda895e	0.10670732
211	0x3df2489e	0.11830257
212	0x3cd291e2	0.025704328
213	0x3e08ca71	0.13358475
214	0xbdc59211	-0.096470006
215	0xbd6da480	-0.058018208
216	0x3ddc37c2	0.107528225
217	0x3cc46693	0.023974692
218	0xbd68dae9	-0.056849394
219	0xbd7004d9	-0.058598373
220	0x3e000885	0.1250325
221	0xbdf5dd88	-0.12005144
222	0xbdf943fb	-0.12171169
223	0xbd508808	-0.05091098
224	0x3d4d3594	0.050099924
225	0xbd1f11c3	-0.0388353
226	0x3dbe5f25	0.09295491
227	0xbbc37571	-0.005964928
228	0x3cf96382	0.030442957
229	0x3df70b53	0.12062707
230	0xbd7c1266	-0.061540984
231	0xbdaefbee	-0.085441455
232	0xbe0358e6	-0.12826881
233	0x3ca002eb	0.019532641
234	0x3ced4bc7	0.028966798
235	0xbc122165	-0.008919095
236	0xbcd529b6	-0.026020866
237	0xbd9227d7	-0.07136505
238	0x3defeac9	0.117147036
239	0xbe01cc23	-0.12675528
240	0xbe00606f	-0.12536786
241	0xbdd77407	-0.10520177
242	0x3e0e21e8	0.13880122
243	0xbd8bdb96	-0.06828992
244	0x3d74600a	0.059661902
245	0xbdeebad4	-0.116567284
246	0xbe0d8a8b	-0.13822381
247	0x3d157ca7	0.03649583
248	0xbc5c3c40	-0.013442099
249	0x3d790e42	0.060804613
250	0xbd60fdd4	-0.05492957
251	0xbd9a50c0	-0.07534933
252	0xbe03aa4c	-0.12857932
253	0x3e0c1152	0.13678482
254	0xbe150789	-0.14553656
255	0x3d1c273e	0.03812336

lstm.weight_hh_l1 f4 [200, 50]
0	0x3dbeaa7d	0.09309862
1	0xbd2f0ab1	-0.042734805
2	0xbd46eb9f	-0.04856455
3	0x3db5767a	0.08860488
4	0x3de10dd0	0.10988963
5	0xbc796fb1	-0.015224383
6	0x3ddc50a2	0.10757567
7	0x3d57bc49	0.052669797
8	0xbd580a9b	-0.05274449
9	0x3d9002b4	0.070317656
10	0x3d012592	0.03152997
11	0xbda7d21c	-0.08194372
12	0xbd8f0eef	-0.0698527
13	0xbcf9365e	-0.030421432
14	0x3dd1107b	0.102082215
15	0x3d5e73aa	0.054309525
16	0x3d807626	0.06272535
17	0x3d957c95	0.07299153
18	0xbd75fa80	-0.06005335
19	0xbd69257f	-0.056920525
20	0xbd126331	-0.035739128
21	0x3d2a8ef9	0.041640256
22	0x3cb77713	0.022395646
23	0x3de1e026	0.11029081
24	0x3d84bed1	0.06481708
25	0xbcbd8d56	-0.023138683
26	0xbe0c88c1	-0.13724042
27	0xbde87e9c	-0.11352274
28	0x3df71651	0.120648034
29	0x3c1a951d	0.009434965
30	0x3d9117a5	0.07084588
31	0xbd903a20	-0.070423365
32	0xbd310362	-0.043216117
33	0xbd945a26	-0.07243757
34	0x3caed150	0.021340042
35	0x3a9859d7	0.0011623454
36	0xbda9f6c4	-0.0829902
37	0xbe10c551	-0.1413777
38	0x3daf0b46	0.08547072
39	0xbe086174	-0.13318425
40	0x3dbb7a62	0.09154202
41	0x3dc35787	0.09538179
42	0xbe068b24	-0.13139015
43	0xbdf26e70	-0.118374705
44	0x3da4919a	0.08035584
45	0xbde28ecc	-0.110623926
46	0x3e0f7c8c	0.14012355
47	0xbdc870bc	-0.097871274
48	0xbd192e64	-0.037397757
49	0x3b5a44b3	0.0033305108
50	0xbdbe17cc	-0.09281883
51	0xbcd756f9	-0.026286589
52	0x3de3a9a1	0.111163385
53	0xbdd1a9f9	-0.10237498
54	0x3aba5da2	0.0014218579
55	0x3da217b9	0.07914681
56	0xbe1e4aca	-0.15458217
57	0x3d941f97	0.07232588
58	0x3d3f01d3	0.0466326
59	0xba472492	-0.0007596697
60	0xbd5b4c1b	-0.053539377
61	0x3ddd3506	0.10801129
62	0xbd275c07	-0.04085925
63	0xbe16472c	-0.14675587
64	0xbdc68ac5	-0.09694437
65	0x3d9b7141	0.07589961
66	0xbdb119dc	-0.086475104
67	0x3d99db68	0.075125515
68	0xbe056bbe	-0.13029382
69	0x3d9bbdca	0.07604559
70	0xbda6c849	-0.0814367
71	0x3dba2aaa	0.09090169
72	0x3dd68bae	0.104758605
73	0xbd4a42f2	-0.04938025
74	0xbda80cfb	-0.08205601
75	0x3d79fdd4	0.061033085
76	0xbc1698de	-0.00919172
77	0xbcc88961	-0.02447957
78	0x3d99799f	0.074939005
79	0xbdf6f778	-0.1205892
80	0xbdc27355	-0.09494654
81	0x3ce1d8c8	0.02756919
82	0xbc3fecf1	-0.011714206
83	0xbe2153f0	-0.15754676
84	0x3e0d639d	0.1380753
85	0x3df27614	0.11838928
86	0x3ce4ba77	0.027920945
87	0x3dc05f69	0.09393198
88	0xbdfe5452	-0.124184266
89	0x3c23c322	0.009995254
90	0xbda3c1c3	-0.079959415
91	0xbde333ae	-0.110938415
92	0x3da922ed	0.08258615
93	0x3d834f11	0.06411565
94	0xbe0fb29a	-0.14032975
95	0x3dd846bb	0.10560366
96	0xbd868e98	-0.06570166
97	0x3da3e5d7	0.08002823
98	0xbd5f5430	-0.054523647
99	0x3e0562ac	0.13025922
100	0xbb8c1888	-0.0042753853
101	0xbcd99b3c	-0.02656328
102	0x3c710eb0	0.014712974
103	0xbe01d70e	-0.12679693
104	0x3d473651	0.048635785
105	0xbe15611b	-0.14587824
106	0xbd66e7ff	-0.056373592
107	0xbdc261d7	-0.09491318
108	0x3da8a2a0	0.08234143
109	0x3d9c695b	0.076372825
110	0xbc5309bf	-0.012880742
111	0x3df09a9c	0.117482394
112	0xbd2eb834	-0.04265614
113	0x3d9228f8	0.071367204
114	0xbdf2da4c	-0.11858043
115	0x3e03d816	0.12875399
116	0xbe02b448	-0.12764084
117	0x3dab47de	0.08363317
118	0xbe13d28d	-0.14435787
119	0xbd313e06	-0.04327204
120	0x3bdd1b60	0.006747648
121	0xbd4fa00f	-0.050689753
122	0x3da2cdca	0.079494074
123	0xbc231047	-0.009952611
124	0xbd053cc8	-0.03252867
125	0xbae94e64	-0.0017799851
126	0x3d0a2797	0.033729162
127	0xbd9b6d4c	-0.07589206
128	0xbd8f8c15	-0.070091404
129	0xbe02b9ae	-0.12766144
130	0xbdf45e0a	-0.11931999
131	0xbddc9f4b	-0.1077257
132	0x3dfa8241	0.12231875
133	0xbd47c2b2	-0.04876966
134	0xbda04432	-0.07825507
135	0x3d678376	0.056521855
136	0x3cbd7e9d	0.023131663
137	0x3c8cd85a	0.017193008
138	0x3daec568	0.08533746
139	0x3dbd1654	0.092327744
140	0x3d6074f8	0.05479905
141	0x3c983143	0.018578177
142	0xbe08cb9b	-0.1335892
143	0xbe05051f	-0.12990235
144	0x3dc49e93	0.09600558
145	0xbd7578ce	-0.05992966
146	0xbdb37148	-0.08761841
147	0xbd3ee8a0	-0.046608567
148	0x3db69112	0.08914389
149	0x3e21edda	0.1581339
150	0xbd26745a	-0.040638305
151	0x3d183412	0.037159033
152	0xbcc981fd	-0.024598116
153	0x3d219fb8	0.03945896
154	0x3da019be	0.0781741
155	0x3de643e8	0.11243421
156	0xbdc300f6	-0.09521668
157	0x3c489ba2	0.012244137
158	0xbd706ced	-0.05869763
159	0xbcabfeab	-0.020995459
160	0x3e005dd3	0.12535791
161	0xbddc34b0	-0.10752237
162	0xbd4cb8f0	-0.049981058
163	0x3d5f46e7	0.054510977
164	0x3d559c62	0.05215109
165	0xbdc3c00e	-0.09558116
166	0x3b6a0c75	0.0035712991
167	0x3df1a3c0	0.11798811
168	0x3d65a960	0.05606973
169	0x3bc62b18	0.0060476176
170	0x3cc61f24	0.02418477
171	0x3e0f9675	0.14022239
172	0xbd10cde8	-0.035352618
173	0xbd4a03df	-0.049320098
174	0x3c434277	0.011917702
175	0x3d83941e	0.064247355
176	0xbdc6824a	-0.096928194
177	0xbdfca7e9	-0.12336714
178	0xbcf33697	-0.029689116
179	0x3d2322a1	0.039827947
180	0x3dc046ce	0.09388505
181	0x3c88f4f3	0.016718363
182	0x3cb06b74	0.021535613
183	0xbdb29781	-0.08720303
184	0xbaf98389	-0.0019036393
185	0xbda10db5	-0.078639425
186	0x3e16e92d	0.14737387
187	0x3d12abe8	0.035808474
188	0x3d0749d2	0.033029385
189	0x3db7c1d3	0.08972516
190	0x3e07150b	0.13191621
191	0xbdd5602e	-0.104187354
192	0x3d98866b	0.07447513
193	0x3da96e82	0.08273031
194	0xbc0c59c0	-0.00856632
195	0x3dc05aba	0.09392305
196	0x3d11426c	0.035463735
197	0x3e05e27f	0.13074683
198	0xbcc1f41d	-0.023675973
199	0x3d809b5e	0.06279634
200	0xbd622eb3	-0.055220317
201	0xbe0c7f57	-0.13720451
202	0x3be7ae7c	0.0070703607
203	0x3c3bddad	0.011466426
204	0xbdd849db	-0.10560962
205	0x3e085860	0.13314962
206	0x3d76003c	0.060058817
207	0x3ddf98cd	0.10917816
208	0x3d7b874a	0.06140832
209	0x3da79cac	0.0818418
210	0xbd3b4434	-0.04571934
211	0x3d810c47	0.0630117
212	0x3b81b9fb	0.003958938
213	0x3df395f7	0.11893838
214	0xbe0cccbd	-0.13749976
215	0xbd4c9814	-0.04994972
216	0xbd9ce32b	-0.07660516
217	0xbd3195f4	-0.043355897
218	0xbde91f50	-0.113829255
219	0x3e1118b0	0.14169574
220	0x39ead78c	0.00044792553
221	0xbdfdb63e	-0.123882756
222	0xbd14ff39	-0.03637621
223	0x3c881b04	0.016614445
224	0x3d997cf1	0.07494534
225	0x3d5d11b5	0.053971965
226	0x3d813299	0.06308479
227	0x3b7247cf	0.003696907
228	0x3bbed801	0.0058240895
229	0xbdaa36e2	-0.08311249
230	0x3d86beed	0.06579385
231	0xbd82a776	-0.06379597
232	0xbd9d07f4	-0.076675326
233	0x3df2acde	0.11849378
234	0x3d166aef	0.036723074
235	0xbdcc66e0	-0.09980559
236	0xbc2be514	-0.010491628
237	0x3d0f2c52	0.034954377
238	0x3ca79001	0.020454409
239	0xbd42a81e	-0.04752361
240	0x3ba29bbc	0.0049624126
241	0x3d547f13	0.051879
242	0xbd8e806d	-0.06958089
243	0x3e06e269	0.13172306
244	0xbdbd5042	-0.092438236
245	0x3de645fb	0.112438165
246	0x36a34640	4.8659567e-06
247	0xbd529113	-0.051407885
248	0x3e0963c2	0.13416961
249	0x3c0cb428	0.0085878745
250	0xbd8c688c	-0.06855878
251	0xbc8dfa96	-0.017331403
252	0x3d1aaa94	0.037760332
253	0x3df29473	0.11844721
254	0xbd49eede	-0.049300067
255	0xbe1e7b9e	-0.15476844

lstm.bias_ih_l1 f4 [200]
0	0x3e0ceb6a	0.13761678
1	0x3e127530	0.14302516
2	0xbd9022d2	-0.070378914
3	0xbd0cc4ce	-0.034367375
4	0xbb931b06	-0.0044893054
5	0xbd47e14c	-0.048798844
6	0x3d96104c	0.07327327
7	0x3deaf3e6	0.11472301
8	0x3c71eddb	0.014766182
9	0x3becd752	0.0072278166
10	0x3dea6dfb	0.11446758
11	0x3d47c3b4	0.04877062
12	0x3d255e48	0.040373117
13	0xbd7cf73a	-0.06175921
14	0x3d2ea8b3	0.042641353
15	0xbc5e4f74	-0.013568748
16	0x3df4a9b2	0.11946429
17	0x3d68b439	0.0568125
18	0xbcc810f0	-0.024422139
19	0x3e024047	0.12719832
20	0x3d07d159	0.033158634
21	0xbd42facf	-0.04760247
22	0x3d3349a9	0.04377142
23	0xbc9353f6	-0.017984372
24	0x3e26cf20	0.1628995
25	0x3de11178	0.1098966
26	0x3dd4a87e	0.103837
27	0x3dc04bf5	0.09389488
28	0xbc88c55c	-0.01669567
29	0x3d87d170	0.06631744
30	0xbd8eba5f	-0.06969141
31	0xbca1b695	-0.019740382
32	0x3d295e93	0.04134996
33	0x3cd0a325	0.025468418
34	0x3ca8246d	0.020525182
35	0xbd1d160d	-0.038351107
36	0xbda38142	-0.07983638
37	0x3cc6bbc6	0.02425946
38	0x3e12ff7a	0.14355269
39	0x3e10ee73	0.14153461
40	0x3c5633a6	0.013073837
41	0xbd2f755f	-0.042836543
42	0x3e1ec640	0.15505314
43	0x3bddd4ad	0.0067697377
44	0x3df85fe9	0.121276684
45	0xbe05d60e	-0.13069937
46	0x3cb23026	0.021751475
47	0x3cbcd029	0.023048477
48	0x3dcef7ed	0.10105882
49	0xbc6c5cd2	-0.014426427
50	0x3b682138	0.003542019
51	0xbde2fe3e	-0.11083649
52	0xbd8331cf	-0.064059846
53	0xbdfbecb7	-0.12301009
54	0xbd4de05f	-0.050262805
55	0x3d3ecd68	0.04658261
56	0xbd0e6cb3	-0.034771632
57	0xbdb9e011	-0.090759404
58	0x3d358524	0.044316426
59	0x3b6e4e83	0.0036362715
60	0xbc1061a7	-0.008812345
61	0x3d8d311f	0.06894135
62	0x3e0b6645	0.13613231
63	0x3ce4ffaf	0.02795395
64	0x3bc64f85	0.00605196
65	0x3dda90df	0.10672163
66	0xbe0562d7	-0.13025986
67	0x3df15764	0.117842466
68	0x3d47f88b	0.048821013
69	0xbc0e85db	-0.008698906
70	0x3bdcc8df	0.006737813
71	0x3e067e8f	0.13134216
72	0xbd23cedd	-0.039992202
73	0x3da9f97d	0.08299539
74	0xbd884c2e	-0.06655155
75	0xbda229f3	-0.079181574
76	0x3d16619c	0.03671418
77	0x3c242d19	0.010020518
78	0xbe15d21d	-0.14630933
79	0xbdac458e	-0.08411704
80	0x3d89a207	0.067203574
81	0x3dec9581	0.11551953
82	0xbb1113b8	-0.0022136997
83	0xbe151687	-0.14559375
84	0x3db7a844	0.08967641
85	0xbdfee7af	-0.12446534
86	0xbc4e93ee	-0.012608511
87	0x3d8a410f	0.0675069
88	0xbe0548d4	-0.13016063
89	0x3d0753a5	0.033038754
90	0x3c1c5b62	0.009543272
91	0x3da4e588	0.08051592
92	0xbcf443b8	-0.029817447
93	0xbda64ef4	-0.08120528
94	0xbc94b789	-0.018153923
95	0x3e0d8d3f	0.13823412
96	0xbd48c75b	-0.049018245
97	0x3cddda14	0.027081527
98	0xbb8bd533	-0.0042673587
99	0x3c0a9190	0.008457556
100	0xbbfc3cab	-0.007697662
101	0xbccff118	-0.025383517
102	0xbdbb2614	-0.09138122
103	0xbd6742e7	-0.056460287
104	0x3d758536	0.059941493
105	0xbbfdd2d7	-0.0077460813
106	0xbde27a6d	-0.11058507
107	0xbc009a13	-0.007849234
108	0x3de1643c	0.11005446
109	0xbe0943d5	-0.13404782
110	0xbd8c75f2	-0.06858434
111	0xbdf33c8a	-0.11876781
112	0x3e134edf	0.14385556
113	0x3d3d3cbd	0.046200503
114	0xbdd24585	-0.10267166
115	0xbd3b7f6c	-0.045775816
116	0x3d91fd43	0.07128384
117	0x3d3c6d61	0.04600275
118	0xbd2485e5	-0.040166754
119	0xbccbd47d	-0.024881596
120	0x3df60ab3	0.120137595
121	0x3d99b417	0.075050525
122	0x3d9db704	0.07700923
123	0xbe19badb	-0.15012686
124	0x3bc571a0	0.006025508
125	0xbbb03ceb	-0.0053783557
126	0x3df51c2f	0.11968266
127	0x3e2659ff	0.16245268
128	0xbc700e29	-0.014651814
129	0x3d5c6ff6	0.05381771
130	0xbd6d39c1	-0.057916407
131	0xbd010ad2	-0.03150446
132	0xbd1a3c34	-0.03765507
133	0xbde9bc5f	-0.11412882
134	0x3d2bbbad	0.04192703
135	0xbcd6eb5f	-0.02623528
136	0xbba62e9c	-0.0050714742
137	0x3c8047bd	0.015659207
138	0xbddd91c2	-0.10818817
139	0x3e1c2c35	0.15251239
140	0x3cc8a314	0.024491824
141	0x3dde3906	0.1085072
142	0xbdc28e47	-0.094997935
143	0x3dddbf4b	0.10827502
144	0x3d926555	0.07148234
145	0xbdbdec6f	-0.09273612
146	0xbb97f50a	-0.004637365
147	0xbe0b6e78	-0.13616359
148	0xbddd0c96	-0.10793416
149	0xbd457752	-0.048209496
150	0x3c7da2e3	0.01548073
151	0xbd9a5b2f	-0.07536923
152	0xbdbf3769	-0.093367405
153	0xbe01874b	-0.12649266
154	0x3c0f4d94	0.008746523
155	0x3c662fd2	0.014049487
156	0x3e0d92bf	0.1382551
157	0x3cebc556	0.02878062
158	0x3d8b111c	0.06790373
159	0xbbcc5fe1	-0.0062370156
160	0x3cca6d65	0.024710367
161	0x3dbaa658	0.09113759
162	0x3d126655	0.035742123
163	0x3e09f405	0.13471992
164	0xbd9901a9	-0.0747102
165	0xbda3c72d	-0.07996974
166	0x3d4b64b7	0.049656596
167	0xbd64a7e2	-0.055824168
168	0x3d8febc9	0.07027394
169	0x3d94a9b9	0.072589345
170	0x3c8e052b	0.017336449
171	0x3cb1dd9c	0.021712117
172	0xbdb26144	-0.08709958
173	0x3da8129f	0.08206677
174	0xbd089c43	-0.033352148
175	0x3d93a18c	0.07208547
176	0x3e080ab6	0.13285336
177	0x3c9af5cc	0.018916033
178	0xbdcde749	-0.1005388
179	0x3d49f2ba	0.049303748
180	0xbded206f	-0.11578452
181	0x3d3f6102	0.046723373
182	0xbda8a6e3	-0.08234956
183	0xbdbf2aef	-0.09334361
184	0x3db69cb5	0.08916608
185	0x3d2964fb	0.041356068
186	0xbe05fb16	-0.13084063
187	0x3e0b5e90	0.13610291
188	0x3d844bd7	0.06459778
189	0x3df44bfe	0.11928557
190	0xbdcea4a2	-0.10089995
191	0x3de4f290	0.111790776
192	0xbda1e6a5	-0.0790532
193	0xbda672d6	-0.08127372
194	0xbb839101	-0.0040150885
195	0xbd32526a	-0.043535627
196	0x3de50176	0.11181919
197	0xbdc032f5	-0.09384719
198	0x3d56c0e8	0.052430063
199	0x3d3af90f	0.045647677

lstm.bias_hh_l1 f4 [200]
0	0x3d88401f	0.06652855
1	0x3c81c007	0.015838636
2	0xbd28e927	-0.041237976
3	0x3d48b7c2	0.04900337
4	0xbb1fcad6	-0.0024382374
5	0x3e217dd8	0.15770662
6	0x3de90995	0.11378781
7	0x3dbea14f	0.09308111
8	0xbdbbeb92	-0.09175791
9	0x3e22c1ac	0.15894192
10	0x3cdd2fa5	0.027000258
11	0xbcc618c4	-0.024181731
12	0x3dba70df	0.0910356
13	0x3d5df2a0	0.054186463
14	0xbcb8d6f1	-0.02256343
15	0x3d47ba07	0.048761394
16	0xbd1af213	-0.037828516
17	0x3c9112f2	0.01770923
18	0xbd460086	-0.048340343
19	0xbdb05483	-0.08609869
20	0xbbd18445	-0.0063939416
21	0x3d4ab3e1	0.049487952
22	0xbdfeb0e0	-0.1243608
23	0xbdc1ab2f	-0.09456479
24	0xbd7cb3e0	-0.06169498
25	0xbcc71c4a	-0.024305481
26	0xbded619c	-0.11590883
27	0x3e15d388	0.14631474
28	0xbe098ee5	-0.13433416
29	0xbd56c6c5	-0.052435655
30	0xbca31c3c	-0.019910924
31	0x3d8d0922	0.068865076
32	0xbdaa9249	-0.08328683
33	0xbca4c8f7	-0.020115359
34	0xbd8ba983	-0.06819441
35	0x3cf23549	0.029566424
36	0xbbf54a4a	-0.0074856626
37	0xbd816e7a	-0.063199
38	0x3d8f476e	0.06996046
39	0xbd4e0cea	-0.050305285
40	0x3dfbe72f	0.12299954
41	0x3d9ddc0b	0.077079855
42	0x3ccdc2fb	0.025117388
43	0x3dc1e6d0	0.09467852
44	0xbc80f43d	-0.015741462
45	0x3dadc9b4	0.084857374
46	0x3d0a537a	0.033771016
47	0xbdfd149c	-0.123574466
48	0x3d238817	0.039924707
49	0x3e068e6b	0.13140266
50	0xbdbb1b01	-0.0913601
51	0x3dd15b94	0.10222545
52	0x3cefffae	0.029296722
53	0xbdb7859a	-0.08961029
54	0xbd03da95	-0.032190878
55	0xbc6811d5	-0.014164408
56	0x3d1bf3bc	0.03807424
57	0x3dcd8625	0.10035352
58	0xbde3ba6b	-0.11119541
59	0x3e077bba	0.13230792
60	0x3d9da693	0.07697787
61	0xbdef5200	-0.11685562
62	0xbdd8aa74	-0.10579386
63	0x3d927cf0	0.07152736
64	0xbdf1e491	-0.11811174
65	0xbdb66dd9	-0.089076705
66	0x3ddc7ac3	0.107656024
67	0x3dd53f56	0.10412471
68	0x3e0423d6	0.12904295
69	0x3d3192d5	0.04335292
70	0x3df77a79	0.12083907
71	0xbdc3ec58	-0.09566563
72	0xbda611e5	-0.08108882
73	0x3d1b2de5	0.037885565
74	0x3e1d961c	0.15389293
75	0xbd941fd2	-0.07232632
76	0x3d44b34c	0.048022553
77	0xbce7583a	-0.028240312
78	0x3dab0fef	0.083526485
79	0x3dd250b4	0.10269299
80	0xbde9d4fa	-0.11417575
81	0xbdc2b768	-0.09507638
82	0xbdcedd6b	-0.10100826
83	0x3dd68532	0.10474624
84	0xbbd9933d	-0.0066398666
85	0x3d93122d	0.07181201
86	0xbd1a0c67	-0.037609484
87	0xbd84f5cb	-0.06492194
88	0x3a6d0f34	0.0009043098
89	0x3e1340be	0.14380166
90	0xbdbb0b00	-0.091329575
91	0xbc6c1e35	-0.014411499
92	0xbde54a7c	-0.111958474
93	0xbe1dad0d	-0.15398045
94	0x3dfc04c2	0.12305595
95	0xbdc0d82d	-0.09416232
96	0x3d605fbd	0.054778803
97	0xbd2ad461	-0.041706447
98	0x3e223ca7	0.1584345
99	0x3de16330	0.11005247
100	0xbdcc8c4f	-0.09987699
101	0x3da8fcac	0.08251318
102	0x3c801ea2	0.015639607
103	0x3d4dabeb	0.050212782
104	0x3c54a3be	0.012978492
105	0xbd86c3b7	-0.065802984
106	0x3bb4521c	0.0055029523
107	0xbdf17219	-0.117893405
108	0x3e046c87	0.12932025
109	0x3da3a95d	0.07991288
110	0x3dac49b3	0.084124945
111	0x3ca92157	0.02064578
112	0xbc1e8eaf	-0.009677573
113	0xbe1147f9	-0.14187612
114	0x3da53434	0.080665976
115	0x3b8d8ad4	0.004319528
116	0xbdb89c6f	-0.09014212
117	0x3db8ccc5	0.09023432
118	0xbdd24b52	-0.102682725
119	0xbd16802e	-0.036743335
120	0xbdb7fe3b	-0.089840375
121	0x3cd089d1	0.025456341
122	0x3dad4a14	0.08461395
123	0xbc90ecdd	-0.01769107
124	0x3e0b6fba	0.13616839
125	0xbd3a83f2	-0.04553599
126	0x3d26507f	0.04060411
127	0x3de6b08b	0.11264142
128	0x3ded7ea4	0.115964204
129	0xbd67853b	-0.056523543
130	0xbcc06418	-0.023485228
131	0xbd1e8aa8	-0.03870645
132	0xbd7f32c6	-0.06230428
133	0xbd9f7c89	-0.07787425
134	0x3da58bfd	0.08083341
135	0x3bb9271b	0.0056504137
136	0x3d282a27	0.041055825
137	0x3c57a1a3	0.013161096
138	0x3e035dbf	0.1282873
139	0xbd3a5d17	-0.045498934
140	0x3db90b46	0.09035353
141	0x3d3114ce	0.04323273
142	0x3ad6f660	0.001640033
143	0xbdf99dee	-0.12188326
144	0xbda6da85	-0.08147148
145	0x3c9fc191	0.01950148
146	0xbdc92f9e	-0.098235354
147	0x3d4822d3	0.048861336
148	0xbdb38b8a	-0.08766849
149	0x3e021aff	0.1270561
150	0x3ca459b9	0.020062314
151	0xbd2b531f	-0.041827317
152	0xbd45ca42	-0.04828859
153	0xbdb0b12d	-0.086275436
154	0xbddcefec	-0.10787949
155	0x3d79eea9	0.06101862
156	0x3d8e625b	0.069523536
157	0x3d1950a3	0.037430417
158	0x3db11293	0.08646121
159	0x3d8f2c75	0.069909014
160	0xbd1ab0ca	-0.037766255
161	0x3d7b04fb	0.061284047
162	0xbc99b0a0	-0.01876098
163	0x3cb01dce	0.021498587
164	0xbbac604a	-0.005260502
165	0x3ba79df6	0.005115266
166	0xbd95d17e	-0.07315348
167	0xbbab333f	-0.005224615
168	0xbb534c8e	-0.0032241675
169	0x3cbc3c4c	0.02297797
170	0x3dd58686	0.10426049
171	0x3dd0db1c	0.10198042
172	0xbda79084	-0.08181861
173	0xbd36eabb	-0.04465745
174	0x3e0eb2a5	0.13935335
175	0x3e1cd921	0.15317203
176	0x3e05aee2	0.13054994
177	0x3cd79ba1	0.026319327
178	0xbd215489	-0.03938726
179	0x3e045f8e	0.12927076
180	0x3cd8c735	0.026462177
181	0x3caa9226	0.020821642
182	0xbda898a4	-0.08232239
183	0x3dcc539e	0.09976886
184	0x3d954443	0.072884105
185	0x3d475597	0.04866561
186	0xbd520a78	-0.051279515
187	0x3db6258d	0.08893881
188	0xbd01094d	-0.03150301
189	0x3e1e8ab1	0.15482594
190	0x3d60a30d	0.054842997
191	0x3e02af0a	0.12762085
192	0xbd8ab2dd	-0.06772397
193	0xbde0da41	-0.10979129
194	0x3dd6e546	0.10492949
195	0x3d3ab365	0.04558124
196	0xbddf497b	-0.10902687
197	0x3dc1f87a	0.09471221
198	0xbad179be	-0.0015981717
199	0x3e13958b	0.14412515

fc.weight f4 [1, 50]
0	0x3d621149	0.055192266
1	0x3bd1c813	0.0064020245
2	0xbcf1fcfa	-0.029539574
3	0xbdffaadb	-0.1248376
4	0x3a9c95e8	0.0011946531
5	0xbd50d801	-0.050987247
6	0xbddbb317	-0.10727518
7	0x3cb7b707	0.022426141
8	0x3d4d44bf	0.05011439
9	0xbd9c1e9a	-0.07623024
10	0x3db5a7ef	0.088699214
11	0xbde5a3d4	-0.11212888
12	0x3e182303	0.14857106
13	0xbcb5dbb8	-0.022199497
14	0xbe1cf2bc	-0.15326971
15	0x3d14d8dd	0.03633963
16	0x3d6840e4	0.05670251
17	0x3ddfaf63	0.10922124
18	0x3d21af17	0.03947362
19	0x3db63788	0.088973105
20	0x3d9a41aa	0.07532056
21	0x3de20319	0.11035747
22	0xbd0ada80	-0.033899784
23	0xbe10a2ae	-0.14124557
24	0x3d86b754	0.06577936
25	0xbdfb3717	-0.12266367
26	0x3d888b37	0.06667178
27	0x3dfba811	0.122879155
28	0xbdbb98b2	-0.09159984
29	0xbdd229ce	-0.1026188
30	0x3e0078ae	0.12546036
31	0x3ce25267	0.027627183
32	0x3dc875fa	0.09788127
33	0x3d8445c5	0.0645862
34	0x3b5797da	0.0032896907
35	0xbe0ebf73	-0.1394022
36	0x3dc20f8b	0.09475621
37	0xbd3faa46	-0.046793245
38	0x3d89e398	0.06732863
39	0x3d41cb98	0.047313303
40	0x3e00665d	0.12539048
41	0x3d633aba	0.055475928
42	0xbd67b3be	-0.0565679
43	0x3d2ced6b	0.042218607
44	0xbe0f4844	-0.13992411
45	0x3d68b8de	0.056816928
46	0xbdc96679	-0.09833998
47	0xbcbe4eff	-0.023231028
48	0xbd966325	-0.07343129
49	0x3c0ca97d	0.008585331
