models/LTC_USDT_model.pt (torch, 128181 bytes, 9 tensors)

lstm.weight_ih_l0 f4 [200, 1]
000000 0e cc 83 3d 05 22 97 3d ca f7 07 3e 29 c3 e8 bd
       0.06435405 0.073795356 0.13278118 -0.11365349
000010 66 ac 0b 3e ac 75 31 3a 5d 3b 06 3e 5a e7 8c bd
       0.13639984 0.00067695486 0.13108583 -0.06880064
000020 d6 25 a5 3d 39 70 14 be 39 88 03 3e 8f f2 1c 3e
       0.08063857 -0.14495935 0.12844934 0.15326904
000030 2a 19 eb bd f0 f1 dd 3d 6d 32 61 bd 4e c8 e2 3d
       -0.11479409 0.108371615 -0.05497973 0.11073361
000040 65 9b 87 bc ed e1 a7 bd 39 8d b5 3b 1c 7c 05 be
       -0.01655359 -0.08197389 0.0055405167 -0.13035625
000050 1b 96 e5 bd 64 15 f4 3d 9c 73 f3 bd 6d 09 aa 3d
       -0.11210271 0.119181424 -0.11887285 0.08302579
000060 35 f3 c8 bd 4e 73 22 3e 73 de 41 3c 51 7e 38 bd
       -0.09812013 0.15864298 0.011832821 -0.04504234
000070 ee 04 3b 3d 73 7b 08 3e 24 b6 3d 3d 87 50 be bd
       0.045659 0.13328342 0.04631628 -0.09292703
000080 ac 96 0f bc b8 b9 00 3e 9d 66 26 3d 10 b0 a6 b7
       -0.00876395 0.12570846 0.040625203 -1.9870728e-05
000090 e3 6a be bd 73 65 97 bd 4d 03 e8 bd 5b 92 8e 3d
       -0.09297731 -0.07392397 -0.113287546 0.06961509
0000a0 5c fb 9d bd 20 81 2e 3d be d5 d4 bd 63 bc d3 bd
       -0.077139586 0.042603612 -0.103923306 -0.10338666
0000b0 77 84 12 3e 2f e0 18 bd e1 1b 14 3d 19 03 24 3e
       0.14308344 -0.037323173 0.0361594 0.16016807
0000c0 97 eb 9e 3c 76 8a dc bd a0 3c 37 bd c4 dd 05 bd
       0.019399447 -0.10768597 -0.04473555 -0.032682195
0000d0 1b b1 35 3d 9c aa d2 3b 51 84 bd bd b9 98 50 ba
       0.044358354 0.0064290296 -0.09253753 -0.0007957328
0000e0 99 7c 3e 3d f9 b6 e5 3c c3 1d f1 bd 51 52 d4 bd
       0.046505544 0.02804135 -0.11773255 -0.10367263
0000f0 db 65 1e bd bc 89 20 3e 64 42 7e 3d af f6 0f 3d
       -0.038671356 0.15677541 0.062075034 0.035147365
000100 d3 3d 19 bd 10 82 82 bb f2 41 1e 3e d6 ce 11 3e
       -0.037412476 -0.00398279 0.15454844 0.14239058
000110 9b f3 f3 bd 7c d7 69 bd 53 fa 13 3c 75 ba 35 bd
       -0.119116984 -0.057090268 0.00903185 -0.044367272
000120 7f c9 05 3e f9 28 1b 3e 77 be 29 bd 41 19 10 3e
       0.13065146 0.15152349 -0.041441407 0.14072134
000130 99 65 14 be 20 90 05 3e 84 55 d0 bc f5 a0 26 3e
       -0.14491881 0.1304326 -0.025431402 0.16272338
000140 83 78 03 bc a4 04 77 3c 0f a8 d1 bd 94 9a 38 3c
       -0.008024338 0.01507679 -0.10237133 0.011267323
000150 58 e4 eb 3d 9e 38 e4 3d bf 8c 23 bd 98 3f 03 be
       0.115181625 0.11143611 -0.039929148 -0.12817228
000160 fd 71 fd 3d de 19 31 3d 1a aa 02 be 7d 4c 9c bd
       0.12375257 0.04323756 -0.12760201 -0.076317765
000170 2c 5e 5e bd 27 1a 9a bd bf 6f 88 3c ba 7e 9e bc
       -0.054289028 -0.075245194 0.016654847 -0.019347537
000180 dd 07 e9 3d 5c 19 c6 bd b0 b8 87 bd 33 b9 56 3d
       0.11378453 -0.09672806 -0.06627023 0.052422713
000190 35 52 0a 3e 6c 81 84 bd a2 09 90 bd 30 07 42 3d
       0.13507922 -0.06469998 -0.07033087 0.047370136
0001a0 76 81 d3 bd d0 a2 bd bc a3 a2 a4 3c 98 25 00 be
       -0.10327427 -0.023148924 0.020097082 -0.12514341
0001b0 b9 e6 14 3d 6d d5 ad bd 7c 7a f9 3d f1 5c a0 bd
       0.036352847 -0.08487973 0.12181565 -0.07830227
0001c0 6d be 12 be 8e 4f d4 3d 75 c9 e1 3d 3d 9c 82 3d
       -0.14330454 0.10366736 0.11024753 0.06377456
0001d0 c1 3f db bd 8f 64 8e bd 12 b8 cc bd 49 f2 0d bd
       -0.107055195 -0.06952774 -0.09996046 -0.03465489
0001e0 a4 e6 d6 3c c6 8d e7 bd cc 87 83 bd bb 99 26 3e
       0.026233025 -0.11306338 -0.064223856 0.16269581
0001f0 24 a5 95 3d f9 09 1d bd ae 53 ee bd 5a b4 da bd
       0.07306889 -0.03833959 -0.116370544 -0.106789306
000200 f8 ce bf bd 0a 6e 8f bd 1c 37 e1 3d 03 4b cd bd
       -0.09365648 -0.0700341 0.109968394 -0.10024073
000210 6a 74 17 bc 13 3a 5f 3d 73 95 d3 3d 75 15 c0 3c
       -0.009244064 0.054498743 0.103312396 0.023447732
000220 96 df 02 be b0 12 92 bd 54 0d 2a bd bb 49 fa bd
       -0.12780604 -0.071324706 -0.041516617 -0.12221094
000230 9a 72 af 3d d7 55 b3 3d b2 ed 13 be 9c 37 97 bc
       0.085667804 0.08756607 -0.14446142 -0.018459134
000240 fb d0 03 bd 18 6c f4 3d 38 84 87 bd ac 28 a6 bd
       -0.03218172 0.1193468 -0.066170156 -0.08113226
000250 fe 16 84 bd 95 8c 22 bc db 61 ff 3d 4f 59 eb bd
       -0.06449698 -0.009921213 0.12469836 -0.11491644
000260 93 64 bb 3d 97 10 af 3d 10 64 99 3d 11 9f 65 bd
       0.091500424 0.08548086 0.074897885 -0.0560599
000270 45 3d b1 bd 29 28 8c 3b 69 b8 b0 3d 3e 13 95 bd
       -0.08654264 0.0042772484 0.086289234 -0.07279061
000280 a2 17 b9 bd a0 d2 73 3b 2a ac d5 3d 45 b7 a9 bd
       -0.09037711 0.00372044 0.10433228 -0.08286909
000290 44 85 d2 3c 9e f9 a5 bc 71 ff 0b bd de 24 c4 bd
       0.025698312 -0.020260628 -0.034179155 -0.09577344
0002a0 99 6a 12 3e bf d7 00 be 01 d8 1c 3e b4 37 cb 3c
       0.14298476 -0.125823 0.15316774 0.024806835
0002b0 8b 59 fa bd 30 06 12 bc 7d 3a b9 3c 79 d4 89 3d
       -0.1222411 -0.008912608 0.022610897 0.06729979
0002c0 50 cf ad bd 74 f2 63 b9 7e aa 9c 3c 90 cb a0 bc
       -0.08486807 -0.00021738728 0.019124266 -0.019628316
0002d0 55 67 64 bd e3 b4 b0 3d 0e 35 1e 3e 2b 33 10 3e
       -0.055762608 0.086282514 0.15449926 0.14082019
0002e0 99 e3 05 be 0f 96 e7 bd 2d fd d6 3c 73 e9 85 3d
       -0.13075103 -0.11307918 0.02624377 0.065386675
0002f0 e4 54 14 3e d6 d7 0a 3e e3 ed 40 bd 2a d1 ce 3a
       0.14485508 0.13558897 -0.047101866 0.0015778888
000300 ab b3 23 3d 80 2f d4 bc 9b 9c 62 bd 2e 62 91 3d
       0.039966267 -0.025901556 -0.055325132 0.070988044
000310 4e 55 5a bd 60 73 73 bd 8c 5f 1d 3e 8c d6 11 3e
       -0.05330401 -0.059436202 0.1536848 0.14242

lstm.weight_hh_l0 f4 [200, 50]
000000 01 0c ec bd 6d 79 b8 bd c0 35 97 bd 77 ec ac 3c
       -0.11525727 -0.09007535 -0.07383299 0.021108849
000010 6d c0 c9 bd 8c 16 97 3c 99 af 80 3d 46 04 f5 3c
       -0.098511554 0.018443368 0.062834926 0.029909264
000020 ce 71 0b bd c3 92 e8 3c cd 07 eb bd 2c f8 8a bd
       -0.03404408 0.028390294 -0.11476097 -0.06785616
000030 76 6c c5 bd f7 c1 e1 bd a1 26 77 3d 0a 4e 80 3c
       -0.09639828 -0.11023324 0.060339574 0.015662212
000040 09 7c 09 3d 04 95 8d bd 08 e9 bc bd 99 1c d7 bd
       0.033565555 -0.06913188 -0.09224135 -0.105035014
000050 e9 76 13 bc 3a 7e 31 bd aa 75 62 bd 00 f8 b6 3d
       -0.009000518 -0.04333327 -0.055287994 0.08934021
000060 03 65 0c 3e fa d0 94 bc bc de 69 3d 95 a6 90 bd
       0.13710408 -0.018166054 0.05709718 -0.07063023
000070 95 9a 6e 3c 1f b3 b1 3d 4c 37 08 3e ab 48 0c be
       0.014563222 0.08676743 0.13302344 -0.13699596
000080 c7 df 1d 3e 88 2b 8a bc 2d bc 08 bd b6 18 99 bd
       0.15417396 -0.01686646 -0.033382583 -0.07475416
000090 69 6e a2 bd 84 0c 20 bd 7a 6c cb 3d 53 c3 6b 3d
       -0.07931215 -0.039074436 0.099328 0.057559323
0000a0 c1 9f f0 3b 82 ba 97 bd 34 ff bb 3d aa f6 a3 3d
       0.007343263 -0.074086204 0.091795355 0.08006032
0000b0 9c a3 b6 bc 13 16 d9 bd 53 d2 2d bd 73 01 cd 3d
       -0.022294812 -0.105999134 -0.04243691 0.10010042
0000c0 0d 59 37 3d df 4d 53 bd d2 26 b3 3d 0a 92 9d bd
       0.04476266 -0.051587936 0.08747639 -0.0769387
0000d0 d8 88 fa bd c3 2c 7f bb 8f 1a 9b bd 44 81 11 3e
       -0.12233132 -0.0038936592 -0.07573425 0.14209467
0000e0 77 b8 b1 3b 12 9d b7 bd bc 09 1e 38 1f 43 0f 3d
       0.0054236013 -0.08965506 3.76792e-05 0.03497612
0000f0 85 97 b5 bc d4 dd a6 3d a8 15 a2 bd ad 51 d0 bd
       -0.022166977 0.08147779 -0.07914287 -0.101718284
000100 ed 2d de bd 78 d7 bf 3d 6e 69 0f be c2 ec 85 ba
       -0.108486034 0.09367269 -0.14005062 -0.0010217654
000110 87 af c5 3d 58 12 79 bd f2 d9 11 3e 8f 7e 80 bd
       0.0965262 -0.06080851 0.14243296 -0.06274139
000120 10 1d 19 bd d7 18 dc bc b3 9f ee bd a0 43 16 bd
       -0.03738123 -0.026867313 -0.11651554 -0.036685586
000130 63 f5 53 3c c9 40 da bd 08 a6 26 3d ed 25 db 3b
       0.012936923 -0.10656888 0.040685683 0.0066878707
000140 9d 1b 19 bd 92 bc ea 3d 29 4f 1c bd 8d 31 98 bd
       -0.03737985 0.11461748 -0.03816143 -0.07431326
000150 24 46 17 3e 4e dd de 3d a5 87 88 bd 88 ec 5c bc
       0.1477285 0.10882054 -0.06666497 -0.013484128
000160 d3 b4 e5 bd 3a 9e 78 3d 4a 34 25 3e 2a 54 a9 bd
       -0.1121613 0.06069777 0.16133228 -0.08268006
000170 ff 56 cb 3d b3 e5 7c bc 04 f8 11 be 42 95 34 bd
       0.099287026 -0.015435624 -0.14254767 -0.044087656
000180 9d 81 a4 bd 1a 68 93 3c bc 9f 01 be c8 61 ee 3d
       -0.08032534 0.017993975 -0.1265859 0.11639744
000190 73 42 dc 3c 38 4b 63 bd 72 5b e7 bd 01 23 a1 bd
       0.026887154 -0.055491656 -0.11296739 -0.078680046
0001a0 a4 9d 36 bd eb 17 f2 bd b2 b0 8d bd 76 0d f4 3d
       -0.04458393 -0.11820968 -0.069184676 0.1191663
0001b0 04 82 11 bd 4e 99 75 bd 8d 33 e7 3d 89 a0 bd 3c
       -0.035524383 -0.059960656 0.112891294 0.023147838
0001c0 64 fe 5c 3d ad ac 1a 3d 67 b9 9f bc f0 18 c2 bd
       0.053953543 0.037762333 -0.019497586 -0.09477413
0001d0 f8 af 76 3d 2d 87 c5 3c 24 3d ef 3d 71 8f 9f bd
       0.06022641 0.024112308 0.116815835 -0.07791031
0001e0 b1 a7 e6 bd 96 cf 85 bd bd 59 30 bd 8f 8a 0b 3d
       -0.11262453 -0.065337345 -0.04305433 0.034067687
0001f0 af 0c dc bd 6d 22 24 3d ab 34 46 bd 19 f5 df bd
       -0.10744607 0.040071893 -0.04839007 -0.109354205
000200 0d 44 ff 3d 18 71 f3 3c 31 03 e6 bd c2 34 be 3d
       0.124641515 0.029717013 -0.112310775 0.092874065
000210 5b 3d ff bd 5d f1 8f bd d7 29 ef 3d 1a 32 43 bd
       -0.124628745 -0.07028458 0.11677902 -0.047655202
000220 28 22 ed bd 6d 1c fd 3d 5e 4b ff bd 69 02 91 3d
       -0.115787804 0.123589374 -0.12465547 0.07080538
000230 33 78 0d bc f8 b0 e8 bd e0 c2 98 bd 0d 76 d2 bb
       -0.008634615 -0.11361879 -0.074590445 -0.006422764
000240 e9 02 2f bd 8c 89 7f 3d ec 30 f7 3d 1e da 80 3c
       -0.042727385 0.062387034 0.12069878 0.015729006
000250 cf 1e c8 3d 1c f7 08 be 17 e7 3a bd 9b ef 0c be
       0.09771501 -0.13375515 -0.04563054 -0.13763277
000260 c5 ec 8b 3d 49 c6 10 be 7b d1 f5 3d 35 f0 5e 3c
       0.068322696 -0.1413814 0.12002846 0.0136070745
000270 fd 4e ea 3d 6e a0 db 3d 60 e8 07 3e c9 b7 9c 3b
       0.11440847 0.10723959 0.13272238 0.004782651
000280 62 6a 92 bd a3 1e 09 3d 86 6c 4b 3d 5e eb ff bd
       -0.07149197 0.033476483 0.049664043 -0.124960646
000290 c7 58 01 3e 9f d1 15 3d a5 5a 2a 3c 35 1c 11 3d
       0.12631522 0.036576863 0.010397588 0.03542729
0002a0 d6 5b a8 3d 1a ec fe bd 04 82 b7 bd a6 9f b4 ba
       0.08220641 -0.124473765 -0.089603454 -0.0013780489
0002b0 ee 4e 9f bd aa 97 af 3d 2e db 9d bd 27 99 c7 bd
       -0.077787265 0.085738495 -0.07707821 -0.09746008
0002c0 de bd 6f 3c dd 25 a5 bd cc ef 60 bd 28 94 98 3d
       0.01463267 -0.080638625 -0.054916188 0.074501336
0002d0 b3 e2 4d bd 69 cb b3 3d d4 32 84 3d e8 61 e6 bd
       -0.050265025 0.08779032 0.06455007 -0.11249143
0002e0 8a cc e7 bd fa 24 45 3d 37 1f e0 3d 7c bb b5 bd
       -0.113183096 0.048130967 0.10943454 -0.088736504
0002f0 8b 8c 1a 3e dc 28 dc bd 08 ec 49 3d a4 28 20 bd
       0.15092675 -0.10749981 0.049297363 -0.039101258
000300 92 76 81 3d cd 66 80 3c 36 a2 93 3d bc 54 c5 bd
       0.063214436 0.01567402 0.07208674 -0.096353024
000310 0c 4d b5 3c 7d 35 45 3a 87 8f 80 3d c3 05 cf bd
       0.022131465 0.0007522924 0.06277376 -0.10108521
000320 1a 6d da bd 94 cb 24 3e a6 c4 bc 3c 46 f0 9d bd
       -0.10665341 0.16093284 0.023042988 -0.07711844
000330 00 c1 8d 3d 06 c2 49 3d 91 ac a1 3d e4 ee e6 3b
       0.069215775 0.0492573 0.078942426 0.007047521
000340 4e e8 12 be 1c e3 84 ba 30 40 c0 bd 65 b7 0d be
       -0.1434643 -0.0010138485 -0.09387243 -0.1383949
000350 81 4d 02 be c8 39 b7 3d 48 92 2a 3d 28 0f fc bd
       -0.12724878 0.08946568 0.04164341 -0.12307578
000360 5f 3b ec bd 7b c5 d9 3d 63 82 ec bd d9 72 a1 3d
       -0.11534762 0.106333695 -0.11548307 0.078832336
000370 e4 71 0f 3e 2e 06 35 3d 9f e9 c7 bd 48 bf 97 bd
       0.1400829 0.044195347 -0.097613566 -0.07409531
000380 2a 79 f6 bc 12 14 0f be 50 4d b1 3d 2c 2b f0 bc
       -0.030087072 -0.139725 0.08657324 -0.029317461
000390 4d 29 e3 bd 28 9a 03 3e 45 88 cc 3d 7a 17 a3 3d
       -0.11091862 0.12851775 0.09986929 0.07963462
0003a0 e6 3b 19 3e 94 a8 14 3e c4 8b 5b 3d 43 81 9e 3b
       0.14964256 0.14517432 0.053600088 0.0048371865
0003b0 b5 dd f7 bd f1 38 c3 bd dc 85 01 bd 69 ad 7e bd
       -0.12102834 -0.09532345 -0.0316218 -0.062177096
0003c0 9f 0b 2c bd ba a5 12 3e 67 2d 03 be 2b 63 b3 3d
       -0.04200327 0.14321032 -0.12810288 0.08759149
0003d0 75 57 8f bd 32 a0 ca bb 9f 6a 7f 3c e1 cb 0a be
       -0.06999103 -0.0061836476 0.015589385 -0.13554336
0003e0 5f e9 a8 3c 23 22 d4 3c 95 d8 e2 bd 76 1f 05 be
       0.020619093 0.025895184 -0.11076466 -0.13000283
0003f0 c4 e8 14 3d 78 ff 8d 3d d4 6b ee 3d e0 2b 99 bc
       0.036354795 0.069334924 0.1164166 -0.018697679

lstm.bias_ih_l0 f4 [200]
000000 54 10 0b 3e b9 f1 15 3e c2 c3 7c bd f6 ac 93 bd
       0.13580447 0.14642991 -0.061710127 -0.07210724
000010 7a 14 91 bd 8e be 8b 3d 3e 59 9c bd d8 a5 d6 3d
       -0.07083984 0.06823455 -0.07634209 0.10480851
000020 63 84 cc bd 53 62 a5 3d 58 0a b0 bd 36 d5 86 3d
       -0.09986188 0.080753945 -0.08595723 0.065836355
000030 f2 b8 bf bd 66 8e 89 3d 4e 9d e3 3d e6 33 b5 bd
       -0.093614474 0.067166135 0.11113988 -0.088477895
000040 d1 d4 36 3d ae 7b ad bd d5 b8 97 bd d0 42 e4 3d
       0.04463655 -0.08470856 -0.07408301 0.11145556
000050 9c 3d 18 3e 6b db 25 3e c1 4b f8 bd c6 53 25 3e
       0.14867252 0.16196983 -0.12123824 0.16145238
000060 01 fc 66 3d 1a 92 ee 3d ff 48 a0 bd 72 2a 8e ba
       0.056392673 0.116489604 -0.07826423 -0.001084639
000070 f8 79 ad bd 40 bd 55 bc d4 eb b9 bd 5a c9 d5 3d
       -0.08470529 -0.013045609 -0.09078184 0.104387954
000080 bc 33 d7 3d 75 ab 3c 3c 59 e6 de 3d a1 ee 1e 3e
       0.105079144 0.011515488 0.10883779 0.15520717
000090 ed 23 45 3c f6 78 07 3d e0 7b 05 bc 18 61 d2 bb
       0.012032491 0.03307434 -0.00814721 -0.006420266
0000a0 bf 57 62 3d f5 09 f3 bb 82 ae be bd cb 8f 84 3c
       0.055259462 -0.0074169585 -0.093106285 0.016181847
0000b0 cb 69 f1 3d 69 0d 54 bb f1 60 04 3e 21 a4 d2 3d
       0.117877565 -0.0032356626 0.12927605 0.10285211
0000c0 a7 58 80 3d 87 1b f8 3d 12 e6 17 bd b2 2a 14 3d
       0.06266909 0.121146254 -0.037084647 0.03617353
0000d0 0a 19 53 3c 8e ce be bd a1 d6 47 3c c8 30 86 3d
       0.012884388 -0.09316741 0.012197168 0.06552273
0000e0 52 95 11 3d 7b cf d7 3d a5 67 9c bd 05 de 6a bd
       0.035542794 0.10537621 -0.07636956 -0.05734064
0000f0 5c 8a 95 3d cd 55 4b 3d 7e fd 39 bd 29 2d 7f 3d
       0.073017806 0.049642373 -0.045407765 0.062298927
000100 6d 5f 0f 3b 2f aa ee bd a1 8e 09 bc f0 ad 5c bc
       0.0021876947 -0.11653554 -0.008395822 -0.013469204
000110 9c f5 1f 3e 41 c2 03 bc 18 56 0c 3e 5e 0d c7 bd
       0.15621036 -0.008041919 0.13704717 -0.097193465
000120 80 77 b8 3d bc 07 ae bd b5 a5 75 bc 3f c1 0e 3d
       0.09007168 -0.08497569 -0.014993121 0.034852263
000130 dc 17 ef bc 5d 75 a7 bc 83 22 dd 3d 3c 3c 0d 3e
       -0.029186182 -0.020441705 0.10797598 0.13792509
000140 a6 ad 6b bc 0b 8d f2 bd cd 32 32 bd 5c 09 e4 3d
       -0.014384663 -0.11843308 -0.04350548 0.11134598
000150 5b 2e 65 3c c5 8c b3 bc 1e 18 e0 bd 93 2d 64 bd
       0.013988103 -0.02191771 -0.109421 -0.055707525
000160 87 c1 a6 3d f9 d7 a5 3d dc b4 d4 3d 2e 64 86 bd
       0.08142381 0.08097834 0.10386059 -0.065620765
000170 7e 0d 06 3e f5 e9 90 bd 93 7a f9 bc d9 8c 1c bd
       0.13091084 -0.07075874 -0.030453956 -0.03822026
000180 23 49 09 3e fe 2c 0e 3e 8d 25 7b bd 72 70 74 bd
       0.13406806 0.1388435 -0.061315108 -0.05967755
000190 5f 35 95 3c c6 27 84 ba 17 5b c7 3d 6f 81 ac 3d
       0.018213926 -0.0010082654 0.09734171 0.08423125
0001a0 ec a7 0c bd d7 db 11 3e 01 37 80 bd 04 15 52 3a
       -0.03433983 0.14244018 -0.06260491 0.0008013996
0001b0 c0 1d 0f 3c a6 66 e0 3d 43 21 23 bd 01 4a e6 bd
       0.00873512 0.10957079 -0.039826643 -0.11244584
0001c0 79 19 68 bd dc 52 fb bc ee c3 f1 bb 3a d2 7d bd
       -0.056664918 -0.030679159 -0.007378093 -0.061968066
0001d0 42 58 91 bc cc 55 f6 bd 6a 9f a0 bc db 14 07 3c
       -0.01774228 -0.12028083 -0.019607265 0.008244718
0001e0 3a 3b 0e 3e df ab 0d be cc 4d 96 3d f3 91 0b 3d
       0.1388978 -0.13835095 0.07339057 0.034074735
0001f0 6f bd 22 39 a7 e0 0b bd 65 16 fe 3b 8c ea f2 bd
       0.00015520093 -0.034149792 0.0077541345 -0.118611425
000200 68 82 0c 3e b5 be 04 3e ca 5e c0 3d 63 b2 9c 3d
       0.13721621 0.12963374 0.093930796 0.07651212
000210 a6 da 9b 3d e3 9c fe 3d 1b 5b 83 3d a1 ac 89 bd
       0.07610063 0.124322675 0.06413861 -0.067223795
000220 6e 47 56 bd 5b 9c 02 be f7 b6 c0 3d b1 8f 37 bd
       -0.052314214 -0.12754957 0.09409898 -0.04481477
000230 89 ef e5 3d fb b3 0f 3e b1 ef f7 3b bb f5 02 3e
       0.11227328 0.14033501 0.0075664152 0.12789051
000240 88 db c2 3d 4d b9 15 be cb f3 7c 3d 8a e5 84 bc
       0.095145285 -0.14621468 0.061755937 -0.016222734
000250 71 94 d4 bd 79 af 21 be af 92 8d 3d 6f 39 05 3d
       -0.103798755 -0.15789594 0.06912743 0.032525476
000260 00 de eb bd 60 9b 9c 3d d3 9b 27 bd 49 37 a2 bd
       -0.115169525 0.07646823 -0.04092009 -0.07920701
000270 52 dc e1 bd c6 1b ec bd d8 7d 9e bd 02 aa c4 bd
       -0.11028351 -0.11528735 -0.077388465 -0.09602739
000280 08 a3 4a 3d 3a e6 da 3d 2c 21 03 be 87 d0 71 3d
       0.049471885 0.106884435 -0.12805623 0.059036758
000290 64 a0 8a b9 20 9c f4 bd 6c 91 52 3d 0f a9 c9 bd
       -0.00026440911 -0.11943841 0.051408216 -0.098466985
0002a0 89 a9 c1 ba 54 3c 0a be c0 41 ea bd 8d d0 a7 3d
       -0.0014775257 -0.13499576 -0.11438322 0.08194075
0002b0 14 fd a9 3d 33 f6 26 3e cb cd 09 3e 2b 35 b6 bd
       0.08300224 0.16304855 0.1345741 -0.0889686
0002c0 5e 11 a3 bc 60 bf 86 3c 13 78 c9 3c ba 15 02 3e
       -0.019905742 0.016448677 0.024593389 0.127036
0002d0 27 8d 24 3e 6b f9 d7 bd fd c1 c5 3d 80 d5 b6 bd
       0.1606947 -0.105456196 0.09656141 -0.08927441
0002e0 63 66 d2 3d ec ea b9 3d 29 e3 9d bd 71 4f e7 3d
       0.10273435 0.09078011 -0.07709343 0.11294449
0002f0 48 30 af bd b8 01 fc 3c 23 ab a4 bd cf 44 91 3d
       -0.08554131 0.030762538 -0.08040454 0.07093202
000300 c4 7a 91 3d ba 77 fc 3c 2d b9 ed 3d a8 04 3b 3d
       0.07103494 0.030818809 0.11607585 0.045658737
000310 02 6d 17 3e fb 57 22 3e da 0d a5 3d 6a 7f d1 bd
       0.14787677 0.15853874 0.080592826 -0.102293804

lstm.bias_hh_l0 f4 [200]
000000 31 a8 df bb 1d 0c b3 bd 23 93 b3 bc ae 21 fb bd
       -0.00682547 -0.08742545 -0.021920746 -0.12262283
000010 c0 47 30 3c 54 f2 ec 3d 67 4a c0 bd 20 2b 00 be
       0.010759294 0.11569658 -0.09389191 -0.12516451
000020 4e 15 23 bd ee 88 a0 bd 8f 6b 17 3e a1 4c 14 bd
       -0.03981524 -0.07838617 0.14787124 -0.03620589
000030 89 a8 0a bc c9 3f 03 3e f7 b3 3c bd b6 3d e5 b9
       -0.0084630335 0.12817301 -0.046070065 -0.00043724262
000040 a0 3f b4 bd 52 ce 49 3b 5e dc c9 bb 75 34 a4 bd
       -0.08801198 0.0030793143 -0.006160303 -0.08017818
000050 2d a7 9c 3c 0c 02 cd bd 49 83 7d 3c 01 2a 91 bd
       0.019122684 -0.10010156 0.015473195 -0.0708809
000060 be 36 db bd 2b d9 b5 3d 06 bf c2 3d f1 aa e9 bb
       -0.107038006 0.08879312 0.09509091 -0.0071309735
000070 55 03 c6 bd 27 7e 85 bd 24 95 a9 3d 7d 36 b1 bd
       -0.09668604 -0.06518202 0.082803994 -0.08652971
000080 01 50 1b 3e 85 5c f7 bd 18 8f 0e 3d 8a 73 5d bd
       0.15167238 -0.120781936 0.034804434 -0.054065265
000090 2f 4d 93 bd b2 5f a7 3d cb 3c 00 3e 0e 85 9a 3d
       -0.07192456 0.08172549 0.1252319 0.075449094
0000a0 59 a9 87 bc ec d0 95 bd 84 6c f5 b9 b3 df 95 bd
       -0.016560243 -0.07315239 -0.00046810892 -0.07318058
0000b0 ce 21 b3 3c 00 e8 de 3d e4 f7 72 3d 58 53 99 bd
       0.021866705 0.10884094 0.05931844 -0.074866
0000c0 18 81 30 3b 12 12 9c bd 6c 57 95 bd 3e 5f 4f bd
       0.0026932415 -0.07620634 -0.07292065 -0.05062794
0000d0 be 51 01 be d3 e5 cb 3d 14 8a 99 bd c8 1d 87 3c
       -0.12628838 0.09955945 -0.074970394 0.016493693
0000e0 ae c8 4d bd ae 03 8f bd 3d 2b df 3d 58 c6 97 3d
       -0.05024021 -0.06983124 0.10896919 0.07410878
0000f0 4d 53 e9 3c f7 54 fb 3d e8 f4 98 bb 70 9b 7b 3d
       0.028482104 0.12272065 -0.004667867 0.061427534
000100 37 6d 5c 3d f2 30 3b 3c 0f 0e 0b 3d 06 ba 1a 3e
       0.053815093 0.011425244 0.033948954 0.15110025
000110 30 53 95 3c a4 3c 81 bc 8a f9 96 bd 6a 09 e4 bd
       0.018228143 -0.015775986 -0.073718145 -0.11134608
000120 66 eb 0f 3e e3 1d 23 3e e6 2e cb 3d b3 49 3b 3d
       0.14054641 0.1592937 0.099210545 0.045724582
000130 98 b5 ac 3c 56 c8 3e bc 0b ae 31 3d 85 60 bb bd
       0.021082684 -0.0116444435 0.04337887 -0.09149269
000140 75 bf e5 3c e1 32 a9 3d 59 6a 8b 3d f3 a4 b0 bd
       0.028045395 0.082616575 0.068073936 -0.086252116
000150 df e3 14 bd 7e 07 af bd 59 ad 9b bd 1a 68 1e 3d
       -0.036350127 -0.08546351 -0.07601423 0.038673498
000160 ef ac b6 bc 26 43 ab bd c3 0e e9 bd 2a 03 d8 3b
       -0.022299258 -0.08362417 -0.11379769 0.006592174
000170 19 71 fe bd ee 72 58 bd 04 bd e5 ba 99 24 22 3d
       -0.124239154 -0.05284398 -0.0017527645 0.039585683
000180 d8 62 d8 3c de 3e 6a 3d 8e 19 11 3d 64 ce 5e bd
       0.02641432 0.05718886 0.03542476 -0.05439605
000190 6e 83 b8 b9 62 32 26 3e b4 12 59 3d 34 aa 64 3d
       -0.00035193138 0.16230157 0.052996352 0.05582638
0001a0 61 bb 8b 3d 4b 5e 9e bd 10 96 7d bc da 4a 55 bc
       0.06822849 -0.07732829 -0.015477672 -0.013018334
0001b0 af 11 bc bd 30 af 8e 3d 96 3d 26 3e f3 01 c8 bd
       -0.091830604 0.06967008 0.1623443 -0.09765997
0001c0 ed a9 15 bc 93 cf ec bd 33 96 0f be 0c 5b a2 bd
       -0.009134752 -0.11563029 -0.1402214 -0.07927522
0001d0 b8 3c 1c be 60 7e b7 bd 17 1c 17 be 71 c3 d8 3d
       -0.15257537 -0.08959651 -0.14756809 0.105841525
0001e0 4f 09 a7 bc 53 d1 a6 bc cf 33 52 3d 6f b1 03 3e
       -0.02039018 -0.020363485 0.05131894 0.12860654
0001f0 40 2f b8 3c b9 fd 82 bd f7 b0 be bd e8 78 21 be
       0.022483468 -0.0639605 -0.09311097 -0.15768778
000200 3b af c2 3d a5 91 23 3e 8b 07 2f 3d fb 5f 85 bd
       0.09506079 0.15973528 0.042731803 -0.065124474
000210 a3 b8 e1 3d 95 76 ea bd 13 10 f6 bc 71 dd f8 bd
       0.11021545 -0.11448399 -0.030036962 -0.121516116
000220 3f f0 c7 3d 37 dd 1d 3d 09 bd f3 bd 39 76 d9 3d
       0.0976262 0.038541045 -0.1190129 0.10618252
000230 bd c0 d8 bd 49 a8 8c 3d 3f e3 6c bd 73 78 0e 3e
       -0.10583637 0.06868035 -0.057833906 0.13913135
000240 fd cd 1d be 77 4a b1 bc dd 3c d7 3d b7 71 59 b9
       -0.1541061 -0.021641953 0.105096556 -0.00020737095
000250 7f a8 86 bd 5b 9a c0 3d d6 31 cb bd 58 34 dd bc
       -0.06575107 0.09404441 -0.09921615 -0.027002499
000260 55 8f 3c bc f0 e4 e8 bd 0f 79 2c bd 4f 20 90 bd
       -0.011508782 -0.11371791 -0.042107638 -0.070374124
000270 d4 d7 b8 bd 6f fb 0e 3e c8 b7 8b 3d b9 0d 36 bd
       -0.09025541 0.13963102 0.06822163 -0.04444668
000280 e8 4d f0 bd 0e b7 73 bd 1e 85 6b 3d 18 e0 14 be
       -0.117336094 -0.059500746 0.057499997 -0.1453861
000290 19 5f f3 bd 0e d5 a9 3c c4 29 6d 3d 57 13 c7 bd
       -0.11883373 0.020731475 0.05790116 -0.09720486
0002a0 53 ed 34 3d 31 95 e5 bd 3b b9 5a bc 74 88 3f 3d
       0.044171643 -0.11210097 -0.013349826 0.04676099
0002b0 e1 ba 0e 3e 36 d2 be bd 88 f3 51 bd 6f 49 1d bd
       0.13938476 -0.09317438 -0.05125764 -0.03840011
0002c0 13 e8 b2 3c 07 06 03 3d 26 52 1d bc 5f b1 91 bd
       0.021839177 0.03198817 -0.009602105 -0.07113909
0002d0 57 01 e8 3c dc ea 83 bd 55 e7 9c bd b0 ea ae bd
       0.028320951 -0.0644128 -0.076613106 -0.08540857
0002e0 54 d2 97 3b 86 85 38 ba 06 57 51 ba 61 bf a8 3d
       0.0046332274 -0.00070389395 -0.0007985685 0.08239628
0002f0 89 04 33 3c 7d ff 9e bd a2 60 83 bd b7 57 bf bd
       0.010926374 -0.07763574 -0.064149156 -0.09342902
000300 62 77 1f bd 8b 7e db 3c 95 d1 16 bd ca cd 73 bd
       -0.03893221 0.026793739 -0.036820967 -0.059522428
000310 a4 43 2d bb 60 e3 e9 bc 15 26 7b 3d de 0e 28 3d
       -0.0026438022 -0.028550804 0.061315615 0.041029803

lstm.weight_ih_l1 f4 [200, 50]
000000 b6 ff f9 bd 65 98 b8 bd 08 5a 1b 3e a3 fb bc 3c
       -0.12206976 -0.09013442 0.15171063 0.023069208
000010 fc da c6 3d da 0e e9 bd 72 43 83 bd 3e 2a 03 3e
       0.09709737 -0.11379786 -0.064093485 0.12809083
000020 f6 7a b7 3d 8f 96 07 be fe 09 b5 3d 91 d0 47 bd
       0.08959 -0.13241027 0.088397965 -0.04878289
000030 17 7e f6 bc e8 55 64 bd 09 f2 51 bd 56 6b 97 bd
       -0.030089421 -0.05574599 -0.051256213 -0.073935196
000040 1e d4 ce 3d 4a 83 0d 3e 3d 03 a9 bc da 67 08 bd
       0.10099052 0.13819614 -0.020631427 -0.033302166
000050 fc 90 98 3c e7 87 04 bc d1 c8 9e bd 25 ce 9c 3d
       0.018623821 -0.008089042 -0.077531464 0.076565064
000060 15 31 64 bd 58 a0 1a 3d a3 33 8d bd c7 cc c5 3d
       -0.05571087 0.037750572 -0.068946145 0.09658199
000070 ea 8b 97 3d b8 4a f7 bb 02 fb f5 bd 81 4f b9 bd
       0.07399733 -0.007546749 -0.120107666 -0.09048367
000080 e0 2c e8 bc de cf ad bc 22 04 b7 3d 25 ac 72 3d
       -0.02834171 -0.021217283 0.08936335 0.0592462
000090 2f ca 0c be 0c a6 ce bc 90 d3 a9 3d 27 9c 18 be
       -0.13749002 -0.025225662 0.082923055 -0.14903317
0000a0 75 44 7f bd cb ef a6 3d 4d 5a 0d 3e fc 59 0c 3e
       -0.062321145 0.08151206 0.13803978 0.13706201
0000b0 b3 5e 8f 3d b1 4d 81 bd a7 3f e2 bd c9 ec e1 bc
       0.07000484 -0.063136466 -0.11047297 -0.027578728
0000c0 0d c4 d1 3c 43 b8 ab bd c1 3d 8a bd 52 a2 b8 bd
       0.02560618 -0.083847545 -0.0675006 -0.09015335
0000d0 1a da ca 3d 31 03 be bd ae 4a ce bd cb 8e 19 3d
       0.09904881 -0.092779525 -0.10072838 0.037489694
0000e0 3a 80 39 3d 1a 91 6e bd d2 ad ed bc 7d 7e ab 3c
       0.045288302 -0.05824385 -0.029013548 0.020934338
0000f0 12 a6 82 bd 9e 87 0e 3d 3a 60 cd 3d 7c 3e 9f bd
       -0.06379332 0.034797303 0.100281194 -0.0777559
000100 6e 34 96 bd b5 d1 5c bd 47 66 0f be 5d ad 05 bd
       -0.07334219 -0.05391093 -0.1400386 -0.032636035
000110 a1 7c 2c 3c 1f b4 04 3e 25 23 c4 3d 97 fa 1d be
       0.010527761 0.12959336 0.09577016 -0.15427624
000120 c8 7e 01 bd 9e 86 f1 3d 9d 23 32 3d db 25 fb ba
       -0.03161505 0.11793254 0.043490995 -0.0019161062
000130 cf e5 da 3d 27 bd 11 bd 68 e7 bb 3c e5 c0 93 bd
       0.10688364 -0.03558078 0.022937492 -0.07214526
000140 f2 ae d0 3d fc ae 08 bc 3f 5a c9 bd f3 74 0c 3e
       0.10189618 -0.008342501 -0.09831666 0.13716488
000150 74 06 94 bb a6 b9 b5 3d e2 6d 1a be f0 b0 7e 3d
       -0.004517371 0.088733 -0.1508098 0.06218046
000160 90 b2 d7 3d d3 68 f4 3c ac b5 f8 3d 4d 03 17 bc
       0.10532105 0.02983514 0.12144026 -0.009217096
000170 a3 80 a4 3d c7 c1 fa 3c 90 80 40 3c 5e 85 10 be
       0.08032348 0.030609978 0.011749402 -0.14113376
000180 70 57 e3 bd 25 8f 08 be 52 65 c5 bd 16 de 24 be
       -0.11100662 -0.13335855 -0.09638466 -0.16100344
000190 8d f4 90 3d 7f 4b 56 3b 2b 4b c4 bd da 4c c8 bd
       0.07077894 0.0032698808 -0.0958465 -0.09780283
0001a0 bf 45 ba bd 61 28 7d 3c c9 8b 13 3d ae 98 e5 3c
       -0.09095334 0.015451522 0.03602198 0.028026905
0001b0 05 8e 8f 3d af ce 1a 3c b6 bf ab 3d 72 0d 90 bd
       0.0700951 0.009448691 0.08386175 -0.070338145
0001c0 c8 ba ec 3d bb f1 80 bd 5a c0 7b bd fd 36 5f bd
       0.11559063 -0.062961064 -0.061462738 -0.0544958
0001d0 46 b9 3c 3d 07 56 97 3d a5 d3 d0 3d a1 29 51 3d
       0.046075128 0.07389455 0.10196618 0.05106509
0001e0 26 64 f1 3b 7c f6 c5 3d 60 3c 92 3d 9c eb ae bd
       0.007366675 0.09666154 0.07140422 -0.08541033
0001f0 59 fe 02 bc 3a 61 c5 3c f5 a1 f0 bd ea e6 96 3b
       -0.0079952115 0.024094213 -0.11749641 0.004605164
000200 db dd 63 bd 37 06 f4 3c 65 3f dc bc bf 43 99 3b
       -0.0556315 0.02978812 -0.026885698 0.0046772654
000210 44 a0 5b bb e6 12 0b 3e 08 2a a0 3d 91 a4 75 bd
       -0.0033512274 0.13581428 0.07820517 -0.059971396
000220 f9 4d 00 be e8 19 03 be c2 38 f5 3a 4f f7 a3 3d
       -0.12529744 -0.12802851 0.0018708932 0.08006155
000230 ad 8b a9 3d f4 1b 7a 3c c0 c0 c4 bd 3d bb 2b 3c
       0.08278594 0.015265454 -0.09607077 0.010481653
000240 f2 4c fa bd fd 83 ea 3d 8c 53 2a 3d f4 0f d4 3d
       -0.122217074 0.11450956 0.041583583 0.10354605
000250 cc e2 14 be e7 1b c5 bd a3 0d 05 3e 8e 9f c8 bd
       -0.14539641 -0.096244626 0.12993483 -0.09796058
000260 b2 10 34 bd 15 9d 91 3d 20 e0 d0 3d 3d 41 02 bc
       -0.043961234 0.07110039 0.101989985 -0.007950124
000270 32 ea 20 3c 3e 21 27 3d 41 a5 84 bd 1e 29 06 3e
       0.0098214615 0.040803187 -0.06476832 0.13101622
000280 dd a9 cc 3d 47 12 99 bd 0d 86 57 bd e6 c3 d1 3d
       0.09993336 -0.07474189 -0.052618075 0.10242443
000290 bb 4d d4 3c 99 30 21 be 00 f3 9a bd 33 04 66 bd
       0.025915971 -0.15741195 -0.0756588 -0.05615635
0002a0 2e ac eb 3c 92 b4 a2 bd c1 26 94 bd 8b 09 05 be
       0.028768625 -0.07944597 -0.07233954 -0.12991922
0002b0 81 44 fa 3c b9 f3 65 bd 13 2c 4b 3c 81 57 5a bd
       0.030550243 -0.056140635 0.012400645 -0.053306106
0002c0 c3 e4 b5 bd ad 78 d1 bd ff 2f 0c bd de 7d 55 bd
       -0.088815235 -0.10228095 -0.03422546 -0.05212199
0002d0 6e ae ba 3b 2b fb 91 3c c2 6c e1 3d e6 0e d8 3d
       0.005697063 0.017819962 0.11007072 0.10549717
0002e0 28 10 04 3e 93 8a 18 bd 5f 28 65 3d cc fd dd 3d
       0.12896788 -0.03724153 0.055946704 0.108394235
0002f0 04 0a 9e 3d d5 06 19 be 32 27 13 3e 33 df 15 3d
       0.07716754 -0.14944012 0.1437042 0.036589812
000300 a8 8f f8 3d c1 68 93 bd 26 8b 52 3d aa d0 bd 3a
       0.12136775 -0.071977146 0.051402234 0.0014481742
000310 8a e0 11 bb 2d c4 3a 3d a5 69 99 bd 4b 14 0e be
       -0.002225908 0.045597244 -0.07490853 -0.13874929
000320 3f 34 08 be 7f d6 0c be 5b 70 0a 3c 93 66 d9 3d
       -0.1330118 -0.13753699 0.008449639 0.106152676
000330 14 01 bf bd 84 79 63 bd 4c 71 00 bd 4a 76 81 bd
       -0.093263775 -0.05553581 -0.03135805 -0.0632139
000340 9c 92 dd 3b 1c ae 7d 3d 4e 3b db 3d 87 96 f1 3d
       0.006761862 0.06193362 0.10704671 0.11796289
000350 a6 a4 cf 3c 75 fc 08 3e d7 c4 c5 bd 9d 28 6e bd
       0.025347065 0.13377555 -0.09656685 -0.0581442
000360 02 74 db 3d 19 a6 c1 3c b5 4d 6a bd df ec 6f bd
       0.10715486 0.023638772 -0.057203013 -0.058575507
000370 f1 53 00 3e 8a 8d f6 bd 97 16 f9 bd bc f5 4e bd
       0.12532021 -0.12038715 -0.12162512 -0.05052732
000380 2c 54 4e 3d 9a fe 1f bd 06 94 bd 3d da 6d d0 bb
       0.05037324 -0.039061166 0.09256749 -0.0063607516
000390 fc fa fa 3c 9d ae f7 3d 9f ba 7a bd b7 64 af bd
       0.030637257 0.12093852 -0.061213132 -0.08564132
0003a0 89 10 03 be 97 df a1 3c cc c4 ef 3c d4 c5 15 bc
       -0.12799276 0.019759936 0.029268645 -0.009141404
0003b0 94 3e d7 bc 1a a7 92 bd 49 60 ef 3d 00 0e 02 be
       -0.026274957 -0.07160778 0.11688287 -0.12700653
0003c0 31 24 00 be e0 c0 d6 bd 77 c5 0d 3e 8c 4e 8b bd
       -0.12513806 -0.10486007 0.13844858 -0.06802091
0003d0 c3 5a 73 3d 72 13 ef bd c5 5d 0d be 02 7f 14 3d
       0.05941273 -0.11673631 -0.13805301 0.036253937
0003e0 94 3f 61 bc dc 52 78 3d f2 77 5d bd 4a e9 98 bd
       -0.013748068 0.060625896 -0.054069467 -0.07466371
0003f0 62 54 03 be 51 d0 0c 3e be d7 15 be 60 bf 1e 3d
       -0.12825158 0.13751341 -0.1463308 0.03875673

lstm.weight_hh_l1 f4 [200, 50]
000000 5f b2 bd 3d 88 07 2d bd dc d3 48 bd ff 9e b4 3d
       0.09262537 -0.04224351 -0.04903017 0.088193886
000010 9a e7 e1 3d 14 5f 80 bc 70 48 db 3d 1e ab 55 3d
       0.110305026 -0.015670337 0.10707176 0.052165143
000020 f2 e4 55 bd 15 0b 8f 3d 35 d0 02 3d 21 d0 a8 bd
       -0.052220292 0.069845356 0.031936843 -0.082428224
000030 57 0c 8e bd fb 26 fd bc bc 38 d0 3d c2 41 60 3d
       -0.069359474 -0.030902376 0.10167071 0.05475021
000040 8d df 80 3d 03 86 96 3d 51 50 76 bd e7 c0 67 bd
       0.06292639 0.073497795 -0.06013519 -0.05658045
000050 7b 6c 10 bd 4c 97 2c 3d 22 4a c0 3c 1d dc e0 3d
       -0.035259705 0.042136475 0.02347285 0.10979483
000060 ca c1 85 3d 2d 10 c1 bc 54 03 0c be 66 5d e7 bd
       0.06531103 -0.023567284 -0.13673145 -0.11297111
000070 c8 c0 f6 3d 6d e8 13 3c 2b d7 91 3d 1b b3 90 bd
       0.12048489 0.009027583 0.07121118 -0.07065412
000080 7c 59 30 bd 2d 5d 95 bd 65 c3 b2 3c 58 91 43 3a
       -0.04305409 -0.072931625 0.021821687 0.00074603176
000090 bc 24 a9 bd d1 1e 11 be b1 e4 af 3d e8 e5 07 be
       -0.0825896 -0.14171912 0.08588541 -0.13271296
0000a0 2a 82 bc 3d 3a 57 c4 3d 01 0c 07 be e7 92 f2 bd
       0.09204514 0.0958695 -0.13188173 -0.11844426
0000b0 4e b3 a3 3d 3b e0 e1 bd f4 03 0f 3e ad 5a c9 bd
       0.07993184 -0.11029097 0.13966352 -0.09831748
0000c0 32 62 1b bd 11 87 7b 3b 73 50 bf bd 34 30 d2 bc
       -0.037935443 0.0038380066 -0.09341516 -0.02565775
0000d0 4a 94 e2 3d 42 c6 d2 bd 2b e5 04 3b c9 e0 a0 3d
       0.1106344 -0.10291721 0.0020278196 0.07855374
0000e0 b6 fa 1e be 24 ee 92 3d 1d c4 41 3d 83 93 b6 ba
       -0.15525326 0.07174328 0.04730617 -0.001392946
0000f0 a6 3c 59 bd 8d 22 dc 3d e1 aa 24 bd 8e e0 16 be
       -0.053036354 0.107487775 -0.040202025 -0.14734098
000100 67 a4 c7 bd cd b3 9c 3d 44 69 b0 bd 53 46 9b 3d
       -0.09748154 0.07651482 -0.08613828 0.07581773
000110 59 ff 04 be 1c d1 9c 3d e8 c4 a5 bd 35 87 bb 3d
       -0.12988032 0.07657072 -0.080941975 0.09156648
000120 fc 6b d6 3d cc db 4c bd 80 da a6 bd e8 c6 77 3d
       0.10469815 -0.050014302 -0.08147144 0.060492426
000130 ed b1 0c bc 22 b2 c2 bc 15 b3 98 3d 54 07 f8 bd
       -0.008587343 -0.023766581 0.07456032 -0.12110773
000140 0e 56 c1 bd a7 88 e0 3c 51 ee 39 bc bc 1a 22 be
       -0.09440242 0.02740891 -0.011348323 -0.15830511
000150 e0 f7 0d 3e c2 62 f1 3d 62 7d e8 3c a9 9b bf 3d
       0.13864088 0.11786415 0.0283801 0.09355862
000160 4a 4e fd bd f0 b9 2d 3c 64 7e a2 bd de ec e1 bd
       -0.12368448 0.010603413 -0.07934263 -0.11031507
000170 24 cd a7 3d 79 b1 83 3d 31 42 10 be 2d 6c d9 3d
       0.08193424 0.064303346 -0.1408775 0.10616336
000180 a6 c1 87 bd 0e 19 a3 3d f9 f5 61 bd 9f 03 06 3e
       -0.066287324 0.07963763 -0.05516622 0.13087319
000190 d5 9f 96 bb cb c4 d6 bc 17 fa 6c 3c c7 1b 02 be
       -0.00459669 -0.026216885 0.014463923 -0.12705909
0001a0 f4 8e 48 3d b8 b2 15 be 6e 80 68 bd 42 00 c3 bd
       0.048964456 -0.14618957 -0.056763105 -0.095215335
0001b0 0e 72 a9 3d fd b0 9b 3d d0 53 4f bc 22 1b f0 3d
       0.08273707 0.07602117 -0.01265426 0.11723925
0001c0 30 2e 2d bd c0 87 91 3d 9f 62 f3 bd b1 2e 04 3e
       -0.042280376 0.071059704 -0.11884045 0.12908436
0001d0 f2 a1 02 be 3d 1f ac 3d ca b1 13 be c9 41 30 bd
       -0.1275709 0.08404396 -0.1442329 -0.043031488
0001e0 90 13 e4 3b bf 0d 4e bd 53 44 a3 3d 36 d9 28 bc
       0.00696034 -0.050306078 0.07972016 -0.010305693
0001f0 7b fb 03 bd d5 cb 05 bb dc 7a 0b 3d 39 8a 9a bd
       -0.032222252 -0.0020415683 0.034052715 -0.07545895
000200 89 bc 8f bd 63 f7 02 be da d6 f3 bd 27 6a dc bd
       -0.07018382 -0.12789683 -0.11906214 -0.107624345
000210 ae ad fa 3d 3f da 49 bd fb ac 9f bd de 7e 66 3d
       0.12240158 -0.0492804 -0.07796665 0.056273334
000220 06 fb be 3c b5 13 8c 3c ea 38 af 3d f4 c1 bd 3d
       0.023313057 0.01709924 0.08555777 0.09265509
000230 0b d4 61 3d df 01 9b 3c 1c 2d 09 be a5 1c 05 be
       0.05513386 0.01892179 -0.13396114 -0.12999208
000240 0e 13 c4 3d 96 56 74 bd 96 10 b4 bd d4 60 3f bd
       0.09573947 -0.059652887 -0.08792226 -0.046723202
000250 3b d2 b5 3d e1 44 22 3e 99 e9 27 bd fc dd 19 3d
       0.08877989 0.15846588 -0.04099426 0.037565216
000260 93 dd cb bc 32 4b 20 3d 9d e9 a0 3d b2 7d e5 3d
       -0.024885928 0.03913421 0.07857058 0.11205615
000270 d3 ee c3 bd 2e 0c 43 3c 3b 96 6e bd 0e 6a af bc
       -0.095670365 0.011904759 -0.05824874 -0.021412876
000280 eb a1 00 3e 84 c9 dc bd fe e7 4a bd e3 dd 5d 3d
       0.12561767 -0.107806236 -0.04953765 0.054166686
000290 5b 5f 54 3d 74 eb c2 bd cb 30 70 3b 34 9f f2 3d
       0.05184875 -0.09517565 0.0036650177 0.11846772
0002a0 bb aa 66 3d ec a4 d0 3b 23 2b c8 3c db 0b 10 3e
       0.056315165 0.0063673165 0.024434632 0.14067023
0002b0 33 94 10 bd 06 b1 4b bd c7 d4 48 3c 22 f2 82 3d
       -0.035297584 -0.04972937 0.012257761 0.063938394
0002c0 15 c0 c5 bd 69 a6 fb bd 77 a8 f4 bc 19 e3 21 3d
       -0.09655777 -0.122875996 -0.029865487 0.039523218
0002d0 99 f7 c0 3d 65 ee 89 3c 70 c7 b1 3c 91 d8 b3 bd
       0.094222255 0.016837308 0.021701545 -0.08781541
0002e0 a4 78 d0 ba 65 a2 a1 bd a0 21 17 3e 84 0b 12 3d
       -0.0015905094 -0.078923024 0.1475892 0.035655513
0002f0 ac 61 08 3d fb 8a b8 3d 08 7b 07 3e 77 8f d4 bd
       0.033296272 0.090108834 0.13230526 -0.10378926
000300 78 a5 97 3d ca 70 a9 3d 11 b9 11 bc 72 18 c1 3d
       0.074046075 0.08273466 -0.008894221 0.09428491
000310 3b c0 0f 3d cf c0 05 3e d7 39 c5 bc 08 63 81 3d
       0.035095435 0.13061832 -0.024075432 0.06317717
000320 77 d8 62 bd 5f 52 0c be 74 2f e5 3b 35 79 3a 3c
       -0.05538222 -0.13703297 0.0069941822 0.011381437
000330 73 f5 d7 bd bb 35 08 3e db 1b 75 3d 71 53 df 3d
       -0.105448626 0.13301747 0.05984102 0.10904587
000340 04 77 7c 3d 32 40 a7 3d 98 01 3b bd e0 e9 80 3d
       0.06163694 0.08166541 -0.045655817 0.06294608
000350 ed 3a 88 3b 2c 4b f3 3d 35 e6 0c be 30 fc 4b bd
       0.004157415 0.11879572 -0.13759692 -0.04980105
000360 12 09 9d bd 86 9a 30 bd cb 3e e9 bd 80 28 11 3e
       -0.07667746 -0.043116115 -0.1138893 0.14175606
000370 6a 93 fd 39 2f 47 fd bd 5e 73 13 bd 98 9f 86 3c
       0.00048365752 -0.12367093 -0.035998695 0.016433522
000380 86 c6 99 3d b1 b0 5c 3d f8 80 81 3d d2 d4 81 3b
       0.075085685 0.053879444 0.06323427 0.0039621377
000390 19 56 c1 3b f9 50 aa bd 11 e7 86 3d b4 1a 82 bd
       0.005900156 -0.083162256 0.06587041 -0.063527495
0003a0 13 36 9d bd 35 d2 f1 3d 2e f0 16 3d 14 94 cc bd
       -0.076763295 0.11807672 0.036850147 -0.09989181
0003b0 f3 b2 2b bc 34 8a 0f 3d 32 f4 a7 3c d4 04 42 bd
       -0.010479677 0.03504391 0.020502184 -0.047367886
0003c0 5e d2 a7 3b 1b 34 55 3d 4d ec 8e bd 9c 9f 06 3e
       0.0051215133 0.052051645 -0.069786645 0.13146824
0003d0 8f 7e bd bd 11 7a e6 3d 3e 91 f6 b8 b7 51 52 bd
       -0.09252655 0.11253751 -0.000117572476 -0.05134746
0003e0 9e 2f 09 3e 3d 52 0f 3c d2 ce 8d bd 45 f6 87 bc
       0.13397071 0.0087476345 -0.069242135 -0.016596923
0003f0 4e 1a 18 3d 6d 3f f1 3d 5e 06 47 bd 37 34 1f be
       0.03713446 0.11779676 -0.048590057 -0.15547262

lstm.bias_ih_l1 f4 [200]
000000 d8 8c 0d 3e de 55 13 3e d6 ed 8e bd 06 07 0a bd
       0.13823259 0.14388224 -0.06978957 -0.033698104
000010 c9 64 84 bb 4b 0d 44 bd d0 e7 97 3d 85 50 ec 3d
       -0.004040335 -0.04786424 0.074172616 0.115387954
000020 cb 40 7f 3c 7e 93 06 3c f0 3d eb 3d c2 19 4a 3d
       0.015579413 0.008213876 0.11486423 0.04934097
000030 60 70 29 3d 6c b8 7a bd f3 c1 30 3d 0f a7 4f bc
       0.041366935 -0.061211035 0.043153714 -0.012674107
000040 32 56 f4 3d 3d 12 6d 3d 95 ca c4 bc dd e4 02 3e
       0.11930503 0.05787872 -0.02402238 0.12782617
000050 de 0b 0a 3d ef 0a 3f bd 0d ce 32 3d 8b 27 8c bc
       0.033702724 -0.046641286 0.043653537 -0.0171087
000060 3f 85 27 3e 33 21 e2 3d b0 db d5 3d 53 42 c2 3d
       0.16359423 0.110414885 0.10442293 0.094853066
000070 bf 18 86 bc 3a 2c 89 3d b1 af 8d bd e6 88 a1 bc
       -0.016369222 0.06697889 -0.06918276 -0.019718599
000080 4d 71 2a 3d 83 71 d3 3c c6 b7 ab 3c 98 3c 1b bd
       0.04161196 0.025810963 0.020961653 -0.037899584
000090 6e cf a2 bd 21 29 c8 3c 81 77 13 3e 03 ac 11 3e
       -0.0794972 0.024433674 0.14401056 0.14225774
0000a0 b1 1b 64 3c e5 dc 2c bd 63 7d 1f 3e 42 f4 d4 3b
       0.013922618 -0.04220285 0.15575175 0.0064988444
0000b0 7b d1 f9 3d f8 32 05 be e1 5e b9 3c 0f 59 be 3c
       0.12198158 -0.13007724 0.02262825 0.023235826
0000c0 46 2c d0 3d 0a 69 60 bc ff 29 8a 3b 3c 3f e1 bd
       0.101646945 -0.013696918 0.004216432 -0.10998389
0000d0 f0 02 82 bd cb ad fa bd 95 f8 4b bd fd 6c 42 3d
       -0.063482165 -0.1224018 -0.049797613 0.04746722
0000e0 c7 cd 0a bd 78 69 b8 bd 9a b3 38 3d 9a 77 95 3b
       -0.03388765 -0.090044916 0.045093156 0.0045613768
0000f0 8e 5c 09 bc 86 40 8e 3d fb 75 0c 3e 0d 8f e9 3c
       -0.008383883 0.069459006 0.13716881 0.028510595
000100 bd 33 d7 3b ab 59 dc 3d 35 6b 05 be 27 90 f3 3d
       0.006567447 0.1075929 -0.13029177 0.11892729
000110 ef b2 49 3d 44 52 05 bc 4d 5c ee 3b bb 75 07 3e
       0.04924291 -0.008137289 0.0072741867 0.13228504
000120 a6 c0 23 bd 90 a3 ab 3d 2f f5 86 bd 86 30 a1 bd
       -0.039978646 0.083808064 -0.06589734 -0.07870583
000130 ef c1 18 3d a4 66 32 3c 5f 7a 15 be e0 f6 aa bd
       0.037294324 0.010888729 -0.14597462 -0.08347869
000140 89 a6 8a 3d 3b de ec 3d e8 9f fe ba 22 b3 14 be
       0.06770045 0.115658246 -0.0019426318 -0.14521459
000150 3a 83 b8 3d cf fc fd bd 2b c1 49 bc b5 98 8a 3d
       0.090094045 -0.12401735 -0.012314121 0.06767408
000160 42 dd 04 be e7 27 0a 3d 49 b8 29 3c 2f 34 a6 3d
       -0.12975028 0.03372946 0.010358878 0.08115422
000170 c7 14 ef bc fc ad a6 bd 68 97 8f bc af 2e 0e 3e
       -0.029184712 -0.08138654 -0.01752825 0.13884996
000180 ae 60 45 bd 4a 45 df 3c 0b 0d 72 bb 6c f5 16 3c
       -0.048187904 0.02725472 -0.0036934044 0.009213787
000190 b6 3b 0b bc da e5 c6 bc 43 e7 bc bd 60 70 6b bd
       -0.008498123 -0.024279524 -0.09223797 -0.057480216
0001a0 94 c2 78 3d 1e 9e 11 bc d9 e2 e4 bd 74 a0 0e bc
       0.06073244 -0.008887796 -0.1117608 -0.008705247
0001b0 6f 59 e3 3d 2f 81 0a be 06 b4 8a bd 5e 0d f5 bd
       0.111010425 -0.13525842 -0.06772618 -0.1196544
0001c0 bb 90 14 3e 50 ee 39 3d 82 0d d4 bd f9 f7 36 bd
       0.14508335 0.045393288 -0.10354139 -0.04467008
0001d0 25 1c 93 3d 77 84 41 3d 54 f5 20 bd 21 19 c3 bc
       0.071831025 0.04724547 -0.039296463 -0.023815693
0001e0 ae e9 f7 3d 31 23 9c 3d 84 29 a2 3d 19 e1 1a be
       0.12105118 0.076239 0.07918075 -0.1512493
0001f0 cd 8a e3 3b e6 cc cd bb 7f e5 f6 3d 98 76 27 3e
       0.0069440366 -0.0062805293 0.12055492 0.16353834
000200 a9 49 7e bc fd 25 58 3d f1 4b 69 bd d3 8f 03 bd
       -0.015520492 0.052770603 -0.05695719 -0.032119583
000210 f4 12 17 bd e7 35 ea bd fd 5c 2e 3d f8 b5 dd bc
       -0.03688331 -0.11436062 0.04256915 -0.027064309
000220 9a 22 91 bb 50 3f 77 3c 4a fe db bd 7a 34 1d 3e
       -0.0044291737 0.0150907785 -0.10741861 0.1535205
000230 a7 81 d1 3c c6 22 e0 3d 16 7a c4 bd db b3 dd 3d
       0.025574518 0.109441325 -0.095935985 0.1082532
000240 32 3d 90 3d 6f a6 bb bd 81 04 bf bb 2f 06 0c be
       0.07042922 -0.09162604 -0.0058293943 -0.13674234
000250 c9 95 de bd 6f 8c 41 bd c2 ec 83 3c 8d e1 98 bd
       -0.10868413 -0.04725307 0.016104106 -0.074648954
000260 f9 20 be bd 96 00 01 be fc df 15 3c 65 1a 71 3c
       -0.09283633 -0.1259788 0.00914764 0.014715766
000270 f2 4a 0e 3e 05 05 f1 3c 5f 61 8c 3d e1 ac b7 bb
       0.13895777 0.029421339 0.068545096 -0.0056053256
000280 b2 d7 cd 3c 38 c4 bb 3d c4 13 15 3d 9d 78 0a 3e
       0.025127266 0.09168285 0.036395803 0.13522573
000290 a5 cc 97 bd ba 71 a2 bd 87 b4 4a 3d 90 be 61 bd
       -0.0741208 -0.07931848 0.04948857 -0.055113375
0002a0 cf 84 90 3d da 4a 95 3d 3c 1c 92 3c 89 f5 b7 3c
       0.07056581 0.072896674 0.017835729 0.022455947
0002b0 52 a9 b2 bd 70 69 a9 3d fd 24 06 bd 89 7f 94 3d
       -0.087237015 0.08272064 -0.03275012 0.07250888
0002c0 e5 8c 08 3e d1 99 a0 3c a6 2d cd bd 25 1f 4c 3d
       0.13334997 0.019604595 -0.100184724 0.04983439
0002d0 33 20 ec bd db 89 3f 3d c1 44 a8 bd 91 87 be bd
       -0.11529579 0.04676233 -0.08216239 -0.09303201
0002e0 c4 54 b7 3d 16 21 2b 3d 36 b2 05 be cd 80 0b 3e
       0.08951715 0.0417796 -0.13056263 0.13623352
0002f0 7c 0f 85 3d 2e 7d f5 3d 52 5b cd bd f8 ef e5 3d
       0.06497094 0.11986767 -0.100271836 0.11227411
000300 c3 e3 a0 bd 27 1e a7 bd f8 c0 67 bb d9 20 30 bd
       -0.07855942 -0.08160048 -0.003536282 -0.043000076
000310 15 3b e6 3d 99 bf bf bd 6c 0b 59 3d 2b e6 3d 3d
       0.11241738 -0.09362716 0.05298941 0.046362083

lstm.bias_hh_l1 f4 [200]
000000 fe 82 89 3d 79 c5 88 3c 2d 7f 26 bd 8a 75 4b 3d
       0.06714438 0.016695725 -0.040648628 0.04967264
000010 5c 5e 02 bb d8 72 22 3e 18 e1 ea 3d ed fd bf 3d
       -0.0019892668 0.15864122 0.114687145 0.093746044
000020 34 41 ba bd 28 c4 23 3e 7d 6f e0 3c ab 6c c1 bc
       -0.09094468 0.15992796 0.027396912 -0.023611387
000030 ea 79 bc 3d 6e 31 60 3d 72 a4 b4 bc 20 64 4b 3d
       0.09202941 0.05473464 -0.02205107 0.049656034
000040 10 99 1b bd fb ce 99 3c 58 5d 44 bd 56 0b af bd
       -0.03798777 0.018775454 -0.047940582 -0.08547084
000050 14 b0 bf bb c1 a3 4e 3d ad ee fe bd 14 e0 bf bd
       -0.0058498476 0.050449137 -0.124478675 -0.093689114
000060 63 db 79 bd 5e dd c2 bc 6a 2e ec bd b9 ce 16 3e
       -0.06100024 -0.023787197 -0.1153229 0.14727296
000070 51 39 09 be 2e 11 54 bd 83 f1 9e bc 8e 14 8d 3d
       -0.1340077 -0.051774196 -0.019402271 0.06888686
000080 ed 08 aa bd 99 fa a1 bc ac c4 8a bd 36 e8 f5 3c
       -0.08302484 -0.019772815 -0.067757934 0.030017953
000090 0e 2d ea bb 24 13 81 bd 7d 37 90 3d a6 16 4b bd
       -0.007146484 -0.06302479 0.070418335 -0.049582146
0000a0 30 a4 fd 3d 49 28 9f 3d 13 7c d3 3c c8 58 c1 3d
       0.12384832 0.07771356 0.025816 0.09440762
0000b0 dd 5b 76 bc e1 0f af 3d d6 ea 0d 3d 63 b2 fc bd
       -0.01503655 0.085479505 0.034647785 -0.12338712
0000c0 c8 f0 25 3d a5 4d 07 3e 6b b9 b9 bd 96 1a d3 3d
       0.04051283 0.13213213 -0.09068569 0.10307805
0000d0 30 bb f4 3c ae 46 b6 bd cb f2 01 bd 83 93 59 bc
       0.029874414 -0.089002 -0.031725686 -0.013279798
0000e0 a8 92 1f 3d be fc ce 3d 31 23 e2 bd 3b 6e 08 3e
       0.03895822 0.101068005 -0.110418685 0.133233
0000f0 37 87 9e 3d 99 42 ee bd 0b 8b d6 bd c8 a0 93 3d
       0.07740634 -0.11633796 -0.10475739 0.07208401
000100 4e d6 f0 bd 0d a5 b4 bd 0a 6a dc 3d 19 78 d7 3d
       -0.117596254 -0.088205434 0.10762413 0.10520954
000110 6e 92 04 3e bc df 33 3d b0 93 f8 3d 01 fe c1 bd
       0.12946483 0.04391454 0.12137544 -0.094722755
000120 ca 0a a6 bd 0a 82 1e 3d 99 41 1e 3e 65 26 93 bd
       -0.081075266 0.038698234 0.15454711 -0.071850576
000130 9f 13 47 3d 76 3b e0 bc 6a bf ab 3d 62 9f d3 3d
       0.048602697 -0.027372103 0.08386119 0.10333134
000140 78 d0 e8 bd ae 6e c2 bd 4d 4f ce bd fc 4b d7 3d
       -0.11367887 -0.09493767 -0.10073719 0.1051254
000150 c8 e3 cb bb 0d fd 93 3d b5 d7 18 bd 25 9e 84 bd
       -0.006222222 0.07226 -0.03731509 -0.06475476
000160 07 51 ac 3a ce f5 13 3e 64 5f b9 bd 01 a9 61 bc
       0.0013146707 0.14449236 -0.090513974 -0.013773204
000170 c0 fe e3 bd 92 dc 1d be cb 4c fd 3d 50 95 bf bd
       -0.11132574 -0.15416172 0.12368163 -0.09354651
000180 6a c6 63 3d c6 1e 2a bd 1b d3 22 3e ab ef e2 3d
       0.055609144 -0.041533254 0.15900843 0.11080869
000190 fb 2f ce bd 7a 3f ab 3d d8 33 72 3c 72 7e 49 3d
       -0.10067745 0.083617166 0.014782868 0.049192853
0001a0 37 99 61 3c 4d 1a 89 bd 66 cb 8d 3b e6 32 f3 bd
       0.013769439 -0.066944696 0.0043272255 -0.118749425
0001b0 22 67 05 3e aa 2e a1 3d 9e 0b ae 3d 08 de a1 3c
       0.13027623 0.078702286 0.084983096 0.019759193
0001c0 ef 70 0a bc 93 1b 12 be 37 6c a3 3d 62 c6 b1 3b
       -0.008449777 -0.14268331 0.07979625 0.0054252604
0001d0 8d 7d b7 bd 50 58 bb 3d 0b 83 d0 bd 7f 22 12 bd
       -0.08959494 0.09147704 -0.101812445 -0.03567743
0001e0 40 1f b6 bd 33 46 da 3c 94 bc b1 3d d5 1e 9a bc
       -0.08892679 0.026644802 0.086785465 -0.01881353
0001f0 83 60 0c 3e f1 35 3e bd 21 e3 29 3d bc e9 e8 3d
       0.13708691 -0.04643816 0.041476373 0.11372706
000200 35 b7 eb 3d 34 cf 6b bd 79 88 b8 bc a9 0f 21 bd
       0.11509553 -0.05757065 -0.022526013 -0.039321575
000210 86 09 7c bd 11 f6 9f bd a5 dc a6 3d ba fc 9d 3b
       -0.06153252 -0.07810605 0.08147553 0.004821387
000220 a7 cb 2a 3d 79 51 4e 3c 7d 27 04 3e 06 3c 36 bd
       0.041698124 0.012592667 0.12905689 -0.044490837
000230 ec 42 bb 3d 49 e8 34 3d 96 04 38 3a 5e a9 f9 bd
       0.09143624 0.044166837 0.00070197263 -0.12190507
000240 a8 02 a9 bd 92 d9 a8 3c 95 a0 cb bd 00 c4 45 3d
       -0.0825246 0.020611558 -0.09942738 0.048282623
000250 bd 14 b5 bd b8 15 03 3e 09 75 a9 3c da 5f 28 bd
       -0.08841846 0.12801254 0.02068569 -0.041107036
000260 60 9d 43 bd c5 a3 af bd 9e 1d dc bd 4f a9 7c 3d
       -0.047757506 -0.085761584 -0.107478365 0.061684903
000270 c1 d2 8f 3d 79 f0 1b 3d d6 62 b2 3d a5 77 90 3d
       0.0702262 0.03807113 0.08710258 0.070540704
000280 a4 fb 18 bd bd 40 7d 3d c3 55 94 bc 99 42 b4 3c
       -0.03734936 0.061829317 -0.0181073 0.022004412
000290 11 10 99 bb 23 f5 bc 3b 94 29 96 bd b3 e8 93 bb
       -0.0046711047 0.0057665273 -0.07332149 -0.004513824
0002a0 c2 2b 40 bb d2 c0 be 3c 4a 8c d6 3d 16 61 d2 3d
       -0.0029322957 0.023285303 0.10475977 0.10272424
0002b0 93 d8 a7 bd 18 3d 34 bd 76 50 0f 3e 20 48 1d 3e
       -0.08195605 -0.044003576 0.13995537 0.15359545
0002c0 11 31 06 3e a6 3f dd 3c 41 e1 1f bd aa ea 04 3e
       0.13104655 0.027007889 -0.03903318 0.12980142
0002d0 24 c8 dc 3c d5 e3 aa 3c 82 36 a8 bd fd f6 cc 3d
       0.026950903 0.020860592 -0.082135215 0.10008047
0002e0 52 fc 95 3d b2 11 49 3d f0 e6 50 bd 0a 6a b6 3d
       0.07323517 0.04908914 -0.05100149 0.08906944
0002f0 08 04 ff bc 49 23 1f 3e af 35 63 3d be 2d 03 3e
       -0.031129852 0.15540804 0.05547112 0.12810418
000300 fb af 89 bd 92 85 e1 bd 4f e0 d7 3d f6 e4 3c 3d
       -0.06723019 -0.11011805 0.1054083 0.04611679
000310 dc 0f de bd d6 6b c2 3d 45 29 88 ba d1 50 14 3e
       -0.10842869 0.09493224 -0.0010388276 0.14483954

fc.weight f4 [1, 50]
000000 c7 01 60 3d 46 f3 e4 3b 4a 7c f5 bc 0e 5a 00 be
       0.054689195 0.0069870083 -0.029966492 -0.12534353
000010 77 b8 eb 3a 61 2e 53 bd 7f 04 dd bd 50 d2 b3 3c
       0.0017984052 -0.051557902 -0.10791873 0.02195087
000020 6a d8 4f 3d 8e 5e 9d bd 1f 76 b6 3d 19 83 e6 bd
       0.050743498 -0.076840505 0.089092486 -0.11255474
000030 74 cb 18 3e cb db b9 bc 38 6a 1d be 77 54 17 3d
       0.14921361 -0.022687813 -0.1537255 0.036945786
000040 0c 20 69 3d 3a 14 e1 3d 63 98 23 3d d8 46 b7 3d
       0.056915328 0.10990186 0.03994025 0.08949059
000050 b9 08 9b 3d 40 53 e3 3d 1e 81 0b bd 7f 3c 11 be
       0.07570023 0.11099863 -0.034058683 -0.14183234
000060 67 b1 87 3d 64 2c fc bd ff a0 89 3d 38 0b fd 3d
       0.06625634 -0.12313154 0.06720161 0.123556554
000070 fa 53 bc bd 2f 2a d3 bd b5 03 01 3e 52 a3 e2 3c
       -0.09195705 -0.1031078 0.1259907 0.027665768
000080 43 2b c9 3d 1c 03 82 3d 03 9b 73 3b 20 2f 0f be
       0.09822705 0.06348249 0.0037171252 -0.1398282
000090 22 c4 c2 3d a7 f1 40 bd dd bd 8a 3d c5 14 44 3d
       0.095100656 -0.047105458 0.06774495 0.04787137
0000a0 dd f8 00 3e a2 93 65 3d 2c 32 6a bd d5 ab 2d 3d
       0.12594934 0.056048997 -0.057176754 0.0424002
0000b0 f4 cc 0f be c0 14 6b 3d 6e 89 ca bd eb 2d c0 bc
       -0.14043027 0.057392836 -0.09889494 -0.023459395
0000c0 02 7f 97 bd 5f 78 15 3c
       -0.07397272 0.009122937
