models/MATIC_USDT_model.pt (torch, 128213 bytes, 9 tensors)

lstm.weight_ih_l0 f4 [200, 1]
0	0xbdd5204e	-0.10406552
1	0xbbbaa416	-0.00569583
2	0x3dfffe27	0.124996476
3	0x3d4f789e	0.05065214
4	0x3d4caa69	0.049967203
5	0xbd03306f	-0.03202861
6	0xbcb9f81a	-0.022701312
7	0xbc86082a	-0.016361315
8	0x3e004c02	0.12528995
9	0x3da0fddd	0.078609206
10	0x3d04979b	0.032371145
11	0xbde49ea5	-0.111630715
12	0xbe05adcb	-0.13054578
13	0xbc6d952c	-0.014500897
14	0xbdabaaea	-0.08382209
15	0x3db525a4	0.0884507
16	0x3db07b49	0.08617265
17	0xbdd69219	-0.10477085
18	0x3d4e41df	0.05035579
19	0xbdbe3d07	-0.09288984
20	0x3dc319eb	0.09526428
21	0x3d862174	0.065493494
22	0x3daa2f69	0.08309824
23	0x3c9e5c41	0.0193311
24	0xbddb23cd	-0.10700188
25	0xbdde233c	-0.10846564
26	0x3dbdf2b4	0.092748076
27	0x3de19d57	0.11016338
28	0x3dd6c3fe	0.10486601
29	0xbd6319d7	-0.055444565
30	0xbe0612a4	-0.13093048
31	0xbcaa4ac2	-0.0207876
32	0xb9650c87	-0.00021843809
33	0x3d35eb71	0.044413988
34	0x3e0e0524	0.13869148
35	0xbcff0c56	-0.031133812
36	0xbd2b5e4f	-0.041837987
37	0xbdbbc26f	-0.09167945
38	0xbdaea8d0	-0.08528292
39	0x3df6307d	0.12020967
40	0xbcfeea2d	-0.031117523
41	0x3e15fa50	0.14646268
42	0xbde559b9	-0.11198754
43	0xbd6ebe99	-0.058287237
44	0x3bfd2e67	0.007726479
45	0x3a203608	0.0006111567
46	0xbda19232	-0.07889213
47	0xbdf2e343	-0.11859753
48	0xbcccdfd0	-0.025009066
49	0x3de50254	0.11182085
50	0xbd0ea8b2	-0.03482885
51	0x3be92ef3	0.0071161925
52	0x3e1ea6ec	0.15493363
53	0x3de491bc	0.11160609
54	0x3d95f875	0.0732278
55	0x3cfaf643	0.030635005
56	0x3c468b0c	0.012118112
57	0x3cf92a4e	0.03041568
58	0x3c6b51e9	0.014362791
59	0x3d81befc	0.063352555
60	0xba916ef3	-0.0011095688
61	0x3d19b82b	0.037529152
62	0x3cac9830	0.021068662
63	0x3e1465e6	0.14491996
64	0xbc5b723a	-0.013393933
65	0x3dff8a4a	0.124775484
66	0xbce22f8c	-0.027610563
67	0x3ce77d0f	0.028257875
68	0xbd2e6d2f	-0.042584594
69	0x3dca096b	0.098650776
70	0xbb8c6b45	-0.0042852485
71	0x3dc4d4b1	0.0961088
72	0xbdcc9daf	-0.09991013
73	0x3d9b5362	0.075842634
74	0xbe0882e5	-0.13331182
75	0x3da5a72a	0.08088525
76	0x3d8da217	0.06915682
77	0xbddde935	-0.10835496
78	0xbb72cde6	-0.0037048995
79	0x3dfed726	0.1244338
80	0x3ddb789d	0.107163645
81	0xbdf45ab4	-0.11931363
82	0x3d413fa5	0.047179837
83	0xbe04dcd9	-0.12974872
84	0x3df55b11	0.1198026
85	0x3d104619	0.0352231
86	0xbd57c972	-0.052682348
87	0xbd84b0f0	-0.06479061
88	0xbdd4fbac	-0.10399565
89	0x3cc36508	0.023851886
90	0x3d27a385	0.04092743
91	0xbdc8ffcd	-0.09814415
92	0x3dff944b	0.124794565
93	0x3e123359	0.142774
94	0xbda8684a	-0.082230166
95	0x3db1e20d	0.08685694
96	0x3a984f78	0.0011620363
97	0x3d25791e	0.04039871
98	0xbd70a2e8	-0.05874911
99	0x3db9615d	0.09051774
100	0x3d816764	0.06318548
101	0x3d712178	0.05886981
102	0x3d8b2633	0.06794395
103	0x3d8b64f5	0.068063654
104	0xbd8bbdc0	-0.06823301
105	0xbd80f351	-0.06296409
106	0x3be97b25	0.0071252757
107	0xbdf9aa23	-0.12190654
108	0x3b47d3e1	0.003049128
109	0x3dad3625	0.08457593
110	0xbd932d66	-0.071863934
111	0xbe09cfe1	-0.13458206
112	0x3d8718bd	0.06596515
113	0xbde42668	-0.11140138
114	0xbd9ab014	-0.075531155
115	0xbd865774	-0.06559649
116	0x3d46966d	0.0484833
117	0x3e09b433	0.13447647
118	0x3e235f61	0.15954353
119	0xbd31d424	-0.043415204
120	0x3db8ec2b	0.090294205
121	0xbd3002d1	-0.042971436
122	0x3cdc4f15	0.026893178
123	0x3db45c2e	0.088066444
124	0xbd872250	-0.065983415
125	0x3aa2393e	0.0012376679
126	0x3d994f20	0.07485795
127	0xbd317a9d	-0.043329824
128	0xbd47048c	-0.04858832
129	0xbd48bf20	-0.049010396
130	0xbd013d0d	-0.031552363
131	0xbd4d0fc0	-0.05006385
132	0x3c0fcf10	0.008777395
133	0x3c941e33	0.018080806
134	0x3cbccc8e	0.023046758
135	0x3def4ae9	0.1168421
136	0x3dd29bba	0.10283609
137	0x3defabd8	0.117026985
138	0xbc26fd80	-0.010192275
139	0xbd4320f2	-0.04763884
140	0x3c01b3d3	0.007916409
141	0xbdcd132c	-0.10013422
142	0x3e175b90	0.14781022
143	0xbd9059c7	-0.07048374
144	0x3db7737d	0.089575745
145	0x3cf81656	0.030284088
146	0xbd91f0ae	-0.07125984
147	0x3e14804a	0.14502063
148	0xbde34f9b	-0.11099168
149	0x3d81126d	0.063023426
150	0xbdfa43ba	-0.12219949
151	0xbced2ddf	-0.028952537
152	0x3d4c63b1	0.04989976
153	0xbdca6664	-0.09882811
154	0x3bb5865f	0.0055397
155	0xbd1433c6	-0.036182187
156	0xbd899775	-0.06718341
157	0xbd79e245	-0.061006803
158	0xbc820b94	-0.015874662
159	0xbe02488a	-0.12722984
160	0x3d8d88e9	0.06910879
161	0xbd7924e9	-0.060826216
162	0x3d4dd11c	0.05024825
163	0x3da6bad7	0.081411056
164	0xbc8146b8	-0.015780792
165	0xbd43a44c	-0.047764108
166	0xbd844b77	-0.06459706
167	0x3d8fb0bc	0.07016131
168	0x3df1cd3d	0.11806724
169	0xbd0c9234	-0.034319118
170	0x3cd5c740	0.026095986
171	0xbda1d104	-0.07901195
172	0x3de27412	0.11057295
173	0x3df59279	0.11990828
174	0x3e1715e1	0.1475444
175	0x3df66dbb	0.12032648
176	0x3dcab081	0.09896947
177	0x3de749c5	0.11293367
178	0x3e006c7c	0.12541384
179	0xbd527273	-0.05137868
180	0xbdc790b9	-0.097444005
181	0x3d6ca737	0.057776656
182	0xbd32bf15	-0.04363926
183	0x3c126edb	0.008937563
184	0xbdc6b44d	-0.097023584
185	0xbd9b567f	-0.07584857
186	0x3bff1550	0.007784523
187	0xbdd2e305	-0.10297207
188	0x3dcdf950	0.10057318
189	0xbdb9d56e	-0.090739116
190	0x3e000994	0.12503654
191	0x3d4e9587	0.05043557
192	0xbdf533a3	-0.119727395
193	0x3d7267f5	0.059181172
194	0xbd3e8004	-0.046508804
195	0x3d5a357a	0.053273655
196	0x3dd3731e	0.10324691
197	0x3dff7c45	0.124748744
198	0xbbc3914d	-0.005968249
199	0xbd0cbaca	-0.034357823

lstm.weight_hh_l0 f4 [200, 50]
0	0xbbb0172b	-0.0053738556
1	0xbbbec1df	-0.005821451
2	0x3db52087	0.08844095
3	0xbd189937	-0.037255492
4	0x3e0623e3	0.13099627
5	0x3e0f08db	0.13968222
6	0xbd37af83	-0.044845115
7	0xbded4733	-0.11585846
8	0x3e05235b	0.13001768
9	0xbd2ff0dc	-0.04295431
10	0x3dd514ee	0.10404383
11	0x3df23b64	0.11827734
12	0xbe094f74	-0.13409215
13	0x3c4d28f3	0.01252197
14	0x3b7ce260	0.0038587078
15	0xbde200ea	-0.110353306
16	0x3b9d6049	0.004802738
17	0xbd94ff39	-0.07275242
18	0x3da1728a	0.07883175
19	0xbe013b4e	-0.12620279
20	0x3d61581b	0.055015665
21	0x3e00b4fb	0.12569039
22	0xbb8c78fc	-0.0042868834
23	0xbd8c5398	-0.06851882
24	0xbd054ad9	-0.032542083
25	0xbc81f650	-0.015864521
26	0x3db46747	0.08808761
27	0x3d611c52	0.05495865
28	0xbd8a0891	-0.06739915
29	0xbd77331a	-0.06035147
30	0x3cbdc288	0.023164049
31	0x3dd29ebb	0.10284182
32	0xbe09ec00	-0.13468933
33	0x3e020b7a	0.1269969
34	0xbd7e8516	-0.06213864
35	0xbe0dcbad	-0.13847227
36	0xbd987047	-0.0744329
37	0x3def73c7	0.11692005
38	0x3cf6bb66	0.030118655
39	0x3e09f9b6	0.13474163
40	0xbdbbf344	-0.091772586
41	0x3e077abe	0.13230416
42	0xbb104c8d	-0.0022018284
43	0x3e082a1f	0.13297318
44	0x3dc7b307	0.09750944
45	0x3da91ada	0.08257075
46	0x3e08eea5	0.13372286
47	0xbaf82afb	-0.0018933708
48	0xbd06d26e	-0.032915525
49	0xbc0636c3	-0.008191767
50	0x3da8722d	0.08224902
51	0xbcd0d02a	-0.025489885
52	0xbe02e6dc	-0.12783378
53	0xbe037c2c	-0.12840337
54	0xbdf8fc50	-0.121575
55	0x3ddcd0d8	0.10782021
56	0x3d88ad68	0.066736996
57	0x3cf5b1a4	0.029991932
58	0x3e04d204	0.1297074
59	0x3e058cce	0.13041994
60	0xbd938852	-0.072037354
61	0xbcda8c8a	-0.026678342
62	0x3de22be6	0.11043529
63	0xbcea8a00	-0.028630257
64	0xbe15819b	-0.14600222
65	0xbdb33cc2	-0.08751823
66	0x3d6ca8c1	0.057778124
67	0x3d2d2a61	0.042276744
68	0xbd8676c7	-0.06565624
69	0xbdd5fe26	-0.104488656
70	0xbd478669	-0.048712168
71	0x3d495a8c	0.049158618
72	0x3df3de13	0.11907592
73	0x3df821b5	0.12115804
74	0xbde6220f	-0.11236965
75	0x3da5ab0d	0.08089266
76	0xbbd09000	-0.0063648224
77	0x3df14a8b	0.11781796
78	0x3d987597	0.074443035
79	0x3c26284c	0.010141443
80	0x3cb9e5ed	0.022692645
81	0x3d1597d1	0.036521737
82	0x3cfa8559	0.030581163
83	0x3c22bd5e	0.009932844
84	0xbdff6f97	-0.12472456
85	0x3dd1c87e	0.10243319
86	0xbcd5a9d1	-0.026081951
87	0x3e14080c	0.14456195
88	0xbd8e85af	-0.06959092
89	0x3d8553ef	0.0651015
90	0xbdb8dfdc	-0.09027073
91	0xbe1aad48	-0.15105164
92	0xbd30a89e	-0.043129556
93	0x3d8d2251	0.06891311
94	0x3d2556b6	0.040365897
95	0x3cdfa025	0.027298043
96	0x3dce4741	0.10072184
97	0x3d98401c	0.07434103
98	0xbdbf7033	-0.09347572
99	0x3db130bd	0.08651874
100	0xbcd0324f	-0.025414614
101	0x3d937d8c	0.072016805
102	0xbb6e13c7	-0.0036327706
103	0x3de77670	0.11301887
104	0x3cb63b0b	0.02224495
105	0xbded62d3	-0.11591115
106	0xbd47b838	-0.04875967
107	0xbe1a171e	-0.15047881
108	0xbe0fd0bb	-0.14044468
109	0x3e092309	0.13392271
110	0x3d8f7aa9	0.070058174
111	0xba1d5678	-0.00060019596
112	0x3d265752	0.04061062
113	0x3db4cb94	0.08827892
114	0x396be738	0.00022497482
115	0x3dc23a4a	0.09483774
116	0xbda6e546	-0.08149199
117	0x3dbded6b	0.092737995
118	0xbdde6786	-0.10859589
119	0xbcd0ab71	-0.025472375
120	0x3dd911d8	0.105991066
121	0xbde073d9	-0.10959596
122	0xbd5b3530	-0.05351752
123	0xbd979067	-0.074005894
124	0x3ce989a5	0.028508017
125	0x3d924e65	0.07143859
126	0x3d907b90	0.07054818
127	0xbbd49084	-0.006486954
128	0xbb4c932c	-0.003121565
129	0xbd0aa3e5	-0.03384771
130	0x3dca8075	0.098877825
131	0xbd3600a7	-0.044434216
132	0xbc2a6cbf	-0.010401904
133	0xbe166862	-0.14688256
134	0x3d7cc5b9	0.061712
135	0x3df58b5f	0.119894736
136	0x3e0e6e4c	0.13909262
137	0x3d01a209	0.03164867
138	0xbe13a881	-0.14419748
139	0x3d9ddd54	0.077082306
140	0x3dfcaff4	0.12338248
141	0x3c0cf4fe	0.008603333
142	0x3d7e162f	0.062032875
143	0xbc3d3080	-0.011547208
144	0xbd03afa7	-0.032149937
145	0xbd3c980e	-0.04604345
146	0x3d828cf2	0.063745394
147	0x3de921b9	0.11383385
148	0x3d951f50	0.07281363
149	0x3e08db9b	0.13365023
150	0x3d914f4a	0.07095201
151	0xbd113d51	-0.035458867
152	0xbdfb3b27	-0.12267142
153	0x3c334592	0.01094188
154	0x3d9e8921	0.07740999
155	0xbd9e4312	-0.077276364
156	0x3d03eed4	0.032210186
157	0x3d9a57e4	0.07536295
158	0x3d8c131f	0.068395846
159	0x3e057079	0.13031186
160	0x3def0586	0.116709754
161	0x3dcf5c50	0.10125029
162	0x3d5aedf5	0.05344959
163	0xbdc80dd4	-0.097682625
164	0xbddaeb57	-0.10689419
165	0xbc8eda2d	-0.017438019
166	0xbdcd6bc8	-0.10030323
167	0x3a067876	0.00051296444
168	0xbc07b9b4	-0.008284021
169	0xbc9ea910	-0.019367725
170	0xbdd4c156	-0.103884384
171	0xbdd8b198	-0.10580748
172	0x3cadbcfe	0.021208283
173	0x3d29b05d	0.04142796
174	0x3bae42ac	0.0053180065
175	0xbdf68a9b	-0.12038156
176	0xbbc44e5c	-0.0059907865
177	0x3debd54f	0.11515295
178	0xbdf7fd22	-0.12108828
179	0xbd5663ba	-0.0523412
180	0xbc3a633f	-0.011376201
181	0xbe0785d9	-0.13234653
182	0xbdab0a08	-0.08351523
183	0x3d054454	0.032535866
184	0x3cfa4a86	0.030553114
185	0xbcc6a62d	-0.02424916
186	0x3d4c7853	0.049919438
187	0x3cb05385	0.0215242
188	0x3e03f844	0.12887675
189	0xbcfa78a0	-0.030575097
190	0x3d86837d	0.06568048
191	0xbde89a30	-0.11357534
192	0x3dd472f1	0.10373486
193	0x3e0a1f90	0.13488603
194	0x3d1349f2	0.03595919
195	0x3e0d761a	0.13814583
196	0xbbfaa825	-0.007649439
197	0x3d04d75f	0.032431956
198	0x3d98da67	0.07463532
199	0x3c110f49	0.008853742
200	0x3c25c276	0.010117164
201	0xbdacf3ca	-0.084449366
202	0xbc4c286d	-0.01246081
203	0x3e1a3695	0.15059884
204	0x3d8a52e4	0.067540914
205	0x3da5e174	0.080996424
206	0xbd5b78f9	-0.053582165
207	0x3c38479e	0.011247544
208	0xbd8b0f6c	-0.06790051
209	0x3d3352c2	0.043780096
210	0x3c9a77db	0.01885598
211	0xbe009275	-0.12555869
212	0xbcf6d44e	-0.030130532
213	0xbe1342a5	-0.14380892
214	0xbcceed8e	-0.02525976
215	0x3d363cec	0.044491693
216	0xbc41d458	-0.011830412
217	0x3def8287	0.11694818
218	0xbd010aa2	-0.03150428
219	0x3ca05ecd	0.019576455
220	0x3d8d948e	0.069131
221	0xbd44b9a5	-0.048028607
222	0xbe11c009	-0.14233412
223	0xbd1e14f6	-0.03859421
224	0xbc846d44	-0.016165383
225	0x3dcfa69e	0.101392016
226	0xbcb6aeb9	-0.022300111
227	0x3dc99270	0.09842384
228	0x3df73a9b	0.12071725
229	0xbe02a1fa	-0.12757102
230	0x3dfa26c2	0.12214424
231	0xbded9b46	-0.11601882
232	0x3c90e56f	0.017687527
233	0xbe0c6190	-0.13709092
234	0xbc0ec225	-0.00871328
235	0xbd9a788c	-0.07542524
236	0xbdd19a19	-0.1023447
237	0x3dd01ddb	0.101619445
238	0x3d5196e0	0.051169276
239	0x3c96c895	0.018406192
240	0x3ccb2737	0.024798973
241	0x3d81d80e	0.06340037
242	0xbd808209	-0.06274802
243	0x3db02d3e	0.08602379
244	0xbdbc1cb8	-0.09185165
245	0x3da5a3ae	0.0808786
246	0xbd3516f0	-0.044211328
247	0xbd38aa0f	-0.045084056
248	0xbc0208a8	-0.007936634
249	0xbd8eb97a	-0.069689706
250	0x3cf96972	0.030445788
251	0xbd9ff44b	-0.07810267
252	0x3d5ed077	0.054398026
253	0xbada2f0a	-0.0016646099
254	0xbde0b0aa	-0.10971196
255	0x3e0e9c10	0.1392672

lstm.bias_ih_l0 f4 [200]
0	0x3de772c0	0.11301184
1	0x3decf6af	0.11570489
2	0x3e1566da	0.14590016
3	0x3de82c18	0.11336535
4	0xbd56a024	-0.052398816
5	0xbd1af26c	-0.037828848
6	0xbdab905e	-0.08377145
7	0x3dbae2ed	0.09125314
8	0xbca9ebe7	-0.02074237
9	0x3e0afff7	0.13574205
10	0xbd1d959a	-0.03847275
11	0xbc1bb1da	-0.009502852
12	0xbe00e93a	-0.12588969
13	0x3dbdca47	0.09267097
14	0xba228326	-0.0006199352
15	0x3d67011f	0.056397554
16	0x3e143268	0.14472353
17	0xbdbcb01e	-0.09213279
18	0xbd41b49b	-0.04729138
19	0x3cc8ef52	0.02452818
20	0x3e15535e	0.14582583
21	0x3e0a87de	0.13528392
22	0x3e00f8b1	0.12594868
23	0x3e10a43a	0.14125147
24	0xbdbe651b	-0.09296628
25	0x3d1aaed8	0.0377644
26	0xbd0fa900	-0.03507328
27	0x3dda8b16	0.1067106
28	0x3dbc238f	0.0918647
29	0x3cc9e0eb	0.024643382
30	0xbe138acb	-0.14408414
31	0xbd6994f3	-0.057026815
32	0xbcdccd9d	-0.026953513
33	0x3d3258cc	0.043541715
34	0x3e223cc7	0.15843497
35	0xbd96f2ae	-0.07370506
36	0xbc8ee300	-0.017442226
37	0xbe0fe10e	-0.14050695
38	0x3cc1bed8	0.023650572
39	0xbc622d57	-0.013804755
40	0x3da19958	0.07890576
41	0x3dffee3d	0.12496612
42	0xbdf7b127	-0.12094336
43	0xbbf58bb1	-0.007493459
44	0x3d106806	0.035255454
45	0xbd2f2daf	-0.042768177
46	0x3e0cb18a	0.13739601
47	0x3d83286a	0.06404193
48	0x3e1031fc	0.14081568
49	0xbd9bbd47	-0.07604461
50	0x3d6613ff	0.056171414
51	0x3cf7ab8f	0.030233173
52	0x3ded0d09	0.11574752
53	0x3dc7f24e	0.09763013
54	0x3d67966e	0.056539945
55	0x3dcb281b	0.09919759
56	0x3da3e78f	0.08003151
57	0x3d87a3b4	0.06623021
58	0xbd412045	-0.047149915
59	0xbe09a666	-0.13442382
60	0x3cd752c8	0.02628459
61	0x3e1a1f3e	0.1505098
62	0x3bdb0538	0.0066839717
63	0x3d444e20	0.04792607
64	0xbddd6dd5	-0.108119644
65	0x3da0e12c	0.07855448
66	0xbd864d8a	-0.06557758
67	0x3de9f7ca	0.11424215
68	0x3e108f7a	0.14117232
69	0x3d273629	0.040823136
70	0x3cae6821	0.021289887
71	0x3dd9833d	0.10620735
72	0x3bb57481	0.00553757
73	0x3e12869a	0.14309159
74	0xbd9a9178	-0.07547277
75	0xbdf4d706	-0.11955075
76	0x3c47d405	0.0121965455
77	0xbe0e8891	-0.13919283
78	0x3de93ff6	0.11389153
79	0xbdc86f6a	-0.097868755
80	0x3d9eb340	0.07749033
81	0x3d22148a	0.03957037
82	0x3ab8d55b	0.0014101671
83	0xbbd518b6	-0.00650319
84	0x3cc768cf	0.024341969
85	0x3cffbca1	0.031217875
86	0xbcfda874	-0.030964114
87	0xbd42ce74	-0.04756017
88	0x3d9a31a6	0.07529001
89	0x3cbba180	0.022904158
90	0x3de3d1a1	0.11123968
91	0xbda0904d	-0.07840023
92	0x3d867189	0.06564624
93	0x3db9df42	0.09075786
94	0xbc92dc8c	-0.01792743
95	0xbd927cbb	-0.07152697
96	0x3e0281f9	0.12744893
97	0x3df845a4	0.12122658
98	0xbd627fbb	-0.055297595
99	0x3c5e168f	0.013555183
100	0xbd85a70b	-0.065260015
101	0x3d6b86c0	0.057501554
102	0xbe1c0ff5	-0.15240462
103	0x3d3899c4	0.045068517
104	0xbddf8a6c	-0.10915074
105	0xbd0036e8	-0.031302363
106	0x3cf828e4	0.030292936
107	0xbdff732a	-0.12473138
108	0xbd7c2337	-0.06155702
109	0x3dec44f0	0.11536586
110	0xbd7317e8	-0.05934897
111	0xbe0f8296	-0.14014658
112	0xbcc0e21d	-0.02354532
113	0xbbb11a18	-0.005404722
114	0x3d2c2b94	0.042033747
115	0x3d169412	0.036762305
116	0xbbc15e6a	-0.0059011476
117	0x3dde9758	0.1086871
118	0x3ba6b059	0.0050869402
119	0x3cc6eb85	0.024282226
120	0x3d0d7f77	0.034545388
121	0x3db1774f	0.086653344
122	0xbcea01bb	-0.028565278
123	0x3d35ea01	0.044412617
124	0xbe0c3676	-0.1369265
125	0xbdb5e5b1	-0.08881701
126	0x3da9ef90	0.08297646
127	0xbdc1f520	-0.09470582
128	0xbd8df99d	-0.069323756
129	0xbd28ad28	-0.04118076
130	0xbc15a3fe	-0.009133337
131	0x3e0231c9	0.12714304
132	0x3dd65874	0.1046609
133	0xbc9c8898	-0.019108102
134	0xbda6e0e9	-0.08148367
135	0xbd9b4c5c	-0.07582924
136	0x3dee59cd	0.11638222
137	0xbd00740d	-0.031360675
138	0xbd5d5f2b	-0.054045837
139	0xbcf3ff78	-0.029784903
140	0xbdbeecf7	-0.09322541
141	0x3d6ca642	0.057775743
142	0xbdb28afc	-0.087179154
143	0xbd2b6b94	-0.04185064
144	0xbcc20c1d	-0.023687417
145	0xbddbeafa	-0.107381776
146	0x3ddead14	0.10872856
147	0xbddffaf8	-0.1093654
148	0x3ddc374b	0.10752734
149	0xbca39b2f	-0.019971458
150	0x3d949fbf	0.07257032
151	0x39a9d7ce	0.0003239498
152	0x3ddaaa65	0.106770314
153	0xbe067c4b	-0.13133352
154	0x3d1935f1	0.03740496
155	0xbe01fbea	-0.12693754
156	0x3ddef67e	0.108868584
157	0x3dedb7cc	0.11607322
158	0x3c9fe8c7	0.019520177
159	0x3d2ff5eb	0.042959135
160	0xbda070a5	-0.07833985
161	0x3d065433	0.032795142
162	0xbc3ca4c2	-0.011513891
163	0x3dc13379	0.09433646
164	0x3dac5552	0.08414711
165	0x3e0dc7da	0.13845769
166	0x3e0a7412	0.1352084
167	0x3e069617	0.13143192
168	0xbd75d7b9	-0.060020182
169	0xbdc727df	-0.09724402
170	0x3bd9c780	0.0066460967
171	0x3ba7af99	0.0051173684
172	0x3da6ac72	0.0813836
173	0xbd86ba2e	-0.0657848
174	0xbdf65144	-0.12027219
175	0xbd9e31a1	-0.0772431
176	0xbc990113	-0.01867727
177	0x3d64823c	0.055788264
178	0x3df16774	0.1178731
179	0x3c2bb00d	0.0104789855
180	0xbdd19680	-0.10233784
181	0x3d863403	0.06552889
182	0xbd7c8cec	-0.06165783
183	0x3d2609e2	0.04053677
184	0x3d3da13b	0.04629634
185	0xbdd29b8d	-0.10283575
186	0xbccdb723	-0.02511174
187	0x3cb6fd88	0.02233769
188	0xbdc2b5f5	-0.09507362
189	0xbd3124b8	-0.04324791
190	0xbdcabb4d	-0.09899006
191	0xbdedd523	-0.11612918
192	0xbce7e400	-0.028306961
193	0x3d975422	0.07389094
194	0xbd97e66f	-0.074169986
195	0xbd5dc7fa	-0.05414579
196	0xbde2d239	-0.11075253
197	0x3de28d69	0.11062128
198	0x3d02c661	0.03192747
199	0xbdda795f	-0.10667681

lstm.bias_hh_l0 f4 [200]
0	0xbcf0a77c	-0.029376738
1	0xbe019030	-0.1265266
2	0xbc1ff309	-0.009762534
3	0x3d734f81	0.059401993
4	0x3d4ec89f	0.050484296
5	0xbdb93bad	-0.090445854
6	0x3a9b60c0	0.0011854395
7	0xbd8b4a6e	-0.06801306
8	0x3e09d430	0.1345985
9	0xbdb405e1	-0.08790184
10	0xbccfd435	-0.025369743
11	0xbcfd1b81	-0.030896904
12	0xbda19b29	-0.078909226
13	0x3d6c1945	0.057641286
14	0xbd1bb772	-0.038016744
15	0xbd1abca2	-0.03777755
16	0x3de93fb8	0.113891065
17	0xbd7fe077	-0.062469926
18	0x3e094aa3	0.13407378
19	0xbb31ac52	-0.0027110768
20	0xbd6ffff3	-0.0585937
21	0xbe0a5269	-0.13508
22	0x3d8e82a8	0.069585145
23	0xbdc1179d	-0.09428332
24	0x3dd48b56	0.10378139
25	0x3daf403d	0.08557174
26	0xbde822f2	-0.1133479
27	0x3d0631b1	0.032762233
28	0xbbc0f839	-0.0058889654
29	0xbcbc4a30	-0.022984594
30	0xbcd7875b	-0.02630966
31	0x3e060167	0.13086472
32	0x3e050d18	0.12993276
33	0xbdee4958	-0.11635083
34	0x3d0aaa1b	0.03385363
35	0x3dafabc4	0.085776836
36	0x3c8ed57a	0.017435778
37	0x3d900259	0.07031698
38	0xbddb1d40	-0.10698938
39	0xbce36b8e	-0.027761247
40	0xbe0db630	-0.1383903
41	0xbc2e301c	-0.010631587
42	0x3de4fe49	0.111813135
43	0x3d07c99b	0.03315125
44	0xbdc735a9	-0.09727032
45	0xbcfe7a62	-0.031064216
46	0xbd7d002f	-0.061767753
47	0x3e0db3c1	0.13838102
48	0xbda6e925	-0.081499375
49	0x3c95d89d	0.018291766
50	0x3e0220f3	0.12707882
51	0x3def8ea6	0.1169713
52	0x3dfe49a8	0.124163926
53	0x3dd7983b	0.105270825
54	0xbceb9b95	-0.02876071
55	0xbd86d6a7	-0.065839104
56	0xbd8e8b11	-0.069601186
57	0x3cfb0a20	0.030644476
58	0x3de3859f	0.111094706
59	0xbdc591b9	-0.09646935
60	0x3ddf47a4	0.10902336
61	0xbceb23c9	-0.028703587
62	0x3dad5888	0.084641516
63	0xbd2969df	-0.041360732
64	0xbd94e662	-0.072705045
65	0x3d72b110	0.05925089
66	0x3da4e98e	0.080523595
67	0x3e1a7ab5	0.15085872
68	0x3d837cba	0.06420274
69	0xbcd6a867	-0.026203347
70	0xbda9187d	-0.08256624
71	0xbc86badc	-0.016446523
72	0xbd92e4d9	-0.071725555
73	0x3d80158c	0.0625411
74	0x3d679aa5	0.056543965
75	0x3de297a4	0.110640794
76	0x3db3a6b0	0.087720275
77	0x3e084b7a	0.13310042
78	0x3dd82ea2	0.105557695
79	0xbc0aa55b	-0.008462275
80	0x3dccdd1a	0.10003109
81	0x3d2218f5	0.039574582
82	0xbbd9f003	-0.006650926
83	0x3cda7fdd	0.026672298
84	0x3e227d88	0.15868199
85	0x3d2cf291	0.042223517
86	0x3e04baa6	0.12961826
87	0xbde1b297	-0.110203914
88	0xbde410e8	-0.11136037
89	0xbcf6e732	-0.03013954
90	0x3dbe532f	0.0929321
91	0x3e11a990	0.14224839
92	0xbde9a891	-0.114091046
93	0x3d7742ce	0.060366444
94	0xbd4d71f8	-0.050157517
95	0x3d9ec2e3	0.077520154
96	0x3e1f60f4	0.15564328
97	0xbd9c4dac	-0.07632002
98	0xbdd7371d	-0.10508559
99	0x3dfcd888	0.123459876
100	0x3c54fd03	0.012999776
101	0xbd96bccc	-0.07360229
102	0xbe15d397	-0.14631496
103	0xbd576139	-0.052582953
104	0x3d545f84	0.051848903
105	0x3dcb23d2	0.099189416
106	0x3d822697	0.06355017
107	0x3d4ac739	0.0495064
108	0xbdc88b52	-0.09792198
109	0x3d514886	0.051094554
110	0xbc0aba34	-0.008467246
111	0xbdfedc2e	-0.1244434
112	0xbdee8953	-0.11647286
113	0xbd50605d	-0.05087315
114	0xbdcc8cca	-0.09987791
115	0x3d83d351	0.0643679
116	0xbcc2cdf3	-0.023779845
117	0x3dbfba9c	0.09361765
118	0x3d8d7b63	0.069083
119	0x3b9ac543	0.0047232225
120	0x3e01c732	0.12673643
121	0xbdc52898	-0.09626883
122	0xbd61e906	-0.05515387
123	0xbd5f65d7	-0.05454048
124	0xbda04f02	-0.078275695
125	0xbe077b4d	-0.1323063
126	0x3d08ce54	0.033399895
127	0x3c0f0c52	0.008730965
128	0x3e0fbe6c	0.14037484
129	0xbddec3aa	-0.10877164
130	0x3d15feca	0.03661994
131	0x3e1eb1ee	0.15497562
132	0x3d61cdd1	0.055127922
133	0xbd55f8d4	-0.052239254
134	0x3e1b91e6	0.15192375
135	0x3da1af7e	0.078948006
136	0x3d7d5670	0.06185001
137	0x3dc571c9	0.096408434
138	0xbd4e734f	-0.050402936
139	0xbe1568e5	-0.14590795
140	0x3d06a780	0.032874584
141	0xbe1746f4	-0.1477316
142	0x3cc5e1e9	0.024155574
143	0xbd3ede03	-0.046598446
144	0x3bc59627	0.0060298624
145	0xbda7accb	-0.081872545
146	0xbe01cd66	-0.1267601
147	0x3df83265	0.12118987
148	0xbda5d648	-0.080975115
149	0x3dea995c	0.11455032
150	0xbd183e5b	-0.03716884
151	0x3d188dd6	0.03724464
152	0x3d4726a8	0.04862085
153	0xbd052c70	-0.032513082
154	0x3ddb2ac0	0.10701513
155	0x3d839310	0.06424534
156	0x3ddab4c1	0.10679007
157	0x3d71d981	0.05904532
158	0xbda9c694	-0.08289829
159	0x3c482a9b	0.012217189
160	0xbdda96d5	-0.106733
161	0xbdaabe93	-0.083371304
162	0xbda325c9	-0.07966191
163	0x3dcf380c	0.10118112
164	0xbd9edf9a	-0.07757492
165	0x3d939b6d	0.072073795
166	0x3e07f204	0.13275915
167	0xbd3d619b	-0.046235662
168	0xbd3b75ca	-0.04576663
169	0x3bdaf7e8	0.0066823848
170	0x3e162674	0.14663106
171	0xbddc0b24	-0.107443124
172	0x3c54e696	0.012994429
173	0x3da698c0	0.081346035
174	0xbe000cc3	-0.12504868
175	0xbd9122f1	-0.07086743
176	0x3c87c13a	0.01657163
177	0x3b8f5666	0.004374313
178	0xbe03a58f	-0.12856124
179	0x3e043be0	0.12913465
180	0x3e04ea7a	0.1298007
181	0x3dc84a94	0.0977985
182	0x3d6732ef	0.05644506
183	0x3d903896	0.07042043
184	0xbde4d608	-0.11173636
185	0x3e02ebe8	0.12785304
186	0xbdafb7e9	-0.0858
187	0x3d012d98	0.031537622
188	0x3bb78404	0.0056004543
189	0x3d9c91a4	0.07644966
190	0xbda9c5a9	-0.08289654
191	0x3be1c4e2	0.0068899253
192	0x3cf7370f	0.030177621
193	0x3e1275f8	0.14302814
194	0x3dede55b	0.11616012
195	0x3d5b6b9e	0.05356943
196	0x3e21bf32	0.15795591
197	0x3d15dc7e	0.03658723
198	0x3c9559c2	0.018231276
199	0xbd9a8a9f	-0.07545971

lstm.weight_ih_l1 f4 [200, 50]
0	0xbcde63c9	-0.02714719
1	0xbde730ae	-0.11288582
2	0xbe00959c	-0.12557071
3	0xbd4daf98	-0.050216287
4	0x3de8dd6b	0.11370357
5	0x3da9ffc6	0.08300738
6	0xbcce019b	-0.02514725
7	0x3c9c8d86	0.019110452
8	0xbda9928b	-0.08279904
9	0x3df381e9	0.11890013
10	0x3da33f60	0.07971072
11	0xbb2f7d50	-0.0026777573
12	0x3dc9083d	0.098160245
13	0x3dfa0a99	0.122090526
14	0xbc02505f	-0.007953732
15	0x3da6f45a	0.08152075
16	0x3de8c9ce	0.11366616
17	0x3d9417c6	0.07231097
18	0x3d52d43d	0.051471937
19	0xbd1a9aeb	-0.037745398
20	0x3d0976a3	0.033560406
21	0xbe05d3fa	-0.13069144
22	0xbdc94310	-0.09827244
23	0x3d30856e	0.043096
24	0xbe01eae5	-0.12687261
25	0xbd88ffd6	-0.06689422
26	0x3de1a333	0.11017456
27	0xbdf0042f	-0.11719548
28	0x3de5f6d0	0.112287164
29	0xbd6e9278	-0.058245152
30	0x3dd99bb4	0.10625401
31	0x3d516f24	0.051131383
32	0x3d818b48	0.06325394
33	0xbdd9ffe7	-0.106445126
34	0x3cb302da	0.021851946
35	0x3de19816	0.11015336
36	0xbd92d1d7	-0.0716893
37	0x3df20749	0.11817796
38	0x3ab3b07b	0.0013709211
39	0x3d7301c1	0.059327845
40	0xbda98a20	-0.082782984
41	0xbd3a5bc6	-0.04549768
42	0xbd841d53	-0.06450906
43	0x3d2ac1a8	0.04168859
44	0x3d92b4c1	0.07163382
45	0x3daa0645	0.08301977
46	0x3de8e716	0.11372201
47	0xbd976fdb	-0.073943816
48	0xbc7c3117	-0.015392563
49	0x3dc051f9	0.09390635
50	0xbd0dace4	-0.03458871
51	0xbdf11ffb	-0.11773678
52	0x3d83d33e	0.064367756
53	0xbdd5ad63	-0.104334615
54	0xbc102696	-0.008798262
55	0xbdbce74d	-0.092238046
56	0x3c90c49a	0.017671872
57	0xbcadeaf7	-0.021230204
58	0x3de044dd	0.10950635
59	0xbe0a050c	-0.13478488
60	0x3daf6705	0.08564571
61	0x3cfd854d	0.030947352
62	0xbddd2348	-0.10797745
63	0x3e0c8a6f	0.13724683
64	0x3b282347	0.0025655793
65	0x3d27a329	0.040927086
66	0x3dba2cbc	0.09090564
67	0xbdf9c8ff	-0.1219654
68	0xbd9d141a	-0.0766985
69	0xbd7747c2	-0.060371168
70	0xbd9570cd	-0.07296906
71	0x3dbb337e	0.09140681
72	0xbd8216a4	-0.063519746
73	0x3d4d9177	0.050187554
74	0xbd7753fc	-0.060382828
75	0xbe0071df	-0.12543438
76	0xbdcd2485	-0.10016731
77	0xbda52602	-0.0806389
78	0x3d268633	0.040655326
79	0xbd8a1fae	-0.06744324
80	0x3d8c8788	0.06861788
81	0xbe08b4c3	-0.13350205
82	0xbd75ccca	-0.060009755
83	0xbd3eeb8b	-0.04661135
84	0x3d48cb00	0.04902172
85	0x3d711c4c	0.058864877
86	0xbdb4c6a4	-0.0882695
87	0x3dee52ba	0.116368726
88	0x3dee232f	0.116278045
89	0xbdd41fdf	-0.103576414
90	0x3d9566f3	0.07295027
91	0xbc21bc7d	-0.009871599
92	0x3db9c2b7	0.09070342
93	0x3dd81e98	0.1055271
94	0x3c905f34	0.017623521
95	0xbc0a8c39	-0.008456283
96	0x3d598c9a	0.053112604
97	0x3e052e24	0.13005883
98	0x3dc1d4aa	0.094643906
99	0xbd3bd069	-0.045853052
100	0xbbdb0526	-0.0066839634
101	0x3e0adfbd	0.13561912
102	0xbc7e2b9b	-0.015513326
103	0x3e035f28	0.12829268
104	0x3d6a252b	0.057164352
105	0xbe0017da	-0.12509099
106	0xbd57ef6c	-0.052718565
107	0x3d84260a	0.06452568
108	0xbe0f34f2	-0.13985041
109	0x3cb4724f	0.022027163
110	0xbd3684ad	-0.044560123
111	0x3dcb3005	0.099212684
112	0xbd2dcc7a	-0.042431332
113	0xbdce968d	-0.10087309
114	0x3cc10e55	0.023566404
115	0xbcbbbfe3	-0.022918647
116	0xbdcd57e2	-0.10026528
117	0x3d24895e	0.040170066
118	0x3d2ff326	0.042956494
119	0xbe0d1acf	-0.13779758
120	0xbdcd9156	-0.10037486
121	0xbd6408da	-0.055672504
122	0x3bb8cd0b	0.0056396774
123	0xbd0386d4	-0.032111004
124	0x3c09fa29	0.008421459
125	0xbe11eef0	-0.14251304
126	0xbd965f42	-0.07342388
127	0xbb58df61	-0.0033092129
128	0xbdb1f9bd	-0.08690212
129	0x3b7e5073	0.0038805276
130	0x3dc09c23	0.09404781
131	0xbdb7f8c4	-0.08982995
132	0x3e20320d	0.15644093
133	0x3c3562c9	0.0110709155
134	0x3db50dd3	0.088405274
135	0x3d01fa91	0.0317331
136	0x3dcf92b3	0.101354025
137	0x3e08cb92	0.13358906
138	0xbd49cc64	-0.049267188
139	0xbc945bab	-0.018110117
140	0x3d25e372	0.040500112
141	0xbce29975	-0.027661065
142	0x3df19472	0.11795892
143	0x3bda7e9b	0.0066679246
144	0xbd36cf52	-0.04463131
145	0x3d80616d	0.062685825
146	0xbda43784	-0.08018401
147	0x3d93d0fe	0.072175965
148	0xbd2a5e7d	-0.041594017
149	0xbd805900	-0.062669754
150	0x3d0e4f9f	0.0347439
151	0x39ac8839	0.0003290789
152	0xbe08c557	-0.13356529
153	0x3d90ec11	0.07076276
154	0x3ca1fc40	0.019773602
155	0xbd7e4af4	-0.0620832
156	0x3de0b42b	0.10971864
157	0x3d30d359	0.043170307
158	0xbe0ab994	-0.13547355
159	0x3e145dd6	0.1448892
160	0x3db62dfd	0.0889549
161	0xbd6eac3f	-0.058269735
162	0x3d571d11	0.052517954
163	0x3e032c23	0.12809806
164	0xbe13537d	-0.14387317
165	0x3b518e03	0.0031975515
166	0x3d92fcde	0.07177137
167	0x3e07eee0	0.13274717
168	0x3de76283	0.112980865
169	0x3d0d365e	0.034475677
170	0x3ca5a156	0.020218533
171	0xbdf9578e	-0.12174903
172	0x3df7a5d6	0.120921776
173	0xbd4bbabf	-0.04973864
174	0x3dd54277	0.10413068
175	0xbd13d977	-0.036096063
176	0xbdf86d0a	-0.121301726
177	0xbd071aff	-0.03298473
178	0x3c55ffcb	0.013061474
179	0xbbc1ef01	-0.005918384
180	0xbd90af8f	-0.07064735
181	0xbdd65fae	-0.10467468
182	0x3cfad082	0.030617002
183	0xbd29f7e3	-0.04149617
184	0x3d8a5350	0.06754172
185	0xbd0b118f	-0.033952292
186	0xbd03276d	-0.03202002
187	0x3dcab2b6	0.09897368
188	0xbbdd94d3	-0.006762126
189	0xbc658c9c	-0.014010575
190	0x3d65a3c4	0.056064382
191	0x3d91cf3d	0.07119606
192	0xbb24a123	-0.002512046
193	0xbbd06853	-0.0063600927
194	0x3c5533d1	0.013012842
195	0xbddd28b4	-0.10798779
196	0x3cf40b2b	0.029790482
197	0xbcedeb1e	-0.029042777
198	0xbd9aa22c	-0.07550463
199	0x3d712218	0.058870405
200	0x3d9d6b10	0.07686436
201	0x3d8ed7ec	0.069747776
202	0xbdcf11c1	-0.10110808
203	0x38e87041	0.00011083531
204	0x3c0191be	0.007908283
205	0xbda6d6f0	-0.08146465
206	0xbdab240b	-0.08356484
207	0xbd327675	-0.04357
208	0x3d34f0e0	0.04417503
209	0x3b28ab1e	0.002573676
210	0x3de8bfb1	0.11364687
211	0xbd03f11a	-0.032212354
212	0x3c96f283	0.018426185
213	0xbb0e7403	-0.002173663
214	0x3d6dda4b	0.05806951
215	0x3db5e746	0.088820025
216	0x3e04763e	0.12935731
217	0x3d228c83	0.039684784
218	0x3d04d98c	0.03243403
219	0xbcc5938f	-0.024118213
220	0xbd1905c8	-0.03735903
221	0x3da2398c	0.079211324
222	0xbe02294e	-0.12711069
223	0xbdc45823	-0.09587123
224	0xbccc5c76	-0.024946433
225	0xbd392b2b	-0.045207184
226	0xbdd616aa	-0.104535416
227	0x3db1ab54	0.08675256
228	0x3c270195	0.010193248
229	0xbdbdd17a	-0.0926847
230	0x3d8739ab	0.06602796
231	0xbdb268ef	-0.08711421
232	0xbd7082ea	-0.0587186
233	0xbe085617	-0.1331409
234	0xbdae3474	-0.085060984
235	0xbd14f449	-0.03636578
236	0xbc0633ce	-0.008191062
237	0xbd810fb9	-0.06301827
238	0xbd65be3e	-0.056089632
239	0xbcd09da6	-0.025465798
240	0xbd6af6ae	-0.05736416
241	0xbd3ab5d7	-0.045583572
242	0xbd7e5076	-0.062088452
243	0x3dceaed0	0.100919366
244	0xbd726cbf	-0.05918574
245	0xbd789c64	-0.06069602
246	0x3d2107eb	0.03931419
247	0xbd289d54	-0.041165665
248	0xbdca8b9e	-0.09889911
249	0x3e1c3133	0.15253143
250	0x3e07ba59	0.1325468
251	0xbde92c4b	-0.11385401
252	0xbdd5b3b1	-0.10434664
253	0x3d071a12	0.032983847
254	0xbb016ac3	-0.0019747473
255	0xbd3150e6	-0.04329004

lstm.weight_hh_l1 f4 [200, 50]
0	0x3d93b4a8	0.07212192
1	0x3ddbff16	0.10742013
2	0xbd8d1db7	-0.06890433
3	0x3dfa77cf	0.12229883
4	0xbdd54539	-0.10413594
5	0x3da8d1a7	0.08243113
6	0xbd129525	-0.035786767
7	0xbe03b284	-0.12861067
8	0x3cb9286c	0.022602282
9	0xbd01679e	-0.031592958
10	0x3c252cf4	0.010081518
11	0xbdbe640b	-0.092964254
12	0x3e0e32d4	0.13886577
13	0xbdd644d5	-0.104623474
14	0x3d9b0c87	0.07570749
15	0x3c86e21c	0.01646524
16	0xbd80e800	-0.062942505
17	0x3d143bae	0.036189727
18	0xbdf97be3	-0.12181833
19	0xbd5bbfab	-0.053649586
20	0xbbf56079	-0.007488307
21	0x3e0e1dfb	0.13878624
22	0xbbd955b4	-0.006632531
23	0x3d29e7f1	0.041480962
24	0xbddc049f	-0.10743069
25	0x3da13d91	0.07873071
26	0xbdd574b8	-0.10422653
27	0x3dac2d85	0.0840712
28	0x3d8c1138	0.06839222
29	0xbdc0f671	-0.09422005
30	0x3e0f8df6	0.14018998
31	0xbd1b7507	-0.037953403
32	0x3d903f9c	0.070433825
33	0x3db04462	0.08606793
34	0x3d11daa3	0.0356089
35	0xbd445ec7	-0.04794195
36	0x3de7f4f4	0.11326018
37	0x3da20cec	0.07912621
38	0xbdfeff70	-0.124510646
39	0x375ef878	1.3290082e-05
40	0x3d3b37a1	0.04570735
41	0xbd97b77a	-0.07408042
42	0x3d07c004	0.033142105
43	0xbdb805e4	-0.089854985
44	0xbdecc629	-0.115612336
45	0xbcfc5f12	-0.030807052
46	0xbe0bcd7e	-0.13652608
47	0xbd6bb299	-0.05754337
48	0xbe0d364a	-0.13790241
49	0xbde3a235	-0.11114923
50	0xbe1e980a	-0.15487686
51	0x3e1fec98	0.15617597
52	0x3dbbdbc5	0.09172777
53	0x3de548bd	0.11195514
54	0xbdc6626e	-0.09686743
55	0x3de7dc05	0.11321262
56	0x3d435493	0.047688078
57	0x3d088400	0.03332901
58	0x3db4ceba	0.088284925
59	0x3cee70ab	0.029106459
60	0x3c90ec5a	0.017690826
61	0x3d544e23	0.05183233
62	0x3d83eb11	0.0644132
63	0x3e125907	0.14291774
64	0x3d74947e	0.059711926
65	0x3d4329ce	0.04764729
66	0xbd8cc0f2	-0.06872739
67	0x3c9beada	0.019032884
68	0x3dec2a0f	0.115314595
69	0x3ca56352	0.020188961
70	0x3d4dcaaa	0.050242104
71	0xbd6f1f22	-0.0583793
72	0xbe10b7b6	-0.1413258
73	0x3dcb48e1	0.0992601
74	0x3dfebcd7	0.12438362
75	0x3deea61d	0.11652777
76	0xbdfb93ec	-0.12284073
77	0x3d1e1207	0.03859141
78	0xbd90fe0b	-0.07079705
79	0xbdd928ad	-0.106034614
80	0xbe074904	-0.13211447
81	0x3d8843f2	0.066535845
82	0x3af0b468	0.0018364312
83	0xbc14af68	-0.009075023
84	0x3e052e65	0.1300598
85	0xbc11560a	-0.008870611
86	0x3d5ead0e	0.054364257
87	0x3d54012f	0.05175894
88	0xbcbbf661	-0.022944631
89	0xbd839b4f	-0.06426107
90	0x3dbc1989	0.09184558
91	0xbd9eae26	-0.0774806
92	0xbe0b3965	-0.13596113
93	0xbdc0ab92	-0.094077244
94	0xbe00e9bc	-0.12589163
95	0x3ddc4c9d	0.107568
96	0xbdc746a0	-0.097302675
97	0xbdd1a6f7	-0.10236924
98	0xbd231348	-0.03981331
99	0x3d5d8b4e	0.05408793
100	0xbd528692	-0.051397868
101	0xbdba1828	-0.09086639
102	0xbd9fbd67	-0.077997975
103	0xbb664a8a	-0.0035139644
104	0x3da25fab	0.079284035
105	0xbdd822f1	-0.105535395
106	0x3e0ddd4b	0.13853948
107	0xbd996173	-0.0748929
108	0xbdb3be47	-0.08776527
109	0xbc8fb49c	-0.017542176
110	0xbe0f758f	-0.14009689
111	0x3d9ad52e	0.07560192
112	0x3c2b6e91	0.010463373
113	0x3d3ff2d3	0.046862435
114	0xbdc56804	-0.0963898
115	0xbe104583	-0.14089017
116	0xbd293f3e	-0.041320078
117	0x3d3db991	0.046319548
118	0xbcf33073	-0.029686188
119	0x3e224d17	0.1584972
120	0x3d178d4e	0.036999993
121	0xbe0fdb80	-0.14048576
122	0xbd6f5feb	-0.058441084
123	0xbe1ae6cd	-0.15127106
124	0xbd8f187d	-0.06987093
125	0x3d5e04c8	0.05420378
126	0x3d8ec641	0.06971408
127	0xbd6bc475	-0.057560403
128	0xbdfe4279	-0.124150224
129	0xba97f615	-0.0011593724
130	0xbc9c9c38	-0.01911746
131	0xbe0411c2	-0.12897399
132	0xbde7d978	-0.11320776
133	0xbcea4477	-0.0285971
134	0x3c136944	0.008997265
135	0xbb8829e3	-0.004155384
136	0x3e0f7918	0.14011037
137	0x3d11d364	0.03560199
138	0x3d81ec38	0.06343883
139	0x3d034a74	0.032053426
140	0x3d966c75	0.07344905
141	0xbb2053b5	-0.0024463956
142	0x3cfe5c2d	0.031049812
143	0x3d18bbb1	0.03728837
144	0x3de9bdd1	0.11413158
145	0xbd3b0e16	-0.04566773
146	0xbd11e291	-0.03561646
147	0xbd3b7d29	-0.04577366
148	0xbcb87f07	-0.022521509
149	0xbb118a80	-0.0022207797
150	0x3c1be47b	0.009514923
151	0xbdc7eede	-0.09762357
152	0xbdc2a7d1	-0.09504665
153	0x3dfa13eb	0.1221083
154	0x3d977536	0.07395403
155	0x3d234d92	0.0398689
156	0x3ba6c4f5	0.005089397
157	0x3df7c56b	0.12098201
158	0xbc2f0763	-0.0106829135
159	0x3d2c5cf9	0.042080853
160	0x3e08910e	0.13336584
161	0x3dad4cdb	0.08461925
162	0x3dfe5f38	0.12420505
163	0xbbda5da6	-0.006663996
164	0xbc31d6f1	-0.010854469
165	0xbd5b5a98	-0.053553194
166	0xbca03ce8	-0.019560292
167	0x3d7aac10	0.061199248
168	0xbc9a1d7d	-0.01881289
169	0xbd52a2f4	-0.051424935
170	0x3da1821e	0.07886146
171	0x3d800eea	0.06252845
172	0xbdf0d56a	-0.117594555
173	0x3d9035d9	0.070415206
174	0x3e03854e	0.1284382
175	0x3dda3584	0.106547385
176	0xbe0db5c0	-0.13838863
177	0x3d191afa	0.037379242
178	0xbdd119ea	-0.10210021
179	0xbad1be2f	-0.0016002114
180	0xbd2dd232	-0.042436786
181	0xbd362121	-0.044465188
182	0xbd579633	-0.052633476
183	0xbd5383e0	-0.051639438
184	0xbdc1136e	-0.09427534
185	0x3e03bba9	0.12864555
186	0x3dc08700	0.09400749
187	0x3df18e2a	0.11794694
188	0x3d59345c	0.05302845
189	0x3d8ec9ea	0.06972106
190	0xbba1a7e4	-0.004933344
191	0xbe100b41	-0.14066793
192	0xbdec1234	-0.115269095
193	0xbd9d4e9b	-0.076810084
194	0x3d3d0370	0.046145856
195	0xbd0ad69d	-0.033896077
196	0xbb49ee92	-0.0030812365
197	0x3cd7ae43	0.026328212
198	0xbdd7494d	-0.10512028
199	0xbd87988c	-0.06620893
200	0xbdd36fdb	-0.10324069
201	0x3e0e91f3	0.13922863
202	0xbd92d7c9	-0.07170064
203	0x3d8100de	0.062989935
204	0x3b1ebf94	0.0024223076
205	0xbde3fc8a	-0.111321524
206	0x3cea873c	0.028628938
207	0xbd90c289	-0.07068355
208	0xbd6ab45b	-0.057300907
209	0x3d6b300d	0.05741887
210	0xbe15ec8f	-0.14641021
211	0xbe208ca9	-0.15678658
212	0x3df5514d	0.119783975
213	0x3aecc38c	0.0018063649
214	0x3e1e68d9	0.15469684
215	0x3bd2a0ee	0.0064278757
216	0xbcf44bf1	-0.029821368
217	0x3bf5af06	0.007497671
218	0xbd9f6ea1	-0.07784773
219	0xbb01e8f4	-0.0019822689
220	0xbc8182f3	-0.015809512
221	0x3dcb52db	0.09927913
222	0xbd870fb1	-0.0659479
223	0x3d941b32	0.072317496
224	0xbc25c8e1	-0.010118694
225	0xbd09d2ba	-0.03364823
226	0x3c563a0f	0.013075366
227	0xbd9b9c56	-0.07598178
228	0xbd3c671b	-0.045996767
229	0xbe2143b2	-0.1574848
230	0xbd0bf6d2	-0.034170933
231	0x3d5cf46c	0.053944036
232	0xbd8ffeb5	-0.070310034
233	0xbcd65cfa	-0.026167382
234	0x3de7bb0a	0.11314972
235	0x3d5b6de9	0.053571615
236	0xbd8bb304	-0.06821254
237	0xbd2a31cb	-0.041551393
238	0xbdd70b43	-0.10500195
239	0xbe0001e1	-0.12500717
240	0x3d9fa696	0.077954456
241	0xbe032437	-0.12806784
242	0xbc856f4d	-0.016288424
243	0x3da12306	0.07868008
244	0x3c801431	0.015634628
245	0x3dbc47b8	0.09193367
246	0x384561d0	4.7059555e-05
247	0xbd9adb36	-0.075613424
248	0xbb973f18	-0.0046156757
249	0x3e078624	0.13234764
250	0x3cba09c7	0.02270974
251	0xbd2bdaa5	-0.041956563
252	0xbd5246f6	-0.051337205
253	0x39e3245d	0.00043323907
254	0x3d8533a5	0.06503991
255	0xbc651adb	-0.013983454

lstm.bias_ih_l1 f4 [200]
0	0x3d7caf74	0.061690763
1	0xbdbe29cf	-0.09285318
2	0x3db45b36	0.088064596
3	0x3d2ac27e	0.04168939
4	0xbdcb243b	-0.0991902
5	0xbd1ddf4c	-0.03854303
6	0x3ce89780	0.028392553
7	0x3e1f24c1	0.15541364
8	0x3e0a80c9	0.1352569
9	0x3d6caed1	0.057783905
10	0x3c5c8334	0.013459016
11	0x3d436875	0.04770704
12	0xbd0db2ae	-0.03459423
13	0xbd8b9fc4	-0.06817582
14	0x3da5fca3	0.08104827
15	0xbd9f3bde	-0.07775091
16	0x3de1b170	0.11020172
17	0x3df610f8	0.12014955
18	0x3d3c927d	0.04603814
19	0xbdcb0b3b	-0.099142514
20	0xbe0951e9	-0.13410152
21	0x3e16e273	0.14734821
22	0xbd946f6c	-0.072478145
23	0xbd9fcc68	-0.07802659
24	0x3d49da54	0.04928048
25	0x3d75b3f2	0.059986062
26	0xbd7c4c23	-0.061596047
27	0x3cb04df4	0.021521546
28	0x3ce310b0	0.027717918
29	0x3dba3b08	0.090932906
30	0x3d540c90	0.051769793
31	0x3dd1eaa9	0.10249836
32	0x3dc59d44	0.09649137
33	0x3d9a85f2	0.07545079
34	0x3e00a673	0.12563495
35	0xbe15147b	-0.14558594
36	0x3d1e51eb	0.03865234
37	0xbcacab35	-0.021077732
38	0xbd95468a	-0.07288845
39	0xbc53a4fe	-0.012917755
40	0x3e0a36fd	0.13497539
41	0x3ca8d649	0.020609992
42	0x3d2e3a4a	0.042536058
43	0xbdae905f	-0.0852363
44	0xbc9aed99	-0.018912124
45	0xbd9806c2	-0.07423164
46	0xbdbdec3d	-0.092735745
47	0xbc1579fa	-0.00912332
48	0x3d36b90d	0.044610072
49	0x3dba338f	0.09091865
50	0xbdd2dcb0	-0.10295999
51	0xbd69abfe	-0.05704879
52	0xbd6e0c62	-0.058117278
53	0x3c5815b2	0.013188766
54	0xbd8ae678	-0.0678224
55	0xbc7e639b	-0.0155266775
56	0x3bb6194a	0.005557214
57	0x3c7b67ec	0.015344601
58	0xbabf26a9	-0.0014583665
59	0x3ccdd8d5	0.025127808
60	0xbbc4eba0	-0.006009534
61	0xbd00ce2b	-0.031446617
62	0xbdf5b8bc	-0.11998126
63	0xbd450930	-0.048104465
64	0x3ddd0a40	0.10792971
65	0xba41fcff	-0.0007400065
66	0x3c325c43	0.010886255
67	0x3dfc1140	0.12307978
68	0xbdfbffac	-0.12304625
69	0xbc729db6	-0.014808109
70	0x3db6ff2a	0.089353874
71	0x3d908516	0.07056634
72	0xbe03ad68	-0.12859118
73	0x3dee866c	0.11646733
74	0x3d217254	0.039415672
75	0x3c30e7e5	0.010797475
76	0x3cad83ab	0.021180948
77	0xbd94f5f7	-0.072734766
78	0xbd95c754	-0.073134094
79	0x3da7ce57	0.08193653
80	0xbde3edbc	-0.111293286
81	0x3ba194bd	0.004931061
82	0xbd2b64a8	-0.04184404
83	0x3d50c2b8	0.05096695
84	0xbd03e976	-0.032205068
85	0x3d6bfce9	0.05761424
86	0x3d84c662	0.06483151
87	0xbb36d5fe	-0.0027898545
88	0xbc8a2ec3	-0.016868
89	0xbdd33dca	-0.1031452
90	0xbdb91c7e	-0.090386376
91	0xbda77c35	-0.081779875
92	0xbc05b9b2	-0.008161949
93	0x3ddab59f	0.10679173
94	0xbd64c85e	-0.055855148
95	0x3d050542	0.032475717
96	0x3dd0ed2f	0.10201489
97	0x3d8eaf4c	0.06967029
98	0xbdc511c3	-0.096225284
99	0x3dfcbb94	0.12340465
100	0xbaf7aa20	-0.0018895306
101	0x3d4fe3fe	0.05075454
102	0x3d7bd58b	0.061482947
103	0x3dddce60	0.108303785
104	0x3d26998b	0.040673774
105	0x3d782de3	0.060590636
106	0xbdccb336	-0.09995119
107	0xba106118	-0.0005507632
108	0xbd939c27	-0.07207518
109	0x3b3deba4	0.0028979564
110	0x3d56adce	0.052411847
111	0xbe0dbdad	-0.13841887
112	0xbdd6b97e	-0.104845986
113	0x3dcfc627	0.101452164
114	0x3c0a5947	0.008444137
115	0x3dddf819	0.108383365
116	0x3dc8c871	0.09803856
117	0xbd326e6b	-0.043562334
118	0xbb847a9c	-0.0040429365
119	0x3de64158	0.11242932
120	0x3df726f3	0.12067976
121	0xbe0085ae	-0.12550995
122	0xbdb87b58	-0.09007901
123	0xbd926c00	-0.071495056
124	0x3de06774	0.10957232
125	0xbe0c369d	-0.13692708
126	0xbd4b5d0f	-0.049649294
127	0xbd24bf3a	-0.04022143
128	0x3d86c343	0.06580212
129	0xbd709846	-0.05873897
130	0xbb96183f	-0.004580527
131	0x3c318326	0.010834491
132	0x3db1daca	0.08684309
133	0xbd8ee86a	-0.06977923
134	0xbdd13188	-0.102145255
135	0xbdf4fc63	-0.119622014
136	0x3999c951	0.00029332426
137	0x3d5af8a8	0.053459793
138	0xbceb7c32	-0.028745744
139	0xbd4461ec	-0.047944948
140	0x3d4521e6	0.04812803
141	0x3d4e9a60	0.050440192
142	0xbdf8b46e	-0.12143789
143	0x3e1ade5d	0.15123887
144	0xbcea53df	-0.028604446
145	0x3ceac074	0.028656222
146	0xbd1297c0	-0.03578925
147	0x3db77334	0.0895752
148	0xbda21ac6	-0.07915263
149	0x3de853cd	0.11344109
150	0xbdb7b720	-0.08970475
151	0x3d02665c	0.0318359
152	0xbde98364	-0.11402014
153	0x3dcd6e6f	0.10030829
154	0x3d38836c	0.04504721
155	0xbc16513d	-0.009174642
156	0xbc27408b	-0.010208259
157	0x3d90f98f	0.070788495
158	0xbdda5e39	-0.10662503
159	0x3de582d0	0.11206591
160	0xbd40efe9	-0.047103796
161	0x3d932644	0.07185033
162	0x3dc21bbc	0.09477946
163	0xbe1caf64	-0.15301281
164	0xbd6df764	-0.05809726
165	0xbdf14d0f	-0.11782276
166	0xbd40db5f	-0.04708421
167	0xbd7b30e1	-0.06132591
168	0xbe04e609	-0.12978376
169	0x3d417558	0.04723105
170	0xbd783494	-0.060597017
171	0x3db0ea19	0.086384006
172	0xbe13123c	-0.14362425
173	0xbd3ac31e	-0.045596235
174	0xbd37214b	-0.044709485
175	0x3d1e5eee	0.03866475
176	0x3def9f57	0.117003135
177	0xbd949884	-0.072556525
178	0xbe0d5ab0	-0.13804126
179	0xbd69cb9d	-0.057078946
180	0x3e24174b	0.1602451
181	0xbd113166	-0.0354475
182	0x3d3cbf54	0.046080902
183	0xbc700723	-0.014650139
184	0xbdb2e6b2	-0.08735408
185	0xbdb9fb91	-0.090811856
186	0x3d8c382c	0.068466514
187	0xbc830e4e	-0.015998032
188	0x3dc8288e	0.0977336
189	0xbdc2f492	-0.09519304
190	0x3e063464	0.13105923
191	0xbc26356e	-0.010144575
192	0x3dfb023d	0.12256286
193	0x3df64732	0.12025298
194	0x3d8c4382	0.068488136
195	0xbcd1aaff	-0.025594233
196	0x3d805c3f	0.062675945
197	0x3e080691	0.13283755
198	0x3d6b24d8	0.057408184
199	0xbc07f1c1	-0.008297385

lstm.bias_hh_l1 f4 [200]
0	0xba530a64	-0.00080505596
1	0xbdc8de56	-0.09808032
2	0x3dd102be	0.10205601
3	0xbdde3756	-0.10850398
4	0xbdf8ecc1	-0.12154532
5	0x3d9c2a0c	0.07625207
6	0xbd8ae082	-0.06781103
7	0xbdc5bde2	-0.09655358
8	0xbdc03941	-0.0938592
9	0xbd8e0e2a	-0.06936295
10	0x3e058ac8	0.13041222
11	0x3e12b34f	0.14326213
12	0x3ca6d4f0	0.020365208
13	0x3d79606f	0.060882982
14	0xbdb4df5b	-0.08831664
15	0x3d9048bb	0.07045122
16	0xbdd7bee3	-0.105344556
17	0x3e06c81e	0.13162276
18	0x3d0621a5	0.03274693
19	0xbcee72fa	-0.02910756
20	0x3e04112b	0.12897174
21	0xbce6c3c2	-0.028169516
22	0xbd3f39b2	-0.046685882
23	0xbdaa33f6	-0.08310692
24	0x3bf5db74	0.0075029675
25	0xbdb541a4	-0.088504106
26	0xbddb15e7	-0.10697537
27	0xbd3c5f14	-0.04598911
28	0x3d125b65	0.035731692
29	0x3e08e3ed	0.13368197
30	0x3dda3ab0	0.10655725
31	0x3dd1cb51	0.10243858
32	0x3ceb5875	0.028728703
33	0x3e18da05	0.14926918
34	0xbd89849d	-0.06714747
35	0xbde3efde	-0.111297354
36	0x388badfb	6.660443e-05
37	0xbc445fdb	-0.011985744
38	0x3d91c762	0.071181074
39	0x3d2d9e01	0.042387012
40	0xbdb6a86b	-0.08918842
41	0x3d8c7458	0.06858128
42	0xbcfd9124	-0.030952998
43	0xbc0e8e87	-0.008700973
44	0x3d1db336	0.038500987
45	0xbdb9e918	-0.09077662
46	0x3cc7d497	0.024393363
47	0xbda6587b	-0.08122345
48	0xbbc5266c	-0.006016543
49	0xbd27b189	-0.040940795
50	0x3cd4fa1c	0.025998168
51	0x3d0058f8	0.031334847
52	0x3d0a2be2	0.033733256
53	0xbd5375b1	-0.05162591
54	0x3d3b3410	0.045703948
55	0xbdb6bfe4	-0.08923319
56	0x3ddde694	0.10834995
57	0x3d848dcb	0.06472357
58	0xbd0b9556	-0.034077965
59	0x3cdff6b7	0.027339322
60	0x3e106947	0.1410266
61	0x3e03fb29	0.12888779
62	0xbc02d570	-0.007985458
63	0xbe011b2b	-0.1260802
64	0x3ce78122	0.028259818
65	0x3dda10cd	0.10647736
66	0xbccbd1da	-0.024880338
67	0x3e089c5b	0.13340895
68	0xbdd8134f	-0.10550558
69	0xbdc7f0ae	-0.09762703
70	0xbe1adb53	-0.15122728
71	0x3d83370b	0.06406983
72	0xbde06f88	-0.10958773
73	0xbdde9773	-0.108687304
74	0x3cf07da7	0.02935679
75	0xbd68dd28	-0.056851536
76	0x3d5d69d1	0.054055993
77	0x3c76172b	0.015020172
78	0xbe034c9d	-0.12822194
79	0x3d95599e	0.07292484
80	0xbd617188	-0.055039912
81	0x3e1bdf27	0.15221845
82	0xbdbe6a7c	-0.09297654
83	0xbd4c51ec	-0.049882814
84	0xbc7a5c98	-0.015280865
85	0x3d027373	0.031848382
86	0x3c94c79d	0.01816159
87	0x3d09acd2	0.03361208
88	0xbdf9ce7d	-0.12197588
89	0x3d32d47e	0.04365968
90	0xbda7ec41	-0.08199359
91	0x3e084292	0.13306645
92	0x3d754ed4	0.05988963
93	0xbd7ad583	-0.061238777
94	0xbd8309aa	-0.06398328
95	0x3dacadfa	0.08431621
96	0xbde463ed	-0.11151872
97	0x3db2077b	0.08692833
98	0x3deba8a6	0.115067765
99	0xbd8c4f6a	-0.068510845
100	0xbd464bbc	-0.04841207
101	0xbdd145b4	-0.10218373
102	0xbe065f21	-0.13122226
103	0xbe0a423e	-0.13501832
104	0x3cca246e	0.024675574
105	0x3de632b1	0.11240137
106	0x3db4ef72	0.08834733
107	0x3e198e79	0.14995755
108	0x3d8aa0aa	0.067689255
109	0xbdc200e8	-0.09472829
110	0xbe0ef1c7	-0.13959418
111	0x3d2fa8ea	0.0428857
112	0xbd9076c2	-0.07053901
113	0x3dca4c3d	0.098778225
114	0x3e08e2bd	0.13367744
115	0xbe1a73e1	-0.15083267
116	0xbe1a4592	-0.15065601
117	0xbbebf8c1	-0.0072012846
118	0x3c86bc3e	0.016447183
119	0x3d723771	0.059134904
120	0x3db2d819	0.087326236
121	0xbdc82a60	-0.097737074
122	0x3e09a208	0.13440716
123	0xbcef4115	-0.029205838
124	0x3cc73e72	0.024321768
125	0xbb50af18	-0.0031842645
126	0x3b8e80d3	0.004348853
127	0x3df2a447	0.1184774
128	0x3d6f244b	0.05838422
129	0xbc6b9cbd	-0.014380631
130	0xbe1b54a3	-0.15169005
131	0xbd932b4e	-0.07185994
132	0xbdce3c1c	-0.10070059
133	0xbe23e91e	-0.16006896
134	0x3d9c9201	0.076450355
135	0xbd7035d2	-0.058645077
136	0x3de23113	0.110445164
137	0xbc5494d4	-0.0129749365
138	0xbe08d802	-0.1336365
139	0xbdd23ba4	-0.10265282
140	0xbdcc3206	-0.09970479
141	0xbd27475a	-0.04083953
142	0xbdee6d2e	-0.11641918
143	0x3e1dcbf3	0.15409832
144	0xbe0031dc	-0.1251902
145	0x3d001e61	0.03127897
146	0xbe1f892f	-0.15579675
147	0xbce26200	-0.02763462
148	0x3d96fdd7	0.07372635
149	0x3e106e16	0.14104494
150	0x3c7a07dd	0.015260664
151	0x3e0defe9	0.1386105
152	0xbd356006	-0.04428103
153	0xbe085ddf	-0.13317059
154	0x3ded276a	0.11579783
155	0xbb129a52	-0.0022369814
156	0x3db67af6	0.08910172
157	0xbcc9fbb2	-0.02465615
158	0xbd3043d6	-0.043033443
159	0xbc94d721	-0.018168988
160	0xbd76a9ea	-0.060220636
161	0xbcae6540	-0.021288514
162	0x3db0c90b	0.08632096
163	0xbd7fbc58	-0.062435478
164	0x3d9ecf45	0.07754377
165	0x3d3eea34	0.046610072
166	0x3d197ad0	0.03747064
167	0x3d819772	0.06327714
168	0x3db57b4e	0.08861409
169	0x3dbc758f	0.0920211
170	0xbdf41162	-0.11917378
171	0x3da99845	0.08280996
172	0xbd5b0bc6	-0.053478025
173	0xbdbcfd65	-0.09228019
174	0xbcb0f6fd	-0.021602148
175	0x3ce2c163	0.027680105
176	0x3cf13fef	0.029449431
177	0xbded95ea	-0.116008595
178	0x3ccc80a9	0.024963694
179	0xbd9aa3be	-0.075507626
180	0x3dbfd478	0.09366697
181	0x3e080f8b	0.13287179
182	0xbaf9509e	-0.0019021218
183	0xbd5c245b	-0.05374561
184	0xbd1a97b3	-0.037742328
185	0x3dd47c14	0.103752285
186	0x3dd73ca0	0.1050961
187	0x3bf74a73	0.007546717
188	0xbd7ad2d5	-0.06123622
189	0xbdb63708	-0.08897215
190	0x3d8e099c	0.069354266
191	0x3da8f94d	0.08250675
192	0x3d491da5	0.049100537
193	0xbbc5564e	-0.006022251
194	0x3d7187ea	0.05896751
195	0x3d5b90f7	0.053605046
196	0xbd746071	-0.059662286
197	0x3df01627	0.11722975
198	0x3dd14c0d	0.10219584
199	0xbdb56800	-0.08857727

fc.weight f4 [1, 50]
0	0xbd85bd73	-0.06530275
1	0x3dee8d0d	0.11647997
2	0xbd60c6ed	-0.05487721
3	0xbdc1ecf5	-0.09469024
4	0x3d9e5726	0.07731466
5	0x3d0fb1d4	0.0350817
6	0x3e19c1b1	0.15015294
7	0x3e18ad8e	0.14909956
8	0x3d40f276	0.04710623
9	0xbcf6af8d	-0.030113006
10	0xbe149c50	-0.14512753
11	0xbe14d354	-0.1453374
12	0xbc37b961	-0.011213631
13	0xbdec0f73	-0.11526384
14	0x3d861129	0.06546242
15	0xbe114e92	-0.14190128
16	0x3c2691df	0.010166614
17	0xbe008146	-0.12549314
18	0xbd7ff46b	-0.062488955
19	0x3db7f9f7	0.08983224
20	0xbd64a23a	-0.055818774
21	0xbdc8f99d	-0.09813235
22	0xbd09bf7a	-0.033629872
23	0x3d11f125	0.035630364
24	0xbd2dde0e	-0.042448096
25	0xbe204e5f	-0.15654896
26	0xbdfe9585	-0.12430862
27	0xbd874708	-0.06605345
28	0xbc9ebe23	-0.019377774
29	0xbd9c54d4	-0.07633367
30	0xbb37c336	-0.0028039939
31	0xbe22a635	-0.15883715
32	0xbd9e081c	-0.077163905
33	0xbdff67aa	-0.12470944
34	0x3deb4a4a	0.11488779
35	0x3d19b89b	0.03752957
36	0xbd623666	-0.05522766
37	0x3c742526	0.014901435
38	0xbd89217f	-0.06695842
39	0x3dc626c8	0.09675366
40	0xbe15bcd6	-0.14622816
41	0xbdbb8513	-0.09156241
42	0xbe23f750	-0.16012311
43	0x3d4af3dc	0.04954897
44	0xbd74f338	-0.059802264
45	0xbae3f6f9	-0.0017392329
46	0xbde26570	-0.11054504
47	0xbdf11edc	-0.11773464
48	0x3dc944b0	0.09827554
49	0x3dc78039	0.097412534
