models/MATIC_USDT_model.pt (torch, 128213 bytes, 9 tensors)

lstm.weight_ih_l0 f4 [200, 1]
000000 7c f3 d7 bd 71 60 e2 bb 0a 39 fe 3d 50 ab 49 3d
       -0.10544488 -0.0069084694 0.12413223 0.049235642
000010 2c 6c 48 3d 8b 45 09 bd c4 6d c3 bc 68 e0 8e bc
       0.048931286 -0.033513587 -0.023856051 -0.01744099
000020 f4 13 fe 3d f6 00 9f 3d 5e 1e 01 3d 06 5b e6 bd
       0.124061495 0.07763855 0.0315231 -0.1124783
000030 91 50 07 be b2 a4 7f bc 97 56 ad bd b7 18 b3 3d
       -0.13214327 -0.015603231 -0.08463781 0.08744948
000040 d3 ab ae 3d 02 4e d8 bd 3e 50 4a 3d dd e6 c1 bd
       0.085288666 -0.10561754 0.04939293 -0.09467862
000050 f4 69 c1 3d c7 be 82 3d 96 26 a8 3d ab 12 96 3c
       0.09444037 0.06384044 0.08210485 0.018319448
000060 6c 20 dd bd 7b 37 e0 bd 74 ab bb 3d 83 14 df 3d
       -0.107971996 -0.10948082 0.091635615 0.10892584
000070 e3 2e d4 3d 29 8f 67 bd 0d 17 08 be a2 45 b2 bc
       0.103605054 -0.056533013 -0.13290043 -0.02176172
000080 30 cd 9f ba 02 a5 30 3d 05 16 0d 3e ea 94 04 bd
       -0.0012191888 0.043126114 0.13777931 -0.032368578
000090 72 58 2f bd ec 3b be bd 08 29 b1 bd ea 89 f4 3d
       -0.042808957 -0.09288773 -0.08650404 0.119403675
0000a0 d9 51 05 bd 4f 0d 15 3e 05 4d e7 bd 82 0f 72 bd
       -0.03254876 0.14555858 -0.11293987 -0.05909682
0000b0 55 23 d7 3b a4 02 c4 b9 6c 85 a3 bd fb 13 f5 bd
       0.006565491 -0.00037386 -0.079844326 -0.119667016
0000c0 ac 7f d5 bc d6 58 e3 3d 00 30 14 bd fb ec c2 3b
       -0.026061855 0.111009285 -0.03617859 0.0059486604
0000d0 ca d2 1d 3e 41 c5 e1 3d 34 ed 93 3d 06 d1 ee 3c
       0.15412441 0.11023951 0.07222977 0.029152405
0000e0 ac 28 34 3c 28 a0 f0 3c e5 5d 57 3c 1d 9c 7f 3d
       0.010996025 0.029373243 0.013144945 0.06240474
0000f0 0a 49 fd ba 10 67 16 3d d1 16 a0 3c 84 51 13 3e
       -0.0019324136 0.03671938 0.01954213 0.14386564
000100 bf 51 68 bc 3d 94 fd 3d e2 46 e9 bc 45 dd e0 3c
       -0.014179646 0.1238179 -0.028476182 0.02744926
000110 19 22 32 bd 34 8c c6 3d 3c d9 a6 bb c9 af c1 3d
       -0.04348955 0.096947104 -0.0050918143 0.094573565
000120 7e a1 ce bd ad 55 99 3d 6b 80 09 be 71 9e a3 3d
       -0.10089396 0.074870445 -0.13427894 0.07989205
000130 18 57 8b 3d 4a 51 e0 bd d8 39 a1 bb 8e aa fc 3d
       0.06803721 -0.10953005 -0.0049202256 0.12337218
000140 5a 93 d7 3d c8 50 f6 bd 95 4d 3d 3d b4 24 06 be
       0.10526152 -0.120271266 0.046216566 -0.13099939
000150 05 96 f3 3d d8 5b 0b 3d 0f b0 5b bd d6 22 87 bd
       0.11893848 0.034023136 -0.0536347 -0.06598441
000160 36 69 d7 bd 26 f0 bc 3c b1 01 22 3d 4c d0 ca bd
       -0.10518114 0.02306373 0.039552394 -0.09903011
000170 a7 ab fd 3d 17 6c 11 3e ff b5 aa bd d8 eb af 3d
       0.12386256 0.14201389 -0.08335494 0.085899055
000180 72 76 7b 39 4d 36 21 3d 66 dd 74 bd e6 d0 b7 3d
       0.0002398135 0.039358426 -0.059781455 0.08975391
000190 00 c1 7e 3d 49 88 6d 3d 34 ad 8c 3d b8 17 89 3d
       0.062195778 0.0579913 0.068689734 0.06693977
0001a0 e5 fb 89 bd b2 10 83 bd c0 0c ca 3b b0 c1 f7 bd
       -0.06737498 -0.06399669 0.0061660707 -0.1209749
0001b0 d3 3c 88 3b 82 6d ab 3d 28 c1 91 bd ee 03 09 be
       0.0041576414 0.08370496 -0.0711692 -0.13380405
0001c0 fe 76 89 3d 13 37 e2 bd a3 64 99 bd 6a c9 87 bd
       0.06712149 -0.11045661 -0.07489898 -0.066302136
0001d0 c5 e5 43 3d 9c e8 08 3e 57 83 22 3e 89 c9 2c bd
       0.047826547 0.13369983 0.15870415 -0.042184386
0001e0 d6 71 b7 3d 12 5a 2b bd f0 9f e2 3c 27 ac b2 3d
       0.08957259 -0.041833945 0.027664155 0.08724242
0001f0 da 4d 85 bd 51 8a 0a 3b 31 0f 97 3d 8c 61 2d bd
       -0.0650899 0.0021139572 0.073759444 -0.042329356
000200 b5 95 4a bd f9 bf 44 bd f3 34 f6 bc 7a a8 50 bd
       -0.049459178 -0.048034642 -0.030054545 -0.05094192
000210 a4 4a 01 3c 29 cd 9c 3c 60 61 b6 3c a9 39 ed 3d
       0.007891331 0.019140797 0.022263229 0.115832634
000220 e7 c9 d0 3d 2e 75 ed 3d 2c 96 16 bc 50 60 40 bd
       0.1019476 0.11594616 -0.009191077 -0.04696685
000230 6c fa 11 3c 35 75 cb bd 4b 9d 16 3e 3a 17 8f bd
       0.008909803 -0.09934465 0.1470844 -0.06986852
000240 57 8c b5 3d e3 b4 fe 3c 52 64 90 bd 67 8f 13 3e
       0.08864658 0.031092113 -0.070503846 0.14410172
000250 6a 8b e1 bd 01 63 7f 3d c6 0e fd bd 6f 37 f7 bc
       -0.11012919 0.062350277 -0.123563334 -0.0301778
000260 aa a1 48 3d b4 4f cd bd 0b f0 92 3b 67 52 1a bd
       0.0489823 -0.10024968 0.0044841818 -0.03767624
000270 90 f3 8b bd 69 5f 7e bd a4 24 8c bc b9 4b 03 be
       -0.06833565 -0.06210271 -0.017107315 -0.12821855
000280 8b a6 8b 3d 6a b2 7c bd 64 4d 47 3d 14 79 a4 3d
       0.06818875 -0.061693586 0.04865779 0.08030906
000290 fd 3d 88 bc 4f b3 47 bd 48 22 86 bd 55 ed 8d 3d
       -0.01663112 -0.048754986 -0.065495074 0.06930033
0002a0 2b cc ef 3d cf e8 13 bd 96 c9 ce 3c 5c 31 a5 bd
       0.11708864 -0.036110695 0.025242608 -0.08066055
0002b0 97 57 e0 3d 96 77 f3 3d 57 15 16 3e 72 49 f4 3d
       0.109542064 0.118880436 0.14656578 0.11928071
0002c0 6d 68 c8 3d d5 c5 e4 3d 81 3f fe 3d cc f2 56 bd
       0.09785543 0.11170546 0.12414456 -0.052477643
0002d0 08 99 cb bd bd a0 68 3d fb f4 36 bd cb 54 fa 3b
       -0.09941298 0.056793917 -0.044667225 0.0076395026
0002e0 7c b2 c8 bd 28 eb 9d bd 2c f1 de 3b 4d 56 d5 bd
       -0.09799668 -0.07710868 0.0068036523 -0.10416851
0002f0 53 7b cb 3d 10 8c bb bd 8b 2b fd 3d d9 c9 4a 3d
       0.099356316 -0.09157574 0.12361821 0.049508903
000300 ef 32 f7 bd 8d 04 6f 3d 2a 48 43 bd 04 18 56 3d
       -0.12070262 0.05835395 -0.047676243 0.052268997
000310 58 6a d1 3d 23 4e fd 3d e6 2d e6 bb d5 16 10 bd
       0.102253616 0.12368419 -0.0070245145 -0.035178024

lstm.weight_hh_l0 f4 [200, 50]
000000 48 8f ea bb 57 6c f7 bb 27 32 b8 3d 22 8a 1f bd
       -0.0071581937 -0.007550757 0.08993941 -0.038950093
000010 d8 ba 07 3e 3f 23 0d 3e 22 3b 3e bd 07 28 ea bd
       0.13254869 0.13782977 -0.046443112 -0.11433416
000020 b5 b8 06 3e 5e 0c 36 bd fe 3e d8 3d 8f 3c f5 3d
       0.13156398 -0.044445388 0.1055889 0.11974441
000030 f1 72 07 be 98 47 66 3c 1d 67 b2 3b ab 7c e5 bd
       -0.1322744 0.014055155 0.005444421 -0.11205419
000040 17 d9 4e 3b 8f 02 98 bd 51 5a 9e 3d 9d 8f fe bd
       0.00315625 -0.07422363 0.0773207 -0.12429736
000050 da 2c 5b 3d f2 91 02 3e 4c 26 2d bb e5 a4 8f bd
       0.05350957 0.12750986 -0.0026420532 -0.07013873
000060 b6 66 fe bc 35 e1 6a bc 67 74 b1 3d c1 bd 67 3d
       -0.031054836 -0.01433592 0.0866478 0.056577448
000070 95 c1 8d bd 14 05 71 bd ee 8d ce 3c f5 85 cf 3d
       -0.069216885 -0.058842734 0.025214162 0.10132972
000080 1c 7b 0b be 75 bc 03 3e 04 61 82 bd e9 74 0f be
       -0.13621181 0.1286486 -0.063661605 -0.14009441
000090 48 76 9b bd 19 52 ec 3d 2a fc 01 3d d5 89 0b 3e
       -0.0759092 0.115390964 0.031734623 0.13626797
0000a0 de 39 b8 bd 46 0d 09 3e 87 e6 7c bb a3 bc 09 3e
       -0.08995412 0.1338397 -0.0038589553 0.13450865
0000b0 b8 64 c4 3d b5 54 ac 3d 58 8c 0a 3e 83 9f 62 bb
       0.09589523 0.08414594 0.135301 -0.003457994
0000c0 af 37 00 bd 5f 4b 1f bc 51 21 a5 3d 6e a0 dd bc
       -0.031303104 -0.00972256 0.08062995 -0.027054038
0000d0 8b 8a 01 be 1f 0c 05 be e5 26 f6 bd c2 5a d9 3d
       -0.12650506 -0.12992905 -0.12019137 0.10613014
0000e0 19 bf 85 3d 59 67 00 3d 27 3c 06 3e 16 32 04 3e
       0.065305896 0.03134856 0.13108884 0.12909731
0000f0 4d b7 90 bd 62 ea cf bc 7a 8c e5 3d 0e 59 df bc
       -0.07066212 -0.025380317 0.112084344 -0.027264144
000100 51 0e 14 be 81 61 b6 bd 65 9b 66 3d 1c d4 27 3d
       -0.14458586 -0.08905316 0.05630054 0.040973768
000110 64 36 89 bd c8 69 d2 bd 22 00 4d bd dd 22 50 3d
       -0.06699827 -0.102740824 -0.050048955 0.0508145
000120 53 e4 f6 3d 43 29 f5 3d d9 6d e3 bd de 73 a8 3d
       0.12055268 0.11970761 -0.11104936 0.08225225
000130 64 b2 fa bb 48 44 f4 3d 86 13 95 3d d1 1d 3c 3c
       -0.0076506604 0.11927086 0.072791144 0.011481718
000140 52 6b c9 3c 73 16 10 3d 36 6e ef 3c af 12 3b 3c
       0.024587307 0.03517766 0.029227357 0.011418029
000150 6b 1a 01 be d8 ce ce 3d 4d 61 e0 bc bc a2 12 3e
       -0.12607734 0.10098046 -0.027390147 0.1431989
000160 fe 8d 8b bd ad 1b 88 3d 5a 7e b5 bd f4 46 19 be
       -0.06814192 0.06645904 -0.0886199 -0.14968473
000170 db bf 36 bd ec ee 8f 3d de 68 1f 3d ab 23 eb 3c
       -0.04461656 0.070279926 0.03891837 0.028703531
000180 cc 29 d1 3d a0 64 95 3d a9 7a bc bd f5 66 ae 3d
       0.1021305 0.07294583 -0.09203083 0.08515731
000190 32 52 da bc 9a 0f 91 3d 3a c6 2f bb bf 1d e5 3d
       -0.026650522 0.07083054 -0.0026821033 0.11187314
0001a0 10 73 be 3c 10 12 f0 bd 32 0d 4c bd c4 13 19 be
       0.023248225 -0.11722195 -0.04981727 -0.14948946
0001b0 b8 c2 0e be 57 29 08 3e b5 82 91 3d 40 db aa 39
       -0.13941467 0.1329702 0.071050085 0.0003258828
0001c0 7c 94 2b 3d 1d d9 b6 3d c6 63 a5 3a 37 dd bf 3d
       0.041889653 0.0892813 0.0012618236 0.09368365
0001d0 2b 20 a9 bd 86 04 bc 3d 15 62 e0 bd 58 5a c5 bc
       -0.08258089 0.0918055 -0.10956208 -0.02409093
0001e0 a2 18 d7 3d 94 cc dd bd 98 b9 56 bd 12 bf 99 bd
       0.10502745 -0.10830036 -0.05242309 -0.07507147
0001f0 9f 66 f1 3c 2b 52 94 3d 89 79 8e 3d 0b 3b b0 bb
       0.029467879 0.07242235 0.06956775 -0.005378132
000200 b7 fe 8f bb 6e ae 06 bd 3a a3 cd 3d 15 fd 39 bd
       -0.004394378 -0.032881193 0.100408986 -0.045407373
000210 80 74 3a bc 3d 45 15 be 29 cf 78 3d c8 58 f3 3d
       -0.011380315 -0.14577194 0.06074444 0.11882168
000220 87 77 0d 3e 0e 09 fb 3c 37 8b 12 be 9c e0 9f 3d
       0.13815127 0.030643966 -0.14310919 0.07806513
000230 87 50 ff 3d 92 34 1d 3c fc 93 79 3d e5 fb 2c bc
       0.12466531 0.009595053 0.060932145 -0.010558103
000240 ed 14 08 bd cc 62 38 bd 1c a6 84 3d 51 0a e7 3d
       -0.03322308 -0.045016095 0.06476995 0.112812646
000250 90 50 97 3d ab da 07 3e b8 9f 8d 3d 27 69 18 bd
       0.07388413 0.13267009 0.069152296 -0.037209656
000260 7d 1d f8 bd 8b 38 17 3c 81 c2 a1 3d f1 16 a2 bd
       -0.121149994 0.0092297895 0.07898427 -0.07914532
000270 41 91 fa 3c 2b 86 9d 3d 7a 51 8f 3d 6c e2 03 3e
       0.03058684 0.07691606 0.06997962 0.12879342
000280 fd 39 f2 3d 6a 6b d2 3d cf 74 62 3d 03 da c4 bd
       0.11827467 0.10274394 0.05528718 -0.09611895
000290 f6 a0 d7 bd 4f f3 9c bc 07 d3 d0 bd 64 41 81 ba
       -0.10528748 -0.019158987 -0.101965 -0.0009861407
0002a0 f5 e1 20 bc 58 d9 8e bc 35 e4 d7 bd d4 e8 d4 bd
       -0.009819497 -0.017437622 -0.10541574 -0.10395971
0002b0 e1 5e bb 3c 45 fb 22 3d 8b 11 e0 3b 86 5c f3 bd
       0.02287239 0.03979041 0.006838029 -0.11882882
0002c0 91 ad f5 bb b9 3a ef 3d 92 be fb bd d6 1a 50 bd
       -0.0074974974 0.11681122 -0.12292208 -0.050806843
0002d0 22 8b 18 bc 6b 19 09 be 17 35 ae bd bf 1f 0c 3d
       -0.009310516 -0.13388602 -0.0850622 0.034209963
0002e0 06 a9 ed 3c 63 1a d4 bc ba 4d 46 3d b5 85 a3 3c
       0.02901126 -0.025891488 0.04841397 0.019961217
0002f0 db a7 05 3e 94 c3 ed bc 9b 47 8a 3d 30 68 e5 bd
       0.13052313 -0.029023923 0.06751939 -0.11201513
000300 e9 05 d1 3d 3a b8 0b 3e 03 94 0c 3d b3 18 0f 3e
       0.102062054 0.13644496 0.034320842 0.13974266
000310 7e 53 c6 bb 08 ac fc 3c 46 34 9c 3d e0 41 ef 3b
       -0.0060524335 0.03084375 0.07627158 0.007301554
000320 8a 5e 0e 3c 14 ce af bd 8b 5a 39 bc 2c d6 18 3e
       0.008689532 -0.08584228 -0.011313091 0.1492545
000330 4e ca 8c 3d b0 ce a2 3d a1 a2 60 bd a8 bb 4b 3c
       0.06874524 0.07949579 -0.054842595 0.012434877
000340 67 8c 88 bd ad 9f 2e 3d fd 3b a4 3c 60 d9 fe bd
       -0.066674046 0.042632747 0.020048136 -0.12443805
000350 04 97 ea bc c1 08 12 be de c7 c4 bc 1d ae 30 3d
       -0.028636463 -0.14261152 -0.024021085 0.043134797
000360 54 ea 56 bc 5e 33 ed 3d 54 d0 05 bd 1b 59 ad 3c
       -0.013117392 0.11582063 -0.03266938 0.021160653
000370 0c 34 8b 3d f9 82 3e bd 32 6c 10 be 74 46 23 bd
       0.067970365 -0.046511624 -0.14103773 -0.03986211
000380 f2 f8 75 bc 72 13 d2 3d ab 0b c0 bc 11 45 cc 3d
       -0.0150129665 0.10257615 -0.023443064 0.09974111
000390 46 3a f4 3d f6 70 01 be 0d 9e fd 3d be 01 f0 bd
       0.11925177 -0.12640747 0.123836614 -0.11719082
0003a0 b9 41 87 3c a0 0b 0b be 4e d7 21 bc b5 16 9d bd
       0.016510831 -0.13578653 -0.009877993 -0.07670347
0003b0 af ec d3 bd b7 a7 cd 3d 84 df 56 3d af 78 a0 3c
       -0.10347878 0.10041755 0.052459255 0.019588796
0003c0 46 52 d7 3c 50 49 84 3d 23 2e 83 bd a9 9c b2 3d
       0.026284348 0.06459296 -0.06405284 0.08721287
0003d0 00 b7 be bd 5c 28 a8 3d 34 13 30 bd 9e a9 3d bd
       -0.09312248 0.08210823 -0.042987064 -0.046304338
0003e0 c8 6b da bb 43 24 91 bd af f9 e9 3c be b0 a3 bd
       -0.0066656806 -0.070869945 0.028561441 -0.07992695
0003f0 04 5b 65 3d 07 44 62 bb 2f 4f dd bd 54 9c 0c 3e
       0.055995002 -0.003452541 -0.10806119 0.1373151

lstm.bias_ih_l0 f4 [200]
000000 92 9f e4 3d eb 7a ea 3d 49 84 14 3e 70 45 e5 3d
       0.11163248 0.11449226 0.14503588 0.11194885
000010 5a de 5a bd 89 07 21 bd c7 ed ad bd de ac b8 3d
       -0.053434707 -0.039313827 -0.08492618 0.09017347
000020 2b fc b3 bc 84 01 0a 3e dc 0e 21 bd d0 94 29 bc
       -0.021970829 0.1347714 -0.03932081 -0.010350421
000030 00 8c 02 be 58 88 bb 3d 12 2d bc ba 47 e7 62 3d
       -0.12748718 0.09156865 -0.0014356694 0.055396345
000040 ab 4a 13 3e 05 6c be bd 3b a6 45 bd fe 47 ba 3c
       0.14383952 -0.09297947 -0.048254233 0.022739407
000050 61 7b 14 3e 8b d6 08 3e 8c e8 ff 3d 07 9b 0f 3e
       0.1450019 0.13363092 0.12495527 0.14023982
000060 b9 61 c0 bd 5d 86 16 3d 86 37 14 bd 41 02 d8 3d
       -0.09393639 0.036749233 -0.036185764 0.10547305
000070 74 8e b9 3d 56 f6 c0 3c 33 8f 15 be 63 92 6d bd
       0.09060374 0.023554962 -0.14605407 -0.058000933
000080 56 00 e5 bc 5e 12 2d 3d a9 4d 21 3e 0c 7a 99 bd
       -0.027954262 0.042253844 0.15752281 -0.07493982
000090 4c d7 96 bc cd 1d 11 be dd bd b7 3c db 61 6f bc
       -0.018413208 -0.14171524 0.022429401 -0.014610733
0000a0 f4 aa 9e 3d 3e 14 fe 3d 75 a4 f9 bd 67 09 08 bc
       0.077474505 0.12406205 -0.12189571 -0.008303023
0000b0 a2 a6 0b 3d 91 36 33 bd ef b7 0b 3e b3 f7 80 3d
       0.03409446 -0.04375321 0.13644384 0.06297245
0000c0 00 1e 0f 3e c6 66 9d bd b3 8c 60 3d 0e 1b ee 3c
       0.13976288 -0.07685618 0.05482168 0.029065635
0000d0 c6 64 eb 3d d6 25 c5 3d f5 7f 63 3d ca 1e c8 3d
       0.114938304 0.09626357 0.05554195 0.097714975
0000e0 43 9b a1 3d 2b 81 85 3d 43 1d 46 bd db 9e 0a be
       0.07890942 0.065187775 -0.04836775 -0.13537161
0000f0 1f 95 d0 3c f8 4a 19 3e ef ff a8 3b a0 fc 3f 3d
       0.025461731 0.14970005 0.005157463 0.04687178
000100 c7 09 df bd 1c eb 9e 3d 5f 13 88 bd da 4f e8 3d
       -0.10890537 0.07759687 -0.0664432 0.113433555
000110 41 a2 0f 3e b7 3b 20 3d b1 cc a7 3c 56 5e d6 3d
       0.14026739 0.03911945 0.020483347 0.10467212
000120 ce 37 95 3b c0 87 11 3e 8a 8c 9c bd c0 df f6 bd
       0.0045537716 0.14211941 -0.07643993 -0.12054396
000130 23 7c 35 3c 9a bc 0f be c7 c2 e6 3d 02 9c ca bd
       0.01107696 -0.1403679 0.112676196 -0.098930374
000140 ff cd 9a 3d 6a 28 1e 3d 32 4d ea 39 3e 14 fe bb
       0.07558822 0.03861276 0.00044689473 -0.007753878
000150 a9 54 c0 3c 2c e8 f5 3c d0 ba 02 bd 41 b2 47 bd
       0.02347787 0.030017935 -0.03191644 -0.04875398
000160 1f c4 97 3d a2 2c b5 3c b9 00 e1 3d cc 60 a2 bd
       0.07410454 0.02211601 0.10986466 -0.07928619
000170 e4 88 84 3d bf 50 b8 3d 53 13 9c bc ed 72 94 bd
       0.06471422 0.08999776 -0.019052183 -0.07248483
000180 37 90 01 3e 41 24 f6 3d 36 ba 66 bd dd 92 51 3c
       0.1265267 0.12018634 -0.05632993 0.012791363
000190 f0 ad 87 bd 93 ed 67 3d 75 4c 1b be 40 ff 33 3d
       -0.06624973 0.056623053 -0.15165885 0.043944597
0001a0 91 c8 dd bd b1 71 04 bd 55 4d f0 3c b4 8a fd bd
       -0.10829271 -0.032334987 0.02933375 -0.12379971
0001b0 db 98 77 bd 4e 7c ea 3d 72 3f 70 bd a1 b6 0e be
       -0.06044851 0.114494905 -0.058654256 -0.13936855
0001c0 1b 69 b7 bc fe 24 92 bb 7c c2 2e 3d 2a b0 13 3d
       -0.022388985 -0.004459976 0.042665944 0.036056675
0001d0 cc e3 d6 bb 2a 00 dd 3d 1e 2f 8b 3b ba 00 d1 3c
       -0.006557917 0.10791047 0.00424756 0.025513042
0001e0 c7 8a 0a 3d b1 cb b3 3d e0 b0 e3 bc f4 89 32 3d
       0.033823755 0.087790854 -0.027794302 0.043588594
0001f0 3b 4c 0b be 44 1a b4 bd a1 af a7 3d 97 e8 bf bd
       -0.13603298 -0.08794072 0.081877954 -0.09370535
000200 34 c2 8f bd 01 ae 24 bd 7f 33 fa bb 9a 4b 01 3e
       -0.07019463 -0.040205006 -0.0076355333 0.12626496
000210 e3 87 d4 3d 9e d9 93 bc b5 7b a8 bd 9c 5d 9d bd
       0.10377481 -0.018048104 -0.0822672 -0.0768387
000220 f7 87 ec 3d 68 e1 04 bd 52 45 59 bd 3b 7e ee bc
       0.11549371 -0.032441527 -0.053044625 -0.029112926
000230 23 e4 bc bd 32 e2 6f 3d 87 07 b4 bd 7b e6 28 bd
       -0.09223201 0.058565326 -0.08790498 -0.04123543
000240 b5 a8 c9 bc 56 43 da bd 70 39 e0 3d c0 dc e1 bd
       -0.024616579 -0.106573746 0.10948455 -0.11028433
000250 7c fb dd 3d e0 1e a9 bc b4 d4 91 3d 35 45 6c ba
       0.108389825 -0.020644605 0.07120648 -0.0009012998
000260 64 c9 d8 3d f2 f0 07 be 31 e3 14 3d 91 83 03 be
       0.10585287 -0.13275507 0.03634948 -0.12843157
000270 68 9a dc 3d 3e 79 eb 3d b7 cf 95 3c 30 e9 2b 3d
       0.10771638 0.114977345 0.018287523 0.04197043
000280 02 53 a2 bd b6 c6 02 3d 82 b3 56 bc bd f1 be 3d
       -0.07925989 0.031927787 -0.013104321 0.09323452
000290 82 97 aa 3d 1b c4 0c 3e a7 88 09 3e 66 b4 05 3e
       0.08329679 0.13746683 0.13431035 0.13057098
0002a0 da d9 79 bd 2d d3 ca bd df d0 bd 3b 15 54 63 3b
       -0.060998775 -0.0990356 0.0057927216 0.0034687568
0002b0 f8 8f a4 3d 0c d5 88 bd 56 52 f8 bd e7 55 a0 bd
       0.08035272 -0.066812605 -0.12125079 -0.078288846
0002c0 57 21 a2 bc 5a 7a 5f 3d fe cd ee 3d bb ae 19 3c
       -0.019791288 0.054560043 0.11660384 0.009380038
0002d0 c7 9e d5 bd c7 30 84 3d 6a 61 80 bd c6 b8 20 3d
       -0.10430675 0.06454616 -0.0626858 0.039238714
0002e0 e2 a4 39 3d 2e 30 d5 bd 2a c0 d5 bc 65 30 ad 3c
       0.04532326 -0.1040958 -0.026092608 0.02114124
0002f0 f2 33 c5 bd f5 91 34 bd e9 a2 cd bd f7 ba ef bd
       -0.096290484 -0.044084508 -0.10040838 -0.117055826
000300 25 e1 ef bc 73 a2 95 3d 7f 4a 9a bd 69 e5 61 bd
       -0.029282162 0.07306375 -0.0753374 -0.055150423
000310 fc da e4 bd 4a 5f e0 3d 9e e5 fc 3c 62 27 dc bd
       -0.111745805 0.10955675 0.030871209 -0.10749699

lstm.bias_hh_l0 f4 [200]
000000 32 f4 fb bc 13 ce 02 be fe 1b 2e bc 31 82 6d 3d
       -0.03075609 -0.12773924 -0.010626791 0.05798549
000010 69 8a 4a 3d 3b 46 bc bd c8 c6 00 38 7d 80 8d bd
       0.049448404 -0.09193083 3.0702708e-05 -0.06909273
000020 27 92 08 3e c9 02 b6 bd b6 c6 d6 bc 7d 06 02 bd
       0.13337003 -0.0888725 -0.0262178 -0.03174447
000030 b7 e0 a4 bd 68 95 67 3d cf 0e 1f bd 7a d6 1e bd
       -0.080506735 0.05653897 -0.038832482 -0.03877876
000040 43 70 e7 3d 23 ac 81 bd 3c 4e 08 3e 79 73 93 bb
       0.11300709 -0.063316606 0.13311094 -0.0044998494
000050 e6 5f 73 bd bc 03 0c be d6 79 8c 3d 01 2a c3 bd
       -0.059417628 -0.136733 0.06859176 -0.09529496
000060 b8 8e d2 3d ff 2b ad 3d 34 6a ea bd 05 20 01 3d
       0.10281128 0.08455657 -0.11446038 0.031524677
000070 f0 49 ea bb c5 34 c5 bc 9d aa e7 bc 0c 02 05 3e
       -0.0071499273 -0.024073014 -0.028279597 0.12989062
000080 c1 06 04 3e 90 ec f0 bd aa ed 06 3d 66 24 ad 3d
       0.12893201 -0.11763871 0.032941498 0.08454208
000090 2e e1 86 3c df 88 8d 3d 7f 9d dd bd d0 05 ea bc
       0.016464796 0.06910872 -0.108210556 -0.028567225
0000a0 64 2d 0f be 1c 00 3d bc fb 0a e3 3d b6 78 04 3d
       -0.13982159 -0.011535671 0.11086079 0.03234168
0000b0 5b 96 c9 bd 13 46 03 bd 4f 73 80 bd 65 9b 0c 3e
       -0.09843131 -0.03204925 -0.06271993 0.13731153
0000c0 1e 11 a9 bd a0 32 8f 3c 20 bf 00 3e 86 2a ed 3d
       -0.08255218 0.017480195 0.12572908 0.11580376
0000d0 65 a1 fc 3d c3 cb d4 3d 85 c8 f3 bc f8 df 89 bd
       0.12335471 0.10390427 -0.029758701 -0.06732172
0000e0 5d d7 90 bd fc 7f f2 3c 20 07 e1 3d a7 82 c7 bd
       -0.07072327 0.029602043 0.10987687 -0.09741717
0000f0 3b 98 dd 3d f7 c5 f1 bc 33 38 aa 3d 5f bb 2d bd
       0.10820051 -0.029513342 0.083115004 -0.04241502
000100 54 82 96 bd f2 c4 6e 3d b9 23 a3 3d bd a6 19 3e
       -0.07349077 0.05829329 0.07965798 0.15005012
000110 47 a2 81 3d 46 9d e4 bc 58 bf aa bd 75 4e 93 bc
       0.0632978 -0.027907025 -0.08337277 -0.017981747
000120 a2 e8 94 bd b2 2f 7c 3d 84 a4 63 3d ea 8e e0 3d
       -0.07270934 0.061568923 0.055576816 0.10964759
000130 b3 5b b1 3d 71 17 07 3e 73 b1 d5 3d 1f 0a 1c bc
       0.08660068 0.13192536 0.104342364 -0.009523897
000140 d9 f7 c8 3d d5 2c 1e 3d 88 80 f9 bb fb 40 d0 3c
       0.09812898 0.038616974 -0.007614199 0.02542161
000150 02 9b 21 3e 57 08 28 3d 01 c1 03 3e 7d 24 e4 bd
       0.15781787 0.04102358 0.12866594 -0.11139772
000160 6f 7e e6 bd 10 5c fd bc 47 82 bb 3d 51 c1 10 3e
       -0.11254584 -0.030927688 0.09155708 0.14136244
000170 36 91 eb bd c7 25 74 3d 5c 0d 52 bd b1 cc 9c 3d
       -0.11502306 0.05960634 -0.05128227 0.07656229
000180 33 6f 1e 3e 0f 6f 9e bd 5b 54 d9 bd 12 48 fb 3d
       0.15472107 -0.077360265 -0.10611793 0.12269606
000190 df c5 44 3c 63 89 98 bd 17 10 15 be bd fb 5b bd
       0.012010067 -0.074480794 -0.14556919 -0.053706873
0001a0 3c e3 57 3d 6c 06 c9 3d b3 2f 80 3d 22 98 4e 3d
       0.052706942 0.09815678 0.06259098 0.050438054
0001b0 23 46 c6 bd 43 b7 4d 3d b3 b0 fe bb 44 44 fd bd
       -0.09681346 0.0502236 -0.007772529 -0.12366536
0001c0 15 2b ec bd ba 81 4c bd 55 41 cb bd 5c 61 82 3d
       -0.11531655 -0.049928404 -0.099245705 0.06366226
0001d0 4c 2f c8 bc 6e 23 be 3d 4f c3 8b 3d 14 1a c3 3b
       -0.024436615 0.092841014 0.068243615 0.0059540365
0001e0 06 0a 01 3e 36 d4 c2 bd 97 c0 5e bd e4 c5 62 bd
       0.1260148 -0.09513132 -0.054382887 -0.055364504
0001f0 8c 7a 9e bd 96 95 06 be 73 4e 04 3d 9a 70 1f 3c
       -0.07738218 -0.13143 0.032301378 0.009731436
000200 1f da 0e 3e 15 c4 dc bd 5a 21 1c 3d bf cb 1d 3e
       0.13950394 -0.10779587 0.038117744 0.15409754
000210 b5 2c 5e 3d 57 a1 51 bd 82 c4 1a 3e 3e 9e 9f 3d
       0.054241855 -0.051179256 0.15114024 0.07793854
000220 c8 b2 79 3d 1b 3b c3 3d 76 59 4a bd bc b8 14 be
       0.060961515 0.09532758 -0.049401723 -0.14523596
000230 26 b9 0a 3d f8 77 16 be c2 ef bf 3c ea 58 3c bd
       0.033867978 -0.14694202 0.023429755 -0.045983233
000240 c5 23 a7 3b 27 05 a6 bd 38 07 01 be 9d 50 f6 3d
       0.0051006996 -0.081064515 -0.1260041 0.120270945
000250 17 12 a4 bd 6f 38 e9 3d 6f d4 1d bd 13 89 13 3d
       -0.08011263 0.11387717 -0.03853267 0.036019396
000260 a6 64 43 3d 0c ff 0a bd 60 01 d9 3d c2 83 80 3d
       0.047703408 -0.033934638 0.105959654 0.06275131
000270 ab 58 d8 3d 65 5c 6d 3d d8 4c ac bd ac f7 37 3c
       0.10563787 0.057949442 -0.08413094 0.011228483
000280 32 79 dc bd 52 85 ac bd a1 67 a6 bd 51 f6 cc 3d
       -0.10765304 -0.08423866 -0.081252344 0.100079186
000290 6a 9d a0 bd ef 93 91 3d 99 06 07 3e 66 e8 40 bd
       -0.07842524 0.07108294 0.1318611 -0.047096632
0002a0 eb 77 3f bd 1e 43 a0 3b be 46 15 3e 7d 6b df bd
       -0.046745222 0.0048908135 0.14577767 -0.10909174
0002b0 cf 02 44 3c e2 7d a4 3d 4b 0d 01 be 37 47 93 bd
       0.01196356 0.08031823 -0.12602727 -0.071913175
0002c0 e8 41 7d 3c 98 2e 4e 3b 4c f2 04 be cc 1b 03 3e
       0.015457608 0.0031460878 -0.12983054 0.12803572
0002d0 56 e6 02 3e 58 47 c6 3d 08 fd 62 3d 07 90 8d 3d
       0.12783179 0.096815765 0.05541709 0.06912237
0002e0 34 d4 e6 bd 98 a1 01 3e 2a ba b1 bd 0d 8e f8 3c
       -0.11270943 0.126593 -0.08678086 0.030341173
0002f0 41 a4 8f 3b 06 db 9a 3d 45 ad ac bd 9d 67 c3 3b
       0.0043835943 0.07561307 -0.08431486 0.0059632794
000300 ea 39 ef 3c 21 9d 11 3e 4b 81 eb 3d 2f 4e 57 3d
       0.02920242 0.14220096 0.1149927 0.052564796
000310 d2 ba 20 3e 3d 80 11 3d 9e b2 8c 3c a2 38 9c bd
       0.15696266 0.03552269 0.017175015 -0.07627989

lstm.weight_ih_l1 f4 [200, 50]
000000 22 9c ed bc 75 09 eb bd 12 e5 fd bd e3 00 55 bd
       -0.029005114 -0.11476413 -0.12397207 -0.0520028
000010 2f 48 ec 3d 57 0a a6 3d ce 40 dc bc 50 22 aa 3c
       0.115372054 0.08107441 -0.02688637 0.020768315
000020 dc 10 a6 bd 6d 3a f0 3d 97 9e a6 3d f6 e6 90 ba
       -0.081086844 0.11729894 0.08135717 -0.001105516
000030 60 12 cd 3d bc 6d fd 3d f1 e1 cc bb da 36 a3 3d
       0.100132704 0.12374446 -0.0062525203 0.079694465
000040 cd 3d e5 3d ed d8 90 3d 8a 2a 4c 3d 9c 1c 12 bd
       0.11193428 0.07072625 0.049845256 -0.035671815
000050 f5 d7 02 3d b1 b3 03 be 54 a9 c5 bd 31 71 29 3d
       0.031944234 -0.12861516 -0.096514374 0.041367713
000060 b2 45 00 be ab 9e 85 bd 49 3c e5 3d 0d 2d ec bd
       -0.12526587 -0.06524404 0.11193139 -0.1153203
000070 df 17 e2 3d ac ef 67 bd 26 ca dd 3d fe b5 4a 3d
       0.11039709 -0.056625053 0.108295724 0.049489968
000080 44 61 7c 3d 0a 6d d6 bd fa d8 a5 3c b2 02 de 3d
       0.061616197 -0.10470016 0.020245064 0.10840358
000090 d5 10 96 bd a0 95 ee 3d 5e 47 4d 3b 67 c2 79 3d
       -0.07327429 0.116496325 0.0031323056 0.060976412
0000a0 b4 9b a5 bd 5c 8d 33 bd e3 b9 87 bd 4e 87 31 3d
       -0.08086339 -0.043835983 -0.06627252 0.043341927
0000b0 ba 2b 8f 3d 15 7e ad 3d c3 55 ec 3d bf de 9a bd
       0.06990762 0.08471314 0.11539795 -0.07562017
0000c0 61 c9 5f bc 73 f6 bc 3d 4e d3 13 bd cd 2f f4 bd
       -0.013658852 0.09226694 -0.036090188 -0.1192318
0000d0 43 51 86 3d 25 96 d8 bd 75 28 f6 bb 3e 22 c0 bd
       0.06558468 -0.10575513 -0.007512147 -0.09381531
0000e0 83 bf 85 3c 57 a1 a3 bc d3 dd e2 3d ce 41 0b be
       0.016326671 -0.019974394 0.11077466 -0.13599321
0000f0 2f 01 b2 3d f8 99 03 3d a8 df d9 bd 78 d2 0d 3e
       0.08691632 0.032129258 -0.10638362 0.13849819
000100 14 b9 7e 3b 1c b3 21 3d 63 5f b7 3d 9c 38 fc bd
       0.003886764 0.039477453 0.089537404 -0.12315485
000110 8e 9d 9f bd 35 5b 70 bd 99 f4 97 bd 14 94 be 3d
       -0.07793723 -0.05868073 -0.074197 0.093055874
000120 b0 82 7e bd d2 03 48 3d f1 6b 72 bd 4a 4e fe bd
       -0.062136352 0.04883177 -0.059184972 -0.12417276
000130 72 f7 bb bd 99 54 a2 bd 3f 3c 20 3d 3d 9a 87 bd
       -0.09178056 -0.07926292 0.039119955 -0.066212155
000140 92 0b 90 3d d3 fa 09 be 96 eb 7a bd 39 4f 39 bd
       0.07033457 -0.13474588 -0.06125983 -0.04524157
000150 21 bb 43 3d 53 80 6b 3d be 35 b7 bd 5c be eb 3d
       0.047785882 0.057495426 -0.089457974 0.115109175
000160 2d e9 f0 3d 28 8c d1 bd 69 95 98 3d 4e e8 0c bc
       0.11763225 -0.10231811 0.07450373 -0.008600308
000170 33 e7 b6 3d f3 b6 da 3d 49 5f 85 3c 7d 1d ea bb
       0.089308165 0.10679426 0.016280787 -0.0071446286
000180 f7 e2 5e 3d 6e db 03 3e e2 97 c4 3d 87 f8 40 bd
       0.05441567 0.12876675 0.09599282 -0.047112014
000190 8c dd 05 bc ed 62 09 3e dd ac 6a bc fe f0 01 3e
       -0.008170497 0.13416643 -0.01432344 0.12689587
0001a0 ac 48 6f 3d e5 b0 01 be 26 46 5d bd 41 a3 86 3d
       0.058418915 -0.12665136 -0.054021977 0.06574107
0001b0 c4 f5 0d be 09 cf aa 3c cb 6b 31 bd 15 8c cd 3d
       -0.13863283 0.020850675 -0.04331569 0.10036484
0001c0 89 7a 27 bd b8 19 cc bd 44 9e cb 3c bb 59 c7 bc
       -0.040888343 -0.09965843 0.02485574 -0.024334779
0001d0 81 1b d0 bd 63 cc 1f 3d 81 02 2b 3d cc 6c 0b be
       -0.10161496 0.039013278 0.041750435 -0.13615721
0001e0 9b 04 d0 bd 6b a4 5d bd d6 28 e5 3b a3 f7 08 bd
       -0.101571284 -0.05411188 0.0069933934 -0.03343929
0001f0 59 03 1d 3c 55 ad 10 be ab 1f 98 bd 72 fb 03 bb
       0.009583318 -0.14128621 -0.07427915 -0.0020138887
000200 4e 16 b5 bd 97 75 a6 3b ca 25 c4 3d d8 70 ba bd
       -0.08842145 0.005079936 0.0957752 -0.091035545
000210 dd f2 1e 3e 3d 6b 4b 3c 5c 90 b2 3d 68 08 f9 3c
       0.15522332 0.012415704 0.087189406 0.030399516
000220 2d 34 cd 3d e8 8d 07 3e 5f 72 44 bd ad 56 8a bc
       0.10019717 0.13237727 -0.047960635 -0.016887033
000230 9c 1e 2c 3d b8 7b d8 bc e3 c6 ee 3d 8d 78 01 3c
       0.04202138 -0.026426181 0.116590284 0.007902277
000240 31 2e 3c bd a4 ff 82 3d 3c 99 a1 bd 7f 3c 91 3d
       -0.04594249 0.06396416 -0.07890555 0.07091617
000250 bd fc 24 bd e2 dd 82 bd ce e6 07 3d 30 6a a0 ba
       -0.040280093 -0.06389977 0.033179097 -0.0012238678
000260 c5 76 07 be b5 e2 8d 3d a7 01 ad 3c 80 81 82 bd
       -0.132289 0.069280066 0.021118952 -0.063723564
000270 45 d6 dd 3d 15 30 36 3d 5c 63 09 be 86 12 13 3e
       0.10831884 0.04447945 -0.13416809 0.14362535
000280 1b e8 b8 3d 39 99 69 bd 5a de 5d 3d 5f 81 04 3e
       0.090286456 -0.05703089 0.05416713 0.12939976
000290 64 e9 11 be 6f 49 dd 3a c6 0d 90 3d a8 a8 06 3e
       -0.14249188 0.0016882847 0.07033877 0.13150275
0002a0 de ba e4 3d b2 5a 14 3d 5e 19 9b 3c 5d e0 f5 bd
       0.111684546 0.036219306 0.018932994 -0.120056845
0002b0 29 9b fa 3d 70 8a 51 bd 7f d0 d7 3d 13 72 0e bd
       0.12236626 -0.051157415 0.10537814 -0.03477676
0002c0 8c 78 ef bd ce 5e 01 bd 90 ce 3b 3c 07 c0 97 bb
       -0.11692914 -0.031584553 0.011462823 -0.0046310457
0002d0 b8 0a 8d bd 6b 08 d9 bd de 19 f0 3c 5b 1f 24 bd
       -0.0688681 -0.10597309 0.02930921 -0.040068965
0002e0 0b ab 87 3d 4a ed 10 bd 1b 3f 08 bd 03 06 c8 3d
       0.06624421 -0.035382546 -0.033263307 0.09766772
0002f0 3f a5 af bb 0a 00 50 bc 75 3b 6c 3d ab 87 94 3d
       -0.005360275 -0.012695322 0.05767389 0.07252439
000300 e2 22 82 bb 8d fb a4 bb 2a 4a 3e 3c 9b 59 da bd
       -0.0039714435 -0.00503487 0.011614362 -0.10661622
000310 c6 38 ff 3c b9 fa f8 bc 13 c1 97 bd 3f bb 6b 3d
       0.031155001 -0.030392991 -0.07409873 0.05755162
000320 35 b8 9a 3d 64 22 8c 3d 4a f1 cc bd e1 21 94 ba
       0.07554666 0.06842497 -0.1000696 -0.0011301601
000330 64 bb 13 3c 78 b2 a9 bd e0 8b ad bd fb 01 2e bd
       0.009016845 -0.08285993 -0.08473945 -0.042482357
000340 3f 88 39 3d a2 ad c9 3a 4c fb ea 3d ad a2 ff bc
       0.04529595 0.001538683 0.11473712 -0.0312055
000350 ff aa a2 3c 40 c9 8e ba 14 8a 72 3d eb 4b b3 3d
       0.019856928 -0.0010893717 0.059213713 0.087547146
000360 e9 3f 03 3e ce 62 1e 3d 99 7e 00 3d 79 13 b9 bc
       0.12817349 0.038668446 0.031370733 -0.022592293
000370 1e 56 1d bd 5e 50 a5 3d 7b ed 00 be 6e c0 c6 bd
       -0.038412206 0.080719694 -0.12590592 -0.09704672
000380 e3 e6 c3 bc 53 b7 34 bd bc ab d2 bd 0c 41 b4 3d
       -0.023913806 -0.044120144 -0.10286662 0.08801469
000390 bc d2 10 3c b9 a7 bb bd 06 5c 8a 3d 70 9b b4 bd
       0.0088393055 -0.0916285 0.06755833 -0.0881871
0003a0 bf e9 74 bd a5 1d 07 be 5b 5c b0 bd 63 d8 19 bd
       -0.05979323 -0.13194902 -0.086113654 -0.037559878
0003b0 02 dc 16 bc 50 51 83 bd 29 d9 60 bd a6 bb c7 bc
       -0.009207727 -0.064119935 -0.0548946 -0.02438147
0003c0 da 4b 65 bd de 36 36 bd 11 a5 81 bd d1 ea d0 3d
       -0.05598054 -0.04448592 -0.06330312 0.10201038
0003d0 35 35 77 bd 61 f5 73 bd 59 a0 25 3d 20 31 2d bd
       -0.060353477 -0.059560183 0.040436123 -0.042283177
0003e0 67 23 c8 bd 10 16 1b 3e a4 3d 06 3e 8b 15 ec bd
       -0.097723775 0.15145135 0.13109452 -0.115275465
0003f0 c0 54 d3 bd 9f 82 01 3d d1 42 45 ba 59 91 37 bd
       -0.10318899 0.03161871 -0.000752491 -0.04481635

lstm.weight_hh_l1 f4 [200, 50]
000000 88 02 98 3d 88 09 d8 3d 3c 27 89 bd 6c 7d fe 3d
       0.07422358 0.10548693 -0.066969365 0.12426266
000010 1a 14 d9 bd 6e 02 a5 3d 8c f8 19 bd 48 a2 05 be
       -0.10599537 0.08057104 -0.03759055 -0.13050187
000020 5d 54 a9 3c 25 54 f4 bc 19 6d 44 3c 0a bb ba bd
       0.02067011 -0.02982528 0.0119889015 -0.09117706
000030 69 0e 10 3e ee 1a d2 bd 43 91 97 3d c5 48 95 3c
       0.14067997 -0.10259043 0.07400753 0.018223176
000040 14 8e 7a bd 48 8f 1b 3d 06 af f5 bd 06 c6 62 bd
       -0.061170653 0.03797844 -0.11996274 -0.05536463
000050 0a 88 bd bb 2f d9 0f 3e d5 9f 8c bb bf bb 27 3d
       -0.0057840394 0.14047693 -0.0042915144 0.040950533
000060 e9 f2 d7 bd 53 cc a4 3d fe a2 d1 bd 7f 0a b0 3d
       -0.10544378 0.08046784 -0.102361664 0.08595752
000070 54 fe 8e 3d 85 42 bd bd 2d 56 11 3e 3d fc 13 bd
       0.06982103 -0.09241203 0.1419303 -0.036129225
000080 5f 39 94 3d 19 da b3 3d 4e 31 0a 3d c9 aa 3d bd
       0.07237505 0.08781833 0.033738427 -0.04630545
000090 a0 a7 ea 3d 99 37 a6 3d 39 e6 fa bd 26 e8 fc ba
       0.11457753 0.08116073 -0.12250943 -0.001929526
0000a0 8b bc 42 3d 57 f2 93 bd 72 aa 0e 3d c6 6a bb bd
       0.04754309 -0.07223957 0.034830518 -0.09151225
0000b0 73 31 e9 bd 26 6e 06 bd 4c e6 09 be be f6 62 bd
       -0.11386385 -0.03281989 -0.13466758 -0.055411093
0000c0 a1 1a 0f be 7f 18 e7 bd 86 cd 1c be 14 4d 1e 3e
       -0.13975002 -0.11283969 -0.15312776 0.1545909
0000d0 a6 05 bf 3d e0 93 e8 3d ef 71 c9 bd 67 df e4 3d
       0.09327249 0.1135633 -0.09836184 0.11175423
0000e0 17 69 3d 3d 54 6b 02 3d 20 94 b1 3d 1a e1 f9 3c
       0.0462428 0.031840637 0.08670831 0.030502845
0000f0 3b 82 9d 3c 03 23 5a 3d 7f d9 86 3d d9 42 14 3e
       0.019227138 0.053256046 0.06584453 0.14478625
000100 f2 20 6f 3d 9e ee 48 3d d2 dd 89 bd af a7 a7 3c
       0.05838103 0.049055688 -0.06731762 0.0204657
000110 66 3b ef 3d 68 59 9a 3c 4e 93 53 3d 56 c9 69 bd
       0.11681251 0.01884146 0.051654153 -0.057076775
000120 e8 81 0e be 55 88 cd 3d b7 1a 01 3e 92 77 f1 3d
       -0.13916743 0.10035769 0.12607847 0.11790384
000130 f6 81 f8 bd 5f 66 24 3d 16 c8 8e bd 69 35 d6 bd
       -0.12134163 0.04013669 -0.06971757 -0.10459406
000140 2a e6 05 be ce 40 8b 3d e4 92 5e 3b fd 3a fd bb
       -0.13076082 0.0679947 0.0033962065 -0.007727979
000150 c6 a1 03 3e 91 48 fb bb bb 2d 62 3d 33 f0 5a 3d
       0.1285468 -0.0076685627 0.055219393 0.053451728
000160 e7 e7 ae bc a9 4b 87 bd 64 19 bf 3d 07 a0 9b bd
       -0.021350814 -0.06606228 0.09331015 -0.07598882
000170 18 e1 09 be 5d 44 c3 bd 87 fe fe bd 5a f0 d8 3d
       -0.13464773 -0.09534524 -0.12450891 0.105927184
000180 e2 46 c4 bd a2 fd cd bd 80 23 29 bd e0 2d 58 3d
       -0.09583832 -0.10058142 -0.04129362 0.052778125
000190 84 80 4b bd 62 51 bd bd eb b1 9c bd 99 d3 fc ba
       -0.04968311 -0.09244038 -0.07651123 -0.0019289135
0001a0 59 60 9f 3d d4 fe da bd a2 67 0c 3e ca 4b 9c bd
       0.07782049 -0.10693136 0.13711408 -0.07631643
0001b0 7f ec b6 bd ae 85 84 bc 1f ed 0d be f8 b1 9d 3d
       -0.08931827 -0.016177025 -0.13859986 0.076999605
0001c0 aa 21 42 3c a1 56 49 3d c7 13 c8 bd 4f d7 0e be
       0.011848846 0.04915488 -0.09769397 -0.13949321
0001d0 76 90 23 bd 81 84 43 3d 71 14 e7 bc e7 f2 20 3e
       -0.03993269 0.047733787 -0.02820799 0.1571766
0001e0 97 bd 1d 3d b0 90 0e be a0 68 65 bd ab ce 17 be
       0.038510885 -0.13922381 -0.05600798 -0.14824931
0001f0 48 7d 8b bd ea 8f 63 3d 6a c7 91 3d e1 73 65 bd
       -0.06811005 0.05555717 0.07118113 -0.056018714
000200 94 1b fc bd da 52 83 39 92 dd 91 bc f4 9a 02 be
       -0.123099476 0.00025047996 -0.017805848 -0.12754422
000210 90 bf e4 bd f4 af df bc 73 ee f5 3b 2a 08 44 bb
       -0.1116935 -0.02730558 0.007505232 -0.0029912093
000220 5e fc 0f 3e e1 ba 18 3d d2 06 85 3d 48 f1 f1 3c
       0.14061114 0.037287597 0.064954415 0.029533997
000230 2c 5a 99 3d 54 a0 7d ba f6 6d 04 3d 80 b3 13 3d
       0.07487902 -0.0009675075 0.03233143 0.036059856
000240 32 84 ec 3d fa 96 41 bd e1 1f 0c bd bc 32 34 bd
       0.11548652 -0.047263123 -0.03421009 -0.043993697
000250 48 5f c4 bc b1 08 65 bb 21 96 39 3c 4b 54 cb bd
       -0.023971215 -0.0034947807 0.011327297 -0.09928187
000260 18 5c bf bd eb 83 fd 3d dd 40 94 3d 2b 15 1d 3d
       -0.09343737 0.12378677 0.07238934 0.038350265
000270 de 51 6a 3b 89 9a f4 3d b1 08 4a bc c8 59 32 3d
       0.0035754363 0.11943538 -0.012331174 0.043542653
000280 d4 35 0a 3e 78 5a b0 3d e1 b7 00 3e ef c8 99 bb
       0.13497096 0.086110055 0.12570144 -0.0046931426
000290 b1 b1 48 bc 06 4d 55 bd a4 25 94 bc 90 69 80 3d
       -0.012249396 -0.05207541 -0.018084355 0.062701344
0002a0 b6 49 8d bc fd 6c 58 bd e4 98 a4 3d 37 d9 82 3d
       -0.017247062 -0.052838314 0.08036974 0.06389087
0002b0 5b 3a ec bd a3 0e 92 3d 11 56 05 3e 65 29 dd 3d
       -0.11534568 0.07131698 0.13021113 0.10798911
0002c0 9b 1a 0c be 11 bb 1f 3d 00 b3 ce bd c6 0e c0 b8
       -0.13682024 0.03899676 -0.10092735 -9.158025e-05
0002d0 34 06 28 bd 4d de 2f bd 28 ee 50 bd d6 c2 4d bd
       -0.04102154 -0.042936612 -0.051008373 -0.05023464
0002e0 d5 51 c4 bd a0 fc 04 3e 69 7c c2 3d 0c 2b f5 3d
       -0.09585921 0.12986994 0.094963856 0.11971101
0002f0 6a fa 5f 3d b9 d9 8a 3d a4 ec 5e bb 7c 71 0e be
       0.054682173 0.067798086 -0.003401556 -0.13910478
000300 f5 3f e9 bd ec 05 a0 bd 19 f3 42 3d d2 d7 11 bd
       -0.11389152 -0.078136295 0.047595117 -0.035606213
000310 3c b5 cb ba 62 e0 e6 3c 00 75 da bd f4 67 8a bd
       -0.0015541683 0.028183166 -0.10666847 -0.06758109
000320 c0 35 d0 bd 86 23 0d 3e 7d 07 90 bd 1e ec 83 3d
       -0.10166502 0.13783082 -0.07032678 0.0644152
000330 39 65 91 3a c7 a0 e6 bd e7 34 e0 3c 93 77 93 bd
       0.0011092789 -0.112611346 0.027368976 -0.07200541
000340 f7 69 70 bd 0a 2a 70 3d af 88 14 be 5f 47 1f be
       -0.058694806 0.05863384 -0.14505266 -0.1555457
000350 a6 e3 f7 3d b0 1b 5f 3b ba 3b 1d 3e d7 a1 fa 3b
       0.12103967 0.0034043603 0.15354815 0.0076486873
000360 f6 41 ea bc 49 48 0f 3c 38 be 9c bd 74 42 4e bb
       -0.028595906 0.0087452615 -0.07653469 -0.0031472715
000370 73 79 6f bc 86 a1 cd 3d c6 1f 83 bd 02 4c 95 3d
       -0.014616358 0.10040574 -0.06402545 0.07289888
000380 b6 60 0d bc 50 f0 04 bd 4c d3 6b 3c 7d d5 98 bd
       -0.008629015 -0.032455742 0.014393639 -0.07462595
000390 81 cb 38 bd b0 f9 1f be b8 24 07 bd c6 2e 62 3d
       -0.04511595 -0.15622592 -0.032994002 0.055220388
0003a0 83 29 8d bd 23 b7 cc bc d5 02 e5 3d db b7 5f 3d
       -0.06892683 -0.02498967 0.11182181 0.054618698
0003b0 55 43 8a bd 41 06 24 bd 58 1c d4 bd 64 8f 01 be
       -0.06751124 -0.040045027 -0.10356969 -0.12652355
0003c0 0e 48 a2 3d 2e ce 01 be be 4f 78 bc 56 e6 9e 3d
       0.079238996 -0.12676308 -0.015155731 0.07758777
0003d0 52 ea 89 3c 48 47 b9 3d 60 bb af 3a 07 93 97 bd
       0.016835365 0.09046799 0.0013407283 -0.0740109
0003e0 06 ce c1 bb a8 5d 06 3e db d8 c7 3c 2f 29 32 bd
       -0.0059144525 0.13121665 0.024395397 -0.043496307
0003f0 be 4f 4c bd f0 1c 02 3b dd 44 82 3d 43 7a 7b bc
       -0.049880736 0.0019853674 0.06360791 -0.015348974

lstm.bias_ih_l1 f4 [200]
000000 19 be 76 3d f0 50 c0 bd a2 3e b2 3d f9 39 26 3d
       0.060239885 -0.093904376 0.087033525 0.04058263
000010 88 f0 cc bd c4 f7 21 bd 35 42 e2 3c 10 1c 1e 3e
       -0.10006815 -0.03954293 0.02761946 0.15440392
000020 3c 41 09 3e cb a1 69 3d ba 1a 4e 3c 75 17 41 3d
       0.13403791 0.057039063 0.012579614 0.04714151
000030 04 bd 11 bd d5 e1 8d bd 53 ce a4 3d a1 7b a0 bd
       -0.03558065 -0.0692784 0.08047166 -0.0783608
000040 46 79 e0 3d f6 ab f4 3d d2 85 37 3d 2f eb cb bd
       0.10960631 0.119468614 0.044805355 -0.09956967
000050 1b 3d 0a be ac 27 16 3e 9b 15 98 bd e0 1e a3 bd
       -0.13499872 0.14663571 -0.07425996 -0.07964873
000060 1f c8 44 3d 43 08 73 3d 43 6f 7f bd 47 9e a9 3c
       0.048042413 0.05933405 -0.062361967 0.020705355
000070 e5 6b c5 3c 40 86 b8 3d cc 04 51 3d e2 95 d0 3d
       0.0240993 0.09009981 0.051029965 0.10184838
000080 b6 83 c3 3d 2c 04 99 3d 3e af ff 3d 13 1d 16 be
       0.09546606 0.07471499 0.12484597 -0.14659528
000090 77 ae 16 3d 67 db b8 bc 32 8f 97 bd 6d 11 64 bc
       0.036787476 -0.022565557 -0.07400359 -0.01392017
0000a0 c1 5d 09 3e ba cf a2 3c 84 48 2c 3d 2d 0f b0 bd
       0.1341467 0.019874442 0.042061344 -0.085966446
0000b0 bb bf 9f bc 73 c2 9a bd 2c cc bf bd 6f 42 2b bc
       -0.019500604 -0.075566195 -0.093651146 -0.010452851
0000c0 38 d9 32 3d c7 1c b9 3d 1d ce d5 bd 4c 06 6e bd
       0.043664187 0.09038692 -0.104397036 -0.058111474
0000d0 5c 54 72 bd f7 23 46 3c 42 c8 8c bd d0 7c 87 bc
       -0.059162483 0.012093536 -0.06874134 -0.016539007
0000e0 32 f4 9c 3b 50 79 6b 3c b5 f1 2d bb 75 8f c7 3c
       0.0047898525 0.014372185 -0.0026541774 0.024360398
0000f0 e0 f6 e1 bb 3c 6e 03 bd 79 c7 f7 bd 67 c6 48 bd
       -0.006895885 -0.03208755 -0.12098593 -0.049017336
000100 d5 d7 db 3d 9a 5e b6 ba ce 4d 28 3c 3b 99 fa 3d
       0.10734526 -0.0013913692 0.010272456 0.12236258
000110 32 6e fe bd 85 0a 7a bc a8 5b b5 3d 96 f6 8e 3d
       -0.12423362 -0.015261297 0.08855373 0.06980626
000120 ee 50 05 be c2 86 ec 3d 28 67 1c 3d 25 4a 25 3c
       -0.13019153 0.115491405 0.038184315 0.010088478
000130 7f fb a6 3c 49 cd 96 bd a1 28 99 bd d2 f1 a5 3d
       0.020383595 -0.07363374 -0.074784525 0.08102764
000140 8d 6f e5 bd b8 7d 8b 3b 28 c1 2f bd c9 95 4d 3d
       -0.11202917 0.00425693 -0.042908818 0.050191674
000150 a0 4d 07 bd 05 d9 67 3d 20 5f 82 3d 46 fe 8c bb
       -0.033033013 0.05660345 0.063658 -0.0043027727
000160 d7 58 93 bc 79 fc d4 bd 6f f5 ba bd c2 18 a9 bd
       -0.017986698 -0.10399718 -0.09128844 -0.08256675
000170 21 c3 0e bc eb 35 d9 3d 81 69 67 bd 4f 74 ff 3c
       -0.008713515 0.10605987 -0.0564971 0.03118339
000180 0a 08 cf 3d 5b f6 8b 3d 54 ff c6 bd 1e 94 fb 3d
       0.10108955 0.06834098 -0.09716669 0.122841105
000190 10 52 93 ba 19 a5 4d 3d 6f 97 7e 3d bf d2 de 3d
       -0.0011239666 0.050206278 0.062156137 0.108800404
0001a0 4d 81 24 3d 86 3f 75 3d 34 40 cd bd 32 c3 95 ba
       0.040162373 0.059875034 -0.100220114 -0.0011425971
0001b0 3e 32 95 bd 89 84 5a 3b f3 80 58 3d 54 97 0d be
       -0.072849736 0.0033343157 0.05285735 -0.13827258
0001c0 06 59 d5 bd ae 29 cc 3d 80 e6 04 3c 2c 71 de 3d
       -0.104173705 0.09968887 0.008111596 0.108614296
0001d0 d6 64 c9 3d 4e f9 30 bd 27 5b 5b bb 99 07 e6 3d
       0.09833686 -0.043206505 -0.003347108 0.11231918
0001e0 21 e8 f5 3d 5a f5 ff bd 49 37 b4 bd 7a 09 92 bd
       0.12007166 -0.12497969 -0.08799607 -0.07130714
0001f0 d9 c8 e1 3d e4 08 0c be 06 e6 49 bd 07 2a 23 bd
       0.11024637 -0.13675267 -0.049291633 -0.039835002
000200 0a 70 86 3d c7 81 6e bd 4e a9 85 bb 61 dd 36 3c
       0.065643385 -0.058229234 -0.0040790206 0.011161179
000210 88 2d b3 3d 8f c8 8d bd 1d f7 d1 bd 3a fe f2 bd
       0.08748919 -0.06923019 -0.10252211 -0.11864896
000220 0a 54 db 39 26 83 5e 3d 58 b5 e5 bc 20 e4 41 bd
       0.0004183355 0.05432429 -0.028040573 -0.047336698
000230 ee 54 47 3d 54 0a 50 3d 3a 30 f8 bd 96 4b 1a 3e
       0.04866498 0.0507911 -0.121185735 0.15067896
000240 72 f9 e7 bc 20 da e3 3c 08 2e 10 bd c4 ac b8 3d
       -0.028317187 0.027813971 -0.03520015 0.090173274
000250 be 32 a3 bd f6 d0 e7 3d df db ba bd f3 24 fb 3c
       -0.07968663 0.11319153 -0.09123968 0.030657267
000260 b2 b5 eb bd 7b 03 cb 3d d3 36 34 3d 1c 98 26 bc
       -0.11509265 0.09912773 0.043997597 -0.010168102
000270 63 a7 35 bc e1 00 8f 3d bc 27 dd bd 63 ee e3 3d
       -0.011087271 0.069825895 -0.10798594 0.11129453
000280 94 89 44 bd 00 60 91 3d 58 e7 bf 3d 21 d0 1d be
       -0.047982767 0.07098389 0.09370297 -0.15411426
000290 9c 36 71 bd 2d 2a f3 bd ec f1 43 bd 3e a9 7e bd
       -0.05888997 -0.11873279 -0.047838137 -0.06217312
0002a0 9d 3f 06 be 43 62 3e 3d 9d 19 7c bd c8 1e af 3d
       -0.13110204 0.04648043 -0.061547864 0.08550793
0002b0 50 e4 14 be f3 5d 41 bd a8 a1 3c bd fc f4 1a 3d
       -0.1454022 -0.047208738 -0.046052605 0.03783129
0002c0 74 ad ed 3d 09 b9 96 bd b0 3c 11 be d2 07 6e bd
       0.11605349 -0.073595114 -0.14183307 -0.058112927
0002d0 a4 46 23 3e e1 54 14 bd a7 26 38 3d 5e 93 7d bc
       0.15944916 -0.03621376 0.044958737 -0.01547703
0002e0 d3 d7 b4 bd a9 0a bc bd 2a 6c 88 3d 9b 7e 8f bc
       -0.08830228 -0.09181721 0.06661256 -0.017516425
0002f0 9f d2 c5 3d 9f 25 c5 bd fd 2f 05 3e c8 3f 36 bc
       0.096593134 -0.09626316 0.13006587 -0.011123605
000300 04 9c f9 3d a5 c2 f4 3d aa a0 8a 3d 8a 5f dc bc
       0.12187961 0.11951188 0.067689255 -0.026901025
000310 4d df 7c 3d 1e 8d 06 3e 3c fb 66 3d 7d b9 14 bc
       0.061736394 0.1313977 0.05639194 -0.009077427

lstm.bias_hh_l1 f4 [200]
000000 46 d8 13 bb 76 05 cb bd 2a e6 ce 3d 9b 7b e0 bd
       -0.002255933 -0.09913151 0.10102494 -0.10961076
000010 0e b9 fa bd d0 1d 9a 3d d4 75 8c bd 3f cf c7 bd
       -0.12242328 0.075252175 -0.068584114 -0.09756326
000020 5b b8 c2 bd ad 94 8f bd 41 a4 04 3e 0f 1f 12 3e
       -0.09507819 -0.070107795 0.12953283 0.1426966
000030 49 c0 9e 3c 4e dc 74 3d ab 0d b6 bd f8 08 8f 3d
       0.019378798 0.05978041 -0.08889326 0.069841325
000040 0d f7 d8 bd 9d 15 06 3e fa 14 01 3d c5 f2 f1 bc
       -0.10593996 0.13094182 0.031514145 -0.029534707
000050 f9 25 03 3e 00 9a ec bc 11 86 46 bd 6e 86 ad bd
       0.12807454 -0.028882027 -0.0484677 -0.08472906
000060 c4 49 cd 3b 7c 97 b6 bd 77 a7 dc bd eb b6 3f bd
       0.006264897 -0.08915612 -0.10774129 -0.046805304
000070 01 89 03 3d 89 09 08 3e ce b6 d8 3d 89 76 d0 3d
       0.03211308 0.13284887 0.10581742 0.10178859
000080 3f f2 e2 3c 22 19 18 3e 47 22 8b bd 11 01 e6 bd
       0.027703403 0.14853337 -0.06793647 -0.11230672
000090 a7 b3 eb ba 40 c0 5c bc b9 7e 8f 3d e5 82 29 3d
       -0.0017982618 -0.01347357 0.07006592 0.041384596
0000a0 e4 5a b8 bd b4 f2 8a 3d 58 ba 00 bd fb 84 1a bc
       -0.09001711 0.06784573 -0.03142771 -0.009431119
0000b0 23 4a 1b 3d c9 a4 bc bd da 54 c0 3c 8a 11 a9 bd
       0.0379125 -0.09211118 0.02347796 -0.082552984
0000c0 0d 25 e4 bb 19 df 29 bd 65 34 c9 3c 54 fd f7 3c
       -0.0069624246 -0.041472528 0.024561116 0.030272163
0000d0 e8 e3 05 3d 20 f2 57 bd 7a 70 37 3d a5 d2 b8 bd
       0.03268805 -0.052721143 0.044785 -0.09024552
0000e0 42 54 dc 3d f8 8f 82 3d 3d 7b 10 bd 57 ad d9 3c
       0.107582584 0.06375116 -0.03527378 0.026571913
0000f0 eb 80 0f 3e 24 53 03 3e 58 4b 13 bc 79 0a 02 be
       0.14014022 0.12824684 -0.008990131 -0.12699308
000100 7b b7 e2 3c 4e bb d8 3d 16 d9 d0 bc 5a e0 07 3e
       0.02767538 0.105826005 -0.02549414 0.13269177
000110 d5 81 da bd 48 de c8 bd 15 ad 1b be 8b a8 81 3d
       -0.10669295 -0.09808022 -0.15202744 0.06330975
000120 93 b6 e3 bd 1d 97 e0 bd 4d 67 e6 3c 97 c4 6b bd
       -0.11118808 -0.109663226 0.02812543 -0.05756053
000130 bc 25 5a 3d 97 5c 67 3c 42 fd 04 be 19 7d 93 3d
       0.053258643 0.014121196 -0.12987235 0.07201595
000140 2d 75 64 bd 70 2e 1b 3e bb 98 c0 bd db 7e 4f bd
       -0.05577581 0.15154433 -0.09404131 -0.05065809
000150 a0 f6 83 bc 20 9f fc 3c 97 2a 8b 3c 6a 7a 03 3d
       -0.01610881 0.030837595 0.016988082 0.032099165
000160 03 19 fc bd 1e 57 2f 3d 32 c5 a9 bd 4b 74 07 3e
       -0.12309458 0.04280769 -0.08289565 0.13227956
000170 76 0c 73 3d ec d4 7d bd 3c 5a 84 bd 6d 08 aa 3d
       0.059338056 -0.061970636 -0.06462523 0.08302388
000180 12 49 e6 bd 8a 4e af 3d 15 bb e9 3d e0 76 8d bd
       -0.11244406 0.08559902 0.11412636 -0.06907439
000190 fc 28 43 bd 28 65 d2 bd a6 ae 05 be 0e c0 09 be
       -0.047646508 -0.102732 -0.13054904 -0.1345217
0001a0 f1 f3 c5 3c 83 bb e4 3d 74 62 b4 3d 53 f3 18 3e
       0.024164172 0.111685775 0.08807841 0.14936571
0001b0 93 0a 89 3d 21 1c c1 bd fd 7c 0e be 4c 42 30 3d
       0.0669147 -0.09429193 -0.13914867 0.043031976
0001c0 4a 16 8f bd c4 af c6 3d 91 8b 08 3e 58 37 1a be
       -0.06986673 0.097014934 0.1333449 -0.15060174
0001d0 5f f7 19 be d5 4f e0 bb 80 6f 8c 3c f1 c3 71 3d
       -0.15035771 -0.006845454 0.017143011 0.059024755
0001e0 47 99 b1 3d 5f 14 c7 bd 0f c4 0b 3e fd b6 ed bc
       0.086718135 -0.09720682 0.13649009 -0.02901792
0001f0 01 c4 cc 3c f2 40 45 bb 2a 39 9a 3b e1 6e f3 3d
       0.024995806 -0.0030098525 0.0047065215 0.11886383
000200 da 7d 6e 3d bf 42 63 bc 2a d1 1a be 06 80 92 bd
       0.05822549 -0.013870894 -0.15118852 -0.07153325
000210 5e e9 cc bd 2f 59 23 be 6c cc 9b 3d 81 39 6c bd
       -0.10005449 -0.1595199 0.0760735 -0.057672027
000220 9e 72 e2 3d df 6a 46 bc 25 1f 08 be bc fc d0 bd
       0.11057018 -0.012110441 -0.1329313 -0.10204455
000230 82 18 cb bd 66 d7 25 bd fa e8 ed bd 2c 39 1d 3e
       -0.09916784 -0.040488623 -0.116167024 0.1535384
000240 1c cd ff bd 6e 56 f9 3c c0 ee 1e be bd 7b dd bc
       -0.124902934 0.03043672 -0.15520763 -0.027036542
000250 df e5 95 3d ab 2c 10 3e f5 e1 60 3c ef ba 0c 3e
       0.07319235 0.1407954 0.013725747 0.13743185
000260 9f c4 39 bd 58 93 09 be 1d 01 eb 3d cb b5 53 bb
       -0.045353528 -0.13435113 0.11474822 -0.0032304402
000270 1b ae b4 3d 69 de d1 bc da d6 35 bd d8 28 9b bc
       0.088222705 -0.025618749 -0.04439435 -0.018940374
000280 96 43 7a bd 54 7e b5 bc a7 94 ae 3d a5 1f 82 bd
       -0.06109961 -0.022154965 0.08524447 -0.06353692
000290 a9 2f 9d 3d f8 2f 3b 3d 43 64 16 3d 85 b6 7f 3d
       0.07675106 0.045700043 0.03671671 0.062429924
0002a0 25 c8 b2 3d 04 ec ba 3d e6 03 f6 bd f4 cc a7 3d
       0.08729581 0.09127048 -0.12012462 0.081933886
0002b0 12 54 62 bd d0 4a c0 bd b5 f7 bb bc 7c ed db 3c
       -0.055255957 -0.09389269 -0.022945264 0.02684664
0002c0 6c 78 e9 3c 6f b6 ef bd b3 70 ad 3c d8 c1 9c bd
       0.028499804 -0.11704718 0.021171903 -0.0765416
0002d0 2b 33 be 3d ac 46 07 3e 22 33 46 bb 6a 87 5f bd
       0.09287103 0.13210553 -0.003024288 -0.0545725
0002e0 f5 79 1e bd fc 6c d2 3d 9e 70 d3 3d 37 89 c5 3b
       -0.038690526 0.10274693 0.103242144 0.00602832
0002f0 b5 7e 7f bd 15 68 b8 bd d0 00 8c 3d 03 f8 a6 3d
       -0.062376697 -0.09004227 0.068360925 0.08152773
000300 34 51 46 3d 1c 9f dd bb 3a 42 6e 3d b1 36 56 3d
       0.048417285 -0.006763352 0.058168627 0.05229825
000310 a2 39 78 bd 41 23 ed 3d 40 37 cf 3d f6 00 b7 bd
       -0.060601838 0.1157899 0.1011796 -0.0893573

fc.weight f4 [1, 50]
000000 a6 48 83 bd 3f 66 ec 3d 7e 90 5c bd bf ba bf bd
       -0.06410341 0.115429394 -0.053848736 -0.09361791
000010 b3 60 9c 3d 6f e7 0b 3d 4c da 18 3e 7a b4 17 3e
       0.076356314 0.03415626 0.14927024 0.1481494
000020 e5 ac 3c 3d 94 df ef bc 6f 94 13 be 81 f2 13 be
       0.046063323 -0.029281415 -0.14412092 -0.14447977
000030 7e 25 29 bc fd a6 e9 bd d5 89 84 3d 4a 75 10 be
       -0.01032388 -0.114088036 0.06471602 -0.14107242
000040 f3 44 34 3c e8 3b ff bd 49 1d 7c bd d8 64 b6 3d
       0.011002767 -0.12462598 -0.061551366 0.08905953
000050 08 20 61 bd 5e 7e c7 bd d0 77 03 bd 59 8f 11 3d
       -0.054962188 -0.097408995 -0.032096684 0.035537098
000060 fd 5b 29 bd cc 7e 1f be 9d 9f fc bd a7 43 85 bd
       -0.041347492 -0.15575713 -0.12335131 -0.06507044
000070 07 fd 99 bc 13 83 9a bd 37 14 04 bb 4b b6 21 be
       -0.01879741 -0.07544532 -0.002015365 -0.15792195
000080 12 e9 9b bd e8 cb fd bd d5 4d e9 3d 8b ea 1a 3d
       -0.07612814 -0.12392408 0.113917984 0.037821334
000090 b3 b8 5f bd 76 88 83 3c 2b e5 86 bd 5b d2 c3 3d
       -0.054619502 0.01605628 -0.06586679 0.095616065
0000a0 e9 cb 14 be 87 9d b9 bd c5 35 23 be 54 30 48 3d
       -0.1453091 -0.09063249 -0.1593848 0.048874214
0000b0 6f a0 71 bd 78 a9 3c bb 4f 7d e0 bd 00 92 ee bd
       -0.058990892 -0.0028787535 -0.10961401 -0.11648941
0000c0 5b 5b c7 3d 85 ff c5 3d
       0.097342215 0.09667877
