models/SOL_USDT_model.pt (torch, 128181 bytes, 9 tensors)

lstm.weight_ih_l0 f4 [200, 1]
000000 b4 b9 e8 3d 4d ed 81 bd a5 88 a4 bd 5c fe a9 3d
       0.11363545 -0.0634409 -0.080338754 0.08300468
000010 bb eb 47 3d af 14 89 bd ab 82 3d 3d 8a 74 01 3e
       0.048808794 -0.06693398 0.046267193 0.12642112
000020 5a a3 69 3d 17 f6 92 3d 1e 71 80 3d ee 75 55 bd
       0.05704055 0.07175844 0.062715754 -0.05211442
000030 c8 90 f5 bd f3 59 99 bd 44 fe 9c 3d c9 d8 96 3d
       -0.119905055 -0.074878596 0.07665685 0.07365567
000040 26 4f fe bc 69 75 d0 bb cb 8e a9 bd 0e 83 96 bd
       -0.0310436 -0.0063616526 -0.08279189 -0.073492154
000050 15 0b cf 3d 85 04 fc 3d f6 b3 b1 3d 88 09 04 bd
       0.101095356 0.123055495 0.08676903 -0.032235652
000060 5d c3 b8 3d 0f 7f 8f bd 09 52 3e bd 90 03 64 bb
       0.090216376 -0.070066564 -0.046464954 -0.0034792162
000070 49 d2 c5 bd 18 e7 91 3d 47 bb 06 3e 17 7b de 3d
       -0.09659249 0.07124156 0.13157378 0.10863321
000080 32 8e bc 3d 25 fe f0 3d ca eb 1b 3d 82 4d ab bb
       0.09206809 0.11767224 0.038066663 -0.0052277455
000090 6a 44 d8 bc 5a 3c d4 3d d7 c8 25 3c 7b 97 20 3e
       -0.02639981 0.10363074 0.010118685 0.15682785
0000a0 ed fa 2f bd 46 69 ef 3d c9 bc de 3d 72 44 e5 bd
       -0.04296391 0.11690001 0.10875852 -0.111946955
0000b0 94 02 d3 bc ea 92 dc 3d c3 13 9c bd d3 aa 7c bd
       -0.025758065 0.10770209 -0.07620957 -0.06168635
0000c0 d9 13 54 bd aa 10 d0 3d 93 e6 0e bd af 59 f8 3d
       -0.05177674 0.101594284 -0.03488786 0.12126481
0000d0 27 b1 9d bd 40 0b ba 3d df 7f 09 3e 1b f3 f6 bd
       -0.07699805 0.09084177 0.13427685 -0.120580874
0000e0 7a b2 f1 3a 22 af 47 3d eb c9 09 3e 4d 8c dd bd
       0.0018440031 0.048751004 0.13455932 -0.10817776
0000f0 22 e3 d0 bc 65 68 1b bd 46 0c 10 bc 5d 8f cc 3b
       -0.02549893 -0.037941355 -0.008791989 0.006242676
000100 a7 ed 11 bd 25 d3 b4 bc 22 86 7f 3d 1a d6 91 bd
       -0.035627034 -0.022073338 0.06238378 -0.07120915
000110 b8 c7 b5 3d 7f d2 38 3c 23 b5 07 bd c7 0b cf 3d
       0.08875984 0.011280655 -0.03313173 0.10109668
000120 7c 8e c5 3d a4 d8 03 be 6c ec 9a bd 1e 7b 74 bc
       0.09646317 -0.1287561 -0.07564625 -0.014921932
000130 b5 87 1c bd f1 69 cd bc f7 92 2d 3c db af 95 bd
       -0.038215358 -0.02507493 0.010594121 -0.073089324
000140 a5 75 06 3e 9e 44 66 bd 6a 43 e3 bc 77 05 9e 3d
       0.13130815 -0.056217782 -0.027742106 0.07715886
000150 c4 5c e4 bd e3 56 2d bd 47 13 d5 3b 7e 0b 6f bd
       -0.11150506 -0.04231919 0.006502542 -0.05836057
000160 24 2b 09 3e be ef 9e bd 8b 3a 18 3e 30 c5 8f 3d
       0.13395363 -0.07760571 0.14866082 0.070200324
000170 4b 52 3f bd 30 33 b9 bb 9c 19 e9 bd 89 de b4 3d
       -0.04670934 -0.005651854 -0.11381838 0.08831508
000180 30 6f e9 3d 4f 3b 9f bd e9 f4 87 3d 0f 27 aa 3c
       0.113981605 -0.07774984 0.0663851 0.020770578
000190 d7 0c f9 3d 25 0d 81 bd b0 37 ae 3d 6c e3 11 3d
       0.12160652 -0.06301335 0.08506715 0.035617277
0001a0 b3 46 71 3d d3 5c b6 3a c2 f7 13 3e 40 00 e1 bd
       0.058905315 0.0013913162 0.14449981 -0.10986376
0001b0 8b 78 c6 3d 54 bc 02 be f7 8a 9f 3d c5 38 48 3c
       0.096909605 -0.12767154 0.07790177 0.012220566
0001c0 3d ea 24 bc 3c a2 a2 bd 42 be ae 3c ad 74 c6 bd
       -0.010065612 -0.079411 0.021330956 -0.09690223
0001d0 69 22 9f 3d 69 60 cc 3d 52 a4 af bd fb 90 c5 3d
       0.07770235 0.09979326 -0.085762635 0.096467935
0001e0 6d fe a3 bd 10 06 e9 bd 23 af 0b bd 04 44 78 3c
       -0.08007512 -0.113781095 -0.03410257 0.015152935
0001f0 83 e7 e1 3d eb 32 9e 3c b8 d0 07 3d 1d 39 0a be
       0.110304855 0.019311389 0.033158034 -0.1349835
000200 89 6f 46 bc e3 bd ca bd ed 40 93 bd 5b 01 00 be
       -0.012111553 -0.09899499 -0.07190118 -0.12500517
000210 50 3d a9 bd 66 d7 f2 bd 55 7b 6f ba 00 92 15 3d
       -0.082636476 -0.1185749 -0.00091355044 0.03651619
000220 92 b1 dc 3d 9d 1a 1f be e9 3e 02 3e 4d 00 b2 3d
       0.10776056 -0.15537496 0.12719311 0.086914636
000230 93 8d db bd 5d 19 99 3d b5 2e 4a bc bd a6 3d 3d
       -0.107203625 0.07475541 -0.012340237 0.046301592
000240 82 1a 62 3d 91 7a f5 3c a4 77 04 3e 84 04 b7 3c
       0.05520106 0.02996567 0.12936264 0.02234102
000250 3f 71 fb bd da fe 5a bd 84 39 9d bb 65 30 fe 3d
       -0.12277459 -0.0534657 -0.004798116 0.12411574
000260 54 cc 4a bd b4 e2 8a 3d 3c 81 99 bd 0e f1 8e 3d
       -0.04951127 0.067815214 -0.074953526 0.06979571
000270 18 4f ed bd ae 2a 0d 3e 72 6d 7c bd 2c 54 ad bd
       -0.115873516 0.13785812 -0.061627813 -0.0846332
000280 0a 01 d2 bc ad 8c ed 3d 39 2a 13 3e 4b 46 a0 bc
       -0.025635261 0.115990974 0.14371575 -0.019564768
000290 22 08 b0 bd 79 db b8 bd 70 70 56 bc 39 1c 05 3e
       -0.08595301 -0.09026236 -0.013088331 0.12999047
0002a0 4c 61 33 3d 0a 55 f9 bd 21 42 e7 3d 5f 64 98 3d
       0.04379396 -0.12174423 0.1129191 0.07441019
0002b0 a9 aa 9e bc a6 f8 bf bc 24 a3 61 bd 69 79 79 bc
       -0.019368486 -0.023433995 -0.055087224 -0.0152267
0002c0 ed ed 9d bd 86 d6 28 bd f4 b1 b8 3d f1 16 67 3d
       -0.07711396 -0.04122021 0.09018317 0.056418363
0002d0 55 84 81 3d 43 fb c9 bd b1 f5 d4 3c 91 ed bb bd
       0.063240685 -0.098623775 0.025996061 -0.091761716
0002e0 9c f5 14 3e 80 9f f5 3d 8e 74 11 3e 02 10 5a 3c
       0.14546818 0.11993313 0.14204618 0.013309481
0002f0 f5 78 c7 bd 63 41 e3 3d 2b 30 1a 3e 2f 10 25 bd
       -0.097398676 0.11096456 0.15057437 -0.040298637
000300 08 1e 66 bc d7 b5 54 3d d2 f3 0e 3e 4d 9f 16 3d
       -0.014045246 0.05193123 0.13960198 0.036773015
000310 49 f6 a7 bd 80 3f 56 ba af 1e f2 3d 79 4b 02 3c
       -0.08201272 -0.00081729144 0.11822259 0.007952564

lstm.weight_hh_l0 f4 [200, 50]
000000 8f 33 81 3d 52 dc a4 bc 04 b4 73 3d 5b 22 00 3c
       0.06308662 -0.020124588 0.05949785 0.007820691
000010 0b 94 eb bc 07 49 9c bc 1e 22 38 bc 56 8b 41 3d
       -0.028757116 -0.01907779 -0.011238603 0.04725202
000020 b1 f8 d9 3d 32 0b 1f be 65 29 9c 3d 8f cc 82 bd
       0.10643137 -0.15531614 0.07625083 -0.06386673
000030 de fb bc 3c 8d 97 18 3e ef 73 49 3d 7d f4 f9 bb
       0.023069318 0.14901562 0.04918283 -0.007628022
000040 14 c5 bc bd 4c c1 63 bc 98 b5 3e 3d 20 2c db 3d
       -0.09217277 -0.013901066 0.0465599 0.107017756
000050 cc 61 0e bd fb 73 44 bd 2c 8f a7 3d b0 8d 45 bd
       -0.034761235 -0.04796217 0.08181605 -0.048230827
000060 ee 8f d7 bd 29 a7 51 3d 4a c0 86 bd 68 c4 bf bd
       -0.10525499 0.051184807 -0.06579645 -0.093636334
000070 de 77 f3 bc fb 3a a7 3d 13 68 31 bd a7 9e 2e bd
       -0.029720243 0.081655465 -0.043312144 -0.04263177
000080 01 a5 63 3d d2 c5 8b 3d 37 fd ab 3d 29 fd c6 bd
       0.05557728 0.068248406 0.08397906 -0.09716255
000090 ca 9d e3 bd c9 40 8b bd 8b d5 97 3d 2d dd b9 bd
       -0.1111408 -0.06799466 0.07413777 -0.09075389
0000a0 a7 fb 2b bd ce 48 32 bd dd 39 d7 bd 27 9e 88 bd
       -0.04198804 -0.043526463 -0.105090834 -0.0667079
0000b0 d9 97 09 3e 8a 22 87 3d 5f 2e 6d bd 09 e4 e1 bc
       0.13436832 0.06598385 -0.05790555 -0.027574556
0000c0 0b ea e3 3d f0 19 85 3d ef e5 6d bd 02 15 a6 ba
       0.111286245 0.06499088 -0.05808061 -0.0012671056
0000d0 5b 8f 21 bc 39 55 7f 3d 8a f5 dd bd 56 fe cc 3c
       -0.009860839 0.062337134 -0.108378485 0.02502362
0000e0 36 34 94 bd c3 be c5 bb 79 96 88 bd d9 c1 55 bd
       -0.07236521 -0.0060347035 -0.066693254 -0.05218682
0000f0 b6 b9 c6 3c ad 13 92 bc de 29 b5 bd 09 62 05 3e
       0.024258476 -0.017831648 -0.08845876 0.13025679
000100 73 8f 06 3e 6d 92 10 39 65 9f 66 3d eb dd 3c 3d
       0.13140659 0.00013787458 0.056304354 0.046110075
000110 22 21 dc 3d 9c 61 1a 3e 81 70 18 3d d2 14 35 3b
       0.10748507 0.15076298 0.037216667 0.0027630818
000120 ff d5 b3 bd 8c 81 d8 bd ba 7d d0 bd f3 bf 07 be
       -0.08781051 -0.10571584 -0.101802304 -0.13256817
000130 3e 32 f5 3d 06 cf 49 3d 79 ef 23 3d 45 9e ee bc
       0.119724736 0.0492697 0.0400233 -0.029128203
000140 5e ec 15 be 74 b1 bf 3d 5d e0 9d bd c9 37 2b bd
       -0.14640948 0.093600184 -0.077088095 -0.041801248
000150 03 f0 9d 3d 21 4b 15 be 96 37 9d 3d f0 57 a6 3d
       0.07711794 -0.1457944 0.07676618 0.081222415
000160 45 57 40 bc 55 07 7e 3b 65 8d 7d 3d 70 cc 1c 3e
       -0.011739557 0.0038761694 0.061902422 0.15312362
000170 26 18 8c bd da e0 5c 3d 69 ea 63 bd ff 7a c1 3d
       -0.068405434 0.053925373 -0.055643473 0.09447288
000180 2a d7 d1 bd 09 ec 14 3e d1 f5 f1 3a c1 01 d7 bd
       -0.102461174 0.14543165 0.00184601 -0.104983814
000190 56 6b d7 bb bf 7a 5b bc 16 38 fd 3b cf 6d 11 bd
       -0.0065740747 -0.013395964 0.007727633 -0.035505112
0001a0 32 90 04 3e 92 67 12 be 20 0f f3 bd c8 a3 0c 3e
       0.12945631 -0.14297321 -0.11868119 0.13734353
0001b0 cd ee 6b 3d b8 68 ee bc a4 f0 07 3e 85 38 53 3d
       0.057600785 -0.029102668 0.13275391 0.051567573
0001c0 e8 3a e9 3d 4b ec e2 bd 99 ea 87 bd ec 30 71 bd
       0.113881886 -0.110802256 -0.06636543 -0.058884546
0001d0 1f ff 8c bc 5f 31 83 bd 89 99 9c 3d 61 77 e5 3d
       -0.017211495 -0.06405901 0.07646472 0.1120441
0001e0 33 41 15 3d 9a af 27 bd e5 25 f3 3d 67 1e 23 bd
       0.036439132 -0.04093895 0.11872462 -0.039823916
0001f0 ae a2 90 3d 4e 3b 53 3d 07 65 81 3d 10 fc cb bd
       0.07062279 0.05157023 0.063180976 -0.099601865
000200 d8 83 d1 3c 72 68 94 3d 0f 0d 80 3d 70 a9 dd bb
       0.025575563 0.07246484 0.06252491 -0.0067645833
000210 59 7e d9 bd a9 41 77 3d a5 fd fc 3d 5c 83 83 3d
       -0.10619802 0.060365353 0.12353066 0.06421539
000220 7a 59 07 be da c2 58 3b 76 7b 6b bd 6d c0 a5 3d
       -0.13217726 0.0033075125 -0.05749079 0.08093343
000230 e4 90 52 3d 62 2a 5b bc 27 53 ca 3d cb 62 f0 bd
       0.05140771 -0.013376804 0.09879141 -0.11737593
000240 0b 3e d3 bd 15 50 3a 3c cd c0 fe bd 7f ff b0 3c
       -0.10314568 0.011371632 -0.124391176 0.021606205
000250 ca 2d a4 3d 59 81 9c bd fe 70 8b 3c a3 e1 7c 3d
       0.08016546 -0.076418586 0.017021652 0.06173862
000260 77 2b 39 bd c5 29 3f 3d b6 e8 f9 bd 22 cc fb bd
       -0.045207467 0.046670694 -0.12202589 -0.122947946
000270 0a 7f dc 3a 3a f3 dc bd 8a 0a be 3d a6 a8 5b bd
       0.0016822529 -0.10788579 0.09279354 -0.053627633
000280 c7 76 8c 3d 3f ea fa 3d 01 7b 02 3e a8 2c 6d 3c
       0.068585925 0.1225171 0.12742235 0.014475979
000290 c9 3f f4 3d 58 a2 0f 3d 20 06 4d bb 30 26 90 bd
       0.119262286 0.035066932 -0.0031284168 -0.07038534
0002a0 bb 26 c0 3b b4 50 d3 bd f7 aa f4 3b 70 77 dc bd
       0.005863992 -0.10318127 0.0074666697 -0.107649684
0002b0 57 28 26 3d 11 6c ab bd 60 0b e4 bc 45 89 54 bd
       0.040565815 -0.083702214 -0.027837455 -0.051888723
0002c0 a6 42 6c bd 5e e4 a3 3d 0c 08 91 3d 71 fb 10 bd
       -0.05768075 0.08002542 0.07081613 -0.035396043
0002d0 28 05 1b 3d b9 d9 df bd 67 49 af bb 2c 87 91 3d
       0.037846714 -0.10930199 -0.0053493264 0.0710586
0002e0 c1 3c a7 3d 20 f8 fa 3d 33 87 fe bc 66 53 dc 3d
       0.08165885 0.12254357 -0.031070327 0.107580945
0002f0 5e 1f 5a bd fb 26 17 bd d2 2f bd bd cb e7 ee 3c
       -0.05325257 -0.03690241 -0.092376366 0.029163262
000300 79 b6 22 3d cd 0e b7 bc 0d e0 91 3d 90 7b f1 3d
       0.0397248 -0.022345925 0.071228124 0.11791146
000310 7b c4 e1 bd 43 f2 66 bd df c5 e5 3c 0f 23 90 bc
       -0.11023804 -0.056383383 0.028048454 -0.017594842
000320 6f 13 16 3e dd 19 d4 3d 0c 27 a0 bd e7 51 04 bd
       0.14655851 0.103564955 -0.078199476 -0.03230467
000330 c4 97 3c bd 7d b0 c2 bc 69 fd 08 3e 3e 6a e2 3d
       -0.046043172 -0.023765797 0.13377918 0.1105542
000340 d2 eb 38 bc f4 00 df 3d 68 ce 68 bc 2f a7 02 3e
       -0.011286693 0.10888854 -0.014209367 0.12759088
000350 dd d0 c3 bd a4 9c 56 bd 2d da da bc ba 4e 27 bd
       -0.09561322 -0.052395478 -0.026715362 -0.040846564
000360 a7 cb 55 bd d6 5f c8 bd 85 cc e9 bc f4 e4 00 3e
       -0.05219617 -0.09783904 -0.028539905 0.12587339
000370 e4 c2 b0 3d 77 0a 40 3d f8 15 af 3a 45 c1 fe 3c
       0.086309224 0.04688498 0.0013357988 0.031098017
000380 e6 6b 81 3c 9e ae f2 3d 44 d7 db bd 7c 91 6f bc
       0.01579852 0.11849712 -0.10734418 -0.0146220885
000390 cb 9e 67 bd 45 a4 8c bc a2 96 ae bd e6 0d cd bd
       -0.05654792 -0.017168174 -0.08524825 -0.100124165
0003a0 d5 1b 10 be b9 ab be 3d f8 52 15 be 71 2d 9c 3d
       -0.14073117 0.09310097 -0.14582431 0.07625855
0003b0 76 6d d0 3c c9 d0 f1 3d 8e 70 c1 bc 2c 3d 21 3e
       0.02544282 0.11807401 -0.02361324 0.15745991
0003c0 50 98 41 bd af 5f b0 3c b9 97 d2 3d 19 d9 07 3e
       -0.047264397 0.02153 0.10282845 0.1326641
0003d0 25 39 96 3d 7f 19 01 3d 40 6a 2d bd 85 b6 42 3d
       0.07335118 0.031518456 -0.042337656 0.047537345
0003e0 ab e6 a3 bd 8b 71 0f 3d 9f 16 19 3d 2e 40 25 bc
       -0.08002981 0.035020392 0.03737509 -0.010086102
0003f0 27 b6 f7 3d 7e 59 8b ba e3 38 0d 3e 35 5c 01 be
       0.1209529 -0.0010631529 0.13791232 -0.1263283

lstm.bias_ih_l0 f4 [200]
000000 9a fd 92 bc 01 a6 e5 3c 11 b7 2a 3d 25 f1 1b bd
       -0.017943192 0.028033258 0.041678492 -0.03807177
000010 58 9e 87 3d 6d 21 0e be 6a 4b ed 3d 76 6d f9 bd
       0.066219985 -0.13879938 0.1158665 -0.12179081
000020 c4 da 3f 3d 18 af db bc f3 46 96 bb 4a c4 0c 3e
       0.04683949 -0.02681689 -0.0045860945 0.13746753
000030 9b d2 ee 3c 58 78 bd bd 7c d1 0e bd 32 7d c8 bd
       0.029153159 -0.092514694 -0.03486775 -0.09789504
000040 75 d6 66 3d f3 07 5f 3d a4 18 83 bc 0d 8e aa 3c
       0.056356866 0.05445094 -0.01600296 0.020819688
000050 df d5 92 3d ea c8 cf ba 30 f8 e4 3d 3e 88 62 3c
       0.07169699 -0.0015852724 0.111801505 0.013826428
000060 5f f8 47 bd 20 41 ed 3d 9c 8b 14 3e c9 ba 04 3d
       -0.04882085 0.11584687 0.14506382 0.032404695
000070 20 1a f1 3d fd f6 e6 bd ca a4 80 3d f9 fa a2 3d
       0.11772561 -0.11277578 0.06281431 0.079580255
000080 af 2e d4 bd 8b 5d c2 3c b6 c0 fa bd a1 d6 47 3d
       -0.10360467 0.023726245 -0.12243788 0.04878867
000090 d7 b1 3f 3c 93 40 c1 bd d5 6d 90 3d fc 53 04 bd
       0.011700115 -0.09436145 0.07052199 -0.032306656
0000a0 cc 94 d6 3c 46 61 b8 bd 72 10 a7 bd 60 bc 83 3d
       0.026193999 -0.090029284 -0.081574336 0.06432414
0000b0 30 ca 1c bd f2 7c 0b bd 18 f6 b1 bd 1a f5 84 3c
       -0.03827876 -0.034054704 -0.08689517 0.016230155
0000c0 46 03 b2 bc 5a c9 96 3c b7 90 1e bc 5c 4a 45 bd
       -0.021730077 0.018406559 -0.009678057 -0.048166618
0000d0 57 2e db bd 41 99 b3 bd 3e ef 9c 3d 9a 68 e4 3d
       -0.10702198 -0.08769465 0.07662819 0.11152764
0000e0 a1 ca ef 3d 7f 5e 96 bd e6 79 bc bd 32 43 45 3d
       0.1170857 -0.073422424 -0.09202938 0.048159786
0000f0 f8 72 17 3e 0b b8 7c 3d 20 dc 20 3d 6d 4d 08 3e
       0.14789951 0.061698955 0.039272428 0.13310786
000100 07 ca 3b bd fa a4 a8 3c d1 e6 e3 bd ac fb de bd
       -0.045846965 0.02058648 -0.11128009 -0.10887846
000110 e5 57 77 3d d8 3b 04 be 1f f3 87 3d 0f 59 b9 bd
       0.060386557 -0.12913454 0.066381685 -0.0905019
000120 79 60 e3 bd 22 74 a3 bb 35 6d 03 3e 48 49 e0 bd
       -0.11102385 -0.0049882093 0.12834628 -0.10951477
000130 04 8b f4 bd bf 53 0f be 36 8b 64 bd ce 37 c5 3d
       -0.119405776 -0.1399679 -0.055796824 0.096297845
000140 7c ec 04 3e 08 c2 58 3c 5e 31 41 3c 4f 07 b3 bd
       0.12980837 0.013229854 0.011791555 -0.087416284
000150 a5 03 ca 3d 69 8f cf 3d 1c 4e e6 bd 91 1f 22 3e
       0.098639764 0.10134775 -0.11245367 0.15832354
000160 32 ee 47 3d 28 29 91 bd bc cf 16 bd 3b 19 8d 3d
       0.048811145 -0.07087928 -0.036819205 0.06889578
000170 e0 75 6a 3d f5 8f fa bc a6 07 5f 3d fc 6b 13 3e
       0.05724132 -0.030586222 0.054450653 0.14396662
000180 8d 1c b3 bd a7 33 4a 3d 84 d3 81 3b ac 0e ea bd
       -0.0874568 0.049365666 0.003961982 -0.1142858
000190 c4 d3 ec 3d ad da 42 3d 3b 4f 30 3d 1c f6 02 3e
       0.115638286 0.047571827 0.04304431 0.12789196
0001a0 5a a9 b4 bd 09 d8 c9 3d 41 20 62 bd c6 72 a4 3d
       -0.08821364 0.098556586 -0.05520654 0.08029704
0001b0 1c 0c 01 3e 59 19 75 bd cf bf dc 3d ca 4e 18 3e
       0.12602276 -0.059838627 0.10778772 0.14873806
0001c0 fd 71 19 be 5c ef 6d 3d 68 2c e5 3c d1 c3 10 bd
       -0.1498489 0.0580896 0.027975276 -0.035342995
0001d0 d8 9a 99 bd 3e 59 14 3e 05 d5 0f 3e 23 f2 b5 3d
       -0.07500237 0.14487168 0.14046104 0.088840745
0001e0 04 c9 8b 3c 53 34 45 bd dd 49 07 be af 90 5e 3b
       0.017063625 -0.048145603 -0.1321177 0.003396075
0001f0 06 f5 f1 3d 81 d3 d8 bd 43 f7 86 3d d2 71 b2 3d
       0.11814313 -0.10587216 0.0659013 0.08713116
000200 ea bf 7d bd 3d 56 82 3d ff 94 b5 3c 8f 64 e6 3c
       -0.0619506 0.06364105 0.022165773 0.028124122
000210 81 10 5f 3b 0b 0f 06 be 3a 3f a7 bd 5e 61 f6 bc
       0.0034036937 -0.13091676 -0.081663564 -0.030075725
000220 50 e5 0f be 45 d5 1f be fb cc 07 bd 9f 22 b8 bc
       -0.1405232 -0.156087 -0.03315447 -0.022477446
000230 4a 44 1f 3e ba cc f3 3d 04 50 07 3e 00 b9 bd ba
       0.15553394 0.11904283 0.13214117 -0.001447469
000240 da 11 d7 3d 22 1f 52 3d 6c 76 fb 3c 7f 15 0e 3d
       0.10501452 0.05129922 0.030696116 0.03468847
000250 3c 77 09 be 5f 85 71 3d 41 c8 8a bd 11 d7 92 bd
       -0.1342439 0.058965083 -0.06776477 -0.07169927
000260 ac 7f c6 3c e9 b4 79 3d da 37 fb bd 06 62 68 3d
       0.0242308 0.060963545 -0.12266512 0.056734107
000270 19 25 0d be 6c 18 2a bd a9 16 c7 bd ee d6 fe 3c
       -0.13783683 -0.041527197 -0.09721119 0.031108346
000280 11 54 84 3d 42 29 70 bc d6 1c aa 3c 69 f9 ff bd
       0.06461347 -0.014658274 0.020765703 -0.12498743
000290 9f 2c 69 bd 3a 59 12 bd f8 16 b1 bd af 07 d6 3d
       -0.05692732 -0.035729624 -0.08646959 0.10450684
0002a0 83 da 69 bc 16 bb a8 bd 59 85 04 bd 94 cd 54 3b
       -0.014273289 -0.08238809 -0.032353733 0.0032471167
0002b0 b6 ab 80 3c fd e8 ba bd fb f4 7d bd f2 c3 c0 bd
       0.015706878 -0.0912647 -0.06200121 -0.094123736
0002c0 43 c5 db bc 82 3d 4b bc 2a 29 15 3e 9d 90 f1 3d
       -0.02682746 -0.012404801 0.14566484 0.11795161
0002d0 f4 56 fd 3c 54 48 3a 3c 2f 45 73 3d f4 28 d8 3d
       0.030925252 0.011369783 0.05939215 0.10554686
0002e0 75 8c 53 3d 9e e7 05 3e 15 86 f3 bd 8c ad f7 3d
       0.051647622 0.13076636 -0.118908085 0.12093648
0002f0 64 2e 8d 3d 6d e0 0f 3e ca d6 ae bd 9a 2b 8f bd
       0.06893614 0.14050455 -0.085370615 -0.06990738
000300 13 2a 3b bd eb 2f 77 bc c8 4f 77 bc af 0c d3 3d
       -0.045694422 -0.015087108 -0.015094705 0.103051536
000310 52 9d 8e bc a2 7e 95 3c e7 bb 04 3e a0 8a bc bc
       -0.017409 0.01824886 0.12962304 -0.02301532

lstm.bias_hh_l0 f4 [200]
000000 8d a2 10 3e bf 95 b0 bd bf ed e2 bd c1 38 62 3d
       0.14124508 -0.08622312 -0.11080503 0.055229906
000010 39 ae 12 3e 91 4a 0e bd 20 1b 83 bc 8f d5 cd bc
       0.14324273 -0.03473908 -0.016004145 -0.025126247
000020 51 36 00 3e 29 99 eb 3d 1d 2f 9f bd 2e 2e a2 3a
       0.1252072 0.11503822 -0.07772658 0.0012373382
000030 75 7f 20 3e d1 10 99 bd 26 93 23 bd 2f 7b eb 3d
       0.15673621 -0.074739106 -0.039935254 0.11498105
000040 b6 3a 7a bc 1b 8b d0 bc cd 03 dc 3d e2 27 ca bd
       -0.015272787 -0.025456956 0.107429124 -0.09870888
000050 ee 24 dd 3d c9 82 25 3d 3d 2e 10 3e 03 10 8d 3d
       0.107980594 0.04040793 0.14080139 0.068878196
000060 1f 1b 9b 3d d4 0f 58 3c 7c 7d 95 bd b0 f9 91 bd
       0.07573532 0.0131873675 -0.07299325 -0.07127702
000070 8f 91 a7 bd d7 a8 34 3d 3e 72 c8 3d ae 82 0c 3e
       -0.0818206 0.04410633 0.09787415 0.13721725
000080 4d 70 7f 3d fa ae ce bd 10 2e af bd a2 cc 94 bd
       0.062362958 -0.10091968 -0.085537076 -0.07265593
000090 07 63 55 bd 23 f0 d9 3d 23 b3 86 bd c2 bd cb 3d
       -0.052096393 0.106415056 -0.06577136 0.09948303
0000a0 4a b7 56 bd f5 7f 24 bb 11 41 99 bd 65 40 22 3e
       -0.05242089 -0.0025100682 -0.074831136 0.15844877
0000b0 38 7f 4d bd ee 4d f1 3d 70 e7 10 3d f6 33 95 3d
       -0.050170153 0.11782442 0.035376966 0.072853014
0000c0 a7 bf fb 3d 8c d7 01 be 81 48 1f 3d a7 11 36 bd
       0.12292414 -0.12679881 0.038887504 -0.04445043
0000d0 ec 81 c0 3d d1 dd 3f bc a4 86 d5 bd c5 39 b6 bd
       0.09399781 -0.0117106 -0.10426071 -0.088977374
0000e0 aa 5e 94 3d 69 4c 57 3d 47 12 ad bd 27 7c 02 be
       0.07244618 0.052563105 -0.08450752 -0.12742673
0000f0 10 7d 0b bc 9b 7f c3 bc 07 28 85 bd 4e 47 1a 3d
       -0.008513704 -0.023864558 -0.06501775 0.037665658
000100 b0 ca 20 bd 70 10 9c 3d 34 b3 c4 3d 3f e4 d6 3c
       -0.039255798 0.07620323 0.09604493 0.026231883
000110 63 fc a5 3d 7e 57 c1 bd 24 09 57 3d b9 f8 43 bd
       0.081047796 -0.09440516 0.05249895 -0.047844622
000120 44 93 ea 3d 2a 7d 98 bd 1d fc c6 3d 94 42 8c 3d
       0.1145387 -0.07445748 0.097160555 0.06848636
000130 bb 2e f8 ba 84 e6 7d 3b 60 00 f5 3c d4 07 d2 bb
       -0.0018934825 0.0038742134 0.029907405 -0.0064096246
000140 00 97 23 3c 6d 45 b6 bd d6 c9 18 bc 42 d6 98 bd
       0.009984732 -0.08899961 -0.009325465 -0.074627414
000150 f5 a0 fa bc b3 0e c6 3c 36 f5 91 3c 03 64 4d bd
       -0.030594328 0.024176931 0.017817121 -0.050144207
000160 e1 b2 4b bd 1a 3e d3 3d 7a 37 d0 bc 82 ec f7 3d
       -0.04973114 0.10314579 -0.025417078 0.12105657
000170 8d e9 fe 3d 73 67 9a 3c a2 08 ad bc 97 29 22 3d
       0.1244689 0.018848157 -0.02112228 0.039590444
000180 cf 1b bc bd 52 1d b8 3b a6 81 01 3d dc ad c4 bd
       -0.091849916 0.0056187296 0.031617783 -0.096034735
000190 86 bb d5 3c 83 66 84 bd c7 40 83 bc ac 95 48 3d
       0.026090395 -0.06464865 -0.0160221 0.048970863
0001a0 45 05 21 3e 45 98 a0 bc eb 5e f3 bd 51 3f 48 bc
       0.15724666 -0.019603858 -0.118833385 -0.012222127
0001b0 8f d7 0a be 6c 0c b5 bb ec 89 cd 3d 3b 7c c2 3b
       -0.13558792 -0.0055251624 0.10036072 0.0059352196
0001c0 41 f6 15 bd ea 9d 0d 3e 47 0d a8 3d 9e 89 01 3e
       -0.0366118 0.1382977 0.082056575 0.12650153
0001d0 e5 e2 dc 3d 36 9f d1 3d be 14 1f 3e 9b e1 ff 3d
       0.10785464 0.10235445 0.15535256 0.12494203
0001e0 c4 96 a0 bd ad 0f 49 bd 13 01 bc bd 1d 73 6e 3b
       -0.07841256 -0.049087215 -0.091798924 0.003638453
0001f0 fa d6 24 3d 5a 85 c5 bd 75 05 4e bd 12 38 bb bd
       0.04024408 -0.096445754 -0.050298173 -0.09141554
000200 c0 a6 ea bd e7 2c cc bd 10 82 b8 3d 57 e5 00 be
       -0.11457586 -0.09969502 0.090091825 -0.12587486
000210 82 61 67 bd 00 19 9c bd 25 31 c7 bc db bc 8d bd
       -0.056489475 -0.07621956 -0.024315426 -0.06920787
000220 f7 76 da bc 51 77 b1 3d 10 1e 90 3d eb 32 cf 3d
       -0.026668055 0.08665336 0.07036984 0.10117134
000230 9b 33 d4 3d 25 40 ab 3d bf 53 d1 bd 22 37 c5 3d
       0.103614055 0.08361844 -0.102210514 0.096296564
000240 47 10 33 bd ac 87 1b be 31 ca ec 3d ad e1 9e 3d
       -0.043716695 -0.15188473 0.115620025 0.07757888
000250 6a f2 59 3d b2 f1 4a bc 5e 00 3e bd e9 cf 81 3b
       0.0532097 -0.012386726 -0.04638707 0.0039615524
000260 ea ef 8a 3d 70 f5 56 3d 63 30 d7 3d 05 25 e6 3d
       0.06784041 0.05248016 0.10507276 0.1123753
000270 3d 12 db bc 3a c3 dd 3d ba 8d f5 39 f1 6d ee bd
       -0.026742095 0.10828252 0.00046835636 -0.116420634
000280 f9 a8 93 bb 85 07 81 3d 49 99 4c bd 90 6f e6 bd
       -0.004506227 0.06300262 -0.04995087 -0.112517476
000290 4c 13 07 3e 36 b6 0b be 1f 01 c3 3d 22 de 03 3e
       0.13190955 -0.13643727 0.09521698 0.12877706
0002a0 e8 53 49 bd 6b ad b0 3d 97 7d e1 bc 40 86 e1 3d
       -0.049152285 0.08626827 -0.027525706 0.11011934
0002b0 71 66 01 3b 77 d3 20 3d 35 5f eb bb c0 cf 71 3c
       0.0019744898 0.03926417 -0.0071829804 0.014759004
0002c0 6d f0 f3 3a 21 1b 13 bb 03 0d cf bc ab 6c 95 3d
       0.0018611081 -0.002244659 -0.02527476 0.072961174
0002d0 0c eb 82 bd e7 07 8b 3d 94 ff fb 3b be 7d c6 3d
       -0.06392488 0.067886166 0.0076903794 0.09691952
0002e0 9c aa 00 bd 9d 3d 2c bd bd 68 9d 3d da 66 d6 3d
       -0.031412706 -0.042050947 0.07685993 0.10468836
0002f0 90 e0 ad bc 10 c3 0d 3e 28 03 9d 3d f8 51 2f 3d
       -0.021225244 0.13843942 0.07666618 0.04280278
000300 15 6c b9 bd 98 e4 2a bd 75 c3 05 be 99 b7 e8 bd
       -0.09053818 -0.04172191 -0.13062842 -0.113631435
000310 e4 5d d0 3d d0 04 1d 3c 77 2c 7b bd ef 7a 00 be
       0.10174158 0.009583667 -0.0613217 -0.12546895

lstm.weight_ih_l1 f4 [200, 50]
000000 0a ff d8 3c 15 35 ae bd 13 a4 e7 3d 86 84 f4 3d
       0.0264888 -0.08506218 0.113105915 0.11939339
000010 83 87 15 3e 16 8e 44 bd 9b 5d 7e bd 5d 37 a9 3a
       0.14602475 -0.047987066 -0.062100988 0.0012910176
000020 cb 3a d4 bd 30 d9 79 3d e6 33 0f 3e ea 58 c5 3d
       -0.10362776 0.06099814 0.13984641 0.096361
000030 82 bc 9d 3d 83 37 2e 3d ec 37 c9 3c 39 10 f8 bd
       0.07701971 0.04253341 0.024562798 -0.12112469
000040 85 ec 0b 3e bd 08 44 3c 0d f0 af bc af 44 98 3d
       0.13664444 0.011964974 -0.02147677 0.07434975
000050 68 25 89 3d c1 1d 12 be d6 d7 a2 bd 68 2c 2d bd
       0.06696588 -0.14269163 -0.07951324 -0.042278677
000060 69 09 92 3d 98 da 05 3c e3 ae de bd 4e 4c 48 3c
       0.07130701 0.008169793 -0.10873201 0.012225224
000070 cb 39 23 3d 97 52 1a be 8a 78 2a 3d c4 e9 5c 3b
       0.039850038 -0.15070568 0.04161886 0.003370867
000080 3d 49 c8 3d 75 77 bf 3d a2 a0 f0 bc a0 de bb 3d
       0.09779594 0.093489565 -0.02937347 0.09173322
000090 05 a9 1e be e3 84 b9 3d 5d f3 35 3d b8 1d ba 3c
       -0.15494163 0.09058549 0.044421542 0.02271925
0000a0 9f bf f9 3d ad 3d c2 bd 66 12 22 3e c7 12 c5 bd
       0.12194752 -0.0948442 0.15827331 -0.09622722
0000b0 91 4d ca 3d 01 f6 13 be bc 27 b4 3d 46 b6 c6 3d
       0.09878076 -0.14449312 0.08796641 0.09702735
0000c0 7d 01 55 bc 5a f6 ab 3c b4 85 99 bc c9 57 98 3d
       -0.013000843 0.020991493 -0.018740512 0.07438619
0000d0 cf c8 2e bd c2 5e 11 3d 38 8d c1 bc 48 17 06 3d
       -0.042671975 0.03549076 -0.023626909 0.032737046
0000e0 ca 73 36 bc 07 04 ce bd d3 a5 f0 bd ec fe e7 3d
       -0.011136005 -0.10059362 -0.117503785 0.11327919
0000f0 f4 a2 0c 3e 6b f4 84 3d 4b f8 c1 bd 49 34 54 3d
       0.13734037 0.064919315 -0.09471186 0.051807676
000100 f3 5a 82 bd ed 78 37 3d b2 a1 51 bb 49 99 67 3d
       -0.063650034 0.04479306 -0.0031987247 0.05654267
000110 77 9b 75 3d 35 e3 26 3d ec 10 0b be 5b 57 ee 3d
       0.059962716 0.040744025 -0.13580674 0.116377555
000120 13 09 63 bd 21 a8 3f bd b0 89 03 bd c4 b8 e9 bd
       -0.055428576 -0.0467912 -0.03211373 -0.11412194
000130 74 85 89 bd 4b af 08 be 8f 32 c1 bd 7a 93 a8 bd
       -0.06714907 -0.13348119 -0.094334714 -0.08231254
000140 16 6e 5b 3d df de 13 be 34 ef e0 3d 9a 55 4e 3c
       0.053571783 -0.14440487 0.109831244 0.012593651
000150 4a 24 43 bd 70 ec b8 bd 51 db f6 3d 65 fd 88 3d
       -0.04764203 -0.09029472 0.1205355 0.06688956
000160 3d 64 83 bc b0 cc f9 bd f7 02 c7 bc b7 03 86 bd
       -0.016039008 -0.12197244 -0.024293406 -0.06543677
000170 4d b0 d8 3b ed 3d 22 3d db e3 02 3e a3 a9 1f be
       0.0066128136 0.03960984 0.12782232 -0.15592055
000180 48 51 95 bd 14 97 3e bc dd f2 80 bd cb 29 2e 3d
       -0.07290894 -0.0116326995 -0.062963225 0.042520326
000190 13 eb 00 3e 9d 0c 82 3c 48 de 19 3d 60 cc dc 3c
       0.12589674 0.015875155 0.0375655 0.026952922
0001a0 dd 03 82 3d f3 8a 59 3d af c3 fc 3d 23 0c dc bd
       0.06348393 0.053111028 0.12342011 -0.107445024
0001b0 b7 73 33 bd 93 06 6b bd 0e 54 86 3d a4 10 af bd
       -0.043811526 -0.057379317 0.06559001 -0.08548096
0001c0 96 a6 84 3d a3 5b f2 bd 5a fa a8 bd 4b d5 5c bc
       0.06477086 -0.118338846 -0.08250876 -0.013478587
0001d0 55 aa 03 be 54 58 a2 bc 25 fe 08 bd 45 2d 6c bd
       -0.12857945 -0.019817509 -0.033445496 -0.05766036
0001e0 4f 0b e0 3d 5b ff ec 3d 1f 66 d6 bd 14 7b cd 3d
       0.10939657 0.11572143 -0.10468697 0.10033241
0001f0 0e 73 ab bd 04 92 f0 3d 08 53 cb bd c4 97 9f bd
       -0.08371554 0.117466 -0.09927946 -0.07792619
000200 1f af 99 bd 64 77 e7 3d 5f c7 78 bd c1 21 21 3d
       -0.07504105 0.11302069 -0.06073701 0.03933883
000210 03 cf d4 3b 3a 37 e5 bd b8 d4 71 bb 4b 9f fb 3d
       0.0064944043 -0.11192174 -0.0036900472 0.12286242
000220 88 a4 46 bd a6 5f a4 bc 7b e0 09 be cc 39 88 bd
       -0.048496753 -0.02006514 -0.13464539 -0.06651649
000230 c5 56 ee 3d e7 54 9e 3d e4 a1 c3 3c bd 2c 9b bd
       0.11637644 0.077310376 0.023880906 -0.075768925
000240 19 a6 42 bc 6d f9 a6 bd f7 38 e1 bd 66 65 69 3d
       -0.011880421 -0.08153043 -0.10997193 0.056981467
000250 16 23 61 bd d1 66 8a 3d f5 75 ca bd 65 22 1e be
       -0.0549651 0.06757892 -0.0988578 -0.15442808
000260 07 b7 e6 bd 02 93 c6 bc 10 85 da 3d 4f 99 e0 3d
       -0.112653784 -0.02424002 0.10669911 0.10966741
000270 63 e9 b1 3d e2 65 c0 3d 71 97 85 3d 4e 78 20 3d
       0.08687093 0.093944326 0.06523026 0.03917723
000280 ae 6a 14 3e f4 42 0f 3d 14 6c 0e bc 81 36 ca 3d
       0.1449382 0.03497596 -0.00869276 0.09873677
000290 55 2c e7 3d 1b 05 70 3d da 79 4a bd d5 ff b5 3d
       0.112877525 0.05859862 -0.049432613 0.08886687
0002a0 c4 7f 03 3e 59 8a 1d 3e 41 03 09 be 80 e3 83 bd
       0.12841707 0.15384807 -0.13380148 -0.064398766
0002b0 01 63 9f 3d 70 44 a0 3d 0d f1 42 3c c9 d5 66 3d
       0.07782555 0.078255534 0.011898291 0.056356225
0002c0 2c f0 da 3d 01 f4 b4 bd c2 52 43 bd b9 09 be 3d
       0.106903404 -0.088356026 -0.047686346 0.09279198
0002d0 05 cc aa 3d ae 66 97 bd 66 f7 dd bd f3 08 3e 3b
       0.08339695 -0.073926315 -0.10838203 0.0028997033
0002e0 38 33 69 3b 6b 09 88 bd 08 64 0f be 6e 8e e7 bb
       0.0035583507 -0.06642421 -0.14003003 -0.0070665395
0002f0 8f 46 87 3d ee ac 20 3d 34 44 a6 3d 8b 89 f4 bc
       0.06605255 0.03922742 0.081184775 -0.029850742
000300 9b f3 3d 3d c1 dc 46 3d c2 7c c9 bd b5 49 a2 3c
       0.0463749 0.04855037 -0.09838249 0.019810537
000310 96 59 83 bc 17 f3 00 be 71 43 3c 3d 85 0d e2 bd
       -0.016033929 -0.12592731 0.045962755 -0.11037735
000320 9f a3 1b 3d e2 30 e4 b9 e2 fb d4 bc 6a 0a 51 bd
       0.037997838 -0.0004352397 -0.025999013 -0.051035322
000330 e0 43 e7 3b ac 52 89 bd a1 e7 fb bc c8 21 b3 bd
       0.007057652 -0.067052215 -0.030750098 -0.08746678
000340 9a 04 c3 ba 9f 93 1e bd d6 eb c3 bb 62 5c 2e bc
       -0.0014878691 -0.038715 -0.0059790416 -0.010642143
000350 d5 81 0c 3d c0 4c 72 3d e1 01 53 bd 36 c5 a4 3d
       0.034303505 0.059155226 -0.051515464 0.080454275
000360 50 5c 3f 3d 28 da 94 bb 69 31 a9 3d 2a b2 72 bd
       0.046718895 -0.004542608 0.08261377 -0.05925194
000370 2b 05 c0 bd af 8d 92 3d c5 d1 22 be 1e 5d 13 bd
       -0.09375986 0.0715593 -0.15900333 -0.035977475
000380 16 ba 93 3d b5 47 05 bd 3f 9c 04 3e 3e 07 4e 3d
       0.072132275 -0.03253909 0.12950228 0.050299875
000390 67 38 ba 3a 50 ca 88 ba 19 d3 cd 3b 88 df 38 bd
       0.0014207483 -0.001043627 0.0062812683 -0.04513505
0003a0 3c 0d 16 be 3e df db 3d fb 36 80 bd 13 3a f7 bb
       -0.14653486 0.107359394 -0.06260487 -0.007544765
0003b0 e6 53 bc bd e3 78 ca bb 27 ef db bd 01 06 99 bc
       -0.0919569 -0.0061789616 -0.10738974 -0.01867962
0003c0 a8 72 c1 bc 24 7a 89 bd ef f7 f3 3d 76 cd 8b bc
       -0.023614243 -0.067127496 0.11912524 -0.017065745
0003d0 a3 2f f7 bd 49 0a 0b be d3 24 95 3c 69 3b 1a 3e
       -0.12069633 -0.13578142 0.018206036 0.15061726
0003e0 91 7d 12 bc 58 d4 d3 bd b6 fb cf 3c f3 6f b3 bc
       -0.00894107 -0.10343236 0.02538858 -0.021903967
0003f0 d7 92 89 3c 62 fd af 3d cf 48 fd bc 57 9a 18 3e
       0.016793652 0.08593251 -0.030918507 0.14902626

lstm.weight_hh_l1 f4 [200, 50]
000000 da cd d1 3d fb 22 52 bd 39 47 ac 3d 0f 96 fb 3d
       0.10244341 -0.05130289 0.08412022 0.12284481
000010 78 9d 09 3d 52 e9 cf bc fb 99 0d 3d c2 ff f2 bc
       0.03359744 -0.02537981 0.034570675 -0.02966297
000020 99 e6 17 bd 6e dc ec bd 4f 4a c6 3d 8d 56 0b bd
       -0.03708515 -0.11565481 0.09682142 -0.034018088
000030 2d f0 17 3d 96 d6 df 3d d6 b8 61 bd 5b 37 fc bd
       0.037094284 0.10929601 -0.055107914 -0.12315246
000040 e6 f1 2f 3b 4d 42 96 bd ec fc 01 3e 1a 08 00 3d
       0.0026847064 -0.073368646 0.12694138 0.031257726
000050 f0 10 ad bd a4 6b 30 3c f8 32 ed 3d 8f 00 9c bc
       -0.08450496 0.010767851 0.11581987 -0.019043235
000060 5c c1 f6 bd e4 96 6a 3d 20 5c 33 36 92 0a 0d be
       -0.12048599 0.057272807 2.6726702e-06 -0.13773564
000070 93 08 2a bd b2 24 c1 bd 6e 19 15 bd cf 95 bd 3d
       -0.041512083 -0.09430827 -0.036401205 0.09257089
000080 8f d6 e7 bd 0e bc fc bd dd 87 e9 bd 68 33 1d 3d
       -0.11320221 -0.12340556 -0.11402867 0.038379103
000090 7a 42 ee 3d f2 59 1c 3b 90 c6 77 3d 3b 16 c3 3d
       0.11633773 0.0023857323 0.0604921 0.095257245
0000a0 5a 79 2a 3d a6 ea 42 3c 01 7a b9 bd d7 22 08 3e
       0.041619636 0.011896765 -0.090564735 0.1329454
0000b0 a5 db e5 3b 95 1f 04 bd c8 90 06 3e 5a 49 f7 bd
       0.007014709 -0.03225668 0.13141167 -0.120745376
0000c0 aa 6a 1f bd 1f b3 ed bd 22 a5 d5 bd d6 46 e0 3d
       -0.038920082 -0.1160643 -0.10431887 0.10951011
0000d0 6f 0b af 3d ca ac 2d 3d 09 30 a4 3d e3 c3 23 bd
       0.08547103 0.042401113 0.080169745 -0.039981734
0000e0 bc e0 fd bd a1 89 d8 bd ef de f3 bd b2 53 07 3d
       -0.1239638 -0.10573126 -0.119077556 0.033038802
0000f0 00 9b f2 3d d2 c9 3b bc fd 04 12 3b a2 c0 1b bc
       0.1184597 -0.011461692 0.0022280805 -0.009506376
000100 06 e5 ff 3c 05 6f f0 bd fa 8f d0 bd a4 9a ca 3c
       0.031237137 -0.11739925 -0.10183711 0.024731942
000110 a0 cb 49 bd b8 43 0b 3e 55 6a 9d bd 2a c8 1d 3d
       -0.049266458 0.13600051 -0.07686297 0.03852097
000120 c3 5b 92 bd 23 c7 f0 bd 31 4c 58 bd 4b b7 be 3d
       -0.071464084 -0.11756732 -0.052807037 0.09312304
000130 7d 21 ba bb 83 c5 9e bd 69 d2 c7 bd 1a df 92 3c
       -0.0056802616 -0.07752516 -0.097569294 0.017928649
000140 44 42 c1 bd e8 95 a4 3c 8b ee fb 3d aa 72 cc 3d
       -0.09436467 0.020091012 0.12301358 0.09982808
000150 db 43 c4 3c 08 9b d9 bd 8d 21 a9 bd 1d 7f ec 3b
       0.023958137 -0.10625273 -0.082583524 0.0072173015
000160 92 b4 4a bd 5d 94 1e 3e e9 b7 9e bd a1 7b 5d bc
       -0.04948861 0.15486284 -0.07749922 -0.013518245
000170 b5 d4 bd 3d bb 6e 02 be cd d2 cf 3d bd ee f8 3c
       0.09269086 -0.12737553 0.10147629 0.030387277
000180 92 ad 28 bd c3 81 04 3b 58 03 21 3d b8 f5 20 be
       -0.041181155 0.0020218946 0.03930983 -0.15718734
000190 eb 90 cb 3d 5c bd 95 bd f4 3c 79 3d 7e cb d8 3d
       0.0993975 -0.07311508 0.060849145 0.10585688
0001a0 a7 bb ed bd 19 20 08 be 30 f2 12 be 05 5d 03 3e
       -0.116080575 -0.13293494 -0.143502 0.12828453
0001b0 b6 47 0b bd 65 7b c6 bc a3 11 fa 3d 64 b4 07 3e
       -0.034003936 -0.024228761 0.12210395 0.13252407
0001c0 be 13 14 3e b8 f7 de 39 58 af 7f 3d 93 32 a4 bd
       0.14460656 0.00042527704 0.06242308 -0.08017459
0001d0 3a 58 9b bd e8 4b f3 3d 74 be fa 3c 27 68 d2 3d
       -0.07585187 0.11879712 0.030608393 0.10273772
0001e0 73 27 e6 3d 31 b5 78 bd 6a f9 19 3e 02 dd 30 3d
       0.11237993 -0.060719673 0.1503655 0.04317952
0001f0 8e 5b 2f bd 40 41 8a bd 03 ee 51 3c 15 7b 98 bd
       -0.042811923 -0.06750727 0.012813094 -0.07445351
000200 97 dc 0e be f6 c5 30 bd c4 f0 fe 3d f2 a1 9d 3d
       -0.13951336 -0.04315754 0.12448266 0.07696904
000210 ab e5 39 3d 39 37 08 3e d5 87 5e bc d1 61 20 bc
       0.045385044 0.13302316 -0.01358219 -0.009788946
000220 63 d3 86 bd c3 d6 59 3d 67 d1 dc bd 6b 7f 02 be
       -0.065832876 0.05318333 -0.10782128 -0.12743919
000230 1c 8c 1c 3e 21 b9 d9 3d 67 9b 86 3d 3b 90 80 3d
       0.15287822 0.10631014 0.065726094 0.0627751
000240 53 df cf bc 10 7d a6 3c 2e a4 b4 bd 0a f8 00 3e
       -0.025375044 0.020323306 -0.08820377 0.1259462
000250 57 90 62 bd 75 d8 7e 3d 6c 6c e8 bd 7f c4 0d bd
       -0.055313434 0.06221815 -0.11348805 -0.03461122
000260 f5 4b 0f 3e 4a 83 88 3d 21 e1 c2 3d 26 bf d7 bd
       0.13993819 0.066656664 0.09515596 -0.105345055
000270 33 89 e9 3d 17 57 04 3e ac b8 9e 3d b1 d7 14 be
       0.11403122 0.12923847 0.07750067 -0.14535405
000280 db 86 8a 3d 9f c0 fa bd 5d 7d dd bd 90 6a 06 be
       0.06764003 -0.12243771 -0.10814927 -0.13126588
000290 16 8c e7 3d bf 7b 54 bd 63 5b 44 bb 7f 02 f0 3d
       0.11306016 -0.051875826 -0.0029961697 0.11719226
0002a0 43 0e f5 3b ae a4 ff 3d 76 9e 1c 3e 4a 84 6a 3d
       0.007478507 0.12482582 0.15294823 0.057255067
0002b0 ce d5 cd 3a e1 a3 92 3d d3 b1 70 3c 35 f9 5c bd
       0.0015703978 0.07160164 0.014690834 -0.0539486
0002c0 3e 46 d3 3c 7f 43 e8 bc 0f fa f2 bd be 41 57 bc
       0.02579033 -0.028352497 -0.11864101 -0.013138233
0002d0 7e dd cd 3d ce 71 0f 3e de 3b f7 bd 75 86 00 3d
       0.10052012 0.14008257 -0.12071966 0.03137823
0002e0 a4 eb 3d bd 9e 27 dc bd fe b1 f1 bd 5a 27 f0 3c
       -0.046367303 -0.10749744 -0.118015274 0.02931564
0002f0 7c 6a ea 3a 63 54 84 3d c0 0b 73 3d c4 5c db bd
       0.0017884518 0.06461408 0.059337378 -0.10711053
000300 fe 3e e8 3d 11 29 a0 bd c6 5a 0a be 6a a0 ee bd
       0.1134014 -0.07820333 -0.1351119 -0.1165169
000310 43 3b 14 bd ed 8f 8e 3d 61 d3 0a be 08 61 66 bd
       -0.03618933 0.069610454 -0.13557197 -0.05624488
000320 6a 24 90 bd af 3b eb bd d9 59 a8 bd c0 54 24 bd
       -0.070381954 -0.11485993 -0.08220262 -0.040119886
000330 ca 40 56 bc eb f5 6c bd 78 e6 ba 3d d3 eb 98 3d
       -0.01307697 -0.057851713 0.0912599 0.07466855
000340 46 15 ab 3d 3c 81 70 3d 9c d5 10 be c1 3f e9 3d
       0.08353667 0.058716998 -0.14143986 0.11389113
000350 81 2c 9e 3d 08 04 57 3d fd bd fa bd 39 e4 d2 bd
       0.07723332 0.05249408 -0.12243269 -0.10297436
000360 dd 89 4f bb 44 93 d9 3d dc c4 ef 3d 57 e6 69 bd
       -0.0031667866 0.10623792 0.1170747 -0.057104435
000370 8f 3a 73 ba 91 c8 bd 3c 76 0c 04 3e 84 1b 07 be
       -0.000927844 0.023166927 0.12895378 -0.1319409
000380 5e e8 ba 3d 31 21 a5 bd 70 49 3c 3c d0 8a b2 bd
       0.09126352 -0.080629714 0.011492118 -0.08717883
000390 7c c0 6c 3c 3f e6 a5 3c 67 98 8b bd ed 2d e4 3c
       0.014450189 0.020251391 -0.06816178 0.02785393
0003a0 77 a3 01 bd c5 50 93 bd d9 2e ca bd a1 10 d9 bd
       -0.031650033 -0.0719314 -0.09872217 -0.10598875
0003b0 39 f9 e0 bd 01 de bb bd 91 e0 5e 3d d2 f9 0b 3d
       -0.109850354 -0.09173203 0.054413382 0.034173794
0003c0 03 90 f4 3d 94 03 b2 bd c9 d3 b6 3d 79 dd 94 3d
       0.119415306 -0.08692089 0.089271136 0.07268805
0003d0 f5 2c 0d b9 8d 7e 40 bc 9d 7f 0e 3d e1 18 e6 bd
       -0.00013463556 -0.011748922 0.03478967 -0.11235214
0003e0 f5 d2 be 3d 86 99 bb bc 25 05 d8 bc c8 46 49 bc
       0.093175806 -0.022900354 -0.02636964 -0.012284942
0003f0 9d 42 87 3b 75 70 cd 3d 1f 66 94 3c 1f 84 1d 3d
       0.004127814 0.10031215 0.018115101 0.03845608

lstm.bias_ih_l1 f4 [200]
000000 fc 28 05 3e f6 9e df bd d2 6b b5 3d bb 45 9c 3d
       0.13003916 -0.10918991 0.08858456 0.076304875
000010 53 72 f8 bd 07 5c c5 bd 35 8a 3b 3d b8 27 ab bd
       -0.121311806 -0.096366934 0.0457861 -0.08357185
000020 0e b1 84 bd 1e 84 b9 3d 08 a7 9f 3d bc 87 fc 3d
       -0.06479083 0.090584025 0.077955306 0.12330577
000030 53 35 53 3d 20 f5 10 bd 6c ec f4 3c 5d d1 d2 3b
       0.051564526 -0.03539002 0.029897891 0.0064336495
000040 33 db 1f bc 96 5d 0f be 65 8a 4d 3d e9 7b 18 3d
       -0.009756851 -0.14000544 0.05018081 0.037227545
000050 fc c3 72 bc 2d e4 b8 bc e5 01 3e bc c0 48 36 3d
       -0.014817234 -0.02256974 -0.011597131 0.044502974
000060 2c cf e8 3c 68 d3 8d bd df 5e 2d be 92 fb fd 3d
       0.0284191 -0.06925088 -0.16930722 0.12401499
000070 33 80 a8 bd 62 83 88 3c 3a 41 03 3e 88 54 7c 3d
       -0.08227577 0.01666421 0.1281785 0.061604053
000080 62 2e d7 3d f4 37 b9 bd 31 e7 8f bd 51 b7 96 bd
       0.10506894 -0.09043875 -0.07026518 -0.073591836
000090 f8 e5 92 bd 78 99 76 3d b7 b5 da 3d 97 2b 95 3d
       -0.07172769 0.060204953 0.106791906 0.07283705
0000a0 9f d0 50 bd fd 6d b9 bc 12 11 1c bd fd 06 e4 3d
       -0.050980207 -0.022635454 -0.038102217 0.111341454
0000b0 10 f6 d1 3d d9 a3 e7 bc 03 2f b9 bd d5 02 e7 3d
       0.10252011 -0.02827637 -0.0904217 0.11279837
0000c0 75 e2 26 3b 90 80 1a 3c 1c 7d 64 3d 0d d5 83 bd
       0.0025464569 0.009430066 0.055783376 -0.064371206
0000d0 e7 db 58 bc 71 3a 76 3d 7b b0 53 bb d4 5b c6 bd
       -0.013236023 0.060114328 -0.0032301235 -0.096854836
0000e0 64 32 eb 3d 10 86 84 bd 0f d9 ec bc 7c 78 cb 3d
       0.114842206 -0.06470883 -0.028912095 0.0993509
0000f0 42 71 a4 bc 21 49 cc 3c f0 67 d4 bd 11 85 d7 bd
       -0.020073537 0.024937214 -0.10371387 -0.10523427
000100 a8 0b 0e 3e 40 52 07 3d 33 9f 2c 3d 11 aa b5 bd
       0.13871634 0.033037424 0.04214401 -0.08870328
000110 25 ff 6d 3d 0f 6e 1b 3e 7e c0 1c 3e 42 9c d7 bd
       0.058104653 0.15178703 0.15307805 -0.10527851
000120 7e 27 9e bd 3d 18 e1 3c d0 bb 1a 3e 95 b1 40 bd
       -0.07722376 0.027477378 0.15110707 -0.047044355
000130 a7 33 05 be 05 b0 f2 3d 14 8f 08 bd c7 ae 91 bd
       -0.13007985 0.11849979 -0.033339575 -0.07113414
000140 3e 1f be bc e4 6b e8 bd ef 08 3c 3b e6 58 43 3d
       -0.023208257 -0.113487035 0.0028691848 0.047692202
000150 5c 86 47 bd e0 66 1e 3e 3a 96 9e bd dc 98 a1 bd
       -0.04871212 0.15468931 -0.07743497 -0.07890484
000160 c7 62 83 bb 8e 69 e8 3d b8 87 da bd 25 9c 2a 3d
       -0.004009578 0.11348258 -0.106704175 0.041652817
000170 b4 08 d2 3d b2 a4 e7 bd 93 81 fa bc 5b f7 49 3d
       0.10255566 -0.1131071 -0.030579364 0.049308162
000180 bf 8b 59 3d 83 e4 ff 3d 7f 08 3e bd 09 91 d9 bd
       0.053111788 0.12494757 -0.04639482 -0.106233664
000190 af b5 bc bd 61 9b f2 3d 63 70 22 bd 92 c0 af 3d
       -0.09214341 0.118460424 -0.03965796 0.08581652
0001a0 34 cd 55 bd 3b 73 25 bd cd 11 23 3c 51 a3 58 bd
       -0.05219765 -0.040393095 0.0099529745 -0.052890126
0001b0 66 a1 e0 bd e2 61 08 be 01 c2 ad 3c 70 50 06 3e
       -0.10968284 -0.1331859 0.021210672 0.13116622
0001c0 57 b9 11 3e d8 57 80 bd 4a e4 3c bd fd 4e 51 bb
       0.14230858 -0.06266755 -0.04611615 -0.003193795
0001d0 21 4a f4 3d 25 06 e0 3d 83 8e 8c bd 9a 0e 24 3d
       0.119282015 0.10938672 -0.068631195 0.040052988
0001e0 35 8e 6d bd 91 a7 91 bd 3c 44 4b bd 0b 14 2f bd
       -0.057996947 -0.07112039 -0.04962562 -0.042743724
0001f0 b1 ea b0 3d 61 32 bb bd c2 db c1 bd 20 cf eb bd
       0.08638514 -0.091404684 -0.094657436 -0.11514115
000200 cf 16 9e bd 86 1a 1d 3b fd 17 00 bc be 0e f9 bc
       -0.07719194 0.0023972108 -0.007818219 -0.030402537
000210 57 21 d3 3d bf 8d 53 3d 89 27 1b bc 95 d6 06 bd
       0.103090934 0.05164885 -0.009469875 -0.032919485
000220 eb 31 a6 bd 32 02 2e bd 8d cb fd 3d b6 a9 09 3e
       -0.0811499 -0.042482562 0.1239234 0.13443646
000230 18 96 85 3d 3e a5 03 3e 93 86 eb bd 7a de 6f 3c
       0.06522769 0.12856004 -0.11500277 0.014640445
000240 e5 b8 8c bd 09 c3 91 bb c7 24 4c bc 16 48 12 3e
       -0.06871203 -0.004448299 -0.01245994 0.14285311
000250 7a 36 f2 bd 71 c6 5f bd 08 11 23 bd 68 dd 0a 3e
       -0.11826797 -0.054632608 -0.039811164 0.13561022
000260 62 9f ce bd 90 76 de 3c d9 a6 5c bd 22 74 69 bd
       -0.100889936 0.027156144 -0.053870056 -0.05699552
000270 3c 31 46 bd dd 08 5c bd b2 4c d4 3d 04 e9 c9 3d
       -0.048386797 -0.05371939 0.10366191 0.09858897
000280 9b 51 ef 3c e8 ab 26 bd d9 04 a8 3d 0f 0a ec bd
       0.029213717 -0.040691286 0.082040496 -0.11525356
000290 e9 a0 a2 bd 75 2f 21 3e cc 32 43 bd 62 f6 bf bd
       -0.079408474 0.1574076 -0.047655866 -0.09373166
0002a0 73 ad 60 3d d8 eb 82 bd 30 87 9d 3d 28 9d ee 3d
       0.054852914 -0.0639264 0.076918006 0.11651069
0002b0 ee 68 f4 3b 8d 35 73 3b 44 46 90 bd dd 7c b0 3d
       0.0074587977 0.0037110776 -0.07044652 0.08617566
0002c0 d0 86 39 bd 25 a6 d7 bd 57 d5 03 3e 04 5e 38 3c
       -0.045294583 -0.105297364 0.12874351 0.011252884
0002d0 fd ea 66 3c 92 c4 a4 bd 70 8e 78 bc ff d7 a2 bd
       0.0140941115 -0.08045305 -0.0151706785 -0.07951354
0002e0 e6 d7 e2 bd e5 19 07 3e 57 08 b0 bc 36 c5 85 3c
       -0.110763356 0.13193472 -0.021488352 0.016329389
0002f0 c0 79 c8 bd 9e 37 af 3b f1 6e 13 3e 8f dc f0 bd
       -0.09788847 0.0053472063 0.1439779 -0.11760818
000300 4d a8 a5 bd 01 96 e8 bd 11 e2 31 bd aa ed b8 bc
       -0.080887415 -0.11356736 -0.043428484 -0.022574265
000310 4d 04 cf bc a3 9f 10 bd 67 5f f9 bd 64 91 a6 bd
       -0.025270605 -0.03530849 -0.121764 -0.081332

lstm.bias_hh_l1 f4 [200]
000000 f0 b3 22 bd 80 33 81 bc a2 3e e3 bd 5d 6d e6 bd
       -0.039722383 -0.015771627 -0.11095931 -0.11251328
000010 19 7f aa 3d 6d b3 20 3e f5 62 95 bd 20 49 c4 3c
       0.08325023 0.15693446 -0.07294265 0.02396065
000020 d7 10 69 bd 9d 8f db bd 31 48 6a 3d 72 e3 06 be
       -0.056900825 -0.107207514 0.057197753 -0.13172701
000030 61 65 a3 bd 1e 6b b8 bd 35 86 d5 3d aa 15 d6 bc
       -0.07978321 -0.09004806 0.104259886 -0.026133377
000040 49 00 d9 3d e6 03 c2 3d 50 6c a4 3c 59 08 0b 3e
       0.105957575 0.094734 0.020071179 0.13577403
000050 6a a4 f8 bc f8 b2 42 3d 91 40 36 3d a1 c7 6e 3d
       -0.030351836 0.04753396 0.04449517 0.05829585
000060 da 3e af bb 5c d2 71 3d dc fe b4 ba 37 b5 81 bd
       -0.0053480687 0.059038505 -0.0013808864 -0.06333392
000070 27 4a 1a 3e d8 7f 00 3e 97 2e 29 bd 5c 09 c5 3d
       0.1506735 0.12548769 -0.041304197 0.09620926
000080 c4 23 d9 bc a6 ae 64 3d f7 db ef 3d 35 c9 c6 3d
       -0.026506312 0.05583062 0.11711877 0.09706346
000090 62 f3 48 bd 36 1e 80 bc 0a 9f 78 3d 6d 98 1d 3e
       -0.049060233 -0.015639406 0.060698546 0.15390177
0000a0 59 fe c5 3c f0 ae e6 3d 9d d9 e5 3d 25 0c c3 3b
       0.024169134 0.112638354 0.11223147 0.0059523755
0000b0 61 c2 1f 3e 51 d8 ba 3c 49 3b 81 bc eb 00 ad 3d
       0.15601493 0.022808226 -0.01577534 0.08447441
0000c0 24 4d 0f bc 85 9c 14 3e d2 67 1e 3e 70 3b 32 3d
       -0.008746419 0.14512832 0.15469292 0.043513715
0000d0 64 08 f6 bc c8 23 9f 3d f6 4b 23 bd 96 00 27 ba
       -0.030033298 0.077704966 -0.039867364 -0.0006370632
0000e0 ec 35 74 3d 7d 9b f8 3c 6d d6 e5 3d da aa 88 3d
       0.059621736 0.03034758 0.11222539 0.06673212
0000f0 36 e3 12 be 87 96 db bc 7f 52 30 bd 80 11 23 3d
       -0.14344487 -0.026805175 -0.043047424 0.03981161
000100 66 6a e1 3d ec 26 b0 bd a0 42 0b be df f4 20 3d
       0.11006622 -0.08601174 -0.13599634 0.039296027
000110 66 11 0e be 17 e3 1b 3e fd 97 1d 3e f7 ca f8 3d
       -0.13873824 0.15223347 0.1539001 0.121480875
000120 8f 04 88 bd 90 3b bd bc 89 2f 68 3d 72 fa ab 3d
       -0.066414945 -0.02309969 0.056685958 0.08397378
000130 80 60 22 be dd cd 99 3d 17 be 4d 3d de ee f6 3a
       -0.15857124 0.075099684 0.050230112 0.0018839499
000140 8f 76 0b be 2d 93 ac bb 6f 37 d7 3d a0 06 b6 bd
       -0.13619445 -0.005266568 0.1050862 -0.08887982
000150 4b 60 b6 3d 6e 4d 57 3d ba 33 82 bd 9a e6 82 3d
       0.08905085 0.052564077 -0.06357522 0.0639164
000160 66 20 c8 bd 04 f2 10 3e 72 ee 82 3c a3 10 ba 3d
       -0.097718045 0.14154822 0.01598284 0.090852045
000170 d3 f4 9e 3d 1c e7 9e bb c9 47 1c bc e2 ba 4d bd
       0.0776154 -0.0048493277 -0.009538599 -0.050227053
000180 f1 73 89 3d eb e2 d1 bd c2 9d b5 3d a3 ee e8 3d
       0.06711567 -0.10248359 0.088679805 0.11373641
000190 77 1b 99 3d 8f 7b 33 3d 83 54 72 3d ec b5 88 bd
       0.07475942 0.043819007 0.059162628 -0.06675324
0001a0 f2 88 23 3e 04 2b 4d 3c 36 cd 05 be cb 68 13 3e
       0.15970209 0.012522463 -0.13066563 0.14395444
0001b0 85 58 ec 3d eb 14 0a be f7 5c ad bd 48 6d df bd
       0.11540321 -0.13484542 -0.08464997 -0.109095156
0001c0 6b f9 df bd ec cc 95 3d 0f dd 0d be 5c b9 b2 bd
       -0.109362446 0.07314476 -0.13853858 -0.08726761
0001d0 45 dd 0c 3e 41 d4 75 3d 37 56 43 3d 5a 2b b4 bc
       0.13756283 0.060016874 0.047689643 -0.021993328
0001e0 2d 7b e6 3d 9c 0a 08 bc e7 45 ee 3d 62 15 a9 bd
       0.11253963 -0.008303311 0.116344266 -0.082560316
0001f0 c5 26 90 3d de 1c ac 3d 62 02 e9 bd 1b 86 df 3d
       0.07038645 0.084039435 -0.113774076 0.109142505
000200 18 60 a2 bd 81 c3 3d 3d 1e 8b c4 3c 0c bf 05 3e
       -0.07928485 0.046329025 0.023992117 0.1306116
000210 8c 9b 96 3d 74 3c ec 3d 86 62 50 bd ef 62 3d bd
       0.07353887 0.11534968 -0.05087521 -0.04623693
000220 80 ff 94 3d c6 b5 9b bb c4 dd 86 bc 2d 5b 2d 3c
       0.07275295 -0.0047518937 -0.016463168 0.01058082
000230 36 4e fe bc 51 45 92 bc 0f 9f c0 bd d1 f6 f8 3d
       -0.031043153 -0.017855318 -0.09405338 0.121564515
000240 ab 09 14 be c6 3c b3 bd 7e ef ec 3b dc af af 3d
       -0.14456813 -0.08751826 0.007230698 0.085784644
000250 db fe ca 3c 59 26 b3 bd 97 3a 65 3d 6f bb 71 3c
       0.024779728 -0.087475486 0.05596408 0.01475416
000260 08 31 85 3d 5e 33 61 3d e9 00 b3 3d 99 38 ea bd
       0.065034926 0.05498063 0.08740408 -0.114365764
000270 1d bd 74 bd 42 20 28 3d 76 cf 01 3e fe d3 cf 3d
       -0.059750665 0.04104639 0.12676796 0.10147856
000280 72 67 49 3d 2a db e8 bd 77 13 75 bd 84 30 f7 3c
       0.04917092 -0.11369927 -0.059833016 0.030174501
000290 e3 0e 1d 3e a5 79 85 bd 58 d5 c5 3d 9f 60 62 bd
       0.1533771 -0.065173425 0.09659833 -0.055267926
0002a0 46 1e a0 3d b8 89 ce 3d 50 65 c2 3d 45 ee a1 3d
       0.07818274 0.100848615 0.0949198 0.079067744
0002b0 9b c1 b3 3d be 60 d2 bd bc e6 99 bd b8 7e 0e 3e
       0.08777162 -0.10272358 -0.07514712 0.13915527
0002c0 5b b4 0f bd 52 87 42 bd 22 ba 47 bd 9f 64 a9 bd
       -0.03508411 -0.047492333 -0.048761494 -0.08271145
0002d0 91 b9 4e bc 1e 99 91 bd e3 b0 15 3e 39 26 bd 3d
       -0.012617485 -0.07109283 0.14618258 0.09235806
0002e0 45 1a 0a 3e 13 29 ed bd 03 b8 52 bd 9a d6 20 3e
       0.13486584 -0.115801 -0.05144502 0.15706864
0002f0 32 0f 38 3d a8 ae d5 bd aa 6e b2 bc bf 7a 35 bd
       0.044936366 -0.10433704 -0.021781284 -0.044306513
000300 29 a8 09 3e 4c 2c da 3d a6 96 d2 3d d7 62 3a bd
       0.13443054 0.1065298 0.1028264 -0.045504417
000310 d9 db 83 3d d8 4d c5 bc 41 0d d6 bd 65 0d ac bd
       0.06438417 -0.02408497 -0.10451747 -0.08400992

fc.weight f4 [1, 50]
000000 55 9d c9 bd f1 0a 17 3e c3 1a ad 3d 62 a3 cf bd
       -0.09844462 0.14750268 0.0845237 -0.10138585
000010 77 10 9e 3d 12 aa 64 bd 42 52 c6 bc c7 14 0d 3d
       0.07717984 -0.055826254 -0.024209145 0.034443643
000020 47 a9 0c be 3a 54 8d bd 2f 83 1e 3d 7a bc ec 3d
       -0.13736449 -0.069008306 0.038699325 0.115593866
000030 65 be 98 3d 74 a2 c2 bd 26 ff f0 bd bd 6d 95 bd
       0.0745819 -0.09503642 -0.11767416 -0.072963215
000040 e9 76 1c ba c6 92 3f bd f0 cf 7f 3d bd 46 ea 3d
       -0.0005968647 -0.046770833 0.062454164 0.114392735
000050 44 13 a9 3d d8 89 0f 3e fc e5 c3 3d 31 49 cd 3d
       0.08255628 0.14017427 0.095653504 0.10023726
000060 7b 8f d3 3d 1b 49 02 3e cf f6 9c 3d 42 f3 ff 3d
       0.10330101 0.127232 0.076642625 0.124975696
000070 4c 95 9f bd 2c 2d 1a 3e a7 c6 9a 3c 03 d5 38 3d
       -0.07792148 0.15056294 0.018893553 0.04512502
000080 4e e4 9a 3d 86 5b 50 bc 48 4b 85 3d 48 41 06 be
       0.07563077 -0.012717133 0.065084994 -0.1311084
000090 9c 09 32 3d 8d d1 9c bd 53 b9 95 3d ca 77 09 3e
       0.043466195 -0.07657156 0.073107384 0.13424602
0000a0 8b b9 a5 3d f5 8b f0 3c 68 df 20 bd 73 5c 67 bd
       0.0809203 0.029363612 -0.039275557 -0.05648465
0000b0 40 c1 c1 bd 2e 08 5f 3d 0e 69 ed bd 64 a0 11 3e
       -0.09460688 0.05445116 -0.11592303 0.1422134
0000c0 02 e2 83 bd ff 3e 1f bd
       -0.06439592 -0.038878437
