models/SOL_USDT_model.pt (torch, 128181 bytes, 9 tensors)

lstm.weight_ih_l0 f4 [200, 1]
0.11414631 -0.062751524 -0.07934868 0.08375047 0.049386386 -0.06600185 0.046985608 0.12708901
0.05797651 0.0725047 0.063183114 -0.051307656 -0.119354166 -0.07410859 0.07753022 0.0746088
-0.030375298 -0.005771093 -0.08217719 -0.07281925 0.10162459 0.123694114 0.08737652 -0.031210428
0.09091208 -0.06944527 -0.045851905 -0.0026911527 -0.09608336 0.0718771 0.13219325 0.10910824
0.092711866 0.118264616 0.03877743 -0.0045461715 -0.025725368 0.10426239 0.010866992 0.15749364
-0.042338256 0.11742243 0.10950747 -0.11135664 -0.024941664 0.108436935 -0.075687386 -0.061002914
-0.05103718 0.105369754 -0.034416195 0.12192089 -0.07604822 0.09153478 0.13480245 -0.119679436
0.0025014214 0.049364336 0.13542603 -0.107456155 -0.025075044 -0.037217017 -0.008258517 0.006973246
-0.03480516 -0.021167051 0.06300353 -0.07064778 0.089338556 0.011922318 -0.0326478 0.10169401
0.09702425 -0.12774347 -0.07499098 -0.014317005 -0.037621483 -0.024312885 0.011086693 -0.07249127
0.1318514 -0.055778313 -0.027146071 0.07772075 -0.11083363 -0.041676234 0.007140672 -0.0577703
0.13465719 -0.07698509 0.14924644 0.07066525 -0.046020173 -0.0050757243 -0.11304243 0.08899325
0.11448322 -0.07709993 0.06710102 0.02422792 0.12205094 -0.063573144 0.08585594 0.036243517
0.059361413 0.0020714158 0.14511068 -0.11040225 0.097675055 -0.12834719 0.07829231 0.012762063
-0.010522165 -0.07879631 0.022087235 -0.096260875 0.0782788 0.100322135 -0.085301936 0.097085476
-0.08050579 -0.11434082 -0.034641106 0.01585573 0.11095479 0.018792057 0.033623926 -0.13570121
-0.01250769 -0.09954169 -0.07234806 -0.12541711 -0.08316198 -0.119139746 -0.0014201383 0.03603014
0.1072991 -0.15593883 0.12787966 0.087486245 -0.106728666 0.075204276 -0.011776346 0.046790704
0.05581642 0.029426944 0.12986346 0.022897387 -0.12346315 -0.04875808 -0.004286854 0.12482038
-0.048529956 0.06855147 -0.074391015 0.07073775 -0.115149125 0.13851303 -0.060690034 -0.08389886
-0.02514491 0.11679896 0.14429903 -0.01876974 -0.08508495 -0.08930606 -0.012397696 0.13059317
0.04442233 -0.12108122 0.11347424 0.07506062 -0.018745987 -0.022418443 -0.05439581 -0.014592276
-0.076485574 -0.04042939 0.09072314 0.05706771 0.06388564 -0.09814598 0.02663749 -0.091201425
0.1461839 0.12063582 0.14272699 0.013940498 -0.09665231 0.111641295 0.15123306 -0.039758444
-0.013302941 0.052530844 0.14041464 0.03753508 -0.08147529 -0.0001262377 0.11895991 0.011720868
00000000: 8ac5 e93d df83 80bd 9081 a2bd 5e85 ab3d
00000010: 6149 4a3d fa2b 87bd fb73 403d 9f23 023e
00000020: c778 6d3d 587d 943d 2666 813d fa27 52bd
00000030: f56f f4bd 3fc6 97bd 2ac8 9e3d 80cc 983d
00000040: 9ed5 f8bc 701b bdbb 844c a8bd 4222 95bd
00000050: 8e20 d03d 5753 fd3d 76f2 b23d 03ad ffbc
00000060: 1d30 ba3d 5239 8ebd 35cf 3bbd 0d5e 30bb
00000070: 5ac7 c4bd 4d34 933d ab5d 073e 2474 df3d
00000080: b8df bd3d b834 f23d 15d5 1e3d 0df8 94bb
00000090: 02be d2bc 8587 d53d 780b 323c 0346 213e
000000a0: e16a 2dbd 2c7b f03d 7445 e03d f30e e4bd
000000b0: 7652 ccbc 2f14 de3d fd01 9bbd 31de 79bd
000000c0: 5d0c 51bd 19cc d73d fff7 0cbd a9b1 f93d
000000d0: 2bbf 9bbd 9676 bb3d a709 0a3e 7e1a f5bd
000000e0: e3ee 233b 4232 4a3d 1fad 0a3e f911 dcbd
000000f0: 2e6a cdbc df70 18bd bb4e 07bc d47f e43b
00000100: db8f 0ebd 8666 adbc ff07 813d c9af 90bd
00000110: 22f7 b63d d355 433c b3b9 05bd f344 d03d
00000120: a6b4 c63d 2fcf 02be df94 99bd df91 6abc
00000130: fc18 1abd d12b c7bc f6a4 353c 4e76 94bd
00000140: 0e04 073e cd77 64bd 7061 debc 0e2c 9f3d
00000150: befc e2bd b3b4 2abd 4cfc e93b 8da0 6cbd
00000160: 93e3 093e 5caa 9dbd 0fd4 183e f1b8 903d
00000170: a67f 3cbd 4352 a6bb ca82 e7bd 1842 b63d
00000180: 2e76 ea3d 91e6 9dbd 426c 893d a279 c63c
00000190: d8f5 f93d a332 82bd 3dd5 af3d 1574 143d
000001a0: f424 733d 97c0 073b e597 143e 931a e2bd
000001b0: dc09 c83d 726d 03be b857 a03d f917 513c
000001c0: 2965 2cbc f65f a1bd 4af0 b43c 6c24 c5bd
000001d0: a350 a03d b175 cd3d c8b2 aebd c0d4 c63d
000001e0: 38e0 a4bd 852b eabd d5e3 0dbd e0e3 813c
000001f0: 443c e33d cdf1 993c 3eb9 093d 42f5 0abe
00000200: 0eed 4cbc 83dc cbbd 382b 94bd 586d 00be
00000210: d450 aabd 8aff f3bd ef23 baba 5794 133d
00000220: a1bf db3d 6eae 1fbe e3f2 023e fd2b b33d
00000230: 8f94 dabd b304 9a3d 93f1 40bc 9ca7 3f3d
00000240: c29f 643d c610 f13c edfa 043e 4d93 bb3c
00000250: 3fda fcbd 8db6 47bd bd78 8cbb d4a1 ff3d
00000260: 59c7 46bd b764 8c3d 515a 98bd f4de 903d
00000270: 4ed3 ebbd 5cd6 0d3e 1d96 78bd 2ad3 abbd
00000280: b3fc cdbc 4b34 ef3d 20c3 133e ffc2 99bc
00000290: 0541 aebd 18e6 b6bd b51f 4bbc 37ba 053e
000002a0: 30f4 353d 6ef9 f7bd 2f65 e83d 62b9 993d
000002b0: 2f91 99bc e2a6 b7bc 24ce 5ebd 7114 6fbc
000002c0: 78a4 9cbd 4a99 25bd 0ecd b93d d5bf 693d
000002d0: 79d6 823d c200 c9bd de36 da3c d0c7 babd
000002e0: 3bb1 153e ea0f f73d 0627 123e b066 643c
000002f0: a5f1 c5bd 31a4 e43d d7dc 1a3e c0d9 22bd
00000300: 94f4 59bc 952a 573d dbc8 0f3e 62be 193d
00000310: 84dc a6bd ad5e 04b9 41a1 f33d e208 403c

lstm.weight_hh_l0 f4 [200, 50]
0.063773826 -0.020889504 0.06032696 0.008535916 -0.028011635 -0.018187016 -0.01049828 0.046506017
0.10723225 -0.15600878 0.07693646 -0.062989496 0.022336954 0.14978594 0.049937032 -0.0066423165
-0.09144554 -0.013223076 0.04730853 0.10772113 -0.035475124 -0.048636075 0.0811424 -0.047273252
-0.10458107 0.050427966 -0.064998746 -0.09434272 -0.030460618 0.08093991 -0.04410718 -0.04331393
0.054830622 0.067592636 0.08315793 -0.097987905 -0.11198852 -0.06867798 0.074825205 -0.090058155
-0.041232407 -0.04284532 -0.10426463 -0.065949365 0.13519172 0.065196164 -0.057219706 -0.026797665
0.110596895 0.06630365 -0.05718495 -0.0022502255 -0.008821378 0.06325575 -0.107419915 0.026127817
-0.07139665 -0.0069998456 -0.065688305 -0.05308845 0.02515555 -0.016763704 -0.0894019 0.13124
0.13237429 0.0013391962 0.057247378 0.0469933 0.1084454 0.15167241 0.03628672 0.0018781472
-0.08869105 -0.10453907 -0.100922875 -0.13353811 0.12073995 0.04835629 0.0390687 -0.03006008
-0.14742929 0.09270852 -0.078041114 -0.042653337 0.07608144 -0.1468382 0.07570028 0.08032795
-0.010853929 0.0047849393 0.06286942 0.15401554 -0.06736059 0.054897834 -0.05461929 0.09347001
-0.101565555 0.14642134 0.00096192316 -0.10346563 -0.0053913407 -0.014670378 0.00904473 -0.034301467
0.13070069 -0.14158827 -0.11741757 0.13609062 0.058876973 -0.030291291 0.13394016 0.052887205
0.112651795 -0.10952729 -0.0651101 -0.05737928 -0.015978353 -0.0628883 0.07771335 0.11324006
0.03521941 -0.0421133 0.11755432 -0.038361836 0.07178989 0.05031336 0.06448555 -0.10079975
0.024331748 0.071243465 0.06120204 -0.007944251 -0.107431404 0.059225593 0.12220858 0.062879324
-0.13353866 0.0021254576 -0.056322046 0.08213225 0.05266529 -0.01219531 0.100131616 -0.11611783
-0.10184804 0.010077134 -0.12320787 0.022881227 0.07899742 -0.07464134 0.017942734 0.06073164
-0.0441522 0.04761594 -0.12104562 -0.12182641 0.0026716106 -0.10887054 0.093811646 -0.054554205
0.069508664 0.12358792 0.12645505 0.015486885 0.12025321 0.03630802 -0.0021613238 -0.06947441
0.006849351 -0.10224537 0.006513261 -0.10856061 0.039656352 -0.082506604 -0.02693029 -0.052881546
-0.056642823 0.07908822 0.06983722 -0.03635099 0.03679568 -0.11021928 -0.006322813 0.07017366
0.08060183 0.12147459 -0.032164916 0.10666222 -0.05233956 -0.035968162 -0.09138191 0.030081626
0.040797565 -0.02135229 0.07226966 0.1168824 -0.10931716 -0.055372052 0.027134206 -0.016062522
0.14732641 0.102715105 -0.07729148 -0.03151089 -0.045215484 -0.02279396 0.13460921 0.1097235
-0.010410248 0.10811464 -0.013441339 0.12853415 -0.09642732 -0.05154134 -0.02587844 -0.039772738
-0.051384795 -0.09708135 -0.027708905 0.12665647 0.08551127 0.046128727 0.00058095064 0.032139912
0.01655253 0.117657796 -0.10646168 -0.015408387 -0.057371452 -0.017967671 -0.086133726 -0.10088788
-0.14155662 0.09236817 -0.14672807 0.07534772 0.024509048 0.11730892 -0.022849107 0.15823872
-0.046425812 0.022293355 0.103741206 0.13350475 0.07424884 0.030646296 -0.041570444 0.04839608
-0.080794096 0.036413454 0.03850353 -0.011311209 0.122211136 8.385448e-05 0.13910317 -0.12499975
00000000: da9b 823d 7720 abbc 6719 773d 3ada 0b3c
00000010: a878 e5bc f0fc 94bc fa00 2cbc 187d 3e3d
00000020: 959c db3d c4c0 1fbe dd90 9d3d a300 81bd
00000030: fdfb b63c 7c61 193e c68a 4c3d caa7 d9bb
00000040: cd47 bbbd 9aa5 58bc 97c6 413d e59c dc3d
00000050: 5d4e 11bd 9f36 47bd fd2d a63d 99a1 41bd
00000060: 9a2e d6bd 8e8d 4e3d 101e 85bd c236 c1bd
00000070: 8c88 f9bc d3c3 a53d bba9 34bd f369 31bd
00000080: 1396 603d 026e 8a3d b44e aa3d e2ad c8bd
00000090: 3d5a e5bd 0aa7 8cbd f53d 993d 6970 b8bd
000000a0: 50e3 28bd 937e 2fbd b288 d5bd 7610 87bd
000000b0: b36f 0a3e 9185 853d 365f 6abd c786 dbbc
000000c0: a080 e23d 35ca 873d c43a 6abd 8578 13bb
000000d0: 8b87 10bc 3b8c 813d f9fe dbbd 010a d63c
000000e0: 6838 92bd f65e e5bb 9787 86bd 4673 59bd
000000f0: 0313 ce3c 0954 89bc 5818 b7bd c763 063e
00000100: 208d 073e f887 af3a 3a7c 6a3d 0c7c 403d
00000110: 9f18 de3d 0350 1b3e 62a1 143d 2a2c f63a
00000120: a7a3 b5bd 9418 d6bd a7b0 cebd 37be 08be
00000130: 8246 f73d 3f11 463d 8006 203d 8f40 f6bc
00000140: b4f7 16be f7dd bd3d 05d4 9fbd 44b5 2ebd
00000150: 96d0 9b3d c15c 16be c008 9b3d fb82 a43d
00000160: aed4 31bc fbca 9c3b afc1 803d 40b6 1d3e
00000170: 59f4 89bd 8ddc 603d 7ab8 5fbd 346d bf3d
00000180: 9a01 d0bd 7aef 153e 9229 7c3a cae5 d3bd
00000190: d8a9 b0bb 065c 70bc 5930 143c b27f 0cbd
000001a0: 67d6 053e 84fc 10be 9f78 f0bd 575b 0b3e
000001b0: fb28 713d 7125 f8bc 9c27 093e 41a0 583d
000001c0: fcb5 e63d d84f e0bd 7258 85bd 8906 6bbd
000001d0: 09e5 82bc 95cb 80bd 2d28 9f3d 68ea e73d
000001e0: 3a42 103d ff7e 2cbd 52c0 f03d 4d21 1dbd
000001f0: 9406 933d 6215 4e3d 0011 843d 1970 cebd
00000200: 6053 c73c 18e8 913d feae 7a3d 9b28 02bc
00000210: ff04 dcbd 8996 723d 7e48 fa3d e0c6 803d
00000220: 5cbe 08be 434b 0b3b f2b1 66bd f434 a83d
00000230: 8fb7 573d d6ce 47bc ce11 cd3d 2fcf edbd
00000240: b595 d0bd 901a 253c 6854 fcbd 6971 bb3c
00000250: 66c9 a13d 8fdd 98bd a4fc 923c bdc1 783d
00000260: f0d8 34bd ef08 433d c4e6 f7bd 2080 f9bd
00000270: 3016 2f3b 85f7 debd 5220 c03d 3b74 5fbd
00000280: 8f5a 8e3d aa1b fd3d 6f7d 013e b4bc 7d3c
00000290: 5147 f63d b8b7 143d ffa4 0dbb 9948 8ebd
000002a0: 8570 e03b 0566 d1bd 316d d53b 0655 debd
000002b0: b36e 223d 39f9 a8bd e99c dcbc 529a 58bd
000002c0: 4e02 68bd 01f9 a13d d106 8f3d c7e4 14bd
000002d0: 11b7 163d a5ba e1bd 9a2f cfbb 35b7 8f3d
000002e0: 9212 a53d abc7 f83d 5cbf 03bd b971 da3d
000002f0: 0262 56bd 5a53 13bd 7026 bbbd be6d f63c
00000300: 591b 273d ffea aebc 1e02 943d 0a60 ef3d
00000310: ade1 dfbd cecd 62bd 8e48 de3c 8d95 83bc
00000320: bcdc 163e 4c5c d23d ff4a 9ebd 9011 01bd
00000330: df33 39bd 66ba babc ffd6 093e b7b6 e03d
00000340: bf8f 2abc 356b dd3d 1039 5cbc 759e 033e
00000350: b07b c5bd 031d 53bd 06ff d3bc bde8 22bd
00000360: dd78 52bd 96d2 c6bd c9fd e2bc 3cb2 013e
00000370: 8820 af3d 7af1 3c3d f04a 183a 24a5 033d
00000380: 2c99 873c 92f6 f03d 9508 dabd 7673 7cbc
00000390: 54fe 6abd f030 93bc e166 b0bd 4e9e cebd
000003a0: 38f4 10be 862b bd3d e23f 16be e84f 9a3d
000003b0: 33c7 c83c a93f f03d 0d2e bbbc 5509 223e
000003c0: fe28 3ebd 8ea0 b63c 4576 d43d 78b5 083e
000003d0: c70f 983d f10d fb3c c545 2abd f83a 463d
000003e0: 6077 a5bd 4626 153d e1b5 1d3d a652 39bc
000003f0: d549 fa3d 08db af38 1071 0e3e deff ffbd

lstm.bias_ih_l0 f4 [200]
-0.017311193 0.02884716 0.042788893 -0.037206978 0.066919245 -0.13774832 0.116714075 -0.12100128
0.047888137 -0.025953121 -0.003990448 0.13838033 0.02982638 -0.09162306 -0.03386614 -0.09681653
0.057145532 0.05516095 -0.01525327 0.021610158 0.072348796 -0.00082576514 0.11253037 0.014974423
-0.048007056 0.11658854 0.14580135 0.033321217 0.11835942 -0.112016104 0.0635639 0.08017793
-0.10284283 0.024433365 -0.12160161 0.049592074 0.012496275 -0.0936074 0.071389735 -0.031518444
0.026942724 -0.08938396 -0.08069793 0.06503645 -0.037344377 -0.03319377 -0.08625271 0.017032573
-0.020874215 0.02221371 -0.009082403 -0.047383126 -0.10594961 -0.086879626 0.07727875 0.11255118
0.11787512 -0.07268413 -0.091045864 0.049002033 0.14845353 0.062537245 0.039931774 0.13396385
-0.044894792 0.021622162 -0.11053612 -0.108194955 0.061099783 -0.1283727 0.06699174 -0.089780286
-0.11033767 -0.0038494682 0.1291233 -0.108785436 -0.118684255 -0.1390752 -0.055176426 0.09702345
0.13048488 0.013794584 0.012509301 -0.08673651 0.09943894 0.10211654 -0.11169011 0.15903918
0.049637515 -0.07013346 -0.036107358 0.06948668 0.058060687 -0.029884739 0.055346824 0.14477365
-0.086831264 0.05013822 0.00479707 -0.110788345 0.11620194 0.046891656 0.043952737 0.12863666
-0.08763775 0.099354215 -0.054472122 0.079640605 0.12690338 -0.060629383 0.10830482 0.14939737
-0.1504265 0.05882216 0.028857905 -0.03458173 -0.074309915 0.14551859 0.14105676 0.08957463
0.016513456 -0.048822653 -0.13277583 0.0042181234 0.11891049 -0.10651043 0.06648789 0.08628551
-0.062468387 0.06297391 0.021595698 0.027592024 0.0027590655 -0.13159803 -0.08229317 -0.030678932
-0.14110073 -0.15677097 -0.03234648 -0.021787142 0.15612954 0.119612314 0.13282838 -0.00083779695
0.1057494 0.050637078 0.031316347 0.035362393 -0.13505165 0.063695095 -0.067126684 -0.07086478
0.025337376 0.0618238 -0.121973895 0.05779983 -0.13697667 -0.040745463 -0.096155874 0.031963963
0.06524052 -0.0137377195 0.021477092 -0.12406506 -0.055925716 -0.034642212 -0.08565291 0.10523386
-0.01350055 -0.08160349 -0.031668935 0.0040239855 0.016457928 -0.09012204 -0.061185632 -0.093363434
-0.026069526 -0.011479582 0.14633541 0.1187315 0.031707097 0.011975356 0.06015784 0.106226176
0.0524945 0.1315971 -0.11810012 0.12169621 0.06980798 0.14130917 -0.084582634 -0.06923597
-0.044818476 -0.014359185 -0.014159314 0.10394758 -0.016745113 0.01906474 0.13048169 -0.019213837
00000000: 34d0 8dbc e150 ec3c 6843 2f3d 5866 18bd
00000010: f50c 893d e50d 0dbe ca07 ef3d 85cf f7bd
00000020: 5a26 443d a49b d4bc 4ec2 82bb 93b3 0d3e
00000030: 7456 f43c dfa4 bbbd 39b7 0abd bf47 c6bd
00000040: 6f11 6a3d 73f0 613d dae8 79bc c907 b13c
00000050: 9b2b 943d 2978 58ba 5376 e63d 4857 753c
00000060: 0ca3 44bd f9c5 ee3d f34c 153e d47b 083d
00000070: 6c66 f23d b368 e5bd ca2d 823d 5434 a43d
00000080: 439f d2bd 7b28 c83c 440a f9bd 0f21 4b3d
00000090: 2dbd 4c3c 3db5 bfbd c834 923d 7c19 01bd
000000a0: fdb6 dc3c f00e b7bd f544 a5bd d531 853d
000000b0: 6bf6 18bd 31f6 07bd 43a5 b0bd e587 8b3c
000000c0: 6700 abbc 87f9 b53c 5cce 14bc cf14 42bd
000000d0: 1cfc d8bd f2ed b1bd 5244 9e3d 3c81 e63d
000000e0: 8368 f13d 6bdb 94bd 4176 babd 5bb6 483d
000000f0: 3404 183e 8713 803d 808f 233d d22d 093e
00000100: 9ae3 37bd f620 b13c c360 e2bd 5195 ddbd
00000110: c443 7a3d 2274 03be f732 893d bade b7bd
00000120: b7f8 e1bd 5c47 7cbb e638 043e e6ca debd
00000130: bb10 f3bd bb69 0ebe ad00 62bd 3bb4 c63d
00000140: d49d 053e ae02 623c d0f3 4c3c e9a2 b1bd
00000150: a5a6 cb3d 7a22 d13d c9bd e4bd 2bdb 223e
00000160: b550 4b3d 22a2 8fbd 4fe5 13bd 084f 8e3d
00000170: 0bd1 6d3d d7d0 f4bc 5ab3 623d 8b3f 143e
00000180: 97d4 b1bd bc5d 4d3d bd30 9d3b 00e5 e2bd
00000190: 48fb ed3d 7711 403d c907 343d 54b9 033e
000001a0: 6c7b b3bd 397a cb3d 291e 5fbd 9d1a a33d
000001b0: f6f2 013e 8456 78bd ebce dd3d a0fb 183e
000001c0: 6809 1abe 81ef 703d 6a67 ec3c 92a5 0dbd
000001d0: cc2f 98bd d302 153e 2f71 103e e772 b73d
000001e0: 3a47 873c 43fa 47bd 63f6 07be 2f38 8a3b
000001f0: 5887 f33d 2422 dabd ce2a 883d 75b6 b03d
00000200: dade 7fbd 77f8 803d 76e9 b03c ab08 e23c
00000210: 70d1 343b a2c1 06be 5289 a8bd 6252 fbbc
00000220: b67c 10be 9288 20be be7d 04bd f37a b2bc
00000230: 6ce0 1f3e 4df7 f43d 2a04 083e 9a9f 5bba
00000240: 2493 d83d d368 4f3d 9245 003d 28d8 103d
00000250: fb4a 0abe 9372 823d b779 89bd 8e21 91bd
00000260: 5490 cf3c f43a 7d3d 73cd f9bd 84bf 6c3d
00000270: 9d43 0cbe b7e4 26bd 5fed c4bd a5ec 023d
00000280: d29c 853d 2c14 61bc baf0 af3c d215 febd
00000290: 5d12 65bd fee4 0dbd cb6a afbd da84 d73d
000002a0: 6931 5dbc bb1f a7bd 49b7 01bd a3db 833b
000002b0: c7d2 863c e791 b8bd c99d 7abd 5435 bfbd
000002c0: c28f d5bc db14 3cbc f3d8 153e 8029 f33d
000002d0: 4ddf 013d 4934 443c 1168 763d 1c8d d93d
000002e0: 7904 573d 64c1 063e 7ade f1bd dd3b f93d
000002f0: 7cf7 8e3d 5ab3 103e a939 adbd 97cb 8dbd
00000300: 9493 37bd c942 6bbc 78fc 67bc 78e2 d43d
00000310: 0c2d 89bc a82d 9c3c fe9c 053e 5666 9dbc

lstm.bias_hh_l0 f4 [200]
0.1418771 -0.08540921 -0.10969463 0.0560947 0.14394198 -0.033688024 -0.015156572 -0.024336714
0.12625584 0.115901984 -0.07713093 0.0021501372 0.15740946 -0.07384747 -0.038933642 0.11605956
-0.0144841205 -0.024746945 0.10817881 -0.09791841 0.1086324 0.041167438 0.14153026 0.0700262
0.07654912 0.013929042 -0.07225572 -0.07036049 -0.081186794 0.044865996 0.09862374 0.1378149
0.06312479 -0.10021256 -0.08470081 -0.071852535 -0.051300235 0.1071691 -0.06490362 0.10027123
-0.051672164 -0.0018647374 -0.07395473 0.15916109 -0.049235772 0.11868536 0.036019415 0.07365543
0.12377998 -0.122991666 0.039483152 -0.043666936 0.095070176 -0.01089557 -0.10361016 -0.08795383
0.0732356 0.05330139 -0.083524 -0.12658449 -0.007959673 -0.023026265 -0.0643584 0.038521647
-0.038303625 0.0772389 0.09678889 0.026915401 0.081761025 -0.09364332 0.053108998 -0.047123015
0.11522488 -0.07331874 0.097937554 0.0692157 -0.0011719556 0.0047669313 0.0305278 -0.005684028
0.010661267 -0.088434875 -0.008607719 -0.07394764 -0.029795153 0.024945714 0.018580675 -0.049428564
-0.04890477 0.10389161 -0.024705231 0.12164747 0.12528828 0.01954964 -0.020226113 0.04039748
-0.09122438 0.0063912836 0.032452874 -0.092537284 0.026654055 -0.06532884 -0.015113674 0.049715564
0.15782256 -0.01880623 -0.118098974 -0.01287856 -0.13470729 -0.006315917 0.10087782 0.0065945103
-0.0371894 0.13903028 0.0829392 0.12726282 0.1085471 0.103001356 0.15594828 0.12567592
-0.07896274 -0.049764264 -0.09245706 0.0044605015 0.041011456 -0.09708402 -0.04971157 -0.09226119
-0.11509364 -0.10036216 0.08952174 -0.12640695 -0.057134103 -0.07690082 -0.024945034 -0.06981107
-0.027245598 0.085969366 0.07117784 0.10186165 0.104209654 0.084187925 -0.1015233 0.09690624
-0.042981826 -0.15254688 0.11624027 0.07825281 0.05240194 -0.007656716 -0.045749 0.004796053
0.06894699 0.053340416 0.10576399 0.11344103 -0.025881952 0.10906425 0.0015236654 -0.115565
-0.0038791792 0.063923165 -0.049239483 -0.111595094 0.13291115 -0.13534985 0.09603366 0.12950407
-0.048379548 0.08705287 -0.026840905 0.110896215 0.0027255411 0.040406827 -0.0063674073 0.015519306
0.0026190444 -0.0013194381 -0.024604205 0.07374106 -0.063143015 0.06849173 0.008456063 0.097598836
-0.030565837 -0.041220207 0.07766789 0.10544809 -0.020353409 0.13924403 0.07745416 0.043474194
-0.08966223 -0.04099399 -0.12969302 -0.11273539 0.10240547 0.010399545 -0.06046304 -0.12166747
00000000: 3b48 113e 06eb aebd 94a7 e0bd 8ec3 653d
00000010: 8765 133e 74fc 09bd 4553 78bc ca5d c7bc
00000020: 3649 013e 055e ed3d d2f6 9dbd 51e9 0c3b
00000030: f22f 213e 583d 97bd e278 1fbd a2b0 ed3d
00000040: ce4e 6dbc 1bba cabc da8c dd3d 7389 c8bd
00000050: aa7a de3d 309f 283d 4fed 103e e569 8f3d
00000060: c9c5 9c3d a336 643c cffa 93bd 2919 90bd
00000070: 4345 a6bd 68c5 373d 3efb c93d 591f 0d3e
00000080: 9247 813d 3e3c cdbd 9e77 adbd 6c27 93bd
00000090: 3220 52bd 797b db3d 30ec 84bd 015b cd3d
000000a0: 31a6 53bd 346a f4ba 9475 97bd 20fb 223e
000000b0: 73ab 49bd 4f11 f33d 1889 133d a8d8 963d
000000c0: 5c80 fd3d 0ee3 fbbd 16b9 213d 1adc 32bd
000000d0: 27b4 c23d 5583 32bc 9031 d4bd 2321 b4bd
000000e0: 8cfc 953d 8f52 5a3d a20e abbd 5d9f 01be
000000f0: 4a69 02bc 94a1 bcbc 56ce 83bd e0c8 1d3d
00000100: 43e4 1cbd 6e2f 9e3d 4139 c63d b07d dc3c
00000110: 5372 a73d 12c8 bfbd d288 593d 1004 41bd
00000120: 06fb eb3d 2328 96bd 7c93 c83d f6c0 8d3d
00000130: 4e9c 99ba eb33 9c3b 7015 fa3c 1541 babb
00000140: 98ac 2e3c 581d b5bd 6407 0dbc dc71 97bd
00000150: f714 f4bc f45a cc3c 8036 983c 9b75 4abd
00000160: 5e50 48bd 20c5 d43d a062 cabc 4f22 f93d
00000170: 924b 003e 9126 a03c 3cb1 a5bc d477 253d
00000180: d9d3 babd f96d d13b 4eed 043d 3084 bdbd
00000190: 9b59 da3c 20cb 85bd 589f 77bc 8ca2 4b3d
000001a0: 3d9c 213e 860f 9abc e0dd f1bd 9900 53bc
000001b0: b5f0 09be c0f5 cebb 0899 ce3d c316 d83b
000001c0: ea53 18bd f45d 0e3e 07dc a93d 2f51 023e
000001d0: f14d de3d 60f2 d23d e8b0 1f3e 30b1 003e
000001e0: 38b7 a1bd 9dd5 4bbd 215a bdbd 6629 923b
000001f0: a1fb 273d fdd3 c6bd 5c9e 4bbd 6ff3 bcbd
00000200: 37b6 ebbd ad8a cdbd 2d57 b73d d370 01be
00000210: 7305 6abd 2d7e 9dbd 8759 ccbc 1bf9 8ebd
00000220: 2932 dfbc b510 b03d b0c5 913d d79c d03d
00000230: df6b d53d b86a ac3d 73eb cfbd c776 c63d
00000240: b60d 30bd 4035 1cbe 610f ee3d 0243 a03d
00000250: 6ba3 563d 30e5 fabb 4e63 3bbd 3528 9d3b
00000260: 1434 8d3d 7b7b 5a3d ca9a d83d c553 e83d
00000270: 6306 d4bc 145d df3d bab5 c73a 58ad ecbd
00000280: d439 7ebb 26ea 823d 57af 49bd f88b e4bd
00000290: dc19 083e 2799 0abe 4cad c43d b79c 043e
000002a0: a229 46bd c648 b23d 75e1 dbbc 8e1d e33d
000002b0: fe9e 323b a181 253d afa5 d0bb b044 7e3c
000002c0: 46a4 2b3b fff0 acba c28e c9bc 8e05 973d
000002d0: 2051 81bd 6445 8c3d 4d8b 0a3c e6e1 c73d
000002e0: 3565 fabc 85d6 28bd 5810 9f3d 2bf5 d73d
000002f0: 31bc a6bc fd95 0e3e 49a0 9e3d ff11 323d
00000300: d5a0 b7bd 50e9 27bd 3fce 04be d0e1 e6bd
00000310: f6b9 d13d da62 2a3c 18a8 77bd cb2c f9bd

lstm.weight_ih_l1 f4 [200, 50]
0.026967136 -0.08563608 0.11373853 0.11988747 0.14657813 -0.04728442 -0.06153471 0.00072704407
-0.10302825 0.06051557 0.14032856 0.09703493 0.07648858 0.04309751 0.02512198 -0.12035227
0.13717708 0.012424276 -0.020928048 0.074838705 0.06644475 -0.14315845 -0.07996824 -0.04149401
0.07176133 0.0076063825 -0.10812194 0.0117328735 0.03930475 -0.15122998 0.04101976 0.00289706
0.097255476 0.093086466 -0.030008083 0.09109652 -0.15559559 0.09010451 0.04486782 0.02321215
0.12249678 -0.0943688 0.15890366 -0.095656 0.0993797 -0.14508113 0.088448 0.097613
-0.013434977 0.02213106 -0.018130554 0.073677 -0.041906938 0.036114443 -0.022939147 0.033574414
-0.010432141 -0.101293504 -0.11677425 0.11266534 0.1379552 0.065708786 -0.09537605 0.052504946
-0.062956624 0.04570104 -0.0025317431 0.05713218 0.060645036 0.04136388 -0.13646233 0.11577864
-0.056013986 -0.0458683 -0.031529393 -0.11481974 -0.066403314 -0.13410392 -0.09501431 -0.08297148
0.05283689 -0.1450104 0.10915974 0.012066497 -0.048412234 -0.09106756 0.119745456 0.066275984
-0.015467712 -0.121346585 -0.023611154 -0.06482897 0.0073787454 0.040316377 0.12854752 -0.15664276
-0.07229489 -0.010912354 -0.06352072 0.043790907 0.12681606 0.014852773 0.038638644 0.027884293
0.06448103 0.05425714 0.12443973 -0.10845656 -0.042779867 -0.05830284 0.06651534 -0.08441461
0.063797235 -0.11732936 -0.08150499 -0.01225443 -0.1276006 -0.018919138 -0.032453176 -0.056731835
0.10842927 0.11481167 -0.1055824 0.10156535 -0.08282216 0.11645852 -0.098222055 -0.0788578
-0.07603175 0.112050034 -0.06178993 0.03842341 0.0055166604 -0.11275703 -0.004770523 0.12177667
-0.049600787 -0.020988777 -0.1337673 -0.06557904 0.11736982 0.078228705 0.02496122 -0.07475308
-0.0108496 -0.08256524 -0.10904842 0.058010958 -0.055829946 0.0691384 -0.098207854 -0.15517381
-0.11184762 -0.023573937 0.107426316 0.11054474 0.08760963 0.09320687 0.06600737 0.038522895
0.14559196 0.035839077 -0.009396766 0.09947235 0.1136097 0.05954229 -0.0487279 0.08949726
0.12913859 0.15450871 -0.13449475 -0.06503671 0.07719981 0.07921618 0.012523816 0.055619292
0.10768698 -0.08902053 -0.048403833 0.09209561 0.08262788 -0.0745717 -0.109097086 0.0023277532
0.0027498729 -0.067233585 -0.1408559 -0.007719255 0.06666994 0.039891537 0.08190596 -0.029204044
0.047177233 0.049295694 -0.097612076 0.019050598 -0.015380314 -0.12516765 0.045359462 -0.109072104
0.038746547 -0.0012842842 -0.02510001 -0.050272528 0.007881228 -0.06608106 -0.029905159 -0.08830355
-0.0006296447 -0.039468393 -0.005224891 -0.009743914 0.033501703 0.05999403 -0.05068464 0.08150926
0.047525205 -0.0038130719 0.08343407 -0.058493204 -0.09455428 0.07082008 -0.15973036 -0.03492107
0.07285724 -0.033373386 0.130386 0.049538016 0.00060283416 -0.001841043 0.005399604 -0.045880068
-0.14734124 0.106685564 -0.06351055 -0.008456978 -0.09288822 -0.0069310158 -0.106675714 -0.01791348
-0.022791613 -0.06637997 0.120033376 -0.01622451 -0.1198348 -0.13664442 0.018958237 0.15147282
-0.009644129 -0.10203545 0.026257427 -0.022875015 0.017810732 0.08681479 -0.029975398 0.15011585
00000000: 2fea dc3c f861 afbd bfef e83d 9087 f53d
00000010: 9418 163e 4fad 41bd d20b 7cbd 1a97 3e3a
00000020: 7a00 d3bd 2ddf 773d 4ab2 0f3e 40ba c63d
00000030: 0ba6 9c3d 0487 303d 9ccc cd3c 407b f6bd
00000040: 2678 0c3e 318f 4b3c 4c71 abbc 0945 993d
00000050: 2f14 883d 2198 12be 63c6 a3bd 9ff5 29bd
00000060: 9bf7 923d f63e f93b 096f ddbd 3d3b 403c
00000070: 04fe 203d 08dc 1abe 5604 283d 9adc 3d3b
00000080: e12d c73d 1ea4 be3d 83d3 f5bc d090 ba3d
00000090: 7354 1fbe b788 b83d 52c7 373d 6827 be3c
000000a0: 97df fa3d 6e44 c1bd a4b7 223e 4be7 c3bd
000000b0: 9687 cb3d 2690 14be 3a24 b53d 53e9 c73d
000000c0: 611e 5cbc 324c b53c 8786 94bc f8e3 963d
000000d0: 9ca6 2bbd bdec 133d e1ea bbbc 5385 093d
000000e0: 92eb 2abc f872 cfbd 5727 efbd 16bd e63d
000000f0: 2144 0d3e 5492 863d 8554 c3bd 6d0f 573d
00000100: 67ef 80bd 0431 3b3d 9aeb 25bb 6f03 6a3d
00000110: ee66 783d 2c6d 293d c8bc 0bbe 5a1d ed3d
00000120: ec6e 65bd 66e0 3bbd f724 01bd 9d26 ebbd
00000130: 76fe 87bd 8a52 09be dd96 c2bd f4ec a9bd
00000140: 7f6b 583d 9b7d 14be 248f df3d 8eb2 453c
00000150: e84b 46bd a181 babd 1b3d f53d b4bb 873d
00000160: 496c 7dbc 8f84 f8bd 2e6c c1bc 0dc5 84bd
00000170: 67c9 f13b c922 253d f6a1 033e f666 20be
00000180: 580f 94bd bbc9 32bc 2717 82bd 185e 333d
00000190: 12dc 013e 0c59 733c 8e43 1e3d 9a6d e43c
000001a0: a10e 843d bc3c 5e3d 42da fe3d 791e debd
000001b0: f139 2fbd f5ce 6ebd 3239 883d 91e1 acbd
000001c0: 20a8 823d 604a f0bd 17ec a6bd cec6 48bc
000001d0: bba9 02be 4ffc 9abc 9fed 04bd a45f 68bd
000001e0: 2a10 de3d 6122 eb3d 963b d8bd 7f01 d03d
000001f0: aa9e a9bd ce81 ee3d a528 c9bd 3380 a1bd
00000200: 89b6 9bbd 7d7a e53d 7017 7dbd de61 1d3d
00000210: 1ac5 b43b 28ed e6bd 0c52 9cbb 0c66 f93d
00000220: 322a 4bbd a8f0 abbc 4cfa 08be 4e4e 86bd
00000230: 975f f03d 5f36 a03d 797b cc3c 2518 99bd
00000240: 85c2 31bc f717 a9bd c754 dfbd e69c 6d3d
00000250: f1ad 64bd 6f98 8d3d 3321 c9bd e2e5 1ebe
00000260: 5d10 e5bd 211e c1bc 5402 dc3d 4865 e23d
00000270: ad6c b33d 3ee3 be3d df2e 873d 2fca 1d3d
00000280: 0f16 153e ffcb 123d e5f4 19bc 29b8 cb3d
00000290: 34ac e83d 9ee2 733d e896 47bd 574a b73d
000002a0: e83c 043e 8837 1e3e feb8 09be f731 85bd
000002b0: ef1a 9e3d 183c a23d b130 4d3c 0ed1 633d
000002c0: fe8a dc3d 6550 b6bd 1943 46bd a09c bc3d
000002d0: ce38 a93d 0cb9 98bd 4b6e dfbd 388d 183b
000002e0: 3637 343b c3b1 89bd 873c 10be cef1 fcbb
000002f0: 408a 883d 4f65 233d 50be a73d 523d efbc
00000300: ea3c 413d 48ea 493d d7e8 c7bd 0010 9c3c
00000310: b6fd 7bbc f32b 00be d8ca 393d 3261 dfbd
00000320: b3b4 1e3d 6d55 a8ba 899e cdbc 91ea 4dbd
00000330: 4420 013c 8255 87bd aafb f4bc 7ed8 b4bd
00000340: be0e 25ba 9ca9 21bd 9035 abbb f0a4 1fbc
00000350: 1539 093d 4dbc 753d b29a 4fbd 54ee a63d
00000360: caa9 423d bbe4 79bb 7bdf aa3d 9296 6fbd
00000370: ada5 c1bd 1e0a 913d 5b90 23be 6509 0fbd
00000380: 2d36 953d 88b2 08bd e883 053e 60e8 4a3d
00000390: 8407 1e3a 274f f1ba 29ef b03b bdec 3bbd
000003a0: 9fe0 16be f67d da3d d211 82bd 238f 0abc
000003b0: 2e3c bebd 931d e3bb cc78 dabd 4abf 92bc
000003c0: 7ab5 babc 39f2 87bd 0fd4 f53d 43e9 84bc
000003d0: f36b f5bd 84ec 0bbe 4e4e 9b3c b11b 1b3e
000003e0: 6902 1ebc f6f7 d0bd d119 d73c 6264 bbbc
000003f0: d0e7 913c f4cb b13d f78e f5bc f8b7 193e

lstm.weight_hh_l1 f4 [200, 50]
0.101776056 -0.050673496 0.08493557 0.12208236 0.034293324 -0.026183868 0.033843998 -0.029019125
-0.037992295 -0.11623256 0.0944835 -0.033278983 0.037808232 0.10859368 -0.055866722 -0.12384678
0.0032943531 -0.07423667 0.12765193 0.03190237 -0.08380789 0.011642162 0.116605505 -0.017783146
-0.1197849 0.058060892 0.0003114479 -0.1367243 -0.042233046 -0.09354559 -0.035326105 0.09321694
-0.112507686 -0.122565925 -0.11314718 0.03771667 0.11717622 0.0016631986 0.061151944 0.09582146
0.042368617 0.012653939 -0.091139145 0.13212125 0.0063904026 -0.035201646 0.13061823 -0.12019078
-0.039581344 -0.11676774 -0.1051234 0.11027878 0.08642844 0.041498452 0.0810054 -0.040928014
-0.12483205 -0.104948685 -0.12012942 0.032323577 0.11593002 -0.010584745 0.0030805073 -0.010349557
0.03033452 -0.11823528 -0.10109266 0.023733722 -0.0484183 0.13678402 -0.07602613 0.039531674
-0.070537664 -0.11619028 -0.051964205 0.09405079 -0.005448691 -0.0763729 -0.09843337 0.018832248
-0.093159735 0.020874994 0.12385017 0.10081613 0.02497601 -0.10705327 -0.0816022 0.006353641
-0.048689686 0.15556312 -0.076609656 -0.012617704 0.09197936 -0.128337 0.100712724 0.024409013
-0.04211326 0.0027130938 0.038508378 -0.1580327 0.09827451 -0.07203604 0.062119316 0.104638495
-0.11493307 -0.13419281 -0.14468093 0.12938033 -0.03535829 -0.025255103 0.119412825 0.13371772
0.14577544 -0.0007307166 0.061217837 -0.08131987 -0.07480243 0.11736553 0.03177506 0.1038329
0.11353014 -0.05938309 0.15159893 0.0449121 -0.04166091 -0.06626481 0.012719528 -0.072991714
-0.1406807 -0.041941516 0.12601948 0.078068554 0.046529025 0.13429531 -0.012240538 -0.010904716
-0.06454072 0.05200792 -0.10670876 -0.12642533 0.15407997 0.10751576 0.06470162 0.061488837
-0.026445616 0.0174068 -0.08945376 0.12694848 -0.056425974 0.061070457 -0.1143247 -0.0338068
0.14092842 0.06572184 0.096026435 -0.10632502 0.11312896 0.13005547 0.0764088 -0.1461052
0.065075085 -0.12152729 -0.107264 -0.13214287 0.11211951 -0.052747145 -0.0022101938 0.116207786
0.008359032 0.12564561 0.15381886 0.05829518 0.002534672 0.07300334 0.015569562 -0.052987553
0.025971401 -0.027163984 -0.1195426 -0.0122011965 0.101753116 0.14089987 -0.11984731 0.032413572
-0.04531901 -0.108331434 -0.11699963 0.02841801 0.0026213452 0.06535019 0.06026124 -0.10617328
0.11265484 -0.07919462 -0.13591346 -0.12242667 -0.037153944 0.070338644 -0.1364086 -0.057130605
-0.071331434 -0.113959126 -0.08111155 -0.041161552 -0.012107568 -0.05892983 0.09026146 0.07558762
0.08236534 0.057867132 -0.14381613 0.11491056 0.07822686 0.051516097 -0.123452894 -0.10393907
-0.0022940831 0.104796186 0.118068054 -0.056185722 4.4884422e-05 0.024337448 0.13000624 -0.13032383
0.09223347 -0.07956369 0.011492643 -0.08589498 0.013467268 0.021288214 -0.06678273 0.028777905
-0.030687947 -0.07085463 -0.09754876 -0.10692889 -0.10873762 -0.09272815 0.055348948 0.03501376
0.120438755 -0.085899256 0.0884221 0.07156961 -0.0010259722 -0.013616546 0.0337134 -0.111525014
0.092241734 -0.023865372 -0.027444223 -0.011264654 0.005340342 0.09914713 0.01920494 0.037257563
00000000: f76f d03d 038f 4fbd b3f2 ad3d 5106 fa3d
00000010: 2877 0c3d 8d7f d6bc 01a0 0a3d 84b9 edbc
00000020: cf9d 1bbd 560b eebd 9180 c13d 8b4f 08bd
00000030: cedc 1a3d 5d66 de3d 81d4 64bd 61a3 fdbd
00000040: 13e6 573b 6509 98bd 30b7 023e 0fac 023d
00000050: 79a3 abbd c4be 3e3c dece ee3d f6ad 91bc
00000060: c951 f5bd 42d1 6d3d d449 a339 7401 0cbe
00000070: 8ffc 2cbd d594 bfbd 1bb2 10bd 86e8 be3d
00000080: 6e6a e6bd d803 fbbd b5b9 e7bd cc7c 1a3d
00000090: 16fa ef3d afff d93a 767a 7a3d 0b3e c43d
000000a0: b78a 2d3d 7852 4f3c 29a7 babd cb4a 073e
000000b0: 9566 d13b 9a2f 10bd c9c0 053e 9526 f6bd
000000c0: 0c20 22bd ed23 efbd f04a d7bd d7d9 e13d
000000d0: 6501 b13d 48fa 293d 29e6 a53d 22a4 27bd
000000e0: f2a7 ffbd 56ef d6bd 6a06 f6bd ba65 043d
000000f0: b86c ed3d a36b 2dbc 56e2 493b 3091 29bc
00000100: 1980 f83c 5725 f2bd ab09 cfbd 396d c23c
00000110: 4452 46bd 1c11 0c3e 96b3 9bbd f7eb 213d
00000120: 0d76 90bd 2bf5 edbd 6bd8 54bd b39d c03d
00000130: ef8a b2bb 6569 9cbd 6f97 c9bd 1646 9a3c
00000140: 88ca bebd 0902 ab3c 28a5 fd3d b078 ce3d
00000150: 7d9a cc3c bf3e dbbd 0e1f a7bd 3432 d03b
00000160: d66e 47bd f04b 1f3e 86e5 9cbd 7dba 4ebc
00000170: ad5f bc3d c66a 03be 7942 ce3d 69f5 c73c
00000180: f47e 2cbd 29ce 313b f6ba 1d3d 53d3 21be
00000190: 2544 c93d a287 93bd d370 7e3d b54c d63d
000001a0: 0862 ebbd d769 09be 3d27 14be 477c 043e
000001b0: dbd3 10bd cae3 cebc b68e f43d 4ced 083e
000001c0: 2846 153e 908d 3fba 8ebf 7a3d 088b a6bd
000001d0: 0432 99bd 575d f03d 9126 023d 58a6 d43d
000001e0: 7d82 e83d af3b 73bd c03c 1b3e c0f5 373d
000001f0: a1a4 2abd d8b5 87bd 9165 503c ae7c 95bd
00000200: 9a0e 10be deca 2bbd 400b 013e 68e2 9f3d
00000210: 3895 3e3d b684 093e 8a8c 48bc b2a9 32bc
00000220: ed2d 84bd 4206 553d 1f8a dabd a475 01be
00000230: 24c7 1d3e 3931 dc3d 4882 843d b8db 7b3d
00000240: 7aa4 d8bc b598 8e3c 8833 b7bd c8fe 013e
00000250: ec1e 67bd 0425 7a3d 1123 eabd 0079 0abd
00000260: 8a4f 103e 2c99 863d 82a9 c43d efc0 d9bd
00000270: 28b0 e73d 432d 053e 387c 9c3d 9a9c 15be
00000280: 1646 853d 4de3 f8bd 3aad dbbd 7650 07be
00000290: ea9e e53d 640d 58bd e6d8 10bb 59fe ed3d
000002a0: 52f4 083c 3ea9 003e b182 1d3e edc6 6e3d
000002b0: bd1c 263b c682 953d 7a17 7f3c 7a09 59bd
000002c0: fac1 d43c 0187 debc c0d2 f4bd 87e7 47bc
000002d0: f063 d03d 0e48 103e 8272 f5bd 18c4 043d
000002e0: 6da0 39bd dfdc ddbd 819d efbd e3cc e83c
000002f0: e0ca 2b3b 52d6 853d 7dd4 763d 6071 d9bd
00000300: 95b7 e63d ca30 a2bd e62c 0bbe d5ba fabd
00000310: bc2e 18bd b50d 903d b2ae 0bbe c801 6abd
00000320: 3716 92bd 6763 e9bd d01d a6bd 0499 28bd
00000330: d25e 46bc 6860 71bd 00db b83d afcd 9a3d
00000340: 29af a83d 1606 6d3d 8944 13be 3a56 eb3d
00000350: 6735 a03d 8b02 533d dfd4 fcbd 02de d4bd
00000360: 5458 16bb 629f d63d aacd f13d 0023 66bd
00000370: 4842 3c38 545f c73c 5b20 053e 9c73 05be
00000380: e7e4 bc3d 4af2 a2bd a34b 3c3c b5e9 afbd
00000390: d1a5 5c3c 9f64 ae3c 62c5 88bd a4bf eb3c
000003a0: 4a65 fbbc 3b1c 91bd a5c7 c7bd 89fd dabd
000003b0: d4b1 debd 42e8 bdbd 94b5 623d 976a 0f3d
000003c0: 98a8 f63d f3eb afbd a516 b53d 1693 923d
000003d0: ea79 86ba ef17 5fbc 1017 0a3d 3a67 e4bd
000003e0: 3ce9 bc3d 5081 c3bc b5d2 e0bc 628f 38bc
000003f0: 09fe ae3b a70d cb3d ae53 9d3c 639b 183d

lstm.bias_ih_l1 f4 [200]
0.1303961 -0.108707316 0.08937414 0.07682981 -0.1206834 -0.09561754 0.046517655 -0.08300021
-0.06374427 0.09107786 0.08002436 0.12409344 0.052083135 -0.034772854 0.03065396 0.006946409
-0.008965968 -0.1393071 0.05072191 0.037784364 -0.014335908 -0.021762107 -0.010875616 0.045368444
0.02902751 -0.06852705 -0.16174512 0.12507729 -0.08154923 0.017356561 0.12952965 0.062211428
0.1056097 -0.08938311 -0.06942391 -0.073197946 -0.070718005 0.06086671 0.107213475 0.07305161
-0.050160777 -0.021791523 -0.037685767 0.11212272 0.10298422 -0.02728483 -0.08953663 0.1131503
0.0031120316 0.010156948 0.05611232 -0.06385337 -0.012427455 0.060704444 -0.0025988875 -0.09608046
0.115524724 -0.064149 -0.027897898 0.09981312 -0.018737806 0.02568279 -0.10316576 -0.10457024
0.13941407 0.03358436 0.042934567 -0.08814516 0.05867161 0.15234254 0.15352586 -0.10446679
-0.07642738 0.02837538 0.15171686 -0.046300203 -0.12254369 0.119533025 -0.032620892 -0.07045415
-0.021868635 -0.11288038 0.0033974277 0.048676204 -0.04784247 0.15509778 -0.07643907 -0.07825285
-0.0035641869 0.11370629 -0.10589229 0.042505488 0.10293235 -0.11230738 -0.030073091 0.050071146
0.053960886 0.12531629 -0.045833193 -0.105512656 -0.092142835 0.118689716 -0.03927112 0.08561746
-0.051891852 -0.040786356 0.009559601 -0.05264564 -0.110157296 -0.13346767 0.020216879 0.13145652
0.14242011 -0.062972404 -0.0464881 -0.0034096504 0.11991141 0.10979779 -0.068500385 0.04033667
-0.057883233 -0.070859715 -0.049182806 -0.043056455 0.08678608 -0.09110229 -0.097542875 -0.11480557
-0.07765603 0.0027068844 -0.006815316 -0.030106094 0.10341251 0.05238249 -0.009163413 -0.0329485
-0.08061746 -0.042802684 0.12405864 0.13442503 0.06564499 0.1291171 -0.115215145 0.014375737
-0.06898732 -0.0049831867 -0.012773693 0.14294581 -0.11858231 -0.055129718 -0.039246615 0.13613172
-0.10009501 0.027873524 -0.053138275 -0.056156296 -0.047628798 -0.053065628 0.10462603 0.099261254
0.03126873 -0.039870165 0.08267366 -0.114489324 -0.078697965 0.15800844 -0.046808038 -0.09296928
0.055499688 -0.063357905 0.07752397 0.1173896 0.008187713 0.004665224 -0.069716685 0.08694966
-0.03786256 -0.10433756 0.12948626 0.011909444 0.015437763 -0.07970713 -0.014539914 -0.078463174
-0.10982215 0.13256471 -0.020468011 0.017019708 -0.097324245 0.005888923 0.14483996 -0.11666255
-0.08032551 -0.11274685 -0.042831052 -0.021582164 -0.024448546 -0.03482352 -0.12107182 -0.08057409
00000000: 8e86 053e f1a1 debd ca09 b73d f358 9d3d
00000010: dc28 f7bd 21d3 c3bd 4c89 3e3d 04fc a9bd
00000020: 5b8c 82bd 0787 ba3d d0e3 a33d b424 fe3d
00000030: 2055 553d fb6d 0ebd 031e fb3c b49e e33b
00000040: ffe5 12bc 85a6 0ebe c7c1 4f3d c7c3 1a3d
00000050: 28e1 6abc 7246 b2bc a42f 32bc 43d4 393d
00000060: 1acb ed3c e957 8cbd 83a0 25be 4314 003e
00000070: 4803 a7bd 592f 8e3c 6ca3 043e 69d1 7e3d
00000080: e649 d83d 7e0e b7bd 1f2e 8ebd cee8 95bd
00000090: 9ad4 90bd 5f4f 793d bd92 db3d 159c 953d
000000a0: 6375 4dbd 2384 b2bc 645c 1abd 99a0 e53d
000000b0: 64e9 d23d 7084 dfbc fb5e b7bd 58bb e73d
000000c0: 3af3 4b3b 5469 263c 08d6 653d 8ec5 82bd
000000d0: 869c 4bbc 39a5 783d 1952 2abb d5c5 c4bd
000000e0: 3a98 ec3d 8d60 83bd 228a e4bc d26a cc3d
000000f0: 0780 99bc b764 d23c 9248 d3bd ec28 d6bd
00000100: 90c2 0e3e c18f 093d 28dc 2f3d 7385 b4bd
00000110: a451 703d afff 1b3e e235 1d3e aff2 d5bd
00000120: f585 9cbd 7c73 e83c aa5b 1b3e 48a5 3dbd
00000130: 30f8 fabd bbcd f43d 7c9d 05bd 444a 90bd
00000140: da25 b3bc d42d e7bd 61a7 5e3b b360 473d
00000150: 77f6 43bd f4d1 1e3e 168c 9cbd 0843 a0bd
00000160: 2295 69bb d8de e83d 0fde d8bd 3c1a 2e3d
00000170: 32ce d23d 6901 e6bd d85b f6bc 6717 4d3d
00000180: 1706 5d3d ea52 003e 96bb 3bbd 0517 d8bd
00000190: 62b5 bcbd 9813 f33d c1da 20bd 3558 af3d
000001a0: 8d8c 54bd 980f 27bd df9f 1c3c f4a2 57bd
000001b0: 269a e1bd c0ab 08be de9d a53c 8a9c 063e
000001c0: 94d6 113e adf7 80bd 4e6a 3ebd 7174 5fbb
000001d0: 1d94 f53d aadd e03d ee49 8cbd 1038 253d
000001e0: f816 6dbd e61e 91bd e973 49bd f75b 30bd
000001f0: e6bc b13d d693 babd 8fc4 c7bd 2f1f ebbd
00000200: 200a 9fbd fc65 313b 0453 dfbb 0ea1 f6bc
00000210: f0c9 d33d 068f 563d 2422 16bc 02f5 06bd
00000220: c41a a5bd de51 2fbd 7512 fe3d b7a6 093e
00000230: e170 863d 4637 043e ebf5 ebbd 3688 6b3c
00000240: 3949 8dbd 004a a3bb c048 51bc 6360 123e
00000250: 48db f2bd b3cf 61bd 0fc1 20bd 1d66 0b3e
00000260: 9dfe ccbd 0457 e43c 85a7 59bd 2504 66bd
00000270: 6a16 43bd 585b 59bd 2c46 d63d 7c49 cb3d
00000280: a413 003d e64e 23bd cf50 a93d 6179 eabd
00000290: 662c a1bd f7cc 213e c9b9 3fbd ae66 bebd
000002a0: a453 633d cac1 81bd e3c4 9e3d f569 f03d
000002b0: c225 063c bcde 983b 9fc7 8ebd aa12 b23d
000002c0: c615 1bbd eeae d5bd 0c98 043e d41f 433c
000002d0: acee 7c3c 7e3d a3bd d238 6ebc 4db1 a0bd
000002e0: 6fea e0bd 0bbf 073e 88ac a7bc ea6c 8b3c
000002f0: ef51 c7bd def7 c03b ed50 143e c6ec eebd
00000300: b381 a4bd d2e7 e6bd 9d6f 2fbd 14cd b0bc
00000310: 5148 c8bc 1ba3 0ebd 81f4 f7bd 0704 a5bd

lstm.bias_hh_l1 f4 [200]
-0.039365433 -0.015289026 -0.11016972 -0.11198834 0.08387864 0.15768383 -0.07221109 0.024532286
-0.055854272 -0.10671368 0.059266824 -0.13093933 -0.07926461 -0.0894309 0.105015956 -0.025620617
0.10674847 0.09543234 0.020612277 0.13633086 -0.029870506 0.04834159 0.045216687 0.05916132
-0.004739657 0.05976234 0.006181227 -0.06227161 0.15140006 0.12618005 -0.03995305 0.096816644
-0.025965553 0.056886274 0.11796004 0.09745735 -0.048050538 -0.014977651 0.06112012 0.15411633
0.02498856 0.11348229 0.11264791 0.006733645 0.15647906 0.023799766 -0.014890268 0.084826335
-0.008180845 0.1458552 0.15502186 0.044031557 -0.029224725 0.07829508 -0.039236132 0.00013731055
0.060304232 0.030907415 0.11323959 0.06719434 -0.14210914 -0.0260596 -0.04249931 0.040475648
0.11076399 -0.08546479 -0.13520579 0.039854147 -0.1381713 0.15278898 0.15434791 0.12229259
-0.06561856 -0.022201689 0.057295777 0.084717944 -0.15103509 0.076132916 0.050948795 0.0025639343
-0.13485484 -0.0046599056 0.10561444 -0.08789581 0.08992051 0.05297253 -0.06257932 0.064568385
-0.09727265 0.14177193 0.016794719 0.09170472 0.07799209 -0.004049614 -0.009032326 -0.04946407
0.06796478 -0.10211487 0.08924143 0.11445742 0.07475999 0.04404829 0.05954947 -0.066952296
0.1600079 0.012129201 -0.131059 0.14419894 0.11492876 -0.1351272 -0.08564377 -0.108804874
-0.10925091 0.07283991 -0.1389105 -0.08748347 0.13819224 0.060427956 0.04782046 -0.02170964
0.11265334 -0.008042636 0.11678709 -0.08287306 0.070787385 0.08434183 -0.116659515 0.109478086
-0.079748936 0.0466387 0.02499502 0.13090803 0.073860444 0.1160833 -0.05056875 -0.04626595
0.07328539 -0.0050720163 -0.016327932 0.010569366 -0.030625846 -0.017298268 -0.09426575 0.121299796
-0.14484341 -0.088053145 0.0069169444 0.08587739 0.024465406 -0.0879726 0.056528628 0.015275649
0.06582985 0.05569801 0.08813585 -0.11352653 -0.058992665 0.041700147 0.12773207 0.10215084
0.05122593 -0.112878144 -0.059199847 0.030938735 0.1540876 -0.064572595 0.09744614 -0.054505557
0.07882952 0.10141711 0.095525764 0.07994665 0.08850053 -0.10176944 -0.074417286 0.13992925
-0.02765209 -0.04653253 -0.048018746 -0.08205489 -0.011273833 -0.07034691 0.14681336 0.09340843
0.13580704 -0.11517102 -0.050424673 0.15775895 0.045500603 -0.10379532 -0.020919224 -0.043360885
0.13499245 0.10735031 0.103423834 -0.044512313 0.065206245 -0.023599995 -0.10382529 -0.08325201
00000000: a63d 21bd d37e 7abc aaa0 e1bd 255a e5bd
00000010: 90c8 ab3d df77 213e 68e3 93bd eff7 c83c
00000020: 73c7 64bd b48c dabd c5c1 723d f614 06be
00000030: 7c55 a2bd 8c27 b7bd 9b12 d73d 54e2 d1bc
00000040: f19e da3d 0872 c33d 14db a83c 519a 0b3e
00000050: feb2 f4bc d501 463d 2235 393d 2453 723d
00000060: 204f 9bbb 5bc9 743d e48b ca3b 8410 7fbd
00000070: 9e08 1b3e 5835 013e cfa5 23bd ce47 c63d
00000080: b6b5 d4bc 9501 693d 0995 f13d b897 c73d
00000090: a4d0 44bd d264 75bc 1759 7a3d acd0 1d3e
000000a0: cfb4 cc3c 6769 e83d f3b3 e63d e9a5 dc3b
000000b0: 0c3c 203e baf7 c23c 50f6 73bc 6eb9 ad3d
000000c0: f308 06bc 115b 153e 0dbe 1e3e 6f5a 343d
000000d0: b168 efbc 2c59 a03d 11b6 20bd 05fb 0f39
000000e0: 9201 773d 8c31 fd3c 28ea e73d 309d 893d
000000f0: 0f85 11be f17a d5bc c213 2ebd cbc9 253d
00000100: 3bd8 e23d 2a08 afbd 6373 0abe 1a3e 233d
00000110: c77c 0dbe b774 1c3e 610d 1e3e 8a74 fa3d
00000120: 0663 86bd 51e0 b5bc faae 6a3d 9a80 ad3d
00000130: f1a8 1abe 93eb 9b3d afaf 503d ae07 283b
00000140: 6317 0abe 1fb2 98bb 624c d83d b802 b4bd
00000150: 3f28 b83d b9f9 583d 9629 80bd 6e3c 843d
00000160: e236 c7bd a92c 113e 1495 893c afcf bb3d
00000170: 51ba 9f3d a0b2 84bb 52fc 13bc d69a 4abd
00000180: 1e31 8b3d 9a21 d1bd 36c4 b63d a768 ea3d
00000190: c41b 993d fb6b 343d 25ea 733d 491e 89bd
000001a0: 1cd9 233e 8eb9 463c 5534 06be e3a8 133e
000001b0: c55f eb3d c95e 0abe 0066 afbd 17d5 debd
000001c0: f1be dfbd 172d 953d 8e3e 0ebe 892a b3bd
000001d0: 4482 0d3e 4e83 773d 63df 433d 6ad8 b1bc
000001e0: cbb6 e63d 43c5 03bc 122e ef3d 5ab9 a9bd
000001f0: faf8 903d 69bb ac3d 2feb eebd 0c36 e03d
00000200: 6953 a3bd 3908 3f3d 5bc2 cc3c c10c 063e
00000210: 2544 973d 15bd ed3d 2d21 4fbd 5d81 3dbd
00000220: a716 963d 2833 a6bb 28c2 85bc 222b 2d3c
00000230: 0ee3 fabc 19b5 8dbc 670e c1bd 076c f83d
00000240: d551 14be 3555 b4bd 89a7 e23b 7ce0 af3d
00000250: ad6b c83c fa2a b4bd 908a 673d b746 7a3c
00000260: cdd1 863d 9923 643d 9280 b43d 9980 e8bd
00000270: 4ba2 71bd c6cd 2a3d 32cc 023e 7634 d13d
00000280: 48d2 513d a82c e7bd 8a7b 72bd 3b73 fd3c
00000290: 24c9 1d3e a33e 84bd d891 c73d 3841 5fbd
000002a0: 5f71 a13d c6b3 cf3d 03a3 c33d 12bb a33d
000002b0: c43f b53d 7f6c d0bd 1768 98bd 9d49 0f3e
000002c0: a386 e2bc e598 3ebd 4eaf 44bd 650c a8bd
000002d0: e2b5 38bc 0a12 90bd 3e56 163e eb4c bf3d
000002e0: 0011 0b3e c9de ebbd 1a8a 4ebd 908b 213e
000002f0: d75e 3a3d a492 d4bd cb5e abbc 2f9b 31bd
00000300: 763b 0a3e 7bda db3d e0cf d33d 8b52 36bd
00000310: da8a 853d c754 c1bc 5ba2 d4bd 0880 aabd

fc.weight f4 [1, 50]
-0.099006385 0.14806435 0.085291915 -0.10207502 0.07780871 -0.056582578 -0.024887657 0.035006907
-0.13823545 -0.06950203 0.036141455 0.11623352 0.07520575 -0.09567984 -0.11841548 -0.073609605
-8.7960274e-05 -0.047434926 0.06306502 0.114958204 0.08318379 0.14094 0.09637191 0.1012594
0.103956565 0.12794861 0.07749268 0.12591128 -0.07862422 0.15126893 0.019816844 0.045677356
0.07629276 -0.011822307 0.065852076 -0.13168022 0.04426517 -0.07723719 0.073688 0.13470633
0.08160685 0.030093994 -0.039758608 -0.057202097 -0.09516784 0.054627974 -0.11662815 0.14267683
-0.0649939 -0.039538622
00000000: dcc3 cabd 2e9e 173e 87ad ae3d b50c d1bd
00000010: 2c5a 9f3d 22c3 67bd 33e1 cbbc 6763 0f3d
00000020: 988d 0dbe 1557 8ebd 1009 143d d70b ee3d
00000030: 7905 9a3d cbf3 c3bd d183 f2bd a2c0 96bd
00000040: 5077 b8b8 204b 42bd 3c28 813d 356f eb3d
00000050: 435c aa3d 9352 103e a35e c53d 1761 cf3d
00000060: 2ee7 d43d f604 033e 7bb4 9e3d e3ee 003e
00000070: bc05 a1bd 3ee6 1a3e ef56 a23c 2e18 3b3d
00000080: 613f 9c3d 59b2 41bc 74dd 863d 2ed7 06be
00000090: 654f 353d 882e 9ebd bce9 963d 75f0 093e
000000a0: 7e21 a73d ae87 f63c ecd9 22bd bf4c 6abd
000000b0: 5be7 c2bd 95c1 5f3d bdda eebd e019 123e
000000c0: 861b 85bd 40f3 21bd
