models/XRP_USDT_model.pt (torch, 128181 bytes, 9 tensors)

lstm.weight_ih_l0 f4 [200, 1]
00000000: 8f4a d73d 69f8 87bd 8ce5 313c 6522 153d
00000010: 2c34 32bd 123a 7fbd 828e 883d 2dc2 103e
00000020: e114 e33d 5bc5 ec3d a120 f23d 603a f53d
00000030: 1f24 87bd 2f60 a93d 6283 e33d 9b99 9c3d
00000040: baf2 e3bd 97ff 2e3c 67c5 e7bd 9fac b0bd
00000050: eef3 2dbd 55f1 093c e351 ab3d 5f9f 06bb
00000060: 5c96 e5bc 706d cebd c686 93bd 1642 a13d
00000070: 2510 4e3d 4aaa 84bc 38bc eb3d 3319 0b3e
00000080: 7f32 5d3d 45de bc3d 7e8b bcbd 8577 0e3d
00000090: a837 83bc d961 b0bd 9603 fd3d b265 f73d
000000a0: 5bcf ae3c b8ec f13d 65b2 0b3d 1932 1e3e
000000b0: 25e4 d0bd 681c acbc 016a 5dbd 9ae5 5a3d
000000c0: 4d86 e9bd 12f8 da3d 4c65 62bd 2faa e3bd
000000d0: 1a5e 85bd ecc8 e1bd a87d 70bd fd22 1d3d
000000e0: b71f cd3d b864 e3bd a4fd dd3d f169 d1bd
000000f0: 8cfe c23d 2a41 703d 5008 2b3d cb21 72bd
00000100: 6f8f db3d 7d48 ecbd 8f02 ad3d dc3e 72bd
00000110: 0d9f f2bb c5bb b0bd 3db1 943d 1d21 1a3d
00000120: ed29 043e 95b6 0a3e d0b3 8a3c 8e44 6dbc
00000130: 6aa5 02ba c5a7 b0bd 942a b23d e9f4 c9bd
00000140: 7f99 20ba fc46 72bd 4f81 e4bd dfaa d9bd
00000150: dc16 aa3d 8829 c63d 0aea d13d 0171 a23d
00000160: b4d0 02be 453b e6bc 7eb6 1d3d f01b e73d
00000170: ec83 9a3d f354 d23b 846d 90bc 005c b03d
00000180: 7c25 f1bd 7e0e 3dbd 2fa9 d13d 926c 9abd
00000190: 6c79 783c 6a8e babd 04d2 f33d 0076 da3d
000001a0: 862c a8bd b5e3 2cbd 70e2 cebc 878c e6bd
000001b0: ff0a c3bd ac98 d33d d27b 8d3d 6397 b1bd
000001c0: 2176 d3bd 1811 89bd a923 f9bd fa26 0a3e
000001d0: 5a64 efbd 909b bf3d 71ad e23d 09dc 123d
000001e0: e99c 0a3d 727d c23a c147 23bd e741 ab3d
000001f0: 5760 9dbd 7624 a9bd 2503 73bd 48dd f03d
00000200: f90d 13be e7d7 e33d 8853 f3bd 7a47 29bd
00000210: a257 08be cabd 363d 1490 adbd 4040 533c
00000220: 7948 a23d 432a f9bd 19ee 013e bd9b cd3c
00000230: e8e4 af3d 4b5d 77bd 4327 7e3d db77 053e
00000240: 770c b9ba feee 473c c2c7 ab3d 9d48 eabd
00000250: 6cff c53d 84a9 c43d cb6f a23d a4be ebbd
00000260: 16e2 ba3d f79a c0bc d77a 22bd 5ac7 8b3c
00000270: 775d 13bd e4e7 b13d 62f6 8dbd 05a9 e8bd
00000280: 6134 823d 9a76 0d3d 98ae e8bd 05b9 cb3d
00000290: a60b b43d 748a a03d 63b5 a33d ea70 7a3d
000002a0: 07fa 353d f087 173e 6a8b bd3d 0cc0 f8bd
000002b0: 74fb 3abc 002e 193e 5e5b f6bc 4721 a03d
000002c0: 5732 c23d c905 35bd 659a b1bc a7c9 9e3d
000002d0: 22af 5d3d 629d 413c fa88 823d 5af6 afbd
000002e0: c7d4 95bd 2265 5d3c 4819 81bc 7c40 a83d
000002f0: e203 dcbd b41a 783d b8f5 cabc 058a 1a3e
00000300: 306a f6bd e88f c9bd 8c87 bcbc d328 923d
00000310: 4586 303d 61f2 633d def4 ebb9 119f 6d3d
0.10512268 -0.06639177 0.010857951 0.036409754 -0.043506786 -0.06231124 0.06667806 0.14136572
0.11087967 0.1156108 0.1182263 0.11974025 -0.065986864 0.08270299 0.11109044 0.076464854
-0.11130281 0.010681055 -0.113169484 -0.08626675 -0.042468958 0.008419354 0.08365228 -0.002054177
-0.028025798 -0.10079467 -0.0720344 0.07873933 0.050308365 -0.016194481 0.11510509 0.13583831
0.054003235 0.09222082 -0.092062935 0.03478195 -0.01601775 -0.08612413 0.123541996 0.12079944
0.02133911 0.11812729 0.034105677 0.15448798 -0.10199765 -0.021009639 -0.05405617 0.05344162
-0.11402569 0.10691847 -0.055272385 -0.11116444 -0.06512089 -0.11024651 -0.058713585 0.038363446
0.10015815 -0.11103195 0.10839394 -0.10225285 0.09521207 0.058655895 0.041755974 -0.05911426
0.10720717 -0.115372635 0.08447754 -0.05914198 -0.0074042142 -0.08629564 0.07260368 0.037629236
0.12906618 0.13546212 0.016931444 -0.014481677 -0.0004983755 -0.086257495 0.086995274 -0.09861166
-0.00061263883 -0.059149727 -0.11157476 -0.10628294 0.08305141 0.0967589 0.102497175 0.0793171
-0.12774926 -0.028104434 0.038504116 0.112846255 0.07544693 0.006418818 -0.017630346 0.086112976
-0.11774728 -0.0461564 0.10237347 -0.075402394 0.015165668 -0.091091946 0.11905292 0.10667038
-0.08211617 -0.042209346 -0.025254458 -0.11257272 -0.09523582 0.10331854 0.069083825 -0.08671453
-0.10325266 -0.066927135 -0.12165005 0.13491431 -0.116890624 0.09355843 0.110682376 0.035854373
0.033841047 0.0014838411 -0.03986335 0.08362179 -0.07684391 -0.082589075 -0.05932917 0.11760956
-0.14360799 0.111251645 -0.11881167 -0.04132793 -0.1331468 0.04461459 -0.08474746 0.012893736
0.07923979 -0.12166264 0.12688483 0.025098676 0.08588582 -0.060391705 0.06204916 0.13034002
-0.0014118095 0.012202976 0.0838771 -0.11439631 0.096678585 0.09602645 0.07931479 -0.11510971
0.09125154 -0.023511393 -0.03966793 0.017062832 -0.035977807 0.08686808 -0.069317594 -0.11360363
0.06357647 0.034536935 -0.11361426 0.09947399 0.08791284 0.07838908 0.07993581 0.06114284
0.044427898 0.1479795 0.09255107 -0.12146005 -0.01141249 0.14958954 -0.030072864 0.07818847
0.09482258 -0.04419497 -0.021680066 0.07753306 0.054122098 0.011817308 0.063737825 -0.0859191
-0.07315975 0.0135128815 -0.015759125 0.082154244 -0.10742928 0.06057234 -0.024775371 0.15091713
-0.120319724 -0.09841901 -0.023013853 0.07136693 0.0430968 0.055651072 -0.00045005133 0.058013026

lstm.weight_hh_l0 f4 [200, 50]
00000000: 5958 063d 3a53 943d 4b21 eb3b 459f afbd
00000010: e8e3 60bd f50c bbbb dfca 87bd 3f12 d7bd
00000020: f9ea c7bc a767 fbbd 1a65 e3bd e068 b23d
00000030: 8448 66bd 210d c33b 2773 a9bd c8c1 febd
00000040: 3600 5cbd 813f b03d d430 023e 2513 973d
00000050: 29c8 77bd d030 b3bc 2820 0a3d febd 91bd
00000060: b045 e4bd aa69 d13d b4da 06be e539 1cbd
00000070: 6922 17be 98df 883d 5c1f 0e3d ee32 343d
00000080: 57a1 393d b534 04bd ded9 42bd 228c e5bc
00000090: 399e 473d 3ce8 373d 58cc 643c 7482 08be
000000a0: 01fb dc3d 03c4 f63d 5da1 083e f07a c7ba
000000b0: 04e6 453d 9e44 1a3e 4c27 39ba ce27 a53d
000000c0: ec6f 333d b390 e63d 4525 50ba 58ec d13d
000000d0: 6d37 243e d540 a33d d449 32bc fd10 a0bd
000000e0: dea1 3d3d d4c0 f0bd f3fa 833d 3d74 173e
000000f0: 175b eb3d 4e30 cb3d 107f 97bb 0673 c03d
00000100: 3650 ebbd bd5a 093e 67e0 f3bb 590c e63d
00000110: 5a09 923d 68d5 1a3e aae9 c63b db25 b7bc
00000120: cd1c b73d b002 5cbd 08ac b2bd a038 1dbe
00000130: f129 853d 0b22 243e ca85 a23b e06d 873c
00000140: 7c3a 8d3d aa1f 16bc 5e61 f83d 64e5 213d
00000150: 677e bdbd a265 ecbd bbe6 163e eb26 863c
00000160: 6fab e4bd c61a 03be 61b5 833d 4772 0abe
00000170: a4ee de3b a915 173e 328a 123d eff3 e43b
00000180: 1960 2fbd 1490 15bc 2cde 573d b03d a83c
00000190: fb53 563d 4696 0fbd 5021 a13d 3f8a 65bc
000001a0: 7bd3 1abd 21fa 13be f317 c0bd 3704 9ebd
000001b0: 325a 47bd ef2d 3a3d 27bc 6b3d 8f17 c9bc
000001c0: 13ae 69bd 149a 5c3d 538a 02be cb0e 943d
000001d0: d89d 9fbc 53c3 923d 8ed8 c7bd 016f 00be
000001e0: 9182 e4bd ce11 21bd cd4c 03bd 7514 f43c
000001f0: 77b5 f83d 7b0e ddbd 4a55 24bd 534e 1a3c
00000200: 3501 403c 48c2 9e3d 9e93 c33c 7dbc 06be
00000210: c110 3f3d b193 0abe 7dbf 87bd 3f31 5a3d
00000220: 1713 0d3e 5e6b f63d 4597 b9bd 4ff3 a43d
00000230: bf1e 193e 232d d43d 6fd8 afbb 6f7d babd
00000240: a794 c63d 3b18 003d 756a 1a3e 66b4 75bd
00000250: ed72 0cbe 4f88 953b 210a 70bc bdc4 ffbd
00000260: f10c 63bd bf27 cc3d c34d 083e 274d a0bd
00000270: 824b 573d 010a 70bd b3c5 f73d d78c bdbd
00000280: a515 163e 3392 3b3d 051a cd3d 5beb 83bd
00000290: 536f 3cbd ddcf 053e c5bf a4bd dd34 f3bd
000002a0: 0470 2fbd 3726 e8bd ad9f 84bc e900 22bc
000002b0: 2e04 01be 2e93 383d f73e c7bd 98e3 e9bd
000002c0: cddb 9cbd 732f 003d 493d 2c3d ec34 123d
000002d0: 96ae 153d 8a59 e03d 1dd0 fb3c 7995 88bd
000002e0: f991 c83d e191 c0bd bbd6 b0bc 44b5 0dbd
000002f0: a698 f8ba a9b1 b0bd a3dd d0bb 0888 f7bd
00000300: 523a 5abd 3a64 623d 7ae1 0fbe 108c ff3d
00000310: 52e8 43bd a3f6 0e3e 6cf1 abbd 4d26 d83c
00000320: 07d4 ae3d de7b c3bd 4c67 86bd 2db4 babd
00000330: e19c b5bc 80e4 7e3d 2c52 4f3c f58b afbd
00000340: b53e 7d3d 5279 85bc 45b2 293d b3cd 99bd
00000350: 6ebb 10bd d5f3 b23d 5ebd d03c 50a9 383d
00000360: 778b 7dbd 3248 c2bb b748 0abd 0879 ad3d
00000370: 2a02 9abd 3d9e 1a3e 11ae 633d a5f1 3abd
00000380: fb41 fb3d 777b b7bd b7c6 2e3c c77a 9f3c
00000390: c533 f73d b42c 8fbd e376 8d3d 7c55 9ebd
000003a0: 4dad 9abd 11fa 95bd 529e d93d d102 01be
000003b0: ac8b 0e3e c897 183d ab0d 83bc c2b6 abbd
000003c0: 9d38 ab3c ded7 67bd 6eef d23d 0801 31bd
000003d0: 4fc2 f4bd 1ace 8f3d c99c c7bd c313 24bd
000003e0: 70c8 4c3d 3985 3f3d e974 2b3d 23f5 a0bd
000003f0: 300e f43d 0760 873d 5d8b 113d 5911 63bd
0.0327991 0.07242437 0.0071755997 -0.085753 -0.05490485 -0.0057083317 -0.066304915 -0.10501527
-0.024404036 -0.122756295 -0.11103268 0.087114096 -0.0562215 0.005952493 -0.08273917 -0.124393046
-0.05371114 0.086058624 0.12713939 0.073766984 -0.060493622 -0.021873862 0.033722073 -0.07116316
-0.11146104 0.10225232 -0.13169366 -0.03814115 -0.1475922 0.06683272 0.034697875 0.043993883
0.04531988 -0.032276828 -0.047571056 -0.028020922 0.048734877 0.04489921 0.013964735 -0.13331014
0.10790063 0.12049105 0.13342805 -0.0015219133 0.048315063 0.15065238 -0.00070630456 0.08064233
0.04380791 0.11258068 -0.0007940124 0.10250157 0.16036768 0.0797135 -0.01088186 -0.0781574
0.046296947 -0.11755529 0.06444349 0.14790435 0.114919834 0.09921323 -0.0046233013 0.09396939
-0.114899084 0.1341352 -0.0074425223 0.11232824 0.0713069 0.1512047 0.0060703354 -0.022356918
0.0894104 -0.0537135 -0.087242186 -0.15353632 0.0650214 0.16028611 0.0049597966 0.016531885
0.06895921 -0.009162823 0.12127946 0.039525405 -0.09252625 -0.115428224 0.14736454 0.01637598
-0.11165511 -0.12803182 0.0643108 -0.13520156 0.0068033505 0.14754356 0.035776325 0.006987087
-0.042816255 -0.009128589 0.052702114 0.020537227 0.052326184 -0.03505542 0.07867682 -0.014010011
-0.03779934 -0.14450885 -0.09379568 -0.07715648 -0.04867 0.045453962 0.057552483 -0.024547366
-0.057050776 0.053857878 -0.12748079 0.07229384 -0.019484445 0.071661614 -0.097581014 -0.12542345
-0.11157716 -0.03932362 -0.032055665 0.02979491 0.12143987 -0.107937776 -0.0401204 0.009418088
0.011719038 0.077519 0.0238741 -0.1315784 0.046646837 -0.13532902 -0.0662832 0.05326962
0.13776813 0.120321974 -0.090620555 0.0805422 0.14953135 0.10360172 -0.005366377 -0.09105956
0.09696322 0.031273108 0.15079673 -0.059986494 -0.13715716 0.0045633684 -0.014650852 -0.12488697
-0.055432264 0.099685185 0.13310914 -0.07827216 0.052562244 -0.05860329 0.12098255 -0.09255379
0.14656694 0.045793723 0.100147285 -0.06441375 -0.046004605 0.13067575 -0.0804439 -0.11875317
-0.042831436 -0.11335414 -0.01618942 -0.009887912 -0.1259925 0.045062236 -0.097288065 -0.11420363
-0.07659111 0.03129525 0.042050634 0.035695 0.03654345 0.10954578 0.030738885 -0.06669135
0.09793467 -0.09402824 -0.021586766 -0.034596696 -0.0018966391 -0.08627636 -0.0063740774 -0.12086493
-0.053278275 0.055271365 -0.14050856 0.12477887 -0.04782898 0.13961272 -0.08395657 0.02638545
0.08536535 -0.0954511 -0.06562671 -0.09116397 -0.022169532 0.062229633 0.012653869 -0.085716166
0.06182738 -0.016293202 0.041429777 -0.07509937 -0.035334997 0.087379135 0.025480922 0.045083344
-0.061900582 -0.0059290165 -0.033760753 0.084703505 -0.07519944 0.15099426 0.055585925 -0.045640606
0.12268444 -0.08959096 0.0106674945 0.019467724 0.12070421 -0.06990948 0.069074415 -0.077311486
-0.07552586 -0.07323087 0.106259 -0.1259873 0.13920468 0.037254125 -0.015997728 -0.08384468
0.020901019 -0.05660235 0.10299574 -0.043213874 -0.11951124 0.07021733 -0.09746701 -0.04005791
0.04999584 0.04675791 0.04185954 -0.07859256 0.119167686 0.06610113 0.035533298 -0.055436466

lstm.bias_ih_l0 f4 [200]
00000000: c708 73bd aa4e aa3d 9d6f 733c 015e 173d
00000010: 0b43 963d 8a24 94bd a0fd 35bb 03b4 a43d
00000020: 9169 0c3c 53a1 9fbd 19be 48bd d2f9 a03d
00000030: 9aae ad3d 85be 7b3d 32a1 28bd 595e e2bd
00000040: d112 283d 1234 9bbd 763c 3c3c 105f 023e
00000050: 63a0 4aba 7ae3 143e aa49 35bd af72 b4bd
00000060: a408 00bd 3f09 5bbd 3c9b 1f3e bd64 a63d
00000070: 1487 603d 90ca 203e 0051 17bd d21d fb3a
00000080: ac59 1e3e 1e21 a3bd f34c 8f3c a374 52bd
00000090: 2b3c db3d 3d7e a7bd 36a2 f3bd 69c0 a6bd
000000a0: c413 e73d 8372 b63c d451 e4bc 745f d43d
000000b0: 8249 0f3e 2989 69bc 9d13 72bc b0c0 3ebd
000000c0: 9373 89bd 1e58 af3d 8bbb e0bd 04b9 9e3d
000000d0: 67cf 68bd 1f0c f7bd b2d4 243c cc71 77bc
000000e0: ad12 243d 6103 fc3d 4bca 183e 2689 c93d
000000f0: c29f beb9 6642 9a3d 58cb 5fbd fb82 e4bc
00000100: a41c 003d 9b9b 0dbd 4ef5 073e fa9d fabd
00000110: a576 a53c b201 853d 366c a53d b275 da3d
00000120: 44a2 943c 3b75 e03d 2c5b 993d eda8 3e3d
00000130: 233b e03d 1a07 adbd 64ee 923d 968c e23d
00000140: 8a63 ef3d 81ed 06bd 3b6a 633d fcee a13d
00000150: 1b89 12bd b367 45bc 9cab 943d ef21 e7bd
00000160: b790 81bd 3318 06be f553 d03c 176d b9bd
00000170: 80d7 363d b100 883c aad6 82bb dde2 4f3d
00000180: 3e3b 99bd a7b1 353d 1fa6 aa3b 17b4 403d
00000190: 2459 efbd 4f6d e73d 425a 3a3d 4efa b6bd
000001a0: 397b d6bd 88ef 00be 032e 7d3d c583 24bc
000001b0: 7b40 02be a88b e43d ed76 633d 3c1f acbc
000001c0: b0b2 5a3d 6678 1d3e 45e6 f63b 1c7b 033d
000001d0: 503f 083e 51cb adbd c870 273d b244 223d
000001e0: 1afe 703d 2e3a 033e 1ec3 0d3e 01ec c13d
000001f0: d75e e4ba eb5c cabd 15e4 03bd c01f 0c3e
00000200: 0d60 2bbd 85cc 5c3d 3032 2c3d 1a9d a83a
00000210: c6af c93d a3ce 13bd c329 163e 5bb5 b4bd
00000220: 49f3 1abd dfe5 01be e29f f7bd d43e fd3c
00000230: 17a5 c03d 6be5 cebd 34d3 88bd ac9b a43d
00000240: 61c7 903d 1995 c33d 5eed d13d 3210 1c3e
00000250: 4c47 00be 9c93 c7bd 8182 423d 7908 cabd
00000260: 9fb3 513d d004 c7bd 2c79 213e 5715 bc3d
00000270: dd11 f3bc 6bea 12bd 997a fc3d af16 dd3d
00000280: 3e55 ddbc 1cc7 1cbe d62c b1bd 2a02 c63d
00000290: 2dbe ae3c 10ed f43d 72d9 823c 9c7c e0bd
000002a0: e53a a5bd 2773 e53d 93ff f5bc e7c1 37bd
000002b0: 7f34 473d a0b1 cc3d 101e 2d3d a796 6e3d
000002c0: 6a12 8e3b f024 eebd f410 38bd 917b fe3d
000002d0: 7987 fa3c d268 a1bc 8f10 25bd 3cee dabd
000002e0: f219 95bc 75bd c2bd 14e4 d8bd 4b36 f33d
000002f0: 0a99 86bd 65b6 46bd 686f 013e d5d8 0b3e
00000300: 7336 8dbd c3da 113e b343 91bd 0f00 0b3e
00000310: 0eaf 183e 9fa4 b43d b5e7 153d 4d06 b03d
-0.059334543 0.08315785 0.014858154 0.036954883 0.07337006 -0.07233532 -0.002776958 0.08042147
0.008570091 -0.07794442 -0.049009416 0.078601494 0.08480568 0.06146099 -0.041169353 -0.11053152
0.04103357 -0.07578291 0.011489024 0.12731576 -0.0007729588 0.145399 -0.044259705 -0.08810937
-0.03125824 -0.053475615 0.15586561 0.08124683 0.05481632 0.15702271 -0.036942482 0.0019158667
0.15463895 -0.07965301 0.017492747 -0.051380765 0.107048355 -0.08178375 -0.11896174 -0.08142168
0.11283067 0.0222714 -0.02787105 0.10369769 0.13992885 -0.014253893 -0.014775184 -0.04657048
-0.06711497 0.08561729 -0.10973271 0.07750133 -0.05683842 -0.12062859 0.010060476 -0.015102815
0.040056873 0.12305332 0.14920919 0.09840612 -0.00036358653 0.07532196 -0.054637283 -0.027894488
0.031277314 -0.034572225 0.1327717 -0.12237163 0.020198176 0.06494464 0.0807728 0.1066698
0.01814378 0.1095986 0.07488093 0.04654782 0.109487794 -0.0844862 0.07174376 0.11061971
0.116889074 -0.032941345 0.05552123 0.07906911 -0.035775285 -0.01204865 0.072592944 -0.11285769
-0.0632643 -0.13095169 0.025430659 -0.0905401 0.04463911 0.016601892 -0.003992875 0.050753463
-0.07482003 0.044358876 0.0052077915 0.047046747 -0.11686924 0.11300146 0.045496233 -0.089344606
-0.104727216 -0.12591374 0.06181146 -0.010041182 -0.1271991 0.1115945 0.05553334 -0.021010987
0.053393066 0.1537796 0.0075347745 0.032099828 0.13305402 -0.08486045 0.04087904 0.039616294
0.05883608 0.12815163 0.13843963 0.09468842 -0.0017423284 -0.09881004 -0.032199938 0.13683987
-0.041839648 0.053905983 0.04204005 0.0012864203 0.09847979 -0.036085736 0.14664368 -0.08823653
-0.03782967 -0.12685345 -0.12091042 0.030913748 0.094064884 -0.10102352 -0.06680909 0.080375046
0.070692785 0.095499225 0.10250352 0.15240553 -0.12527198 -0.09744951 0.04748774 -0.09864897
0.05119669 -0.09717715 0.1576888 0.09183758 -0.029671604 -0.03586809 0.12328071 0.10795342
-0.027018186 -0.15310329 -0.0865113 0.096683815 0.021330917 0.119592786 0.015972827 -0.10961267
-0.08067874 0.11203604 -0.030029094 -0.044862654 0.04863405 0.09994817 0.042264998 0.058249142
0.004335691 -0.11628139 -0.044938043 0.12425912 0.030582177 -0.019703303 -0.040298995 -0.10689971
-0.018200848 -0.09508792 -0.105903774 0.1187559 -0.06572159 -0.04851379 0.12640154 0.13656934
-0.06895151 0.14243607 -0.07092991 0.13574241 0.14910528 0.088204615 0.036597926 0.08594952

lstm.bias_hh_l0 f4 [200]
00000000: 2de9 b3bd c340 e13d 2f30 093e 5396 103d
00000010: 08cd 493a 161d 1b3e 9a88 553d 215e bf3b
00000020: fb1f 94bd d439 343d 112f b93d 13bb a83c
00000030: e884 153c 41bf 08bd ccf4 473d 8235 ad3d
00000040: 8eaa 093c b917 c63c fcc1 d03d 29d7 033c
00000050: 4a5d 85bd 6d1b 09bd 97b7 b33d 22c9 ba3d
00000060: 8aa9 493d 3b1f c8bd 1c07 0d3e 7b4b 843d
00000070: 268a 57bd 5d1c 88bd c8de bdbd 8d99 94bc
00000080: ee31 0dbd 2e61 fabd 4579 1a3e 62a0 9ebd
00000090: 0963 d83c 93f9 2dbd 1be6 f83d a2b4 ed3d
000000a0: 3e40 453d 5e75 0f3e 0f14 f43d b527 f8bd
000000b0: daec 09bd 796f 09bd afd5 7ebd d17f f13d
000000c0: 7367 173d 9390 03bd 3c41 da3d 2903 f7bd
000000d0: 5eaf 063e 72fc aa3d 9663 c5bd 4912 96bd
000000e0: d402 c03d 5075 f4bd ce6a 033e 6938 023e
000000f0: f9bd b6ba 568d 11be c7de 013e 73bd 41bd
00000100: a11a b9bc 60b8 07bd 8c89 ad3d 3432 0ebd
00000110: 89b4 2dbc 422a 42bd b784 a3bc f088 8ebd
00000120: 9179 a13d 9cff a53d 5a67 e7bd 52cd 88bd
00000130: 05c6 f03d 6c8c 463c ddde d23d b216 da3c
00000140: 7e69 33bd 364a 95bc 2412 9dbd be85 873d
00000150: 281b 34bd 07f3 cbbd 9908 b43d 27fe 173e
00000160: a84c fcbd 9579 a739 c8fc b0bd 27fa e33d
00000170: 489f 823d 85e8 ccbd 5d14 143e fb78 1b3d
00000180: 8c41 f33d 9309 053e 2e5a 803c 4d2b b3bd
00000190: 2c86 153e 9526 aa3d ab1f 7e3d d92b 16bd
000001a0: 037b f1bd c941 05be 8f0d adbd 0c9a ca3c
000001b0: e56e 0abe 8cd3 07bd b35e dd3d 2e2b bcbd
000001c0: 6345 f7bd e2d1 7f3d a822 1bbe e17e 07be
000001d0: 6d71 de3d 5259 10bd 63ca 8a3c 385c c13c
000001e0: f914 6abd 314c 563d e4a8 943d 9c5f e5bc
000001f0: 80e4 c03d 5159 cd3d 8eb6 21be 6781 b63d
00000200: 7eec cb3d 9fd3 f73d 67a1 3e3d 8db3 0abe
00000210: 0a2a c1bd 3e1b 92bd f8f6 e13d 2eed 70bb
00000220: d387 83bd 17e7 9fbd 3993 bc3d 28fc 97bd
00000230: 21de 85bc 255b f3bc aef3 fc3d df40 b4bb
00000240: d559 e6bd 75e8 663d 69ae 94bd f10c 25bd
00000250: f4bb 61bc 4843 21be a154 0a3e 08e4 913d
00000260: ca90 933d 8028 903d b537 783d ba5f 77bd
00000270: 7b77 f23d f14e 9ebd e103 973d 7ac9 09bc
00000280: bf0c 683d 09c6 cb3d ab8f e6bd 5606 953d
00000290: 8b98 38bc a3d8 edbd a796 d7bd 932c 663d
000002a0: 6cbf f8bd 434e 833c c480 bb3d b7a3 a23d
000002b0: 9f75 d63d 80fe 173d 717f 01be b7e1 673c
000002c0: da10 973c 9e6c f23d 9801 0b3e ebd3 68bd
000002d0: 0822 ccbd 6293 033a ec49 8f3d 6d77 c53d
000002e0: 1d23 8a3c 9e58 7a3b a62a 47bd 0304 433d
000002f0: 94b7 cc3d 7694 133e 42f1 75bd cca7 9d3c
00000300: 0e0e a1bd 0550 99bb c85c 92bd 5690 60bd
00000310: 4d4e f2bd 7eb6 bc3b 32f3 65bd ee7b ef3d
-0.08784709 0.109986804 0.13397287 0.03529961 0.00076980935 0.15147814 0.052132227 0.0058400785
-0.07232662 0.04400046 0.0904218 0.020597016 0.009125926 -0.03338552 0.04881744 0.084574714
0.00840248 0.024181234 0.101932496 0.008046904 -0.06511934 -0.03347342 0.08775251 0.09120394
0.04923395 -0.09771582 0.13772243 0.06459709 -0.052621983 -0.06646035 -0.09271008 -0.018139625
-0.034471445 -0.12225567 0.15085323 -0.07745434 0.026414411 -0.04247434 0.12153264 0.116067186
0.04815697 0.14009616 0.119178884 -0.121169485 -0.033673145 -0.033553574 -0.062215503 0.11791957
0.03696389 -0.0321203 0.10656974 -0.120611496 0.13152835 0.08348931 -0.09638135 -0.07327706
0.093755394 -0.11936438 0.12833712 0.12716831 -0.0013942114 -0.14214072 0.12682639 -0.047299813
-0.022595705 -0.033134818 0.084735006 -0.034715846 -0.010602125 -0.04740358 -0.019960744 -0.069597125
0.07884515 0.08105394 -0.112990096 -0.06679787 0.11756519 0.01211844 0.10296414 0.02662215
-0.043801777 -0.018223863 -0.07669476 0.06617306 -0.04397121 -0.09958463 0.087907024 0.14843045
-0.123193085 0.00031943308 -0.08641964 0.11131697 0.06378037 -0.10005287 0.14460893 0.037957173
0.118777364 0.12991934 0.015668001 -0.08748493 0.14601964 0.0830814 0.06204192 -0.03666291
-0.11791041 -0.13013376 -0.08449852 0.024731658 -0.13518865 -0.03316073 0.10809078 -0.09187923
-0.12073781 0.06245602 -0.15149939 -0.13231994 0.10861478 -0.035241432 0.016942209 0.023603544
-0.057148907 0.052318756 0.07258776 -0.027999692 0.09418583 0.100268014 -0.15792295 0.089114
0.09957217 0.121009104 0.046540644 -0.13545056 -0.094318464 -0.07134102 0.11033434 -0.0036762464
-0.06422391 -0.07807749 0.09207768 -0.07421142 -0.01634127 -0.029706547 0.12351166 -0.0055008973
-0.11247603 0.056374032 -0.072598286 -0.040295545 -0.013777722 -0.15748322 0.13508846 0.07123572
0.07205351 0.07038975 0.0606 -0.060394026 0.11839195 -0.07729901 0.07373787 -0.008409852
0.05665278 0.099498816 -0.11257871 0.07276599 -0.011266838 -0.11613586 -0.105267815 0.056194853
-0.12145886 0.016028529 0.091554195 0.079413824 0.10471653 0.037107944 -0.12646271 0.014152936
0.018440653 0.11837123 0.13574827 -0.056842726 -0.099674284 0.0005019215 0.06996521 0.09641919
0.016862446 0.0038199793 -0.048624657 0.047611248 0.09995952 0.14412102 -0.060044535 0.01924505
-0.07864009 -0.0046787285 -0.07146603 -0.05482515 -0.11831341 0.0057590595 -0.056140132 0.116935596

lstm.weight_ih_l1 f4 [200, 50]
00000000: 1832 d2bd 2390 d5bd 7bf1 eb3d 4636 0fbe
00000010: ef9a 153d 2ee7 29bd 7321 183d e0a4 e13d
00000020: 0312 92bd e218 873d 3a94 fc3d 5f26 01be
00000030: b661 623d 2f13 463c 2d71 02be 3c36 c03d
00000040: 7fd4 76bc 94f5 e1bd 8477 3d3a bf7c 6c3c
00000050: 5889 36bd e784 a63d 8950 ab3d ed9e 8cbd
00000060: da00 c5bd 95c4 15bd 6e95 7dbc 1ded a23d
00000070: c6ba 16be f3b5 323b 43d8 0dbe e4a9 bd3d
00000080: 531e c03d bf81 db3c 13a7 473d 77e5 5a3d
00000090: 864c f6bc ca1e 22be c9b7 d93d 1f39 4abd
000000a0: 71b7 4b3d 592f 833c f89e 713a 99d4 1a3d
000000b0: 24a2 c0bc fac0 cabc b5ec 9a3d ad19 223d
000000c0: 3bc5 813d 6fe3 02be bb09 5cbd cca4 2a3d
000000d0: 23d3 ad3d d1d5 3fba def6 fe3d e860 793b
000000e0: e3b1 d33a 2d9f b63c c6cd 56bd aba0 9b3d
000000f0: 7ab7 80bc 5d60 133e eb5b 78ba 3bb6 d8bd
00000100: ee92 6bbd f88d bebc f47e 913c 5e00 3ebd
00000110: 6878 823d 1625 c6bb 4beb d8bd dc81 11be
00000120: 5df9 b4bd ce21 08be d57a 5abd b679 8a3d
00000130: 2004 44bc e04d 333d 87ce 983d df72 843d
00000140: 6672 93bd ccbd 173e 5ad1 6d3c 1525 12bd
00000150: 5b10 e33d 18c7 ab3d 0585 f4bd 8fd0 803c
00000160: 0f33 20be 5ffc 013e d787 5abc 51d7 45bd
00000170: 18f7 ce3d 9872 a53d 6bb4 223e 68c2 66bd
00000180: 4249 5c3d d7ee fe3d babb 133e b2af c0bd
00000190: 0338 e23d 84bd 9d39 0804 09bc 6854 e43d
000001a0: 90c6 023d 0f73 02be 8eb4 31bd 2398 803d
000001b0: b75a a83c 7852 933d f7ad afbd b4d0 f6bd
000001c0: fcc5 763d a0c7 453d e074 dd3d c82e e5bd
000001d0: 3b7d e1bd 359f 94bd 3ff4 133d efb3 053c
000001e0: 5f86 b3bd 4b9f cc3c 7724 853d 097a 1b3e
000001f0: 23f1 013c 1c04 4b3c 9539 bdbc 347f d93d
00000200: 16b7 c9bb 4bb1 eb3d 421e 18be 241d 7a3d
00000210: bf1d e4bd 19bd 093d 396b 9fbd 842d 34bd
00000220: 5b9a adbc 27f4 c5bc a362 39bc 9226 b9bd
00000230: e4be 19bd 6470 0bbe c0fa 80bc c935 573d
00000240: bd51 3f3d b536 1f3e ab8d 913d bc32 01be
00000250: db4f 08bd 6092 9ebd 54fe bcbd 66a7 843d
00000260: fbca e03b 4a82 dfbd 218a 273c d893 b13d
00000270: 8889 553d 16d7 6e3d 812a 08be d185 a93c
00000280: 106d ec3d d8f7 8dbd 6ee5 963d b941 d9ba
00000290: 51dc 5dbd 4ef6 0bbe 3046 d6bd 28fe b1bc
000002a0: 6e63 9ebd 0243 153d 388a bfbd d5d5 80bd
000002b0: 4adf f0bd 26e7 393d 4499 14bd a8d9 ecbd
000002c0: 03eb 18bb ffb7 e0bd 28b5 8cbd 5852 313d
000002d0: 3f25 11be 8c22 78bc f01d 8d3d c979 f4bd
000002e0: 3420 0c3e 0cd9 083a 9c68 b7bd 5cfc 93bc
000002f0: 12af 713d de54 1b3d e25c f23d de34 9dbd
00000300: 3b88 32bc 6824 f0bd cc8d 9cbd fe28 96bc
00000310: fd38 dbbd 741b b1bd 9204 febd dac2 a6bd
00000320: 19cc dcbd fbfb 903d cd9b b73d 4d71 5abd
00000330: 57e3 893d eaea 98bc 8f1a 05bd 5132 94bd
00000340: bf52 51bc 3fce 89bd 773e 323d c2c0 e53d
00000350: ef3e dfbd 3f13 16bd 0f4e 8e3a 0d8c 013e
00000360: 3a5d ca3d 915d 933d cfe0 083e bc09 103e
00000370: 620f 973d 99fd 0e3e b630 d33d 194d ddbd
00000380: 8160 91bc 185e b43d 3b70 be3c 1a02 793d
00000390: dd6c c3bd 8650 b53c b0ff c63d 2324 573d
000003a0: 965a ed3d 7b61 05bd b863 403d 3db6 2dbd
000003b0: 9109 d9b8 9476 15be 0392 dfbd fc71 34bd
000003c0: 5655 26bc 13cb 9cbd 054b aebc 5269 533c
000003d0: 9876 4cbd 8760 403d c017 a63d 09cc 97bd
000003e0: 0739 a1bc fdf1 22be b0f3 4d3d 44a9 2dbd
000003f0: 1559 49bd 2a39 da3d 3a98 06be 8c61 9e3d
-0.10263461 -0.104278825 0.11520668 -0.13985547 0.03652471 -0.041480236 0.037141275 0.110177755
-0.07132342 0.06596543 0.123329595 -0.12612294 0.055268966 0.012089535 -0.12738486 0.093853444
-0.015065311 -0.110331684 0.0007227587 0.014434039 -0.044564575 0.08130818 0.0836497 -0.0686625
-0.09619303 -0.03656443 -0.015477521 0.07955382 -0.14719686 0.0027269095 -0.13852029 0.0926092
0.09380784 0.026795266 0.04874332 0.05344149 -0.030065786 -0.15832058 0.10630757 -0.04937088
0.04973549 0.016013788 0.00092171086 0.037800405 -0.023514815 -0.024750222 0.075646795 0.039575268
0.06336447 -0.12782072 -0.053720217 0.04166107 0.08487537 -0.0007317933 0.1244943 0.0038052145
0.0016151037 0.022292698 -0.052442335 0.07599004 -0.015712488 0.14392228 -0.0009474146 -0.10581633
-0.05751317 -0.023261055 0.017760731 -0.04638707 0.06370622 -0.0060469015 -0.105917536 -0.14209694
-0.08836625 -0.13294145 -0.053339798 0.06761496 -0.011963874 0.04377544 0.07461267 0.064672224
-0.07199554 0.14818496 0.014515245 -0.035679895 0.11087104 0.083875835 -0.11939434 0.015724448
-0.15644477 0.12693928 -0.013338051 -0.048301045 0.10105723 0.08078498 0.15889136 -0.056337744
0.0537808 0.12447899 0.14427081 -0.09408511 0.1104584 0.00030086574 -0.0083627775 0.11148912
0.031927645 -0.12739204 -0.04338508 0.06279018 0.020551069 0.07193464 -0.08578103 -0.12051526
0.060247406 0.04828608 0.10813308 -0.111905634 -0.11010214 -0.07256929 0.036121603 0.008160575
-0.087658636 0.0249783 0.06501096 0.15183271 0.007931027 0.0123911165 -0.023098746 0.10619965
-0.0061558587 0.11508425 -0.14855292 0.061062947 -0.11138486 0.033627603 -0.07784123 -0.04398872
-0.021191766 -0.024164272 -0.011315021 -0.0904056 -0.037535563 -0.13617092 -0.015744567 0.052541528
0.04670881 0.15548213 0.07107099 -0.1261701 -0.03327928 -0.077427626 -0.09228197 0.06477241
0.0068601347 -0.109135225 0.010225804 0.08670777 0.052133113 0.05831059 -0.13297464 0.020693691
0.115442395 -0.06932038 0.07367979 -0.0016575373 -0.05416519 -0.13668177 -0.10462606 -0.021727636
-0.077338085 0.036440857 -0.09352535 -0.06290785 -0.11761339 0.045386456 -0.036278978 -0.11564952
-0.0023333437 -0.109725945 -0.0687049 0.04329142 -0.14174365 -0.015144955 0.06890476 -0.11937291
0.1368416 0.0005220331 -0.089554995 -0.01806467 0.05900485 0.037922733 0.11834122 -0.07676099
-0.010896738 -0.11725694 -0.07644233 -0.018330093 -0.10704229 -0.086478144 -0.124032155 -0.08142634
-0.10781116 0.070793115 0.089652635 -0.05333071 0.06732815 -0.018666703 -0.03249603 -0.072361596
-0.012776076 -0.067287914 0.043516602 0.11218406 -0.109006755 -0.03663945 0.0010857004 0.12651081
0.09881063 0.07195581 0.13367008 0.14066213 0.07375981 0.13963927 0.10312025 -0.10805721
-0.017746212 0.088070095 0.023246875 0.06079302 -0.095422484 0.022133123 0.09716737 0.052524697
0.115895435 -0.032563668 0.0469701 -0.042410124 -0.00010349148 -0.14596015 -0.109165214 -0.044054016
-0.010152182 -0.07655921 -0.021276006 0.012903528 -0.049917787 0.046967056 0.08109999 -0.074119635
-0.019680513 -0.15912624 0.050281227 -0.042397752 -0.04915722 0.106554344 -0.13144007 0.07733449

lstm.weight_hh_l1 f4 [200, 50]
00000000: 378a cdbd f721 07be 76c2 773d 6ab3 ab3d
00000010: f0f5 bb3d b319 f53d 3b83 0b3d c75b 293d
00000020: 33fc 6abd 2767 683d 76b4 a3bd 6299 d9bd
00000030: 3888 f83d 86db d93d 4ee4 f9bd 23b4 ad3d
00000040: 29b7 693d 96d0 5fbc 852f 19be c97e a73d
00000050: ec38 af3d 59cd f1bd 8755 19bd 91a3 42bb
00000060: 6bc3 d0bd 49e8 1c3d e7c7 c73d 048c ffbd
00000070: 4d96 4dbc e986 b83d 6bb2 fe3c ec2d 103e
00000080: 97c1 95bd 712f 10be 2d0f ed3d a812 ef3d
00000090: 1bbc 4ebd 7217 9e3c 127d 9a3d 1d97 5e3c
000000a0: b283 a33d 95e9 c2bc 66cf dfbb e193 e43d
000000b0: e69a 9d3d feee 68bd 8e38 353d 2b01 eebd
000000c0: c04c f9bd 0ad6 1dbd c835 b9bd 6b4b 593d
000000d0: e81d 77bb 0e47 f4bd 8fce 01be 2eea b03c
000000e0: 7c45 043d ca7c 79bd 2865 9cbd e9ce 97bc
000000f0: 1e88 35bd e13f fe3d 3f76 953d 69b0 f33d
00000100: 4d7f 07be de23 6c3d e2ba d4bd aeb8 54bc
00000110: 3033 84bd b93f 7d3d 383c f2bd be09 cc3d
00000120: 81db a33d 1103 c93d 36e6 afbd c0cb abbd
00000130: 03e3 f9bc ca23 3a3d ca07 fbbd 0304 113e
00000140: 24f1 12bd c7b0 d2bd 2917 e5bc 3fb6 76bd
00000150: 1da5 ee3d 037e 243d c305 993d 38ad be3d
00000160: dbd1 fd3d f72a 613d caec e43d 58d9 e63d
00000170: c124 c33c c00e d13d 3cea 4fbd 4ca9 9abd
00000180: 91f3 5d3d cd06 a5bd aa5f 85bd 3171 a8bc
00000190: c51e 79bd 7357 b33c 9368 f3bd 4163 0b3e
000001a0: 57e0 b0bd 6fc0 7dbd 7375 5bbd 37d1 063d
000001b0: 2e94 1dbe 0997 043e a73a 0cbe 7352 8fbd
000001c0: 1eae 1bbe 64c3 41bc 098c b43c 4038 e73d
000001d0: 16cc 91bd 52d9 623d 9325 d3bc 048f c03d
000001e0: 56f0 ca3d f45e 4d3d c8f0 0fbc 029e 98bd
000001f0: c260 3ebc 017d 213a 5b1e acbd fc9f e9bd
00000200: b9fd 95bd efa0 dd3d 4927 49bc 3a7c ec3d
00000210: e1b8 493d 3a77 89bd dd19 dabd 108c 21bd
00000220: 1311 82bd cc25 18bd c288 563d f14a bfbd
00000230: e5ec 133e 82a6 e3bc 6841 7a3c 1eb5 113e
00000240: dff6 353d 3014 8b3d 7ce2 6abd 1cf5 bebd
00000250: d477 76bd 5f8a d43d 59af 1ebc b5bc a53c
00000260: 4224 d0bd 1224 bb3d 9e4d 27bb 5b0b 173d
00000270: d700 c2bd 61a7 623c 8220 21be a454 163e
00000280: 55b0 fdbd 394e 993d 08b7 c4bd 6762 fbbd
00000290: 1763 e23d ea90 32bd b393 94bd cd5d 89bd
000002a0: dd50 12be b32f 723d ceed b9bd 3f00 fbbd
000002b0: f58c 643d 0513 df3d 6f1f 03bd 76f8 c0bb
000002c0: bd91 19bd 3c6e 133e 23c3 3ebd 287f 09be
000002d0: 6a2b c9bc 8dea 8e3d 6685 db3d 4313 a0bb
000002e0: bcbc 6dbc f91e e73d 2e4f 323d 750b 493c
000002f0: 3853 01be d104 f6bd 0f39 cfbd 5975 c5bd
00000300: 4cc0 0b3b 6fa3 193e c58f ab3c 50ad f13d
00000310: 60d1 183d 267d 7e3c 9ac7 ac3c 99b6 783d
00000320: 7218 b23d a495 3cbd 4468 963d ec9a bdbd
00000330: 0553 32bd dec2 4e3d 7eb0 ba3d cf7b d8bc
00000340: d4eb a2bd de18 bf3c db73 c33d e0ce 03be
00000350: c788 f0bc e63a 35bd 3e35 a13d a58a f23c
00000360: 442b 85bd 5d59 f53d 0e4d 90bd 545e 8bbd
00000370: 0c85 85bd 637f a0bd 4466 babd a7dd 013e
00000380: 1045 8ebc ed5e d33d dc2c 2dbd ed18 ac3d
00000390: 4a97 c2bd cf6d 1dbe ca61 c9bd c981 cd3d
000003a0: 08ee 8abd 7820 8b3d c37b c1bc 5fe5 a8bd
000003b0: 7397 bdbd c633 673d 287b 8dbd 07e5 febc
000003c0: 25d9 f0bb 62f2 883d 13dc b0bd b01c bebc
000003d0: 1768 7f3c 243d ccbd 8dab 883d ec19 b5bc
000003e0: 73a2 dcbd d338 b73d b025 c7bd 2bb1 12be
000003f0: 651d ad3d 8612 fc3d 92e4 423d 1496 8cba
-0.10036128 -0.1319655 0.060488187 0.0838383 0.09177768 0.11967792 0.034060698 0.04134729
-0.057369422 0.056739 -0.079934046 -0.106249586 0.12135357 0.10637574 -0.12201749 0.08481624
0.05705944 -0.013660571 -0.14959534 0.08178479 0.08555779 -0.11806745 -0.03743508 -0.0029699544
-0.10193523 0.038307462 0.09754925 -0.12477878 -0.0125480415 0.09010107 0.031090936 0.14080018
-0.07312315 -0.14080597 0.1157516 0.1167348 -0.05047236 0.019298289 0.075433865 0.013585833
0.07984103 -0.023793021 -0.0068301437 0.11161018 0.0769556 -0.056868546 0.044243388 -0.116213165
-0.12172842 -0.0385342 -0.09043461 0.05305044 -0.0037707034 -0.11927615 -0.12676452 0.02159604
0.032292828 -0.060910024 -0.076364815 -0.01853128 -0.044319265 0.12414528 0.07297944 0.11898882
-0.13232155 0.057651393 -0.103872076 -0.012983484 -0.06455076 0.06182835 -0.11827892 0.09962796
0.080008514 0.09815038 -0.08588831 -0.083884716 -0.030503755 0.045444287 -0.12257345 0.14161687
-0.0358745 -0.10287624 -0.027965145 -0.060232397 0.116525866 0.040159237 0.07471802 0.093103826
0.123935424 0.054972615 0.111779764 0.11271924 0.023821237 0.102078915 -0.050760493 -0.07551822
0.05418736 -0.08057938 -0.06512387 -0.020561786 -0.06082036 0.021892285 -0.1188518 0.13612081
-0.086365394 -0.061951097 -0.053578805 0.032914367 -0.15388557 0.1294824 -0.13694249 -0.06998148
-0.15203139 -0.01182637 0.02203943 0.11290026 -0.071190044 0.055383034 -0.025774753 0.09402278
0.09909122 0.050139382 -0.008785434 -0.074520126 -0.011619749 0.00061602896 -0.08404227 -0.11407468
-0.073237844 0.10821711 -0.012277433 0.11547132 0.04924858 -0.06712194 -0.10649464 -0.039440215
-0.06350913 -0.03714542 0.052376516 -0.09340466 0.14445837 -0.027789358 0.015274383 0.14229247
0.044424888 0.0679096 -0.0573449 -0.09324095 -0.06017287 0.10377955 -0.009685361 0.020231584
-0.10163166 0.09137739 -0.0025528441 0.036876064 -0.094728164 0.013833852 -0.15735057 0.14680725
-0.12387148 0.07485623 -0.09605223 -0.12274628 0.11054056 -0.043595232 -0.07254734 -0.06707344
-0.1428866 0.05912752 -0.09078561 -0.12255906 0.05579849 0.108922996 -0.0320124 -0.005888994
-0.037492502 0.1439752 -0.046572816 -0.13427413 -0.024556834 0.06978331 0.10718803 -0.0048851087
-0.01451033 0.112852044 0.043532543 0.012270798 -0.12629402 -0.120126374 -0.10118305 -0.09641523
0.0021324335 0.15003751 0.020942578 0.11800635 0.03730905 0.015532767 0.021091271 0.060721014
0.08696069 -0.046041146 0.07344106 -0.09258065 -0.043536205 0.05047881 0.091156945 -0.026426224
-0.07955137 0.023327287 0.09543582 -0.12871885 -0.029362096 -0.044245623 0.07871483 0.029607126
-0.06502393 0.11979935 -0.07045947 -0.06805101 -0.06519517 -0.07836797 -0.09101537 0.1268221
-0.017366916 0.1032084 -0.04227911 0.08403192 -0.09501512 -0.1537392 -0.09833105 0.1003452
-0.06783682 0.06793302 -0.023618584 -0.08246874 -0.09257402 0.05644586 -0.06908256 -0.031115068
-0.0073501044 0.06686856 -0.08635726 -0.023207039 0.015588782 -0.09972599 0.06673346 -0.022107087
-0.10773172 0.08946385 -0.09723985 -0.14325397 0.08452872 0.123082206 0.047581263 -0.0010725879

lstm.bias_ih_l1 f4 [200]
00000000: c7b7 b3bd 2d3f 1fbe 3c58 b93a 43a0 f53d
00000010: d7f5 4bbc d23e 393d 78ba 15bd 5b44 2cbc
00000020: 0bed adbc 265f 1d3e f8ed 213e a715 cf3c
00000030: 51d3 99bc 6291 5dbd 9c9c 843c abae 7cbd
00000040: 6d3a c2bd c4dc 6ebc 11a5 6f3d 5e4c 93bd
00000050: 9ec5 613d 921f b63d f7c9 dabd ea99 7c3d
00000060: 6434 893d 3437 4abd 133a 82bc e246 74bd
00000070: fcf8 77bd a368 7cbc 3276 023e babe e8bb
00000080: 60be b0bc ce1c 4ebd c3b3 61bd 94c6 403c
00000090: 5dc9 d5bd c22e e13d 53f2 bd3d bf20 a63d
000000a0: e80d 56bd e531 0a3e fe56 fb3c 37bb b43b
000000b0: 17f7 e4bd 522f bd3d 288e 993d 0ea9 c93d
000000c0: fad5 113d fe6a 03be 7cf2 70bc 28ab be3d
000000d0: 2b77 22b9 33bd 7cbc 2c3c 4a3d 8372 d0bb
000000e0: b665 d63b d1f9 d4bc e02d ea3d 23e0 5c3d
000000f0: 443c ad3d 28bc e33c c817 e3bd 65b9 0f3e
00000100: 34c8 08be e146 0a3e d572 ae3d 44de cd3c
00000110: 80ef 893d 8161 653d 65cd afbd 543f c73d
00000120: d780 363c 2e55 db3d 8ed4 51bc abde 613c
00000130: 00e8 97bc b161 f43d 33b5 fb3d b091 c6bd
00000140: 82e2 8f3d 1177 aebd 679d 823d 1439 063e
00000150: bdb3 6fbd 72a9 023e 9bbe cb3d 47ab 39bd
00000160: a74e 623b ebe3 0a3e 6acc 72bc 40d4 983d
00000170: f392 bf3d 804e 753d a140 babc 229e e8bd
00000180: aeec 20bd ecef 90bd b705 3d3d 23d0 163d
00000190: d5c6 113e a884 b9bd e671 a6bd 7e57 833d
000001a0: b0c6 6f3d 1e06 673c 47fa 113c a649 163c
000001b0: f602 cd3d b715 1f3e ca0b f6bc 2e32 0ebc
000001c0: d4b3 72bc eb42 e8bd 3bf0 9f3c 2156 5cbc
000001d0: fa84 50bc ec07 0ebd 6019 18be 20c1 ac3c
000001e0: c700 8d3d 6048 60bd b524 87bd eb36 ebbc
000001f0: e94a 66bd f747 ea3d cc40 25bd d114 dbbc
00000200: d0fd d0bd e22a 78bd eabc 4f3c a4e6 893b
00000210: a3a4 713d 5b98 8f3d 64d8 153d fa0b 34bd
00000220: 1965 1f3e ed37 e3ba 4146 d2bd 3623 d4bc
00000230: 073b 0bbd 3115 803c d33b 923d 2d8a 843d
00000240: 0963 f7bc 860f 7dbd d384 52bd a52b a9bd
00000250: 64d9 3bbd 222d b0bd b951 d33d e1c1 3a3c
00000260: 64fc 423d c9e2 0d3e 731e 623d 32a7 52bd
00000270: 6c2b 333b 9482 a03d 53e4 473c 38ed 9ebc
00000280: d0b0 53bc b873 913c 7a9c a4bd 72a7 8b3b
00000290: c856 87bd 4fe5 0f3d 9412 603d e776 fbbc
000002a0: 791d 5b3d c489 823d b5ae 2dbd d9bc 0d3e
000002b0: b767 193d cf29 adbd 6858 80bd 556b 873d
000002c0: 42ff d3bc e627 f1bc 6111 443d 1feb 7cbb
000002d0: be4e 1b3e 7beb cb3d 247d afbd d804 1b3e
000002e0: 1dac 20bd e910 bb3d 9ddb d03d efcf ab3d
000002f0: aa93 8ebd ab81 1cbd 261c d93d fdb9 8fbd
00000300: 8224 4ebd 2c1d 823d 7fe8 f43c 84fd b73c
00000310: c220 f3bb e223 023c c549 88bd 1dd2 be3d
-0.08775287 -0.15551443 0.0014140676 0.11993458 -0.0124487495 0.045225926 -0.036554784 -0.010514344
-0.021231195 0.15368327 0.15813434 0.02527888 -0.018777521 -0.054093726 0.016187958 -0.061690014
-0.094838 -0.014579002 0.05850703 -0.071923 0.055120103 0.0889274 -0.10683053 0.06167022
0.06699446 -0.049369052 -0.015896833 -0.05963791 -0.060540184 -0.015405807 0.127404 -0.0071028145
-0.021575153 -0.05032044 -0.055103075 0.011766095 -0.104387976 0.109952465 0.09274735 0.081117146
-0.052259356 0.13495596 0.03068113 0.005515482 -0.11179941 0.09237541 0.07497817 0.09846698
0.035604455 -0.12833783 -0.01470625 0.09309989 -0.00015493917 -0.015425968 0.04937379 -0.006361307
0.0065428866 -0.025998028 0.11434531 0.05392469 0.084587604 0.02779968 -0.1108852 0.14035566
-0.13357621 0.135036 0.08517996 0.025130399 0.06735134 0.05600119 -0.08584098 0.09728876
0.011139116 0.10709606 -0.012807025 0.013785998 -0.018543243 0.11932696 0.122904204 -0.096957564
0.07025625 -0.08518804 0.06377678 0.13107711 -0.05852102 0.12759951 0.099484645 -0.04532936
0.0034531744 0.13563506 -0.014819244 0.074623585 0.093542 0.059889317 -0.022735896 -0.113582864
-0.039288215 -0.070770115 0.04614803 0.03681959 0.14236005 -0.09058505 -0.08127193 0.06413172
0.058539093 0.01410058 0.008909768 0.009172833 0.100103304 0.15535627 -0.030034918 -0.008678956
-0.014813382 -0.113408886 0.01952373 -0.013448269 -0.012727017 -0.034675524 -0.1485343 0.021088183
0.06884914 -0.054756522 -0.06598798 -0.02871271 -0.056223784 0.114395075 -0.040345 -0.026743324
-0.10204661 -0.06058777 0.012679318 0.0042084027 0.0589949 0.070114814 0.03658332 -0.043956734
0.1556591 -0.0017335393 -0.10267306 -0.025895696 -0.03399184 0.015635105 0.07140317 0.064716674
-0.03019859 -0.061782382 -0.051396202 -0.08260278 -0.045861617 -0.086023584 0.10318322 0.011398763
0.04760398 0.13856043 0.05520482 -0.05142898 0.0027339114 0.07837406 0.012200433 -0.019400224
-0.012920573 0.017755374 -0.08037658 0.0042619044 -0.06608349 0.035130795 0.054705217 -0.030696345
0.053494904 0.06373933 -0.04240294 0.13841571 0.037452426 -0.0845524 -0.06266862 0.06612269
-0.025878552 -0.02943797 0.047868136 -0.0038592292 0.15166757 0.09957024 -0.085687906 0.15138566
-0.03922664 0.09134085 0.10198138 0.083892696 -0.069617584 -0.0382096 0.10601072 -0.07017896
-0.050327785 0.0635322 0.029896019 0.022459753 -0.0074196765 0.007943125 -0.066546954 0.0931742

lstm.bias_hh_l1 f4 [200]
00000000: 1e72 d43c 03c4 09be 0615 dfbd 6c23 123e
00000010: cb5f 573d 8b2d 9fbd 7612 f2bd 47d8 993d
00000020: 9725 bf3d 6d2d 84bc a7cc ccbd 8e53 f23d
00000030: a8cd b1bd 5674 083e d5cd 9ebd 9162 cd3d
00000040: 2c71 ed3d 2938 c33b deff 3abd d9de cebd
00000050: 1e5b a1bd 1273 083e da4c 663c a2e8 cfbd
00000060: 8798 b43d 248a 2bbd 4bdf e1bc 62c9 8cbd
00000070: 782b d33d ee09 0cbe 12af ed3d f9cc 0abe
00000080: 6ec9 153e 2651 36bc 5485 443d e1db 9abd
00000090: e00c 34bd a076 483d 32ec 7e3c e307 c7bd
000000a0: 49d1 733d dafd 393d 3655 593d ccbe 5abd
000000b0: a10d 923d 4495 413d 71be 89bd ca2a d53d
000000c0: 802f 233b 5bd5 7f3c ff11 b3bc b00a 02bd
000000d0: 0186 a0bd 793e 9a3d d187 b3bd 826a a43d
000000e0: 863d 973d 20a2 9bbd 7431 c23d 953b 5cbd
000000f0: b432 ab3d 9d9d bb3d 9d49 11bd 1235 efbd
00000100: a831 ff3d 55fe 453c 562d 623b 1b92 b2bd
00000110: 6b4b 86bd 79f3 b43d c989 973c 81cb a83d
00000120: 507a 023e d79f 03be d704 1dbe 964f c7bd
00000130: 79fb 353d 47fe ebbd 0874 89bd fe34 bebd
00000140: 0646 193e 2823 11bd 5980 543d 4c48 113e
00000150: e918 d13d a906 32bd ea45 8abd 4cd9 373d
00000160: e031 b0bd b9eb 853d 59bf f2bd 0ea0 81bd
00000170: b30f 03be fe8c 213d 9ca4 87bd 4b39 7bbd
00000180: cc3d b6bd 4ff3 b73c 83bd 513d 4973 a63d
00000190: 52ed 5e3d 8eb0 04bd b0c4 05be fd24 103e
000001a0: bf0e b0bc 9111 9bbd 0aac a2bc 1dd8 e13d
000001b0: bec1 20be 46a8 ed3d 5bfc 7cbd a65e 93bc
000001c0: 25ba 11be 9d7d 043e 8833 223d f635 9a3d
000001d0: 487c ac3b d487 f23d fde0 7ebd 4165 bf3d
000001e0: b9f6 1b3e 322e 0dbe f6ab b63c c9d0 ad3d
000001f0: 97de afbd 44c3 513d cc28 d4bd 7f13 d0bc
00000200: 3aae 6bbc 451e d3bd 0a6e afbd 1783 e93d
00000210: 08a4 923d 2cd4 babd 3cba db3d 648d 07be
00000220: 504d 0a3d 3c03 b23d fcfa 80bd 95b5 9fbd
00000230: 3f32 263d de5a 033d f438 a7bd aa85 62bd
00000240: b694 0bbd 852a 90bd 026d 9d3d 8199 1abe
00000250: 2e32 65bd 457e b2bd bee9 b33d e324 f3bd
00000260: aa25 90bc 34cd 623d 789d 43bd c026 cabd
00000270: d39f 893d 7eb4 143e c1e4 f8bd 9781 243e
00000280: 6832 cfbd 53ea 033e d694 b8bd 3345 b73d
00000290: 35ec 4e3c c196 c13d 6c52 283d 318c b63c
000002a0: b3a8 d63d a15c 1d3c 83e0 0f3e e51a db3d
000002b0: 095c 043d 772f babc edf6 6dbd e683 9fbd
000002c0: c83d 0f3e 24b7 d13d e712 bcbd 7a66 80bd
000002d0: 69cb 133e f525 1cbd 32d9 b13d a3cf efbd
000002e0: 8123 4fbd 6c0f 173e c3eb 133e 0240 febc
000002f0: f6f4 05be b040 b23d 7f1f fdbc c43b 0f3e
00000300: e7bf ddbd edf8 84bd 85f5 1dbc cecd c5bd
00000310: 6c86 fb3d a1c7 cd3d 5a46 a93d bad4 a7bc
0.025933322 -0.13453679 -0.10892682 0.14271325 0.05258159 -0.077723585 -0.118199274 0.07511955
0.093333416 -0.016134942 -0.09999972 0.11832343 -0.08681804 0.13325629 -0.07754103 0.10028566
0.115938514 0.0059576225 -0.04565417 -0.101010986 -0.07878707 0.13325146 0.014056409 -0.10151793
0.08818155 -0.041879788 -0.027572295 -0.06874348 0.103110254 -0.13675663 0.11605658 -0.13554753
0.1462762 -0.011127746 0.047978714 -0.0756147 -0.04395759 0.048941255 0.015559243 -0.09718301
0.05952576 0.045408107 0.05305978 -0.053404614 0.07131506 0.04726149 -0.06725777 0.10408552
0.0024900138 0.015614833 -0.021859167 -0.031748474 -0.07838059 0.07531447 -0.08766139 0.08028127
0.073847815 -0.07599282 0.09482089 -0.05376776 0.0835928 0.09160922 -0.035470594 -0.11680044
0.12460643 0.012084563 0.0034511886 -0.08719274 -0.065573536 0.08835501 0.018498318 0.0824194
0.12741971 -0.12853943 -0.15333878 -0.09731977 0.044429276 -0.11523109 -0.06711584 -0.09287451
0.14968118 -0.03543392 0.051880214 0.14187735 0.10209829 -0.043463383 -0.06751616 0.044884965
-0.08603263 0.06539101 -0.11852903 -0.06329356 -0.12798958 0.0394411 -0.066231936 -0.061333936
-0.088985056 0.022454886 0.051206123 0.08127458 0.054425545 -0.03239494 -0.13063312 0.1407661
-0.021491406 -0.0757171 -0.019857425 0.110275485 -0.15698907 0.11604361 -0.061764102 -0.017989468
-0.14231165 0.12938543 0.039599925 0.075298235 0.005263839 0.118423134 -0.062226284 0.093454845
0.15230836 -0.13787153 0.022298794 0.08487088 -0.085873775 0.05121161 -0.10359344 -0.025399921
-0.014384801 -0.10308508 -0.0856591 0.114019565 0.07160193 -0.091225 0.10728881 -0.1323753
0.033765137 0.08692023 -0.062978715 -0.07798306 0.040575262 0.03206908 -0.0816516 -0.055303253
-0.03407737 -0.0703936 0.07686807 -0.1509762 -0.05595606 -0.0871549 0.08784817 -0.1187227
-0.017596085 0.05537148 -0.047757596 -0.09870672 0.06719937 0.14521977 -0.12153006 0.1606506
-0.10117036 0.12882356 -0.09012763 0.089487456 0.012629558 0.09452582 0.04109423 0.022283645
0.104813956 0.009604604 0.14050488 0.10698489 0.032314334 -0.022727711 -0.058096815 -0.077888295
0.13988411 0.102400094 -0.09183293 -0.06269546 0.14433064 -0.038122136 0.08684005 -0.117095254
-0.05057097 0.14751977 0.14445405 -0.03103638 -0.13081726 0.087037444 -0.030898808 0.13987643
-0.10827618 -0.06492791 -0.009641056 -0.09658395 0.12281498 0.10047842 0.082653716 -0.020487178

fc.weight f4 [1, 50]
00000000: 7e0c 093e fc5e 5f3d 6f13 9fbd 2df7 c03d
00000010: 9f96 653d 0936 85bd 0541 72bd 3205 223e
00000020: 7b15 ebbd b995 0b3c 684e 8abc 1346 cb3d
00000030: 8c7c 0e3d c139 bf3c 578c edbd 4783 853b
00000040: a08b abbd b19d 44bd 4572 66bc b341 91bd
00000050: 00a9 e93d fb58 1f3c df46 d4bc 96dd 06be
00000060: 9590 443d d431 ad3d 46d4 11be 2dda 3e3d
00000070: 4b93 b53d 2b20 babb 3e56 e0bd 8ae0 adbd
00000080: d68e 063c 4ba2 9bbd e6d0 d5bd 2b79 58bd
00000090: d13f 233e 20b7 fe3d 2cab e33d 07d3 37bd
000000a0: 567a ff3d 84e1 10be 4a70 09be 937b 243e
000000b0: edf7 e13d ca28 b8bd e319 a7bd b85a e0bd
000000c0: 0111 7d3c 2212 dd3d
0.13383672 0.054533944 -0.077673785 0.09422145 0.056051847 -0.06504447 -0.05914404 0.15822294
-0.114787064 0.008519583 -0.01688309 0.09925475 0.034786746 0.023342969 -0.11599033 0.0040744874
-0.08376241 -0.04800195 -0.01406533 -0.07092609 0.11409187 0.009725804 -0.0259127 -0.13170466
0.047989447 0.084567696 -0.14241132 0.046594787 0.088659845 -0.0056801043 -0.109539494 -0.08490093
0.008212766 -0.07599314 -0.10440235 -0.05284993 0.15942313 0.12437272 0.11116633 -0.044878986
0.124745056 -0.14148527 -0.13421741 0.16062765 0.11033616 -0.08992155 -0.081592344 -0.10954803
0.015445949 0.10794474
