models/XRP_USDT_model.pt (torch, 128181 bytes, 9 tensors)

lstm.weight_ih_l0 f4 [200, 1]
0	0x3dd83b89	0.105582304
1	0xbd86d74a	-0.06584032
2	0x3c3a662f	0.0113769015
3	0x3d163853	0.03667481
4	0xbd2fcd76	-0.042920552
5	0xbd7ccd0b	-0.06171898
6	0x3d8913e0	0.06693244
7	0x3e11128b	0.1416723
8	0x3de49dc5	0.11162905
9	0x3dee16c4	0.11625436
10	0x3df355a7	0.11881571
11	0x3df52183	0.119692825
12	0xbd85a50c	-0.06525621
13	0x3daaaa26	0.083332345
14	0x3de4b3e1	0.11167122
15	0x3d9b7f37	0.07592624
16	0xbde36b94	-0.11104503
17	0x3c33478a	0.010942349
18	0xbde69029	-0.11257965
19	0xbdafbe0e	-0.08581172
20	0xbd2c940d	-0.04213338
21	0x3c12443e	0.008927403
22	0x3dac1708	0.0840283
23	0xbabd9886	-0.0014465011
24	0xbce1ea99	-0.027577685
25	0xbdce1a12	-0.10063566
26	0xbd9240af	-0.07141244
27	0x3da2748b	0.07932385
28	0x3d505c4b	0.050869267
29	0xbc7cfd54	-0.0154412575
30	0x3dec2642	0.115307346
31	0x3e0bbfa1	0.1364732
32	0x3d5f6a47	0.054544713
33	0x3dbd580f	0.092453115
34	0xbdbbbcad	-0.091668464
35	0x3d0f225e	0.034944884
36	0xbc95bd75	-0.018278817
37	0xbdaf1d14	-0.08550468
38	0x3dfd5b74	0.12370959
39	0x3df81e5e	0.12115167
40	0x3cb34fbd	0.021888608
41	0x3df35b17	0.118826084
42	0x3d0c5d9a	0.034268953
43	0x3e1ed17c	0.155096
44	0xbdcfc1ee	-0.10144411
45	0xbca8c042	-0.020599488
46	0xbd5afb89	-0.05346254
47	0x3d5c4042	0.05377222
48	0xbde8e610	-0.11372006
49	0x3ddc628c	0.10760984
50	0xbd605943	-0.054772627
51	0xbde27e36	-0.11059229
52	0xbd84401c	-0.064575404
53	0xbde13d2c	-0.10997996
54	0xbd6dfe24	-0.058103696
55	0x3d1fa0b8	0.038971633
56	0x3dcdbdf2	0.10045995
57	0xbde2b164	-0.11068991
58	0x3ddfaced	0.10921655
59	0xbdd005f7	-0.10157388
60	0x3dc448ca	0.09584196
61	0x3d70f157	0.05882391
62	0x3d2e34d9	0.04253087
63	0xbd6f5117	-0.058426943
64	0x3ddcd3f2	0.10782613
65	0xbded515a	-0.11587782
66	0x3dadb72f	0.08482205
67	0xbd7100fc	-0.05883883
68	0xbbde2c15	-0.0067801573
69	0xbdafc2e4	-0.08582094
70	0x3d957d16	0.07299249
71	0x3d1c58aa	0.038170494
72	0x3e04a015	0.12951691
73	0x3e0b64a8	0.13612616
74	0x3c8e9aec	0.017407857
75	0xbc69e704	-0.01427627
76	0x39407b9e	0.00018356598
77	0xbdaf6c7e	-0.08565615
78	0x3db36a01	0.08760453
79	0xbdc84e3a	-0.097805455
80	0xb990173b	-0.00027483128
81	0xbd6f8ddb	-0.058484893
82	0xbde358bb	-0.11100908
83	0xbdd92463	-0.10602643
84	0x3daaf6f7	0.08347886
85	0x3dc6a821	0.09700037
86	0x3dcd30a9	0.10019047
87	0x3da3cfc4	0.079986125
88	0xbe02a15e	-0.12756869
89	0xbce33116	-0.027733367
90	0x3d2018b1	0.039086048
91	0x3de8a2f3	0.11359205
92	0x3d9af7b7	0.07566779
93	0x3be773e7	0.007063377
94	0xbc8bbb68	-0.017057136
95	0x3db15290	0.08658326
96	0xbdefdebc	-0.11712405
97	0xbd3b9edf	-0.04580581
98	0x3dd260ff	0.10272407
99	0xbd98f3b1	-0.074683554
100	0x3c81e610	0.015856773
101	0xbdb904fe	-0.09034155
102	0x3df52e84	0.11971763
103	0x3dd94dc4	0.10610536
104	0xbda995aa	-0.08280499
105	0xbd2f94f4	-0.042866662
106	0xbcd366b6	-0.025805812
107	0xbde7ad43	-0.11312344
108	0xbdc4bf38	-0.096067846
109	0x3dd5167c	0.10404679
110	0x3d8eec2b	0.06978639
111	0xbdb260aa	-0.087098435
112	0xbdd52d00	-0.10408974
113	0xbd877859	-0.06614751
114	0xbdfa7f14	-0.122312695
115	0x3e0a12be	0.13483712
116	0xbdee206c	-0.11627278
117	0x3dbe9099	0.093049236
118	0x3de43532	0.11142959
119	0x3d155ef4	0.036467507
120	0x3d0d15f1	0.034444753
121	0x3b0b74c3	0.0021279312
122	0xbd20f953	-0.039300274
123	0x3dacbf43	0.08434918
124	0xbd9ece10	-0.07754147
125	0xbdaa2958	-0.08308667
126	0xbd76150a	-0.06007866
127	0x3df235b5	0.1182665
128	0xbe13c842	-0.14431861
129	0x3de57ee0	0.1120584
130	0xbdf40aa7	-0.11916094
131	0xbd2c5d27	-0.042081024
132	0xbe091286	-0.13385972
133	0x3d34a82f	0.044105705
134	0xbdac6325	-0.08417348
135	0x3c4b2bf1	0.012400613
136	0x3da55ad0	0.08073962
137	0xbdfa9dab	-0.12237104
138	0x3e025929	0.12729324
139	0x3cc8aa11	0.024495156
140	0x3db1453f	0.08655786
141	0xbd7aa82c	-0.061195537
142	0x3d7f6f32	0.062361903
143	0x3e063466	0.13105926
144	0xbb0e9ce2	-0.002176099
145	0x3c5176a4	0.012784634
146	0x3dad41dd	0.08459828
147	0xbde8e873	-0.11372461
148	0x3dc4c30e	0.09607516
149	0x3dc3013d	0.095217206
150	0x3da365cf	0.07978403
151	0xbdeaaf1d	-0.114591815
152	0x3dbbf260	0.09177089
153	0xbcbe89ef	-0.023259131
154	0xbd2031ac	-0.03910987
155	0x3c9086cb	0.0176424
156	0xbd125ca2	-0.035732873
157	0x3db2766c	0.087139934
158	0xbd8c94b7	-0.068643026
159	0xbde75f19	-0.11297435
160	0x3d835ce1	0.064141996
161	0x3d0d471c	0.034491643
162	0xbde74ec3	-0.112943195
163	0x3dccf511	0.1000768
164	0x3db522dd	0.0884454
165	0x3d9f70f3	0.07785215
166	0x3da43d86	0.08019547
167	0x3d7b97e3	0.061424147
168	0x3d384ef9	0.04499719
169	0x3e17faa4	0.14841706
170	0x3dbe32b5	0.09287015
171	0xbdf7b49f	-0.120949976
172	0xbc34b446	-0.011029309
173	0x3e19c440	0.1501627
174	0xbcf2da2a	-0.029645044
175	0x3da077be	0.07835339
176	0x3dc36734	0.09541169
177	0xbd32b6af	-0.043631252
178	0xbcad0cb9	-0.02112423
179	0x3da0437e	0.07825373
180	0x3d5e7f89	0.054320846
181	0x3c4baec4	0.012431804
182	0x3d838c29	0.06423218
183	0xbdaf7902	-0.08568002
184	0xbd95086b	-0.07276996
185	0x3c5ff446	0.013669079
186	0xbc93a479	-0.018022763
187	0x3da982a1	0.082768686
188	0xbddbaab0	-0.107259154
189	0x3d797a6e	0.060907774
190	0xbcc6be0b	-0.024260541
191	0x3e1b3a3e	0.15158936
192	0xbdf62010	-0.12017834
193	0xbdc852e3	-0.097814344
194	0xbcb88dab	-0.02252849
195	0x3d92f7f9	0.07176203
196	0x3d32d28b	0.04365782
197	0x3d654033	0.05596943
198	0xb91815bb	-0.00014503945
199	0x3d703c89	0.05865148

lstm.weight_hh_l0 f4 [200, 50]
0	0x3d06fc18	0.03295526
1	0x3d94bc76	0.072625086
2	0x3bf38182	0.00743121
3	0xbdafc435	-0.085823454
4	0xbd622e8e	-0.05522018
5	0xbbc57e7b	-0.0060270405
6	0xbd8810c3	-0.06643822
7	0xbdd76f3f	-0.105192654
8	0xbccac1f0	-0.02475068
9	0xbdfad4eb	-0.12247642
10	0xbde2cb91	-0.110739835
11	0x3db1f7ca	0.0868984
12	0xbd676ce1	-0.05650032
13	0x3bcb6bef	0.006207935
14	0xbdaa24f6	-0.08307831
15	0xbdff167b	-0.1245546
16	0xbd5b963b	-0.053610068
17	0x3db00b09	0.08595855
18	0x3e026ee7	0.12737618
19	0x3d978888	0.07399088
20	0xbd7743b7	-0.060367312
21	0xbcb0e7e5	-0.02159495
22	0x3d0b0e77	0.03394934
23	0xbd911e76	-0.07085888
24	0xbde48a0b	-0.11159142
25	0x3dd14298	0.1021778
26	0xbe0725dd	-0.13198037
27	0xbd1aea94	-0.037821367
28	0xbe176262	-0.14783624
29	0x3d89883b	0.06715437
30	0x3d0dce35	0.034620482
31	0x3d3313df	0.043720122
32	0x3d38bfe2	0.04510487
33	0xbd04a7e0	-0.03238666
34	0xbd41fc9d	-0.04736005
35	0xbce64806	-0.028110515
36	0x3d4e59d8	0.05037865
37	0x3d3693f2	0.044574685
38	0x3c672dfe	0.0141100865
39	0xbe08a3d4	-0.13343745
40	0x3ddd8a81	0.10817433
41	0x3df61ef5	0.12017623
42	0x3e08e6fd	0.13369365
43	0xbaa2c66f	-0.0012418757
44	0x3d452956	0.048135124
45	0x3e1a80f0	0.15088248
46	0xb9f7124a	-0.00047125138
47	0x3da541b9	0.08069176
48	0x3d330484	0.04370548
49	0x3de5f6ca	0.11228712
50	0xba0e80ef	-0.0005436083
51	0x3dd286a2	0.102795854
52	0x3e2491d1	0.1607125
53	0x3da2e87d	0.079545
54	0xbc38fe56	-0.011291107
55	0xbda0e936	-0.078569815
56	0x3d3cb2a4	0.046068802
57	0xbdf14e0b	-0.11782464
58	0x3d831327	0.064001374
59	0x3e17d669	0.14827885
60	0x3dec25f4	0.115306765
61	0x3dca9cac	0.09893164
62	0xbba3c15a	-0.0049974145
63	0x3dc12a76	0.09431927
64	0xbdec33d0	-0.1153332
65	0x3e09446a	0.13405004
66	0xbbedbbad	-0.0072550387
67	0x3de5a4b5	0.11213056
68	0x3d92b5a6	0.07163553
69	0x3e1b28dc	0.15152305
70	0x3bce272c	0.0062912907
71	0xbcb41a97	-0.021985335
72	0x3db7c3fd	0.08972929
73	0xbd5a5f76	-0.053313695
74	0xbdb323f8	-0.08747095
75	0xbe1d63a1	-0.15370037
76	0x3d8462f8	0.06464189
77	0x3e248e48	0.16069901
78	0x3b9762db	0.004619939
79	0x3c8ad5d5	0.016947666
80	0x3d8ce020	0.06878686
81	0xbc1c26a1	-0.009530694
82	0x3df7bf66	0.12097053
83	0x3d211146	0.039323114
84	0xbdbce0ba	-0.09222551
85	0xbdecc31a	-0.1156065
86	0x3e188d3d	0.14897628
87	0x3c82ba92	0.015958104
88	0xbde42f69	-0.11141855
89	0xbe03556c	-0.12825555
90	0x3d847688	0.064679205
91	0xbe0addc3	-0.13561158
92	0x3beac2ad	0.0071643204
93	0x3e177787	0.1479169
94	0x3d11688b	0.03550009
95	0x3bef737d	0.0073074684
96	0xbd2e0618	-0.04248628
97	0xbc132a4c	-0.008982252
98	0x3d571037	0.052505698
99	0x3ca50d15	0.02014784
100	0x3d573652	0.05254204
101	0xbd0e81ab	-0.03479163
102	0x3da1cfaa	0.07900937
103	0xbc677237	-0.014126352
104	0xbd1c625e	-0.038179748
105	0xbe145ed8	-0.14489305
106	0xbdc07c69	-0.09398729
107	0xbd9e8521	-0.07740236
108	0xbd490626	-0.04907813
109	0x3d3b9556	0.045796715
110	0x3d6d32de	0.05790984
111	0xbccbdba6	-0.02488501
112	0xbd6b129f	-0.057390805
113	0x3d5de7a4	0.054175988
114	0xbe02f3a4	-0.12788254
115	0x3d93edba	0.07223077
116	0xbc9e1aa7	-0.019299818
117	0x3d927551	0.071512826
118	0xbdc73781	-0.097273834
119	0xbe002420	-0.1251378
120	0xbde4221b	-0.111393176
121	0xbd1fa69c	-0.03897725
122	0xbd021510	-0.031758368
123	0x3cf711a7	0.030159784
124	0x3df85948	0.12126404
125	0xbddd5c76	-0.10808651
126	0xbd25c8cd	-0.0404747
127	0x3c20a563	0.009805056
128	0x3c3b09e4	0.011415932
129	0x3d9f8cc5	0.077905215
130	0x3cc27b7c	0.023740523
131	0xbe07150e	-0.13191625
132	0x3d3dec16	0.046367727
133	0xbe0ac158	-0.13550317
134	0xbd8729d0	-0.06599772
135	0x3d5982d3	0.05310328
136	0x3e0e9740	0.13924885
137	0x3df59e57	0.119930916
138	0xbdb9255c	-0.09040329
139	0x3da4955d	0.08036301
140	0x3e1976ea	0.14986768
141	0x3dd367c4	0.10322526
142	0xbba52267	-0.0050395015
143	0xbdb9c7bb	-0.09071299
144	0x3dc61970	0.096728206
145	0x3d01563c	0.03157638
146	0x3e1ab81b	0.15109293
147	0xbd755088	-0.059891254
148	0xbe0c9d26	-0.13731822
149	0x3b89f747	0.004210386
150	0xbc70dd70	-0.014701232
151	0xbdffc8e6	-0.1248949
152	0xbd62e0c5	-0.05539014
153	0x3dcc6895	0.09980885
154	0x3e083119	0.1329998
155	0xbda08896	-0.07838552
156	0x3d57961a	0.052633382
157	0xbd6fe5ad	-0.058568645
158	0x3df77a94	0.12083927
159	0xbdbd6774	-0.09248248
160	0x3e162bd3	0.14665155
161	0x3d3baeca	0.04582099
162	0x3dccf475	0.10007564
163	0xbd83d16f	-0.06436431
164	0xbd3cfc89	-0.046139274
165	0x3e0567b1	0.13027836
166	0xbda4fc2b	-0.0805591
167	0xbdf3025c	-0.118656844
168	0xbd2f551e	-0.042805783
169	0xbde81e42	-0.11333896
170	0xbc8542bb	-0.016267171
171	0xbc20cb66	-0.009814119
172	0xbe00ff83	-0.1259747
173	0x3d38fa2b	0.045160454
174	0xbdc71a3b	-0.097218
175	0xbde99a40	-0.11406374
176	0xbd9d0482	-0.076668754
177	0x3d00a5c7	0.031408098
178	0x3d2c162d	0.042013336
179	0x3d12adad	0.03581016
180	0x3d16311b	0.036667924
181	0x3de036bd	0.109479405
182	0x3cfbc6a6	0.030734371
183	0xbd88620c	-0.06659326
184	0x3dc8927c	0.09793565
185	0xbdc0517b	-0.09390541
186	0xbca1de2f	-0.019759266
187	0xbd0e30bf	-0.034714457
188	0xbb00a56d	-0.0019629851
189	0xbdb08aaf	-0.08620202
190	0xbbceafc4	-0.006307574
191	0xbdf7c190	-0.12097466
192	0xbd59f83b	-0.053215247
193	0x3d62ae96	0.05534228
194	0xbe0fdb1c	-0.14048427
195	0x3dff95c3	0.12479737
196	0xbd43cc29	-0.047802124
197	0x3e0ecfc4	0.13946444
198	0xbdabbbc1	-0.083854206
199	0x3cd7691c	0.026295237
200	0x3daf6edc	0.085660666
201	0xbdc2c92a	-0.09511025
202	0xbd859681	-0.06522847
203	0xbdbb1ec4	-0.091367275
204	0xbcb9574e	-0.022624638
205	0x3d7d03d8	0.061771244
206	0x3c4ae2fc	0.012383219
207	0xbdb032b5	-0.086034216
208	0x3d7b4198	0.061341852
209	0xbc8209fd	-0.015873903
210	0x3d2b7815	0.041862566
211	0xbd9a8f5f	-0.07546877
212	0xbd1271a5	-0.03575291
213	0x3db3c29f	0.087773554
214	0x3cccd219	0.025002526
215	0x3d3899df	0.045068618
216	0xbd7c8c27	-0.061657097
217	0xbbc9f4dd	-0.006163223
218	0xbd08bcef	-0.033383306
219	0x3dae376d	0.085066654
220	0xbd997761	-0.07493473
221	0x3e1b0c3d	0.15141387
222	0x3d653021	0.055954102
223	0xbd39205d	-0.04519688
224	0x3dfab6b7	0.12241881
225	0xbdb7ec27	-0.08980589
226	0x3c27c5f9	0.010240071
227	0x3ca33ed0	0.019927412
228	0x3df66b2c	0.1203216
229	0xbd8e3ad4	-0.06944814
230	0x3d8d0677	0.06885999
231	0xbd9f2e51	-0.07772506
232	0xbd9b66f5	-0.07587997
233	0xbd967cb9	-0.07348008
234	0x3dda5776	0.10661213
235	0xbe013f5b	-0.12621824
236	0x3e101c7c	0.14073366
237	0x3d16b0bb	0.036789637
238	0xbc80b76c	-0.015712462
239	0xbdac40e8	-0.084108174
240	0x3cae9b3e	0.02131426
241	0xbd69b422	-0.057056554
242	0x3dd3c344	0.10339978
243	0xbd2f482f	-0.04279345
244	0xbdf568b0	-0.11982858
245	0x3d909172	0.070589915
246	0xbdc6d899	-0.097092815
247	0xbd235397	-0.03987464
248	0x3d4bcc72	0.04975552
249	0x3d3dbfed	0.046325613
250	0x3d2cb93c	0.04216884
251	0xbda03b5f	-0.07823824
252	0x3df4e4af	0.119576804
253	0x3d86ecf0	0.06588161
254	0x3d0fa0c2	0.03506542
255	0xbd64fef8	-0.05590722

lstm.bias_ih_l0 f4 [200]
0	0xbd715159	-0.05891547
1	0x3dab5a5f	0.08366846
2	0x3c7b489b	0.015337135
3	0x3d1849c2	0.037179716
4	0x3d976119	0.07391567
5	0xbd930343	-0.071783565
6	0xbb27f0db	-0.0025625739
7	0x3da53f43	0.08068707
8	0x3c180525	0.00927857
9	0xbd9e6535	-0.077341475
10	0xbd467fc8	-0.048461705
11	0x3da0cee2	0.0785196
12	0x3daf17fe	0.08549498
13	0x3d7e243b	0.06204627
14	0xbd266ac0	-0.04062915
15	0xbde38aa8	-0.11110431
16	0x3d28f806	0.04125216
17	0xbd9ac0ac	-0.075562805
18	0x3c453bec	0.012038212
19	0x3e02cbcd	0.12773056
20	0xb9fa2edb	-0.00047718626
21	0x3e155e13	0.14586668
22	0xbd33e967	-0.04392376
23	0xbdb3495e	-0.08754228
24	0xbcfcbca5	-0.030851671
25	0xbd5a8bad	-0.05335586
26	0x3e2033b6	0.15644726
27	0x3da781de	0.08179067
28	0x3d62a826	0.05533614
29	0x3e218572	0.15773562
30	0xbd16a834	-0.036781505
31	0x3b247b25	0.0025097814
32	0x3e1edca7	0.1551386
33	0xbda2bb9d	-0.07945941
34	0x3c923694	0.01784829
35	0xbd51f245	-0.051256437
36	0x3dd6953a	0.104776815
37	0xbda64eae	-0.08120476
38	0xbdf35f37	-0.11883395
39	0xbda61c98	-0.081109226
40	0x3de81e87	0.11333948
41	0x3cbbd59c	0.022929005
42	0xbce3507c	-0.027748339
43	0x3dd588ec	0.104265064
44	0x3e0fcfb1	0.14044072
45	0xbc6375f3	-0.013883102
46	0xbc690560	-0.014222473
47	0xbd3d90f1	-0.046280805
48	0xbd88e7da	-0.06684847
49	0x3db0acd0	0.08626711
50	0xbddfcb33	-0.10927429
51	0x3d9fcf37	0.07803195
52	0xbd66be57	-0.056333866
53	0xbdf695b4	-0.12040272
54	0x3c2e254e	0.010629011
55	0xbc6e281b	-0.014535929
56	0x3d252457	0.04031786
57	0x3dfca0e3	0.12335374
58	0x3e1996ee	0.14998981
59	0x3dcad75e	0.09904359
60	0x396acfde	0.00022393416
61	0x3d9a86c6	0.07545237
62	0xbd5ccb21	-0.053904656
63	0xbcdf3cf6	-0.027250748
64	0x3d027a21	0.031854752
65	0xbd0fd1c8	-0.035112172
66	0x3e084524	0.13307625
67	0xbdfa14dc	-0.1221101
68	0x3caa3c9a	0.02078085
69	0x3d85e51c	0.0653784
70	0x3da622c3	0.08112099
71	0x3ddb7be3	0.10716989
72	0x3c97fd3d	0.01855337
73	0x3de1bb94	0.11022106
74	0x3d9a3ecb	0.07531508
75	0x3d3f5648	0.046713144
76	0x3de18afd	0.11012838
77	0xbdabe18e	-0.083926305
78	0x3d9417cb	0.07231101
79	0x3de41d9b	0.11138459
80	0x3deffe9d	0.117184855
81	0xbd04601c	-0.03231822
82	0x3d658ef0	0.05604452
83	0x3da260c2	0.07928611
84	0xbd10f2ab	-0.035387676
85	0xbc4218cc	-0.011846732
86	0x3d8fecee	0.070276126
87	0xbde5d8db	-0.112230025
88	0xbd81473b	-0.06312414
89	0xbe05c18c	-0.13062114
90	0x3cd4c160	0.025971115
91	0xbdb7fc1a	-0.089836314
92	0x3d3793e9	0.044818792
93	0x3c8cf177	0.017204983
94	0xbb62e1ec	-0.0034619523
95	0x3d51a590	0.051183283
96	0xbd980a57	-0.07423847
97	0x3d36f5c2	0.044667967
98	0x3bb4d438	0.0055184625
99	0x3d43797e	0.047723286
100	0xbdee040d	-0.116218664
101	0x3de8e128	0.1137107
102	0x3d3ce8ae	0.04612034
103	0xbdb80d3a	-0.08986898
104	0xbdd7cf3d	-0.105375744
105	0xbe019139	-0.12653054
106	0x3d7b161d	0.061300386
107	0xbc2cdc3f	-0.010550558
108	0xbe030ffd	-0.12799068
109	0x3de5f465	0.11228255
110	0x3d662bf5	0.056194264
111	0xbcaef1e5	-0.021355579
112	0x3d576fa3	0.0525967
113	0x3e1e38cb	0.15451352
114	0x3be2808a	0.0069122957
115	0x3d03048e	0.031986766
116	0x3e08d66f	0.1336305
117	0xbdaec071	-0.08532799
118	0x3d2a55d8	0.041585773
119	0x3d249db2	0.040189452
120	0x3d734d31	0.059399787
121	0x3e03d852	0.12875488
122	0x3e0e4c02	0.13896182
123	0x3dc35450	0.09537566
124	0xbb1d3691	-0.0023988823
125	0xbdcb4cdf	-0.099267714
126	0xbd06cb93	-0.032908987
127	0x3e0cc14b	0.1374561
128	0xbd2e1efa	-0.04251001
129	0x3d5ff078	0.05467269
130	0x3d2aefc7	0.041732576
131	0x3a167faa	0.00057410693
132	0x3dc84fce	0.097808465
133	0xbd15bad7	-0.036555137
134	0x3e16b5bc	0.14717764
135	0xbdb5a2f3	-0.08868971
136	0xbd14b504	-0.036305442
137	0xbe029501	-0.12752153
138	0xbdf6dec5	-0.12054209
139	0x3cf8a05b	0.030349901
140	0x3dc1f04a	0.094696596
141	0xbdd07575	-0.10178653
142	0xbd884491	-0.06653703
143	0x3da5ff7f	0.08105373
144	0x3d8f4c6f	0.069970004
145	0x3dc4b0f2	0.09604062
146	0x3dd35246	0.10318427
147	0x3e1cb55e	0.15303561
148	0xbe00db16	-0.12583575
149	0xbdc92657	-0.09821766
150	0x3d444333	0.04791565
151	0xbdc90ec8	-0.098172724
152	0x3d53a92c	0.051675007
153	0xbdc69608	-0.09696585
154	0x3e220096	0.15820536
155	0x3dbd2f7d	0.09237573
156	0xbcf16637	-0.029467685
157	0xbd11f940	-0.035638094
158	0x3dfdc60a	0.123912886
159	0x3dde4ac4	0.10854104
160	0xbcd90d1a	-0.026495505
161	0xbe1cdc53	-0.15318422
162	0xbdafe34e	-0.08588277
163	0x3dc72698	0.09724158
164	0x3cb2c3b3	0.021821832
165	0x3df3c158	0.11902112
166	0x3c84a514	0.016191997
167	0xbddfff27	-0.10937338
168	0xbda4262c	-0.08015093
169	0x3de64316	0.112432644
170	0xbcf3b77d	-0.02975058
171	0xbd35d689	-0.04439405
172	0x3d489aff	0.04897594
173	0x3dcdc837	0.100479536
174	0x3d2eb247	0.042650487
175	0x3d6f1995	0.058374006
176	0x3ba00459	0.004883331
177	0xbded1335	-0.11575929
178	0xbd35f645	-0.044424314
179	0x3dffdfbf	0.12493848
180	0x3cfbcfac	0.030738674
181	0xbc9cb7cc	-0.01913061
182	0xbd233707	-0.0398474
183	0xbdda85a5	-0.10670022
184	0xbc923bd9	-0.017850803
185	0xbdc2804b	-0.09497126
186	0xbddd8c94	-0.10817829
187	0x3df462a9	0.119328804
188	0xbd86551f	-0.06559204
189	0xbd458107	-0.048218753
190	0x3e01eb78	0.1268748
191	0x3e0c7df7	0.13719927
192	0xbd8d021f	-0.0688517
193	0x3e126e5c	0.14299911
194	0xbd905b88	-0.07048708
195	0x3e0b5d0e	0.13609716
196	0x3e19372d	0.14962454
197	0x3db53583	0.08848097
198	0x3d16fdaa	0.036863007
199	0x3db13ec8	0.08654553

lstm.bias_hh_l0 f4 [200]
0	0xbdb30d75	-0.08742801
1	0x3de24c78	0.110497415
2	0x3e09adc0	0.13445187
3	0x3d118214	0.035524443
4	0x3aac6a37	0.0013154213
5	0x3e1badb9	0.15202989
6	0x3d566967	0.052346613
7	0x3bc81201	0.006105662
8	0xbd92ac89	-0.07161815
9	0x3d36b210	0.044603407
10	0x3dba4e39	0.09096951
11	0x3ca80f50	0.020515114
12	0x3c20d003	0.009815219
13	0xbd06598b	-0.03280024
14	0x3d4a2b3e	0.049357645
15	0x3dac0933	0.08400192
16	0x3c0d3f66	0.008621072
17	0x3cc7e54f	0.024401335
18	0x3dd1e1ec	0.10248169
19	0x3c0aa2ff	0.008461713
20	0xbd84c239	-0.064823575
21	0xbd07310c	-0.03300576
22	0x3db467b8	0.08808845
23	0x3dbbf273	0.09177103
24	0x3d4b53dc	0.04964052
25	0xbdc7e074	-0.09759608
26	0x3e0d9f96	0.13830408
27	0x3d85689c	0.06514093
28	0xbd556914	-0.052102163
29	0xbd86a695	-0.06574742
30	0xbdbd8a62	-0.0925491
31	0xbc8fbc05	-0.01754571
32	0xbd0b2601	-0.03397179
33	0xbdf9fbad	-0.122062065
34	0x3e1ad67a	0.15120879
35	0xbd9e5f33	-0.077330016
36	0x3cc5c745	0.02414287
37	0xbd2b9a7b	-0.04189537
38	0x3df9291a	0.121660426
39	0x3dee5873	0.11637964
40	0x3d4755c6	0.048665784
41	0x3e1021c2	0.14075378
42	0x3df45466	0.1193016
43	0xbdf6fe3d	-0.12060211
44	0xbd07d420	-0.033161283
45	0xbd07eaae	-0.033182792
46	0xbd7c921f	-0.06166279
47	0x3df217b1	0.11820925
48	0x3d187ee7	0.0372304
49	0xbd00e731	-0.03147048
50	0x3ddb3194	0.10702816
51	0xbdf5ecf6	-0.12008087
52	0x3e0733a1	0.13203289
53	0x3dab72dd	0.08371518
54	0xbdc43983	-0.09581282
55	0xbd94e911	-0.072710164
56	0x3dc08baa	0.09401639
57	0xbdf3d7ce	-0.11906396
58	0x3e043771	0.12911774
59	0x3e02df87	0.12780581
60	0xba53781d	-0.00080669095
61	0xbe116b26	-0.1420103
62	0x3e029ed4	0.127559
63	0xbd3f1a71	-0.046656076
64	0xbcb45fa6	-0.022018265
65	0xbd09ee8d	-0.033674765
66	0x3dae2938	0.085039556
67	0xbd0d1ff6	-0.03445431
68	0xbc24289d	-0.010019449
69	0xbd40636f	-0.046969827
70	0xbca0aa88	-0.019612566
71	0xbd8d82bf	-0.069097035
72	0x3da2504e	0.07925473
73	0x3da745f5	0.0816764
74	0xbde683bb	-0.11255594
75	0xbd8876a5	-0.06663255
76	0x3df215df	0.11820578
77	0x3c4fb8d6	0.012678346
78	0x3dd40844	0.10353139
79	0x3ce05acb	0.027387043
80	0xbd323357	-0.043505993
81	0xbc902f6f	-0.017600743
82	0xbd9bffcb	-0.07617148
83	0x3d87f784	0.06639007
84	0xbd3284b8	-0.0435836
85	0xbdcb8929	-0.099382706
86	0x3daf49eb	0.085590206
87	0x3e18a2b2	0.14905813
88	0xbdfc032c	-0.123052925
89	0x3a2a6462	0.00064999436
90	0xbdafe16c	-0.08587918
91	0x3de56b24	0.11202076
92	0x3d82fd7f	0.06396007
93	0xbdcbac52	-0.09944977
94	0x3e149f8b	0.14513986
95	0x3d1d3bae	0.038386993
96	0x3df47273	0.11935892
97	0x3e055a9a	0.13022843
98	0x3c82e5b4	0.015978672
99	0xbdb1c898	-0.08680838
100	0x3e1630b9	0.14667024
101	0x3dab9a6e	0.083790645
102	0x3d80570d	0.062666036
103	0xbd1851b4	-0.037187293
104	0xbdf2cf07	-0.118558936
105	0xbe05e37a	-0.13075057
106	0xbdae1981	-0.08500958
107	0x3cc66dcd	0.024222279
108	0xbe0b3e67	-0.13598023
109	0xbd050214	-0.032472685
110	0x3ddeb937	0.10875171
111	0xbdbcdfd7	-0.092223816
112	0xbdf8e6ea	-0.12153418
113	0x3d8169bb	0.063189946
114	0xbe1bc5d4	-0.15212184
115	0xbe079c86	-0.13243303
116	0x3ddf9fa9	0.10919125
117	0xbd124392	-0.03570897
118	0x3c909484	0.017648943
119	0x3cc60e36	0.024176698
120	0xbd67c5e2	-0.0565852
121	0x3d58c4c4	0.052922025
122	0x3d95baab	0.07310995
123	0xbcdfbe5a	-0.027312446
124	0x3dbf8c46	0.09352927
125	0x3dcc695d	0.09981034
126	0xbe22706e	-0.15863201
127	0x3db7c47d	0.08973024
128	0x3dca8d06	0.09890179
129	0x3df9659a	0.12177582
130	0x3d3d5efe	0.04623317
131	0xbe0b6e4a	-0.1361629
132	0xbdc28a02	-0.09498979
133	0xbd931159	-0.07181043
134	0x3de30eea	0.11086829
135	0xbb874fff	-0.0041294093
136	0xbd8068b1	-0.06269968
137	0xbda1455a	-0.07874556
138	0x3dbd5456	0.092446014
139	0xbd9923c5	-0.074775256
140	0xbc80b153	-0.015709555
141	0xbcf99b4b	-0.030469557
142	0x3dfd8251	0.123783715
143	0xbb9e03a9	-0.0048222137
144	0xbde7d4c7	-0.11319881
145	0x3d692025	0.05691542
146	0xbd934981	-0.07191754
147	0xbd227845	-0.03966548
148	0xbc6af883	-0.014341476
149	0xbe220ca5	-0.15825136
150	0x3e0ac4cd	0.13551636
151	0x3d92ddb9	0.071711965
152	0x3d948b8f	0.07253181
153	0x3d909748	0.070601046
154	0x3d7a555f	0.061116572
155	0xbd752b6e	-0.05985587
156	0x3df2e264	0.11859587
157	0xbd9dd65d	-0.07706902
158	0x3d984f52	0.07437004
159	0xbc0028db	-0.007822241
160	0x3d6a30cf	0.057175454
161	0x3dcb9b97	0.09941786
162	0xbde54623	-0.11195018
163	0x3d962ac4	0.07332376
164	0xbc308d7d	-0.010775921
165	0xbdef045b	-0.116707526
166	0xbdd723bd	-0.105048634
167	0x3d67277c	0.05643414
168	0xbdf7aab3	-0.12093105
169	0x3c868e01	0.016425135
170	0x3dbc12c9	0.091832705
171	0x3da39964	0.07988241
172	0x3dd728e0	0.10505843
173	0x3d1a2bad	0.03763931
174	0xbe011a61	-0.12607719
175	0x3c69ed6d	0.014277798
176	0x3c9b8d56	0.018988293
177	0x3df37e59	0.11889333
178	0x3e0b8844	0.136262
179	0xbd660b8e	-0.056163363
180	0xbdcbcffb	-0.099517785
181	0x3a8cda22	0.0010746161
182	0x3d9036b0	0.07041681
183	0x3dc5e004	0.09661868
184	0x3c8d0136	0.017212491
185	0x3b80fef4	0.003936643
186	0xbd507ba2	-0.050899155
187	0x3d455cbc	0.04818414
188	0x3dccfb7f	0.100089066
189	0x3e13e1cd	0.14441605
190	0xbd740101	-0.05957127
191	0x3ca2d0eb	0.01987501
192	0xbda0d9ba	-0.07854028
193	0xbb86dd12	-0.004115709
194	0xbd91749d	-0.0710232
195	0xbd5f1c62	-0.054470427
196	0xbdf13e0d	-0.11779413
197	0x3bc5c4c9	0.0060354215
198	0xbd64dd3c	-0.055875048
199	0x3df0b469	0.117531605

lstm.weight_ih_l1 f4 [200, 50]
0	0xbdd0f600	-0.10203171
1	0xbdd43f53	-0.10363641
2	0x3ded5c71	0.115898974
3	0xbe0fc5ae	-0.14040253
4	0x3d1266e6	0.035742663
5	0xbd2d221d	-0.04226886
6	0x3d15b9a1	0.036553983
7	0x3de0641b	0.109565936
8	0xbd93c356	-0.07214992
9	0x3d889ada	0.066701606
10	0x3dfe1d4d	0.124079324
11	0xbdff933b	-0.12479254
12	0x3d5f5976	0.054528676
13	0x3c51d034	0.012805987
14	0xbe0346a9	-0.12819923
15	0x3dc07f6a	0.09399302
16	0xbc6e61f1	-0.014549718
17	0xbde32324	-0.11090687
18	0x3ab8454b	0.0014058737
19	0x3c777e6b	0.015105824
20	0xbd342b94	-0.04398687
21	0x3da80be0	0.0820539
22	0x3dacb16c	0.08432278
23	0xbd8b0b2f	-0.067892425
24	0xbdc6377e	-0.09678553
25	0xbd17cb49	-0.037059102
26	0xbc84d836	-0.016216379
27	0x3da48842	0.080338016
28	0xbe1773f0	-0.1479032
29	0x3b66590a	0.0035148286
30	0xbe0e651b	-0.13905756
31	0x3dbc29da	0.0918767
32	0x3dbec436	0.09314768
33	0x3cd7072f	0.026248543
34	0x3d4a5386	0.04939606
35	0x3d58c4c5	0.05292203
36	0xbce9bfd6	-0.028533857
37	0xbe22edc1	-0.15911008
38	0x3ddaebac	0.10689482
39	0xbd4ca058	-0.049957603
40	0x3d4eb8f0	0.05046934
41	0x3c7981eb	0.015228729
42	0x3ada8801	0.0016672612
43	0x3d1dd5f3	0.038534116
44	0xbcc5dd20	-0.024153292
45	0xbcc54b56	-0.024083775
46	0x3d9c552d	0.076334335
47	0x3d242b95	0.040080626
48	0x3d80a738	0.062818944
49	0xbe03ac97	-0.12858807
50	0xbd5f8b0d	-0.05457597
51	0x3d2749f3	0.040842008
52	0x3dac59ba	0.084155515
53	0x3934f19f	0.00017256149
54	0x3e002b63	0.1251655
55	0x3b924074	0.00446325
56	0x3b22c97a	0.0024839328
57	0x3cbd8364	0.023133941
58	0xbd543351	-0.05180675
59	0x3d9a1de2	0.07525231
60	0xbc869684	-0.016429193
61	0x3e121cbc	0.14268774
62	0xb95eed53	-0.0002125998
63	0xbdda3c88	-0.10656077
64	0xbd68ecd8	-0.056866497
65	0xbcc8713b	-0.024468055
66	0x3c8a5c8b	0.016889831
67	0xbd3a6627	-0.045507576
68	0x3d80e7e9	0.06294233
69	0xbbe05730	-0.006846331
70	0xbddab726	-0.10679464
71	0xbe1233dc	-0.14277595
72	0xbdb68960	-0.08912921
73	0xbe08da8b	-0.13364618
74	0xbd56db40	-0.052455187
75	0x3d8c630e	0.06854831
76	0xbc3851ed	-0.011250001
77	0x3d3096e0	0.043112636
78	0x3d9a623a	0.075382665
79	0x3d8312ea	0.06400092
80	0xbd9195b5	-0.071086325
81	0x3e187d15	0.14891465
82	0x3c7b140a	0.015324602
83	0xbd0e78ef	-0.0347833
84	0x3de1876d	0.110121585
85	0x3dad97fe	0.08476256
86	0xbdf0067f	-0.11719989
87	0x3c8638ee	0.016384568
88	0xbe2111bf	-0.15729426
89	0x3e02e1e9	0.1278149
90	0xbc668f00	-0.01407218
91	0xbd430cb2	-0.04761953
92	0x3dcd835c	0.100348204
93	0x3da3f62d	0.08005939
94	0x3e238ecb	0.1597244
95	0xbd69dc79	-0.057095025
96	0x3d5910a2	0.052994378
97	0x3dfcfe17	0.12353151
98	0x3e14a8ea	0.1451756
99	0xbdbf4153	-0.093386315
100	0x3de35b95	0.11101452
101	0x3a6b9dc8	0.000898805
102	0xbbfca15b	-0.0077096648
103	0x3de353a6	0.11099939
104	0x3cff8d6f	0.03119537
105	0xbe03349d	-0.12813039
106	0xbd33e75d	-0.043921817
107	0x3d7edc7f	0.062222
108	0x3ca2064c	0.019778393
109	0x3d94ba6d	0.072621204
110	0xbdae3e44	-0.0850797
111	0xbdf7e978	-0.121050775
112	0x3d73f357	0.05955824
113	0x3d48825e	0.048952453
114	0x3ddbe551	0.10737098
115	0xbde4e839	-0.111771055
116	0xbde081d2	-0.10962261
117	0xbd95af19	-0.07308788
118	0x3d169068	0.03675881
119	0x3c0fecb9	0.008784466
120	0xbdb27089	-0.08712871
121	0x3cd25789	0.025676506
122	0x3d866e5b	0.065640174
123	0x3e1c368f	0.15255187
124	0x3bf238bb	0.0073920167
125	0x3c439a30	0.011938617
126	0xbcc2e740	-0.02379191
127	0x3ddb00ac	0.106934875
128	0xbbdf2578	-0.0068098865
129	0x3ded3418	0.11582202
130	0xbe189d94	-0.14903861
131	0x3d775048	0.060379297
132	0xbde55e61	-0.11199642
133	0x3d07ae2f	0.0331251
134	0xbd9e29fe	-0.07722853
135	0xbd3622ee	-0.044466905
136	0xbca0fe14	-0.019652404
137	0xbccc050b	-0.024904748
138	0xbc308aed	-0.01077531
139	0xbdba3ed7	-0.09094017
140	0xbd16f1b9	-0.03685162
141	0xbe0c30b6	-0.13690457
142	0xbc76a47b	-0.015053864
143	0x3d5a05a5	0.05322804
144	0x3d3cea75	0.046122033
145	0x3e1fdb38	0.15610969
146	0x3d92dc53	0.0717093
147	0xbe00bbdf	-0.12571667
148	0xbd0a5b18	-0.03377828
149	0xbda00909	-0.07814223
150	0xbdbb82c0	-0.09155798
151	0x3d8635b6	0.06553213
152	0x3bfae1cd	0.007656312
153	0xbde0e876	-0.109818384
154	0x3c18ae80	0.009318948
155	0x3dafb49c	0.085793704
156	0x3d529ddc	0.051420078
157	0x3d6bddbe	0.057584517
158	0xbe0925a2	-0.13393262
159	0x3cb09202	0.021553997
160	0x3dee3667	0.1163147
161	0xbd8bbeb2	-0.068234816
162	0x3d951ee6	0.07281284
163	0xba55e45a	-0.0008159332
164	0xbd61b98c	-0.055108592
165	0xbe0bcb29	-0.13651718
166	0xbdd5062a	-0.10401566
167	0xbcb7cfdc	-0.022437982
168	0xbd9cc00b	-0.07653817
169	0x3d188334	0.0372345
170	0xbdbe1ae4	-0.09282473
171	0xbd7e1e21	-0.062040452
172	0xbdef426c	-0.11682591
173	0x3d3d940c	0.046283767
174	0xbd179056	-0.037002884
175	0xbdee1681	-0.11625386
176	0xbb51131a	-0.0031902255
177	0xbddedc83	-0.10881903
178	0xbd8e6ae5	-0.06953982
179	0x3d350fcd	0.044204522
180	0xbe11d3a4	-0.1424089
181	0xbc83141a	-0.016000796
182	0x3d8b83e3	0.06812265
183	0xbdf5d50e	-0.120035276
184	0x3e0ce739	0.1376008
185	0xb8da2583	-0.00010402037
186	0xbdb44f5e	-0.088042006
187	0xbc9b7615	-0.018977204
188	0x3d749316	0.059710585
189	0x3d186667	0.037207033
190	0x3df41f43	0.11920025
191	0xbd9f1398	-0.07767409
192	0xbc242580	-0.010018706
193	0xbdee64a3	-0.11640289
194	0xbd9e1fb8	-0.077208936
195	0xbc8fd659	-0.017558264
196	0xbdd98f86	-0.10623078
197	0xbdafcedf	-0.085843794
198	0xbdff618d	-0.12469778
199	0xbda89980	-0.08232403
200	0xbddc325b	-0.10751792
201	0x3d91ab78	0.07112783
202	0x3db86b77	0.09004872
203	0xbd5b637d	-0.053561676
204	0x3d88e9b2	0.06685199
205	0xbc9ce1ad	-0.01915058
206	0xbd063a6e	-0.032770567
207	0xbd94d1a1	-0.07266546
208	0xbc59ce8a	-0.013293872
209	0xbd88efcc	-0.066863626
210	0x3d340cb4	0.043957427
211	0x3de41cde	0.111383185
212	0xbde01f1b	-0.10943433
213	0xbd14689b	-0.036232572
214	0x3a17ce02	0.00057908904
215	0x3e016702	0.1263695
216	0x3dcad0dc	0.09903118
217	0x3d92d58b	0.07169636
218	0x3e09438f	0.13404678
219	0x3e10680b	0.14102189
220	0x3d979c20	0.07402825
221	0x3e0f7296	0.14008555
222	0x3dd3f316	0.10349099
223	0xbddc5c65	-0.1075981
224	0xbc93a02f	-0.018020717
225	0x3db3fbab	0.08788236
226	0x3cbae1d7	0.022812767
227	0x3d7af912	0.06127269
228	0xbdc439f4	-0.09581366
229	0x3cb94070	0.022613734
230	0x3dc6896d	0.09694181
231	0x3d55679b	0.05210076
232	0x3deca4fc	0.11554906
233	0xbd065d4c	-0.03280382
234	0x3d41db80	0.047328472
235	0xbd2e9c90	-0.04262978
236	0x3ad1af14	0.0015997612
237	0xbe15f5a9	-0.14644493
238	0xbddf005f	-0.10888743
239	0xbd358f4d	-0.044326115
240	0xbc1f6618	-0.009728931
241	0xbd9dc493	-0.07703509
242	0xbcaab9cb	-0.020840546
243	0x3c5a65a2	0.013329895
244	0xbd4dc9dc	-0.050241336
245	0x3d41e3f5	0.047336537
246	0x3da6dc2a	0.08147462
247	0xbd9767df	-0.07392859
248	0xbca3290f	-0.01991704
249	0xbe2369d2	-0.15958336
250	0x3d4f44f2	0.05060286
251	0xbd2c29ce	-0.042032056
252	0xbd4791b7	-0.04872295
253	0x3dd9b6f5	0.106305994
254	0xbe071bf3	-0.13194256
255	0x3d9d5634	0.076824576

lstm.weight_hh_l1 f4 [200, 50]
0	0xbdcc1e55	-0.09966723
1	0xbe07c0eb	-0.13257186
2	0x3d750499	0.059818838
3	0x3dad1e50	0.08453047
4	0x3dbd042d	0.09229312
5	0x3df4114c	0.119173616
6	0x3d0915a4	0.033467904
7	0x3d2bc8a4	0.041939393
8	0xbd6d9d86	-0.058011554
9	0x3d6b1aba	0.057398535
10	0xbda4dc1b	-0.08049794
11	0xbdd89964	-0.10576132
12	0x3df76988	0.12080675
13	0x3ddac6f4	0.106824785
14	0xbdfad369	-0.122473545
15	0x3daea98b	0.085284315
16	0x3d67edc8	0.05662325
17	0xbc67fa96	-0.014158865
18	0xbe19e64c	-0.15029258
19	0x3da698ca	0.08134611
20	0x3db0aa74	0.08626261
21	0xbdf301b7	-0.118655615
22	0xbd1b6f64	-0.037948027
23	0xbb64cf5e	-0.003491364
24	0xbdd4f620	-0.10398507
25	0x3d1f7545	0.038930196
26	0x3dc68798	0.09693831
27	0xbdfebb21	-0.12438036
28	0xbc4e5b6b	-0.012595038
29	0x3db16105	0.08661083
30	0x3cfaebb9	0.03062998
31	0x3e0fd905	0.1404763
32	0xbd946bb1	-0.07247103
33	0xbe10910b	-0.1411783
34	0x3dec651e	0.11542724
35	0x3dedc5ce	0.11609994
36	0xbd4c2d2b	-0.049847763
37	0x3ca2b3c6	0.019861113
38	0x3d9aaa9e	0.07552074
39	0x3c57bcfd	0.013167617
40	0x3da464c8	0.08027035
41	0xbcc78c59	-0.024358915
42	0xbbf12ce6	-0.0073600886
43	0x3de5a6f3	0.11213484
44	0x3d9e585e	0.077316985
45	0xbd6b92d7	-0.057513084
46	0x3d32e465	0.043674845
47	0xbdef6ab4	-0.11690274
48	0xbdf7a1ed	-0.12091432
49	0xbd1c359c	-0.038137063
50	0xbdbad696	-0.0912296
51	0x3d53112d	0.051530052
52	0xbb4195a4	-0.0029538656
53	0xbdf5ea1f	-0.12007546
54	0xbe02c935	-0.12772067
55	0x3cb8dc9e	0.022566136
56	0x3d07e24d	0.0331748
57	0xbd7d2e41	-0.06181169
58	0xbd9aaa37	-0.07551997
59	0xbc9ea8e2	-0.019367639
60	0xbd31c21c	-0.043398008
61	0x3dfc48c5	0.12318567
62	0x3d976209	0.073917456
63	0x3df197cb	0.1179653
64	0xbe067ac4	-0.13132769
65	0x3d680178	0.056642026
66	0xbdd2abd1	-0.10286678
67	0xbc44d236	-0.012013009
68	0xbd82932e	-0.063757285
69	0x3d80b134	0.06283799
70	0xbdf3d9c5	-0.119067706
71	0x3dcdd6da	0.10050745
72	0x3da5ce2c	0.08095965
73	0x3dcaf3cd	0.099097826
74	0xbdb4559c	-0.08805391
75	0xbdad91e7	-0.08475094
76	0xbcf2aff0	-0.02962491
77	0x3d35d2eb	0.0443906
78	0xbdfdad95	-0.12386624
79	0x3e0ed047	0.13946639
80	0xbd0ec785	-0.034858245
81	0xbdcfdfeb	-0.10150131
82	0xbcebf138	-0.028801546
83	0xbd724ecb	-0.059157174
84	0x3df0da37	0.11760371
85	0x3d27fe5d	0.041014064
86	0x3d9742eb	0.073858105
87	0x3dbcc9c7	0.092181735
88	0x3dfb4a78	0.12270063
89	0x3d657a46	0.056024812
90	0x3de2cfdf	0.110748045
91	0x3de8af08	0.113615096
92	0x3ccacb49	0.024755137
93	0x3dcf1834	0.10112038
94	0xbd5429c7	-0.051797654
95	0xbd98f3d9	-0.07468385
96	0x3d61af60	0.05509889
97	0xbda3649f	-0.07978176
98	0xbd870661	-0.065930136
99	0xbcb0d307	-0.021585
100	0xbd767cde	-0.060177676
101	0x3cabc73e	0.02096903
102	0xbdf4b16f	-0.11947905
103	0x3e0c0b23	0.13676123
104	0xbdafeb81	-0.08589841
105	0xbd7f9ff6	-0.06240841
106	0xbd5da549	-0.054112706
107	0x3d0911b0	0.033464134
108	0xbe1e2ebb	-0.15447514
109	0x3e053901	0.13010027
110	0xbe0cc318	-0.13746297
111	0xbd8e733d	-0.06955574
112	0xbe1c3363	-0.15253977
113	0xbc3b2aad	-0.011423749
114	0x3cb142db	0.021638324
115	0x3de8189f	0.11332821
116	0xbd928fd5	-0.0715634
117	0x3d610889	0.05493978
118	0xbcd86fd8	-0.026420519
119	0x3dbfc8c6	0.09364466
120	0x3dcc48c6	0.09974818
121	0x3d4b2194	0.04959257
122	0xbc177040	-0.009243071
123	0xbd999111	-0.07498372
124	0xbc7dbcd0	-0.015486911
125	0x3a9dbbe0	0.001203414
126	0xbdad4887	-0.08461099
127	0xbde8e9a4	-0.113726884
128	0xbd966e3f	-0.073452465
129	0x3dd11c95	0.1021053
130	0xbc502cef	-0.0127060255
131	0x3debe73d	0.115187146
132	0x3d4c2d3e	0.049847834
133	0xbd8a2281	-0.06744862
134	0xbdda9955	-0.10673777
135	0xbd23f4c5	-0.040028352
136	0xbd80e407	-0.06293493
137	0xbd1605ab	-0.0366265
138	0x3d5664c8	0.052342206
139	0xbdc015f8	-0.0937919
140	0x3e145302	0.1448479
141	0xbce7c5b4	-0.028292514
142	0x3c727a87	0.014799721
143	0x3e1232a0	0.14277124
144	0x3d371ae0	0.044703364
145	0x3d89de08	0.06731802
146	0xbd6cfed6	-0.057860218
147	0xbdc0448c	-0.09388074
148	0xbd7364f0	-0.059422433
149	0x3dd52ea2	0.10409285
150	0xbc113c9d	-0.008864549
151	0x3ca43dda	0.020049024
152	0xbdd1bf10	-0.102415204
153	0x3dbcd0fa	0.092195466
154	0xbafb30bd	-0.0019164305
155	0x3d147e45	0.036253233
156	0xbdc37dad	-0.09545455
157	0x3c6e35a3	0.014539155
158	0xbe21ea8f	-0.15812133
159	0x3e171f04	0.14757925
160	0xbdff13d9	-0.124549575
161	0x3d9a974e	0.0754839
162	0xbdc60db5	-0.09670583
163	0xbdfa38c6	-0.1221786
164	0x3de12f51	0.10995353
165	0xbd30330e	-0.04301744
166	0xbd95c0b4	-0.07312146
167	0xbd8aa76e	-0.06770216
168	0xbe1328d1	-0.14371039
169	0x3d6fd419	0.05855188
170	0xbdb83c64	-0.089958936
171	0xbdfc6e6a	-0.12325747
172	0x3d61ecfb	0.055157643
173	0x3dddbb4b	0.10826739
174	0xbd04dd70	-0.03243774
175	0xbba9301c	-0.005163206
176	0xbd1c88e2	-0.03821648
177	0x3e13f7ce	0.14449999
178	0xbd3df040	-0.0463717
179	0xbe0b0d48	-0.13579285
180	0xbccdbfd3	-0.025115883
181	0x3d8dfd1f	0.06933045
182	0x3ddd1e10	0.107967496
183	0xbbb01799	-0.005373907
184	0xbc75ba2e	-0.014998002
185	0x3de593ff	0.11209869
186	0x3d355f6d	0.04428046
187	0x3c5428b9	0.012949162
188	0xbe010326	-0.12598857
189	0xbdf7123a	-0.12064023
190	0xbdce1e70	-0.10064399
191	0xbdc6e7c7	-0.09712177
192	0x3ac0b214	0.0014701509
193	0x3e1a4c21	0.15068103
194	0x3cafdf2f	0.021468727
195	0x3df01817	0.11723345
196	0x3d15f718	0.0366126
197	0x3c71284e	0.014719082
198	0x3cb48055	0.02203385
199	0x3d7b051d	0.061284173
200	0x3db2dd6c	0.08733639
201	0xbd4040c0	-0.04693675
202	0x3d95ac35	0.073082365
203	0xbdbcd80f	-0.092208974
204	0xbd3186ae	-0.04334133
205	0x3d4e027a	0.05029533
206	0x3dba24fb	0.09089085
207	0xbcd63a9d	-0.026150996
208	0xbda394bc	-0.07987353
209	0x3cc1ecfd	0.023672575
210	0x3dc2f306	0.09519009
211	0xbe03a42a	-0.12855592
212	0xbcf270dc	-0.029594831
213	0xbd34b4a6	-0.044117592
214	0x3da0ede9	0.07857878
215	0x3cf3c6e1	0.029757919
216	0xbd85645e	-0.06513284
217	0x3df4fdde	0.11962484
218	0xbd911361	-0.07083774
219	0xbd8b99ad	-0.06816421
220	0xbd84b95b	-0.06480666
221	0xbda1102f	-0.07864415
222	0xbdbac847	-0.09120231
223	0x3e01aa02	0.12662509
224	0xbc9e90a0	-0.019356072
225	0x3dd403d6	0.10352294
226	0xbd2e62b7	-0.04257461
227	0x3dac4306	0.08411221
228	0xbdc35e4e	-0.095394716
229	0xbe20e2c5	-0.15711506
230	0xbdc9b05c	-0.09848091
231	0x3dcd810f	0.100343816
232	0xbd8a40f3	-0.06750669
233	0x3d8b04af	0.06788003
234	0xbcc173fb	-0.023614874
235	0xbda98af3	-0.082784556
236	0xbdbcf868	-0.09227067
237	0x3d68355d	0.056691516
238	0xbd8df5d1	-0.069316514
239	0xbcffc624	-0.03122241
240	0xbbed0baf	-0.007234059
241	0x3d887442	0.066627994
242	0xbdb14a14	-0.086567074
243	0xbcbc6d41	-0.023001315
244	0x3c7ff00f	0.015621199
245	0xbdcce785	-0.10005096
246	0x3d882ad9	0.066487975
247	0xbcb82620	-0.022479117
248	0xbddbb504	-0.10727885
249	0x3db75b29	0.08952934
250	0xbdc65422	-0.09684016
251	0xbe13ebdc	-0.14445442
252	0x3dac4fdb	0.08413669
253	0x3dfce276	0.123478815
254	0x3d43cf15	0.04780491
255	0xbaa8b075	-0.0012869971

lstm.bias_ih_l1 f4 [200]
0	0xbdb1cddd	-0.086818434
1	0xbe1fb665	-0.15596922
2	0x3b1610fe	0.0022898312
3	0x3df7d258	0.12100667
4	0xbc417923	-0.011808666
5	0x3d3bf1ce	0.0458849
6	0xbd11f8f4	-0.03563781
7	0xbc1f972f	-0.009740635
8	0xbca6ceef	-0.020362346
9	0x3e1e472f	0.15456842
10	0x3e227df6	0.15868363
11	0x3cd2e22c	0.025742613
12	0xbc952744	-0.0182072
13	0xbd5c4b71	-0.053782884
14	0x3c88230b	0.016618272
15	0xbd7a693b	-0.06113551
16	0xbdc19664	-0.09452513
17	0xbc660027	-0.014038122
18	0x3d72f78d	0.059318114
19	0xbd9224c2	-0.07135917
20	0x3d65db6d	0.056117464
21	0x3db6d208	0.08926779
22	0xbdd90982	-0.105975166
23	0x3d7f7bb9	0.06237385
24	0x3d88b56b	0.06675228
25	0xbd47cd52	-0.048779793
26	0xbc780537	-0.015137962
27	0xbd73db64	-0.0595354
28	0xbd784d52	-0.060620613
29	0xbca41521	-0.020029606
30	0x3e02e77e	0.1278362
31	0xbc18c9ea	-0.009325484
32	0xbca88b69	-0.020574288
33	0xbd4c1dd1	-0.049833123
34	0xbd606776	-0.054786168
35	0x3c4c6cac	0.012477081
36	0xbdd3df18	-0.10345286
37	0x3de29c76	0.11064999
38	0x3dbe3d92	0.09289087
39	0x3da6d7ad	0.08146606
40	0xbd547b7a	-0.05187557
41	0x3e0af695	0.13570626
42	0x3d001529	0.03127018
43	0x3bcb0849	0.006196056
44	0xbde436a1	-0.11143232
45	0x3dbe98a2	0.09306456
46	0x3d9b5ee8	0.07586461
47	0x3dcba76a	0.09944041
48	0x3ce76ece	0.028251078
49	0xbe030544	-0.12794977
50	0xbc62a3ed	-0.013833028
51	0x3dbe43c8	0.09290272
52	0x3a26220a	0.00063374697
53	0xbc6c2c09	-0.014414796
54	0x3d4cc9f0	0.04999727
55	0xbbb9d2bf	-0.005670875
56	0x3bf505b3	0.007477486
57	0xbccfebd3	-0.025381004
58	0x3debf3d9	0.115211196
59	0x3d606a63	0.05478896
60	0x3dae6769	0.08515818
61	0x3ce79f08	0.028274074
62	0xbde1d3f5	-0.11026756
63	0x3e100b08	0.14066708
64	0xbe085774	-0.1331461
65	0x3e0adf71	0.13561799
66	0x3daf0651	0.08546127
67	0x3cd1fc98	0.025633141
68	0x3d8b8d06	0.068140075
69	0x3d678ffc	0.0565338
70	0xbdadeeec	-0.08492836
71	0x3dc80ec2	0.0976844
72	0x3c45061f	0.012025385
73	0x3ddca8bb	0.1077437
74	0xbc4e3239	-0.012585216
75	0x3c6bd7e3	0.014394733
76	0xbc91b737	-0.017787559
77	0x3df49e0f	0.1194421
78	0x3dfbf5dc	0.12302753
79	0xbdc59b91	-0.096488126
80	0x3d90c41f	0.07068657
81	0xbdae859f	-0.0852158
82	0x3d84b181	0.06479169
83	0x3e06b9f1	0.13156869
84	0xbd6e794a	-0.05822114
85	0x3e036a4e	0.12833521
86	0x3dcda293	0.10040774
87	0xbd36fb25	-0.044673104
88	0x3b786df3	0.0037907332
89	0x3e0b4559	0.13600673
90	0xbc6cb6db	-0.014447893
91	0x3d9a517d	0.07535074
92	0x3dc0c68a	0.09412868
93	0x3d7806ed	0.06055348
94	0xbcb752fb	-0.022378435
95	0xbde746ab	-0.11292776
96	0xbd1da9e5	-0.038492102
97	0xbd8eed77	-0.069788866
98	0x3d38c3f7	0.04510876
99	0x3d1865e7	0.037206557
100	0x3e131c74	0.14366323
101	0xbdb96a26	-0.09053449
102	0xbda89453	-0.082314156
103	0x3d862eeb	0.06551918
104	0x3d745892	0.05965478
105	0x3c55b4c3	0.013043585
106	0x3bfae15b	0.007656259
107	0x3c2583fd	0.010102269
108	0x3dca686f	0.098832004
109	0x3e202f93	0.15643148
110	0xbcfd10db	-0.030891826
111	0xbbfa8ff9	-0.0076465574
112	0xbc801372	-0.015634272
113	0xbde6d847	-0.112717204
114	0x3c97b5d7	0.018519325
115	0xbc4d9ac5	-0.012549107
116	0xbc5d52b2	-0.013508486
117	0xbd1225aa	-0.03568045
118	0xbe1930cc	-0.14960021
119	0x3ca38f80	0.019965887
120	0x3d8f6afa	0.07002826
121	0xbd632483	-0.055454742
122	0xbd897ca2	-0.06713225
123	0xbcf4c15d	-0.029877359
124	0xbd6a4b1e	-0.057200544
125	0x3debff15	0.115232624
126	0xbd29cd4a	-0.041455545
127	0xbcd632d7	-0.02614729
128	0xbdd3ebe7	-0.10347729
129	0xbd85adba	-0.06527276
130	0x3c417508	0.011807688
131	0x3bb1d818	0.0054273717
132	0x3d766f9a	0.060165025
133	0x3d8db560	0.0691936
134	0x3d11fe30	0.035642803
135	0xbd37de10	-0.04488951
136	0x3e20b81c	0.15695232
137	0xba31df78	-0.00067853136
138	0xbdcfa1ca	-0.10138281
139	0xbcda8412	-0.026674304
140	0xbd077ef5	-0.03308006
141	0x3c6a7bbb	0.014311726
142	0x3d8fcc12	0.07021345
143	0x3d86aa38	0.065754354
144	0xbced98fb	-0.02900361
145	0xbd80e913	-0.062944554
146	0xbd57a8ca	-0.052651204
147	0xbdabc8b9	-0.08387894
148	0xbd43599a	-0.047692873
149	0xbdadfd7c	-0.08495614
150	0x3dd4b7dc	0.10386631
151	0x3c330f88	0.010928996
152	0x3d4575fc	0.04820822
153	0x3e0e9e3d	0.1392755
154	0x3d645c9a	0.055752374
155	0xbd505432	-0.050861545
156	0x3b5cb284	0.003367574
157	0x3da1bb2c	0.07897028
158	0x3c52e30e	0.012871517
159	0xbc98da1e	-0.018658694
160	0xbc4c23fe	-0.012459753
161	0x3c94cff3	0.018165564
162	0xbda36cfe	-0.07979773
163	0x3b9433a6	0.0045227585
164	0xbd86a3eb	-0.065742336
165	0x3d1201ca	0.035646237
166	0x3d610233	0.054933738
167	0xbcf7ba6c	-0.03024026
168	0x3d5d916b	0.05409376
169	0x3d83795c	0.06419632
170	0xbd2adf52	-0.04171688
171	0x3e0e1332	0.1387451
172	0x3d1c1097	0.03810176
173	0xbdac2fa8	-0.08407527
174	0xbd80a968	-0.06282312
175	0x3d888d05	0.06667522
176	0xbccee388	-0.02525498
177	0xbcf0dc62	-0.029401962
178	0x3d43abf9	0.047771428
179	0xbc090de6	-0.00836513
180	0x3e1bad3a	0.152028
181	0x3dc7852f	0.097422
182	0xbdadf148	-0.08493286
183	0x3e1b64af	0.15175126
184	0xbd1fd0f8	-0.039017648
185	0x3dbc2aa3	0.0918782
186	0x3dd24429	0.10266907
187	0x3dacebca	0.08443411
188	0xbd8e341f	-0.06943535
189	0xbd1b34ec	-0.037892267
190	0x3dd9c9b4	0.10634175
191	0xbd8ebc57	-0.06969517
192	0xbd4c1069	-0.049820337
193	0x3d833cb6	0.06408064
194	0x3cf7489a	0.030185986
195	0x3cbbbf8a	0.022918481
196	0xbbddd0bf	-0.0067692692
197	0x3c0f104b	0.008731912
198	0xbd97ca87	-0.07411676
199	0x3dbf98ce	0.09355317

lstm.bias_hh_l1 f4 [200]
0	0x3cdc19c7	0.02686776
1	0xbe0a3b3b	-0.13499157
2	0xbddd49df	-0.108051054
3	0x3e133c75	0.14378531
4	0x3d59fef9	0.053221676
5	0xbd9dd40a	-0.07706459
6	0xbdf031b2	-0.11728229
7	0x3d9b6dec	0.07589325
8	0x3dc0ed1e	0.094202265
9	0xbc79da5c	-0.015249815
10	0xbdcbacaa	-0.099450424
11	0x3df346ad	0.11878715
12	0xbdb0a2a4	-0.08624771
13	0x3e08c5d3	0.13356714
14	0xbd9dec39	-0.077110715
15	0x3dce854b	0.10084017
16	0x3dee1535	0.11625139
17	0x3bd4f161	0.006498501
18	0xbd37ad62	-0.044843085
19	0xbdcdb73d	-0.100447156
20	0xbd9f5038	-0.077789724
21	0x3e08cc4e	0.13359186
22	0x3c74508a	0.01491178
23	0xbdce77bc	-0.10081431
24	0x3db4198d	0.08793936
25	0xbd292042	-0.04129053
26	0xbcdba7d4	-0.026813425
27	0xbd8c93a2	-0.06864096
28	0x3dd3014e	0.10302983
29	0xbe10c606	-0.1413804
30	0x3dee91ad	0.11648879
31	0xbe0d13a3	-0.13777022
32	0x3e16cfcd	0.14727707
33	0xbc2e5532	-0.010640429
34	0x3d45d1a1	0.04829562
35	0xbd99671e	-0.07490371
36	0xbd303854	-0.04302247
37	0x3d4b5209	0.04963878
38	0x3c80a31a	0.015702773
39	0xbdc650f5	-0.0968341
40	0x3d7563b7	0.05990955
41	0x3d3d109c	0.046158418
42	0x3d5bbee0	0.05364883
43	0xbd57f52a	-0.05272404
44	0x3d92ce17	0.07168215
45	0x3d4467e3	0.047950637
46	0xbd87edb1	-0.06637133
47	0x3dd72926	0.10505895
48	0xbb9f5cd9	-0.004863363
49	0x3c83187f	0.016002892
50	0xbcabeab9	-0.020985948
51	0xbd02d972	-0.031945653
52	0xbd9ee881	-0.0775919
53	0x3d9c509d	0.07632563
54	0xbdb240ef	-0.08703791
55	0x3da5d47e	0.0809717
56	0x3d992787	0.07478242
57	0xbd9a5ea2	-0.07537581
58	0x3dc3f76d	0.09568677
59	0xbd58b155	-0.052903492
60	0x3dac5dd9	0.084163375
61	0x3dbc9655	0.09208361
62	0xbd0ec1f5	-0.03485294
63	0xbdee91cc	-0.11648902
64	0x3e000994	0.12503654
65	0x3c4f874f	0.012666537
66	0x3b749ce8	0.0037324969
67	0xbdb18a86	-0.086689994
68	0xbd84ade5	-0.0647848
69	0x3db60ab8	0.08888763
70	0x3c9f03a8	0.019410923
71	0x3da99aef	0.08281504
72	0x3e0362a4	0.12830597
73	0xbe02f612	-0.12789181
74	0xbe1ccab1	-0.15311696
75	0xbdc61070	-0.09671104
76	0x3d3913dc	0.045184955
77	0xbdebc1e9	-0.11511595
78	0xbd89335f	-0.066992514
79	0xbdbd3edf	-0.09240507
80	0x3e19b6d3	0.15011148
81	0xbd114044	-0.03546168
82	0x3d58a88b	0.05289511
83	0x3e11c929	0.14236893
84	0x3dd1b622	0.10239817
85	0xbd2f033c	-0.042727694
86	0xbd8861f2	-0.066593066
87	0x3d3a896e	0.04554122
88	0xbdaf80e5	-0.085695066
89	0x3d86ae93	0.06576266
90	0xbdf1fca7	-0.11815768
91	0xbd8022d1	-0.06256641
92	0xbe0275e9	-0.12740292
93	0x3d24456b	0.040105265
94	0xbd86e932	-0.06587447
95	0xbd788a60	-0.06067884
96	0xbdb49c68	-0.088188946
97	0x3cbffd25	0.023436138
98	0x3d4d7bc4	0.05016686
99	0x3da73e2a	0.08166154
100	0x3d6443cf	0.05572873
101	0xbd047b89	-0.032344375
102	0xbe06d5e4	-0.1316753
103	0x3e1190b2	0.14215353
104	0xbca6eafe	-0.020375725
105	0xbd9d3bbc	-0.07677409
106	0xbcacf0d6	-0.021110933
107	0x3de3bf67	0.111204915
108	0xbe220f00	-0.15826035
109	0x3defdbfd	0.11711881
110	0xbd803f72	-0.06262101
111	0xbc8ae98c	-0.016957067
112	0xbe129156	-0.14313254
113	0x3e0532ee	0.1300771
114	0x3d1e1657	0.038595524
115	0x3d9c0d63	0.07619741
116	0x3b92e0d6	0.004482369
117	0x3df078f5	0.11741821
118	0xbd819f57	-0.0632922
119	0x3dbd18da	0.09233256
120	0x3e1d2bd3	0.15348749
121	0xbe0de53a	-0.13856974
122	0x3cad4c3e	0.02115452
123	0x3dab6e2c	0.08370623
124	0xbdb1deb2	-0.08685054
125	0x3d55317d	0.05204915
126	0xbdd66f0b	-0.104703985
127	0xbccb3185	-0.024803886
128	0xbc818f77	-0.01581548
129	0xbddcb68e	-0.10777007
130	0xbdb13706	-0.08653073
131	0x3dec022f	0.11523854
132	0x3d950984	0.072772056
133	0xbdbcb727	-0.09214621
134	0x3dd9cd21	0.10634828
135	0xbe0881e8	-0.13330805
136	0x3d0f995f	0.035058375
137	0x3db42c5d	0.08797524
138	0xbd7cad0d	-0.06168847
139	0xbda14dce	-0.07876168
140	0x3d29ee51	0.04148704
141	0x3cfbde6a	0.030745704
142	0xbda9a8b4	-0.08284131
143	0xbd5e4597	-0.054265585
144	0xbd06afae	-0.032882385
145	0xbd928bd6	-0.07155578
146	0x3d9adb06	0.07561307
147	0xbe1be80b	-0.15225236
148	0xbd6cb264	-0.057787314
149	0xbdb04e9f	-0.08608746
150	0x3db54fe1	0.08853126
151	0xbdf41b2f	-0.11919247
152	0xbc8b3278	-0.016991839
153	0x3d65bb05	0.05608656
154	0xbd415f51	-0.04721004
155	0xbdc8fd40	-0.098139286
156	0x3d8aec0c	0.067833036
157	0x3e1550c9	0.14581598
158	0xbdf784ea	-0.12085898
159	0x3e2543f9	0.16139211
160	0xbdce40cd	-0.100709535
161	0x3e0455da	0.12923375
162	0xbdb7655a	-0.08954878
163	0x3db7cdf5	0.0897483
164	0x3c548327	0.012970722
165	0x3dc2a4fe	0.09504126
166	0x3d29420b	0.04132275
167	0x3cba48ae	0.022739735
168	0x3dd7e2ab	0.1054128
169	0x3c24d967	0.010061598
170	0x3e10945b	0.14119093
171	0x3ddbc796	0.10731427
172	0x3d0704e9	0.032963667
173	0xbcb646d9	-0.02225058
174	0xbd6e98ed	-0.05825131
175	0xbd9e6236	-0.07733576
176	0x3e0fe13e	0.14050767
177	0x3dd1ca06	0.10243611
178	0xbdbc459d	-0.09192965
179	0xbd89a0df	-0.06720137
180	0x3e1429e5	0.14469106
181	0xbd24f28e	-0.04027038
182	0x3db3650e	0.08759509
183	0xbdef0ff3	-0.11672964
184	0xbd4e485c	-0.050361976
185	0x3e179c47	0.14805709
186	0x3e14a008	0.14514172
187	0xbcf9d099	-0.030494975
188	0xbe05c530	-0.13063502
189	0x3db2e710	0.08735478
190	0xbcfa693f	-0.030567763
191	0x3e0fba96	0.1403602
192	0xbddcb5db	-0.10776874
193	0xbd83d963	-0.064379476
194	0xbc19354c	-0.009351086
195	0xbdc4dd4c	-0.096125215
196	0x3dfcdb6c	0.12346539
197	0x3dcf652e	0.1012672
198	0x3d99c598	0.07508391
199	0xbca4b9f6	-0.020108204

fc.weight f4 [1, 50]
0	0x3e09c645	0.1345454
1	0x3d5e3595	0.05425032
2	0xbda07532	-0.07834853
3	0x3dc2659e	0.09492038
4	0x3d679476	0.056538068
5	0xbd862a33	-0.065510176
6	0xbd74b27d	-0.059740532
7	0x3e229863	0.15878443
8	0xbdec6943	-0.115435146
9	0x3c1618e4	0.009161208
10	0xbc8ea2c3	-0.017411595
11	0x3dcc48e8	0.09974843
12	0x3d0c65bd	0.034276713
13	0x3cc26fb6	0.023734909
14	0xbdee7a77	-0.11644452
15	0x3b92e9c1	0.004483432
16	0xbdac68cd	-0.08418427
17	0xbd4692b1	-0.04847974
18	0xbc72121d	-0.014774826
19	0xbd921d3e	-0.07134484
20	0x3deb1e86	0.11480431
21	0x3c15b63b	0.009137685
22	0xbcd859bc	-0.026409976
23	0xbe076430	-0.13221812
24	0x3d3f4a49	0.046701703
25	0x3dae6fc3	0.085174106
26	0xbe126ded	-0.14299746
27	0x3d405778	0.046958417
28	0x3db59dca	0.088679865
29	0xbbe97bb4	-0.0071253423
30	0xbde1283d	-0.10994003
31	0xbdadf77a	-0.08494468
32	0x3c113fd4	0.0088653155
33	0xbd9c46db	-0.07630702
34	0xbdd68312	-0.104742184
35	0xbd5affe6	-0.0534667
36	0x3e23e0d3	0.16003732
37	0x3dffd016	0.12490861
38	0x3de3fbba	0.111319974
39	0xbd393be6	-0.04522314
40	0x3e00228b	0.12513177
41	0xbe117b13	-0.14207105
42	0xbe09fcc7	-0.13475333
43	0x3e24fb53	0.16111498
44	0x3de2c8b3	0.110734366
45	0xbdb98329	-0.0905822
46	0xbda83cda	-0.082147315
47	0xbde1c878	-0.110245645
48	0x3c84c798	0.016208455
49	0x3dddeef4	0.10836592
